Graph Neural Network/Models/AttentionLayers-10k T1.pth (torch, 214382 bytes, 12 tensors)

weight f4 [128, 128]
000000 9a f4 a7 3c 6f 15 76 bc aa 23 88 3c 62 3a 90 3c
       0.020502377 -0.015019759 0.016618568 0.017605964
000010 54 30 1f 3c 16 56 ce 3a 39 87 0c 3c f6 af 11 bd
       0.009716112 0.0015742208 0.0085771615 -0.0355682
000020 ed f4 f9 3b d1 b1 12 bb 74 52 03 bd 17 19 53 3c
       0.0076280744 -0.002238382 -0.032061055 0.0128844
000030 8e 40 af 37 42 8f 74 3c f5 61 41 3c c6 09 38 bc
       2.0891686e-05 0.014926733 0.01180314 -0.011232799
000040 b8 34 9d bc a5 8b ba 3c 98 e4 af bb 8f a8 23 bd
       -0.019190177 0.022771666 -0.0053678267 -0.039955672
000050 1c e2 a3 3c 8d e1 a0 b9 d6 1c 0c bc fe fe cd 3b
       0.020005278 -0.00030685627 -0.008551797 0.006286501
000060 f6 2a 90 b7 6c 13 60 3c cf 4e 52 3b 41 24 44 bc
       -1.7186143e-05 0.013676506 0.003209043 -0.011971534
000070 fe 4d 99 bc 8b db 8c bb b0 31 02 3c 27 1e 07 bd
       -0.018713947 -0.0042986325 0.007946417 -0.03298774
000080 c3 c2 3d bd ab cc 81 bc af a7 b8 3c d9 d2 fa bc
       -0.046328317 -0.015844664 0.022540895 -0.030618118
000090 8f 09 fd 3c 2f 89 bb bc a1 0b ca bc 54 e2 8d 3c
       0.030888347 -0.022892563 -0.024663748 0.017319836
0000a0 9e a9 f5 3c 81 80 c0 3c 36 ec 34 bc 2a a6 52 bb
       0.029988106 0.023498775 -0.011042645 -0.0032142499
0000b0 b3 7e aa 3c 83 96 65 3c c3 be ff bc 1d 4f 4d 3c
       0.020812368 0.014012936 -0.031218892 0.012531069
0000c0 11 d2 9b 3c e7 6a dc 3c 16 69 2d bd b0 f7 b8 3b
       0.019021066 0.026906444 -0.042336546 0.005644761
0000d0 54 30 bd bc e3 36 20 bc 07 80 1d 3b 55 7f 09 3d
       -0.023094334 -0.009778711 0.002403261 0.0335687
0000e0 97 7c 57 3c 1d 80 01 bd 3b 38 2f bc 05 a8 ca bb
       0.013152263 -0.03161632 -0.010694559 -0.0061845803
0000f0 51 eb fb 3a c9 30 2e bc 15 e9 55 bc 87 a5 88 3c
       0.001921991 -0.0106317485 -0.013056059 0.016680492
000100 f0 0b 09 bd a4 91 c8 bb 46 6e e0 bc d9 b8 46 bc
       -0.03345865 -0.0061208773 -0.027396332 -0.012129032
000110 e2 be bc bb 4f e2 0d 3c 9a 5d 10 3a 2a 08 24 bd
       -0.0057600597 0.008659913 0.0005507112 -0.04004685
000120 66 50 3a 3a 74 a4 a2 bc 98 b4 ff bb 94 0b d9 bc
       0.0007107317 -0.019853808 -0.007803511 -0.026494779
000130 5b 68 8a 3c 8a 3f bf bb 99 fd 98 bc 87 7d 0a bd
       0.016895464 -0.005836432 -0.018675612 -0.03381112
000140 41 95 22 bd 0a 20 6e bb 2d 63 3b 3b 60 4e ab 3b
       -0.03969312 -0.0036335015 0.002859305 0.005227849
000150 7a b9 33 bb fe 26 8a bc 02 35 d7 3c 37 e5 64 3c
       -0.0027423785 -0.016864296 0.026270393 0.013970665
000160 df c6 14 3d a1 20 86 3b ec 20 2c 3c 13 7c 30 3c
       0.03632247 0.004093245 0.010505896 0.010771769
000170 63 a5 6c ba 92 8d 84 bc c7 b9 a2 bc 66 12 1f bd
       -0.000902733 -0.016180787 -0.019863976 -0.038835905
000180 84 8f cd 3c 94 35 9b 3c 40 55 22 3c 68 0d fd 3c
       0.025092848 0.018946446 0.0099080205 0.030890182
000190 95 82 a7 bc 86 13 9b 3c 7e 8a 01 bc 5a 45 f9 3a
       -0.020448009 0.018930208 -0.007906554 0.0019017861
0001a0 33 5d 74 3c d8 e8 b1 bb d0 c1 9f bc 26 37 9e bc
       0.014914799 -0.0054293685 -0.019501597 -0.019313406
0001b0 6f d5 aa bc de 59 8a 3c 75 b6 02 3d 68 87 6d 3c
       -0.020853726 0.016888555 0.031912286 0.014497615
0001c0 ad 31 83 3c 14 ce d7 3c 3d 6f 17 3c 12 8a 43 bc
       0.016014898 0.026343383 0.00924283 -0.011934774
0001d0 f7 90 78 3c 07 cb fe 3c 4b c5 23 bc 76 e7 08 3d
       0.015171281 0.03110267 -0.009995769 0.033423863
0001e0 dc 55 b4 3b e4 2e 92 bb 8f 17 16 3d da a9 36 bc
       0.0055033993 -0.004461156 0.03664356 -0.011148894
0001f0 dc 52 00 bd c8 5e 41 ba 67 43 d1 bb 61 55 cc bb
       -0.03132902 -0.0007376489 -0.006386209 -0.006235764
000200 7d f2 8a bc f5 77 fd 3d f4 ed 8a bd 11 ae b4 bd
       -0.01696133 0.123763956 -0.06783667 -0.08822263
000210 54 71 b6 bd 4e b3 8b bd fe 6d 62 be b4 16 ba bd
       -0.089083344 -0.06821309 -0.22112271 -0.090863615
000220 6b 92 44 be d7 6e 24 3d 9d 63 03 be 32 12 b6 3d
       -0.19196479 0.040144768 -0.12830968 0.08890189
000230 c6 9d 52 be c1 34 46 be 73 cb d3 3d 30 7c e7 bd
       -0.20567998 -0.19356062 0.10341539 -0.11302984
000240 9b e8 d1 bd 61 7b 54 be 11 07 3a bd fd 11 79 bd
       -0.10249444 -0.2075019 -0.045416895 -0.06080817
000250 89 ab 0a be fd 0b d2 bd 1b a7 5d 3d 0f f9 9c bd
       -0.13541998 -0.10256193 0.054114442 -0.07664692
000260 59 04 dc bd 7c 41 24 be f6 fd 52 be 62 d7 1f be
       -0.10743017 -0.16040605 -0.20604691 -0.15609506
000270 12 1a f9 3b ba 66 7b bd cd 0e 9f 3d f2 d7 23 be
       0.007601985 -0.061377265 0.07766495 -0.16000345
000280 2a 86 f6 3d c5 67 ab be e7 67 20 bd 18 c7 8b be
       0.120373085 -0.33477607 -0.03916159 -0.27300334
000290 e3 a4 b1 3d 37 16 4f be 11 7a 9e bd 9d bd 5a be
       0.08674028 -0.20223318 -0.07738126 -0.21361394
0002a0 4f f7 5f be 59 2f 03 be 7b d4 9c bd 3f f5 04 3e
       -0.21871684 -0.1281103 -0.07657715 0.12984179
0002b0 f1 a9 08 be 67 b1 66 be fe 35 33 3e 87 16 c7 3d
       -0.13346078 -0.22528611 0.17501065 0.097210936
0002c0 b5 e0 6d 3d fe 4e 38 bd 37 be b1 bd e2 1f cc bd
       0.058075625 -0.044997208 -0.08678859 -0.09967019
0002d0 64 ca 26 be f7 69 5e 3d 63 45 3f bd 89 75 0d bc
       -0.16288143 0.054300275 -0.04669703 -0.00863398
0002e0 01 db 5d be ad 03 26 3d 5c 19 fb bd c1 e0 c0 3d
       -0.21665575 0.04053085 -0.12260696 0.094178684
0002f0 c0 b6 90 be 7d aa 2c be b5 ac ae bd c1 a1 6d be
       -0.28264427 -0.16861911 -0.08529035 -0.23206235
000300 00 82 ad be 95 87 9b 3d 47 bf 29 bd 7d 12 af bb
       -0.33888245 0.075942196 -0.041442182 -0.00534278
000310 1d 6f 05 bd 50 81 62 bd b5 a8 8f 3e e4 6f 4d be
       -0.03257667 -0.055299103 0.280584 -0.20062214
000320 b7 82 ca 3c be 3f ce 3c 31 3d 01 3e 36 d8 e0 bd
       0.024720533 0.025176879 0.12620999 -0.10978739
000330 44 6d 0c 3e 46 15 a3 3c d7 48 d2 3d f3 8d 55 be
       0.13713557 0.019907605 0.10267799 -0.2085493
000340 f0 8e a0 bd 15 ec d4 3d 39 a0 1f be fe 71 18 be
       -0.07839763 0.103965916 -0.15588464 -0.14887235
000350 69 24 82 3b 00 a6 42 be 5e cd 1d 3d 70 27 6c bd
       0.0039716256 -0.19008636 0.03852593 -0.057654798
000360 e7 c3 4d be 37 07 8b bd d9 99 85 bc 1f 49 f8 bd
       -0.20094262 -0.067884855 -0.016308712 -0.12123322
000370 54 ca 21 3e e4 04 c4 bc fd 57 df bd ac 97 8c 3c
       0.15799838 -0.023928113 -0.10905454 0.017162167
000380 24 75 3f be cd b5 ac bd 34 3b 38 be 40 5b 8f bd
       -0.1869703 -0.08433113 -0.17991334 -0.069998264
000390 7a 26 b5 bd 4c 7b 51 be 8f 10 3a bd 44 50 17 bd
       -0.088452294 -0.2045719 -0.045425948 -0.03694178
0003a0 fb 14 b8 bd f0 b2 8a bd 0b 23 23 be 70 c9 89 be
       -0.08988377 -0.06772411 -0.15931337 -0.26911497
0003b0 3c c5 22 be 0f 09 d1 3d 2c 5c a3 bb 2f 2f 84 b9
       -0.15895551 0.10206806 -0.004985353 -0.00025212156
0003c0 ef a9 47 be e7 62 7f 3d ed e8 c5 bd 79 4b 82 3e
       -0.19498418 0.06235018 -0.09663568 0.25448206
0003d0 38 78 5a be f0 f7 98 be de ed 15 be 85 6a b7 3d
       -0.21334922 -0.2987666 -0.1464152 0.08955864
0003e0 19 8d 69 3d fa f8 ae bd 4e 53 f8 3d 69 ce 5a 3c
       0.057019327 -0.08543582 0.12125264 0.013354876
0003f0 07 63 ef bd 0d 94 03 bd 7c bd 80 be 74 2d 58 3d
       -0.1168881 -0.032123614 -0.25144565 0.052777722

bias f4 [128]
000000 5b ac 13 bd db 22 37 bd e8 69 7c 3e 2a 70 2f bd
       -0.036053043 -0.044710975 0.24649775 -0.042831577
000010 6a f4 12 3e 5a 8e cb bd e5 69 1c bd 05 f1 9c 3d
       0.14351049 -0.09939261 -0.038186926 0.07663158
000020 6e ba 91 3b 1a b5 25 bd 5c 6d 06 3e 75 eb 64 bd
       0.004447273 -0.040455915 0.13127655 -0.05588861
000030 b2 fe 26 3e f7 a8 82 3d 6d 2f 01 bd a6 f9 16 bd
       0.16308096 0.06379884 -0.03153937 -0.036859177
000040 78 0a b4 bd 98 17 47 bd 18 88 ce bd 02 86 6c bd
       -0.08791059 -0.048606485 -0.100845516 -0.057744987
000050 7e ca 5f bd 2f 16 7a bc 9e e7 ff bc 74 51 b7 bd
       -0.05463647 -0.015264078 -0.031238373 -0.08951083
000060 af 48 38 bd b2 2f c6 bd 1f be 30 bd 63 ae d1 bd
       -0.04499119 -0.09677066 -0.043150064 -0.1023834
000070 e2 e0 d8 bc ab 7c 47 bd 62 f3 e4 bd 3e 7e 37 bd
       -0.02647442 -0.048702877 -0.11179234 -0.04479813
000080 4e ba 0f 3d af b2 a1 bd 2e 83 a1 be 02 8e f4 bd
       0.035089783 -0.07895409 -0.31545395 -0.11941148
000090 13 73 a2 bd 8d d7 d7 bd 97 d2 03 bd 8f 7a 24 bd
       -0.07932105 -0.1053916 -0.032183256 -0.040155943
0000a0 a3 03 ba bc c2 6f 22 bd 88 9d 28 bd 2c ed 14 be
       -0.022706812 -0.03965736 -0.04116586 -0.14543599
0000b0 02 74 21 be ca 99 1d bd c0 df 2c bd 69 0f 44 be
       -0.1576691 -0.038476743 -0.042205572 -0.19146504
0000c0 cb d0 0e 3e cc b1 d6 bd 7c dc 83 bd de 27 02 3f
       0.13946836 -0.10483131 -0.064385384 0.5084208
0000d0 2e 07 48 bd 0f 21 30 bd 0f 47 53 bd af 2c df bc
       -0.048834972 -0.043000277 -0.05158144 -0.027242986
0000e0 08 b0 00 bd 89 16 0e 3d db 95 22 bd 47 5a a3 3e
       -0.031417876 0.03468946 -0.039693695 0.31904814
0000f0 44 0e 72 3e 59 64 8c bd d2 07 35 bd 15 8f 81 bd
       0.23638254 -0.06855077 -0.04419691 -0.06326119
000100 7a 79 fc bc 4e 98 fb bd d9 99 bb bc 5b 1c e3 3e
       -0.030819643 -0.12284909 -0.022900509 0.4435757
000110 30 6d 47 bd 99 7d f5 bd 84 40 1f be f8 b6 0d be
       -0.048688114 -0.119868465 -0.15551955 -0.13839328
000120 bc c9 e8 3d ae e4 01 bd 46 2d 19 bd a2 86 4c bd
       0.11366603 -0.031712227 -0.03739669 -0.049933083
000130 22 b2 d9 bc fe 5d 1a bd 84 de cd bc a3 88 0c bc
       -0.026574198 -0.037687294 -0.025130518 -0.008577499
000140 5b 7c a5 bd 8f 0d 12 bd ec a3 69 bd da 8c ee bc
       -0.080803595 -0.03565746 -0.057041094 -0.029119898
000150 dd a3 a4 be d1 28 3b bd d3 ae 6c 3d 80 ce 62 3e
       -0.32156268 -0.045693222 0.057783913 0.22149086
000160 05 80 22 bd 21 8c a2 3e cb be 20 bd ed 5e 38 3a
       -0.03967287 0.31747535 -0.039244454 0.0007033188
000170 5d 76 29 be 25 d3 d2 3c 6d 45 77 bd ce 24 2b bd
       -0.16549058 0.025735447 -0.060368944 -0.041783147
000180 e1 ad 36 bd 29 4f f9 bd 83 78 17 3f 9f 50 e1 bd
       -0.044599418 -0.12173302 0.5916826 -0.110017054
000190 fe e2 80 bd 9a 90 46 be 23 5d 77 bb 4c f9 1f be
       -0.06293295 -0.19391099 -0.0037744723 -0.15622443
0001a0 2b 49 86 bd 9b ff 42 bd 68 2a 21 be d1 49 86 bd
       -0.065569244 -0.047607046 -0.15738833 -0.06557048
0001b0 a6 3c 07 be 79 e7 96 3e 9d 91 c4 bd 05 c6 89 bc
       -0.1320673 0.29473475 -0.09598086 -0.016818056
0001c0 03 94 33 3e 53 50 14 3d 7e 82 12 bd da 35 1f bd
       0.1753693 0.036209416 -0.03576898 -0.038869716
0001d0 09 36 67 be 75 f3 d7 bd d7 f7 13 bd 1c df f6 bc
       -0.22579207 -0.105444826 -0.03612503 -0.030135684
0001e0 c3 e4 04 bd 9f b1 82 be 8f 2b 3b bd c1 9e fc bc
       -0.032444727 -0.2552614 -0.045695838 -0.030837419
0001f0 48 e1 cf bd 58 fc a5 bc c0 56 cf bc 1b 43 ac bd
       -0.10150391 -0.020261928 -0.02530992 -0.08411237

weight f4 [128, 128]
000000 68 fa d9 bd e4 44 86 bd 73 37 ef bb 37 ae 1a bd
       -0.10643464 -0.065561086 -0.0073003112 -0.0377638
000010 27 fa 23 bc 05 a1 7b bb 8b 9d cc bd 8c 8b 87 bd
       -0.010008371 -0.0038395536 -0.099909864 -0.06618413
000020 09 da 3e bc a8 af 2d bc 7d a4 0b be 87 48 c9 bd
       -0.011648663 -0.010600962 -0.13636966 -0.098282866
000030 b6 8c c3 bc 5b 88 66 bd 0a cc 41 bc c6 6e 04 bd
       -0.023870807 -0.056282382 -0.011828432 -0.032332204
000040 12 64 83 bd cc fb 0f 3a 89 a9 39 bd 7e ec 2c bc
       -0.06415571 0.0005492538 -0.045327697 -0.010554431
000050 51 fc 18 bc 4c 22 69 bc 6d 94 38 bd 99 71 1b bc
       -0.009337501 -0.014229368 -0.045063425 -0.009487533
000060 5a 3c 54 bd af 44 c7 bd 23 ad f7 bc 8f 08 3b bd
       -0.05181537 -0.09729897 -0.030233925 -0.04566246
000070 e8 e5 aa 3b 37 55 3f bd 1f 6b 20 bc fc b1 d7 ba
       0.0052153952 -0.046712127 -0.009791165 -0.0016456242
000080 ff 44 c7 bd bd 4f 4c bd 4f b5 a1 bd 80 22 05 bd
       -0.09729957 -0.04988073 -0.0789591 -0.032503605
000090 1d 70 30 bc 50 98 1b bd 94 3c 3a 3c bb 4f af bd
       -0.010768917 -0.037987053 0.011366982 -0.08560129
0000a0 52 79 40 bd 1d d8 ea bc dc 95 b9 bc f9 82 08 bd
       -0.0469907 -0.028667504 -0.022654466 -0.03332803
0000b0 e8 98 2f bc f0 0c b5 bd ce b2 fd bc 59 eb d6 bc
       -0.010717608 -0.08840358 -0.03096905 -0.02623527
0000c0 e2 b0 9f bd e1 5a 85 bd e3 29 9e bd 88 48 e2 bd
       -0.077974096 -0.065114744 -0.07722833 -0.110489905
0000d0 70 45 dd bd 6f 43 a8 bd 2d 33 ac bc 45 30 a8 bc
       -0.1080426 -0.08215987 -0.021020496 -0.02053083
0000e0 b7 b6 b5 bd 46 0a 83 bd 20 00 83 bd eb e3 10 bb
       -0.08872741 -0.06398444 -0.06396508 -0.0022108506
0000f0 ca 4d 40 bc 66 d7 c6 bc 08 56 aa bc c1 d0 16 bd
       -0.011737296 -0.024272632 -0.020792976 -0.036820177
000100 7b 2f 17 bc 93 92 49 bd 83 1a 02 bc 29 a6 b2 bc
       -0.009227629 -0.04921205 -0.007940891 -0.021807747
000110 e3 b7 8b bd ea d0 26 3c 79 e3 01 be 39 c8 a6 bc
       -0.06822183 0.010181645 -0.1268443 -0.020359145
000120 c1 4e 67 bd ec 6d 0c bc a4 11 28 bd ec be 7f ba
       -0.05647159 -0.008571129 -0.04103245 -0.00097559276
000130 0f f1 33 bd 77 06 96 bd 0b b4 a8 bd ac 31 f2 bc
       -0.043931063 -0.07325452 -0.082374655 -0.029564701
000140 07 a2 f6 bc 4e 33 42 3b a1 99 8c 3b ba f1 18 bc
       -0.030106558 0.002963263 0.004290775 -0.009334976
000150 6e c8 a4 bc a5 5a 00 be 19 e2 09 bc 91 28 dc bc
       -0.020115104 -0.12534578 -0.008415722 -0.026874812
000160 c2 53 2e bb 92 4b 11 b8 50 3e cb bd ca 55 ee ba
       -0.0026600217 -3.4641074e-05 -0.099239945 -0.0018183526
000170 5e 51 9e bb 2c b5 13 bd 55 ee 30 bd 08 d2 93 bd
       -0.004831477 -0.03606145 -0.04319604 -0.07217795
000180 f2 67 8c bd e2 69 ca bc 47 7c a5 ba a0 11 30 bd
       -0.068557635 -0.024708692 -0.0012625539 -0.04298556
000190 d2 e1 80 3b 6f 3a b4 bd 68 53 e3 bc 0a 51 be bc
       0.00393317 -0.08800208 -0.027749732 -0.023232002
0001a0 4e 54 47 bd 7d 24 df bc ea 4a 8e bd 17 44 9a bd
       -0.048664384 -0.027239079 -0.069478825 -0.07532518
0001b0 7f 16 f1 bc 6e 63 a4 bd 97 5e 59 bd 20 d4 3a bd
       -0.029429672 -0.08026777 -0.053068724 -0.045612454
0001c0 01 6b 3f 3b 7c 33 96 bd 48 14 0a bd 75 80 ab bc
       0.0029208066 -0.073340386 -0.033710748 -0.020935277
0001d0 83 1c c0 bd 5e 8b bd bd 5f 4a a8 bb 6b 05 5e bd
       -0.09380438 -0.09255098 -0.005135819 -0.054204386
0001e0 43 fa 6f bd 2b a9 5d bc bd 18 96 bd 2c 4d 89 bb
       -0.058588278 -0.013529102 -0.07328937 -0.004190108
0001f0 57 0b 83 bd 59 87 ba 3b 00 66 94 bc 6e 6f a8 bd
       -0.06398647 0.005692404 -0.018115044 -0.082243785
000200 92 6c 08 3e b7 fe 20 3c 8a ff d7 be 6b 4f 24 3e
       0.13322666 0.009826354 -0.42187148 0.1604592
000210 94 2d 5d be ab 52 69 be 30 f5 9d be 32 9b 5d 3e
       -0.21599418 -0.22785442 -0.30851126 0.21641234
000220 aa 11 e2 3d 6e ed 75 be 03 da 2d 3c a6 42 e8 3d
       0.110385254 -0.24016353 0.01061106 0.11340837
000230 6b 56 0d bd 00 cb a4 bd 49 45 98 be 88 8d 87 bb
       -0.034506243 -0.08046532 -0.2974036 -0.004136745
000240 73 7c 88 be 4d f5 6d 3e 23 47 c6 3d fa 7d 8d be
       -0.26657447 0.23238106 0.09681537 -0.27635175
000250 23 8f 7a bd 2a cb 8f bd 53 e1 ae 3c 78 86 f6 3d
       -0.061171662 -0.07021172 0.021347677 0.12037367
000260 59 6f 40 bc bb 19 88 be 3e 41 3d 3d f7 a1 a4 bd
       -0.011745297 -0.2658213 0.046204798 -0.08038705
000270 f9 34 4d be bf ff dc 3d aa 26 ec 3d 21 f4 00 3e
       -0.20039739 0.10790967 0.11530812 0.12593128
000280 57 49 da be 8b 2f a6 3d 7f 5f 81 3e 04 5a 62 3e
       -0.4263408 0.08114537 0.2526817 0.2210465
000290 01 a7 45 be 9c d1 ce 3c e3 5e d8 bd 71 e6 78 be
       -0.19301988 0.025246434 -0.10564973 -0.24306656
0002a0 8f 30 7c be fb 91 27 bd 08 fa 04 bd c9 a9 d5 3c
       -0.24627899 -0.040910702 -0.03246501 0.026081936
0002b0 65 ba 23 3c 8e cf 8e be 66 23 d9 3e fa 00 9d 3c
       0.00999317 -0.27892727 0.4240982 0.019165505
0002c0 71 4f 54 be a2 b6 39 3e fa 49 40 3e f9 33 7b be
       -0.2073343 0.18136075 0.1877822 -0.24531545
0002d0 9d fc 7b 3c 24 31 8f bd b9 03 29 be 35 78 5f be
       0.015380052 -0.06991795 -0.16505326 -0.21823199
0002e0 96 46 1b 3e e5 85 fe bd ff 4c 46 3e 20 b5 07 bd
       0.15163645 -0.12427882 0.19365309 -0.03313172
0002f0 b6 da 92 bd 47 f3 68 3e 65 0f 63 3e 0a 31 0b 3e
       -0.07170622 0.22749053 0.22173841 0.13592926
000300 20 09 a6 be 1e 91 4f bd 0a dd 00 be 8e cb 21 bd
       -0.32428837 -0.050675504 -0.1258432 -0.039500766
000310 e7 8d 8e bd db 31 51 3d 5c 6f c0 be c2 2d 8b be
       -0.069606595 0.051072937 -0.3758496 -0.27183348
000320 40 56 b0 bd a3 a5 df bd dc 96 8c be fb 17 3d 3e
       -0.08610201 -0.109202646 -0.27458847 0.18466179
000330 e5 e4 24 bc 26 fa 08 be 6f a0 e2 bc 23 dd 13 be
       -0.010064338 -0.13376674 -0.027664391 -0.14439826
000340 1f 75 b8 bd 04 83 1c 3e dd c8 c9 be fd c4 a3 3d
       -0.09006714 0.15284353 -0.3941106 0.07996557
000350 32 d8 99 3d eb 49 22 be 3c 0f 98 be 9b b6 0c 3d
       0.07511939 -0.1584851 -0.29699123 0.034353834
000360 ae ab a7 bd 17 05 b1 3d d1 f8 a7 bc 79 fa 7a bd
       -0.08187042 0.08643549 -0.020504387 -0.061274026
000370 0f c2 f8 be cc ce b9 be c4 b5 ed be 5f 1a a7 bd
       -0.48585555 -0.36290586 -0.4642774 -0.08159327
000380 45 22 b9 bd 75 92 3e bd 8a 10 a9 bc 4f 43 95 bd
       -0.090397395 -0.04652639 -0.02063777 -0.07288229
000390 bc 62 0d be a4 f2 6e 3d 8d 9c 5b 3e ae 2e e3 3d
       -0.13807195 0.05833687 0.21446438 0.11092888
0003a0 ac 2e b0 3d fa f8 8a be 43 d7 a1 3c 6a 07 16 bd
       0.08602652 -0.2714308 0.019755965 -0.036628164
0003b0 17 f4 18 be 6f 03 2a 3e 1f a6 81 3d 1d ec 05 3d
       -0.14936863 0.16602872 0.06330513 0.03269588
0003c0 71 3a 7c 3e 7a c0 68 be 97 81 12 3d a9 c9 8b 3e
       0.24631669 -0.22729674 0.035768118 0.27302292
0003d0 28 4c ca 3d 47 ad b9 3d 26 94 e0 be 90 78 26 bf
       0.09877807 0.09066253 -0.43863028 -0.65027714
0003e0 89 cd ad 3e aa 1f 87 bd 5b 49 a0 be 88 54 9d be
       0.33945873 -0.06597836 -0.31305966 -0.30728555
0003f0 01 11 36 be b6 ce 04 3e b1 58 14 3e 2a f0 e7 3c
       -0.17779924 0.12969479 0.14486958 0.028312761

att_src f4 [1, 8, 8]
000000 6d f4 b0 be fa 6e 2e bf 22 31 cd be 26 4c 5a 3f
       -0.34561482 -0.68138087 -0.40076548 0.85272443
000010 bf a6 64 be b0 59 0d 3e b6 f0 1a bf 41 86 a3 3e
       -0.22329234 0.13803744 -0.60523546 0.31938365
000020 59 9f 5d bf c1 55 d3 bd 66 1c dd bb 80 aa 86 be
       -0.8657127 -0.10319091 -0.00674777 -0.26301956
000030 6c f9 14 3f 25 50 b7 3c e7 22 70 be d4 ed 1c bf
       0.5819309 0.022377083 -0.23450814 -0.61300397
000040 1c 54 4f 3c ab 84 de 3e f6 a2 db 3c 4a dc bd 3c
       0.012654331 0.43460593 0.026811104 0.023176331
000050 b1 49 29 3f 49 6e ed 3e 0e 65 77 3f 05 81 ca 3e
       0.6612807 0.46373203 0.9663857 0.3955156
000060 5c 64 d1 3e ff 82 0f be fa 7b ac 3d 3a 97 de be
       0.4089688 -0.14014815 0.08422084 -0.43474752
000070 34 15 b3 be 5c a3 1c bf 6d cd 77 be a0 1d 72 3e
       -0.34977114 -0.61186767 -0.24199457 0.23644114
000080 54 dd b5 3d b1 05 51 3f 31 95 44 3e 7d 7b 51 bd
       0.088801056 0.8164931 0.19197537 -0.05114316
000090 e5 e8 1b be 01 49 1c 3e a3 05 37 bf 4c 75 84 3e
       -0.15225561 0.15262224 -0.71492976 0.2587074
0000a0 4b 4d 5a be 07 a2 b8 bd 14 93 2c bf e8 fc f4 be
       -0.21318547 -0.09015279 -0.67411923 -0.47849202
0000b0 be d4 eb be b0 96 49 3e 5e fc dd be 25 5c 8d bd
       -0.46060747 0.19686389 -0.43356603 -0.06902341
0000c0 22 00 c8 3e d5 68 2d 3e 98 bc 04 bd fa da 0a bc
       0.390626 0.16934521 -0.03240642 -0.00847506
0000d0 71 3a 69 bf 94 41 31 bf 85 c7 41 3f 36 76 ef be
       -0.911048 -0.6924069 0.7569507 -0.46769875
0000e0 11 98 ef be 8d 88 d2 be e8 00 a3 be a3 70 bd 3e
       -0.46795705 -0.41119805 -0.3183663 0.36999997
0000f0 92 af 36 3f 57 76 18 3f ad 25 5a bf 0b 92 3d 3e
       0.7136165 0.5955557 -0.8521374 0.18512742

att_dst f4 [1, 8, 8]
000000 b7 33 8e be 27 75 06 3d 80 55 2d 3f b8 22 98 3c
       -0.2777383 0.03282657 0.6770859 0.018571243
000010 c9 6a f9 be c4 93 ce be 58 df 67 be e3 ad f7 bc
       -0.48714283 -0.4034711 -0.22643793 -0.030234283
000020 20 d3 89 3e d0 ee 81 be ab c6 5e be 4b 1e 86 3e
       0.26918888 -0.25377512 -0.21755473 0.26194987
000030 f1 28 6f be 46 ed a8 bd 60 d4 79 3c 13 e4 b2 be
       -0.23355462 -0.08248381 0.015248388 -0.34939632
000040 03 3b 6d be 92 e9 2d bd 8c 95 81 bd 83 c3 05 bf
       -0.23167042 -0.042459078 -0.06327352 -0.5225145
000050 dc 60 d7 3e e7 c5 97 be 43 92 be 3e d7 34 52 be
       0.42066085 -0.29643175 0.37220964 -0.2052797
000060 0d 2a 9f 3e 27 3e 70 3d fe 9d e5 3d 45 e2 65 3e
       0.3108677 0.058653023 0.11211775 0.22449596
000070 05 b6 37 be 07 21 c2 be c2 c3 8c bd 06 1e b7 3e
       -0.17940529 -0.37915823 -0.06873275 0.35765094
000080 f5 cf fc bd 0c 6c 41 be 41 cd 5e be e6 47 13 be
       -0.12344352 -0.18888873 -0.21757986 -0.14382896
000090 91 4f 1c be 96 8f 47 be 38 22 d4 bd 74 ba 8a be
       -0.15264727 -0.19488367 -0.10358089 -0.27095377
0000a0 1c ca 5d 3d fc db 28 be be ec 3c be c8 50 aa 3e
       0.054147825 -0.16490167 -0.18449685 0.33264756
0000b0 26 54 2a 3e 75 dd f5 3b 7f 14 08 bd 18 39 f9 3d
       0.16633663 0.0075032064 -0.03322267 0.12169093
0000c0 86 8d 8d 3d d2 7e 00 3f 33 0e 03 3f cf cc 8f 3e
       0.06911759 0.5019351 0.5119354 0.28085944
0000d0 e7 40 f3 bc 83 23 7b bd a1 8c c9 3e 31 5e 02 3e
       -0.029694034 -0.061313163 0.39365104 0.12731244
0000e0 a5 17 85 3e c5 fb 32 3e 32 8d 23 3f 7a 32 a4 3e
       0.25994602 0.17478855 0.6388732 0.3206976
0000f0 6d cd 4e 3d c5 49 56 be c2 b6 4c 3f 47 13 33 3e
       0.050488878 -0.20926578 0.79966366 0.17487822

bias f4 [64]
000000 79 dc 21 3d d6 df 95 be 35 91 51 3e 52 d5 d4 3d
       0.0395169 -0.29272336 0.20465548 0.1039225
000010 07 8d a1 3e bc a5 48 3e 7d 8a 33 be 7d 4b dc 3e
       0.31552908 0.19594473 -0.17533298 0.43026343
000020 43 f1 78 bd fe d8 bc be 00 8a 7b 3e 83 a2 94 bc
       -0.06077696 -0.36884302 0.24564362 -0.018143898
000030 d4 21 73 be 1d 51 12 bd b8 ec 8c 3d 27 8f 39 be
       -0.23743373 -0.035721887 0.06881088 -0.18121015
000040 18 e2 95 be ce 9a 28 3e d7 6c f3 3d bf eb 07 be
       -0.29274058 0.16465303 0.11885994 -0.13273524
000050 c8 d9 76 3d b2 d1 17 3c e1 5b 04 3f 86 2b 8d 3e
       0.060266286 0.009266304 0.51702696 0.27572268
000060 4b d4 e6 bd 47 c8 c6 3d 1b a6 f8 3d a6 56 8e 3c
       -0.112709604 0.097061686 0.12141057 0.017375302
000070 69 2e 36 bd 32 b3 4e 3e d3 ad 65 be fd c2 27 be
       -0.044477854 0.20185545 -0.2242959 -0.16382976
000080 bd f2 bf 3d bf 0e 7b 3e bd 84 67 3e 1b 34 40 3f
       0.093724705 0.24517344 0.2260923 0.75079507
000090 80 c0 03 3e 21 00 b7 3d b9 f6 02 3f 8c 87 0b 3d
       0.12866402 0.089355715 0.5115772 0.034064814
0000a0 95 33 a6 3b 1d 6f 53 3e 7d 53 80 3e fa 78 97 be
       0.005072067 0.20647855 0.25063697 -0.29584485
0000b0 df 2d 0c 3e 04 a0 e5 3d a3 0f ed 3e 9d f4 a1 3e
       0.13689373 0.11212161 0.46300992 0.31631938
0000c0 fa c5 88 bd 92 83 a9 3d ab 3d 9c 3e f3 d1 91 be
       -0.06678386 0.08277048 0.305158 -0.2848049
0000d0 55 96 ca 3e f6 30 5f be f0 59 c9 bd 1d 3f f7 be
       0.3956782 -0.21796021 -0.09831607 -0.4829034
0000e0 72 10 e5 3e 38 79 b8 3e b3 72 d9 be b7 9f 92 be
       0.4473911 0.36029983 -0.4247032 -0.28637478
0000f0 83 e5 b2 3d df c6 00 3f ee aa ad 3e b6 0d ba 3e
       0.08735182 0.50303453 0.33919472 0.36338586

weight f4 [64, 128]
000000 56 c8 8e 3d 23 cd 94 3e c1 82 d5 bd 76 c6 8f be
       0.06971805 0.29062757 -0.1042533 -0.280811
000010 d3 91 d0 be 63 65 ea 3d ac a7 14 3e 84 1d d6 3c
       -0.40736255 0.11445119 0.14517087 0.026137121
000020 9e 38 54 bd ea be 74 3e 38 e9 31 be 83 39 0b 3e
       -0.051811807 0.23900953 -0.17374122 0.13596158
000030 ce cd 19 be ad ec 9c 3d 71 0a 33 3d 60 fd 8d 3e
       -0.15019915 0.0766233 0.04371113 0.27732372
000040 4f d9 a9 be 4e f2 e8 bc eb 6f c2 3e 56 f6 6a 3d
       -0.33173606 -0.028435852 0.37976012 0.05736383
000050 88 98 7e 3e 55 36 24 3d 4a 04 06 3e 42 da 0f 3e
       0.24862874 0.040090878 0.13087574 0.14048102
000060 7e 42 d6 3d a5 ae 07 3e 4e 5b 17 3d 21 fc fa 3d
       0.10461901 0.13250215 0.03695231 0.12255121
000070 a2 ad 29 3e d6 05 05 3e 26 e5 86 bc c2 65 ae 3d
       0.16570142 0.12990507 -0.016466688 0.085155025
000080 94 98 cb 3c 5b 59 6f 3e 50 db e8 3d bd 40 52 3d
       0.024853028 0.2337393 0.113699555 0.05133127
000090 fd 66 dd 3d 9b 42 8f 3e 4c d7 99 3e 2e 7b 20 3e
       0.10810659 0.27980503 0.3004707 0.1567199
0000a0 85 5f 40 3e 68 ad b5 3d 3c 9d 01 bd 31 35 bf 3c
       0.18786438 0.08870965 -0.03164409 0.023340793
0000b0 7d fa db 3d 67 b6 06 3b ca 89 2d 3e c4 04 37 be
       0.10741136 0.0020555498 0.16947094 -0.17872912
0000c0 3b 98 b8 3e cb e7 97 be 67 36 34 3e c8 ff 9c be
       0.36053643 -0.29669032 0.17598878 -0.30663896
0000d0 25 2e 12 3e 37 81 80 3c d3 6e 8b 3d 5c 93 fb 3b
       0.14275415 0.015686614 0.068082474 0.0076774787
0000e0 68 6d af 3d 27 82 4b 3e cd 01 41 3d 08 be e2 bd
       0.085657895 0.19873868 0.047120858 -0.11071402
0000f0 2f 87 e4 3d 8c 0a 57 3b 20 a9 fa bc fe ff 05 3e
       0.11158597 0.0032812683 -0.030598223 0.13085935
000100 04 2c 83 3e 69 f1 9d bc 88 97 8b 3d 27 59 f6 be
       0.2561952 -0.019280152 0.06816012 -0.48114893
000110 2a e0 14 3d 55 87 4c 3d 4d 4a 2a 3f 26 c1 83 3d
       0.036346592 0.04993375 0.66519624 0.064333245
000120 75 3f be 3d 2e a7 c2 3d 47 da 64 3e 02 c5 2f 3e
       0.09289447 0.09504543 0.22348891 0.17164996
000130 e2 c5 eb 3d 35 00 96 3b a7 ee b1 bd 53 2b 98 be
       0.115123525 0.0045776614 -0.086880974 -0.29720554
000140 15 73 19 3e 4a 48 ce 3d 36 bb b8 3d ac 2e 66 3d
       0.14985307 0.10072382 0.09020083 0.056196854
000150 57 12 c1 bd f3 94 c6 3e ed c9 d6 3d 45 84 e1 be
       -0.09427326 0.38785514 0.10487733 -0.44046226
000160 11 87 7b 3d ea 59 cd 3e 1c cb 7e bc c5 c4 bb 3e
       0.061408106 0.4010766 -0.015551355 0.3667356
000170 3e 5c 68 3e 6a e5 33 3e aa b6 6e 3e c2 1c c9 ba
       0.22691438 0.17567983 0.23311868 -0.0015343654
000180 a4 8c 32 3e b7 80 9f bd 26 49 0c bf c6 28 c6 3d
       0.17436463 -0.07788222 -0.54799116 0.09675746
000190 92 7d 3c be c6 72 b1 3e 78 bc df 3d 21 e6 56 bd
       -0.18407276 0.34657878 0.109246194 -0.05246556
0001a0 b4 69 b5 3d f8 fb 15 3e b2 79 51 3e c7 ad 33 bd
       0.08858052 0.146469 0.2045658 -0.0438669
0001b0 dc 78 eb 3d 3d cc 5d 3e af 1f 1e 3e f2 95 5c 3e
       0.114976615 0.21659942 0.15441774 0.21541575
0001c0 63 90 12 be 8a 26 8d b9 18 5b d1 3d 41 e0 2b 3e
       -0.14312892 -0.0002692233 0.10222453 0.16784765
0001d0 f7 4e 84 3e fd 9e 3c bc 5a d6 0d 3e a9 41 14 3e
       0.25841495 -0.011512515 0.138513 0.14478172
0001e0 94 71 5f 3e 64 9a 9e bd 6e 65 5e 3d 1f 61 2c be
       0.2182067 -0.077442914 0.05429595 -0.16833924
0001f0 f0 01 44 3e 78 2b 40 3e b3 30 ba bd c9 88 6b 3e
       0.19141364 0.18766582 -0.0909132 0.23001398
000200 6b e8 ef bb e5 b1 9f 3e 58 69 c6 bc ec 91 c6 be
       -0.0073214076 0.3119041 -0.024220154 -0.38783205
000210 a9 57 35 bd 68 d7 a6 bd 97 32 70 3d bf da cf 3e
       -0.044273052 -0.08146554 0.058641996 0.40596578
000220 c9 cb 16 be e4 4f b0 3d c4 85 7d be 27 4e 65 3e
       -0.14726175 0.08608988 -0.24758059 0.22393094
000230 cc 29 25 be 54 45 70 3e 30 56 0c 3e b2 2c f1 3d
       -0.16129225 0.23463947 0.13704753 0.11776103
000240 06 cb 8e be 5e 32 7b 3e ee 11 08 3f 74 ee a4 3e
       -0.2788927 0.24530932 0.5315236 0.32213175
000250 80 24 36 3e 44 b7 49 3e b6 df 70 3d 7c b9 6f 3e
       0.17787361 0.19698817 0.058807097 0.234106
000260 2f 7c 8b 3e 49 a8 97 3e 56 72 bb 3d 10 c4 3c bd
       0.27243182 0.2962058 0.09152667 -0.046085417
000270 57 cf e0 3e f2 43 62 bd b3 92 c2 bd b1 85 5e 3e
       0.43908188 -0.05524058 -0.09500637 0.21730687
000280 f6 e1 3c be 27 a7 9a 3c b4 3b 07 3e 77 ac ff bd
       -0.18445572 0.018878533 0.13206369 -0.12484067
000290 c2 e0 f1 3e 5f 08 07 be 60 63 a8 3e 2d 85 f3 3d
       0.4724179 -0.13186787 0.32888317 0.11890636
0002a0 ed 80 b9 3d cb 21 c3 3d dd 65 83 3d c2 ec 9f 3d
       0.09057794 0.0952793 0.06415913 0.0780883
0002b0 28 1d 1e 3d ef d6 ae 3a 62 16 99 3e b3 7d 66 be
       0.038602024 0.0013339202 0.2989989 -0.22508888
0002c0 0d 22 0e 3e 91 9d 00 3e 11 9e ac bd 99 cf be be
       0.13880177 0.12560107 -0.08428586 -0.3726776
0002d0 bb ca ad 3d a8 fe 0e be 90 5d 65 3d 25 05 b6 3e
       0.084859334 -0.13964331 0.05599743 0.355508
0002e0 e5 5d ba 3d 29 24 cf bc 45 98 54 3e f6 16 06 bf
       0.0909994 -0.025285797 0.20761211 -0.52378786
0002f0 c8 4f ab 3d dc 16 77 bd a4 93 0a be ce 51 1b 3e
       0.083648264 -0.060324535 -0.13532883 0.15167925
000300 df 67 16 3f 35 82 59 bd 92 74 e3 3d e2 3d 29 bf
       0.58752245 -0.05310269 0.111062184 -0.6611005
000310 f8 b4 13 3c a9 7a a7 3e bd 8b ad 3e 02 3c fc 3d
       0.009015314 0.3271077 0.33895674 0.12316133
000320 90 9a 5e 3c fd 03 9f 3e 84 c9 ea 3d 5c 32 0b 3f
       0.013586655 0.3105773 0.11464217 0.5437372
000330 52 4b 44 3e 3d 42 18 3d c3 e6 3f 3e b3 d3 8e be
       0.19169357 0.037172545 0.18740372 -0.2789589
000340 1c 82 0a 3f e7 fa 9c 3e e9 5b 6a 3c 9b 1d 91 3e
       0.5410478 0.30660173 0.01430414 0.283429
000350 60 8d 87 3d 56 bb 8a 3e 71 5e 05 3f 0d 40 05 bf
       0.06618762 0.2709605 0.5209723 -0.5205086
000360 7d 5d 7d be 9a 84 aa 3e 17 26 1c bd 9a 44 9f 3e
       -0.24742694 0.33304292 -0.038122263 0.31107026
000370 ba a3 a0 3e 33 30 6b 3e 70 fa 2f 3e f1 8c 80 3d
       0.31374913 0.22967605 0.17185378 0.062768824
000380 14 57 3e 3d 9d 3d 8e be 77 fc c9 be 9c 38 3e 3e
       0.046469763 -0.27781382 -0.39450428 0.18576282
000390 10 99 27 be 2f 6d 82 3e 1e 95 ac 3e c6 97 13 3e
       -0.16366982 0.25473925 0.33707517 0.14413366
0003a0 59 f0 f2 3d b2 d3 06 3e 48 f9 67 3e 6f 53 84 3e
       0.11862249 0.13166693 0.22653687 0.25844905
0003b0 d3 11 db 3e 0c a4 2a bd 42 36 c6 3e 0c 02 d2 bc
       0.42787036 -0.041660354 0.3871327 -0.025635742
0003c0 26 15 a1 3d c4 e1 95 bc 45 c8 87 3e a5 9c e6 3d
       0.07865362 -0.01829613 0.2651998 0.11260346
0003d0 6b 4e dc 3d f0 eb be 3d 61 87 65 3e 06 19 3b 3e
       0.107571445 0.09322345 0.22414924 0.18271264
0003e0 57 f4 77 3e af 0f dd bb b4 7c 75 be 6a 60 70 bc
       0.24214302 -0.0067462544 -0.23973352 -0.014671424
0003f0 35 b8 75 3d 4f f2 94 3e ff 0c 4b 3d a6 76 e9 bd
       0.059990127 0.29091117 0.04957294 -0.113995835

att_src f4 [1, 1, 64]
000000 52 5f 50 be 23 b7 bf bc 27 93 53 3f 60 c6 06 bd
       -0.20348862 -0.023402756 0.8264641 -0.03290403
000010 cb b1 9f be 61 5e 19 bf fa 55 0b 3e 9e 8f ec bd
       -0.31190333 -0.59909636 0.13607016 -0.1155083
000020 10 78 b5 bd b4 b7 84 bd b0 35 86 be 25 e3 7d be
       -0.08860791 -0.06480351 -0.26212835 -0.2479368
000030 f2 43 7b 3e 6b 1b 4f 3d be 03 1b 3d af 30 37 bf
       0.24537638 0.050563257 0.037845366 -0.7155866
000040 60 6d fb 3e 3b 12 1c 3e 67 c1 b4 3d 2e aa 1e 3f
       0.49106884 0.1524133 0.08825951 0.61978424
000050 a9 d2 28 bf 0a cb 0c be 33 23 eb be 16 84 20 bd
       -0.6594644 -0.13749328 -0.45925292 -0.039188467
000060 77 bc 17 bf cf a8 ca 3d 7c a0 86 bc a3 bf 98 3c
       -0.5927195 0.09895479 -0.016433947 0.018646067
000070 0d cb a7 be 8b 2e d5 be a3 66 41 3e ae b9 2e be
       -0.32772103 -0.41637072 0.18886809 -0.17063019
000080 9a 22 04 be 9b a8 4a bf b7 93 47 3d 86 3d a9 bd
       -0.12903824 -0.7916352 0.048724856 -0.08263688
000090 af b9 6c 3c 8d 1a d1 3e e2 49 e6 be ea 34 79 be
       0.014448567 0.4084057 -0.44978243 -0.24336591
0000a0 a8 85 1c bf 1a 5e 4f 3e dc d5 ba 3e 9c 08 2c 3f
       -0.61141443 0.2025074 0.36491287 0.67200637
0000b0 68 46 03 bd 05 e9 0f 3e 8a fb dc 3e ac 28 c3 3e
       -0.032049567 0.14053734 0.4316066 0.38116968
0000c0 b0 53 ff be 02 6e dd bb 2d 88 1b bf 41 53 4a 3e
       -0.49868536 -0.0067574987 -0.6075466 0.19758321
0000d0 ef 3e af be fd 27 9d be 2b c5 f7 bd a0 17 c2 bd
       -0.34227702 -0.3069457 -0.12098154 -0.09477162
0000e0 9c 2c 9b be a0 c9 7a be ca c4 2b be 17 79 1c bf
       -0.30307472 -0.24490976 -0.16774288 -0.6112227
0000f0 40 02 16 3f c1 a4 94 3e 51 38 b4 be af 6c 21 be
       0.58597183 0.29031947 -0.35199216 -0.15764116

att_dst f4 [1, 1, 64]
000000 39 b3 16 be fd c2 2d be 44 52 53 3e 19 c5 66 3e
       -0.14716806 -0.16968913 0.2063685 0.22536124
000010 07 d6 95 bd b4 5b cb be 0f 08 8e be e0 c9 49 3e
       -0.07316213 -0.397184 -0.27740523 0.19705915
000020 53 75 ac 3e b1 39 4f bc f5 37 95 be 02 29 31 bd
       0.3368326 -0.012648032 -0.29144254 -0.043252
000030 58 fb 28 bd d8 2f ea 3e 10 8a c2 3e 69 6c 39 3a
       -0.041255325 0.45739627 0.37995958 0.00070733443
000040 d5 3b ae 3e 11 b4 eb be b2 38 89 be 61 91 21 3d
       0.34030023 -0.46035817 -0.26801068 0.039445285
000050 9b 54 0b 3f f0 0d d2 3e 14 71 ab 3d 27 d1 a3 3c
       0.5442597 0.41026258 0.08371177 0.019997193
000060 97 ee e1 3e 5e 71 20 be 03 08 8f bc e8 5f 05 3f
       0.44127342 -0.15668246 -0.017459875 0.52099466
000070 d6 a0 8e bd 6b 54 17 3e ec 1e 18 3e 7d ed 0c 3e
       -0.06964271 0.14778297 0.14855546 0.1376247
000080 ba b3 2d be 32 75 ae 3e 96 d1 13 bd 8d 34 42 3d
       -0.16963091 0.34073788 -0.03608855 0.047413398
000090 93 3e c9 3e bb fa 63 be 53 bf 31 3e 26 85 25 be
       0.39305553 -0.22263615 0.1735814 -0.16164073
0000a0 80 0c 07 3f 6e 3d 4a 3e 31 57 52 bd 23 59 d9 be
       0.5275345 0.19749996 -0.051352683 -0.42450818
0000b0 28 78 ee 3d 50 50 46 3d 51 04 bb bd 21 d4 e9 bc
       0.11644012 0.048416436 -0.09131683 -0.028543534
0000c0 01 c9 2e 3e 45 0b 5f be e8 4f 09 3f 43 1b 88 3e
       0.17068864 -0.21781643 0.5363755 0.265833
0000d0 05 f7 c0 3d 84 27 d2 3e 25 cd 79 be d3 7b 62 bd
       0.09422115 0.41045773 -0.24394663 -0.05529387
0000e0 5a b8 c0 be 06 1f 55 be ea e9 62 3d 17 5c a8 3e
       -0.3764065 -0.20812616 0.05539886 0.3288276
0000f0 50 94 ab be 36 b8 12 3e c5 28 37 be 0c 99 d9 be
       -0.3351159 0.14328083 -0.17886646 -0.42499578

bias f4 [64]
000000 84 3c d4 3e a0 fe 9d bc 58 30 d0 bf e0 a4 83 be
       0.4145242 -0.019286454 -1.6264753 -0.25711727
000010 7a ba 17 3f 2a e8 40 3e 06 49 19 3e 38 de c4 3e
       0.59268916 0.18838564 0.14969262 0.3845079
000020 bf e8 75 be bd 2c d5 3b 63 2e 3d 3e d0 b6 c9 3d
       -0.24014567 0.0065055774 0.18474726 0.09849322
000030 83 e8 b9 bd 0b 50 db 3d 86 f4 09 3e 39 0c 94 3f
       -0.09077551 0.10708626 0.13472185 1.156623
000040 ea b6 a3 3d 73 c9 08 40 e5 df 52 3e 54 e1 0b bf
       0.079938725 2.1372955 0.20593221 -0.546407
000050 10 fd c3 be 7d b2 de bb 68 e4 43 bd 9f 29 5a bc
       -0.3827901 -0.00679618 -0.047825247 -0.013315587
000060 6c d7 6e bd 91 f2 23 3e 5f dc 36 be 4e ea c1 be
       -0.05831091 0.160105 -0.17857502 -0.37874073
000070 28 a7 a0 be 8c f6 54 3d 5f b0 0d 3d 0d 3f 26 be
       -0.3137753 0.051992938 0.03459203 -0.1623499
000080 49 a0 8e be b7 a8 54 3d 11 4a f7 bc c5 32 4f 3e
       -0.27856663 0.05191871 -0.030186685 0.20234211
000090 6d 4d a1 be d1 dd db 3c 0e 36 f3 be b7 9f a1 3e
       -0.31504384 0.026839169 -0.47502178 0.31567165
0000a0 92 ba 4e bf 14 ec 8f be ba 4f a0 3e 86 44 36 3c
       -0.80753434 -0.281098 0.31310827 0.011124736
0000b0 bd 36 ab 3e 8a 71 3a be 6a 47 4c 3e 21 df 50 bd
       0.334402 -0.18207374 0.19949117 -0.050994042
0000c0 ec 6c 12 3f b9 b5 2b bd 2b 89 8c be 5c bf 80 bd
       0.5719745 -0.04192135 -0.274484 -0.06286499
0000d0 c1 7d f2 bd a0 34 1f be 3e 28 9a 3e f8 7d 10 be
       -0.11840392 -0.15547419 0.30108827 -0.14110553
0000e0 b1 20 b4 bd 63 7d 10 bd 6f e7 e8 bd ba 97 db 3d
       -0.08795298 -0.035275828 -0.113722675 0.10722299
0000f0 79 6c 2d bf e7 d6 55 3e 8c a7 98 3e eb ef 53 be
       -0.6774364 0.2088276 0.29815328 -0.2069699

weight f4 [64, 64]
000000 ed f7 2e be 80 3b 12 be d7 7f 0a 3e b4 58 dc bd
       -0.17086764 -0.1428051 0.1352533 -0.10759106
000010 eb 04 0a 3e 1e d5 be bc 42 95 c2 bd 03 99 d1 bc
       0.13478439 -0.023294982 -0.09501125 -0.025585657
000020 25 e5 28 3e 86 0f 25 3c 45 b5 9e 3e c5 29 93 3d
       0.16493662 0.010074502 0.30997673 0.07185701
000030 a2 70 6d be e2 b8 7f be 03 4b 1e be cf a5 27 be
       -0.23187497 -0.24972871 -0.15458302 -0.16371845
000040 51 cf bc 3d 79 d3 f6 3d ef fe a5 bc a3 26 61 3d
       0.0921923 0.12052054 -0.020263163 0.054968487
000050 cc 5f 8d 3e d6 30 8b 3c a1 7d 94 3d ef 0a 32 3e
       0.2761215 0.01699106 0.07250524 0.17386983
000060 4f c9 e0 bc e8 d0 62 3d 97 e9 81 3c 89 53 fc 3d
       -0.027439741 0.05537501 0.015858455 0.123206206
000070 87 d6 d9 bb 9c 52 9c 3e 87 cc 62 39 cb e5 3a be
       -0.006647888 0.30531776 0.00021629232 -0.18251722
000080 41 8f c2 bd 56 e1 10 3d dd 47 53 be 1e 85 7d 3e
       -0.0949998 0.035371147 -0.20632882 0.24757811
000090 d0 2a 81 bd ea 7d f5 bd 80 64 96 3d a4 f8 91 3e
       -0.06306994 -0.11986907 0.073433876 0.2851001
0000a0 97 a3 dd bd 58 22 87 be 9f 39 ce 3c 69 91 6a be
       -0.10822218 -0.2639339 0.02517396 -0.22907032
0000b0 f3 48 06 3c 24 18 c8 3d d8 36 08 be 02 05 17 3e
       0.008196103 0.097702295 -0.13302171 0.14748004
0000c0 ee ee 28 bc 1e 7f e0 bc 6d 1b 1c 3e d6 4e 8b bd
       -0.0103108715 -0.027404364 0.15244837 -0.06802146
0000d0 87 d6 48 3d f3 15 0a 3e 20 f5 96 3e 4d de 1d 3d
       0.049032714 0.13484935 0.2948389 0.03854208
0000e0 76 f4 41 3e 24 17 1e 3d c4 0a 80 be c8 46 20 3e
       0.1894091 0.038596287 -0.25008214 0.15652001
0000f0 e5 64 e2 bd f8 1d 7a be 7f 72 e1 bd 4c 5e 48 3d
       -0.110544 -0.24425495 -0.110081665 0.048918054
000100 60 05 6a 3d 7b 67 c6 3d d6 10 0d bd 60 45 f5 bd
       0.057134032 0.09687706 -0.034439884 -0.11976123
000110 d9 f5 cf bd 92 d9 0a be 39 7f 92 bc e6 fb 2e be
       -0.101543136 -0.13559559 -0.01788293 -0.17088279
000120 4b a6 59 be ba a0 fd 3d dd 24 00 3e e2 99 d4 3d
       -0.21254842 0.12384172 0.12514062 0.10380913
000130 15 14 48 3e 65 6a 5c be 8f 56 38 be 7f 30 b4 bd
       0.1953891 -0.21524961 -0.1800177 -0.087983124
000140 f0 52 61 bd a3 3d 29 3e bd 0e 8e 3b 97 45 40 bd
       -0.055010736 0.16527419 0.004335253 -0.046941366
000150 eb 9e 1a bd 85 b0 62 bd bf a5 16 bd d6 75 d6 3e
       -0.037749212 -0.055344123 -0.03677916 0.41886777
000160 c9 57 3e be 30 a2 52 3d e0 9d fc 3c 39 ef 32 3d
       -0.18588175 0.051424205 0.030837 0.04368517
000170 06 ad 34 3d 93 37 7f 3e 5e 94 9b 3e 2a 04 51 3d
       0.04411032 0.24923544 0.30386633 0.05102936
000180 1d ae 1c 3d 1f 48 cc 3d 6f 09 77 3d 4a f7 87 3e
       0.038251985 0.099746935 0.06031173 0.26555854
000190 3a 9f 61 3c e6 08 6b 3d 90 a5 5d 3e 6a 10 95 3e
       0.013770873 0.057381533 0.21645188 0.29114085
0001a0 a8 f8 9a 3d 2a 8e 66 bd 6c d1 d0 bc 0c cb a3 be
       0.07566959 -0.056287922 -0.025490485 -0.3199085
0001b0 57 aa ac 3d c9 5a 09 be 3a ac b9 be d0 12 45 bc
       0.08430927 -0.13413538 -0.3626421 -0.012028411
0001c0 73 e9 81 bd da 41 a1 bc 5b e9 b0 bc fb 05 05 be
       -0.06343355 -0.01968472 -0.021595648 -0.12990563
0001d0 c6 e8 42 3e 80 c4 d0 bd 44 6c 5a bb b7 e0 8b 3d
       0.19034109 -0.101937294 -0.0033328691 0.0682997
0001e0 a3 a1 fa bc 09 20 fb 3c a8 e0 53 be 23 3f f8 3d
       -0.030594653 0.030654924 -0.20691168 0.121214174
0001f0 40 37 c9 3d 9d f8 1b be 7f ba b0 bd ba e9 1c 3e
       0.09824991 -0.15231557 -0.08629321 0.15323535
000200 17 38 3f bd ed a9 02 be c4 26 39 be 31 ad 64 bd
       -0.04668435 -0.12760134 -0.18081194 -0.05582923
000210 86 86 a0 bd 4f 04 ba 3d 69 ce 07 be 38 12 81 3d
       -0.07838158 0.09082853 -0.13262333 0.06302303
000220 7b 3e 19 bd 81 94 00 3e f1 aa 1a be 57 ef 21 3e
       -0.0374131 0.1255665 -0.15104271 0.15813957
000230 16 e6 0f be 20 1b 07 3e 92 22 d9 3e 9f 4f 14 bb
       -0.14052615 0.13193941 0.42409188 -0.0022630466
000240 b4 8d 01 be 23 86 a1 bd 3d 8f a3 3e b3 2a 8b be
       -0.12651712 -0.07886913 0.3194522 -0.27181014
000250 87 c9 c9 3e 83 7e 95 3d d8 6a 90 be f9 ef 37 bf
       0.39411566 0.07299521 -0.28206515 -0.71850544
000260 dc f7 ac 3e 34 f9 4f 3e e6 ee af be 9f eb 1b be
       0.33782852 0.20309907 -0.34361953 -0.15226601
000270 eb 02 a2 bd 6c 49 f0 be e4 83 2b be a2 49 83 bd
       -0.07910713 -0.46931016 -0.16749531 -0.06410529
000280 e8 3e 03 be c3 4f 29 be ac 2d 65 be 2e c7 aa be
       -0.12816966 -0.16534333 -0.22380704 -0.33355087
000290 0e 8e 50 3d 87 55 8d 3e e6 e5 d0 3c 24 86 bc be
       0.050916724 0.27604315 0.02550025 -0.3682109
0002a0 dd bf c1 be 70 57 81 be 06 f5 48 be 37 b1 00 3f
       -0.37841693 -0.25262022 -0.19624719 0.5027041
0002b0 93 e7 41 bc 13 2c a3 bd 1a 0d 2c 3d ef 97 4a 3d
       -0.011834997 -0.07967391 0.042004682 0.0494613
0002c0 c5 19 18 be f1 e1 42 bc 9e a0 a3 3e 07 44 6b bc
       -0.1485358 -0.011894689 0.3195848 -0.014359481
0002d0 f5 26 02 3e 81 36 88 3c f8 e4 b3 be 3b 3e 3a be
       0.12710173 0.016627552 -0.35135627 -0.18187802
0002e0 fa ca f6 bd 7d 15 ec bc aa 66 35 3e 96 34 aa be
       -0.120504335 -0.02881884 0.17714944 -0.33243245
0002f0 4f 20 49 be e2 99 83 bd b0 85 ef 3d 71 95 af bd
       -0.19641231 -0.06425835 0.11695421 -0.085734256
000300 56 0c 23 bc ea 96 64 3d 8e bb 79 3d 4e f4 c6 bd
       -0.009951672 0.055807985 0.06096988 -0.09714566
000310 e5 7d 5b bc d0 ce 7d ba 85 ea 83 bd 74 dc df 3d
       -0.013396715 -0.00096820015 -0.064412154 0.1093072
000320 ae 1f 50 3d 05 3f b8 3d ed b1 fd bd 6c f4 30 3d
       0.050811462 0.08996395 -0.12387452 0.04320185
000330 e0 77 e4 3d f7 f8 cd bd 42 21 9b 3d 27 aa 76 bc
       0.11155677 -0.10057252 0.07574703 -0.015055216
000340 11 aa 10 be 5a 54 53 bd eb 23 24 3c 3f 6d f5 3c
       -0.14127375 -0.051594116 0.010018329 0.02995932
000350 7d d9 1d be 6c 07 85 bd f0 c5 f4 3d 95 37 bc 3d
       -0.15414996 -0.06495556 0.11951816 0.09190289
000360 70 a1 0f be 5f 43 0a 3e fc 68 49 3e e1 ce 00 be
       -0.14026427 0.13502263 0.19668955 -0.12578918
000370 06 22 21 bd 5e 07 1d 3e 5d ce 86 be 7f e0 29 be
       -0.039339088 0.15334842 -0.26329318 -0.16589545
000380 ca 8a 12 3e 87 ae fa 3c cd 3d 0f be d5 d7 95 3e
       0.14310756 0.0306008 -0.13988419 0.2926623
000390 0e cb 1d 3e b1 cd 0f 3e 7f 99 8d bc ce ae aa 3e
       0.1540949 0.14043309 -0.017285107 0.3333649
0003a0 54 b6 00 3c 2b 9a 13 3e 3f 4e 6c bc a5 ff 44 3d
       0.00785597 0.14414279 -0.014422952 0.048095364
0003b0 36 d9 1b bc 0f 14 5d bd dc 84 52 3c 03 a2 f2 3d
       -0.009512236 -0.053974207 0.012849059 0.118473075
0003c0 8f 28 9d 3e fd 8f 51 bc 4c f2 25 be 11 30 07 3d
       0.30695006 -0.012790677 -0.1620571 0.033004824
0003d0 4c f1 bc 3d 3d 19 dd 3c 3d 2d bd 3d e0 30 ee bc
       0.09225711 0.026989574 0.09237144 -0.02907604
0003e0 ce 91 50 3e 62 d5 b0 3d bc 7b 7b be 17 cd 01 bd
       0.2036812 0.086344495 -0.2455892 -0.03168973
0003f0 d3 4f 19 be 8e 4b 44 bd 43 49 16 bd 6c a8 1b 3e
       -0.14971857 -0.047923617 -0.03669096 0.15200967

weight f4 [1, 64]
000000 fc ac bb bb 85 de 98 bc bd ee 00 bd d6 6e 73 bc
       -0.0057274085 -0.018660793 -0.03147768 -0.014857968
000010 81 2c 57 bc 1d f8 83 bc a8 93 a9 ba 32 40 be bb
       -0.013133169 -0.01610952 -0.0012937682 -0.0058059925
000020 02 0c a5 bc 4a aa ae b9 b0 bb 12 bc e9 c6 de bb
       -0.020147327 -0.0003331474 -0.008955881 -0.0067986143
000030 e0 ef 75 3d 87 e1 0e bd 08 d3 bd bc 7a 71 ab bc
       0.060043216 -0.03488305 -0.023171917 -0.020928133
000040 a4 01 e1 3c 22 09 59 3d ad b9 c5 3c 3c 71 df 3c
       0.027466603 0.052987225 0.024136389 0.027275674
000050 f6 c5 b5 bc 6c 74 ad bd 94 ea 4b bc ac f0 37 3c
       -0.022189122 -0.08469471 -0.0124460645 0.011226814
000060 c7 48 13 bd 55 f4 99 3c 55 c4 c2 3a 12 34 ba bc
       -0.035958078 0.018793264 0.0014859537 -0.022729907
000070 ba 3f 7e bc 70 36 46 bd 97 eb 63 3c e5 22 65 bc
       -0.015518123 -0.04839176 0.013911149 -0.01398537
000080 d7 e5 a6 bc b6 e1 a1 bc 42 c7 96 bc bd cc dc bc
       -0.020373268 -0.019760948 -0.01840556 -0.026953096
000090 a6 83 0a bd f2 11 f3 3c a3 f6 16 bc 5a b8 84 3b
       -0.033816956 0.029671643 -0.009214076 0.0040502967
0000a0 de 85 1b bc 09 71 cd 3b 4d ed 65 3c 2f df ce 3c
       -0.009492366 0.0062695784 0.014033628 0.025252907
0000b0 ad e4 60 bd f2 8c d1 3c 99 20 95 3c b5 0b d3 3b
       -0.054905582 0.025579903 0.01820402 0.0064406046
0000c0 11 15 08 bd 1c 47 34 bb 16 8a d6 bc 42 e5 4f bb
       -0.033223215 -0.0027508205 -0.026188891 -0.0031722342
0000d0 44 78 94 bc 0c ca 0b bd 75 2c 13 3d e3 52 ff b9
       -0.018123753 -0.034128234 0.03593107 -0.00048699146
0000e0 f9 16 25 bc 58 bf 5b bc 59 5c 00 bd 2c 80 c4 bc
       -0.010076278 -0.013412319 -0.03133807 -0.023986898
0000f0 96 4c 03 3d da ec 87 3c bb 5c ba bc d4 a4 66 3c
       0.03205546 0.016592432 -0.022749295 0.014077384
