Graph Neural Network/Models/BasicLayers-RE 3.pth (torch, 285606 bytes, 15 tensors)

weight f4 [128, 128]
000000 6d 03 61 3d 28 1e 95 bd b6 00 96 bc 8e 6c 9c 3d
       0.054934908 -0.072811425 -0.018310886 0.07637893
000010 7e 19 84 3d e0 3c a9 bb 96 3a 9a bc 3a 5a 6b 3c
       0.06450175 -0.0051647276 -0.018826764 0.014364773
000020 de cb 18 bc ab dc 14 3d 7f df 97 bd 6f c3 84 3c
       -0.0093259495 0.036343258 -0.07415675 0.016206471
000030 bb b4 51 3c 1b 9a 88 3c 85 37 1e 3c 94 0c a9 3d
       0.012799437 0.016675046 0.009656792 0.08254352
000040 1f 96 5f 3c d3 2c 38 bd a2 a0 96 3d d0 55 8f 3c
       0.0136466315 -0.044964623 0.07354857 0.017496973
000050 de 44 b0 3d df b7 77 3d d4 75 a4 3d dd ca 92 bd
       0.086068854 0.060478088 0.080302864 -0.07167599
000060 77 b2 c7 3c 59 64 9d bd 68 cf a7 3d a1 9a 1c bd
       0.02437709 -0.076851554 0.081938565 -0.038233403
000070 51 6c f3 3c 0d 23 81 bc 21 2a 06 ba df e8 80 3d
       0.029714735 -0.015763784 -0.0005117972 0.06294417
000080 7c 9f bd 3d d8 d8 f5 3b b8 72 34 bd f5 7c 5b bc
       0.09258935 0.0075026564 -0.044054717 -0.013396491
000090 ed fb 1d 3d f0 06 a9 3d 53 4b 10 bc 38 4e 9c 3d
       0.038570333 0.08253276 -0.008807021 0.076321065
0000a0 de 6b bc 3d 8b 74 84 bd 43 6d 73 bc af f9 18 bd
       0.092002615 -0.06467541 -0.014857593 -0.03734749
0000b0 fc 14 3e bd d2 13 3a 3d bb 4a 6c bb 08 16 75 3d
       -0.04640673 0.04542906 -0.0036055285 0.059835464
0000c0 6e bc 86 3d b8 78 3e bd 6b 59 71 3d 0b ee 09 3d
       0.06578909 -0.046501845 0.058923166 0.03367428
0000d0 11 18 21 bc cc ff 90 3d 50 27 07 bc 04 76 af 3d
       -0.009832398 0.070800394 -0.008249119 0.085674316
0000e0 e2 b2 44 bd 12 fd 5b 3d 2f ca 68 bd fd 38 e9 3c
       -0.04802216 0.053708144 -0.056833442 0.028469557
0000f0 ce a1 b6 bb 0c 06 a0 bd b9 2b f3 3b dd 36 50 3d
       -0.005573488 -0.07813653 0.0074209836 0.05083357
000100 18 d1 ac 3d e0 69 35 bd d9 a8 8b 3c 0d 58 96 bd
       0.08438319 -0.044290423 0.017048286 -0.07341013
000110 28 96 2d ba c4 aa 9b bb 6c 98 b6 3b 50 b1 aa 3d
       -0.00066218013 -0.0047505815 0.0055723693 0.08334601
000120 aa 35 65 3d 56 f3 37 3d 2e 80 0f bc 7a b4 a3 3d
       0.05595938 0.044909798 -0.008758588 0.079934075
000130 e8 74 49 bd 71 f3 79 bd 07 9e 41 b9 55 f6 19 3d
       -0.049183756 -0.06102318 -0.00018464784 0.037588436
000140 b6 bf be 3d 23 72 fa bb 3f 81 02 3d 46 a2 80 3d
       0.0931391 -0.0076430007 0.03186154 0.06280951
000150 62 60 b7 3d f8 15 42 bd ae 14 40 3d 24 ba 59 3d
       0.089539304 -0.047384232 0.04689472 0.053156033
000160 0a 6e e9 3c 77 5f a6 bb 42 c2 33 3d 16 e3 28 3d
       0.028494854 -0.0050772983 0.04388643 0.04123219
000170 c3 26 7b bc 06 d4 49 3d 20 28 93 bc f4 41 c2 3d
       -0.015329066 0.049274467 -0.017963469 0.09485236
000180 ae 43 72 bd 6a 1b 8f bd 23 84 94 bc d7 f5 34 bd
       -0.059146576 -0.06987651 -0.018129414 -0.044179764
000190 76 6a 00 bd b4 80 73 bd 2c 21 3e bd 0f f7 34 bd
       -0.03135153 -0.059448913 -0.046418354 -0.044180926
0001a0 ab 5f 5f 3d 0d 8c 98 bc 25 9a 83 3c 6e ee 8c bd
       0.054534595 -0.018621469 0.016064713 -0.06881414
0001b0 31 1a a5 3c 07 e1 6a 3d fc 8f ff bb b0 82 ab 3b
       0.02015409 0.05734351 -0.0077991467 0.005234085
0001c0 71 2d 7e 3d 51 85 f0 bc 93 d8 cc 3b 1b 5b 9b bc
       0.062055055 -0.029360445 0.0062514036 -0.01896434
0001d0 ef ff 82 3b 1a 95 12 3d 00 16 0a 3d f8 0a 3b bd
       0.003997795 0.035786726 0.033712387 -0.045664757
0001e0 be 10 ba 3d 3c 32 73 3d 0c 06 6a bd 06 15 80 3b
       0.090852246 0.05937408 -0.057134673 0.003908756
0001f0 ae 17 8c 3d b1 53 d9 3b cc bb a3 3d f6 24 9b bd
       0.06840454 0.0066322912 0.07994804 -0.07575409
000200 90 7e 4d 3c b8 37 61 3c de e5 b3 bd 8a 74 75 bd
       0.012542382 0.013746195 -0.08784078 -0.059925593
000210 18 5e 08 bd 1a 02 8e bd 3b 20 ae bd bf 8a 18 bc
       -0.03329286 -0.069339946 -0.08502241 -0.009310423
000220 12 69 1e 3d 7e c7 3a 3d 93 0c 10 bd 3b c4 30 bd
       0.03867442 0.045600407 -0.03516824 -0.04315589
000230 4d 25 0f 3c a3 eb 78 3d 47 59 01 3c 15 e6 7c bd
       0.008736921 0.060771596 0.0078948205 -0.06174286
000240 5a 0a 8e 3d 07 e3 b1 3b 28 86 a6 bc 46 53 52 3d
       0.06935568 0.005428675 -0.020327643 0.051348947
000250 0e c6 ba bd 4e fa 06 bd f0 a7 87 bd 2e 8f 3b 3d
       -0.09119807 -0.032953553 -0.066238284 0.045790844
000260 ee 72 43 3d 5c c2 83 3d 0a 64 d6 bc 8a b7 05 bd
       0.047717027 0.064335555 -0.02617075 -0.03264574
000270 52 d2 58 3d 78 a4 99 3d db ca 95 bd 89 48 70 bd
       0.052934952 0.07502073 -0.07314082 -0.058662925
000280 2b 8f ab bc 63 84 3e ba 6d 07 9a bd 3b a3 c9 3c
       -0.020942291 -0.0007267652 -0.075209476 0.024613967
000290 50 50 9b bd 0e b3 d0 bc 02 4f 0d 3b 1a 87 23 bd
       -0.07583678 -0.025476005 0.0021561985 -0.039923765
0002a0 72 9f 10 3a af 31 b6 bd 19 44 a6 3c 13 d5 97 bd
       0.0005516923 -0.08896195 0.020296143 -0.074136876
0002b0 e7 1d 44 bd b1 f0 00 3d ec 52 8e bc ae f0 82 3d
       -0.04788008 0.03147954 -0.017373525 0.06393562
0002c0 9d cf 6e bd dc ab 94 3d a5 ad 1a bd 83 4e 64 bd
       -0.058303464 0.07259342 -0.037763257 -0.055738937
0002d0 94 1f 9e 3d aa 5f 28 bc ad 7d 9c bd 1e 3f 82 bd
       0.07720867 -0.010276714 -0.07641158 -0.06359695
0002e0 ea 31 aa 3c 25 ed 0f bd de 9a 91 bc ea ff b0 3c
       0.020775754 -0.035138268 -0.017774042 0.021606404
0002f0 fe e3 8a bd 76 2a 55 bd 80 46 94 3d 15 ea 3a bc
       -0.06781767 -0.052042447 0.07240009 -0.011408349
000300 b6 6e b8 bd f1 50 2f bc d0 ff 9b 3d 0c e1 85 3d
       -0.090054914 -0.01070045 0.07617152 0.06537065
000310 c6 c7 47 3d ae c1 c8 bc 52 a4 bf bd 12 6d 42 3d
       0.048774503 -0.024506416 -0.093575135 0.0474673
000320 b9 22 7f bd f6 de e2 3c 0c 37 2e bb 1b dc 5f 3c
       -0.062288973 0.027694207 -0.0026583103 0.013663317
000330 7b 81 06 b9 b6 a6 5d 3c 83 b7 c5 3c 4a ee 98 3d
       -0.00012827471 0.0135285165 0.024135357 0.07467325
000340 0b ab 78 3d 24 eb f1 bc 5e a1 40 3d a6 63 95 3d
       0.060709994 -0.02953107 0.04702889 0.07294397
000350 10 38 91 bd 72 ca f6 bc 98 83 dd bc b3 f7 97 bc
       -0.07090771 -0.03012583 -0.027040288 -0.01855073
000360 45 46 8f bc 28 4a 91 3d 39 26 9b bd 9b e8 94 bd
       -0.017489562 0.07094222 -0.0757565 -0.072709285
000370 9b db 16 3c b3 7c 76 bd 35 9f b1 bc f5 1f e4 3c
       0.009207631 -0.060177516 -0.021682361 0.02784727
000380 98 a1 cd 3c ef ce 76 3d 03 cb 4e bc 80 31 11 bd
       0.025101468 0.06025594 -0.012621644 -0.035447598
000390 dc 33 47 bd 05 d2 83 bd 67 4c 44 3c 20 61 6b 3d
       -0.04863344 -0.064365424 0.011981106 0.057465672
0003a0 32 03 97 3d 21 c7 b3 bd 92 16 41 3d de 7a 13 3d
       0.07373656 -0.08778215 0.047140665 0.036005847
0003b0 c0 ad 00 bd 04 0c 19 3c c4 d8 5f bd ce e8 11 3d
       -0.0314157 0.009341244 -0.054650083 0.03562241
0003c0 4e 4f 04 3d d6 f5 70 bd 3a 23 96 3d 6b 82 29 bc
       0.032302193 -0.058828197 0.07330938 -0.0103460355
0003d0 da 98 52 3d 49 3e 8b bd d6 b6 13 3d 23 2d 4b bb
       0.0514153 -0.06798989 0.036063038 -0.0031002245
0003e0 97 ae 4f bc 12 65 98 bd d9 6b f1 3b 6c f2 67 bd
       -0.012675903 -0.07441153 0.007367593 -0.056627676
0003f0 24 47 b4 ba 8b 67 45 bd ea 71 e1 3c c6 9a 84 bd
       -0.0013754112 -0.04819445 0.027520139 -0.06474833

bias f4 [128]
000000 88 ba 73 3d b2 c3 15 3c 13 9d ae bd f6 02 13 3d
       0.059504062 0.009140896 -0.08526053 0.035891496
000010 21 99 42 3d 98 0f ac bc b9 b7 9d 3d 1f 3c ad bd
       0.047509316 -0.02100353 0.07701058 -0.08458733
000020 f3 d9 f7 bc 84 63 35 bd da 1f 81 bd c0 9c 3a 3b
       -0.030255293 -0.04428436 -0.06304903 0.0028474778
000030 ca 53 87 3b b5 c1 92 bd ac 78 0b bd 04 e7 f6 bb
       0.0041298615 -0.07165853 -0.03405063 -0.0075348634
000040 d4 ee 9e bd b4 34 96 3d 55 7e 1e 3d b8 9d 37 bd
       -0.077603966 0.07334271 0.0386947 -0.044828147
000050 3d 72 e9 3a 0f f5 b6 3c 6e 18 00 bb 8b 8c 33 3b
       0.0017810535 0.02233365 -0.0019545811 0.0027397003
000060 4d d0 b4 3d 36 b0 1c bc ce 71 a3 bc b2 48 c5 bc
       0.08828793 -0.009563496 -0.019951727 -0.024082515
000070 0e fb a3 bc 5f 82 9a 3c bc 0e 8b bd 6e ea 0a bc
       -0.020017173 0.018860994 -0.0678992 -0.008478744
000080 b6 24 5b 3d ce a2 12 bd 04 d2 a3 b9 57 7a 58 3d
       0.053501807 -0.035799794 -0.00031246257 0.052851047
000090 c9 b9 aa bd d9 ec a2 bd 94 b8 5e bc 64 e3 07 bd
       -0.08336217 -0.07955331 -0.013593812 -0.03317584
0000a0 1d ab 52 bc b8 09 af bd 21 4f 91 bd a2 cd 6a bd
       -0.012858179 -0.085467756 -0.07095171 -0.057325013
0000b0 f6 cb a2 3d 4d 61 3e 3c 42 7b 72 bd 2a 4b 2c bd
       0.07949059 0.011619878 -0.05919958 -0.04206387
0000c0 25 44 40 bd 35 fa 0e bd 59 5f 9c bd d4 9e b4 3d
       -0.046939988 -0.034906585 -0.076353736 0.088193566
0000d0 32 91 ec 3c 45 e7 18 3c 5b 94 93 bc 67 95 98 3a
       0.028877828 0.009332483 -0.018015077 0.0011641205
0000e0 c7 f7 60 bd 12 9b 06 3d 78 f1 87 bd df 1f 37 bb
       -0.0549238 0.03286273 -0.066378534 -0.002794258
0000f0 84 c4 74 bd f7 60 75 3d 86 91 11 3d e7 89 91 3d
       -0.059757724 0.059906926 0.035539173 0.07106381
000100 68 a7 d7 3c a1 55 88 bd b4 40 fe 3c 2d d7 50 3d
       0.026324943 -0.066569574 0.031036712 0.050986458
000110 20 57 72 bc 57 80 91 3d 03 1a 63 3d dd a5 c1 bc
       -0.01479128 0.07104557 0.05544473 -0.02363866
000120 07 1d b1 3d d4 84 70 3d a9 62 7d bd dd e3 84 3d
       0.08648115 0.058720425 -0.061861668 0.06488774
000130 23 74 49 3c f9 e9 0a bd a2 16 63 3d b6 94 14 bd
       0.012295756 -0.03391454 0.055441506 -0.036274634
000140 2d 9d 42 3d 14 f8 8c 3d 41 f2 0c bd 5e 96 f5 b9
       0.047513176 0.06883255 -0.03441072 -0.00046842074
000150 ad df 1d 3d 21 b0 4f 3d 59 7a b8 3d ae 16 39 bd
       0.038543392 0.05070508 0.09007711 -0.045187645
000160 19 81 a0 3d b0 08 6d 3c 48 a6 a8 3c f8 55 f1 3c
       0.078371234 0.014467403 0.020587102 0.029459938
000170 a0 68 90 3d 1a 25 06 3d 1d 5a 96 bc eb 01 83 bd
       0.07051206 0.032750227 -0.018353516 -0.0639685
000180 2f e4 80 bd 2c 25 68 3b 1f f7 d7 3c 8d 87 28 3d
       -0.062935226 0.0035422547 0.026362954 0.041144896
000190 7b cd 43 3c 6d 4d b3 bd 06 ae 97 3d dc 93 ae 3a
       0.011950846 -0.08755002 0.07406239 0.0013319212
0001a0 8a 9b c8 3c ac 8c aa 3d da d5 2b bd 4c f1 1b bd
       0.02448823 0.08327612 -0.04195199 -0.038071916
0001b0 c9 c2 99 bc eb 58 2f 3c 61 5b de 39 bc 90 93 bd
       -0.018769639 0.010702352 0.00042411222 -0.0720534
0001c0 ef e0 98 bd 2c dc c3 bb 42 2e ed bc 9f 4e 39 bd
       -0.07464778 -0.0059771743 -0.028952722 -0.045240995
0001d0 c1 1a 84 bd eb 54 a4 bb ba 4c 9c bd 79 f6 eb bc
       -0.064504154 -0.005015006 -0.07631822 -0.02880405
0001e0 ab e7 17 bd 7c ba 66 3d 38 f5 0a 3c 1a b9 86 3a
       -0.03708617 0.05633019 0.008481316 0.0010278553
0001f0 f5 b8 9b 3d 58 9d 41 3d 75 98 c9 bc 37 0f 09 bd
       0.07603637 0.047269195 -0.02460883 -0.033461776

weight f4 [128, 128]
000000 c0 08 62 3d 20 9c 8d 3d d9 f4 40 bd 36 e8 11 3c
       0.055184126 0.06914544 -0.047108505 0.008905461
000010 f0 07 14 3d a2 46 a2 3d 10 b6 2f bc 14 5f b0 bd
       0.036140382 0.079236284 -0.010724559 -0.08611885
000020 11 76 74 3c 3c 74 af 3d 41 03 6d bd be 0e da ba
       0.014920727 0.08567092 -0.05786443 -0.0016636474
000030 f1 cb a7 b9 46 49 91 3d ad 66 c6 bc a3 21 93 3c
       -0.0003200467 0.07094054 -0.024218882 0.017960375
000040 8f 37 61 3c f3 69 2c bd 60 a3 1e 3d 97 9a c3 3c
       0.013746156 -0.04209323 0.038730025 0.023877425
000050 ca 4b ee 3c 66 ac 8a 3d c9 c3 b3 3b 44 7f a5 ba
       0.029088873 0.06771164 0.005485986 -0.0012626429
000060 c1 da ab bb 4c 46 a4 3d 23 64 af 3c 80 cd 59 bc
       -0.0052445834 0.080212206 0.021410054 -0.013293624
000070 74 51 56 3d 21 d3 b2 bd 03 7f 95 bd 3d 12 79 bd
       0.052323774 -0.08731676 -0.07299616 -0.06080841
000080 5e eb 86 3d 78 13 9c 3d 4e 1c e3 3a cb ea a7 3c
       0.065878615 0.07620901 0.0017327161 0.0204977
000090 66 dd fa 3c af 70 85 bd f3 a1 27 bd 09 c9 fb bb
       0.03062315 -0.06515633 -0.04092593 -0.0076838774
0000a0 b0 1b 48 3d 34 05 ac 3d 8b 9c 53 3c b9 5f da bc
       0.04885453 0.0839943 0.012915741 -0.026656972
0000b0 e0 9d 80 bd 9a 64 3b bd 16 4e 77 3c dc a0 09 3d
       -0.06280112 -0.045750238 0.015094301 0.033600673
0000c0 6e 01 a0 3d f9 c6 93 bd 1c 69 37 3d ee d3 9f 3d
       0.07812773 -0.072156854 0.044777974 0.07804094
0000d0 ab 01 93 bb 0c b0 93 bd d7 7a a4 bd 8a 16 ab bd
       -0.004486283 -0.07211313 -0.08031242 -0.08353908
0000e0 d0 7f 10 3d 8f 4d a9 3c b5 d2 93 bd 36 fd 8b bb
       0.03527814 0.020666866 -0.072179236 -0.0042721285
0000f0 7f d2 e0 3c 36 61 29 bc c2 ae 86 3d 3d ea bc bc
       0.027444122 -0.010338118 0.06576301 -0.023060912
000100 61 5e b1 bd 45 44 48 bd 64 6f 5f 3d ab 57 a3 3c
       -0.086605795 -0.048893232 0.05454959 0.019939264
000110 ed 77 61 bd ba eb 17 bd e5 e2 ed bc c3 f1 64 bd
       -0.05504601 -0.03709004 -0.029038856 -0.055894624
000120 46 5a 12 3d ab 97 28 bd aa 05 86 3c 19 2f fd 3c
       0.035730623 -0.041160267 0.016360123 0.030906247
000130 02 70 b3 bd b1 2d 8a ba d2 5e 84 3d 97 b7 09 bd
       -0.08761598 -0.0010542182 0.06463398 -0.03362235
000140 38 9b 91 3d 29 c6 71 bc 97 65 a6 bd 0f 79 a1 3c
       0.07109684 -0.014756718 -0.081248455 0.019711046
000150 19 cf 28 bd 40 3e 1d 3d 4e fd 8d 3d da b6 d8 3b
       -0.04121313 0.038389444 0.0693308 0.0066135945
000160 64 3a 31 3d 9f 12 92 bd 6f bd e4 3c 4a 1e 41 bd
       0.043268576 -0.07132458 0.02792236 -0.047148027
000170 2f db a4 3b 39 42 27 3a 01 55 7c 3d c0 c4 3e 3c
       0.0050310115 0.00063804124 0.061604504 0.011643589
000180 6c f4 5a 3d 5c f2 55 3d 24 3c 60 3d c3 e1 7f 3d
       0.053455755 0.052233085 0.054744855 0.062471163
000190 43 11 93 3c de dc 13 3d 55 c0 3a bd 3f c0 2d bd
       0.017952567 0.036099307 -0.04559358 -0.04241967
0001a0 c6 68 95 3d f4 49 87 3d ed e9 b4 bc 10 18 81 bd
       0.072953746 0.06605902 -0.0220842 -0.06303418
0001b0 59 22 12 bd 7f 5f d3 bc ed 22 0f bd b8 fa 8a 3d
       -0.035677288 -0.025802372 -0.034945417 0.06786102
0001c0 57 66 85 3d 7c c5 22 3d e2 e8 82 3d ed ce a4 bd
       0.065136604 0.039739117 0.06392075 -0.080472805
0001d0 64 56 f2 bc b7 76 28 bc 44 10 63 3d 11 de 8d bd
       -0.02958221 -0.01028221 0.055435434 -0.069271214
0001e0 20 bf 5a 3d 72 bf 4b bd 96 84 ae 39 c8 bc 85 3d
       0.053404927 -0.049743123 0.0003328665 0.06530148
0001f0 d0 cb 22 3d 7c cd 56 3d e9 f6 98 bc 32 18 93 bc
       0.039745152 0.05244206 -0.018672423 -0.017955873
000200 89 8e 84 3c 16 fc 94 3c ff d4 ad bd e9 2c 80 3c
       0.016181247 0.01818661 -0.084878914 0.015646415
000210 09 55 08 3c 4d ec d2 3c 30 be 9d 3d b1 0f a3 bd
       0.008321055 0.025747443 0.07702291 -0.07961977
000220 17 c0 16 bd 9b 37 4e bd c9 25 75 bc 0f 79 f7 bc
       -0.036804285 -0.050346 -0.014962622 -0.030209092
000230 34 8d 4f bd 2a 51 09 bd d1 5e 8c 3c 43 58 83 bd
       -0.05067177 -0.03352467 0.017135056 -0.06413319
000240 8c 9b a9 bd 69 e3 8b bd be 6f 93 bb b2 5c 43 bd
       -0.08281621 -0.068304844 -0.0044994047 -0.047695823
000250 12 c7 8d 3d 03 49 3c bd 62 26 a7 bd 42 e8 74 3d
       0.06922735 -0.045968067 -0.08161618 0.05979181
000260 1e 65 8a bc 6f f7 b1 bd 28 de 9e 3d 4f 2a 63 bc
       -0.01689392 -0.08689772 0.07757217 -0.013865068
000270 88 48 c7 bd a0 99 2c bd a2 e0 68 bd e6 44 8b 3d
       -0.09730631 -0.042138696 -0.05685485 0.06800251
000280 77 bf b2 bc 94 fa 33 3c 39 06 4f bd 10 ba 50 3d
       -0.021819813 0.010985035 -0.050543044 0.050958693
000290 52 f3 a2 bd 81 a1 b6 bc 34 84 49 bc 50 3a bc 3c
       -0.07956566 -0.022293808 -0.012299586 0.022977024
0002a0 a4 77 5d bd bd b5 a7 bd 4e b6 b0 bd c7 4b b7 3c
       -0.054069176 -0.08188961 -0.08628522 0.022375
0002b0 35 d8 65 bd 58 c7 92 3d 00 c9 2d bd 5a dc 49 3c
       -0.056114394 0.07166928 -0.042428017 0.012320602
0002c0 50 72 43 3d 2c cb 51 3d ca a9 bf bd 9c 57 91 bd
       0.04771644 0.05121915 -0.093585566 -0.07096788
0002d0 96 a5 78 3a f6 dc 34 bd 44 dc 43 3d 8a 0c 6c bc
       0.00094851234 -0.044156037 0.047817484 -0.014407286
0002e0 d6 42 32 3c 9e 73 a8 bd 05 dc 47 3c 23 4f 9d bd
       0.010880193 -0.08225177 0.012198453 -0.0768111
0002f0 bf 27 2c bd 01 35 a3 bd 4d 62 8f 3b 9a 01 07 bd
       -0.042030092 -0.07969094 0.004375732 -0.03296051
000300 dd 34 80 ba 13 ed 28 bd 93 3f 37 bc 4e 9f c2 bd
       -0.000978138 -0.041241717 -0.011184591 -0.09503041
000310 ca 99 93 3d d5 f6 f3 3c 28 ee a7 bd 08 57 1f bd
       0.07207067 0.029780785 -0.081997216 -0.03890136
000320 e4 09 43 3d 38 50 fc 3c 1c d3 55 bd 3d 53 8f bd
       0.047616854 0.03079997 -0.052203283 -0.06998298
000330 76 09 bf 3c f4 c8 29 bd a2 72 96 3d 16 76 2f bd
       0.023319941 -0.04145141 0.07346083 -0.042837225
000340 47 94 a9 3c 0b 95 5f bc 5f c6 b6 bd 50 12 e3 3b
       0.020700587 -0.013646374 -0.08924555 0.0069296733
000350 6e 25 c7 bd 14 1c 57 bd e7 18 a1 bd 1f 18 b1 bd
       -0.09723936 -0.05251701 -0.07866078 -0.08647179
000360 07 11 21 bd a5 72 76 3d 5f 67 0e bd 74 4b 89 3d
       -0.03932288 0.060167927 -0.03476655 0.06703845
000370 f8 86 2d bd 8a e6 8a 3d aa a4 bf bd 73 ed f1 bc
       -0.042365044 0.06782253 -0.09357579 -0.02953217
000380 2b dd 41 bd 4d 55 3b bd 0f 0e b8 bd b7 e7 21 bd
       -0.047330063 -0.045735646 -0.089870565 -0.03952762
000390 29 6b bf bd da 4e 80 bc 0c f6 69 3d b2 50 83 3d
       -0.09346611 -0.0156626 0.057119414 0.06411876
0003a0 9c 52 8c 3d 20 f0 2e 3d 2f 8c ec b9 31 d1 87 bd
       0.06851694 0.04270947 -0.00045117873 -0.06631697
0003b0 12 51 c6 bd 6b 23 8d bd b2 40 22 3c f3 7a 63 bb
       -0.09683432 -0.06891521 0.00990312 -0.0034710735
0003c0 f4 76 9a bc 5a f5 bd 3c 8d 7d c0 bd 63 9a 96 bd
       -0.01885555 0.023188282 -0.09398947 -0.07353666
0003d0 61 37 08 bc 43 37 b5 bd 00 cf 20 3c 2c e9 80 3d
       -0.008313985 -0.08848431 0.009814978 0.06294474
0003e0 7d c6 26 bb 0c 40 96 3d 27 92 52 3d 1e 5d bc bd
       -0.0025447898 0.07336435 0.051408913 -0.09197448
0003f0 5f 8c 76 bc 81 3b 78 ba ba c4 28 bd 3b 49 ad bb
       -0.0150481155 -0.0009469316 -0.041203238 -0.005288271

weight f4 [128, 128]
000000 92 83 f8 bc 0d 41 49 bd d8 34 22 bd 2d 78 06 3d
       -0.030336175 -0.049134303 -0.039601177 0.032829452
000010 14 08 fb bd 2b 94 c1 3b 3d 87 22 bc 13 f7 51 3c
       -0.122574 0.0059075556 -0.009919939 0.012815255
000020 ab bb 92 3d 11 f1 84 bd bb b0 c2 bd 5e e4 88 3d
       0.07164701 -0.06491292 -0.09506365 0.066841826
000030 58 9e f4 3c a3 e1 8a bd 2e 0c 85 3c 54 9b ea 3d
       0.02986066 -0.06781318 0.01624116 0.11455408
000040 0f 6a 87 3c f5 46 ee 3c ac 28 8b bd 78 71 b7 bd
       0.016530065 0.02908657 -0.06794867 -0.08957189
000050 1c 23 94 bd 1b b3 8a bd 35 e2 00 be 17 8b 68 bd
       -0.07233259 -0.06772443 -0.12586291 -0.05677327
000060 8c df b1 3d d6 a7 d3 3c 73 eb 0b 3d 3d df 67 bd
       0.08685216 0.025836866 0.03416009 -0.05660938
000070 27 9d 85 bc 8a ad cf bc 45 d4 4c bd a4 06 09 3d
       -0.016310288 -0.025351305 -0.050007124 0.0334536
000080 b4 5c d8 3c 3d 05 70 3c 6e 6c 9e bc 9a 43 6d 3d
       0.026411392 0.014649686 -0.019338813 0.057925798
000090 0a f8 bd 3b 02 0f 60 bc 4d 2f 05 3d e9 fa a2 bd
       0.005797391 -0.013675453 0.032515813 -0.079580136
0000a0 ef bd 02 bd a7 ea 09 bd 07 ae b2 3d 98 1c 6f bd
       -0.031919416 -0.033671048 0.08724599 -0.05837688
0000b0 1a 9f e1 bc 34 9c 42 3d d4 06 18 3d e1 e4 8f 3d
       -0.027541686 0.04751225 0.037115887 0.07026077
0000c0 79 33 91 3d 2b 20 31 3d 6d e8 96 bd a2 38 fb 3c
       0.07089896 0.04324357 -0.073685504 0.030666653
0000d0 02 fb b6 3d 59 86 4e 3d 76 af e1 bd bb c5 06 be
       0.08934595 0.050421093 -0.11019795 -0.13161366
0000e0 55 b1 cd bd 2c 0d cd 3d de 65 0b 3b af ae 87 bd
       -0.10043589 0.10012278 0.0021270434 -0.06625115
0000f0 5b 00 04 bd f2 10 81 3d 76 9d 68 3b 51 2b 9c 3d
       -0.0322269 0.0630206 0.0035494245 0.076254494
000100 8d 54 4f 3d ba 59 c2 3d c6 c1 cb 3d a5 ad 86 bd
       0.050617743 0.0948977 0.09949069 -0.06576089
000110 88 c1 61 bd 75 4e 19 bd d2 9a 46 3c ab 9d 8d bd
       -0.055116206 -0.037428338 0.012121873 -0.069148384
000120 4a f7 34 3d 3e db f1 bb fa 51 b7 3d 5d b0 a1 3c
       0.044181146 -0.007380872 0.08951183 0.019737417
000130 4f 4a 03 bc c0 74 0b bd 09 cb 94 bb 3b 0b d3 3c
       -0.008013322 -0.03404689 -0.0045408052 0.025762191
000140 11 66 a6 3d 3b 25 ab 3d 3e 1f 91 bd 55 5d 64 bc
       0.08124936 0.083567105 -0.07086037 -0.013938268
000150 57 91 0b 3d 65 d3 af 3d f1 85 40 3c 71 07 a3 3c
       0.034074154 0.08585242 0.011750684 0.01990101
000160 c1 d0 30 bd 62 43 7f 3d bc 10 18 3d af 1c 4a 3c
       -0.043167833 0.06232012 0.037125334 0.01233594
000170 be 0a 98 bb ee f6 12 3d d4 7d bf 3c bb 40 05 bc
       -0.0046399524 0.03588002 0.02337543 -0.008133109
000180 96 63 8b bc a0 67 b6 3b 54 c9 d2 bb 75 93 06 3d
       -0.01701526 0.0055665523 -0.0064326916 0.03285547
000190 65 53 93 3c 52 79 ab bc 64 10 ae 3d b5 9e dd 3d
       0.017984102 -0.020931873 0.0849922 0.108212866
0001a0 9e 21 b9 3d cb 13 8e 3d 9a 09 0d bc 18 c4 ff bc
       0.09039615 0.06937369 -0.008608246 -0.031221434
0001b0 ad ad 39 bc e7 fd 82 bd df 33 a2 bc 6d 69 3d 3c
       -0.011332911 -0.06396084 -0.019800125 0.01156078
0001c0 a3 0e 76 bd 11 a8 04 3d e0 c6 c1 bd 36 07 8d 3d
       -0.060072552 0.032386843 -0.094617605 0.06886141
0001d0 18 0d 34 bd 2b 18 20 bc 43 4e 8f 3d 8b 29 7c bc
       -0.0439578 -0.009771387 0.06997349 -0.015390764
0001e0 da b8 7f bc 17 00 f3 39 4f f1 4c 3d 41 37 4f bb
       -0.015608037 0.0004634864 0.050034817 -0.0031618627
0001f0 ac b1 5b bd 49 37 72 3d 3e 21 92 bd 9d 3a b4 bb
       -0.053636238 0.059134755 -0.07135247 -0.0055001513
000200 d5 56 ae 3c eb c0 a4 3d 97 ef 98 bc 99 07 c3 3c
       0.02128164 0.08044609 -0.018668933 0.023807334
000210 e6 9b 02 be f5 79 3c 3d 0f dc 22 3c 68 1c 87 bd
       -0.12754783 0.046014745 0.009940161 -0.06597215
000220 31 8a 9d bb 77 b1 02 bd 05 d3 77 3c 97 92 9c 3b
       -0.0048077335 -0.031907525 0.015125995 0.004778217
000230 25 b5 39 3d b3 80 b8 3d f6 e2 a7 bd 27 6f c1 3c
       0.04533877 0.090089224 -0.08197586 0.023612572
000240 15 c4 67 3d d6 c4 1d bd 85 ae f4 bd 4d ff 9b ba
       0.056583483 -0.038517796 -0.119473495 -0.0011901647
000250 54 ad 21 3d de de ee bd f4 48 71 bd 71 32 a3 3c
       0.03947194 -0.11663602 -0.058907464 0.019921513
000260 dd 18 84 3b cc f6 23 bd 2d 4a 31 3d ee 5c 5c bd
       0.0040312842 -0.040030286 0.04328363 -0.053799562
000270 ce 57 a4 bc 22 7a d0 bd fe e1 8f bd 74 70 57 3d
       -0.0200614 -0.10179545 -0.070255265 0.052597478
000280 8f 5a b5 bd a2 0e 7a bd 6d 3a ae bc ca 47 02 3d
       -0.08855163 -0.06104911 -0.021268094 0.031806745
000290 01 93 8d bd c2 49 7d bd ff 26 8b 3d c2 f2 fb bc
       -0.069128044 -0.06183792 0.06794547 -0.030755404
0002a0 ab bf 92 3d be 71 38 3c a7 98 f2 bd 75 30 b5 3c
       0.07165464 0.011257587 -0.118455224 0.022117833
0002b0 44 75 5b bd 57 9a db 3b ee 1a 54 3c 4d e5 7f bd
       -0.05357863 0.0067017484 0.012945874 -0.062474538
0002c0 93 2a 82 bd f5 5b 61 3d 1d a9 53 bd 68 1d 9f bd
       -0.06355777 0.055019338 -0.05167495 -0.07769281
0002d0 ae 24 a1 bc 1b 39 96 bd 36 01 07 bd 94 18 d7 3d
       -0.01967081 -0.07335111 -0.03296014 0.10502735
0002e0 fc b8 41 be 2c f0 b1 bd fb 6f a0 3d 6b 6d 0a 3d
       -0.18918222 -0.08688387 0.078338586 0.033795755
0002f0 0e 05 66 3d a0 dd 11 bb 07 c3 e1 bb 5d 3c 77 bd
       0.056157164 -0.0022257343 -0.006889704 -0.0603603
000300 03 ea 8d bd f8 f4 d5 3c 0c 0c 09 bc e2 8a 04 bd
       -0.069294 0.026117787 -0.008364689 -0.03235901
000310 7d 78 10 bc 53 0c a2 bb cd c9 ab bd 8d c3 82 bd
       -0.008817789 -0.004945317 -0.083881 -0.063849546
000320 ff ed 26 bd 24 dc ab bd 75 d8 99 bc 4f df 3b bd
       -0.040754315 -0.08391598 -0.018779973 -0.04586726
000330 0f 14 4e bd c4 f5 57 3c 9a 73 76 bc b1 c5 78 bd
       -0.050312098 0.013181154 -0.01504221 -0.06073541
000340 98 44 bb 3d 82 22 95 bd 7a 4d df bc 4f 0b 20 3d
       0.091439426 -0.072819725 -0.027258623 0.039073285
000350 65 8c 92 bc f9 b6 8d bd 06 32 d3 bc bc 79 16 3d
       -0.017889211 -0.06919665 -0.025780689 0.03673719
000360 34 bc 90 bb a3 63 aa 3b 0a 64 14 bd e3 90 55 3d
       -0.004416967 0.005199866 -0.036228217 0.052140128
000370 2d 50 2a bd ab 4f b8 3d c1 fe 13 be 92 26 0f 3e
       -0.041580368 0.089995705 -0.1445265 0.13979557
000380 32 5b c0 bc 7e a8 63 3d ca f2 9e 3d d5 9b 6a 3d
       -0.023480985 0.05558061 0.07761152 0.05727752
000390 7b 68 27 3b 4e 08 53 bd 7a d1 60 3d 24 cc ef bb
       0.0025544453 -0.05152159 0.054887272 -0.0073180366
0003a0 bb 60 e2 3c 9b d0 34 bd 88 6f 07 bd 65 65 75 3d
       0.027634015 -0.044144254 -0.03306535 0.05991115
0003b0 99 01 74 bd 4e e5 35 bd 07 e3 03 bd 97 33 f9 3c
       -0.059571836 -0.044408135 -0.032198932 0.030420108
0003c0 69 ce 2b 3d 61 94 95 3d f5 6a 82 3d 96 41 7d 3d
       0.041944895 0.07303692 0.06368057 0.061830126
0003d0 67 22 4e 3d 21 98 0a 3c c5 e2 14 3d af 74 87 ba
       0.050325777 0.008459122 0.036349077 -0.0010334457
0003e0 54 9a ac bc b3 a5 0a 3d 2d 92 9d bd f2 98 7d bd
       -0.021069683 0.03384943 -0.076938964 -0.06191344
0003f0 1b 22 10 bd 01 84 34 bd 74 1d af bd cc 64 8c bd
       -0.035188776 -0.0440712 -0.085505396 -0.06855163

bias f4 [128]
000000 e2 99 00 bd fc b0 71 3d 6a fd ac bc 65 c0 20 bd
       -0.031396754 0.059006676 -0.021116931 -0.03924598
000010 c7 00 04 bd da 94 89 3d 2a 9f c8 3d 93 ee b2 ba
       -0.032227304 0.06717844 0.09795983 -0.0013651423
000020 c8 19 ac ba bc ac a3 bd 11 85 bd 3d e1 0e 2f bc
       -0.0013130242 -0.07991931 0.09253896 -0.0106847
000030 cf 42 77 3d 83 04 fd 3d 27 51 a9 3d e1 9a 83 3c
       0.060366448 0.12354376 0.08267432 0.016065063
000040 11 64 c6 3d f9 60 fe bc f9 4c ca bd 5e b1 65 bc
       0.09687055 -0.0310521 -0.098779626 -0.014019338
000050 41 cf 91 bd e9 b9 a9 3d ce 19 21 bd 99 fd 6b bb
       -0.07119609 0.08287413 -0.03933125 -0.003600931
000060 e6 9d 92 bd 37 32 ac bd 41 58 a9 bb 25 8f c3 3d
       -0.07159023 -0.08408015 -0.0051679914 0.09548787
000070 99 12 4a 3d 98 59 4d 3c 8b f1 fe 3c 63 39 86 bd
       0.049334142 0.012533568 0.031121036 -0.065539144
000080 dd 05 9b bd 23 3c ab 3d 8b 5a b2 bc f4 94 84 bd
       -0.07569478 0.083610795 -0.02177169 -0.06473723
000090 30 2e 88 bd 75 5e 4f bd 4b d7 95 bd 3b d6 4c 3d
       -0.066494346 -0.05062719 -0.073164545 0.050008994
0000a0 12 7e 22 bc c7 76 bd bd c5 7f f0 bc ca 4c 20 3c
       -0.009917753 -0.092511706 -0.0293578 0.009783933
0000b0 71 74 8f 3d 45 03 9a 3d 84 b8 61 bd 73 09 1b bd
       0.07004631 0.07520155 -0.05510761 -0.03785081
0000c0 2e 9d fe bc 0a e7 b9 bd 68 d2 64 3c 43 b5 c5 3d
       -0.031080808 -0.0907727 0.01396618 0.096537136
0000d0 7b d0 9d 3c fa 85 78 3c d7 97 ea 3c d1 bd 74 bd
       0.01926445 0.015168661 0.028636856 -0.059751336
0000e0 f4 fc 82 3d 85 76 7c bd 95 b1 b7 bd dd c9 26 bd
       0.06395903 -0.061636467 -0.08969418 -0.040719856
0000f0 e3 0e 9d 3c d0 e4 aa bd ca 50 cc bd c9 e5 96 bd
       0.019172138 -0.08344424 -0.09976347 -0.07368047
000100 b9 2e 06 3d 81 0a a3 bc 60 a5 c4 bd 69 5e 83 bd
       0.032759402 -0.01990247 -0.09601855 -0.06414492
000110 93 d4 df 3b f5 7e bc bd 3c fc 71 3d 98 fd a6 bd
       0.0068307607 -0.09203903 0.05907844 -0.08153838
000120 a6 e4 49 bc 5a ac 7b bd db cf 89 3d c9 1f 07 bd
       -0.01232258 -0.061443664 0.067290984 -0.032989297
000130 23 3b f0 bc 92 7e 86 bd 4d e9 a4 bc 76 84 8d 3d
       -0.029325074 -0.0656711 -0.020130778 0.069100305
000140 94 25 b5 3d 90 e0 4b bd cc 18 98 bd c8 e4 6d bd
       0.08845058 -0.049774706 -0.07426605 -0.05807951
000150 9f bb 7b 3c 6f 2b 71 ba 1d ec 93 3c fd 93 c6 bc
       0.015364557 -0.00091998925 0.018056924 -0.024240488
000160 39 e1 08 bc 08 e2 1f 3d fa a0 ee 3c cd 74 37 3d
       -0.0083544785 0.03903392 0.029129494 0.044789124
000170 93 0c e4 3d 16 7b c4 3d 91 c2 95 3d b0 e4 83 bc
       0.11135211 0.09593789 0.07312501 -0.016100258
000180 96 47 61 bc 13 e7 f9 bd 25 2f 14 bb 21 22 88 bd
       -0.013749978 -0.12202277 -0.0022611108 -0.066471346
000190 21 f6 11 3d 31 99 b0 3c 42 1f 68 bc 82 e4 d9 3d
       0.035635117 0.021557422 -0.014167609 0.106392875
0001a0 72 ba 80 3c 00 3e 93 bd df 8e bc bd 85 41 06 3d
       0.015713904 -0.0718956 -0.09206938 0.032777328
0001b0 80 72 c1 3c 6f d2 f8 bd eb c9 3a ba db 5c 8a bc
       0.023614168 -0.12149512 -0.0007125425 -0.01688998
0001c0 f7 fb 87 bc 0c be 95 bd 2e 9d a6 bc ff d2 09 3d
       -0.016599638 -0.07311639 -0.020338621 0.033648487
0001d0 97 ce 49 3d 76 39 f8 bc 6e b4 95 3d 3d e3 c6 bd
       0.049269285 -0.030300837 0.07309805 -0.09711311
0001e0 a8 56 95 3d 88 1a c0 bc 57 b4 a4 3c d6 59 76 3d
       0.07291919 -0.023450151 0.020105524 0.060144268
0001f0 76 db 38 3d a5 73 b8 3d f2 cc 24 3d c3 0f e3 3c
       0.04513117 0.090064324 0.040234514 0.027717477

weight f4 [128, 128]
000000 10 0c 6d bc c5 e5 21 be 3f b9 a4 bd 86 5f 11 be
       -0.014468208 -0.15810306 -0.080431454 -0.14196596
000010 ba 11 16 bd 62 6e 65 be cd f1 f0 bd f5 61 8d be
       -0.036638 -0.22405389 -0.1176487 -0.27613798
000020 4d 24 65 be 89 62 da bd b6 d9 64 be b3 06 7c be
       -0.22377129 -0.10663325 -0.22348675 -0.2461193
000030 2c 9c 05 be 36 f3 85 be 7c d6 a6 be da b7 1f be
       -0.13047856 -0.26162118 -0.32585514 -0.15597478
000040 e0 76 9c be 33 74 40 bd 47 59 0f be 66 f0 2c bf
       -0.30559444 -0.046985816 -0.139989 -0.6755432
000050 f5 5e 20 bf a7 ef 02 be fe d7 17 be 6e 39 78 be
       -0.6264489 -0.12786733 -0.14828488 -0.24240658
000060 53 ce 44 be 18 97 8f be 6a 7d fb bd a4 1b a1 bd
       -0.19219331 -0.28044963 -0.1227978 -0.078666
000070 37 5e 7e bd cd 49 ea bd a1 21 b6 be 4b 35 a1 be
       -0.06210157 -0.11439858 -0.35572532 -0.31485972
000080 85 13 45 bd fb 64 5f bd 37 80 8f bd a1 6e 12 be
       -0.04811432 -0.05453966 -0.07006877 -0.14300014
000090 02 63 ad bd ab 8e a5 be ff 8e b3 be 54 ab 05 be
       -0.0846615 -0.3233541 -0.35070035 -0.13053638
0000a0 ee 26 66 be 78 91 9d be 05 4f ed bd e4 45 ff ba
       -0.22475788 -0.30775046 -0.115873374 -0.0019475785
0000b0 7d d2 b9 bd 99 c4 47 bc 8f 90 88 bd ba e3 5a be
       -0.090733506 -0.012192869 -0.06668197 -0.21375933
0000c0 1f d1 6f be c2 12 6f be f3 e1 91 be ac 82 41 bd
       -0.23419617 -0.23347 -0.28492698 -0.04724376
0000d0 41 b6 a4 be a1 54 14 be 26 57 d6 be 64 62 25 bf
       -0.321703 -0.14485408 -0.41863364 -0.6460326
0000e0 d1 a2 62 bd 25 63 9c bd 94 47 13 bf c1 0b 42 be
       -0.055331055 -0.07636098 -0.57531095 -0.18949796
0000f0 e0 f0 a3 be ca e7 4e bc a5 81 96 3c 39 e4 b0 be
       -0.3201971 -0.012628505 0.018372366 -0.3454912
000100 1a b9 84 be 5e 22 9d be 8c 80 a2 be d1 7c 88 be
       -0.2592247 -0.30690283 -0.31738698 -0.26657727
000110 54 ec ba bd 9e b0 8f bd 90 b7 e3 bd 10 6a 1b be
       -0.09127107 -0.07016109 -0.11118996 -0.15177178
000120 5c 1c 76 3c c4 b0 4c be 53 31 a1 bd be fc 1e be
       0.01502141 -0.19989306 -0.07870736 -0.15526101
000130 87 e5 64 be 5e 7c b3 bd cd 59 b6 be d0 92 e1 bd
       -0.22353183 -0.087639555 -0.35615388 -0.110143304
000140 00 dc 94 bd c7 71 5f be a1 14 69 bd 5f ca 39 be
       -0.07268524 -0.21820746 -0.05690444 -0.18143605
000150 5c 80 94 bd 3d dd 24 be f8 d9 60 bd 55 d4 af be
       -0.07251045 -0.1610002 -0.05489537 -0.34341684
000160 c0 af 0d be 7e 41 40 be 1d 22 37 bd 5a f3 eb bd
       -0.13836575 -0.18774983 -0.044710267 -0.11521025
000170 bc 33 ff bd 87 ab 8e be 65 ae 7f bc f1 61 1e bf
       -0.124610394 -0.2786524 -0.015605544 -0.61868197
000180 96 47 ed be 1e 64 4f 3c b0 8f 75 be ca 9e b0 be
       -0.46343678 0.012658147 -0.23980594 -0.34496146
000190 09 88 0f be b9 6e 89 be 57 e9 a1 be 0f 15 61 be
       -0.14016737 -0.26842287 -0.31623337 -0.2198069
0001a0 22 89 8d bd f1 88 85 be a6 4f cd 3b e1 31 84 be
       -0.06910922 -0.2608104 0.0062655983 -0.25819305
0001b0 e3 50 dc bc 55 06 87 be c4 46 95 be 88 4d 9b be
       -0.026894039 -0.26372018 -0.29155552 -0.3033259
0001c0 27 cf d2 bc 55 99 07 be 23 bf 1a bf 7b 2d b2 be
       -0.025733544 -0.13242085 -0.604479 -0.34800324
0001d0 c0 b1 98 be 77 bd 23 bc a0 6e 98 be c5 d5 4c 3c
       -0.29823112 -0.009993902 -0.297719 0.0125021385
0001e0 11 5a 55 be 39 da fb bd 64 d8 57 be db b6 ea bd
       -0.20835139 -0.12297482 -0.2107864 -0.11460658
0001f0 32 16 e7 bd be ac b6 be 86 84 75 be 13 cf 25 be
       -0.1128353 -0.35678667 -0.23976335 -0.16192274
000200 c9 4f 4f 3e 2c 6a d3 bd 45 97 11 3e c5 a5 d6 3d
       0.2024528 -0.10322985 0.14217861 0.10480837
000210 52 82 ea 3d fa 96 04 be 76 ab 8b 3c 28 32 44 bd
       0.11450638 -0.12948218 0.017049532 -0.047899395
000220 3a 25 15 be af 6e 71 3e e0 b1 7e be 36 53 73 bd
       -0.14564982 0.23577379 -0.24872541 -0.059405528
000230 1d 38 93 3e b4 3d 8a bd 0e 68 1a be aa 0d 90 3e
       0.2875375 -0.0675005 -0.15078756 0.28135425
000240 65 d4 0f be 63 e8 83 3e aa e0 3c 3e 28 75 3c 3c
       -0.14045866 0.25763234 0.18445078 0.011502542
000250 30 0d 0b 3d c3 92 4d 3e a5 19 2d bd ac 17 4d be
       0.033948123 0.20075516 -0.042260785 -0.20028561
000260 ba a2 fa bd 4e 14 91 3b a7 13 9d 3e 87 22 6e 3e
       -0.12238069 0.0044274693 0.30679056 0.23255359
000270 80 b1 52 3e ca 87 57 3d 67 24 15 be 5e 9a 21 bc
       0.20575523 0.052619733 -0.14564668 -0.009863464
000280 75 9e b9 3e 35 ae c6 3d 13 30 92 3e 7f b2 27 3e
       0.36253706 0.09701196 0.28552303 0.16376685
000290 e1 e5 b8 3e 1c 2f 7e bc 61 d9 51 bd ca 64 fc 3d
       0.36112884 -0.015514161 -0.0512327 0.123239115
0002a0 2d a0 30 be 2b 72 60 bd b0 80 01 3e 5d 7f 46 3e
       -0.17248602 -0.05479638 0.12646747 0.19384523
0002b0 66 d9 b2 3e b6 bc 08 3e 67 dc f0 3d 72 9a a4 bd
       0.34931487 0.13353238 0.117607884 -0.080372706
0002c0 10 a3 09 be bc 6c 37 bd 28 2a 03 be e5 a4 55 3e
       -0.1344111 -0.04478143 -0.1280905 0.20863684
0002d0 0d 78 b2 bc 67 65 8c 3e 72 84 36 be 62 f2 00 3d
       -0.02178576 0.27421114 -0.17823961 0.031481154
0002e0 3a e5 0b bd cc aa bf 3d 94 d7 e1 bd 4b 33 a7 bd
       -0.034154154 0.09358749 -0.110274464 -0.0816408
0002f0 a2 ad 4b 3c c7 57 b5 3e d4 51 72 3e bc 12 a5 bd
       0.012431534 0.3541853 0.23664027 -0.08060214
000300 d4 21 44 3d c7 22 e9 bd c4 9a d2 bd e4 72 37 be
       0.047883824 -0.113835864 -0.102834255 -0.17914921
000310 d1 a2 98 3e 8c 1a 1d 3e 9a c6 98 3c fa bb 57 be
       0.2981172 0.15342158 0.018649388 -0.21067801
000320 70 89 90 3e 99 87 78 be 3d 1a 80 3e 92 b1 ed 3b
       0.28229856 -0.24270476 0.25020018 0.007253834
000330 5f 67 1b be 9e 53 91 3e 1d f2 b7 3c fe 24 82 3d
       -0.15176152 0.28384107 0.022454316 0.06354712
000340 99 b4 b7 3e c6 a1 03 bc 5d e6 78 3e 2e bb e8 bd
       0.35879973 -0.008034175 0.24306627 -0.11363827
000350 96 cd 61 3e ec a6 45 3e 09 a1 e7 3d ca 79 5d bc
       0.22051081 0.19301957 0.11310012 -0.013517806
000360 25 52 ba 3e 4c 2c 8c 3b 7c f6 8b 3e 2d d3 40 3e
       0.36390796 0.0042777415 0.2733649 0.18830557
000370 a4 ad 85 3e c5 ac 47 bc bb 27 1f bc d3 0e 07 3e
       0.2610904 -0.012187188 -0.009714062 0.13189249
000380 d9 9a 27 be 7a 78 6d 3e 5f b4 3f bd 53 0a 08 be
       -0.16367663 0.2319049 -0.046802875 -0.13285188
000390 0f 12 8d 3e 67 c1 10 be 10 a0 08 bd 3e ea 2c 3d
       0.2755284 -0.14136277 -0.033355772 0.04221558
0003a0 1f 79 80 3e 7f 47 a4 bd 05 77 84 3e b7 c9 70 be
       0.25092408 -0.08021449 0.25872055 -0.23514448
0003b0 ce d0 ab 3e 59 b1 e6 bd 38 c1 5a bd 15 83 cf 3b
       0.33557743 -0.11264295 -0.053406924 0.006332765
0003c0 1a f8 a7 3e e1 9c e8 bd 35 b8 da bd 08 fd 7f bd
       0.32806474 -0.11358047 -0.10679666 -0.06249717
0003d0 f9 d1 0e be ea d3 59 3e 21 7e 32 bd f8 b2 6a 3e
       -0.13947286 0.21272245 -0.043577317 0.22919834
0003e0 a4 46 e0 bd eb 55 9d bd 79 69 e2 bc 43 b7 8f 3e
       -0.10950974 -0.07682403 -0.027638184 0.28069505
0003f0 7a 71 d8 3d 8f e0 07 be ce f6 1f be e3 86 31 be
       0.10568519 -0.13269256 -0.15621492 -0.17336611

weight f4 [128]
000000 84 f8 54 3f 80 c4 86 3f 51 13 4f 3f 0a 61 3f 3f
       0.83191705 1.0528717 0.8088885 0.74757445
000010 74 7d 61 3f b5 a9 88 3f 44 e7 4c 3f 25 58 81 3f
       0.8808205 1.067679 0.80040383 1.0105025
000020 89 b4 85 3f 82 5c 53 3f 83 a7 85 3f b5 6d 80 3f
       1.044572 0.8256303 1.0441746 1.003348
000030 c8 51 5e 3f f5 dd 7b 3f 4f a7 83 3f d8 15 5d 3f
       0.8684354 0.98385555 1.0285434 0.86361456
000040 89 10 87 3f 0f 9d 6c 3f a8 96 53 3f a8 0b 9d 3f
       1.0551921 0.9242715 0.8265176 1.2269182
000050 22 8e a0 3f c6 4e 4c 3f ba 9b 70 3f c1 1f 82 3f
       1.2543375 0.798077 0.9398762 1.016594
000060 cc fb 7b 3f aa 91 85 3f 94 b5 6b 3f 46 ea 51 3f
       0.98431087 1.0435078 0.9207394 0.819981
000070 25 c9 2c 3f 2a c4 61 3f 93 b8 86 3f 39 5a 87 3f
       0.6749442 0.8818995 1.0525078 1.0574409
000080 80 7c 5d 3f e0 0c 62 3f 83 55 60 3f b1 af 44 3f
       0.86518097 0.88300896 0.8763048 0.76830584
000090 d9 74 4a 3f c0 00 80 3f c7 3e 83 3f 66 38 66 3f
       0.79084545 1.0000229 1.0253533 0.8992981
0000a0 cd c3 83 3f 15 ad 86 3f c2 ea 53 3f e8 dc 3e 3f
       1.0294129 1.052157 0.82780087 0.74555826
0000b0 64 d3 61 3f 2d f6 31 3f b1 fb 6d 3f 42 48 82 3f
       0.8821318 0.6951626 0.92962176 1.0178301
0000c0 aa 10 7f 3f 18 ea 85 3f 02 0c 7a 3f 5a a4 5c 3f
       0.996348 1.0462065 0.9767457 0.8618828
0000d0 2c 27 73 3f e8 75 5b 3f 8d 72 92 3f 33 df 9e 3f
       0.94981647 0.85726786 1.1441208 1.2411865
0000e0 0c 12 65 3f 1c d4 54 3f fb 05 8f 3f 47 68 7e 3f
       0.8948066 0.83136153 1.11737 0.99377865
0000f0 18 0a 84 3f 49 62 60 3f 0d 3f 54 3f 18 a4 85 3f
       1.031558 0.8764997 0.8290871 1.0440702
000100 e3 37 82 3f 70 8d 81 3f 40 73 85 3f 1d b5 87 3f
       1.0173305 1.0121288 1.0425797 1.0602146
000110 57 ed 69 3f df 73 56 3f f2 b7 41 3f 4c 0d 82 3f
       0.91377777 0.83770555 0.75671303 1.0160308
000120 a8 05 65 3f aa d8 88 3f c8 8d 59 3f ec eb 61 3f
       0.89461756 1.0691121 0.84981966 0.88250613
000130 ff 4a 7c 3f c4 c3 66 3f 46 c9 7b 3f d9 e9 66 3f
       0.98551935 0.90142465 0.98353994 0.90200573
000140 72 6b 5a 3f 8b eb 79 3f 44 de 4f 3f eb 9a 85 3f
       0.853202 0.97625035 0.81198525 1.0437902
000150 75 a9 43 3f 75 3f 60 3f 97 9c 65 3f 75 48 86 3f
       0.76430446 0.8759683 0.8969206 1.0490862
000160 ab e0 6f 3f 9d 20 83 3f 20 79 61 3f 69 26 67 3f
       0.9370219 1.0244328 0.8807545 0.90292984
000170 bb 60 5c 3f aa d7 82 3f d9 e2 57 3f cc 11 92 3f
       0.860851 1.0222065 0.8433052 1.1411681
000180 02 82 94 3f 76 0c 67 3f 3e f3 78 3f 5b aa 84 3f
       1.1602175 0.9025339 0.9724616 1.0364488
000190 f2 4b 6b 3f 50 02 84 3f 9a f5 7b 3f cd 32 75 3f
       0.9191276 1.0313206 0.98421633 0.9578064
0001a0 a5 f8 5a 3f 95 f0 81 3f 9f db 3f 3f f1 ad 82 3f
       0.8553565 1.0151545 0.7494449 1.0209333
0001b0 d4 4c 5c 3f 2c ad 83 3f 42 54 7e 3f 85 a7 84 3f
       0.8605473 1.0287223 0.9934732 1.0363623
0001c0 ec 17 66 3f 4c a4 82 3f 25 09 a1 3f 82 00 81 3f
       0.8988025 1.020639 1.2580916 1.007828
0001d0 e3 0c 7c 3f ab 20 54 3f 5f 39 82 3f 05 a8 66 3f
       0.98457164 0.8286235 1.0173758 0.9010013
0001e0 08 9b 7f 3f df 3a 46 3f 7d 5f 83 3f 6b 2d 45 3f
       0.99845934 0.7743358 1.0263516 0.7702243
0001f0 05 42 5b 3f 2d 31 86 3f c2 e8 7f 3f b4 2e 82 3f
       0.8564761 1.0483757 0.99964535 1.0170503

bias f4 [128]
000000 ff b2 f9 3d 75 62 0b 3e a3 bf 57 3c 11 8c 37 be
       0.12192344 0.13611777 0.013168248 -0.17924525
000010 ea c4 c2 be a8 0d 06 3e 6b 0f 54 be d9 02 96 3d
       -0.38040859 0.13091147 -0.20709006 0.07324762
000020 4b fe d7 3d c9 5e eb 3d 1e 20 06 3e 2f b1 9e bc
       0.105465494 0.11492688 0.13098189 -0.019371597
000030 f0 45 fa 3d 6d 47 8b 3d 5b 84 b9 ba 9b 7f 03 3f
       0.12220371 0.06800733 -0.0014153825 0.51366585
000040 1b 1e 3f 3d 18 c6 0c 3f 50 98 ca 3b 69 75 0c bf
       0.04665957 0.5498977 0.006182708 -0.54866654
000050 c8 06 0f bf b1 a3 0d 3c 83 98 d7 be 72 b5 a3 3d
       -0.5586972 0.008644984 -0.42108545 0.07993592
000060 3b 7f 18 bc 97 17 43 bc 4d df 08 3e dc 5f fa 3a
       -0.009307678 -0.01190748 0.13366432 0.0019102055
000070 b9 dd c5 3d 4b 03 50 be 9f 64 10 bc cb 4f c7 3c
       0.09661431 -0.20313756 -0.008813052 0.02433004
000080 8d 0f 01 3e ff 40 34 bb 17 14 05 3e eb af 21 3c
       0.12603588 -0.002750456 0.12995945 0.009868602
000090 68 f1 e1 3d b3 5c b7 ba ed 24 86 bc 00 dc 6e be
       0.11032373 -0.0013989419 -0.01637503 -0.23326111
0000a0 5b c6 02 3e 2f 6d bb 3d 6a 65 2a 3c 85 e9 76 3b
       0.12770979 0.091516845 0.010400156 0.003767581
0000b0 27 6e 05 3e 57 84 19 3c ed 51 96 3a 4b 03 4a bc
       0.13030301 0.009369931 0.0011468508 -0.012329887
0000c0 93 63 de 3e 77 5d 2e bc 3f b5 76 3d b7 59 46 3c
       0.43435344 -0.010642401 0.060231443 0.012106351
0000d0 d4 d5 25 bc d3 98 00 3e a0 c1 29 bf 72 d9 0c bf
       -0.010121781 0.12558298 -0.66311073 -0.55019295
0000e0 b4 44 29 bf c1 c4 5d 3e a6 91 26 bf ec ce 20 3b
       -0.6612046 0.21657087 -0.6506599 0.0024537398
0000f0 d5 a1 85 bc 83 b6 fb 3d b9 c0 de 3d 5f 56 84 3c
       -0.01631252 0.12290671 0.10876603 0.016154466
000100 85 5b 94 bc 2c 49 b8 bb 86 10 ac bc ca 11 07 3e
       -0.018110046 -0.005623957 -0.021003973 0.1319038
000110 0d 15 0c 3e 5c 61 b6 bc ba f4 82 be 5e 67 fc 3d
       0.13679905 -0.022263221 -0.25577337 0.12324403
000120 89 c1 06 3e 8c ee 03 3e 4c 05 fd 3d 7a 15 a7 be
       0.13159765 0.12883967 0.12354526 -0.32633573
000130 79 05 b0 bb fc fe ff 3e 40 a9 76 bc 3b 6c 1a be
       -0.005371746 0.49999225 -0.015055001 -0.15080349
000140 bc f9 01 3f 54 e2 a0 bc c4 1b f2 3d 1d 27 f3 3d
       0.5077169 -0.019639172 0.11821702 0.11872695
000150 c8 0d dc 3d b5 d8 4b 3c 9f 8d 22 3a 9c 40 32 3c
       0.10744816 0.012441804 0.0006200913 0.010879662
000160 3e b0 0b 3e 59 2c ff bb 9c 44 04 3e 8c b3 09 3f
       0.1364145 -0.007787269 0.12916797 0.5378959
000170 82 94 42 3c cc 3c 94 bc 83 6c f7 be 78 ed fe be
       0.011876227 -0.018095396 -0.48324975 -0.4979055
000180 0a 8f 2c bf d2 eb fe 3d de 0e 39 bb 77 26 34 bc
       -0.6740576 0.12447323 -0.0028237621 -0.010995499
000190 14 b5 09 3e 3c a2 72 bc 03 2c 27 bc 9f 4d b4 bc
       0.13447982 -0.0148091875 -0.010203364 -0.022009669
0001a0 8f 7d fd 3d 42 d1 93 bc 5a 14 34 3c 1a 11 1d 3e
       0.12377464 -0.018044118 0.01099118 0.15338555
0001b0 83 b5 00 3e c9 ee 89 bc 5b c2 8a bc 4e 69 85 bc
       0.12569241 -0.016837494 -0.016938379 -0.016285565
0001c0 cb 3a 07 3e dc 29 f0 3d 76 af 3a bf 5d b9 c0 bc
       0.13206021 0.11726734 -0.7292398 -0.023525888
0001d0 16 5b 59 3c bd bf f2 3d a1 0b 5b bc 86 43 2a 3c
       0.0132663455 0.118529774 -0.013369472 0.010392075
0001e0 03 3b f4 3d 08 55 43 bc b2 65 85 bc 69 b6 a7 3d
       0.11925318 -0.0119221285 -0.016283844 0.08189089
0001f0 88 0a cd be 7b ee 85 bc f0 11 f8 3d 27 eb ff 3d
       -0.40047097 -0.016349068 0.12112796 0.124960236

running_mean f4 [128]
000000 fe e9 e8 40 7e 1f e4 c0 cb f9 d3 40 02 85 8d c1
       7.2785635 -7.1288443 6.6242423 -17.689945
000010 c8 fb e3 40 dd 59 0a c1 35 6d 57 41 19 79 b0 c0
       7.124485 -8.646939 13.464162 -5.5147824
000020 63 87 13 c1 ec 07 4f 40 5a bd 70 c1 4f 7b f7 bf
       -9.220553 3.2348585 -15.046228 -1.9334506
000030 d5 e9 56 41 5e fb da c0 25 63 e7 bf 46 fc bf 40
       13.432088 -6.8431845 -1.8077132 5.999545
000040 55 de 4b c0 42 8c 0b 41 97 9c 0e 41 20 6e 44 c0
       -3.185445 8.721743 8.91323 -3.0692215
000050 0a 72 01 c1 48 e6 65 40 11 da 37 41 e5 5a 6b c0
       -8.090342 3.5921803 11.490739 -3.6774228
000060 5d 05 a6 bf 1c a5 c9 c0 72 38 92 40 3e 61 31 41
       -1.2970387 -6.301405 4.5693903 11.086241
000070 cd f4 92 41 25 d1 97 c1 1a 79 8e c0 73 53 78 c0
       18.369532 -18.977121 -4.452283 -3.8800933
000080 e4 ed 69 41 e6 a0 3c 41 88 1c 91 41 06 8f dc 40
       14.620579 11.789282 18.138931 6.892459
000090 ea 62 9c 40 4e 75 aa c0 09 4d 6a c0 2a 54 97 c1
       4.8870745 -5.3268194 -3.6609519 -18.916096
0000a0 ef 10 24 c1 4e ca c6 c0 0e 00 2a 40 b2 dd b6 40
       -10.254134 -6.2121954 2.6562533 5.7145624
0000b0 17 f0 f5 40 36 8d 4b 41 2d 57 f0 40 82 b8 a8 c0
       7.685558 12.721975 7.5106416 -5.272523
0000c0 b0 90 59 c1 5e 58 e4 c0 2c 5d 51 c0 a7 0f 15 41
       -13.597824 -7.135787 -3.2713118 9.316321
0000d0 65 a9 eb bf d8 82 1a 40 a9 bd 8f c0 8f 87 9b 40
       -1.841107 2.414236 -4.491902 4.8602977
0000e0 30 41 1f 41 d5 46 7d c1 8d 44 ba c1 fe 25 ce c0
       9.953415 -15.829793 -23.283472 -6.4421377
0000f0 c9 a2 e1 bf 46 f5 5e 41 f9 75 c3 40 19 f6 51 c0
       -1.7627803 13.934881 6.108151 -3.2806456
000100 12 f2 2f c0 ed c2 d5 c0 0d 8d 48 c0 23 c2 e8 c0
       -2.7491498 -6.6800447 -3.133609 -7.2736983
000110 5d bc 6e 41 c9 80 19 41 9b 75 5a c1 6a a2 50 c0
       14.920987 9.593942 -13.653712 -3.259913
000120 73 b5 96 40 99 16 07 c1 f8 df 17 41 f3 31 6d 41
       4.7096496 -8.443017 9.49218 14.824695
000130 01 f5 6e c0 b0 7e 20 41 7b d7 f4 bf ac 93 96 c1
       -3.7337039 10.03093 -1.912826 -18.822105
000140 3a ea 26 41 cb 2d 86 c0 e9 4a 87 41 57 aa bd c0
       10.432184 -4.19309 16.911577 -5.9270434
000150 a7 e5 4e 41 67 39 dd 40 44 0c 3d 40 e9 4b de c0
       12.931067 6.913257 2.9538736 -6.9467664
000160 76 cc 67 41 9f cc 94 bf 84 08 82 41 69 d7 a1 41
       14.487417 -1.1624945 16.254158 20.23018
000170 e2 f8 26 41 83 10 2b c1 94 f3 0f 41 3a e8 6b c0
       10.435762 -10.691531 8.996967 -3.686049
000180 f0 02 a9 c1 f0 d7 72 41 fc c7 a3 c0 b7 14 e0 c0
       -21.126434 15.177719 -5.118162 -7.0025287
000190 98 eb cf 40 e1 bb 52 c0 d8 76 00 c1 56 ad 61 c0
       6.497509 -3.2927172 -8.029015 -3.5262046
0001a0 be 13 8e 40 09 88 76 c0 66 e5 67 41 91 6c 6d c1
       4.43991 -3.852053 14.4935055 -14.839005
0001b0 fd 51 20 41 ff 15 ed c0 bd 09 6e c0 42 11 86 c0
       10.020017 -7.408935 -3.7193444 -4.1896067
0001c0 af 7f 76 41 f7 c1 55 c0 33 35 84 c1 9b 35 6d c0
       15.406173 -3.3399637 -16.525976 -3.7063968
0001d0 30 24 7b c0 5b df 4e 41 4b 9b 37 c0 c2 7e 3e 41
       -3.9240837 12.92953 -2.8688533 11.905947
0001e0 54 c7 b4 c0 fb 85 32 c1 77 d2 02 c0 6e 65 88 41
       -5.649332 -11.15771 -2.0440958 17.049526
0001f0 b0 da 83 c1 2e ff 86 bf d4 6e 1e c1 79 4a 04 c1
       -16.481781 -1.0546625 -9.902058 -8.268182

running_var f4 [128]
000000 9c d0 ff 41 e9 60 79 41 36 b0 10 42 83 f5 58 43
       31.97686 15.58616 36.17208 216.95903
000010 e7 ce aa 41 bb 8f 11 42 8f 39 19 43 c8 1c 26 42
       21.351027 36.39036 153.22484 41.528107
000020 79 be 2b 42 ea 7c b4 40 90 15 03 43 8e 06 80 40
       42.93601 5.6402483 131.08423 4.0008
000030 24 07 fd 42 91 54 18 42 6a 92 ae 40 b1 e8 97 41
       126.51395 38.082584 5.455373 18.988619
000040 2e c0 1b 41 40 1c 40 42 68 84 29 42 49 e3 02 41
       9.734419 48.027588 42.379303 8.18049
000050 08 65 42 41 79 38 d8 40 39 bc 06 42 e9 40 87 41
       12.149666 6.7568936 33.68381 16.906694
000060 11 3b 31 40 98 29 be 41 12 6f 01 41 70 cf 8b 42
       2.7692301 23.77031 8.089617 69.90515
000070 2b 6b 7c 43 2f d1 5a 43 e9 c2 ab 40 b1 61 00 41
       252.41862 218.81712 5.3675427 8.02385
000080 9e db ef 42 79 54 b3 42 51 30 73 43 88 c2 06 42
       119.92894 89.664986 243.18874 33.689972
000090 8b c3 56 41 01 47 49 41 4d c1 ee 40 50 c9 63 43
       13.42274 12.579835 7.4610963 227.78638
0000a0 34 d6 82 42 34 d1 f8 41 9b b2 3e 41 85 e3 89 41
       65.418365 31.10215 11.918605 17.236094
0000b0 e9 88 d0 41 80 e7 c0 42 c5 3a d6 41 5b 68 71 41
       26.06685 96.45215 26.778696 15.087977
0000c0 91 d4 f7 42 48 02 ab 41 8e 39 a5 40 94 f9 35 42
       123.91517 21.376114 5.1632757 45.49373
0000d0 d8 ff 56 40 5f 2e 04 41 c0 f3 9d 41 4e 6a c8 40
       3.3593655 8.261321 19.744019 6.2629766
0000e0 97 d1 10 43 f9 2e 5f 43 70 9c d5 43 48 57 ec 41
       144.81871 223.18349 427.22217 29.542618
0000f0 e6 90 ac 40 c4 71 f4 42 3c 58 05 42 f1 95 d5 40
       5.392688 122.2222 33.336166 6.6745534
000100 39 6c b9 40 7d 34 ef 41 a2 bf 5a 40 9f 8c 0a 42
       5.794461 29.900629 3.4179463 34.637325
000110 bf 82 1c 43 3f 79 8c 42 07 6a 0e 43 96 19 19 41
       156.51073 70.23681 142.41417 9.568747
000120 df 05 01 41 34 14 11 42 43 a8 7d 42 c4 78 f6 42
       8.063933 36.26973 63.414318 123.23587
000130 7f f2 c4 40 36 a8 d5 41 28 e0 1a 41 de 8b 7c 43
       6.1546016 26.707134 9.679726 252.54636
000140 23 1b ac 42 66 93 50 41 45 fb 55 43 40 e1 a8 41
       86.053 13.035986 213.98152 21.109985
000150 fd 15 fa 42 de 4e f8 41 ea 85 d2 40 2b 19 14 42
       125.042946 31.03851 6.578847 37.02458
000160 c0 c1 1c 43 be 23 fc 40 0a ae 2f 43 23 67 a0 43
       156.75684 7.879363 175.67984 320.80576
000170 24 f3 8f 42 86 c3 a0 42 8f 70 ab 42 1e b1 d0 40
       71.974884 80.38188 85.71984 6.5216208
000180 13 92 71 43 ee d7 19 43 e0 2b 9a 41 98 c1 f5 41
       241.5706 153.84348 19.271423 30.719528
000190 54 6d dc 41 8e 9f 03 41 8b 04 96 41 11 4f f0 40
       27.553383 8.226454 18.752218 7.5096517
0001a0 36 6d 6c 41 1e 3a 1c 41 37 2a 00 43 b6 8b 3b 43
       14.776663 9.764189 128.1649 187.54575
0001b0 cc 56 47 42 ba 2f ca 41 ac 09 fb 40 5a 08 0d 41
       49.834763 25.273304 7.8449306 8.814539
0001c0 2c f5 01 43 b0 f4 b2 40 16 06 7e 42 07 9a f4 40
       129.9577 5.592369 63.505943 7.643802
0001d0 a7 00 ab 40 b1 e0 0b 43 8b 33 59 41 56 d0 bc 42
       5.3438296 139.8777 13.575084 94.406906
0001e0 4a ea 7d 41 ba 2a b1 42 18 16 00 41 80 84 49 43
       15.8696995 88.58345 8.005394 201.51758
0001f0 15 24 42 43 ee 46 ec 40 42 1b 83 42 1d ca 2f 42
       194.14095 7.3836584 65.55324 43.947376
