Graph Neural Network/Models/BasicLayers-RE 2.pth (torch, 285606 bytes, 15 tensors)

weight f4 [128, 128]
00000000: 10be 9f3d 2160 93bd 4a70 53bd 607c 773d
00000010: f6e8 7b3d b80b c5bc 509c c93c e2a6 22bd
00000020: 8bfa a9bd d37f 9dbd 70f1 72bc 575f 42bd
00000030: 7bda 253d 7dfc 9dbd b6f8 6bbd db9d 22bc
00000040: 4fae 26bd e520 2fbd a92d 56bc faae 86bd
00000050: b8a9 b4bd ab0b fbbc 2f66 b2bd 2797 5cbc
00000060: 6dff 6e3d e4e0 99bd 6698 963c bd6e f03c
00000070: 92ff 0bbd 33f5 01bd e0a4 2dbb d7e1 9abd
00000080: 60fe 653c 85ee 88bc 67fe 623d d42d 933d
00000090: 5889 9d3d 84c8 acbd 04a7 963d 86a0 5ebd
000000a0: 5ca3 08bd d6a7 8cbc ed7e cbba f671 a9bc
000000b0: 21d6 7abc 4104 63bb ec48 6ebc 2021 efbc
000000c0: e80a c3bc af4a 5fbd 97dc 86bd 84c9 25bd
000000d0: bd4e 033d a5e6 3dbd ca8c af3b 9580 2e3b
000000e0: 8eea 8dbd 3832 833c 8528 1abd 6477 a4bd
000000f0: c20d 81bd 67cb 4a3d d92e 8dbd 7eeb aabc
00000100: e57a a7bd b2ea 51bb 142a b83c 87ba 2a3d
00000110: 423a a4bc e3eb 1fbd 07c0 0f3d 7f3c 6cbd
00000120: 469c 983b 59fc 85bd 1fb2 4d3d 8291 8cbc
00000130: f60c 68bd b80a a73d 329a a6bc 9d75 3cbd
00000140: d909 38bb 8451 a0bd f710 93bd 0556 353c
00000150: 838f 13bb 9cba 703d f2e3 aa3d 9d8e 07bd
00000160: 270c 4e3c d0dd f53c 781c 86bc 8064 083d
00000170: 6fa9 40bd 4859 c33c 79a4 9cbd ba57 43bc
00000180: 13d4 5f3d 8ab9 3cbc 2ffe 86bd 1c38 8e3d
00000190: 9c23 cdbc 4875 873d fa85 14bd 40d4 8c3c
000001a0: e493 10bd de07 71bd 24ef babd ef45 383c
000001b0: 125e a33d 0ff9 433d b4c7 84bd 3eae 4abd
000001c0: 2a7e 813d 5e46 d03c 16de 73bd af11 0e3d
000001d0: df18 5e3d ddc8 6d3d 7261 16bc 5802 853d
000001e0: aa82 5abc bce8 893d e26a 933c 37e1 2dbd
000001f0: 0bfc 413d 73e4 5b3d e5f3 96bc 339e 88bd
00000200: c5c0 bf3b fb99 9a3d 9884 86bd 27db 8cbb
00000210: ad4a 1cbd 218f 8d3a 0924 f7bc 309a 7f3c
00000220: 11a8 2f3d dd1b 633d c941 dabc cf89 05bd
00000230: 6681 1ebd 2100 9cbc e966 173d 7883 30bd
00000240: d929 40bd 8335 b63c f28e 60bc 1368 59bd
00000250: 7a82 96bd 7ac0 bfbd 9f8a 89bd 736e 993c
00000260: c17a adbd 029b 11bc 04e0 b5bd b976 1e3d
00000270: 0920 8b3d 61fc d0bc a3b3 a33d 03f5 72bd
00000280: 67a3 9c3d 1252 8ebd 1680 1c3c 1ae3 74bd
00000290: a6ef b2bd ca1f 84bc c898 05bd 72ee 18bd
000002a0: 3b9a 813d 4532 3d3c f29c 3dbc 969a 293c
000002b0: 0967 2dbc c844 b238 3748 863c 3b55 bb3c
000002c0: 5dee 08bd 530f d13c ab33 89bc 88dd 33bd
000002d0: 3a41 a2bd 1373 2cbd f1bf 173d 17e0 823d
000002e0: 8d42 64bd e6fb a0bd ddc6 5c3d a3db b13c
000002f0: 7df2 873d 1bc2 863d cb65 a5bd 2505 9abc
00000300: ce88 483c 2c09 6dbb f3b2 bf3c 06db d43b
00000310: c9bf 2b3d ed5f e9bc 510d bcbc 95c3 d4bc
00000320: bc9c 6e3d 0b11 9d3d 9012 643c ac74 50bd
00000330: 11ec 8ebd e987 4d3d bf80 a83d 35d2 213d
00000340: fdba b0bc 3363 9cbd f639 d53b 68e2 28ba
00000350: bb32 833d 259a a63b 9180 0abd 67e0 bf3c
00000360: 1a0f 44bd 3568 babc 3667 86bd 5189 b5bc
00000370: 4d60 163d 4b35 27bd 69ab cfbb 2951 dabb
00000380: c3d2 853d 1d58 4b3d 0b32 94bd 65d5 babd
00000390: 6d73 583d c576 113d 9e40 143c a19a c7bc
000003a0: 895f d4bb 8fd7 8bbd 02de 44bd cd7a 173d
000003b0: 6d81 1cba a4e5 64bd 4d85 053d 4756 873d
000003c0: f124 263d 2bf3 cc3c 4301 943d c682 b3bd
000003d0: a957 3bbd af77 b1bd 6776 513c 71f1 09bd
000003e0: 6157 153d 6be6 a33d 77e1 af3c e9f1 6a3b
000003f0: 4289 7abd e32c 03bd 6b3b b13c 090f 5c3d
0.077999234 -0.071960695 -0.05162076 0.060421348 0.061501466 -0.02405344 0.024610668 -0.039709933
-0.082997404 -0.07690396 -0.014828071 -0.047454204 0.040491562 -0.07714174 -0.057610236 -0.009925331
-0.040693577 -0.04275598 -0.01307241 -0.06576343 -0.08821434 -0.030645212 -0.08710896 -0.013463772
0.05834906 -0.075135976 0.018383216 0.02934968 -0.034179278 -0.03172798 -0.0026495978 -0.07562607
0.0140376985 -0.016715297 0.0554184 0.071864754 0.07692212 -0.08436683 0.073560745 -0.054352306
-0.033358917 -0.017169874 -0.0015525498 -0.020684224 -0.015309841 -0.0034639987 -0.014543753 -0.0291906
-0.023808911 -0.054514583 -0.06585043 -0.040475383 0.032057513 -0.046362538 0.0053573595 0.0026626934
-0.069295034 0.016015157 -0.0376363 -0.080305845 -0.06301452 0.049510386 -0.06893701 -0.020864245
-0.08177737 -0.0032030758 0.022481002 0.041681793 -0.02004731 -0.03904332 0.03509524 -0.05767488
0.004657301 -0.06542272 0.050218698 -0.017159227 -0.056652986 0.08156341 -0.020337198 -0.046010602
-0.0028082042 -0.07828048 -0.0718097 0.011067872 -0.002251596 0.058771715 0.08344258 -0.03309499
0.0125761395 0.030012995 -0.016370997 0.03329897 -0.047036584 0.023846284 -0.07648558 -0.011922771
0.05464561 -0.011518845 -0.065914504 0.06944296 -0.025041394 0.066141665 -0.036260583 0.017191052
-0.03529729 -0.058845393 -0.09127644 0.011247142 0.07976927 0.047844943 -0.06483403 -0.049482577
0.06322892 0.025424179 -0.05953797 0.034684833 0.054222938 0.058052886 -0.009178506 0.06494588
-0.013336817 0.06733844 0.017995302 -0.04245111 0.047359508 0.053684663 -0.018426845 -0.06670799
0.0058518373 0.07548901 -0.06568259 -0.004298586 -0.038157154 0.0010800102 -0.03016855 0.015600726
0.04288489 0.055446494 -0.026642697 -0.032602128 -0.038697623 -0.01904303 0.036963377 -0.04309413
-0.04691491 0.022242313 -0.013705956 -0.05307777 -0.07349105 -0.09362884 -0.06715893 0.018729424
-0.08470679 -0.008887054 -0.08880618 0.03868744 0.067932196 -0.025510969 0.07993247 -0.059315693
0.07648354 -0.069492474 0.009552022 -0.059786893 -0.087371156 -0.01612844 -0.032616407 -0.037336774
0.06328245 0.01154763 -0.011573063 0.010351798 -0.0105836475 8.500513e-05 0.016391857 0.02286779
-0.033430446 0.025520002 -0.01674827 -0.04391244 -0.07922597 -0.04210193 0.037048284 0.06390398
-0.05572753 -0.07860546 0.05390059 0.021711176 0.06638048 0.065799914 -0.08076056 -0.018801281
0.012239648 -0.0036168797 0.02340076 0.006495836 0.041930947 -0.028488124 -0.022955569 -0.025972167
0.058254942 0.07669266 0.013920441 -0.050892517 -0.0697862 0.050178442 0.08227681 0.03950711
-0.021573538 -0.07636108 0.0065071536 -0.00064424286 0.064061604 0.0050842934 -0.033814017 0.023422433
-0.047865964 -0.022754768 -0.06562655 -0.022160204 0.036712933 -0.04082231 -0.0063375724 -0.006662507
0.0653434 0.04964458 -0.072361074 -0.09122733 0.052844454 0.035513658 0.009048609 -0.024365725
-0.0064811152 -0.06828224 -0.048063286 0.036982346 -0.00059702137 -0.055883065 0.03259783 0.06608253
0.040562574 0.025018295 0.07226803 -0.087651774 -0.045737896 -0.08665406 0.012784577 -0.033677522
0.036460284 0.08002933 0.021469815 0.0035849756 -0.061166056 -0.03202523 0.021634778 0.053725276

bias f4 [128]
00000000: 79b7 863d 06fc 30bd 4225 933d dae2 893d
00000010: cf6d 82bd 0c8e 833d 3d5f 5ebb 4a62 a63d
00000020: fd38 c1bc 4485 60bd b40f 4bbd ed08 803c
00000030: 99e6 c3bc f75e a1bd 296c 3c3d ff29 b53d
00000040: 8862 993d 0164 08bd 36d1 6d3d 9138 41bd
00000050: 5d19 a8bd d45d 333b e944 aebc 1170 fa3b
00000060: a403 babc a16e ad3d ca8d 83bd 92c3 7cbd
00000070: d36c c0bc b09f b0bd 669b bd3c 820c a2bd
00000080: bdf6 3f3d 6fa1 7dbb 0a20 003d 27a7 2e3d
00000090: 1546 a83d 41e7 2c3c 0744 c23c f862 abbc
000000a0: f32e 3ebd a5ca dd3c 1b87 0b3d 3cda 53bd
000000b0: 5b03 35bd 0b4a 293d d71a a7bc 2320 30bc
000000c0: c2cd 9e3d b0a2 963d 67e7 f03b a9e4 8c3d
000000d0: cedf 7ebd ccdb 03bd 9014 2a3c 6f26 30bd
000000e0: 2275 81bc f8a6 043c b681 2f3d e913 b23d
000000f0: f813 a9bc e9af 123d 2bc0 923d b89a 963d
00000100: 5fc3 26bd 58f7 79bd b323 763d 007a 0d3d
00000110: 47af 87bd 21e9 e2bc 55d8 343d 0769 4fbd
00000120: ff8b 653c 1cf5 803d 789b 963c 8510 0dbd
00000130: c76d 0c3d ddfa fcbc 492c 51bd 67db 91bd
00000140: c9cd 2bbd 61a8 983d 366b cfbc 9a0a 803b
00000150: 34ee 8b3d bac9 af3c 225b 703d b6a8 443d
00000160: 2a44 64bd 7e65 403d 939d 94bd 15b3 7fbc
00000170: 726e 6abd 214c 0abd e346 453d 46cc a2bd
00000180: 71a1 a2bd e239 9b3d 8a64 833c b1ec 5ebd
00000190: 0477 0d3d 56ca a3bd 82c0 69bd e79b fd3c
000001a0: f8a3 9f3d 7393 b8bd 73c3 96bb 95e6 7a3d
000001b0: 47fd bcbc 52ef 04bd 1ca4 113c 26e3 0bbd
000001c0: e816 aebb 3434 be3c 0179 ea3c 2227 9dbd
000001d0: a9f4 5fbd d7e9 893d ba27 5ebd 5e04 8a3d
000001e0: 35be 3a3d b0f2 acbd b8e4 a9bc bb68 62bd
000001f0: ba5b 433c 37cb 8e3d aef5 243c 1c8b 083d
0.065779634 -0.0432091 0.07184841 0.067327216 -0.063686006 0.06423578 -0.0033931278 0.08124216
-0.023586744 -0.054814592 -0.049575523 0.015629256 -0.023913668 -0.07879441 0.046001587 0.08845901
0.074894965 -0.033298496 0.058060847 -0.047173087 -0.08207963 0.0027369158 -0.021273093 0.007642754
-0.022706814 0.084683664 -0.064235285 -0.061709948 -0.023489391 -0.08624208 0.023145389 -0.07912542
0.046866167 -0.0038700958 0.031280555 0.042639878 0.08216492 0.010553182 0.023714079 -0.020921215
-0.046431493 0.027074168 0.034064393 -0.051721796 -0.044192653 0.04133038 -0.02039854 -0.0107498495
0.07754089 0.07355249 0.007351804 0.06879551 -0.062225156 -0.032192037 0.010380879 -0.043005403
-0.015802924 0.008096449 0.04284831 0.08695204 -0.020639405 0.035812292 0.071655594 0.07353729
-0.040713664 -0.0610269 0.06009264 0.034540176 -0.066252284 -0.027699055 0.044151623 -0.05063727
0.014010428 0.06296751 0.01838468 -0.034439582 0.03428438 -0.03088134 -0.051067624 -0.07121926
-0.0419443 0.07453991 -0.025319677 0.003907514 0.06832543 0.021458495 0.05868066 0.048012458
-0.05572907 0.04697179 -0.072566174 -0.015606661 -0.057234235 -0.03376401 0.048163306 -0.07949118
-0.07940949 0.075794 0.016039152 -0.054424945 0.03453733 -0.07997577 -0.057068355 0.03095813
0.077949464 -0.09012499 -0.004600936 0.061255056 -0.02306999 -0.032454796 0.008889224 -0.034152173
-0.005312789 0.023218252 0.028622152 -0.076734796 -0.054676685 0.067340545 -0.054237105 0.06739114
0.04559155 -0.084447265 -0.020738944 -0.05527566 0.011923725 0.06972354 0.01006834 0.03333579

weight f4 [128, 128]
00000000: dc5e 4e3d 9fbc 6e3c 1cf9 633d d47a 173d
00000010: 7d3a 4a3c 5e0b f73c 383b 133d 547b a9bd
00000020: 2c9f 183d 4b53 f43b d81b a53d 1b58 60bc
00000030: d5ca 38bd 9f8d 5ebd f354 67ba 2c49 4e3d
00000040: f65c 96bd 8a39 8a3d 6874 003d 968a 84bc
00000050: c0e2 b4bc 31c3 26bd 88ce 713d 0659 023d
00000060: 1267 95bd e60b 843d accd 01bd 50d0 623d
00000070: d838 b73c a0c3 dfbc 4b75 27bd b634 67bd
00000080: 7bba b6bd ce56 843d 4341 aebd 7aeb 013d
00000090: 2da6 22bd 9950 2ebd 67f8 67bd c872 dcbc
000000a0: 0c0c b83c 748e ef3c b8b6 81bc 7407 2d3d
000000b0: e39c 19bd 4c0d d7bc 5b0f 90bd 7e53 8f3d
000000c0: b764 8cbd 7674 89bc e31d 373b ec25 543c
000000d0: 73c5 62bc 3775 a6bd b30d ecbb 75a9 2c3c
000000e0: a704 45bd c771 99bd a9db c4ba cba0 a1bd
000000f0: 1502 00bb 723d d8bb 5b12 8ebd 0206 903d
00000100: 9612 f0bc 9550 423c 4e88 5abd 24a4 af3c
00000110: 7431 c23c b05b fd3b c4e4 993d 1419 733d
00000120: 2317 2abc cad7 9d3d 10ec f33c f3e6 ddbb
00000130: 711d 17bd 3a11 2cbb 6d08 3dbd 7e0f 803d
00000140: 1041 8f3d acb6 6c3d 2911 a6bb b049 833c
00000150: a0d6 d4bc ad14 4fbd ed43 9bbd 48fa b63c
00000160: bede 573b 5659 74bd 1d8d 49bd 2afe efbc
00000170: 3b48 11bd 50ae 4f3d f048 673d 98e2 5e3d
00000180: 1875 b2bd 40c1 75bd a555 15bd da08 b6bd
00000190: 6cbc 1bbd 3bfa 83bb 4d64 503c 8890 cabc
000001a0: 0090 3cbd 299d 88bd 3231 963d edfd 82bd
000001b0: 149c fd3c 5494 193d b46a d0bc 88df d6bc
000001c0: f01f 393d a717 7cbd acac 203d 4d16 1e3c
000001d0: d554 10bd 987b 3ebd afda 98bd df62 9bbb
000001e0: cce3 203d 6daa 073c 5a38 e2bc b816 b0bc
000001f0: b801 273d 784f d1bc e57a a7bd d0ec 2f3d
00000200: 90a1 403d 9d72 c43c 95fb 3fbd 4807 753d
00000210: 5d0e 9bbd 4425 f4b9 005a 793d a1c6 acbc
00000220: 8e3b 093c 330d 49bd b720 183c 742a 0dbd
00000230: bf75 89bc e453 7b3c a59d 48bd ac69 ba3d
00000240: d83c a13d 951c c93c 567b 923c 8c76 89bd
00000250: 7303 8dbd 177a d1bc 636a 99bd f755 41bd
00000260: e377 e5bc 2e51 3dbd 908a 8c3d 4600 b03d
00000270: 71f2 113b 7609 fcbc 6b20 c4bc aa9d 0bbd
00000280: c025 89bd ac77 a03d f72e f639 edcf 833d
00000290: 1daf 8fbd 4c4e dfb9 6b00 38bd 3bcf da3a
000002a0: 0d89 2cbd e67f 293d 3aa0 a23d ad54 e13c
000002b0: 95fa 9d3c 52f3 223d c8f8 383d 2748 6a3c
000002c0: 36eb af3d d958 94bd 87ec 5f3c 61c5 1bbc
000002d0: 188b 543d 149d 7fbd 2717 673c d1f3 b33c
000002e0: fef5 183d 6493 1e3d 7475 433d 3f5b a5bb
000002f0: a9a1 d5bb 5079 e6ba 67b7 8cbc f235 7ebd
00000300: c023 45bd 74bb 9e3d cde7 7e3d ded8 bf3d
00000310: be09 1b3d 0279 4abd 89f6 c73c 37c3 c4bc
00000320: 4291 ba3d d640 b23d 0c3f 5b3d b174 d73c
00000330: 0622 903d 1c34 00ba 50b3 91bd 7afa 9bbd
00000340: bd94 71bd c660 68bc ac05 b53d d4f3 9bbd
00000350: bc92 27bd d406 62bd 75ad c63c f98c f13c
00000360: 4855 54bd d146 9a3c bd15 943c 7f17 86bd
00000370: 08f8 493d c899 9cbd 3469 75bd 9436 813c
00000380: 8a10 59bd 666f bf3d 472e 15bd ec2a 0e3d
00000390: cdd0 d23c bfeb 71bd 0c88 e9bc 8ca1 823c
000003a0: a311 71bd 31a6 6dbd 00f1 fb3c 57c7 573c
000003b0: 8683 a83d 1036 483d 72b5 a63d 3ef7 05bb
000003c0: 9cde b33d ff0a a5bc 88a4 513d 2686 8a3d
000003d0: ce4d 04bd 675c cc3b e667 7abd 8e26 b73d
000003e0: 8652 463b 381b 623d 9f84 00bc be15 b73d
000003f0: d18f aabc fa51 933d 6c9a 81bd e2c5 1f3d
0.050383434 0.014571338 0.05565749 0.036982372 0.012343046 0.030156787 0.035945147 -0.08275476
0.037261173 0.0074562184 0.080619514 -0.013692881 -0.04511531 -0.05433428 -0.0008824609 0.05036275
-0.0734195 0.06749256 0.031361014 -0.016179364 -0.02208078 -0.040713493 0.059034854 0.03182318
-0.0729505 0.06447582 -0.031690285 0.055374444 0.022365972 -0.027314961 -0.040883344 -0.056446753
-0.08922287 0.06461869 -0.085085414 0.03171871 -0.03970926 -0.042557333 -0.05663338 -0.0269102
0.022466682 0.029242732 -0.015834197 0.042243436 -0.037503134 -0.026251458 -0.07034179 0.06998347
-0.06855147 -0.016779166 0.0027941398 0.012948494 -0.013841021 -0.08127826 -0.0072037815 0.010538449
-0.04810014 -0.074924044 -0.0015019077 -0.07891997 -0.001953249 -0.0065991217 -0.06937095 0.07032396
-0.029305737 0.011860033 -0.053352647 0.021440573 0.023705222 0.0077318773 0.07514337 0.05935009
-0.010381493 0.07707174 0.02977565 -0.006771916 -0.036893312 -0.0026255385 -0.046150614 0.06252955
0.069948316 0.057791397 -0.0050679636 0.016026348 -0.025981247 -0.050556827 -0.07581315 0.02233614
0.0032939161 -0.05965551 -0.04920684 -0.029296 -0.035469275 0.050703347 0.056466043 0.054415315
-0.0871374 -0.05999875 -0.03645863 -0.08888407 -0.03802149 -0.0040276325 0.012719226 -0.024727121
-0.046035767 -0.06670601 0.07333602 -0.06396089 0.030958213 0.037494972 -0.025441505 -0.026229635
0.045196474 -0.061545994 0.039227173 0.009648872 -0.035237152 -0.046504587 -0.074635856 -0.004742011
0.039279744 0.008280379 -0.027614761 -0.021495208 0.040773124 -0.025550589 -0.08177737 0.04295045
0.047029078 0.023980433 -0.046870787 0.059821397 -0.07571099 -0.00046567072 0.060876846 -0.021090807
0.008376015 -0.049084853 0.009285144 -0.034464315 -0.016779779 0.015339825 -0.048978467 0.091021866
0.07872933 0.024549762 0.017881077 -0.06712064 -0.068854235 -0.025570912 -0.07490995 -0.047201123
-0.028011268 -0.046219997 0.06862366 0.08593802 0.002226975 -0.03076623 -0.02394124 -0.034085907
-0.06696653 0.078353256 0.00046955768 0.06436143 -0.07015822 -0.0004259221 -0.044922274 0.001669384
-0.04212289 0.04138174 0.07940717 0.027506197 0.019284526 0.03978283 0.04515913 0.014299429
0.08589785 -0.07243509 0.013667232 -0.009507508 0.051890463 -0.06240566 0.014104641 0.021966847
0.03734397 0.03871478 0.047719434 -0.005046278 -0.0065195155 -0.0017583761 -0.017177297 -0.062063165
-0.048129797 0.077505976 0.06223278 0.09367536 0.037851088 -0.04943181 0.02440955 -0.024018867
0.09109737 0.08703773 0.053526923 0.02630076 0.070377395 -0.00048905774 -0.07114279 -0.07616134
-0.05897974 -0.014183229 0.088389724 -0.07614866 -0.04091142 -0.055182293 0.024252633 0.029486166
-0.051839143 0.018832596 0.018076772 -0.0654745 0.049308807 -0.07646519 -0.059914783 0.015773095
-0.05299429 0.093474194 -0.036421087 0.034708902 0.02573433 -0.059062716 -0.028507255 0.015946172
-0.05885471 -0.05801982 0.030754566 0.013170085 0.08228211 0.048879683 0.08140077 -0.0020441557
0.08782694 -0.020146845 0.0511823 0.06763868 -0.032300763 0.006236601 -0.06113424 0.089429006
0.003026159 0.05520174 -0.007844119 0.08939694 -0.02082053 0.0719337 -0.06328282 0.039007075

weight f4 [128, 128]
00000000: 8ff4 afbc 6f3e aebd 40aa 55bd e325 37bc
00000010: 5633 5dbe 7a47 44be 1c84 63be f097 78be
00000020: 4aa3 97be 15ca 9fbe 4688 f63c 4d3a aabb
00000030: 4406 67be 4b9d 8a3b b842 84be c6c0 62bd
00000040: b309 94be 5160 d6bb 5582 423d 896e edbc
00000050: 3ed6 6ebe f2b4 56be 361e b43c d295 46bd
00000060: eaf9 09be b19b 8dbe fccb 26be 3ca7 45bd
00000070: 482b 7dbb 5b9f d1bd 34d7 71be ee14 50bc
00000080: ba96 d5bb d0c6 bfbd 51eb 05bc 0e92 1ebe
00000090: 0073 6fbd 87f8 72be c56f 31bc 593a fdbb
000000a0: 4367 913d 37e4 78be a4c2 023d d28b dfbc
000000b0: 3126 813d ab7f 013e d262 5abe 25a7 95bc
000000c0: 18b3 233d 5fac adbd 5ed5 bebd fa50 46be
000000d0: d240 c1be 3c5c b5be 3303 a8bd 8229 96bd
000000e0: a256 98bd 5785 0bbe 0a67 29bd 2fcd 80be
000000f0: 795e 41be 33bb b8be bfb3 80be 8428 2b3d
00000100: 33c3 443d 161b a0be 2163 68bd d608 cabd
00000110: f111 11be c62c 883c cd7b febc 0c15 49bd
00000120: b866 cabc 7e16 9a3c 56c9 33be 548b 673d
00000130: aaea 293e b1b3 8dbd a85d 80be abb6 f83c
00000140: 5c5e fd3d a212 8a3b 2f68 45bd 3d6d e3bb
00000150: 44db 26be d389 2e3d 0639 683d 5c6a 9bbe
00000160: ad5a a2bc 2005 913d cf25 7abe 0ae3 4ebe
00000170: 8ed8 d3be b5c7 653d 488b 94bd 6b2b e5bc
00000180: 7846 cebd 095e 54bd 0d18 0ebd 329e 3dbe
00000190: d3ed 77be 0e87 04be a08d 27bd 6401 c6bc
000001a0: 460d 9cbe d190 14bd d026 92bc 2825 36bd
000001b0: d67c 63be ed1d 69be 55dc 20be dbc7 aabc
000001c0: 51bd 423e 22cc a1bd dfcc 82be ed05 383d
000001d0: a619 56be d85c 06be be41 a9be c272 edbc
000001e0: 1884 39bd a3ae 39be a2e2 a5bd 8086 0dbd
000001f0: 0782 2a3d 9157 44be b671 84bb f7e2 9dbe
00000200: 30ac 8bbd aa3a c6bd 45c9 493d 0272 88bb
00000210: 9b4a e13d 35df aa3d 6f14 8c3d 7e40 f63c
00000220: b069 fdbc 0414 79bc 6b57 e4bd c3bd 8d3d
00000230: 34cf 823d 2d67 67bc 8253 a03c 8463 7d3c
00000240: afea 013d 55b5 eabd abd0 83bd 5a30 1abd
00000250: a15a 003e fe09 a9bc c162 093d 3298 b33d
00000260: 0cad 21bd 1ff2 023e 0d99 dc3d 461e 743b
00000270: 63a7 9cbc 91f5 89bd 83b4 82bd 60dd 98bd
00000280: 5ea8 f4bd 9972 be3c 17fe 9fbc 48e0 b23d
00000290: ca89 633d 6966 c53d 0fc7 5b3d 0b08 9fbd
000002a0: d12e 093e 3968 913d 7b93 d53d 054a 5bbc
000002b0: 9588 983c 4a00 cc3d 2607 703c f734 7b3c
000002c0: 7f5e 9d3d bff7 b9bb acef 063d 34b3 c1bb
000002d0: ec2f 183d dba1 8d3d 2d70 7b3d db8e 203d
000002e0: b360 663a b626 cabc 596e c0bb b605 a93d
000002f0: 311d 63bd 9c24 063e e337 b63d 7b21 f7bc
00000300: 4fca 1a3d 45aa 6cba 0c87 8a3d 0f52 69bc
00000310: 0086 2b3e 8d56 b43c 843a f53c 5945 b9bc
00000320: bf8e 7c3d e7c1 55bd 1856 3abd a008 dabc
00000330: d5f6 2e3d ac0f a4bd b1fa 4b3d 4db2 a43d
00000340: 8006 9c3d ad9f a4bb 94db 643d 9465 8abd
00000350: edcb 923c 051e 013e a74e 593d 564b 9f3d
00000360: ae9d a3bd 554d 28bd ede4 9c3d dc5d 963d
00000370: 516a 7b3d 2483 27bd 5239 9ebc ed62 7abd
00000380: f6dd 87bd f6c4 e3bc 4c79 5bbd 9882 36bd
00000390: a4a3 80bc 7d36 4bbd 451e 81bd 11b5 c8bc
000003a0: 3717 993d 8fbb d53d 1a32 41bd c2e9 85bd
000003b0: d8e8 973d dab2 4d3d cdd2 c93d 47f9 043d
000003c0: a65e 183e b13d 87bd 94a4 1f3c 1e20 e0bc
000003d0: d0fb fe3d 68ec 8c3d dac1 04bd fb1a 0c3d
000003e0: 06a1 243d baa9 e63d 9101 87bd 2761 f7bd
000003f0: d7a9 d63c 9716 7e3d e60e 41bd 6b84 f73d
-0.02147892 -0.08508002 -0.052164316 -0.0111784665 -0.21601614 -0.19167891 -0.22218364 -0.2427671
-0.29616767 -0.31208864 0.030094277 -0.0051949383 -0.22560984 0.0042301766 -0.25832152 -0.055359624
-0.2891365 -0.0065422435 0.047487576 -0.028983371 -0.23323914 -0.20967463 0.021987062 -0.048482724
-0.13474241 -0.27657846 -0.16288751 -0.04825519 -0.0038630534 -0.10235473 -0.2361725 -0.0127003025
-0.006518212 -0.09364092 -0.00817378 -0.15485403 -0.058459282 -0.23727618 -0.010829871 -0.007727903
0.07099774 -0.24305807 0.031923905 -0.027288351 0.063061126 0.12646358 -0.2132676 -0.018268177
0.03996572 -0.08480143 -0.0931804 -0.19366828 -0.37744766 -0.35421932 -0.08203735 -0.07332136
-0.07438399 -0.13625084 -0.04135803 -0.25156543 -0.18883695 -0.36080322 -0.25137135 0.041786686
0.04803772 -0.31270665 -0.05673516 -0.098649666 -0.14167 0.016622912 -0.031064892 -0.049092337
-0.024707183 0.018809553 -0.17557272 0.056529358 0.16593423 -0.06919039 -0.25071454 0.03036054
0.12371513 0.004213647 -0.04819506 -0.0069405125 -0.1629458 0.04261191 0.056695007 -0.30354583
-0.019818628 0.07081056 -0.24428485 -0.20203796 -0.41376156 0.05609866 -0.07253128 -0.027974805
-0.100720346 -0.05184749 -0.034690905 -0.18517378 -0.24211816 -0.12942144 -0.04090655 -0.024170585
-0.30478877 -0.03627092 -0.017840773 -0.04446903 -0.2221559 -0.22765322 -0.1570905 -0.020847252
0.19017531 -0.07900263 -0.2554693 0.044927526 -0.20908222 -0.13121355 -0.3305797 -0.028985385
-0.04529199 -0.18133025 -0.080998674 -0.034552097 0.04162791 -0.19174029 -0.0040418757 -0.30837223
-0.068199515 -0.09679158 0.04926421 -0.0041639814 0.11000558 0.083433546 0.06839835 0.03006005
-0.030934185 -0.015202526 -0.11149486 0.0692096 0.06387177 -0.01412372 0.01957107 0.015465621
0.031717952 -0.114603676 -0.06436285 -0.037643768 0.12534572 -0.020634647 0.033541445 0.08769263
-0.03947167 0.12787674 0.107713796 0.003724949 -0.019122785 -0.06736291 -0.06382086 -0.07464099
-0.11946176 0.023248004 -0.01953034 0.087341845 0.055551328 0.09638674 0.053656634 -0.07765206
0.13396765 0.07099957 0.1042852 -0.013384347 0.018619815 0.09960993 0.014650142 0.015332452
0.07684039 -0.0056752856 0.032943413 -0.0059112553 0.037155077 0.06915637 0.061386276 0.039198738
0.0008788213 -0.024676662 -0.0058725295 0.082530424 -0.05544776 0.13099903 0.08897378 -0.030167332
0.037790593 -0.00090280577 0.067640394 -0.014240756 0.16750336 0.022013927 0.029935129 -0.022616075
0.06165957 -0.052186873 -0.04549226 -0.02661544 0.042715866 -0.08010802 0.049799625 0.08041821
0.07618427 -0.0050239176 0.05587347 -0.06757656 0.017919505 0.12609108 0.053053524 0.07778041
-0.079890594 -0.041089375 0.07660852 0.07342121 0.061380688 -0.04089655 -0.019314442 -0.0611295
-0.066341326 -0.02780388 -0.053582475 -0.044558138 -0.01570303 -0.04961251 -0.063046016 -0.024500402
0.07475131 0.104361646 -0.04716692 -0.065387264 0.07417458 0.050219394 0.0985466 0.032464292
0.14879856 -0.066035636 0.009743828 -0.027359065 0.12450373 0.068810284 -0.032411434 0.034205418
0.040192626 0.112628415 -0.06592096 -0.12079077 0.026204033 0.062033262 -0.04713335 0.120858036

bias f4 [128]
00000000: c06c 78bd 9859 363d 4837 d63c 8296 4e3d
00000010: c610 8abd b107 b6bb 0951 ecbc 571e c73d
00000020: b5d7 96bd 0b8c 97bd 97da 3f3d 5d1c aabd
00000030: 3afd 80bc 5ac7 c13d e2e6 a53d 8b80 71bd
00000040: e267 243c d876 bfbc 58a3 363a f211 b2bd
00000050: 9624 cdbc 16fe b53d 0696 953c 9cfc 8d3d
00000060: 4563 23bd 51bd 0fbd b4f8 9a3d b436 7a3c
00000070: e070 5c3d 0762 3bbc 27c9 37bc 0be8 a63d
00000080: f3c2 933d f7a1 843a 878e 533d a778 f53c
00000090: 172c 04bd 7251 623d 0b47 983c 7063 86bd
000000a0: 2f3e 933d f35b 89bd 9065 bc3d 4bc2 833c
000000b0: d2f3 44bd 6d0b 043d aa63 873d 7f33 aebd
000000c0: 2c02 483d 0a77 18bd 632c 393d 700e 773d
000000d0: b2b9 12bd 2454 f03c 2379 6cbd b0bb bbbd
000000e0: 91f0 4a3c c88e 883d 52d7 9fbd 02cf 823d
000000f0: 6c28 293d 4874 80bd 5433 27bd 1762 08bd
00000100: ba57 753d 9129 4dbd 1873 5a3d 5686 fc3c
00000110: 5d5b 36bd b588 5e3d b6c6 223c f3e8 54bd
00000120: ff23 033d 82fe 033d 3abe 48bd 5e12 b5bc
00000130: 8d8c 8e3d 819b 40bd c782 4c3c 554e a3bc
00000140: 5319 333d b7a3 f13b 99cc 903b 936d 373c
00000150: f15d fcbb 425e 3cbd f044 81bc d1bb 8c3c
00000160: a64e e1bc 7bd8 243d 3335 d6bd ec0d 373b
00000170: 8b23 35bd f72e 40bd 94e2 abbc f350 80bd
00000180: 5ad8 b73d e12a b43d 61a9 543c 4d17 243d
00000190: 53c0 ccbc 7a85 78bd fd63 ab3c 7b99 b73c
000001a0: b2f5 283d 4c97 9dbd 7613 733d 5e52 a0bd
000001b0: 6d88 b1bd 93d7 61bd 8bce 3d3d a5a4 373d
000001c0: 15c0 b03d 2bf4 7cbc 63e9 873d 816c b5bd
000001d0: 889e 49bd 0494 123c e524 a3bc 4bb7 bbbc
000001e0: d722 8dbc 92c7 b5bd 90c1 5b3d 96b1 34bd
000001f0: f35b c93c f487 87bd f3ac 6cbd 5782 a6bd
-0.060650587 0.044519037 0.026149407 0.050436504 -0.067414805 -0.005555116 -0.028847234 0.09722584
-0.073653616 -0.07399758 0.046839323 -0.08306191 -0.015745748 0.094618514 0.08100678 -0.05896048
0.010034533 -0.023372099 0.0006967089 -0.08694829 -0.02504186 0.08886354 0.018260013 0.06932947
-0.039889593 -0.035092656 0.075669676 0.015271831 0.053818583 -0.011436946 -0.011217392 0.081497274
0.07214918 0.001011907 0.051649597 0.029964758 -0.03226861 0.055253454 0.018588563 -0.06561935
0.07189595 -0.06706991 0.09199059 0.016083857 -0.048084088 0.03223746 0.06610806 -0.08505916
0.048830196 -0.0372229 0.045208346 0.060316503 -0.035821624 0.029336996 -0.057732712 -0.09166658
0.012386457 0.06667858 -0.07804741 0.0638714 0.041298315 -0.06272179 -0.040820435 -0.03329667
0.059898116 -0.05008847 0.05333242 0.030825775 -0.044520725 0.054329593 0.009935072 -0.05197997
0.03201675 0.03222514 -0.04900954 -0.022103485 0.06960402 -0.0470233 0.012482352 -0.019934813
0.043725323 0.0073742527 0.004418921 0.011195558 -0.0077016284 -0.04598833 -0.015779942 0.017179402
-0.027503323 0.040245514 -0.10459366 0.0027931882 -0.04422335 -0.04691979 -0.020982064 -0.0626544
0.08976813 0.08797241 0.012979836 0.040061284 -0.024994051 -0.06067417 0.020921702 0.022412052
0.04124994 -0.07694873 0.05934473 -0.0782821 -0.08668599 -0.05513723 0.046339553 0.04483475
0.08630387 -0.015439074 0.06636312 -0.08858586 -0.049223453 0.0089464225 -0.019915054 -0.02291455
-0.017228527 -0.08875956 0.053651392 -0.04411467 0.024579978 -0.06617728 -0.057782125 -0.08130329

weight f4 [128, 128]
00000000: 0b12 303d 0a37 79bd 1ee1 e1bc 6890 b03d
00000010: 6bd3 7e3b b43d 773d e603 603c ff82 503e
00000020: 2135 fb3d 7d8c 5f3c ed5a 5dbd 91ce ae3d
00000030: a000 eb3d c79f cfbd 2fa0 303e 8f42 153d
00000040: 724d 0e3e 3ac2 acbd 3e3f c03c 811b 93bd
00000050: 1c77 193e 81d5 253d 0f65 eb3d f56a 7dbd
00000060: 90f1 3d3d 3ec1 843d cdfa 053e 084e d23d
00000070: 8aad 3abd 8d74 923c b057 f93d ea26 ab3a
00000080: 72f7 3e3c 3bb6 8a3d abfd c53a ebee db3d
00000090: 269d f63c 8175 1b3e 3802 6ebc 7ea3 83bd
000000a0: fd84 54bd 1e2a 2e3e 69c6 ec3d 200f feb9
000000b0: 6dbb 083c e37f a43d 7b29 1b3e 5617 02bd
000000c0: 9088 aa3d 699f dfbc 9807 c83d b798 493d
000000d0: 9325 2f3e 8de4 253e 3616 be3d 5dc6 07bd
000000e0: 9673 a63d 2cc7 0a3d a383 83bd fc0b be3c
000000f0: 8209 523d 87c8 6c3d a921 303d 52c4 59bd
00000100: cc6e 283d c958 b93c 82d9 bc3d bce6 1dbd
00000110: 9869 a9bd e387 5e3d 04d1 553c af9e 85bd
00000120: 435f f73c 7b6c 06bd f3ab 103e aca7 73bd
00000130: df94 a43a 14c1 97bd 7b7f 4f3d 81e5 34bd
00000140: 1fec 55bd e836 953d 90cf 0fbd bcef 893d
00000150: ef24 b93d 621f 49bb a623 923d f366 623d
00000160: f672 b7ba c0aa 873c e484 393e a1d2 e33d
00000170: 6a8f ec3d 4c38 3b3d 699a 8d3d 99a2 f2bc
00000180: 6c2b 1dbd 8ae1 f0bc aa84 a7bd 0879 953d
00000190: 904f 383e 793f 1dbc efdb 193d c5a7 f7bc
000001a0: b616 ba3d 00f5 4e3d 027f 0c3d ecae b9bd
000001b0: 4ccc 5b3d 5b1a c83d 03ae 8a3d e55c 5ebc
000001c0: ca82 623d dcd6 c3bc b8f8 ed3d 9ff5 113d
000001d0: dd3f 403e a718 37bc ae4d 4f3e 699d f2bc
000001e0: 6ccd 0eb8 81d8 733d 786d 7b3d 8750 4b3d
000001f0: 3e16 103d b9d6 8ebb b799 23bd f1c4 0e3d
00000200: a7eb 423e c290 763e e1c6 833e abca 2d3e
00000210: b620 073d 8d47 043d 546e 373d c549 833c
00000220: 419c 153b 572c b33c 38d1 5b3e fbcb 183e
00000230: 5309 863d 4ee2 513e 1a19 49bc 832d 843e
00000240: c756 293d fba2 1d3e 7c41 3d3e 1b0e e63d
00000250: c742 35bd f6a4 b43a 90b4 193e 1629 553e
00000260: 49bf 9a3d ef6f d03d 4c8f 933d 44ce 3d3e
00000270: 6f7e 3e3e 1106 7e3e a2b9 b83d be9b bf3d
00000280: 5874 3c3e c34e d93d dd56 7b3e 13ba 513d
00000290: c58a 933d 03ce e5bc f238 463e 3e1e 293e
000002a0: 2276 083f 93ca be3d 7e17 9f3e fa85 5e3e
000002b0: 19e9 133e 3e3f 943e ec50 d43c bdc8 303e
000002c0: ee3b 793e 56df 073e 2d67 8f3e 51cd 65bd
000002d0: ce8a 5f3d 9b36 923c 4c35 733e c8ee 693e
000002e0: 1188 8c3e f885 d9bc 2251 0a3e c4d6 22bb
000002f0: b3d6 573d db83 2bbc 9b72 2cb9 a00a 1e3e
00000300: 4f7a 193e 8b86 aa3c d0b0 833e fa27 783e
00000310: 4ee9 fc3d d62c 6b3e bfca 5a3e acee 8e3e
00000320: 66d0 893e 608e 813e 5fef 093d bcdf 0b3e
00000330: 1322 1e3f 228d 813e 1b1f c6bc ca6f 7e3e
00000340: 2c4b 233f 5464 4f3e 2ea6 733e 6424 5e3e
00000350: 4169 10bd 2957 2c3f 9df1 443e c801 debc
00000360: 5e0a 2e3e 4a67 863e 0ba9 963d a0a1 6a3c
00000370: dc4e 003b 0486 423e 715d 4e3e 478d 1f3e
00000380: c48c 033e 9329 5b3e 5e0a 8e3e 4fc6 033e
00000390: edae a03d edc4 c03d 0cff 363e 37ff 603e
000003a0: 55c2 1ebd 8ef5 553e c316 643e 3183 703e
000003b0: b301 18bd abd3 513d 58b1 b0bc 83d8 203e
000003c0: 23ca 073f adaa 5c3e 1fa5 c23d a427 8a3e
000003d0: 7775 763d 1d99 d93c 1fea 403d 056e f63d
000003e0: 8e9b 033e e7de c43d 42e2 f43d a05e 213e
000003f0: 4820 023e c150 dc3d 434c c33d b88a 60bd
0.042985957 -0.060843505 -0.027573165 0.08621293 0.003888334 0.06036158 0.013672804 0.20362471
0.12265993 0.013644335 -0.05404179 0.08535493 0.114747286 -0.10137897 0.17248605 0.03644043
0.1389673 -0.08435483 0.023467656 -0.0718298 0.14986843 0.040486816 0.11493885 -0.06186958
0.04637295 0.064821705 0.13083954 0.102687895 -0.045575656 0.017877841 0.12174928 0.0013057862
0.011655675 0.06773039 0.0015105506 0.10738929 0.030104231 0.15181543 -0.014526896 -0.06427668
-0.05188464 0.17008254 0.11561281 -0.00048457924 0.008345467 0.08032205 0.15152542 -0.031760536
0.083268285 -0.027297692 0.097670734 0.049217906 0.17104177 0.16200466 0.0928158 -0.03314816
0.08127515 0.03388135 -0.06421592 0.023199074 0.0512786 0.057808425 0.04300085 -0.05316574
0.04112129 0.022625344 0.09221174 -0.038550124 -0.082720935 0.05432881 0.0130503215 -0.06524407
0.030196792 -0.0328183 0.14128093 -0.059486076 0.0012556574 -0.074098736 0.050658684 -0.044164184
-0.052227136 0.07285863 -0.035110056 0.06735179 0.09040248 -0.0030688872 0.07135706 0.05527396
-0.0013996053 0.016560912 0.181171 0.11124159 0.115507916 0.045707986 0.06914217 -0.029618548
-0.03837149 -0.02940442 -0.081796005 0.072984755 0.179991 -0.009597653 0.03756326 -0.030231366
0.09086363 0.05052662 0.03430081 -0.09066567 0.05366163 0.09770652 0.06771471 -0.0135719525
0.05530051 -0.023906164 0.11619705 0.035634633 0.18774362 -0.011175311 0.20244476 -0.029616075
-3.4046752e-05 0.059532646 0.061383694 0.049637344 0.03517746 -0.004359093 -0.039941516 0.034855787
0.19035207 0.24078658 0.2573767 0.16971843 0.03299018 0.0322948 0.04478295 0.016026387
0.002282873 0.021871729 0.2146653 0.14921562 0.06544747 0.20496485 -0.012274051 0.25815973
0.041342523 0.15394203 0.18482012 0.11233159 -0.044253137 0.0013782072 0.15010285 0.20816454
0.07556016 0.101776 0.07205066 0.18535715 0.18602918 0.24807002 0.09019782 0.09355877
0.18403757 0.10610726 0.24544854 0.051202845 0.072042026 -0.028052336 0.1935766 0.16515443
0.53305256 0.09315982 0.3107261 0.21730796 0.14444388 0.289545 0.025917493 0.17264076
0.24339268 0.1326879 0.28008404 -0.056104008 0.054575734 0.017848304 0.237508 0.22844994
0.2744756 -0.02655314 0.13507512 -0.0024847249 0.052694988 -0.0104684485 -0.00016445892 0.1543374
0.14988063 0.020816108 0.25720835 0.24234 0.12349187 0.22966322 0.21366404 0.27916467
0.26916808 0.25303936 0.033675548 0.13659567 0.61770743 0.25302988 -0.024184754 0.24847332
0.6378658 0.20253116 0.23793861 0.2169357 -0.035256628 0.67320496 0.19232793 -0.027100459
0.16996142 0.26250678 0.07356461 0.014320761 0.0019578254 0.18996435 0.20152833 0.15581237
0.12846667 0.21402578 0.27742285 0.12868617 0.078458644 0.094125606 0.1787073 0.21972357
-0.03875955 0.20894453 0.22274308 0.23487546 -0.037110996 0.051227253 -0.02156894 0.15707593
0.5304281 0.21549483 0.095041506 0.26983368 0.060170617 0.026562268 0.047098275 0.12032703
0.12852308 0.09612828 0.11957218 0.15758753 0.12707627 0.1075759 0.0953603 -0.054819793

weight f4 [128]
00000000: b9fe 7b3f e5b3 5d3f 43ee 663f 07ef 793f
00000010: 8647 473f f67d df3e c98f 5e3f 9f68 083f
00000020: c146 633f 18a1 593f 8fb1 723f 405b 5b3f
00000030: 4e29 6c3f 7205 6a3f 8432 243f 1e11 5e3f
00000040: 3022 0f3f 2fc0 793f 7807 713f 9fac 623f
00000050: e1b9 4f3f e77d 5b3f e288 6c3f bf65 6f3f
00000060: ced6 693f d21b 5c3f 9ffb 583f bdf4 6d3f
00000070: 20b9 723f 07c5 693f b53a 6d3f a481 663f
00000080: 7360 843f c3aa 743f c938 7d3f 94f8 633f
00000090: d7a0 5b3f 6228 473f 3ee2 7f3f 5e93 633f
000000a0: e07c ab3f ba9f 6b3f 8faa 6f3f 36e7 603f
000000b0: 9171 6c3f 6b88 7e3f 2439 463f c6cd 643f
000000c0: e9e2 6e3f e909 6d3f 9abc 7a3f 6b35 463f
000000d0: f653 183f 37a2 233f b237 653f a377 5d3f
000000e0: afdd 693f c19b 653f 7aad 5a3f cd41 543f
000000f0: 5152 863f 33b3 2e3f 3e3f 683f cfe9 6c3f
00000100: 344f 653f 227a 513f 5588 803f 3e7e 763f
00000110: 1972 613f b30e 553f e540 6c3f a7ce 753f
00000120: 134f 623f cf42 713f 2304 5e3f b43e 723f
00000130: 47f8 a93f b806 783f d64c e43e fadc 693f
00000140: 20e3 9d3f 77d4 743f 6f99 693f 4b30 6f3f
00000150: cb90 493f d2b3 a73f 3a5e 753f 2fa1 0a3f
00000160: 73dc 673f cba6 7c3f 5a5b 633f 1e3f a43e
00000170: 239a 473f 3646 7f3f 23f9 4e3f 74c0 823f
00000180: 8298 673f 129b 5c3f 4bb7 403f b5c9 833f
00000190: 5038 5b3f 3dbf 843f df3d 7a3f f973 6a3f
000001a0: 3405 623f 5f03 813f 7487 763f 4f3c 873f
000001b0: 273d 3f3f b765 4f3f 2367 553f 2aa9 7a3f
000001c0: 498f ab3f 47fe 693f c11a 593f a07d 743f
000001d0: bc5a 543f 2af8 6f3f 04f1 2a3f c025 5f3f
000001e0: 3cb7 633f 2e6f 643f 5a9e 6f3f 1e37 773f
000001f0: 7e46 643f 4fe9 543f d531 633f a329 473f
0.9843555 0.8660262 0.9020731 0.9763035 0.7784351 0.43650788 0.8693815 0.5328464
0.88779837 0.85011435 0.9480218 0.8568611 0.92250526 0.9141456 0.6413958 0.8674487
0.5591154 0.97558874 0.9415202 0.8854465 0.81143004 0.85738987 0.92396367 0.9351463
0.9134339 0.8597995 0.84758943 0.92951566 0.9481373 0.91316265 0.92667705 0.90041566
1.0341934 0.9557306 0.9891477 0.89051175 0.857923 0.77795994 0.99954593 0.8889674
1.3397484 0.920406 0.93619627 0.878528 0.9236079 0.9942691 0.7743094 0.89376485
0.9331499 0.92593247 0.97944033 0.7742526 0.59503114 0.63919395 0.8953811 0.86510676
0.9135389 0.89690787 0.85420954 0.82912904 1.0493871 0.68242186 0.907215 0.92544264
0.8957398 0.81826985 1.0041605 0.9628638 0.88064724 0.83225554 0.9228652 0.9601845
0.8840191 0.94242567 0.8672506 0.9462693 1.3278893 0.9688525 0.4458987 0.9135281
1.2334938 0.95636696 0.91249746 0.93433064 0.7873656 1.3101752 0.95846903 0.54152197
0.90570754 0.98692006 0.88811266 0.32079405 0.7796957 0.9971651 0.808489 1.0214982
0.90467083 0.8617412 0.7527968 1.0295931 0.856328 1.0370861 0.9775066 0.9158321
0.8828919 1.0079154 0.96300435 1.056528 0.74702686 0.8101458 0.833605 0.97914374
1.3403102 0.9140362 0.8480645 0.9550419 0.8295095 0.93738043 0.6677401 0.87166977
0.8895147 0.89232147 0.93601 0.9656848 0.8917006 0.831685 0.8874791 0.7779791

bias f4 [128]
00000000: 5805 09bd 239d d43d 9142 ed3d 5116 1dbd
00000010: 6677 0ebf 73f9 c83a 655e 003e a66d 393c
00000020: b5c5 6bbe 43da 61be 1a4e f53d 05e8 16bd
00000030: 2990 1cbe 749a e93d dd2d 643c b9ad abbc
00000040: 240f 433c 335b 013e 9922 fdbc 47af 11bd
00000050: fe31 ee3d 3667 fb3d a5a8 16bd 3b88 eebc
00000060: cdbb d43e 909e 12be 4386 0cbe fe5e 24bd
00000070: 9701 04bd 9df0 1ebd 9a28 103f 4b5d 15bd
00000080: d853 0d3e e587 eebc 3d04 fe3d 71db 023e
00000090: d99a bd3e b6fb e23d a8a4 033e 9d71 dd3d
000000a0: c8e0 4abf 523a 073e 01b4 b9be 4264 b33d
000000b0: d732 f5bc 801f 3ebe 964a 0bbe 6e9a ebbc
000000c0: 9f1f 19bd 2ecf ef3d 82b8 01bd 7951 47be
000000d0: fae7 7d3c 603c 533c 9477 13bd 10c7 1dbd
000000e0: afc4 1bbd dcba 023e 480e afbc 5595 f53d
000000f0: b508 233f 0ba5 953c f5e3 c3be d3a0 0dbd
00000100: 2d2c 18bd 76a7 56be 1919 b4bd 626f f83d
00000110: e072 20bf e57b 17bd dd82 da3d 3332 f83d
00000120: 5d23 9e3d 9eba 2abd 96bb ff3d 0fe4 1dbd
00000130: d193 49bf ee7f bc3d f580 2bbc 7cb0 1ebd
00000140: aac9 3bbf f437 08bd 072f eb3d 6a89 dc3d
00000150: dc05 e33d 682d 46bf 9d06 fbbc 1a82 793c
00000160: cc34 d6bc a193 0dbd 76b6 0dbe 936d 183c
00000170: 01b2 ac3c 27da 90bc 9a3c ca3d 213c 043e
00000180: 29cf 0ebd 2586 0bbd acd2 933f 1fba e63e
00000190: c5f4 fa3d 6423 e83e b658 fd3d 08a7 fbbc
000001a0: 698d 1abe 393e 19be be74 f83d bb8e d93e
000001b0: a15a 13be d9a4 ee3d 1b30 0bbe 5271 fb3d
000001c0: e628 4bbf 7299 16bd 15ba 75be 997b 12be
000001d0: 45b0 f43d 561d 003f a4da b03c 1790 06be
000001e0: adda e63d 4c4f 6fbe 0032 19bd 1a3d fd3d
000001f0: 70c6 68bc 4362 bc3e 75fe a0bc db0b dc3d
-0.03345236 0.10381534 0.11584962 -0.03835136 -0.5565094 0.0015333131 0.12536009 0.011317646
-0.23024638 -0.22055916 0.11977787 -0.036842365 -0.15289368 0.11406413 0.01392695 -0.02095686
0.011905465 0.12632446 -0.030900287 -0.035567548 0.11630629 0.12275545 -0.036781926 -0.029117694
0.4154953 -0.143183 -0.13723092 -0.040129654 -0.03222808 -0.038803685 0.56311953 -0.036465924
0.13801515 -0.029117534 0.12403152 0.12779023 0.37032202 0.11083166 0.1285578 0.10812686
-0.7924924 0.13205841 -0.36270145 0.08759357 -0.029931469 -0.18566704 -0.13602671 -0.028760161
-0.03738367 0.11709438 -0.0316701 -0.19464673 0.015497202 0.0128928125 -0.03600271 -0.03851992
-0.03802937 0.12766594 -0.021369115 0.119913734 0.6368516 0.018267175 -0.38259855 -0.034577202
-0.037151504 -0.20962319 -0.087938495 0.121306196 -0.62675285 -0.03698339 0.106694914 0.1211895
0.07721589 -0.04168188 0.12486951 -0.03854757 -0.78741175 0.09204088 -0.0104677575 -0.038742527
-0.7335459 -0.033256486 0.11483579 0.10768397 0.11085102 -0.77413034 -0.030642802 0.015228773
-0.026148222 -0.034564618 -0.13839135 0.009303468 0.021080973 -0.017682148 0.0987484 0.12913562
-0.034865532 -0.034063477 1.1548667 0.45063874 0.12253717 0.453395 0.12370436 -0.030719295
-0.15093006 -0.14965142 0.12131642 0.42491707 -0.14390041 0.11652536 -0.1359257 0.122774735
-0.7935928 -0.03676743 -0.23996766 -0.14304961 0.11947683 0.50044763 0.021588631 -0.13140903
0.11272178 -0.23370093 -0.0374012 0.1236517 -0.014207467 0.36793718 -0.019652585 0.10744449

running_mean f4 [128]
00000000: 23f3 d1c0 975d 15c0 1d6d 33c0 86bd 3dc0
00000010: 6be2 d740 331e af40 3245 8140 bdfc 1f41
00000020: 73da 9b40 fd11 ae40 bf00 42c0 2050 41c0
00000030: c942 8040 cccb 0ac0 976d 5d40 e82a 36c0
00000040: 38e9 2b40 ab7c 7ec0 c320 4dc0 baa1 61c0
00000050: 94b9 0f41 57a1 e340 6529 61c0 2d26 24c0
00000060: 560f d340 6245 a340 37ae b740 ed5d 5ac0
00000070: 1cc4 93c0 40ed 52c0 6510 0641 6bb2 e1bf
00000080: b7d3 8ec0 d295 38c0 cfad 50c0 44e7 2c41
00000090: e8b3 c640 1db1 3941 010c 7dc0 eb80 2fc0
000000a0: 5da0 5ec1 d6f6 1b41 e443 7ac0 4af6 d0c0
000000b0: 74b4 d0bf 8439 42c0 a36f 8440 68cc 29c0
000000c0: 783c cfbf 5c4b abc0 514d 1bc0 80c9 a740
000000d0: 07f2 8840 ecdb 1741 81f2 e9bf 917c 60c0
000000e0: 87a2 1bc0 df9f 0b41 991e 88c0 7a85 1541
000000f0: 63fa 4041 8ae4 6540 f342 6341 3599 1bc0
00000100: 0403 1bc0 7bea 7940 fb1b 64c0 1656 f8bf
00000110: 8684 5341 9ab6 0bc0 c028 f9bf 5aa7 0bc0
00000120: b7af 18c0 95db 63c0 7b1c e140 be78 b8c0
00000130: 9bd0 18c1 7b76 2ac0 3425 9340 cb02 3cc0
00000140: c8ae 26c0 ab5e 40c0 06cf 41c0 d810 efc0
00000150: 11b7 5241 a262 0abf f22c 97c0 130f 5340
00000160: ef4c 07c0 2567 3fc0 8c6c 7640 bb40 9340
00000170: 2bfb 9440 2ad8 8fc0 133c 1bc0 1527 31c0
00000180: 51b9 18c0 7197 5ac0 dc73 17c1 f9ea 6541
00000190: f279 f740 3a3e 0e41 fbc3 2ac0 d602 26c0
000001a0: a513 f240 4c65 dec0 7d70 7cc0 7079 d9c0
000001b0: 6491 8a40 4675 1141 65cd 8940 ad07 01c1
000001c0: fa7e 6fc1 4e4b 33c0 7b56 ad40 f5c5 15c0
000001d0: a1ea 0341 ef0e 0c41 4940 9540 89c8 9dc0
000001e0: 6ed2 1bc0 fdcb 8c40 b85c ffbf 03ca 6bc0
000001f0: 66e5 3bc0 cd7e 4440 1530 06c0 7083 2341
-6.56093 -2.3338373 -2.8035347 -2.9646926 6.746389 5.4724364 4.0396967 9.999204
4.870416 5.439696 -3.0312955 -3.0205154 4.0081525 -2.1686888 3.4598138 -2.8463688
2.6861095 -3.9763591 -3.2051246 -3.525496 8.982807 7.113445 -3.5181515 -2.56483
6.595622 5.1022196 5.7400165 -3.4119828 -4.617689 -3.2957306 8.379003 -1.7632574
-4.463344 -2.8841443 -3.2606084 10.806461 6.209461 11.605741 -3.9538577 -2.7422435
-13.914151 9.747763 -3.9103937 -6.5300646 -1.630507 -3.0347605 4.1386275 -2.653101
-1.6190329 -5.352949 -2.426594 5.243347 4.2795444 9.491192 -1.8277131 -3.507603
-2.431795 8.726531 -4.253735 9.345087 12.06113 3.592074 14.203845 -2.431226
-2.422059 3.9049366 -3.5642078 -1.9401271 13.219854 -2.18302 -1.9465561 -2.1820893
-2.3857248 -3.5602772 7.0347266 -5.764739 -9.550929 -2.6634815 4.5982914 -2.9376705
-2.6044178 -3.005778 -3.0282607 -7.470806 13.169694 -0.5405675 -4.7242365 3.297795
-2.1140707 -2.9906704 3.8503752 4.6016517 4.65566 -4.495137 -2.4255416 -2.7680104
-2.3863108 -3.4154932 -9.465786 14.369866 7.733636 8.890192 -2.6682117 -2.593923
7.564898 -6.9498653 -3.9443657 -6.796074 4.330248 9.091131 4.3063226 -8.064374
-14.9685 -2.8014712 5.4168067 -2.3402073 8.244782 8.753646 4.6640973 -4.9307294
-2.4347186 4.399901 -1.995017 -3.6842048 -2.9358764 3.0702393 -2.0966847 10.219589

running_var f4 [128]
00000000: 4a4a bd41 a02c c940 7a48 9a40 5751 0141
00000010: 7adc d441 8bc7 4b41 b866 5a41 d5da 9542
00000020: 7aff 9041 64d5 9b41 08ae b740 676b ce40
00000030: bd2b 3041 a3b2 aa40 593b d840 6761 a440
00000040: f56b b140 a5d4 bf40 40a5 c740 2b5e 1641
00000050: 0bb2 8b42 304a 4842 7c67 b940 7765 a940
00000060: dc85 0042 ffe1 b941 9ab2 b441 592c fc40
00000070: 538d a140 5297 8740 0fea 5842 33f5 8c40
00000080: 47e5 ba40 46f6 a840 3985 cb40 04b9 b042
00000090: f590 ac41 db55 b542 a311 ba40 481f 8f40
000000a0: c2cd 2043 feb2 a342 02f9 2f41 ab3d cf41
000000b0: 1cef e940 df33 ec40 4dd6 5c41 bbde 8e40
000000c0: f732 7c40 3a9a 5c41 d048 a840 ce67 8a41
000000d0: 6c67 ee40 de8c 5742 484e 4940 e2c6 d040
000000e0: cb4b 7340 f7d1 5342 abc8 c140 7d0b 6842
000000f0: 68e3 c242 427f 3d41 4ae5 f942 7df3 a540
00000100: 6281 ac40 831e 2341 fce8 2941 788f e040
00000110: e260 e242 8d09 9740 2dca 8d40 537c 9240
00000120: 6e95 3c40 8edd f440 51e1 1142 bf74 0d41
00000130: ebe4 7942 3462 6e40 175b 2941 9362 f940
00000140: 5eff 1541 0c83 cd40 97b0 7540 40c7 0642
00000150: df4d e842 5769 0141 aad4 0842 521e f140
00000160: 4d0d 9940 8d95 ae40 50ba 1c41 9f41 8441
00000170: 9b8d 8641 6cf4 c640 6d53 7940 a2a9 d840
00000180: c5ff 4940 e0ce 9640 1148 8242 bd24 1b43
00000190: f3bf 2642 95c6 f441 a3ac 9e40 d9d8 9540
000001a0: e191 df41 7b56 bd41 d5e5 e640 d679 2042
000001b0: 48e0 a441 260a 5042 8ce7 3241 38f7 4642
000001c0: e55b 0c43 fe82 5b40 c019 9541 34e9 c040
000001d0: 521d 2542 2b43 1442 5965 8341 6b5c 3c41
000001e0: 4f4e 9040 2919 3741 5c13 dc40 af81 c440
000001f0: 3267 9b40 44d5 2d41 0f44 fe40 fac1 ac42
23.661274 6.2866974 4.821347 8.082358 26.607655 12.736217 13.650078 74.92741
18.124744 19.479195 5.739994 6.4506106 11.010678 5.3343062 6.7572446 5.13689
5.5444283 5.9947076 6.238922 9.39799 69.84774 50.07245 5.7938824 5.293636
32.130722 23.23535 22.587208 7.8804135 5.0485015 4.2372217 54.228573 4.4049315
5.840488 5.2800627 6.3600125 88.36136 21.57078 90.66769 5.814653 4.4725685
160.80374 81.849594 10.998293 25.905111 7.310438 7.381332 13.80232 4.464689
3.9406106 13.787653 5.2588882 17.300686 7.4501247 53.887566 3.145403 6.5242777
3.801501 52.955044 6.0557456 58.01122 97.44415 11.843569 124.94783 5.1859727
5.390794 10.194949 10.619381 7.0175133 113.189224 4.719916 4.4309297 4.5776763
2.9466205 7.6520452 36.470036 8.841002 62.473553 3.7247438 10.584739 7.793283
9.3748455 6.422247 3.8389032 33.69458 116.15209 8.088218 34.20768 7.534951
4.7828736 5.4557557 9.795486 16.532042 16.819143 6.2173367 3.895717 6.770707
3.156236 4.7127533 65.140755 155.14351 41.68745 30.596964 4.958574 4.6827207
27.94623 23.667227 7.2155557 40.11898 20.609512 52.00991 11.18153 49.741425
140.35896 3.4298701 18.637573 6.028467 41.278633 37.065594 16.424486 11.772563
4.509559 11.443643 6.877363 6.1408305 4.856347 10.864567 7.945808 86.37886

weight f4 [128]
00000000: 043d 583f bfea 853f 5140 8c3f 25f9 833f
00000010: c7e7 863f b0e4 4f3f 99ed 803f e4ed 853f
00000020: 458a 6a3f 5cd9 803f 8946 613f f3ca 633f
00000030: 346a 823f e3b0 903f 394a 513f 1984 703f
00000040: 903b 823f b82c 823f d1f7 8d3f f334 873f
00000050: ec12 5e3f 6117 713f 6ffd 813f 9a9b 883f
00000060: e4ba 813f 05d5 793f 6459 693f 6ea8 723f
00000070: 0b05 773f 6670 8c3f 7d9d 863f 7391 8f3f
00000080: 04eb 6f3f bdb7 793f 5a65 4b3f 18b7 803f
00000090: 8cac 883f d1ea 8e3f 335b 863f c926 5f3f
000000a0: d8c5 253f 1189 833f 7a99 653f 7dfb 8c3f
000000b0: cf8d 7a3f d9b3 8d3f f92c 743f 3ba1 813f
000000c0: 6be1 823f d417 6f3f a232 833f a1f6 823f
000000d0: 01bc 773f 8acd 913f d0d4 8f3f 549e 883f
000000e0: 08ef 8a3f 941a 833f 5373 883f d545 8c3f
000000f0: 73cf 823f 7166 833f 2584 833f 76e9 853f
00000100: a531 813f c71b 8d3f d440 713f f7a5 8c3f
00000110: 394b 563f c485 833f a955 833f fa40 823f
00000120: de02 843f c148 8d3f 6a50 823f 31b7 813f
00000130: 0c15 913f 159e 883f f73b 863f cffa 833f
00000140: bffd 643f c856 8c3f 08d5 513f 4c70 513f
00000150: 195e 8c3f a57e 843f 6275 883f fb28 8a3f
00000160: d001 873f a850 8d3f 1276 823f 2021 8e3f
00000170: 8c6a 823f dbf0 913f d52a 823f ec19 873f
00000180: b0ba 863f 8a76 833f 79d2 883f 6fab 853f
00000190: ccab 883f ec24 783f df0c 6d3f 65af 823f
000001a0: 3050 8c3f 2199 863f ec0e 8d3f 3cef 823f
000001b0: f6be 833f fe9b 803f b270 833f 2253 863f
000001c0: e108 913f d5da 873f 7125 823f e95b 813f
000001d0: 7c64 763f 44be 883f 4922 8b3f 81ea 883f
000001e0: 634d 6c3f 2ce7 833f 4a2b 823f 5000 833f
000001f0: 78ee 6a3f e776 8c3f 6b2c 7a3f ff1e 873f
0.844681 1.0462264 1.0957128 1.0310408 1.0539483 0.81208324 1.0072509 1.0463223
0.9161723 1.0066333 0.87998253 0.8898155 1.0188661 1.1303982 0.8175388 0.93951565
1.0174427 1.0169897 1.1091253 1.0563034 0.8674762 0.941763 1.0155467 1.0672486
1.013516 0.97590667 0.91152024 0.94788253 0.9649207 1.0971801 1.0516812 1.1216263
0.9371798 0.9754599 0.79451525 1.0055876 1.0677657 1.116541 1.0496582 0.87168556
0.6475501 1.0276204 0.8968731 1.1014248 0.9787263 1.107051 0.9538112 1.0127329
1.0225042 0.93395734 1.0249827 1.0231515 0.96771246 1.139085 1.123682 1.0673318
1.0854197 1.0242486 1.0660194 1.0958811 1.0219558 1.0265638 1.0274702 1.0461872
1.0093275 1.1024102 0.94239545 1.0988148 0.8370853 1.0275197 1.0260516 1.0176079
1.0313375 1.1037828 1.018079 1.013403 1.1334548 1.0673243 1.048705 1.0310916
0.89449686 1.0963984 0.81965685 0.81811976 1.0966216 1.0351149 1.0660822 1.0793756
1.0547428 1.1040239 1.0192282 1.1103859 1.0188766 1.1401628 1.0169321 1.0554786
1.0525723 1.027055 1.0689231 1.0442942 1.0677428 0.9693134 0.92597765 1.0209776
1.0961971 1.0515481 1.1020179 1.0229259 1.0292652 1.0047605 1.0268767 1.049412
1.1330835 1.0613657 1.0167676 1.0106174 0.96247077 1.0683064 1.0869838 1.0696565
0.9230558 1.0304923 1.0169461 1.023447 0.91770124 1.0973786 0.97724026 1.0556334

bias f4 [128]
00000000: cfb5 66be 1c0e abbe 40f6 703d 2350 413e
00000010: de01 b1be 7bc6 82be 3c10 4b3e 4871 b73d
00000020: 8dc7 42bd c934 443e 0055 9abd 7cd0 40be
00000030: 0c53 453e 6629 b43d 79d7 7bbe 1938 b8be
00000040: 70b4 433e 83d5 443e b2f9 7b3d fbfd bb3d
00000050: f18a 56be 0760 afbe ef5f 423e b938 ce3d
00000060: 5368 403e a8d9 f8bc 9e42 2fbe 9859 cf3d
00000070: 1ab8 ebbd a9ad 393d 25a2 be3d 8d87 903d
00000080: e30b 87be 96fa fdbc 2ef6 32bd bf0f fdbd
00000090: 64aa ad3d 93bb 9c3d 7dbb bb3d f989 8c3c
000000a0: d7b0 a8be f9ea 483e 03bf 3bbe d0ab 893d
000000b0: adb1 443b 2bc4 673d 7bb6 a2bd 1ad1 443e
000000c0: 0d21 443e fb01 ad3d 8405 443e 3b32 473e
000000d0: 6d59 343d 5ff8 bc3d 6a12 a63d 93ba aa3d
000000e0: d2ec 263d 39e5 473e ae46 f73d c3c5 423d
000000f0: 585c 433e a95f 453e 354f 19bd d949 fa3d
00000100: d275 e9bd 90df 863d a174 b1be c56a 2a3d
00000110: b52c 6cbe 7d6c 3b3e 9ba4 e53d e8dc 473e
00000120: 8aef 413e 4101 523d 3b3f 3f3e cb03 463e
00000130: bf2c bf3d ba34 b03d b5fc e73d 01d3 9abc
00000140: 7922 37be 808a 5d3d 9c60 2dbc cf7e 7ebe
00000150: 2399 423d 6cc1 cb3d e2ab bc3d d023 4c3d
00000160: b643 c13d 9040 803d 3a9f 3a3e 1b23 923d
00000170: f9e7 063e d851 dc3d dd00 443e bc03 cb3c
00000180: 191a bb3d 578d 433e d7ab bd3d 0afb b4be
00000190: 2d6e b7be c9b1 45bb 8197 06bd f9c4 453e
000001a0: ce28 363d f780 ba3d 8459 503d ddf4 3f3e
000001b0: cc72 413e 74a9 4b3e 4a09 463e 6007 bb3d
000001c0: 8d1d cc3d 84e7 ab3d 8cbb 433e 4faa 453e
000001d0: ab8a ec3c 4849 b93d 96a7 243d 2a79 da3d
000001e0: 90b1 5e3c 66cc 413e b1cb 463e b4f6 483e
000001f0: 4fb0 373d f82a 043d 7620 c3bd 57f0 bb3d
-0.22530292 -0.33409202 0.058828592 0.18878226 -0.34571737 -0.25542054 0.19830412 0.089571536
-0.047553588 0.19160761 -0.07535744 -0.1882953 0.19269961 0.087969586 -0.24593915 -0.359803
0.191118 0.19222073 0.061517425 0.09179302 -0.2095144 -0.3425295 0.18981908 0.10069413
0.18789797 -0.030377224 -0.17115256 0.101245105 -0.11509724 0.04533163 0.0930827 0.07057104
-0.26376256 -0.031003278 -0.043691806 -0.12356519 0.08479765 0.076529644 0.0916662 0.017155634
-0.32947418 0.19620885 -0.18334584 0.06722224 0.003001313 0.056583565 -0.07944962 0.19220391
0.19153233 0.08447643 0.19142729 0.19452755 0.044030596 0.092270605 0.08108981 0.083363675
0.040753193 0.19521035 0.12074028 0.04755188 0.19078195 0.19274773 -0.037429053 0.122211166
-0.113994256 0.0658561 -0.34659293 0.04160573 -0.2306393 0.18303104 0.112130366 0.19517863
0.18939033 0.051270727 0.18676464 0.19337384 0.093347065 0.08603807 0.11327497 -0.018899443
-0.17884244 0.054087162 -0.0105821155 -0.24853061 0.047509324 0.09949002 0.092124715 0.04983884
0.09436743 0.06262314 0.18224803 0.07135602 0.13174428 0.10757798 0.19140954 0.024782054
0.09135837 0.19096886 0.092612915 -0.35347778 -0.35826245 -0.0030165783 -0.03285933 0.1931342
0.044472508 0.09106629 0.05086662 0.18745752 0.18891448 0.1988886 0.19339481 0.09132266
0.09966574 0.083937675 0.19114512 0.19303249 0.028874716 0.090471804 0.040198885 0.106676415
0.013592139 0.18925628 0.1941364 0.1962536 0.044845875 0.03226754 -0.09527676 0.091767006
