Graph Neural Network/Models/BasicLayers-T1.pth (torch, 129690 bytes, 22 tensors)

weight f4 [80, 1]
00000000: eb38 01bf 4ac7 d13e fd90 71bf 4679 ecbe
00000010: 7248 a13b 8fe7 293d 6ddf 5cbf 0f5b 143e
00000020: 9d59 3fbf 0a10 27bf 262a 383f 9bb1 79bf
00000030: 6281 ad3e f119 7abf 20d8 773f e88d 3a3d
00000040: 1ecc 56be 5b1b 50bf d50b 613f 0f66 7abf
00000050: c158 89bd 78ea 02bf 8cbf e53e 95be 2ebf
00000060: 8bda 493e a807 e63e 2010 1ebf 38df a8be
00000070: f997 b33d a8c9 593f 841c 1bbe 1aa5 a1be
00000080: 4206 43be c262 613f a4a8 60be fb18 0abf
00000090: dfd9 6b3f 82f3 bc3e 9750 26bf a0b2 44bf
000000a0: 4e11 25bf 8c7f 453f 7504 6f3f 6e9a 413e
000000b0: 8d62 33bf 1390 8bbe 8686 6f3f 3bda d03e
000000c0: a572 c6be 6776 97be 46c7 3cbe 55f8 633e
000000d0: 3321 a9be 8dfb 583f a367 423f 424e 623f
000000e0: eeb4 063e 8fc1 fe3e 94b3 573e 8019 92be
000000f0: 80a3 05bb e66c 3bbe bf7a 593f ef9b 203f
00000100: a57e 4dbf 9909 f23e 5325 72bf 94c9 d23e
00000110: 2ea8 dbbd 695a 5cbe 2da4 28bf 2f4c 70bf
00000120: 3bda c9be 58b8 153f 6008 6fbf 2bc2 db3e
00000130: 9793 37bf f7c0 6e3e 3eaf 20bf 125d 48bf
-0.50477475 0.40972358 -0.9436186 -0.46186274 0.004921966 0.041480597 -0.8627842 0.14487861
-0.74746114 -0.6525885 0.71939313 -0.9753663 0.33887774 -0.97695833 0.96814156 0.04554549
-0.20976302 -0.8129174 0.8790868 -0.9781198 -0.067063816 -0.5113902 0.448727 -0.68259555
0.19712274 0.44927716 -0.61743355 -0.32982802 0.08769221 0.8507333 -0.15147597 -0.31571275
-0.19045356 0.8804132 -0.21939331 -0.5394437 0.9212932 0.36904532 -0.6496672 -0.7683506
-0.6447953 0.77147746 0.93366176 0.18906567 -0.7007225 -0.27258357 0.9356464 0.40791497
-0.38759342 -0.2958252 -0.18435392 0.222627 -0.33033141 0.84758836 0.7593939 0.8840066
0.13154957 0.49757048 0.21064597 -0.2853508 -0.0020391643 -0.1830326 0.8495292 0.62737936
-0.8027137 0.47272947 -0.945882 0.41169417 -0.10725437 -0.21518864 -0.6587551 -0.93866247
-0.3942431 0.5848441 -0.93372154 0.42921576 -0.7170958 0.23315798 -0.627674 -0.78267014

bias f4 [80]
00000000: 70e5 05bd a1fd 04bf 30ef 793f e61c 05bf
00000010: 0c5f abbe 186c 6fbf 8e17 623f c042 06bf
00000020: 869c 6b3f 234e a4be 4091 e6bd 49f5 3ebe
00000030: 4655 40bf c9cc 463e 2161 4b3e 0ecb 6bbf
00000040: 4451 eb3d 4994 1f3f 49e3 e93e 38e6 5f3e
00000050: e979 cfbd 91c0 6c3f 60a2 53bf ede3 4c3f
00000060: f4aa 20bf 5749 61bf c4eb 443e 1344 57be
00000070: 76f8 16be 0b5b 3bbf e32b aebe 6348 5bbf
00000080: 826c 0b3f b2be 73be 364c ddbd 3d5c c23e
00000090: a5a7 57be 6054 753c c77c e53e e430 b23e
000000a0: 2ba0 10bf 710e 1fbf 5c40 50be 3ebb a0bc
000000b0: 2298 fe3e 0d97 b7be 3a4d e83e e00f 34bf
000000c0: e807 b23e d22a dc3d 130b fabe cd6b 5fbf
000000d0: 6ccd a9be d729 00bf 5f05 08be 1d4a 4d3f
000000e0: f86c 263f 9a71 69bf 8478 b93c 3492 00bf
000000f0: 321d cfbd 5484 b6be cd65 4bbf 88f6 0cbf
00000100: 77c4 c1be 54c5 40bf ced4 483f 9c1f 7f3f
00000110: 4650 44bf c524 60bf 9117 69bf 29b8 f3bd
00000120: ea91 c9be 08fa 02bf 7386 413f 89ce ed3e
00000130: 7a28 f73e 8e77 513f c04f 11bf a528 6b3f
-0.03268951 -0.51949507 0.97630596 -0.5199722 -0.33470953 -0.9352431 0.8831719 -0.524456
0.9203571 -0.32090864 -0.11258173 -0.18648256 -0.75130117 0.19414057 0.1986127 -0.9210671
0.114901096 0.6233564 0.45681217 0.21865165 -0.101306744 0.92481333 -0.8266964 0.8003529
-0.62760854 -0.8800253 0.19230562 -0.21022062 -0.14743218 -0.73185796 -0.34017858 -0.8565733
0.54462445 -0.23803213 -0.10805552 0.37960997 -0.21060045 0.01497373 0.4482176 0.34802926
-0.56494397 -0.6213141 -0.20337051 -0.019620534 0.49725443 -0.3585743 0.4537142 -0.70336723
0.34771657 0.10750355 -0.48836574 -0.87273866 -0.33164537 -0.5006384 -0.13283299 0.8019121
0.65010023 -0.9118897 0.022640474 -0.5022309 -0.101129904 -0.35647833 -0.7945221 -0.55063677
-0.37845203 -0.753011 0.78449714 0.9965761 -0.7668499 -0.87556106 -0.91051584 -0.1190036
-0.39369136 -0.5116277 0.7559578 0.46446636 0.4827307 0.8182305 -0.56762314 0.91858894

weight f4 [80, 1]
00000000: 8751 4d3f 06b0 61bf 1fd4 243f 4959 153f
00000010: 8c08 73bf b104 963e 477d bebe aca9 f73e
00000020: 3b43 203f d59b 323e ae67 123f 6607 30bc
00000030: dfcc 52be e9dc 0bbf 04d9 223e b526 15bf
00000040: dfab 3ebf f5c1 773f ca3f 103f 296e db3e
00000050: 6f32 ef3e e0c0 f2bd 362c 163d 9fd1 2a3f
00000060: 2ce5 4abf 5911 13be 35c3 c8be de5c 7abb
00000070: c85e 183e 4f79 67be 9e3f d03d 3be7 b03d
00000080: 541d 0dbf 3f6e b03e 9b12 9b3d 4b3f 333e
00000090: 3161 95be 3458 80bf 44fc cdbe c49c 143f
000000a0: cb6f 243e e003 163f 7e87 03bf 9907 bb3e
000000b0: 78dc 0ebf de84 fdbe e405 273f 1e02 dbbd
000000c0: d1cf 593f d728 61bf a33f 0bbf fa69 263f
000000d0: f86a 1dbf 68a4 dbbe 54fb 763f b6c7 01bf
000000e0: 4811 28bf 492c 993e 04d0 30bf 192b 503f
000000f0: 7829 5bbe 718f 383f afe9 53bf 14a7 56bf
00000100: 5ae6 ff3e e26b 973e 9379 5b3f da32 04be
00000110: ceb1 d83e e71c f83e 29cc 9dbe 733a 9c3e
00000120: 013a 4a3f f0d1 08bf 7eaa 0d3e 94cc 313f
00000130: 0048 683f 098d 563f 6048 2b3f 6d1e 01bf
0.80202526 -0.88159215 0.6438617 0.58339363 -0.94934916 0.29300454 -0.37204954 0.48371637
0.62602586 0.17442258 0.5718945 -0.010743951 -0.20585965 -0.5463396 0.15903097 -0.5826219
-0.74481004 0.9678033 0.56347334 0.42857483 0.46718165 -0.11853194 0.036663257 0.66726106
-0.7925594 -0.14362086 -0.3921143 -0.0038202326 0.14879906 -0.2260487 0.10168384 0.08637854
-0.55122876 0.3445911 0.07571908 0.17504613 -0.29175714 -1.0026917 -0.40231526 0.58051705
0.1605827 0.5859966 -0.5137862 0.36529234 -0.5580516 -0.49515432 0.65243363 -0.10693763
0.8508273 -0.8795294 -0.54393977 0.6500546 -0.61491346 -0.4289887 0.96477246 -0.5069536
-0.6565137 0.299166 -0.69067407 0.8131576 -0.21402538 0.72093874 -0.8277845 -0.8384869
0.49980432 0.29574496 0.8573238 -0.12910023 0.42323154 0.4845955 -0.30819824 0.30513343
0.78994757 -0.5344534 0.13834569 0.69452786 0.90734863 0.8380895 0.6690731 -0.5043705

weight f4 [80]
00000000: ea8b 833f d725 7f3f 88c1 803f 9a71 7b3f
00000010: 4add 7a3f 69df 813f e248 7b3f bf2d 813f
00000020: fd99 7c3f 4b5d 7b3f 45e5 833f 087c 7e3f
00000030: 595a 803f debb 773f bf88 7b3f 036e 7e3f
00000040: c8f4 7b3f 91e4 833f 267a 7f3f c2bc 783f
00000050: 7e1f 833f ceef 7c3f 5fe9 813f 30da 813f
00000060: eedd 7a3f b1b7 803f 5a30 833f a33e 843f
00000070: 99cd 783f 8925 803f 97c9 793f 4653 7f3f
00000080: 7a4f 813f d1ee 7c3f 78b1 863f 9b6f 833f
00000090: 859c 7c3f 72d8 7a3f 4b55 823f f3a7 7c3f
000000a0: 3e2f 813f d4df 7e3f abdf 7f3f b44c 7d3f
000000b0: fcc2 803f 1769 813f befe 7f3f 24f8 803f
000000c0: 434c 823f 21ec 7e3f f0f8 813f f0b5 7f3f
000000d0: e718 813f 16be 823f 7d39 813f 3c82 813f
000000e0: 7c25 7f3f cdfd 7c3f 9c01 7b3f afab 7c3f
000000f0: bb9a 783f 3c09 7b3f f8c3 803f 43cf 803f
00000100: acd0 813f c53b 7e3f 62f9 813f 3ac7 7e3f
00000110: 983d 803f 77b3 813f 540c 803f 7b62 823f
00000120: e971 7d3f 7f6d 803f 774d 7d3f f3f3 7a3f
00000130: 5327 813f e022 803f 3599 803f cdcd 793f
1.0277073 0.99667114 1.0059061 0.9822022 0.9799391 1.0146304 0.98158085 1.0092086
0.9867247 0.9818923 1.0304343 0.99408007 1.0027572 0.9677104 0.9825553 0.99386615
0.9842038 1.0304128 0.9979576 0.9716302 1.0243986 0.9880341 1.0149344 1.014471
0.9799489 1.0056058 1.0249131 1.0331615 0.9718872 1.0011455 0.97573227 0.9973644
1.0102379 0.98801905 1.0522909 1.0268434 0.9867633 0.9798652 1.0182279 0.9869377
1.0092542 0.99560285 0.99950665 0.98945165 1.0059505 1.0110196 0.9999808 1.0075727
1.0179523 0.99579054 1.0154095 0.9988699 1.0085725 1.021426 1.0095669 1.0117869
0.9966657 0.9882477 0.9804933 0.9869947 0.971111 0.98060966 1.0059805 1.0063251
1.0141807 0.9930995 1.015423 0.99522746 1.0018797 1.0132893 1.0003762 1.0186304
0.9900194 1.0033416 0.98946327 0.98028487 1.0090126 1.0010643 1.0046755 0.9757965

bias f4 [80]
00000000: 9daa b23c 5b73 0abc 0c15 823b 1b2b 99bc
00000010: 12a0 25bc 30b6 0f3d 84dc 8cbc 6b9d af3c
00000020: 704c 97bc c994 aebc 1d92 0b3d 1ac1 6a3a
00000030: f564 74ba db7f 2cbd 38e5 babb c865 d6bc
00000040: e438 98bc d00b 583c be3b d13c 4a80 cfbc
00000050: 0eb4 843c a8c5 65bc c792 ff3c 899a dfbb
00000060: a5c5 33bb a6c2 183d 9a98 033c 167f f23c
00000070: fae1 04bd 06ed 1e3c b4c6 e0bc 9b47 63bb
00000080: e695 f6bb e59c e1bc 87c1 d23c 2138 053b
00000090: 3c57 37bc d74a 393c b826 543c 03c3 bcbc
000000a0: 014d 853c ecbe d83b f330 a6bc e971 84bc
000000b0: 90e2 493c 96c2 d53b 0b66 cdba 40de 2d3c
000000c0: a975 583a 6f1b 5bbc 6ed4 8939 f42b 7dbb
000000d0: f786 eb3a 6731 bd3c b2e9 bb3b bdab 033b
000000e0: 7e9f 60bb 9554 aabb 0bd5 d0bc 8bfd 62bc
000000f0: 7a6f 1bbd 9cf6 94bc 196a 943c f6d9 e13b
00000100: c7fc 513c 4a42 78bc 6898 4b3c 2511 52bc
00000110: 98bb 92bb c592 713b c0af d838 6d82 413c
00000120: cbe4 a3bc aa16 8b3c 671e 90bc 70ac 7abc
00000130: d35c 193b 790a f63b efd5 d1bb a6a5 a3bc
0.02180987 -0.008450354 0.003969794 -0.018697312 -0.0101089645 0.035085857 -0.017194994 0.021437367
-0.018469065 -0.02131118 0.03407489 0.0008955166 -0.0009322905 -0.04211412 -0.0057035945 -0.02617158
-0.018581815 0.01318641 0.025541183 -0.025329728 0.016199138 -0.014024176 0.031197919 -0.006823842
-0.0027431038 0.037295006 0.0080319885 0.029601615 -0.03244207 0.0097000655 -0.027438499 -0.0034680131
-0.0075251935 -0.027540633 0.025727047 0.0020327645 -0.011190232 0.011309347 0.012948684 -0.023042208
0.01627207 0.0066145565 -0.020287013 -0.016167598 0.012322083 0.0065234406 -0.001567067 0.010612071
0.0008257279 -0.01337324 0.0002628895 -0.0038630934 0.00179693 0.023094846 0.0057346458 0.0020091378
-0.0034274752 -0.0051980712 -0.025492212 -0.013854395 -0.03794811 -0.018183999 0.018116998 0.006892438
0.0128166145 -0.015152523 0.012426473 -0.01282147 -0.0044779293 0.0036861163 0.000103324186 0.011810881
-0.020006558 0.01697858 -0.017592622 -0.015299901 0.0023401275 0.0075085727 -0.0064036767 -0.019976448

running_mean f4 [80]
00000000: 8311 27bf 0468 7dbe 24c1 84bf 7074 9ebf
00000010: aa89 a2bf f1ac 06bf 748a f5bf 9aac bc3e
00000020: 09db 0ebf c2fd fdbf d9f4 1e40 d969 3cc0
00000030: 8441 a3bb dd92 46c0 1b4f 4540 701f b0bf
00000040: 1a68 9cbf d1b6 32bf b6b5 5f40 fed7 06c0
00000050: 9052 363e 2940 22bf c5d7 f23e 6bc8 e8be
00000060: d3d1 5dbf 4ef5 743e ef20 f8bf f132 92bf
00000070: 13f2 803e b3f1 b73f 9a94 2abf fb6c d4bf
00000080: c73a 0bbf 627a 2540 f755 26bf d79c 76bf
00000090: 68dd 0540 acc1 533d b01e e4bf 6012 9ebf
000000a0: b620 0ec0 8cd2 0840 3b99 f43f 9163 613f
000000b0: 6c36 02c0 c5a7 cfbf b55f 6f40 c7b3 ac3e
000000c0: 2109 da3d 5656 cdbf b976 c6bf 2201 ce3e
000000d0: 993b f0bf 497a ba3f 9e22 3e40 c32d 3240
000000e0: 639a ba3e 58bb 493f e8f2 9abd f91e fdbe
000000f0: a9cc a4be 09ab 1bbe 29ce 443f a938 c13e
00000100: 47e0 08c0 8294 5f3f c4bc 82bf 5c9d 0140
00000110: 533f 25bf e1fa 7ebf 31b6 44c0 6242 1dc0
00000120: 9098 36bf 230a 1a3f 6001 debf 6e80 1740
00000130: fe85 20bf 9b02 1440 c158 d5bf a70d e5bf
-0.65261096 -0.2474671 -1.0371442 -1.2379284 -1.2698262 -0.5260764 -1.9182878 0.36850435
-0.5580297 -1.9843066 2.4836943 -2.9439604 -0.0049821753 -3.1027138 3.0829532 -1.3759594
-1.2219269 -0.69810206 3.4954658 -2.106933 0.17804933 -0.6337915 0.47430244 -0.45465407
-0.8664829 0.23921701 -1.938505 -1.1421796 0.25184688 1.4370636 -0.66633 -1.6595758
-0.5438656 2.5855947 -0.6497492 -0.9633307 2.0916386 0.05169837 -1.7821865 -1.2349358
-2.2207465 2.1378508 1.9109262 0.8804255 -2.0345716 -1.6223074 3.7402165 0.3373091
0.106462725 -1.6041973 -1.5504981 0.4023524 -1.8768188 1.4568568 2.9708629 2.784043
0.36445913 0.7880149 -0.07565862 -0.49437693 -0.32187393 -0.15201963 0.76877075 0.3773854
-2.1386888 0.8733598 -1.0213857 2.0252295 -0.6454975 -0.9960156 -3.07362 -2.4571767
-0.7132654 0.6017172 -1.734417 2.3672137 -0.62704456 2.312659 -1.666771 -1.7894791

running_var f4 [80]
00000000: cfcb d83f 07ba 8e3f aa4a bd40 539c b53f
00000010: a862 2839 23a3 393c 9035 9e40 f59d 0f3e
00000020: a376 6d40 ca19 3540 f8c6 5b40 fd44 ca40
00000030: 285e 423f 6cd4 ca40 921c c740 c0eb 5e3c
00000040: 463d 963e 6583 8c40 b63a a440 805d cb40
00000050: 6de0 f23c 3b5a de3f 496b ab3f 2323 4640
00000060: 1a99 833e 5406 ab3f aa18 2240 a1bc 383f
00000070: 50d5 563d 2fc6 9940 54d4 1c3e 118f 293f
00000080: 0a6b 773e 7dbe a440 6aba a33e 0b23 f73f
00000090: 8f64 b440 18b2 673f 0831 3340 d8f8 7a40
000000a0: 7fe1 3040 2933 7d40 7624 b940 de34 753e
000000b0: efdc 5040 8171 fd3e 1f01 ba40 1b35 8d3f
000000c0: 00af 7f3f 639b 143f ff63 663e 4aae a73e
000000d0: 4093 393f 0cab 9840 b346 7540 7917 a640
000000e0: 7ac6 eb3d 7c6b d23f 407f 963e c016 0b3f
000000f0: dd3d 0638 e99e 643e 0042 9940 d252 2740
00000100: 9fee 8840 ffdf bd3f b025 be40 5bbe 8f3f
00000110: b473 9c3d 4e25 9d3e 177f 3840 b451 bb40
00000120: eaf4 833f 1a91 1140 df41 b940 928e 9c3f
00000130: b824 5a40 3bc9 b83e f59b 2740 8e30 8240
1.6937197 1.1150521 5.9153643 1.4188331 0.00016058481 0.011330399 4.9440384 0.140251
3.710366 2.829699 3.434019 6.3209214 0.7592492 6.3384304 6.2222376 0.013606012
0.29343623 4.3910394 5.132167 6.3551636 0.02964803 1.7371286 1.3392116 3.0958946
0.25702745 1.3361306 2.5327554 0.72162825 0.052449524 4.8054423 0.15315372 0.66233927
0.24161926 5.148253 0.3197816 1.9307569 5.637275 0.90506124 2.7998676 3.9214382
2.7637632 3.9562476 5.785701 0.23945948 3.2634847 0.4950066 5.812637 1.1031832
0.99876404 0.580496 0.22499083 0.3275016 0.7249031 4.7708797 3.8324401 5.1903653
0.11512466 1.6439052 0.2939396 0.5433159 3.2005704e-05 0.22326244 4.7893066 2.61443
4.2791286 1.4833983 5.9421005 1.1229967 0.07639256 0.30692524 2.882757 5.8537235
1.0309117 2.2744813 5.789291 1.2231009 3.4084911 0.36091027 2.6188939 4.068427

weight f4 [80, 80]
00000000: 596a 9d3c 5808 81bd 24e0 213d 1454 c3bd
00000010: 1e23 673d ffe8 e3bd db35 d43c e606 f4bd
00000020: c676 093d 2689 36bc 2bc8 bfbc 1dc8 65bd
00000030: c176 1dbd 716a 81bd 69a9 82bd c490 263d
00000040: 8a5c 03bd d911 8eba 7bd8 a1bd 25c1 753c
00000050: 5bef 363a 05e4 f83c 7ffa 85bd 0a6d 1abd
00000060: 70a1 ad3d 24e9 c8bd 6405 583d 1578 9fbd
00000070: babc 833c 95ed c5bd e4df 993d 1182 c33d
00000080: 2c14 97bd 5df2 e83c 8bb3 b33d fc0b 3cbd
00000090: af40 a8bd 30f9 f0bd 81e0 6d3c 7ebc ab3d
000000a0: 9056 c13d e4c9 8abd 2ada 7fbd ed5b c6bc
000000b0: a3d5 d83c d284 833d 5309 c63d 9da2 90bc
000000c0: 2346 05be 1646 1d3d 2dff 80bd 67db 3ebc
000000d0: 68b2 b2bd dfc8 0cbd edda 883d 6a6f fabd
000000e0: 27c2 af3d 2bdb 833d 071e 363c bf2c 8dbd
000000f0: c035 13bd 0811 823d a84d d7bd c646 b8bc
00000100: 5ebf 28bd e38d 9dbc f48a abbd 4013 5e3b
00000110: 539b 133c d269 563d 3082 cabd b331 0ebd
00000120: e1c9 6d3d a13b a4bb b55d 813d 3bee c3bd
00000130: f6c6 a83d 79f1 00be 2272 173d e05f 41bd
00000140: 6391 2e3c 73bc d7b9 00d7 d1bc afe2 1ebd
00000150: db82 fdbd 37a0 97bd 75ed 1e3d 3bc4 a23d
00000160: 47e9 0d3e 2c75 b23d 6e37 bbbd 2677 5bbd
00000170: c20c 83bc 2c9f d7bb 8519 9d3d 0345 eebc
00000180: b61c 953d b355 d6bc b933 81bd b6f2 60bc
00000190: e6b8 a23d eb99 f5bc b306 a3bd 4450 bbbd
000001a0: 9c0a 4dbc 06b8 8ebd 7046 e0bc 82b6 ee3d
000001b0: 60d8 20bd 8e90 723c 2054 06bd fcf9 3a3d
000001c0: 446a 5abd 6e2a 1a3d 9829 c3bb e2ab 65bd
000001d0: a829 86bc 710a 623d 5356 003e 9744 4dbd
000001e0: 6b9b 033e 4e2b e53c 24ee 883d f6f6 563d
000001f0: 01b4 cc3d de2c d8bb 2db7 8fbd d25d dcb9
00000200: 62a0 81bc 96fc a13c 7818 4bbd a41a ac3d
00000210: 8e2b a93d b668 93bd 2d76 dcbd dce7 8ebd
00000220: 45f3 87bd 44bf b73d f7d3 ef3b ac0e 9b3d
00000230: 3006 af3d c827 c039 f0bf e4bd 7bf3 a1bd
00000240: 9d31 db3d 6fc7 953d 0269 1b3d f21a ecbd
00000250: 598c 3f3c c3e8 d43c e596 a03d 6f1f 853d
00000260: 3e7c f73a 41db b5bc 555d 733b 73a3 4fbc
00000270: d509 233d 142e cfbc 42aa 43bd 1498 a7bc
00000280: c30b f3bd 4f85 69bd bdb7 c23d 49d0 ab3d
00000290: 1baa 903d 7609 68bd 8e00 b5bd d8f3 86bd
000002a0: 056a 2cbd 8469 80bd 48b3 f0bc 4219 c93d
000002b0: bd6a 0bbb b920 7a3d 9b7e 853c d688 85bc
000002c0: d9fb a03d 0229 cbbd 1826 32bd db92 a6bd
000002d0: 1903 4f3d 2366 b6bd 5116 3fbd d128 be3d
000002e0: 3e87 f6bd e2fd aebd d281 3d3d 2ecb a4bc
000002f0: 1a09 ecbd 2b77 edbd ca21 a83d 4b9c 413d
00000300: 613c 95bd 9889 503d 4d9e 2d3c c4b2 9abc
00000310: aecb 913d e8f7 e7bd 92f1 463d 4a28 ab3d
00000320: ac4c dd3d 001b 253d 82e7 193d 957c 413d
00000330: 542a c73d bf16 8fbd 2519 973d 0888 a1bd
00000340: f060 ff3c 4d7a b73d a2f6 bcbc 4c1f 3f3d
00000350: 5c8b 723d 3e2f 933d 0820 103d 8f90 933d
00000360: 2885 61bd 5de2 97bd ac28 a7bd fb66 7cbd
00000370: 60ee f93c 1aa0 a53c f13b eabd aa80 ab3c
00000380: 8dda 9abc f2a0 09bd 4088 2b3c 37c3 593c
00000390: d12e 863c 2319 46bd ccf4 4cbd 97b5 913d
000003a0: 50a7 423d c7ad 953c d28a 7b3d b6e0 ad3d
000003b0: bcdc c03d 2647 da3c 9f24 76bd 1de6 093d
000003c0: 26aa 0ebc 8354 ebbc 8aba 9fbd 2e9e 063e
000003d0: d2f3 febc b72c 98bc c17c a23d 5103 13ba
000003e0: 9420 95bd 15b4 c83d 571c 66bd 8ee0 f33c
000003f0: ef58 d13d a005 163d c385 fd3c 9b94 883d
0.01921575 -0.063004196 0.039520398 -0.09537521 0.056429975 -0.11128425 0.025904587 -0.11915378
0.033560537 -0.011141097 -0.023410877 -0.056099046 -0.03844333 -0.0631913 -0.06379969 0.040665403
-0.032070674 -0.0010839059 -0.079026185 0.0149996625 0.0006978416 0.030382166 -0.06541919 -0.037701644
0.084780574 -0.09810093 0.052739516 -0.07786576 0.016081203 -0.09664456 0.07513407 0.095462926
-0.07376894 0.02843588 0.087744795 -0.045909867 -0.082154624 -0.11766279 0.014518858 0.083855614
0.094403386 -0.06776789 -0.062463917 -0.024213756 0.026469057 0.06421818 0.09669747 -0.017655665
-0.13015036 0.038396917 -0.06298671 -0.011648989 -0.087254345 -0.034371253 0.06682382 -0.12228282
0.085819535 0.06438287 0.0111155575 -0.068933 -0.035939932 0.06350905 -0.10512859 -0.022494685
-0.041198127 -0.019232696 -0.083761126 0.0033885986 0.0090092 0.052347012 -0.098881125 -0.034715366
0.058053855 -0.005011991 0.06316701 -0.09566923 0.08241074 -0.12592115 0.03697408 -0.047210574
0.01065478 -0.000411484 -0.025615215 -0.0387904 -0.12378474 -0.074036054 0.038800675 0.07947584
0.1385852 0.08713755 -0.09141432 -0.053580426 -0.015997294 -0.006580254 0.07670883 -0.029085642
0.07280867 -0.026163911 -0.063086934 -0.013729742 0.07945423 -0.02998062 -0.07960262 -0.09146169
-0.0125147365 -0.069686934 -0.027377337 0.11655904 -0.03926885 0.014804972 -0.03279507 0.04564856
-0.053324 0.03763812 -0.005955886 -0.056072123 -0.016377285 0.05518574 0.1253293 -0.05011424
0.12852256 0.02797475 0.06686047 0.052481614 0.099952705 -0.0065971455 -0.0701736 -0.00042031572
-0.015823547 0.019773763 -0.049583882 0.08403519 0.082602605 -0.071977064 -0.10764728 -0.069778174
-0.06638197 0.08972028 0.0073189694 0.07571158 0.08546102 0.00036650733 -0.11169422 -0.07907768
0.10702822 0.073134296 0.03794194 -0.11528577 0.011691176 0.025989896 0.07841281 0.06500136
0.0018881632 -0.022199275 0.0037134488 -0.012673247 0.0398043 -0.025290526 -0.047769792 -0.020458259
-0.11867478 -0.0570119 0.095077015 0.083893366 0.07063695 -0.056649648 -0.088379964 -0.06589478
-0.042093296 -0.062701255 -0.029382363 0.09819271 -0.0021273338 0.061066363 0.016295722 -0.0163006
0.07860536 -0.09919931 -0.04349336 -0.08133479 0.050540064 -0.089062 -0.046652142 0.09285129
-0.12037514 -0.08544518 0.046266384 -0.020116415 -0.115251735 -0.11594995 0.0820957 0.047268193
-0.07286907 0.05091247 0.010596824 -0.01888407 0.07118927 -0.11326581 0.048570223 0.08357294
0.108056396 0.040308952 0.0375743 0.04723795 0.0972487 -0.0698676 0.07377843 -0.07887274
0.031174153 0.08958874 -0.023066822 0.046660706 0.059214935 0.07186745 0.035186797 0.07205307
-0.05505863 -0.07416222 -0.081620544 -0.061621647 0.030509174 0.020217944 -0.11437214 0.020935375
-0.018903041 -0.033600755 0.010469496 0.013291172 0.016379746 -0.048363816 -0.050038144 0.07114714
0.047522843 0.01827134 0.061411686 0.08490126 0.09417102 0.026645254 -0.06009352 0.03366672
-0.008707559 -0.028726822 -0.077992514 0.13146278 -0.031122122 -0.01857601 0.07933951 -0.0005608099
-0.072816044 0.09799973 -0.05617937 0.029770162 0.10222041 0.03662646 0.030947572 0.06668969

bias f4 [80]
00000000: 08ce cbbd 2546 a8bc 19db d3bd a562 38bd
00000010: a080 f93c eab0 443d 5ab8 8d3d de72 9b3d
00000020: b3d7 9a3d 1e7b babd 0aee 83bb 0d36 1dbd
00000030: f2da 7b3d d938 a23d 0308 513d a499 833d
00000040: bceb 79bc 5704 b7bc f8f0 bc3c de12 9dbd
00000050: 89bc a4bd 4a4b 6a3c cb7b d53d 8c22 15bb
00000060: 8fff 28bd 1915 9b3d 4842 18bc c548 373d
00000070: 8e38 99ba 3817 853d ba1a 06bd 4240 38bc
00000080: a792 adbd 66aa 063a f897 6cbd 7a28 9fbc
00000090: d2cc 36bd 70fa 493c 01af d0bd 033c 1d3d
000000a0: cba1 953d 176e 1a3d 5fa3 103c 2e87 22bd
000000b0: 971f cabd a71d 113d 6c78 84bd 684c 7e3c
000000c0: 88fd 85ba 8126 d83c e46f 8b3d f56f 7abd
000000d0: 59c5 8d3d c1d3 42bc b8cb a43d 52ce c83d
000000e0: 924f 563d f56c dabd 38ac 143c d97e c4bd
000000f0: 6bdf 933d 0a18 d6bc a9c4 acbd 3b63 c8bd
00000100: bc87 b73d 73f1 cf3d ce72 8bbd f6dc ffbc
00000110: 6767 b03d 8461 a9bc 4874 643d 6991 9abb
00000120: 6752 3cbd 43b5 de3d d5ca bebd 5583 e2bc
00000130: e4d0 a9bd 271a 943c 87be 193d ba22 b9bd
-0.09951407 -0.02054126 -0.10344524 -0.04501595 0.030456841 0.04802028 0.06919928 0.075902686
0.075606726 -0.09105514 -0.004026179 -0.038381625 0.0614881 0.07920999 0.05103303 0.06425789
-0.015253957 -0.022340937 0.023064122 -0.07669614 -0.08043773 0.014300177 0.10424002 -0.0022756187
-0.041259345 0.075723834 -0.009293146 0.044747133 -0.0011689828 0.06498569 -0.032740332 -0.011245789
-0.08475237 0.00051370857 -0.057762116 -0.01942848 -0.044628926 0.012327775 -0.10189629 0.03838731
0.0730625 0.037702646 0.008828013 -0.0396797 -0.098693065 0.03542867 -0.06468281 0.015521146
-0.0010222653 0.026385548 0.06808451 -0.061141927 0.06922407 -0.011891306 0.08046669 0.098049775
0.052321978 -0.10665313 0.009074263 -0.09594507 0.07220348 -0.02613451 -0.084359474 -0.09784552
0.08961436 0.10153475 -0.06809007 -0.031233292 0.086134724 -0.020676382 0.055774957 -0.0047170413
-0.045977022 0.10874417 -0.09316031 -0.027650515 -0.08291796 0.018078877 0.037535217 -0.09039827

weight f4 [80, 80]
00000000: cae2 96bd 14e3 d83c 4388 033d dd80 a83d
00000010: 96e1 0cbd c95b dabd 2502 033c 72e8 543d
00000020: dede 5bbc 94ab 8cbd fa03 393c 3cb7 37bd
00000030: c9e8 a33d 3664 8abd 3cfc 8cbd d64e 2ebd
00000040: 796a 5fbd 3fe1 29bc 6fde cd3c a1f8 253d
00000050: 81b7 bcbc 3db1 5abd 7efe 1dbd fed2 0f3d
00000060: fa0a 543d 3123 933d 653d 2cbd 3acd 44bd
00000070: 2ad9 b5bd 0894 aebd 135a f33d 12cd c1bd
00000080: ddbc 1b3d eb25 b9bd d193 92bc afb3 a23d
00000090: 0325 a9bb a008 323c 8e1e 8a3d 51be 4cbd
000000a0: 6eef 07bd 77fa 483d 5814 2fbb a27c 05be
000000b0: 4c05 cc3c eb94 423d a582 15bd d525 403d
000000c0: de2b 1c3d 08cd 81bd b923 00bd 946e 9c3d
000000d0: 436e ab3d 4044 e8bd ffdf f0bd 1129 0d3d
000000e0: 8713 9d3c c7cd 6bbd cece 32bd 13f6 9abd
000000f0: be26 ba3d e892 ab3d a6fc c4bd 9847 92bd
00000100: 96e9 7abc ab44 73bd db07 db3d c514 0cbc
00000110: bf83 243d 91e5 eebd e8d8 26bd 45f3 f63d
00000120: 9cbf 86bd 831e 233d 21cd 13bd 1cf0 67bd
00000130: 28a9 8c3d e460 3ebc 7c91 5b3d 2176 893b
00000140: bdf4 21bd a98a 02bd bf33 5f3d 03f9 c63b
00000150: 7b76 b1bd be1c a13d 3a1f a6bd 1bb2 5abd
00000160: d9d0 973d f26e c0bd 9da0 dbbc c3b6 9cbc
00000170: ff37 8cbd 09b6 ae3d 1761 373d 4ef0 ca3b
00000180: 4243 833d bc4c a93d 6fff 2abd 562b 04bc
00000190: f984 973d 7326 d7bd 5830 06bc c73c 233d
000001a0: 9b09 6e3d 5184 b63d f702 0b3d ec5d 34bd
000001b0: 713d 083d 14b6 b4bb 7f1e 25bd 2553 8cbd
000001c0: 373f 90bc 4bd3 c93d 58e3 583d d137 49bc
000001d0: b6dd 283d 372f c13d e8d8 123d be92 b0bd
000001e0: 6989 4abc 9126 9b3d 2623 afbb 8495 0e3d
000001f0: 0128 d13d 03e0 cb3d 7e2b 7abd 8dfb f7bc
00000200: 85b8 cb3d 770b b1bd 9f5a b3bd 4600 1cbd
00000210: 4fbe b5bd 70b4 b83d 406f 86bd 1e8e 1ebd
00000220: 6b14 a7bd e423 e93d d7bc 733c 7d57 9e3d
00000230: ed81 98bd 7646 ad3c 9c8e ffbc b96f f13c
00000240: 9840 6b3d f87e b7bc eec1 99bd f271 bfbc
00000250: 5d6d e0bc b719 52bd a43a bd3d 8642 c4bd
00000260: ebec 453d 49af 9ebb 14cd ac3d 6cc1 7d3d
00000270: 3941 3f3d fcfe e63c 2fb3 2c3d 6a95 cb3c
00000280: 6b0a 083e d848 243c 00bf d53c 5c8b d23d
00000290: b5a1 0abe 5b20 11be c951 99bc 6cd5 37bd
000002a0: 778b 253c 09a3 cc3c 4811 04be 8db4 763d
000002b0: 1284 703d 47b0 90bd f349 e3bd d5a3 febb
000002c0: e965 a5bb e53d f13d 0654 2cbd 6c21 3a3b
000002d0: 0c74 89bd 331a 903d e871 483d bb6e e43d
000002e0: cb15 953d 705f d1bd f963 d5bc 954a c03d
000002f0: 57ba a1bd b343 8dbd d982 cf3d 5288 a2bd
00000300: d791 ce3d e65b 293d b7d2 86bd f89f 7bba
00000310: 6b10 aabd c8ab 363d fd65 74bd 9331 19bd
00000320: de4e 053e fc13 97bd 010f a1bd 4902 c8bd
00000330: 46ad b8bd 44fb a1bd bb8f ff3b e883 0fbd
00000340: 8794 83ba 17a2 30bd e9f4 aabc 861a 80bd
00000350: b23e d83c e813 de3c 0310 fbbd bee1 3fbc
00000360: 796e a1bb bd12 a1bd f1e3 9dbc b37d ed3d
00000370: 8478 3ebd 3321 0a3c 9f96 d0bd 42e5 423d
00000380: a964 c63d 834c ddbd 2f86 d33a eb14 953c
00000390: eb9e 60bd 34bd babd 83e1 b8bb 084d 1d3d
000003a0: b420 c73d d775 6f3c 31cf 5c3d c0c2 5dbd
000003b0: c032 58bd 3152 e8bd 6bfb 073e 8bc3 1c3d
000003c0: 5754 81bd 0e1c 523c 3f00 623d fded 113d
000003d0: 7cab a53d 802f 8a3d 27a6 d0bd 890d fc3c
000003e0: 4fa7 fcbd e9d0 e6bd 4c6f 91bd c52a 993b
000003f0: f054 1d3b 9f3b 1b3d 1d6a adbc 7d61 083d
-0.07367475 0.026475467 0.03211237 0.08227704 -0.034394823 -0.10662038 0.007996117 0.05197949
-0.013419835 -0.068686634 0.011292452 -0.04485248 0.080033846 -0.06757395 -0.068840474 -0.042555653
-0.0545449 -0.010368644 0.025130479 0.040520314 -0.02303672 -0.053391684 -0.03857278 0.035113327
0.05176828 0.071844466 -0.042050738 -0.04804728 -0.088793114 -0.085243285 0.11882415 -0.09462942
0.03802191 -0.090404354 -0.01789275 0.07944428 -0.005161883 0.010866314 0.06744109 -0.049986187
-0.033187322 0.049066987 -0.0026715007 -0.13035825 0.02490487 0.0475053 -0.036501545 0.04691108
0.038127773 -0.06337935 -0.031284068 0.076382786 0.0837064 -0.11341143 -0.11761474 0.034462992
0.01917435 -0.05756929 -0.043654256 -0.07566466 0.09089421 0.083776295 -0.09618501 -0.07142562
-0.01531448 -0.05939166 0.10694858 -0.008549874 0.040164705 -0.1166488 -0.0407342 0.12058119
-0.06579515 0.03982402 -0.036084298 -0.05662547 0.068682015 -0.01161978 0.05360554 0.0041949903
-0.03954004 -0.031870518 0.05449271 0.006072165 -0.086651765 0.0786681 -0.08111425 -0.05339251
0.074128814 -0.09396161 -0.026809985 -0.019130116 -0.06846618 0.08530814 0.044770326 0.0061931973
0.06409313 0.08266589 -0.041747507 -0.008066973 0.073984094 -0.105053805 -0.008190237 0.039852884
0.05811463 0.08911956 0.033938374 -0.044034883 0.03326172 -0.0055148695 -0.040312286 -0.06851796
-0.017608268 0.09854754 0.052951187 -0.012281374 0.041227065 0.09432834 0.03585139 -0.08621739
-0.012361863 0.07575715 -0.005344766 0.034810558 0.10212708 0.09954836 -0.061076634 -0.030271316
0.09947304 -0.08644765 -0.08757519 -0.0380862 -0.08874189 0.09018791 -0.06564188 -0.038709752
-0.08158191 0.11383799 0.014876566 0.07731531 -0.074466564 0.021151762 -0.031195931 0.029472219
0.05743465 -0.02239941 -0.07507692 -0.023369763 -0.027395898 -0.051294055 0.092397004 -0.09583001
0.048321646 -0.004842673 0.08437553 0.06195204 0.04669306 0.028197758 0.04216307 0.02485152
0.13285224 0.010027133 0.026092052 0.10280487 -0.13538249 -0.14172499 -0.018715756 -0.04488127
0.010104052 0.024980085 -0.12897217 0.06023078 0.058719702 -0.07064872 -0.11098089 -0.007770995
-0.005047549 0.117793836 -0.04207232 0.0028401269 -0.06711587 0.07036247 0.048936754 0.11153933
0.07279547 -0.102232814 -0.026048647 0.093892254 -0.0789687 -0.06897678 0.10132379 -0.07936157
0.100864105 0.041347407 -0.065831594 -0.00095987273 -0.08303913 0.044597417 -0.059667576 -0.037400793
0.13018367 -0.073768586 -0.0786419 -0.09766061 -0.09017424 -0.07909253 0.0077991164 -0.035037905
-0.0010038771 -0.04312333 -0.020868735 -0.06255059 0.026397083 0.027109101 -0.12258913 -0.011711536
-0.0049264994 -0.07864902 -0.01927373 0.11596241 -0.04650165 0.008430767 -0.10184979 0.04758192
0.09687168 -0.10805609 0.0016138012 0.018198451 -0.054839056 -0.09118119 -0.0056421175 0.03840354
0.097230345 0.014615498 0.05390853 -0.054140806 -0.052782774 -0.11343802 0.13279502 0.03827242
-0.06314915 0.012824072 0.055176016 0.035627354 0.08089349 0.06747341 -0.10187941 0.030768173
-0.12336599 -0.11270315 -0.07101306 0.004674288 0.0024006926 0.037898656 -0.021168763 0.033296097

weight f4 [80]
00000000: 2e34 803f 57ee 7c3f 74de 803f c488 713f
00000010: a6f5 833f f654 7b3f 1499 853f 9a20 833f
00000020: c97a 833f fd6c 863f be3c 833f 8d0e 803f
00000030: 0cb6 7f3f bf4f 783f 2e54 823f 0453 793f
00000040: b14f 7c3f 2c93 813f 5387 813f 3899 7a3f
00000050: d353 753f 6f2d 803f a587 803f 520a 803f
00000060: 7361 843f 0ac9 873f 928f 7c3f 152c 7c3f
00000070: 9f81 793f 5392 793f db24 813f ee26 873f
00000080: bdd1 873f 37b5 813f 6bff 833f 8046 823f
00000090: 65b4 7d3f 0d95 773f d439 813f 3bd7 7a3f
000000a0: 0d0b 883f 7766 8a3f f6bf 7d3f ef37 7b3f
000000b0: 1ae7 823f 8547 883f f4c0 833f 6b0d 843f
000000c0: 26f8 7c3f ebde 813f a92d 813f 82be 7b3f
000000d0: 0c8a 7d3f a368 843f e704 813f 75a1 773f
000000e0: cc06 823f 839f 833f 2008 7a3f a195 803f
000000f0: 1388 7b3f f4d2 823f 81c3 803f fdda 813f
00000100: fa16 803f f2b0 7c3f 444b 7d3f b1d8 743f
00000110: 6efc 763f 7bb1 783f 2b80 7d3f 9eef 7e3f
00000120: 5e13 7d3f 8cb5 7a3f 78cc 7b3f dc87 723f
00000130: ab5f 823f d599 7b3f 6a0c 833f a594 863f
1.0015924 0.9880118 1.0067887 0.9434931 1.0309341 0.98176515 1.0437341 1.0244324
1.0271846 1.050201 1.0252912 1.000444 0.99887156 0.9699668 1.018194 0.97392297
0.985591 1.0123038 1.0119423 0.97890043 0.9583103 1.0013865 1.0041395 1.000315
1.0342239 1.0608227 0.9865657 0.98504764 0.9746341 0.974889 1.0089372 1.0558755
1.0610882 1.0133427 1.0312322 1.0177765 0.99103385 0.9671181 1.0095773 0.97984666
1.0628372 1.081252 0.99121034 0.9813222 1.0226777 1.0646826 1.029326 1.0316595
0.98816144 1.0146154 1.0092059 0.98337567 0.9903877 1.0344433 1.0079621 0.9673074
1.0158324 1.0283054 0.9766865 1.0045663 0.9825451 1.0220628 1.0059663 1.0144955
1.0007012 0.987075 0.9894297 0.95643145 0.9647893 0.97145814 0.99023694 0.99584377
0.98857677 0.9793327 0.9835887 0.94738555 1.0185446 0.98281604 1.0238163 1.0514113

bias f4 [80]
00000000: 8158 0f3b c2cb a9bc 0595 ef3a 5e6c 24bd
00000010: 25d2 f63b 15f0 05bd e295 3a3d 1c09 5a3c
00000020: e87b cd3c d3fd 8a3c 6e4e a83c bd14 a93b
00000030: ba9b 22bc f6db f2bc 8f7b c23b 1341 4dbd
00000040: 0e37 46bc 5256 d73c 674c 483c c3f6 04bd
00000050: 8a80 21bd 765e 17bc b2d1 5f3b ce73 54bc
00000060: dc01 0b3d 588d 873d 8f84 a6bc 9c87 7cbc
00000070: e855 d3bc 779c 00bd 81a7 083c 24d1 f53c
00000080: 0913 2e3d 03f8 fe3b 5aad 473c 57db 6a3c
00000090: d5ed 6cbc 0f7a 86bc 69b8 9ebc 3a60 87bc
000000a0: 64e2 193d acd8 823d cdac 34bc 440d 0bbd
000000b0: 88c7 d43c 507b 723d c54a d93c 49cb 673c
000000c0: 8fcc 62bc 279d d43b a260 d83b cdda 2e3b
000000d0: 6027 cebc 492a 47bb c5a6 43bc 428f 31bd
000000e0: 7d2f 193c 77d0 db3c 9d33 c8bb 9b89 10bb
000000f0: 8e28 a1bc e0f7 7e3c 1e7f 3c3b b250 943c
00000100: a05f 0abb ca9f dbbc bdd8 82bc 9421 49bd
00000110: c506 14bd b864 9bbc c2d5 9dbc faa8 a9bc
00000120: 4955 7dba aace dabb 789f 06bd fbba 58bd
00000130: e9d0 a93c 1d94 85bc 9829 753b 47b8 da3c
0.002187282 -0.020727042 0.0018278664 -0.04014241 0.0075323754 -0.032699663 0.045553096 0.013307836
0.025083497 0.016966736 0.02054521 0.005159943 -0.009924823 -0.029645901 0.0059351395 -0.050110888
-0.012098087 0.026286278 0.012225247 -0.032461893 -0.039429225 -0.00923883 0.0034152088 -0.012967063
0.03393732 0.06618756 -0.02032688 -0.015413191 -0.0257978 -0.031399217 0.008340717 0.030006953
0.042498622 0.00778103 0.012187326 0.014334521 -0.014461 -0.016415624 -0.019375043 -0.016525377
0.03756942 0.06388983 -0.011027527 -0.033948198 0.02597405 0.05919963 0.02652491 0.014147588
-0.013842716 0.0064884606 0.0066033164 0.0026680708 -0.02516526 -0.0030390194 -0.011941616 -0.043349512
0.009349701 0.026832802 -0.0061096684 -0.0022054676 -0.019672658 0.015562028 0.0028762291 0.018104885
-0.0021114126 -0.026809592 -0.01597249 -0.04910429 -0.03613927 -0.018968925 -0.019266967 -0.020710457
-0.00096638926 -0.0066774683 -0.032866925 -0.052912693 0.020729499 -0.016305977 0.0037408825 0.026699198

running_mean f4 [80]
00000000: 8a08 96bf a0ea 853f db5a 1c3e b733 983f
00000010: 6835 01c0 31c8 943e 98cd 97bf 2907 cd3f
00000020: 63e1 d5bf dbba a93f 0e5a 59bf fdd3 303f
00000030: 914a 09c0 759d d0be 1f8e 8fbe 40ec 0f40
00000040: 6b3d cfbd 9b0b 54bf 76ac b8bf efad 153f
00000050: a231 1140 fd39 303f 1224 19c0 0846 1e40
00000060: c207 9cbf 54cb 50bf 83fc a9bf b18e 913e
00000070: 855a c63f ed69 5bbf ce7d 33bf dd87 6bbf
00000080: 2c62 d0bf be71 bd3f babd 1ebf c70e b6bf
00000090: aef8 9cbf 8658 13bf 8d20 74bf a0ba 06be
000000a0: 527f 9cbe 0f4c 81bf 49cd 963f cc6a acbe
000000b0: 5584 a33f 0c2d d4be ed44 a0bf a062 af3f
000000c0: 8f3d e9bd 0f90 69bf 3e9c 4bbf 8c25 4cbf
000000d0: db90 0a40 13e9 7f3f 5ff9 92bf 5a98 e53f
000000e0: 5771 b8bf 8780 8dbf 9421 a03f 0053 f9bc
000000f0: 41f5 acbf 6dda b8be 3fa0 aebf 2042 bc3f
00000100: ae7f 77bf f6dd a63e 6d61 c83f d0fd 6c3e
00000110: e760 8c3f e78f c53f 5523 be3f 6f64 04c0
00000120: d81d 29be 2db7 39bf 3d7e f93f 2c74 0f3f
00000130: 9670 d43e b364 d8bc 1e02 0dbf 7426 a93f
-1.1721356 1.0462227 0.15269034 1.1890782 -2.0188847 0.29058984 -1.1859617 1.601781
-1.6709408 1.3260149 -0.8490304 0.6907347 -2.1451762 -0.4074513 -0.28038117 2.2487946
-0.101191364 -0.8283021 -1.4427631 0.58468527 2.2686543 0.68838483 -2.3928266 2.4730244
-1.2189867 -0.81560254 -1.3280185 0.28429177 1.5496374 -0.85708505 -0.7011384 -0.92004186
-1.627996 1.4800336 -0.6200825 -1.422326 -1.2263391 -0.5755695 -0.9536217 -0.1315713
-0.30565888 -1.0101336 1.1781398 -0.3367523 1.277476 -0.41440618 -1.2521034 1.3701973
-0.113886945 -0.9123544 -0.7953528 -0.7974479 2.1650913 0.9996502 -1.1482352 1.7937119
-1.4409589 -1.1054848 1.2510247 -0.030435085 -1.3512346 -0.36104146 -1.3642653 1.470768
-0.966792 0.32591218 1.5654732 0.23143697 1.0967072 1.543454 1.4854532 -2.06863
-0.1651529 -0.7254513 1.949165 0.5603664 0.41492146 -0.026415205 -0.55081356 1.321486

running_var f4 [80]
00000000: 495f b040 e868 0740 783d 3840 3a10 8540
00000010: e2d5 6e40 b205 a03f f5d6 3b40 40f0 0340
00000020: 0fda 0d40 eda2 1940 bb6d 3640 57df 2a40
00000030: 5c41 3a40 412a 2b40 83fd 0440 b674 df3f
00000040: 7f99 2d40 26b1 a340 f06e b640 ba64 8d3f
00000050: 0cbd c340 9bbb cb3f c27c 8540 3895 3240
00000060: 4846 5640 de0d 0d40 0ac5 4a40 2440 0140
00000070: 4350 1640 f3c5 f43f b6ae c640 5cf2 3d40
00000080: fbd7 6740 cfb7 b83f 347f 1140 6294 1840
00000090: 958f 2040 1aff 6e40 59e3 1740 0e35 0e40
000000a0: 9d01 ec3f 00c2 8d40 7f2e 823f 8faf fe3f
000000b0: 8f97 6440 ff39 1440 e740 6d40 4ecf 2440
000000c0: d4d0 4640 c025 0d40 0c34 1640 ef52 1f40
000000d0: 7af7 2640 0dca 0740 6555 3940 5e78 973f
000000e0: 71b4 4440 6835 ff3f 4528 8740 8337 863f
000000f0: bf0c 8640 b8fb 8a40 67a0 bd40 8d7f a43f
00000100: b056 3240 a6af 633f 8da2 ef3f d043 ba3f
00000110: 0232 ff3f c2ce d53f 6a94 d33f b3eb 8240
00000120: 4f75 2840 6e82 e740 d7a7 0440 9e2b e33f
00000130: f67e e23f 4842 be3f 6665 1040 b14f bb3f
5.5116315 2.115778 2.8787518 4.158231 3.7318044 1.2501738 2.934995 2.0615387
2.2164342 2.4005692 2.8504474 2.6698816 2.9102392 2.674454 2.0779731 1.7457492
2.7124937 5.1153746 5.701042 1.1046364 6.116827 1.5916628 4.171479 2.7903576
3.3480396 2.2039714 3.1682763 2.0195398 2.3486488 1.9122909 6.208827 2.9679174
3.6225574 1.4431094 2.2733889 2.3840566 2.5087636 3.7343202 2.3732512 2.2219882
1.8437992 4.4299316 1.017044 1.9897326 3.5717504 2.3160398 3.7070863 2.5751529
3.1064959 2.205429 2.3469267 2.4894369 2.6088548 2.1217072 2.895837 1.1833608
3.0735133 1.9938173 4.2236657 1.0485691 4.189056 4.3432274 5.9258304 1.2851425
2.786541 0.88939893 1.8721482 1.4551945 1.9937136 1.6703722 1.6529667 4.091272
2.63216 7.2346716 2.0727441 1.7747686 1.7694995 1.4863977 2.2561889 1.4633695

weight f4 [80, 80]
00000000: 56a3 73bd 9ef9 ed3d 12de 3ebc 948a 813d
00000010: 3be0 973d 1e0a debd fb0f 31bd b4dd b4bc
00000020: c13d d3bd 573d ca3d 1517 5a3c 5562 113d
00000030: ba8e e3bc e43b 883c 574a bfbd 1ecb 82bd
00000040: edd6 9dbb c40c 763a f6f0 d6bc e9d5 8a39
00000050: 6d6c a4bd a759 a8bd d06f 593d a108 f63c
00000060: 0dd9 ca3c df08 cabd 577c 22bd ae4d 98bd
00000070: 21eb a33c 80ea 333c 1b82 ebbb 57c6 9c3d
00000080: 644a 19bc 6576 de3d afee 45bd 996d bbbd
00000090: 7eee 7cbd c740 b73d 2bc1 71bc 509c a93c
000000a0: 0f3e d3bd 17a4 dfbd 80cc a83d 4239 9c3d
000000b0: 1585 e53b a268 703d a9e5 16bd 8d51 27bd
000000c0: 2b90 debd fe66 a13d 0e32 aebd e592 403d
000000d0: 6119 f93b 44a1 0abd c625 58bd f481 893d
000000e0: fc80 90bd 67eb 55bd 0eb5 cb3c e1be d53c
000000f0: f5e1 10bd e5cf a43d d4db b1bd 47b3 02bd
00000100: d258 f5bc 446f 423d 8693 71bd 4f1d 78bd
00000110: 5a83 d03d 376f 2ebd ebf5 e03c 2b60 ddbd
00000120: 8f88 44bd e31c d43d a7af 58bd deba 32bc
00000130: d569 da3d 83db 49bd a0c4 0bbd 876f 5f3d
00000140: 3615 adbd e342 8dbc 8530 353d ea1e 8d3d
00000150: e5b3 1e3d 196d a83d 44e2 6ebc a4e3 103d
00000160: e7fa 7f3d 2530 0fbb 189c a2bc e2f7 283d
00000170: 6d28 c33c 8112 5b3d 6fee efbc 90e9 0dbc
00000180: 40a8 38bd e460 5b3c 2f1c e63c a9fe f83b
00000190: fde8 6cbc 65e9 753d 2f61 0cbe d871 afbd
000001a0: bdf2 933c fe6f 9dbd caac dabd addf 883c
000001b0: 154b 983b ea18 ddbd f6e2 19bc 519d 95bd
000001c0: 9023 c9bc 72ff 4d3d d3aa 82bd 5475 3d3d
000001d0: 5545 9abd 6ed5 b33d f081 273d 975f 823d
000001e0: 59e9 c7bd 1a4a 62bb 842b e53d 8a9c febd
000001f0: 03e3 8bbc 8883 7abd b648 9dbd 8357 be3d
00000200: 6799 b9bc a17b 23bd c572 8ebd e798 85bd
00000210: 8725 163e 5763 733b 8f48 dcbd e83e 83bc
00000220: ada5 1f3d 4f3c c0bd edc9 fb3c 0f3c b6bd
00000230: 14ed 11bc 8ef0 ff3b 2fd9 ff3c fd6a 1a3d
00000240: 913f 1b3d ec3b adbd ec86 cbbd ad6e d6bc
00000250: 4bbd f0bd 1b77 a1bd b768 06bc 30e9 a73b
00000260: e0f9 a63d 8529 6ebd e8d3 f13c 048f c1bc
00000270: 8c12 b43b d6f7 4bbd 03ea 5ebd 71a0 683d
00000280: b98f 273d dbe5 74bd 335a 213d bf08 ae3b
00000290: 355a 2c3d b693 6cbd 31bb be3d 2901 20bd
000002a0: 2445 663c 9607 cdbd f6f5 8fbd d2da 013d
000002b0: b9d0 813d 3de0 6dbd 07e6 933d 0011 483b
000002c0: 502d 7dbd 016e ef3d 6193 cabc 45d3 90bc
000002d0: 979c a1bd b95c 283a 21e6 ab3d 94d2 39bd
000002e0: cbf2 b93d 08b0 d63d 49b9 733d 1096 903d
000002f0: 1176 a6bd acbf 25bd 0083 843d 81ff 6ebd
00000300: 3119 41bd 5433 c5bd 8878 5e3d 1ce4 a33d
00000310: ee6b 203d baee 4abd 4bb7 b33d 23a9 b73d
00000320: 9d21 14bd bb55 643b 384d b13d 991d 29bc
00000330: 6e49 41bd 7969 9e3c 41c7 ef3d 59e7 ddbd
00000340: e026 8bbd 54e3 023d 7cf0 e83b 1009 653d
00000350: 2fd2 95bd 26e9 40bd c1be 7abd 893e 873c
00000360: 70a0 403d ae0b 703d 0c2e 5f3d c7d3 30bd
00000370: 83b1 593d be92 e13d 5049 8e3d 865a 60bd
00000380: c0c3 83ba 6b2a 913c f176 1f3b f700 9ebd
00000390: e5e6 8c3b 31cd d5b9 baff a93d f6b7 5f3d
000003a0: 01ee 53bc 6af1 e73c 6b85 3ebd 4830 c4bd
000003b0: d70a 47bc 4aed 0d3d b956 633d 1106 373d
000003c0: a716 40bd 6483 ca3d e8f6 9ebd 69e2 9dbb
000003d0: f677 fabd 8b50 96bd c6ce 863c b995 8a3d
000003e0: 468d 69bd 4c97 0abc 01e3 91bc 747c a93d
000003f0: 1c9d edbd c9ff 99bd 4c9b 86bd fcaf 5cbd
-0.05948194 0.11619876 -0.011649625 0.0632526 0.074158154 -0.108417735 -0.04322813 -0.022078373
-0.10314513 0.09874981 0.013311167 0.035494167 -0.027778018 0.01663012 -0.09340351 -0.06386398
-0.004816881 0.00093860575 -0.026237946 0.00026480787 -0.08028493 -0.08220225 0.05308515 0.030033411
0.024761701 -0.09864973 -0.03966936 -0.07436691 0.02000958 0.010981202 -0.0071871406 0.07655018
-0.009356115 0.10862426 -0.04832333 -0.091517635 -0.06175088 0.08947902 -0.0147555275 0.020704418
-0.10314571 -0.109199695 0.0824213 0.076281086 0.00700439 0.058693536 -0.036840115 -0.040849257
-0.108673416 0.07880972 -0.08505641 0.04701509 0.0076019024 -0.0338452 -0.0527704 0.0671424
-0.07055852 -0.05222645 0.024866607 0.026091995 -0.03537174 0.08047465 -0.08684507 -0.031909253
-0.02994958 0.047469392 -0.05897858 -0.060574826 0.10181303 -0.04258653 0.027461013 -0.10809358
-0.047981795 0.10357072 -0.05290189 -0.01090881 0.10664717 -0.04928161 -0.034123063 0.05454972
-0.08451311 -0.017243808 0.044235725 0.06890662 0.03874578 0.08223934 -0.014580313 0.035373345
0.06249514 -0.0021848765 -0.019849822 0.041252024 0.023822987 0.053484444 -0.029288499 -0.008661643
-0.04508233 0.0133898 0.02808961 0.007598717 -0.014459846 0.060037035 -0.13708948 -0.08566636
0.018060083 -0.076873764 -0.10677488 0.01670822 0.0046476224 -0.107957676 -0.009392491 -0.07305396
-0.02455309 0.05029244 -0.063802384 0.04625447 -0.07532755 0.08780943 0.040895402 0.063658886
-0.097613044 -0.0034529031 0.111899406 -0.12432201 -0.017076021 -0.061160594 -0.07679884 0.09294035
-0.022656156 -0.039912824 -0.06955484 -0.065233044 0.14662753 0.0037138069 -0.10756027 -0.016021207
0.03897636 -0.09386503 0.030735934 -0.08898174 -0.0089066215 0.007810659 0.03123149 0.03769969
0.03790242 -0.08458695 -0.09937844 -0.026175821 -0.11754855 -0.07884046 -0.008203677 0.0051242337
0.081531286 -0.058145065 0.02951999 -0.023627765 0.005495375 -0.0497969 -0.05442239 0.056793634
0.04090855 -0.05978952 0.03939266 0.005311101 0.042078216 -0.057758056 0.09313048 -0.039063606
0.01405457 -0.100112125 -0.07029335 0.031702824 0.06338639 -0.05807518 0.072216086 0.003052771
-0.06181079 0.116909035 -0.024728479 -0.017678866 -0.07891195 0.0006422508 0.08393503 -0.04536684
0.09079512 0.10482794 0.059502874 0.07059872 -0.08127988 -0.040465996 0.06470299 -0.058349136
-0.047143165 -0.09628931 0.054314166 0.08002493 0.03916543 -0.049544074 0.08775195 0.08967807
-0.03616487 0.0034841138 0.086573064 -0.010321998 -0.04718917 0.019337403 0.117079265 -0.10835142
-0.06794524 0.03195508 0.007108746 0.055916846 -0.0731548 -0.047097348 -0.061217073 0.016509311
0.047028005 0.05860489 0.054487273 -0.043170717 0.053147804 0.11014317 0.06947577 -0.05477383
-0.0010052845 0.017720422 0.002433237 -0.07715028 0.0042999857 -0.00040779405 0.08300729 0.0546188
-0.0129351625 0.028313357 -0.046513956 -0.095795214 -0.0121485805 0.034650125 0.055502627 0.04468352
-0.046896603 0.09888342 -0.077619374 -0.00481825 -0.12229912 -0.07339581 0.01645602 0.067668386
-0.057019494 -0.008458924 -0.01780844 0.08275691 -0.11602232 -0.0751949 -0.06572589 -0.05387877

bias f4 [80]
00000000: 5ec7 97bc e16a bb3c cbc2 c6bd 2698 d3bd
00000010: 2517 303d 3f77 cb3c 10d4 84bd 4d51 be3d
00000020: b248 223d ee0f b43d 203a 1dbc 81c3 583c
00000030: 1be8 8e3b 3879 703d af5a dfbd bbb1 b6bd
00000040: 167c 77bc 2a61 ba3c 84e2 b03d abb3 713d
00000050: 0dff b93d 12f8 89bd d6d7 883d 0aae 5fbc
00000060: 18f3 0abd 1481 d53d 8686 733d b522 04bc
00000070: a976 cb3d c5a4 9c3d 9ae8 f03d 79e4 62bd
00000080: 0a27 013e 647c ec3d 2d3d 6d3d 5d67 7ebd
00000090: fc4c a33d be1e 96bd efd6 303d 2be2 043d
000000a0: ecd2 97bb 83f0 8cbd 179d 223d d803 d53d
000000b0: b64a b13d 6d1c f9bc 8f72 47bd 6dd9 70bd
000000c0: 682c e73d e7c0 443b b6b4 95bd ed05 31bd
000000d0: 8503 83bd 4611 9b3d 8913 ad3d f422 f9bd
000000e0: 686f 3e3d dbb6 273d 845d 863c f465 be3d
000000f0: 30a2 dcbd 860f c03d 755b f7bc 588a c93d
00000100: 04c3 9fbd dd37 4dbd 3bcf c03c 0dcf bfbb
00000110: dcb7 ca3d 7fd9 b6bd 2262 a3bd 4609 c9bd
00000120: 1395 e03c 2d1b 00be f8ea e5bd bb9b aa3c
00000130: 8b83 a1bd 88a5 a4bd c9df a6bd 86bd c739
-0.018527683 0.022878112 -0.097051226 -0.103317544 0.042990822 0.024837134 -0.0648576 0.09292851
0.03962011 0.08792101 -0.009596378 0.0132302055 0.004361165 0.058709353 -0.109059684 -0.08920618
-0.015105268 0.02275141 0.086369544 0.059009235 0.0908185 -0.06736769 0.066817924 -0.013652334
-0.03392324 0.1042501 0.059454463 -0.008064915 0.09934742 0.07648615 0.11763115 -0.05539367
0.12612548 0.11547163 0.05791967 -0.062110294 0.07973668 -0.07330082 0.043173727 0.032442253
-0.004633298 -0.068818115 0.039700594 0.10401124 0.08656828 -0.030409062 -0.048693236 -0.058801103
0.11287767 0.0030022205 -0.073098585 -0.043218542 -0.06397156 0.07571654 0.08450992 -0.1216487
0.046492964 0.04094587 0.016402014 0.0929679 -0.10773122 0.09377961 -0.030194977 0.0984084
-0.07800868 -0.050102104 0.023536315 -0.00585354 0.0989835 -0.08928203 -0.07977702 -0.09816222
0.027414834 -0.12510367 -0.11226457 0.020826211 -0.07886418 -0.08039385 -0.081481524 0.00038097444

weight f4 [80, 80]
00000000: 8b4f 0bbe d974 643d 20a7 eabd 5618 cd3d
00000010: 01d0 663c 8e23 e83d 34df d6bd a0ce f03b
00000020: 5088 0d3d 54b2 97bc 6823 363a c32f 9b3d
00000030: 7421 033d a986 a23d b0e7 323d ba8f 023d
00000040: 77ed f9bd 8117 923c 6582 bd3d a877 85bc
00000050: 2516 213d e427 ec3d 2144 de3d bea1 7b3d
00000060: d97e 4ebd 896e ff39 edb6 d73b 841a 5fbd
00000070: 14fb 5bbd 5f5b 9d3b fa7a 4bbe a277 de3d
00000080: 7142 113c 2eba b9bc ac88 ad3d bda3 b6bc
00000090: 7ef3 6fbd 5d17 773d c239 073e a0c5 313d
000000a0: 260e 5d3d 8a8f 7dbc 08c1 593d afe3 6a3d
000000b0: 7a21 cdbd c91c 21bd 0483 1aba e2ae c63d
000000c0: 556d dcbb 3c23 aabd 567c 95bc 73e1 a83c
000000d0: e89f c3bd a3bb 683d 9382 60bd 1043 f83d
000000e0: f435 80bc 8c69 073d 0c6e c4bb 20fa 553d
000000f0: 4ef8 28bd f7ef e3bd bda1 9abd c711 12bd
00000100: 5050 f4bc e350 5c3d d700 abbd db1d 9dbc
00000110: 979c da3d e045 f03d 05c3 22bd fbf0 67bd
00000120: d3c3 03bd 7e58 7e3c 02df 963b 249b 8dbd
00000130: 426d 1dbd c056 8c3d d628 073d f133 0cbe
00000140: e1db 873c 2a81 6ebd 4623 15bd 53a4 af3d
00000150: 4ea9 48bd 2f24 b5bd 840a 26bd b421 6e3d
00000160: 25e8 773d 2706 843c f592 ab3b eaf2 e1bd
00000170: ab68 97bd 64df b63c 0fad 043e 6246 7abd
00000180: 9dcd f43c 287c 013e 382a c73c aa8d 85bd
00000190: 82c1 c23d d062 febd ec34 8abd a94b 02bd
000001a0: 1e50 253d 67f7 963d 37fb 0ebd 6d22 60bd
000001b0: bb4a a83d 33e8 403d dec7 123e 8dc6 a0bd
000001c0: 4d0a 0c3d f62c c6bd 6313 9f3d 953c aa3d
000001d0: 7767 02ba 777c 4dbd d64d aa3d c2ce f03d
000001e0: 0bd8 9e3c 0c54 ac3c 2170 b9bd 5caa cc3d
000001f0: 0303 c93d 951a 50bd 07b7 97bc 030b e1bd
00000200: 7eeb 5ebd f5d7 043e e8db a7bd 3edd 5f3d
00000210: 7f00 3cbd f4fa 8c3d 60cb b7bd 2408 883d
00000220: d98c 683d fa7e 813d 36c2 14bd c54c df3c
00000230: 1dde 2c3d 2efe 0d3c 53ea b93a fb93 32bd
00000240: e1b7 523d a20d b33d 5929 d23c 06e5 453d
00000250: 5ac1 993d 230e 09be 2e43 133d 163a 0ebd
00000260: 49ad f13d 8364 4bbd 1ae7 e23d e8c0 a2bc
00000270: 4f87 403c 94fb 74bd 7d15 e43d b2ff 71bd
00000280: 91de 90bc 562d 763d fce0 8fbc ae28 a53d
00000290: 7cdb 2c3c 0188 0cbd c67d 1abd 7e7c 053e
000002a0: 5034 84bc 5468 873d 27b9 303d 1d64 c03d
000002b0: c42f 16bd 9dbe 703b a132 d3bc 99ad 663d
000002c0: a317 ca3d 7b0e 0a3d b551 aabd 86e3 bdbc
000002d0: a660 fe3d 69a0 a13d 69d2 b4b9 044d 503b
000002e0: e1b0 4abd 638c 89bc 4adb d23c 1adf 003e
000002f0: e719 f53d 1d66 01bc b141 463d 1462 ad3d
00000300: 223b 423c 8d68 ab3d a8f4 023e 745c 8ebd
00000310: e1d9 05bc 0a67 1e3d 5994 d4bc b08a e7bc
00000320: 8b1d e1bc 442b 883d 3b4e a2bb 9f7a 533d
00000330: 07c6 0d3e 9906 ee3d 0a5d ed3d 4472 23bd
00000340: be50 78bc 3db1 babc 247e 9dbc b509 a1bd
00000350: a618 6c3d 925a 91bd 9dc2 2ebc 53b1 36bd
00000360: 4252 993d ca8c b73d 91da 29bd 34af c5bc
00000370: 09fc c13d ea85 b0bd a888 e53d eaf2 283d
00000380: af6b 08bd 9112 f63d f9c1 a23d fecd 33bd
00000390: 679b ce3d 0b7c 8f3d 2368 973d 1d39 7cbd
000003a0: a9c7 733b 79bd 36bd 33c9 9fbd 625e 623d
000003b0: 2558 c8bd cb32 593c 6638 a03d eb2f 30bc
000003c0: 13df ca3d 35b9 ecbd 250c 3b3d 95f1 d83d
000003d0: daca dd3c 8160 073c 6ae1 9abd 3e54 d43d
000003e0: a568 be3d 4c89 06bd e6ea 9bbc a12b f6bd
000003f0: 2a02 65bd e411 013e 2458 383d 44af 29bd
-0.13604562 0.055775497 -0.11457658 0.10014407 0.014087678 0.113349065 -0.10491791 0.0073488504
0.034553826 -0.01851765 0.0006948025 0.07577469 0.032014325 0.07935841 0.043677986 0.03187535
-0.12203496 0.017833473 0.092533864 -0.016292408 0.03932776 0.11531046 0.10852838 0.061433546
-0.05041394 0.00048719745 0.0065830857 -0.054468647 -0.053706244 0.004802152 -0.1987113 0.10862662
0.0088659385 -0.022671785 0.08473334 -0.022294873 -0.05858182 0.060325015 0.13205627 0.04340136
0.05396857 -0.015476117 0.053162605 0.057346042 -0.10016151 -0.039334092 -0.00058941566 0.09701325
-0.0067269006 -0.08307502 -0.018247765 0.020615315 -0.09551984 0.05681957 -0.054812025 0.12122166
-0.015650727 0.03305964 -0.005994564 0.05224049 -0.041252427 -0.11129754 -0.075503804 -0.035661485
-0.029823452 0.053788077 -0.083497696 -0.019179275 0.106743984 0.117320776 -0.039736766 -0.0566263
-0.032169174 0.015524028 0.0046042213 -0.06914356 -0.038434274 0.06852484 0.03299793 -0.13691689
0.016584339 -0.05822865 -0.036410592 0.08576264 -0.048989587 -0.08844792 -0.040537372 0.05813761
0.060524125 0.016116215 0.0052360245 -0.1103266 -0.07393011 0.022323318 0.12956642 -0.06110228
0.0298832 0.12645018 0.024312124 -0.06521161 0.09509565 -0.12421191 -0.06748375 -0.031810436
0.04035961 0.07371407 -0.034907546 -0.05472033 0.08217379 0.047096442 0.14334056 -0.078503706
0.03418951 -0.09676544 0.077673696 0.08312336 -0.0004974524 -0.050167527 0.08315627 0.11758186
0.019390127 0.02103617 -0.0905459 0.09993431 0.098150276 -0.0508066 -0.018519891 -0.109884284
-0.0544238 0.12973006 -0.08196241 0.054654352 -0.04589891 0.06883803 -0.089743376 0.06642178
0.056774948 0.06323047 -0.036318026 0.027258286 0.04220401 0.008666558 0.0014184214 -0.043598156
0.05144489 0.08742835 0.025654482 0.048314117 0.07507582 -0.13384299 0.03595274 -0.034723364
0.1180063 -0.049656402 0.110792354 -0.019867375 0.01175101 -0.059810236 0.11136911 -0.05908174
-0.017684253 0.06010183 -0.017563336 0.080644 0.010550376 -0.03430939 -0.037717603 0.13035771
-0.016138226 0.06611696 0.043145325 0.09394095 -0.036666647 0.0036734708 -0.025780978 0.0563179
0.098677896 0.033705216 -0.08316366 -0.02317978 0.12420778 0.07891924 -0.00034489043 0.0031784186
-0.04948509 -0.016790574 0.02573933 0.12585106 0.11967831 -0.007897881 0.048402492 0.084659725
0.011854919 0.08369551 0.12788641 -0.06951228 -0.008169622 0.038672484 -0.025949644 -0.028264374
-0.027479907 0.06648877 -0.0049531735 0.051630612 0.13845073 0.11622352 0.115900114 -0.039903894
-0.015155969 -0.022789592 -0.019225188 -0.078631796 0.057640694 -0.07097353 -0.010666517 -0.044602703
0.074863926 0.089624 -0.041468207 -0.024131395 0.094719 -0.08619292 0.11207706 0.041247286
-0.03330582 0.1201526 0.079471536 -0.04389762 0.100882344 0.07006081 0.073929094 -0.061577905
0.0037197864 -0.04461429 -0.078020476 0.05526579 -0.09782437 0.013256739 0.07823257 -0.010753612
0.09905829 -0.11558763 0.04566588 0.10592953 0.027074266 0.008262754 -0.075625256 0.103676304
0.09297303 -0.03284578 -0.019032907 -0.1202004 -0.055910267 0.12604481 0.045005932 -0.041426912
