Graph Neural Network/Models/BasicLayers-T1.pt (torch, 171976 bytes, 22 tensors)

weight f4 [80, 1]
00000000: 3044 593e 90d9 2d3e acdd 403f 90c5 5e3f
00000010: 283d 3b3f f0f3 3e3f 100b 18be 0833 30be
00000020: c0c0 2f3f ea04 7b3f 7407 ecbe c6f8 7b3f
00000030: 1cec 50bf 5cfd 73bf 1cac 20bf d49e 1f3f
00000040: 0e56 2abf 4008 793d 209b 60be 02b7 30bf
00000050: fab4 483f e863 febe a45f c0be 2010 0dbe
00000060: 86bb 2cbf 64c1 183f 64d3 593f 08bc 5dbf
00000070: 7678 293f 64af 61bf 584b 193f 20ce 5b3e
00000080: 0059 f73e 9487 10bf 8cc8 6a3f 46eb 16bf
00000090: 9c6b e83e 54da bc3e 485d c33e de76 523f
000000a0: b008 21be f09f 3f3f b29c 33bf d662 26bf
000000b0: 5ce8 7bbf c08d e3bc 9035 d03e f834 1f3e
000000c0: 1c67 3bbf b067 9fbe f005 9e3d 34d1 c5be
000000d0: 08a3 7abe 80eb 05bd 40dd 603d b659 79bf
000000e0: 94ce a8be b8ba ba3e 38aa ce3e 1042 6fbe
000000f0: 44db aabe 0835 fc3e a0a6 0b3d f438 c2be
00000100: 50e0 72bf 9014 703f 50df 4abf 64b4 c8be
00000110: 609a 4d3e 42ca 35bf 645d f7be 7c01 20bf
00000120: 103c 763e 80b6 09be 00e1 7f3f 80a0 de3d
00000130: 10c6 d03d 0444 d33e def4 38bf cecd 31bf
0.21217418 0.16977525 0.75338244 0.87020206 0.7314019 0.7459097 -0.1484797 -0.17206967
0.6865349 0.98054373 -0.46099436 0.98426473 -0.81610274 -0.9530847 -0.6276262 0.6235173
-0.6653756 0.060798883 -0.21934175 -0.6902925 0.7840115 -0.49685597 -0.37572968 -0.13775682
-0.6747364 0.5967009 0.8508818 -0.8661504 0.66199434 -0.8815825 0.5988059 0.21465349
0.4831009 -0.56456876 0.9171226 -0.5895275 0.453946 0.3688532 0.38157105 0.82212627
-0.1572597 0.7485342 -0.70160973 -0.6499456 -0.9840143 -0.027777553 0.40665865 0.1554755
-0.7320421 -0.31133795 0.07715976 -0.38636172 -0.24476254 -0.032695293 0.0548985 -0.97402513
-0.32970107 0.3647058 0.40364242 -0.23365045 -0.3337041 0.4925921 0.034094453 -0.37934077
-0.94873524 0.93781376 -0.79247 -0.39200127 0.2007842 -0.71011746 -0.4831344 -0.62502265
0.2404635 -0.13448524 0.999527 0.10870457 0.101940274 0.4126283 -0.7224864 -0.6945466

bias f4 [80]
00000000: 20ae 453d a898 603f f0a9 f93e 1c07 7bbf
00000010: 90f0 68be f210 313f 1087 e4bd eaa2 213f
00000020: 94c4 0cbf 342b a33e c87e 7dbe 967e 27bf
00000030: d867 613f c263 633f 087f 5d3e 40e1 2ebe
00000040: 5687 103f f0d5 903e 602e 9f3d c07f ee3e
00000050: 40d1 a0be 0c5c 673f 22b4 3f3f e28a 3fbf
00000060: 8823 ca3e d69b 223f 80e2 11bd 0096 fc3d
00000070: 16a6 53bf e89c 0ebf ecc1 953e a895 4b3e
00000080: 6002 6ebe 7048 923e 70ea 1ebe 5038 25be
00000090: d686 65bf 10c3 fbbe 12d8 4dbf 8c11 763f
000000a0: bef0 0ebf eca3 0fbf 1c8a 12bf d0c9 f2bd
000000b0: ecb7 423f 9842 48bf 9a0f 1ebf 0424 9dbe
000000c0: 9847 91be 308f fe3e 10d1 59bf 061f 363f
000000d0: ca69 5bbf 50db f53e 60fb 513e 68a4 13bf
000000e0: 801b 273c b874 863e 3019 9b3d a0d7 20be
000000f0: 0813 6f3f be32 5ebf 745f 0ebf 6853 05bf
00000100: ca8e 673f 2026 12bf 8e63 6fbf 48b3 0f3f
00000110: a895 48be 1407 67bf 9c10 86be a84a 8fbe
00000120: 90d1 9bbd 4c6b 7a3f b40e b83e 6e96 043f
00000130: 804d eabe d0fe b6be 8863 1abe c0bb 2a3e
0.04826176 0.87732935 0.48762465 -0.98057723 -0.22748017 0.6916648 -0.11158574 0.6313921
-0.54987454 0.318689 -0.24755394 -0.6542753 0.8804908 0.88824093 0.2163049 -0.17078114
0.56456506 0.2828822 0.07772517 0.4658184 -0.31409645 0.9037483 0.74884236 -0.74821293
0.39480233 0.63519037 -0.035616398 0.12333298 -0.826753 -0.5570817 0.29249513 0.19881308
-0.23243093 0.2857089 -0.15519118 -0.16134763 -0.8965887 -0.49172258 -0.8040782 0.96120524
-0.55836093 -0.561095 -0.5724199 -0.11854899 0.7606189 -0.78226614 -0.61742556 -0.3069154
-0.28374934 0.49718618 -0.8508463 0.7114109 -0.85708296 0.48018885 0.20506048 -0.5767274
0.010199428 0.26260924 0.075731635 -0.15707254 0.93388414 -0.86796176 -0.556144 -0.5208039
0.90452254 -0.57089424 -0.93511283 0.56132936 -0.1958834 -0.90245175 -0.26184547 -0.27986646
-0.0760833 0.9781997 0.35948718 0.5179204 -0.45762253 -0.35741282 -0.1507703 0.16673183

weight f4 [80, 1]
00000000: 1a08 233f aad6 31bf 461e 31bf 9e6a 793f
00000010: 7efa 703f 860a 11bf a01d 173f 40f5 abbd
00000020: 5ed9 273f fcbc a6be 406a fb3c 0821 1fbf
00000030: 3e4d 5e3f c033 d73c 0ad8 32bf d040 6ebf
00000040: ca03 35bf 4ac0 0abf 00b3 7bbe 986d 3dbf
00000050: 2010 58bf 90a3 35be b216 2dbf c637 50bf
00000060: a052 21be d00e 07bf 248e 52bf 502f 18be
00000070: 4095 fa3e fc46 8d3e e63e 1f3f c4b2 2ebf
00000080: 1e2b 32bf 12cb 73bf 2431 013f 148e fa3e
00000090: 3430 ebbe 6071 f8be fed8 08bf fcc8 ab3e
000000a0: d673 0e3f 809d cf3d d2dc 6dbf 400a f63c
000000b0: 38b0 e0be ee0d 6e3f 7e12 423f ac76 d13e
000000c0: 6cb7 fabe 666d 72bf 2011 1b3f fc36 87be
000000d0: 80ee 53bd f8e4 6d3f fab1 573f 6474 2bbf
000000e0: a863 323e 34ef 46bf f04b f4bd 7453 a2be
000000f0: a8cf 493e 4873 7fbe 5c45 10bf a0a5 acbd
00000100: 3eaa 65bf 9072 b43d 521a 0cbf 6cc9 6abf
00000110: d80e 2bbf 561f 3cbf b895 d63e fe7a 52bf
00000120: 7c42 59bf d49e 92be 4efd 2c3f c68e 243f
00000130: 6440 c7be aa15 6c3f 500d bbbd 5cb6 ddbe
0.63684237 -0.69468176 -0.6918682 0.9742831 0.9413222 -0.5665668 0.5902958 -0.08396387
0.6556605 -0.3256606 0.030690312 -0.62159777 0.8683661 0.026269794 -0.698609 -0.93067646
-0.70708907 -0.5419966 -0.24580002 -0.7399535 -0.84399605 -0.17738175 -0.67612755 -0.81335104
-0.15754175 -0.5275698 -0.8224814 -0.14861798 0.48941994 0.2759322 0.6220535 -0.68241525
-0.6959704 -0.95231736 0.5046561 0.48936522 -0.45935214 -0.48523998 -0.53456104 0.33551776
0.556455 0.101374626 -0.9291507 0.030034184 -0.43884444 0.92990005 0.75809467 0.40910852
-0.48968065 -0.9469818 0.60573006 -0.26409137 -0.051741123 0.92927504 0.84255946 -0.66974473
0.17420828 -0.77708745 -0.119285464 -0.31704295 0.19708121 -0.2494632 -0.56355834 -0.08430028
-0.89712894 0.088109136 -0.5472766 -0.91713595 -0.66819525 -0.73485315 0.419111 -0.8221892
-0.8486707 -0.286368 0.6757401 0.64280355 -0.38916314 0.92220557 -0.091333985 -0.43303192

weight f4 [80]
00000000: 0000 803f 0000 803f 0000 803f 0000 803f
00000010: 0000 803f 0000 803f 0000 803f 0000 803f
00000020: 0000 803f 0000 803f 0000 803f 0000 803f
00000030: 0000 803f 0000 803f 0000 803f 0000 803f
00000040: 0000 803f 0000 803f 0000 803f 0000 803f
00000050: 0000 803f 0000 803f 0000 803f 0000 803f
00000060: 0000 803f 0000 803f 0000 803f 0000 803f
00000070: 0000 803f 0000 803f 0000 803f 0000 803f
00000080: 0000 803f 0000 803f 0000 803f 0000 803f
00000090: 0000 803f 0000 803f 0000 803f 0000 803f
000000a0: 0000 803f 0000 803f 0000 803f 0000 803f
000000b0: 0000 803f 0000 803f 0000 803f 0000 803f
000000c0: 0000 803f 0000 803f 0000 803f 0000 803f
000000d0: 0000 803f 0000 803f 0000 803f 0000 803f
000000e0: 0000 803f 0000 803f 0000 803f 0000 803f
000000f0: 0000 803f 0000 803f 0000 803f 0000 803f
00000100: 0000 803f 0000 803f 0000 803f 0000 803f
00000110: 0000 803f 0000 803f 0000 803f 0000 803f
00000120: 0000 803f 0000 803f 0000 803f 0000 803f
00000130: 0000 803f 0000 803f 0000 803f 0000 803f
1.0 1.0 1.0 1.0 1.0 1.0 1.0 1.0
1.0 1.0 1.0 1.0 1.0 1.0 1.0 1.0
1.0 1.0 1.0 1.0 1.0 1.0 1.0 1.0
1.0 1.0 1.0 1.0 1.0 1.0 1.0 1.0
1.0 1.0 1.0 1.0 1.0 1.0 1.0 1.0
1.0 1.0 1.0 1.0 1.0 1.0 1.0 1.0
1.0 1.0 1.0 1.0 1.0 1.0 1.0 1.0
1.0 1.0 1.0 1.0 1.0 1.0 1.0 1.0
1.0 1.0 1.0 1.0 1.0 1.0 1.0 1.0
1.0 1.0 1.0 1.0 1.0 1.0 1.0 1.0

bias f4 [80]
00000000: 0000 0000 0000 0000 0000 0000 0000 0000
00000010: 0000 0000 0000 0000 0000 0000 0000 0000
00000020: 0000 0000 0000 0000 0000 0000 0000 0000
00000030: 0000 0000 0000 0000 0000 0000 0000 0000
00000040: 0000 0000 0000 0000 0000 0000 0000 0000
00000050: 0000 0000 0000 0000 0000 0000 0000 0000
00000060: 0000 0000 0000 0000 0000 0000 0000 0000
00000070: 0000 0000 0000 0000 0000 0000 0000 0000
00000080: 0000 0000 0000 0000 0000 0000 0000 0000
00000090: 0000 0000 0000 0000 0000 0000 0000 0000
000000a0: 0000 0000 0000 0000 0000 0000 0000 0000
000000b0: 0000 0000 0000 0000 0000 0000 0000 0000
000000c0: 0000 0000 0000 0000 0000 0000 0000 0000
000000d0: 0000 0000 0000 0000 0000 0000 0000 0000
000000e0: 0000 0000 0000 0000 0000 0000 0000 0000
000000f0: 0000 0000 0000 0000 0000 0000 0000 0000
00000100: 0000 0000 0000 0000 0000 0000 0000 0000
00000110: 0000 0000 0000 0000 0000 0000 0000 0000
00000120: 0000 0000 0000 0000 0000 0000 0000 0000
00000130: 0000 0000 0000 0000 0000 0000 0000 0000
0.0 0.0 0.0 0.0 0.0 0.0 0.0 0.0
0.0 0.0 0.0 0.0 0.0 0.0 0.0 0.0
0.0 0.0 0.0 0.0 0.0 0.0 0.0 0.0
0.0 0.0 0.0 0.0 0.0 0.0 0.0 0.0
0.0 0.0 0.0 0.0 0.0 0.0 0.0 0.0
0.0 0.0 0.0 0.0 0.0 0.0 0.0 0.0
0.0 0.0 0.0 0.0 0.0 0.0 0.0 0.0
0.0 0.0 0.0 0.0 0.0 0.0 0.0 0.0
0.0 0.0 0.0 0.0 0.0 0.0 0.0 0.0
0.0 0.0 0.0 0.0 0.0 0.0 0.0 0.0

running_mean f4 [80]
00000000: 0000 0000 0000 0000 0000 0000 0000 0000
00000010: 0000 0000 0000 0000 0000 0000 0000 0000
00000020: 0000 0000 0000 0000 0000 0000 0000 0000
00000030: 0000 0000 0000 0000 0000 0000 0000 0000
00000040: 0000 0000 0000 0000 0000 0000 0000 0000
00000050: 0000 0000 0000 0000 0000 0000 0000 0000
00000060: 0000 0000 0000 0000 0000 0000 0000 0000
00000070: 0000 0000 0000 0000 0000 0000 0000 0000
00000080: 0000 0000 0000 0000 0000 0000 0000 0000
00000090: 0000 0000 0000 0000 0000 0000 0000 0000
000000a0: 0000 0000 0000 0000 0000 0000 0000 0000
000000b0: 0000 0000 0000 0000 0000 0000 0000 0000
000000c0: 0000 0000 0000 0000 0000 0000 0000 0000
000000d0: 0000 0000 0000 0000 0000 0000 0000 0000
000000e0: 0000 0000 0000 0000 0000 0000 0000 0000
000000f0: 0000 0000 0000 0000 0000 0000 0000 0000
00000100: 0000 0000 0000 0000 0000 0000 0000 0000
00000110: 0000 0000 0000 0000 0000 0000 0000 0000
00000120: 0000 0000 0000 0000 0000 0000 0000 0000
00000130: 0000 0000 0000 0000 0000 0000 0000 0000
0.0 0.0 0.0 0.0 0.0 0.0 0.0 0.0
0.0 0.0 0.0 0.0 0.0 0.0 0.0 0.0
0.0 0.0 0.0 0.0 0.0 0.0 0.0 0.0
0.0 0.0 0.0 0.0 0.0 0.0 0.0 0.0
0.0 0.0 0.0 0.0 0.0 0.0 0.0 0.0
0.0 0.0 0.0 0.0 0.0 0.0 0.0 0.0
0.0 0.0 0.0 0.0 0.0 0.0 0.0 0.0
0.0 0.0 0.0 0.0 0.0 0.0 0.0 0.0
0.0 0.0 0.0 0.0 0.0 0.0 0.0 0.0
0.0 0.0 0.0 0.0 0.0 0.0 0.0 0.0

running_var f4 [80]
00000000: 0000 803f 0000 803f 0000 803f 0000 803f
00000010: 0000 803f 0000 803f 0000 803f 0000 803f
00000020: 0000 803f 0000 803f 0000 803f 0000 803f
00000030: 0000 803f 0000 803f 0000 803f 0000 803f
00000040: 0000 803f 0000 803f 0000 803f 0000 803f
00000050: 0000 803f 0000 803f 0000 803f 0000 803f
00000060: 0000 803f 0000 803f 0000 803f 0000 803f
00000070: 0000 803f 0000 803f 0000 803f 0000 803f
00000080: 0000 803f 0000 803f 0000 803f 0000 803f
00000090: 0000 803f 0000 803f 0000 803f 0000 803f
000000a0: 0000 803f 0000 803f 0000 803f 0000 803f
000000b0: 0000 803f 0000 803f 0000 803f 0000 803f
000000c0: 0000 803f 0000 803f 0000 803f 0000 803f
000000d0: 0000 803f 0000 803f 0000 803f 0000 803f
000000e0: 0000 803f 0000 803f 0000 803f 0000 803f
000000f0: 0000 803f 0000 803f 0000 803f 0000 803f
00000100: 0000 803f 0000 803f 0000 803f 0000 803f
00000110: 0000 803f 0000 803f 0000 803f 0000 803f
00000120: 0000 803f 0000 803f 0000 803f 0000 803f
00000130: 0000 803f 0000 803f 0000 803f 0000 803f
1.0 1.0 1.0 1.0 1.0 1.0 1.0 1.0
1.0 1.0 1.0 1.0 1.0 1.0 1.0 1.0
1.0 1.0 1.0 1.0 1.0 1.0 1.0 1.0
1.0 1.0 1.0 1.0 1.0 1.0 1.0 1.0
1.0 1.0 1.0 1.0 1.0 1.0 1.0 1.0
1.0 1.0 1.0 1.0 1.0 1.0 1.0 1.0
1.0 1.0 1.0 1.0 1.0 1.0 1.0 1.0
1.0 1.0 1.0 1.0 1.0 1.0 1.0 1.0
1.0 1.0 1.0 1.0 1.0 1.0 1.0 1.0
1.0 1.0 1.0 1.0 1.0 1.0 1.0 1.0

weight f4 [80, 80]
00000000: 3851 a63c 303e a23d 707c f1bc 4c2e 2a3d
00000010: 4039 e1bd a65b c63d 405e d93a 3e88 c9bd
00000020: 2b38 56bd 9958 c0bd 36e6 a1bd 3c07 653d
00000030: 5882 cf3d 1efc 95bd e6ef 53bd f1c4 4fbd
00000040: 8075 7a3b ac78 7a3d 2836 81bc f68b dd3d
00000050: 8827 153c a853 4abc b0a0 da3c 4398 d9bd
00000060: 3c3c 7c3d f2ac 7cbd 5c0f dc3d d8db 4c3d
00000070: 2bbb d8bd ccf6 b63d c07b 9ebd 3797 cfbd
00000080: b66b cf3d 00a8 18b8 346c 903d 50c5 823c
00000090: c828 2d3d 65a6 50bd 05b2 b8bd 0e44 c63d
000000a0: c0e0 9bbd 7d8a d9bd d418 d53d a72c bbbd
000000b0: 18f6 cfbc 4413 663d 989c cd3d 0091 a5b9
000000c0: 48b2 323d b0f3 da3c 1ee9 a63d eca6 c93d
000000d0: 4013 a13d 7180 d7bd a010 cfbc c04f 2cbc
000000e0: a045 1c3d 70b8 e8bb 64a9 1a3d c8a2 383c
000000f0: 1487 e0bc ed08 dfbd 1229 89bd 0037 7d3c
00000100: d0e3 6dbd ace2 9ebd 75fe c7bd 273e 9fbd
00000110: 49c5 8ebd 1ac2 c83d 00bc 33bd e8dc dcbc
00000120: ec79 4a3d 4012 c4bb 4ca6 a6bd e84a 793d
00000130: 007a 80bb 6037 503d 4044 cd3b c6aa 85bd
00000140: 628d bcbd 28bc 1b3c 7a58 29bd a40a 9d3d
00000150: 0636 ad3d 6869 31bd 08c6 02bd 986d b8bc
00000160: 6778 dbbd 709f ec3c 24c9 ce3d e661 37bd
00000170: cbbf acbd c027 e7ba f80b ccbc efe7 55bd
00000180: 30bc e5bc 7615 903d 10eb b6bd 6871 463d
00000190: ea52 a4bd 1c9a 493d e04f 113d b85d b8bc
000001a0: ecaf 6a3d 2abf cebd 621b 40bd 5e4d dabd
000001b0: 10d7 d43c 8ae2 88bd 008b 623d 528e a23d
000001c0: 6a8a a33d 14da d5bc b624 aabd feb9 a5bd
000001d0: 0416 b33d d1e5 58bd b0b5 cb3b c889 1a3d
000001e0: a025 93bd aa90 dd3d 12ab 993d a85b 003d
000001f0: 2211 d33d 2086 f0bc 78dc ddbd 60a3 86bd
00000200: b422 fabc 3ace d83d 0659 4fbd 9ba5 55bd
00000210: 584f 87bd fcad 7c3d bd30 acbd 8f7e c1bd
00000220: 3687 8ebd 42de d3bd 94f5 7b3d acce 9a3d
00000230: ee29 9f3d dc78 233d c2a2 20bd a80e e63c
00000240: 603a babd c8b9 2bbd a04a df3b 246a 46bd
00000250: a898 d3bc 9c46 2a3d 448b b1bd 50db 79bd
00000260: d0d8 c7bc 6c8c 643d 52f8 68bd 9478 a3bc
00000270: 3c1c 3c3d 969f c63d 52c2 34bd a07a a73d
00000280: a43d de3d 422f 8f3d 68ec 513d 08cf 56bd
00000290: 70cb c93d 3807 f53c 4adb a2bd 6e34 a33d
000002a0: 5cad 83bd 0e46 c83d 725d 25bd 6aaf 813d
000002b0: a6ce 25bd d819 a63d 9815 91bc bc78 603d
000002c0: cc04 d23d ace0 0e3d e4fa 953d 4c2c be3d
000002d0: 129d cbbd 6844 0fbd 5ccb 05bd e012 53bd
000002e0: 40b4 dfbb e695 35bd a0ef df3d 2073 7e3d
000002f0: ea70 2dbd 1088 a1bb 004c e2ba 40be b1ba
00000300: 6878 9a3c 6409 b53d 187b 633d 680b 5b3d
00000310: e63f 9ebd a01d 2d3c 4cad 9bbc a0e0 be3d
00000320: 8aa8 debd faa9 2cbd 52fa 14bd c01e 643c
00000330: 00c3 5b3b 30da 723d be04 d23d 0819 d0bc
00000340: 10d8 cc3c 023e 9e3d 88f4 403d 98e5 d13d
00000350: 2ca3 4c3d d60f 9f3d 56c0 b13d 3acb cf3d
00000360: cc33 d7bd 91e6 c3bd 2aaa cdbd 9099 1cbc
00000370: 8067 243a da23 ce3d e81a 2fbc a8a6 533d
00000380: d082 113d 382c 14bc cae4 2fbd d09d 7a3d
00000390: b88a 833c 2444 583d c8ab 523c 2457 643d
000003a0: ead1 b03d 9874 213c c94a b5bd 98c3 633d
000003b0: 8046 543a b7a3 78bd 788a 2fbd 9a6e c13d
000003c0: 8c0a a4bd 85e4 e2bd 01f8 9abd 6801 383c
000003d0: d8cc b2bc acfe a53d 2035 40bd af3e 88bd
000003e0: 80ad 05bc 789f e13d 0927 d3bd 22c4 af3d
000003f0: 1cf2 013d d8d6 35bd 25fd b8bd 9888 87bd
0.0203024 0.079220176 -0.029478282 0.04154806 -0.10997248 0.09685449 0.0016583875 -0.09840439
-0.05229966 -0.09391899 -0.079052374 0.055915102 0.10132283 -0.07323478 -0.051742457 -0.050724927
0.0038217008 0.061150238 -0.015772894 0.10817711 0.009103663 -0.012349047 0.02668795 -0.10624745
0.06158088 -0.06168837 0.10745117 0.050014347 -0.105825745 0.089337915 -0.07738447 -0.10136264
0.10127966 -3.6396086e-05 0.07051888 0.015963227 0.04227522 -0.050939936 -0.090183295 0.09680949
-0.07611227 -0.10622118 0.10405126 -0.09139376 -0.025385901 0.056170717 0.100396335 -0.00031579286
0.043627053 0.026727527 0.08149932 0.09846291 0.07865 -0.10522545 -0.025276482 -0.010517061
0.038152337 -0.007102065 0.0377592 0.011269279 -0.02740816 -0.10890374 -0.06697287 0.015455008
-0.058078587 -0.07758078 -0.09765331 -0.077755265 -0.06971223 0.09802647 -0.043880463 -0.026960805
0.04943268 -0.005983621 -0.08137187 0.06086245 -0.0039207935 0.05083406 0.0062642395 -0.06526713
-0.09206654 0.009505309 -0.041344143 0.07668045 0.0845757 -0.043313414 -0.03192714 -0.022513196
-0.10716324 0.02888462 0.10096958 -0.044771098 -0.08435019 -0.0017635748 -0.02490805 -0.052223142
-0.028043836 0.07035343 -0.08931553 0.048447996 -0.08023627 0.049219236 0.035476565 -0.022505626
0.05729668 -0.100950554 -0.046901114 -0.10659288 0.025981456 -0.06683834 0.055308342 0.07937302
0.07985385 -0.026104964 -0.08307783 -0.08092116 0.087444335 -0.052953545 0.006216727 0.037729055
-0.07184911 0.10818608 0.07503332 0.03133741 0.10306002 -0.02936083 -0.10833067 -0.0657413
-0.030534126 0.105862096 -0.05062201 -0.052159887 -0.066069305 0.061689362 -0.084077336 -0.09447967
-0.06959383 -0.10345127 0.0615135 0.07558951 0.07771669 0.039910182 -0.039217718 0.02808316
-0.090931654 -0.04192522 0.006814316 -0.048441067 -0.025829628 0.041571245 -0.08669141 -0.06100017
-0.024395376 0.05579798 -0.05687744 -0.019954957 0.045925364 0.09698407 -0.04413063 0.08177686
0.10851601 0.069914356 0.051250845 -0.052443534 0.09853256 0.029910669 -0.07951982 0.079689845
-0.0642955 0.09778987 -0.04037232 0.06332286 -0.04048028 0.08110398 -0.017710492 0.05480264
0.10254821 0.034882233 0.07323244 0.09285793 -0.09942068 -0.034977347 -0.03266464 -0.051531672
-0.0068269074 -0.044332407 0.10934377 0.06212151 -0.04234401 -0.00492955 -0.0017265081 -0.0013560727
0.018856242 0.08839682 0.055537313 0.053477675 -0.077270314 0.010566145 -0.019003533 0.093201876
-0.1087199 -0.04215429 -0.036371537 0.013923347 0.0033532977 0.05929011 0.10254811 -0.02540256
0.02500537 0.07726671 0.047108203 0.1024887 0.0499603 0.07766692 0.08679263 0.10146184
-0.10507926 -0.095654614 -0.10042222 -0.0095580965 0.0006271526 0.10065432 -0.010687567 0.051672608
0.035525143 -0.009043746 -0.0429428 0.061185658 0.016057357 0.05279936 0.012858339 0.055747166
0.08633788 0.009854458 -0.08852155 0.055606455 0.00080976635 -0.060703006 -0.042856663 0.09444924
-0.08009824 -0.11078743 -0.07566834 0.011230804 -0.021826193 0.081052154 -0.046925664 -0.06652581
-0.008159041 0.110167444 -0.1031018 0.08582331 0.031725034 -0.044394344 -0.090326585 -0.0661785

bias f4 [80]
00000000: 1d27 7bbd 589c c23c 3f3a c8bd 2c63 5a3d
00000010: 6044 d9bb daca 89bd e063 bcbb 9c2e 80bd
00000020: 300e a43d 1666 9f3d e8ea 8ebd 42a7 c03d
00000030: 0875 a7bc b498 013d c00e 803c be6c d93d
00000040: 069e d7bd 98fd a93d 92a0 8e3d 448d 993d
00000050: c6d0 2dbd 387d c93d f686 3dbd dc0f 80bc
00000060: 68ad b03d 005a 8c3c 4846 bebc 3023 9c3b
00000070: 6076 11bb 30ef 213d 8056 a03b c4aa 6dbd
00000080: 8812 a03d 005e acbb d05e 97bb d5f5 c6bd
00000090: 00df c6bb de29 b9bd e81d c13d 0c0b 0dbd
000000a0: 0872 cabd 0093 333c b5d2 75bd bcf8 83bd
000000b0: 9058 973d 7806 a43c 6ef8 19bd 8084 db3d
000000c0: 38c1 633d afcd cebd 5e5d e33d 80d1 e6ba
000000d0: f82a d23c f805 da3c 6a42 d93d c6ef 72bd
000000e0: 7098 ae3d 58a5 d93d 309e dcbc 34dd 933d
000000f0: dac8 1ebd a0e6 573c fc06 3d3d 00f9 6c3d
00000100: f60c d93d 629a c8bd 443e debc 30bf d43c
00000110: 5bad 8cbd 541e cbbc f01c 163c 3445 c5bc
00000120: d0b1 23bd cccd b9bd 448e e3bd e874 843d
00000130: 1b00 b0bd 4a70 16bd 0049 053d 5a49 acbd
-0.0613166 0.023756191 -0.097767346 0.053317234 -0.0066304654 -0.06728144 -0.0057492107 -0.0625889
0.080105186 0.07783143 -0.069783986 0.09406902 -0.020441547 0.03163977 0.015632033 0.10616444
-0.105281875 0.08300322 0.0696422 0.074976474 -0.04243543 0.09838337 -0.046271287 -0.015632562
0.086268246 0.01713276 -0.023226872 0.004764937 -0.00221958 0.039534748 0.004893124 -0.058024183
0.078160346 -0.005260229 -0.004619457 -0.097148575 -0.006069064 -0.09041189 0.09429532 -0.034434363
-0.09885031 0.0109603405 -0.0600154 -0.06443927 0.07389939 0.020022616 -0.037590437 0.10718632
0.05560419 -0.10097825 0.11101793 -0.0017610043 0.025655255 0.026614174 0.106083706 -0.059310697
0.08525169 0.1062724 -0.026930898 0.072199255 -0.038765766 0.013177544 0.04614924 0.057854652
0.10598175 -0.09795071 -0.0271293 0.025970072 -0.068690024 -0.024794735 0.009162173 -0.02408085
-0.039964497 -0.09072456 -0.111111194 0.064676106 -0.0859377 -0.03672818 0.03254032 -0.08412428

weight f4 [80, 80]
00000000: 80a3 ad3c ea90 8d3d 93ed d2bd e401 b93d
00000010: f052 333c a6b0 873d 186a 573d 136a acbd
00000020: 462e 09bd 680f 233c 00e2 d0b9 2060 5b3d
00000030: cf8f 92bd c8c2 813c a81c 25bd 5671 d53d
00000040: 7c58 873d 80e6 b93c 98ae 263d 5295 b23d
00000050: 918f c8bd 8070 443a fcc7 503d dc6e d9bc
00000060: f60e d9bd f8fb c03d b075 043c 6833 9c3d
00000070: c201 8dbd 3033 653c 20eb 503d 645a 0c3d
00000080: f6aa dabd dd51 adbd 90a0 c33c 245a 713d
00000090: 56ea 3cbd 2abe d83d 3012 b73b 48fe bfbc
000000a0: 149e 793d 8e87 b3bd 906a 893d 807a 06bb
000000b0: e956 a6bd f0fb 7f3c 3231 aa3d 4cb9 ba3d
000000c0: 0e81 29bd 5951 7abd 208a 593c 5844 053d
000000d0: 8024 f5bc 4432 99bd 38a8 bebd 6a0d e13d
000000e0: 54cb 153d 8004 6b3b 4885 be3c 047b 903d
000000f0: 7c88 343d a0bf a83c 0e02 babd a0b7 79bc
00000100: 74f1 1c3d d224 833d 40bf 3c3d a2a3 ae3d
00000110: f682 26bd 6056 03bb 2835 713d 9eca a73d
00000120: f62a a93d 3cc7 ac3d a275 0bbd 3849 bebc
00000130: 1827 a03c 54f9 cf3d 96f8 853d 600e 4c3b
00000140: 7042 ef3c a40d 31bd 5c0f 163d 8034 23bb
00000150: 38bd c33c 14ac 673d 9efa 08bd 000b b7ba
00000160: d8a1 fd3c e51b bbbd 48c8 81bd 78d0 83bd
00000170: cc79 223d d482 30bd 18fa 893d 5080 adbd
00000180: 5590 debd b057 c53c 5cdf 453d 0cc0 44bd
00000190: 5470 3d3d 18a4 1bbc c0b6 5d3b 3c34 a1bd
000001a0: 151f 57bd 7376 86bd 73e1 aebd 1a69 b93d
000001b0: 9031 97bb d0af aabd 2a93 09bd 8c95 99bd
000001c0: 5065 2d3d 80bf 523d 8006 823a 3813 29bd
000001d0: 3ac6 b03d 54b8 13bd 9053 8d3d 8e80 4cbd
000001e0: 6a70 5bbd d0e8 6abc 6aee 9dbd a6ca cabd
000001f0: 88e5 bfbd daed 06bd 3c0c b7bc 144d 4c3d
00000200: 80fa a8ba a207 c63d 1abd bebd 265e cb3d
00000210: 4c2a 2c3d d27a d93d 6895 6d3d 8001 7ebb
00000220: a4aa cfbd e835 913c c472 a9bd f269 cc3d
00000230: 7a0c d5bd 34eb 5b3d aaa0 c7bd 28fd 3bbd
00000240: 509f 22bd b82d 953d 343e 593d 28ec de3d
00000250: 64ed 5c3d 2e6b 18bd 20c5 85bc 80b7 d23c
00000260: bc30 863d de73 b9bd 483b ab3c 28d7 d03d
00000270: e8b2 0c3d b21e 8bbd 78f9 a8bc 30ef 8fbb
00000280: 7e38 823d b0d9 bf3d f0b1 f23c 16ea 8e3d
00000290: c792 8ebd b00d e93c 553e 7dbd b89d 043d
000002a0: 70e3 1a3d f0a3 e33b 70d1 553d 77ab 4ebd
000002b0: 048d b6bd d80d 43bc d8b5 103d e2a8 d5bd
000002c0: 4ef9 01bd 6457 023d 4022 803a ba46 81bd
000002d0: d000 a83c 2e27 873d 00a3 743c d4e2 aa3d
000002e0: ead4 94bd c3d8 b9bd 20c7 d23c 43aa 85bd
000002f0: 3c36 9fbc d359 c9bd 38fb dcbd f0b7 023c
00000300: 20ea 8bbb b09f 87bd 3430 ccbc 6627 b53d
00000310: b8d5 853c 1268 2cbd 72af d73d dc6c 06bd
00000320: 504c 7b3d 00f4 5b3b 2c59 753d 4046 cf3d
00000330: 9a25 8fbd e022 203d f018 9abb 7989 d8bd
00000340: f80b 56bc 08c3 a3bc f851 d3bc ce56 b1bd
00000350: acc0 87bd 29db c1bd ce6c 9a3d 5ec8 0cbd
00000360: f808 fb3c 78b6 0f3c 0a60 48bd 008f 14bd
00000370: 14f4 c0bc 404f 933c 685a a23d 60a7 58bb
00000380: 98f7 473c 93bc b9bd dc1e 7e3d d343 e3bd
00000390: 00e0 0c38 986a 22bd e889 b7bc 2847 26bd
000003a0: 5e5c a43d bbd6 b2bd 7820 003d 4889 dc3d
000003b0: 906c b1bd 88de 9b3d 3044 a43b c0e6 603b
000003c0: 36a4 47bd d2bf e33d 3abd 8f3d 5c11 063d
000003d0: 2261 e4bd d419 603d e2b7 cabd fc07 723d
000003e0: a841 e23c 90ec 4c3d f27b 8fbd 240c 913d
000003f0: 9859 18bd 280d 4d3d 2cab 453d 10d5 223d
0.021196127 0.06912406 -0.1029922 0.09033564 0.010945067 0.0662549 0.052591413 -0.084186696
-0.033491395 0.009952404 -0.00039841235 0.05355847 -0.071563356 0.01583995 -0.04031053 0.10422008
0.06608674 0.022692919 0.04069385 0.08719887 -0.09793008 0.00074935704 0.05097197 -0.02654212
-0.10598557 0.09423059 0.0080846995 0.076269925 -0.06885101 0.013989255 0.051005483 0.03426589
-0.106771395 -0.0846288 0.023880273 0.058923855 -0.046121918 0.10583146 0.005586885 -0.02343668
0.06094177 -0.087660894 0.06709778 -0.0020519793 -0.081220455 0.015624031 0.083101645 0.09117374
-0.04138284 -0.061112735 0.0132775605 0.03253588 -0.029924631 -0.074802905 -0.09309429 0.10988887
0.036570862 0.0035860837 0.023256913 0.07054713 0.044075474 0.020599186 -0.09082423 -0.0152415335
0.038316205 0.06403507 0.046080828 0.08527304 -0.040652238 -0.0020040497 0.058888584 0.08192943
0.08260147 0.084364384 -0.03404773 -0.023228273 0.019549891 0.101549774 0.06541555 0.0031136498
0.029206485 -0.0432259 0.03663574 -0.0024903119 0.023893937 0.05656059 -0.033442132 -0.001396507
0.030960962 -0.0913618 -0.06337029 -0.06436247 0.039666936 -0.043093517 0.06737155 -0.08471739
-0.10867373 0.024089664 0.048308715 -0.048034713 0.046249703 -0.009499572 0.0033830851 -0.07871291
-0.052519877 -0.06565561 -0.08539095 0.0905325 -0.0046140626 -0.08334315 -0.033587612 -0.07499227
0.042332947 0.05145216 0.000992015 -0.041278094 0.08631559 -0.03606446 0.06900704 -0.049927287
-0.053574003 -0.014337733 -0.077114895 -0.09901933 -0.093699515 -0.032941677 -0.022344701 0.049878195
-0.0012892038 0.096694246 -0.09313412 0.09930067 0.042032525 0.10619129 0.058003813 -0.0038758218
-0.10139969 0.0177259 -0.08273843 0.09981145 -0.1040277 0.053691104 -0.09747441 -0.045895725
-0.039702713 0.07284111 0.053037837 0.10884887 0.05393733 -0.03721159 -0.016329348 0.025722265
0.06552264 -0.09055303 0.020902291 0.10197288 0.034350306 -0.06792964 -0.020626768 -0.004392527
0.06358431 0.093676925 0.029625863 0.06978242 -0.06961589 0.02844891 -0.061827023 0.032376975
0.037814558 0.006947033 0.05220169 -0.05045649 -0.08913615 -0.011905156 0.03532967 -0.104326025
-0.031731896 0.031821623 0.0009775832 -0.06312318 0.0205082 0.0659927 0.01493144 0.08344045
-0.07267173 -0.09074547 0.025729716 -0.065266155 -0.01943504 -0.09831586 -0.10790104 0.007978424
-0.0042698532 -0.06622255 -0.024925329 0.08845405 0.01633726 -0.042091437 0.105315104 -0.03281866
0.061352074 0.0033562183 0.059899494 0.10120821 -0.06989594 0.03909576 -0.00470268 -0.10573096
-0.013064377 -0.01999046 -0.025795922 -0.08659135 -0.06628546 -0.094656296 0.07540284 -0.034370773
0.030643925 0.008771531 -0.048919715 -0.036269188 -0.023553886 0.017982125 0.079274 -0.0033058748
0.012205027 -0.09069171 0.06204115 -0.11096921 3.3587217e-05 -0.039652437 -0.022404626 -0.040595204
0.0802543 -0.08732363 0.031280965 0.10768372 -0.08663285 0.07610804 0.0050130114 0.0034317225
-0.048740588 0.11120571 0.07018514 0.0327314 -0.11151339 0.05471213 -0.09898354 0.059089646
0.027619198 0.05003029 -0.070060626 0.07082394 -0.03719482 0.050061375 0.048258945 0.039753973

weight f4 [80]
00000000: 0000 803f 0000 803f 0000 803f 0000 803f
00000010: 0000 803f 0000 803f 0000 803f 0000 803f
00000020: 0000 803f 0000 803f 0000 803f 0000 803f
00000030: 0000 803f 0000 803f 0000 803f 0000 803f
00000040: 0000 803f 0000 803f 0000 803f 0000 803f
00000050: 0000 803f 0000 803f 0000 803f 0000 803f
00000060: 0000 803f 0000 803f 0000 803f 0000 803f
00000070: 0000 803f 0000 803f 0000 803f 0000 803f
00000080: 0000 803f 0000 803f 0000 803f 0000 803f
00000090: 0000 803f 0000 803f 0000 803f 0000 803f
000000a0: 0000 803f 0000 803f 0000 803f 0000 803f
000000b0: 0000 803f 0000 803f 0000 803f 0000 803f
000000c0: 0000 803f 0000 803f 0000 803f 0000 803f
000000d0: 0000 803f 0000 803f 0000 803f 0000 803f
000000e0: 0000 803f 0000 803f 0000 803f 0000 803f
000000f0: 0000 803f 0000 803f 0000 803f 0000 803f
00000100: 0000 803f 0000 803f 0000 803f 0000 803f
00000110: 0000 803f 0000 803f 0000 803f 0000 803f
00000120: 0000 803f 0000 803f 0000 803f 0000 803f
00000130: 0000 803f 0000 803f 0000 803f 0000 803f
1.0 1.0 1.0 1.0 1.0 1.0 1.0 1.0
1.0 1.0 1.0 1.0 1.0 1.0 1.0 1.0
1.0 1.0 1.0 1.0 1.0 1.0 1.0 1.0
1.0 1.0 1.0 1.0 1.0 1.0 1.0 1.0
1.0 1.0 1.0 1.0 1.0 1.0 1.0 1.0
1.0 1.0 1.0 1.0 1.0 1.0 1.0 1.0
1.0 1.0 1.0 1.0 1.0 1.0 1.0 1.0
1.0 1.0 1.0 1.0 1.0 1.0 1.0 1.0
1.0 1.0 1.0 1.0 1.0 1.0 1.0 1.0
1.0 1.0 1.0 1.0 1.0 1.0 1.0 1.0

bias f4 [80]
00000000: 0000 0000 0000 0000 0000 0000 0000 0000
00000010: 0000 0000 0000 0000 0000 0000 0000 0000
00000020: 0000 0000 0000 0000 0000 0000 0000 0000
00000030: 0000 0000 0000 0000 0000 0000 0000 0000
00000040: 0000 0000 0000 0000 0000 0000 0000 0000
00000050: 0000 0000 0000 0000 0000 0000 0000 0000
00000060: 0000 0000 0000 0000 0000 0000 0000 0000
00000070: 0000 0000 0000 0000 0000 0000 0000 0000
00000080: 0000 0000 0000 0000 0000 0000 0000 0000
00000090: 0000 0000 0000 0000 0000 0000 0000 0000
000000a0: 0000 0000 0000 0000 0000 0000 0000 0000
000000b0: 0000 0000 0000 0000 0000 0000 0000 0000
000000c0: 0000 0000 0000 0000 0000 0000 0000 0000
000000d0: 0000 0000 0000 0000 0000 0000 0000 0000
000000e0: 0000 0000 0000 0000 0000 0000 0000 0000
000000f0: 0000 0000 0000 0000 0000 0000 0000 0000
00000100: 0000 0000 0000 0000 0000 0000 0000 0000
00000110: 0000 0000 0000 0000 0000 0000 0000 0000
00000120: 0000 0000 0000 0000 0000 0000 0000 0000
00000130: 0000 0000 0000 0000 0000 0000 0000 0000
0.0 0.0 0.0 0.0 0.0 0.0 0.0 0.0
0.0 0.0 0.0 0.0 0.0 0.0 0.0 0.0
0.0 0.0 0.0 0.0 0.0 0.0 0.0 0.0
0.0 0.0 0.0 0.0 0.0 0.0 0.0 0.0
0.0 0.0 0.0 0.0 0.0 0.0 0.0 0.0
0.0 0.0 0.0 0.0 0.0 0.0 0.0 0.0
0.0 0.0 0.0 0.0 0.0 0.0 0.0 0.0
0.0 0.0 0.0 0.0 0.0 0.0 0.0 0.0
0.0 0.0 0.0 0.0 0.0 0.0 0.0 0.0
0.0 0.0 0.0 0.0 0.0 0.0 0.0 0.0

running_mean f4 [80]
00000000: 0000 0000 0000 0000 0000 0000 0000 0000
00000010: 0000 0000 0000 0000 0000 0000 0000 0000
00000020: 0000 0000 0000 0000 0000 0000 0000 0000
00000030: 0000 0000 0000 0000 0000 0000 0000 0000
00000040: 0000 0000 0000 0000 0000 0000 0000 0000
00000050: 0000 0000 0000 0000 0000 0000 0000 0000
00000060: 0000 0000 0000 0000 0000 0000 0000 0000
00000070: 0000 0000 0000 0000 0000 0000 0000 0000
00000080: 0000 0000 0000 0000 0000 0000 0000 0000
00000090: 0000 0000 0000 0000 0000 0000 0000 0000
000000a0: 0000 0000 0000 0000 0000 0000 0000 0000
000000b0: 0000 0000 0000 0000 0000 0000 0000 0000
000000c0: 0000 0000 0000 0000 0000 0000 0000 0000
000000d0: 0000 0000 0000 0000 0000 0000 0000 0000
000000e0: 0000 0000 0000 0000 0000 0000 0000 0000
000000f0: 0000 0000 0000 0000 0000 0000 0000 0000
00000100: 0000 0000 0000 0000 0000 0000 0000 0000
00000110: 0000 0000 0000 0000 0000 0000 0000 0000
00000120: 0000 0000 0000 0000 0000 0000 0000 0000
00000130: 0000 0000 0000 0000 0000 0000 0000 0000
0.0 0.0 0.0 0.0 0.0 0.0 0.0 0.0
0.0 0.0 0.0 0.0 0.0 0.0 0.0 0.0
0.0 0.0 0.0 0.0 0.0 0.0 0.0 0.0
0.0 0.0 0.0 0.0 0.0 0.0 0.0 0.0
0.0 0.0 0.0 0.0 0.0 0.0 0.0 0.0
0.0 0.0 0.0 0.0 0.0 0.0 0.0 0.0
0.0 0.0 0.0 0.0 0.0 0.0 0.0 0.0
0.0 0.0 0.0 0.0 0.0 0.0 0.0 0.0
0.0 0.0 0.0 0.0 0.0 0.0 0.0 0.0
0.0 0.0 0.0 0.0 0.0 0.0 0.0 0.0

running_var f4 [80]
00000000: 0000 803f 0000 803f 0000 803f 0000 803f
00000010: 0000 803f 0000 803f 0000 803f 0000 803f
00000020: 0000 803f 0000 803f 0000 803f 0000 803f
00000030: 0000 803f 0000 803f 0000 803f 0000 803f
00000040: 0000 803f 0000 803f 0000 803f 0000 803f
00000050: 0000 803f 0000 803f 0000 803f 0000 803f
00000060: 0000 803f 0000 803f 0000 803f 0000 803f
00000070: 0000 803f 0000 803f 0000 803f 0000 803f
00000080: 0000 803f 0000 803f 0000 803f 0000 803f
00000090: 0000 803f 0000 803f 0000 803f 0000 803f
000000a0: 0000 803f 0000 803f 0000 803f 0000 803f
000000b0: 0000 803f 0000 803f 0000 803f 0000 803f
000000c0: 0000 803f 0000 803f 0000 803f 0000 803f
000000d0: 0000 803f 0000 803f 0000 803f 0000 803f
000000e0: 0000 803f 0000 803f 0000 803f 0000 803f
000000f0: 0000 803f 0000 803f 0000 803f 0000 803f
00000100: 0000 803f 0000 803f 0000 803f 0000 803f
00000110: 0000 803f 0000 803f 0000 803f 0000 803f
00000120: 0000 803f 0000 803f 0000 803f 0000 803f
00000130: 0000 803f 0000 803f 0000 803f 0000 803f
1.0 1.0 1.0 1.0 1.0 1.0 1.0 1.0
1.0 1.0 1.0 1.0 1.0 1.0 1.0 1.0
1.0 1.0 1.0 1.0 1.0 1.0 1.0 1.0
1.0 1.0 1.0 1.0 1.0 1.0 1.0 1.0
1.0 1.0 1.0 1.0 1.0 1.0 1.0 1.0
1.0 1.0 1.0 1.0 1.0 1.0 1.0 1.0
1.0 1.0 1.0 1.0 1.0 1.0 1.0 1.0
1.0 1.0 1.0 1.0 1.0 1.0 1.0 1.0
1.0 1.0 1.0 1.0 1.0 1.0 1.0 1.0
1.0 1.0 1.0 1.0 1.0 1.0 1.0 1.0

weight f4 [80, 80]
00000000: 70c0 ba3d 006c aa39 4e6e 8f3d d8e3 983c
00000010: 0821 d53d 70b7 9c3d 4c84 293d 9545 54bd
00000020: 8a8c 03bd e06c 5bbc 48b7 da3c 606d a73d
00000030: c032 9aba a0bc 033d 1065 9d3c b5c6 70bd
00000040: c862 9dbc b4fc 253d f2fd 3cbd 5c6e 25bd
00000050: e005 f63b ece1 0f3d 703e 1e3c 8261 e13d
00000060: d6ce 48bd 4144 ddbd 188f 7c3d 18ce 7a3d
00000070: a0a6 bcbd 0c06 6abd 9e0b 9ebd 96d1 4cbd
00000080: 0cb4 75bd acbe 963d d85b afbd b6b8 cf3d
00000090: f04e 9e3c c976 d3bd 8ade bbbd d01c a13d
000000a0: 7408 c43d 24ff 643d 38cf 9b3c b09b d93d
000000b0: 4426 0e3d 22ae 09bd c8e3 c63c b4db 05bd
000000c0: 4ec0 21bd 282d bfbc aaa4 dd3d 1c92 f9bc
000000d0: 40be 1cbb 6607 0cbd 8081 bb3c 9af2 19bd
000000e0: ac21 d2bd a4c1 b4bc 08d4 9a3d 5447 80bd
000000f0: de15 33bd 2087 6e3c 8afc 843d c9b6 cebd
00000100: 90f6 b4bd 6490 aabd 14aa 5b3d 5893 8c3d
00000110: d08a 283d 8877 1abd 406c 7e3d d69d 863d
00000120: f4a9 9ebc 604c 553c 47e7 7cbd 78ca cfbc
00000130: 10e9 3ebd 969f a03d 6052 e4bd 9c40 b63d
00000140: 109f 693c 6005 43bc 4081 7ebc e471 123d
00000150: 700d f83c 77bd b4bd f082 80bb 50b0 d3bc
00000160: 9d80 54bd 6e01 c5bd dcf9 953d 70fc b3bc
00000170: ebac a5bd 40f9 383d 10ba a63d 9cf2 613d
00000180: 4722 dfbd 2e22 833d c029 e83a b497 1e3d
00000190: 605c d13d 253f c1bd 0e38 d53d 50b9 bd3b
000001a0: a94c d8bd 2cc1 5c3d e4d7 973d 46b2 86bd
000001b0: 42a5 d5bd aa71 1bbd dcbd 94bd 3c90 a93d
000001c0: 300a 86bd f4b0 d8bd 4894 e43c 4ebb babd
000001d0: e846 d03c 68c1 143c bec3 d7bd 0600 863d
000001e0: cc9f 67bd 80b7 9c3a e02b 21bc 08b9 103c
000001f0: 78fa 04bd fab2 d03d b92c 7dbd b0d6 83bd
00000200: 0bc1 6cbd e4fc 1a3d 007e 6b3c acf7 613d
00000210: 42d5 52bd 60d5 9cbd f9f1 c8bd 3c6a c6bc
00000220: 5e42 a43d 6050 84bd 3447 e1bd e028 313d
00000230: ea9f 69bd b0ef 54bc 1e9b 40bd 2417 bbbd
00000240: 3ea3 a3bd 4c92 213d d2e7 e43d 68d5 933c
00000250: 5e86 25bd a4f3 193d f0e9 c3bc e861 b6bc
00000260: 8800 123d aceb 88bc bccc a83d 7a8e 19bd
00000270: 0850 ddbd f8d5 663d 00c5 6dbc 40fa 8dbc
00000280: 7a0c 0fbd 106a 8d3c c8be ca3c b88a abbc
00000290: ce9c 39bd 88ed 403c e177 d8bd e693 893d
000002a0: 628a 87bd 44a2 dfbd 3020 873c 488c 25bd
000002b0: 4960 96bd fd8c 5fbd 806c a6bd a31c dbbd
000002c0: c0dd d93a 14e8 c6bc 04be 41bd 71d6 c5bd
000002d0: d0e7 67bc aa55 d93d a893 d03c c461 86bd
000002e0: 03d7 b8bd a465 92bc 8c0e 91bc 3876 63bc
000002f0: 3284 c03d daec ab3d 28f9 9d3d 38af b83d
00000300: a09a acbd 1ca2 ab3d e8ad 63bd 0474 c9bd
00000310: 48c8 fbbc 5488 153d 3caa d13d 0e2e 8f3d
00000320: 407b 433d 4e02 3dbd 8c83 bb3d 7491 753d
00000330: 1384 85bd c434 c03d 725e b33d 9482 40bd
00000340: 96d3 b2bd 087d df3c 44a4 623d 20a4 63bb
00000350: c241 e4bd 74ed 46bd c15a bdbd d28e bdbd
00000360: a7fc 8cbd 60b9 d33d 006e 48bd 7012 fdbc
00000370: 3c48 533d de6b 31bd 9af6 de3d 10de aa3c
00000380: 08e5 a13d 64cb 183d 74c7 b2bc aca5 fabc
00000390: 48fd 3f3c 84ab 163d f9dd 74bd f804 ba3c
000003a0: 28c3 a23c 786a b53d daa3 bf3d ac20 713d
000003b0: b4c0 4cbd 1098 b0bb e436 b13d 70cf 6e3d
000003c0: 2a3b 3abd 0b14 e3bd c8b5 36bc 7032 753d
000003d0: 007a 6dbb ac6a 37bd c11d dabd ce26 35bd
000003e0: 5050 553d a15a cebd f9af 71bd 5a80 893d
000003f0: d0c9 ae3c 0a76 20bd dcb9 de3d a553 87bd
0.09118736 0.00032505393 0.07003461 0.018663332 0.10406691 0.076521754 0.041385934 -0.05182417
-0.03211645 -0.013392657 0.026698723 0.081751585 -0.0011764392 0.03216231 0.01921323 -0.05878325
-0.019212142 0.0405242 -0.04614062 -0.04038845 0.0075080246 0.035127565 0.009658441 0.11004926
-0.04902538 -0.10804034 0.061659902 0.061231703 -0.09211469 -0.057134673 -0.077170596 -0.050004564
-0.05998616 0.073605865 -0.0856244 0.10142653 0.01932475 -0.10325391 -0.09173305 0.07866824
0.09571925 0.055907384 0.019019708 0.10625398 0.03470446 -0.03361333 0.024278536 -0.03268023
-0.039490037 -0.023336962 0.10822423 -0.030465178 -0.0023917109 -0.034186743 0.022888899 -0.03758488
-0.10260329 -0.022064991 0.07559973 -0.06263605 -0.043722026 0.0145585835 0.064934805 -0.10093457
-0.088360906 -0.083283216 0.053628996 0.06864041 0.041148007 -0.03771165 0.062114954 0.065730736
-0.01936815 0.0130186975 -0.061744 -0.0253651 -0.046608984 0.078429386 -0.11148524 0.08899042
0.014259115 -0.011903137 -0.015533745 0.035753146 0.030279845 -0.088252 -0.003921859 -0.025840908
-0.051880468 -0.09619413 0.073230475 -0.021970958 -0.08089622 0.04515958 0.08140957 0.05516301
-0.1089521 0.06403004 0.0017712638 0.038718894 0.10222697 -0.09435872 0.10411082 0.0057899132
-0.10561497 0.05389516 0.07414225 -0.06576972 -0.10431911 -0.037950195 -0.07262775 0.08279464
-0.06544912 -0.10580626 0.027902737 -0.09117757 0.025424436 0.009079315 -0.10535382 0.06542973
-0.05654888 0.0011956543 -0.009837121 0.008833177 -0.032465428 0.10190387 -0.06181023 -0.06437433
-0.057801288 0.03783883 0.014373302 0.05516784 -0.05147291 -0.076578856 -0.098117776 -0.024220578
0.08020471 -0.06460643 -0.10999909 0.043251872 -0.05703727 -0.012996599 -0.04702293 -0.09135273
-0.0799012 0.03944616 0.11177029 0.018046096 -0.040411346 0.03758587 -0.023915261 -0.022263482
0.035645038 -0.01671394 0.08242175 -0.037489392 -0.108062804 0.0563564 -0.0145123005 -0.017331243
-0.034924008 0.017262489 0.024749175 -0.02094017 -0.045315556 0.011775382 -0.1056974 0.067176625
-0.06618191 -0.109196216 0.01649484 -0.040416986 -0.07342584 -0.054577816 -0.081261635 -0.106988214
0.0016621873 -0.024280585 -0.047300354 -0.09660042 -0.0141543895 0.10612042 0.025461033 -0.06561616
-0.09025385 -0.017870732 -0.017707132 -0.013883166 0.09400214 0.08394785 0.077135384 0.09017795
-0.0842793 0.08380529 -0.05558577 -0.09836581 -0.03073515 0.036506966 0.10237548 0.06991206
0.047724962 -0.046144776 0.0915595 0.059953168 -0.06519332 0.09385064 0.087582484 -0.04699953
-0.08731763 0.0272813 0.055332437 -0.0034735277 -0.11145355 -0.048566297 -0.092458256 -0.092557564
-0.06884127 0.10338092 -0.04893303 -0.03089258 0.05158256 -0.04331576 0.10886879 0.02085784
0.07905012 0.037303343 -0.021823622 -0.030596577 0.011718102 0.036784664 -0.059782002 0.022707447
0.019868448 0.08858198 0.09357424 0.05886905 -0.049988464 -0.005389221 0.08653048 0.058303297
-0.04546658 -0.11087807 -0.011151738 0.059862554 -0.0036236048 -0.044779465 -0.10650206 -0.04422646
0.052078545 -0.1007588 -0.05900571 0.06713934 0.021336466 -0.03917507 0.108752936 -0.06607751

bias f4 [80]
00000000: ecec 1e3d 38d1 bfbc 0b5a d6bd e00d 56bc
00000010: ec69 acbd 24e2 9c3d 97cd bdbd 30ba 5a3c
00000020: 1577 72bd 767f 8b3d e00d d8bd 8038 aaba
00000030: 7097 b8bc b8f6 d83d dcb1 85bd f0b7 a83c
00000040: 8c95 b33d 5ca1 813d b874 d23d c8ba b43c
00000050: b06a f23c 3270 da3d 48ae 1a3d e390 57bd
00000060: 34df 1e3d 4675 ba3d e87c 4d3d 2199 86bd
00000070: a8c9 92bc bd90 c7bd b0c2 fdbc 42b6 b03d
00000080: b0ea 8d3d 6062 75bc a066 f33b e05c 6b3d
00000090: 50b4 a13d 3c80 823d 6c9f 6a3d 701e 8e3d
000000a0: f0cf 093d 25e8 81bd 546a 213d 1ec8 d1bd
000000b0: 2d0b aabd 6070 5a3c 0878 333d c832 b1bd
000000c0: 2ecd a83d 4c52 84bd e79a e4bd c007 d23c
000000d0: 02fc a5bd e0dd d3bd e803 b6bc 4c4f 3c3d
000000e0: 4a71 9b3d 3059 a33c e0fd a3bc dea7 c8bd
000000f0: 8210 ad3d f88b 223d c04a 99bd 2d77 9dbd
00000100: 4d6b 63bd 6625 29bd d089 87bd e05d 6bbc
00000110: 502a bdbb 094c a1bd 50e2 8abd 641d e03d
00000120: f81a db3d c8b0 4abc 18df 953c 6116 50bd
00000130: 4283 aa3d d4a4 393d 0084 ca3c 562f a4bd
0.038800165 -0.023415193 -0.10466393 -0.0130648315 -0.084186405 0.076603204 -0.09267729 0.013350055
-0.059195597 0.068114206 -0.105495214 -0.0012986809 -0.022533149 0.10593933 -0.065280646 0.02059552
0.08768758 0.06329605 0.102761686 0.02206172 0.029591888 0.10665931 0.037763864 -0.05262841
0.03878708 0.091043994 0.050167948 -0.06572176 -0.017918423 -0.097444035 -0.030976623 0.08628513
0.06929529 -0.014977068 0.0074280053 0.05746162 0.0789572 0.06372115 0.057280943 0.06939399
0.03364557 -0.06343106 0.039408043 -0.102432474 -0.08302913 0.013332456 0.043815643 -0.08652264
0.0824226 -0.064610094 -0.11162358 0.025638461 -0.08104707 -0.10345054 -0.02221866 0.04597406
0.075899675 0.019939989 -0.020018518 -0.09797643 0.08450414 0.039684266 -0.074849606 -0.076887466
-0.055522252 -0.04129543 -0.066180825 -0.014365643 -0.0057728663 -0.07875831 -0.06781447 0.10943106
0.10698503 -0.0123712495 0.018294856 -0.050802592 0.08325817 0.045323208 0.024721146 -0.08016841

weight f4 [80, 80]
00000000: ec7c e43d 9aef 8d3d 44bd 6f3d 1041 d33d
00000010: f03a aa3c 580e bd3d 8129 a7bd a6b1 b83d
00000020: ce6f c83d d158 6ebd 84c8 333d de46 b03d
00000030: a813 063c b0ee b03c f846 8abc 51ff c3bd
00000040: 1488 6d3d 4e96 bfbd 903a e7bb 4839 ea3c
00000050: 7edd 3ebd c84d bc3c b85e 8f3c e8c8 9f3d
00000060: 2a75 af3d 71cd 58bd 648e b4bd f8b5 be3d
00000070: 66dd b8bd 407f 90bd cc65 c6bc 0253 a83d
00000080: 6840 1a3d 865b 913d c891 483d 7eed b7bd
00000090: 6afa dfbd 7118 56bd a87a 14bd d6f1 85bd
000000a0: b26a 973d f220 933d 2cf1 b83d cc49 adbd
000000b0: b02d b93d 49a0 4fbd 8094 363d 1610 95bd
000000c0: 30fc e8bb fe93 ad3d d852 f23c 5003 2c3d
000000d0: b47c 3e3d b02f de3d a4a9 8cbd 14ac 393d
000000e0: c8cf ed3c ea1b 0cbd 2ca5 8e3d 085a ca3c
000000f0: 6a7e c3bd dcdc 163d 5e0b d2bd 8160 6fbd
00000100: 6ceb cc3d 9805 783d 54f1 523d 7a4f 9d3d
00000110: 0058 9d3c 0832 853c 7e41 30bd 60d0 bbbd
00000120: c442 643d 44ab dbbc 17e8 82bd 0eea 8f3d
00000130: d098 bd3d ecdc 623d 50c0 663d dc11 c43d
00000140: 60b9 e33d 74d5 fdbc 062f e23d 6823 da3c
00000150: f8a5 a43c e093 a63d 14fd 9fbc 8801 14bd
00000160: 6a0e 8f3d 6820 84bd 80f6 98bd 1032 c63b
00000170: 1498 8e3d 929a a13d c24d a63d 4082 18bc
00000180: 1c8f 963d d07c 693c bc61 3c3d de17 c5bd
00000190: a0be 8bbb c0a9 343b 406b 1f3c e650 9f3d
000001a0: 261f 923d 2e56 d83d 68e1 f33c ac77 b3bd
000001b0: c8ad 4cbd 00e5 c2bc 5686 d23d 2cba aebd
000001c0: 106c 7fbd cdb5 dfbd 1880 173c c4c6 a43d
000001d0: 4c6f adbd e01a d5bd 6c4b 313d 34b5 a2bd
000001e0: 705a b7bb 2278 b43d 2e87 b6bd 3a00 b53d
000001f0: 880d abbd 68d4 c9bc c4b1 abbd 0e77 7cbd
00000200: 3c21 7a3d c413 b83d e46c ad3d 5c35 9abd
00000210: 925a 2ebd 5455 113d b2c7 cbbd f80a f03c
00000220: e8ab 0d3c 201b 2e3d c016 2c3d 1c75 943d
00000230: a09f 613b 1670 6fbd e2ba bb3d 90cd febb
00000240: 7cad c1bc ced5 8c3d 4865 bfbd 0466 aebd
00000250: 78c1 b7bd 1033 123d c555 b8bd b513 cbbd
00000260: a2a7 c23d 4aaa c5bd 5093 743d 387a 0abc
00000270: f079 91bd 4844 cd3d 385e 9e3d bcba 323d
00000280: 5ade 88bd ec75 d1bc 1095 fd3c 7015 0cbc
00000290: 6422 80bd ec7e babd c2cc a1bd dc2f ebbc
000002a0: 161e 973d dec9 a03d b6f8 943d 2886 7e3d
000002b0: 7891 593d dcb2 8abc 6027 dc3d 284d 853c
000002c0: 0f9e 54bd 98ee d83c 1054 c53d 30a9 22bc
000002d0: d8db 553c fc6e b6bc c04f 06bc 2a2e e13d
000002e0: c0f0 8d3d 345d 903d 748a 543d a6dd af3d
000002f0: c025 f63a 6853 c93c c8a3 d23c ccab 15bd
00000300: 0093 483d 94c4 5a3d 3263 e23d 60c2 cdbd
00000310: d8e3 bebc 000a 153b bc09 cf3d 18c7 693d
00000320: 5072 e73c 1831 adbc cc22 0e3d cc61 653d
00000330: 6843 8abd caa5 db3d 8845 353d 8457 c73d
00000340: 58c7 86bc c81b d5bc be7b 98bd b0d6 d43c
00000350: 72fc d93d 9d41 65bd 6ea2 78bd cd3e a2bd
00000360: 583b b23c ae51 9a3d 244f 47bd 9775 6dbd
00000370: 6039 473b 2652 9b3d 0c1b 963d 6da1 b9bd
00000380: 0e58 a1bd e00d fbbb 8ec0 9cbd d8bb dfbc
00000390: 9429 d6bd 3086 bb3d 9909 6bbd ae28 a13d
000003a0: 4e24 b93d 400a cbbd e045 283b fca8 81bd
000003b0: 6074 90bc c01a bd3b 78cd 013c 44ee 363d
000003c0: fcf7 30bd b87a 66bd c083 773c 241c d2bc
000003d0: 0cfa d8bd 182e 043c 5866 353d 80b0 d3ba
000003e0: 7aa0 92bd a4b5 463d fa53 3ebd 4c9f d63d
000003f0: c083 703d ee33 98bd c0aa b43c 54a0 8abd
0.111566395 0.06930466 0.058530107 0.10315144 0.020780057 0.092312515 -0.08162213 0.09018259
0.0978695 -0.05819017 0.0438924 0.08607267 0.008183397 0.02159819 -0.016879544 -0.09570182
0.057991102 -0.0935484 -0.0070565417 0.028591767 -0.04659795 0.022986308 0.01750122 0.07801992
0.08567269 -0.0529303 -0.08816221 0.093120515 -0.090266034 -0.07055521 -0.024218462 0.082189575
0.03765908 0.07097535 0.048967153 -0.08980845 -0.109364346 -0.052269403 -0.036249787 -0.06540267
0.073933974 0.07184018 0.09030375 -0.08461341 0.09041917 -0.05068997 0.044575214 -0.07278459
-0.007110141 0.08475493 0.029580519 0.041995347 0.046505645 0.108489394 -0.06868294 0.045330122
0.029029742 -0.03420631 0.06965098 0.024701133 -0.09545596 0.03683172 -0.10256074 -0.058441643
0.10005841 0.06055221 0.05149968 0.076811746 0.019207 0.016259208 -0.04303121 -0.09170604
0.055727735 -0.026815064 -0.06391924 0.07027064 0.09257662 0.05538647 0.056335747 0.09573719
0.11119342 -0.030985571 0.11044125 0.026628211 0.020098671 0.08133674 -0.019529857 -0.036134273
0.06985171 -0.064514935 -0.07468891 0.0060484484 0.069626 0.0789081 0.081203 -0.009308398
0.07351515 0.014250949 0.045991644 -0.09623693 -0.0042646676 0.0027567 0.00973016 0.07779102
0.07134847 0.105633125 0.029770568 -0.0876306 -0.04997042 -0.023790836 0.10279529 -0.08531603
-0.062358916 -0.109233476 0.0092468485 0.08045724 -0.08468494 -0.104055166 0.04328482 -0.07944718
-0.005595498 0.08811976 -0.08912502 0.08837934 -0.0835219 -0.024637416 -0.083835155 -0.061636977
0.06106685 0.08988145 0.08468035 -0.07529709 -0.042566843 0.035481766 -0.09950198 0.029302105
0.008646943 0.042506337 0.042013884 0.07248899 0.003442742 -0.058456503 0.091665044 -0.00777597
-0.023642294 0.068767175 -0.0934549 -0.08515552 -0.08972448 0.03569323 -0.09000734 -0.09915868
0.0950463 -0.09651621 0.0597108 -0.008451991 -0.07103336 0.10022789 0.077328146 0.043635115
-0.06683035 -0.025568925 0.030954868 -0.008550033 -0.062565595 -0.0910624 -0.079003826 -0.028709345
0.07378785 0.07851003 0.07274 0.06213966 0.053117245 -0.01693099 0.10749698 0.016272143
-0.05190855 0.026480958 0.09635174 -0.009928033 0.013052903 -0.022269718 -0.008197725 0.10995133
0.06930685 0.07049027 0.05188985 0.08587198 0.0018779561 0.024575904 0.025712863 -0.03654079
0.048968315 0.053410128 0.11054076 -0.1004684 -0.023302004 0.0022741556 0.101092786 0.057074636
0.02825275 -0.021141574 0.034701154 0.05600147 -0.06751138 0.10724981 0.044255763 0.09733489
-0.016452476 -0.026014224 -0.07445477 0.025981277 0.10643853 -0.055970777 -0.06070178 -0.079221345
0.021756813 0.075351104 -0.04865946 -0.05797347 0.0030399188 0.07584028 0.073293775 -0.09063993
-0.07878123 -0.007661566 -0.076539144 -0.02731125 -0.10457149 0.091564536 -0.0573822 0.07869087
0.09040128 -0.099140644 0.0025676414 -0.06331059 -0.017633617 0.005771011 0.007922523 0.04466082
-0.043205246 -0.056269377 0.015107095 -0.025648184 -0.10594568 0.00806763 0.044287056 -0.0016150624
-0.07159515 0.04851307 -0.046466805 0.10479602 0.058719397 -0.0743178 0.022054076 -0.067688614

weight f4 [80]
00000000: 0000 803f 0000 803f 0000 803f 0000 803f
00000010: 0000 803f 0000 803f 0000 803f 0000 803f
00000020: 0000 803f 0000 803f 0000 803f 0000 803f
00000030: 0000 803f 0000 803f 0000 803f 0000 803f
00000040: 0000 803f 0000 803f 0000 803f 0000 803f
00000050: 0000 803f 0000 803f 0000 803f 0000 803f
00000060: 0000 803f 0000 803f 0000 803f 0000 803f
00000070: 0000 803f 0000 803f 0000 803f 0000 803f
00000080: 0000 803f 0000 803f 0000 803f 0000 803f
00000090: 0000 803f 0000 803f 0000 803f 0000 803f
000000a0: 0000 803f 0000 803f 0000 803f 0000 803f
000000b0: 0000 803f 0000 803f 0000 803f 0000 803f
000000c0: 0000 803f 0000 803f 0000 803f 0000 803f
000000d0: 0000 803f 0000 803f 0000 803f 0000 803f
000000e0: 0000 803f 0000 803f 0000 803f 0000 803f
000000f0: 0000 803f 0000 803f 0000 803f 0000 803f
00000100: 0000 803f 0000 803f 0000 803f 0000 803f
00000110: 0000 803f 0000 803f 0000 803f 0000 803f
00000120: 0000 803f 0000 803f 0000 803f 0000 803f
00000130: 0000 803f 0000 803f 0000 803f 0000 803f
1.0 1.0 1.0 1.0 1.0 1.0 1.0 1.0
1.0 1.0 1.0 1.0 1.0 1.0 1.0 1.0
1.0 1.0 1.0 1.0 1.0 1.0 1.0 1.0
1.0 1.0 1.0 1.0 1.0 1.0 1.0 1.0
1.0 1.0 1.0 1.0 1.0 1.0 1.0 1.0
1.0 1.0 1.0 1.0 1.0 1.0 1.0 1.0
1.0 1.0 1.0 1.0 1.0 1.0 1.0 1.0
1.0 1.0 1.0 1.0 1.0 1.0 1.0 1.0
1.0 1.0 1.0 1.0 1.0 1.0 1.0 1.0
1.0 1.0 1.0 1.0 1.0 1.0 1.0 1.0

bias f4 [80]
00000000: 0000 0000 0000 0000 0000 0000 0000 0000
00000010: 0000 0000 0000 0000 0000 0000 0000 0000
00000020: 0000 0000 0000 0000 0000 0000 0000 0000
00000030: 0000 0000 0000 0000 0000 0000 0000 0000
00000040: 0000 0000 0000 0000 0000 0000 0000 0000
00000050: 0000 0000 0000 0000 0000 0000 0000 0000
00000060: 0000 0000 0000 0000 0000 0000 0000 0000
00000070: 0000 0000 0000 0000 0000 0000 0000 0000
00000080: 0000 0000 0000 0000 0000 0000 0000 0000
00000090: 0000 0000 0000 0000 0000 0000 0000 0000
000000a0: 0000 0000 0000 0000 0000 0000 0000 0000
000000b0: 0000 0000 0000 0000 0000 0000 0000 0000
000000c0: 0000 0000 0000 0000 0000 0000 0000 0000
000000d0: 0000 0000 0000 0000 0000 0000 0000 0000
000000e0: 0000 0000 0000 0000 0000 0000 0000 0000
000000f0: 0000 0000 0000 0000 0000 0000 0000 0000
00000100: 0000 0000 0000 0000 0000 0000 0000 0000
00000110: 0000 0000 0000 0000 0000 0000 0000 0000
00000120: 0000 0000 0000 0000 0000 0000 0000 0000
00000130: 0000 0000 0000 0000 0000 0000 0000 0000
0.0 0.0 0.0 0.0 0.0 0.0 0.0 0.0
0.0 0.0 0.0 0.0 0.0 0.0 0.0 0.0
0.0 0.0 0.0 0.0 0.0 0.0 0.0 0.0
0.0 0.0 0.0 0.0 0.0 0.0 0.0 0.0
0.0 0.0 0.0 0.0 0.0 0.0 0.0 0.0
0.0 0.0 0.0 0.0 0.0 0.0 0.0 0.0
0.0 0.0 0.0 0.0 0.0 0.0 0.0 0.0
0.0 0.0 0.0 0.0 0.0 0.0 0.0 0.0
0.0 0.0 0.0 0.0 0.0 0.0 0.0 0.0
0.0 0.0 0.0 0.0 0.0 0.0 0.0 0.0

running_mean f4 [80]
00000000: 0000 0000 0000 0000 0000 0000 0000 0000
00000010: 0000 0000 0000 0000 0000 0000 0000 0000
00000020: 0000 0000 0000 0000 0000 0000 0000 0000
00000030: 0000 0000 0000 0000 0000 0000 0000 0000
00000040: 0000 0000 0000 0000 0000 0000 0000 0000
00000050: 0000 0000 0000 0000 0000 0000 0000 0000
00000060: 0000 0000 0000 0000 0000 0000 0000 0000
00000070: 0000 0000 0000 0000 0000 0000 0000 0000
00000080: 0000 0000 0000 0000 0000 0000 0000 0000
00000090: 0000 0000 0000 0000 0000 0000 0000 0000
000000a0: 0000 0000 0000 0000 0000 0000 0000 0000
000000b0: 0000 0000 0000 0000 0000 0000 0000 0000
000000c0: 0000 0000 0000 0000 0000 0000 0000 0000
000000d0: 0000 0000 0000 0000 0000 0000 0000 0000
000000e0: 0000 0000 0000 0000 0000 0000 0000 0000
000000f0: 0000 0000 0000 0000 0000 0000 0000 0000
00000100: 0000 0000 0000 0000 0000 0000 0000 0000
00000110: 0000 0000 0000 0000 0000 0000 0000 0000
00000120: 0000 0000 0000 0000 0000 0000 0000 0000
00000130: 0000 0000 0000 0000 0000 0000 0000 0000
0.0 0.0 0.0 0.0 0.0 0.0 0.0 0.0
0.0 0.0 0.0 0.0 0.0 0.0 0.0 0.0
0.0 0.0 0.0 0.0 0.0 0.0 0.0 0.0
0.0 0.0 0.0 0.0 0.0 0.0 0.0 0.0
0.0 0.0 0.0 0.0 0.0 0.0 0.0 0.0
0.0 0.0 0.0 0.0 0.0 0.0 0.0 0.0
0.0 0.0 0.0 0.0 0.0 0.0 0.0 0.0
0.0 0.0 0.0 0.0 0.0 0.0 0.0 0.0
0.0 0.0 0.0 0.0 0.0 0.0 0.0 0.0
0.0 0.0 0.0 0.0 0.0 0.0 0.0 0.0
