Graph Neural Network/Models/BasicLayers-RE 1.pth (torch, 285606 bytes, 15 tensors)

weight f4 [128, 128]
000000 4c 0a 12 3d 94 81 62 3d cb 31 c0 bd 0c a6 89 bc
       0.03565435 0.055299357 -0.09384497 -0.01680281
000010 af 45 7d 3d 48 69 30 3d c1 da 68 3d d8 a7 12 bd
       0.061834034 0.043069154 0.056849245 -0.0358046
000020 20 bc 4c 3d c9 fc 67 3c 91 8d 71 bc e0 f2 3b 3d
       0.049984097 0.01415939 -0.014743225 0.04588592
000030 3a 79 26 bc 1d 85 6b bd 2a b1 8d bd 20 ca af bd
       -0.010160739 -0.057499994 -0.06918557 -0.08583474
000040 5b f7 b9 bd dc 2a 1e 3d c3 46 63 bd 7d fb ee bb
       -0.090803824 0.038615093 -0.055487406 -0.0072931633
000050 6e d5 00 bd 30 9b 1b 3d 34 4f 59 3d fd ba c9 3c
       -0.031453542 0.037989795 0.05305405 0.024625296
000060 90 35 2e 3d 0b 6d f4 ba ca ff 61 bb f7 40 83 bb
       0.04253155 -0.001864822 -0.0034484738 -0.004005547
000070 02 34 86 bd 47 8e 4d 3c 0f 66 1f bd 83 d0 61 3c
       -0.065528885 0.012546129 -0.03891569 0.013782623
000080 4f 52 5d bd 12 98 66 bc e7 cc f6 bc 64 09 87 bc
       -0.054033574 -0.014074342 -0.030127002 -0.01648397
000090 76 27 a7 bd 49 3d 6d bb 94 4c 95 3d 30 25 54 bd
       -0.081618235 -0.003619986 0.07289997 -0.051793277
0000a0 58 e0 aa ba 95 55 69 bd d4 fd 98 3d f2 d8 93 3d
       -0.001303683 -0.056966383 0.07470289 0.072191134
0000b0 44 f0 2f 3d 35 6c 67 3d af 88 c0 bd c7 85 fe bc
       0.042953745 0.05649968 -0.0940107 -0.03106965
0000c0 03 b1 29 bc 6b 1a 4d bc dd 96 35 3c 8e c3 38 bc
       -0.010357144 -0.012518506 0.011083332 -0.011277093
0000d0 dd 56 8e 3c c9 47 b1 3c 9c 75 3b 3d 66 95 71 3d
       0.017375404 0.021640675 0.045766458 0.058980368
0000e0 cd 96 a7 bc 84 7f 82 bd 7d 43 b4 bd 40 38 9e 3d
       -0.02045765 -0.06371978 -0.08801935 0.077255726
0000f0 08 f5 be bd 9d 91 8e bd 3d 3e 98 bd c3 b8 4c bd
       -0.0932408 -0.06961367 -0.07433746 -0.04998089
000100 e4 51 bb bd 80 2b 5b 3d 12 93 82 bd d4 a0 2f 3d
       -0.09146479 0.05350828 -0.06375708 0.042877987
000110 e5 96 40 bd 88 c9 2d 3d 3a c0 94 3d 52 89 f8 bb
       -0.047018904 0.042428523 0.07263227 -0.007584729
000120 bc 2c 15 3d c9 df a4 3c eb ca 36 bd e5 5d 9b bd
       0.036419615 0.02012624 -0.04462711 -0.07586268
000130 44 a3 6d 3c 38 fa 89 bc 05 6f b2 bd eb 16 e0 bc
       0.014504258 -0.016842946 -0.087125815 -0.027354678
000140 1b d8 4e bd 0c 74 00 3d ed 33 b9 bd 91 f5 65 3d
       -0.050499063 0.03136067 -0.09043107 0.056142393
000150 e6 0f a1 bd 92 ba 8a bd db 14 bd bd 7f 7b 1a bd
       -0.078643605 -0.06773867 -0.092324935 -0.03771543
000160 cb a4 2f bd 1a 34 c2 bd 4d 93 63 3d f2 3e 80 3d
       -0.04288177 -0.09482594 0.0555604 0.06262006
000170 e2 16 87 bd d8 a1 7c 3d 6a 56 06 bc 81 cb 90 3c
       -0.065961614 0.061677784 -0.008199314 0.017675163
000180 28 8f 9d 3d 76 a3 9e 3d 46 e5 a1 3d 9d db 8a bd
       0.076933205 0.077460214 0.079050586 -0.06780169
000190 42 ed 9a bd 34 ba 0b 3d 72 a6 ad bc 26 b3 88 3d
       -0.075647846 0.034113124 -0.021197531 0.06674795
0001a0 e1 0b 90 3c 34 25 fc bc b4 f4 80 3a 7c 2b 4e 3d
       0.01758379 -0.030779459 0.0009838552 0.05033444
0001b0 dc bf 96 3d 25 bb 35 bc be ac b5 bd c2 14 ae bd
       0.07360813 -0.011091982 -0.088708386 -0.08500053
0001c0 75 fe 66 3d 2c bb 02 3d 28 ed 2c 3d c5 c3 9b 3c
       0.056395013 0.031916782 0.042218357 0.019014249
0001d0 6a 0b 30 bd a9 23 9d bd ce 52 6a bd e9 68 bd 3c
       -0.042979635 -0.07672817 -0.057207875 0.023121314
0001e0 aa 37 8a 3d 61 aa bd bd 11 ec 34 bd a7 33 9a bd
       0.06748898 -0.09261013 -0.044170443 -0.07529383
0001f0 c8 a0 34 3d 1c 45 86 bd 89 e3 a1 bc ee 3f 4f bd
       0.044098645 -0.0655615 -0.019761818 -0.050598077
000200 cb dc 82 3d 9e 5e 9c bd 6a 88 a6 3c 9a 6d 0d 3c
       0.06389769 -0.07635234 0.02032872 0.008632088
000210 bf de 9e bd d3 95 ac 3d bf 37 c5 3d 12 6b f4 bc
       -0.07757329 0.08427014 0.09629773 -0.029836211
000220 63 d1 c0 3d 3b b9 b9 3d ea ed e5 bc af a3 24 bc
       0.09414937 0.09068533 -0.028067548 -0.010048791
000230 57 47 c8 3d 3d cd a5 bc 65 c2 c7 bc 2f 35 74 bc
       0.09779232 -0.020239467 -0.024384687 -0.014905258
000240 3c e4 38 3d e1 fd c0 3d 13 c3 b5 3d 39 a8 8d 3d
       0.045139536 0.094234236 0.08875098 0.069168516
000250 bd e7 8b 3d 61 2a b7 3d 9c 5e 03 3d 64 48 62 bd
       0.0683131 0.0894363 0.03207265 -0.05524482
000260 8d 6d 8f bd 0a a6 74 bd bf 86 0d bd 09 63 a1 3c
       -0.07003317 -0.05972866 -0.034552332 0.019700544
000270 98 f2 90 3d 48 35 ba bc 6b 1b 98 3c a0 8c 52 3d
       0.07077521 -0.022730485 0.018567761 0.05140364
000280 13 a9 a7 bc 7a 79 3a 3d 70 d0 05 bd 50 c6 2c bd
       -0.020466363 0.045526005 -0.032669485 -0.042181313
000290 49 fb 8c bd f3 70 3c bc e3 08 b2 b9 e4 d5 87 bd
       -0.06883866 -0.011501539 -0.00033957427 -0.06632593
0002a0 68 00 5b 3d 88 e7 7c bc 8c 16 05 bd 93 1f 3e bc
       0.053467184 -0.015436061 -0.032492206 -0.011604208
0002b0 90 d9 4f bd d8 7d 81 3d 80 53 fc 3c 8b f8 3a bd
       -0.050744593 0.06322831 0.030801535 -0.045647185
0002c0 55 87 25 b8 ba 0d 47 3c c5 d5 be 3d a7 3d f8 3c
       -3.9465103e-05 0.012149269 0.09318117 0.030302836
0002d0 bc 85 8e 3d 2e 04 08 bb 52 f4 9d bd 42 f1 17 bd
       0.069591016 -0.0020754444 -0.07712616 -0.037095316
0002e0 ef d7 f9 b9 7e 6c 82 3d d9 aa 36 bd 53 a7 c5 3d
       -0.00047653864 0.063683495 -0.044596527 0.09651055
0002f0 19 57 67 bd d7 ad c2 3d 59 18 82 3d 09 ed 7a 3d
       -0.056479547 0.095058136 0.063523 0.06126121
000300 88 34 5d 3d 1d 83 bb 3d 29 68 f9 3c bc 2f c5 3b
       0.054005176 0.09155867 0.030445175 0.0060176533
000310 11 f4 9f 3b a5 ce db 3b ab d2 85 3d 04 55 3c bd
       0.00488139 0.0067079836 0.06534322 -0.045979515
000320 e6 9f 19 3c 8c 8a 55 bd 53 66 30 bd 85 1a a4 3d
       0.009376502 -0.05213408 -0.043066334 0.08012871
000330 4f b6 5d bd 3f fd 84 bd 3f b9 8f bd 72 79 9e 3c
       -0.05412894 -0.06493615 -0.07017755 0.019345019
000340 bd 0d e8 3b 2f a1 f2 3c 70 f1 54 3d 79 e6 a7 3d
       0.007081716 0.029617874 0.051988065 0.08198256
000350 ef 75 a2 3d 42 99 3f bc 7e ba 01 bd 1a b6 c8 bb
       0.0793265 -0.011694254 -0.031671993 -0.006125224
000360 4f fd f7 bc 6d 3a a0 3d 63 b6 44 bd 85 3f 7e bd
       -0.030272154 0.07823644 -0.0480255 -0.062072296
000370 f5 cb 79 bb 6e cb 73 bc df c3 e6 3c ef ec 61 3b
       -0.0038115953 -0.014880044 0.02816957 0.0034473499
000380 6f 36 00 ba 19 dc 94 bd 56 84 80 3d 9a da 34 bd
       -0.0004890924 -0.07268543 0.06275241 -0.044153787
000390 a7 d9 c5 3d 9e 1d 20 bc fb c4 95 3c 23 d2 e2 3c
       0.096606545 -0.009772686 0.018282404 0.027688092
0003a0 80 ca dc 3b b8 6b 2c 3d 6c 3c 82 bd b4 69 95 bd
       0.006738007 0.042094916 -0.06359181 -0.07295552
0003b0 c0 1a 09 3b fd 68 77 bc 5b fa 85 3d e7 2f e3 3c
       0.0020920485 -0.015100715 0.06541892 0.027732803
0003c0 e6 40 a1 bd 37 b9 b3 3d fd d9 19 bc e0 ce 61 3d
       -0.078737065 0.08775561 -0.009390351 0.055128932
0003d0 06 cd 25 bd 2f ca a5 3d ec 54 88 bc 21 80 a5 3d
       -0.04047873 0.08095204 -0.016642056 0.08081079
0003e0 b0 98 bf bc f2 3b 1d ba fc 8e 92 3c fe 8e 2a bc
       -0.023388237 -0.0005998007 0.017890446 -0.010410069
0003f0 bd d2 08 3d 72 99 56 3b 33 94 4b bd 03 bf 71 bd
       0.0334041 0.003274527 -0.04970188 -0.059020054

bias f4 [128]
000000 e6 26 a7 bd da 7b 84 3d 18 c3 1d bd 21 11 c6 3c
       -0.08161716 0.06468935 -0.038516134 0.02417809
000010 8b ca 03 bd 8f 85 82 bc ac a3 11 bd e9 f3 b5 bc
       -0.032175582 -0.015932826 -0.03555648 -0.022211032
000020 18 05 d1 bc 69 46 a8 bd 35 b1 23 bd d9 fd 15 bd
       -0.025515124 -0.08216555 -0.03996392 -0.03661904
000030 1b b1 96 3d dd ce 8c bd e6 cd 60 3c 19 cb a5 3d
       0.07357999 -0.068753935 0.013720965 0.080953784
000040 e8 d0 a1 bd e9 8c 2d 3c a5 b9 8a bd 46 d6 9e bb
       -0.07901174 0.010592678 -0.0677369 -0.0048473207
000050 50 d2 0a 3d 89 44 8b 3d f6 40 98 bb aa 56 54 bd
       0.033891976 0.068001814 -0.004646416 -0.05184046
000060 f6 cd 2b 3d 0b 30 a4 bd de 28 a2 3d 91 9d da 3c
       0.041944467 -0.08016976 0.07917951 0.026686462
000070 e3 5f 89 bd b1 a9 6f bd 39 2f 0b 3c 7e 49 31 3c
       -0.06707742 -0.05851144 0.0084951455 0.010820745
000080 35 28 36 bd 71 4a 9f 3c ed 21 22 bd 29 b5 99 bd
       -0.04447194 0.019444676 -0.039583135 -0.07505257
000090 18 31 a1 3d 71 f0 a6 bd c6 ed e1 3c 81 9b 24 bc
       0.07870692 -0.08151329 0.0275792 -0.010046841
0000a0 eb 71 7c bd 50 18 c6 bc e6 3a 53 3c 98 8f 1e 3d
       -0.06163208 -0.024181515 0.01289246 0.03871116
0000b0 d2 14 1f 3d fd 79 9b bd 0d d5 9d ba 65 ce 08 bd
       0.038838215 -0.07591627 -0.0012041643 -0.03339996
0000c0 ba d0 8c bd 8f f6 95 bd ce ec 61 3c 66 29 33 3c
       -0.06875749 -0.07322418 0.013789369 0.010935163
0000d0 c5 e7 5d bd 80 0d 78 bd bc f3 a1 3d b5 5d dc bc
       -0.05417611 -0.06055975 0.07907817 -0.026900152
0000e0 f0 13 e9 bc 1e 63 b1 bd b6 39 98 3c dd 5b fc 3b
       -0.02845189 -0.08661483 0.018582206 0.0077013806
0000f0 8a a7 49 3d 30 1e 50 3c 51 46 06 3c 68 6b 6b 3d
       0.049232043 0.01270251 0.008195476 0.057475477
000100 a2 f9 5d 3c f4 a9 ae 3d f5 f3 83 bd 27 05 6e bc
       0.013548287 0.0852851 -0.064430155 -0.014527596
000110 b6 b4 ac 3d b9 6d 58 3d 96 a7 65 bd 0c 15 55 3c
       0.084329054 0.052839015 -0.056068026 0.013005506
000120 ec 1c 9f 3d 2d 35 0c bc 32 53 9a 3d 0c fb 61 3d
       0.07769188 -0.0085576 0.075353995 0.055171058
000130 e4 d5 98 bd b5 cf 54 bd 2b 78 a9 3d f4 f3 14 3d
       -0.074626714 -0.051955897 0.08274873 0.036365464
000140 6e cd 19 3d 91 21 11 bd e9 4d 67 3d 7c 10 9a bd
       0.03754943 -0.035432402 0.056470785 -0.075226754
000150 f1 93 b3 bc 34 f9 6a 3c b9 64 9c bb 1c 06 70 3d
       -0.02192113 0.014341641 -0.0047727493 0.058599576
000160 bb ab 44 3d 91 f9 a0 3d 0f e8 b1 3d f1 2c a0 3d
       0.048015337 0.07860101 0.0868684 0.07821072
000170 78 59 bc bb 0b 28 96 3c 44 e7 32 bd 2f 49 6b 3c
       -0.00574797 0.01832964 -0.043677583 0.01436071
000180 b3 24 30 3d f9 e2 9c 3d 1c d3 ed 3c 1c 71 a5 3d
       0.04300375 0.07660479 0.029031329 0.080782145
000190 6e 4a 12 bd f3 26 01 3d 29 c3 32 3c 26 ce ab bd
       -0.035715513 0.031531285 0.010910788 -0.08388929
0001a0 79 56 34 3d 93 7c 45 bd df 09 9f 3d 50 9b 74 3d
       0.04402778 -0.048214506 0.07765555 0.05971843
0001b0 77 c8 9a 3c 6d 5a 95 3d 78 00 0c 3d ed cf 8a bd
       0.018894417 0.07292638 0.034180135 -0.0677794
0001c0 58 18 75 bd 8c 93 8b 3d 63 d3 9a 3d 80 05 63 3c
       -0.05983767 0.06815252 0.0755985 0.013856292
0001d0 93 83 4c bd 6d e2 a7 3b b8 94 35 3d ef a0 77 3d
       -0.049930166 0.0051234276 0.044331282 0.060456213
0001e0 cf ed 2d 3d f3 f4 95 3d 1a 7d a7 bd 14 71 45 3d
       0.04246312 0.07322111 -0.08178158 0.048203543
0001f0 3b a9 39 3d a0 e3 91 3c 93 1a 11 3d 1a fb 1b 3d
       0.045327406 0.017808735 0.035425734 0.038081266

weight f4 [128, 128]
000000 3c 38 ad 3c 47 71 41 3d 19 96 19 bd b9 1b a3 3d
       0.021144979 0.04722717 -0.03749666 0.07964272
000010 5f 8c 9f 3c 5b 8b 9b 3d 4e ad 68 bd 98 3f 3c 3a
       0.019476114 0.07594939 -0.0568059 0.0007181107
000020 5e 78 0a 3d d7 4e e0 bc 5b 9f 36 3d ed c6 0a bd
       0.033806197 -0.027381344 0.044585567 -0.033881117
000030 ef 50 34 3d 56 a2 c4 3c 7e 0e 1d bd 1a 7e 84 bc
       0.044022497 0.024003189 -0.0383439 -0.016173411
000040 ae 27 4a 3a 47 d3 e2 bc 8b 5b 9a 3d 63 ad 8f bd
       0.0007711601 -0.027688636 0.07536992 -0.07015493
000050 c6 01 54 bd 22 bf 99 bc 94 91 99 3b e0 a7 9f bd
       -0.051759504 -0.018767897 0.0046865437 -0.077956915
000060 62 8b 90 bc ef 19 4c bd fb 7c 79 3d b0 da a3 3c
       -0.017644588 -0.04982942 0.060910206 0.02000174
000070 ef d3 82 3d 5b 5d 65 3c cd 60 8b 3d db 22 90 3d
       0.063880794 0.013999308 0.06805573 0.07037898
000080 7b f9 3b 3d bf 7b 52 3d 8a 88 18 3d 46 2c 6c bd
       0.04589222 0.051387545 0.03723959 -0.05765941
000090 53 14 3b 3d 77 12 76 3d c6 7f b5 bc 47 a9 53 3d
       0.04567368 0.060076203 -0.022155654 0.051675107
0000a0 e1 a1 11 3d c8 75 39 bd 54 f2 a2 bd 5e ca 03 3d
       0.03555477 -0.04527834 -0.07956377 0.032175414
0000b0 81 a2 a1 3c 17 af 74 3d 67 30 42 3d 9d 38 8d 3d
       0.019730808 0.05973729 0.04740944 0.06895564
0000c0 a0 5a 82 bd d2 e3 04 bd c0 44 9e bd c0 71 8c 3d
       -0.063649416 -0.03244383 -0.07727957 0.068576336
0000d0 80 02 2b 3c c4 4f 85 3d d3 10 1d 3c eb ab 5f 3d
       0.010437608 0.06509355 0.009586531 0.054607313
0000e0 01 79 77 bd 66 c7 8d 3d ef 0d b4 3d 36 c0 fd bc
       -0.060418133 0.06922798 0.0879172 -0.030975442
0000f0 fc db 84 bd c8 95 a5 bd 69 d5 9c 3d 56 d2 82 3d
       -0.06487271 -0.08085209 0.07657892 0.06387775
000100 79 1a 98 3d 8b c2 16 3d 6c 1e 1b bd ce b2 92 bd
       0.07426924 0.036806624 -0.03787081 -0.071630105
000110 ed 46 0c bd 4d 61 af 3d cc 0a 0f bd 9f b0 aa 3c
       -0.034247328 0.085634805 -0.034922406 0.020836173
000120 10 28 50 bc 4f d9 8f bd 28 66 05 bb 91 e2 1d bd
       -0.012704864 -0.0702387 -0.002035508 -0.03854615
000130 3f 66 87 bd 1f aa 40 3b fa 7b 94 bd 72 36 dc 3c
       -0.06611299 0.0029398275 -0.07250209 0.02688143
000140 e2 c4 a7 3c de 38 17 3c e3 96 a4 3d 7e c4 ac bd
       0.020479623 0.009229867 0.08036592 -0.084359154
000150 41 55 88 bc 1f 6f 22 3d 12 15 fc bc 03 43 54 3b
       -0.016642215 0.039656755 -0.030771766 0.0032388575
000160 aa ea ec 3c e9 d5 a0 bb 46 57 4d bc bc 42 3b 3b
       0.02892049 -0.0049083126 -0.012533015 0.0028573712
000170 d9 39 b1 3d 07 09 2c 3d f3 18 9a 3d 43 5c 93 bd
       0.08653612 0.042000797 0.0752429 -0.07195332
000180 e1 c2 15 bd 47 7d b5 3d aa 96 9b 3c 7f 85 1d bd
       -0.036562804 0.088617854 0.01899274 -0.03845739
000190 9b cf a1 3d 95 a2 a3 3d c6 ae 6f bd 48 a9 97 bb
       0.07900926 0.079899944 -0.058516286 -0.004628334
0001a0 2d 3f 99 3d 44 27 4a bb 67 c5 40 3d 91 30 a5 3d
       0.07482753 -0.0030846158 0.047063258 0.08065904
0001b0 b6 0a 6b bd 3d ac 1f 3c 0e 64 88 bd 53 1e a4 3d
       -0.05738326 0.009745655 -0.06659709 0.080135964
0001c0 dc 79 db bc 9f 3c 66 3d 05 1b 18 3d 78 a7 84 bb
       -0.026791506 0.056210157 0.037135143 -0.004048284
0001d0 0d 2a dc bc 22 ad f8 3c 91 d7 af bd aa d7 85 bc
       -0.02687552 0.030355994 -0.08586038 -0.016338188
0001e0 cf a0 5c 3d df 90 6f bb d9 ac a9 3d da f6 7b 3c
       0.053864297 -0.0036554856 0.08284921 0.015378678
0001f0 ad 00 20 bd 85 ad 16 bc 06 5f e2 3c ff ab b0 3d
       -0.039063144 -0.009196644 0.027633201 0.08626556
000200 31 48 33 bb ef d5 fb bc a4 de 74 bd db 5c 36 bd
       -0.0027356262 -0.03074166 -0.05978264 -0.044522148
000210 de 4b 76 3d f0 c0 51 bd 90 3d 05 3d c8 15 77 bd
       0.060130946 -0.05120939 0.032529414 -0.060323507
000220 94 7c 4d bd 82 f9 4f 3d 3e eb 3b 3d 17 8a 92 3c
       -0.050167635 0.05077506 0.04587864 0.017888112
000230 68 46 10 bd c9 81 4a bd 9b e5 35 bc c5 28 a6 bd
       -0.035223395 -0.04944018 -0.0111021055 -0.08113245
000240 da 21 33 3d f4 2d 86 3d 33 70 ba 3c fc 1f ad bd
       0.043733455 0.065517336 0.022758579 -0.08453366
000250 4d a6 3e 3c 0b 21 23 bc 16 08 26 bd 87 85 ed bc
       0.011636329 -0.0099566085 -0.040535055 -0.028994335
000260 9a 35 73 bd c2 e4 56 3d e0 33 8b bd 32 4f 96 3d
       -0.05937729 0.052464254 -0.06797004 0.07339324
000270 30 e3 72 bd a4 40 71 bd 23 08 93 3c 39 17 a1 bd
       -0.059298694 -0.058899537 0.017948216 -0.078657575
000280 96 b0 59 3d 13 8d d1 3c c4 60 a8 3d a1 42 ab bd
       0.05314692 0.025579965 0.082215816 -0.08362318
000290 7d b9 33 3c 00 2e a9 bd 0d 2e 9d bc 51 f8 e1 bc
       0.010969517 -0.08260727 -0.019186998 -0.027584227
0002a0 23 e3 6a bc 81 55 bd bc 5a f5 af 3d 0a a9 22 3d
       -0.01433638 -0.02311206 0.08591719 0.03971199
0002b0 13 a2 1a bc ac c7 01 bc c4 0c 4b bd 4a fa 28 3d
       -0.009438056 -0.007921141 -0.04957272 0.04125432
0002c0 12 5b 74 3d aa b3 00 3d 00 2b a6 3d c6 d2 4c bd
       0.059657164 0.03142134 0.0811367 -0.050005697
0002d0 32 94 3f bd fd 7a 4a 3c 2d 9c fa bc 5e 89 55 3d
       -0.04677219 0.012358424 -0.030592049 0.052132957
0002e0 56 ba 93 3d 2d 14 b1 bd dc 37 2f bd ca 1a 7f 3d
       0.07213275 -0.08646426 -0.04277788 0.062281407
0002f0 cf 72 8e bd 56 69 61 bd c0 fd 2f bd 1d 81 2c bd
       -0.06955492 -0.055032097 -0.042966604 -0.04211532
000300 cf 6c bc 3c 03 af 47 bd 1b 40 91 3c 7e b0 79 3d
       0.023001103 -0.04875089 0.017730763 0.06095933
000310 db 6e da 3c 6a 28 07 3d c5 36 1c 3c ab 9a 87 3c
       0.026664188 0.032997526 0.009534542 0.016553244
000320 b5 b2 8f bd 41 42 53 bd ed 03 17 bd 2c 4c 7c 3c
       -0.070165075 -0.051576857 -0.03686898 0.01539902
000330 9a 03 6e 3d 0e 74 2b 3d a8 16 61 bb 5f 84 e2 3c
       0.058108903 0.041858725 -0.003434578 0.02765101
000340 44 6f fb 3c 48 ae 98 bd 26 f5 15 3d 06 64 34 3d
       0.030692704 -0.074551165 0.036610745 0.044040702
000350 19 5b 9e bd 97 bf 14 bd c3 78 0f bd c7 c5 1c bd
       -0.07732219 -0.036315527 -0.035027277 -0.038274553
000360 ef 72 91 3c 3b 98 bd 3c 35 2f 5e 3c 8e 8d 00 3d
       0.017755 0.023143878 0.01356106 0.031384997
000370 6e cd 51 3d 0b 92 2e bd ce 16 64 3d 8f 09 eb 3b
       0.051221304 -0.042619746 0.05568581 0.0071727703
000380 f4 67 72 3c 3f a7 2e bd 66 64 2f 3d c6 d0 b2 3d
       0.014795292 -0.042639967 0.042820357 0.087312266
000390 9b be 8c bd 2c d7 7f bc 4f b5 d7 3c 59 b2 dc bc
       -0.068722926 -0.015615266 0.026331572 -0.026940512
0003a0 7f 4d 9c bd cd fe 8a bc 3d 70 90 bd e3 2c b4 3c
       -0.07631969 -0.016967202 -0.07052658 0.02199406
0003b0 6b 7d 9b 3c ac 69 6d bd aa c2 af 3d dd fd 24 3c
       0.018980702 -0.057962105 0.08582051 0.010070291
0003c0 02 65 67 3d 65 40 14 3c c8 92 71 bd 75 f2 3a 3c
       0.056492813 0.009048556 -0.058977872 0.011410345
0003d0 76 03 47 bd 50 51 85 3b 11 96 d7 bc e2 a1 65 3d
       -0.048587285 0.004068531 -0.026316674 0.056062587
0003e0 93 45 41 bc 93 9c 87 bd 72 ba 9f 3d b6 ec 50 3d
       -0.011796373 -0.06621661 0.077992335 0.051006995
0003f0 d6 c4 17 3d 34 ec 9d bd 43 82 7c bc f0 75 91 3d
       0.03705295 -0.07711068 -0.015411916 0.07102573

weight f4 [128, 128]
000000 3c bf 50 bd 17 82 08 3e db b6 73 be 54 2f e2 3d
       -0.050963625 0.13330875 -0.23800223 0.110441834
000010 0b 35 37 be 6b 28 b7 3d 73 9a aa be d7 14 91 be
       -0.17891328 0.08943256 -0.3332096 -0.28336212
000020 6a d4 fb 3d fc a5 2e be 36 07 a9 bd 35 4d 96 bc
       0.12296374 -0.17055506 -0.082533285 -0.018347362
000030 7b 1a c0 3c 53 5c 81 3e f8 a8 08 3e 98 db 84 3e
       0.023450127 0.2526575 0.13345706 0.25948787
000040 a8 8a ef bd 21 8d 1c 3d e8 5b 0c 3e e8 00 10 be
       -0.116963685 0.03822053 0.13706934 -0.14062846
000050 aa b8 e0 bd 96 43 4b bc 36 7e c5 bd a6 81 23 3b
       -0.10972722 -0.01240625 -0.096432135 0.0024949103
000060 39 e9 ff 3c e5 e5 91 bd 7d 9e c9 3d 71 56 66 3d
       0.031239139 -0.07123927 0.09844682 0.05623478
000070 d7 ab 20 be 79 22 07 bd 69 66 7b bd 4f 3a b3 3e
       -0.15690552 -0.03299186 -0.061376963 0.35005423
000080 b5 a8 b2 3e 60 87 0e bc d7 03 9b be e7 90 4e bd
       0.34894338 -0.008699268 -0.30276367 -0.05043116
000090 cc 70 95 bd a3 b1 ca bd 25 fd ad bd 02 c8 b4 3a
       -0.07296905 -0.09897163 -0.08495549 0.0013792517
0000a0 fc ed 1e 3d df 34 64 3e 62 1f da 3d bf 19 d9 bd
       0.03880118 0.22285794 0.10650517 -0.10600614
0000b0 0a 08 0b 3c 2e 75 da 3d 04 8f a5 bd fb 20 87 3d
       0.008485803 0.106668815 -0.08083919 0.065980874
0000c0 d4 4c a7 be 09 cb c8 bb 0e 2c 11 3d 77 3f 80 3c
       -0.32675803 -0.0061277193 0.035442404 0.015655262
0000d0 6f 89 f8 bd 03 ba 39 be 01 0f b7 3c 26 d4 f7 3c
       -0.121355884 -0.18137364 0.022346022 0.030252527
0000e0 30 d4 05 bd 27 51 c5 bc 75 75 ca 3e 76 00 d6 bd
       -0.03267306 -0.024086548 0.39542738 -0.10449307
0000f0 6d c1 7c 3e bd 5c 3c bd 1c af a0 bd 2f d4 10 be
       0.24683161 -0.04598688 -0.078458995 -0.14143442
000100 82 49 93 bd 78 26 3f bd d5 a6 2c be 5e 9f 25 3c
       -0.07191755 -0.046667546 -0.16860516 0.010108797
000110 8b 60 33 be 92 4b b4 bb 7c dd 98 3e 9e 4c be 3e
       -0.17517297 -0.0055021727 0.2985648 0.3716783
000120 16 c5 3e be ec 10 24 bc 2f 8e 0c 3e 69 e5 31 3e
       -0.1862987 -0.0100138 0.13726114 0.1737267
000130 41 87 ce bb 4b cc 94 be 53 5c c1 3d 7e f3 85 3d
       -0.0063027446 -0.29062113 0.094414376 0.06540583
000140 ad 35 cd bd e3 d2 b7 bd e2 af a1 3c 77 80 c9 bd
       -0.100200035 -0.0897577 0.019737188 -0.09838956
000150 12 68 b7 bd 34 6e e3 3c ad f7 e0 3a e6 03 a5 3c
       -0.08955397 0.02776251 0.0017163657 0.02014346
000160 46 16 0a 3e 65 7f 1d be f2 db 66 be 58 39 40 bd
       0.13485059 -0.15380628 -0.2254484 -0.046929687
000170 1c 85 a6 3d 9c 17 73 3d 6e f3 e0 be fe b1 9b be
       0.08130857 0.059348688 -0.43935722 -0.30409235
000180 37 c9 94 bd ff 63 d0 3d 07 8a 3b 3b 0d f3 c5 3e
       -0.07264941 0.10175323 0.0028616206 0.38661996
000190 7d 4f 55 be 75 f2 c9 bc 09 9e a5 bd 8a 64 a2 3d
       -0.20831104 -0.024651745 -0.080867834 0.079293326
0001a0 db 90 40 3c 00 23 37 be 07 1d 82 3a 4f 8a 20 bc
       0.011753286 -0.17884445 0.0009926864 -0.0097986
0001b0 fb b2 7f bc ca 36 87 be ba d0 17 bd 6a 50 c0 3d
       -0.015606637 -0.26408988 -0.03706429 0.09390338
0001c0 8a 94 8f bd c7 2d 01 bc d8 19 07 be 05 49 db 3c
       -0.070107535 -0.007884449 -0.13193452 0.026768217
0001d0 7e d5 7a 3c 8d 49 b8 3a 21 01 01 bd 26 5e a8 3b
       0.01530969 0.0014060006 -0.031495217 0.0051381765
0001e0 08 4c 00 bc 95 34 ce be f6 e8 41 be c6 1d dc be
       -0.007830627 -0.40274492 -0.18936524 -0.42991465
0001f0 3a 02 0b ba 3c 92 95 3d 03 c7 4d be 86 f1 f6 3d
       -0.0005302761 0.073032826 -0.20095448 0.12057786
000200 b3 cd 01 3d 76 83 5c be 72 71 0e be 42 6f 67 be
       0.03169031 -0.21534523 -0.13910463 -0.22601035
000210 c2 27 4d bd 3a 75 93 be cd ea f2 3e 51 d5 a3 bd
       -0.050086744 -0.28800374 0.47444764 -0.07999671
000220 0f f7 98 be d3 85 a8 bd e2 be be bd ec 7a 80 be
       -0.2987599 -0.0822865 -0.09313752 -0.25093782
000230 45 19 f0 bd 6f 7f db be 4f d7 0d be fc 56 a7 be
       -0.1172357 -0.42870662 -0.13851665 -0.3268355
000240 c4 c9 f1 bd bd 8a 6e 3c 5c 21 b8 be 65 15 93 bd
       -0.11806062 0.014559445 -0.3596295 -0.07181815
000250 05 05 cc 3c 19 52 41 bc d8 b8 d9 bc 91 87 fd bd
       0.024904737 -0.011799359 -0.026577398 -0.12379373
000260 85 99 fe 3c 34 7b 14 3d 92 5a ae be 84 56 a8 be
       0.031079063 0.03625031 -0.34053475 -0.32878506
000270 11 2d 3c be 3f cc c7 bd e6 7c 13 bd f4 7d d6 be
       -0.18376566 -0.09755754 -0.036007784 -0.4189297
000280 8a ba c3 be ec e7 8d 3c 84 01 c5 bd e9 f7 9d bd
       -0.38228256 0.017322503 -0.0961943 -0.07713301
000290 56 38 a7 bd 6d 2d 24 3c 83 22 66 bd 22 0f d5 bd
       -0.08165042 0.010020596 -0.056185257 -0.10403277
0002a0 4c 87 df bc d7 ab a7 be 13 d7 c2 be 24 0b 68 be
       -0.027286194 -0.3274829 -0.38054714 -0.226605
0002b0 2c 7e e5 3c e7 6d 1c be f3 45 db bd 36 8e bc be
       0.028014265 -0.152763 -0.10706701 -0.36827248
0002c0 53 40 a2 bd 31 e5 c1 bd 3b 95 c9 be 5b 8e ed bd
       -0.07922425 -0.09467543 -0.39371666 -0.11599418
0002d0 73 61 89 bd 27 73 24 bd 69 cd df bc 9b 39 9a 3c
       -0.0670804 -0.04014888 -0.027319627 0.018826297
0002e0 ed f9 ee bd a9 03 10 3c 7d 06 cf be 19 dc d9 bc
       -0.11668763 0.008789935 -0.40434638 -0.026594209
0002f0 84 17 91 be 17 4a 2c bd 5b a4 22 bd a6 80 c5 bd
       -0.28338253 -0.042062845 -0.039707523 -0.09643678
000300 79 8a 29 3d 49 ae bd 3c 62 38 c7 bd 74 21 87 be
       0.041391823 0.023154395 -0.09727551 -0.2639271
000310 fb 1a 3d be 95 9f 14 bd ed c8 87 be 6c dc b1 be
       -0.18467323 -0.036285 -0.26520482 -0.3473848
000320 b9 4d 10 be 5b 34 6f be 23 7a 84 be a6 6c e1 be
       -0.14092149 -0.23359816 -0.25874433 -0.44028205
000330 e5 55 9a be cc 7d d3 bc b7 a0 b4 be 0c 44 9d be
       -0.30143657 -0.02581682 -0.35278866 -0.30715978
000340 bb 1a 88 bd 96 21 c6 bd 66 59 80 bd db ee 70 bd
       -0.066457234 -0.09674375 -0.062670514 -0.05882154
000350 56 fc e9 bd 1a c0 77 bd c3 cc fc bd 1a 82 d8 ba
       -0.114250824 -0.060485937 -0.12343743 -0.0016518265
000360 b5 4f bc be 91 1f b9 bd 86 5f 30 be 0d 0c d2 3c
       -0.36779562 -0.09039224 -0.1722394 0.025640512
000370 95 9d ba be 3b 60 ce be 07 e6 c0 3e 77 34 0c be
       -0.3644835 -0.40307793 0.37675497 -0.13691889
000380 a9 cf 87 bc 64 44 c4 be e3 9a b8 be e8 13 cf be
       -0.016578512 -0.38333428 -0.3605567 -0.40444875
000390 9c fb 81 bd 8e 3c b9 be 1c a7 30 bd 7d 61 8e be
       -0.06346819 -0.36179012 -0.043128118 -0.27808753
0003a0 cf da 05 bd 57 c9 71 bd 59 95 01 be ea 56 ad bd
       -0.032679375 -0.059029903 -0.12654628 -0.08463843
0003b0 d4 26 12 3c ba 3f 32 be c7 ca b1 be ea 6d d1 be
       0.00892039 -0.17407122 -0.3472502 -0.4090417
0003c0 fb 2d d6 bb 25 de 92 bd ac b2 0c bd 5e ba 3f bd
       -0.006536243 -0.07171277 -0.034350082 -0.046808593
0003d0 48 e0 89 3c e0 21 3a be 0e 56 a4 bd 9a 07 8f be
       0.016830578 -0.18176985 -0.08024226 -0.27935487
0003e0 29 ef 5f bd e3 30 c4 3e 95 fc 30 be 0e 63 f4 3e
       -0.05467144 0.38318548 -0.17283852 0.47731823
0003f0 50 3f 10 3d 1c 53 aa be c3 0c 85 bd 77 81 80 be
       0.03521663 -0.33266532 -0.06496575 -0.25098774

bias f4 [128]
000000 d6 6b b6 bd 25 40 d3 3c 4e d1 b7 3c 17 57 da bc
       -0.08907287 0.025787422 0.022438671 -0.026652856
000010 00 45 dc bc 7a b0 f0 bd c3 67 36 b9 89 77 f2 3d
       -0.02688837 -0.1175241 -0.00017395527 0.11839206
000020 5e d4 d3 3c a3 c3 a6 3d ac 46 c1 bb c0 3a 78 bb
       0.0258581 0.081427835 -0.0058983173 -0.0037876815
000030 1d 55 65 bc 2b 50 02 3d d5 ec f5 3c af ad 46 bd
       -0.013997343 0.031814735 0.030020157 -0.04850548
000040 10 84 28 3c 38 d2 76 bc 81 48 9f bc d2 cc 19 3c
       0.010285392 -0.0150647685 -0.019443752 0.009387212
000050 32 5a ee bc 40 46 ca bd 98 ff 81 bd ab ec b3 bd
       -0.029095743 -0.098766804 -0.06347579 -0.08785375
000060 c1 e0 22 3d 72 65 88 bd 46 f2 af bd c6 d3 59 3d
       0.039765123 -0.06659974 -0.08591132 0.05318048
000070 e1 df 86 3c 6a bf b6 3d 25 7f 8f bd 18 3c 93 bd
       0.016464176 0.08923228 -0.07006673 -0.07189196
000080 97 e2 7b 3d 18 42 94 3d 85 96 81 bb 0d d5 d0 3d
       0.06149539 0.07239169 -0.003954711 0.10196886
000090 4f 0a 5b 3d ca bc 65 bd 1f d4 f4 bc 2e 9a 32 3d
       0.053476628 -0.056088246 -0.029886303 0.04360407
0000a0 b8 66 03 bd c1 43 cb bd 3e da 8c bd b0 6a 7c bd
       -0.032080382 -0.099250324 -0.06877564 -0.061625183
0000b0 3c 08 52 bd 5b b0 b2 bd 2d b1 84 3c 52 e7 dd 3d
       -0.051277384 -0.087250434 0.016197765 0.108351365
0000c0 6c 04 8b 3d 4e cc a4 3d dd ca f6 bc 6b 49 85 bd
       0.06787953 0.080467805 -0.03012603 -0.06508144
0000d0 52 4c 9b 3d 5f 49 e1 bc 06 2d e4 bc 81 d5 b7 3b
       0.07582916 -0.027500806 -0.0278535 0.0056101684
0000e0 9f 3d 65 3d 3b 09 af bd ef 3f 7f 3c 50 c3 c5 bd
       0.05596697 -0.085466824 0.015579208 -0.096563935
0000f0 94 2a 4f 39 5e b9 01 bc 59 de 8d 3d 82 f6 a1 3c
       0.0001975692 -0.00791773 0.06927175 0.019770864
000100 3c 65 3a bc d5 41 c6 3c 4a ee 2c bd 4f 40 23 3c
       -0.011376675 0.024201313 -0.042219438 0.009964063
000110 77 86 ae 3c 17 f1 49 bd 41 e9 c4 bd 02 54 9d bd
       0.021304352 -0.049302187 -0.09614802 -0.07682039
000120 43 2f c5 bc 9f fa a8 3d 0c e1 10 bd 6a ee 2d 3c
       -0.024070388 0.08250927 -0.03537087 0.010615924
000130 6d 02 3c 3a 9a 2c b7 bc 27 d0 d3 3c 51 68 3c 3d
       0.00071719923 -0.022360135 0.02585609 0.04599792
000140 fd 60 46 3d a0 13 90 bd 33 9f 5e 3d 16 a7 32 3b
       0.04843234 -0.07034993 0.054351043 0.0027260236
000150 1a 6d 2b ba ab fe 04 3c da 4f 0a 3c c9 d6 84 3c
       -0.000653939 0.008117358 0.00844189 0.016215699
000160 ff 45 e5 bc 00 f6 a0 3d 8f b4 56 3d bf a9 2a bd
       -0.027987478 0.07859421 0.052418288 -0.04166579
000170 72 cd b1 3d 86 41 6e bc fe 1a 86 bd da 78 2d bd
       0.08681764 -0.014541989 -0.06548117 -0.04235158
000180 16 39 43 3c 64 e6 41 bd 8f c5 a6 3d 7c 27 85 3d
       0.011915466 -0.04733886 0.0814315 0.06501672
000190 ec 4c 7b 3d 8a 85 3c bd ae 91 4a 3c d0 40 2e bc
       0.061352655 -0.04602579 0.012363834 -0.01063557
0001a0 db df ad bd ef 0d 06 3d 4b 49 7f 3d 09 a1 e4 3c
       -0.08489963 0.03272813 0.062325757 0.027908819
0001b0 a9 3a e9 3c bb 7c 0c 3c a3 a8 ab 3b 4a e2 f5 3c
       0.028470354 0.00857466 0.005238609 0.03001513
0001c0 3a fa 65 3d d8 62 a8 bc 2c 9e 05 bd f5 5c df 3c
       0.056146838 -0.020554945 -0.032621548 0.027266005
0001d0 cb de 57 bd 7e 2e 99 bd ff 7a a9 bd 79 70 e6 3c
       -0.052702706 -0.07479571 -0.08275413 0.028129803
0001e0 87 08 26 bc 04 c0 6e 3c fb c2 76 bd 39 5e db 3c
       -0.010133869 0.014572147 -0.06024454 0.026778327
0001f0 cf c0 e6 bb ce 56 56 3d d4 78 61 3d 1b b2 fc 3c
       -0.0070420275 0.052328877 0.05504687 0.030846646

weight f4 [128, 128]
000000 88 a5 a9 3d 47 82 16 be 83 cf 36 bd 74 68 20 be
       0.08283526 -0.14698134 -0.044631492 -0.15664846
000010 13 f4 3b be 3b 70 31 be 41 30 04 be a7 78 c8 bd
       -0.18354826 -0.17327969 -0.12909032 -0.097886376
000020 0e b4 44 be f0 80 01 be 9b 27 19 3e ce e5 1d be
       -0.1920931 -0.12646842 0.14956515 -0.15419695
000030 ad a9 61 3e eb 40 8b be cb 36 07 be 27 96 10 be
       0.22037382 -0.27197966 -0.13204496 -0.14119779
000040 74 b5 b4 3d b0 12 19 3d 48 58 4c be 92 91 2b 3e
       0.08823672 0.037371337 -0.19955552 0.1675475
000050 b9 21 0f 3e b4 ce 68 3d 40 60 2c 3e a2 b3 8f 3d
       0.13977708 0.056837752 0.16833591 0.07016684
000060 44 30 25 3e d3 b7 c1 3d 3c 60 68 be 99 19 ae bd
       0.16131693 0.0945889 -0.2269296 -0.08500976
000070 0a bf ad bd 84 aa bc 3d ee e2 a0 3d 6e 61 49 be
       -0.084837034 0.09212211 0.078557834 -0.19666073
000080 45 1c 91 be 53 ca 3c 3e c2 70 5f bd 4e 1e 90 3d
       -0.2834188 0.18436556 -0.054550894 0.0703703
000090 9f c9 33 3e 8a dd 2d 3d 0b ea 31 3e 64 02 b5 3d
       0.17557381 0.042447604 0.17374437 0.088383466
0000a0 a6 fb a7 3d 73 63 60 be 44 65 69 be 86 d4 4a be
       0.08202295 -0.21912937 -0.22792536 -0.19807634
0000b0 be 42 1a 3e 23 08 30 3d 58 20 f0 3d 66 79 1d be
       0.15064523 0.04297651 0.11724919 -0.15378341
0000c0 f3 80 80 bd d8 fd 5d 3e e6 50 b6 bd 8d 3e 0d 3e
       -0.06274595 0.21678865 -0.08902149 0.13793392
0000d0 98 be c0 3d 82 5d 43 be ff 9c 2b 3e bc 55 4d 3e
       0.09411353 -0.19078639 0.16759108 0.20052236
0000e0 51 91 18 3e 90 f8 3e 3e 01 ff 90 be e4 44 4c 3e
       0.14899184 0.18649507 -0.28319553 0.19948155
0000f0 36 90 3c be 75 70 5b 3e 32 47 57 3d a4 bc 37 3e
       -0.18414387 0.21429618 0.05255813 0.17943054
000100 34 ea 4b 3e 66 8f de 3d 56 5a 32 be 78 34 5a be
       0.1991356 0.10867195 -0.17417273 -0.21309078
000110 d0 cf 21 bd b2 e5 5e 3e 74 2e 27 be 44 0f 1c be
       -0.039504826 0.2176731 -0.16326314 -0.15240198
000120 5a c5 0e bd 18 cd ab bd 51 2d eb bd fc 88 47 be
       -0.034856178 -0.08388728 -0.11483253 -0.19485849
000130 b6 b4 04 be bf 5f 0a be fc 03 18 be 37 7d c3 bd
       -0.12959561 -0.13513087 -0.1484527 -0.09545367
000140 29 f6 3b 3e f5 a7 3d 3e 68 5f 1f 3e 79 49 38 3e
       0.18355621 0.18521102 0.15563738 0.17996778
000150 eb 4a 0e 3e b3 5b 09 3e 4a 42 d2 3d 4d a7 31 3e
       0.13895766 0.13413887 0.1026655 0.17348976
000160 27 88 63 be 07 6e 31 bd c3 b7 e4 bd e4 d6 13 3d
       -0.22219907 -0.04331782 -0.11167862 0.036093608
000170 1a dd 7a be a6 79 de bd a4 d7 1b 3e 45 c0 03 bd
       -0.24498406 -0.10863046 0.15218979 -0.032165784
000180 94 ab 4b 3e cc ed 8d be 9b 73 81 be d4 ca 88 be
       0.1988967 -0.27720487 -0.25283512 -0.26717246
000190 4b 21 29 be b4 a4 5b be 36 60 32 3e 98 61 45 be
       -0.16516607 -0.21449548 0.17419514 -0.1927551
0001a0 6c 9e 39 3d 46 1d cf bd f1 ab 3e 3e db d5 18 3e
       0.0453171 -0.10113005 0.18620278 0.1492533
0001b0 83 67 05 3e 9c da 30 be c1 d9 e3 bd 91 df 09 be
       0.13027768 -0.17270893 -0.11125518 -0.1346419
0001c0 60 53 22 3e 4d 32 a6 3d 81 f2 a8 3d 73 df 52 3e
       0.15852118 0.08115063 0.08249379 0.20593052
0001d0 02 0d 0d 3e 22 b2 48 bd fb 7c f6 3d 32 d2 7e be
       0.13774493 -0.048998006 0.12035557 -0.2488487
0001e0 28 e9 0b 3e 35 fe 22 3e 3f b5 d9 bd d3 7d 3c 3e
       0.13663161 0.15917285 -0.10630273 0.18407373
0001f0 19 6e 99 3d b5 7c 28 be e1 48 3e be 8e db 1d be
       0.074917026 -0.16453822 -0.18582489 -0.15415785
000200 48 8a 1d bd 5b 1f 77 3e 4d a8 c5 3d 9b 03 3b 3e
       -0.038461953 0.24133055 0.096512415 0.18263094
000210 bd fe cd 3d f3 97 6c 3e e2 33 5f 3e d8 33 75 3e
       0.10058353 0.23104839 0.21797135 0.23945558
000220 d0 4b 33 3e 35 7c 42 3e 82 b3 3f bd bf 90 6c 3e
       0.17509389 0.18992694 -0.04680205 0.23102091
000230 2a 64 23 bd 22 4c 5a 3d 0b e2 f1 bd 8a 4f 90 3d
       -0.039890446 0.053295262 -0.118106924 0.07046421
000240 e8 41 c6 3c 59 8f 24 3c bc c9 81 3e 90 d5 c0 3d
       0.024201348 0.010043942 0.25349224 0.09415734
000250 a7 6f 82 bd 28 93 4b 3d be de 23 3d dd 85 d6 bd
       -0.06368952 0.049700886 0.040007345 -0.10474751
000260 6a 16 69 bd 95 67 b1 bc e5 19 33 3e 52 c1 86 3e
       -0.05690614 -0.021655837 0.17490347 0.26319367
000270 3e 69 7f 3e 5d 83 b8 bd 98 95 cd bd bb ba 15 3d
       0.2494249 -0.090094306 -0.10038298 0.036555033
000280 5c ef 1a 3e b0 86 7e 3d 86 1e 75 3e a3 8b 3a 3d
       0.15130371 0.062140167 0.23937425 0.045543324
000290 6b 41 5c bd bb dc 75 3d 74 70 a9 bd 03 25 35 bd
       -0.053773325 0.060024958 -0.08273402 -0.04422475
0002a0 86 c4 8a bd 20 4d 81 3d bc 97 88 3e 68 3a 1a 3e
       -0.06775765 0.063135386 0.26678264 0.15061343
0002b0 fe e6 86 bd 7c 66 83 bd ab 9f 2a 3d 0a db 91 3e
       -0.06587027 -0.06416032 0.041656177 0.28487426
0002c0 45 b2 3d 3e 89 56 8e bd 47 d5 21 3e 72 d2 c0 3c
       0.18525036 -0.06950099 0.15804015 0.023537848
0002d0 df a2 a8 bd 28 a4 c9 3d 3b 51 63 bd 38 f8 a4 3d
       -0.0823419 0.098457634 -0.05549739 0.080551565
0002e0 15 43 0a 3d 4a 03 6f 39 d0 ed 72 3d 06 18 37 3c
       0.03375538 0.00022794041 0.059308827 0.011175161
0002f0 87 15 91 3d 64 38 97 bd 46 d2 81 3c 40 96 f0 3c
       0.07084184 -0.073838025 0.015847337 0.02936852
000300 43 55 90 3d 81 c7 38 bd 79 69 5b 3e f1 1e 50 3e
       0.070475124 -0.045112137 0.21426953 0.20324303
000310 9f f4 34 3e c0 0d 08 bc 25 a5 33 3e 8f fe 27 3e
       0.1767144 -0.0083040595 0.17543466 0.164057
000320 d7 c7 12 3e b6 1b 2c 3e 21 b3 62 3e ed 1b 08 3e
       0.14334045 0.16807446 0.22138645 0.13291903
000330 01 41 3c 3e d1 8d 29 3e f7 8e 3a 3e 6c ec 60 3e
       0.18384172 0.16558005 0.182186 0.21965188
000340 88 46 4c 3d 29 2d 60 bd 80 aa cf 3c 7e 95 d1 bd
       0.04987195 -0.054730568 0.025349855 -0.102335915
000350 37 dc 1f bd b1 36 f6 bc 22 38 ac 3d cb 76 87 bd
       -0.039028373 -0.030055376 0.08409144 -0.06614455
000360 99 04 19 3e 53 d5 7f 3e ed ec 50 3e 02 f7 ae bd
       0.1494316 0.2498372 0.2040288 -0.08543207
000370 f9 eb 55 3e 04 46 5d 3e 33 52 55 3e 6f 18 7d 3e
       0.20890798 0.2160874 0.20832138 0.24716352
000380 9d a1 a8 3d bd 32 a3 3e f9 a0 80 3e 80 f3 01 3e
       0.0823395 0.31874648 0.25122812 0.12690544
000390 fc 18 4d 3e 89 27 52 3e f2 08 c0 3d 77 41 90 3e
       0.20029062 0.20522894 0.09376706 0.28174946
0003a0 af a9 e4 bd ba d9 6c 3e a8 ff a7 bc e0 c6 1d bd
       -0.11165177 0.23129931 -0.020507649 -0.03851974
0003b0 e7 68 2f bd ad 2c 5b 3e e7 18 83 3e 02 d9 8a 3e
       -0.042824652 0.21403761 0.25604936 0.2711869
0003c0 3d e0 db bc 12 e4 19 3c 47 b9 ac 3d cd b3 b7 3d
       -0.026840324 0.009392755 0.08433776 0.08969841
0003d0 73 87 b5 bd 50 da b1 bd 44 0c 20 bd 60 dc 92 3e
       -0.088637255 -0.08684218 -0.039074197 0.28683758
0003e0 15 e1 8f bd 3d ad 1c 3e 4c a3 ef 3d 7a 6d 73 3e
       -0.07025353 0.1530046 0.11701068 0.2377223
0003f0 19 d8 31 bd 71 77 20 3e d1 84 35 3e ab db 54 3e
       -0.043418977 0.15670563 0.17726447 0.20786922

weight f4 [128]
000000 3c c4 93 3f c4 c4 de 3e 1a 78 44 3f 3a 2f 98 3e
       1.1544261 0.43509495 0.7674576 0.2972353
000010 61 e7 67 3f 8c 7e 19 3f 90 1c ba 3f 97 d1 69 3f
       0.9058743 0.5995872 1.4539967 0.91335434
000020 77 dd 13 3f 0c 7c 60 3f 04 e1 84 3f d4 fd 30 3f
       0.57759804 0.8768928 1.0381169 0.6913731
000030 ee 46 82 3f bf 5a 66 3f 12 23 72 3f e5 f3 5f 3f
       1.0177896 0.8998222 0.94584763 0.8748153
000040 d8 34 83 3f cb cc 95 3f 7b 5a 3f 3f 45 a2 83 3f
       1.0250502 1.1703123 0.7474744 1.0283896
000050 fa a0 84 3f 5c 73 82 3f fc 56 88 3f 45 8f 96 3f
       1.0361626 1.0191455 1.0651546 1.1762472
000060 df d1 79 3f 4c 3c 89 3f 1b 3d 24 3f 33 a5 d6 3e
       0.9758586 1.0721526 0.6415574 0.41922912
000070 0a 65 57 3f fe f2 99 3f 16 41 92 3f 2b 90 5b 3f
       0.8413855 1.202728 1.1426113 0.8576686
000080 81 16 74 3f 63 52 83 3f 90 6b 64 3f 23 80 84 3f
       0.9534684 1.0259517 0.8922663 1.0351604
000090 cf a6 91 3f d1 6e 89 3f 56 bb 8e 3f 3b 2b 93 3f
       1.1379031 1.0736943 1.115092 1.1497568
0000a0 64 e1 91 3f fc 53 67 3f ec 57 10 3f 94 d4 40 3f
       1.1396909 0.90362525 0.5638416 0.7532437
0000b0 5d e7 86 3f 98 fd 99 3f d8 53 80 3f 89 a1 46 3f
       1.0539356 1.2030516 1.0025587 0.77590233
0000c0 ae 04 67 3f 44 ea 7c 3f 84 36 fb 3e 71 0a 81 3f
       0.90241516 0.9879496 0.4906503 1.0081311
0000d0 7d 3a 7c 3f d2 9f 68 3f 4d 05 88 3f 79 5f 7c 3f
       0.98526746 0.90868866 1.0626618 0.9858318
0000e0 c3 c1 86 3f 2f 31 8f 3f 2b 93 62 3f ec 5f 95 3f
       1.0527881 1.1186885 0.8850581 1.1669898
0000f0 53 36 60 3f 81 f3 87 3f 0d e5 82 3f f5 05 88 3f
       0.8758289 1.0621186 1.0226151 1.0626818
000100 5e 8c 82 3f 12 ad 80 3f c9 78 4e 3f bc 3b 30 3f
       1.0199087 1.0052817 0.80653054 0.6884115
000110 31 45 59 3f 6d 44 7f 3f 9b 90 3c 3f db 13 6d 3f
       0.848712 0.99713784 0.7365815 0.9260842
000120 27 ac 48 3f 50 ef f1 3e ff cf 32 3f 5c 42 4a 3f
       0.78387684 0.47252893 0.69848627 0.79007506
000130 13 02 0f 3f 97 99 55 3f 2a 93 e8 3e 8e 04 b2 3e
       0.5586254 0.83437485 0.45424777 0.347691
000140 21 05 81 3f e9 9b 7a 3f ef 2a 85 3f dc 5f 8f 3f
       1.007969 0.9789415 1.0403727 1.1201129
000150 30 ce 8a 3f 5b 37 94 3f 38 7d 87 3f ae 45 6a 3f
       1.0844173 1.1579393 1.0585089 0.9151257
000160 4d 5b 30 3f 3f f0 5c 3f 7a 1b 5b 3f 81 9a 93 3f
       0.68889314 0.86304086 0.855888 1.1531526
000170 18 0b d9 3e 93 2e 32 3f 34 44 d6 3f 19 eb 41 3f
       0.42391276 0.69602317 1.6739564 0.75749356
000180 dc 42 84 3f 4d 19 69 3f 62 b5 29 3f 54 cd 5e 3f
       1.0332904 0.9105423 0.66292393 0.87032056
000190 9a 24 63 3f 32 06 27 3f 34 e0 81 3f bb 8a 0f 3f
       0.88727725 0.6524383 1.0146546 0.5607106
0001a0 51 8c 7f 3f 8f 65 4a 3f f7 02 8a 3f c4 43 88 3f
       0.9982348 0.79061216 1.0782155 1.064568
0001b0 bd ad 87 3f b7 f8 37 3f 35 5a 00 3f 67 be 3d 3f
       1.0599896 0.71863884 0.50137645 0.74118656
0001c0 6e 41 8a 3f 2d 11 93 3f 6d 15 82 3f fc b8 85 3f
       1.0801218 1.1489617 1.0162789 1.0447078
0001d0 22 f7 90 3f 7f dc 9a 3f 43 9d 8c 3f ce ef 11 3f
       1.1325419 1.209854 1.0985492 0.5700654
0001e0 2a f4 89 3f 0d e3 c4 3f 7e 94 4b 3f 07 2a bc 3f
       1.0777638 1.538179 0.79523456 1.4700326
0001f0 84 22 97 3f 5d df 3a 3f 42 2e 56 3f b6 45 e8 3e
       1.1807408 0.72997075 0.83664334 0.45365685

bias f4 [128]
000000 59 25 06 3e 55 05 6e 3c db 25 e5 3d c5 38 1f 3c
       0.13100185 0.014527638 0.11188861 0.009718125
000010 a0 49 06 3e 32 21 aa 3c 9d 31 5c bf 14 b2 07 3e
       0.13114023 0.020767782 -0.86013204 0.13251525
000020 c6 db a1 3c 27 e6 01 3e df 95 30 bd 98 f5 bc 3c
       0.019758116 0.12685452 -0.04311168 0.023066327
000030 85 dc 20 bd 2b ba 0a 3f 73 1f cd 3f 2a 24 07 3f
       -0.039272804 0.5419032 1.6025223 0.52789557
000040 d7 dd 29 bd 3a 83 08 3e 6f 71 43 be d9 ec 35 bd
       -0.04147133 0.13331309 -0.1908624 -0.04441533
000050 32 fe 3c bd 1c a3 26 bd b0 b5 3d bd 91 86 0a 3e
       -0.046140857 -0.040682897 -0.04631585 0.13527896
000060 ba 84 26 bd 8b 7e fa 3d 89 6a bb 3c 29 81 76 3c
       -0.04065392 0.122311674 0.022877948 0.015045443
000070 6a 22 f9 3d d1 0f f1 3e 1e 93 04 3e c9 87 04 3f
       0.12164767 0.4708238 0.12946746 0.5176969
000080 fb 11 13 3f ee 56 35 bd 3c 2b 04 3e 85 8f 38 bd
       0.5744931 -0.044272356 0.12907118 -0.045058746
000090 21 3e 04 3e 21 37 45 bd 35 3f 03 3e c0 cd 06 3e
       0.12914325 -0.04814828 0.1281708 0.13164425
0000a0 2c ae 04 3e ef 80 0b 3f 8d 41 a7 3c 0f 54 0a be
       0.12957066 0.5449361 0.020417 -0.13508628
0000b0 24 3c 2f bd 9d 7b f0 3e 3a d5 38 bd a8 97 e7 3c
       -0.042781964 0.4696931 -0.045125224 0.028270558
0000c0 73 0b 07 3e 78 e2 2f bd 51 93 7c 3c 79 10 2d bd
       0.13187961 -0.042940587 0.015415982 -0.042252038
0000d0 15 4c 1a bd 73 56 06 3e 3e e7 35 bd 9a e1 25 bd
       -0.037670214 0.13118915 -0.044409983 -0.040498354
0000e0 fa 68 34 bd a8 c2 04 3e 4a cb 08 3f 33 4a 09 3e
       -0.044045426 0.1296488 0.53435194 0.13407211
0000f0 a7 76 07 3f 7e f9 29 bd 4d 6d 27 bd 5a 48 2f bd
       0.52915424 -0.0414977 -0.04087572 -0.04279361
000100 4f 80 3c bd 92 65 37 bd 91 a8 ec 3d 4d ab cd 3c
       -0.046020802 -0.0447746 0.11555589 0.025106097
000110 38 18 fa 3d 57 d5 1f bd 99 e5 e3 3e 97 0c 0f 3f
       0.122116506 -0.039021816 0.44511107 0.55878586
000120 e0 3a eb 3d b2 8b 85 3c 9b 2f d0 3c ce 13 5e be
       0.11485839 0.016301963 0.025413325 -0.21687242
000130 0a 85 98 3c b2 5c f8 3d f0 73 6b 3c d1 e8 42 3c
       0.018618125 0.12127055 0.014370903 0.011896328
000140 46 71 33 bd f1 ff 9b 3d 7e 44 3d bd 25 a2 03 3e
       -0.043809198 0.07617176 -0.046207897 0.12854822
000150 5c b6 3c bd 17 a2 06 3e 09 5a 42 bd a8 e2 13 bd
       -0.04607235 0.1314777 -0.047449145 -0.036104828
000160 ed cd c7 3c a0 21 fd 3d 97 a2 fd 3d bf 82 06 3e
       0.024390185 0.12359929 0.12384527 0.13135813
000170 9d 9f 60 3c 01 e7 ab 3c c5 41 57 bf 29 7f e2 3d
       0.01370993 0.020984175 -0.8408473 0.1105941
000180 18 47 36 bd 0f 02 c1 be 59 a4 b4 3c b1 69 06 3f
       -0.044501394 -0.37696883 0.022051023 0.5250502
000190 9d 1c 02 3e 0c 13 c3 3c d9 54 33 bd 55 d6 a4 3c
       0.12706228 0.023812793 -0.04378209 0.020121733
0001a0 d3 51 eb 3d 50 76 ed 3d 57 c5 fc 3d 22 15 41 bd
       0.11490216 0.11594832 0.12342327 -0.047139294
0001b0 01 47 34 bd df 15 d5 3d c4 a5 92 3c 2e c8 da 3c
       -0.044013027 0.10404562 0.017901309 0.026706781
0001c0 4b 64 30 bd 7a bf 06 3e a6 87 28 bd b5 c0 3a bd
       -0.043064397 0.1315898 -0.04114499 -0.045593936
0001d0 af 4b 03 3e c4 0c f2 3e b6 5a 40 bd 29 0b 98 3c
       0.1282184 0.47275364 -0.04696151 0.01856001
0001e0 ac fd fb 3d 5c f0 2a bf d8 6c ed 3d 7d d5 22 bf
       0.123042434 -0.6677301 0.11593026 -0.6360701
0001f0 c9 30 0a 3e fc 6a d7 3c 8c df f7 3d 9f 8b 70 3c
       0.13495173 0.026296131 0.12103185 0.014681726

running_mean f4 [128]
000000 3b de 7a c0 9a fb 97 40 19 58 3b 41 80 8c aa 40
       -3.9198139 4.749463 11.709008 5.329651
000010 2e f4 43 41 6a 3d db 40 24 cc 8e c0 5a 9e 31 41
       12.247114 6.851247 -4.4624195 11.10116
000020 0c 18 d2 40 4e cf b4 40 09 76 50 c0 7d e7 b5 40
       6.5654354 5.6503057 -3.2572043 5.684508
000030 92 30 3e c0 e7 e9 25 41 be 93 a1 c0 8e f0 18 41
       -2.9717145 10.369605 -5.049285 9.558729
000040 a9 da 30 c0 88 79 b8 c0 81 6f e6 40 74 48 89 c0
       -2.763346 -5.7648354 7.2011113 -4.2900944
000050 c3 76 d2 c0 ad 73 9b c0 1a 21 cf c0 69 24 37 c1
       -6.5769973 -4.8578706 -6.4727907 -11.446389
000060 1e a6 37 c0 ef 13 b9 c0 92 47 aa 40 e0 ae b0 40
       -2.869514 -5.7836833 5.3212366 5.521347
000070 51 a0 23 41 05 f4 b5 c0 f3 4f 0d c1 83 e0 38 41
       10.22664 -5.6860375 -8.832019 11.554812
000080 49 80 58 41 e0 87 2e c0 ea e8 2e 41 25 e6 4b c0
       13.53132 -2.7270432 10.931864 -3.185922
000090 bd bc c6 c0 f2 f9 b0 c0 b7 77 ba c0 88 04 d9 c0
       -6.2105393 -5.530511 -5.8271136 -6.781803
0000a0 cc ce b9 c0 35 76 ee 40 b1 58 81 40 48 fa dc 40
       -5.8064938 7.4519296 4.0420766 6.905552
0000b0 13 4c 46 c0 3f 93 4a c1 74 37 90 c0 74 a5 db 40
       -3.0983932 -12.660949 -4.506769 6.863947
0000c0 87 0b 67 41 a1 ca 74 c0 1e d1 84 40 90 51 b8 c0
       14.440314 -3.8248675 4.150527 -5.7599564
0000d0 4a 71 84 c0 fe b7 0a 41 3b f3 29 c0 8e ab 37 c0
       -4.138829 8.66992 -2.6554706 -2.8698459
0000e0 f3 27 4e c0 af 8c 9b c0 2b 15 f8 40 4a c7 b8 c0
       -3.2211883 -4.8609233 7.752584 -5.7743273
0000f0 7f 6d bc 40 a5 80 18 c0 24 68 38 c0 c3 59 d7 c0
       5.888366 -2.3828518 -2.8813562 -6.7297072
000100 da a5 37 c0 77 03 36 c0 b8 a8 06 41 09 b4 e6 40
       -2.8694978 -2.8439615 8.416191 7.209477
000110 9f 83 26 41 16 27 2d c0 10 bb e7 40 87 4c 1d 41
       10.407134 -2.7055106 7.241585 9.831183
000120 a1 7c 2a 41 03 93 c3 40 39 2b db 40 04 a5 4c 41
       10.655427 6.111696 6.849026 12.790287
000130 b0 13 fb 40 2d 13 02 41 c7 c3 cc 40 0d b7 94 40
       7.8461533 8.129682 6.3988986 4.647345
000140 99 ff 43 c0 f8 f4 59 c0 cd dd 71 c0 e3 db 44 c0
       -3.0624754 -3.4055767 -3.7791626 -3.0759208
000150 c7 33 8b c0 45 c4 2e c0 e6 07 bf c0 75 82 10 c0
       -4.3500705 -2.7307293 -5.969714 -2.2579625
000160 bd 40 f2 40 67 85 fc 40 44 fd df 40 0a 44 d0 c0
       7.5704026 7.8912845 6.999666 -6.5083055
000170 f6 a0 b4 40 68 e8 ee 40 5b 1c 26 c1 6b 61 0c 41
       5.6446486 7.46587 -10.381923 8.773784
000180 8d b0 85 c0 5a 90 72 41 38 6c d3 40 77 12 f2 40
       -4.1778016 15.160242 6.6069603 7.564754
000190 e9 c2 2e 41 d6 22 a2 40 d5 b6 7c c0 5a 09 cc 40
       10.9225855 5.0667524 -3.9486592 6.3761415
0001a0 0c 7d ee bf 14 1e 00 41 3e fe 08 c1 6f 1f dd c0
       -1.8631911 8.007343 -8.562071 -6.910087
0001b0 3d 26 d7 c0 6b c7 f1 40 13 4d c7 40 80 64 86 40
       -6.7234178 7.555593 6.2281585 4.199768
0001c0 61 45 25 c0 99 56 1a c0 85 5b 18 c0 b5 04 44 c0
       -2.5823596 -2.4115355 -2.380586 -3.0627873
0001d0 58 a2 c6 c0 de 97 97 c0 1c 18 93 c0 5b b3 fe 40
       -6.2073174 -4.7372885 -4.596693 7.959394
0001e0 77 25 ac c0 1b a8 e2 c0 37 dd 36 41 6c 28 18 c1
       -5.3795733 -7.0830207 11.429008 -9.509869
0001f0 f7 7b 71 c1 b4 5b bf 40 48 fe 07 41 92 04 ef 3f
       -15.092765 5.979944 8.49958 1.867327

running_var f4 [128]
000000 08 28 8b 41 98 53 92 41 13 a1 b3 42 a1 62 7e 41
       17.394547 18.290817 89.8146 15.899079
000010 ca 8e b2 42 ce 16 9c 41 89 f3 37 42 c6 0f bc 42
       89.278885 19.511135 45.987827 94.03081
000020 b3 fa f0 41 d6 84 de 41 16 0d fa 40 bc c2 d0 41
       30.122412 27.814861 7.8140974 26.095085
000030 2a db c9 40 e4 e4 97 42 ef 94 0d 42 9f 17 71 42
       6.3080034 75.94705 35.395443 60.273067
000040 de 7a f1 40 cd 1d 83 41 47 dd 2f 42 e5 6e f0 40
       7.5462484 16.389551 43.96609 7.513537
000050 23 5c a2 41 7f d7 e8 40 76 2e d2 41 a8 90 a0 42
       20.294989 7.2763057 26.272686 80.28253
000060 8e 0f bf 40 23 f4 41 41 fe b0 b2 41 de 1b ca 41
       5.970649 12.122104 22.336422 25.263607
000070 36 02 9a 42 99 a0 88 41 0b d3 72 42 fb 35 cc 42
       77.00432 17.078417 60.706097 102.10543
000080 e8 93 15 43 1d 7e 0d 41 f1 21 a9 42 8f 3e d1 40
       149.57776 8.843289 84.56629 6.5388865
000090 7b dc 93 41 70 af 17 41 af d5 80 41 cc cc c9 41
       18.482656 9.480331 16.104338 25.224998
0000a0 d6 3e 6b 41 b7 6b 1e 42 96 7a 6f 41 9d 62 cf 41
       14.702841 39.60519 14.967428 25.923151
0000b0 c1 b9 ea 40 4d 73 bf 42 9e 4a 5c 41 9f 71 ed 41
       7.335175 95.7252 13.768217 29.68048
0000c0 b6 74 19 43 f4 dd 3e 41 16 8e 8a 41 fd 74 96 41
       153.4559 11.929188 17.319378 18.807123
0000d0 d5 e8 39 41 78 95 6e 42 45 2a c6 40 8c 8f ab 40
       11.619344 59.645966 6.19266 5.361273
0000e0 8c 05 d5 40 9b 6a 38 41 eb 46 3c 42 87 22 62 41
       6.656927 11.526027 47.069256 14.13343
0000f0 1c 8f 18 42 7b d9 cd 40 66 9a f4 40 c8 6f 06 42
       38.139755 6.432798 7.6438475 33.60916
000100 59 75 f7 40 a5 72 fb 40 43 4b 25 42 4b e2 cc 41
       7.7330747 7.8577447 41.323498 25.610495
000110 7a d7 8c 42 8b f7 d9 40 23 4f 08 42 57 a2 3f 42
       70.42085 6.8114676 34.077282 47.908535
000120 33 73 ab 42 3e 70 eb 41 cd c3 26 42 f9 68 d6 42
       85.725 29.429806 41.69121 107.205025
000130 7b 1c 21 42 57 4e 3a 42 1c 0b c7 41 17 60 4b 41
       40.277813 46.576504 24.880424 12.710959
000140 e4 fc be 40 99 92 ad 40 c3 50 db 40 fd 53 57 41
       5.9683704 5.424145 6.8536086 13.458005
000150 25 a3 f6 40 1a 7f aa 40 d7 bf 30 41 66 fd 9f 40
       7.707415 5.3280153 11.046836 4.9996824
000160 31 4b 56 42 95 3d 44 42 81 cb d1 41 9f b0 dd 41
       53.57343 49.06014 26.224367 27.71124
000170 18 70 d3 41 41 2e f8 41 ca 39 4e 42 2f ff 58 42
       26.429733 31.022585 51.556435 54.249203
000180 0a 56 ea 40 53 6c 23 43 8b c8 ca 41 95 f7 c9 41
       7.323003 163.42314 25.347921 25.24589
000190 12 69 b3 42 78 9b e3 41 8f 4e d7 40 d2 69 ea 41
       89.705215 28.450912 6.7283397 29.30167
0001a0 eb c7 d8 40 0f f3 32 42 ab 8d 0a 42 fe 5f ef 41
       6.774404 44.737362 34.638348 29.921871
0001b0 bc 4d 05 42 d0 d5 45 42 e1 eb a6 41 4b 08 e6 41
       33.325912 49.4588 20.865175 28.75405
0001c0 67 6c d0 40 f2 f1 56 40 86 f4 e3 40 22 32 de 40
       6.5132327 3.3585172 7.123599 6.9436197
0001d0 2a 8c a7 41 2c bb a0 41 c3 8e f2 40 43 30 0e 42
       20.94344 20.091393 7.579927 35.54713
0001e0 0a 4a bf 41 8b bd 18 42 8a 6a cd 42 7d 10 73 42
       23.911152 38.1851 102.708084 60.7661
0001f0 2a 35 09 43 b0 03 da 41 e3 22 62 42 e3 fe f2 40
       137.20767 27.2518 56.53407 7.593614
