Graph Neural Network/Models/BasicLayers-1.pt (torch, 171903 bytes, 22 tensors)

weight f4 [80, 1]
-0.58295333 -0.47255495 -0.9904437 -0.44451055 0.13263883 -0.39802852 0.8840856 0.32738382
0.6256256 -0.79378515 0.31511834 -0.833471 -0.43137988 0.115352854 0.8891148 0.70208544
0.3043441 0.94848746 -0.6749824 0.10878765 -0.8663285 0.31410807 -0.81370986 -0.11068698
-0.4845661 0.34720978 0.37978557 -0.122152284 -0.42255214 -0.67361134 0.592941 0.20007603
-0.38021562 -0.4310517 -0.62146163 0.80546236 0.155739 1.0134841 -0.49757266 -0.5525806
-0.45630252 0.29427347 -0.99173146 -0.39519048 0.29776654 0.0867053 -0.99533993 0.8900502
-0.56146634 0.95340014 -0.70403326 0.82013816 -0.39681813 -0.42221582 -0.569021 -0.40721473
-1.011279 0.50757635 0.3022966 -0.42939845 -0.5625438 -0.446536 0.35316396 0.17787522
-0.86229354 -0.70897865 0.42875874 -0.4182968 0.19674784 0.11660971 0.20131838 -0.5562435
0.4823183 -0.45605966 -0.72310364 0.3774025 0.117170915 0.8375467 -0.9085973 0.91402483
00000000: 6e3c 15bf b9f2 f1be b88d 7dbf e396 e3be
00000010: 79d2 073e 65ca cbbe 6f53 623f da9e a73e
00000020: 0029 203f 8135 4bbf 3157 a13e 5b5e 55bf
00000030: d3dd dcbe 1e3e ec3d 079d 633f dfbb 333f
00000040: fdd2 9b3e 13d0 723f a6cb 2cbf 0fcc de3d
00000050: b4c7 5dbf c6d2 a03e 4a4f 50bf dbaf e2bd
00000060: 0c19 f8be 7bc5 b13e 4173 c23e fa2a fabd
00000070: c158 d8be cb71 2cbf fbca 173f bbe0 4c3e
00000080: 9fab c2be cfb2 dcbe 1c18 1fbf c832 4e3f
00000090: 0b7a 1f3e d9b9 813f d8c1 febe ec75 0dbf
000000a0: 7ca0 e9be 03ab 963e 1de2 7dbf 6856 cabe
000000b0: db74 983e 8c92 b13d 99ce 7ebf 54da 633f
000000c0: 42bc 0fbf 0812 743f 863b 34bf 93f4 513f
000000d0: bf2b cbbe ac2c d8be 5cab 11bf 737e d0be
000000e0: 9771 81bf 86f0 013f 9fc6 9a3e 1dda dbbe
000000f0: df02 10bf 5ea0 e4be e8d1 b43e ec24 363e
00000100: 45bf 5cbf a07f 35bf 4486 db3e 002b d6be
00000110: 4478 493e 12d1 ee3d 6826 4e3e f965 0ebf
00000120: 6df2 f63e a780 e9be 521d 39bf e73a c13e
00000130: 4ef7 ef3d 7669 563f d599 68bf 88fd 693f

bias f4 [80]
0.07077547 -0.2612448 0.8012936 0.43534237 -0.33317068 0.4721123 -0.14010227 -0.92484224
-0.33894575 0.13418831 0.37889093 0.6613896 -0.18937398 0.18366839 -0.66141814 0.9410516
-0.25363204 0.13010421 0.8745253 -0.83940864 -0.21195006 0.7648937 0.79304594 0.8987011
-0.21736577 0.84621626 0.5516864 -0.78264815 0.025347246 -0.8891432 0.47195062 -0.326295
0.42499962 0.2315736 0.83061135 0.29332256 -0.017124655 0.1619626 0.14469042 0.18086293
0.50601465 -0.34042764 -0.7514566 0.4382167 -0.45208052 0.33702227 0.5372049 0.1290764
0.82760763 0.9352538 0.9580711 -0.18945907 0.67909026 -0.22113869 0.84187746 0.33944562
0.33755136 0.3178963 -0.12812497 0.8933394 0.54799974 -0.21795276 -0.35582763 0.5933819
0.28648543 0.945941 0.8289655 0.14344208 -0.56995636 -0.40124097 0.4333314 -0.6297608
0.664353 0.33115828 -0.15258527 -0.3018982 -0.3590352 -0.61859524 0.7546547 -0.16473532
00000000: bbf2 903d e1c1 85be 9421 4d3f 32e5 de3e
00000010: 5995 aabe b4b8 f13e f876 0fbe 76c2 6cbf
00000020: 4c8a adbe a968 093e fefd c13e d450 293f
00000030: 41eb 41be 9113 3c3e b352 29bf c2e8 703f
00000040: 0fdc 81be 0a3a 053e e4e0 5f3f 7ce3 56bf
00000050: 7009 59be 13d0 433f 0f05 4b3f 4611 663f
00000060: 2295 5ebe a1a1 583f 523b 0d3f a15b 48bf
00000070: 07a5 cf3c e49e 63bf 83a3 f13e 2310 a7be
00000080: 8d99 d93e a121 6d3e f2a2 543f 602e 963e
00000090: 0149 8cbc 86d9 253e ba29 143e 2234 393e
000000a0: 2d8a 013f 884c aebe 765f 40bf f05d e03e
000000b0: 1977 e7be 2f8e ac3e 4386 093f 9b2c 043e
000000c0: 18de 533f cb6c 6f3f 2644 753f 8f01 42be
000000d0: dcd8 2d3f 2e72 62be 4885 573f d1cb ad3e
000000e0: 88d3 ac3e 4ec3 a23e 3133 03be e4b1 643f
000000f0: b649 0c3f 022f 5fbe 0a2f b6be e0e7 173f
00000100: 38ae 923e 3029 723f 1537 543f 7be2 123e
00000110: a9e8 11bf 756f cdbe 9ddd dd3e 0138 21bf
00000120: 0a13 2a3f 948d a93e 503f 1cbe 6792 9abe
00000130: 76d3 b7be 425c 1ebf 0d31 413f 60b0 28be

weight f4 [80, 1]
-0.89389294 0.9789648 -0.3390906 0.24740891 1.0001326 0.91884124 -0.9520982 -0.19454522
-0.33282143 -0.063445136 -0.60062736 -0.2724846 -0.1581675 -0.960101 -0.3205542 0.089547604
0.2978056 -0.23426278 0.71460485 0.09482721 0.8446307 -0.8751761 0.41054147 0.2293983
0.6329974 0.9556974 -0.30292445 -0.07047092 0.4498507 0.80155516 -0.48749647 -0.9546305
0.97442514 -0.9628512 -0.24439283 -0.6179849 0.9032516 -0.51692694 0.5187866 -0.6214059
-0.46698764 -0.5667224 0.38410926 -0.5243198 0.71544236 0.008913655 -0.75861555 0.6135516
0.33353305 0.90871584 0.02853556 0.35783756 -0.27109677 0.96537286 -0.07424703 -0.11353976
0.93488926 -0.2443377 0.35724133 -0.3612084 0.36477086 -0.55093616 0.48382765 -0.26722735
0.8765486 -1.0009629 0.99952483 -0.94797426 -0.18014975 -0.53521866 0.34190357 -0.4304296
-0.8198837 -0.32291758 -0.7151405 0.2568027 0.114704266 -0.040030796 -0.22796445 -0.28812864
00000000: 2bd6 64bf 709d 7a3f 489d adbe c358 7d3e
00000010: 5804 803f 2e39 6b3f b5bc 73bf dd36 47be
00000020: 9267 aabe 86ef 81bd b7c2 19bf 1a83 8bbe
00000030: a9f6 21be 2ec9 75bf ae1f a4be bc64 b73d
00000040: fa79 983e 95e2 6fbe 58f0 363f c534 c23d
00000050: b839 583f 8a0b 60bf 7e32 d23e 63e7 6a3e
00000060: 1e0c 223f 96a8 743f ea18 9bbe 0f53 90bd
00000070: d552 e63e b832 4d3f 2399 f9be aa62 74bf
00000080: ed73 793f 6b7d 76bf 1d42 7abe 4234 1ebf
00000090: 7f3b 673f 5355 04bf 33cf 043f 7514 1fbf
000000a0: 0119 efbe b814 11bf f8a9 c43e d339 06bf
000000b0: 3b27 373f 940a 123c a134 42bf b811 1d3f
000000c0: d8c4 aa3e 9aa1 683f 68c3 e93c 7c36 b73e
000000d0: 32cd 8abe ad22 773f d40e 98bd 8987 e8bd
000000e0: e754 6f3f a933 7abe 56e8 b63e 4ff0 b8be
000000f0: 3fc3 ba3e 270a 0dbf 42b8 f73e 06d2 88be
00000100: 7d65 603f 8d1f 80bf dce0 7f3f 71ae 72bf
00000110: 2d79 38be 1704 09bf fc0d af3e 4561 dcbe
00000120: e6e3 51bf 7455 a5be 7313 37bf a57b 833e
00000130: 12ea ea3d 55f7 23bd 836f 69be 9985 93be

weight f4 [80]
0.85165876 0.7296529 0.69290763 0.76115936 0.64372516 0.5985812 0.91042113 1.110257
0.5654041 0.94328034 0.88694453 0.87659913 0.5020549 0.5120747 0.6429083 0.6258253
0.9147656 0.99592394 1.1630435 0.599 0.8082855 0.82356995 0.8956902 0.32865927
0.8843643 0.9380353 0.63468766 0.3624896 0.68915236 1.1274223 0.5016435 0.52628106
0.4447554 1.0883857 0.6375607 0.5165402 0.677249 0.8535847 0.53104174 0.6563163
1.108268 1.7100544 0.83156073 1.0942401 0.86461747 0.6225371 0.7359717 1.7696573
0.49222007 1.031737 0.41055295 0.6015031 0.6093616 0.5129984 0.5533042 1.0847577
1.0451664 1.8588257 1.0347815 0.55385715 0.9268721 0.6914736 0.83904684 0.7180583
0.7278322 0.40855175 0.8292973 0.67257047 0.5316182 0.6150851 0.6845804 0.775786
0.87228197 1.039244 0.9138668 0.7830963 0.6695812 0.51205826 0.66817176 0.9243584
00000000: 4f06 5a3f 88ca 3a3f 6562 313f 57db 423f
00000010: 2ccb 243f 9e3c 193f 5c11 693f e71c 8e3f
00000020: 53be 103f d27a 713f cc0e 633f cd68 603f
00000030: ac86 003f 5417 033f a395 243f 1636 203f
00000040: 142e 6a3f dff4 7e3f 9cde 943f 1058 193f
00000050: cceb 4e3f 7bd5 523f f44b 653f 0746 a83e
00000060: b365 623f 1523 703f e47a 223f 3d98 b93e
00000070: 4a6c 303f 604f 903f b56b 003f 5bba 063f
00000080: fbb6 e33e 3950 8b3f 2e37 233f fb3b 043f
00000090: 3160 2d3f 8784 5a3f 5af2 073f 5804 283f
000000a0: badb 8d3f 10e3 da3f 2ae1 543f 0f10 8c3f
000000b0: 9257 5d3f 975e 1f3f a468 3c3f 2184 e23f
000000c0: 4504 fc3e f50f 843f ff33 d23e 1bfc 193f
000000d0: 1fff 1b3f dd53 033f 58a5 0d3f 57d9 8a3f
000000e0: 03c8 853f 00ee ed3f b873 843f 95c9 0d3f
000000f0: 7d47 6d3f 6a04 313f c6cb 563f abd2 373f
00000100: 3653 3a3f b22d d13e d44c 543f 942d 2c3f
00000110: 2118 083f 3876 1d3f a940 2f3f e999 463f
00000120: df4d 5f3f f305 853f 2df3 693f 0079 483f
00000130: ac69 2b3f 4016 033f 4e0d 2b3f c1a2 6c3f

bias f4 [80]
-0.34144136 0.18583089 -0.27369043 0.6102225 0.043457463 0.3213308 0.8001138 0.6549523
0.026574006 -0.35367557 0.5298395 -0.35041583 0.121937744 -0.0126233855 0.029073905 0.029886631
0.80230397 0.33736426 -1.0910834 0.03509489 -0.2981143 0.093476124 -0.3596848 -0.20512667
-0.34786105 0.55005014 0.03795763 -0.20009401 -0.034514185 -1.0726752 -0.0051820534 0.038650863
0.123390846 -0.9517197 -0.054666873 0.02128309 0.042959422 0.28667054 0.13492079 0.3565882
-1.0451527 -1.3287995 -0.33928415 -1.0399411 0.75022817 0.022298943 0.5934009 -1.4290283
-0.010775073 -0.24698055 0.10156641 0.030171713 -0.019989207 0.13493674 0.1392931 -0.9373896
-0.4109398 -1.0791297 0.61804247 0.13956928 -0.8290298 0.36836174 0.49804252 0.23553038
-0.1362557 -0.018774293 -0.21494778 0.36037204 0.042575408 0.018252354 0.049757693 0.4119768
0.73323363 -0.9908965 -0.7347318 0.038000505 0.034845598 0.008498062 0.16041735 0.30456862
00000000: 67d1 aebe 744a 3e3e 2721 8cbe 8b37 1c3f
00000010: 7400 323d 7885 a43e 42d4 4c3f f4aa 273f
00000020: bbb1 d93c f714 b5be 90a3 073f b469 b3be
00000030: 7fba f93d 51d2 4ebc 662c ee3c cfd4 f43c
00000040: cb63 4d3f 02bb ac3e 9fa8 8bbf a9bf 0f3d
00000050: 70a2 98be 6970 bf3d 9b28 b8be ba0c 52be
00000060: d81a b2be 16d0 0c3f 7679 1b3d 72e5 4cbe
00000070: bf5e 0dbd 6c4d 89bf 37ce a9bb 5e50 1e3d
00000080: 57b4 fc3d e7a3 73bf 5fea 5fbd e059 ae3c
00000090: 38f6 2f3d 7bc6 923e ad28 0a3e bb92 b63e
000000a0: 90c7 85bf 1a16 aabf a7b6 adbe ca1c 85bf
000000b0: f40e 403f 46ac b63c 1fe9 173f 66ea b6bf
000000c0: ef89 30bc 78e8 7cbe 0d02 d03d ab2a f73c
000000d0: 68c0 a3bc db2c 0a3e daa2 0e3e c4f8 6fbf
000000e0: b466 d2be ec20 8abf 0838 1e3f 40eb 0e3e
000000f0: 4c3b 54bf e999 bc3e 6eff fe3e e02e 713e
00000100: 9d86 0bbe 8ccc 99bc 451b 5cbe af82 b83e
00000110: 8d63 2e3d f685 953c b9ce 4b3d a0ee d23e
00000120: 33b5 3b3f 65ab 7dbf 6217 3cbf 6ba6 1b3d
00000130: 42ba 0e3d 753b 0b3c 7244 243e 6bf0 9b3e

running_mean f4 [80]
-3.3154342 -1.3028617 -3.7724235 -1.2174122 1.2384081 -0.31055367 2.6873105 0.2792082
2.003138 -3.3229895 1.1249225 -3.174588 -2.192052 -0.27867022 2.8196647 4.0326805
1.3439382 3.9516122 -1.2944674 -0.2761557 -3.0711997 1.2323612 -2.2752166 0.6504755
-1.6555221 3.28599 1.8739325 -1.380245 -1.3303987 -2.9656243 2.519581 -0.42373613
-0.22636624 -2.5728257 -2.0708525 3.1190782 1.5547367 3.9781284 -1.4635617 -2.8029833
-1.9063942 0.3549825 -4.607435 -1.7675425 1.5349197 0.72693795 -4.4768896 4.548602
-1.2396833 5.920579 -2.023409 3.6749065 -1.2883595 -1.0606363 -1.6650618 -1.5137506
-3.0512562 2.245893 1.5222683 -1.3034319 -1.4916594 -2.6782491 1.6384377 1.0853876
-2.5236013 -3.0860736 3.659963 -2.5927298 0.0905456 -0.43646455 1.6401047 -3.4380548
1.9064094 -1.9354836 -3.9592824 1.5691831 0.26069045 2.9224937 -3.3581026 3.455462
00000000: 1330 54c0 2cc4 a6bf 636f 71c0 2ad4 9bbf
00000010: 2884 9e3f e400 9fbe e5fc 2b40 61f4 8e3e
00000020: 6a33 0040 dcab 54c0 76fd 8f3f 732c 4bc0
00000030: 944a 0cc0 ddad 8ebe 6375 3440 b80b 8140
00000040: 2b06 ac3f 37e7 7c40 1cb1 a5bf 4864 8dbe
00000050: 898e 44c0 03be 9d3f 269d 11c0 9085 263f
00000060: 26e8 d3bf a94d 5240 05dd ef3f deab b0bf
00000070: 814a aabf cacc 3dc0 d140 2140 f1f3 d8be
00000080: 8dcc 67be 2da9 24c0 d988 04c0 fa9e 4740
00000090: 9d01 c73f a899 7e40 fd55 bbbf 1464 33c0
000000a0: ba04 f4bf 44c0 b53e 1c70 93c0 d53e e2bf
000000b0: 4078 c43f 9b18 3a3f ae42 8fc0 268e 9140
000000c0: f1ad 9ebf 6275 bd40 887f 01c0 ab31 6b40
000000d0: f7e8 a4bf eec2 87bf bf20 d5bf 94c2 c1bf
000000e0: c847 43c0 b6bc 0f40 b0d9 c23f dbd6 a6bf
000000f0: b2ee bebf 6f68 2bc0 54b8 d13f fbed 8a3f
00000100: af82 21c0 3b82 45c0 d53c 6a40 49ef 25c0
00000110: f96f b93d 4878 dfbe f3ee d13f 1709 5cc0
00000120: 3905 f43f edbd f7bf e264 7dc0 feda c83f
00000130: 3879 853e 230a 3b40 27eb 56c0 4a26 5d40

running_var f4 [80]
4.448092 2.9237132 12.841025 2.585533 0.23388076 2.0731466 10.2292385 1.4009162
5.1236424 8.24758 1.2984929 9.093303 2.4362428 0.17744221 10.34925 6.4538054
1.2095428 11.779049 5.954439 0.15714934 9.823802 1.2907147 8.666131 0.16337103
3.071799 1.5774888 1.8912138 0.19895312 2.3346298 5.9315515 4.6022186 0.52615476
1.89278 2.4285412 5.055643 8.492386 0.32012916 13.445079 3.239812 3.996577
2.710306 1.1406653 12.874292 2.024596 1.1577269 0.104016244 12.967798 10.372763
4.1275105 11.900495 6.487973 8.804907 2.0606503 2.33268 4.237792 2.1672113
13.386727 3.3791332 1.1972724 2.4127192 4.140067 2.6105292 1.6334786 0.4128547
9.732586 6.578909 2.402039 2.28982 0.5061497 0.1790587 0.5356684 4.048966
3.0441947 2.7053876 6.844274 1.8660865 0.1826985 9.183495 10.80697 10.938275
00000000: c556 8e40 1e1e 3b40 d774 4d41 5f79 2540
00000010: 707e 6f3e 6fae 0440 f6aa 2341 3951 b33f
00000020: e1f4 a340 16f6 0341 0435 a63f 2b7e 1141
00000030: 67eb 1b40 69b3 353e 8796 2541 9385 ce40
00000040: 4cd2 9a3f fc76 3c41 c48a be40 c2eb 203e
00000050: 4b2e 1d41 2436 a53f 79a8 0a41 bc4a 273e
00000060: 5b98 4440 27eb c93f 4b13 f23f 5eba 4b3e
00000070: 936a 1540 45cf bd40 6045 9340 14b2 063f
00000080: 9d46 f23f 386d 1b40 d4c7 a140 d0e0 0741
00000090: f8e7 a33e 0b1f 5741 1459 4f40 ebc7 7f40
000000a0: a775 2d40 5201 923f 1afd 4d41 fb92 0140
000000b0: 6530 943f 7806 d53d 1a7c 4f41 d6f6 2541
000000c0: 9114 8440 6d68 3e41 7a9d cf40 e6e0 0c41
000000d0: b2e1 0340 a14a 1540 fe9b 8740 97b3 0a40
000000e0: 0930 5641 b843 5840 3940 993f fe69 1a40
000000f0: 6e7b 8440 e912 2740 d415 d13f b161 d33e
00000100: acb8 1b41 6c86 d240 02bb 1940 698c 1240
00000110: 0793 013f 2a5b 373e 9021 093f 2191 8140
00000120: 16d4 4240 1225 2d40 4b04 db40 ecdb ee3f
00000130: 5115 3b3e 98ef 1241 59e9 2c41 2d03 2f41

weight f4 [80, 80]
0.17299752 0.14795624 0.05301088 0.09856752 -0.22818133 0.14882319 -0.14307016 -0.1606747
-0.10600119 0.115937404 -0.20053335 0.3075517 0.039174072 0.018295875 0.20404549 -0.16908687
-0.40889797 -0.24847084 -0.037180193 -0.1404697 0.1910198 -0.08168692 0.3491345 -0.06998994
0.16633554 -0.12664467 -0.11580972 -0.01683314 0.15680043 -0.1286443 0.05998601 0.00039364284
0.18836136 0.05302362 0.16413398 -0.13382722 0.051701233 -0.2212637 0.08395388 0.12809524
-0.09180275 0.32645604 0.19208959 -0.32344365 -0.14629662 -0.14448918 0.050369985 0.62880695
0.12575853 0.043582287 0.14281656 -0.08180637 0.03244737 0.04653377 0.14544417 -0.00048436606
0.08284165 0.3175492 -0.019378835 0.11971672 0.20632344 0.043523446 -0.17132074 -0.11115277
0.16509499 0.06284101 0.12925535 0.11670283 -0.1423813 -0.2303689 -0.17184705 0.07496126
0.016514357 -0.0227707 0.31748495 -0.12433026 -0.114750855 -0.08619506 0.084339984 -0.14784731
-0.39084336 0.0070205186 -0.27141067 0.03749477 0.24688049 -0.018986974 0.88252836 0.7475038
0.19303109 -0.52974737 1.0597249 -0.2659985 -0.11065271 0.15377556 0.043851614 0.23151688
0.753597 0.25420585 0.6888877 0.37805292 -0.3944921 0.33824027 -0.5228575 0.15094887
-0.34695134 0.56969696 0.21303247 0.45182 -0.4478309 0.32608753 0.27419963 0.2528226
-0.14123702 0.14136416 -0.4669457 0.34938642 0.054133106 0.5059282 -0.12292885 -0.04960862
0.4899712 -0.38693362 -0.31836182 0.5901325 0.7877671 0.31150752 0.18877774 -0.399041
-0.33874866 0.23684923 -0.0970159 0.1237272 -0.27229702 -0.006053087 -0.03512829 0.37913296
-0.33244765 -0.38411167 0.82696563 -0.03221022 0.15152025 0.11227881 0.9933958 0.65839845
-0.42423773 -0.19381976 0.031930797 0.025014242 0.2501934 0.2401517 0.40591738 -0.08493408
0.71169615 0.47870296 -0.03571968 0.25358346 0.3394919 0.24562824 -0.01032811 0.59011155
-1.2957982 -0.6379915 -0.6946086 -0.30906835 -0.18689281 -0.47633046 0.15908733 0.06896112
-0.116566 -0.85686105 0.20266436 -1.2488467 -0.55623096 -0.23644277 -0.18871701 -0.1869684
0.18685795 0.02152993 -0.91465884 -0.12567382 -1.0947437 -0.17374755 -0.7323536 -0.3083125
-0.9875202 0.1405816 -0.16210385 -0.2617975 -0.55222166 -0.89528424 -0.14962149 -0.22243528
-0.5662326 -0.97804445 -0.406297 -0.19207203 -0.19144608 -0.064868756 -0.47652143 -0.41068044
-0.86755484 -0.62056106 -1.1785082 -0.8681332 0.21922275 -0.18795064 -0.4193392 -0.65844715
-1.0349305 -0.35047284 -0.6881666 -0.17076199 -0.33285016 -0.80923235 -0.59079283 -0.79462487
-1.1309222 -0.55280226 0.11304643 -0.38074234 -1.1333334 -0.68011737 0.0822355 -0.08759324
-0.46710297 -0.8090079 -0.2813297 -0.4067158 -0.061668828 -0.14563428 -0.11507387 -0.5094686
0.26268926 -0.93294877 -1.09625 -0.036226265 -0.146697 -0.09553072 -0.6623176 0.035366803
0.12373499 0.15597078 0.069452174 0.19169605 0.420918 0.10148662 -1.0376797 -0.9358238
0.36434093 0.02710595 -0.7579021 0.10912733 -8.926397e-05 0.40299153 0.2974952 0.2500023
00000000: 4326 313e d781 173e f021 593d c5dd c93d
00000010: 5ea8 69be 1b65 183e fc80 12be e987 24be
00000020: 2717 d9bd 9770 ed3d 9d58 4dbe 6b77 9d3e
00000030: fe74 203d 3be1 953c 4df1 503e 1c25 2dbe
00000040: 135b d1be 246f 7ebe 424a 18bd 4ad7 0fbe
00000050: b29a 433e 794b a7bd c2c1 b23e e356 8fbd
00000060: dd53 2a3e 24af 01be a52d edbd a7e5 89bc
00000070: 4b90 203e 55bb 03be e4b3 753d d961 ce39
00000080: cde1 403e 4c2f 593d bd12 283e 010a 09be
00000090: acc4 533d f492 62be 03f0 ab3d 662b 033e
000000a0: 1503 bcbd 3f25 a73e 22b3 443e 689a a5be
000000b0: c8ce 15be f9f4 13be c250 4e3d 7ef9 203f
000000c0: d8c6 003e 5783 323d 813e 123e 198a a7bd
000000d0: 89e7 043d 329a 3e3d 51ef 143e 83f2 fdb9
000000e0: e2a8 a93d cf95 a23e 5dc0 9ebc 0a2e f53d
000000f0: 7446 533e a445 323d b46e 2fbe 10a4 e3bd
00000100: a90e 293e cab2 803d 845b 043e e501 ef3d
00000110: 67cc 11be d3e5 6bbe acf8 2fbe 4a85 993d
00000120: 1e49 873c 9e89 babc 638d a23e dda0 febd
00000130: 7f02 ebbd 0987 b0bd 71ba ac3d 4965 17be
00000140: 9f1c c8be 610c e63b 57f6 8abe 1e94 193d
00000150: 3dce 7c3e 928a 9bbc 61ed 613f 695c 3f3f
00000160: f1a9 453e 869d 07bf 11a5 873f f530 88be
00000170: e39d e2bd 5777 1d3e c09d 333d c312 6d3e
00000180: bceb 403f 4527 823e f25a 303f 2790 c13e
00000190: defa c9be d42d ad3e fdd9 05bf 5792 1a3e
000001a0: 9ba3 b1be a9d7 113f 2f25 5a3e f354 e73e
000001b0: 174a e5be f2f4 a63e e563 8c3e f771 813e
000001c0: 70a0 10be c4c1 103e 8213 efbe c7e2 b23e
000001d0: adba 5d3d 8384 013f 1fc2 fbbd 6932 4bbd
000001e0: 81dd fa3e 2a1c c6be 5200 a3be ec12 173f
000001f0: 1bab 493f ea7d 9f3e f44e 413e 1a4f ccbe
00000200: 7770 adbe 9b88 723e 46b0 c6bd b064 fd3d
00000210: 846a 8bbe f958 c6bb afe2 0fbd b71d c23e
00000220: 9436 aabe 49aa c4be 05b4 533f ddee 03bd
00000230: 2028 1b3e 6ff2 e53d 304f 7e3f cd8c 283f
00000240: b035 d9be b078 46be dec9 023d abea cc3c
00000250: 5919 803e 54ea 753e 67d4 cf3e ebf1 adbd
00000260: b831 363f 8e18 f53e cd4e 12bd b1d5 813e
00000270: e2d1 ad3e f885 7b3e 3c37 29bc 8d11 173f
00000280: b7dc a5bf 6953 23bf dfd1 31bf 353e 9ebe
00000290: d460 3fbe 96e1 f3be cae7 223e 7d3b 8d3d
000002a0: 28ba eebd 3f5b 5bbf 3f87 4f3e 35da 9fbf
000002b0: 2765 0ebf 0e1e 72be 083f 41be a574 3fbe
000002c0: b157 3f3e 895f b03c 1527 6abf a3b0 00be
000002d0: 9020 8cbf e1ea 31be 877b 3bbf 23db 9dbe
000002e0: 20ce 7cbf 9ff4 0f3e 8dfe 25be 520a 86be
000002f0: 665e 0dbf 5931 65bf 6036 19be 13c6 63be
00000300: 9ff4 10bf 1f61 7abf 2906 d0be 88ae 44be
00000310: 710a 44be e9d9 84bd 9efa f3be b544 d2be
00000320: 1318 5ebf 17dd 1ebf 5bd9 96bf fa3d 5ebf
00000330: ee7b 603e 2276 40be a1b3 d6be fe8f 28bf
00000340: 9a78 84bf 2d71 b3be b02b 30bf 3bdc 2ebe
00000350: 566b aabe da29 4fbf 333e 17bf 896c 4bbf
00000360: 0fc2 90bf 7384 0dbf e384 e73d a9f0 c2be
00000370: 1211 91bf 2c1c 2ebf 166b a83d 1664 b3bd
00000380: 1f28 efbe 241b 4fbf 720a 90be 0e3d d0be
00000390: 7498 7cbd 2721 15be d9ab ebbd 896c 02bf
000003a0: 357f 863e bbd5 6ebf ec51 8cbf fe61 14bd
000003b0: bd37 16be 9ca5 c3bd a58d 29bf c8dc 103d
000003c0: c568 fd3d ceb6 1f3e f13c 8e3d f84b 443e
000003d0: 9082 d73e 38d8 cf3d b0d2 84bf 2692 6fbf
000003e0: e58a ba3e 4c0d de3c df05 42bf 267e df3d
000003f0: 3b33 bbb8 e854 ce3e 4a51 983e 4d00 803e

bias f4 [80]
-0.09058923 0.06843568 0.08597482 0.04530311 0.11227587 0.064162806 -0.049421426 -0.036005113
0.09198755 -0.030021224 -0.057682775 -0.08103026 0.00026458502 -0.03249163 0.09568602 -0.042792678
0.030553807 0.11221956 -0.10931575 -0.038153604 -0.073239796 0.0072316783 -0.02152108 -0.012587125
0.05848735 -0.08853303 -0.10600924 -0.069500305 0.054931752 -0.08558065 -0.034171406 -0.011959895
-0.0009138987 0.00930475 -0.0009816868 -0.0041992394 0.058329057 0.10674519 0.040231433 0.0007251655
-0.0887422 -0.10623432 0.108637035 0.08943563 0.07501054 0.07914794 0.051509537 0.07459573
-0.05141538 -0.09211998 -0.024906415 -0.061522618 0.08091238 0.041688126 0.033420686 -0.06704342
-0.04424182 0.019086542 -0.069704294 -0.0014392929 -0.031811193 0.09167277 -0.048785497 -0.09917586
0.08235341 0.05414841 0.08230029 -0.10116722 -0.04017676 -0.08140692 -0.084183745 -0.03621829
-0.07856015 -0.0024957492 -0.046607178 -0.0056740534 0.10153872 0.022929683 0.017029677 -0.09363001
00000000: d986 b9bd 0128 8c3d 9113 b03d c18f 393d
00000010: e4f0 e53d ca67 833d 1f6e 4abd 197a 13bd
00000020: f863 bc3d 12ef f5bc c644 6cbd 31f3 a5bd
00000030: 00b8 8a39 f215 05bd 08f7 c33d 6047 2fbd
00000040: fa4b fa3c 5ed3 e53d f0e0 dfbd f446 1cbd
00000050: bffe 95bd b7f7 ec3b fa4c b0bc 3b3a 4ebc
00000060: 6e90 6f3d ce50 b5bd 5f1b d9bd 2d56 8ebd
00000070: 1e00 613d e844 afbd 51f7 0bbd 6ff3 43bc
00000080: b492 6fba f372 183c f1ab 80ba c699 89bb
00000090: 73ea 6e3d 399d da3d b7c9 243d 0819 3e3a
000000a0: 78be b5bd 6191 d9bd 187d de3d 072a b73d
000000b0: 209f 993d 5118 a23d aafb 523d a5c5 983d
000000c0: ef98 52bd 66a9 bcbd 8a08 ccbc 24ff 7bbd
000000d0: 64b5 a53d 2bc1 2a3d 21e4 083d 104e 89bd
000000e0: e936 35bd 615b 9c3c 20c1 8ebd a8a6 bcba
000000f0: 744c 02bd efbe bb3d 4dd3 47bd b71c cbbd
00000100: e8a8 a83d b9ca 5d3d 0e8d a83d c230 cfbd
00000110: 6390 24bd acb8 a6bd 8768 acbd a159 14bd
00000120: 25e4 a0bd b98f 23bb 2be7 3ebd 69ed b9bb
00000130: 88f3 cf3d 08d7 bb3c d281 8b3c 17c1 bfbd

weight f4 [80, 80]
-0.10813546 -0.5363822 -0.07808896 -0.9422847 -0.9065278 -0.6639799 -0.054095082 -0.15850244
-0.6827935 -0.28769645 -0.08764094 0.004022193 -0.63269913 -0.7325832 -0.9120363 -0.59963256
0.11024982 -0.39826328 -0.10286511 -0.9935627 0.070659906 -0.81422365 -0.010663899 -0.74796426
-0.018691069 0.0008692595 -0.7517253 -0.36699498 -0.2718502 -0.00075554865 -1.0186403 -0.60895175
-0.37899342 0.06745585 -0.39363858 -0.9094259 -0.86896944 -0.50066835 -0.5043901 -0.63350785
0.13721159 -3.6016045 -0.08790648 -0.09484486 -0.104150996 -1.0649952 -0.8148565 -3.5806282
-0.24460673 -1.5686868 -0.54253846 -0.8336427 -0.33976132 -0.56409246 -0.576759 -0.13483185
-0.0038585956 -3.0968883 -0.050656926 -0.49643186 0.07963867 -0.6735935 -0.251174 -0.41527605
-0.24037215 -0.27147758 -1.5437006 -0.7156239 -0.81010365 -0.6567089 -0.69682443 -0.5377972
-0.034063112 0.053314384 -0.14127292 -0.83415276 -0.73347193 -0.74729186 -0.5807866 -0.5867022
0.09345527 0.04397185 -0.14836398 -0.37889287 0.27896464 -0.09892818 0.09570571 -0.21647613
0.35791025 -0.074453875 0.0873813 -0.08250858 0.06781971 0.47631267 0.28877702 0.46854854
0.19232678 0.26885197 -0.29046917 0.67987305 -0.09227722 0.5604109 0.097575195 0.34644789
-0.068882756 0.22429754 0.5482643 0.47906557 -0.011757449 -0.22808929 0.69375074 0.43832013
-0.03919144 -0.18602301 0.04294462 0.5275863 0.43812066 0.21374287 0.03635894 -0.15197448
-0.19800676 0.58540916 0.03486565 -0.21742776 0.32778892 0.31518972 -0.4870808 0.6327324
-0.11555784 0.7317406 0.018986918 0.53322953 -0.011009663 -0.0669302 -0.11232624 -0.3361707
0.02715739 0.48950547 0.30728406 -0.10177064 -0.09380582 -0.23280203 0.34384218 0.50815636
0.05652687 -0.1508684 0.90010846 -0.28458205 0.4446368 0.58957535 0.611154 -0.3298046
0.1404483 -0.19023426 0.02675005 0.5649389 0.23165084 0.6260634 -0.016430235 0.37498078
-0.26334262 -0.18197797 -0.09854556 -0.20302323 0.18943541 -0.16179268 0.2445295 0.21272805
0.24576302 -0.30269024 0.11664724 -0.36329862 -0.11273528 0.18401672 0.35583478 0.42505646
0.10786154 0.13613409 -0.8105562 0.13302025 -0.107068196 0.24710093 -0.18393858 0.055234563
-0.08787249 0.13388807 0.28661636 0.15479358 -0.3811906 -1.0630217 0.1442465 0.36051363
-0.27909786 -0.6681277 -0.041511185 0.20486385 0.31310678 0.17236358 -0.09458387 -0.31875232
-0.6099474 0.503922 -0.101809226 -0.7066859 0.27078602 0.2573676 -0.08761376 0.3638884
-0.38014716 0.29345104 -0.18256918 0.36729035 -0.31094348 -0.2358084 -0.24932836 -0.749728
-0.31272793 0.39255846 0.35775664 -0.45428306 -0.51366395 -0.14144886 0.14795813 0.055707406
-0.09993349 -0.2842964 0.021962782 0.020434054 0.24758916 0.22477983 0.2088347 0.0092912065
0.11048091 -0.7669086 -0.43018255 0.09954648 0.2914272 0.26581797 -0.3494911 0.14723034
0.3548521 0.3149228 0.24215624 0.33969414 -0.47625807 0.22637859 -0.36083463 -0.7232314
-0.39502588 -0.0059069204 -0.8074088 0.23008579 0.42406645 -0.53289634 -0.33404636 -0.37311512
00000000: 2076 ddbd 5850 09bf 1bed 9fbd 9239 71bf
00000010: 3512 68bf 96fa 29bf ce92 5dbd 774e 22be
00000020: 8ecb 2ebf f34c 93be 187d b3bd 9acc 833b
00000030: 92f8 21bf 938a 3bbf 367b 69bf 8581 19bf
00000040: a8ca e13d 2ae9 cbbe f1aa d2bd 205a 7ebf
00000050: 24b6 903d f670 50bf a2b7 2ebc 967a 3fbf
00000060: 031e 99bc 04df 633a 1271 40bf c4e6 bbbe
00000070: f32f 8bbe 0310 46ba ce62 82bf 43e4 1bbf
00000080: 6d0b c2be 4b26 8a3d ff8a c9be 23d0 68bf
00000090: c874 5ebf cd2b 00bf b61f 01bf 922d 22bf
000000a0: 3281 0c3e b080 66c0 5008 b4bd 063e c2bd
000000b0: 1e4d d5bd c351 88bf 709a 50bf 0329 65c0
000000c0: 307a 7abe bbca c8bf cde3 0abf 9c69 55bf
000000d0: 32f5 adbe 5d68 10bf 7aa6 13bf 5c11 0abe
000000e0: 7ee0 7cbb 6b33 46c0 a37d 4fbd 512c febe
000000f0: 9919 a33d a070 2cbf e199 80be 109f d4be
00000100: 1e24 76be 1cff 8abe fb97 c5bf 2133 37bf
00000110: f462 4fbf 131e 28bf 1663 32bf 14ad 09bf
00000120: c385 0bbd 2f60 5a3d d9a9 10be 098b 55bf
00000130: d1c4 3bbf 854e 3fbf 6eae 14bf 1e32 16bf
00000140: 7a65 bf3d d41b 343d baec 17be 3ffe c1be
00000150: 74d4 8e3e dc9a cabd 5b01 c43d ebab 5dbe
00000160: 0340 b73e 467b 98bd f8f4 b23d 42fa a8bd
00000170: 0fe5 8a3d 41df f33e 95da 933e 98e5 ef3e
00000180: 50f1 443e f7a6 893e 60b8 94be 290c 2e3f
00000190: d7fb bcbd 1777 0f3f 81d5 c73d 9e61 b13e
000001a0: 6712 8dbd 41ae 653e 0d5b 0c3f 1548 f53e
000001b0: 51a2 40bc 3d90 69be a699 313f 7f6b e03e
000001c0: 3487 20bd d17c 3ebe b3e6 2f3d e50f 073f
000001d0: 5a51 e03e 69df 5a3e 1ded 143d 339f 1bbe
000001e0: 49c2 4abe 60dd 153f 49cf 0e3d 62a5 5ebe
000001f0: f3d3 a73e 8c60 a13e a862 f9be c0fa 213f
00000200: 97a9 ecbd 5a53 3b3f 748a 9b3c bb81 083f
00000210: e061 34bc b312 89bd 4d0b e6bd 911e acbe
00000220: 2d79 de3c 76a0 fa3e 5654 9d3e 206d d0bd
00000230: 441d c0bd a863 6ebe 150c b03e 8916 023f
00000240: b888 673d 3f7d 1abe 826d 663f bdb4 91be
00000250: 6fa7 e33e 69ee 163f 9774 1c3f 26dc a8be
00000260: aed1 0f3e c5cc 42be ec22 db3c d69f 103f
00000270: e135 6d3e b145 203f b398 86bc 7bfd bf3e
00000280: d8d4 86be 6f58 3abe 41d2 c9bd 52e5 4fbe
00000290: 5bfb 413e fbac 25be f165 7a3e 62d5 593e
000002a0: 4da9 7b3e 37fa 9abe c0e4 ee3d 4702 babe
000002b0: c1e1 e6bd e16e 3c3e fa2f b63e 00a1 d93e
000002c0: 83e6 dc3d bc66 0b3e 9c80 4fbf 7636 083e
000002d0: 9246 dbbd 0708 7d3e 655a 3cbe a33d 623d
000002e0: 7ef6 b3bd f419 093e 61bf 923e 3582 1e3e
000002f0: 6a2b c3be 1811 88bf 5bb5 133e 3e95 b83e
00000300: eae5 8ebe 6b0a 2bbf a207 2abd d4c7 513e
00000310: 884f a03e 1480 303e 30b5 c1bd 8133 a3be
00000320: 8325 1cbf 0801 013f 5b81 d0bd 5ee9 34bf
00000330: 77a4 8a3e b0c5 833e d86e b3bd 954f ba3e
00000340: a6a2 c2be 373f 963e 6af3 3abe 7b0d bc3e
00000350: fc33 9fbe c277 71be ef4f 7fbe 2dee 3fbf
00000360: e01d a0be 6cfd c83e e12b b73e ca97 e8be
00000370: 7b7f 03bf f8d7 10be 5682 173e 732d 643d
00000380: eea9 ccbd 4c8f 91be 4beb b33c 5165 a73c
00000390: 0388 7d3e af2c 663e c3d8 553e 253a 183c
000003a0: d143 e23d 1f54 44bf e340 dcbe 06df cb3d
000003b0: f235 953e 4b19 883e 7ff0 b2be 8dc3 163e
000003c0: 2daf b53e 903d a13e cef7 773e 64ec ad3e
000003d0: 19d8 f3be cacf 673e 51bf b8be b125 39bf
000003e0: d540 cabe d78e c1bb 58b2 4ebf 9c9b 6b3e
000003f0: 3d1f d93e e56b 08bf 2008 abbe f208 bfbe

weight f4 [80]
0.38633347 0.57024467 0.62584466 1.3788679 0.5342272 0.36227602 1.3467343 1.4905254
0.5867498 0.71633446 0.34892806 1.2764156 0.83008915 0.64799774 0.4939739 0.5470829
0.38275588 0.25203174 0.6450977 0.7961659 1.2816011 0.435459 0.63219965 0.5479534
0.55475205 1.2458173 1.2258162 0.7124228 0.5273387 1.0655497 0.5977332 0.5760427
0.52774405 1.1421599 1.306803 0.6723698 1.4892884 0.63820404 0.4673633 0.13360077
0.51976323 0.38687012 0.5148708 0.6612649 0.21277909 0.66926813 1.3058491 0.22465497
0.50001574 0.18616517 1.3137395 0.7380099 0.2560125 0.68342143 0.5304466 0.2454797
0.5470941 0.51996636 0.16948533 0.45168698 0.75264645 0.49769506 0.45691636 0.588896
0.8550806 1.356004 0.33585632 0.35756522 0.18548705 0.47426298 0.15002778 0.6342893
0.47366023 0.54710716 0.52855843 0.62081635 0.7461871 0.55848503 0.9945956 1.2012395
00000000: 80cd c53e 8efb 113f 5b37 203f be7e b03f
00000010: 1dc3 083f 3e7c b93e ca61 ac3f 89c9 be3f
00000020: 3c35 163f b261 373f b3a6 b23e 9661 a33f
00000030: b980 543f 2ee3 253f 26ea fc3e a00d 0c3f
00000040: 94f8 c33e 4e0a 813e 1f25 253f 87d1 4b3f
00000050: 810b a43f 7bf4 de3e d6d7 213f ad46 0c3f
00000060: 3b04 0e3f f176 9f3f 8ce7 9c3f 5761 363f
00000070: abff 063f ef63 883f 0b05 193f 8977 133f
00000080: 3c1a 073f 4c32 923f 5245 a73f 6d20 2c3f
00000090: 01a1 be3f 5761 233f 3e4a ef3e a4ce 083e
000000a0: 340f 053f d713 c63e 93ce 033f a848 293f
000000b0: c3e2 593e 2855 2b3f 1026 a73f f40b 663e
000000c0: 0801 003f 15a2 3e3e 9e28 a83f 38ee 3c3f
000000d0: 1214 833e b5f4 2e3f 59cb 073f 085f 7b3e
000000e0: 5c0e 0c3f 841c 053f 908d 2d3e 8443 e73e
000000f0: 70ad 403f e3d1 fe3e f1f0 e93e e3c1 163f
00000100: 90e6 5a3f 8a91 ad3f 5cf5 ab3e ca12 b73e
00000110: 51f0 3d3e 99d2 f23e e2a0 193e c960 223f
00000120: 9883 f23e 370f 0c3f 9b4f 073f d2ed 1e3f
00000130: 1e06 3f3f e0f8 0e3f d19d 7e3f 37c2 993f

bias f4 [80]
0.47753456 -0.08759188 0.29042402 -0.46955153 -0.103407465 0.56568336 -0.5206622 -0.546788
-0.09181129 -0.751637 0.50850695 -0.4591472 -0.6609484 0.25374383 -0.07222084 -0.10211615
0.49369574 0.011064859 0.16130711 0.08509546 -0.434312 -0.19013825 -0.6667335 -0.09330292
-2.0781963 -0.36144376 -0.36839285 -0.84839135 -0.09670772 -0.53010744 -0.35695916 -0.084455885
-0.08206998 -0.98799586 -0.4904875 -0.704378 -0.53017163 -1.1142949 0.48454407 -0.27583772
-0.08316032 0.5634333 -0.0904571 -1.2823238 0.29687077 -0.16295901 -0.41352126 0.25628072
0.5130297 0.584426 -0.44359404 -0.27732837 0.41224238 -2.9581828 -0.1284055 0.34260905
-0.2837758 -0.083772086 0.58767176 0.32190716 -2.7922244 0.46467042 0.4884435 -0.21544614
-0.61118543 -0.5116987 0.5103411 0.53854734 0.011857808 0.5280769 0.53859216 0.044084907
-0.09791266 -0.08783051 0.5741869 -1.5779967 0.16555479 -0.101777226 -0.39115912 -0.34438652
00000000: 697f f43e 5f63 b3bd 75b2 943e 0f69 f0be
00000010: 4bc7 d3bd a0d0 103f 1e4a 05bf 4cfa 0bbf
00000020: 8f07 bcbd 486b 40bf 832d 023f 5815 ebbe
00000030: ea33 29bf b6ea 813e 85e8 93bd 4622 d1bd
00000040: b0c5 fc3e 6249 353c b12d 253e 8746 ae3d
00000050: 245e debe 9ab3 42be 0caf 2abf 9a15 bfbd
00000060: 2b01 05c0 280f b9be fd9d bcbe 2d30 59bf
00000070: b20e c6bd 1fb5 07bf 5ac3 b6be 35f7 acbd
00000080: 4e14 a8bd 4ced 7cbf 2d21 fbbe 1e52 34bf
00000090: 54b9 07bf 37a1 8ebf 2916 f83e 9a3a 8dbe
000000a0: f54f aabd 2a3d 103f 9241 b9bd 3023 a4bf
000000b0: 72ff 973e bade 26be 0fb9 d3be 3a37 833e
000000c0: ea55 033f f19c 153f c21e e3be fcfd 8dbe
000000d0: 6f11 d33e de52 3dc0 bb7c 03be 746a af3e
000000e0: 104b 91be b390 abbd a871 163f 04d1 a43e
000000f0: ceb3 32c0 48e9 ed3e 4415 fa3e ea9d 5cbe
00000100: a676 1cbf b0fe 02bf b7a5 023f 3dde 093f
00000110: 4047 423c 0c30 073f 2de1 093f 6092 343d
00000120: 6f86 c8bd 7ce0 b3bd eafd 123f ccfb c9bf
00000130: 3287 293e 9470 d0bd 0246 c8be 6e53 b0be

running_mean f4 [80]
-12.744895 19.311174 -33.77162 -9.973507 16.9369 -28.637104 -16.616488 -20.695238
11.161594 25.440594 -19.017786 -25.617958 -3.8305671 -21.247562 17.644238 11.478717
-12.83962 -18.038347 -31.14719 -27.597677 -9.213589 19.014048 0.9566137 19.36082
22.700134 -20.51459 -2.9346704 14.761625 12.360335 -18.565842 -6.717654 8.36174
22.296371 -11.461321 -21.868132 27.30186 -21.077662 13.875598 -20.872728 -6.5357895
19.584934 -33.767097 15.194672 25.792147 -14.122249 -21.600899 -5.8682246 -12.342136
-22.36198 -7.1944027 -7.8458867 -18.078716 -22.497763 20.865986 11.6724 -13.182039
-14.689152 11.885671 -19.979588 -1.9571742 18.065462 -27.431816 -17.377375 27.744211
-16.584267 -21.431314 -23.389364 7.0229907 12.170231 -22.21319 -32.76144 -28.302992
14.154025 25.523209 -18.550825 -12.000116 -14.959266 12.419366 -7.66236 0.4083713
00000000: 17eb 4bc1 497d 9a41 2416 07c2 7c93 1fc1
00000010: c57e 8741 ca18 e5c1 91ee 84c1 d98f a5c1
00000020: e495 3241 5686 cb41 6d24 98c1 94f1 ccc1
00000030: 0328 75c0 02fb a9c1 6627 8d41 d3a8 3741
00000040: 156f 4dc1 894e 90c1 722d f9c1 0bc8 dcc1
00000050: dc6a 13c1 c51c 9841 a3e4 743f f6e2 9a41
00000060: e099 b541 e11d a4c1 a4d1 3bc0 9e2f 6c41
00000070: efc3 4541 d886 94c1 06f7 d6c0 b0c9 0541
00000080: f85e b241 9261 37c1 eff1 aec1 366a da41
00000090: 0d9f a8c1 7302 5e41 59fb a6c1 3025 d1c0
000000a0: f2ad 9c41 8211 07c2 601d 7341 5156 ce41
000000b0: bbf4 61c1 a4ce acc1 7fc8 bbc0 6479 45c1
000000c0: 56e5 b2c1 8c38 e6c0 8111 fbc0 36a1 90c1
000000d0: 6bfb b3c1 8aed a641 27c2 3a41 a2e9 52c1
000000e0: c406 6bc1 b52b 3e41 32d6 9fc1 af84 fabf
000000f0: 1186 9041 5c74 dbc1 dd04 8bc1 25f4 dd41
00000100: 94ac 84c1 5573 abc1 6b1d bbc1 57bc e040
00000110: 44b9 4241 9db4 b1c1 b70b 03c2 876c e2c1
00000120: e376 6241 882f cc41 1768 94c1 7a00 40c1
00000130: 2759 6fc1 b9b5 4641 0e32 f5c0 0b16 d13e

running_var f4 [80]
460.1024 1885.9985 441.53384 678.1105 1722.4797 496.9536 1021.52075 1564.3193
1196.0844 113.740395 583.9706 1667.3593 129.80016 384.69168 1761.5128 1192.8401
587.5783 234.91281 557.00287 239.21173 638.19434 198.3306 482.29102 1791.1848
475.65707 1284.7623 511.34235 60.8033 1255.7137 420.69684 106.898026 965.46124
2069.3142 64.99636 1148.6311 232.35779 1564.526 633.24817 1722.581 77.00388
2141.2998 468.828 1444.7258 68.581985 180.32901 120.21746 551.86383 195.81537
2164.8943 1227.5342 611.48505 96.016106 563.9657 50.759888 1163.2816 233.01518
155.10564 1162.2935 2415.079 114.63379 34.793156 3134.55 1196.211 2460.4492
115.86249 1315.1981 555.04425 615.63184 994.3465 1750.2356 3097.5408 954.7525
1475.2555 2495.837 1685.978 290.01782 551.4379 1242.4154 192.58737 399.0453
00000000: 1b0d e643 f4bf eb44 55c4 dc43 1287 2944
00000010: 5a4f d744 107a f843 5461 7f44 388a c344
00000020: b382 9544 157b e342 1efe 1144 7f6b d044
00000030: d7cc 0143 8958 c043 6930 dc44 e21a 9544
00000040: 03e5 1244 aee9 6a43 2f40 0b44 3436 6f43
00000050: 708c 1f44 a254 4643 4025 f143 eae5 df44
00000060: 1bd4 ed43 6598 a044 d2ab ff43 9436 7342
00000070: d7f6 9c44 3259 d243 cacb d542 855d 7144
00000080: 0755 0145 23fe 8142 3294 8f44 985b 6843
00000090: d590 c344 e24f 1e44 9852 d744 fd01 9a42
000000a0: ccd4 0545 fc69 ea43 3a97 b444 fa29 8942
000000b0: 3a54 3443 576f f042 49f7 0944 bcd0 4343
000000c0: 4f4e 0745 1871 9944 0bdf 1844 3f08 c042
000000d0: cefd 0c44 200a 4b42 0369 9144 e303 6943
000000e0: 0b1b 1b43 6449 9144 44f1 1645 8044 e542
000000f0: 312c 0b42 cde8 4345 c186 9544 30c7 1945
00000100: 98b9 e742 5766 a444 d5c2 0a44 70e8 1944
00000110: 2d96 7844 8ac7 da44 a798 4145 29b0 6e44
00000120: 2d68 b844 64fd 1b45 4cbf d244 4802 9143
00000130: 07dc 0944 4b4d 9b44 5e96 4043 cc85 c743

weight f4 [80, 80]
-0.25288376 0.079798095 -0.4125399 -0.20226496 0.007555619 -0.23029912 -0.2096367 -0.28040844
0.088505946 0.16650191 0.21229963 -0.28998074 -0.48612446 0.06498529 -0.03459684 -0.049613647
-0.17023589 0.04814748 -0.013256191 -0.16302264 -0.39059147 0.28317714 0.4035759 0.034021214
0.5053296 0.084590785 -0.39996722 0.34141335 0.021061903 0.17301668 0.22289528 0.04931632
0.08542279 -0.15572189 -0.2981697 0.29205713 -0.17565456 0.28373447 -0.12104166 0.06257447
0.16068321 0.0049557784 -0.011079357 0.31132716 -0.10135314 -0.17222676 -0.17784186 -0.21260262
-0.058743075 -0.18349294 -0.112875745 -0.19753212 0.07136294 -0.09332267 0.060165357 -0.08478726
0.31272697 -0.054846734 0.019134026 -0.16378877 0.1272629 -0.28108284 -0.24051224 0.19871353
0.03726113 -0.33715323 0.046194684 -0.192599 -0.023201223 0.14184941 -0.14831273 -0.1251254
0.16376342 0.03497816 -0.15222928 0.33480632 0.0144944135 0.10275422 0.09008063 -0.389009
0.011049469 -0.23824485 -0.14551084 0.05807586 -0.029933488 0.007984195 0.18120258 0.20114094
0.018912846 -0.051615242 0.01645088 0.13376632 0.4407795 0.3639171 -0.11807165 -0.22146484
0.08611336 -0.01790682 -0.08687985 0.004806861 0.08728289 -0.37163284 -0.23087275 -0.20780347
-0.5471213 -0.081441104 0.084184654 -0.41265976 -0.21476783 -0.096160635 -0.03124964 -0.0059402403
-0.19962816 0.16788335 -0.030876042 -0.11973724 0.22456372 -0.50900954 0.1466784 -0.040940244
-0.21722904 -0.0116946 -0.11691212 -0.26222205 -0.077559926 0.06395442 0.08994771 0.22844394
0.20969765 0.05661279 0.16591227 0.19931261 0.33901796 0.10851632 -0.11511538 0.23391262
0.00038811314 -0.102615215 -0.12548773 0.111447126 0.18965527 0.19843836 -0.006721055 -0.040069107
0.04618569 0.22565909 -0.09727955 0.15711534 -0.11933448 0.07354874 0.0039818604 0.14217892
-0.023538997 -0.18153915 -0.08946425 -0.28963897 0.05773377 -0.20776305 -0.16788313 0.02272842
0.004824988 0.04993713 -0.076130085 -0.2853046 0.040773034 -0.054217767 -0.26598063 -0.17208369
0.1092727 0.13346381 -0.035426266 -0.2782613 -0.54631644 -0.12720184 -0.035023496 -0.021395132
-0.18355861 0.18083103 -0.12968202 0.044512924 -0.11240851 0.3221161 0.28164336 0.03909035
0.6099089 0.3030466 -0.112692356 0.34220892 0.09137788 0.24726158 -0.11038301 0.036780078
0.03590572 0.028790863 -0.5020178 0.18862452 -0.20876731 0.41952977 -0.1905636 -0.0812443
0.08287954 -0.25670642 0.12916367 0.30291644 -0.20251293 -0.09890605 -0.21122156 0.11717182
-0.21948656 -0.04709753 -0.08940006 -0.20108593 -0.20732507 -0.15150085 0.019003917 -0.18381962
0.3822347 -0.010780912 -0.25958544 0.09712889 0.05900956 -0.24696921 0.009812365 0.24557652
0.0077617816 -0.18226516 0.03322926 -0.21787839 0.027216239 -0.4160696 -0.3056788 -0.0060735303
0.07946114 0.016781477 -0.044113804 0.33849955 -0.01860005 0.12804888 -0.013799079 -0.21676253
0.1657506 0.079533085 0.0286068 -0.03151142 0.12195508 0.20074573 -0.15012218 -0.25524622
0.030575864 0.005864675 -0.037950628 -0.2344914 -0.34226736 0.0344503 0.15029535 0.08684524
00000000: fb79 81be 2f6d a33d 6e38 d3be 8c1e 4fbe
00000010: 2095 f73b 88d3 6bbe 01ab 56be b291 8fbe
00000020: 9b42 b53d 7a7f 2a3e 1365 593e 5b78 94be
00000030: 4ee5 f8be 0217 853d 6bb5 0dbd ae37 4bbd
00000040: 5152 2ebe 4b36 453d 7f30 59bc 68ef 26be
00000050: 9bfb c7be 98fc 903e 80a1 ce3e d459 0b3d
00000060: 485d 013f ef3d ad3d 81c8 ccbe bbcd ae3e
00000070: 038a ac3c 492b 313e a93e 643e e9ff 493d
00000080: 25f2 ae3d 8f75 1fbe b3a9 98be 8388 953e
00000090: cade 33be a545 913e b1e4 f7bd 0b27 803d
000000a0: 248a 243e 1564 a23b 3186 35bc 4666 9f3e
000000b0: 3c92 cfbd 365c 30be 2d1c 36be 80b4 59be
000000c0: 949c 70bd 93e5 3bbe 662b e7bd dc45 4abe
000000d0: bc26 923d f51f bfbd f36f 763d f1a4 adbd
000000e0: c01d a03e f8a6 60bd f6be 9c3c 3eb8 27be
000000f0: 3551 023e 17ea 8fbe d748 76be 8f7b 4b3e
00000100: 209f 183d 599f acbe a336 3d3d ac38 45be
00000110: 7e10 bebc f940 113e 4bdf 17be df20 00be
00000120: 99b1 273e 4245 0f3d fee1 1bbe bc6b ab3e
00000130: fa79 6d3c ce70 d23d 317c b83d 302c c7be
00000140: d508 353c 75f6 73be cb00 15be f4e0 6d3d
00000150: 1337 f5bc 24d0 023c 2b8d 393e e4f7 4d3e
00000160: 1def 9a3c 816a 53bd ffc3 863c 0afa 083e
00000170: daad e13e 5853 ba3e 8dcf f1bd aec7 62be
00000180: 345c b03d 53b1 92bc 10ee b1bd df82 9d3b
00000190: 5fc1 b23d a946 bebe e869 6cbe 6fca 54be
000001a0: 2410 0cbf 98ca a6bd 0169 ac3d 2448 d3be
000001b0: 19ec 5bbe deef c4bd 3fff ffbc 59a6 c2bb
000001c0: 536b 4cbe 9de9 2b3e c1ef fcbc cc38 f5bd
000001d0: 08f4 653e 734e 02bf dd32 163e f5b0 27bd
000001e0: 4a71 5ebe b59a 3fbc 9f6f efbd f841 86be
000001f0: bdd7 9ebd 89fa 823d 8136 b83d 35ed 693e
00000200: fbba 563e d0e2 673d e8e4 293e 9b18 4c3e
00000210: c393 ad3e ce3d de3d 9dc1 ebbd ca86 6f3e
00000220: aa7b cb39 ed27 d2bd db7f 00be 643e e43d
00000230: fe34 423e 6d33 4b3e 4c3c dcbb 811f 24bd
00000240: 352d 3d3d 2d13 673e 803a c7bd d8e2 203e
00000250: a365 f4bd b9a0 963d 447a 823b 5a97 113e
00000260: dbd4 c0bc 66e5 39be 0839 b7bd 8f4b 94be
00000270: 3f7a 6c3d d6bf 54be 8ee9 2bbe f430 ba3c
00000280: ef1a 9e3b e08a 4c3d 17ea 9bbd 7213 92be
00000290: a001 273d 7313 5ebd 9d2e 88be b536 30be
000002a0: 5eca df3d bdaa 083e 221b 11bd 4478 8ebe
000002b0: 65db 0bbf 3341 02be cc74 0fbd d844 afbc
000002c0: caf6 3bbe c52b 393e 5dcb 04be 2f53 363d
000002d0: 6f36 e6bd 67ec a43e 8f33 903e 341d 203d
000002e0: fd22 1c3f ed28 9b3e 40cb e6bd 0236 af3e
000002f0: 5324 bb3d 2432 7d3e 7d10 e2bd b5a6 163d
00000300: e011 133d d1da eb3c 3d84 00bf c926 413e
00000310: 19c7 55be 9bcc d63e 1b23 43be 6963 a6bd
00000320: c0bc a93d 066f 83be 7b43 043e dd17 9b3e
00000330: 8d5f 4fbe 418f cabd 774a 58be c7f7 ef3d
00000340: 16c1 60be 57e9 40bd 6117 b7bd 78e9 4dbe
00000350: 064d 54be 0a23 1bbe 1aae 9b3c 363b 3cbe
00000360: 44b4 c33e 6ca2 30bc 62e8 84be 83eb c63d
00000370: 02b4 713d 7fe5 7cbe 0bc4 203c 6978 7b3e
00000380: 8b56 fe3b b8a3 3abe 681b 083d 831b 5fbe
00000390: 97f4 de3c 1307 d5be ef81 9cbe 7704 c7bb
000003a0: 86bc a23d 4f79 893c adb0 34bd d04f ad3e
000003b0: 225f 98bc 3f1f 033e 8815 62bc fff6 5dbe
000003c0: 86ba 293e 3ee2 a23d cf58 ea3c 1e12 01bd
000003d0: 96c3 f93d 4a90 4d3e a1b9 19be a2af 82be
000003e0: 3c7a fa3c 762c c03b 1e72 1bbd 831e 70be
000003f0: ab3d afbe c21b 0d3d 06e7 193e ebdb b13d

bias f4 [80]
0.08451467 0.0685578 0.04296658 -0.027844 0.021633174 0.009863726 -0.07600899 -0.06097192
-0.06462687 0.021871224 0.03381442 0.064292766 0.035677563 -0.0027994716 0.10144964 0.057404142
0.11873796 0.02661858 -0.0142056905 0.07748034 -0.021522779 -0.043257065 -0.051842768 0.055135485
-0.08942474 -0.07773397 0.07706757 -0.009905288 0.1268987 0.016808927 -0.083812855 -0.07420696
-0.08025976 0.009883979 -0.033205558 -0.025391666 -0.06615814 -0.021742951 -0.090028465 0.004083416
0.08305286 -0.08177903 0.02619192 -0.0618593 -0.05387533 -0.026772982 -0.07047294 0.10869843
0.053401735 0.06291337 0.032074858 0.019536456 0.0055612726 0.0813629 -0.0022697046 -0.054827508
-0.031324886 -0.12001358 -0.05752913 -0.035056565 -0.08996923 0.039300144 -0.11614755 -0.082729325
0.085320435 0.07056367 0.11709396 0.049171045 0.05414551 -0.026046308 -0.08815603 -0.016641838
-0.035726126 -0.0053706206 -0.08413584 -0.04949545 0.05861452 0.020006804 -0.04290399 0.0897987
00000000: 0716 ad3d 0868 8c3d b9fd 2f3d 1a19 e4bc
00000010: 0e38 b13c 779b 213c 9aaa 9bbd b1bd 79bd
00000020: 185b 84bd 482b b33c fd80 0a3d edab 833d
00000030: a322 123d 5777 37bb d4c4 cf3d 9b20 6b3d
00000040: e32c f33d 350f da3c fcbe 68bc 03ae 9e3d
00000050: 8a50 b0bc 522e 31bd 1559 54bd bfd5 613d
00000060: 5124 b7bd fd32 9fbd 9ad5 9d3d ca49 22bc
00000070: bcf1 013e e0b2 893c 13a6 abbd d2f9 97bd
00000080: 3b5f a4bd 6af0 213c 8d02 08bd 2f02 d0bc
00000090: eb7d 87bd 461e b2bc d860 b8bd 2dce 853b
000000a0: 9e17 aa3d c47b a7bd 7090 d63c 2d60 7dbd
000000b0: 61ac 5cbd 0353 dbbc 1e54 90bd 489d de3d
000000c0: c7bb 5a3d bad8 803d ed60 033d eb0a a03c
000000d0: 563b b63b 98a1 a63d 53bf 14bb cf92 60bd
000000e0: 864e 00bd aec9 f5bd aaa3 6bbd 7997 0fbd
000000f0: ca41 b8bd 30f9 203d c4de edbd fe6d a9bd
00000100: 7bbc ae3d af83 903d f5ce ef3d 9467 493d
00000110: afc7 5d3d 115f d5bc 268b b4bd 7754 88bc
00000120: 8f55 12bd 08fc afbb 694f acbd bebb 4abd
00000130: c715 703d 4fe5 a33c 18bc 2fbd 61e8 b73d

weight f4 [80, 80]
0.4102585 -0.5527563 0.5572487 0.85929954 -0.7812183 0.34328413 0.8631672 1.0676414
-0.56332195 1.068782 0.4734447 1.0490857 0.04969365 0.56976956 -0.61465764 -0.594064
0.5981514 0.44710368 0.9220311 0.59547865 0.73724437 -0.46587777 -0.5567024 -0.5434885
1.8028172 -1.1352855 0.5824013 0.1843048 -0.58610743 -1.4842459 0.774831 -0.4230385
-0.4273163 1.2510422 1.0363079 0.5536454 1.0121592 -0.19908462 0.20257245 -0.074181385
-0.43403032 0.468275 -0.3946274 1.328929 0.21351466 0.31399447 0.73028225 0.22229306
0.20274542 0.29026946 0.78136426 0.40024453 0.58886874 3.7072945 -0.61140776 0.18861261
0.08770808 -0.36141086 0.1075248 0.35788512 3.4369593 0.36242053 0.0379658 -0.547072
1.1855563 0.78894734 0.43589383 -0.0490079 -0.40289176 0.42210463 0.31214848 0.6796579
-0.4726112 -0.66456956 0.3244768 1.3056265 0.43124026 -0.558082 1.0225439 0.8519621
-0.44837335 0.5720566 -0.6011367 -1.0897998 0.42644644 -0.5980371 -1.227766 -1.0247211
0.5551356 -0.9689551 -0.68923146 -1.2131569 -0.0899215 -0.44402188 0.4700033 0.5777334
-0.5906839 -0.23345149 -0.5647182 -0.43723246 -1.1566544 0.23138355 0.7131774 0.40673292
-2.113323 1.0596049 -0.91621315 -0.14522395 0.44790912 1.5346494 -0.40351525 0.4832502
0.65846664 -0.6814999 -1.2161367 -0.5364774 -0.8200982 0.045313634 -0.59065443 -0.05931601
0.49205127 -0.20648052 0.56186944 -0.949815 -0.4199973 -0.23839423 -0.80613506 -0.33205172
-0.91059536 -0.66976243 -0.8216991 -0.63639617 -0.2192593 -3.6408284 0.56264395 -0.57325363
0.20341867 0.6275268 -0.5262683 -0.74004835 -3.1405408 -0.5153136 -0.59073097 0.538223
-0.75092494 -0.9542153 -0.45766872 -0.55009466 0.41641992 -0.9360851 -1.1137629 -0.49578983
0.68980014 0.47715575 -0.90421146 -1.4869099 -0.6808961 0.46976402 -0.86999685 -0.7908218
0.2855151 -0.53980464 0.29228958 0.6482523 -0.5924717 0.37753445 0.6881542 0.76591086
-0.6160895 0.67809117 0.5794073 0.6291709 -0.0482886 0.7745931 -0.54541 -0.61534196
0.48298857 0.4617329 0.6083787 0.60831255 0.5111336 -0.32907373 -0.8828491 -0.65540737
2.032958 -0.99442226 0.5996015 0.035607547 -0.6041258 -1.2265443 0.62086356 -0.60841614
-0.64289635 1.0893787 0.6685687 0.116994336 0.6856759 0.017506989 0.59220386 0.043879338
-0.48229975 0.70581675 -0.55645597 1.1313095 0.4637176 0.46677193 0.6781537 0.5613051
0.87821484 0.44983947 0.57287097 0.6328817 0.74826664 3.5690157 -0.6580649 0.45258024
0.15696985 -0.6332796 0.27312416 0.6992505 3.4344704 0.8955743 0.8686533 -0.60390884
0.8988699 0.6675448 0.6833996 0.36000928 -0.5358136 0.8597672 0.5841653 0.4799076
-0.57313055 -0.5485183 0.6724353 1.5228659 0.6797677 -0.4629231 0.9570036 0.64271873
0.38626692 -0.45486662 0.66638577 1.082871 -0.6393089 0.49541953 0.9510064 1.1275357
-0.47042066 0.7362812 0.47226918 1.1353679 -0.052171025 0.77827966 -0.519901 -0.56951386
00000000: 670d d23e 7081 0dbf daa7 0e3f 0efb 5b3f
00000010: ecfd 47bf f0c2 af3e 87f8 5c3f 79a8 883f
00000020: de35 10bf d9cd 883f 5867 f23e 7148 863f
00000030: 928b 4b3d 6bdc 113f 345a 1dbf 9414 18bf
00000040: 7320 193f c6ea e43e 3b0a 6c3f 4a71 183f
00000050: 0cbc 3c3f 8887 eebe 0c84 0ebf 1022 0bbf
00000060: b7c2 e63f 0951 91bf 4018 153f 66ba 3c3e
00000070: 230b 16bf c5fb bdbf 535b 463f 8198 d8be
00000080: 34c9 dabe 2722 a03f bda5 843f b4bb 0d3f
00000090: 6f8e 813f d7dc 4bbe 276f 4f3e 69ec 97bd
000000a0: 3939 debe bec1 ef3e 9a0c cabe 581a aa3f
000000b0: 96a3 5a3e e2c3 a03e c7f3 3a3f cba0 633e
000000c0: 7f9c 4f3e 339e 943e 7d07 483f daec cc3e
000000d0: 1ac0 163f 5044 6d40 3885 1cbf aa23 413e
000000e0: 4ba0 b33d d80a b9be f635 dc3d b83c b73e
000000f0: 24f7 5b40 2f8f b93e 0782 1b3d e90c 0cbf
00000100: 4fc0 973f 74f8 493f 7a2d df3e 82bc 48bd
00000110: d447 cebe 191e d83e edd1 9f3e 0ffe 2d3f
00000120: 18fa f1be 3b21 2abf d321 a63e c51e a73f
00000130: 86cb dc3e 76de 0ebf b8e2 823f 301a 5a3f
00000140: 3191 e5be 4d72 123f 18e4 19bf 8f7e 8bbf
00000150: 3057 da3e f618 19bf 7027 9dbf 102a 83bf
00000160: 5e1d 0e3f 710d 78bf 7971 30bf ba48 9bbf
00000170: c328 b8bd d656 e3be 46a4 f03e 56e6 133f
00000180: 0f37 17bf e80d 6fbe 5f91 10bf efdc dfbe
00000190: 400d 94bf cfef 6c3e cb92 363f 4c3f d03e
000001a0: af40 07c0 22a1 873f f28c 6abf 96b5 14be
000001b0: 5854 e53e 646f c43f 8d99 cebe 926c f73e
000001c0: 4591 283f c776 2ebf 5eaa 9bbf 9556 09bf
000001d0: f5f1 51bf ca9a 393d 2135 17bf 58f5 72bd
000001e0: 25ee fb3e a16f 53be add6 0f3f 1327 73bf
000001f0: e309 d7be 9e1d 74be de5e 4ebf af02 aabe
00000200: c71c 69bf 8d75 2bbf df5a 52bf dcea 22bf
00000210: 8385 60be 5503 69c0 6f09 103f c0c0 12bf
00000220: fc4c 503e 99a5 203f 85b9 06bf cf73 3dbf
00000230: 9ffe 48c0 98eb 03bf 253a 17bf fcc8 093f
00000240: 9e3c 40bf 7447 74bf 8e53 eabe 01d3 0cbf
00000250: fe34 d53e 46a3 6fbf c88f 8ebf 2ad8 fdbe
00000260: be96 303f c24d f43e 677a 67bf 1053 bebf
00000270: 354f 2ebf e984 f03e 1db8 5ebf 4c73 4abf
00000280: 092f 923e a330 0abf fba6 953e ddf3 253f
00000290: 3aac 17bf 324c c13e e02a 303f bc12 443f
000002a0: 0bb8 1dbf 6297 2d3f 0954 143f 5811 213f
000002b0: 44ca 45bd bc4b 463f fd9f 0bbf 0d87 1dbf
000002c0: 474a f73e 4168 ec3e b5be 1b3f 5fba 1b3f
000002d0: a7d9 023f 5a7c a8be 6602 62bf c7c8 27bf
000002e0: fc1b 0240 7592 7ebf 7c7f 193f 38d9 113d
000002f0: fda7 1abf 67ff 9cbf eaf0 1e3f 29c1 1bbf
00000300: db94 24bf c370 8b3f 5127 2b3f ba9a ef3d
00000310: 7588 2f3f d16a 8f3c ac9a 173f d2ba 333d
00000320: feef f6be 68b0 343f e673 0ebf c0ce 903f
00000330: 656c ed3e bbfc ee3e 7b9b 2d3f b1b1 0f3f
00000340: b0d2 603f 5c51 e63e aca7 123f 8904 223f
00000350: 678e 3f3f c16a 6440 f176 28bf 99b8 e73e
00000360: b4bc 203e 9d1e 22bf eed6 8b3e 1502 333f
00000370: 5dce 5b40 5b44 653f 1060 5e3f c599 1abf
00000380: 561c 663f 37e4 2a3f 47f3 2e3f 2353 b83e
00000390: 152b 09bf b419 5c3f db8b 153f 73b6 f53e
000003a0: afb8 12bf b26b 0cbf b824 2c3f 45ed c23f
000003b0: 4205 2e3f 4204 edbe 30fe 743f 3789 243f
000003c0: c7c4 c53e 47e4 e8be 4298 2a3f 849b 8a3f
000003d0: c0a9 23bf a1a7 fd3e 2875 733f 1753 903f
000003e0: fada f0be ed7c 3c3f 44cd f13e bc53 913f
000003f0: 49b1 55bd 563d 473f 3b18 05bf a9cb 11bf
