Graph Neural Network/Models/BasicLayers-4.pth (torch, 598182 bytes, 34 tensors)

weight f4 [64, 128]
00000000: c30d 413b 6b24 90bd 5157 ee3c 3816 4a3d
00000010: 9026 25bd ef40 96bd 3a91 81bb 7e5f 99bd
00000020: 315e 81bc f02d d93c 6843 52bd e8e4 ef3c
00000030: d39b 9abc 92ab 8e3d 22e1 aabd 588f fe3c
00000040: 7312 b3bd e656 d1bd ecef 6a3b 0a8c 273c
00000050: af6b d73b 9497 b9bc 1ccf 16ba b234 883d
00000060: b968 c6ba 1f5b 9dbd 530a b9bd 8227 593d
00000070: c691 c5bd 9b6b 42bd a882 8c3d c9dd 72bd
00000080: 5626 0fbd afb7 80bd 290f 80bd 24da aebd
00000090: b097 803d 354e c1b9 988f 6cbd 4616 873d
000000a0: 427d b13b b093 753d e09e 8abd 10da af3c
000000b0: 0665 a3bd c164 d1bc 9ee2 3ebd 9368 babd
000000c0: b3e6 c4bd c0fe 2ebc 8bf1 213d 5c52 91bd
000000d0: 32ac 9ebd 7c2f 29bd 7392 a7bb 8117 89bd
000000e0: 1fa3 66bc 912d 50bc cddd a4bd b603 d3bc
000000f0: 44bd d63c 8d2e 8cbd dd01 d2bc aa8e 4e3d
00000100: 1f40 163d be22 8c3d 3f1f 60bd 9385 13bc
00000110: e961 95bd 8705 6fbb 548e 17bd 3c0d 8bbd
00000120: bd12 c4bd b3cf ff3a 2085 473d 43ca 96bc
00000130: 658e 3f3c eb86 12bc 61de 4f3d 33e8 57bd
00000140: 7d3e 9dbd 1160 24bd 4d8e 83bd 4b4d fa3c
00000150: 2fbd 4f3d 8958 d0bd 195b 03bd 4351 8dbc
00000160: 6f46 adbb d182 62bd 0a2f 72bd ecda c93c
00000170: 0962 babd afc3 8abd 2ad2 6fbd b24c 953a
00000180: 3b28 b1bd 735f 113d 6d6c d2bd 45e2 ac3c
00000190: db0f 1dbd 4a87 c0bc 6218 83bd 1060 5a3b
000001a0: a6dc 6fbc dfc3 86bd 37a4 2abc e9ae a6bc
000001b0: 2406 f63c f8ac 1cbd ea55 72bb cbf2 ccbd
000001c0: 1449 51bc 8dd1 573d 3f1c 8abd 66c6 33bd
000001d0: 2a9d babc db42 cf3b 3a14 a8bd f34e 203d
000001e0: 4e63 edbb bc83 833d 2af3 cf3c 4e54 943d
000001f0: 7ae2 79bd ad98 653d 5080 a3bd 7c91 b0bd
00000200: 1488 cb3d 93b2 52bc 51aa a6bc 7b7f 79bc
00000210: 8270 b33d fab8 773d f006 2cbc d59a a93a
00000220: f77e 853d 4533 94bc fe8d 5fbd 1220 bdbc
00000230: 6c07 be3d 3cb7 6ebd 6427 543d a27c 31bc
00000240: 2d4d d03c 4090 a3bc 3124 453d 483f 15bd
00000250: 0a2e bb3d b9b0 153d 58de bd3d 2142 0a3d
00000260: 6cb5 c3bb 0ec1 d2bc 9690 1d3d c063 973d
00000270: da26 87bc 3f7e 9ebc 2c07 513d e1e3 1cbd
00000280: e807 b93d 740d b93d ee2e 933d 6e29 69bd
00000290: 7599 013d 37cc 643d 5e7b 74bd 7961 f03b
000002a0: 9734 933d 4a1a a33d 9ec2 c73d 7129 943d
000002b0: dc45 573d 3cd3 d43d 7067 31bc 9cab 723d
000002c0: 4b49 943b 3bb7 3ebd 9a32 d93c 1858 e03d
000002d0: a312 803d e008 37bd 7e68 a43d b23b d63d
000002e0: 5b41 663d 940d 8a3c 2cc4 c03d a8dc b33d
000002f0: 008d 89bc d346 b73c 2f92 4e3d f03b c73d
00000300: 24dd 003d 8970 87bc cbbf 753d b687 d93d
00000310: 3943 633d c219 c33c 10a5 b83c 7089 c93b
00000320: 2f80 4cbc c834 f33c 93f2 b0bb 54c3 573d
00000330: 1e8d 8c3d ff8e f33c 90ef c73d 34ff 43bc
00000340: 4aa8 113c 5dd2 813d 4b24 51bd a617 a83c
00000350: d8b8 893c 02eb ba3d 5f72 2fbd b2ab a63d
00000360: 1f0e 853c 1488 70bc d7fb 6bbd cf63 3b3d
00000370: 4846 67bc 87e7 813c 9c05 31bd 8e20 203d
00000380: 3855 b83b 6b66 23bd 5900 9b3d 59f6 3cbd
00000390: f404 5f3d b1ed a63b ef14 40bd fc8b 9fbc
000003a0: e0f4 8abb 9ab8 b93d 637a 9c3d 832b 953d
000003b0: 4f00 623d ac39 50ba c99d 703d 8a24 28bc
000003c0: c8f8 b13d 7429 263d bae4 d23c 46cd 28bd
000003d0: 05c4 0f3d f801 8d3d a202 03bd 197b 91bc
000003e0: 567d 59bd c164 873d 8b22 79bd 0624 6e3c
000003f0: 2001 703d fa13 0b3d 674f a03d fe94 283d
0.0029457666 -0.07038196 0.02909437 0.049337596 -0.04031998 -0.07336604 -0.00395408 -0.07488917
-0.015791984 0.026511163 -0.051333815 0.029283956 -0.01887313 0.06966318 -0.08343722 0.031074211
-0.08743753 -0.10221653 0.003584857 0.010226259 0.006574116 -0.022655286 -0.00057529076 0.06650676
-0.0015137411 -0.076833956 -0.09035172 0.053016193 -0.09646945 -0.0474659 0.06860858 -0.059293542
-0.03494867 -0.06285035 -0.062528916 -0.08537701 0.06278932 -0.00036870097 -0.05775413 0.06596045
0.005416543 0.0599553 -0.06768584 0.021466285 -0.07978253 -0.025560739 -0.046602838 -0.09101977
-0.09614315 -0.010680854 0.039536994 -0.07095787 -0.077476874 -0.04130505 -0.0051138937 -0.06693936
-0.014076977 -0.012706176 -0.08050118 -0.025758605 0.026213296 -0.06844816 -0.025635654 0.050429024
0.036682244 0.06842564 -0.0547173 -0.009004015 -0.072940655 -0.00364718 -0.03700097 -0.06789634
-0.095738865 0.0019516855 0.048710942 -0.018406993 0.011691664 -0.0089433 0.050749186 -0.052711677
-0.07677934 -0.04013068 -0.06423626 0.030554434 0.05071753 -0.10173137 -0.0320693 -0.017250663
-0.0052879374 -0.055300537 -0.05912689 0.024640523 -0.0910073 -0.06775605 -0.058550037 0.0011390655
-0.086502515 0.035491418 -0.10274587 0.021103987 -0.0383452 -0.02350201 -0.06401135 0.0033321418
-0.014640009 -0.06580328 -0.010415128 -0.020347076 0.030032225 -0.038250893 -0.0036977478 -0.100072466
-0.012773771 0.052690078 -0.06743669 -0.04389038 -0.02278002 0.0063251085 -0.08206983 0.03913779
-0.007244504 0.06421611 0.025384504 0.07242642 -0.061007 0.056053806 -0.07983458 -0.08621499
0.09938064 -0.012859958 -0.020344885 -0.015228148 0.087616935 0.06047914 -0.010499701 0.001293982
0.06518357 -0.018090853 -0.054578774 -0.023086581 0.09278759 -0.058280215 0.05179538 -0.010832937
0.025427425 -0.019966245 0.048130218 -0.036437303 0.09139641 0.03654549 0.09270924 0.03375447
-0.005972555 -0.025726821 0.038467966 0.07392073 -0.016498018 -0.019347308 0.05103223 -0.03830326
0.09034711 0.09035769 0.071866855 -0.056924276 0.03164049 0.055858817 -0.059687965 0.0073358384
0.07187765 0.079639986 0.09753917 0.07234467 0.052556857 0.10391852 -0.010827884 0.05924569
0.0045253388 -0.04656146 0.026513387 0.109543025 0.06253555 -0.0446862 0.08027743 0.10460605
0.05621467 0.016852178 0.09412417 0.08782321 -0.016790867 0.022372639 0.05043238 0.09728229
0.031460896 -0.016533153 0.05999736 0.10621588 0.05548403 0.023815993 0.022539645 0.006150417
-0.012481733 0.029688254 -0.005400011 0.052676514 0.068628535 0.029731272 0.0976249 -0.011962701
0.008890221 0.06338952 -0.051060002 0.020519089 0.016811773 0.091268554 -0.042833682 0.08138217
0.016242085 -0.014680881 -0.05761322 0.04574948 -0.014115877 0.015857471 -0.04321824 0.039093547
0.0056253932 -0.039892595 0.07568426 -0.046133373 0.054448083 0.005094253 -0.046894964 -0.01947593
-0.004240617 0.09068413 0.07640531 0.0728369 0.055176076 -0.0007943164 0.058744226 -0.010262618
0.086900294 0.040566877 0.025743831 -0.04121139 0.03509905 0.06885141 -0.031984933 -0.017758893
-0.053098045 0.06611014 -0.06082396 0.014534956 0.058594823 0.033954598 0.07827645 0.041157715

bias f4 [64]
00000000: 67cf 8a3d 30dc 363d 130a 32bd db13 513d
00000010: 2212 e53a c73b ce3a 33b7 a33d 7b19 3e3d
00000020: 58cc 9abd 9935 db3c d28a 2d3d 08a5 f93c
00000030: 80dc 87bd ccc8 ccbc 8c6b 423d 3241 583d
00000040: 85b7 8b3d beb2 f33b 63f8 5a3d 3694 623c
00000050: dfc3 663d 9178 cc3c ee17 803d 22a9 adbd
00000060: 7e2f 81bc 0fe1 9f3b 71fa 6fbc 7551 1c3d
00000070: 2ba3 993d cad1 233d 1d35 873c 80f8 ec3c
00000080: ea6e 54bd 6ebb 85bb 0e6f 76bc 34f0 313a
00000090: 4809 a73d 9782 08bd 4646 a8bd 39c1 473a
000000a0: d014 06bd bc61 32bc 33a4 553d 5e0f e6bc
000000b0: ea26 1f3d f65a 9f3d 94ae aa3c 6581 a53c
000000c0: 2360 7f3d a68e 01bd a0e0 f93c bf47 02bc
000000d0: fc4b 413c 0245 9dbd a11a 4bbd 803e 18bc
000000e0: ca45 3fbd 41cf 0d3d 8cf3 89bd 61e6 8abd
000000f0: a2e2 d1bc 0f4f b0bd 6291 27bd 45f1 413c
0.0677784 0.04464358 -0.04346664 0.051044326 0.0017476717 0.0015734368 0.07993927 0.04641102
-0.07558507 0.026758956 0.042368717 0.0304742 -0.06633854 -0.024998091 0.047465846 0.05279655
0.06822113 0.007437079 0.053459536 0.013829282 0.05633914 0.024959834 0.06254564 -0.08479525
-0.015769716 0.004879124 -0.014647112 0.03816362 0.07501825 0.039994992 0.016504819 0.028927088
-0.05186359 -0.0040811813 -0.015041126 0.0006787807 0.08156067 -0.033327665 -0.082165286 0.000762004
-0.032734692 -0.0108875595 0.052158546 -0.0280835 0.03885547 0.07781021 0.020835198 0.020203302
0.062347542 -0.03163018 0.030502617 -0.007951676 0.011797901 -0.07679178 -0.049585942 -0.009292245
-0.046697415 0.03462148 -0.06735906 -0.067822225 -0.025620762 -0.08608829 -0.040910132 0.011837308

weight f4 [64, 128]
00000000: 20a8 5fbd 5e35 a6bd b36d 943c be33 a03d
00000010: 76fc b03d f3fe 893d 9d3f 643d 36d9 cdbc
00000020: b006 213c b07c 0cbd 840e 143d 5c68 45bd
00000030: a8ea 3ebd 55e7 6d3c b9f1 7e3b 5324 843d
00000040: 37a9 e83b bc21 a23d 36e7 a4bc c48e 96bd
00000050: c1ad 723d 65f9 6ebb 49f9 d1bc 903b 833d
00000060: c919 8a3d 32f3 8b3d 9cc7 943d 257a 36bc
00000070: 8b82 a73b d079 a13d 728b f63b 0a64 923c
00000080: e459 af3d 3da7 3d3d b290 a33d 73b5 063d
00000090: 40e6 c03d 610a 6f3d 9c52 8cbd 24ad dd3c
000000a0: 5fcc a6bb 362a 943d 93f7 143d fc23 c13d
000000b0: ed78 f93b ddc1 cfba 0ac0 893c a7f6 1abc
000000c0: eaa7 a63d 26ff 1a3b e6bd 12bd f1d8 613d
000000d0: d8f9 19bd 544f 89bd ba7d 9e3d e4a0 9f3d
000000e0: f61e a63d 0afd 64bd 1939 873d 9041 ebbc
000000f0: f81d 9cbc c703 95bd fe21 923c b5e4 3b3d
00000100: 1107 bb3b 8625 5aba 87a7 1ebd c5be 6e3d
00000110: 424d 01bd 23f2 04bc 05e1 0f3d 71a3 57bd
00000120: 98aa 8ebc 077a 9abb 94fa 40bd 4581 653c
00000130: dc9c d6bc b07b 7cbd 33ef 873c ff0f 3cbd
00000140: 4255 a8bc 4554 503d d639 a3bd bd21 82bd
00000150: 8e90 9db9 e5d9 ff3c e4e2 63bb f7ac 85bd
00000160: a4a4 f43c 2fc1 103d 13af 073d a98a 69bd
00000170: 75c5 423d 260c b3bc ad52 86bd 93a4 11bc
00000180: d4a3 a7bd 9192 62bd 45ff 2f3d 8d5b 4d3d
00000190: 0653 e5bc a50e 2e3d 67a5 023d 461d fbbc
000001a0: 2c35 60bd 3ae4 7bbd 20c7 2fbd 4ed4 c13b
000001b0: 9db5 433c 5014 da3c 4920 5dbd 166d b7bc
000001c0: 1218 a33d d93e 763d 30f2 5abd 7e46 8a3d
000001d0: 8c1f 123d 9ea5 98bd b9c9 5f3d 5eb9 bcbc
000001e0: fe0e 42bd 8a62 b0bc 5997 38bd 1ed6 66bd
000001f0: f1b5 a33c 7277 a73d f424 b9bc 05ec 3e3d
00000200: dfb7 183c 67d0 133d 2cfb 873c 276c 023d
00000210: 2312 33bc 2c29 9e3d 794b ffbc 3fe0 183d
00000220: 9a36 4ebd 4e3d 9a3d 6a2e 44bd c228 983d
00000230: 5e95 cb3c 1d70 613d a88e 9a3d ddbd ba3c
00000240: ff86 573c 1954 fd3b d05b adbc b1d1 35bd
00000250: b7b5 783d 95de 1f3d 8577 50bc ed5b 3dbd
00000260: cd51 3d3d 9269 6e3d 98e8 d839 3977 e63b
00000270: 4aeb 8b3d a4a0 7bbd ed54 483d 6adf 2abd
00000280: 8065 8ebd 1da9 5b3d 38a9 58bc a75f 64bc
00000290: 421f 983d 7ee3 053d 79a5 cdbc 5f1c e33c
000002a0: 60f2 93bd 6c42 29bd ba4d a63d 285e f2bc
000002b0: d716 7cbd e4c1 d53b 5a14 723d 6b74 b2b9
000002c0: ab6e 39bb 0b2f e4bc 23fd 69bd 48f0 f1bc
000002d0: 5bd3 9fbd b1f9 363d 9b9a 143d 33e2 91bd
000002e0: c868 933b 725c e33c 0363 773d 3d04 2dbd
000002f0: d3fc c2bc b684 74bd 54db 33bc 9efe 473b
00000300: 1cdd 4fbd fee3 9abd 8df6 a5bd d908 b4bb
00000310: fa1a 9bbc e274 a73d 38a0 953d 4e6e 283b
00000320: 34eb 2ebd 6cf1 fa3c 36d5 98bc 66cb a33d
00000330: c14d 51bd b5c9 a4bd 3dd0 97bd f18d 183d
00000340: 63cc 623d 51c9 cd39 406f 4c3c 3e3f afbc
00000350: 9e77 6b3c f858 76bb 36be 8f3d 3a69 46bd
00000360: f502 9fbd 49d7 3f3d d7b1 4bba 8533 233d
00000370: ad5e 92bc 4ea4 a83d 99ca 323d 8cc6 a3bd
00000380: 0cd4 863b c53a d5bc 47ac 0e3d ab55 6dbc
00000390: ae9e 933d 3e1d a3bd 2836 1e3b d00b 92bb
000003a0: eb31 3cbc 824b a1bd 6429 6e3d deb8 8d3d
000003b0: 9608 953d e1b1 263d d6e2 bbbc f4b3 1dbd
000003c0: 56ac 343c 24d2 b13d f33c 47bd 6288 b13d
000003d0: c100 77bd 7e28 8c3d 7241 f8bc 0658 9e3d
000003e0: 5777 bbbb 8029 89bd c1f6 6ebd a5f2 29bd
000003f0: dfa9 59bd 2a5c 28bc 75fb ebbb 53dc 6b3d
-0.054603696 -0.08115648 0.018118715 0.07822369 0.08641903 0.06738081 0.05572473 -0.025127988
0.009828255 -0.0342986 0.036146656 -0.048195228 -0.046610504 0.014520486 0.0038901402 0.06452241
0.00710025 0.079165906 -0.020129781 -0.07351449 0.059247736 -0.0036464569 -0.025631564 0.06407845
0.067431994 0.06833495 0.07264635 -0.01113752 0.0051119975 0.07884562 0.0075239474 0.017869968
0.08562067 0.04630207 0.07986583 0.032887887 0.09418917 0.058359507 -0.06851694 0.027060099
-0.005090281 0.072346136 0.036368918 0.094306916 0.0076132924 -0.0015850622 0.016815204 -0.009458221
0.08137496 0.0023650615 -0.035825633 0.055138532 -0.037591785 -0.06704584 0.07738824 0.07794359
0.08111374 -0.05590538 0.066026874 -0.028717786 -0.019057259 -0.07276111 0.017838474 0.04587241
0.0057076295 -0.00083216315 -0.038733985 0.0582874 -0.03156782 -0.0081143705 0.035126705 -0.052646104
-0.01741533 -0.004714254 -0.04711397 0.014007871 -0.026197843 -0.061641395 0.016593551 -0.045913693
-0.020548467 0.050861616 -0.07970016 -0.06354091 -0.00030053075 0.03123183 -0.0034772689 -0.06527131
0.029863663 0.035340484 0.03312595 -0.057017002 0.04755159 -0.021856379 -0.06558738 -0.008889335
-0.081855446 -0.055315558 0.042968053 0.050136138 -0.02799369 0.042494435 0.03189602 -0.030653607
-0.05473821 -0.06149695 -0.04291451 0.0059152013 0.011945155 0.026621014 -0.053985868 -0.022390883
0.079635754 0.06011853 -0.053453624 0.067517266 0.035674617 -0.07453464 0.054635737 -0.023037609
-0.04737758 -0.021531362 -0.04506621 -0.05635654 0.019984217 0.08177079 -0.022600628 0.046611805
0.009321182 0.03608742 0.01659926 0.031841423 -0.010929617 0.07722697 -0.031163918 0.037323233
-0.05034504 0.07531224 -0.047895826 0.07429649 0.024851497 0.05503856 0.07546741 0.022795612
0.013154744 0.0077309725 -0.021161944 -0.04438943 0.06072017 0.03903063 -0.012723808 -0.046230245
0.04622059 0.05820615 0.00041372026 0.0070332554 0.06831987 -0.061432496 0.048909117 -0.04171697
-0.06952953 0.053628076 -0.013223939 -0.013938821 0.07427837 0.032687657 -0.025103318 0.02772349
-0.07223964 -0.04132311 0.08120294 -0.029585913 -0.06154522 0.0065233577 0.05910144 -0.00034037544
-0.0028294723 -0.027854463 -0.057126176 -0.02953352 -0.07803985 0.044671718 0.036280256 -0.07123222
0.004498575 0.027754042 0.06039716 -0.04224037 -0.023802197 -0.059696876 -0.010977585 0.0030516754
-0.050747976 -0.07563017 -0.081036665 -0.005494219 -0.018933762 0.081765905 0.0730595 0.0025700512
-0.042704776 0.030632697 -0.018656354 0.079977795 -0.051099543 -0.08046285 -0.07412765 0.03724474
0.0553707 0.0003925064 0.012477696 -0.02139246 0.014371781 -0.003758965 0.07018702 -0.048440196
-0.07764236 0.04683617 -0.00077703357 0.039844055 -0.01786741 0.08234464 0.043650243 -0.07996854
0.0041146334 -0.026029 0.034832265 -0.014485757 0.07208 -0.07964562 0.0024141166 -0.0044569746
-0.011486511 -0.0787573 0.058144942 0.06920026 0.07277028 0.040696982 -0.022935312 -0.038501695
0.011027416 0.08682659 -0.04864211 0.08668591 -0.060303453 0.06843661 -0.030304644 0.07731633
-0.0057210135 -0.066973686 -0.05834079 -0.04149117 -0.053140517 -0.01027588 -0.007201607 0.057583164

weight f4 [128, 64]
00000000: 2a4a 493e f118 a6bd ae9b b63c 069d d13b
00000010: 1895 c13d de7d 16be 24cc 1abe 1867 3ebd
00000020: 8afe a8bd 1a8e 963c b926 85bd 0915 cdbc
00000030: 11a7 15be 8db0 ffbc f826 6f3d eb17 3abe
00000040: b079 303d 0090 f4bd c1fa a8bd 5645 6dbe
00000050: 09d2 1a3e 2612 483e 73cb 913c 6283 6abd
00000060: 8ada 06be 1105 00bd 2e0f a3bd 1f31 9bbc
00000070: 0c40 5abc daed e6bd 8d15 07bd 4f85 c93c
00000080: 556b 653d 9d2d c2bc 420f 723d c6e4 963c
00000090: 8409 07bd 4b19 883d 21d1 0dbd 3326 0d3e
000000a0: 6c99 37be 041d 3fbe 0f55 39bd 0624 76be
000000b0: 4b0b 63bd a6d2 c43d d84e d8bd e582 a3bd
000000c0: afa6 3ebe bdde 23be b844 05be 7b21 7cbe
000000d0: 38d3 f8bb 1538 58bd 2b29 28be a686 03bb
000000e0: 466e 783d 511b 0cbe 78b9 193e 9ff5 42be
000000f0: d6b8 9bbd 322d 1dbe eb6b b2bd 1b0e 17be
00000100: 9634 d23c ce67 813d 226a 36bd d40b 52bd
00000110: dfe1 d1bc 8b62 1c3e 882e ccbd d856 33bd
00000120: 36a1 51be 719e 6dbc 78ce b1bc bdef 3b3e
00000130: c759 e3bd 9de6 82be 729e 0bbd 0a25 0cbd
00000140: 3662 9b3d 73cb 0b3e 0f4e 1bbe b437 113e
00000150: 4cbc 3e3c 2714 afbd bb89 60be 1137 81be
00000160: ba3f 2bbd 31ad 64be a6dd 3fbd 3c58 0bbe
00000170: a912 48be fec1 d33d 2780 18be 0040 25be
00000180: 73e7 5dbe d2ed a63d b454 ebbd 82e1 183d
00000190: 162d 2d3e c3df 1bbe c5f7 2abd 7b90 1d3d
000001a0: c6c7 dd3d 2a1a 4f3d f0b8 e83d fde4 2b3c
000001b0: 5c3a eebd 2ed1 1c3e 8e22 133e 7c52 cf3d
000001c0: dbac 4a3d 4b75 81bd 060d 7bbd 57da 9a3d
000001d0: 3ea0 9a3e 9914 003d f17a 1f3e 9e50 2ebe
000001e0: 8b2b 363e e520 85be f251 3a3d 46dd 5cbe
000001f0: bc8b b33d 6274 4cbe a7cb 773d 84b0 9c3d
00000200: ca4d 623e 0f90 5dbe 2cb7 7e3e 6cb0 983e
00000210: a23e 673e cf80 11be 287d 9f3e 80df 14be
00000220: bad8 7f3e 9449 9c3e 0bf9 87bd e6aa 7cbe
00000230: f662 8b3e 3ad8 453e bd2a 9f3e e908 6b3d
00000240: 104e 13be 274d 7ebe a1b8 9f3e db04 54bd
00000250: c3d3 b93e b49e a83e 8b00 103e 9e3d 5b3e
00000260: 182f 9e3d 0570 843d 9c6f 47bd e1f7 8c3e
00000270: 35b4 4e3e e1d7 bdbc 7e2e ae3d 84ee 903e
00000280: 0cd7 983e 47ea 2cbe ddf3 743e 8d4a 2a3e
00000290: cda7 ffbd 4a70 b43e 469f 413e 36d3 1c3e
000002a0: c950 3d3c d1f3 2cbe 2c61 18be 0dff acbc
000002b0: dbc8 153e 81a7 4cbe 69a2 4bbe f770 0abe
000002c0: 3075 25be 74b8 57be 2940 69bd 6e33 d63c
000002d0: e8b3 89bd 8a70 e2bd 1bde 4cbe b13e 983e
000002e0: 7f0b 89be 25c5 6d3e 39fe 7f3e bb1d 5c3d
000002f0: 0512 93bd 84aa 083d 0e5a b8bd e5bf f1bd
00000300: a7bc 23bd 64a6 d9bd 5f80 ba3d 997e 83bd
00000310: b3aa f23b fd3d 0cbd 1ddf b83d 3fe5 8ebc
00000320: a590 273c c191 8f3c a672 75bd fe58 3cbe
00000330: 736b afbd 6c7e 57bd f79c 1ebe 9de3 21be
00000340: 1119 9d3c 6d7d 35be f3b9 933d 4aaf ef3c
00000350: 67b8 843c 7cc0 843d d680 c6bd b9f8 07bd
00000360: 4ee5 48bc e635 95bd 0c13 0cbe 9924 c2bd
00000370: fa39 9dbd 6321 1c3c 7bc2 8e3d d557 a1bd
00000380: ed3e d73d 4f15 f2bd 1ee6 50bd 9c95 20be
00000390: ee02 4cbe 0973 c0bd d243 4bbd db58 0fbe
000003a0: caf9 163d e995 0bbd 4e51 0e3d b901 8abd
000003b0: 36c5 6d3d 40a2 ffbc c7b7 35be 484d 1cbe
000003c0: 4f90 97bd 01e7 52be d8a0 783b cd42 163d
000003d0: 0887 98bd 7941 5fbd d57a 26be 3dab ffbc
000003e0: bc32 693c 9ce2 583c d0aa e1bd dbce a5bd
000003f0: 27b2 2ebe a0e1 23bd a6cf d73b 3332 53be
0.19657198 -0.08110226 0.02229103 0.0063968925 0.094522655 -0.14696452 -0.15116936 -0.046485037
-0.082516745 0.018378306 -0.065015264 -0.025034444 -0.14614512 -0.031212116 0.058386773 -0.18173186
0.0430848 -0.11941528 -0.082509525 -0.23170981 0.15119185 0.19538173 0.017797207 -0.057254203
-0.13169304 -0.03125483 -0.0796188 -0.018944321 -0.013320934 -0.11275835 -0.032979537 0.0245997
0.056010563 -0.02370339 0.059096582 0.018419635 -0.03296806 0.06645449 -0.03462327 0.13784103
-0.1792962 -0.18663412 -0.045247134 -0.2403718 -0.05543069 0.096104905 -0.10561913 -0.079839505
-0.18618272 -0.16002937 -0.13014495 -0.24622147 -0.0075935386 -0.05278786 -0.16421954 -0.002006927
0.06065204 -0.13682295 0.15012157 -0.1903901 -0.07603614 -0.15349272 -0.0871199 -0.14751475
0.02565984 0.06318627 -0.04453481 -0.05128081 -0.025620399 0.15271966 -0.09969813 -0.043783993
-0.20471653 -0.014503107 -0.021704897 0.18353172 -0.11101108 -0.2556657 -0.034086652 -0.03421501
0.075870916 0.13651828 -0.15166496 0.14181405 0.011641573 -0.08548766 -0.2192754 -0.25237325
-0.04180882 -0.22331692 -0.04684224 -0.13607877 -0.19538368 0.103397354 -0.14892636 -0.16137695
-0.21670322 0.081508294 -0.11490765 0.037324436 0.1691173 -0.15222077 -0.041740198 0.038467865
0.108291194 0.05056206 0.11363399 0.010491607 -0.11632225 0.1531417 0.1436865 0.101231545
0.049481254 -0.063212 -0.061291717 0.07561176 0.3020038 0.031269643 0.15574242 -0.1702294
0.17790048 -0.2600166 0.045488305 -0.21568784 0.087668866 -0.19966272 0.060496952 0.07650855
0.22099987 -0.21636985 0.24874562 0.298221 0.22582486 -0.14209293 0.31150174 -0.14538383
0.24985018 0.30524886 -0.06639298 -0.24674568 0.2722394 0.19320765 0.31087294 0.057381544
-0.14385247 -0.24834119 0.31195548 -0.051762443 0.36294374 0.3293358 0.14062707 0.21410224
0.07723826 0.064666785 -0.048690423 0.27532867 0.20185931 -0.023174228 0.085049614 0.28306973
0.29851568 -0.16886245 0.23921151 0.16630001 -0.12483177 0.3524192 0.18908414 0.15314946
0.011554905 -0.16889884 -0.14880818 -0.021117711 0.14627402 -0.19985773 -0.19886173 -0.13519655
-0.16157985 -0.21066457 -0.056945954 0.02614757 -0.067237675 -0.110566214 -0.20006602 0.2973533
-0.26766583 0.23219736 0.24999322 0.05373929 -0.07181171 0.03336574 -0.090015516 -0.11804179
-0.039974835 -0.106274396 0.09106516 -0.06420631 0.007405603 -0.034238804 0.090269305 -0.017443297
0.010227357 0.017525556 -0.05992379 -0.18393323 -0.08565416 -0.0526108 -0.15489565 -0.15809484
0.019176992 -0.17723627 0.072132014 0.029258389 0.016201211 0.06482026 -0.09692542 -0.033196185
-0.012261702 -0.07285671 -0.13679141 -0.09479637 -0.07677074 0.009529444 0.06970688 -0.07878081
0.10510049 -0.118204705 -0.051000707 -0.15682071 -0.19922993 -0.09396941 -0.049625225 -0.1399874
0.03685931 -0.034078512 0.034745507 -0.0673861 0.058049403 -0.031205297 -0.17745887 -0.15263855
-0.074005716 -0.20595933 0.0037937667 0.0366848 -0.0744763 -0.0545058 -0.16257794 -0.031209582
0.014233287 0.013237622 -0.11018908 -0.08096095 -0.17060147 -0.040010095 0.006586033 -0.20624618

bias f4 [128]
00000000: 40ef f23c f1f3 ca3d cab9 813c 53d8 1e3d
00000010: 8867 df3d e0b5 753d 182d 03bd cfc3 583d
00000020: 7d66 2cbc 9a78 8c3c 3039 a2bd ee3f dc3d
00000030: 7fd7 32bd 67a0 81bc a3d0 dc3d 4026 7e3d
00000040: 3dfc b3bd fead cebd a7d5 67bd 0cb5 f6bd
00000050: bce8 f53d 70fa 933d 0137 253c bbe6 11bd
00000060: 40de 1ebd 2d76 fabd b235 e3bc 20c9 843d
00000070: 9079 073d b749 41bd bde4 813d 84a6 c4bd
00000080: a631 b4bd 8b4f c03d 2512 8c3d 353f d2bd
00000090: 9e76 b83c abc4 723c 2095 3d3d 27c7 493c
000000a0: 33ec 43bd 8bf8 07bc 04b5 37bd 1d91 f93d
000000b0: f0b4 4f3d 9626 01bd 2a9a e138 43b8 bd3d
000000c0: 3a74 b83a f9bd 5f3d 5532 2a3d 1d62 e13c
000000d0: 0e3a 7c3d 5614 ddbd b474 2f3d 73d3 86bd
000000e0: 6e90 663d 533e 353d d4d4 f43c b0f1 5c3d
000000f0: 3596 13bd 267f e8bd 8e79 c6bd 53b2 a7bc
00000100: b0e2 953d 89ae 973c 1649 b4bd d3b0 973d
00000110: 83b3 c7bd 9bd6 5abd e78a 86bd 9ab4 aa3b
00000120: d697 023d eced 303d a568 ce3d 9e6e 99bd
00000130: 6b18 75bc f613 943d 4ded bcbc 12d7 dfbd
00000140: aefa c9bd 2e98 5fbd 9d94 06bd 2696 9dbc
00000150: 3e2a f3bd cc42 49bc 3ca7 133b afaf d53d
00000160: 1588 f3bd 64d4 e7bc 0dd8 d9bd 41ee dbbd
00000170: b425 dcbd 0b00 28bc bad5 e93d 7a65 dcbd
00000180: 0d5f f93d 7e1c 2dbd 2f64 b23b 6466 313b
00000190: 4493 833b 9331 b0bd 1667 f03b f30e 8bbd
000001a0: 6f0c 9bbd 54f1 da3d 01bc 933d 6ff9 fd3d
000001b0: 9ec7 c1ba 6133 1dba 335e 84bd 8ae2 a5bd
000001c0: 0453 fb3d be52 d7bd 3543 eb3d 34ea cebd
000001d0: e455 983d 4927 cf3d 8ea4 83bd 2c09 3a3d
000001e0: 767d f8bd 6a31 0cbd 4b73 07bd e060 5d3d
000001f0: 5491 dcbd 1c81 a03d 6fc2 d7bd 7d47 ff3d
0.029655099 0.099098094 0.015835661 0.03878052 0.10908419 0.059987903 -0.032025427 0.052921113
-0.010522482 0.017147351 -0.07921064 0.10754381 -0.043662544 -0.015823556 0.10781982 0.062048197
-0.08788345 -0.1009178 -0.05660024 -0.12046251 0.12007281 0.072255015 0.010083915 -0.035620432
-0.038786173 -0.122295715 -0.027735565 0.06483674 0.033074915 -0.04718944 0.063424565 -0.09602073
-0.08798532 0.093901716 0.06839398 -0.10265962 0.022517499 0.014817397 0.046284795 0.012315548
-0.04783268 -0.008299003 -0.044850364 0.12185881 0.050709665 -0.03153094 0.00010757551 0.09263661
0.0014072724 0.05462453 0.041551907 0.027512604 0.061578803 -0.107948944 0.042835906 -0.065832995
0.056290083 0.04424889 0.02988664 0.05394143 -0.03603192 -0.11352377 -0.096911535 -0.020470774
0.07318628 0.018515842 -0.088030025 0.074067734 -0.09751036 -0.05342732 -0.06569462 0.0052095177
0.031883083 0.04319565 0.10078553 -0.07491802 -0.014959435 0.0723037 -0.023062373 -0.10929693
-0.098622665 -0.05458849 -0.032856572 -0.019236635 -0.118732914 -0.012283992 0.00225301 0.104338996
-0.1189119 -0.028299518 -0.106369115 -0.10738803 -0.10749379 -0.0102539165 0.11417718 -0.107615426
0.121763326 -0.0422635 0.0054440717 0.0027069086 0.004015358 -0.086032055 0.0073365076 -0.06789961
-0.07570731 0.10690561 0.07213593 0.12401091 -0.0014784222 -0.0005996731 -0.064632796 -0.080998495
0.12271693 -0.10513829 0.11487428 -0.101032645 0.07438257 0.10114915 -0.06427871 0.045418903
-0.12133305 -0.034226812 -0.033068936 0.054047465 -0.10769907 0.07837126 -0.10535132 0.12464807

weight f4 [128, 64]
00000000: ec0e 1dbe b269 dc3e 969d 56bf 5c8a 56bf
00000010: 0074 7bbf e010 b03e 53e7 51bf 6179 ca3e
00000020: f76f 48bf 44e1 64bf 96b5 833e 21f2 1d3e
00000030: e780 57bf e6a8 48bf d27b 38be 798b 4fbe
00000040: f552 453e 44df b03e 977d 76bf 90b8 833e
00000050: aecc cdbe f500 25be 545d 45bf a5ae 47bf
00000060: d50b 35bf d748 29bf c021 8d3e b2e2 7ebf
00000070: 4184 2bbf 7c22 a83e 475d 4dbf 88c2 78be
00000080: 969b 35bf f668 8b3e 1479 46bf b2fa d3be
00000090: 50c5 6a3e a226 62bf 0843 21bf 25c2 10be
000000a0: 4015 9c3e 90db a13e c1d5 e43e f08f c53e
000000b0: 035e 24bf 346f 833d a5d1 e63e 2548 a33e
000000c0: f8c3 c83e c715 823e f3d9 24bf db46 413e
000000d0: 6153 45bc ca45 9e3e 4996 ae3e 7d42 66bf
000000e0: f9e0 fa3d 0ad3 3abf 3e45 9dbe 544d 25bf
000000f0: c809 e43e 0c16 f6be 38f6 4a3e 4626 bb3e
00000100: 732b 983e 9620 f83e a601 663e 5b8b ad3e
00000110: 1537 8e3e 3237 e53e 7d0b 413e f21d b83e
00000120: a77f 043e 0e37 9f3e 3ac8 0f3f ef5f 183f
00000130: 3866 023e 55ce 403e 2145 6f3e e85f 5e3e
00000140: c716 fc3e 25da da3e ca91 7f3e 9dd1 943e
00000150: 5f39 803e 0a97 b73e 3ae7 283e fda4 7f3e
00000160: b12b 833e b5bf 613e ef0f e73e 1b31 643e
00000170: 6d8b 573e 28fe 913e 3d03 a33e 7d91 9d3e
00000180: cb9c 813e 7fa3 193f c24d 9c3e 6e17 c93e
00000190: 693c f43e 2b71 273e b8fe 283e c7df b73e
000001a0: ada2 c03e 8d8f ff3e f07f be3e 3982 eb3e
000001b0: 2b51 913e 1108 013f 2334 b23e 9dcf c53e
000001c0: 7bee a33e 0007 fd3e 199c 103e 888d e63e
000001d0: cfbe 183f 32f1 d93e 4539 043f 989c 3b3e
000001e0: 024a 1c3f e865 603e 015f b73e f248 833e
000001f0: c1db aa3e 92f0 a13e b3b1 db3e 2918 be3e
00000200: 2d45 8abe 50d9 cbbe ab71 1abe 8e81 9f3c
00000210: 6a7a 3fbe 4e7e a7be bbad d43c 5991 52be
00000220: d8c9 e9bd 22be 89bd a602 8ebe 84c6 45be
00000230: 4d99 91bd f441 483d 9eef 4abe 9289 503d
00000240: a2e9 bcbe 7d28 b2be cf45 4b3d f67a 5abe
00000250: 13ea 88be 71a0 53be e5fb 1dbd 0fb5 593d
00000260: 3020 03be ad77 a3bd f6a2 bdbe 259e 4fbe
00000270: ad34 89bd 0b2c 46be b32a 033b ec51 23be
00000280: c648 18be 4570 cabe 7a0f 0fbd cc56 77be
00000290: d51f b3be 6a63 a63b 58ed 42bc 71ef 89be
000002a0: 966b d8be bc1d 80be 18c0 98be 20ad 5bbe
000002b0: 7bd4 953d 7ffe a4be 916e d7be 137c c8be
000002c0: 9954 9fbe a0ab bfbe 37ab 07be 10a6 8abe
000002d0: ecc4 b4be 897a d2be 7f44 91be 326e cc3c
000002e0: 5778 96be 1bf5 8bbd 0d58 54be f1a9 2a3b
000002f0: ea9b bebe 6f36 e4bd 87fd 81be af68 bebe
00000300: ff50 f4bf 346c c03d 1130 3dbf fd70 77bf
00000310: 79d9 70bf 6481 8e3d 4f06 5cbf 1905 f83c
00000320: 83ac 4fbf 2c3e 6fbf 2e9d c0bd 00fa 9bbd
00000330: 6326 32bf 32bc 57bf 7cee cbbf fd34 1fbf
00000340: 5b14 93bd 0d8b d83d d8d7 30bf 7aeb 21bd
00000350: 813b b9bf 6c18 f5bf 17ad 3ebf b5af 2ebf
00000360: e11d 52bf b820 4dbf a136 0abc a4a5 5abf
00000370: 831a 3abf a7da f03d cb63 58bf 83f0 eabf
00000380: 702a 32bf 368d 01be d647 6fbf a034 c7bf
00000390: 8ab9 c2bc ccc3 68bf 0373 22bf 4bd8 e3bf
000003a0: 78c5 b73d 1a62 e8bb 6835 d6bd 0788 a7bd
000003b0: 86fc 46bf 8ac5 15be 9dcb 423d 27e8 f6bd
000003c0: be4c 0fbd 8a05 35bd 4e0c 24bf 9009 143d
000003d0: e901 c53b 6286 ce3d 6411 59bd 7907 5bbf
000003e0: f561 c3bc cc3b 40bf c1c7 e8bf b54f 27bf
000003f0: 8ae9 8ebd 6379 39bf 230a f9bc c955 cbbd
-0.15337723 0.4304939 -0.8383421 -0.8380487 -0.98223877 0.34387875 -0.819936 0.3954573
-0.78295845 -0.8940623 0.25724477 0.15424396 -0.84181064 -0.7838272 -0.18015984 -0.20268048
0.19269927 0.34545338 -0.96285385 0.25726748 -0.4019522 -0.16113646 -0.7709553 -0.7800086
-0.7072118 -0.6612677 0.27564812 -0.9956466 -0.6699868 0.3283881 -0.80220455 -0.24292958
-0.7094053 0.27228516 -0.775285 -0.41402203 0.22926831 -0.883402 -0.62992907 -0.1413656
0.30484962 0.31612825 0.4469433 0.38586378 -0.6420595 0.06417695 0.4508182 0.3189098
0.39212012 0.2540724 -0.64395064 0.18874685 -0.012043805 0.3091262 0.34099033 -0.89945203
0.122499414 -0.7297827 -0.3071689 -0.6457112 0.44538713 -0.48063695 0.19820487 0.36552638
0.2972065 0.4846236 0.22461566 0.33895382 0.277764 0.44768673 0.18852039 0.35960346
0.1293932 0.3109669 0.56164896 0.59521383 0.12734306 0.1882871 0.23366214 0.21716273
0.49236128 0.42744556 0.24957958 0.29066172 0.2504377 0.3585742 0.16494456 0.24965282
0.2561927 0.22045787 0.45129344 0.22284357 0.2104928 0.28514218 0.31838408 0.3077506
0.25314936 0.600151 0.30528075 0.39275688 0.4770234 0.16351764 0.16503417 0.35912916
0.37624112 0.49914208 0.37206984 0.4599779 0.2838224 0.50402933 0.34805402 0.3863496
0.32017884 0.49419403 0.14122047 0.45029855 0.5966615 0.4256683 0.51649886 0.18321455
0.61050427 0.21913874 0.3581467 0.2564159 0.33370784 0.31628853 0.4290901 0.37127808
-0.27005902 -0.39814234 -0.15082423 0.019470956 -0.18699041 -0.3271355 0.025961747 -0.20563258
-0.11415452 -0.06725718 -0.27736396 -0.19314009 -0.07109318 0.048891023 -0.19817969 0.050912447
-0.36896998 -0.34796515 0.04962712 -0.21335968 -0.26741084 -0.20666672 -0.038570303 0.053151187
-0.12805247 -0.07981811 -0.37038392 -0.20275171 -0.066995 -0.19352739 0.0020014464 -0.1594922
-0.14871511 -0.3953878 -0.03492687 -0.24154204 -0.34985223 0.005077769 -0.0118974075 -0.26940492
-0.42269582 -0.25022686 -0.29834056 -0.2145276 0.07315918 -0.32225415 -0.42076543 -0.3915716
-0.3111923 -0.37435627 -0.13248907 -0.2707982 -0.3530649 -0.41109112 -0.2837257 0.024954889
-0.29388687 -0.068338595 -0.20736714 0.0026041234 -0.37228328 -0.11143195 -0.2538874 -0.37189242
-1.9087218 0.09395638 -0.7390147 -0.9665678 -0.94081837 0.06958273 -0.85947126 0.030275868
-0.81122607 -0.9345424 -0.0940498 -0.07616043 -0.69589823 -0.8427154 -1.5932155 -0.6219023
-0.07181617 0.10573397 -0.6907935 -0.03953121 -1.4471284 -1.9148078 -0.74482864 -0.6823686
-0.8207684 -0.8012805 -0.008435876 -0.85409 -0.72696704 0.117604546 -0.8452727 -1.8354648
-0.69596004 -0.12651524 -0.9346899 -1.5562935 -0.023770113 -0.9092376 -0.63456744 -1.7800382
0.08973211 -0.0070917727 -0.10459405 -0.08180242 -0.7772907 -0.14626136 0.047557462 -0.12055998
-0.034985296 -0.044194736 -0.64081275 0.036141932 0.0060121906 0.10084225 -0.0529951 -0.8555828
-0.02385042 -0.7509124 -1.818596 -0.65356 -0.06978138 -0.72450846 -0.030400341 -0.099284716

weight f4 [256, 128]
00000000: 8802 d63d 8580 6bbe 6bcf 40be d347 c6bb
00000010: 135e 92bd bed5 8ebe 72dd b3be c61d 27be
00000020: 74a5 cfbe 150a 6fbd 114e ed3d 331a 18bf
00000030: 4d42 37be a6f2 71be cc3c 1dbf 63b5 f1be
00000040: 0501 a6be 1274 f43c 8e64 4ebd f02d 13be
00000050: e139 f33b 17f6 0fbe 0ec8 5c3d b8d1 d0be
00000060: 6a86 01be a210 94bd f9cc 143c b470 313c
00000070: 7d0d b5be 43f8 01be b850 ffbd 600c ba3d
00000080: 0a99 abbd 4fe0 7fbd 07b2 06bd 4991 b4bd
00000090: c04f c0bd bc20 0abf 7849 6fbe 0977 4fbd
000000a0: 8019 e1bd bde0 07be 5ccc c9be f5ef 8e3d
000000b0: 24ee 3fbe 2cce 03be c32a 52bf 5b33 2abd
000000c0: 3771 35bc ce7d cabe e301 9abd fef7 1fbe
000000d0: d439 b53c 6fdf 70be 672c 80bb d740 b0bc
000000e0: 2c0c f4bd e54b 99bd 9978 81bd 0366 cbbe
000000f0: 21f1 19bf 8280 86be 6a27 ddbe 1ded 223c
00000100: 06cc e7be e165 9dbe aa36 02bf 5f64 b6be
00000110: fc65 8cbd 8b19 85be 49d5 10be b68a 62be
00000120: 7772 4cbe 82e2 b5be fabe 2f3d 1689 bcbc
00000130: a0b6 81be 5bd7 22bf d599 9dbe e7f9 9bbe
00000140: c397 d0be e3c0 a0bd ea1f 97bd 6e08 9cbd
00000150: 4fdb 23be b303 11be 0975 8bbe 5f1d afbe
00000160: 6aa8 393c 47d9 18bd fbd3 393c 4221 92bd
00000170: 76fe 043d 3fa1 f6bd e044 753b 1c31 9cbe
00000180: 9376 4f3d 06c9 19be 6fa6 81be cd47 78be
00000190: d0fa 2bbe 8c76 3ebd 3343 203d fa91 46bd
000001a0: cc20 7ebe 2af8 28bd e485 39be def0 20be
000001b0: 088c 07be 7976 b1bd ca9b 53bd 8db1 06bf
000001c0: 75f6 8ebc dac0 c73d c82e 273d 5b84 22bf
000001d0: 89c8 98be 74ff 8fbe 1763 2e3d 38b0 09bd
000001e0: 46a2 63bd ab6b 4b3d aa6d 0d3e 6535 8bbe
000001f0: 9d29 a13c dae5 52bd acae 43bd b3a9 b6be
00000200: 707a 563e ab2a 453d 04a9 c23d 5344 2e3e
00000210: 0179 c7bc 5c18 81bd c380 143e 2460 7ebd
00000220: 1878 713e 7236 903d 6ab7 193e 8d07 023e
00000230: a980 eebc 0c5b 9cbd cc60 453e e560 af3d
00000240: 1eb4 25bc ef68 a73d e45d db3c 277e ee3a
00000250: 9817 823e ed92 e13d f9dd 063e b932 2cbc
00000260: d54f d53d cd6b 1d3c 5cd7 443e e7ca 7e3e
00000270: 6f3d bc3d 1e75 87bc c2b4 18be 6ba1 3cbe
00000280: 0b8d 5f3b 449b ef3c 4fbe 39be 7376 a43d
00000290: 3f85 773e e5ea d1bc 838f 95bd ea62 763e
000002a0: 392f 2fbe 17bc 7d3e aa64 f83d c508 8f3d
000002b0: f1fa 4bbd 723f 843c b9c0 1e3e 6c6d a33e
000002c0: e231 80bc 6608 353e febc 963d 66b0 cdbc
000002d0: f6df 363e fcfc 59bd 0784 133c bf48 c93d
000002e0: 61e0 13bd 71ab 9e3d 9e17 fd3d 356f 3f3c
000002f0: 63bd 563e 19ad 4f3e 69e0 c6bc b38d 8cbd
00000300: a69d 4c3d 983b 583e fbb3 f93c 59a8 af3d
00000310: e04a 303e 9746 a33d 9c32 d23d a732 f13d
00000320: 584b ec3c 3f4c 3f3d a49f c33d 9e14 7dbd
00000330: 8bd8 b73d 4e55 9f3e 2b6a 7f3d 39f4 a53a
00000340: a493 053c 7e6c dc3d eff4 e6bd 620a 7a3e
00000350: d2af ea3d 369f 013c fabe 4f3d e837 e33d
00000360: 2d14 d7bc 6f97 aa3d 0140 063e 6460 443d
00000370: bd73 353e 41eb 283c 76d8 17be 737f 403e
00000380: 47dc 983e 12da ec3d 74a4 e43c d556 5fbd
00000390: b26d 643d e063 903d 9365 ba3e 9040 56bd
000003a0: 8467 2d3e ba4e 3ebd 7978 493c 8d43 be3c
000003b0: 679a 283d fd7f a6bd 5791 5dbc 9223 963b
000003c0: 9efc cdbd 0294 f93d 27b4 aebd d2f1 a43d
000003d0: a01f 5abd 4c37 6e3d 0d51 773e 4eef 913e
000003e0: 62b1 153e 74dc 573e ffce 033e fbe9 17be
000003f0: 6391 113e 0e3e 853e dd9c 2b3e bc8a 763e
0.104497015 -0.22998245 -0.18829124 -0.0060510426 -0.071468495 -0.27897447 -0.35129887 -0.16319951
-0.40555918 -0.058359224 0.115871556 -0.59414977 -0.17896385 -0.2362772 -0.61420894 -0.472087
-0.32422653 0.029840503 -0.050388865 -0.14372993 0.007422671 -0.1405872 0.053901725 -0.40785003
-0.12648931 -0.07229735 0.009082072 0.010830093 -0.35361853 -0.1269236 -0.12466568 0.090843916
-0.08378799 -0.062469777 -0.032884624 -0.088167734 -0.09390211 -0.539562 -0.2336787 -0.05065063
-0.10991192 -0.13269325 -0.39413726 0.06979362 -0.18743187 -0.12871617 -0.820965 -0.041552883
-0.011074356 -0.39549106 -0.07519891 -0.15621945 0.022122301 -0.23522733 -0.003911543 -0.021515293
-0.11916384 -0.07485179 -0.0632183 -0.39726266 -0.6013356 -0.2626992 -0.43194133 0.0099442275
-0.45272845 -0.3074179 -0.5086466 -0.35623452 -0.068553895 -0.2599605 -0.14143862 -0.22123227
-0.1996554 -0.35524374 0.04290674 -0.023014586 -0.25334644 -0.63609856 -0.30781427 -0.30464098
-0.40740785 -0.0784929 -0.07379134 -0.07618795 -0.16001628 -0.14161567 -0.27237728 -0.34202096
0.011331657 -0.037316587 0.011342044 -0.0713525 0.032469235 -0.12042474 0.0037425086 -0.30506217
0.05065019 -0.1501809 -0.2532229 -0.2424614 -0.16794896 -0.046499774 0.039126586 -0.048479058
-0.24817199 -0.041252293 -0.18117481 -0.15716884 -0.13237011 -0.08665175 -0.051662244 -0.5261467
-0.017451504 0.097535804 0.0408161 -0.6348321 -0.29840496 -0.28124583 0.04257497 -0.03361532
-0.055574678 0.049663227 0.13811365 -0.27189174 0.019673163 -0.051488735 -0.047774002 -0.35676345
0.20945144 0.048136394 0.095048934 0.17018251 -0.024349691 -0.06303474 0.14502244 -0.062103406
0.23580968 0.070416346 0.15011373 0.12698193 -0.029114084 -0.07634553 0.19275206 0.08563403
-0.010113744 0.08174311 0.026778169 0.0018195555 0.25408626 0.11014352 0.13170613 -0.01051014
0.104156174 0.009608221 0.19222778 0.24882089 0.09191405 -0.016535338 -0.14912704 -0.18420951
0.0034111168 0.029248841 -0.18139003 0.08030405 0.24171923 -0.025624702 -0.07302763 0.2406117
-0.17107858 0.24778782 0.12128575 0.069840945 -0.049799863 0.016143534 0.15503205 0.3191942
-0.015648786 0.17678985 0.07360266 -0.025108527 0.17858872 -0.05321978 0.009003646 0.09828328
-0.036102656 0.077475436 0.1235802 0.011684229 0.20970683 0.20280875 -0.024276929 -0.068629645
0.049955033 0.21116483 0.03048133 0.08577032 0.17216063 0.07972448 0.10263559 0.11777239
0.02884452 0.046703573 0.095519334 -0.06178724 0.08976849 0.3111977 0.06235711 0.0012661285
0.008152876 0.10762881 -0.11277186 0.24418023 0.11459316 0.007911494 0.05071924 0.11094648
-0.026254738 0.08329665 0.13110353 0.047943488 0.17719932 0.010309995 -0.14828667 0.18798618
0.29855558 0.11565031 0.027910449 -0.05452617 0.055768676 0.070503 0.3640562 -0.052307665
0.1693402 -0.0464618 0.012296789 0.02322557 0.041162875 -0.081298806 -0.013523421 0.004581877
-0.100579485 0.121864334 -0.08530455 0.08053936 -0.053252816 0.058158204 0.24152012 0.28502887
0.14618447 0.2108019 0.12871931 -0.1483535 0.14215617 0.26023906 0.16759057 0.2407636

bias f4 [256]
00000000: 30aa 7bba 6e08 f13c 93fa 973c 60fd ef3b
00000010: dece a0bd c367 ae3d 74a2 193d 1d0e b33d
00000020: c1a9 893a 565b 80bd 15aa 193d 154a 683d
00000030: 7113 48bd 541a 8b3c f65a 77bd 6d6d 343c
00000040: 121a 353c eced 13bd 2ab8 e6bb b0d3 873d
00000050: fa09 ae3d 9081 893d a524 993d 9d7c c1bc
00000060: ec86 113d 33d9 5fbd f1dd 383d 37c5 3e3d
00000070: 05af 8f3d 7259 b83d a0c8 44bd cbc3 85bd
00000080: d49c a13c d721 5e3d cc57 e8bc 6c9c da3c
00000090: c77e 5c3b c390 c33c 7155 b4bc 9894 003d
000000a0: e6a6 96bd 5174 46bd 2ec4 b33c 1cae 75bd
000000b0: 7d6e 303d 204c 953d a93c 65bd a8b2 4c3d
000000c0: f861 8ebd d6bb 6bbb b494 a63d 888d 76bd
000000d0: c6c3 b4bb b392 943d a24c 33bc 2487 4c3d
000000e0: 8ad8 75bd b700 743d 9627 8fbd 76d5 afbd
000000f0: f81c 35bd 4d97 61bd 0b59 543d fab1 433c
00000100: b62a 35bd 5296 4d3d 6623 71bd 4805 913d
00000110: 86bd 98bd cc92 b93d b2bf 2bbb 116d 08bd
00000120: 9c34 1bbd b16c adbd cc27 81bd 0fdb 79bd
00000130: d17a 4dbd acb6 8d3b 4043 91bd 0c5a 4cbd
00000140: ad33 1ebc 75ce a13c 23f5 183d 77ee 36bc
00000150: dfc4 93bd 6e9e fe3c 1fcd ba3c 57ec 46bc
00000160: e27b 233d 9578 1e3c 41de b8bd 26c4 12bd
00000170: 3f68 81bd d1f4 aa3d acfd 84bd a61c e2b9
00000180: 2f2c 383d 5b49 73bd 4363 e8bc 9f20 90bd
00000190: 494d 863a 699e 5d3d 2db9 adbd 7ee0 4c3d
000001a0: 48df b1bd e96a a6bc 5a1c 8b3d 74ce 463d
000001b0: 1db8 a53c 3a9e b33d 17b9 a1bd 2d25 acbc
000001c0: a11f 013d c179 e43c 7e92 7fbc c41a f1bc
000001d0: 880b 943d 9f0f e13c 4f7a 843d 7e3d 043d
000001e0: 4f5d 11bd 1582 11bb c0eb a8bd 69be a43d
000001f0: 586b 90bd 2593 493d ae1b 9abd 51f3 54bc
00000200: 5838 a5bd 2191 96bc a955 b4bd c38d aabd
00000210: cf4e 19bc 7de6 843d f2c2 64bd 42ce 70bd
00000220: 03ca ae3d 50cf 2dbd 0418 aabd 785b 823d
00000230: bcef a43c 8e71 ffbc 7160 a33d e71e ae3d
00000240: 50a9 013d 2549 073d d534 463d 1062 91bc
00000250: c526 ad3c 7253 ea3c 7f2a d0bb 7919 97bd
00000260: cd93 8dbd 9db2 15bd f552 9abc 7425 b33d
00000270: 916f bbbb d874 b3bd 1ce7 4f3b 7d9d 633d
00000280: 881a 7bbc 1363 87bb ca39 583d b7a3 453d
00000290: 114d ae3d b47b d63c 165b ad3d 7e35 da3c
000002a0: abe4 babd 5572 413d 623f 53bc d680 53bc
000002b0: 14ae 9cbd ff3a 7fbd 2b87 783d 0805 9b3d
000002c0: 0771 a6bc 5890 e53c a995 583d 3028 983d
000002d0: b38f f1bc c4e1 b23d d196 0dbd 28b6 86ba
000002e0: caff 9cbd 9d7b 7abc 3de1 eeb8 b2cf 463d
000002f0: 9a93 ca3b 884b d6bc d125 cc3b 3308 04bb
00000300: c4db c23c 5f7d 57bd b780 9bbd 73ba 823d
00000310: 58b5 97bd 8cdc 95bd cbe0 883d 06d9 9ebd
00000320: 5b1e 25bd 61f8 39bd a70a fd3c 2902 5fbd
00000330: 5c71 893d 4d88 a53d 5300 af3d 78a9 b4bc
00000340: de78 32bc e920 873d be4d 0bbd dd84 093d
00000350: 5f38 bbbc d495 85bc 50a6 9c3c 2578 8f3d
00000360: 78fd 4dbd a29a b2bc 5cb2 3bbd 2eac d8bc
00000370: 5ab2 183d 75e7 933d 55e9 62bc 43e7 5e3c
00000380: 0ef5 8a3d eaa6 423c 826e 81bb c58e c0bc
00000390: c54d 2ebd 3bc9 af3d 48fb cbbc 967e 4cbb
000003a0: dbdb 5a3c 4398 1e3d 01d7 0abd 98df 94bd
000003b0: cbab 5e3c 6924 bb3b 7392 d03b a6ab 8ebd
000003c0: 2c34 6e3d a0bc 8dbd f564 953d 52db 083d
000003d0: bf67 893d 5e5b 1e3d f9f5 4ebd 6794 84bd
000003e0: 2915 13bd 4d3a 163d 2a69 9f3d 5fef 97bd
000003f0: ce4c 97bd 0999 64bd 193f 333d f593 0fbd
-0.000960025 0.029422965 0.0185521 0.007323906 -0.07851957 0.08515885 0.037508443 0.08742926
0.0010502861 -0.06267421 0.03751572 0.056711275 -0.048846666 0.016980328 -0.06038948 0.011012417
0.011053579 -0.03611557 -0.007040997 0.06632173 0.08497997 0.06714165 0.074776925 -0.02361899
0.035529062 -0.054650497 0.045133535 0.046574797 0.07015804 0.09001435 -0.048042893 -0.06531485
0.019728102 0.05423149 -0.028362177 0.026685916 0.00336449 0.023872739 -0.022013398 0.03139171
-0.07356052 -0.04845077 0.021944132 -0.059980497 0.04307412 0.0728991 -0.055966053 0.049975067
-0.0695228 -0.0035970113 0.081338316 -0.06019357 -0.005516502 0.07254543 -0.010943564 0.049933568
-0.06002096 0.059570994 -0.06989972 -0.08585636 -0.04421708 -0.055075932 0.05184273 0.011944288
-0.044230185 0.050192185 -0.05887165 0.070810854 -0.07458024 0.090612024 -0.0026206789 -0.03330714
-0.03789197 -0.08467997 -0.06306419 -0.060999926 -0.050165955 0.0043247547 -0.07092905 -0.049890563
-0.009655875 0.019751767 0.037343156 -0.011165253 -0.072152846 0.031081405 0.022802887 -0.012141309
0.039913066 0.009672304 -0.090267666 -0.035831593 -0.063187115 0.08347476 -0.064936966 -0.00043127424
0.04496401 -0.05939613 -0.028367644 -0.07037472 0.0010246421 0.05410615 -0.08482585 0.05001878
-0.08685166 -0.02031465 0.06792517 0.048536733 0.020229394 0.08770414 -0.07896631 -0.02101382
0.031524304 0.027890088 -0.015598891 -0.029431708 0.07228762 0.027473269 0.06468641 0.032285206
-0.035489377 -0.002220278 -0.08248091 0.0804413 -0.07051724 0.049212594 -0.07524811 -0.012997464
-0.08067387 -0.01837975 -0.08805401 -0.0832782 -0.009357168 0.06489275 -0.055849977 -0.058790453
0.085346244 -0.042434037 -0.08305362 0.063651025 0.020133846 -0.031182077 0.07977379 0.08501988
0.03165561 0.03302874 0.04839023 -0.017746955 0.02113665 0.028604243 -0.006352722 -0.073779054
-0.069129564 -0.036547292 -0.018838385 0.08747378 -0.005720087 -0.087625206 0.0031723445 0.055570114
-0.01532615 -0.0041316836 0.052789487 0.048251834 0.08510793 0.026182033 0.08464639 0.026636835
-0.09125646 0.047228176 -0.01289353 -0.012909135 -0.0765039 -0.062312122 0.06067578 0.07569319
-0.020317568 0.02802293 0.052877102 0.0742954 -0.029487466 0.087344676 -0.034567658 -0.0010277675
-0.076659754 -0.015288261 -0.00011390678 0.048537917 0.0061821463 -0.026159063 0.006230094 -0.0020146489
0.023786433 -0.052609798 -0.0759291 0.063832186 -0.074076355 -0.073174566 0.06683501 -0.07756238
-0.040312152 -0.04540289 0.030888868 -0.05444542 0.06711075 0.08082638 0.08544984 -0.022053465
-0.010893075 0.06598074 -0.034009688 0.033573974 -0.022854028 -0.016306795 0.019122273 0.070053376
-0.050290555 -0.02180225 -0.045824394 -0.02644929 0.037279464 0.07221881 -0.013849576 0.013604942
0.06785022 0.011880616 -0.003949941 -0.023505578 -0.042554636 0.085833035 -0.024900094 -0.003120338
0.013358082 0.038719427 -0.03389645 -0.072692096 0.013590763 0.0057111275 0.0063651144 -0.06966333
0.058155224 -0.06920743 0.07294647 0.033412285 0.06709241 0.038661353 -0.050527547 -0.06473618
-0.03590885 0.036676694 0.0778373 -0.07418703 -0.07387696 -0.05581001 0.043761346 -0.035053212

weight f4 [256, 128]
00000000: 01e7 55bb 9edc 623e caaa 323c d896 44bf
00000010: d888 d9bd d186 de3e 7737 963e 24e8 ca3e
00000020: b45d bd3d 62dd 413e 0494 b73d a90b 843e
00000030: f011 373e 6e2b 92be b2ff 813e 297b 803d
00000040: 7f8c c43d 4d53 253e b3c6 b93d 4989 acbe
00000050: 3ea2 fd3c 980f 8b3e ff72 d33d 6e87 803e
00000060: fc96 1ebd ccea ca3e 24a9 1fbe 7fcb 25bf
00000070: c79a 843e d559 ab3e 41d2 b23e 0db6 03bc
00000080: d1f6 af3e affd 2f3c d04b 09bd 0499 713e
00000090: 18d9 66bc bd43 513e 9153 5cbd 6bc9 86bd
000000a0: 9f4b 9c3e 4837 8fbd ec29 89bd 5496 18bd
000000b0: 03d0 19be 38dd 013e 4a45 803e ab89 ea3d
000000c0: f328 c73e 8442 8a3e 8ceb 163e 4f76 d73c
000000d0: ab77 a5bd 38c3 f33d d35b af3e a1a9 fd3d
000000e0: f252 653e ef25 713d 6186 53bd 73b2 7f3e
000000f0: 426e 7a3e 4811 e63b 3b0c bd3e 8fe1 c6bd
00000100: 6051 d43c c5d9 a2bd 36e1 323e 9cac 833e
00000110: ad64 5c3e 385f 953d d355 bbbc b97b 603e
00000120: 65c4 563d 266b d03e 2b62 5b3e 5c1d 5d3e
00000130: cc21 9a3c a95f 1f3e 7a46 433d 02b3 e63e
00000140: 9e90 9c3e bf28 0dbe 687a 933e 98e4 b1bc
00000150: 1b52 793d bd12 f53d 4960 003e 2ee2 cb3e
00000160: ca54 c8be 3f56 c23b 3005 c5bd c140 4d3e
00000170: eb5a 99bd eeec 953e 480c f93d b1f3 9dbe
00000180: a5f2 54bd 0140 683e 8777 7d3e c038 333e
00000190: 9be6 f63d 0664 dbbd c170 45bf 4009 d83e
000001a0: a2f7 793e 0dfc b03d 2c35 95be 2296 5e3d
000001b0: 7a2c 963e 5a46 273e 8244 223e 600a ad3d
000001c0: 9781 163e 27bf 65bd 3616 8e3e 6fbf b93e
000001d0: f787 613d 02ce ae3e 8333 94bd 17aa 163d
000001e0: 7895 8cbd 5b80 e7bd ee9b bbbd 0917 e33d
000001f0: bffa 7abc 6d6d 21bc 38b9 b6bd 49b2 163d
00000200: 9114 bdbe c8a9 bcbc 3a08 5a3e 2b07 393e
00000210: 9541 34be 2ee9 fe3d 25ac c63e 5779 0cbf
00000220: 1ea6 d93e fa5b af3e c2e2 aebe 92c4 d03e
00000230: 26e6 163f 09e3 63bd 6b2f 013f 9f42 5b3e
00000240: fc9a 943d 0618 bb3e 51e9 94bc 60d6 64be
00000250: a235 6ebd f0cb ffbc 3c3a 21be 20dd c33e
00000260: 23e4 863e 4afa 08be b38e 1fbe e31f ccbe
00000270: 90a7 a33e 9128 173e 5a2b 353f 1e3d 6f3f
00000280: 30c4 fc3e 2103 20be 46f3 bcbd 8f5b a5bd
00000290: d998 24be 93d2 2f3e 2fa2 a5be 8fe3 6abe
000002a0: 42c5 2a3f e79f bf3e 6155 4439 b003 c3be
000002b0: 7f6c 4c3e 91aa d4bd 95af bb3e 50cb b93e
000002c0: 67aa 063f 5a7b da3e 3bfa ca3c 0257 3a3e
000002d0: 6ede dabe 76b3 993e 77fd 023f b86b 95bd
000002e0: 2b4f 0cbf 62b2 26be 2cce 49be d160 c43e
000002f0: 99a2 d63e f5bf 01be 68e5 903e dbd2 34be
00000300: 172a a73e b371 913e f529 aa3e dba9 b73e
00000310: bd06 af3e f8e0 4c3d 86dc 1dbd 5c68 523e
00000320: 0c3c 58be a505 883e 48eb d93c 2d86 e93e
00000330: 9b1b 61bd 0f4b fd3e dea0 663e efce 043f
00000340: b46f 9f3e 255e 8cbe a60f 623d c126 d4bc
00000350: 930e cb3e e7ab c63d 8412 533e ef1f 033f
00000360: b76b dbbd ff09 3ebe a3d7 5abe 4f4d 173f
00000370: 5a6c dbbe 7dcd 253e 6c08 a13d f407 28be
00000380: dd7b 67be ce8d 373e 6fd0 dc3e 22a7 55bd
00000390: ca4e 963e a4d3 3dbe 9606 a13d 2932 06be
000003a0: 0a31 b13e 304e 5cbd a874 26bf 9709 1dbe
000003b0: 9dfb 9d3e 7db6 18bf 5b84 393f 6b39 3b3e
000003c0: 45db 093f e329 d9be 59c2 903e 047f bc3e
000003d0: 2350 9d3d f6f2 c13e 689d ddbd 48ba 9dbc
000003e0: 64df ff3e 895d 0abe a828 87be 1648 b93b
000003f0: 34dc 30be 0e53 f83c 850f 093f 9198 853e
-0.003263891 0.22154471 0.010904977 -0.7679267 -0.10621804 0.43462232 0.2933919 0.39630234
0.09246388 0.18932107 0.089637786 0.25790146 0.17877936 -0.2854876 0.25390393 0.06273491
0.0959711 0.16145058 0.09071102 -0.3369849 0.030961152 0.27160335 0.10324668 0.25103325
-0.03871821 0.3963226 -0.15591866 -0.64763635 0.25899336 0.33466974 0.34926036 -0.00803901
0.34367993 0.010741635 -0.033519566 0.23593527 -0.014089845 0.20435996 -0.053790633 -0.06581386
0.30526444 -0.06992966 -0.06697449 -0.03725274 -0.15020756 0.12682045 0.25052863 0.11452039
0.3889843 0.27003872 0.14738292 0.026301531 -0.080794655 0.119024694 0.34249744 0.1238587
0.22394922 0.058874067 -0.051641826 0.24970417 0.24456123 0.007021103 0.36923394 -0.09710991
0.025917709 -0.079516925 0.17468724 0.25717628 0.2152278 0.07293552 -0.022868073 0.21922196
0.05243339 0.40706748 0.21424167 0.21593231 0.018814944 0.15563835 0.047674634 0.45058447
0.30579084 -0.13785075 0.28804326 -0.021715447 0.060869318 0.11966465 0.1253673 0.39821
-0.3912719 0.0059306915 -0.0962013 0.20044233 -0.07488044 0.29282326 0.121605456 -0.30849984
-0.051989216 0.22680666 0.24752627 0.17502117 0.12055703 -0.10712437 -0.77125174 0.42194557
0.2441087 0.08641825 -0.2914213 0.054342397 0.29330808 0.1633543 0.15846446 0.084492445
0.14697872 -0.0560905 0.2775132 0.36278865 0.055061307 0.34141546 -0.072363876 0.036783304
-0.068644464 -0.11303779 -0.091606006 0.11088378 -0.015318572 -0.009852749 -0.089220464 0.03679112
-0.36929753 -0.023030177 0.212922 0.1806914 -0.17603143 0.12446819 0.3880321 -0.5487265
0.4250955 0.3424986 -0.34157377 0.4077497 0.5894493 -0.05563644 0.5046298 0.21412133
0.072561234 0.36541766 -0.01817766 -0.22347403 -0.058156617 -0.031225175 -0.15744871 0.38254642
0.2634593 -0.13376728 -0.15581779 -0.39868078 0.31963778 0.14761569 0.70769274 0.9345263
0.4936843 -0.15626194 -0.09226088 -0.08074104 -0.16073932 0.17170171 -0.323503 -0.22938369
0.6670724 0.37426683 0.00018723823 -0.3808875 0.19963263 -0.103840955 0.36657396 0.36287928
0.52603763 0.42672235 0.024777522 0.18197253 -0.42747825 0.3001973 0.51168007 -0.07295936
-0.548083 -0.16278985 -0.19707555 0.38355115 0.41920927 -0.12670882 0.28300023 -0.1765856
0.326493 0.28407058 0.33235136 0.35871777 0.34184828 0.050019234 -0.038540386 0.20547622
-0.21116656 0.26566806 0.026601449 0.4561018 -0.054957967 0.49471328 0.22522303 0.51878256
0.3113991 -0.27415577 0.055190705 -0.025897386 0.39659557 0.097007565 0.20612532 0.512206
-0.10713904 -0.185585 -0.21371321 0.5910234 -0.42856103 0.16191669 0.078629345 -0.16409284
-0.22605844 0.17925188 0.43127772 -0.052161343 0.29356986 -0.18537766 0.07862584 -0.13105072
0.34607726 -0.053785503 -0.65021753 -0.1533569 0.30856028 -0.59653455 0.72467583 0.18283622
0.53850204 -0.4241477 0.28273275 0.36815655 0.076813005 0.37880677 -0.108210385 -0.019253865
0.4997512 -0.13512243 -0.26398206 0.0056543453 -0.17271501 0.030313041 0.53539306 0.2609296

weight f4 [64]
00000000: fe1d 803f 739a a63f 98de 4c3f 1486 193f
00000010: 04ea 713f 8072 813f c825 723f 30f5 603f
00000020: 044c 853f 7c32 713f f0f2 5c3f b48a 823f
00000030: a313 6b3f da5d 983f 379f 6b3f 1241 703f
00000040: 64cb 7d3f 33ff 963f 1531 693f 9408 a23f
00000050: 7936 833f 9429 7c3f 8088 823f 8710 693f
00000060: 3b63 643f 44a9 633f 7085 963f 172a 493f
00000070: 33a3 7a3f 81e5 953f 0f56 7e3f ce56 6d3f
00000080: a1f3 873f 3e6e 7e3f 585e 363f 846b 663f
00000090: 3f16 9b3f a6d5 773f bcdb 5f3f 9a48 773f
000000a0: 75df 7a3f cfe2 873f 41f9 9d3f 002e 8f3f
000000b0: 5be3 833f 071a 4f3f e529 ac3f 1468 5c3f
000000c0: 544a 903f 6744 8c3f abe9 903f f73e 733f
000000d0: ce5c 523f 05be 813f ea2d 9e3f b0f8 733f
000000e0: 283b 7d3f 7244 6f3f 3f6d 6e3f 0a86 623f
000000f0: 040c 9a3f 8b44 8f3f 9d9b 7e3f f684 8a3f
1.0009153 1.3015884 0.8002715 0.5997021 0.94497705 1.0113068 0.945889 0.87874126
1.0413823 0.9421766 0.86308193 1.0198579 0.9182684 1.1903641 0.9203982 0.9384929
0.99138474 1.1796631 0.9109052 1.2658868 1.0250999 0.98500943 1.0197906 0.91040844
0.89213914 0.88930154 1.1759472 0.7857985 0.9790527 1.1710664 0.99350065 0.9271058
1.0621225 0.99386966 0.7123771 0.90007806 1.2116164 0.96810377 0.87444663 0.96595156
0.9799722 1.0616091 1.2341691 1.1185913 1.0303758 0.8089909 1.3450285 0.8609631
1.1272683 1.0958375 1.132131 0.9501795 0.8217286 1.0136114 1.2357762 0.9530134
0.9891839 0.93463814 0.93135446 0.8848578 1.2034917 1.1192793 0.994562 1.0821826
