Graph Neural Network/Models/BasicLayers-T2.pth (torch, 285562 bytes, 15 tensors)

weight f4 [128, 128]
-0.044808093 0.0062514297 -0.026126754 -0.0895791 0.04526617 0.01678712 0.01967369 0.057462346
-0.0922307 0.046368886 0.021955268 0.054269653 -0.0038572089 -0.08550069 0.045149747 -0.059143938
-0.07721247 0.042720918 -0.091113344 0.027790513 0.006236037 -0.045366812 -0.0731412 -0.06620136
0.025566235 -0.101365834 -0.060623273 -0.037838627 -0.063217126 -0.09596147 -0.0011918953 0.0066153146
0.016757943 -0.0031193888 -0.09605739 0.03728837 0.011178381 0.029875139 0.00064588635 -0.0034682367
-0.05885729 -0.014704532 -0.07268937 0.024399549 -0.05124349 -0.027642822 -0.0028641312 -0.058037806
-0.050352067 0.008617258 -0.06102354 -0.045382734 -0.04875532 -0.057748403 -0.018073633 -0.10052899
-0.064486414 -0.020530203 0.061022017 0.0461226 -0.08247268 0.06886073 -0.00846858 0.0049602417
-0.038347658 -0.038017217 0.021249598 0.06549462 0.050139204 0.046029467 -0.08407912 -0.08233434
-0.07544512 0.041946534 0.019052038 -0.03434045 -0.00042313017 0.040872563 0.05628709 -0.072298475
0.05718937 -0.012395333 0.07396535 -0.026378855 -0.057655934 -0.020030169 -0.07766822 0.06603398
-0.057291374 -0.08956575 -0.014242857 -0.019050615 0.021764034 0.06470693 -0.08020659 0.007040918
-0.019822564 0.028944016 -0.041698243 0.04142112 0.046194274 -0.036979552 0.06375847 -0.023479188
-0.043298375 0.056409147 -0.058545347 -0.08243799 0.029422192 0.04258314 -0.03901535 -0.09886906
0.008594057 -0.08837121 -0.07723165 0.057829928 0.02396512 -0.09394829 0.0014456769 -0.078069486
0.017531525 0.06816948 -0.03568858 0.067015894 0.0028132298 0.03561722 -0.09419365 -0.0038552573
0.039838858 0.028700253 -0.0054608644 -0.059497815 -0.041988317 -0.08492071 -0.016802428 -0.039535053
0.020787984 -0.07563874 0.068075255 0.07982284 0.05785138 -0.054153394 0.0051248297 0.045300044
0.05433456 -0.035801664 -0.078098856 -0.022520274 0.029768564 -0.023551412 -0.07693976 -0.04841848
-0.0010409708 -0.07946748 0.05973168 0.08104834 0.011155679 -0.063468866 -0.008543119 0.008062569
-0.043211292 -0.047331724 0.047974266 -0.026194088 -0.08396423 0.04929147 -0.04050561 -0.08465732
-0.07869759 0.06929028 0.019792937 0.045999758 -0.042072263 -0.037601314 0.041562937 0.0060063065
-0.08248473 -0.010223175 -0.01901733 0.05648973 -0.042299885 -0.06406469 0.04028719 0.012818467
-0.06070885 -0.09012794 0.061756365 -0.08961467 -0.0064923414 -0.0483328 -0.028162464 -0.057133786
-0.07929784 0.06555204 0.080869675 -0.064407445 0.012051446 -0.058324497 0.02437511 0.040524505
0.052178495 0.06388433 -0.075136505 0.052352704 0.06606346 0.03194098 0.05999841 -0.032284766
-0.048933115 0.044191502 0.071764424 -0.0769012 -0.021742083 -0.08416511 0.013832242 -0.06503001
0.06551057 0.08524878 0.04101097 -0.06883871 -0.06266252 0.07405284 -0.08910896 -0.054291055
0.014028132 -0.034129396 0.01356386 0.010996609 0.038894407 -0.020792335 -0.07536285 -0.008667069
0.030703735 0.012588521 -0.0072448784 0.06232935 0.037173726 -0.040464193 -0.0687108 -0.07676133
0.07227562 -0.064676054 -0.0052059903 -0.034818314 0.07054211 -0.059396196 -0.029573485 -0.001748059
0.037788056 0.019467004 -0.0018833952 0.03373339 0.083716124 -0.027235582 0.02201341 0.0443609
00000000: b188 37bd cbd8 cc3b c607 d6bc 3f75 b7bd
00000010: 0569 393d 2485 893c b82a a13c a35d 6b3d
00000020: 73e3 bcbd 4ded 3d3d 89db b33c db49 5e3d
00000030: 3ac9 7cbb fc1a afbd f1ee 383d ea40 72bd
00000040: 9221 9ebd 21fc 2e3d a299 babd eea8 e33c
00000050: ab57 cc3b 8dd2 39bd 0ecb 95bd 9494 87bd
00000060: 4870 d13c e498 cfbd 1c50 78bd adfc 1abd
00000070: fb77 81bd 7287 c4bd 5f39 9cba 48c5 d83b
00000080: f447 893c a96e 4cbb bdb9 c4bd b1bb 183d
00000090: 8725 373c b5bc f43c b350 293a 5b4b 63bb
000000a0: 5714 71bd 47eb 70bc 2ade 94bd 90e1 c73c
000000b0: b2e4 51bd 3373 e2bc 26b4 3bbb 0db9 6dbd
000000c0: f83d 4ebd 662f 0d3c d2f3 79bd 3fe3 39bd
000000d0: a9b3 47bd 9789 6cbd 280f 94bc 25e2 cdbd
000000e0: 7411 84bd f52e a8bc 39f2 793d 0deb 3c3d
000000f0: 70e7 a8bd db06 8d3d cdbf 0abc 8689 a23b
00000100: 6f12 1dbd f1b7 1bbd a313 ae3c 0b22 863d
00000110: c45e 4d3d 6589 3c3d ac31 acbd e89e a8bd
00000120: f982 9abd 21d0 2b3d 0513 9c3c 92a8 0cbd
00000130: 92d7 ddb9 fd69 273d 4b8d 663d 3911 94bd
00000140: 673f 6a3d cb15 4bbc 257b 973d 7818 d8bc
00000150: a128 6cbd 4f16 a4bc 8410 9fbd d33c 873d
00000160: 5caa 6abd 3f6e b7bd df5a 69bc 0910 9cbc
00000170: 7d4a b23c 1185 843d 5a43 a4bd 80b7 e63b
00000180: ee62 a2bc 001c ed3c c7cb 2abd 31a9 293d
00000190: 3536 3d3d df77 17bd cd93 823d 6d57 c0bc
000001a0: a359 31bd 470d 673d 3fcd 6fbd 40d5 a8bd
000001b0: cf06 f13c a96b 2e3d 8fce 1fbd dd7b cabd
000001c0: 16ce 0c3c f7fb b4bd a12b 9ebd 13df 6c3d
000001d0: 8052 c43c f667 c0bd de7c bd3a e5e2 9fbd
000001e0: 469e 8f3c 719c 8b3d 302e 12bd a13f 893d
000001f0: 2a5e 383b 5de3 113d 9ae8 c0bd 7ca8 7cbb
00000200: 122e 233d cb1c eb3c 0df1 b2bb fbb3 73bd
00000210: f1fb 2bbd e9ea adbd 3fa5 89bc 82ef 21bd
00000220: 904b aa3c 7ce8 9abd 0a6b 8b3d 287a a33d
00000230: 92f5 6c3d f3cf 5dbd 30ee a73b 8a8c 393d
00000240: ea8d 5e3d c4a4 12bd 4bf2 9fbd 707c b8bc
00000250: 34dd f33c e4ee c0bc 9892 9dbd 7552 46bd
00000260: 2f71 88ba d9bf a2bd 35a9 743d acfc a53d
00000270: 4fc6 363c f7fb 81bd 70f8 0bbc de18 043c
00000280: 53fe 30bd e9de 41bd aa80 443d fc94 d6bc
00000290: 70f5 abbd dae5 493d 36e9 25bd d160 adbd
000002a0: 342c a1bd 10e8 8d3d cc24 a23c 3e6a 3c3d
000002b0: f753 2cbd d603 1abd e63d 2a3d 8dd0 c43b
000002c0: c1ed a8bd 1b7f 27bc 3bca 9bbc c661 673d
000002d0: a542 2dbd 5934 83bd 2e04 253d 8c04 523c
000002e0: d8a9 78bd ff94 b8bd 3ef4 7c3d e587 b7bd
000002f0: b5bd d4bb 9df8 45bd f8b4 e6bc 1e05 6abd
00000300: e866 a2bd 2640 863d 009f a53d 0de8 83bd
00000310: 6e73 453c abe5 6ebd 50ae c73c 06fd 253d
00000320: 1eb9 553d cad5 823d 2be1 99bd ca6f 563d
00000330: 484c 873d 8cd4 023d e5c0 753d 083d 04bd
00000340: 176e 48bd 2602 353d 3af9 923d 607e 9dbd
00000350: 741c b2bc c25e acbd a1a0 623c 742e 85bd
00000360: 682a 863d ea96 ae3d 1efb 273d 4ffb 8cbd
00000370: 3555 80bd 04a9 973d c27e b6bd 4c60 5ebd
00000380: 40d6 653c 44cb 0bbd f43a 5e3c 1f2b 343c
00000390: be4f 1f3d b054 aabc d757 9abd 5200 0ebc
000003a0: 6686 fb3c 1640 4e3c 7266 edbb 0f4d 7f3d
000003b0: 7a43 183d c8bd 25bd 3fb8 8cbd 0b35 9dbd
000003c0: 3e05 943d e174 84bd 0397 aabb a69d 0ebd
000003d0: 6278 903d 6d49 73bd 1844 f2bc 201f e5ba
000003e0: a6c7 1a3d 4479 9f3c 42dc f6ba 062c 0a3d
000003f0: 5c73 ab3d 281d dfbc 7855 b43c c6b3 353d

bias f4 [128]
-0.071285695 -0.0073219584 -0.03719261 0.061878737 0.020039236 0.049155295 0.031360332 -0.07092962
-0.08151899 -0.01867514 -0.004591789 0.04403137 0.0028961198 -0.07624452 0.065651506 0.050708044
-0.008632299 -0.0013315954 0.0670895 -0.06766842 0.012645483 -0.044303354 0.054635677 -0.084986456
0.003364937 0.027185997 0.065672085 0.025261126 0.037221324 -0.078009605 0.026298646 0.033814322
0.021852259 -0.019278595 -0.030631581 -0.04694237 -0.04957968 0.02759055 0.011519584 -0.016586922
-0.08289667 -0.014321415 0.07257638 -0.068967655 -0.02755434 0.012745626 0.073130764 -0.04417918
-0.0055887084 0.068397485 -0.050030857 -0.050842285 0.07090546 0.055014648 0.08862606 -0.049178816
-0.06804172 0.019062066 -0.068362124 -0.05764238 -0.036755368 0.028119287 0.052351445 0.0012199152
-0.0018694217 -0.07875186 -0.016528072 0.061763667 -0.038738523 -0.057578452 -0.03604472 0.07073398
-0.004575172 -0.051023856 0.029734937 -0.057930242 -0.023995347 -0.055310063 -0.045363873 -0.028354656
0.065956816 -0.017728021 -0.061511226 0.091400094 0.030822514 -0.05345376 -0.041230902 0.029089576
0.07455723 -0.06901702 -0.0058897547 -0.013762422 -0.06624568 0.023590658 0.08267786 0.038637314
-9.745094e-05 -0.08799698 -0.010057433 0.065457396 0.024343135 -0.07080694 -0.07471625 -0.0075356984
-0.030790081 0.034754105 0.06874286 -0.038800467 -0.04614511 -0.0037134516 0.07995593 -0.04079486
-0.08303883 0.042545903 -0.01830783 0.07962351 -0.022163494 -0.067912504 -0.073321916 -0.046175737
-0.06724709 0.012406688 -0.07181952 0.005475166 0.047526225 -0.044476848 -0.047098916 -0.047460366
00000000: 3cfe 91bd 0aed efbb 4757 18bd 8f74 7d3d
00000010: 5329 a43c 1057 493d b173 003d 8c43 91bd
00000020: 6ef3 a6bd 9bfc 98bc b876 96bb 3d5a 343d
00000030: d4cc 3d3b 1626 9cbd 4c74 863d 3db3 4f3d
00000040: 7c6e 0dbc ed88 aeba 3866 893d be95 8abd
00000050: 002f 4f3c 6f77 35bd a9c9 5f3d 610d aebd
00000060: 4686 5c3b 2bb5 de3c 167f 863d 6cf0 ce3c
00000070: 6375 183d 80c3 9fbd 4270 d73c e380 0a3d
00000080: 8203 b33c 25ee 9dbc 15ef fabc a446 40bd
00000090: 1014 4bbd 9405 e23c a3bc 3c3c 4ce1 87bc
000000a0: bbc5 a9bd 5ea4 6abc eda2 943d ea3e 8dbd
000000b0: a4b9 e1bc 08d3 503c 95c5 953d 3af5 34bd
000000c0: 7c21 b7bb fb13 8c3d 28ed 4cbd 0040 50bd
000000d0: e236 913d 0a57 613d 9481 b53d ba6f 49bd
000000e0: 7559 8bbd 0d28 9c3c 7101 8cbd 6b1a 6cbd
000000f0: cc8c 16bd 6b5a e63c 786e 563d 90e5 9f3a
00000100: 6207 f5ba a848 a1bd e165 87bc e6fb 7c3d
00000110: 49ac 1ebd 62d7 6bbd a1a3 13bd fadc 903d
00000120: 53eb 95bb 64fe 50bd af96 f33c 4348 6dbd
00000130: e491 c4bc ce8c 62bd 78cf 39bd 0648 e8bc
00000140: 5e14 873d 5b3a 91bc 32f3 7bbd f92f bb3d
00000150: 7f7f fc3c 54f2 5abd bce1 28bd 434d ee3c
00000160: 76b1 983d cc58 8dbd d8fe c0bb c87b 61bc
00000170: d1ab 87bd 3241 c13c 0353 a93d 2942 1e3d
00000180: 935e ccb8 c337 b4bd eec7 24bc 870e 863d
00000190: 416b c73c 3b03 91bd d504 99bd 05ee f6bb
000001a0: 7b3b fcbc 525a 0e3d 0ec9 8c3d 3ded 1ebd
000001b0: a802 3dbd 615d 73bb efbf a33d 8318 27bd
000001c0: 4310 aabd 9d44 2e3d 4dfa 95bc a711 a33d
000001d0: 3790 b5bc b615 8bbd cd29 96bd c522 3dbd
000001e0: d8b8 89bd 6c45 4b3c 1d16 93bd 0569 b33b
000001f0: dcaa 423d 5b2d 36bd cbea 40bd cd65 42bd

weight f4 [128, 128]
-0.056371063 -0.05156292 -0.011412587 -0.060686335 -0.06633794 -0.02621947 -0.00045133993 -0.08805804
-0.040294375 -0.09385417 0.04622102 -0.044375207 -0.0056610317 -0.09228209 0.028308026 -0.06830627
0.07680358 -0.0254269 -0.09642448 0.005104988 -0.08437514 0.039290596 -0.08028892 0.06581214
0.058983073 0.039966855 0.037145425 -0.07092457 -0.024384186 -0.041862454 0.04973701 0.06566562
0.021895047 -0.040692642 -0.058357567 -0.060303617 0.04402413 0.055694286 0.06983973 0.0359158
-0.025043558 -0.084241025 -0.017323386 -0.05173157 -0.024680892 -0.024482395 -0.028543597 0.061183017
-0.01936961 -0.008285621 0.07455446 -0.0003300098 -0.02077278 0.034394737 -0.06535124 -0.06433758
0.013805157 -0.04427339 -0.0032717444 -0.008326853 0.042967353 -0.00028397847 -0.030767333 -0.015198141
0.04671072 0.05321836 -0.030760054 -0.047989376 -0.019293413 -0.09264115 -0.045347862 0.030850768
0.07142696 0.06387057 0.06029183 -0.021710582 -0.055573035 0.069254965 -0.070923574 0.031620502
-0.059356287 -0.0966027 0.0034893113 0.0005170687 -0.035659626 0.015100738 -0.0006882013 0.054190457
-0.018948615 0.0030489427 -0.070183456 0.0416628 -0.053139172 -0.00046934932 0.0034997493 -0.020369131
0.01763586 0.061186146 0.002096023 0.038803954 0.024953164 0.045746256 -0.0063079614 0.01682011
0.070133746 -0.07559613 -0.057366088 0.056424607 0.070682555 0.07751435 -0.053287044 -0.022085723
-0.032805786 0.06048699 -0.049318824 -0.016291874 0.06474056 0.0032563377 0.051000316 -0.09089471
-0.08136 0.022495596 0.07176328 0.049381543 -0.0056419275 -0.09134986 -0.07876796 -0.06678894
-0.021755878 -0.044192147 -0.045343243 0.0061825057 0.084840216 0.05691808 -0.032257847 0.08487467
-0.06153172 0.07430994 -0.016523585 0.015296714 0.044673778 0.06937401 0.007426075 -0.030571165
0.063274376 -0.06494237 -0.06477172 -0.06008203 0.0781857 0.026891101 0.031918593 -0.04057307
-0.042515505 -0.04879828 -0.017351229 0.077535026 -0.050801344 -0.061223194 -0.07957663 0.03152575
-0.0626282 -0.060099572 -0.08016648 0.08040585 0.035367716 -0.015141133 -0.057716236 0.016377889
0.009017455 0.06823698 -0.05163918 -0.061891593 -0.022408875 0.019750316 -0.08813123 -0.04604744
0.024316734 0.013614101 0.008842629 0.024616243 0.038923822 -0.033075992 0.04536987 -0.06936842
0.0069493307 -0.049045265 -0.06486868 -0.01086846 0.026103891 0.03307421 -0.021725478 -0.040848427
-0.05687602 0.045592643 0.05613192 -0.015557701 -0.06765831 -0.031167945 0.07311226 -0.07623022
-0.058126133 0.0757168 -0.030765168 0.0030314706 0.00018978535 -0.03938417 -0.043681707 0.04268705
0.061158102 0.018774007 -0.019111559 0.003406635 0.037861116 -0.03831397 -0.0037226658 0.051934563
0.025035258 -0.050575152 -0.03852953 0.029270502 0.0015151069 0.052358292 0.00040442892 -0.067143045
0.0779011 -0.027621035 -0.07785584 0.0008587597 0.022000408 -0.08295954 -0.047995787 -0.08187812
-0.08876253 0.011729063 -0.0028543437 -0.009430108 -0.08769452 0.008915526 -0.015449162 0.060973987
-0.046662923 0.058977593 0.021174274 -0.036171105 -0.041226413 -0.08220724 -0.003928007 0.038750317
0.008563733 0.0084684715 -0.024230588 -0.00055119843 -0.00485913 0.07316702 -0.031386346 -0.057342287
00000000: 58e5 66bd a433 53bd dcfb 3abc 3c92 78bd
00000010: 30dc 87bd 37ca d6bc d2a1 ecb9 c657 b4bd
00000020: b70b 25bd 9d36 c0bd 4152 3d3d c7c2 35bd
00000030: 2d80 b9bb 64fe bcbd 3ce6 e73c 28e4 8bbd
00000040: 324b 9d3d 134c d0bc 337a c5bd be47 a73b
00000050: e0cc acbd 2def 203d 846e a4bd 84c8 863d
00000060: 3c98 713d 49b4 233d cd25 183d e740 91bd
00000070: 58c1 c7bc f777 2bbd 09b9 4b3d b27b 863d
00000080: 3e5d b33c 54ad 26bd 5808 6fbd ed00 77bd
00000090: a552 343d b11f 643d 2208 8f3d 721c 133d
000000a0: 2628 cdbc 8f86 acbd c6e9 8dbc 7ce4 53bd
000000b0: 952f cabc 4e8f c8bc 43d4 e9bc 0b9b 7a3d
000000c0: 04ad 9ebc 6ac0 07bc 02b0 983d 2a05 adb9
000000d0: ad2b aabc 7fe1 0c3d dfd6 85bd 6cc3 83bd
000000e0: 062f 623c 0458 35bd c36a 56bb 5a6d 08bc
000000f0: 89fe 2f3d f2e2 94b9 c60b fcbc a001 79bc
00000100: bd53 3f3d 7ffb 593d 82fc fbbc 8290 44bd
00000110: 380d 9ebc a5ba bdbd aebe 39bd c0ba fc3c
00000120: 4c48 923d 93ce 823d 91f4 763d 64da b1bc
00000130: 8da0 63bd 8cd5 8d3d 6140 91bd 8084 013d
00000140: 941f 73bd a3d7 c5bd eeac 643b e58b 073a
00000150: d40f 12bd 1669 773c 6868 34ba d0f6 5d3d
00000160: 203a 9bbc c5d0 473b 58bc 8fbd 9da6 2a3d
00000170: 76a8 59bd 0013 f6b9 0d5c 653b 2add a6bc
00000180: 1479 903c 539e 7a3d 6e5d 093b e5f0 1e3d
00000190: 946a cc3c 6d60 3b3d 04b3 cebb 54ca 893c
000001a0: 48a2 8f3d 25d2 9abd b4f8 6abd 7d1d 673d
000001b0: 04c2 903d d8bf 9e3d 8443 5abd 1eed b4bc
000001c0: 5c5f 06bd 35c1 773d 8902 4abd 8976 85bc
000001d0: b396 843d 4868 553b b5e5 503d 0127 babd
000001e0: 12a0 a6bd af48 b83c a0f8 923d 4d44 4a3d
000001f0: ebdf b8bb a315 bbbd 1951 a1bd a4c8 88bd
00000200: 6239 b2bc d302 35bd d6b9 39bd 9e96 ca3b
00000210: b5c0 ad3d ef22 693d ce20 04bd c5d2 ad3d
00000220: af08 7cbd cf2f 983d 785c 87bc 129f 7a3c
00000230: dafb 363d f613 8e3d 6f56 f33b 6170 fabc
00000240: ff95 813d 8100 85bd 09a7 84bd 9318 76bd
00000250: d31f a03d ba4a dc3c 12bd 023d f32f 26bd
00000260: bd24 2ebd b5e0 47bd 2a24 8ebc afca 9e3d
00000270: 1215 50bd 2cc5 7abd 12f9 a2bd 2521 013d
00000280: 3743 80bd f82a 76bd 532e a4bd d3ab a43d
00000290: bddd 103d 8412 78bc dc67 6cbd ec2a 863c
000002a0: f3bd 133c d4bf 8b3d 9b83 53bd 0a82 7dbd
000002b0: d192 b7bc 6acb a13c 257e b4bd 3e9c 3cbd
000002c0: e333 c73c ae0d 5f3c ade0 103c 01a8 c93c
000002d0: 966e 1f3d b17a 07bd c2d5 393d 0811 8ebd
000002e0: 36b7 e33b b0e3 48bd dfd9 84bd a011 32bc
000002f0: d4d7 d53c d378 073d a1f9 b1bc ae50 27bd
00000300: d4f6 68bd 5abf 3a3d 96ea 653d bae5 7ebc
00000310: 7190 8abd eb53 ffbc e1bb 953d 971e 9cbd
00000320: ab15 6ebd 6911 9b3d 3c07 fcbc a3ab 463b
00000330: 1e01 4739 4c51 21bd 97eb 32bd 9ed8 2e3d
00000340: eb80 7a3d f2cb 993c d88f 9cbc da41 5f3b
00000350: 4214 1b3d 1cef 1cbd f8f7 73bb 56b9 543d
00000360: be16 cd3c e427 4fbd 24d1 1dbd b1c8 ef3c
00000370: 8d96 c63a a675 563d 8809 d439 4b82 89bd
00000380: 9d8a 9f3d 8245 e2bc e272 9fbd 631e 613a
00000390: 333a b43c b1e6 a9bd 3b97 44bd b7af a7bd
000003a0: 21c9 b5bd 412b 403c f10f 3bbb bd80 1abc
000003b0: 2f99 b3bd 6d12 123c 7b1e 7dbc dcbf 793d
000003c0: 9f21 3fbd 7d92 713d ac75 ad3c 2728 14bd
000003d0: 07dd 28bd 455c a8bd 83b6 80bb a7b8 1e3d
000003e0: e64e 0c3c 58bf 0a3c 3a7f c6bc 4d7e 10ba
000003f0: 5639 9fbb 97d8 953d f88e 00bd bfdf 6abd

weight f4 [128, 128]
0.06291786 -0.028812123 -0.009908696 -0.045424473 -0.090759784 0.05055014 -0.04117731 -0.016730797
0.03747143 -0.02486828 0.05497084 0.038063515 0.050339587 0.0661929 0.06654872 0.014615623
-0.038486987 0.017588843 -0.012107805 -0.0147252865 -0.069708444 0.03823564 0.03761764 -0.025817098
-0.021587282 -0.04157693 0.050538786 -0.08211951 0.02967316 0.013397448 -0.009978041 -0.07699625
0.06006053 0.010274171 0.047114886 0.079310425 0.026916895 -0.05695862 -0.06744376 0.049575023
-0.066706374 -0.03637826 0.014120543 -0.014545806 0.030681498 -0.077987894 0.04719311 0.044696372
-0.0033028778 -0.017606957 -0.05997405 0.08294388 -0.06828019 -0.0043896437 0.0031432852 -0.061390508
0.009206037 0.037912406 -0.050513975 -0.06465991 0.054604437 -0.027315192 -0.03644771 0.0020911691
-0.05750249 0.05842447 0.051397774 -0.021493955 0.028403899 -0.023153098 0.08169568 -0.020079102
0.07275665 0.0026505997 -0.0653605 0.03350303 0.0008500994 0.030257534 -0.0240873 0.077901095
-0.0055466997 0.037981752 -0.048654165 0.06840431 0.007625389 0.021860072 -0.051769193 -0.06313673
0.037360583 -0.08062619 0.046036392 0.08351498 0.051107086 -0.05063703 -0.08654602 -0.078116946
-0.034756847 -0.059579473 -0.054527413 0.052572545 0.06738623 0.04909021 0.011429833 -0.048419476
-0.047899187 -0.035852365 -0.038878676 -0.019049989 0.08060232 0.025513878 0.058104374 -0.05339715
0.033489265 0.059072185 -0.05186576 -0.013830739 -0.020559639 0.064567596 -0.042945288 -0.023542443
-0.06350266 -0.05405426 0.037614252 0.035246197 -0.044101756 -0.015887095 -0.026112814 -0.037407503
-0.03424954 0.069030955 0.04648481 0.03271653 0.013330173 -0.06190122 0.10689362 0.11984373
-0.00039012491 0.06769137 -0.03279022 0.06390191 0.014722451 0.007383213 0.021956 0.037536714
0.033207383 -0.044357818 -0.009431917 -0.034073632 0.07659472 -0.0329382 0.0924038 -0.052260093
0.082148634 0.065076515 0.11827276 0.08303224 -0.043170035 0.09106481 0.013561434 -0.056425054
-0.033261403 0.015668094 -0.0028838178 0.07967683 -0.04058457 0.11464677 0.09392607 -0.030245095
0.050970532 0.10530205 0.016391434 0.06363601 0.0091454275 0.12377749 0.062258586 -0.015294878
0.06859638 0.083599836 0.10081706 -0.008204786 -0.025823716 0.07616968 0.023946725 0.013728294
0.06930086 -0.0549444 0.10358949 0.053944223 0.04168787 -0.060419574 -0.008986948 -0.0003925237
-0.06312895 0.029550817 0.05095452 0.00025780158 0.0970248 -0.011394398 0.087194614 0.08348205
0.03651695 0.055398326 0.08488519 0.030473232 0.036758207 0.009533072 -0.038080335 -0.051128205
0.018470364 0.02741959 -0.023369666 -0.018211653 -0.022285629 0.033924047 0.042024065 -0.067778565
-0.06677456 0.026344238 -0.03995579 -0.010992182 0.04577693 0.1069084 0.016047994 0.014845775
-0.009822962 -0.010017527 0.048424233 0.013082991 0.0077771577 -0.017678445 -0.010301877 0.10032396
0.085232586 0.078867674 -0.068258084 0.08160863 -0.01899509 0.04131064 -0.012912537 -0.046264447
-0.03913073 0.0036938188 0.060668834 0.019071361 0.11764851 -0.022832194 0.107413195 0.02361488
-0.00013902504 -0.012072393 -0.06374139 -0.033021398 -0.046517953 -0.025493443 0.06383326 0.009049905
00000000: 14db 803d 6707 ecbc 1558 22bc 030f 3abd
00000010: 44e0 b9bd aa0d 4f3d 8aa9 28bd 060f 89bc
00000020: a47b 193d 90b8 cbbc 1b29 613d 7de8 1b3d
00000030: e230 4e3d 2590 873d b24a 883d 5e76 6f3c
00000040: 88a4 1dbd 7a16 903c d15f 46bc 5442 71bc
00000050: 4dc3 8ebd f99c 1c3d f414 1a3d 617e d3bc
00000060: d0d7 b0bc 924c 2abd c201 4f3d 462e a8bd
00000070: 2015 f33c f880 5b3c f07a 23bc 36b0 9dbd
00000080: 0802 763d ff54 283c 8afb 403d 816d a23d
00000090: d280 dc3c 714d 69bd f41f 8abd 2e0f 4b3d
000000a0: 5a9d 88bd 5f01 15bd da59 673c 8851 6ebc
000000b0: c457 fb3c 1eb8 9fbd 904d 413d 8b13 373d
000000c0: 1875 58bb 773c 90bc 59a7 75bd 7bde a93d
000000d0: 7cd6 8bbd 00d7 8fbb 93ff 4d3b 9d74 7bbd
000000e0: ebd4 163c 0a4a 1b3d bee7 4ebd 6a6c 84bd
000000f0: e7a8 5f3d 1cc4 dfbc 324a 15bd ff0b 093b
00000100: bb87 6bbd 7f4e 6f3d 7986 523d 1714 b0bc
00000110: 4baf e83c 91ab bdbc 1150 a73d ee7c a4bc
00000120: 7001 953d afb5 2d3b badb 85bd 793a 093d
00000130: 34d9 5e3a a6de f73c bb52 c5bc 9c8a 9f3d
00000140: 17c1 b5bb c192 1b3d 9749 47bd 8f17 8c3d
00000150: 66de f93b e513 b33c ef0b 54bd d44d 81bd
00000160: 6907 193d 581f a5bd a890 3c3d e709 ab3d
00000170: aa55 513d c668 4fbd 0a3f b1bd c7fb 9fbd
00000180: 325d 0ebd 9b09 74bd 2358 5fbd 4f56 573d
00000190: cb01 8a3d d112 493d 3244 3b3c 8053 46bd
000001a0: f031 44bd eed9 12bd 3f3f 1fbd b90e 9cbc
000001b0: d412 a53d 7b02 d13c dafe 6d3d f8b6 5abd
000001c0: 0a2c 093d adf5 713d 3171 54bd 539a 62bc
000001d0: b06c a8bc 043c 843d 66e7 2fbd 15dc c0bc
000001e0: af0d 82bd 0068 5dbd 6711 1a3d 515e 103d
000001f0: 0ba4 34bd a725 82bc 8aea d5bc 9c38 19bd
00000200: 3f49 0cbd 1a60 8d3d db66 3e3d c501 063d
00000210: cc66 5a3c 228c 7dbd 0beb da3d a170 f53d
00000220: ae89 ccb9 c6a1 8a3d 0a4f 06bd 01df 823d
00000230: 6f36 713c e1ee f13b 12dd b33c 19c0 193d
00000240: 7704 083d 8bb0 35bd 5488 1abc cb90 0bbd
00000250: b1dd 9c3d 35ea 06bd 343e bd3d ae0e 56bd
00000260: 8b3d a83d d646 853d fd38 f23d cf0c aa3d
00000270: 10d3 30bd 3080 ba3d c730 5e3c f51d 67bd
00000280: 1c3d 08bd 605a 803c 6ffe 3cbb 9b2d a33d
00000290: 023c 26bd edcb ea3d 505c c03d 90c4 f7bc
000002a0: 7ac6 503d 9aa8 d73d 5447 863c 9953 823d
000002b0: b4d6 153c 0d7f fd3d dc02 7f3d 5e97 7abc
000002c0: 427c 8c3d 6436 ab3d 2d79 ce3d 5e6d 06bc
000002d0: 428c d3bc d9fe 9b3d ec2b c43c a3ec 603c
000002e0: 9ced 8d3d 610d 61bd ba26 d43d 9ef4 5c3d
000002f0: e6c0 2a3d 847a 77bd fe3d 13bc a4cb cdb9
00000300: c049 81bd 8e14 f23c b0b5 503d 8b29 8739
00000310: f0b4 c63d 92af 3abc 1793 b23d a3f8 aa3d
00000320: cc92 153d 5be9 623d 49d8 ad3d 00a3 f93c
00000330: c68f 163d 9a30 1c3c 20fa 1bbd cf6b 51bd
00000340: 294f 973c 0c9f e03c be71 bfbc 9b30 95bc
00000350: 5a90 b6bc f1f3 0a3d 6d21 2c3d 7dcf 8abd
00000360: 1ac1 88bd dfcf d73c afa8 23bd 8e18 34bc
00000370: 9780 3b3d cbf2 da3d 1577 833c b23b 733c
00000380: 7df0 20bc 8e20 24bc 7d58 463d 0b5a 563c
00000390: 87d7 fe3b 63d2 90bc 34c9 28bc a676 cd3d
000003a0: 6c8e ae3d 6085 a13d e5ca 8bbd 6d22 a73d
000003b0: 979b 9bbc 5835 293d 1b8f 53bc ca7f 3dbd
000003c0: 8b47 20bd ff13 723b e27f 783d 8b3b 9c3c
000003d0: b4f1 f03d 950a bbbc 73fb db3d fe73 c13c
000003e0: 40c7 11b9 49cb 45bc d98a 82bd 7241 07bd
000003f0: 9c89 3ebd a0d7 d0bc 03bb 823d 0e46 143c

bias f4 [128]
-0.051819284 -0.0047976985 -0.06830835 -0.063686065 0.061423533 -0.03179367 -0.06540941 0.0026399717
0.069356464 0.062404074 0.02613284 0.030268256 0.014860025 0.04121639 0.0042041894 -0.0588868
0.09265276 -0.032250352 -0.06754874 -0.042205047 -0.081400596 0.04960298 0.034822997 -0.00397616
0.07821766 -0.0393724 -0.06782824 0.071143106 -0.009974571 0.09400962 -0.040133804 0.060932837
0.02874802 -0.0246944 0.077038184 0.04229742 0.08185278 0.046118844 0.003622592 -0.04138187
-0.014133089 0.008130679 0.049104225 0.07907438 -0.010215005 0.079276964 -0.09161882 0.06795662
-0.020598816 -0.0012393402 -0.029815782 -0.04486659 -0.033816855 -0.062169176 0.0534973 -0.035567924
-0.06484712 0.036707185 -0.08319866 0.06891743 -0.08102164 -0.07478167 -0.004793562 -0.07572824
0.03336795 -0.07021597 -0.0820188 0.024562953 0.10416267 -0.017943641 0.04559784 0.045656264
0.035244457 -0.012411252 0.07279348 -0.060077175 0.05767644 -0.038300388 -0.030555272 0.061796673
-0.06628963 0.0009909889 -0.032146282 -0.060283445 -0.08195784 0.011198937 -0.021287352 -0.028981762
-0.02548803 0.064095646 0.021293154 -0.06366009 -0.09026128 -0.0034472886 -0.03323167 0.050553862
-0.09948142 -0.005131167 0.016287345 -0.0924071 -0.048855342 0.051969297 0.06943058 -0.066718236
-0.03553041 0.08659974 0.042799503 0.025006756 -0.060171977 0.047219183 0.008506295 -0.058047228
-0.07984321 -0.014740496 -0.0752449 0.055848498 0.054638844 0.006693124 -0.081128776 0.06668138
0.04773274 -0.071582645 -0.03219136 0.075429395 -0.043604452 0.07970647 -0.05350902 -0.028096149
00000000: 7540 54bd 0336 9dbb 40e5 8bbd d76d 82bd
00000010: 3e97 7b3d 143a 02bd 5ef5 85bd 6003 2d3b
00000020: c30a 8e3d 6a9b 7f3d 8a14 d63c 22f5 f73c
00000030: 7677 733c 84d2 283d 4cc3 893b 4933 71bd
00000040: bbc0 bd3d f218 04bd fe56 8abd 33df 2cbd
00000050: 5bb5 a6bd 7f2c 4b3d 8fa2 0e3d 734a 82bb
00000060: 9530 a03d f444 21bd 88e9 8abd 7ab3 913d
00000070: 626c 23bc 1e88 c03d 5863 24bd b694 793d
00000080: f880 eb3c e94b cabc 32c6 9d3d 0f40 2d3d
00000090: 6ea2 a73d 1de7 3c3d 0269 6d3b 0980 29bd
000000a0: 798e 67bc 8a36 053c 8321 493d c0f1 a13d
000000b0: d65c 27bc f65b a23d a6a2 bbbd d72c 8b3d
000000c0: d9be a8bc 5b71 a2ba 3a40 f4bc 08c6 37bd
000000d0: 8b83 0abd 1ba5 7ebd fc1f 5b3d acaf 11bd
000000e0: 91ce 84bd 465a 163d 0f64 aabd 9524 8d3d
000000f0: acee a5bd 2227 99bd 5013 9dbb 6817 9bbd
00000100: d5ac 083d 64cd 8fbd 79f9 a7bd 3f38 c93c
00000110: 3d53 d53d 8bfe 92bc cdc4 3a3d 1002 3b3d
00000120: 7e5c 103d 9058 4bbc bf14 953d 7c13 76bd
00000130: 213e 6c3d dee0 1cbd 0d4f fabc 821e 7d3d
00000140: dcc2 87bd 12e4 813a d2ab 03bd c6eb 76bd
00000150: 83d9 a7bd bf7b 373c d062 aebc 296b edbc
00000160: 46cc d0bc 9444 833d fb6e ae3c 3960 82bd
00000170: e8da b8bd e8eb 61bb ee1d 08bd 9111 4f3d
00000180: eabc cbbd 5923 a8bb 0a6d 853c ef3f bdbd
00000190: 8a1c 48bd c2dd 543d 9f31 8e3d 92a3 88bd
000001a0: 5688 11bd 345b b13d 884e 2f3d f8da cc3c
000001b0: e476 76bd e768 413d fd5d 0b3c eec2 6dbd
000001c0: d684 a3bd 1f82 71bc 001a 9abd 65c1 643d
000001d0: fbcc 5f3d fe51 db3b d826 a6bd 3f90 883d
000001e0: 6883 433d ec99 92bd 16db 03bd ba7a 9a3d
000001f0: 959a 32bd 253d a33d 462c 5bbd e529 e6bc

weight f4 [128, 128]
-0.26712817 -0.15611726 -0.08881117 0.006956027 -0.28289413 -0.24487709 -0.015677188 0.0050000367
-0.23955996 0.062059134 -0.09167509 -0.0687623 -0.26540726 -0.10424315 -0.052267596 -0.25389436
-0.0044671027 -0.09303241 -0.12405597 0.049406685 -0.07249143 -0.23990239 -0.008095316 -0.120494835
0.0071856934 0.011847599 0.0054139607 -0.24322623 -0.11360275 -0.082496 -0.1073996 -0.14452773
-0.13604088 -0.07891812 -0.26023787 -0.22327885 -0.33393016 -0.05672313 -0.20482725 -0.05210818
-0.19718352 -0.071287006 -0.20573246 0.069583096 -0.2769817 0.03120053 -0.23570313 0.030486684
0.05389061 -0.07951791 -0.17928167 0.06868855 0.024245545 -0.028744219 -0.097041905 -0.05797539
-0.24681118 -0.17811365 0.010833852 -0.19520918 -0.103121944 -0.025606578 -0.17950313 -0.095090695
-0.19725639 -0.014508282 0.022172423 0.022196313 0.044821814 -0.10086133 0.07165837 -0.12413368
0.006115804 -0.078678936 -0.23364568 -0.12816572 -0.11470971 -0.11485528 -0.2570697 -0.022887943
-0.18188083 -0.13797547 -0.12766927 -0.16226111 -0.26774913 -0.09799011 -0.13061042 -0.11309572
-0.093781084 -0.21992974 -0.12892094 0.0138277495 0.06374745 0.029367832 -0.119471505 -0.13574173
-0.09100228 -0.16520421 -0.002231134 -0.2573767 0.02144699 -0.13291731 -0.18812834 -0.06275548
-0.20655791 -0.09003221 -0.20287842 -0.111872666 0.017111957 0.0516717 -0.14531356 0.05921039
-0.14510442 -0.0015353524 -0.2384608 -0.029084578 -0.094522804 -0.080083445 -0.052023098 -0.029867051
-0.15041204 -0.24529342 -0.15344805 -0.20867684 -0.24147047 -0.018121636 -0.034619734 -0.07769051
0.0063073314 0.0052687256 0.020791458 -0.12419178 0.09605657 -0.054010022 -0.036481816 0.018653857
-0.02994832 -0.031185398 -0.010399447 0.0037105968 -0.03024389 -0.020856919 0.003085128 -0.002855279
-0.12800835 -0.0068844925 0.10299305 -0.14303981 -0.05683139 0.055797756 -0.112856925 0.03637285
-0.14466003 -0.09719848 -0.10500793 0.03355693 -0.110609144 -0.065743946 -0.04294689 -0.044765342
-0.0042538103 -0.03585771 -0.03675071 0.024721196 -0.0065421807 -0.10729733 -0.022460785 -0.07007516
0.047138527 -0.04986664 0.023660682 -0.027508765 -0.01818422 -0.021248223 -0.041615397 -0.1314906
-0.108973466 0.021526663 0.02247444 0.0120013105 0.008806064 -0.06944073 -0.0022607956 -0.017125638
0.08199124 0.06346099 -0.09881092 -0.0025191084 -0.033192914 -0.06824911 0.03296052 -0.0365173
-0.015353366 -0.022876129 -0.054164246 -0.06671733 -0.011648834 -0.10725234 -0.0071714898 0.061301176
0.013041176 -0.046508648 -0.062979355 -0.023534663 0.035231315 -0.06534236 -0.04104474 -0.049264934
-0.021599397 0.053568408 0.025467625 0.05053485 -0.025449561 0.036675762 0.08284468 -0.038174443
-0.010046187 0.006635786 0.08673797 -0.0715545 0.011990078 -0.048148643 -0.040572975 0.049954735
-0.06898807 0.067219235 -0.090789065 0.07993443 -0.033584792 -0.0017132063 0.04638772 0.02316591
-0.06228005 0.018938616 0.031625934 0.097705275 -0.095972635 -0.027779534 -0.02807658 -0.032017138
0.009502433 -0.08019809 0.016598763 0.027250323 -0.04939374 -0.10223605 -0.1060982 -0.13491167
0.041769892 -0.0047978177 0.018075783 0.027481949 0.07719326 -0.020133877 -0.12624894 -0.05048385
00000000: 06c5 88be 34dd 1fbe a1e2 b5bd 62ef e33b
00000010: 80d7 90be 0fc1 7abe 726d 80bc 59d7 a33b
00000020: 354f 75be b831 7e3d 26c0 bbbd 40d3 8cbd
00000030: 76e3 87be 6f7d d5bd 8c16 56bd 71fe 81be
00000040: c660 92bb c787 bebd 0e11 febd aa5e 4a3d
00000050: 6376 94bd f9a8 75be 37a2 04bc ffc5 f6bd
00000060: f775 eb3b 6f1c 423c 9867 b13b 4c10 79be
00000070: 8fa8 e8bd aaf3 a8bd 52f4 dbbd 14ff 13be
00000080: 4d4e 0bbe d39f a1bd e63d 85be 36a3 64be
00000090: e5f8 aabe 8356 68bd 3cbe 51be 636f 55bd
000000a0: 7aea 49be ecfe 91bd 88ab 52be 9581 8e3d
000000b0: 8cd0 8dbe 4198 ff3c 295c 71be 36bf f93c
000000c0: 66bc 5c3d 49da a2bd 9d95 37be 95ac 8c3d
000000d0: 989e c63c ff78 ebbc e8bd c6bd 9a77 6dbd
000000e0: 12bc 7cbe 6d63 36be 7880 313c eae4 47be
000000f0: 9931 d3bd e3c4 d1bc abcf 37be e9be c2bd
00000100: 94fd 49be 25b4 6dbc f1a2 b53c 0bd5 b53c
00000110: 1497 373d 6390 cebd a0c1 923d cc39 febd
00000120: 1567 c83b 6c22 a1bd d040 6fbe e03d 03be
00000130: edec eabd 3f39 ebbd a49e 83be 7f7f bbbc
00000140: f83e 3abe 7149 0dbe bcbb 02be c727 26be
00000150: 6a16 89be 0aaf c8bd bdbe 05be bb9e e7bd
00000160: 4c10 c0bd 4335 61be da03 04be c98d 623c
00000170: 068e 823d cf94 f03c 7aad f4bd e1ff 0abe
00000180: 675f babd 4b2b 29be 3838 12bb e1c6 83be
00000190: 99b1 af3c 7a1b 08be b7a4 40be f285 80bd
000001a0: eb83 53be cf62 b8bd 5cbf 4fbe 7f1d e5bd
000001b0: 602e 8c3c b4a5 533d 14cd 14be 9886 723d
000001c0: 4196 14be e13d c9ba 112f 74be c842 eebc
000001d0: 2c95 c1bd ca02 a4bd 2c16 55bd bfab f4bc
000001e0: 9d05 1abe 332e 7bbe 7c21 1dbe 62af 55be
000001f0: 0944 77be d373 94bc 6ccd 0dbd 341c 9fbd
00000200: bbad ce3b 46a5 ac3b d952 aa3c 4358 febd
00000210: 4fb9 c43d 9d39 5dbd f56d 15bd f9cf 983c
00000220: 2e56 f5bc 8578 ffbc 7162 2abc 7c2d 733b
00000230: 09c2 f7bc 21dc aabc dc2f 4a3b a21f 3bbb
00000240: 9f14 03be 4f97 e1bb 05ee d23d 0779 12be
00000250: 08c8 68bd 308c 643d 8821 e7bd b3fb 143d
00000260: c221 14be ff0f c7bd 660e d7bd fe72 093d
00000270: 0c87 e2bd c3a4 86bd 14e9 2fbd dd5b 37bd
00000280: 8c63 8bbb 89df 12bd ea87 16bd 1b84 ca3c
00000290: ca5f d6bb b4be dbbd aeff b7bc 9183 8fbd
000002a0: 5414 413d f640 4cbd 0cd4 c13c 105a e1bc
000002b0: 13f7 94bc c110 aebc e874 2abd 79a5 06be
000002c0: 7b2d dfbd af58 b03c 511c b83c 25a1 443c
000002d0: 4f47 103c f136 8ebd db29 14bb 114b 8cbc
000002e0: 06eb a73d d6f7 813d 615d cabd a017 25bb
000002f0: 4bf5 07bd 30c6 8bbd 9c01 073d 2a93 15bd
00000300: af8c 7bbc b866 bbbc 54db 5dbd 18a3 88bd
00000310: c0da 3ebc 1da7 dbbd d1fe eabb f116 7b3d
00000320: a8aa 553c da7f 3ebd 52fb 80bd c4cb c0bc
00000330: b64e 103d 37d2 85bd 871e 28bd 07ca 49bd
00000340: 38f1 b0bc 8c6a 5b3d 7ba1 d03c a2fd 4e3d
00000350: 997b d0bc 5339 163d 79aa a93d ce5c 1cbd
00000360: c398 24bc 0271 d93b ada3 b13d 2a8b 92bd
00000370: 0872 443c 8337 45bd d92f 26bd 569d 4c3d
00000380: 9e49 8dbd 3daa 893d 9eef b9bd aab4 a33d
00000390: 3590 09bd aa8d e0ba 0d01 3e3d 6fc6 bd3c
000003a0: 5e19 7fbd 2825 9b3c 328a 013d b419 c83d
000003b0: 4d8d c4bd e891 e3bc db00 e6bc 6724 03bd
000003c0: 18b0 1b3c e53e a4bd 21fa 873c 123c df3c
000003d0: 1751 4abd 2261 d1bd 034a d9bd 4926 0abe
000003e0: e816 2b3d 0337 9dbb aa13 943c d321 e13c
000003f0: 8017 9e3d cdef a4bc 6747 01be 27c8 4ebd

weight f4 [128]
1.0790045 1.0121882 0.8738598 0.93458134 1.040013 1.023515 0.9206138 0.92465186
1.0300606 0.9090584 1.0215158 0.9465582 1.0668657 0.99344665 0.8972523 1.1466665
0.90517014 0.88465166 0.9588901 0.9118207 0.9811055 1.0043064 0.9609809 0.9681064
0.97321385 0.9091439 0.8409068 1.0724872 0.91171783 0.9033479 0.9633162 0.9940241
1.0129681 0.9974589 0.9962847 1.0090853 0.9928328 0.9557638 1.0059328 0.92151755
1.0194656 0.8480951 1.0092564 0.83740455 1.0262192 0.877797 1.0172166 0.92263263
0.9196276 0.8965561 1.0081536 0.8789144 0.95312303 0.84537256 0.9822664 0.82315964
1.0042169 1.0146616 0.95957226 1.0256741 1.0275952 0.9140752 1.0105067 1.0062244
1.009882 0.8914471 0.8952569 0.871471 0.94498414 0.94934773 0.93920416 1.0166619
0.91315454 0.9415042 1.0574335 1.0154096 1.0259535 1.0298525 1.014193 0.9118037
1.0088574 1.0100833 1.011854 1.0211874 1.0488658 0.9975161 0.9631397 1.003837
1.0212547 1.034437 1.0211027 0.9353845 0.8599919 0.9296097 1.0131428 1.0060729
0.8738755 1.0219847 0.9218212 0.97015476 0.8782196 0.9637852 1.0637909 0.84114707
1.0281322 0.92497826 0.98923874 0.99732035 0.9255309 0.8890245 1.016403 0.9287257
0.97335213 0.8947016 1.0088627 0.86541134 0.91765517 0.8900652 0.9603538 0.93014055
1.0145247 1.0034896 1.0032711 0.96190816 0.9886351 0.91834676 0.8896716 0.95000094
00000000: d21c 8a3f 628f 813f 47b5 5f3f b940 6f3f
00000010: 251f 853f 8a02 833f 59ad 6b3f fcb5 6c3f
00000020: 07d9 833f 0db8 683f 08c1 823f a351 723f
00000030: 0e8f 883f 8552 7e3f 54b2 653f f8c5 923f
00000040: 3bb9 673f 8878 623f d279 753f 156d 693f
00000050: bb29 7b3f 1d8d 803f d802 763f d2d5 773f
00000060: 8b24 793f a8bd 683f ab45 573f 4347 893f
00000070: 5766 693f cf41 673f e49b 763f 5d78 7e3f
00000080: f0a8 813f 7759 7f3f 840c 7f3f b529 813f
00000090: 4a2a 7e3f f0ac 743f 68c2 803f 93e8 6b3f
000000a0: d97d 823f c31c 593f 502f 813f 2560 563f
000000b0: 275b 833f 4eb7 603f 2734 823f a731 6c3f
000000c0: b76c 6b3f b384 653f 2d0b 813f 8900 613f
000000d0: dfff 733f 566a 583f d075 7b3f 97ba 523f
000000e0: 2e8a 803f 6ee0 813f 87a6 753f 4a49 833f
000000f0: 3d88 833f d500 6a3f 4958 813f f6cb 803f
00000100: d043 813f e135 643f 8e2f 653f b918 5f3f
00000110: 7bea 713f 7408 733f af6f 703f fa21 823f
00000120: 7fc4 693f 6b06 713f fb59 873f f1f8 813f
00000130: 7252 833f 35d2 833f 14d1 813f f86b 693f
00000140: 3d22 813f 694a 813f 6f84 813f 45b6 823f
00000150: 3c41 863f 375d 7f3f 5390 763f bb7d 803f
00000160: 79b8 823f 6e68 843f 7eb3 823f 5c75 6f3f
00000170: 6e28 5c3f e7fa 6d3f aaae 813f ffc6 803f
00000180: 4eb6 5f3f 65d0 823f 79fc 6b3f 105c 783f
00000190: 00d3 603f a0ba 763f 4d2a 883f 6a55 573f
000001a0: d699 833f 60cb 6c3f c03e 7d3f 6350 7f3f
000001b0: 98ef 6c3f 1c97 633f 7e19 823f f8c0 6d3f
000001c0: 9b2d 793f 2a0b 653f 6a22 813f 998b 5d3f
000001d0: 73eb 6a3f 50db 633f bfd9 753f b11d 6e3f
000001e0: f2db 813f 5972 803f 306b 803f 9d3f 763f
000001f0: 3117 7d3f c618 6b3f 85c1 633f 4333 733f

bias f4 [128]
0.3922976 0.32878235 -0.000638139 0.14327192 -0.44867882 0.37084553 0.21293738 0.18832369
-0.044268336 -0.0021058456 -0.054457657 0.4075581 0.29228982 -0.1346675 0.0021476995 0.42096418
-0.0067531415 -0.017591095 -0.039104115 0.0179926 0.028591197 -0.5869196 0.07293234 0.40217543
0.0077004717 -0.010360684 -0.0028286593 0.3933673 0.3546216 0.024887217 0.29092097 -0.10750979
-0.16274284 -0.06764433 0.30913916 -0.06300485 -0.6163777 0.060364038 -0.19098118 0.14086404
-0.12001156 -0.009615544 -0.21965556 -2.0426256e-05 0.33487254 -0.15197203 0.15304458 0.012512778
0.09461567 -0.016799161 -0.1737372 0.17209993 -0.004021118 -0.010106141 0.038066406 0.049664225
0.31053492 -0.08283752 0.12137273 -0.1778848 -0.073783875 0.08546069 -0.12721847 -0.05345871
-0.019906763 -0.01388548 0.008619552 -0.00120422 -0.006273607 -0.1379554 -0.013223596 -0.16829711
-0.00039430187 -0.0019735035 -0.0691208 -0.13743214 -0.105566904 0.31252977 0.13463536 0.08930563
-0.04880043 -0.12684007 0.36983767 0.34106073 0.38233605 -0.004272604 -0.15115869 -0.0625858
-0.18335682 0.38031498 0.29288915 0.007134681 0.07770209 0.09929665 0.0033223084 -0.039061897
0.011234605 0.24574901 -0.009809282 0.12090239 -0.003507036 -0.16667143 0.38725436 0.037320435
-0.09014463 0.13270009 -0.018893996 -0.0032910188 0.21904635 -0.007619918 0.34590155 0.10403584
0.30009615 -0.0037576735 -0.14908986 0.020994466 0.048688527 0.012305929 0.08623253 0.13480733
0.36862642 0.35346547 -0.16355851 -0.07665858 -0.11332179 0.12563644 0.020714033 0.11598203
00000000: 3bdb c83e 2956 a83e c948 27ba e0b5 123e
00000010: 3bb9 e5be 77df bd3e 420c 5a3e edd7 403e
00000020: b752 35bd 3a02 0abb fe0e 5fbd 75ab d03e
00000030: 03a7 953e 47e6 09be 6bc0 0c3b 9e88 d73e
00000040: 7549 ddbb 331b 90bc a32b 20bd 3865 933c
00000050: 1638 ea3c 5d40 16bf 8d5d 953d f0e9 cd3e
00000060: 3d54 fc3b dcbf 29bc 0761 39bb 7067 c93e
00000070: f690 b53e 47e0 cb3c 98f3 943e 182e dcbd
00000080: 0fa6 26be 1c89 8abd 7d47 9e3e b008 81bd
00000090: eeca 1dbf 4840 773d 9290 43be aa3e 103e
000000a0: 9fc8 f5bd 848a 1dbc 63ed 60be 0d59 abb7
000000b0: 6a74 ab3e 8e9e 1bbe b8b7 1c3e 6502 4d3c
000000c0: dcc5 c13d 659e 89bc 2ae8 31be f73a 303e
000000d0: 95c3 83bb 3a94 25bc 85eb 1b3d b76c 4b3d
000000e0: 6ffe 9e3e b8a6 a9bd 4492 f83d 6f27 36be
000000f0: 001c 97bd 0406 af3d 8f45 02be 85f7 5abd
00000100: 8213 a3bc ed7f 63bc 0539 0d3c ebd6 9dba
00000110: d492 cdbb 2e44 0dbe c8a7 58bc 1456 2cbe
00000120: 4dba ceb9 e555 01bb 358f 8dbd 03bb 0cbe
00000130: 7633 d8bd e703 a03e dadd 093e dfe5 b63d
00000140: f6e2 47bd 5de2 01be 5d5b bd3e 839f ae3e
00000150: 8dc1 c33e 3301 8cbb 58c9 1abe fc2c 80bd
00000160: e4c1 3bbe a5b8 c23e 91f5 953e 0bca e93b
00000170: 4622 9f3d 0b5c cb3d 16bb 593b 5eff 1fbd
00000180: 5911 383c a1a5 7b3e 1cb7 20bc ac9b f73d
00000190: 4dd6 65bb eaab 2abe 3446 c63e 50dd 183d
000001a0: bf9d b8bd 88e2 073e 95c7 9abc 22ae 57bb
000001b0: b04d 603e 81b0 f9bb 021a b13e be10 d53d
000001c0: 34a6 993e 4d43 76bb 03ab 18be 96fc ab3c
000001d0: 9f6d 473d cf9e 493c ae9a b03d ef0a 0a3e
000001e0: 9abc bc3e 6df9 b43e e27b 27be 2cff 9cbd
000001f0: 4115 e8bd d7a6 003e 7ab0 a93c fd87 ed3d

running_mean f4 [128]
-6.452979 -3.0719178 3.2859254 6.645876 2.3437712 -5.7126045 6.425285 4.313806
-2.0345387 3.5507627 -1.7590054 1.4475332 -4.336837 -2.5207067 4.593365 -1.514787
0.37343627 3.0928655 -4.2100477 5.679806 -5.6208544 -6.738084 5.0742426 2.271453
4.468592 2.2726133 2.9643936 -4.744501 3.1117585 5.68781 -3.4378304 -1.445405
-3.2875028 -2.0174305 -5.058439 -8.984826 -10.002041 6.8935347 -7.7428737 1.7315053
-2.893209 3.384481 -0.38289806 1.6457667 1.471504 2.196822 -1.0646402 9.215174
4.0209184 1.3570331 -0.065528125 1.9724125 1.3656427 0.95807 11.086017 3.3782337
-3.4044795 -1.8506862 5.9074845 -0.41769367 -2.5667477 1.8291652 -2.601192 -0.78934425
-2.2631679 5.7012277 6.1391373 2.5344808 14.017901 5.725774 1.7213848 6.782461
5.180838 5.087257 -4.899027 -4.4537563 -2.173632 -3.4410374 -2.0970502 1.815027
1.2799318 -4.4805074 -2.70044 -1.9847863 -5.653713 -4.4243464 -1.709911 -5.525233
-6.76315 -2.6021929 -3.596951 4.064799 1.157722 7.2076263 -3.8038595 -1.1760914
2.483326 -2.3608987 5.815955 -9.7202 2.3138072 -5.6255074 -2.464098 1.3042766
-1.7703491 1.5099268 -1.8967917 -3.843446 3.3664024 1.7065086 -5.955823 1.1888435
-1.2402266 0.8594514 -0.155617 7.5523 5.3448577 4.584922 6.744864 4.4996495
-3.0985591 -1.9954782 -3.2685308 -2.4737453 -2.6702182 3.4273517 2.2035701 5.7189894
00000000: ce7e cec0 4d9a 44c0 9a4c 5240 04ab d440
00000010: 5900 1640 a8cd b6c0 ef9b cd40 b30a 8a40
00000020: e235 02c0 b23f 6340 1727 e1bf c548 b93f
00000030: 5ec7 8ac0 4253 21c0 d9fc 9240 8ae4 c1bf
00000040: 0a33 bf3e 82f1 4540 b6b8 86c0 f9c0 b540
00000050: 0ade b3c0 629e d7c0 3260 a240 7c5f 1140
00000060: b5fe 8e40 7f72 1140 a0b8 3d40 f4d2 97c0
00000070: 0d27 4740 8a02 b640 6a05 5cc0 0803 b9bf
00000080: 7266 52c0 951d 01c0 bbde a1c0 d9c1 0fc1
00000090: 5c08 20c1 d697 dc40 9fc5 f7c0 f7a1 dd3f
000000a0: 562a 39c0 569b 5840 370b c4be 7ca8 d23f
000000b0: 3e5a bc3f bb98 0c40 2146 88bf 5a71 1341
000000c0: 5dab 8040 43b3 ad3f 9c33 86bd 0378 fc3f
000000d0: 61cd ae3f 1344 753f 5360 3141 fb34 5840
000000e0: fee2 59c0 49e3 ecbf 1d0a bd40 f2db d5be
000000f0: 9845 24c0 1622 ea3f ee79 26c0 7712 4abf
00000100: bed7 10c0 7570 b640 d073 c440 ef34 2240
00000110: 5349 6041 8a39 b740 5656 dc3f ec09 d940
00000120: 6dc9 a540 cfca a240 d4c4 9cc0 2c85 8ec0
00000130: c91c 0bc0 f539 5cc0 1236 06c0 ce52 e83f
00000140: ced4 a33f 5160 8fc0 02d4 2cc0 7a0d febf
00000150: 38eb b4c0 3f94 8dc0 5dde dabf b5ce b0c0
00000160: ba6b d8c0 548a 26c0 7234 66c0 d512 8240
00000170: 3c30 943f e0a4 e640 6f72 73c0 2a8a 96bf
00000180: d0ee 1e40 f718 17c0 4e1c ba40 f085 1bc1
00000190: 6b15 1440 2804 b4c0 c8b3 1dc0 89f2 a63f
000001a0: cd9a e2bf 4845 c13f 12ca f2bf 05fb 75c0
000001b0: 2373 5740 e06e da3f 1a96 bec0 062c 983f
000001c0: bfbf 9ebf 0205 5c3f 105a 1fbe 71ac f140
000001d0: 1309 ab40 aeb7 9240 edd5 d740 21fd 8f40
000001e0: cb4e 46c0 d46b ffbf 9c2f 51c0 d851 1ec0
000001f0: dbe4 2ac0 bb59 5b40 4b07 0d40 f601 b740

running_var f4 [128]
24.09873 3.715683 11.309801 42.030754 3.0187855 7.1381264 25.442625 10.618412
2.737047 14.385343 2.5001879 5.5772448 7.9699154 3.473933 25.54402 5.521126
4.726827 2.9974134 9.2504425 23.744335 31.960526 0.8004892 12.920743 2.655653
18.966476 2.8368976 6.13587 26.698778 3.038882 32.284798 3.5736873 1.7068888
5.459321 2.754767 10.817911 55.183388 2.7849083 35.70919 42.564762 7.473191
4.295993 13.136834 3.2835913 4.175209 2.4100833 5.4136314 3.297121 55.88694
11.177531 2.9623883 2.553807 4.429715 3.378805 4.8709154 101.55241 15.480396
5.5074215 7.543704 37.22151 1.6936276 4.6692615 2.1783502 4.016739 3.839648
2.7492082 13.446043 25.30475 37.42846 109.649895 26.840887 5.4497685 2.5720038
19.05132 59.646545 36.058323 8.112556 6.672227 5.4453225 5.328724 3.6202161
16.388227 5.2428308 6.664257 4.239937 38.58191 8.63891 3.018671 2.7544343
25.505148 1.9072897 8.52403 12.6756935 3.9556358 41.9697 18.715944 4.014964
9.122028 6.456111 22.325722 78.6074 6.5156465 31.837978 4.1813636 4.710012
12.422868 2.8817813 2.6839364 6.5498 14.298613 2.881713 14.6379595 8.557336
5.262051 3.2348347 2.3864996 48.223305 21.639637 17.458464 21.295052 17.623217
6.0332203 6.2878275 4.134383 6.80016 3.7299733 17.822979 3.6503637 9.375325
00000000: 33ca c041 c0cd 6d40 f2f4 3441 7e1f 2842
00000010: c833 4140 886b e440 7f8a cb41 04e5 2941
00000020: c72b 2f40 5d2a 6641 1403 2040 ca78 b240
00000030: 8c09 ff40 eb54 5e40 275a cc41 10ad b040
00000040: 2b42 9740 9fd5 3f40 d001 1441 66f4 bd41
00000050: 28af ff41 dcec 4c3f 5dbb 4e41 38f6 2940
00000060: 58bb 9741 bb8f 3540 0c59 c440 1997 d541
00000070: 0b7d 4240 a223 0142 4bb7 6440 557b da3f
00000080: c2b2 ae40 1a4e 3040 2a16 2d41 cabb 5c42
00000090: f03b 3240 36d6 0e42 5142 2a42 6124 ef40
000000a0: c678 8940 7930 5241 5c26 5240 509b 8540
000000b0: ce3e 1a40 783c ad40 0804 5340 3a8c 5f42
000000c0: 2bd7 3241 c597 3d40 9371 2340 3ac0 8d40
000000d0: 573e 5840 8ade 9b40 d51a cb42 b4af 7741
000000e0: cc3c b040 0666 f140 d4e2 1442 cac8 d83f
000000f0: 976a 9540 176a 0b40 2089 8040 cbbc 7540
00000100: 07f3 2f40 fe22 5741 2170 ca41 beb6 1542
00000110: bf4c db42 23ba d641 8164 ae40 b69b 2440
00000120: 1a69 9841 1096 6e42 b93b 1042 08cd 0141
00000130: e282 d540 1540 ae40 e884 aa40 9fb1 6740
00000140: 171b 8341 45c5 a740 9841 d540 90ad 8740
00000150: e053 1a42 fa38 0a41 e831 4140 a748 3040
00000160: 8b0a cc41 1222 f43f 6d62 0841 a4cf 4a41
00000170: 2329 7d40 f9e0 2742 41ba 9541 967a 8040
00000180: d4f3 1141 7698 ce40 149b b241 fd36 9d42
00000190: 2d80 d040 2eb4 fe41 bbcd 8540 6bb8 9640
000001a0: 11c4 4641 1b6f 3840 9dc5 2b40 f697 d140
000001b0: 1ec7 6441 fc6d 3840 1535 6a41 d9ea 0841
000001c0: b962 a840 8807 4f40 69bc 1840 aae4 4042
000001d0: fa1d ad41 efaa 8b41 445c aa41 59fc 8c41
000001e0: 2410 c140 e235 c940 de4c 8440 e99a d940
000001f0: e2b7 6e40 7695 8e41 8f9f 6940 5501 1641

weight f4 [128]
1.0391747 0.95289695 0.93716496 0.9496315 0.93630534 1.0978228 1.0339019 1.0708551
0.94700867 1.0308243 0.9289857 1.0432285 0.95970345 1.0021926 1.0529933 0.94591594
1.0824634 1.0467153 0.96043307 0.9295181 1.0367806 1.0908405 1.0933782 1.0752519
1.0406804 0.92040485 1.084858 0.96952087 0.9185915 1.042237 0.94544876 0.93174356
1.0869312 1.1026647 0.9403343 1.0513028 1.0334375 0.9397077 0.940367 0.90852696
1.0436953 0.96508104 0.9690633 1.0841478 0.97568893 1.073792 1.0825708 0.95365334
0.9308785 1.079484 0.9409965 1.0823047 0.9411709 1.0515841 1.0646287 1.0818092
0.9210951 1.0343026 0.93060434 1.0814041 1.087465 0.9646334 0.9984805 1.046971
1.068277 1.0197033 0.93651944 1.0650449 1.0868872 1.0131861 0.96900976 1.0754492
1.0858355 0.9313318 1.0724988 0.9392196 1.0279455 1.0828992 1.084675 0.9289179
1.044485 1.0401053 1.0751779 1.0878466 1.0800133 1.0980854 0.9372287 1.0888677
1.047232 1.0626597 1.0261863 1.0564868 1.0421154 1.0001011 1.0806153 1.0814036
1.0417832 1.0875007 1.0771973 1.0683556 0.9739202 1.0829414 0.93860275 1.062132
0.93147856 0.9821477 1.0433545 0.96886486 0.9613807 1.0784154 0.9307757 1.0446981
1.0399686 1.0824242 1.0850501 1.0770689 0.9871608 1.043663 0.9392632 1.0174221
1.0735725 0.99124944 1.0867872 1.0724815 0.9746628 1.0743959 1.091242 1.0795232
00000000: ad03 853f 0ef1 733f 0bea 6f3f 0d1b 733f
00000010: b5b1 6f3f 7585 8c3f e656 843f c811 893f
00000020: 296f 723f 0df2 833f 02d2 6d3f 8388 853f
00000030: 20af 753f d947 803f 7cc8 863f 8c27 723f
00000040: 298e 8a3f c4fa 853f f1de 753f e6f4 6d3f
00000050: 3ab5 843f a9a0 8b3f d1f3 8b3f dba1 893f
00000060: 0435 853f a79f 6b3f a0dc 8a3f 8532 783f
00000070: d028 6b3f 0668 853f ee08 723f bf86 6e3f
00000080: 9020 8b3f 1e24 8d3f c0b9 703f 1791 863f
00000090: ae47 843f af90 703f e4bb 703f 3995 683f
000000a0: cf97 853f 8d0f 773f 8814 783f 5bc5 8a3f
000000b0: c0c6 793f 0472 893f ae91 8a3f a022 743f
000000c0: 0e4e 6e3f 882c 8a3f 26e5 703f f688 8a3f
000000d0: 93f0 703f 4f9a 863f c145 883f b978 8a3f
000000e0: e3cc 6b3f 0764 843f 163c 6e3f 736b 8a3f
000000f0: 0e32 8b3f 37f2 763f 6b9c 7f3f 2503 863f
00000100: 4dbd 883f a385 823f bdbf 6f3f 6453 883f
00000110: 1f1f 8b3f 15b0 813f 0611 783f 52a8 893f
00000120: a8fc 8a3f c36b 6e3f a447 893f b270 703f
00000130: b893 833f 719c 8a3f a1d6 8a3f 90cd 6d3f
00000140: afb1 853f 2c22 853f 6e9f 893f 8f3e 8b3f
00000150: e03d 8a3f 108e 8c3f 38ee 6f3f 0460 8b3f
00000160: b30b 863f 3c05 883f 135a 833f f63a 873f
00000170: 0a64 853f 5003 803f 9a51 8a3f 6f6b 8a3f
00000180: 2759 853f 3933 8b3f 9ae1 893f e0bf 883f
00000190: d652 793f d39d 8a3f 4548 703f f1f3 873f
000001a0: 6175 6e3f 086e 7b3f a48c 853f 8707 783f
000001b0: 0c1d 763f 8409 8a3f 5147 6e3f abb8 853f
000001c0: b11d 853f e08c 8a3f ece2 8a3f 65dd 893f
000001d0: 92b6 7c3f c096 853f 8e73 703f e33a 823f
000001e0: d36a 893f 86c2 7d3f d81b 8b3f 1347 893f
000001f0: 8083 793f ce85 893f d1ad 8b3f d12d 8a3f

bias f4 [128]
0.14267817 -0.036467556 -0.09084801 -0.032702144 -0.08221116 0.07473165 0.13389917 0.064025424
-0.08838615 0.019522356 -0.043404218 0.1614679 -0.03142272 0.025900362 0.15375213 -0.061741535
0.09254113 0.15519269 -0.028540695 -0.07383865 0.13365342 0.0787955 0.07546281 0.0755296
0.13649769 -0.068726875 0.067618 -0.043652188 -0.05102312 0.14752808 -0.057536695 -0.031381
0.07797737 0.09097256 -0.07703527 0.15528783 0.11367628 -0.01799381 -0.081594795 -0.0699305
0.16659418 -0.09562744 -0.04539028 0.0716977 -0.015933732 0.07721402 0.06858455 -0.03223182
-0.06736927 0.067949794 -0.032421444 0.067476474 -0.06007181 0.15466517 0.13565789 0.06439724
-0.076017946 0.13606659 -0.036917493 0.09247624 0.10966374 -0.023103848 -0.0067428756 0.1585266
0.07879902 0.011884683 -0.023412215 0.12977351 0.094296545 -0.001495194 -0.018080993 0.08290112
0.094257064 -0.06995311 0.08936209 -0.08386611 0.0428434 0.07555847 0.06668964 -0.052729852
0.1434989 0.14582199 0.07937595 0.068804316 0.06541998 0.074970245 -0.04544436 0.07300709
0.15334919 0.13186374 0.054045957 0.04167819 0.14786886 -0.012656345 0.08567593 0.06475599
0.1327221 0.06923803 0.068549074 0.14012274 0.033066485 0.049597204 -0.08112839 0.08814163
-0.07916281 -0.09201647 0.15225954 -0.044958428 -0.034897305 0.08842827 -0.065516956 0.14682114
0.14129932 0.068561964 0.07170958 0.065451376 -0.054053407 0.15468924 -0.07962076 0.011309122
0.08024953 0.012490602 0.077999525 0.07730331 -0.046365667 0.07964422 0.094308294 0.068148784
00000000: 3a1a 123e 015f 15bd 850e babd aff2 05bd
00000010: 535e a8bd e80c 993d dd1c 093e c31f 833d
00000020: cc03 b5bd 59ed 9f3c 9fc8 31bd d757 253e
00000030: 1cb5 00bd ff2c d43c 3371 1d3e b1e4 7cbd
00000040: 3486 bd3d d5ea 1e3e 2dce e9bc b838 97bd
00000050: 71dc 083e 895f a13d 3f8c 9a3d 43af 9a3d
00000060: 0dc6 0b3e adc0 8cbd 4e7b 8a3d a3cc 32bd
00000070: 9efd 50bd 9a11 173e 99ab 6bbd 5d89 00bd
00000080: 99b2 9f3d d24f ba3d abc4 9dbd c603 1f3e
00000090: 1ccf e83d c167 93bc 2c1b a7bd b937 8fbd
000000a0: aa97 2a3e 52d8 c3bd 29eb 39bd 3ed6 923d
000000b0: 7587 82bc 6222 9e3d 0e76 8c3d 8305 04bd
000000c0: e6f8 89bd 4329 8b3d 59cc 04bd 1b31 8a3d
000000d0: dc0d 76bd 8c60 1e3e e7e9 0a3e b3e2 833d
000000e0: 4caf 9bbd 0a55 0b3e cc36 17bd 2f64 bd3d
000000f0: 6297 e03d 4844 bdbc 57f3 dcbb cc54 223e
00000100: 6161 a13d f9b7 423c f9ca bfbc 59e3 043e
00000110: 8c1e c13d 63fa c3ba 971e 94bc 10c8 a93d
00000120: d909 c13d 9343 8fbd 7903 b73d ffc1 abbd
00000130: 907c 2f3d 66be 9a3d 9494 883d 42fb 57bd
00000140: 60f1 123e 5c52 153e dc8f a23d 47e9 8c3d
00000150: e9fa 853d 008a 993d dd23 3abd be84 953d
00000160: 9207 1d3e 4a07 073e 4b5f 5d3d c0b6 2a3d
00000170: ef6a 173e 8f5c 4fbc dd76 af3d ca9e 843d
00000180: 4de8 073e abcc 8d3d 7563 8c3d 567c 0f3e
00000190: b970 073d 7026 4b3d a426 a6bd 9983 b43d
000001a0: 1d20 a2bd 2273 bcbd ede9 1b3e 5426 38bd
000001b0: 7af0 0ebd e119 b53d c12d 86bd 4858 163e
000001c0: c5b0 103e 376a 8c3d 79dc 923d 5f0b 863d
000001d0: 1b67 5dbd db66 1e3e 3610 a3bd e549 393c
000001e0: de59 a43d 62a5 4c3c 37be 9f3d 3351 9e3d
000001f0: ede9 3dbd 821c a33d b524 c13d 9791 8b3d
