Graph Neural Network/Models/GraphConvLayers-10k M1.pth (torch, 285866 bytes, 15 tensors)

weight f4 [128, 128]
00000000: 4dc7 bd3d cd84 993d 10e3 26bd 256a 313d
00000010: 70b9 383c 2da5 2a3d 9f03 37ba 4904 3abd
00000020: ddca 1b3b 3f93 4abd 23ec 7b3d ba2a 3abd
00000030: e815 8bbc 0d55 9b3d 4d76 ba3d 06c3 ab3b
00000040: f6c2 34bd d5e8 f3bc d58d 903d 6d78 bc3d
00000050: f73b 613d 9712 423c 6ac2 643a 6748 463d
00000060: 04ab 803d 2ab3 c3b9 286e 193c 5784 623d
00000070: b986 50bd 7abc 8a3d ca37 13bd 2657 813d
00000080: c33b 6a3d 878a 97bd 951e 76bd 55f6 8f3c
00000090: c66c f4bc 1fb6 15bd 9cdd 703c 018f 853d
000000a0: 03a5 6d3b ef99 52bd f773 c43d c315 c23d
000000b0: 4efb 50bd 77a3 933d 5738 ad3d 4659 823d
000000c0: 6860 e1bc c75a bf3d 0687 1c3d 039f 9a3c
000000d0: 62fa 213d 182c 173d 2190 27bc 574c 0fbd
000000e0: c207 16bd 0c21 9abd 26b7 4fbc cfce a63d
000000f0: 6532 1ebb e1b1 05bd e1a4 ac3d 1ae4 7cbd
00000100: 1741 523d c206 6ebc db0a b43d 63e0 c03d
00000110: ff71 c03d 7741 663d 3992 c73d 7391 583d
00000120: ff8e 9abc fd1f 8fbb 46d9 66bc 64a0 7f3d
00000130: d23e 83bd 2518 39bd 84c3 04bc 394e a43d
00000140: 2892 ae3b 3161 913c ea4b 1fbd b1d1 2fbd
00000150: 4520 7fbd 452a 43bd c6b5 a13b 8d1f 393d
00000160: 6e9f 8fbb a56d 72bd 8e9e 0abd ff22 adbc
00000170: b51f 843d c33a a43d 7649 893d 8c69 b63c
00000180: 367d 8a3d 411a 2bbc 8feb 853c db97 0bbd
00000190: 863b 653c baef 82bd 5cff b43c 6f3a 143d
000001a0: 8fee 843d d17f d23c 2b7c 37bd 997e 46bd
000001b0: 0d45 52bd 4c23 6bbc c466 683c 1e25 7ebc
000001c0: eabf d6bb b64d 8c3d d0a0 873d bb69 26bd
000001d0: 05d4 1dbb feb6 86bc eda1 983d 69d0 cc3c
000001e0: a5b8 49bd 739e 55bd 9e57 5dbd 3179 ec3c
000001f0: 0b93 ae3d 74c7 99bd 30f9 193d 4579 e73c
00000200: 8508 88bd c29f aa3d dbc1 e6bc 88a4 343d
00000210: 71fa a6bd ad80 c43c c4af 99bd 7a4f 983d
00000220: 03cd d8bc a5f7 6cbd aad8 6bba 4011 603d
00000230: 849c a23d d1ba 15bc d741 7fbd 88ba 493c
00000240: ced4 1e3c 105b 1cbc a8de 103d d53d 8fbd
00000250: b7d5 27bc c913 9cbd 245b 053d 78dd 023d
00000260: 368e 96bd ba6a 85bd ebf1 77bd f58e a43c
00000270: ed96 a23b 9a82 89bd 523c 0abd 34e3 463d
00000280: 8a65 31bd 898a 99bd 9846 5f3d dc64 393d
00000290: 346c 913d ec89 a93d 6dd2 63bd 22cd 39bd
000002a0: d64a 823d d781 b6bd b97a 96bc ea86 4fbd
000002b0: 5e28 373c 3136 a9bd 51a3 58bd 3f42 7f3d
000002c0: f05b d43b 4557 07bd ca10 60bc 244a 11bd
000002d0: 2c4c 11bd a340 4cbd d06b 1a3d b02c a43d
000002e0: 2f39 e5bc dd4c 933c 1c30 a5bd 13c7 563c
000002f0: 98c1 31bd 0b0b 50bd b97c 30bd 4038 84bd
00000300: e2ba 11bc 5b0c b7bc 3335 a0bd da03 5f3c
00000310: 8ef8 9ebd 2c8e 1c3d 4209 7dbc e19b 943c
00000320: 0f7d 2e3b b644 68bd f8f3 9bbd 6126 93bc
00000330: c055 44bd c41f a63d 4bb9 d3bc 98a0 183d
00000340: 94cd 5e3d 68e5 483c 2582 a5bd 6021 583d
00000350: 27e5 b2bd 44e9 99bc e8fd 493d 097e a93c
00000360: 242a 06bd 2c32 99bd 46a5 23bd 0954 fdbc
00000370: 3125 513c 56a9 933d 70f6 a23d 514f 96bd
00000380: a5e5 7b3d 2ab2 80bd e0c8 073d fc7a a13d
00000390: 3436 213d 0d66 923c 9010 373d 0340 ccbc
000003a0: 42f6 7e3d c598 7fbd e342 a2bd 55b1 fc3b
000003b0: d1ba 08bc c2a7 a0bd e9ad d03c a5ee ac3a
000003c0: 2ce5 763d b0be 51bb d0b7 563d a05a 153d
000003d0: d444 3e3d 3548 f5b9 d37b 1abd 862a 113c
000003e0: 2ed2 a93d cf30 99bb 60c7 a03d 03b1 08bd
000003f0: 2835 6e3d 2bd8 573c f5b5 ce3c 2699 65bd
0.09266529 0.07496033 -0.040743887 0.043314118 0.0112746805 0.04166143 -0.00069814356 -0.045414243
0.002377204 -0.04945683 0.061504494 -0.045450903 -0.01697822 0.075845815 0.09104595 0.0052417545
-0.04413124 -0.029774109 0.07058302 0.09202657 0.054988828 0.0118452525 0.000872648 0.048408892
0.06282619 -0.00037326786 0.009364642 0.05530199 -0.05090973 0.0677423 -0.035941876 0.0631545
0.0571859 -0.07399469 -0.06008776 0.017573515 -0.029837023 -0.036550637 0.014701273 0.065214165
0.0036261685 -0.051416334 0.09592431 0.09476807 -0.051020913 0.07208913 0.084580116 0.06364684
-0.02751179 0.09343486 0.038214706 0.01887465 0.039545424 0.036907285 -0.010227234 -0.034984913
-0.036628492 -0.075258344 -0.012677943 0.08144914 -0.0024138924 -0.03264034 0.08429886 -0.061740972
0.051331606 -0.014527978 0.08791133 0.09417798 0.09396743 0.056214776 0.09744687 0.052873086
-0.018867014 -0.004367827 -0.014089888 0.06240882 -0.064084664 -0.04518904 -0.008103255 0.08022732
0.005327482 0.01774654 -0.038890757 -0.042924587 -0.062286634 -0.047647733 0.004934999 0.045196105
-0.004383019 -0.059186596 -0.033842616 -0.021134852 0.0645136 0.080190204 0.06703465 0.022267126
0.06762163 -0.010443271 0.016347675 -0.034080368 0.013991242 -0.063933805 0.022094421 0.03618854
0.06490814 0.025695713 -0.04479615 -0.048460577 -0.051335383 -0.014351677 0.0141846575 -0.015511779
-0.0065536397 0.0685076 0.066224694 -0.040628176 -0.0024082672 -0.01644468 0.0745276 0.025001721
-0.049248356 -0.052153062 -0.054038636 0.028866382 0.0852414 -0.07508746 0.03759116 0.028256068
-0.0664225 0.08331253 -0.02816861 0.04410222 -0.08153237 0.023987139 -0.07504228 0.07437034
-0.026464945 -0.05785336 -0.0008996824 0.05470395 0.07940009 -0.009138779 -0.06231865 0.012312539
0.009694291 -0.009543195 0.03536859 -0.069942154 -0.010243825 -0.07620961 0.03255762 0.03194949
-0.07351343 -0.06514497 -0.060533445 0.020087698 0.0049618394 -0.067143634 -0.033748932 0.04855652
-0.043309726 -0.074971266 0.054510683 0.045262203 0.07100716 0.0827826 -0.0556206 -0.045361646
0.0636193 -0.08911484 -0.018369066 -0.050665773 0.011179058 -0.08262289 -0.052890126 0.062319037
0.0064806864 -0.03304221 -0.013675878 -0.035471097 -0.035473034 -0.04986633 0.037700474 0.08016336
-0.027981369 0.017980987 -0.08065817 0.013108986 -0.043397516 -0.05079178 -0.043087695 -0.06456041
-0.008894654 -0.022344759 -0.07822647 0.013611758 -0.07762252 0.038221523 -0.015444102 0.018140735
0.0026624834 -0.056706153 -0.07614893 -0.017962636 -0.04793334 0.081115276 -0.02584519 0.03726253
0.054395273 0.012261726 -0.08081464 0.052766204 -0.087351136 -0.018787988 0.04931441 0.020689981
-0.032755032 -0.07480273 -0.03995254 -0.03092386 0.012765215 0.07210033 0.079571605 -0.07339347
0.061498303 -0.06283982 0.033150554 0.078847855 0.039358333 0.017870927 0.04469353 -0.024932867
0.06224657 -0.06240155 -0.07922914 0.0077115693 -0.008345322 -0.07844497 0.025473552 0.001319368
0.06027715 -0.0032004528 0.05242139 0.03646338 0.04645236 -0.0004678384 -0.037715744 0.008860236
0.08292042 -0.004675008 0.07850528 -0.033371937 0.058156163 0.013174097 0.025233248 -0.056054257

bias f4 [128]
00000000: 023e 5e3d 5209 5cbd 4331 9dbd bd05 613c
00000010: 0316 98bd f4ad a5bd 5b2e 04bc 5ff1 6c3d
00000020: e6c4 993c 0cb1 09bd a084 13bb 112c 47bd
00000030: 8464 923d 82e3 8b3c a6e9 533b 902a b0bd
00000040: 96ce 05bd 8ef4 92bd 5def a53d f5da ad3d
00000050: 9942 19bd b8e2 42bd 4603 313d 002f 473d
00000060: 1f40 283d 24aa 0d3d df59 93bc f555 5fbd
00000070: 365b 763d 9cb7 82bd 7423 c03b 4169 dfbc
00000080: aa4b 88bd 84a5 3f3c 2447 413c 6bc8 a4bd
00000090: 11f1 a6bb 5a39 923d ff01 a33d ffd9 8f3d
000000a0: e640 4a3a 931f 9fbd e23a 85bd 3fee 9bbd
000000b0: 3090 733d e8e3 aebc d46c 51bd 69f3 34bd
000000c0: 0d7e 533d d47f a73d e958 a13d d320 f33c
000000d0: 48f8 88bd 9bca 0d3d c0eb dcbc 3457 ebbc
000000e0: df51 2cbd 515a 48bd 06d4 73bd bd2c b23c
000000f0: 4b20 463d d26a a53d c145 403c ec28 a63c
00000100: 57b4 c7bb eb8c 1abb eb8c 9b3d aafc 1ebd
00000110: 0d9b 9d3d 6179 8fbd 0431 80bd a347 0cbd
00000120: 6102 8f3d 011a c53c fda4 043d 4609 aa3c
00000130: f15e fdbc 0fa0 6e3d 966e 883c d9f7 a3bd
00000140: 32ad afbd 9d94 70bd efee 5ebd 7ee0 62bc
00000150: e4c7 003c 82b6 b13b 8593 87bc b382 9d3d
00000160: 28cd b2bc c5cd 9b3d 44a7 79bd 393a 583d
00000170: ad5e 133d 96b8 043d 1b80 8f3d af6b 9c3d
00000180: 73a2 1dbd 4287 b5bc f465 97bd 8270 693d
00000190: e7fd 27bd c8b3 0c3d d4a5 97bd 06e2 7cbd
000001a0: b8ab 24bd 69fb babc 4b47 91bc 1e8d 77bd
000001b0: 8e42 1ebc e984 90bd a34e b4bc bae5 abbb
000001c0: 4e27 0c3c f16f 76bb 8f89 a33d 0fc3 3abd
000001d0: c6fa 6fbd 8286 b3bd 9751 1ebc 6d5b 7c3d
000001e0: 66fc 463d 9d72 cc3c 3bf3 a6bd 5b11 573c
000001f0: 893e 8a3d a2af 0bbd 34c0 5c3c e3d9 283d
0.054258354 -0.053719826 -0.076754116 0.013734278 -0.074260734 -0.080898196 -0.008067693 0.057847377
0.018770646 -0.03361611 -0.002250947 -0.04862601 0.07148078 0.017076258 0.003233531 -0.08601868
-0.03266772 -0.07175551 0.081022955 0.08489028 -0.037417028 -0.047579497 0.043216012 0.048628807
0.041076776 0.034586087 -0.01798719 -0.054525334 0.06014558 -0.06382677 0.0058636013 -0.027271869
-0.06655057 0.011697177 0.011796746 -0.08046039 -0.0050946553 0.07139845 0.07959365 0.07024001
0.0007715359 -0.07769694 -0.06505372 -0.07613801 0.05946368 -0.021348909 -0.051129177 -0.044177447
0.051633883 0.08178678 0.078782864 0.029678738 -0.06687981 0.034617048 -0.026967883 -0.028728105
-0.042070266 -0.048914257 -0.059528373 0.021749848 0.04837064 0.08077015 0.011735381 0.020283185
-0.006094496 -0.0023582529 0.07595237 -0.038815178 0.07695589 -0.07005573 -0.06259349 -0.034248006
0.069828756 0.024060251 0.032383908 0.020756375 -0.03092906 0.058258113 0.016654294 -0.080062576
-0.08577956 -0.05873548 -0.054427084 -0.013847468 0.007860158 0.005423368 -0.016549835 0.076909445
-0.021826342 0.07607607 -0.060950533 0.0527899 0.03597896 0.032402597 0.07006856 0.076377265
-0.038485 -0.022159223 -0.07392493 0.05699206 -0.041013625 0.03435114 -0.07404676 -0.06173899
-0.040202826 -0.02282496 -0.01773419 -0.060437314 -0.009659423 -0.070566006 -0.022010153 -0.0052458914
0.008554293 -0.0037603343 0.079852216 -0.04559618 -0.058588766 -0.0876589 -0.009663007 0.061610628
0.04858055 0.024956996 -0.08151861 0.013126696 0.06750209 -0.034103043 0.013473559 0.041223418

weight f4 [128, 128]
00000000: a69b e33b 270e 5cbd 7cc7 413c b018 15bd
00000010: d2f0 993d 9c74 57bd 6a0e 53bb b06c b1bd
00000020: 44a8 b13d 7f32 afbd 51a0 97bd f745 033d
00000030: 1257 913d 95ea 80bc 7ffc 923c a10a b7bc
00000040: 7fc1 9c3c ce4b 95bd bc6b 93bb e396 683d
00000050: 7962 9abd 51ce 58bd 9831 47bd 2e25 c337
00000060: aa0f 9f3d ef36 8bbd 794b e33a 34a6 993d
00000070: 0741 9e3c ed59 ecbc 7909 92bc e72e ee3c
00000080: e852 aa3d fe89 6bbd da71 aebd fe34 a73d
00000090: 81e6 8cbd 335c 14bd 49d4 d5bc 177f 5a3d
000000a0: 9454 31bd 0f26 83bd 1672 38bd 47eb f1bc
000000b0: 23a1 3d3d 5476 a1bd 4aa7 843d 37ff 5bbd
000000c0: 85b4 88bc 9557 97bd 4f04 4bbd 04e2 67bd
000000d0: 0bff 753d c9db 5ebd 0369 da3c 2be7 0f3d
000000e0: 67dc edbc 7262 8f3d baba babb ca97 b13d
000000f0: 5701 ec3c 6f34 aebd fa83 9c3d 4360 443d
00000100: 3359 523d d095 a73d f894 b23d 5d52 5ebd
00000110: 67fd cd3c e087 8cbd d2b5 39bd 31b0 073a
00000120: 0f03 f73c 0451 053c 638f 333d 4f03 87bd
00000130: 071c be3c 102c 6abd e4aa 363c dc96 59bd
00000140: b0a9 50bd 002d b13d 4790 e33c 04d0 1d3c
00000150: 3ab2 e9bb b053 2abd 7faa 4ebd 96b2 a03d
00000160: 4b5b 8f3c 75c4 8ebc 17f1 793d 1ce0 423c
00000170: ab28 1e3d 13d3 ffbc cf4a 9b3c fae2 a13d
00000180: c359 eebc 9ebf 93bd d2e4 a73d 996c 8ebc
00000190: 6871 c0ba 9493 503c 102d 91bd 73b8 193d
000001a0: 5bd8 ba3c e466 923d e9e3 89bd 66e3 de3b
000001b0: c35e 79bd 1b56 1e3d bb93 ac3c ffd3 683d
000001c0: 4e3e 883d 73f6 d13c 188e 14bd 27ea 873c
000001d0: aa08 b33d 14bb 86bd dffb 7b3d a8a3 a1ba
000001e0: 64ff 853d 883e aebd d7e9 583d b44e 23bc
000001f0: c033 4fbd a281 973d 4004 a23d 175b a3bd
00000200: 89b1 cebb e60b 08bd dff8 20bd e696 04bc
00000210: 65bd f93c 74bc 643c d58d d6bc 51c3 6abd
00000220: 5ed0 153d 9705 9cbb 3e93 4c3d cd13 1dbb
00000230: 62dd 8d3d 4a3a 923d e657 a5bb f79d b6bd
00000240: 0685 6abd 51a6 9bbd 9bbd 8fbd 91da 5abc
00000250: 2292 87bd fc83 ad3d 314c 9fbc 2d2b dabc
00000260: d324 d83c b792 9dbb 747f a03d 1ae5 953d
00000270: 83d4 a43c 56bc 423d 1d62 7c3d dd6e 7b3b
00000280: cb84 2fbd 9e10 6e3c b9f7 b2bc ff58 d13c
00000290: c2d4 45bd cb34 a53c 0c3d 803d 9310 33bd
000002a0: a347 85bd 72cc 50bd 37e2 163c cef2 4cbc
000002b0: 6b9f 94bd ee24 803d 8ceb 5dbd ff28 0abc
000002c0: 0e1b 473d 8a06 9d3d b6f7 893d bd62 b1bd
000002d0: 0c61 e03b 236b 7bbd 82d5 643d 255f 0dbd
000002e0: 3711 b33c 8b1f 73ba 0bc7 46bd 08d1 b3bd
000002f0: 9f5a 6cbd 63b2 5cbd 7eab 923d 99bd 65bd
00000300: 45d3 dbbc fc82 8fbd 06eb 7dbd ef8a f9bc
00000310: 31c5 a9bc 9f18 90bd a639 10bc 2f7a 5d3c
00000320: 1347 33bc c9f4 35bd 5664 43bc 8f81 aebd
00000330: 0e81 5cbd e667 a43d d926 d2ba 9692 10bd
00000340: c6db 8a3d 3e36 413d 2693 663b 1449 e8b9
00000350: dcb5 5bbd ac6e 8c3d 154f 743c 3894 22bd
00000360: c586 87bd 47ad 4bbc 5500 313c 4f2c a6bd
00000370: 0c1f 933d 4b1e c83c f0f2 f03c 7f92 99bc
00000380: 3a64 2a3d 5a28 3e3d 30c9 24bd 0a27 9dbd
00000390: ce9d 383d 7d52 79bd bccd a1bd 40ed 7ebd
000003a0: 88b9 8c3d 5a21 b83b 58d7 e83c f62d 413c
000003b0: 7c04 ae3d 36f7 a53d 595f 3abd 3e1f 71bd
000003c0: bcbc ddbb e367 af3c 3acd 57bd dc5c 10bd
000003d0: dad4 0a3d 2a83 353d d513 dcbc b22b 73bd
000003e0: 77a0 c03c c212 1c3d c2ed aa3d 2de1 6fbd
000003f0: 0bf4 83bd 1e01 2a3d 82d5 acbd 50c6 063d
0.006946045 -0.053724434 0.011827346 -0.036400497 0.07516636 -0.05260144 -0.0032204636 -0.086633086
0.08674672 -0.08554553 -0.07403625 0.032049146 0.070966855 -0.015736857 0.017942665 -0.022343935
0.019135235 -0.07289849 -0.004498927 0.05678452 -0.075383134 -0.052931134 -0.04863128 2.3263125e-05
0.077666596 -0.06797587 0.0017341218 0.07502404 0.019318117 -0.028851474 -0.017826783 0.0290751
0.08316594 -0.057504646 -0.08517809 0.08164404 -0.06879903 -0.03622074 -0.026102202 0.05334386
-0.04329355 -0.064037435 -0.045030676 -0.029531134 0.04629625 -0.078838974 0.0647722 -0.05371019
-0.01668764 -0.07389752 -0.049564656 -0.05661203 0.06005768 -0.054408822 0.026661402 0.03513257
-0.02903576 0.07001199 -0.005698529 0.086715296 0.028809233 -0.08506095 0.0764236 0.047943365
0.0513546 0.08182871 0.0871982 -0.054277766 0.025145246 -0.068618536 -0.045339413 0.0005176096
0.030152826 0.008136991 0.043837916 -0.06592428 0.023206724 -0.057170928 0.011149142 -0.053122386
-0.050943077 0.08651161 0.027778758 0.009632114 -0.007131842 -0.041583717 -0.050455566 0.078465626
0.017499587 -0.017427662 0.061020937 0.011894252 0.038613003 -0.031228578 0.01895657 0.079046205
-0.029095536 -0.072142825 0.08197941 -0.017385768 -0.0014682235 0.012730498 -0.07088673 0.03752942
0.022808244 0.07148531 -0.067329235 0.0068020103 -0.060881387 0.038656335 0.021066537 0.0568428
0.06652509 0.025630211 -0.036268324 0.016591145 0.08741887 -0.06578651 0.0615195 -0.0012332099
0.065428525 -0.08508021 0.052957382 -0.009967495 -0.050586462 0.07397772 0.07910967 -0.079763584
-0.006307785 -0.033214472 -0.039299842 -0.008092618 0.030485818 0.013960946 -0.026190678 -0.057315174
0.036575668 -0.0047614085 0.04994511 -0.00239681 0.06926991 0.07140024 -0.0050458787 -0.08916848
-0.057255767 -0.07600082 -0.07018586 -0.013357774 -0.066196695 0.0847244 -0.01944551 -0.026631916
0.026384747 -0.0048087495 0.0783681 0.07319088 0.020120865 0.047542892 0.061617006 0.003836564
-0.04285125 0.014530329 -0.021846639 0.025555132 -0.048298605 0.020166775 0.06261644 -0.04371698
-0.06507804 -0.050976224 0.009209207 -0.012509061 -0.07256969 0.06257044 -0.054179713 -0.008432626
0.048609786 0.07667263 0.067367 -0.08661411 0.0068475064 -0.06138147 0.05586768 -0.034514565
0.021858795 -0.00092744146 -0.048529666 -0.08780104 -0.05770361 -0.05388106 0.07161616 -0.056089018
-0.02683414 -0.07007405 -0.061991714 -0.030461757 -0.020723911 -0.07035946 -0.008802807 0.0135179
-0.010942238 -0.0444229 -0.011925777 -0.08520805 -0.053834014 0.080276296 -0.0016033306 -0.035296045
0.067802 0.04717087 0.0035182922 -0.00044304936 -0.05364023 0.068570465 0.014911433 -0.039692134
-0.06617502 -0.012431449 0.010803302 -0.0811392 0.07183656 0.024428507 0.029412717 -0.018746613
0.04159949 0.0464252 -0.04023093 -0.07673462 0.04507237 -0.060869683 -0.07900569 -0.062237978
0.06871325 0.00561921 0.028422996 0.011790743 0.08496949 0.08103792 -0.045501087 -0.058867685
-0.0067668837 0.021411842 -0.052685954 -0.035244808 0.033894397 0.04431454 -0.026864925 -0.059367843
0.023514016 0.038103826 0.0834613 -0.058564354 -0.06443032 0.04150497 -0.08439161 0.03290397

weight f4 [128, 128]
00000000: db82 b93d 1f98 16bd 80c0 b23c 326e 05bd
00000010: 1a40 77bd d384 893d 6443 e2bc 64b7 ac3d
00000020: e20d b23b fe6d abbd 8476 58bc c079 6d3d
00000030: 9803 9f3c 22ae d43d 2bec 283d 3c54 0dbd
00000040: 7d08 8b3d 7668 37bd c7a4 3e3d 4796 a5bd
00000050: 948e 933d 94e5 9b3d 6806 abbd 6cd0 d6bb
00000060: 656b d53c 83ed 1bbd acc2 b0bc 4440 34bd
00000070: 0545 8bbd a826 0e3d 89e8 973b 73f2 593d
00000080: 1e84 81bd 9450 07bd 5834 843d 236c 643d
00000090: 6beb c73d 8599 0fbb 5977 4fbd 054b a93d
000000a0: 762a b9bc c7df 51bd b41b 5b3d b0e7 2dbd
000000b0: f4c9 24bd cdec b93d 5dd9 2dbd c183 843c
000000c0: 980f fd3c 15bf c33d 7282 773c a75f 883d
000000d0: 15cb 0f3d 7582 933c 559b 94bb dce1 943d
000000e0: 1bb7 4cbd cd80 bebc 4656 c1bb 1f4d bc3d
000000f0: 35a3 473d 61b2 7ebd 0e8c 213d b4ed 473c
00000100: 0895 a83c ce26 203d 3805 6b3d 9b3b af3d
00000110: c05d 1d3d 5e89 85bc cb2f 3fbd 178d 293d
00000120: 46b9 31bd 724a dd3d 8792 53bd f998 303c
00000130: e0b5 cebc cb26 10bd a5dc a4bb 9a0b 5a3d
00000140: 4a46 debc e482 993c 2aa7 1a3a 60bf 0bbd
00000150: 054d 6fbb ce81 57bd 9b93 5cbc c6a2 4c3d
00000160: 16a7 1b3c 055c f33c 3472 66bc ac93 8bbd
00000170: 3cb7 613d b350 acbd 3d17 0a3d e68b b2bc
00000180: da6f 15bc 710f 963d 629c f5bc e38c 063d
00000190: f59d 933d a258 ad3d f18d fdba 43b9 ec3c
000001a0: cc7f 28bd 74bd ab3d f5e2 c0bc f3a8 9dbd
000001b0: adaf 33bd 9f98 15bd 0425 13bc d0ad b23c
000001c0: a539 2e3c 1e25 bb3d 544b 533d 4758 aabd
000001d0: f8fc 82bc fbc9 11ba be04 e23c ff11 6b3d
000001e0: 66b7 10bd f92b 383d b218 af3b 6b3c 83bd
000001f0: c432 bb3c f113 bb3d 8635 1abc 65d7 56bd
00000200: f256 aabd 3a7f c1bd 2cb6 15bd 23ef 343d
00000210: 7f79 00bd 4999 013d 9b9a 123d e116 87bd
00000220: 001d 28bd 3f55 acbc c3e8 54bd 80da 5f3c
00000230: 5bba 92bd 1ebe 8cbd 59b4 413b b42f 95bc
00000240: a9ee 59bd 7325 51bb b930 6c3d c53a 93bb
00000250: 7927 963d c062 673d 0fa0 c73c cf02 193a
00000260: c759 4ebd 3ddb c33b 632b 88bc 24ec 40bb
00000270: 78be 7d3d c44e 123d c044 5a3d 4214 92bd
00000280: 362f 103c bdf0 7b3d fe5e 103d 01d4 dbbc
00000290: 92f4 8f3c c040 8e3d e3ab 533d 12e8 8abc
000002a0: ac42 5fbc 3d83 8f3d 0feb 843c 820b a5bd
000002b0: fb9b 723d 0756 0abd 3887 05bd 1f96 ccbc
000002c0: 5a98 5fbb 7f8a 043d bb96 d93c af8e c43c
000002d0: e5c9 0e3d 8bd6 d2bb 2791 93bd a36c 603d
000002e0: cb0e 553d 897f 26bc 42cf e4bc eb6b e9bb
000002f0: 586b 2fbd 0c7c 86bc 87e3 37bd fab9 b5bc
00000300: 23d6 8abd 87d3 a2bd adc7 ccbd ae5b 963c
00000310: 0cf6 abbd 7a17 9f3a c86a 92bd e194 a53b
00000320: d9ff 69bd 508f a0bd ab15 85bd 68f5 e23b
00000330: 1bc5 6c3c 750f a5ba 6e6a e1bc 25b0 573c
00000340: 311d 903b ec57 703d e625 403d 9414 03bd
00000350: f1a6 06bd a3da 4d3c 8b68 3c3c 3edb 103d
00000360: 093d 823c 7350 dfbd b17a 0c3d 3ec6 a43d
00000370: cee5 e5bd 5665 c6bc ad46 bc3c 38b2 8f3c
00000380: 465a a8ba 3827 b2bb 3553 5a3d b5dc 233d
00000390: fc3f 8ebd c4ca b83c 1d56 f33c 60cf 613c
000003a0: df43 c3bc 537e 773d 9efa 62bd dd62 07bd
000003b0: 9bed a7bc ade9 aeb9 2b6b 263d 102b b83c
000003c0: a119 833d 8b55 cbbc e065 39bd f785 8dbd
000003d0: 868b a0bd 4c43 b73d 848f 7d3d cc1c 1c3d
000003e0: e540 673d b485 213d 63e5 9fbd ce2f ccbb
000003f0: b077 af3c 94ef 1fbd ec09 0d3d 8077 a43c
0.09058162 -0.036766168 0.021820307 -0.032575794 -0.060363866 0.06714787 -0.027620025 0.084334165
0.005433784 -0.08370589 -0.01321185 0.057977438 0.019410893 0.10384776 0.041240852 -0.03450416
0.067887284 -0.044777356 0.046543863 -0.08085304 0.07204929 0.07612148 -0.08350831 -0.0065556075
0.026052186 -0.038068306 -0.021577202 -0.0440066 -0.06800274 0.034704834 0.0046358746 0.053209733
-0.063240275 -0.03303583 0.06455296 0.05576719 0.09761699 -0.0021911573 -0.05065093 0.08266262
-0.022603255 -0.0512388 0.053493217 -0.042457283 -0.04023166 0.09078369 -0.042443622 0.016176106
0.030891225 0.095579304 0.015106784 0.06658869 0.035105783 0.018006543 -0.0045351186 0.07269642
-0.04997931 -0.023254776 -0.005900177 0.09194397 0.04873963 -0.062181834 0.039440207 0.012202669
0.020578876 0.039099507 0.057378024 0.08556291 0.038419485 -0.016300853 -0.04667644 0.04139432
-0.04338958 0.10805215 -0.05165341 0.010778659 -0.02523321 -0.035193246 -0.0050311857 0.05323372
-0.027133126 0.018739171 0.0005899543 -0.034118056 -0.0036514413 -0.052614026 -0.013462926 0.04995992
0.009500286 0.029706964 -0.014065314 -0.068152755 0.055106387 -0.0841383 0.033713568 -0.021795224
-0.009120906 0.07327164 -0.029981796 0.032849204 0.07207862 0.08464171 -0.001934467 0.028896933
-0.0411375 0.08385745 -0.023545722 -0.0769824 -0.04386871 -0.036522504 -0.008980993 0.021811396
0.010633861 0.09137939 0.05158551 -0.08317619 -0.015989766 -0.00055614085 0.027590152 0.05739021
-0.035331152 0.04496381 0.00534352 -0.06408008 0.022851355 0.09134663 -0.009412175 -0.05245151
-0.08317365 -0.09448095 -0.036550686 0.04417337 -0.031365868 0.031640325 0.035791975 -0.06596161
-0.04104328 -0.021036742 -0.05197979 0.013662934 -0.07164451 -0.068721995 0.0029556958 -0.018211223
-0.05320612 -0.003191319 0.057663653 -0.00449309 0.073317476 0.05649066 0.024368314 0.00058369053
-0.050378587 0.005977063 -0.01662225 -0.0029437626 0.061949223 0.035719648 0.05328822 -0.0713277
0.008800318 0.061508883 0.03524684 -0.02683449 0.017572675 0.06945944 0.051677596 -0.016956363
-0.013626736 0.070074536 0.016225366 -0.080588356 0.059230786 -0.03377345 -0.032599658 -0.024973927
-0.0034117908 0.032358643 0.026561132 0.023993818 0.03486051 -0.006434267 -0.0720542 0.054791104
0.05201606 -0.010162243 -0.02793086 -0.0071234605 -0.04282698 -0.016416572 -0.04489472 -0.022183407
-0.067791246 -0.07950502 -0.09999023 0.018354263 -0.08396539 0.0012137734 -0.07149273 0.005053148
-0.05712876 -0.07839835 -0.064982735 0.0069262274 0.0144512905 -0.0012593108 -0.02751657 0.013164555
0.004398011 0.0586776 0.046911143 -0.032002047 -0.03287405 0.012564334 0.011499534 0.035365336
0.015898244 -0.10904016 0.034296695 0.08045624 -0.112254724 -0.024218243 0.02298292 0.017541036
-0.0012844286 -0.005436804 0.05330201 0.040005405 -0.06945798 0.022557624 0.029704148 0.013782352
-0.023836074 0.060423207 -0.05541479 -0.033053268 -0.020499041 -0.00033361968 0.040629547 0.022481471
0.06401373 -0.024821064 -0.04526317 -0.069103174 -0.07839112 0.08948383 0.061904445 0.0381134
0.056458373 0.03943415 -0.07807424 -0.0062312847 0.021419376 -0.03904684 0.03443329 0.020076513

bias f4 [128]
00000000: 53b6 3bbd c7e3 5dbd 5b8f 9fbd a6fa b03b
00000010: 90c6 0abd 4999 f4bc 97c3 d3bc 4bbd 3e3d
00000020: a34c 45bd 4424 ae3d f031 2bbd d922 2d3d
00000030: 9b10 78bd 0729 fe3b 761b bf3a ff80 24bd
00000040: 6c34 b8bc e2ea 413d ef82 893d fc79 3e3d
00000050: 7303 0b3d 6978 ca3b ad89 573d ff29 0d3c
00000060: 6c83 89bd 10ac 8c3d 5f31 3b3d 52cc 6fbd
00000070: ebb5 593d 2953 b2bc 0c51 b1bd d172 22bc
00000080: 863b af3d 6ea3 973d c0b2 173d 1138 1ebd
00000090: 5f2c a33d cc24 7ebd 3c50 a63d 835f 193d
000000a0: 1d7d 43bd 475b 063d 3bde 0fbd 54c4 e3bc
000000b0: b21b ad3a 8d0f 27bd 3632 0cbd ba55 77bd
000000c0: 783f d9bc 065b 9abd c669 b43c bc5c 193b
000000d0: fcbc 35bc 26e3 883b dc3e 1dbd ac30 8d3d
000000e0: 53fc 4cbd 09db 51bd acad 2f3c 515b f5bc
000000f0: 4971 40bd 94bd b4bc 0179 9d3d 7ba7 ee3c
00000100: 327f 623d 29c8 90bd 91bf 2abd 7017 8f3d
00000110: d916 8cbd a2d0 68bd 1d97 8f3c d134 a9bd
00000120: 488a 9bbd 3b2c a13d a815 403c 0faf 543d
00000130: fd68 8dbd 242b 983d 5bbf 3abc e376 2f3d
00000140: b7f1 823d d9a8 afbc 3f42 763d 4d97 4dbd
00000150: 594c 8ebd b565 203d 3d36 143d 8f41 a9bc
00000160: 6a18 2abd babc a2bd 884a 21bd cbbe 603d
00000170: e531 3fbd 355a 83bc decb 5fbd 306a 5ebd
00000180: 1f72 833b 9fa7 4c3d 1514 b6bd 5d6f 713d
00000190: b933 51bd 27c4 873d 0cda 183d c33e b93c
000001a0: 6876 b4bd b59d 863d cf43 123d ddaf 923c
000001b0: cff5 053c 4345 ae3c 0482 8e3d cdf0 553c
000001c0: a009 4ebd e468 3bbd ac2d 0fbd 4b7d 4c3d
000001d0: f990 cd3b ccb0 75bd fd06 bebc 42e4 a23b
000001e0: 9c54 89bd 88c2 e23c e295 6fbd a719 a9bd
000001f0: 299d 933c 8196 90bd 1b37 ae3d ebd2 abbc
-0.045828175 -0.054172304 -0.07791015 0.0054009734 -0.03388077 -0.029858248 -0.0258501 0.046567243
-0.04816879 0.08503011 -0.04179567 0.04226956 -0.06056271 0.0077563557 0.0014580328 -0.040162083
-0.022485934 0.047343142 0.06714427 0.046503052 0.033938836 0.006178905 0.052621532 0.00861597
-0.0671452 0.06868756 0.04570138 -0.058544464 0.053152006 -0.02176817 -0.086580366 -0.00991507
0.08556275 0.074042186 0.037035704 -0.038627688 0.079674475 -0.06204681 0.08120772 0.037444603
-0.04772674 0.032801893 -0.035124045 -0.027803577 0.0013207106 -0.040786315 -0.034227572 -0.06038449
-0.026519522 -0.075368926 0.022023093 0.0023401221 -0.011092421 0.004177469 -0.038390025 0.06894049
-0.050045323 -0.05123428 0.010722559 -0.02995077 -0.046983037 -0.022063054 0.07689095 0.029132595
0.055297084 -0.070694275 -0.0416866 0.06986892 -0.06840295 -0.056839593 0.017528111 -0.08262027
-0.075947344 0.078697644 0.011723913 0.05192476 -0.069047906 0.074301034 -0.011398162 0.04283799
0.0639376 -0.021442818 0.06012177 -0.05019312 -0.06948156 0.039159495 0.03618454 -0.020661144
-0.04152719 -0.07946153 -0.03937772 0.054869454 -0.046678443 -0.016034225 -0.054637782 -0.054300487
0.004011407 0.049964543 -0.08890549 0.058944095 -0.051074717 0.0662921 0.03731732 0.022612935
-0.08811647 0.06573049 0.0357092 0.017906124 0.008176281 0.021273261 0.06958392 0.0130579
-0.050302148 -0.04575433 -0.034955665 0.049924176 0.0062733856 -0.05998306 -0.023196692 0.004971058
-0.06705591 0.02768065 -0.05849255 -0.08256846 0.018019276 -0.07059956 0.08506604 -0.020974597

weight f4 [128, 128]
00000000: 5758 d53d 9d84 9abc e147 153d 395a f73d
00000010: 6e5d febd fd6e d9bc 9768 b7bd 9060 2a3e
00000020: f114 00bd 0397 12bd f481 323c 1c8b b8bd
00000030: bbe3 42bd 483b a53d 1196 8cbd 2bee 89bd
00000040: 5f26 c93c 5809 0a3e 1791 1abd 5c0d 943d
00000050: add8 123e aef7 c63a 301a 1dbd efa2 a7bd
00000060: dd08 de3c 5502 07bd 1a50 93bc 5f2d 5ebd
00000070: 16c9 14bd 2309 e83d 9b1e 31bb 9660 7dbd
00000080: ade4 b5bd a0a8 b6ba bae8 fcbd a161 813d
00000090: b7a6 9dbb ebd7 063e 9a04 af3d 253e 87bd
000000a0: f9c8 1d3e 2cfc 503d 3a4a ce3d 653c 25bb
000000b0: 0d5d f83d b57d 233d b904 143e 4cf6 d8bc
000000c0: 6f2b ffbc 2201 0fbb 1327 173d 73f8 bb3d
000000d0: e16b fabd e390 b13c aea1 8c3d a02d 88bd
000000e0: ea15 e03c 4046 abbd 46d6 04be 75be 6a3b
000000f0: 0773 a3bc 8f70 1cbc 7838 cbbb 61ab 75bd
00000100: 1c89 e63d 9381 6abc 00c2 8ebc 1889 85bd
00000110: 3ae3 f53c 5e3c bfbc 557b bdbc 6edf c33c
00000120: b1c5 a3bc 78f3 243c 517d 6ebd d611 c03d
00000130: c1e6 dc3d 12f5 083c 9780 fb3d f8d1 033d
00000140: 86d2 7d3d 9d98 a4ba 0f08 ac3d 9dba 673d
00000150: b81f b8bd c96f 003e 2a2c dbbc 76e7 103d
00000160: c9ac 693d ca5b dfbd 8980 d5bd 5fe5 04bc
00000170: 0c65 a03a 2e3a fbbd 55e4 85bc 0628 a23a
00000180: 234e b6bd a7e6 983c f7f0 10bd 5c79 4f3d
00000190: fb8b 713c 854b db3c 99c7 c4bd 7104 c5bd
000001a0: 5ea0 e93c 022c 5ebb 0a6a 18be fc2c 153e
000001b0: e278 4bbd 5a62 9dbd 5149 c83c 66eb 023d
000001c0: a1b6 06be 8835 973c 881a 26bd 753c 983d
000001d0: 9506 adbd dd0e 143e 42b4 143e d6bf e6bd
000001e0: 36bc 063d ed77 fabd 7099 123d f5c6 803a
000001f0: 92a3 11bd 1b43 22bd a01e 3cbc 1f39 e7bd
00000200: 18e7 af3d 2c90 82be 9cbb 7a3d 1a3f 2d3d
00000210: 98ed 3cbe b2fa b13b 60b5 febd a68e e1bc
00000220: d703 583d a83b 3ebe 6cde 4a3d 7de9 e3bd
00000230: 922c 7abc b340 573d d8d4 d2bd 8622 2fbe
00000240: daf4 2cbe ad72 e23d 7e07 02be bd21 2f3b
00000250: 6630 33bd 7394 7dbe 5726 a4bb 98ab 21bd
00000260: 6433 a2bd 5a6d 5cbd 9368 ebbc c4b2 26be
00000270: eecf 52be 60f3 283d c663 a7bd edc6 80bd
00000280: 56a1 4cbe f135 a53b e019 3cbe dee9 953c
00000290: 87f6 16be 02aa 383c 295f 153d b14d 8fbd
000002a0: 2e8f 993d 243c 683d a08b a63c 36df 53be
000002b0: 3176 ff3d 4349 9dbd 5df2 e13d 4758 13be
000002c0: c00b d7bd 9155 e3bd 4481 1fbe 59d6 96bc
000002d0: 25a4 a4bd 77c6 d53c 0a17 c5bc 268b 1e3d
000002e0: 4d95 31be 3794 2ebe b964 47be 2865 70bd
000002f0: 2bf4 eebd 0e6e 9abd a20b e7bd 5719 ffbd
00000300: e443 983c f121 b53d e8ed 58be ee15 32be
00000310: 4c16 aebd da81 84bd 30ef c8bd 7a8a 3dbe
00000320: b1e8 96bd 5897 ec3d b23f cfbd c67c 0dbd
00000330: d090 a03c a0ce f3bc 238d 68bd 2474 1abd
00000340: c641 9fbc affb 03be cd87 e43d fc59 72bd
00000350: 23dc 23be 9ca2 11bb 56b1 47be 4f36 acbc
00000360: fdb6 ef3c bed0 c4bd 3f7b 85bc 649e 09be
00000370: 8684 05be aefd 60bd b47d c9bd fa74 433d
00000380: a4e0 5cbd e861 0fbe 67d4 1fbe 69a4 5bbd
00000390: 2e52 10be 5de5 28be 6f3c b0bd f36d 05be
000003a0: 161a ba3c 286c 5dbe 74d4 43be 5c87 943d
000003b0: 38dc 49be 1da9 b9bd 7f75 9fbd 1944 0fbd
000003c0: 539e 64be 2dcc 84bd 9f6f c2bd 4f79 653c
000003d0: a37d 54be 444d 7bbc 64be e0bb 5de5 c0bd
000003e0: 8b26 d53d a47c 61be e055 ccbd 4ae5 18be
000003f0: a5fa 19be a4fa 8b3d 593f f3bd 9d4b 81bd
0.1041724 -0.018862063 0.036445502 0.120777555 -0.12420164 -0.026542181 -0.08955496 0.16638398
-0.03126997 -0.035788547 0.010895241 -0.09010908 -0.047580462 0.080679476 -0.068645604 -0.0673488
0.02455443 0.13480127 -0.037736025 0.072291106 0.14340468 0.0015180015 -0.038355052 -0.08185374
0.027103836 -0.03296121 -0.017982531 -0.054242488 -0.036324583 0.11329868 -0.00270263 -0.06185969
-0.08881507 -0.0013935752 -0.123490766 0.06317449 -0.0048111337 0.13168304 0.085457996 -0.0660365
0.15408696 0.05102174 0.10072751 -0.0025213 0.12127123 0.039914805 0.14454927 -0.026484631
-0.03114864 -0.0021820744 0.0369025 0.09178247 -0.122276075 0.021675533 0.068667755 -0.06649327
0.0273542 -0.083630085 -0.12972364 0.0035819088 -0.01995231 -0.00954832 -0.0062018 -0.059977893
0.1125662 -0.014313119 -0.01742649 -0.06520289 0.030015577 -0.023344215 -0.023130098 0.02391025
-0.019991728 0.010067813 -0.05822498 0.09378402 0.107862 0.008359211 0.12280386 0.032182664
0.06196835 -0.0012557689 0.083999746 0.056574453 -0.08990425 0.12542643 -0.026754458 0.03537699
0.057049546 -0.10906179 -0.10424907 -0.008111327 0.0012237146 -0.12266956 -0.016344229 0.0012371547
-0.08901622 0.018664671 -0.035386052 0.050652847 0.014742847 0.026769409 -0.09608383 -0.09619988
0.028518852 -0.0033900742 -0.148842 0.14567941 -0.04967583 -0.07684775 0.024449022 0.031962775
-0.13155605 0.018458143 -0.040552646 0.07433406 -0.08448521 0.14458795 0.14521888 -0.112670586
0.032894336 -0.12229905 0.03579086 0.0009824919 -0.035556383 -0.039614778 -0.011481911 -0.11290192
0.085889995 -0.2550062 0.061214074 0.042296506 -0.1845001 0.0054314965 -0.12436938 -0.02753384
0.052738037 -0.18577445 0.049528524 -0.11128519 -0.015269415 0.052551936 -0.10294503 -0.17103013
-0.16890278 0.11057029 -0.1269817 0.002672299 -0.04374733 -0.2476366 -0.0050094533 -0.039470285
-0.07919958 -0.053815223 -0.028736388 -0.16279131 -0.20587131 0.041247725 -0.08173327 -0.06287942
-0.1998342 0.0050418307 -0.18369246 0.018299993 -0.1474248 0.011271002 0.036467705 -0.0699724
0.074980125 0.05669798 0.02033025 -0.20690617 0.12473715 -0.07679989 0.11032555 -0.14389144
-0.10500288 -0.11100305 -0.15576655 -0.018412756 -0.080391206 0.026095612 -0.024058837 0.03870692
-0.1734211 -0.17048727 -0.19472016 -0.05869022 -0.11667665 -0.075405225 -0.11281516 -0.12456005
0.01858706 0.088443644 -0.21184504 -0.17391178 -0.085003465 -0.0647008 -0.098112464 -0.18509856
-0.07368601 0.11552304 -0.10119571 -0.03454282 0.019600302 -0.029761612 -0.056775223 -0.037708417
-0.019440543 -0.12888978 0.111587144 -0.059167847 -0.16001944 -0.0022222167 -0.19501242 -0.02102199
0.02926206 -0.09610127 -0.01629412 -0.13439327 -0.13038835 -0.054929428 -0.09838429 0.04771898
-0.05392517 -0.14002192 -0.15608369 -0.05362359 -0.14093849 -0.16493745 -0.08605277 -0.13030224
0.022717517 -0.2162329 -0.19124013 0.0725238 -0.19712913 -0.09065459 -0.077860825 -0.034977052
-0.22326021 -0.06484256 -0.09493946 0.014005973 -0.20751052 -0.015338246 -0.006858634 -0.094187476
0.10407742 -0.22020203 -0.09977317 -0.14931217 -0.1503702 0.06834915 -0.11877317 -0.0631325

weight f4 [128]
00000000: 5902 883f eede 813f 8ed9 763f 72cb 843f
00000010: 913e 813f 5f87 853f 75ee 763f 060c 823f
00000020: 983b 763f a871 753f cd5b 7e3f d3b6 763f
00000030: 59fd 833f 1847 7c3f 5105 7a3f 55df 733f
00000040: e74f 7d3f 2bb1 843f ea17 7e3f 730b 823f
00000050: a00e 813f b18e 803f 49b2 773f 81f1 7e3f
00000060: 42c8 773f 023f 813f 6e8b 7c3f cbe4 7a3f
00000070: 3fe0 7d3f d4aa 833f decc 7c3f 6ce6 7a3f
00000080: afbf 7a3f 89d3 6e3f f804 763f 071a 863f
00000090: f24a 7b3f 22e2 843f 285c 833f 2238 743f
000000a0: aa20 823f 20fe 7f3f 36f8 7c3f 0a29 7e3f
000000b0: 1540 7f3f 5642 763f f4a1 833f 3df3 803f
000000c0: 5f75 7f3f a49e 7d3f e092 743f 7a62 823f
000000d0: feb5 773f 6591 833f a944 803f a3ae 813f
000000e0: 30a8 783f ad0f 793f f565 7c3f 8e47 753f
000000f0: 2408 753f d30b 773f 62c2 753f 6911 7c3f
00000100: 3874 823f 4fa6 823f 46c5 803f 0abb 803f
00000110: faad 753f a0c1 743f 72e7 7d3f a36c 7c3f
00000120: 9db5 6d3f 774d 823f bc54 773f 4d78 763f
00000130: c745 753f ca51 743f dcb6 823f 2128 793f
00000140: bc9a 833f cd24 723f f134 873f 9cde 793f
00000150: 3737 7e3f 6fe3 7e3f 348a 763f 811d 833f
00000160: c72c 803f 0c88 7a3f b667 7d3f 0e49 7f3f
00000170: 32bd 7b3f 3638 713f 533f 753f 50d1 733f
00000180: 5d40 763f 1e0b 7d3f 4d33 783f 5649 793f
00000190: 48de 7f3f 05a3 703f a5e5 6e3f b5b1 763f
000001a0: 1203 863f 6d51 783f 5e6a 753f 7228 763f
000001b0: caa6 7c3f 4ce9 723f ef22 813f e9b6 733f
000001c0: 5b83 813f b46b 753f 5158 7c3f f64f 843f
000001d0: e908 7e3f 18f2 823f cba4 833f 5027 793f
000001e0: 9b57 863f 66c0 783f 4ac0 7b3f 757b 703f
000001f0: 5766 753f b197 853f 083e 793f d9c4 743f
1.0625716 1.0146158 0.9642571 1.0374587 1.0097219 1.0431937 0.96457607 1.0159919
0.9618468 0.9587655 0.99358827 0.9637272 1.031169 0.9854598 0.9766436 0.9526265
0.98950046 1.0366567 0.9925524 1.0159744 1.0082588 1.0043546 0.96756417 0.99587256
0.96789944 1.0097353 0.9865025 0.9800536 0.991703 1.0286508 0.987501 0.98007846
0.97948736 0.9329153 0.9610133 1.0476693 0.9816123 1.038151 1.0262499 0.9539815
1.0166218 0.9999714 0.9881624 0.9928137 0.99707156 0.9619497 1.0283799 1.007423
0.9978847 0.9907019 0.95536613 1.0186303 0.96762073 1.0278746 1.0020953 1.013142
0.97131634 0.97289544 0.98593074 0.9581231 0.95715547 0.9650242 0.9599973 0.98464066
1.0191717 1.0207003 1.0060203 1.005708 0.9596859 0.9560795 0.9918128 0.98603266
0.92855245 1.017989 0.9661367 0.96277314 0.95809597 0.954373 1.0212054 0.97326857
1.0281596 0.94587404 1.0563031 0.976053 0.99303 0.99565786 0.9630463 1.0243379
1.0013665 0.9786384 0.98986375 0.9972085 0.98335564 0.94226396 0.9579975 0.9524126
0.9619196 0.9884509 0.9695328 0.97377527 0.9994855 0.9399875 0.9331916 0.9636491
1.0469687 0.96999246 0.9586543 0.96155465 0.98692 0.9488723 1.0088786 0.95200974
1.0118212 0.95867467 0.9857226 1.0336902 0.99232346 1.0230131 1.0284666 0.9732561
1.0495485 0.97168577 0.98340285 0.9393838 0.95859283 1.0436918 0.9736028 0.95612866

bias f4 [128]
00000000: 8ec2 533e 3921 703e d24e 733d bf0a 343e
00000010: 7980 b03c e8b5 203e 1bcd eb3d b42d 943d
00000020: f3af 0f3d aa86 243e 67f4 4e3d bc94 423e
00000030: 7c12 0c3e c4ea cc3d c66e 383e ff44 343e
00000040: b320 6fbd f3ab 9f3d e035 f5bc 04cc e83d
00000050: fd77 363d 3d01 563e d5ba 2d3c 5b08 58be
00000060: 1f7c 80bd 838c 073d c7c0 f93d 25ac 053e
00000070: b725 3e3e 72b5 b63d 3d76 653e c640 d63d
00000080: 522d 163e d311 cb3d 13b1 513e 85fd 0d3e
00000090: cfe8 643e 4809 893d 2a3a 1a3e 11cc 603e
000000a0: 3fff 513d b051 123e ebc7 3e3e 0b81 25bd
000000b0: c789 963d cbe7 0c3e c1c1 5b3d 6588 413e
000000c0: a2c5 fd3c cf9c 353e 47c3 7bbe de1d 123e
000000d0: 8762 173e 752d 033e b5cd 04be eb0b 083e
000000e0: ffa2 af3d 35c4 6d3e 1b9d f93d 4d9d 98bd
000000f0: f4b7 233e ef48 673e e855 6d3e 8e4f 59be
00000100: da5c 7f3d 9980 f23d b1b9 573e a6f0 e13c
00000110: 786e 4b3e e065 323e 8629 de3d d715 a3bd
00000120: e320 4c3e 7d70 3b3e 51bf 753d 30e2 6f3d
00000130: e61d 883d 0dbf 493e 45c8 5b3e 0d21 953d
00000140: 080c 0f3e 8cec 323e 0fa4 623e eacf 12be
00000150: 8e97 443e 6834 1a3e 78b9 113d 51bd e53d
00000160: cbe6 763d 5f2a 403e b710 8cbd 72cf 3f3e
00000170: fece 663d 774f 123d 5300 92bd 555a 6fbe
00000180: c537 373e 3253 753e e8b5 523e 5cf3 953c
00000190: b92d 443e 7139 423e e027 803d f990 b4bd
000001a0: 8d56 9a3d 2253 623e 79c3 883e 63aa 233e
000001b0: d4d4 2f3e 184b 043e 2997 503e c1b8 793d
000001c0: 082c 4d3e ff5a c6bd c4cb 073e ef6f 283e
000001d0: a45e 2ebe 3d6a df3d 68e2 033e ed8e c63c
000001e0: 9c9d 043e 8377 d63d dd00 033e b6d3 173e
000001f0: 6746 abbd bf7c 003e 7556 e83d de7c 203d
0.20679685 0.23450173 0.05940134 0.17582224 0.021545636 0.15694392 0.1151373 0.0723528
0.035079908 0.16066995 0.05052605 0.1900205 0.13678926 0.100057155 0.18011007 0.17604445
-0.058380794 0.077964686 -0.029932916 0.11367038 0.044548023 0.2089891 0.010603626 -0.21096937
-0.06273674 0.033092987 0.121949725 0.13053949 0.18569075 0.08921327 0.22408386 0.10461573
0.14665726 0.09915509 0.20477705 0.13866241 0.22354434 0.066912234 0.1506125 0.21952845
0.051268812 0.14288974 0.1863095 -0.040406268 0.07350498 0.13760297 0.053651575 0.18899687
0.030978028 0.17735599 -0.24586211 0.14269206 0.14783679 0.12810309 -0.12969096 0.13285796
0.08576011 0.23219378 0.121881686 -0.07451878 0.15988141 0.22586416 0.23177302 -0.21221754
0.06234441 0.11840934 0.2106693 0.02758057 0.19866359 0.17421675 0.10847764 -0.0796315
0.1993442 0.1830463 0.059996907 0.05856532 0.06646328 0.19701786 0.21463116 0.072816946
0.13969433 0.17473048 0.22132896 -0.14337125 0.19198439 0.15059054 0.035577267 0.1121775
0.060278695 0.18766163 -0.068391256 0.18731478 0.056349747 0.035720315 -0.07128968 -0.23374303
0.17892368 0.23957518 0.20577204 0.01830452 0.19158067 0.18967225 0.062576056 -0.08816714
0.075360395 0.22102025 0.26711634 0.15982966 0.17171031 0.12919271 0.20370163 0.06096721
0.20036328 -0.09685325 0.13261324 0.1644895 -0.1702829 0.10908935 0.12879336 0.024238074
0.12950748 0.10472014 0.12793298 0.14826855 -0.083630376 0.12547587 0.11344615 0.039181583

running_mean f4 [128]
00000000: 7419 a540 5ea0 33c0 b4f0 ec3f 7eeb c040
00000010: a175 adc0 0e9f 9640 e18d 16c0 e6c4 ac40
00000020: 7d7c e53f 0f6b 0fc0 bb31 4640 bf46 d3bf
00000030: b4c3 963f cc46 0640 2220 36c0 066b 88bf
00000040: e4fc 31c0 5628 9e40 51c1 c0bf 8063 1040
00000050: 5cd9 3940 52b5 abc0 6f3a 9d3f 5a94 24c0
00000060: 8b9e bcc0 d5fd 1fc0 c5a4 8b40 9963 06c0
00000070: 1479 40c0 3345 c940 8d85 f5c0 7295 4740
00000080: f113 99c0 4089 1140 16b8 32c0 fc7c 9540
00000090: beb8 20c0 bcc5 7e40 8a02 8a40 5929 e3bf
000000a0: 3686 0f40 5844 8940 5a50 7a3f 0c70 47c0
000000b0: f41c ac40 a311 2bc0 a204 0b40 2541 98c0
000000c0: c91c debf 2612 78c0 c3ca b4bf 3af1 0640
000000d0: 1bbc 96c0 2cdc 2040 79cc e6bf 7925 8c40
000000e0: 2012 08c0 9e87 05c0 8e2e 95c0 92ff f5bf
000000f0: 790d 79c0 a62e 61c0 5185 3ac0 1b78 24c0
00000100: 19d8 b640 d959 c540 804e 43c0 a073 12c0
00000110: 0320 3fc0 db9c 9ec0 8fa3 26c0 58de efbf
00000120: 8aa4 e3be e885 b940 6a78 cfc0 0ceb 813e
00000130: 1a8a d83f f301 0cc1 1e01 e43f 1ebe 14c0
00000140: 0121 c23f fcfb 77bf a25f ce40 69a6 e2bf
00000150: 7a7b 9b40 2c85 b13f 495a 03c0 f6ec e440
00000160: baf5 c240 a622 07c1 1540 9bc0 de09 58c0
00000170: 3667 4dc0 9ff8 1fc0 e68a eebf 851d d0bf
00000180: ef2e 05c0 a75c 44c0 7a27 a6c0 d59e bb3e
00000190: f739 90c0 f217 16c0 6d1a 44c0 bed2 abbf
000001a0: d1ee 9f40 e746 45c0 b1cc 1fc0 c5f1 ef3f
000001b0: 8aa5 23c0 6cd4 ebc0 b473 8ac0 15d4 2bc0
000001c0: 2f83 2ebf 7e48 99bf 4cfd 91c0 bd1a 7140
000001d0: 1b73 ab3f 34ec fa3f 7601 e940 5e9d 68c0
000001e0: 27f4 d340 8871 88c0 f32f 6dc0 6a2b 283e
000001f0: 8b6d aebe bafa d240 8175 10c0 1303 7bbf
5.159357 -2.806663 1.8510957 6.0287466 -5.420609 4.706916 -2.3524096 5.3990355
1.7928616 -2.2409093 3.0967853 -1.6505965 1.1778474 2.098071 -2.8457112 -1.0657661
-2.7810602 4.942424 -1.5058995 2.256073 2.9038916 -5.365884 1.2283458 -2.5715547
-5.8943534 -2.4998677 4.3638635 -2.099829 -3.00739 6.289697 -7.6725526 3.1184964
-4.7836843 2.274002 -2.7924857 4.671507 -2.5112758 3.9808187 4.31281 -1.7746993
2.2425666 4.2895927 0.97778857 -3.1162138 5.3785343 -2.6729515 2.1721578 -4.757952
-1.7352535 -3.8761077 -1.4124378 2.1084733 -4.710462 2.5134382 -1.803115 4.3795743
-2.1261063 -2.0864024 -4.661933 -1.9218619 -3.8914473 -3.5184722 -2.914387 -2.5698307
5.713879 6.1672177 -3.0516663 -2.2883072 -2.9863288 -4.9566474 -2.6037328 -1.8739729
-0.4446147 5.797596 -6.483449 0.2537464 1.6917145 -8.750476 1.7812841 -2.3241038
1.5166322 -0.9686887 6.449174 -1.7707034 4.858823 1.3868766 -2.0523856 7.153926
6.092496 -8.445959 -4.8515725 -3.3756022 -3.2094245 -2.4995496 -1.8636138 -1.6259009
-2.0809896 -3.068155 -5.192319 0.36644617 -4.507076 -2.3452115 -3.064113 -1.3423688
4.9979024 -3.0824525 -2.4968684 1.8745657 -2.5569787 -7.3696804 -4.326624 -2.6848195
-0.6816892 -1.1975248 -4.56217 3.767257 1.3394502 1.9603333 7.2814283 -3.634605
6.6235538 -4.263859 -3.7060516 0.16422811 -0.3406795 6.5931063 -2.2571719 -0.98051566

running_var f4 [128]
00000000: ac57 9d41 b74f 5540 1b54 2f40 7d77 d741
00000010: 7820 5c41 4e80 7141 cbc0 c640 2bbc 8341
00000020: 8be4 2a40 57f6 6340 9bd1 0b41 4382 b940
00000030: afca db3f 6f66 6240 c704 8f40 d8cb 9e40
00000040: 4698 6640 409e ab41 2384 4640 8640 4e40
00000050: 57c6 2741 4d64 3941 9d3b 2c40 b143 b840
00000060: 3bc3 9241 909e c040 5b56 6a41 fb86 4240
00000070: faf4 9840 0c8f cf41 e295 2f42 2f8b 5640
00000080: be14 1741 5389 5640 6624 7340 48f7 b441
00000090: 7f30 0b41 b065 a941 3936 3941 8899 cd40
000000a0: f01a 5b40 25f4 6941 edde 2540 0db9 aa40
000000b0: b72a c641 7d41 6840 e31d dc40 8a03 2541
000000c0: ab41 a940 ef32 4a41 85bc 6940 0cd0 833f
000000d0: 9bf4 a541 3e58 5540 d837 4c40 6987 8641
000000e0: 882c 7b40 1b9d 4840 a638 3641 9bec 2940
000000f0: 03ec c540 f299 3841 9f93 9b40 fbba 0041
00000100: ef00 e941 4f77 e641 e007 9140 62a4 dc40
00000110: 556f 8d40 5ae2 5a41 5f74 9140 9e8a 4840
00000120: 3455 0240 f6db db41 a5e0 3c42 4019 223f
00000130: 672b 6040 4a18 8e42 9850 6340 38f2 4a40
00000140: 1e37 4440 4b69 953f 1743 fa41 8cfc d73f
00000150: 788b 2e42 5632 3440 0c36 3840 034b 0c42
00000160: 9088 ef41 7af3 6c42 77a9 5841 68f6 1741
00000170: 3ec6 d940 1316 9c40 a305 3e40 bcaa e73f
00000180: e336 6440 2a43 1240 d7ab c240 a8ae 4a3f
00000190: 00b4 1e41 bc7b 2b40 ecd2 0141 c49e 0440
000001a0: 6c46 a341 10e0 8740 9b92 7240 7869 4040
000001b0: c513 c240 0fff 0d42 d2df 4941 7bb5 3d40
000001c0: 4e32 4e40 0a2f 2440 d38e 4241 45a0 3141
000001d0: 4da8 0f3f 8a6f c340 acf6 0742 c107 8c40
000001e0: d292 f241 e472 2f41 75f1 3e41 58ba c43e
000001f0: ee59 9e40 0c43 e841 cb20 7d40 2c99 5940
19.667809 3.3329904 2.7395084 26.933344 13.757927 15.093824 6.2110343 16.466879
2.6701992 3.5619104 8.738673 5.797151 1.7171229 3.537502 4.469333 4.9623833
3.603044 21.45227 3.101815 3.2226882 10.485923 11.5869875 2.6911385 5.758263
18.345327 6.019356 14.646083 3.0394886 4.7799044 25.944847 43.89637 3.352245
9.442564 3.3521316 3.7990966 22.620743 8.69934 21.174652 11.575738 6.4249916
3.4235191 14.622106 2.5917313 5.335089 24.770857 3.628997 6.8786483 10.313364
5.289266 12.637435 3.6521313 1.0297866 20.744436 3.3335109 3.1909084 16.816118
3.924593 3.134589 11.38883 2.6550663 6.18506 11.537584 4.86177 8.04565
29.125456 28.808256 4.5322113 6.8950663 4.4198403 13.680262 4.5454555 3.1334605
2.0364504 27.482403 47.21938 0.6331978 3.502649 71.04744 3.551794 3.1710339
3.065864 1.1672758 31.282759 1.6873946 43.6362 2.8155723 2.8782988 35.073254
29.94168 59.23777 13.541373 9.497658 6.8054495 4.8776946 2.969094 1.8098979
3.56585 2.2853494 6.0834765 0.79172754 9.918945 2.6794271 8.113995 2.0721903
20.409386 4.2461014 3.790198 3.0064373 6.0649133 35.49908 12.617144 2.9642017
3.2218204 2.565371 12.159869 11.101628 0.5611618 6.1073656 33.99089 4.3759465
30.32169 10.965549 11.933949 0.3842342 4.9484777 29.032738 3.9551265 3.3999739

weight f4 [128]
00000000: f34a 793f 7a9d 873f 1a85 6f3f b987 863f
00000010: 5ef7 813f a49b 883f 2dbc 883f e3e1 843f
00000020: f3c2 793f 70a3 703f b63b 873f 955e 853f
00000030: d702 863f aad4 873f 8683 863f da1f 893f
00000040: 7883 893f 8e52 7c3f 7646 853f dcee 843f
00000050: 49de 733f d965 7d3f cfbb 863f e12c 893f
00000060: 66aa 873f 6949 703f 84cd 873f 29f0 703f
00000070: 8f83 883f 9d4b 883f 0c66 853f 5b67 793f
00000080: 428d 703f dcf5 723f 7824 863f f94c 853f
00000090: 3eaf 713f c2cf 703f 22bb 883f 900d 8a3f
000000a0: 92eb 873f 091b 823f b323 713f 699d 863f
000000b0: a9e9 863f bd4c 863f eb09 883f b839 883f
000000c0: 7a27 873f 0702 873f 663d 6f3f 568b 883f
000000d0: 19b4 703f fa9c 873f b765 723f e8c7 873f
000000e0: 2631 883f 7fb8 893f 7e7e 873f 42ea 833f
000000f0: 6b13 893f 90d8 873f eeae 7f3f 9340 8a3f
00000100: 28ed 883f 0a92 883f a1ee 863f 4541 863f
00000110: 9f16 703f 1d02 793f f730 823f edba 883f
00000120: 873c 883f 3f5e 873f 5f6f 8a3f 61d9 8a3f
00000130: 138d 873f 908b 703f c937 893f 1f35 8a3f
00000140: f5c8 6f3f 5ae9 703f 7211 803f 373d 723f
00000150: b1bc 843f 0f78 6f3f fc37 883f 9931 703f
00000160: dc68 703f db7b 7e3f 8dee 863f 38d1 863f
00000170: 67a0 893f 79b4 873f 146f 753f 1706 723f
00000180: 08a3 733f 2c4f 763f c555 883f ebb6 703f
00000190: ba54 873f 79dc 883f f4b8 883f 4fe8 873f
000001a0: 0d22 733f b963 873f 785e 853f 1531 6f3f
000001b0: ff52 8b3f 063c 893f 6fb7 883f 10a2 873f
000001c0: 2da3 893f 0b68 773f e224 823f e8c9 883f
000001d0: 7de8 823f 5918 893f 4e95 893f 7709 873f
000001e0: 8b52 883f 8877 873f 2c9f 733f 0f3e 723f
000001f0: 8e7d 703f 697a 883f 525c 883f 8655 883f
0.9737999 1.0594933 0.9356247 1.0510169 1.0153615 1.0672498 1.0682427 1.0381435
0.97563094 0.93999386 1.0565097 1.0419489 1.0469617 1.0611775 1.0508888 1.0712845
1.0743246 0.9856347 1.0412128 1.0385394 0.95261055 0.9898353 1.0526065 1.0716821
1.0598876 0.93862015 1.0609593 0.94116455 1.0665148 1.0648075 1.0421767 0.9742333
0.9396554 0.949064 1.0479879 1.0414115 0.94408023 0.94067013 1.0682108 1.0785389
1.0618765 1.01645 0.941951 1.0516788 1.0540057 1.0492169 1.0628027 1.0642614
1.0558922 1.0547494 0.9345306 1.0667522 0.9402481 1.059478 0.94686455 1.0607882
1.0639999 1.0759429 1.0585477 1.0305865 1.0709051 1.0612965 0.99876297 1.0800956
1.0697374 1.0669568 1.0541574 1.0488669 0.9378452 0.9726885 1.0171193 1.0682045
1.0643471 1.0575637 1.0815238 1.0847589 1.0589927 0.93962955 1.0720149 1.0797461
0.9366601 0.94106066 1.0005324 0.94624656 1.0370084 0.9354257 1.0642085 0.9382568
0.9391 0.9940774 1.054155 1.0532598 1.0752076 1.0601951 0.95872617 0.9454054
0.9517064 0.96214557 1.0651175 0.9402911 1.0572731 1.0692283 1.0681443 1.061777
0.9497383 1.0577308 1.0419455 0.9343427 1.0884703 1.0721443 1.068098 1.0596333
1.0752922 0.9664313 1.0167506 1.0686617 1.02272 1.0710555 1.0748689 1.0549763
1.065019 1.0583353 0.9516475 0.94625944 0.9394158 1.0662357 1.0653174 1.06511

bias f4 [128]
00000000: ca59 70bb b9f7 a73d 9059 a7bd 47de bb3d
00000010: cb96 d33c d9c9 b33d 10b1 ae3d bd0e 8a3d
00000020: 2449 babb 03c5 38bd af4a a23d b5e5 6a3d
00000030: 1eb2 7c3d f70a a53d 7d0d 963d bf72 dd3d
00000040: d6ba bb3d bc06 5a3c c493 933d acf8 973d
00000050: 61fb 3ebd c287 14bc 2979 a73d 6141 c13d
00000060: 170d a43d d7b0 94bd 972a ac3d 9d69 8bbd
00000070: 98f0 b43d 3f3d b33d 05d9 a03d ef18 60bc
00000080: c4d6 7ebd 0f52 b3bc 118a 9e3d f967 b03d
00000090: a2a3 2cbd d342 92bd 40b4 b53d ca8b bc3d
000000a0: d8a3 b23d 494b 103d 157b 7abd d018 ad3d
000000b0: 20e1 9f3d 6f7a b53d 0688 ac3d 6f7e a73d
000000c0: 588d ab3d 42ea 923d 5f3d 98bd e265 a93d
000000d0: a6df 94bd 8f7e a33d 072b 8fbd c9a7 a93d
000000e0: ddf7 a63d c512 c03d eb8e a33d 5dcb 163d
000000f0: 80ae ae3d 5890 9f3d 47ba 0d3c 4971 c63d
00000100: 1178 c83d 2f67 b53d 2409 953d e829 963d
00000110: 9eb0 8dbd 44e4 93bc 275a 183d db96 b43d
00000120: 6d75 a53d 5198 a13d d329 b83d cb0e d73d
00000130: 6162 a73d 853f 77bd 3719 b73d efd6 dc3d
00000140: 85b5 8cbd 0dac 68bd 3ba2 583c 7c1b 74bd
00000150: 5579 963d 3689 87bd d396 ae3d 6d39 9cbd
00000160: fcb8 56bd ceca 8d3b 532b a33d 3230 ba3d
00000170: 1bb2 bc3d 0e56 9f3d fa49 0abd 715c 7abd
00000180: 748b 97bc 8dda dcbb d12f a93d a900 99bd
00000190: 75fb 953d a787 cd3d 241e bf3d ef10 a23d
000001a0: 9056 96bc b9cc a73d 2eb4 993d 1a40 99bd
000001b0: 185c d43d fe81 bb3d d9f9 af3d 68b0 b73d
000001c0: 1c37 bd3d 7d1a edbb 6a46 403d 4d96 ac3d
000001d0: 4368 1e3d e10c bd3d 7cc9 ca3d 7852 9f3d
000001e0: a24e b23d 6fd1 a33d e318 4cbd 5687 73bd
000001f0: 0ecf 5bbd 1a74 ba3d 5470 ae3d fbcf a13d
-0.0036674612 0.08201546 -0.081713796 0.091732554 0.02582874 0.08778734 0.08529866 0.06741092
-0.0056849886 -0.04510976 0.07924401 0.057347972 0.061693303 0.08058732 0.073267914 0.10812902
0.091664955 0.01330727 0.072059184 0.07420477 -0.046626452 -0.00906557 0.08177406 0.09436298
0.08010309 -0.07260292 0.08406561 -0.068072535 0.08834952 0.08751916 0.07853893 -0.01367782
-0.062216535 -0.021889715 0.07741178 0.08613581 -0.04214824 -0.07141652 0.088722706 0.0920635
0.08722657 0.035228048 -0.061152536 0.08451998 0.07806611 0.08861243 0.08424382 0.08178412
0.083765686 0.071735874 -0.074335806 0.08271386 -0.0726922 0.079831235 -0.06990629 0.082839556
0.08152745 0.0937858 0.07986244 0.036815036 0.08529377 0.07791203 0.008650369 0.09689576
0.09788526 0.08857571 0.07277134 0.07332212 -0.06918453 -0.018053181 0.03719535 0.08817836
0.08079038 0.0789038 0.08992352 0.105008684 0.08173061 -0.06036331 0.08940356 0.10783183
-0.068705596 -0.056804705 0.0132222725 -0.059596524 0.07347361 -0.06617968 0.08524861 -0.076281406
-0.05242251 0.0043271547 0.07967248 0.09091224 0.092136584 0.077800855 -0.033761956 -0.061123315
-0.018499114 -0.0067399205 0.082610734 -0.07470829 0.07323352 0.10035639 0.09331921 0.07913386
-0.018351823 0.081933446 0.0750507 -0.074829295 0.10369128 0.091556534 0.085925765 0.08969194
0.09239027 -0.0072358237 0.046942152 0.08427105 0.03867365 0.09230972 0.09901711 0.077794015
0.08706404 0.07998931 -0.04982842 -0.05945524 -0.05366426 0.09104176 0.08517519 0.07900997
