Graph Neural Network/Models/GraphConv_LSTM-D3-F1-mean.pth (torch, 765002 bytes, 23 tensors)

weight_ih_l0 f4 [384, 96]
000000 1e 3f ff bb 8c 3d ff bb 96 3f ff bb ce 3f ff bb
       -0.0077895066 -0.0077893194 -0.0077895625 -0.0077895885
000010 b6 3d ff bb c5 3f ff bb 73 3e ff bb 46 3b ff bb
       -0.007789339 -0.0077895843 -0.007789427 -0.0077890484
000020 79 3f ff bb 3b 3f ff bb f9 3e ff bb d8 3d ff bb
       -0.007789549 -0.00778952 -0.0077894893 -0.007789355
000030 40 3e ff bb b0 3f ff bb cd 3f ff bb dc 3f ff bb
       -0.007789403 -0.0077895746 -0.007789588 -0.007789595
000040 46 3d ff bb d2 3d ff bb ed 3f ff bb e3 3f ff bb
       -0.007789287 -0.007789352 -0.007789603 -0.0077895983
000050 63 3f ff bb 92 3f ff bb 92 3f ff bb f1 3b ff bb
       -0.0077895387 -0.0077895606 -0.0077895606 -0.007789128
000060 68 3f ff bb 20 3f ff bb ee 3f ff bb eb 3f ff bb
       -0.007789541 -0.0077895075 -0.0077896034 -0.007789602
000070 95 3f ff bb 92 3b ff bb ec 3f ff bb 20 3d ff bb
       -0.007789562 -0.0077890838 -0.0077896025 -0.007789269
000080 63 3f ff bb bb 3f ff bb 9d 3b ff bb cd 3f ff bb
       -0.0077895387 -0.0077895797 -0.007789089 -0.007789588
000090 ef 3f ff bb 63 3c ff bb 54 3f ff bb 18 3e ff bb
       -0.007789604 -0.007789181 -0.0077895317 -0.0077893846
0000a0 c5 3f ff bb b1 3d ff bb 32 3b ff bb cd 3f ff bb
       -0.0077895843 -0.0077893366 -0.007789039 -0.007789588
0000b0 d5 3c ff bb ea 3b ff bb fe 3b ff bb a9 3e ff bb
       -0.007789234 -0.0077891247 -0.007789134 -0.007789452
0000c0 61 3d ff bb 46 3f ff bb fb 3e ff bb f7 3d ff bb
       -0.0077892994 -0.007789525 -0.0077894903 -0.007789369
0000d0 8f 3f ff bb 9a 3f ff bb 66 3e ff bb c6 3b ff bb
       -0.007789559 -0.0077895643 -0.007789421 -0.007789108
0000e0 29 3f ff bb cc 3f ff bb e7 3e ff bb a6 3f ff bb
       -0.0077895117 -0.0077895876 -0.007789481 -0.00778957
0000f0 f0 3f ff bb e9 3f ff bb e1 3f ff bb 7e 3f ff bb
       -0.0077896044 -0.007789601 -0.0077895974 -0.0077895513
000100 38 3d ff bb 49 3d ff bb e0 3f ff bb 2d 3c ff bb
       -0.0077892803 -0.007789288 -0.007789597 -0.007789156
000110 a4 3f ff bb 9d 3e ff bb 95 3c ff bb ec 3f ff bb
       -0.007789569 -0.0077894465 -0.0077892044 -0.0077896025
000120 bc 3f ff bb f0 3f ff bb e9 3f ff bb ff 3e ff bb
       -0.00778958 -0.0077896044 -0.007789601 -0.007789492
000130 ef 3f ff bb 8f 3e ff bb e7 3f ff bb a1 3f ff bb
       -0.007789604 -0.00778944 -0.0077896 -0.0077895676
000140 18 3d ff bb 55 3f ff bb e3 3f ff bb a0 3f ff bb
       -0.0077892654 -0.007789532 -0.0077895983 -0.007789567
000150 b0 3f ff bb ee 3f ff bb 26 3d ff bb d0 3f ff bb
       -0.0077895746 -0.0077896034 -0.007789272 -0.0077895895
000160 b6 3f ff bb f1 3f ff bb e6 3e ff bb e6 3b ff bb
       -0.0077895774 -0.007789605 -0.0077894805 -0.007789123
000170 d5 3f ff bb e7 3f ff bb cf 3f ff bb 88 3f ff bb
       -0.007789592 -0.0077896 -0.007789589 -0.007789556
000180 47 aa 87 bb af ab 87 bb b2 ad 87 bb 56 a9 87 bb
       -0.0041401717 -0.0041403393 -0.004140579 -0.0041400595
000190 be ac 87 bb 80 ae 87 bb 8c a9 87 bb b5 ab 87 bb
       -0.0041404655 -0.004140675 -0.0041400846 -0.004140342
0001a0 3a af 87 bb 0f ac 87 bb 79 ae 87 bb f2 ac 87 bb
       -0.0041407617 -0.004140384 -0.004140672 -0.0041404897
0001b0 3a a9 87 bb 5d aa 87 bb ea aa 87 bb d6 ab 87 bb
       -0.0041400464 -0.004140182 -0.0041402476 -0.0041403575
0001c0 42 aa 87 bb 10 aa 87 bb 57 b0 87 bb 5c aa 87 bb
       -0.0041401694 -0.004140146 -0.0041408944 -0.0041401815
0001d0 36 a9 87 bb 18 aa 87 bb d8 ac 87 bb 64 ae 87 bb
       -0.0041400446 -0.00414015 -0.0041404776 -0.004140662
0001e0 39 a9 87 bb ce a9 87 bb 44 ab 87 bb fb ad 87 bb
       -0.004140046 -0.0041401153 -0.0041402895 -0.004140613
0001f0 1a ad 87 bb 42 aa 87 bb 3c a9 87 bb fc ad 87 bb
       -0.0041405084 -0.0041401694 -0.0041400474 -0.0041406136
000200 a2 af 87 bb 5c ab 87 bb e3 a9 87 bb 64 aa 87 bb
       -0.00414081 -0.0041403007 -0.004140125 -0.004140185
000210 50 af 87 bb 5b a9 87 bb 07 ac 87 bb 1d ab 87 bb
       -0.004140772 -0.004140062 -0.0041403803 -0.0041402713
000220 c1 ae 87 bb 3c af 87 bb 43 ae 87 bb 25 ac 87 bb
       -0.0041407053 -0.0041407626 -0.0041406467 -0.0041403943
000230 84 ae 87 bb c4 b0 87 bb 74 a9 87 bb 66 ac 87 bb
       -0.004140677 -0.004140945 -0.0041400734 -0.0041404245
000240 b2 ad 87 bb b7 ad 87 bb 53 a9 87 bb 81 a9 87 bb
       -0.004140579 -0.0041405815 -0.004140058 -0.0041400795
000250 91 ac 87 bb d5 ad 87 bb 43 a9 87 bb 34 ab 87 bb
       -0.0041404446 -0.0041405954 -0.0041400506 -0.004140282
000260 ef a9 87 bb 8e ab 87 bb 76 b0 87 bb 97 ab 87 bb
       -0.0041401307 -0.004140324 -0.004140909 -0.004140328
000270 3a a9 87 bb 3a a9 87 bb 40 ab 87 bb 1e ab 87 bb
       -0.0041400464 -0.0041400464 -0.0041402876 -0.004140272
000280 07 b0 87 bb fe aa 87 bb 87 a9 87 bb 50 a9 87 bb
       -0.004140857 -0.004140257 -0.0041400823 -0.0041400567
000290 e7 ac 87 bb cc aa 87 bb b8 ac 87 bb 8b ac 87 bb
       -0.0041404846 -0.0041402336 -0.0041404627 -0.004140442
0002a0 89 aa 87 bb a8 ab 87 bb 8e af 87 bb 68 af 87 bb
       -0.0041402024 -0.004140336 -0.004140801 -0.004140783
0002b0 c5 aa 87 bb 39 a9 87 bb 42 ad 87 bb 7c ab 87 bb
       -0.0041402304 -0.004140046 -0.004140527 -0.0041403156
0002c0 d0 aa 87 bb c8 b0 87 bb d9 a9 87 bb b6 a9 87 bb
       -0.0041402355 -0.004140947 -0.0041401205 -0.004140104
0002d0 66 a9 87 bb b2 ac 87 bb 34 a9 87 bb b9 aa 87 bb
       -0.004140067 -0.00414046 -0.0041400436 -0.004140225
0002e0 03 ac 87 bb 97 ab 87 bb ef aa 87 bb 57 a9 87 bb
       -0.0041403784 -0.004140328 -0.00414025 -0.00414006
0002f0 9f a9 87 bb 5b ab 87 bb 54 ad 87 bb bd ae 87 bb
       -0.0041400935 -0.0041403 -0.0041405354 -0.0041407035
000300 39 e5 e5 3a 7e dd ec 3a 31 07 ed 3a 83 69 de 3a
       0.0017539627 0.0018071381 0.0018083808 0.0016968701
000310 34 a9 ed 3a 78 3b ec 3a 9c 3b dc 3a 8e 8f eb 3a
       0.0018132091 0.0018023094 0.0016802433 0.001797186
000320 d9 78 e6 3a c0 35 e1 3a 73 db dd 3a 89 c1 e3 3a
       0.0017583623 0.0017182156 0.0016926363 0.0017376404
000330 f9 a3 ef 3a ad 52 f0 3a 13 f6 ee 3a 56 b5 ef 3a
       0.0018283121 0.0018335186 0.0018231295 0.0018288295
000340 c4 99 e4 3a 1a 44 e0 3a ac 8a e0 3a c3 ed ee 3a
       0.0017440845 0.001711014 0.0017131171 0.0018228817
000350 1e 5f eb 3a 08 c7 ef 3a 65 12 ec 3a 50 0c df 3a
       0.0017957424 0.0018293569 0.0018010853 0.0017017219
000360 c7 af ef 3a 19 77 e2 3a 11 79 de 3a 07 74 e7 3a
       0.0018286639 0.0017277926 0.0016973336 0.001765848
000370 90 8f eb 3a e9 ff e7 3a 00 03 e6 3a 0d 74 e0 3a
       0.0017971862 0.0017700169 0.0017548501 0.001712443
000380 eb 5c ef 3a c2 23 ee 3a 97 be dd 3a ed 20 ee 3a
       0.0018261945 0.0018168616 0.0016917762 0.0018167772
000390 26 48 e7 3a 89 1c de 3a 50 98 ec 3a 28 5e ea 3a
       0.0017645403 0.001694576 0.0018050764 0.0017880844
0003a0 a2 14 ee 3a 63 57 e7 3a 77 9d e5 3a 81 b8 df 3a
       0.0018164108 0.0017649945 0.0017518242 0.0017068536
0003b0 b9 8b e9 3a d3 a7 e3 3a f5 91 e8 3a a7 69 e9 3a
       0.001781813 0.0017368741 0.0017743694 0.0017807976
0003c0 d7 b2 e6 3a dd 79 ec 3a 4b 20 e0 3a b3 7f e4 3a
       0.0017600906 0.0018041689 0.0017099468 0.0017433077
0003d0 d9 67 e9 3a af b1 dc 3a 91 39 e0 3a f0 91 df 3a
       0.0017807438 0.0016837622 0.0017107 0.0017057043
0003e0 e0 01 ef 3a f9 94 ec 3a 49 ac eb 3a bd 80 e9 3a
       0.0018234812 0.0018049768 0.0017980422 0.0017814856
0003f0 42 e2 e5 3a 60 a7 e1 3a 58 60 e2 3a de 29 de 3a
       0.0017538744 0.0017216019 0.0017271144 0.0016949733

weight_hh_l0 f4 [384, 96]
000000 44 a4 e2 bc 8b 56 2f 3c e4 cd 2a 3c e5 62 32 3c
       -0.027666219 0.010701786 0.010425065 0.010887836
000010 20 91 ec bc 04 cf a2 bd 76 92 90 bb bd 7b c9 3a
       -0.028877795 -0.07949641 -0.0044119908 0.001537196
000020 af e6 33 bc 07 1e bd bc d9 5d 5a 3c d4 64 26 b8
       -0.010980292 -0.023085607 0.013328039 -3.9671388e-05
000030 76 ef e4 b7 98 c3 b5 3c 6e 8b 3d bb e9 f6 21 3b
       -2.7291226e-05 0.022187993 -0.0028922218 0.002471382
000040 a5 12 6f 3b 39 0e 36 3c 33 3a 38 3c 89 90 90 ba
       0.003647962 0.011111789 0.0112443445 -0.0011029403
000050 8f 94 04 3c a6 95 cd bc 51 41 9f 38 0a 1f 95 bc
       0.00809206 -0.025095772 7.593877e-05 -0.018203277
000060 cf 23 89 bc d0 2b 1a 3b 4f 86 02 bb 5a e7 17 bd
       -0.016740708 0.002352465 -0.001991648 -0.03708587
000070 cc a4 94 3c 2a 02 28 bc 4a 34 58 bc 06 a7 5d 3b
       0.018144988 -0.010254422 -0.01319606 0.0033821478
000080 a4 7b 58 3a 9b 56 4d 39 54 1b e6 39 15 93 d8 3a
       0.000825817 0.00019582587 0.0004388938 0.0016523326
000090 69 90 07 3c 2b 0e 35 bc c4 18 ac bb 93 23 e0 bb
       0.008274176 -0.011050741 -0.0052519757 -0.0068401783
0000a0 b7 65 08 bb b0 7c 3a ba e2 3d 94 bc d6 87 1d bb
       -0.002081258 -0.0007113917 -0.018095914 -0.0024037263
0000b0 12 82 74 bc e9 79 00 ba fe b1 9d 3a 88 47 00 3b
       -0.014923589 -0.00049009785 0.0012031195 0.0019573886
0000c0 3e c5 4d bb eb 01 26 3b bc 54 5e bb 86 5f a8 bb
       -0.0031398083 0.0025330733 -0.0033925017 -0.0051383404
0000d0 be 67 38 bc 98 0d 89 bc 13 56 94 3a 74 b0 e0 bb
       -0.011255203 -0.016730115 0.0011317156 -0.0068569724
0000e0 44 5d b4 bb b1 9e 06 bb 68 f8 22 bd 08 56 2c bc
       -0.005504282 -0.0020541365 -0.03978768 -0.010518558
0000f0 8e bf 96 bb ce 43 4d bd 84 a2 12 3b 6a 76 8f bc
       -0.004600472 -0.05011349 0.00223747 -0.017512519
000100 2f c2 2d 3b 82 59 67 bb d7 ca c4 bb ad 13 7a bb
       0.0026513448 -0.0035301154 -0.0060056257 -0.00381587
000110 82 37 41 3b 4e 57 87 3a 55 6d be ba c6 7f 97 3b
       0.0029482548 0.0010325701 -0.0014528433 0.004623386
000120 19 5d 33 3c 30 75 fc 3b 3b b3 6c 3c 20 23 77 bc
       0.010947489 0.0077043995 0.014447029 -0.015084058
000130 e9 3f 55 3b 46 2a b9 bc 6e d0 92 bc ee 73 b8 bb
       0.0032539314 -0.022603165 -0.017921653 -0.0056290543
000140 62 5f 11 bd e9 93 40 3b 8f d5 2e 3d 77 d1 b0 3c
       -0.035491355 0.0029385036 0.042684134 0.021584256
000150 c6 e9 01 3a 19 50 13 3d f0 30 23 bd 45 8a da 38
       0.00049557944 0.03596506 -0.039841592 0.00010420805
000160 19 36 90 3b fb e3 9d 3b 49 05 40 3c eb 2b 2c ba
       0.00440098 0.004818437 0.01172001 -0.00065678236
000170 78 a2 fc 3a b3 06 50 bb fe e8 35 3c ef c6 bf 3c
       0.0019274494 -0.0031742274 0.011102913 0.023410289
000180 74 12 09 bb 1b 0a 61 3a a2 3d 1d 3b fb 48 9c 3b
       -0.002091554 0.00085845747 0.0023993035 0.004769442
000190 11 b6 61 bb a8 3a d1 bc 40 06 13 bb cb 63 4a 38
       -0.0034440795 -0.025540665 -0.0022434145 4.8253492e-05
0001a0 8d 21 5e ba b7 46 20 ba cf fb 8c 3c d3 a5 90 ba
       -0.00084736274 -0.0006114053 0.017209915 -0.0011035748
0001b0 f2 d2 a2 3b 34 eb b6 3b 0e bb 39 ba 61 60 1d 3a
       0.0049689943 0.0055822376 -0.0007085063 0.0006003436
0001c0 4e 7c 61 3b 58 7c 28 3c e8 60 4e 3a 7a b7 a4 ba
       0.0034406367 0.010283552 0.00078727165 -0.0012566887
0001d0 e7 94 89 3b e0 34 16 bc d0 56 96 ba ca c2 e0 bb
       0.0041986587 -0.00916788 -0.0011469964 -0.006859158
0001e0 c2 bd 2c bb 34 15 38 3a be c4 17 3c 63 2a 06 bc
       -0.0026358222 0.00070222025 0.009263216 -0.008188817
0001f0 27 95 f9 3a e4 ff 04 bc 59 fd 72 ba aa 51 9c 3a
       0.0019041643 -0.00811765 -0.0009269319 0.0011926193
000200 63 d8 d4 3a 3a b6 89 3a c2 60 01 3a 9f 38 a1 3a
       0.0016238805 0.0010506578 0.00049353775 0.00123002
000210 40 4d c3 3b 84 07 77 bb d6 d4 50 3b 64 87 6f bb
       0.0059601367 -0.0037693689 0.0031865141 -0.0036549205
000220 86 ce 2c bb 45 7d b6 b9 86 3f 2e 3b 67 c6 48 39
       -0.0026368215 -0.00034807078 0.0026588156 0.00019147397
000230 76 15 b1 bb 20 08 4b 3a ad e7 21 38 17 a3 07 ba
       -0.0054041697 0.0007745046 3.8601156e-05 -0.00051741436
000240 ad da 60 ba 05 9b 6f 3a 34 95 ad 3b a5 7c b2 ba
       -0.0008577507 0.0009140226 0.0052973274 -0.0013617469
000250 0e 95 9a bb 78 5e 05 bb 7b d2 dc 3a e4 d3 fc b9
       -0.0047174757 -0.0020350497 0.0016847396 -0.00048223056
000260 fc f3 9c ba a8 f4 ee 38 4e f6 11 bd 0f 79 a5 bb
       -0.0011974568 0.00011394295 -0.035635285 -0.0050498317
000270 cb a0 c2 3a 46 d8 02 bd 2e 42 d3 3a 18 69 a3 bc
       0.0014848945 -0.031944536 0.0016117746 -0.019947574
000280 40 be 08 bb 38 45 2c bb c3 80 bb bb 9d 11 13 bb
       -0.002086535 -0.0026286375 -0.0057221367 -0.0022440918
000290 9e 33 6c 3b a8 4e 41 39 1a 0e d0 ba 63 08 47 38
       0.0036041508 0.00018435216 -0.0015873343 4.7453108e-05
0002a0 86 90 14 bb 11 61 2b 3b 43 d5 b4 3b a8 9e d2 ba
       -0.002266915 0.0026150385 0.005518587 -0.0016069012
0002b0 27 b8 10 ba 27 4f 11 bd 2d 4f a3 bb 78 f8 08 bc
       -0.0005520605 -0.035475876 -0.0049838037 -0.008360021
0002c0 b2 d3 ae bb f1 91 12 bc 89 85 4d bc 99 dc c7 3b
       -0.0053352946 -0.008945928 -0.012544044 0.0060992953
0002d0 97 dc 3c 39 01 d2 7a 3c a7 b7 54 3b 1e 05 76 ba
       0.00018011253 0.015308858 0.0032458098 -0.0009384918
0002e0 80 c4 1f 3b 61 b7 41 3a 98 42 98 3b 5d 86 f1 ba
       0.0024378598 0.00073896913 0.0046466105 -0.0018426884
0002f0 4e ce 8a 3a 40 11 4a b9 de 08 88 3b 02 70 17 3b
       0.0010590048 -0.00019270647 0.0041514477 0.0023107533
000300 bf ad 75 3b ee 39 eb ba a6 b5 b4 ba 3d cf 78 3b
       0.0037487594 -0.0017946342 -0.0013787046 0.003796532
000310 04 ed 55 3b 01 42 6e bc ca 7b a5 b8 bd 63 56 ba
       0.0032642493 -0.014542104 -7.8908706e-05 -0.00081783143
000320 bf 57 f8 3a 23 65 96 3c 5a 79 01 3c c3 f8 b7 ba
       0.0018947049 0.018358773 0.007902468 -0.0014035929
000330 ee 08 7f 3b 74 ee 49 3b f5 6d 25 b9 75 4f b7 b9
       0.0038915235 0.0030812295 -0.00015776588 -0.0003496368
000340 05 5d f6 39 ee 1e 27 3c e0 c7 0f bb a4 8d 9f b9
       0.0004699008 0.010200245 -0.0021939203 -0.00030432374
000350 0a 3b d6 3b 48 76 3e 3c fa 62 7f 39 00 b9 b7 bb
       0.0065377997 0.01162488 0.00024355567 -0.0056067705
000360 5e c2 a1 3a 83 76 bc b8 c3 7d 47 3c 99 cb d6 b9
       0.0012341251 -8.986613e-05 0.01217598 -0.00040968953
000370 b9 6f 02 3b d3 60 3c ba 1d 44 58 3b 66 60 6e 3a
       0.0019903018 -0.0007186059 0.0032999583 0.0009093344
000380 dd 2b 41 38 31 d0 9d ba 48 27 75 38 ed a2 e3 b7
       4.6055637e-05 -0.0012040195 5.8449135e-05 -2.7136377e-05
000390 2f 92 dc 3b fd 50 6c bb 41 c5 45 3b 81 65 d8 bb
       0.0067312936 -0.0036059015 0.0030177387 -0.006603897
0003a0 0f 39 39 b9 20 32 3d ba ad 0d b7 3b 19 21 0f 3a
       -0.00017664231 -0.0007217247 0.005586347 0.0005459949
0003b0 c7 2b 9a 3a c9 a4 ef b8 cb 48 a4 39 30 d2 15 ba
       0.0011762314 -0.00011427102 0.00031334753 -0.00057152193
0003c0 f2 3f 21 ba b5 51 3a b9 b5 44 0c 3c 51 29 5d 39
       -0.0006151191 -0.0001776878 0.008561303 0.00021091594
0003d0 ec 37 99 bb 56 58 14 3b dc 3d d8 b7 6d e8 b9 3a
       -0.004675856 0.002263566 -2.5778012e-05 0.0014183648
0003e0 b0 a2 54 3a 93 24 b6 38 87 2d 74 bc 83 bb 91 bb
       0.00081114005 8.685249e-05 -0.014903433 -0.004447402
0003f0 2a ec 63 3b f3 e5 ba bc f5 9e a4 39 8c 05 2d bc
       0.0034778216 -0.022814726 0.0003139895 -0.0105604045

bias_ih_l0 f4 [384]
000000 b3 6d 61 bc 64 e3 8e 3b d6 d6 b3 bc 3f 94 b5 39
       -0.0137590645 0.004360603 -0.021953028 0.00034633462
000010 4f 6e 0d 3d 69 2f 3e be 73 ca 6f bc 6a 14 52 bc
       0.034529027 -0.18572773 -0.01463567 -0.01282225
000020 fc 4d 6a bc 67 cd 85 bc aa 7f 92 bd e6 a6 9a bc
       -0.0143008195 -0.016333295 -0.07153256 -0.018878412
000030 b9 20 01 3d bc 27 cf bc c0 02 c4 bc bc 25 44 bc
       0.031525347 -0.025287502 -0.023927093 -0.011971887
000040 25 24 36 bc 3b d3 3a 3d 32 8a c7 bb 5d 55 a5 bb
       -0.011117016 0.0456116 -0.006089472 -0.0050455765
000050 cb 3f 63 bc ce 84 d3 3d cd 88 2f bc d5 e5 07 bd
       -0.01387019 0.10328065 -0.010713768 -0.03317817
000060 87 bb ae 3c 48 7a ac bc b3 b6 73 3d fe bb 52 3d
       0.021329654 -0.021054402 0.059500407 0.051448815
000070 66 af 99 bd 99 f6 04 bc f1 c9 ee 3c 92 ad 18 bc
       -0.07504158 -0.008115434 0.029149028 -0.009318726
000080 5c 67 00 bc d3 9a 89 bc f0 e7 ff bb 8d 70 9a bb
       -0.007837143 -0.016797459 -0.0078096315 -0.004713124
000090 33 14 42 bd ea 9b 26 bd 77 41 93 3c e5 69 b5 bb
       -0.047382545 -0.040676035 0.017975552 -0.0055363053
0000a0 35 9a ce bb 4a 8c a1 bb 47 61 b2 3c f8 76 64 bc
       -0.006305004 -0.004930054 0.021774901 -0.01394438
0000b0 ff b9 ae bb 7f a8 34 bc f6 c7 d0 bb 17 91 91 bc
       -0.005332231 -0.011026501 -0.0063714935 -0.01776938
0000c0 53 a8 b5 bb b9 a6 70 bc 7d 44 95 3d c6 c6 7a bc
       -0.0055437475 -0.014688187 0.07288454 -0.01530618
0000d0 28 ea 84 bd ab 6d 87 3c 9d aa bf bb 56 a2 32 bb
       -0.06489974 0.016531786 -0.005849196 -0.0027257404
0000e0 5b 98 8a bc 1d 08 68 bc 97 08 d5 3b a0 1b 9b bd
       -0.016918352 -0.014162091 0.006501268 -0.075736284
0000f0 38 b9 8e 3c b9 81 01 bd 2d d3 ca bb fc 72 39 bd
       0.017422304 -0.031617854 -0.006189725 -0.045275673
000100 d2 26 d8 3c a6 62 e4 bb e1 f2 2d bc 3a f9 1c bc
       0.026385698 -0.0069697676 -0.010616989 -0.009580905
000110 5f cc db bb 4b 4e 26 bc 60 fe e1 bb 0a a6 d5 bc
       -0.0067077125 -0.010150502 -0.006896779 -0.02608015
000120 bf 05 3d 3d c1 29 89 bc 60 43 4c bd 02 80 0c bd
       0.046148058 -0.016743543 -0.04986894 -0.034301765
000130 44 ea 05 bd 49 2e 87 3c 33 02 aa bc de 4a 1a 3c
       -0.032694116 0.016501563 -0.020753002 0.009417264
000140 ce 57 25 bd dc f3 2e bd 56 71 96 3d 5d 94 c3 bb
       -0.04036694 -0.04271303 0.07345836 -0.005968614
000150 d2 53 0b bc 89 89 e5 bd 3d 73 91 3d a6 58 df bb
       -0.008503871 -0.112078734 0.07102058 -0.0068159876
000160 d1 11 ad bc 6f 32 05 bc 6a 0c af bc 47 ff 4f bc
       -0.02112666 -0.0081297 -0.021368224 -0.01269514
000170 1e a8 6a 3b a0 66 1a bd 99 14 0e bc ce 68 4e bb
       0.0035805772 -0.037695527 -0.008671903 -0.0031495574
000180 9b e9 b5 3d 05 50 54 3d 0d cd 95 bc 0e c2 72 3d
       0.08882447 0.051834125 -0.018286252 0.059267096
000190 55 4c 88 3c 2e 56 c0 3d 8c 71 b0 bb 22 5f 3a bc
       0.01663796 0.093914375 -0.0053846296 -0.0113752205
0001a0 35 99 a2 3c 47 df 16 3e 37 f8 7a 3d 53 f0 00 3c
       0.019848445 0.14733611 0.061271872 0.007869798
0001b0 53 23 80 3d 8c d8 89 3d 1c d9 70 bb 35 c9 30 bc
       0.062567376 0.06730756 -0.00367505 -0.010790159
0001c0 7c 1a 9d bc b9 49 db 3a 1f 54 5c 3b f5 fc d1 bb
       -0.019177668 0.0016730345 0.0033619476 -0.0064083287
0001d0 ea cf 56 3c d5 bd 91 3d 23 6b 52 bb 82 c7 99 3c
       0.013111094 0.07116286 -0.0032107315 0.01877189
0001e0 77 8e 43 3c e6 ef b7 bc 19 69 ff 3d 08 f9 3c 3d
       0.011935822 -0.02245326 0.12471218 0.046135932
0001f0 be 42 1e 3c 51 45 d9 bc 70 35 2e 3c 2f ab 34 bc
       0.009659467 -0.02652231 0.010632858 -0.0110271415
000200 5b 28 41 bc 18 62 ac bc 5c 63 0e bc 4c 22 d7 bb
       -0.011789407 -0.021042868 -0.008690681 -0.006565368
000210 06 e9 60 3d 2f 94 18 3c 0e 47 e7 3c 1b 12 a1 3c
       0.05490973 0.0093126735 0.028232124 0.019661954
000220 ec ed 06 bc f5 e3 b8 bb db 79 2d 3d 31 bc 2b bc
       -0.008235436 -0.005642409 0.04235254 -0.01048188
000230 9c ff 71 3d 65 92 45 bc d8 72 e2 bb 15 23 b3 bc
       0.05908166 -0.012058829 -0.006910663 -0.021867314
000240 56 d8 d0 bb ce 8d d4 bb 22 9e 08 bd 61 fe bf bb
       -0.0063734455 -0.006486631 -0.033353932 -0.0058591818
000250 1b 0c 0a bd d7 6e 83 3d fe 99 ef bb b9 0c 89 3c
       -0.03370295 0.064176254 -0.0073120585 0.0167297
000260 ec d6 bf bc 1e c5 34 bc b7 e5 21 3e df 70 38 3d
       -0.023417912 -0.0110333245 0.15810286 0.045029517
000270 10 e8 61 3d fb e2 16 3e d9 dc 03 bc 08 c4 72 3d
       0.055152953 0.14735024 -0.00804826 0.05926898
000280 5e b0 9e bc d5 24 20 bc 5c 67 b6 bc f6 17 f1 bb
       -0.019371208 -0.009774406 -0.022266082 -0.0073575927
000290 3b ae 65 bc 8f 23 77 bb 48 8c fe bb be cd 51 3c
       -0.014018591 -0.0037710404 -0.0077681877 0.0128054
0002a0 4c 93 f3 3c d3 c8 03 3b 60 f8 ae bc 75 f8 95 3d
       0.029733323 0.0020108714 -0.021358669 0.0732278
0002b0 75 f3 14 bb 5a 6e cb 3d 47 1b b0 3c 03 91 57 bc
       -0.002272812 0.09933157 0.021497382 -0.013157132
0002c0 ae b6 b1 3c e7 6e f8 3d 15 77 17 3e 5a 59 05 bc
       0.021693554 0.12130528 0.1479152 -0.008138979
0002d0 ad 2c b4 bb 1d da 8f 3d e8 4b 86 3c 41 cc f9 bb
       -0.00549849 0.07024024 0.016393617 -0.007623226
0002e0 87 0f fa bc 6b 64 ea bb d2 ed 29 bc 74 d7 f4 38
       -0.030524982 -0.007153084 -0.010371642 0.00011674958
0002f0 68 10 10 3d e2 39 ca bc 3f b8 86 3d 6a d8 85 3d
       0.035171896 -0.024685804 0.06578111 0.06535418
000300 49 5d da 3b ce 11 27 3d 3f 16 90 bd 40 09 db 3d
       0.0066639525 0.040788464 -0.07035493 0.10695124
000310 19 58 13 bd 6b b2 ca bd 35 b9 43 3d 4c a0 35 3d
       -0.03597269 -0.09897312 0.04778405 0.044342324
000320 00 32 27 bd fa 01 17 bd e9 25 d0 ba dc 3c 47 3b
       -0.040819168 -0.03686712 -0.0015880439 0.0030401265
000330 87 55 64 3d 91 8d 85 3d e5 9f 4f 3d a8 6d 6b bd
       0.055745628 0.06521142 0.050689597 -0.057477623
000340 cc 6b d6 3c 3d 67 d6 bd af b0 d1 bb a9 8b 9e 3b
       0.026174448 -0.1046891 -0.006399236 0.004838426
000350 62 ad 99 bc b0 d4 e5 bd 98 89 f0 3b c1 c6 0c bd
       -0.018759433 -0.112222075 0.007340621 -0.034369234
000360 a8 d1 90 b9 c9 3f 32 bc a7 4a 5c bd 43 99 e6 3d
       -0.00027622026 -0.010879465 -0.05378213 0.11259701
000370 ae 65 f6 bc 60 00 64 3c b3 6d ca bc 13 0e a6 b9
       -0.030077782 0.013916105 -0.024710512 -0.00031672473
000380 f0 3d 72 bd 9a 55 b8 bc db ec 27 bc 02 37 7a 3d
       -0.0591411 -0.022501756 -0.010249342 0.061087616
000390 36 84 65 bd 1e eb 95 bb d9 95 8d 3d e1 dd 83 3c
       -0.05603429 -0.0045751473 0.06913347 0.016097011
0003a0 7c 67 8d 3c b0 32 e5 bc 16 91 70 bc fb 11 70 bd
       0.01726126 -0.027978271 -0.014683029 -0.058610898
0003b0 83 7a 60 bd ff 1c 78 bd 17 18 88 3c 95 c9 3a bd
       -0.054804336 -0.060574528 0.01661305 -0.0456024
0003c0 32 dc 55 3b d5 79 4c bc ca 6b fe bd 67 21 3f 3d
       0.0032632467 -0.012480219 -0.12422903 0.046662714
0003d0 a6 63 a1 3d 93 b3 bb bd 9d 29 cc 3b c1 36 3f 3d
       0.078803346 -0.091651104 0.0062305466 0.046683077
0003e0 a0 ac 63 3c b6 2e 25 3d 09 1d 66 3d e8 65 95 bd
       0.0138961375 0.04032775 0.056180034 -0.07294828
0003f0 d7 09 87 3c 42 94 19 3d ce c8 49 3d a0 cd c5 3d
       0.016484184 0.037494905 0.049263768 0.096583605

bias_hh_l0 f4 [384]
000000 a6 de 06 bc e2 df c4 bc 32 89 26 3c 78 3d c0 3c
       -0.008231794 -0.024032537 0.010164546 0.02346681
000010 f1 96 67 3c 11 01 53 be 03 bf 02 bc e6 1c 45 bc
       0.014135108 -0.20605876 -0.007980111 -0.012030816
000020 10 f9 90 bc 68 43 c7 3d 40 ab ad 3c 14 f3 b5 bc
       -0.017696887 0.097296536 0.021199822 -0.022210635
000030 f6 87 87 bd 26 e4 1d bd 85 b4 ed bc 6d 8f 5c bc
       -0.06617729 -0.038547657 -0.029016742 -0.01346193
000040 4d 49 36 bc 40 42 99 bc b8 9e 25 bd e6 8d ac bb
       -0.011125875 -0.018708348 -0.04043457 -0.005265939
000050 3f a0 df bc c6 a7 91 3d f7 53 2c bc a9 94 39 bd
       -0.027298091 0.07112078 -0.010518066 -0.04530779
000060 9e cf 3e 3c 93 fa 38 bc 0a 97 91 bd 54 91 a2 3d
       0.0116461795 -0.01129021 -0.071088865 0.079378754
000070 95 89 d1 bd ee d3 04 bc 2c 0c d0 bc 5a 41 18 bc
       -0.1023132 -0.008107169 -0.025396429 -0.009292925
000080 4f 6f 1f bc 64 c8 95 bc d6 f7 ff bb 09 0f bf bb
       -0.009731128 -0.01828403 -0.007811527 -0.0058306498
000090 d9 e5 1a 38 fb 89 79 bd a9 40 51 3c 1d 0e 62 bd
       3.6930523e-05 -0.060922604 0.012771764 -0.05518924
0000a0 5b 95 ce bb 4e 79 a2 bb 9e e0 65 bc 7e 0f bf bb
       -0.0063044257 -0.0049583083 -0.014030604 -0.0058307042
0000b0 42 5d f3 3b b2 32 8b bc e9 24 bd bb f2 14 6d bc
       0.0074268887 -0.016991947 -0.0057722223 -0.014470326
0000c0 42 af be bb 94 91 6d bc 06 5b 09 3d a3 bc 7d bc
       -0.005819232 -0.014500041 0.033534072 -0.015486869
0000d0 c4 ae e7 ba b4 15 f3 bc ac fa bf bb 6b f2 41 bb
       -0.0017675986 -0.029673435 -0.00585874 -0.0029593955
0000e0 98 93 b3 bc 84 f1 a2 bc 8b fe 59 bd 99 13 92 bd
       -0.021920964 -0.019890554 -0.053221267 -0.07132644
0000f0 44 c7 55 bd 8c 79 63 bd 80 63 c6 bb 4f 22 9d 3c
       -0.052191988 -0.055535838 -0.006054342 0.019181399
000100 0c 9a 71 bd ea f7 e4 bb 72 f1 2d bc 3a 0b 52 bc
       -0.0589848 -0.0069875615 -0.010616647 -0.012820059
000110 91 b5 db bb 6c f0 cb bb 68 f8 dc bb b3 8a 1e bd
       -0.006704994 -0.006223729 -0.0067434795 -0.038706493
000120 e1 63 b0 3b f6 68 94 bc 72 9a ea bc 8e 4b 99 bd
       0.0053830002 -0.018116456 -0.028638098 -0.07485114
000130 3d f7 81 3c b7 4a d8 3d cb 3a fa 3b a6 cb 0e 3b
       0.015864963 0.10561126 0.007636403 0.0021788864
000140 f5 54 f8 bc 22 6a 15 bd b0 96 e3 3d 62 8d c1 bc
       -0.030313948 -0.03647817 0.11112726 -0.023626987
000150 eb 04 09 bc 2a 8f 86 bd 40 93 eb 3c da 7d de bb
       -0.008362989 -0.06570275 0.028756738 -0.006789905
000160 70 9e 58 3a 1b a0 27 bc d2 7b c6 bc c6 85 4c bc
       0.0008263355 -0.010231043 -0.024228964 -0.012483066
000170 04 58 92 3c 5b dc 9f bc d1 c3 81 bc e5 10 ac 3c
       0.017864235 -0.019514253 -0.015840443 0.02100415
000180 74 d4 95 3d ff e8 32 3c 2e 85 5f 3c d9 5d bc bc
       0.07315913 0.010919808 0.013642592 -0.022993969
000190 1d 35 a1 3d a4 31 ec 3d 94 3b e9 b9 4f 82 00 bc
       0.07871459 0.11532906 -0.00044485612 -0.007843568
0001a0 74 b1 97 3c 65 d9 02 3e 94 3d 04 3c 82 21 e0 3b
       0.018517233 0.12778242 0.008071322 0.006839932
0001b0 ca c2 23 3d 52 42 54 3d da 3d 20 bc 76 af 83 bc
       0.039980687 0.05182106 -0.009780372 -0.016074877
0001c0 da 1a 9d bc 6c 71 88 3d 47 c1 1a 3c 8a a1 bd bb
       -0.019177843 0.066622585 0.009445495 -0.005787079
0001d0 71 84 0c 3d 4e 34 0d 3e 72 d0 8b 3b 92 c2 03 3c
       0.034305993 0.13789484 0.004266792 0.008041995
0001e0 7a 33 2c bc 59 44 1b bc c4 f6 d7 3d 4c 27 92 3d
       -0.01051032 -0.009476745 0.10545114 0.071364015
0001f0 de 85 9d 3d 66 4a d9 bc 2e 71 37 3c 55 9a 35 bc
       0.07691549 -0.026524734 0.011196418 -0.011084159
000200 c8 86 0f bc 4d 16 71 bc ba 6b 0e bc 87 4f 03 bc
       -0.008760162 -0.01471479 -0.008692676 -0.008014566
000210 69 59 0d 3d 00 e4 94 bc 86 d8 4d 3b c5 90 51 3c
       0.034509096 -0.018175125 0.0031409576 0.012790863
000220 a9 f0 06 bc a2 0b ba bb 22 2b 6d 3d 28 de 80 bb
       -0.008236089 -0.0056776563 0.057902463 -0.003932733
000230 61 6f 10 3d b2 d7 9d bb 37 d3 db bb 6b 56 37 bb
       0.03526247 -0.0048169727 -0.0067085284 -0.0027975093
000240 ee 8e d6 bb aa dd 1b bc 78 39 48 3d a6 2d bb bb
       -0.0065478003 -0.009513298 0.04888293 -0.005712229
000250 c6 b5 81 3c 41 25 a5 bb 42 48 ee bb 20 8e 32 b9
       0.015833747 -0.0050398414 -0.0072717974 -0.00017028349
000260 5f 35 97 bc ca bb 24 bc 43 77 84 3d ed 30 6f 3c
       -0.018458067 -0.010054538 0.0646806 0.014599067
000270 5b e7 f2 3c 20 68 24 3e f3 4e 04 bc 1f e6 8c 3c
       0.029651335 0.16055346 -0.008075464 0.017199574
000280 0e 5a d9 bb 1e 8d 21 bc 56 87 b6 bc 83 0c 10 bc
       -0.00663305 -0.009860305 -0.02228133 -0.0087920455
000290 4f cd 65 bc e1 f8 2c bc b1 45 fe bb e8 fc 72 bc
       -0.014026 -0.010557384 -0.0077597727 -0.014830805
0002a0 11 04 17 bc a6 52 47 bc 6a ea 49 3d cc 85 90 3d
       -0.009217278 -0.012165701 0.04929582 0.0705677
0002b0 78 f8 17 bd 61 53 99 3d 76 af 13 3d cc ab bd bc
       -0.037102193 0.074866064 0.036056004 -0.023153208
0002c0 e2 04 67 3d eb a4 8a 3d bb 5c e4 3d ae a8 99 3c
       0.05640114 0.06769737 0.111504994 0.01875719
0002d0 d8 cd 09 bc 88 21 88 3d fe 00 8b 3c fd ef f8 bb
       -0.008410893 0.066470206 0.016968247 -0.007596968
0002e0 9e c5 a6 3c d7 d0 47 bc b8 8a 4b bc f6 12 7c bc
       0.020357903 -0.012195787 -0.01242321 -0.01538538
0002f0 5c 2f 41 3d f8 07 aa bb e0 19 1f 3d ac 38 a0 3d
       0.047164306 -0.005188938 0.038843036 0.07823309
000300 d9 42 b5 bd 1a 29 fa 3c 2f 35 a0 3c b8 cd 8c 3d
       -0.08850641 0.030537177 0.01955661 0.06875175
000310 b2 13 5a bd 1f 11 02 bd 3b 48 49 bc f7 14 36 bc
       -0.05324144 -0.03175461 -0.0122852875 -0.011113397
000320 9e e0 16 3c 04 b9 0b 3d bd dc 5d 3b 1a f5 7b bd
       0.009208826 0.03411199 0.0033853494 -0.061513044
000330 f9 58 b2 bd ef a1 00 3b ae d5 dc bc ff 1e a9 ba
       -0.087083764 0.001962777 -0.02695736 -0.0012902914
000340 d1 58 9f bc 2f b9 9d bd 4c f4 a3 3d 11 f7 b1 bc
       -0.01945153 -0.077013366 0.0800558 -0.021724256
000350 aa 93 46 bd 73 5c eb 3b b0 b7 8f bb 51 2b d1 3c
       -0.048480667 0.0071826517 -0.004385911 0.02553335
000360 1a 66 5d 3d 52 a7 b2 bc 11 88 13 bd a8 6c 8a 3c
       0.05405245 -0.0218083 -0.036018435 0.016897514
000370 fc cb 87 bd 79 5e 20 bd 42 72 d4 bd db 3d e2 bb
       -0.06630704 -0.039152596 -0.103733554 -0.0069043464
000380 9f 8b b2 3b 3a 1c 45 bb 15 b7 be 3b 1b d2 7f bd
       0.005448773 -0.0030076639 0.005820165 -0.06245623
000390 ca 0e 8c bd 24 de c6 3d be 88 a5 3c 63 22 85 3c
       -0.06838758 0.09710339 0.020206805 0.016251748
0003a0 f9 a5 8a bc f9 92 1c 3b ea 3a bc bd 94 cf 81 3d
       -0.016924845 0.0023891313 -0.091909245 0.063384205
0003b0 9d bf ef bc 5d b9 23 3d 45 db a9 ba ed 4f 57 3c
       -0.029266173 0.039971698 -0.0012959024 0.013141614
0003c0 c6 b8 5b bc 8b 59 a4 bc 4e 50 a3 bd 02 69 93 3c
       -0.013410753 -0.020062229 -0.07974301 0.017994408
0003d0 b0 88 14 bd 25 16 9e 3d 1f 26 f7 3b 86 a2 5f bc
       -0.036263168 0.077190675 0.007542386 -0.013649588
0003e0 20 c8 c6 bc b7 e2 93 bb 01 a0 00 3d 08 87 b7 3d
       -0.024265349 -0.0045131105 0.03140259 0.08961302
0003f0 e7 75 2b 3c d6 22 d3 3d d0 5b 4e bd e1 ac 8b 3c
       0.010465122 0.10309379 -0.050380528 0.017050209

weight f4 [96, 96]
000000 8d 45 18 3c 0a 91 11 bc b6 99 c9 bc b4 8b 39 bb
       0.009293926 -0.008884678 -0.024609428 -0.002831203
000010 52 fc 60 3b 74 16 34 bd 08 b2 ab 39 17 14 c9 3a
       0.0034330082 -0.043966725 0.00032748305 0.001534107
000020 4f ed ca bb dc d1 1e 3d 72 bf 94 3d 32 d4 16 ba
       -0.00619284 0.038774356 0.07263078 -0.00057536655
000030 80 73 29 3d f8 d0 de ba 0b aa 9c bb b1 a5 1f bc
       0.041369915 -0.0016999533 -0.004781013 -0.009744094
000040 be 52 f4 3a 6d 08 18 3d b4 cb c8 bc 0f e3 b0 ba
       0.0018640382 0.03711741 -0.024511196 -0.0013495403
000050 d7 3c 08 bc 4c f4 92 3d 5b 67 d5 37 e7 91 7b bb
       -0.008315287 0.07175502 2.5439707e-05 -0.0038386525
000060 82 0f 19 3c c6 b2 46 3b c3 e8 70 3d 59 04 ee bb
       0.009342076 0.003031896 0.05881573 -0.007263702
000070 4f f4 0e 3d 5b 5d 96 bb af 4b f8 3c 6b b7 5f ba
       0.03490096 -0.0045887656 0.030309526 -0.00085341063
000080 26 57 74 3a cf 22 89 bb de 12 8e 3b d7 4a 11 bc
       0.00093208475 -0.0041850577 0.0043357452 -0.008867941
000090 b9 31 b9 3c df 1e 16 bc c3 46 fb 3c a6 f3 32 bc
       0.022606717 -0.009162634 0.03067339 -0.010922348
0000a0 d3 7e 41 bb 9b 3f 96 bb 35 0f d3 3c bc db ea 3a
       -0.0029525056 -0.004585219 0.025764087 0.0017918269
0000b0 f2 7f 97 bc 5a 5b ad 3b d8 df 7c 3a 6b 36 46 bc
       -0.018493626 0.005290431 0.00096463924 -0.012097935
0000c0 5a 18 31 39 db da c8 3a a3 29 b7 3b f3 3b 9f 3c
       0.00016889107 0.0015324013 0.0055896803 0.019437766
0000d0 42 b9 42 bc 74 f5 f8 bc 6d 86 ba 3a 27 f5 32 3d
       -0.011884989 -0.030390479 0.0014230736 0.043690827
0000e0 9f c3 1d 3c de d9 96 b9 25 1e c6 bd 10 54 0f bd
       0.009629159 -0.00028772553 -0.09673718 -0.034992278
0000f0 dc 10 0e 3d 5e 3c ce bd 07 b7 dc 3b 08 75 14 bc
       0.034684047 -0.10070108 0.0067356857 -0.009061106
000100 0e dc e0 bc 60 8d 92 3b 96 18 12 bb 82 b9 02 3c
       -0.02744868 0.0044724196 -0.0022292486 0.007978799
000110 4b a8 f6 ba 73 e9 88 39 c0 c9 b9 ba 63 ca 61 ba
       -0.0018818466 0.00026113875 -0.0014174506 -0.0008613227
000120 14 39 47 bd 7c 18 9c bb aa e3 42 39 d5 cf 72 bd
       -0.04863842 -0.004763661 0.00018586093 -0.059280235
000130 a2 c7 2a bd c4 09 92 bd 22 ef 86 3a f1 a7 3a bb
       -0.04169429 -0.07130769 0.0010294656 -0.0028481449
000140 b2 c0 03 3c 1f 44 e2 bc 12 31 a0 bd d2 cf da bc
       0.008041548 -0.027620373 -0.078218594 -0.026710425
000150 93 8c 22 bb af 2b 13 3d 43 9d 4a bc 37 b3 47 bb
       -0.0024803027 0.03593033 -0.012366596 -0.003047181
000160 bc 72 33 bb 16 27 09 3c 8b ff 05 ba 9d c6 0d 3b
       -0.002738162 0.008371135 -0.0005111626 0.0021633275
000170 21 4a f4 3c 58 28 9d bc 6e 92 39 3d 27 5a 34 bd
       0.029820504 -0.019184276 0.04530566 -0.04403129
000180 8f 09 2b bc 70 fc 63 bb 5d cc 84 3c 7c 1b 43 bc
       -0.010439291 -0.0034787916 0.01621073 -0.011908408
000190 20 48 cb bc 06 eb 5f bc d2 5a ea 3b e9 81 1c 3c
       -0.024814665 -0.013666874 0.00715194 0.009552457
0001a0 f7 eb 29 bd c7 4f 7b bd 96 e6 fe bc 7d e0 cf bb
       -0.0414848 -0.06135538 -0.031115811 -0.0063438998
0001b0 9d d4 4a bd 68 cb 74 3d ee e2 d8 bc 1f b9 c0 3c
       -0.04951917 0.059764296 -0.026475396 0.023525773
0001c0 6e 96 a6 ba 6b a2 03 3c c7 5b 41 3d 18 09 b0 3b
       -0.0012709626 0.008034329 0.047206666 0.005372178
0001d0 0d f8 d4 bb 5f 0d 02 be b5 85 14 3c 3d 8e 18 bd
       -0.0064992965 -0.12700413 0.009065081 -0.037245024
0001e0 2f 23 3f bd 35 bb 02 bd 33 b7 1f 3d 36 ca 22 bd
       -0.046664413 -0.031916816 0.03899307 -0.039743625
0001f0 4e a5 99 3d 1c ec ac 3b 65 11 91 bc 51 a8 a5 bb
       0.075022325 0.00527717 -0.01770849 -0.0050554653
000200 6c db 60 bc 0c 4b 8e bc 58 0e 1c 3c 8f 5a b1 3a
       -0.013724189 -0.01736977 0.009524904 0.0013531017
000210 cf fb db 3c 78 31 f2 3a 82 ab 1c bd 9a 8b 52 3c
       0.02685347 0.0018477878 -0.0382495 0.012850666
000220 2d 4e f6 3a 5f 26 0d 3a 8e 68 91 bd 2e 4a 22 bc
       0.0018791609 0.0005384441 -0.0710002 -0.009905381
000230 46 a0 c2 bc e8 54 d7 b9 6c a2 94 3c 70 92 9c 3c
       -0.023758065 -0.00041071256 0.018143855 0.019112796
000240 05 da 1e 3b 8a 80 88 bb 2c c8 78 bd 16 03 56 3b
       0.0024238836 -0.0041657137 -0.060737774 0.0032655648
000250 dc 98 a0 bb 63 87 53 bd c5 81 3a 3b ae 1d f4 3c
       -0.0049010348 -0.051642787 0.0028458696 0.029799309
000260 f4 aa 03 bd 37 e8 1b bb cd 7b d1 3d 8c d1 93 bc
       -0.032145455 -0.0023789534 0.10228691 -0.018044256
000270 53 37 0c bc 4a 0b ba bc 4e 98 86 3a 1b c0 cc bc
       -0.008558112 -0.022710461 0.0010268779 -0.024993947
000280 af 61 28 3d de 7b 05 3c 4f 18 97 3b 8b 6d 13 bb
       0.041108783 0.008147208 0.004611052 -0.0022495713
000290 d6 a6 af 3b 0e 60 3a 3c 25 98 71 3b de 03 42 3c
       0.0053604646 0.01137544 0.0036864367 0.011841742
0002a0 74 ad c6 3c 77 80 05 3b 00 0e 81 bc 30 3b f2 bc
       0.02425263 0.002037076 -0.015753746 -0.029569238
0002b0 9d 15 33 3d 26 73 9e 3d 49 d7 15 bd a3 0e c8 3d
       0.043721784 0.077368066 -0.036582265 0.09768417
0002c0 11 5e 81 bd ed fc de 3d 85 10 f5 3d 92 1e 4c 3c
       -0.0631677 0.108880855 0.119660415 0.01245846
0002d0 0a 84 00 bc 30 b5 0c 3e 0d e3 e3 bd 62 a0 ea 3b
       -0.007843981 0.13740993 -0.11127291 0.0071602324
0002e0 0c d5 9e 3b cc 1a 19 3b f7 9a 95 3c 66 2d 89 3c
       0.0048471745 0.002336192 0.01826237 0.01674528
0002f0 b1 2d c3 ba 1c 19 0f bb 3e aa 7d 3d 1e 48 70 3d
       -0.0014890936 -0.0021835035 0.061929934 0.058662526
000300 63 35 a3 bd f7 b4 0c 3d 76 f5 20 3d 1b 29 5c bd
       -0.07969167 0.03435227 0.03929659 -0.05375014
000310 cb f1 83 bd 6c c5 25 be 61 4b bb bc 2a ea b1 b8
       -0.06442603 -0.16188592 -0.022863092 -8.483634e-05
000320 f6 f3 25 bd 51 95 a4 bb 2b b4 77 bc 27 ce ff bb
       -0.040515862 -0.0050226827 -0.015118639 -0.0078065577
000330 f9 1d 5d 3c 01 a5 21 bc b7 a0 ed bc 5e 29 38 3c
       0.013495916 -0.009866 -0.029007299 0.011240331
000340 0e 82 71 3c 93 81 3f 3c ef c7 b5 3c 04 89 83 bb
       0.01474048 0.011688608 0.022190062 -0.0040141363
000350 dc 30 a8 bc 82 94 02 3d b0 85 d8 3b ec a6 56 bd
       -0.02053111 0.03187991 0.0066077337 -0.052405283
000360 2c f2 49 bd 7e 10 c5 3c 69 ee cd 3c c7 15 c3 bd
       -0.04930322 0.024055716 0.025138097 -0.09525638
000370 23 15 8c 3c b4 f5 45 bc 57 f3 bc bc 4a 91 9e bb
       0.017099923 -0.012082506 -0.023065252 -0.004839097
000380 99 8a 1d bb f4 ef 03 bc 1c 8a a7 ba 4c fa a1 3b
       -0.002403891 -0.008052815 -0.0012782249 0.004943168
000390 43 ca 80 39 ce 1d 3e bc 25 31 85 bc 51 7a a0 bc
       0.0002456476 -0.011603786 -0.016258786 -0.019589575
0003a0 ae 1f 80 bb 17 0d 4d 3b a0 7f 0d bd f7 29 92 3c
       -0.0039100265 0.003128832 -0.03454554 0.017842276
0003b0 1d d3 69 bd 72 24 58 bc f8 35 21 3a 5a ae 58 3b
       -0.0570861 -0.013192283 0.00061497046 0.0033062906
0003c0 b4 30 d1 ba 49 b0 9c 3c 29 83 10 bc 7a fe 80 bc
       -0.0015959949 0.019127028 -0.0088203335 -0.015746344
0003d0 e8 38 44 bc 17 f3 ed bc f1 72 c6 3b 0f fd ed ba
       -0.011976458 -0.029046578 0.0060561826 -0.0018157082
0003e0 42 96 11 3c 32 0a 24 bc 30 68 ae 3c 5a dc a0 bb
       0.008885922 -0.010012196 0.021289915 -0.0049090805
0003f0 f3 02 9a 3c 68 19 7f bd a9 1f 5b bb ad 66 c2 3c
       0.018800234 -0.06228009 -0.003343562 0.0237306

bias f4 [96]
000000 36 dc 93 37 0a b5 ec 38 65 00 9b b7 57 ab e6 b6
       1.762631e-05 0.00011287078 -1.8477624e-05 -6.8744807e-06
000010 81 b6 6a 37 c4 50 e1 b6 e8 5f cf 37 03 12 f9 37
       1.3989979e-05 -6.714925e-06 2.4720983e-05 2.96915e-05
000020 e1 19 ee 36 79 27 58 b8 93 dc 89 38 f5 4b 87 b8
       7.0959654e-06 -5.1535175e-05 6.573754e-05 -6.45145e-05
000030 57 be cd b7 7d 4c 5f 38 36 28 82 b8 e5 47 76 37
       -2.4526538e-05 5.323858e-05 -6.206373e-05 1.4679482e-05
000040 82 1e 0f b9 c6 88 31 38 b0 24 b6 b6 9c 24 39 36
       -0.00013648908 4.232747e-05 -5.4282937e-06 2.7588458e-06
000050 1f 20 d6 37 97 48 bd 37 69 6f 5b b7 06 bf 09 37
       2.5525746e-05 2.2564358e-05 -1.3079357e-05 8.210312e-06
000060 81 bd 36 38 9c 26 c7 37 65 c9 87 b7 81 71 f0 37
       4.356867e-05 2.3740628e-05 -1.6187036e-05 2.8663084e-05
000070 41 de 9b b7 28 e5 fc 37 9f e7 c0 b7 8c 42 4f b7
       -1.8580935e-05 3.014745e-05 -2.299604e-05 -1.2353656e-05
000080 06 56 05 38 5c 90 72 38 6d a2 15 b7 a2 08 bd b7
       3.1789787e-05 5.783174e-05 -8.91891e-06 -2.2534576e-05
000090 b9 b4 02 36 55 dd 27 39 ca cd 0a 38 e4 ee 8c b6
       1.9476704e-06 0.00016008814 3.309342e-05 -4.2001357e-06
0000a0 9d a3 d9 38 e9 15 77 b5 44 73 11 38 25 31 1a b6
       0.00010377842 -9.2046554e-07 3.4678043e-05 -2.2976394e-06
0000b0 04 86 ab b7 c6 07 3f 38 9b da 4a 34 dd a6 2c 38
       -2.0447194e-05 4.554519e-05 1.8892244e-07 4.11634e-05
0000c0 7e f8 00 b8 fb 6a b4 37 2a 43 2f 37 57 e8 30 b6
       -3.0749005e-05 2.1507489e-05 1.0446451e-05 -2.6361283e-06
0000d0 a5 f3 26 b7 da 3a 4f 37 36 ef 16 38 27 14 81 37
       -9.951099e-06 1.2351864e-05 3.598557e-05 1.5387383e-05
0000e0 a7 a6 d8 36 06 b8 df b5 cc f4 a3 b6 5d 40 9c b7
       6.4567025e-06 -1.6668353e-06 -4.8862767e-06 -1.862662e-05
0000f0 78 00 69 37 b4 5b 94 36 ed 0d 60 b8 32 15 5c b8
       1.3887991e-05 4.4214194e-06 -5.341873e-05 -5.2471827e-05
000100 78 08 0a 38 ea 0b d7 36 7c a7 2f b6 80 66 9a b8
       3.290965e-05 6.4088863e-06 -2.617452e-06 -7.362384e-05
000110 de 69 6e b6 8c 98 06 36 1f 1b 3f 37 22 18 3a 38
       -3.5526386e-06 2.005635e-06 1.1390802e-05 4.436833e-05
000120 b5 06 c7 37 ce f7 be 36 43 bc dc 36 f9 c6 00 37
       2.3725772e-05 5.6912895e-06 6.5784275e-06 7.6757215e-06
000130 8a c3 73 37 ed 48 72 36 b7 1a 60 38 d7 6b 2d b6
       1.4529456e-05 3.6103258e-06 5.3430642e-05 -2.584178e-06
000140 fc 78 8c 37 55 0d cd 37 54 92 0b 38 34 28 63 35
       1.6745638e-05 2.4444113e-05 3.327646e-05 8.4622593e-07
000150 6f ad e0 b6 c0 74 bc b7 10 cc e9 36 de aa 3f 37
       -6.6959105e-06 -2.2465712e-05 6.967697e-06 1.142427e-05
000160 1a 34 58 38 09 6a fe b8 cb 8c 51 37 c5 c4 47 b8
       5.1546936e-05 -0.000121314144 1.2490152e-05 -4.7628553e-05
000170 3a 75 0a 37 c7 ab 9f b7 00 c8 bd 37 85 58 69 b7
       8.252735e-06 -1.9034267e-05 2.2623688e-05 -1.3908492e-05

weight f4 [96, 96]
000000 be d7 46 38 49 d5 40 38 d7 f1 b1 38 9b 31 45 38
       4.7407804e-05 4.5975004e-05 8.485064e-05 4.701466e-05
000010 53 0c 96 38 80 47 2f 38 2a 1e 24 38 76 43 c5 38
       7.154853e-05 4.178984e-05 3.912874e-05 9.4062576e-05
000020 dc d1 46 38 44 c2 ac 37 72 53 39 38 a9 e7 3b 38
       4.7402325e-05 2.059446e-05 4.418515e-05 4.4800025e-05
000030 83 39 26 38 27 dd 47 38 2c a0 42 38 dc 5e 28 38
       3.9631046e-05 4.765126e-05 4.6402376e-05 4.0142666e-05
000040 e9 57 a6 36 d3 20 10 37 de 36 3f 38 ef 06 ff b5
       4.9574196e-06 8.590711e-06 4.5589048e-05 -1.9000998e-06
000050 e1 6f 2f 38 7c 0f 27 38 bb a8 23 38 ea 31 3d 38
       4.1827447e-05 3.9830324e-05 3.901937e-05 4.5107598e-05
000060 fd 69 c0 b7 d2 ec 9e 38 f5 e3 44 38 e7 f3 4e 38
       -2.2937538e-05 7.578138e-05 4.6942343e-05 4.934138e-05
000070 da 46 99 38 42 5f 2a 38 ea 16 9c b7 06 43 25 38
       7.308806e-05 4.0619874e-05 -1.860732e-05 3.9401486e-05
000080 ee dd 36 38 d3 94 c4 38 98 c6 26 38 92 a6 09 37
       4.359887e-05 9.373729e-05 3.976244e-05 8.204619e-06
000090 b5 81 42 38 72 2c 27 38 1a 65 47 38 50 79 44 38
       4.6374003e-05 3.9857296e-05 4.7539455e-05 4.6843023e-05
0000a0 92 3f c1 38 dc 56 35 38 d1 68 3f 38 ff 20 2d 38
       9.214798e-05 4.3234657e-05 4.5635566e-05 4.1277144e-05
0000b0 19 d0 b3 36 3c 86 3d 38 2d 5e 48 38 a1 b8 2f 38
       5.3588415e-06 4.5186127e-05 4.7771424e-05 4.18952e-05
0000c0 3d 06 d2 38 cc e7 45 38 d7 3e 27 38 07 b1 24 38
       0.00010014742 4.7184338e-05 3.9874427e-05 3.9265517e-05
0000d0 fa e6 93 b7 e9 50 3d 38 6d bf 40 38 6a e8 31 38
       -1.7631322e-05 4.5136465e-05 4.5954646e-05 4.241654e-05
0000e0 2c 8f a8 37 80 4b 4c 38 28 5e b8 36 c9 38 7b b7
       2.009383e-05 4.8707705e-05 5.4945885e-06 -1.4973987e-05
0000f0 6d 56 2e 38 60 03 30 38 83 0f 41 38 69 7b a6 b7
       4.1565323e-05 4.1964813e-05 4.6029232e-05 -1.984621e-05
000100 5a c7 3a 37 98 83 22 38 a5 37 3a 38 c1 27 39 38
       1.1132879e-05 3.8746366e-05 4.439768e-05 4.414446e-05
000110 03 03 31 38 60 1c 48 38 4c b1 ad 38 7c b7 f7 37
       4.2202893e-05 4.7710142e-05 8.282307e-05 2.9530136e-05
000120 72 9a 31 38 37 b0 80 35 af 31 47 38 4a e9 31 38
       4.2343927e-05 9.588028e-07 4.749157e-05 4.2417356e-05
000130 af 8e 22 37 ba 15 48 38 6d 4a 2f 36 46 3d 27 38
       9.689174e-06 4.770395e-05 2.6120354e-06 3.9872968e-05
000140 74 0b 46 38 c7 1d 35 38 e0 11 01 38 9b 8f 22 38
       4.7217545e-05 4.3181495e-05 3.0772644e-05 3.8757553e-05
000150 af 64 45 38 09 87 38 38 a1 91 22 38 ef 49 b2 b7
       4.706223e-05 4.399478e-05 3.8759437e-05 -2.1253682e-05
000160 09 eb 32 38 3b 7d 9f 38 c1 e1 47 38 46 d8 c4 38
       4.26574e-05 7.605037e-05 4.7655547e-05 9.3862924e-05
000170 c9 99 22 38 89 a0 44 38 72 ed d7 b5 b1 0a 23 38
       3.8767033e-05 4.687955e-05 -1.6087854e-06 3.8872186e-05
000180 93 dd 97 38 1b 20 38 39 0d 9f 22 39 0f 73 d6 38
       7.2415125e-05 0.00017559568 0.00015508775 0.000102257465
000190 8d 9f 08 39 22 ed 1f 39 96 1b 73 38 bc b8 2c 39
       0.00013029408 0.0001525176 5.7961406e-05 0.00016472017
0001a0 55 d0 22 39 9b 33 1c 39 84 4e cb 38 ab da 40 39
       0.00015527134 0.00014896544 9.694419e-05 0.00018392007
0001b0 bc 69 1b 39 30 90 4d 39 f8 01 1d 39 63 c3 38 39
       0.00014821341 0.00019604038 0.0001497342 0.00017620395
0001c0 62 08 36 39 80 36 9f 38 51 ad 26 39 d8 60 3a 38
       0.00017359995 7.591862e-05 0.00015895559 4.443605e-05
0001d0 42 d2 49 39 05 0a c9 38 e5 cb 39 39 16 e6 83 38
       0.00019247181 9.586293e-05 0.00017718931 6.2894236e-05
0001e0 4a 7b 04 39 ce 24 1e 39 08 91 74 38 87 37 1c 39
       0.0001263443 0.00015081765 5.8309204e-05 0.00014898005
0001f0 18 32 36 39 bb e2 1b 39 61 fb 15 39 54 1d 30 39
       0.00017375534 0.00014866416 0.00014303393 0.00016795594
000200 d7 4b 1d 39 19 f5 a5 38 09 30 37 38 fa b0 49 39
       0.0001500094 7.913466e-05 4.3675336e-05 0.00019234783
000210 b0 7b 37 39 d6 64 42 39 d9 82 52 38 34 53 15 39
       0.00017498317 0.00018538846 5.0189763e-05 0.00014240743
000220 9e 64 4c 39 89 73 b6 38 4f c0 42 39 d0 55 25 39
       0.00019492439 8.6999564e-05 0.00018572922 0.00015767594
000230 f4 b8 b1 38 99 c1 f1 38 76 68 d6 38 41 69 d4 38
       8.474468e-05 0.00011527836 0.000102237726 0.00010128553
000240 5c f4 37 39 4a 0e 34 38 88 04 01 39 83 99 34 38
       0.00017543271 4.2928652e-05 0.00012304087 4.3058313e-05
000250 74 be ef 38 b6 a8 e7 38 28 37 0a 39 70 87 33 38
       0.00011431883 0.00011046363 0.00013181253 4.280306e-05
000260 69 ea ed 38 da 1d 04 39 28 3a 34 38 b8 4b 1d 39
       0.00011344703 0.00012599622 4.2969506e-05 0.00015000894
000270 5b 42 f2 38 62 6b 87 38 11 69 2c 39 5b d8 e2 38
       0.00011551819 6.457303e-05 0.00016442339 0.00010816819
000280 46 f0 11 39 1f 20 a5 38 16 31 0f 39 df 8e 00 39
       0.00013917786 7.873796e-05 0.00013655829 0.00012260255
000290 a0 39 ad 38 3b f8 1f 39 89 3a 4b 39 25 49 1c 39
       8.260016e-05 0.00015255895 0.00019381395 0.00014904568
0002a0 af 1e 15 39 80 90 33 38 6b a8 20 39 9e 19 25 39
       0.00014221178 4.28115e-05 0.0001532153 0.0001574517
0002b0 f3 40 1c 39 70 b0 3f 39 84 7b 50 39 7f 5b 34 38
       0.00014901515 0.00018280908 0.00019882439 4.3000557e-05
0002c0 a9 eb 4a 39 4d 3c 32 39 5f 7d 2d 39 4b e1 22 39
       0.00019352011 0.00016997867 0.0001654527 0.00015533452
0002d0 99 c0 3e 39 f7 0a 1b 39 37 fb 1b 39 39 d3 fd 38
       0.0001819156 0.00014786037 0.00014875537 0.000121033234
0002e0 a0 be f6 38 35 fd 46 39 ee 43 3d 39 80 92 2d 39
       0.00011765701 0.00018977078 0.0001804975 0.00016553141
0002f0 e0 49 35 38 24 f4 68 38 bc 87 07 39 2d 7a 7a 38
       4.3222564e-05 5.5540484e-05 0.00012925168 5.971843e-05
000300 00 32 2e b8 f3 7e 7b b6 ca 2c 6b b7 29 ff 8b 38
       -4.15314e-05 -3.7475809e-06 -1.401752e-05 6.675564e-05
000310 d9 2d 77 38 fe 75 4a b7 81 85 37 b6 86 c6 a0 b7
       5.8932088e-05 -1.206761e-05 -2.7346834e-06 -1.9165931e-05
000320 17 57 7a 37 48 bd 00 b7 40 01 25 b7 a4 63 7f 36
       1.4921438e-05 -7.673465e-06 -9.835057e-06 3.805596e-06
000330 85 f3 74 b7 54 ee 3a 37 88 4a db 37 5b ca 14 b7
       -1.4600232e-05 1.1141954e-05 2.614154e-05 -8.868602e-06
000340 67 3d a0 38 c3 05 8d 38 97 1d 8d b6 62 66 dc b5
       7.6408316e-05 6.724477e-05 -4.205572e-06 -1.6421075e-06
000350 64 d2 5f b7 37 61 84 37 50 29 88 b7 a6 ec 2a b7
       -1.3340821e-05 1.5780895e-05 -1.6231701e-05 -1.0187889e-05
000360 22 46 64 b7 b0 bf 58 b7 50 9c 12 b7 3a 1e 13 38
       -1.3606188e-05 -1.2919234e-05 -8.7386725e-06 3.507568e-05
000370 d3 21 ee 37 6a 59 5c 38 89 60 04 b7 62 4c ba b5
       2.8387562e-05 5.253536e-05 -7.890289e-06 -1.388031e-06
000380 1e 49 39 b8 ec b1 6b b7 8e f1 02 38 b7 43 37 b8
       -4.4175533e-05 -1.4048517e-05 3.121938e-05 -4.3693664e-05
000390 46 64 0a b8 ee 0a 2b b7 ec a9 61 b7 98 c0 a8 37
       -3.299515e-05 -1.0194939e-05 -1.3450608e-05 2.0116844e-05
0003a0 5a 9e 75 36 95 da 7d b6 f9 a9 fd b6 70 0c 4d 37
       3.6600018e-06 -3.782717e-06 -7.559775e-06 1.2221848e-05
0003b0 5f 19 68 b7 8b 97 96 38 12 30 bf 37 eb 01 9b 38
       -1.3834185e-05 7.1807845e-05 2.2791359e-05 7.391333e-05
0003c0 13 24 e5 b7 2c ea 46 b7 cf dc 61 38 30 a7 c0 b7
       -2.7315726e-05 -1.1856242e-05 5.3849824e-05 -2.2966036e-05
0003d0 d9 8a 53 b8 69 6a 6e b7 36 16 38 38 60 45 36 38
       -5.0435632e-05 -1.4210681e-05 4.3889704e-05 4.3456792e-05
0003e0 2d 85 30 b7 86 c2 71 38 f7 c5 a6 b7 99 2f ef b6
       -1.0521425e-05 5.764004e-05 -1.9880927e-05 -7.128296e-06
0003f0 68 49 e9 b6 98 40 bc 37 97 76 cf 37 11 9f 95 38
       -6.9524867e-06 2.2441425e-05 2.4731546e-05 7.134502e-05
