Graph Neural Network/Models/GraphConv_LSTM-D4-F1-mean.pth (torch, 765002 bytes, 23 tensors)

weight_ih_l0 f4 [384, 96]
0	0x3c666ae5	0.014063572
1	0x3c666abf	0.014063536
2	0x3c666ae8	0.014063574
3	0x3c666abd	0.014063534
4	0x3c666aad	0.014063519
5	0x3c666ae5	0.014063572
6	0x3c666af4	0.014063586
7	0x3c666aee	0.01406358
8	0x3c666adb	0.014063562
9	0x3c666ae3	0.01406357
10	0x3c666abf	0.014063536
11	0x3c666aeb	0.014063577
12	0x3c666aed	0.014063579
13	0x3c666aec	0.014063578
14	0x3c666ae4	0.014063571
15	0x3c666ade	0.014063565
16	0x3c666ae6	0.0140635725
17	0x3c666ac1	0.014063538
18	0x3c666aee	0.01406358
19	0x3c666ae8	0.014063574
20	0x3c666aed	0.014063579
21	0x3c666ac8	0.014063545
22	0x3c666adb	0.014063562
23	0x3c666aeb	0.014063577
24	0x3c666aeb	0.014063577
25	0x3c666adc	0.014063563
26	0x3c666af0	0.014063582
27	0x3c666ac7	0.014063544
28	0x3c666ae5	0.014063572
29	0x3c666ac7	0.014063544
30	0x3c666af2	0.014063584
31	0x3c666aea	0.014063576
32	0x3c666aca	0.014063546
33	0x3c666af2	0.014063584
34	0x3c666aeb	0.014063577
35	0x3c666ad0	0.014063552
36	0x3c666aea	0.014063576
37	0x3c666ae3	0.01406357
38	0x3c666af4	0.014063586
39	0x3c666aeb	0.014063577
40	0x3c666af4	0.014063586
41	0x3c666ac9	0.0140635455
42	0x3c666aea	0.014063576
43	0x3c666aeb	0.014063577
44	0x3c666ad5	0.014063557
45	0x3c666ae4	0.014063571
46	0x3c666af4	0.014063586
47	0x3c666ade	0.014063565
48	0x3c666ae1	0.014063568
49	0x3c666aeb	0.014063577
50	0x3c666af4	0.014063586
51	0x3c666ad0	0.014063552
52	0x3c666ae4	0.014063571
53	0x3c666ae8	0.014063574
54	0x3c666af4	0.014063586
55	0x3c666aea	0.014063576
56	0x3c666abd	0.014063534
57	0x3c666aed	0.014063579
58	0x3c666ae3	0.01406357
59	0x3c666af7	0.014063588
60	0x3c666ab5	0.014063527
61	0x3c666af4	0.014063586
62	0x3c666af4	0.014063586
63	0x3c666af4	0.014063586
64	0x3c666add	0.014063564
65	0x3c666ad6	0.014063558
66	0x3c666af2	0.014063584
67	0x3c666abc	0.014063533
68	0x3c666add	0.014063564
69	0x3c666af4	0.014063586
70	0x3c666ac8	0.014063545
71	0x3c666ae4	0.014063571
72	0x3c666af4	0.014063586
73	0x3c666af4	0.014063586
74	0x3c666ae6	0.0140635725
75	0x3c666ac8	0.014063545
76	0x3c666aee	0.01406358
77	0x3c666ab1	0.014063523
78	0x3c666af4	0.014063586
79	0x3c666ad6	0.014063558
80	0x3c666ac9	0.0140635455
81	0x3c666ae3	0.01406357
82	0x3c666aed	0.014063579
83	0x3c666af4	0.014063586
84	0x3c666aea	0.014063576
85	0x3c666aad	0.014063519
86	0x3c666ad0	0.014063552
87	0x3c666af4	0.014063586
88	0x3c666af5	0.0140635865
89	0x3c666af4	0.014063586
90	0x3c666aca	0.014063546
91	0x3c666ae4	0.014063571
92	0x3c666af5	0.0140635865
93	0x3c666ae2	0.014063569
94	0x3c666ae1	0.014063568
95	0x3c666abd	0.014063534
96	0xbb8b023b	-0.0042422093
97	0xbb8afeeb	-0.0042418144
98	0xbb8afe08	-0.0042417087
99	0xbb8b06a0	-0.004242733
100	0xbb8b0641	-0.004242689
101	0xbb8b0678	-0.0042427145
102	0xbb8aff63	-0.0042418703
103	0xbb8b0264	-0.0042422283
104	0xbb8b03c4	-0.0042423923
105	0xbb8b041f	-0.0042424346
106	0xbb8b00ac	-0.0042420235
107	0xbb8affb9	-0.0042419103
108	0xbb8b0420	-0.004242435
109	0xbb8b0641	-0.004242689
110	0xbb8afd8f	-0.0042416523
111	0xbb8b05ec	-0.0042426493
112	0xbb8b0693	-0.004242727
113	0xbb8b061d	-0.004242672
114	0xbb8b0389	-0.004242365
115	0xbb8b0665	-0.0042427056
116	0xbb8b064f	-0.0042426954
117	0xbb8b0513	-0.0042425483
118	0xbb8b05f6	-0.004242654
119	0xbb8b049a	-0.004242492
120	0xbb8b067f	-0.0042427178
121	0xbb8b026c	-0.004242232
122	0xbb8b01f7	-0.0042421776
123	0xbb8b0652	-0.004242697
124	0xbb8afdd1	-0.004241683
125	0xbb8b065e	-0.0042427024
126	0xbb8b042d	-0.004242441
127	0xbb8b01e6	-0.0042421697
128	0xbb8b0485	-0.004242482
129	0xbb8b069f	-0.0042427327
130	0xbb8b0571	-0.004242592
131	0xbb8b034c	-0.0042423364
132	0xbb8b0513	-0.0042425483
133	0xbb8b04b9	-0.0042425063
134	0xbb8afdc1	-0.0042416756
135	0xbb8afdea	-0.0042416947
136	0xbb8b068f	-0.004242725
137	0xbb8b0232	-0.004242205
138	0xbb8b060f	-0.0042426656
139	0xbb8aff5b	-0.0042418665
140	0xbb8b03cb	-0.0042423955
141	0xbb8b0670	-0.004242711
142	0xbb8b05ea	-0.0042426484
143	0xbb8b0537	-0.004242565
144	0xbb8b0577	-0.004242595
145	0xbb8b0565	-0.0042425864
146	0xbb8b06a1	-0.0042427336
147	0xbb8b056c	-0.0042425897
148	0xbb8afeba	-0.0042417916
149	0xbb8b05b2	-0.0042426223
150	0xbb8b0618	-0.00424267
151	0xbb8b0660	-0.0042427033
152	0xbb8b0662	-0.0042427042
153	0xbb8afd3b	-0.004241613
154	0xbb8b068f	-0.004242725
155	0xbb8b05d6	-0.004242639
156	0xbb8b03f0	-0.0042424127
157	0xbb8b069f	-0.0042427327
158	0xbb8b06a1	-0.0042427336
159	0xbb8b0511	-0.0042425473
160	0xbb8b0298	-0.0042422526
161	0xbb8b0565	-0.0042425864
162	0xbb8b0689	-0.0042427224
163	0xbb8afcfd	-0.0042415843
164	0xbb8b01ba	-0.004242149
165	0xbb8b03da	-0.0042424025
166	0xbb8aff37	-0.0042418498
167	0xbb8affb9	-0.0042419103
168	0xbb8b0669	-0.0042427075
169	0xbb8b052f	-0.0042425613
170	0xbb8b06a5	-0.0042427354
171	0xbb8b059a	-0.004242611
172	0xbb8b050a	-0.004242544
173	0xbb8b066d	-0.0042427094
174	0xbb8b069e	-0.004242732
175	0xbb8b043b	-0.0042424477
176	0xbb8b0696	-0.0042427285
177	0xbb8b04fe	-0.0042425385
178	0xbb8b00c8	-0.0042420365
179	0xbb8b0355	-0.0042423406
180	0xbb8b04b3	-0.0042425035
181	0xbb8b0585	-0.0042426013
182	0xbb8b068b	-0.0042427233
183	0xbb8b02e4	-0.004242288
184	0xbb8b052b	-0.0042425594
185	0xbb8b0528	-0.004242558
186	0xbb8b0568	-0.004242588
187	0xbb8b069e	-0.004242732
188	0xbb8b061d	-0.004242672
189	0xbb8b03ef	-0.0042424123
190	0xbb8aff1f	-0.0042418386
191	0xbb8b06a1	-0.0042427336
192	0x3ca3f4ab	0.020014128
193	0x3ca3f4ae	0.020014133
194	0x3ca3f4a6	0.020014118
195	0x3ca3f4ab	0.020014128
196	0x3ca3f4aa	0.020014126
197	0x3ca3f4ae	0.020014133
198	0x3ca3f4ae	0.020014133
199	0x3ca3f4ac	0.02001413
200	0x3ca3f4af	0.020014135
201	0x3ca3f4ad	0.020014131
202	0x3ca3f4ae	0.020014133
203	0x3ca3f4a8	0.020014122
204	0x3ca3f4ae	0.020014133
205	0x3ca3f4a6	0.020014118
206	0x3ca3f4ae	0.020014133
207	0x3ca3f4ad	0.020014131
208	0x3ca3f4af	0.020014135
209	0x3ca3f4ad	0.020014131
210	0x3ca3f4ad	0.020014131
211	0x3ca3f4ad	0.020014131
212	0x3ca3f4a9	0.020014124
213	0x3ca3f4a9	0.020014124
214	0x3ca3f4a9	0.020014124
215	0x3ca3f4ac	0.02001413
216	0x3ca3f4ae	0.020014133
217	0x3ca3f4ae	0.020014133
218	0x3ca3f4ad	0.020014131
219	0x3ca3f4a9	0.020014124
220	0x3ca3f4ad	0.020014131
221	0x3ca3f4ad	0.020014131
222	0x3ca3f4a9	0.020014124
223	0x3ca3f4ae	0.020014133
224	0x3ca3f4aa	0.020014126
225	0x3ca3f4a9	0.020014124
226	0x3ca3f4aa	0.020014126
227	0x3ca3f4ae	0.020014133
228	0x3ca3f4a9	0.020014124
229	0x3ca3f4ad	0.020014131
230	0x3ca3f49f	0.020014105
231	0x3ca3f4ac	0.02001413
232	0x3ca3f4ab	0.020014128
233	0x3ca3f4a7	0.02001412
234	0x3ca3f4a9	0.020014124
235	0x3ca3f4a8	0.020014122
236	0x3ca3f4aa	0.020014126
237	0x3ca3f4ac	0.02001413
238	0x3ca3f4ad	0.020014131
239	0x3ca3f4ad	0.020014131
240	0x3ca3f4ae	0.020014133
241	0x3ca3f4a8	0.020014122
242	0x3ca3f4a8	0.020014122
243	0x3ca3f4aa	0.020014126
244	0x3ca3f4a9	0.020014124
245	0x3ca3f49f	0.020014105
246	0x3ca3f4ad	0.020014131
247	0x3ca3f4ac	0.02001413
248	0x3ca3f4af	0.020014135
249	0x3ca3f4a7	0.02001412
250	0x3ca3f4ac	0.02001413
251	0x3ca3f4ad	0.020014131
252	0x3ca3f4a3	0.020014113
253	0x3ca3f4ac	0.02001413
254	0x3ca3f4ae	0.020014133
255	0x3ca3f4ad	0.020014131

weight_hh_l0 f4 [384, 96]
0	0xba764467	-0.0009394348
1	0xba15f29d	-0.0005720051
2	0xbaa1e4ad	-0.0012351476
3	0x3b15b8d7	0.0022845769
4	0x3baca64a	0.0052688466
5	0x3aa8b289	0.001287059
6	0xba7ae694	-0.0009571102
7	0x3a9f25e5	0.0012142031
8	0x3ab6d9cb	0.0013950405
9	0x3c0db227	0.008648432
10	0x3b33a97a	0.0027414248
11	0x3a7d95b7	0.00096734933
12	0xbabe771a	-0.0014531345
13	0xba2ba203	-0.0006547274
14	0xb9bcf79b	-0.00036042635
15	0xbaae9189	-0.0013318519
16	0x3917e5e8	0.00014486129
17	0x3c7845f7	0.0151534
18	0xba04a0c2	-0.0005059355
19	0xbb14f27c	-0.002272754
20	0xbb257699	-0.0025247692
21	0x3a5b2a96	0.0008360533
22	0x39fc5524	0.0004812862
23	0xba805ea8	-0.0009793835
24	0xb9084f8d	-0.00012999606
25	0xbca5a631	-0.020220848
26	0xbc1b79e5	-0.009489511
27	0x3aa45806	0.001253844
28	0x3a963d58	0.0011462374
29	0xbb552a57	-0.0032526457
30	0xbb40f710	-0.0029444136
31	0x38a9c486	8.095153e-05
32	0x3aada8be	0.0013249142
33	0x3b0a790c	0.0021129278
34	0xba9f0f61	-0.001213532
35	0x3aab1aa9	0.001305421
36	0x3b28ecbd	0.0025775873
37	0xbadad298	-0.0016694842
38	0xbb18eefa	-0.00233358
39	0x3aeae1c7	0.001792007
40	0x3a04ea87	0.00050703477
41	0x3c5a8d03	0.013339284
42	0x3b2ae111	0.0026074091
43	0x3bb63530	0.0055605397
44	0xb990bfc3	-0.00027608694
45	0x3a527679	0.0008028518
46	0xbacebcba	-0.0015772798
47	0x3a93c031	0.0011272487
48	0x3bdc0e29	0.006715555
49	0x3a140471	0.0005646414
50	0x3aced548	0.0015780116
51	0x3b4d9c89	0.003137382
52	0xb9e3ea50	-0.0004347139
53	0x3b95ee25	0.004575508
54	0x39bd28d2	0.00036079303
55	0x3b263d5b	0.002536616
56	0x3a8b4388	0.0010624984
57	0xba375781	-0.0006993935
58	0x3c25320e	0.010082735
59	0x3a9f190e	0.0012138204
60	0xb9dd6332	-0.0004222631
61	0xbaacef7d	-0.0013193932
62	0x3b57cf1e	0.0032929848
63	0x3c8481ff	0.016175268
64	0x3a8d9030	0.0010800418
65	0x3b4cd15d	0.003125272
66	0x398b45fc	0.00026564288
67	0x3b11e29c	0.0022260314
68	0xbb9c7a29	-0.004775305
69	0x3ad59229	0.001629417
70	0xb9dd6787	-0.0004222954
71	0x3b4972cb	0.0030738588
72	0x3b54308b	0.0032377567
73	0x3b250f82	0.0025186245
74	0x38c7fe5f	9.53644e-05
75	0xbac6d50e	-0.0015169696
76	0xba56372a	-0.0008171672
77	0x3b509dd7	0.003183236
78	0xba8d12ae	-0.0010763013
79	0x3b0f3f0a	0.0021857643
80	0xbb052e2e	-0.0020321715
81	0x3a9c83ed	0.0011941172
82	0xba880a40	-0.0010379031
83	0x3c9ed3ff	0.019388197
84	0xbab05352	-0.0013452566
85	0xba170496	-0.0005760876
86	0xba1e935b	-0.00060491794
87	0xbb56dda4	-0.0032785917
88	0xbc62e593	-0.01384868
89	0x3ab51311	0.0013814886
90	0x3aca5edd	0.0015439648
91	0xb9bb55e6	-0.0003573142
92	0xba508016	-0.00079536566
93	0xbb0e4ba7	-0.0021712573
94	0x3b9dd6e2	0.004816876
95	0x3a60793b	0.00085629866
96	0xbb1a9c1e	-0.0023591588
97	0xb9e1bf9d	-0.00043058107
98	0xbb21d557	-0.002469381
99	0xb9426f36	-0.00018542711
100	0x3a94305a	0.0011305914
101	0x39cca053	0.00039029363
102	0xb974acf6	-0.00023334086
103	0x39b4d9dc	0.00034494593
104	0x3a176d05	0.0005776438
105	0x3b1e7d70	0.0024183653
106	0x3aa9b7a8	0.0012948411
107	0x399826d1	0.0002902062
108	0xba09c3b9	-0.00052553
109	0xba027d12	-0.00049777434
110	0xbb2429ee	-0.0025049406
111	0xb92ff06f	-0.00016778869
112	0x3b1ad622	0.0023626168
113	0x3b2efa01	0.0026699307
114	0x3b2ded32	0.0026539085
115	0xba160e23	-0.00057241524
116	0xbb162b1b	-0.0022913876
117	0x3a105af4	0.0005506717
118	0xb72f268f	-1.04397905e-05
119	0xba10f8c3	-0.00055302324
120	0xbb21b7dc	-0.002467624
121	0xbb3900e2	-0.0028229286
122	0xbb24b31d	-0.0025131174
123	0x3a4cb5b4	0.00078090583
124	0x3b09d0e0	0.002102904
125	0xbb098faa	-0.0020990171
126	0xbaab1975	-0.0013053851
127	0x3858fc8d	5.173362e-05
128	0x3acc2a3a	0.0015576549
129	0x39aae628	0.00032596407
130	0xbb4bbc92	-0.0031087738
131	0x39df2349	0.00042560164
132	0x3a1cda47	0.00059834536
133	0xb96ac41a	-0.00022389033
134	0xba61ca2d	-0.00086131954
135	0x3b30d10f	0.0026980077
136	0x392ec1fc	0.00016666198
137	0x3b13ee00	0.002257228
138	0x3aa1b652	0.0012337661
139	0x3b227ed6	0.0024794838
140	0xba154ce6	-0.00056953577
141	0x39bddd18	0.00036213617
142	0xbaa23fb8	-0.0012378609
143	0x3ad45363	0.0016199168
144	0x3aedc29f	0.0018139667
145	0x3aa6b18b	0.0012717707
146	0x3a3730e0	0.0006988179
147	0x3a5f5ef9	0.0008520927
148	0xba056ead	-0.00050900393
149	0x3b29f153	0.0025931194
150	0xb9277f3f	-0.00015973764
151	0x3a82483b	0.0009939739
152	0x39cf1e67	0.00039504768
153	0xbaef7954	-0.0018270412
154	0x3b1d6010	0.0024013557
155	0x3a3fe3d2	0.00073200196
156	0xb9ad93cd	-0.00033107252
157	0xbab0918b	-0.001347111
158	0x3aac0117	0.0013122883
159	0x3b2d166c	0.002641107
160	0x3b0d0bbe	0.0021521891
161	0x3a515b89	0.0007986357
162	0x3b344d49	0.0027511886
163	0x39978d08	0.0002890604
164	0xbb0c41ef	-0.0021401604
165	0x3a130351	0.0005608099
166	0xbaf4a974	-0.0018666224
167	0x3a01fa1f	0.00049582304
168	0x3a8a429c	0.0010548416
169	0x3b07b109	0.0020704886
170	0xb9354bb8	-0.00017289713
171	0xb9f216d2	-0.0004617484
172	0xba100682	-0.0005494134
173	0x3acb9eae	0.0015534961
174	0xbb167d8d	-0.0022963018
175	0x3b034ab7	0.0020033547
176	0xba888cd6	-0.0010417949
177	0x3a196a27	0.0005852305
178	0xbab93bd3	-0.0014132209
179	0x3b2a64fc	0.0026000133
180	0xbb14ca8a	-0.002270373
181	0xb7a62eec	-1.9810592e-05
182	0x38c5c48e	9.430303e-05
183	0xbb165c61	-0.0022943246
184	0xbb2c11cb	-0.0026255723
185	0x3a4fef93	0.00079321227
186	0x3a0cf9ee	0.00053778186
187	0xb8cfb7c4	-9.904758e-05
188	0xbb0a2088	-0.002107652
189	0xbb29ca31	-0.002590787
190	0xba0d1c7a	-0.00053829665
191	0x3b1cadd5	0.0023907323
192	0xba92152f	-0.0011145229
193	0xbaeb21ee	-0.0017939189
194	0xbb467ed2	-0.0030287993
195	0xba031962	-0.0005001036
196	0x3c593a73	0.013258564
197	0x3b9739c8	0.0046150424
198	0xbbb2871f	-0.0054482366
199	0x3b9222ae	0.0044597005
200	0x3ba485d5	0.005020837
201	0x3bf0357f	0.007330596
202	0x3be04d2b	0.0068451366
203	0x3b89609f	0.0041924263
204	0xbba618db	-0.005068881
205	0xba74d028	-0.0009338879
206	0x39374e1f	0.00017481342
207	0xbb8f9d7e	-0.004382788
208	0xba902e4b	-0.0011000125
209	0x3cb4dad1	0.022076996
210	0x3b660ccd	0.0035102845
211	0xbbce52a6	-0.0062964736
212	0xbba01a3f	-0.0048859413
213	0x3b5553d9	0.0032551198
214	0x3ae8c39f	0.0017758495
215	0xbafa2e31	-0.0019087252
216	0x3a710fb8	0.00091957627
217	0xbd05ee3a	-0.032697894
218	0xbc29a016	-0.010353109
219	0x3b9e9ac6	0.004840228
220	0xba2bf129	-0.0006559068
221	0x3a839303	0.001003832
222	0xbc256589	-0.010095009
223	0xb9b258f4	-0.0003401708
224	0x3b7a72ce	0.0038215402
225	0x3bfe31b0	0.007757388
226	0xbb86b130	-0.004110478
227	0x3ba0978a	0.0049008774
228	0x3bc14ca2	0.005899028
229	0xbbbf61a2	-0.005840496
230	0xbc0d05d3	-0.008607346
231	0x3be70ec6	0.0070513217
232	0x3b8b7f9d	0.004257156
233	0x3c6d96e0	0.014501303
234	0x3c175bd5	0.009238203
235	0x3c81ecd1	0.015859993
236	0xbabda77f	-0.0014469473
237	0x3bc4e94c	0.0060092565
238	0xbb78f004	-0.0037984857
239	0x3a06c5ac	0.000514115
240	0xbc202bf1	-0.009776101
241	0x3b1d15ec	0.0023969365
242	0x3bc015a8	0.0058619566
243	0x3c276f6a	0.010219434
244	0xbb5764a4	-0.0032866383
245	0x3c4a8642	0.012361111
246	0x3a830fb8	0.0009999191
247	0x3bd9f4a5	0.0066514784
248	0x3b8ffa30	0.0043938383
249	0x3b105c0d	0.0022027523
250	0x3c16610e	0.009178413
251	0x3b17ee05	0.0023182642
252	0xba473252	-0.0007598746
253	0xbb9e4451	-0.0048299213
254	0x3c3630e2	0.011120053
255	0x3cbdb4ab	0.023157438

bias_ih_l0 f4 [384]
0	0xbba34d06	-0.004983547
1	0xbb46d4e9	-0.0030339307
2	0x3c88ce38	0.016699895
3	0x3c881307	0.016610635
4	0x3dac342a	0.08408387
5	0xbbaa9c61	-0.00520663
6	0xbc7edc58	-0.015555464
7	0xbb9ee3b9	-0.004848924
8	0xbb96ee64	-0.004606055
9	0x3c2b4ec9	0.010455796
10	0xbc051c40	-0.008124411
11	0xbb8b97c0	-0.0042600334
12	0xbb033a52	-0.0020023775
13	0xbbce9151	-0.006303944
14	0xbb093dd4	-0.0020941393
15	0xbb045113	-0.0020189926
16	0xbaf85c0b	-0.0018948329
17	0xbc224081	-0.009903074
18	0x3c9a9d3c	0.018873803
19	0xbb379623	-0.0028013072
20	0x3d1cffc9	0.038329873
21	0xbb05a687	-0.0020393447
22	0xbb42db08	-0.0029732604
23	0xbc20d2fc	-0.009815928
24	0xbad73f5e	-0.0016422083
25	0x3c824ba5	0.01590521
26	0xbc00e45b	-0.007866944
27	0xbb91ec31	-0.004453205
28	0xbbf3256c	-0.0074202325
29	0x3cac7937	0.021053893
30	0xbc0a097d	-0.008425114
31	0xbb4bae4e	-0.0031079235
32	0xbb9a07b8	-0.004700627
33	0xbb04b984	-0.0020252177
34	0x3c5853b9	0.013203555
35	0xbb8f1c65	-0.0043673986
36	0xbb107371	-0.0022041465
37	0xbb438492	-0.0029833657
38	0xbb9e64bc	-0.004833786
39	0x3cfd22e2	0.030900422
40	0xba8656ef	-0.0010249297
41	0xbc887977	-0.016659481
42	0xbbaf61d7	-0.0053522396
43	0xbc7b6606	-0.0153441485
44	0xbabb7d6c	-0.0014304346
45	0xbb6e6e11	-0.0036381523
46	0xbc611cdb	-0.01373979
47	0xbbe394de	-0.0069452366
48	0x3cb7f104	0.022453792
49	0xbc0a5b9a	-0.008444691
50	0xbb9e19c8	-0.0048248507
51	0xbc26ec5f	-0.010188191
52	0xbb5fa371	-0.0034124518
53	0x3e087ad0	0.13328099
54	0xbb3d9fa8	-0.0028934274
55	0xbbf2b373	-0.007406646
56	0xbb80b790	-0.0039281324
57	0xb93ff05b	-0.00018304719
58	0x3c2e0543	0.010621372
59	0xbb9dc68f	-0.00481493
60	0xbad4faa8	-0.0016249018
61	0xbcfe80a3	-0.031067198
62	0xbc1ba596	-0.009499928
63	0xbd283c5d	-0.041073192
64	0xbbe16b5d	-0.006879254
65	0xbc0292c8	-0.007969566
66	0x3be6ee4b	0.0070474497
67	0xbb9154d2	-0.00443516
68	0xbc6481b6	-0.013946941
69	0xbc0bfcab	-0.008544127
70	0x3c874f43	0.016517287
71	0xbb6d9b94	-0.0036256062
72	0xbb9a01c9	-0.00469992
73	0x3c053c4d	0.008132053
74	0xbb58a785	-0.0033058834
75	0xbb009230	-0.0019618385
76	0xbb9e0bcb	-0.004823183
77	0xbc1b1340	-0.009465039
78	0xb9c9bfb6	-0.00038480543
79	0x3c86dd18	0.016462848
80	0xbbca5118	-0.006174218
81	0xbbafb53e	-0.005362182
82	0xbc1ac1dd	-0.009445635
83	0xbd810665	-0.06300048
84	0x3c0c7f2c	0.008575242
85	0xbb82b60f	-0.003988988
86	0xbaa559f5	-0.001261531
87	0x3d2bf9a6	0.04198613
88	0x3d1f84f4	0.038945153
89	0xbb63d31c	-0.0034763282
90	0xbb11b8bf	-0.0022235361
91	0xbb4e77c2	-0.0031504487
92	0xbbaf4063	-0.0053482517
93	0x3d37bc9e	0.044857614
94	0xbc25cfef	-0.010120376
95	0xbb4130cf	-0.0029478555
96	0xbcd9c1d3	-0.02658168
97	0xbb7bc261	-0.003841542
98	0xbb5fcf92	-0.003415082
99	0x3daa363a	0.08311124
100	0x3e13a4eb	0.1441838
101	0xbbd86247	-0.0066035124
102	0x3d35050a	0.04419426
103	0xbbbadbe3	-0.005702482
104	0xbbd81e80	-0.0065954328
105	0x3daf72e2	0.08566834
106	0xbbfe7f7a	-0.0077666612
107	0xbb90f2e3	-0.0044234856
108	0xbc0fffd2	-0.00878902
109	0xbc131cfd	-0.008979079
110	0xbcd13e07	-0.025542272
111	0xbb22743e	-0.0024788524
112	0xbcd41584	-0.025889166
113	0x3dbefcf2	0.09325589
114	0x3e14bfef	0.14526342
115	0xbc04de8a	-0.008109698
116	0x3cb424dc	0.021990232
117	0xbb0b2df2	-0.0021237102
118	0xbb9ee8cd	-0.0048495294
119	0xbc470b40	-0.012148678
120	0xbcdba85a	-0.026813675
121	0x3dff6477	0.12470334
122	0x3d3b5dbb	0.045743685
123	0x3b5b5e36	0.0033472902
124	0xbcb09e62	-0.021559898
125	0xbc2bd9fd	-0.010488984
126	0xbc332abd	-0.010935483
127	0xbb5cd91d	-0.0033698746
128	0xbc0f6bdd	-0.008753744
129	0xbba81965	-0.0051299804
130	0x3c84df44	0.016219743
131	0xbba20515	-0.0049444535
132	0xbc10f27b	-0.008846874
133	0xbbb67ddc	-0.005569203
134	0xbbaeaa2c	-0.0053303447
135	0x3e07e4ca	0.1327087
136	0xba9e2da9	-0.0012068051
137	0x3dcef25a	0.10104819
138	0xbbce47c3	-0.0062951758
139	0xbc98139b	-0.018564036
140	0xbbc4f7c1	-0.00601098
141	0xbb86b1a2	-0.004110531
142	0x3c1af01e	0.009456662
143	0xbca4afb3	-0.020103311
144	0x3e82049e	0.25394148
145	0xbb002958	-0.0019555893
146	0xbbd02faf	-0.0063533406
147	0xbc5c1b0f	-0.013434186
148	0xbb8e41ea	-0.0043413537
149	0x3e140254	0.14454013
150	0xbb3ab81e	-0.002849109
151	0xbbe6ab41	-0.007039458
152	0xbba5283b	-0.0050401962
153	0xbc596075	-0.013267626
154	0x3d00223f	0.03128266
155	0xbc130804	-0.008974079
156	0xbbdb454d	-0.006691611
157	0x3c077d4d	0.00826962
158	0xbc4ad60f	-0.012380137
159	0x3de70b14	0.1128141
160	0xbcce5cee	-0.025190797
161	0xbc212a1e	-0.009836702
162	0x3b830e0d	0.0039994777
163	0xbbb0ac98	-0.0053916685
164	0xbc91de3e	-0.017806169
165	0xbc3132c1	-0.010815323
166	0x3a06480c	0.000512243
167	0xbbced0b2	-0.0063114995
168	0xbbb3f668	-0.0054920204
169	0xbab73652	-0.0013977981
170	0xbb735fa8	-0.0037135873
171	0xbb0c1e15	-0.0021380235
172	0xbbc8a519	-0.006123197
173	0xbc4d5532	-0.012532519
174	0xbcb82676	-0.022479277
175	0x3c8d4c63	0.017248338
176	0x3ca2d2ba	0.019875873
177	0xbbfd9add	-0.0077394084
178	0xbc812eb8	-0.015769348
179	0x3dcac88a	0.09901531
180	0xbc49b5f6	-0.012311449
181	0xbb8fe70f	-0.004391558
182	0xbbc0e865	-0.0058870786
183	0x3cdc6d57	0.026907606
184	0x3e4471e0	0.19184065
185	0xbba20d4a	-0.004945432
186	0xbb1ecfb8	-0.0024232697
187	0xbb779e27	-0.0037783475
188	0xbcbfa0a5	-0.023392031
189	0x3da21fb7	0.079162054
190	0x3d9c2213	0.07623687
191	0xbcaef28e	-0.021355893
192	0x3d262fe3	0.040573012
193	0xbc3363f1	-0.010949121
194	0x3cf42051	0.029800566
195	0x3cccda76	0.025006514
196	0x3c74e0b8	0.014946155
197	0x3bd5e45e	0.0065274676
198	0xbd1ff513	-0.03905208
199	0x3af14a16	0.001840892
200	0x3c3a2a41	0.011362613
201	0x3d190d1e	0.037366025
202	0x3b88158e	0.00415296
203	0x3bb4dcb8	0.005519476
204	0xbb3faec1	-0.0029248449
205	0xbb12d1ef	-0.0022402962
206	0xbc21dae9	-0.009878852
207	0xbba39b59	-0.004992884
208	0xba15fd6e	-0.0005721663
209	0x3d275ce2	0.040860064
210	0xbb329db3	-0.002725464
211	0x3b4ce2c0	0.0031263083
212	0xbc0465e7	-0.008080936
213	0x3b9029be	0.0043995073
214	0x3bb4e7b0	0.0055207834
215	0xbbd4f183	-0.006498517
216	0xbc93ac81	-0.018026592
217	0xbd4b6012	-0.049652167
218	0xba7594c4	-0.0009368176
219	0x3d15cbaf	0.0365712
220	0x3bfaa31d	0.007648839
221	0x3d52ecd0	0.051495373
222	0xbc1005a7	-0.00879041
223	0xbc2f4366	-0.010697221
224	0x3d48f0cf	0.049057778
225	0x3be6e4d4	0.0070463214
226	0xbd01ff2c	-0.03173749
227	0x3bdb3d3a	0.0066906484
228	0xba021e23	-0.0004963597
229	0x3adf384f	0.0017030331
230	0xbb35158f	-0.0027631258
231	0xbd2b0453	-0.04175217
232	0xbb529aae	-0.0032135653
233	0xbd88278b	-0.06648167
234	0x3b050c65	0.0020301577
235	0x3bbcd84c	0.0057630893
236	0x3b8f2292	0.004368135
237	0x3b8c9e4f	0.004291333
238	0xbd6567df	-0.056007262
239	0x3c17e04f	0.009269788
240	0x3cab3ac3	0.020902043
241	0xbd3cc2c6	-0.046084188
242	0x3bf1517d	0.0073644505
243	0x3b125d46	0.0022333427
244	0x39da0992	0.0004158733
245	0xbc9566a3	-0.018237418
246	0x3c1cf920	0.00958088
247	0x3b93616b	0.004497697
248	0x3bec683a	0.007214573
249	0x3bbab799	0.005698156
250	0xbc8def92	-0.01732615
251	0xbc0d3d0a	-0.00862051
252	0x3ca3dde3	0.020003265
253	0x3c891afa	0.016736496
254	0x3b1830f2	0.0023222533
255	0x3d5e06b3	0.054205608

bias_hh_l0 f4 [384]
0	0xbb9aaa2b	-0.0047199926
1	0xbb529d9a	-0.0032137395
2	0x3c54d9fc	0.012991425
3	0xbbfff85b	-0.0078115887
4	0x3dc21059	0.09475774
5	0xbbaa9c62	-0.0052066306
6	0xbcbcdfb0	-0.023055881
7	0xbb9ee3b4	-0.0048489217
8	0xbb95f00c	-0.004575735
9	0x3d2d4662	0.04230345
10	0xbc051c39	-0.008124405
11	0xbb8b981a	-0.0042600753
12	0xbb033948	-0.0020023156
13	0xbbce9150	-0.0063039437
14	0xbb2ae872	-0.002607849
15	0xbb04511d	-0.002018995
16	0xbae98f98	-0.0017819284
17	0xbca06626	-0.019579958
18	0xbc4712a5	-0.012150441
19	0xbb37962a	-0.0028013089
20	0x3d0e0d94	0.034680918
21	0xbb05a531	-0.0020392651
22	0xbb42db8e	-0.0029732916
23	0xbc20d2e9	-0.00981591
24	0xba8d61b9	-0.001078657
25	0x3cbca9e5	0.02303023
26	0xbc005fd1	-0.007835344
27	0xbaa71227	-0.0012746499
28	0xbbfc0922	-0.0076915184
29	0x3cada989	0.021199005
30	0xbc0a0719	-0.008424544
31	0xbb4bae05	-0.0031079066
32	0xbbecef9c	-0.007230712
33	0xbb04b986	-0.0020252182
34	0x3cfd0d14	0.030890025
35	0xbb8f1ba6	-0.0043673096
36	0xbb107324	-0.0022041285
37	0xbb438459	-0.0029833524
38	0xbb9e64c9	-0.004833792
39	0x3d89b2e2	0.06723572
40	0xba86581a	-0.0010249645
41	0x3b80d291	0.0039313515
42	0xbbaf61d2	-0.0053522373
43	0xbc7b6669	-0.015344241
44	0xbabb81cb	-0.0014305649
45	0xbb6e6d49	-0.0036381057
46	0xbca159a4	-0.019696064
47	0xbbe3447e	-0.006935655
48	0x3c68484e	0.014177395
49	0xbc7bbbe5	-0.015364622
50	0xbb9e19c6	-0.00482485
51	0xbc26ec49	-0.010188171
52	0xbb5fa289	-0.0034123978
53	0x3e001117	0.1250652
54	0xbb3bd156	-0.002865871
55	0xbbf2b375	-0.007406647
56	0xbb80b702	-0.003928066
57	0xb92e73ee	-0.0001663712
58	0x3d056185	0.032563705
59	0xbb9dc5b1	-0.0048148264
60	0xbad4f761	-0.0016248041
61	0xbca48974	-0.020085074
62	0xbc1ba624	-0.00950006
63	0xbc6063df	-0.013695686
64	0xbbe09a6a	-0.006854345
65	0xbc0292ee	-0.007969601
66	0x3c208225	0.009796654
67	0xbb915484	-0.004435124
68	0xbc648172	-0.013946878
69	0xbc0bfd58	-0.008544289
70	0x3c826a9a	0.015919972
71	0xbb6d9b85	-0.0036256027
72	0xbb9a0233	-0.004699969
73	0x3c2b2c07	0.010447509
74	0xbb58a637	-0.0033058056
75	0xbb0092d4	-0.0019618766
76	0xbb9e0bce	-0.0048231846
77	0xbc1b12bb	-0.009464915
78	0x3a9a4f75	0.0011772948
79	0x3caabfb7	0.02084337
80	0xbc899af1	-0.016797515
81	0xbbafbc4b	-0.0053630224
82	0xbc1abd80	-0.009444594
83	0xbd692d98	-0.056928247
84	0x3c07c269	0.008286097
85	0xbb82973f	-0.003985315
86	0xbaa55b92	-0.0012615791
87	0x3d246150	0.040131867
88	0x3d0937ed	0.0335006
89	0xbb63d3df	-0.0034763736
90	0xbb11b998	-0.0022235867
91	0xbb4e7886	-0.0031504943
92	0xbbaede75	-0.0053365775
93	0x3ca867dc	0.020557337
94	0x3c5fd7d5	0.013662298
95	0x34078557	1.2621364e-07
96	0xbcd38e62	-0.02582473
97	0xbb7cf165	-0.003859603
98	0xbb84eff1	-0.0040569236
99	0x3d91adb5	0.0711321
100	0x3e0d0cbe	0.13774392
101	0xbbd861ef	-0.0066034715
102	0x3d4bd9d1	0.049768273
103	0xbbbadba2	-0.005702452
104	0xbbd89df9	-0.0066106287
105	0x3d7bd087	0.061478164
106	0xbbfe7f77	-0.00776666
107	0xbb90f25f	-0.004423424
108	0xbc0ffff4	-0.008789051
109	0xbc131d7d	-0.0089791985
110	0xbcd13cd5	-0.025541702
111	0xbb22743d	-0.0024788522
112	0xbcd40c40	-0.025884748
113	0x3deb6b49	0.114950724
114	0x3ddc6598	0.10761565
115	0xbc04de9e	-0.008109717
116	0x3d005ea9	0.031340275
117	0xbb0b2eb3	-0.0021237552
118	0xbb9ee826	-0.0048494516
119	0xbc470ac7	-0.012148566
120	0xbcdbaa80	-0.0268147
121	0x3e313897	0.17306744
122	0x3d828e35	0.0637478
123	0x3b658252	0.0035020304
124	0xbcb52531	-0.02211246
125	0xbc0d10c6	-0.008609956
126	0xbc332800	-0.01093483
127	0xbb5cd535	-0.0033696417
128	0xbbf04659	-0.007332605
129	0xbba81973	-0.005129987
130	0x3c5699dc	0.013098206
131	0xbba2056e	-0.004944495
132	0xbc10f251	-0.008846835
133	0xbbb67e1d	-0.005569233
134	0xbbaeaaaa	-0.0053304033
135	0x3e08d3f3	0.13362102
136	0xba9e32b0	-0.0012069549
137	0x3db4f48a	0.088357046
138	0xbbce47bc	-0.0062951725
139	0xbc9813bb	-0.018564096
140	0xbbc4f938	-0.0060111545
141	0xbb86b198	-0.0041105263
142	0xba8f2fb1	-0.0010924247
143	0xbca4c342	-0.020112637
144	0x3ebecb15	0.37264314
145	0xba8878c3	-0.0010411966
146	0xbbd02faa	-0.0063533382
147	0xbc5c1b41	-0.013434232
148	0xbb8e400a	-0.00434113
149	0x3e2956cd	0.16537018
150	0xbb3a925f	-0.0028468592
151	0xbbe6ab9d	-0.007039501
152	0xbba526ea	-0.0050400393
153	0xbc5218d5	-0.012823303
154	0x3d8ec398	0.069709
155	0xbc130803	-0.008974078
156	0xbbdb46da	-0.006691796
157	0x3be6c5b3	0.0070426106
158	0xbc4ad76e	-0.012380464
159	0x3dafcd79	0.08584113
160	0xbccd866f	-0.025088517
161	0xbc212843	-0.009836259
162	0x3c1fbb5b	0.009749259
163	0xbbb0abe0	-0.005391583
164	0xbc91df9b	-0.017806819
165	0xbc313351	-0.010815457
166	0x3a071ee1	0.00051544426
167	0xbbced084	-0.006311478
168	0xbbb3f619	-0.0054919836
169	0xbb40a590	-0.0029395558
170	0xbb735eae	-0.003713529
171	0xbb0c1db5	-0.0021380011
172	0xbbc8a4f8	-0.0061231814
173	0xbc4d5422	-0.012532266
174	0xbcab75b0	-0.020930141
175	0x3c2c0b1b	0.010500695
176	0x3d5b5cae	0.053555183
177	0xbbfde91e	-0.007748737
178	0xbc81500d	-0.015785241
179	0x3dfadeb9	0.12249512
180	0xbc5255d3	-0.012837845
181	0xbb8fe37b	-0.0043911315
182	0xbbc0ead5	-0.005887369
183	0x3cf6ca58	0.030125782
184	0x3e3cfb4e	0.1845524
185	0xbba20e26	-0.0049455343
186	0xbb1ed03b	-0.0024233002
187	0xbb779dbb	-0.0037783224
188	0xbcbfd76b	-0.023418149
189	0x3dc06e51	0.09396041
190	0x3d5d1eab	0.053984325
191	0xbca05e28	-0.019576147
192	0xbd4fa5d4	-0.050695255
193	0xbcdb1f25	-0.02674825
194	0xbd2001fe	-0.0390644
195	0xbda74371	-0.0816716
196	0xbd562b68	-0.05228749
197	0x3ba7d964	0.0051223505
198	0x3d4f993e	0.050683253
199	0x3bce028d	0.006286925
200	0x3c9adeda	0.018905092
201	0xbdac6a6d	-0.084187366
202	0x3b8c8077	0.004287775
203	0x3bacc87f	0.0052729244
204	0x3ad5273a	0.0016262301
205	0xbb2abcfd	-0.0026052587
206	0xbca503e2	-0.020143453
207	0xbc0f208b	-0.008735786
208	0x3c3cc9d0	0.011522725
209	0xbd56287e	-0.05228471
210	0x3b6ad1a0	0.0035830513
211	0x3aeea9ad	0.0018208526
212	0xbc241427	-0.01001457
213	0xbb61d9a3	-0.0034461997
214	0x3b9c76cf	0.0047749053
215	0x39ff9c21	0.00048753715
216	0x3d02e391	0.031955305
217	0xbd9bdb95	-0.07610241
218	0x3cdd924b	0.027047297
219	0x3cb24f19	0.021766232
220	0xbac96348	-0.0015364671
221	0x3d7af54f	0.0612691
222	0xbaa53301	-0.0012603701
223	0x3bace7d9	0.005276662
224	0xbd6da2ff	-0.058016773
225	0x3bfc061c	0.007691158
226	0xbd5b90a3	-0.053604733
227	0x3b90e84a	0.0044222223
228	0x3954915c	0.00020272046
229	0xbc85a86a	-0.016315658
230	0xbbb8de7a	-0.0056417556
231	0x3d52702e	0.051376514
232	0x3c149157	0.009067855
233	0x3d491d3c	0.049100146
234	0x3bf7ed70	0.0075661466
235	0x3bd8d15b	0.006616754
236	0x3b6b311a	0.003588742
237	0x3b8c9a45	0.0042908513
238	0x3d5effbc	0.054443106
239	0x3c5a8c58	0.013339125
240	0x3d87461b	0.066051684
241	0x3cd11f6e	0.025527682
242	0x3bf7e3f1	0.0075650145
243	0x3bb9fc4f	0.0056758295
244	0x3a00b33e	0.00049095217
245	0xbd52bed2	-0.05145151
246	0xbad39140	-0.001614131
247	0x3b92048e	0.0044561094
248	0x3b9274c4	0.004469486
249	0x3c212dc5	0.009837572
250	0xbda3ec21	-0.080040224
251	0x3c604e26	0.013690507
252	0xbc8062b4	-0.015672065
253	0xbd55aa60	-0.052164435
254	0x3bca111e	0.0061665913
255	0xbd5e7f56	-0.054320656

weight f4 [96, 96]
0	0x3bfd05e2	0.0077216486
1	0x3b22b469	0.002482677
2	0x3b8c53b2	0.004282438
3	0x3d050512	0.03247554
4	0x3b3a4ad1	0.0028425942
5	0xb9f61e6f	-0.0004694345
6	0x3c9bdd7b	0.019026509
7	0x383ab009	4.45098e-05
8	0xbb084d2c	-0.002079795
9	0x3c5fff32	0.013671683
10	0xba8262e4	-0.0009947685
11	0xb7a9d0f5	-2.0243673e-05
12	0x3a5bcd3f	0.0008384771
13	0xba8fc835	-0.00109697
14	0x3bbf52b2	0.0058387155
15	0x3a1ba10f	0.00059367804
16	0xbb4e86a8	-0.0031513367
17	0x3cd1a6f8	0.025592312
18	0xbd13f8db	-0.036126
19	0xb981801e	-0.00024700252
20	0xbae89b51	-0.0017746483
21	0x3a7a3b94	0.0009545621
22	0x3910cec6	0.00013809939
23	0x3a9073e3	0.0011020865
24	0x3bed55c2	0.007242889
25	0xbd5a0a9d	-0.053232778
26	0xbc78bf88	-0.015182383
27	0xbbf4515d	-0.0074559883
28	0xbb5e4329	-0.0033914542
29	0xbb1dfd21	-0.0024107175
30	0x3931df77	0.00016963283
31	0x3a7bdad9	0.0009607501
32	0xbbf2e084	-0.0074120183
33	0xba81de6d	-0.0009908207
34	0x3aa55d1e	0.0012616252
35	0xba29e5ab	-0.00064810616
36	0x39ef3c54	0.0004563058
37	0x3a8a765c	0.0010563838
38	0xba253c5a	-0.00063032436
39	0xb997c01a	-0.0002894409
40	0xba3f29c9	-0.0007292298
41	0x3ce1cd06	0.027563583
42	0x394de0e0	0.00019634096
43	0xba2a0f57	-0.0006487271
44	0xba596992	-0.0008293624
45	0xba5c4c80	-0.00084037334
46	0x3c308842	0.010774674
47	0xbaf16841	-0.0018417911
48	0x3d47ca16	0.04877671
49	0xbc2992a2	-0.010349901
50	0xbad31306	-0.0016103692
51	0xba4a1433	-0.00077086984
52	0x3a0cd08a	0.0005371651
53	0xbba6838a	-0.0050815986
54	0xbaf05257	-0.0018335086
55	0xba95a5c0	-0.0011417195
56	0x360af7ea	2.0707907e-06
57	0xba9f9129	-0.0012173998
58	0x3cb1b54a	0.02169289
59	0xb93ed987	-0.00018200847
60	0xba84aa23	-0.0010121505
61	0x3c34d88a	0.011037955
62	0xb8b2c40d	-8.524219e-05
63	0x3d0def5d	0.034652103
64	0xbb3bdb2a	-0.0028664568
65	0xbad3962b	-0.0016142776
66	0xbc530643	-0.012879911
67	0xba634e14	-0.00086709973
68	0x3a3c9b77	0.0007194797
69	0x3a55e059	0.00081587356
70	0x3ae79b7f	0.0017670243
71	0xba8fd0e7	-0.0010972292
72	0x397cb1d9	0.00024098846
73	0x3a25819f	0.00063135655
74	0x39bce338	0.00036027445
75	0xba04e3d2	-0.0005069348
76	0xba2e1438	-0.0006640586
77	0x38f74f42	0.00011792641
78	0x3c0200cf	0.007934763
79	0x3afffb9d	0.0019529943
80	0x3c7c9d1d	0.015418318
81	0xbb3fb33d	-0.0029251121
82	0x3a65da53	0.00087681896
83	0x3d407324	0.046984807
84	0x3ba31e77	0.004977997
85	0x3a197247	0.00058535155
86	0x3ad0633e	0.0015898717
87	0xbb754daa	-0.0037430325
88	0xbce277c4	-0.027645
89	0xb775e2f2	-1.4655978e-05
90	0x3a2501c3	0.0006294513
91	0xba2d4594	-0.0006609794
92	0x3b7322b1	0.0037099535
93	0xb9873862	-0.00025791215
94	0x3d2d11b6	0.04225322
95	0xbc0060ca	-0.007835576
96	0x3b2d1977	0.0026412883
97	0x39659a6a	0.00021896666
98	0x3bf53736	0.0074833883
99	0x3bc6d9d8	0.0060684495
100	0xbc37145d	-0.011174289
101	0x3a7a05df	0.0009537618
102	0x3c0c5b9e	0.008566765
103	0x3a30e5b9	0.00067480985
104	0xba4f47ee	-0.00079071417
105	0x3c717b90	0.014738932
106	0x395bd0b3	0.00020963214
107	0x383f0d6e	4.5550456e-05
108	0x38415ef5	4.610322e-05
109	0xba5f6db5	-0.00085231225
110	0xb89dfeb8	-7.5337884e-05
111	0x37249bef	9.811468e-06
112	0x3a419477	0.00073844887
113	0x3c06f0a1	0.008236081
114	0xbbd84f13	-0.0066012233
115	0xb95b41df	-0.00020910006
116	0x3c52d564	0.012868259
117	0xb945bdb4	-0.00018858054
118	0x388261c5	6.217094e-05
119	0xb9829575	-0.00024906886
120	0x39e25383	0.000431683
121	0xbbd7d0f1	-0.006586187
122	0xbc3d7eb0	-0.011565849
123	0xbb794a5e	-0.003803871
124	0x3a7547d7	0.0009356713
125	0xbb90ae98	-0.0044153444
126	0xb9826a0f	-0.00024874552
127	0x3928f3bc	0.00016112527
128	0xbb79a42f	-0.0038092246
129	0x39552c75	0.00020329824
130	0x3c1c288c	0.0095311515
131	0x393822c0	0.00017560553
132	0x3a261bfe	0.00063365686
133	0xb92ea150	-0.00016654027
134	0xb9d0af02	-0.00039803243
135	0xbc9789f4	-0.018498398
136	0xb8c0cc19	-9.1932896e-05
137	0x3c7bbe3f	0.015365182
138	0x3973aff1	0.00023239829
139	0x39cefd4f	0.0003948011
140	0xb9dba82f	-0.00041896242
141	0x39da2ac5	0.00041612066
142	0x3b48b043	0.0030622638
143	0x3aa1e854	0.0012352564
144	0x3cffb05b	0.031212023
145	0xbb6d5a85	-0.0036217284
146	0x3999f785	0.0002936685
147	0x3aba8a67	0.0014231921
148	0xba203673	-0.0006111629
149	0xbc845b36	-0.016156774
150	0xba05b35f	-0.0005100276
151	0x39d5b7ae	0.00040763378
152	0x39db669f	0.00041847394
153	0xbb19116f	-0.0023356338
154	0x3c52147f	0.012822269
155	0x3a8bcfe3	0.0010666813
156	0xb9c516d1	-0.00037591768
157	0x3b97f5d6	0.00463746
158	0x3a78f821	0.00094974233
159	0x3c2204bf	0.009888827
160	0x3ab55711	0.0013835152
161	0xb8277a9c	-3.993009e-05
162	0xbc0145e6	-0.0078902
163	0x3a163264	0.00057295547
164	0xba910844	-0.0011065085
165	0x3a140bd0	0.0005647512
166	0xbb89b96b	-0.0042030117
167	0x3a148b99	0.00056665536
168	0x3a166cac	0.0005738239
169	0x3bd0be34	0.00637033
170	0x39c800bc	0.0003814752
171	0x38af3e82	8.356293e-05
172	0xba087a38	-0.00052062003
173	0x39d97a49	0.00041480575
174	0x3b5c56d0	0.003362108
175	0x3bc7c9b8	0.006097045
176	0x3c2a80ed	0.010406715
177	0xb98d77c7	-0.00026982857
178	0xba8ae2c6	-0.0010596148
179	0x3c6a74aa	0.014310041
180	0x3bd06589	0.00635976
181	0xb9daa6df	-0.0004170453
182	0x39bc70d5	0.0003594222
183	0x3c0feed1	0.008784966
184	0xbcd80287	-0.026368393
185	0x3a22fe44	0.0006217698
186	0xb8ee9873	-0.0001137712
187	0x3941e531	0.00018491295
188	0xba6e0ea4	-0.0009081161
189	0x3c81b609	0.015833871
190	0x3b7dd5e8	0.0038732234
191	0xbb9148ba	-0.0044337185
192	0xbc8c5ab8	-0.017133102
193	0xbb80354d	-0.003912604
194	0xbcd85683	-0.02640844
195	0xbc3ed542	-0.011647524
196	0x3d2d8df7	0.042371716
197	0xbb2f6ae9	-0.0026766604
198	0xbcd8f8e1	-0.026485862
199	0xba5eacb1	-0.0008494361
200	0x3b0f5b34	0.002187443
201	0xbd1cdb79	-0.038295243
202	0xbb67d846	-0.0035376712
203	0xbb602dee	-0.0034207064
204	0x3a0aacde	0.00052900414
205	0x3b448363	0.002998554
206	0xbc0b4ee3	-0.008502695
207	0x3a5f0e94	0.0008508947
208	0x3bc82df5	0.006108994
209	0xbcd18ece	-0.02558079
210	0x3d059c7a	0.03261993
211	0xbadb5099	-0.0016732394
212	0xbce146f9	-0.027499663
213	0x3b150c30	0.002274286
214	0x38fc6ead	0.00012036911
215	0x38746681	5.8269598e-05
216	0xbc326b76	-0.0108898785
217	0x3b6dfab2	0.0036312756
218	0x3cc0550c	0.023478054
219	0x3c735edd	0.01485416
220	0x3c0a2114	0.008430738
221	0x3bc1c153	0.0059129386
222	0xbac4d7b1	-0.0015017894
223	0x3b623fae	0.003452282
224	0x3c44b06e	0.012004955
225	0xbb6726e2	-0.0035270979
226	0xbcd692c1	-0.026193025
227	0xb9e212b8	-0.00043120026
228	0xbb1f5abd	-0.002431556
229	0x3b6430e9	0.0034819192
230	0xbab0f987	-0.0013502099
231	0x3d28862b	0.041143578
232	0xb9d7724e	-0.0004109316
233	0xbd262866	-0.04056587
234	0x3b017190	0.0019751526
235	0x3b70f8af	0.003676932
236	0xba890a8c	-0.0010455414
237	0xbb82098c	-0.003968423
238	0xbc1428de	-0.009042947
239	0x3abcc2c3	0.0014401305
240	0xbd72d563	-0.059285533
241	0x3c4be1c9	0.012443968
242	0xbb767748	-0.0037607718
243	0xbb18b9d0	-0.0023304112
244	0x3ad0cc7a	0.0015930079
245	0x3d83992b	0.06425699
246	0xba3b82bf	-0.00071529666
247	0xbb6a30b1	-0.0035734589
248	0xbb5bcacc	-0.0033537624
249	0xbb10dfae	-0.002210598
250	0xbd060864	-0.032722846
251	0xbb6df2ea	-0.0036308118
252	0x3a406593	0.00073393545
253	0xbc8a665d	-0.016894514
254	0x3b1359a3	0.0022483848
255	0xbac6ac6e	-0.0015157589

bias f4 [96]
0	0xb6fb8447	-7.495782e-06
1	0x378e1978	1.6939579e-05
2	0x378695e1	1.6043838e-05
3	0xb7936dcb	-1.7574892e-05
4	0x381a6586	3.6811012e-05
5	0xb709fc07	-8.224516e-06
6	0xb7e1587b	-2.6863292e-05
7	0x3858234d	5.153129e-05
8	0xb6ba42a7	-5.5509913e-06
9	0x36171452	2.2512581e-06
10	0x38ca0925	9.633814e-05
11	0x37ae48b1	2.0776266e-05
12	0xb7ad7d33	-2.0681508e-05
13	0x36d1db37	6.2542053e-06
14	0xb7d3c0e5	-2.5242984e-05
15	0x362361c1	2.4345793e-06
16	0xb6885eae	-4.064138e-06
17	0xb7b79659	-2.1885311e-05
18	0x37a73ecb	1.9937192e-05
19	0xb82e7099	-4.1589698e-05
20	0xb82637b4	-3.962936e-05
21	0x3567e6c5	8.639002e-07
22	0x38038fdb	3.136681e-05
23	0xb73b7a0a	-1.1174483e-05
24	0xb81586d9	-3.5649955e-05
25	0x38050094	3.171021e-05
26	0xb79afb6b	-1.8475306e-05
27	0x35ba5620	1.3883146e-06
28	0x380330af	3.1278174e-05
29	0x3851ae6b	4.9991922e-05
30	0xb7489713	-1.1956104e-05
31	0xb668c132	-3.4683148e-06
32	0x373e44f1	1.1340934e-05
33	0xb5737c7e	-9.0705714e-07
34	0x37235fcd	9.7378625e-06
35	0xb814e341	-3.5497596e-05
36	0xb6b96a43	-5.5258e-06
37	0x37669415	1.3743546e-05
38	0xb84c0f07	-4.8651385e-05
39	0x38994480	7.308368e-05
40	0x36f876a6	7.4047884e-06
41	0x37878dc2	1.6159265e-05
42	0x37f367f5	2.9016266e-05
43	0xb60440cb	-1.9707247e-06
44	0xb80faa86	-3.425267e-05
45	0xb8263069	-3.962257e-05
46	0xb7755e64	-1.4625115e-05
47	0x37bc1139	2.2419366e-05
48	0xb7eeff60	-2.849073e-05
49	0xb7379b09	-1.0943747e-05
50	0xb66b2917	-3.5041646e-06
51	0xb7dad2d8	-2.6085807e-05
52	0xb83540b3	-4.321402e-05
53	0xb7dc68b5	-2.6274802e-05
54	0xb78322e4	-1.5632664e-05
55	0x3743e272	1.1675629e-05
56	0xb63925fe	-2.7589263e-06
57	0xb6eb3378	-7.0095375e-06
58	0x373ec0b1	1.1369747e-05
59	0x3753ee54	1.263207e-05
60	0xb7dbaf96	-2.6188598e-05
61	0xb7c8a82c	-2.3920169e-05
62	0x37d1c38d	2.5005802e-05
63	0xb66be3f4	-3.5150415e-06
64	0x37413940	1.1517026e-05
65	0x38123576	3.4858902e-05
66	0xb767ba1f	-1.3812008e-05
67	0xb7c2528c	-2.3165041e-05
68	0x369085ef	4.3071263e-06
69	0x37e9de78	2.787936e-05
70	0xb7622dc9	-1.348131e-05
71	0xb733cd8a	-1.0717087e-05
72	0x36254a5c	2.4630199e-06
73	0x38750c89	5.8424226e-05
74	0xb72b3cf0	-1.0206582e-05
75	0x37f3259d	2.8985372e-05
76	0x37b8eb58	2.20441e-05
77	0xb8930eba	-7.012249e-05
78	0xb4581808	-2.012531e-07
79	0x37d5bf02	2.5480524e-05
80	0x37693e09	1.3902326e-05
81	0x36953bbe	4.447501e-06
82	0xb7d3cbf5	-2.5248135e-05
83	0xb6c1e43d	-5.7784187e-06
84	0x3702f555	7.805725e-06
85	0x35e9d662	1.7422246e-06
86	0x378c76b5	1.6744578e-05
87	0x38a246f3	7.737977e-05
88	0xb7c90dea	-2.3967546e-05
89	0x37939673	1.7593824e-05
90	0x3550cc88	7.778367e-07
91	0xb6d771ea	-6.4207607e-06
92	0x36359d68	2.7062724e-06
93	0xb7b9e6ac	-2.2161134e-05
94	0xb661c931	-3.3644721e-06
95	0x36429c12	2.8999098e-06

weight f4 [96, 96]
0	0x3810db0e	3.4536286e-05
1	0x387a2f43	5.964866e-05
2	0xb788e33a	-1.6318274e-05
3	0x38167981	3.5875946e-05
4	0x384cfff9	4.8875783e-05
5	0x3783fa45	1.5732958e-05
6	0x38168333	3.5884976e-05
7	0x37dd6926	2.6394217e-05
8	0x379a1134	1.8366241e-05
9	0xb63e22a4	-2.833237e-06
10	0x37ee7a31	2.842871e-05
11	0x3766935f	1.3743381e-05
12	0xb88344de	-6.259394e-05
13	0x356560b8	8.544989e-07
14	0x37c4110c	2.3372959e-05
15	0x37c532bc	2.3507855e-05
16	0x37c518dd	2.3495808e-05
17	0x3868b89b	5.5485038e-05
18	0x3746e79a	1.1855644e-05
19	0xb708e591	-8.159682e-06
20	0xb84d2c69	-4.891717e-05
21	0xb6d02d0c	-6.204127e-06
22	0x374aa33f	1.2078147e-05
23	0xb78dca37	-1.6902673e-05
24	0xb87ac46d	-5.978758e-05
25	0xb822701d	-3.8728223e-05
26	0xb882026d	-6.199335e-05
27	0x3832f072	4.266244e-05
28	0x38168292	3.588439e-05
29	0xb64b9995	-3.0338754e-06
30	0x381677f2	3.5874495e-05
31	0xb6fc9222	-7.5271973e-06
32	0xb8734cc3	-5.8007205e-05
33	0x38160e50	3.5776116e-05
34	0x37dffca4	2.6701317e-05
35	0xb74b9c6b	-1.2136162e-05
36	0x38147df8	3.5403267e-05
37	0xb724c06d	-9.819964e-06
38	0x37299abb	1.0109211e-05
39	0xb82aad66	-4.069265e-05
40	0x37e1b8c3	2.6908127e-05
41	0x37c50bf4	2.3489796e-05
42	0xb82254f8	-3.8702943e-05
43	0x36c9ce35	6.0142725e-06
44	0x3810e1d9	3.4542612e-05
45	0xb81fd693	-3.8108392e-05
46	0x37f0d35d	2.8708653e-05
47	0x373ef181	1.1381112e-05
48	0x36c7a047	5.949321e-06
49	0xb82d8f2d	-4.1379757e-05
50	0xb8867d23	-6.4129265e-05
51	0x3804c2fe	3.1652853e-05
52	0x3816838d	3.5885303e-05
53	0xb7434613	-1.1639221e-05
54	0x38155f67	3.561322e-05
55	0xb8833f5c	-6.2583684e-05
56	0x38166a77	3.586194e-05
57	0xb82c239c	-4.104116e-05
58	0xb87f2628	-6.0832273e-05
59	0x37a310fa	1.943902e-05
60	0x37c5e886	2.3592507e-05
61	0x384503be	4.6971945e-05
62	0xb85e4448	-5.2992516e-05
63	0xb75ef971	-1.3290309e-05
64	0x38865003	6.404521e-05
65	0x38164026	3.582253e-05
66	0x37d16da9	2.4965806e-05
67	0xb8820782	-6.2002815e-05
68	0x3815d0a7	3.571869e-05
69	0x37b8b9c9	2.2021022e-05
70	0xb738289c	-1.097671e-05
71	0xb721901e	-9.629903e-06
72	0xb823940c	-3.9000108e-05
73	0x37ddae74	2.6426489e-05
74	0xb7c44230	-2.3395842e-05
75	0xb72cc917	-1.0298819e-05
76	0x37c7dd73	2.3825769e-05
77	0xb6cffa9a	-6.1982546e-06
78	0x38167299	3.5869514e-05
79	0xb86912e3	-5.556912e-05
80	0x37c5be56	2.3572862e-05
81	0xb86668df	-5.4933942e-05
82	0x382f430e	4.17857e-05
83	0x38801108	6.106688e-05
84	0x3812e29d	3.5020163e-05
85	0x386833ee	5.5361474e-05
86	0xb8100956	-3.434097e-05
87	0x364a5f5a	3.0155848e-06
88	0x37c33c8f	2.3274011e-05
89	0xb880b62e	-6.137449e-05
90	0xb6bae3c9	-5.5697496e-06
91	0x35961d32	1.1184368e-06
92	0x38053640	3.1760195e-05
93	0xb746db1e	-1.1852737e-05
94	0x3802fe4d	3.123125e-05
95	0xb6005aa0	-1.9126237e-06
96	0x37f32955	2.8987104e-05
97	0x35ff6fd7	1.903153e-06
98	0x3678272c	3.697768e-06
99	0xb78f6612	-1.7094459e-05
100	0xb78f5d7a	-1.7090457e-05
101	0x370032b5	7.641201e-06
102	0x362bf432	2.5623126e-06
103	0xb78fbe2e	-1.7135488e-05
104	0x36118d26	2.1688843e-06
105	0xb78276ee	-1.5552589e-05
106	0x37b4dda0	2.1560874e-05
107	0x37b8a508	2.2011358e-05
108	0x36e4a0e4	6.8136596e-06
109	0x378eb07f	1.7009907e-05
110	0xb76f26d0	-1.4254547e-05
111	0x376ca284	1.4104535e-05
112	0x378fadd8	1.712788e-05
113	0xb78fb500	-1.7131213e-05
114	0x378d9f42	1.688267e-05
115	0xb78f3f41	-1.7076383e-05
116	0x37b1350a	2.1124742e-05
117	0x3629e0e4	2.5313866e-06
118	0x37995afc	1.828139e-05
119	0x3785545a	1.5894115e-05
120	0xb78cee78	-1.6800346e-05
121	0xb78fba6b	-1.7133736e-05
122	0x37bb9124	2.2359724e-05
123	0x37bd630e	2.2576682e-05
124	0x378da0c9	1.6883381e-05
125	0x37de7d3f	2.6522785e-05
126	0x378e9354	1.6996324e-05
127	0xb5e4c5a3	-1.7044844e-06
128	0x3792bf10	1.7493527e-05
129	0x37bbab79	2.2371985e-05
130	0xb7876129	-1.6138498e-05
131	0x3751c5dc	1.25034385e-05
132	0x37b418be	2.1469194e-05
133	0xb78fba92	-1.7133807e-05
134	0xb748e725	-1.19747465e-05
135	0xb77a8367	-1.4931756e-05
136	0xb788a903	-1.6291166e-05
137	0x36a95190	5.0460876e-06
138	0x37b46370	2.1503976e-05
139	0x366fb410	3.5718585e-06
140	0x378b9865	1.6641055e-05
141	0x3705f07b	7.983409e-06
142	0x37448690	1.1713841e-05
143	0x37934fe8	1.7560975e-05
144	0xb78ee120	-1.7032551e-05
145	0xb78fa51c	-1.7123813e-05
146	0x360a00ac	2.0563994e-06
147	0xb783a712	-1.5694215e-05
148	0x37a17c1e	1.9250492e-05
149	0x378c489b	1.672311e-05
150	0x36dcadce	6.5767445e-06
151	0x37948f40	1.770968e-05
152	0x37908f4c	1.7232866e-05
153	0xb72486e6	-9.80657e-06
154	0x36bc54f2	5.6127255e-06
155	0x37935e48	1.7567669e-05
156	0xb78cba1a	-1.677596e-05
157	0xb78fa4ef	-1.7123732e-05
158	0xb787dca3	-1.6195996e-05
159	0x37e8ddb5	2.7759796e-05
160	0x37980149	1.812041e-05
161	0x36f90797	7.421662e-06
162	0x36b0b06b	5.2657465e-06
163	0x37b17784	2.1155698e-05
164	0x378e856b	1.6989847e-05
165	0x36f8faa9	7.4201566e-06
166	0x370979c3	8.194186e-06
167	0xb78f1ee3	-1.7061311e-05
168	0x37e69804	2.7488924e-05
169	0xb78f7222	-1.7100076e-05
170	0x379209df	1.7409153e-05
171	0x378fe70e	1.7154522e-05
172	0xb78fa5c9	-1.7124128e-05
173	0x35f013d7	1.7887168e-06
174	0x37840ae1	1.5740692e-05
175	0xb78faa32	-1.7126182e-05
176	0xb787b9eb	-1.6179829e-05
177	0x37889820	1.6283302e-05
178	0xb78df0eb	-1.6920696e-05
179	0xb78fa8ee	-1.7125592e-05
180	0x37046d2c	7.893232e-06
181	0x37a8adbc	2.0108062e-05
182	0xb78f96ce	-1.7117152e-05
183	0xb786a97d	-1.6052969e-05
184	0x37028567	7.779664e-06
185	0x37e8b802	2.774224e-05
186	0x37998b0c	1.830377e-05
187	0x37b5a766	2.1654832e-05
188	0x360790bd	2.0200816e-06
189	0x37b8c917	2.2028149e-05
190	0x379514c1	1.7771848e-05
191	0xb78f934c	-1.7115519e-05
192	0x3785698d	1.5903986e-05
193	0xb65048f7	-3.1036886e-06
194	0xb5cf4ef3	-1.5445679e-06
195	0xb6fff303	-7.6278825e-06
196	0xb7059313	-7.961661e-06
197	0x3688acc6	4.0732293e-06
198	0x377bc9cd	1.5007751e-05
199	0xb6c19be6	-5.769997e-06
200	0xb70391dd	-7.84217e-06
201	0x372bec70	1.0247444e-05
202	0x34f9f183	4.6555587e-07
203	0xb6d98222	-6.4822534e-06
204	0xb722cdad	-9.70384e-06
205	0xb6e94e77	-6.9530756e-06
206	0xb730e5c1	-1.0543911e-05
207	0xb6e98f57	-6.960628e-06
208	0x36e7e273	6.9106986e-06
209	0xb6ec4cb7	-7.042279e-06
210	0xb697afa9	-4.5206e-06
211	0xb7084430	-8.122108e-06
212	0x354c9e79	7.622653e-07
213	0x35049aac	4.939891e-07
214	0x37a5e632	1.9776726e-05
215	0xb40fae14	-1.3381242e-07
216	0x37830cf0	1.5622441e-05
217	0xb5bc7046	-1.4039767e-06
218	0xb6847513	-3.947536e-06
219	0xb605dd3f	-1.9947327e-06
220	0xb7320395	-1.0610461e-05
221	0x3795d062	1.785922e-05
222	0x376dcec1	1.41744395e-05
223	0x37049f34	7.9048805e-06
224	0xb701c5c8	-7.735049e-06
225	0xb7364152	-1.0863254e-05
226	0xb6a7dd0c	-5.002721e-06
227	0x3785a884	1.5933307e-05
228	0xb6bfacc2	-5.7123552e-06
229	0xb5879e6c	-1.0104391e-06
230	0xb4da1349	-4.0619696e-07
231	0x367b9897	3.7490734e-06
232	0xb6ea3c26	-6.9807456e-06
233	0x36e93699	6.950297e-06
234	0xb6fac95c	-7.474022e-06
235	0xb72f9c4c	-1.04672035e-05
236	0x3557eecf	8.0441254e-07
237	0x3644bed7	2.931736e-06
238	0x36d805e4	6.4379874e-06
239	0xb70490c4	-7.901519e-06
240	0x35644643	8.5038863e-07
241	0x370adbc5	8.27661e-06
242	0x37219757	9.631584e-06
243	0xb542fd01	-7.26388e-07
244	0xb696f3e7	-4.4987423e-06
245	0x3617b355	2.2605138e-06
246	0xb6f01f5b	-7.1562076e-06
247	0x353ab120	6.954815e-07
248	0xb5deedfe	-1.6609554e-06
249	0x378e1cdc	1.6941158e-05
250	0xb6e813e8	-6.916456e-06
251	0x3576dfa3	9.1967576e-07
252	0xb461e20e	-2.1036996e-07
253	0x370a0379	8.2262495e-06
254	0x36c2bca4	5.803611e-06
255	0xb70b8e1d	-8.318134e-06
