Graph Neural Network/Models/GraphConv-D5-F1-mean.pth (torch, 611902 bytes, 15 tensors)

weight f4 [192, 224]
000000 2e 81 8d bc a2 6a 44 bc 75 f7 57 bb 74 58 e9 bb
       -0.017273512 -0.011988314 -0.0032953892 -0.00712114
000010 61 e9 60 bb 22 75 06 bc ae 30 e6 bb 96 39 0c bc
       -0.0034318792 -0.008206638 -0.007024846 -0.008558651
000020 7c c6 04 bc f5 b6 61 bc 6c 81 e6 bb b4 bd ff bb
       -0.008103963 -0.0137765305 -0.0070344713 -0.007804597
000030 bd 1b 30 bc 34 27 49 bc 10 55 e6 bb b7 a5 3e bc
       -0.010748801 -0.012277413 -0.007029183 -0.011636189
000040 7f 52 e5 bb 9b 09 00 bc 6f 1a fb bb ad 46 f3 bb
       -0.0069983597 -0.00781479 -0.0076630632 -0.0074241967
000050 43 19 9b bb e1 b6 0c bc 72 59 dc bb 66 26 0c bc
       -0.004733236 -0.008588524 -0.00672453 -0.008554077
000060 46 1e 0d bc 5c 02 fc bb c5 60 04 bc 24 d8 0c bc
       -0.008613175 -0.007690711 -0.008079712 -0.008596454
000070 8a e8 48 bb bf 42 fb bb 78 e3 08 bc 40 ec 0c bc
       -0.0030656182 -0.007667869 -0.008355014 -0.008601248
000080 49 d3 5b bc 7e 84 e9 bb df d4 03 bc 19 d0 08 bc
       -0.0134170735 -0.00712639 -0.008046358 -0.008350396
000090 f9 eb 99 bb 5e e1 0c bc 86 56 fb bb 00 4e fa bb
       -0.0046973196 -0.008598654 -0.0076702265 -0.007638693
0000a0 14 af 55 bb 1b 1b 0c bc a1 09 49 bc 66 e6 d9 bb
       -0.0032605575 -0.008551384 -0.012270362 -0.00664978
0000b0 4e bf cf bb 8b 1a 19 bc e0 2e 05 bc 4c 51 e1 3a
       -0.006339944 -0.009344707 -0.008128852 0.0017190366
0000c0 16 7a f9 bb 84 8d e4 bb ba ee ee bb b8 71 44 38
       -0.0076134307 -0.006974878 -0.007291642 4.683595e-05
0000d0 ab cf 63 bc f2 30 fb bb 5d dd 0c bc 53 08 06 bc
       -0.013904492 -0.007665747 -0.008597699 -0.008180696
0000e0 7d be e3 bb cc 99 1c bc f8 df 2c bc a6 e4 fa bb
       -0.006950198 -0.009558152 -0.010551445 -0.0076566515
0000f0 3f 1a e5 bb 4e 3d fa bb 97 03 07 bc 08 31 e8 bb
       -0.006991654 -0.0076367026 -0.008240602 -0.007085923
000100 3b aa 0f bc 7e 9d f4 3a 67 15 f7 bb 10 7f f9 bb
       -0.008768613 0.0018662659 -0.007540393 -0.007614024
000110 cd 96 04 bc 2b 27 67 bc 92 55 fb bb 78 8a 07 bc
       -0.008092594 -0.014108459 -0.007670113 -0.00827276
000120 46 92 0a bc 59 fc 02 bc 53 48 06 bc 22 fa d6 b9
       -0.008457726 -0.007994735 -0.008195954 -0.00041003624
000130 f2 39 f2 bb 81 4d fb bb 7c b0 f9 bb c5 0d e6 bb
       -0.0073921615 -0.0076691513 -0.0076199155 -0.0070206844
000140 03 68 fb bb 5c 34 fa bb 4e d8 5b bc e4 52 41 3b
       -0.0076723113 -0.0076356363 -0.01341827 0.002949887
000150 49 46 17 bc 0e e1 f6 bb df 6a 0b bc dd 02 e2 bb
       -0.009233066 -0.007534153 -0.008509367 -0.006897314
000160 bd b3 fb bb ae 9e 49 3a 7d fe 09 bc 1d 9f fb bb
       -0.0076813386 0.00076911866 -0.008422491 -0.00767888
000170 0a 5b 0b bc 51 38 50 3a fe af fb bb 7e 92 04 bc
       -0.008505592 0.0007942962 -0.007680892 -0.008091567
000180 bd 9f f5 bb 8e 65 22 bc c5 64 4e bc 58 18 80 3a
       -0.007495849 -0.009911908 -0.0125972675 0.000977288
000190 af 10 e2 bb 8e 9a f9 bb ec 29 e5 bb 41 08 00 bc
       -0.0068989615 -0.0076173013 -0.006993523 -0.007814468
0001a0 0f c5 ee bb e6 74 1e bc 14 27 92 bb e0 cc 0c bc
       -0.007286675 -0.009671425 -0.004460225 -0.008593768
0001b0 c4 91 fa bb 0a bf 0c bc 1d 9d 0a bc b6 79 fa bb
       -0.007646771 -0.008590469 -0.00846031 -0.0076439036
0001c0 ec cd 02 bc dd b7 ed bb e1 12 fa bb 1c bd f9 bb
       -0.007983666 -0.007254584 -0.007631645 -0.0076214205
0001d0 85 47 02 bc 8f 25 d7 bb e2 64 fa bb 17 8b ec bb
       -0.007951622 -0.0065657566 -0.0076414207 -0.0072187292
0001e0 50 e2 f9 bb c8 9d 56 bc d8 0b e6 bb 8b 2f f5 bb
       -0.0076258555 -0.013099141 -0.007020455 -0.007482474
0001f0 09 15 0c bc 41 e1 f4 bb 2e 1d fa bb 23 0b fa bb
       -0.008549937 -0.0074731414 -0.007632873 -0.007630722
000200 e0 f5 01 bc 9f 5e 86 bb c2 b7 00 bc 21 98 05 bc
       -0.007932156 -0.004100635 -0.007856311 -0.008153946
000210 f0 43 fa bb 76 27 ee bb 62 7b f9 bb 73 48 e7 bb
       -0.0076374933 -0.0072678877 -0.0076135853 -0.007058197
000220 39 89 92 bc b1 f1 bc ba 80 f7 ed bb ac 24 fa bb
       -0.017887698 -0.0014415291 -0.0072621703 -0.007633766
000230 d8 67 03 bc a6 31 e5 bb 69 1e e5 bb ed f1 01 bc
       -0.008020364 -0.006994444 -0.0069921506 -0.007931215
000240 0f 67 fb bb 2f df fa bb d9 6e 30 bc 2a 95 51 bb
       -0.0076721977 -0.007656 -0.010768616 -0.0031979778
000250 29 0b ed bb e5 72 0b bc 72 13 01 bc 60 26 0d bc
       -0.0072339964 -0.00851128 -0.007878171 -0.008615106
000260 3c b3 01 bb 99 ff 75 bb 93 21 fe bb fc 1e 61 bc
       -0.001979067 -0.0037536381 -0.007755467 -0.013740297
000270 34 02 f9 bb 1b 79 f9 bb 62 7b fa bb 4b 33 f1 bb
       -0.0075991396 -0.007613314 -0.007644103 -0.007360851
000280 16 18 fa bb 09 42 17 bc 3d 7e 86 bb 45 84 ef bb
       -0.007632266 -0.009232053 -0.0041044042 -0.007309469
000290 23 f0 5f bc 13 88 42 bc bc c5 f9 bb cb e6 65 3a
       -0.013668093 -0.011873263 -0.0076224487 0.00087700476
0002a0 89 25 7d bc 8e 7a f9 bb 23 ac f8 bb d1 07 8c bc
       -0.015450844 -0.0076134866 -0.0075888797 -0.01709357
0002b0 db aa fb bb 67 40 41 3b d6 54 47 bc 7e 48 4c bc
       -0.0076802797 0.002948785 -0.012166223 -0.012468455
0002c0 bb 2f fb bb a5 27 0d bc 2c 84 e7 bb 87 af 07 bc
       -0.007665602 -0.008615409 -0.0070653167 -0.008281595
0002d0 a6 35 5b 3b 15 c3 43 bc 53 93 04 bc 1f d2 fb bb
       0.0033448725 -0.011948367 -0.008091765 -0.0076849605
0002e0 56 40 fa bb e0 1e e5 bb 0f eb 0c ba f5 b5 fa bb
       -0.007637064 -0.006992206 -0.00053756026 -0.0076510855
0002f0 70 36 0c bc ea a3 fe bb 3c 56 0c bc 0c b6 31 3b
       -0.008557901 -0.007771005 -0.008565482 0.0027116565
000300 6b 9d 44 bc 64 0d 1e bc 73 a2 ea bb ba e3 e5 bb
       -0.012000422 -0.009646747 -0.0071604787 -0.0070156725
000310 de 68 07 bc 5d df f9 bb e9 50 08 bc 13 a2 ab bb
       -0.008264748 -0.007625504 -0.008320072 -0.0052378266
000320 d9 0d 26 bc 58 6c 02 bc da 18 fa bb df 7a 0b bc
       -0.0101351375 -0.0079604015 -0.007632357 -0.0085131815
000330 4b 43 21 bc 0b a1 f9 bb 8e 06 00 bc 03 b0 50 bc
       -0.009842704 -0.007618075 -0.007814063 -0.012737277
000340 47 28 fc bb c0 7f 0c bc a2 f4 60 ba bd 0f 0b bc
       -0.007695231 -0.00857538 -0.0008581375 -0.008487639
000350 bb 65 fa bb 69 c4 7a bc b7 aa fb bb 3d e6 fa bb
       -0.0076415217 -0.015305617 -0.007680263 -0.007656841
000360 e1 27 fb bb 05 8d 3e bc 71 50 08 bc 20 de 0c bc
       -0.007664666 -0.011630301 -0.00831996 -0.008597881
000370 e8 e1 1c bc 16 55 07 bc 98 34 0b bc 26 c5 30 bc
       -0.009575345 -0.008260032 -0.008496426 -0.010789191
000380 59 0a df 38 91 d3 14 3a cf 9f 31 39 c5 2c bd 38
       0.00010635396 0.0005677278 0.00016939569 9.020561e-05
000390 62 ff d8 39 d0 49 72 b8 23 b3 91 3a 6c 48 25 b9
       0.00041389005 -5.776604e-05 0.0011116009 -0.00015762605
0003a0 d4 04 84 3a cc 46 52 3a e0 5e 32 3a 4d 5f 80 39
       0.001007224 0.0008021414 0.00068042986 0.00024485067
0003b0 53 38 37 3a 2e 91 31 3a 3d 3d 24 b9 64 f2 a3 39
       0.0006989289 0.00067736476 -0.00015663072 0.00031270378
0003c0 50 20 93 3a 49 5d 32 3a b1 e0 59 3a 32 d6 31 3a
       0.001122484 0.00068040617 0.00083113747 0.0006783932
0003d0 7e ac d3 39 ee 71 31 3a 41 ca 35 39 11 ad 37 3a
       0.00040373573 0.0006768991 0.0001733685 0.0007006685
0003e0 e4 0d 84 3a 3e ad c7 39 2e 57 22 b9 64 8b 93 3a
       0.001007494 0.00038085313 -0.00015482001 0.0011256752
0003f0 82 10 93 3a 07 57 30 3a 63 f1 91 3a bf 1f 93 3a
       0.001122013 0.0006726835 0.0011134561 0.0011224671

bias f4 [192]
000000 ba f4 7e b5 28 55 63 b7 89 d6 8f b7 4a b1 81 37
       -9.49785e-07 -1.3550081e-05 -1.714683e-05 1.5460555e-05
000010 2f de 08 b9 bc d6 8e b8 64 5b 40 b8 13 41 eb 37
       -0.0001305274 -6.811085e-05 -4.586148e-05 2.8044486e-05
000020 db 6f 4f 37 4d 5b 79 b7 4d 74 92 b7 c4 19 a9 37
       1.2364205e-05 -1.4862814e-05 -1.7458713e-05 2.0158368e-05
000030 6e d7 28 38 13 3f c1 b6 a8 b6 ef b7 74 f4 8f b7
       4.0254956e-05 -5.759191e-06 -2.8576076e-05 -1.716076e-05
000040 85 16 b1 b8 b4 fa ae b7 4f 2c ed 36 a2 ae b5 36
       -8.444212e-05 -2.085916e-05 7.0683086e-06 5.4145503e-06
000050 91 af f1 b6 50 48 08 36 0b f5 02 37 10 51 28 b7
       -7.2027983e-06 2.030767e-06 7.805657e-06 -1.0032454e-05
000060 ef d6 17 b6 ad 55 de 36 15 8a d4 b7 8d 84 98 37
       -2.2625861e-06 6.6260895e-06 -2.5336669e-05 1.8181536e-05
000070 91 d1 4a b6 76 16 d3 b7 6d 66 54 b6 49 32 bb b8
       -3.022233e-06 -2.516362e-05 -3.1650081e-06 -8.926221e-05
000080 67 0a 89 b7 bf c1 00 b9 02 5c 0c 37 17 65 ca 38
       -1.6336517e-05 -0.00012279207 8.3660725e-06 9.65094e-05
000090 34 5d d7 b8 ea 8a 6c 38 f9 0e f9 37 0c 46 1c 39
       -0.00010269359 5.639616e-05 2.9690085e-05 0.00014903414
0000a0 60 c5 5e b8 df 39 0b 37 ec df 43 36 c2 e2 0d 39
       -5.3112744e-05 8.29852e-06 2.9187604e-06 0.00013531282
0000b0 98 8e 0d b9 ee 6f 5e 38 b2 43 07 39 1a c6 27 b8
       -0.00013499928 5.3033167e-05 0.00012899822 -4.00004e-05
0000c0 2b b4 f9 b7 d0 25 5a 35 4f 7c 1b b9 60 c6 55 b8
       -2.976701e-05 8.1266353e-07 -0.0001482826 -5.096791e-05
0000d0 35 31 5e b8 db 66 8e 35 2a 57 eb 36 79 4f 2f 38
       -5.2974752e-05 1.0609759e-06 7.013693e-06 4.1797266e-05
0000e0 a7 6c bc b5 79 55 cf 38 6d b6 a7 b5 85 5a 02 36
       -1.4038714e-06 9.88645e-05 -1.2495562e-06 1.9424199e-06
0000f0 75 55 22 37 94 e0 0c 39 bf da 8d 37 ec 62 51 b4
       9.6758495e-06 0.00013435102 1.6910371e-05 -1.950063e-07
000100 e4 a5 46 38 4b 65 10 b9 25 9f 58 b8 50 40 68 37
       4.7361376e-05 -0.00013770645 -5.1646628e-05 1.38432515e-05
000110 58 46 3d b8 fd 2c 52 b7 6e d4 88 b6 f6 33 1b 39
       -4.5126624e-05 -1.252745e-05 -4.077846e-06 0.00014801309
000120 d8 62 0d b7 f7 7f 12 39 c4 1c 95 b7 1e 9e 28 37
       -8.427269e-06 0.00013971316 -1.777558e-05 1.0050395e-05
000130 3a da 0c 39 48 97 06 b6 c3 2c a3 37 a7 9b 7a b6
       0.00013432736 -2.0055613e-06 1.9451958e-05 -3.7343505e-06
000140 cd 11 5c b8 18 95 89 37 b2 09 eb b7 b3 f7 ec 36
       -5.2468666e-05 1.64011e-05 -2.8018698e-05 7.062184e-06
000150 07 b8 47 37 46 d0 bd 37 9b ae 18 39 2e bd be 36
       1.19041715e-05 2.262754e-05 0.00014560895 5.6844647e-06
000160 9e 2c a0 35 65 8c 02 38 5e f4 12 b9 c9 7c 43 35
       1.1933914e-06 3.1125168e-05 -0.00014014679 7.2824747e-07
000170 e5 f9 69 b4 00 c8 1b b9 7c 91 88 37 dd da 17 b9
       -2.1790727e-07 -0.00014856458 1.628021e-05 -0.00014482015
000180 fd 1e 50 b8 3d 9d 9f 37 a8 7e 57 37 f3 a9 b6 b8
       -4.9619925e-05 1.9027497e-05 1.2844488e-05 -8.710092e-05
000190 c2 ab ea 35 1a 68 c5 b6 e2 66 29 37 bb f3 6e b7
       1.7484347e-06 -5.8831765e-06 1.0097139e-05 -1.4242653e-05
0001a0 c7 e6 72 b7 57 95 4d b8 9e 02 9e b5 91 dd e5 37
       -1.4478056e-05 -4.9014892e-05 -1.1772679e-06 2.7402102e-05
0001b0 c8 68 0a b6 ea ea 5d 38 f9 e0 18 b9 38 87 75 b7
       -2.0624593e-06 5.2909287e-05 -0.00014579658 -1.4634621e-05
0001c0 0a 14 e6 38 da 4c 3d 37 7a e3 9f b7 48 a4 5d b8
       0.00010970987 1.1283171e-05 -1.9060204e-05 -5.2843505e-05
0001d0 d6 cd 5d b8 55 ef 19 39 d4 50 0c b9 01 88 7d b6
       -5.2882206e-05 0.00014680375 -0.00013381551 -3.7779103e-06
0001e0 6b da 68 37 5e fd 76 b7 62 de f1 37 bb 2c b8 38
       1.3879132e-05 -1.4721734e-05 2.8832994e-05 8.7821354e-05
0001f0 61 72 c0 b7 1b d2 bf b8 68 5c bd 37 80 88 cb 37
       -2.2941445e-05 -9.146725e-05 2.2573586e-05 2.4263049e-05
000200 be 7f 7e b8 69 54 04 b6 a6 4a 69 b4 e9 bb f4 b4
       -6.067729e-05 -1.9718666e-06 -2.1726973e-07 -4.5585264e-07
000210 99 07 0a b8 1c 6c 1d b7 c2 f3 04 b7 82 02 86 b7
       -3.290884e-05 -9.3831e-06 -7.924567e-06 -1.5975213e-05
000220 97 bc 58 b8 b3 29 85 b7 9e a6 01 b7 8e 26 84 b6
       -5.167405e-05 -1.5874253e-05 -7.727793e-06 -3.938395e-06
000230 b5 5d 5e b6 0a 99 b1 37 2a 72 76 37 8b b7 f9 b7
       -3.3135123e-06 2.1171309e-05 1.46893235e-05 -2.9768582e-05
000240 18 ec 72 b8 d2 a0 19 b7 ee 54 e5 38 26 a4 44 b6
       -5.7917176e-05 -9.156955e-06 0.0001093539 -2.9301823e-06
000250 c0 09 58 38 fc 94 1a 37 b5 e5 84 35 d3 1b 29 b6
       5.1507493e-05 9.213803e-06 9.90162e-07 -2.5199158e-06
000260 96 d0 1f 38 24 e1 a7 b6 ac d9 f2 37 ed bf c5 37
       3.8102815e-05 -5.0031977e-06 2.895001e-05 2.3573602e-05
000270 fe 3a 3a b7 fd 3e 2c b7 c4 23 0c 39 9f dc 1a b9
       -1.1100199e-05 -1.02666645e-05 0.00013364764 -0.00014768772
000280 05 5c 18 b7 e8 40 56 b8 1a 61 ca b8 6e 23 19 b9
       -9.081331e-06 -5.1082025e-05 -9.650197e-05 -0.00014604416
000290 ca fe c4 b7 bd c7 6c b6 a4 80 19 b9 d6 e6 1b 36
       -2.3483666e-05 -3.5283003e-06 -0.0001463914 2.3231164e-06
0002a0 15 aa 7d 37 9f 1b c8 b7 68 94 87 b7 18 b3 78 38
       1.5119575e-05 -2.385472e-05 -1.6162361e-05 5.92946e-05
0002b0 b5 66 07 b9 95 23 c7 b6 92 ee 9a 36 de 40 33 37
       -0.00012912865 -5.9348044e-06 4.617331e-06 1.06843345e-05
0002c0 45 1c fc b7 bc 52 aa 37 0a e9 7c 36 fe bf d7 b7
       -3.0053905e-05 2.0304105e-05 3.7686573e-06 -2.57194e-05
0002d0 b5 e0 19 b9 6b fc c4 b6 a1 8c ca 38 cc 09 59 37
       -0.00014674927 -5.8706405e-06 9.658305e-05 1.2936489e-05
0002e0 f7 43 55 b4 b9 a9 a5 35 ea cc 4b b8 cb 65 16 b9
       -1.9861896e-07 1.2342854e-06 -4.8589813e-05 -0.00014343036
0002f0 dd 23 c4 37 5a 69 21 b7 96 5a 88 b6 39 bf bd 35
       2.338172e-05 -9.620877e-06 -4.0636614e-06 1.413725e-06

weight f4 [192, 224]
000000 f9 2f 4b 38 92 bc 52 38 3b 24 fc b7 55 08 c7 b6
       4.844365e-05 5.024352e-05 -3.0057612e-05 -5.931632e-06
000010 eb 8a 51 b8 36 60 91 37 16 3b 4d 38 ff 94 0f 35
       -4.995886e-05 1.7330149e-05 4.8930837e-05 5.348847e-07
000020 8a a9 4e 38 56 cc 1a 39 8b ca 1b b9 2b d3 ee b8
       4.9272123e-05 0.00014762706 -0.00014857405 -0.000113880575
000030 a1 4d d4 38 32 3e e9 35 d9 28 23 38 87 c1 5a 38
       0.00010123407 1.7377954e-06 3.890027e-05 5.2155487e-05
000040 0b 5a 11 b9 63 76 f4 37 4a ef a7 b8 bd ca 37 b6
       -0.00013861821 2.9142195e-05 -8.0077516e-05 -2.7387134e-06
000050 b2 71 fa 36 15 59 c4 37 1b a8 c8 37 cd bd 40 b8
       7.4638165e-06 2.3406503e-05 2.3920138e-05 -4.5953133e-05
000060 60 4f ff b7 29 66 11 35 c0 3c 42 b8 03 47 35 b7
       -3.043533e-05 5.416537e-07 -4.6309782e-05 -1.0804974e-05
000070 3a 58 cf b6 5f 0c a7 37 53 78 23 37 29 b5 6b b7
       -6.1793517e-06 1.9913712e-05 9.743572e-06 -1.4049271e-05
000080 9c f7 f3 38 3f 50 fa b8 42 e1 5c b7 71 ec 07 b7
       0.00011633264 -0.00011935876 -1.3165469e-05 -8.101678e-06
000090 1e 05 4a b8 3d 72 39 38 83 f0 27 b2 e3 1b 15 b9
       -4.816532e-05 4.421383e-05 -9.775365e-09 -0.00014220136
0000a0 cd b8 62 b6 50 46 42 b5 cd 5b e4 37 3f b9 33 b6
       -3.3784193e-06 -7.237295e-07 2.7222466e-05 -2.6780906e-06
0000b0 13 6b 48 b7 61 6c 4e b8 03 ba 0e 38 d5 10 0a 39
       -1.1945859e-05 -4.9215163e-05 3.4028675e-05 0.00013166976
0000c0 8e f7 84 38 b7 f2 6d 38 35 96 1b b9 7a 97 87 37
       6.340361e-05 5.673125e-05 -0.00014837908 1.616379e-05
0000d0 6f 8c c5 38 6c 67 06 b7 98 e6 57 37 31 43 f1 37
       9.41985e-05 -8.011102e-06 1.2868688e-05 2.8760727e-05
0000e0 87 a2 d7 b8 2c db a6 b7 ad 2c 01 b9 3b 2f 17 38
       -0.00010282272 -1.9890802e-05 -0.00012319042 3.6045192e-05
0000f0 34 72 0f b7 6e 75 70 b8 82 6b 7c 38 87 3d 80 b7
       -8.550054e-06 -5.7329824e-05 6.0181606e-05 -1.528744e-05
000100 a3 fc 40 35 a8 81 9f b7 0a 48 a5 b7 e7 ee 91 37
       7.189321e-07 -1.9014653e-05 -1.9703079e-05 1.7396595e-05
000110 6c e7 ca b8 52 60 e6 b7 96 af 90 b6 e7 a4 05 36
       -9.675216e-05 -2.746299e-05 -4.3119753e-06 1.991453e-06
000120 cf 73 db 36 95 d7 41 38 9b ce 91 b6 d4 50 46 37
       6.5401905e-06 4.6215562e-05 -4.345389e-06 1.1820539e-05
000130 b8 2a d2 38 a9 f5 b2 b6 3e 0b c5 37 c8 66 a8 b6
       0.00010021537 -5.333412e-06 2.3489465e-05 -5.0187555e-06
000140 10 78 ed b8 1b a9 62 b8 1d 9d 0c b9 69 f4 6b b6
       -0.00011323404 -5.404009e-05 -0.0001340997 -3.5159994e-06
000150 12 f0 57 38 53 ee 49 b7 44 c7 57 b8 93 b5 39 b6
       5.1483577e-05 -1.2036023e-05 -5.1445575e-05 -2.7672838e-06
000160 0f 31 cf b5 8c 95 d9 37 76 13 4e b7 38 a7 ac b7
       -1.543698e-06 2.5938054e-05 -1.2283088e-05 -2.0581865e-05
000170 aa 04 9c 37 13 02 a6 37 59 50 c7 b6 90 c6 a1 37
       1.8598821e-05 1.9789708e-05 -5.940016e-06 1.9285158e-05
000180 f5 a9 22 37 16 e4 99 b6 e8 83 5c 37 b0 d6 a1 37
       9.695524e-06 -4.586308e-06 1.3143734e-05 1.9292667e-05
000190 cf 4b 13 b8 d2 87 19 b9 78 36 5f b8 cf d6 d9 b6
       -3.5118133e-05 -0.00014641814 -5.321807e-05 -6.492111e-06
0001a0 19 04 1b 39 59 11 b3 b7 3a 63 5a b8 e5 f3 ff b6
       0.00014783478 -2.1346541e-05 -5.2067662e-05 -7.6279853e-06
0001b0 df 15 1b 39 8c 13 b7 35 b9 c0 d7 36 1d 3c c6 37
       0.000147901 1.3640251e-06 6.429935e-06 2.3631432e-05
0001c0 d4 20 bf 37 66 b3 88 b8 5b 64 bf b7 0d c3 49 37
       2.2784261e-05 -6.518401e-05 -2.2815706e-05 1.2025947e-05
0001d0 61 35 57 38 17 6f 6a 38 aa 0e cb b7 31 3a f7 b7
       5.1309707e-05 5.5893408e-05 -2.4206314e-05 -2.9471792e-05
0001e0 4b 9d 4a 38 db aa 08 39 9d fb f5 37 9d 45 4a 38
       4.8307043e-05 0.0001303362 2.9323443e-05 4.8225385e-05
0001f0 76 6e 70 35 b3 32 ae b6 c5 65 2c b7 6b 72 ad b5
       8.956771e-07 -5.1915063e-06 -1.0275694e-05 -1.2922804e-06
000200 db c2 85 b7 fa 99 02 b8 34 46 8a 37 78 bb ad b5
       -1.5945572e-05 -3.1137817e-05 1.6483573e-05 -1.2944065e-06
000210 f3 e6 a4 b7 f2 d5 01 b8 65 f2 f6 b6 6f 95 92 37
       -1.9657868e-05 -3.095525e-05 -7.3595897e-06 1.7474142e-05
000220 0f 06 4f b8 de 84 62 b7 d4 c9 d0 38 50 4b c1 37
       -4.935829e-05 -1.3501585e-05 9.955806e-05 2.3042463e-05
000230 1d a4 82 37 e3 3b ba b7 5b ae f3 38 a6 8e 53 b7
       1.5573629e-05 -2.2200815e-05 0.00011619619 -1.2609793e-05
000240 b3 19 d3 36 7f 13 c1 b6 b6 d6 0c b9 c4 f7 c1 b6
       6.291282e-06 -5.754118e-06 -0.00013431426 -5.780692e-06
000250 77 38 ec 37 34 b1 2b b8 f7 81 fa b6 21 1f 70 35
       2.8159686e-05 -4.093461e-05 -7.4657105e-06 8.9452266e-07
000260 94 99 fe b7 ae 47 65 33 90 09 eb b6 ba a3 03 b9
       -3.0350675e-05 5.338341e-08 -7.004659e-06 -0.00012554126
000270 69 45 ca 35 19 87 1e b7 b9 ae 8c b8 a8 2c b7 b7
       1.5070374e-06 -9.448989e-06 -6.708265e-05 -2.1836095e-05
000280 9e 03 92 b8 bf 8a 57 b8 52 64 21 38 7a 7f 70 37
       -6.962496e-05 -5.1389212e-05 3.847882e-05 1.4334795e-05
000290 c6 07 4d 38 69 18 0e b8 ee 8d ce 36 8d 93 19 39
       4.888305e-05 -3.3878172e-05 6.155801e-06 0.00014646184
0002a0 1e 71 82 b7 87 c9 e9 34 90 18 2a b7 b3 2f 1f 38
       -1.5549882e-05 4.3546262e-07 -1.01385085e-05 3.7952977e-05
0002b0 0c ca 34 b7 2e 18 19 37 73 fb 9b b7 44 dc 43 b9
       -1.0775879e-05 9.12514e-06 -1.859453e-05 -0.00018678705
0002c0 73 43 ab b6 12 3b a9 38 e6 f1 f6 34 c3 0f 87 37
       -5.1040493e-06 8.069551e-05 4.5997075e-07 1.6100594e-05
0002d0 9b 7a 9d 35 c6 17 0e b9 bb e5 b1 b6 9e c6 d8 b6
       1.1733094e-06 -0.00013551032 -5.301755e-06 -6.4604237e-06
0002e0 d7 4d 1a 39 00 bd 11 b8 98 ed e4 b7 af 64 ed b6
       0.00014715582 -3.4746714e-05 -2.7290356e-05 -7.0748715e-06
0002f0 ba 76 ed 35 ee e4 35 36 48 59 06 37 e7 aa 14 37
       1.769243e-06 2.7104356e-06 8.00781e-06 8.861279e-06
000300 63 cb 20 39 13 a7 12 b9 fe a0 35 b8 05 83 0c 39
       0.00015334557 -0.00013985885 -4.33037e-05 0.00013400249
000310 ff 62 63 b7 c9 59 54 38 39 c1 4b b7 69 f6 4a 38
       -1.3553304e-05 5.0628358e-05 -1.2144731e-05 4.839004e-05
000320 cc 9a 02 b7 4e 24 c5 37 59 6e 16 b9 be 4c a3 b6
       -7.784645e-06 2.3501136e-05 -0.00014346222 -4.8667125e-06
000330 4c 26 66 b7 d1 ae 2c b8 ec db 0d 39 96 7a 1b b9
       -1.3717985e-05 -4.1170806e-05 0.00013528735 -0.00014827619
000340 ad 5f 8d 37 bb a8 7a b8 ce 07 90 b6 f2 90 94 b7
       1.6853062e-05 -5.9761787e-05 -4.292443e-06 -1.771047e-05
000350 e5 46 6a b8 e1 a7 82 b6 0b ee e0 38 ec b0 e5 b6
       -5.5855973e-05 -3.8938456e-06 0.00010725491 -6.8453282e-06
000360 c8 9a 3b b5 24 65 e3 b6 f2 bd 62 b8 ac 64 ef 37
       -6.9888165e-07 -6.7769015e-06 -5.40595e-05 2.85379e-05
000370 6c 9b 1d b8 91 71 81 b7 cb f0 27 36 5f 9a b3 35
       -3.7576465e-05 -1.5430882e-05 2.50251e-06 1.3381467e-06
000380 c6 3b 31 38 48 51 7e b8 ee f6 da b4 45 6f 87 37
       4.2255757e-05 -6.0634018e-05 -4.078533e-07 1.6145068e-05
000390 b5 98 7d b8 90 e0 f7 b6 89 f1 81 37 1d 35 13 b9
       -6.046212e-05 -7.387316e-06 1.5490472e-05 -0.00014038799
0003a0 50 17 7c b8 46 76 52 38 d5 28 0e b7 63 bc 3c 38
       -6.0103193e-05 5.0178052e-05 -8.4733665e-06 4.499814e-05
0003b0 de 2b 55 37 fe 58 c3 b7 b5 bb 75 38 e8 1e 8d b7
       1.2706003e-05 -2.3287252e-05 5.8587368e-05 -1.6822902e-05
0003c0 14 75 2d b6 9c b6 14 b9 d9 17 2c b8 4c a1 f0 b8
       -2.5847157e-06 -0.00014182407 -4.1030205e-05 -0.00011474136
0003d0 8b 05 e0 b6 f5 8d 0c 37 4f 9a 10 b9 b9 e2 c5 b7
       -6.6763655e-06 8.377702e-06 -0.00013790395 -2.3589806e-05
0003e0 91 0e 35 38 2c 3d a4 b7 42 c6 2f b6 f2 cf 08 b6
       4.316733e-05 -1.9578809e-05 -2.6192433e-06 -2.038662e-06
0003f0 eb 7e 10 b9 63 4f cc b5 b8 b4 0d b8 fe 4d 1f 37
       -0.00013780191 -1.5222289e-06 -3.3785327e-05 9.4952975e-06

weight f4 [160, 192]
000000 46 fb 01 3d 37 65 79 3d 59 6d dd bc 87 a4 07 3d
       0.031733774 0.06088754 -0.02702968 0.03311589
000010 d7 c9 5b bc 03 e4 19 bd 64 2b 2f bd de 99 83 3d
       -0.013414822 -0.037570965 -0.04276599 0.06425832
000020 55 ff d1 bc 5c 3c 3e 3d 80 30 af bc b5 11 4e bd
       -0.025634447 0.046444282 -0.021385431 -0.050309855
000030 d0 ff 0b bd 89 ec 2f 3d 16 59 07 bd a1 c1 3e bd
       -0.03417951 0.042950187 -0.033043943 -0.046571378
000040 f9 a2 ad bb d2 b0 10 3d ea 38 05 3d b4 5a 10 bc
       -0.005298969 0.03532488 0.03252498 -0.008810688
000050 02 3e 49 3d 85 ea 91 bd 1a 7b 8a bd 9a 19 5f bd
       0.0491314 -0.07124809 -0.06761761 -0.054467775
000060 00 2d b6 3c 39 f1 c0 3c 80 65 d6 bc 90 20 83 bc
       0.022238255 0.023552524 -0.026171446 -0.016006738
000070 74 4a 6e bd fe 48 d3 3c 90 bf cf 3c 1d 49 77 bc
       -0.058176473 0.025791641 0.025359899 -0.015093115
000080 ba ab 14 3c 7c 85 63 3d d3 42 a3 3d 56 61 3c bd
       0.009074146 0.055547222 0.0797173 -0.045991264
000090 7a f5 4d 3d 2e 88 79 bd 6c 8e 13 bd 13 67 99 3d
       0.050282933 -0.060920887 -0.036024496 0.07490363
0000a0 b1 29 88 3d db 6c 36 bb 7b 98 56 3d 03 89 72 3d
       0.06648577 -0.002783588 0.05239151 0.059212696
0000b0 22 44 57 3c 7b 46 34 bd 7d 56 01 bb 40 d4 d2 3c
       0.013138803 -0.044012528 -0.001973539 0.025735974
0000c0 64 33 bd 3d 19 82 0e 3c ef a0 72 bd 5f a8 d5 3c
       0.092383176 0.00869801 -0.05923551 0.026081262
0000d0 56 d5 9f b9 ba 1e 06 3d 4e 10 b3 3c ae 1d f7 bc
       -0.0003048579 0.032744147 0.02185836 -0.03016552
0000e0 1d 3c db 3c e1 18 5a bd 55 b6 4e bb f6 ee 64 bc
       0.026762063 -0.053246383 -0.0031541784 -0.013972988
0000f0 72 fc 1c bd 83 36 23 bd c5 79 7b 3d 4d be 07 3c
       -0.038326688 -0.03984691 0.061395425 0.008285117
000100 a9 77 56 bd f5 a3 fe bb 7d c8 8a bd 94 0e 11 3d
       -0.05236021 -0.00777101 -0.06776521 0.035414293
000110 6a fc 39 bd 9b 0f 53 3d af be 0a 3c 86 26 19 bd
       -0.045406736 0.051528554 0.008468314 -0.037390254
000120 6c 3b 66 bd 6e 29 26 3c b8 74 ce 3c 01 06 88 bd
       -0.056209013 0.010141714 0.02520214 -0.0664177
000130 06 c4 4f bd ab 4b 57 3d e7 71 92 3d 27 a8 04 3d
       -0.050724052 0.052562397 0.071506314 0.032386925
000140 dd 11 62 3d 80 d8 6f 3c b8 c0 1c bd d5 aa 2d bd
       0.055192817 0.01463902 -0.03826973 -0.042399246
000150 39 ca ae bc 91 7d a0 3d ab e7 8d bc 37 f1 e3 3b
       -0.021336662 0.0783645 -0.017322382 0.0069562453
000160 43 9b 09 bd 87 f7 b4 3d a3 f6 46 3c 6e 13 52 bc
       -0.033595335 0.088362746 0.012143764 -0.012822015
000170 05 8b 82 bd dc 33 08 3d 0f be 8c bd cc d4 8e ba
       -0.06374172 0.033252582 -0.06872188 -0.0010897159
000180 98 36 de 3c c3 e3 6d 3d 45 15 1f 3d be 57 da 3c
       0.027125642 0.05807854 0.038838644 0.026653167
000190 89 9f 59 3c 43 bf 58 3d 7a 51 a1 3c 4d b1 3e 3d
       0.013282665 0.052916776 0.019692171 0.046555806
0001a0 aa ca 28 3d 5b a9 86 3b 6b f2 82 3c b4 0a cb 3b
       0.0412089 0.004109544 0.015984735 0.0061963443
0001b0 3d d6 05 3d b8 4b 43 3d e5 41 aa 3d 66 cc 00 3d
       0.032675017 0.047679633 0.0831335 0.03144493
0001c0 d1 f7 8b 3d 78 51 59 bd 13 75 9f bc f4 d8 39 3d
       0.068343766 -0.05305621 -0.019465005 0.04537292
0001d0 11 63 fd bc 75 93 f3 3c 71 c0 38 3d a7 b0 71 bd
       -0.030931028 0.029733399 0.0451054 -0.05900636
0001e0 48 da 14 3c 2c 78 30 3d a2 21 a3 3d c4 c0 c6 bc
       0.009085245 0.043083355 0.07965399 -0.02426184
0001f0 eb f9 a3 bb 5c 04 3f bd 69 d0 69 bc 77 d8 4e bd
       -0.005004158 -0.046635017 -0.01427088 -0.050499406
000200 dd a6 40 bd 6c 37 64 3d 17 89 e2 bb a7 18 4a bd
       -0.047034133 0.055716917 -0.006913315 -0.049339917
000210 68 32 b5 bc 22 fa ba 39 d5 72 05 3c 67 da 2f bd
       -0.022118762 0.00035663048 0.008145054 -0.042932894
000220 80 2a 40 bd ef 27 9d 3d 30 98 32 3d 78 e4 84 bd
       -0.04691553 0.07673632 0.04360217 -0.064888895
000230 0f 70 1e 3d f6 f3 6e 3d 88 26 7f 3d 43 b6 dc 3c
       0.038681086 0.058338128 0.062292606 0.026942378
000240 f6 52 01 bd d7 bf cc 3c 30 6b 92 bd dc 4b a1 3b
       -0.03157326 0.02499382 -0.07149351 0.004922373
000250 a2 27 87 3d 7e 8c 0a bd 67 34 35 bd 32 ef 47 3c
       0.06599356 -0.03382539 -0.044239428 0.012203025
000260 83 37 88 3d 99 5f 15 3d ef 9b e4 bc a2 75 37 3d
       0.06651213 0.036468122 -0.027906386 0.044789918
000270 52 5c 1b 3d 28 de 4e 3d 38 f6 6b 3d 57 34 39 bd
       0.03792984 0.050504833 0.05760786 -0.04521593
000280 cf 19 58 bc be 2e ee bc ee 20 b3 bc 2c fe a1 bc
       -0.013189747 -0.029075023 -0.021866288 -0.019774519
000290 da 6d 29 bc 6d ce a2 3c 9c 20 0a 3c fd 8c 4b 3c
       -0.010341132 0.019873822 0.008430626 0.012423751
0002a0 11 25 87 3d d9 1f 57 bd d2 73 c8 3c 19 df 2c bd
       0.06598867 -0.052520607 0.02446929 -0.04220495
0002b0 04 7e 9c bc 6c 5c 3e 3d 18 29 10 bd 1a e2 3e bc
       -0.019103058 0.04647486 -0.03519544 -0.0116505865
0002c0 1f c9 66 3d 09 13 3b 3d 05 46 27 3d ab 6d 73 bd
       0.056344148 0.04567245 0.04083826 -0.05943076
0002d0 6e a7 69 bd 03 20 30 bd 54 59 68 bd b8 20 1a 3d
       -0.05704444 -0.04299928 -0.056725815 0.03762886
0002e0 2d e9 96 3c dc 8b 17 bd 63 2d e8 3c 02 55 05 bd
       0.018421734 -0.036998615 0.028341955 -0.032551773
0002f0 6e 8f b7 3d ae ec e1 b9 1f c9 8a 3d 1a c5 87 bd
       0.08962904 -0.00043091684 0.06776642 -0.06629391
000300 b3 de ea 3b 94 c4 d6 bc bc f2 f2 3c 62 cb 14 3d
       0.007167661 -0.026216783 0.02965676 0.036326773
000310 82 87 bf bc 4d bb 0b bd aa 42 8a bc 8c d9 26 3d
       -0.023380045 -0.03411417 -0.016877491 0.040734813
000320 6c 17 c7 bb 3b 0c 04 3d bd 04 23 bd 2f a4 1a 3d
       -0.00607579 0.032238226 -0.03979944 0.037754234
000330 c6 e7 fe bb 4b 5e 03 3d 9e 66 e7 3c 86 6d 01 bd
       -0.0077790944 0.032072347 0.028247174 -0.03159859
000340 4d e1 28 3c 1c 72 b8 3d 9d 84 83 bd 1a c0 d5 bc
       0.010307622 0.0900614 -0.06421778 -0.026092578
000350 f3 c2 2f bd 64 ae 16 bd 59 8a 87 3d e7 2f d5 3c
       -0.042910527 -0.036787406 0.066181846 0.026023818
000360 c6 19 95 3d f6 a1 f6 bc fc 51 d4 3b 1b f8 16 bd
       0.072803065 -0.030106526 0.0064795 -0.036857706
000370 1e 1f b0 3c d4 ec 35 bd 12 d4 6e 3d 3e 60 0a bb
       0.021499213 -0.04441531 0.058307715 -0.0021114494
000380 ae 6b 58 bd 2a 64 9e 3d 7d 5e aa 3c b5 2c 60 3d
       -0.052837066 0.077339485 0.020797009 0.054730136
000390 8a f5 09 bd f3 01 ea 3d 2e 25 8b bd 1d 8b 8d bd
       -0.03368143 0.11426153 -0.06794201 -0.069112994
0003a0 bd b0 3f 3d dd 81 1a bd e4 0b 95 3d 5a d2 ad 3d
       0.04679941 -0.037721504 0.072776586 0.08487387
0003b0 c5 04 0d 3d 3c d5 2e bc 3a 92 06 3c a3 77 26 3d
       0.034428377 -0.010670956 0.008213574 0.04064144
0003c0 d0 d8 2d bd d5 1f fd bc 45 a5 a0 bd 42 7d 3b ba
       -0.042443097 -0.030898968 -0.07844023 -0.0007152149
0003d0 16 a8 0f bc 91 20 90 bd bd dd f1 3c 27 d1 f1 3c
       -0.008768102 -0.070374615 0.029524678 0.029518677
0003e0 6f fe 20 3d 87 01 bf bc e2 fc 5d 3d 2d ec fa 3b
       0.039305147 -0.023316158 0.054196246 0.007657549
0003f0 81 49 80 bc 58 1c 23 bd 26 a2 11 3d fb 8a 64 3d
       -0.01566005 -0.039821953 0.035555027 0.055796605

bias f4 [160]
000000 1c 9c d1 39 ab b7 2d 3a 81 07 80 36 f9 29 de 37
       0.00039979897 0.0006626795 3.815571e-06 2.6484007e-05
000010 71 60 90 34 b4 79 58 35 fa 99 fb b7 3f e5 1d b6
       2.689226e-07 8.064337e-07 -2.9993233e-05 -2.3528262e-06
000020 22 15 9e 35 5d 55 f0 b7 3c 9e a0 37 79 c1 2d ba
       1.1778068e-06 -2.864998e-05 1.914717e-05 -0.0006628256
000030 cd cc 78 38 30 ba 32 b8 4b 61 0b b6 02 9a 13 b9
       5.9318543e-05 -4.2611908e-05 -2.0769246e-06 -0.00014076385
000040 8f 09 e3 38 e1 48 29 37 a9 de 9e b7 a4 1d 98 b6
       0.00010825984 1.0090153e-05 -1.8938752e-05 -4.5334036e-06
000050 72 c7 e3 b7 2f 70 e2 36 5f da 1f b7 fa fd 12 39
       -2.7153383e-05 6.7483847e-06 -9.527982e-06 0.00014018259
000060 75 8d 8d b7 97 c5 a1 b7 2e c1 db b8 38 37 f5 b7
       -1.687438e-05 -1.9284706e-05 -0.00010478716 -2.923199e-05
000070 11 b3 f1 38 aa 6d 5a 38 6a d9 97 36 b1 99 04 39
       0.00011525129 5.2077383e-05 4.525461e-06 0.00012645755
000080 4f 65 ab b7 ad a1 49 38 1c 1d 2b b8 9f c7 4f 38
       -2.0431964e-05 4.8072707e-05 -4.0796687e-05 4.9538558e-05
000090 33 19 0a b9 ef 48 3a b7 2b 82 1b b9 7b 64 5f b7
       -0.00013170093 -1.1103445e-05 -0.00014830443 -1.3315231e-05
0000a0 3f 54 be 36 b5 7e d2 37 48 f6 6a b7 6d 73 a1 37
       5.672249e-06 2.5092953e-05 -1.4004829e-05 1.9246445e-05
0000b0 04 af 19 b9 d1 98 0a 3a 28 f9 bb b7 2a 7d 84 b5
       -0.00014656415 0.00052870536 -2.240816e-05 -9.871194e-07
0000c0 eb f6 ea 37 4a 9c 50 38 6f ac 66 b7 a2 d9 15 b9
       2.8009954e-05 4.973662e-05 -1.3749216e-05 -0.00014290822
0000d0 b0 7b 05 39 a5 15 55 38 bd ab ed b6 83 1b 0e b7
       0.00012729946 5.0803315e-05 -7.0831434e-06 -8.470265e-06
0000e0 a9 5c 14 b6 a0 24 cf 38 9a f5 1a 39 d8 44 b0 b5
       -2.2107654e-06 9.877351e-05 0.00014778078 -1.3133058e-06
0000f0 1f af 44 ba 11 28 b7 b6 99 23 94 b6 ca 55 40 38
       -0.0007502902 -5.4584893e-06 -4.414888e-06 4.5856264e-05
000100 44 77 00 34 7d 0f 96 b8 02 71 d3 35 b5 2c 8a 36
       1.1964318e-07 -7.155442e-05 1.5753615e-06 4.117925e-06
000110 8f 1b 07 39 b0 6c 57 b8 45 10 d5 b6 13 81 1a b6
       0.0001288487 -5.1361218e-05 -6.3497887e-06 -2.302292e-06
000120 59 82 1a 39 f7 66 7a 36 75 2b 2b b6 b9 76 3a b7
       0.00014735143 3.7312836e-06 -2.550628e-06 -1.1114106e-05
000130 e1 c8 38 b5 fb bb 15 39 b2 2c 07 36 d6 2a 10 b9
       -6.883766e-07 0.00014279775 2.0142584e-06 -0.00013748868
000140 3a 34 02 b7 c2 2e 8d 38 e6 68 4d 3a 88 e4 ed 36
       -7.760764e-06 6.732113e-05 0.00078357605 7.089755e-06
000150 5d e6 0a b8 31 d2 a4 b6 54 db 92 b7 6e 4e 2c 37
       -3.3116306e-05 -4.9120504e-06 -1.7506689e-05 1.027026e-05
000160 14 63 a9 b6 f1 46 2b b7 0f dc bb b6 08 4d bc b9
       -5.0481267e-06 -1.0208912e-05 -5.5986525e-06 -0.00035915547
000170 ff 79 37 b8 21 e5 e4 b4 4b b7 93 34 70 95 0d 39
       -4.3744218e-05 -4.2635023e-07 2.7514247e-07 0.00013502478
000180 f3 ce a2 b7 ac 1c 18 b5 fe 96 1b 39 55 a3 08 39
       -1.9408273e-05 -5.6666136e-07 0.00014838201 0.00013030817
000190 ac 1f aa b6 12 6d 94 35 ee 61 26 3a 52 ba 52 b8
       -5.070082e-06 1.1058603e-06 0.000634699 -5.0241426e-05
0001a0 0a 71 9d b6 e1 74 62 38 01 63 0b b9 19 90 16 b9
       -4.692124e-06 5.399145e-05 -0.00013292955 -0.00014358795
0001b0 5b 60 3f 35 db fa 47 38 b0 6c 93 b7 f6 fa 11 b7
       7.129326e-07 4.7678925e-05 -1.7574377e-05 -8.701105e-06
0001c0 b8 99 4c b7 14 8c b2 34 b6 91 1f 36 85 5f ef b7
       -1.2195138e-05 3.3257004e-07 2.3777661e-06 -2.85355e-05
0001d0 52 dc 7d b7 30 16 fc b7 61 55 59 b9 83 4e 87 36
       -1.5131272e-05 -3.0051073e-05 -0.00020726539 4.0324535e-06
0001e0 34 25 ce b7 52 2e 06 39 cc 7f d5 b6 4f 60 fb b8
       -2.4574438e-05 0.00012796492 -6.362772e-06 -0.000119865515
0001f0 7c 41 98 b7 43 2d f6 36 01 7c fc b7 44 4a a9 36
       -1.8150306e-05 7.3366405e-06 -3.0098485e-05 5.045238e-06
000200 b1 c6 16 b7 45 36 cb 38 df 51 67 36 7f 2b 31 b7
       -8.986958e-06 9.689903e-05 3.4469338e-06 -1.0560149e-05
000210 9b 4e 0d b8 07 88 54 b7 f4 db 00 38 3d 5e 51 b6
       -3.3690227e-05 -1.2667856e-05 3.0722425e-05 -3.119828e-06
000220 ac 3a 0a b6 98 fd 3b b6 c0 82 18 b5 0c 68 5e b8
       -2.0597754e-06 -2.8012782e-06 -5.681468e-07 -5.3025826e-05
000230 1f c6 f4 b8 ad f3 4e 38 d6 f5 1c 38 c0 5e 8e 33
       -0.000116717296 4.9341168e-05 3.742225e-05 6.629625e-08
000240 5c 2b 59 b8 ae b4 5d b8 db 8c 36 b7 1e a4 a7 38
       -5.1777213e-05 -5.2858777e-05 -1.0880841e-05 7.99375e-05
000250 dc 85 3f ba 85 19 e4 b7 8e b7 1a 39 42 dd bd 36
       -0.00073060184 -2.7191601e-05 0.00014754964 5.6583967e-06
000260 37 bf bf b8 44 59 23 36 9f 8c 55 38 a1 07 c8 b7
       -9.143206e-05 2.4340852e-06 5.091412e-05 -2.384541e-05
000270 88 7f 39 b9 96 41 af b9 35 ce 01 ba d9 15 49 b6
       -0.00017690484 -0.00033427466 -0.0004951687 -2.996405e-06

weight f4 [160, 192]
000000 56 e8 0d bc bc dd 45 3d b4 3b 14 3d 42 e2 7c 3d
       -0.00866135 0.048307166 0.03618975 0.061739214
000010 5f cb 0b bd d2 fa ce 3b 14 03 22 bd 85 21 0c 3c
       -0.034129497 0.006316521 -0.039553717 0.008552914
000020 01 eb f2 3c 07 07 06 bd 07 de d7 bc a5 09 5d bc
       0.029653074 -0.032721546 -0.026350988 -0.013491069
000030 c0 cc dc bc 99 28 77 3d be 8e 5b 3b 0d d4 42 3d
       -0.026953101 0.06034145 0.003350183 0.04756551
000040 ef 45 70 bc 81 4d 89 bc c6 19 3c bd b8 d5 78 bc
       -0.014665111 -0.01676059 -0.045923017 -0.015187673
000050 4e 1f ca bc 2b 44 d9 3a ac 3e 59 bd cf 0f 35 bd
       -0.02467313 0.0016576102 -0.053038284 -0.04420453
000060 09 b9 87 3d bc 8c 69 bd e0 b1 2e bd 4c e9 37 bd
       0.066270895 -0.05701898 -0.042650104 -0.044900224
000070 d6 db f1 bc 57 7c 0f 3c a4 4b 80 3c 54 d6 ea bc
       -0.029523771 0.008757672 0.015661068 -0.028666653
000080 11 17 c2 bc 5a 75 87 bc fa 80 f6 3c 2d 5b 3d bd
       -0.02369264 -0.01653545 0.030090798 -0.04622953
000090 07 d1 94 bd 3e b9 8b bd 2b 3d d9 bb 90 f8 07 3d
       -0.07266431 -0.068224415 -0.0066296062 0.033196032
0000a0 f1 97 d7 3c f8 f3 fa bc ef 7d da bc b0 7d 12 3b
       0.026317568 -0.030633911 -0.026671378 0.0022352748
0000b0 65 fa 89 bd d8 f7 8a bb 2c 44 86 3c e5 d8 ad bc
       -0.06737212 -0.004240971 0.016389929 -0.021221587
0000c0 c4 51 a0 3d be bc 03 bc a7 04 f7 bc 1d 0a 59 ba
       0.078280956 -0.008040605 -0.030153586 -0.00082794
0000d0 89 c9 12 3d 3d 7f c8 bc bc 01 7a bd e5 7c 74 38
       0.03583673 -0.024474734 -0.06103681 5.829045e-05
0000e0 b0 a7 25 bd c5 4e 31 3c 57 92 cf 3c 37 91 41 bd
       -0.040443122 0.010822003 0.025338335 -0.04725763
0000f0 3b d8 e1 bb e3 f6 44 3d 16 7c 74 3d 21 e5 ee 3c
       -0.0068922318 0.048087012 0.05968865 0.029161992
000100 d6 0e 86 3d 0a 7a 83 3c 49 ea 8e bc 8b e7 fd 3c
       0.065457985 0.016049404 -0.0174457 0.030994197
000110 c7 df 1f 3c c8 3a 05 3d 4f 2e 63 bc cd e9 16 bd
       0.0097579425 0.03252676 -0.013866021 -0.036844064
000120 88 35 6f bc 4d 48 71 3c dc c8 70 3d c3 83 ef ba
       -0.014600165 0.0147267105 0.058785304 -0.0018273521
000130 af 52 22 bd 6e 79 fa bc 90 ff af ba 2e 13 34 bc
       -0.039629634 -0.03057548 -0.0013427604 -0.010990901
000140 d1 fb c3 bc 6d b0 9a bc 38 3d d3 ba a6 0f ba 3c
       -0.023923786 -0.018882954 -0.0016116267 0.02271254
000150 bb a4 33 bd f2 4c f0 3c df b9 f2 3c 5b c6 17 bd
       -0.04385827 0.029333565 0.029629646 -0.0370544
000160 e4 7e 06 3d 00 fb 6d bc b4 1f 6e bd 67 a5 37 bc
       0.032835856 -0.014525175 -0.058135703 -0.011208869
000170 66 a7 0e bd 56 a0 d4 bc eb 76 1b bd d3 0e 04 3d
       -0.034827612 -0.02595536 -0.037955206 0.0322407
000180 5a be a5 bb 38 fe 3c 3d c1 7a 5b bd 26 fe f2 3b
       -0.005058092 0.04614088 -0.053583864 0.0074155508
000190 a6 20 4a 3d ef 84 32 bd 07 d0 c0 3b 91 79 a7 bc
       0.049347542 -0.043583807 0.005884174 -0.02044371
0001a0 1f 0f c8 ba 24 bc b9 3b 82 65 2b bd f7 c3 9c 3d
       -0.0015263295 0.00566818 -0.041844852 0.07654565
0001b0 bd 9f 0c bd c5 24 a1 bb 96 f2 08 3d 39 3d 8a bd
       -0.034332026 -0.0049177133 0.033434473 -0.067499585
0001c0 de 69 f3 bb 9c 46 27 bd 59 14 c4 bc 83 a6 2e bd
       -0.007428392 -0.040838823 -0.023935484 -0.042639267
0001d0 08 fc 68 bd 3c 4e 1c bd c7 cd 77 bd 18 ee 15 bd
       -0.05688098 -0.038160548 -0.06049898 -0.036604017
0001e0 ef c8 84 3d dd 1b 14 3d 78 25 74 3d 3b 66 fe bb
       0.064836375 0.036159385 0.059606045 -0.0077636517
0001f0 2e 3b 94 3c 65 01 8e bd 0a 26 04 bd 45 f3 ad bb
       0.018094625 -0.0693386 -0.03226284 -0.005308541
000200 bb 65 13 3d d9 0e 0f 3c 7a 4b 35 3c fb d0 1e 3d
       0.03598569 0.008731567 0.011065358 0.038773518
000210 ec 0d 70 bd e4 18 a0 bd 4a 83 96 3d 46 19 58 3a
       -0.058607027 -0.078172475 0.0734926 0.0008243512
000220 f1 40 4a 3d 24 41 4d 3d 14 62 1c 3d de e3 ed 3c
       0.04937834 0.05011095 0.038179472 0.02903932
000230 5e f4 e4 bb c6 a5 8d 3d b9 bb 72 3d 64 84 97 3d
       -0.0069871387 0.069163844 0.059261058 0.073982984
000240 17 76 c8 3c e4 28 f7 3b 1d c7 ef 3b f5 79 86 3c
       0.024470372 0.0075427163 0.0073174373 0.016415576
000250 9f c8 6c 3d 98 6c 0d bd fc a1 f6 bc 59 b1 81 3c
       0.057808515 -0.03452739 -0.030106537 0.015831636
000260 39 2f b0 3c 6a 7b cd 3c 18 7b 73 bc 28 d5 25 3d
       0.021506893 0.025083262 -0.014860891 0.040486485
000270 eb c5 de 3c 2d f7 a4 bc 15 c1 21 bc 15 13 4a 3d
       0.027193984 -0.020137394 -0.0098726945 0.049334604
000280 32 8e b2 3c fb 5a e5 bb 0e 77 ab 3c a9 f3 78 3d
       0.02179632 -0.006999371 0.020930793 0.060779247
000290 d0 d2 79 3d 33 a2 34 3d ce ea 00 bd ce 6a 87 bc
       0.060992062 0.044099998 -0.031473927 -0.01653042
0002a0 db ac b7 bc c6 aa 2f bd b5 e7 d3 bb cd 3a a9 bc
       -0.022421291 -0.04288747 -0.0064668306 -0.020657921
0002b0 92 4e 44 3c 66 30 58 3d f1 fd d5 3c fd ca 82 bd
       0.011981623 0.05278053 0.026122065 -0.06386373
0002c0 8a d8 07 3d 14 54 1b bc f3 a6 f6 bc a8 4d 1d bd
       0.033165492 -0.009480495 -0.030108904 -0.038404137
0002d0 c0 77 28 bc bc c2 49 3d 80 e8 1b bd 7b b6 88 3c
       -0.010282457 0.04925798 -0.038063526 0.016688576
0002e0 ba 91 20 bd 02 25 19 bd 20 df 03 3c 55 f0 94 3c
       -0.039201476 -0.03738881 0.008048803 0.018181005
0002f0 21 32 49 3d 46 9b 25 3c 45 de 16 bd 12 a8 29 bd
       0.049120072 0.010107821 -0.036833066 -0.04142005
000300 43 72 44 bc 23 0e 39 bd 1d 58 c0 bb 62 a7 a1 3c
       -0.011990133 -0.045179497 -0.005869879 0.019733135
000310 59 07 e1 bb 7d 2a 5b bd a0 7c 94 bc 2d 5f 2a bd
       -0.006867331 -0.053507317 -0.018125832 -0.041594673
000320 b8 c9 94 bd d8 3e 73 bd 73 af f2 bc 2d f4 80 bd
       -0.07265037 -0.059386104 -0.029624676 -0.06296573
000330 a6 55 7e bd f1 13 90 bc e7 b1 02 3d 8b 56 ed 3c
       -0.0620934 -0.017587634 0.031907942 0.028971931
000340 36 97 8c 3c 4f b7 30 bb 55 0d 69 3d a4 f8 62 bd
       0.017161947 -0.002696473 0.05689748 -0.055412903
000350 cc 35 67 3d 91 ec 20 3b 7a 85 4e 3d 71 86 8d bd
       0.05644779 0.0024555067 0.050420262 -0.06910408
000360 cc 1d e3 bb 65 dc 4c bd 24 76 e1 3c 42 6a 03 bc
       -0.0069310423 -0.050014872 0.027522154 -0.008020939
000370 8f ea 5b bd 38 35 02 3d 6d 80 8a 3c f0 b7 1a bd
       -0.05369049 0.031789035 0.016906941 -0.037773073
000380 32 87 9b bd d1 b8 c1 3c b7 d7 e6 bc 33 1e 62 bd
       -0.07594146 0.023647698 -0.028179033 -0.05520458
000390 4e f1 74 bc 6d 62 86 3c 0f 67 2c bd 3c 01 bb bd
       -0.01495011 0.016404355 -0.04209047 -0.09131095
0003a0 9e 5c 67 3d 18 83 3e bd 6d a5 bc 3c 80 9a 0d bd
       0.05648481 -0.04651174 0.0230281 -0.03457117
0003b0 1a d1 6b bc 26 ee 4a 3d 90 76 42 bd 6c 58 3a 3d
       -0.014393115 0.049543522 -0.04747635 0.045494482
0003c0 73 bb 7c bd e9 cc 28 bc 28 32 97 3c 96 98 84 bd
       -0.061702203 -0.010302761 0.018456534 -0.06474416
0003d0 4a eb 66 3d a8 95 82 bd 1e 9b 94 bc 47 30 80 bc
       0.056376733 -0.06376201 -0.018140372 -0.01564802
0003e0 88 c5 91 bd ad 9b 8f bc cb 6c ca bc 5f 26 33 bd
       -0.07117754 -0.017530287 -0.02471008 -0.043737765
0003f0 e5 91 04 3d a9 4f 89 bc 03 69 69 bd 95 68 1b bd
       0.0323657 -0.016761618 -0.056984913 -0.037941534

weight f4 [192]
000000 ab 76 81 3f 36 c1 7c 3f 83 81 80 3f 9e c6 80 3f
       1.011434 0.98732316 1.0039524 1.0060613
000010 4b cd 7d 3f 4d b2 7c 3f 8c 23 7b 3f 4b 58 7c 3f
       0.9914138 0.98709565 0.98101115 0.98572224
000020 11 4c 7e 3f e3 e4 78 3f 2b ed 78 3f 2c 49 7f 3f
       0.9933482 0.97224253 0.9723689 0.99721026
000030 34 88 7b 3f d7 aa 7c 3f ae 9f 81 3f a7 a5 81 3f
       0.98254704 0.9869818 1.0126855 1.0128678
000040 01 0b 83 3f a9 84 7f 3f 1a 7a 80 3f 50 21 81 3f
       1.0237733 0.998118 1.0037262 1.0088291
000050 1a fb 79 3f 61 c3 7d 3f f9 32 7f 3f 0b 01 82 3f
       0.97648776 0.9912625 0.99687153 1.0156568
000060 3e 4e 7c 3f 6e b2 7b 3f a1 b9 7a 3f c7 ae 7b 3f
       0.9855689 0.9831914 0.979395 0.98313564
000070 ce 7b 7b 3f 54 6c 7f 3f 80 7b 7d 3f ab 5d 80 3f
       0.98235786 0.9977467 0.9901657 1.0028585
000080 99 83 81 3f 26 0f 80 3f 2f 0c 7e 3f 2d 76 7a 3f
       1.0118285 1.0004623 0.9923734 0.9783657
000090 81 0c 7f 3f 67 f3 84 3f c9 64 7c 3f 9a eb 7b 3f
       0.99628454 1.038678 0.98591286 0.98406374
0000a0 c6 cf 81 3f ae b4 76 3f ab 04 83 3f 1b df 81 3f
       1.0141532 0.96369445 1.02358 1.0146211
0000b0 b2 4b 7f 3f 8f 18 82 3f f0 85 7b 3f f3 22 82 3f
       0.99724877 1.0163745 0.9825125 1.0166916
0000c0 25 06 7e 3f 11 9c 81 3f 1d 53 79 3f c7 0c 7d 3f
       0.99228126 1.0125753 0.97392446 0.9884762
0000d0 98 d9 7a 3f 0f 4f 84 3f 79 43 82 3f 4c 41 81 3f
       0.9798827 1.0336627 1.0176841 1.0098052
0000e0 cf fc 7a 3f 42 e2 7b 3f 2b 0e 85 3f c0 b2 7f 3f
       0.98042005 0.9839212 1.0394949 0.99882126
0000f0 2b 9e 83 3f 6c 6f 80 3f 73 38 77 3f 21 25 79 3f
       1.0282644 1.0034003 0.9657051 0.9732228
000100 54 6a 80 3f 87 8c 86 3f 58 6b 7e 3f 56 9f 7e 3f
       1.0032449 1.0511636 0.99382544 0.9946188
000110 1c 7c 7d 3f 8b 69 7c 3f 0f 70 7f 3f d4 70 7b 3f
       0.990175 0.98598546 0.9978036 0.9821904
000120 3a 68 7a 3f e3 8f 77 3f f8 78 79 3f 05 12 81 3f
       0.9781529 0.9670393 0.9745021 1.0083624
000130 3e 38 83 3f 06 f9 82 3f 10 80 7c 3f 94 c5 81 3f
       1.0251539 1.0232246 0.9863291 1.0138421
000140 33 46 79 3f 65 c4 7c 3f 5e 44 80 3f 08 4c 7d 3f
       0.9737274 0.98737174 1.0020864 0.9894414
000150 a2 83 7a 3f 60 9f 7e 3f ca 97 7f 3f 5d 3e 79 3f
       0.97857106 0.99461937 0.99840987 0.97360784
000160 98 7c 82 3f db 83 80 3f 91 ac 80 3f 78 c7 80 3f
       1.0194273 1.0040239 1.0052663 1.0060873
000170 3c 87 80 3f 0c 4e 81 3f c9 97 80 3f 2d 37 80 3f
       1.004127 1.0101943 1.0046321 1.0016838
000180 4c 0d 7b 3f 63 b2 84 3f 65 dc 7a 3f 87 bb 80 3f
       0.98067164 1.0366939 0.97992545 1.0057229
000190 3b 76 7c 3f 88 aa 7a 3f 1e 70 7d 3f af 8c 7f 3f
       0.98617905 0.9791646 0.989992 0.9982404
0001a0 5d 3b 80 3f ba aa 7a 3f 92 12 80 3f 48 e0 7c 3f
       1.0018116 0.9791676 1.0005667 0.98779726
0001b0 68 f9 81 3f 08 24 76 3f 62 14 7f 3f fd c9 7f 3f
       1.0154238 0.9614873 0.99640477 0.99917585
0001c0 0a 25 7d 3f f0 53 80 3f 33 d9 81 3f a4 b5 74 3f
       0.9888464 1.0025616 1.0144409 0.9558966
0001d0 07 9d 84 3f e5 1e 78 3f 98 b1 7a 3f 6b 35 7e 3f
       1.0360421 0.9692214 0.97927237 0.9930026
0001e0 1e 50 7c 3f 35 fd 7b 3f 8f 71 7c 3f 87 7c 7d 3f
       0.9855975 0.9843324 0.98610777 0.9901814
0001f0 f4 d4 80 3f 9f de 83 3f f4 24 7a 3f 3d ff 80 3f
       1.0064988 1.0302314 0.97712636 1.0077893
000200 19 12 82 3f 3f be 84 3f e3 ab 76 3f c9 4d 7d 3f
       1.0161773 1.0370559 0.9635603 0.98946816
000210 58 26 7c 3f f7 f9 84 3f 10 ab 79 3f 95 3e 7c 3f
       0.9849601 1.0388783 0.97526646 0.9853299
000220 56 76 7e 3f d6 b7 7b 3f 5a c8 82 3f 23 d6 83 3f
       0.99399316 0.98327386 1.0217392 1.0299724
000230 2c bd 81 3f 9e 4e 7e 3f ad 80 7f 3f 96 07 75 3f
       1.0135856 0.9933871 0.9980572 0.957147
000240 6c b3 78 3f c1 07 7e 3f 55 04 79 3f 4a 1b 80 3f
       0.97148776 0.9923058 0.97272235 1.0008328
000250 81 d5 76 3f ed 21 77 3f 3e 64 81 3f 87 d3 7c 3f
       0.9641953 0.9653614 1.0108716 0.98760265
000260 cd fc 7e 3f ef 03 83 3f 43 19 81 3f 64 02 81 3f
       0.99604493 1.0235575 1.0085834 1.0078855
000270 86 92 84 3f 78 50 7e 3f 0a 65 7f 3f 4d 21 7d 3f
       1.0357215 0.99341536 0.9976355 0.9887894
000280 75 23 79 3f 81 6f 7f 3f df 22 7b 3f 78 67 77 3f
       0.9731973 0.99779516 0.98100084 0.96642256
000290 16 40 80 3f 75 12 7e 3f 07 87 75 3f 8d 2c 7e 3f
       1.0019557 0.99246913 0.9590916 0.9928673
0002a0 e9 cc 82 3f 72 66 7f 3f 77 64 7b 3f 6b 77 7b 3f
       1.0218784 0.99765694 0.9820017 0.9822909
0002b0 0a 95 78 3f e1 26 79 3f 49 46 78 3f 82 e6 7e 3f
       0.97102416 0.9732495 0.96982247 0.99570477
0002c0 a9 60 7f 3f c8 0a 82 3f 12 4e 7c 3f 02 1b 7f 3f
       0.99756867 1.015954 0.98556626 0.99650586
0002d0 ab 12 7e 3f 9c 7b 7a 3f f1 a0 83 3f 48 e6 78 3f
       0.99247235 0.9784486 1.028349 0.9722638
0002e0 32 5c 83 3f 1d 73 82 3f cb 49 84 3f 48 e5 7e 3f
       1.0262511 1.019138 1.033502 0.99568605
0002f0 e7 30 7b 3f cb af 80 3f 56 c2 82 3f 9f 61 7c 3f
       0.98121494 1.0053648 1.0215557 0.9858646

bias f4 [192]
000000 88 60 5f 3d d5 5e 8f 3d 8e 31 a6 bb 7f 9f a8 bb
       0.05453542 0.0700051 -0.0050718253 -0.0051459665
000010 b6 c3 b3 3c 7b c3 c3 bc f2 b4 ac bc 7b 07 90 3d
       0.021943908 -0.023896923 -0.021082375 0.07032677
000020 43 fd 21 3d a9 86 f4 3c 27 25 ea bc af 54 98 3d
       0.03954817 0.029849367 -0.028582169 0.07438027
000030 39 54 74 3d 60 ad 8d 3d 6f f6 35 3d c5 af 2d 3c
       0.059650633 0.06917834 0.04442447 0.010600989
000040 e2 99 85 3c a0 4e 35 bd 25 43 10 bd 33 2f bd 3d
       0.016308729 -0.044264436 -0.035220284 0.09237518
000050 d7 cf f4 bc b7 bf 3c ba 51 6d 59 3d 3c a3 c0 3d
       -0.029884262 -0.00072001986 0.053082768 0.094061345
000060 cc 44 6a bc a3 b8 63 bd 70 87 3e 3d f0 b0 ca 3c
       -0.014298629 -0.055596005 0.046515882 0.024742573
000070 63 2d 43 3d 48 2e f7 3c 9b 5d df bb cf 01 82 3d
       0.047650706 0.030173436 -0.0068165786 0.06348001
000080 bb 2d b9 3d 11 eb 21 3d 62 cf 96 3d e4 3c a0 bc
       0.090419255 0.039530817 0.07363774 -0.019560285
000090 f2 8a 30 3d de 61 56 3d 16 80 27 3d 40 40 52 3c
       0.04310126 0.052339427 0.040893637 0.012832701
0000a0 3f 74 34 3d 9b d6 ad 3c 9b 80 fd 3c 7b 24 31 3d
       0.044056173 0.021220496 0.030945113 0.04324768
0000b0 ca 81 06 3c a8 26 9d bb 9b dc 11 bc e2 bf 0f 3d
       0.008209655 -0.004795868 -0.008902694 0.035095103
0000c0 ec 9b 18 3d 93 a0 b3 3c 10 ff a4 3c 8d 8d c7 3c
       0.037258074 0.021927154 0.020141155 0.024359489
0000d0 bf 1a aa bc a3 75 e2 3d c6 d9 28 3d d3 1a 33 3d
       -0.020764707 0.11057594 0.04122331 0.043726753
0000e0 20 f1 2d bd 7f bb 5d 3c 2a d7 fe 3c 03 c9 20 3d
       -0.042466283 0.013533472 0.031108458 0.0392542
0000f0 ec c5 4c 3d 84 9d 92 3d c4 99 08 bd f9 cd a8 3c
       0.04999344 0.0715895 -0.033349767 0.020606028
000100 11 07 c1 3d 7d 4a 4c 3d 87 ae 40 3d 54 a2 54 3d
       0.09425176 0.049875725 0.047041442 0.05191262
000110 b8 2c 30 bd 71 7f 5d bc 19 6e 93 3c bd 93 5f 3d
       -0.043011397 -0.013519154 0.017996835 0.054584254
000120 c8 0d 0f 3c ba 2b 96 3c 27 9a 03 3d 4f e3 17 3d
       0.008731313 0.018331397 0.032129433 0.037082013
000130 5d 89 d5 3c 63 bd 38 3d 51 0f 43 bd fe 6e bd 3d
       0.026066476 0.04510249 -0.04762203 0.09249686
000140 09 18 51 3b 23 b8 61 3d 10 be 8c 3d b0 df 94 b9
       0.0031905195 0.055107247 0.06872189 -0.0002839542
000150 9a 55 64 3c 7d 2c 24 bc 8b 73 ce bc 56 7d 25 3c
       0.013936425 -0.010020372 -0.02520158 0.010100683
000160 86 82 1f bd d7 2e 1c bc 2f 18 b8 3c 3f 00 2a bc
       -0.038942836 -0.009532652 0.02247247 -0.010376035
000170 aa ad c4 3b 7e cf 20 bd a2 5c 19 3c b4 fa f0 3d
       0.0060021477 -0.03926038 0.009360464 0.11766568
000180 10 6e 64 bd f7 29 b2 bb a3 1a 6b 3c 94 7e 03 3d
       -0.055769026 -0.0054371315 0.014349612 0.032103136
000190 fa a7 2c 3c ad 65 aa bc 43 5f da 3c 75 ed 0c 3d
       0.010538096 -0.020800436 0.026656752 0.034406144
0001a0 b6 e1 e9 bc 20 6d 08 3d 97 fb 18 bc fe 19 29 bd
       -0.02855001 0.033307195 -0.009337327 -0.041284554
0001b0 b0 d0 03 3d 17 44 aa bc f6 75 2e 3d 72 28 60 3d
       0.03218144 -0.02078442 0.042592965 0.05472607
0001c0 d2 65 a4 bc a2 86 72 3d 4d c0 f5 bc 59 ab b7 bc
       -0.020068083 0.059210427 -0.029998923 -0.022420572
0001d0 a5 c1 6c 3d 3e 9b 25 3d 18 ff 25 3d 25 90 1b 3d
       0.05780186 0.040431254 0.04052648 0.037979264
0001e0 8a 86 02 3d 96 26 a7 3d 5a 32 50 3d a2 28 02 3d
       0.031866588 0.081616566 0.05082927 0.03177703
0001f0 10 08 c0 bc 0e 92 09 3d 38 c9 0c bd b6 09 19 bd
       -0.023441344 0.033586554 -0.034371585 -0.037362777
000200 8c 8d 0d bc b9 bf e8 3c d0 3b 87 bc 91 f7 63 3d
       -0.008639704 0.028411733 -0.016508013 0.05565602
000210 fd 37 b7 bc cf 29 cc 3c c6 58 3b bc c4 5a 1d 3d
       -0.022365564 0.02492228 -0.011434739 0.03841664
000220 65 11 c2 3d 62 87 0c 3d 78 b2 ee 3c 87 2d b9 3c
       0.09475974 0.0343088 0.029137835 0.022604717
000230 84 c1 18 3d 4a 10 00 3c 0b 6d cf 3d 08 92 69 bd
       0.037293926 0.007816384 0.1012822 -0.057024032
000240 14 0a 91 3c a6 04 87 3d bf e4 3c bc df 7b 1e 3d
       0.017705001 0.065926835 -0.011529147 0.03869235
000250 f3 30 57 bd fc bc b7 3c cd ff f7 3c 65 37 f3 3b
       -0.052536916 0.022428982 0.030273343 0.007422375
000260 13 41 5c 3d e4 03 7f 3d c1 e4 b8 bb 1e ed e2 3c
       0.053772997 0.06225957 -0.005642504 0.027700957
000270 0d 1b b9 bc 15 21 51 3d 10 49 66 3d 86 1a e8 3c
       -0.022595907 0.05105694 0.05622202 0.02833296
000280 f8 9e 13 bd 5d 67 0b 3d 72 5a b3 3c 4a 7a 02 3d
       -0.036040276 0.03403412 0.021893714 0.031854905
000290 e7 09 94 3d 38 c5 31 3d 18 6c 41 bc f5 0f 34 3d
       0.07228451 0.043400973 -0.011805557 0.04396053
0002a0 b2 e2 78 3d ef 49 6a 3d b0 a8 68 bd e3 58 00 3d
       0.06076307 0.057199415 -0.056801498 0.03133477
0002b0 56 ce 8f ba de 22 1b 3c 20 29 89 3c 01 e7 11 3d
       -0.0010971527 0.009468762 0.016743243 0.035620693
0002c0 a9 1e ee bc c5 42 f6 bc 6a df a3 bb dd 00 b0 bb
       -0.029067354 -0.030061135 -0.0050009983 -0.0053711967
0002d0 ce 13 2c 3d c4 5a 32 3d 18 0c ea 3c ad ac b1 bc
       0.042011075 0.043543592 0.02857022 -0.021688784
0002e0 96 73 15 3d 5e 5e d9 3c e5 4b bc 3c b2 37 b2 bc
       0.036487184 0.026534256 0.022985408 -0.021755073
0002f0 d2 50 e9 3c 7e 1d 22 3d 3a 78 db 3d a1 19 89 3d
       0.028480921 0.039578907 0.10716291 0.066943415
