Graph Neural Network/Models/GraphConvLayers-T1.pth (torch, 285714 bytes, 15 tensors)

weight f4 [128, 128]
000000 dc 4c ad 3c ee b8 83 3a 34 c5 b7 3d 22 13 3a bd
       0.021154813 0.001004962 0.089731604 -0.045428403
000010 50 d8 c3 3d b8 96 74 bd dc fd 79 bd 26 2a 8f 3c
       0.09562743 -0.05971405 -0.061033115 0.017476153
000020 e6 18 46 3d d2 2c b1 3d 1e 5e 50 3d c8 b4 b7 3d
       0.04836359 0.08651127 0.050871007 0.08970028
000030 f4 60 b9 3d 47 48 df 3c 9e 64 cc 3d 9b df 8e bd
       0.090516955 0.027256144 0.09980129 -0.06976243
000040 f3 aa 3d 3d 53 60 d3 3c 72 65 91 bd ec 33 ba 3d
       0.046305608 0.025802767 -0.07099427 0.090919346
000050 ce 46 28 3d 0c cd 8a 3d 60 26 b1 3d f0 7b 1a bc
       0.04108315 0.06777391 0.086498976 -0.009428963
000060 86 00 9d 3d 68 f5 e5 bc 70 56 9c 3c e8 c7 b8 3d
       0.076661155 -0.02807112 0.019084185 0.09022504
000070 e7 66 7d 3c ad b3 a2 3d 55 f3 43 bd 25 2d d9 3c
       0.015466428 0.07944427 -0.04783948 0.026510784
000080 a8 92 be 3d 79 15 8f bd da 2a 01 3d cc e3 6c bd
       0.09305316 -0.069865175 0.031535007 -0.05783443
000090 16 70 5e 3d 9e 75 4d 3d b2 85 d0 3d 98 a2 ba 3d
       0.054306112 0.050160997 0.1018175 0.091130435
0000a0 46 86 7e 3d 7c b9 6b bd 32 4e 1a 3d 81 57 25 bd
       0.062139772 -0.05754994 0.03767223 -0.040366653
0000b0 42 80 67 3d 81 18 25 bd 30 95 d5 3d 8a d2 36 bd
       0.0565188 -0.040306572 0.10428846 -0.04463438
0000c0 36 a7 a5 3d 5d fa 0b bd 3f 5f 76 bd ff bf 2c bd
       0.080885336 -0.034174312 -0.060149428 -0.04217529
0000d0 e7 ac 08 3c a5 3e 28 3d ab 00 58 bd 52 ea be 3d
       0.008342004 0.041075367 -0.052735012 0.09322037
0000e0 46 f7 5f 3d be ec 2e bd 82 ac 90 3d bb e9 ae bc
       0.054679178 -0.042706244 0.07064153 -0.021351686
0000f0 60 48 51 bd 50 78 b4 3d c5 bf 03 3d 7e f3 5a 3d
       -0.051094413 0.0881201 0.032165308 0.05345487
000100 65 0e f5 3c 3e 68 d2 3d 7e bd b7 3d f1 99 8c bd
       0.02991409 0.10273789 0.0897169 -0.068652995
000110 a1 17 bf bc d7 cb b5 bc 72 0c 30 3d 1c 3b f8 3c
       -0.023326697 -0.022191925 0.04298062 0.030301623
000120 81 cd b9 bc f9 7f 91 bd ba 18 f3 bb 28 1d 6a bd
       -0.022681 -0.07104487 -0.007418719 -0.05715671
000130 68 87 87 bd ef f1 2c 3d 6b a4 53 bc 57 38 e3 3c
       -0.066176236 0.042222913 -0.012917618 0.027736826
000140 04 8b f0 3a 60 32 d3 3d 97 eb 2e b8 44 62 1c bd
       0.0018351977 0.10312343 -4.1704243e-05 -0.03817965
000150 d0 12 cd 3d a5 b5 11 3d 85 e8 8e bd 84 48 89 3d
       0.10013354 0.03557362 -0.06977943 0.067032844
000160 2c 02 bc 3d 87 e6 d8 bc 1d 27 f0 bc ba c0 5c 3d
       0.09180102 -0.026477112 -0.029315526 0.053894736
000170 64 c6 1e bd 9d 8e 85 3d dd 3d 27 3d ec a8 bd 3d
       -0.03876342 0.06521342 0.04083048 0.09260735
000180 ed c1 96 3c e8 60 5d 3c 74 63 4d 3c 04 90 18 3d
       0.018403018 0.013511874 0.0125359185 0.03724672
000190 82 1a af 3d 18 13 9c 3d 5a 87 db 3c 52 13 bb 3d
       0.08549978 0.07620829 0.02679794 0.091345444
0001a0 87 fd 3d 3d ee 28 12 3d d5 3d 83 3d 00 50 01 bc
       0.04638436 0.035683565 0.06408278 -0.007892609
0001b0 a6 7c 79 3d 62 50 22 bd d2 9c 6d 3d 57 c4 8c bd
       0.06090989 -0.03962744 0.058010884 -0.06873386
0001c0 e2 67 90 bd 8d 6f 9d 3d c0 6e b5 3c 1b 92 ac bc
       -0.07051064 0.07687292 0.022147536 -0.021065762
0001d0 10 80 5e bc f4 b5 41 3b b3 c7 38 3d 19 39 ad bb
       -0.013580337 0.0029557915 0.045112323 -0.0052863476
0001e0 e6 e4 bd 3d d3 a9 87 bd 9a 7a d1 3c 9a 12 88 3d
       0.092721745 -0.06624188 0.025571156 0.06644173
0001f0 62 9f c5 3c f0 b0 0a bd 77 19 64 3c b9 70 76 bd
       0.024123851 -0.033860147 0.013922087 -0.060166094
000200 82 fc 6c bd c3 23 49 bc a9 3b 71 bd 9f ae b1 bd
       -0.057857998 -0.012276593 -0.058894787 -0.086758845
000210 d4 a9 bd bd b0 8c d2 3c fe 85 75 bd ae 2d 7f bd
       -0.09260908 0.02570185 -0.059942238 -0.062299423
000220 1c e7 95 3c 02 3c 2b bc 7b dd 61 3d b7 4a 66 3d
       0.018298678 -0.010451319 0.05514286 0.056223597
000230 9c 14 2f bd bb e1 a9 bd cb 84 65 3d 4e 4e be bd
       -0.042744264 -0.08295008 0.056034844 -0.09292279
000240 54 d3 87 3c 9f f0 0c 3d 28 6a 8a 3c 70 4b 83 bd
       0.016580261 0.03440916 0.016896322 -0.06410873
000250 fc ff b3 bc bc da 0a bd 5a 3f 3b bc 68 a0 a4 3d
       -0.021972649 -0.033900008 -0.011428678 0.080384076
000260 91 d4 b6 bd cb 29 72 3d 26 04 8c 3d bf dc 53 3c
       -0.089272626 0.059121888 0.06836729 0.012931048
000270 13 ae 10 3d 80 92 98 3c d4 2e b0 3c 2a 32 29 bc
       0.03532226 0.018624544 0.021506704 -0.010326901
000280 4c 69 a0 3c 3a d7 81 bd ab 3e 38 3d 93 8e 5b bd
       0.01958146 -0.06339879 0.04498164 -0.053602766
000290 ae a6 14 bd b0 ea 3b bd d3 96 49 bd 4c 26 cb bc
       -0.03629177 -0.045878112 -0.049216103 -0.024798535
0002a0 d0 03 f3 bc 8c df a9 bd c1 23 60 3c 5a bf 38 bc
       -0.029664904 -0.08294591 0.013680399 -0.0112760905
0002b0 ed 84 3a 3c f8 91 c4 bc ec d1 cb 3c f2 6a 54 bc
       0.011384231 -0.023995385 0.024880372 -0.012964951
0002c0 da a7 f9 bb 45 b5 35 3c 57 2b 20 3d 56 ea 9e 3d
       -0.0076188864 0.011090581 0.039103832 0.0775954
0002d0 be 29 7a bc f8 3e 96 bd 5a e5 89 3d 39 8f 05 bd
       -0.015268741 -0.07336229 0.067331985 -0.03260729
0002e0 4d 69 11 bd b6 71 aa 3d cb 46 93 bd 40 0c 83 bd
       -0.035500813 0.0832247 -0.07191237 -0.06398821
0002f0 ca 7a 88 3d 70 15 93 3d 5e 9c 39 bd f8 37 89 3d
       0.06664045 0.07181823 -0.04531514 0.06700128
000300 cf 49 b2 bd e3 8d 8d bc 63 ae 5c 3d 52 41 04 bc
       -0.08705484 -0.01727957 0.053877246 -0.008072214
000310 66 51 40 bd a9 c6 8b 3c 73 c2 78 3d d3 6e de 3c
       -0.046952628 0.017062502 0.060732316 0.027152454
000320 a7 51 22 3d eb 1e 6c bd b3 c9 82 3d f2 4a 78 bd
       0.03962865 -0.057646673 0.06386127 -0.06061835
000330 24 f4 a6 3c 37 b2 35 3d 89 49 94 bd 0e 12 a5 bd
       0.020380087 0.044359412 -0.07240588 -0.08060084
000340 41 9d 79 bd 36 03 85 bc 32 5b 7e bd f3 17 56 3d
       -0.060940985 -0.016236883 -0.06209869 0.052268934
000350 66 e9 0f bc a8 cd 9c bd 4c cd a5 bc f6 01 bd bb
       -0.008783674 -0.07656413 -0.020239495 -0.005768056
000360 38 80 86 3c 1f 8f 54 bd df e8 f8 bc 55 c0 67 3c
       0.016418561 -0.051894303 -0.03038448 0.014144977
000370 c8 6f 98 3c 17 b2 50 3d ef 18 8d bc 02 28 37 bc
       0.018607989 0.05095109 -0.017223803 -0.011178972
000380 0c e1 89 3d cf 11 5b 3d 4e b1 ff bc 71 2a dc 3b
       0.067323774 0.05348378 -0.031212475 0.0067189266
000390 0f bf 8d bd 90 53 d4 3c 7b e8 27 3d 9b e8 6b 3d
       -0.06921207 0.025918752 0.040993195 0.057594877
0003a0 8b a4 b0 bd b2 c5 6a bd 0a 76 2e bc 57 6e a0 bd
       -0.08625134 -0.057317443 -0.01064826 -0.07833546
0003b0 a8 ca 97 3c 39 0e 02 3d fc 2d db 3c 10 7d 94 3c
       0.018529251 0.031751845 0.026755325 0.01812604
0003c0 c6 78 49 bd 0f 2f 37 3d a5 94 f6 3c db cb 28 3d
       -0.049187444 0.044722613 0.030100176 0.041210037
0003d0 b8 8d 19 bd 1b 7a bf bd be 06 a4 3d 8d e4 ba bd
       -0.03748867 -0.09349462 0.080090985 -0.09125624
0003e0 b0 cd 1e bc c3 d6 4c 3d de e8 87 bd de f4 8d 3d
       -0.009692594 0.0500095 -0.06636213 0.0693147
0003f0 74 74 9e 3d b8 ff fc 3b 2b 42 e6 3c a4 69 8c bd
       0.077370554 0.0077209137 0.028107723 -0.06856087

bias f4 [128]
000000 b8 89 a9 3d ac 95 86 3d 24 b6 cf bc b6 96 74 bd
       0.08278221 0.065715164 -0.025355406 -0.05971404
000010 3d 19 90 bd 58 6f b2 3d 5f f5 7e 3c 0e 67 fa 3c
       -0.07036064 0.087126434 0.015561431 0.030566718
000020 14 0c 84 bc a0 d5 0f 3d 13 77 ca bb 29 2a ef 3c
       -0.01611904 0.035115838 -0.0061787455 0.029194908
000030 74 fd 8a 3d 23 d1 9a bd c7 13 94 ba 3f 88 59 3d
       0.067866236 -0.07559421 -0.0011297398 0.05310845
000040 e3 c4 a0 bd 49 e0 7a 3d ad 81 01 3c 14 4e 5b 3d
       -0.07850053 0.06124905 0.007904452 0.053541258
000050 a6 6c bb bc d8 9a 65 3d 2d f7 83 3d ac 58 ac bd
       -0.022878956 0.056055874 0.064436294 -0.0841535
000060 24 8d 8c bd a8 8c 46 3d e2 5a 35 3d 0f 4e 9d bd
       -0.06862858 0.048473984 0.044276126 -0.07680904
000070 08 35 dc 3c ff 56 a6 bd d7 78 56 bd e7 dc b1 3d
       0.026880756 -0.08122062 -0.052361336 0.08684712
000080 46 ff 19 bd 40 02 42 bd 10 85 f4 3c a7 db b5 bd
       -0.037596963 -0.047365427 0.029848605 -0.08879786
000090 7a ed 86 3d 16 d2 99 3d 8d 48 02 bd 2c e9 83 bd
       0.06588264 0.07510774 -0.03180747 -0.064409584
0000a0 77 a3 a2 bd d9 f4 72 3d 9b 97 75 3d 32 76 b1 bc
       -0.07941335 0.059315536 0.059959035 -0.021662805
0000b0 11 b1 95 3b d0 4b 53 bd e6 82 7f bd 69 7d 11 3d
       0.004568227 -0.051585972 -0.062380694 0.03551999
0000c0 ef 85 52 3c 00 51 7e 3c 9f fa 80 bc 0e dc 5c bc
       0.012849315 0.015522242 -0.015744505 -0.0134801995
0000d0 dc fd a2 3c 7e d5 d4 bc a9 e0 9c 3d ca ad 12 3d
       0.01989644 -0.025980707 0.07660038 0.03581027
0000e0 cb dd 99 bd 58 42 57 3d 88 54 16 3c b2 82 f4 bc
       -0.07513007 0.052553505 0.009175427 -0.029847477
0000f0 cd d1 6c bd 25 e0 94 bd 11 07 e1 3c c7 de 0e bb
       -0.05781727 -0.07269315 0.02746919 -0.0021800266
000100 b2 b6 96 3d 15 35 54 3d ed 42 09 bd 8a 47 3f 3d
       0.07359065 0.051808435 -0.03351109 0.046699084
000110 17 35 62 bd b2 3e 0b 3d 0a 75 98 bb b3 cc b6 bd
       -0.05522641 0.033995338 -0.004652624 -0.08925762
000120 4f c8 0a bd b6 6b 07 bd 77 f3 a6 bd 60 db 99 bd
       -0.033882435 -0.033061706 -0.08151906 -0.075125456
000130 d0 01 b1 bd f6 4b a8 bd f7 bb 62 3d ca ba 23 bb
       -0.08642924 -0.082176134 0.05535504 -0.002498316
000140 93 a5 8e bd eb 50 0a 3c b4 9c 37 bd ce 44 14 bc
       -0.069651745 0.008442144 -0.044827178 -0.009049607
000150 11 ec b6 3c ca 69 9a 3d d4 fb 51 bd ca ea 9e bc
       0.022329362 0.07539709 -0.051265553 -0.019399066
000160 cd af 31 bd 1b 4a a9 bd ac 86 3d 3d 0d 63 9a bd
       -0.043380547 -0.082660876 0.04627101 -0.07538424
000170 45 a7 9f bc c1 40 0a bd 28 91 48 bd a6 0a 69 3d
       -0.01948894 -0.03375316 -0.048966557 0.05689492
000180 77 0f 95 bd 7a 64 e2 3c 7a 55 82 bd 64 03 50 3d
       -0.0727834 0.027635802 -0.063639596 0.050784484
000190 78 0f 30 3d f7 be 88 3d be 0e 95 bd 86 89 9a 3d
       0.042983502 0.06677049 -0.072782025 0.07545762
0001a0 4b fd 6f bd 4e f0 c3 3d fe c9 2d bd 3a 53 bd bb
       -0.05859117 0.09567319 -0.042428963 -0.0057777436
0001b0 ee 65 86 bd 57 bb 7a 3d 7e de b7 3d 10 7e b9 bd
       -0.0656241 0.061213817 0.08977984 -0.09057248
0001c0 20 56 48 3c ac b1 1a bd 61 ac ba bc c2 7c 9c bc
       0.012227565 -0.037767097 -0.022787275 -0.019102458
0001d0 9b 02 34 bb c8 e0 4d bd 82 79 a2 bd 36 f7 b8 3d
       -0.0027467373 -0.050263196 -0.07933332 0.09031527
0001e0 d9 4c 8a 3c 05 bc 81 3d e6 87 46 bd 16 16 5e bc
       0.016882347 0.0633469 -0.048469447 -0.01355507
0001f0 f1 9c 5f bb 43 98 23 bd cc 61 03 bd f2 bc 0d bd
       -0.0034120644 -0.03994013 -0.03207569 -0.03460402

weight f4 [128, 128]
000000 1a 10 98 bd 0d 09 c9 bc 4b 19 83 bd 8a 49 44 bc
       -0.07424946 -0.024540449 -0.064013086 -0.011980424
000010 9b 4f 96 3d 5c 73 86 bd 12 d1 58 bc d3 b9 14 3d
       0.07339402 -0.06564972 -0.01323344 0.03631003
000020 75 04 81 bd 89 ef 8e 3d ab b0 68 3d 11 62 a5 3d
       -0.06299678 0.069792815 0.05680911 0.08075345
000030 5f f2 f0 3c ef 4a 93 3d d2 c7 85 3b 92 e2 5c bc
       0.029412447 0.07192027 0.0040826583 -0.013481753
000040 ac 07 28 bd ba 2a 89 bd 4f 55 97 3c da a6 0e bc
       -0.04102294 -0.066976026 0.018473295 -0.008706773
000050 5f 68 14 3d 49 e5 8d bd fb 98 a4 3d c8 c3 0d bd
       0.03623235 -0.06928498 0.08036991 -0.03461054
000060 79 11 73 bd 1b c6 a9 bd a3 ba 0a 3d 35 a9 b0 3d
       -0.059342835 -0.08289739 0.033869397 0.08626024
000070 6f 4f b3 bb ba b1 ad bd 2b 4d 96 3d 03 8d 08 3a
       -0.0054721157 -0.08481164 0.07338937 0.00052090007
000080 43 f3 ff 3c 11 49 77 bc 58 b5 06 bd 75 92 84 3d
       0.031243926 -0.015093104 -0.032887787 0.06473247
000090 06 73 fb bc de 3f ad bd 67 9b 82 bd 09 06 72 bd
       -0.030694496 -0.08459447 -0.06377297 -0.059087787
0000a0 20 39 7e 3d df 7c 60 3d d1 e4 74 bc 01 b8 9c bd
       0.062066197 0.054806586 -0.014947132 -0.076522835
0000b0 5e 15 ac bd 4c 1e 82 3d fe 18 22 bd 68 12 3c bd
       -0.08402513 0.06353435 -0.039574616 -0.04591599
0000c0 73 2e 46 3d 35 b6 b5 bd d6 4c 56 bd 8e f8 17 3c
       0.04838414 -0.08872644 -0.05231937 0.009275569
0000d0 4f f3 0d 3d 7e 93 5e 3c 07 db 79 3d ea 05 6f b9
       0.034655865 0.01358497 0.060999896 -0.0002279502
0000e0 df 4e 33 3d b7 b7 ae 3d 41 d8 b7 bc 97 bb 83 3d
       0.04377639 0.085311346 -0.022441985 0.06432264
0000f0 63 4a 83 3d 58 c3 65 bd 35 34 99 3d 63 68 25 3d
       0.064106725 -0.056094497 0.07480661 0.040382754
000100 9d 69 b4 bd d0 96 02 bd fc e4 7b bd cf a1 aa bb
       -0.08809207 -0.031882107 -0.061497673 -0.0052072774
000110 df d8 4d bd a3 b8 04 3c 5c 2a 03 bd a1 e3 73 bd
       -0.050255653 0.008100661 -0.03202282 -0.059543256
000120 e6 e4 8c bd 8a 43 9b bd f8 d9 e3 bb 22 3a 21 bc
       -0.068795964 -0.075812414 -0.006953474 -0.00984052
000130 9a 61 5b bc 61 51 c6 bc 97 85 1a bd 97 f0 26 3d
       -0.013389969 -0.024208726 -0.037725057 0.040756788
000140 95 9b 8f 3d ff 3f a0 3d 8b 58 09 bd 17 1c 4b 3d
       0.07012097 0.07824706 -0.033531707 0.049587335
000150 23 03 88 3d e7 4e 08 3d 83 f8 33 3d 70 25 9f bd
       0.06641223 0.033278372 0.04393817 -0.077708125
000160 6d 64 9e 3d 9f 1d ce 3c 1a 76 0d bd af 26 92 bb
       0.077339984 0.025160609 -0.03453646 -0.004460178
000170 5e 75 f7 bc 03 57 98 3d f7 16 2c 3d 6f 5c a4 3d
       -0.030207332 0.07438471 0.04201409 0.08025443
000180 be 9f e9 bb 37 9c 41 3d 14 d4 a8 bd 50 3a 9b bd
       -0.0071296385 0.04726812 -0.08243576 -0.075794816
000190 d8 c2 90 bd f1 05 2e 3b c3 bd ec 3c c4 37 8e bd
       -0.070684135 0.0026553834 0.02889908 -0.0694423
0001a0 f5 95 73 bd 87 f9 81 bc 3e 62 64 bd a9 b9 29 bd
       -0.059469182 -0.015866054 -0.055757754 -0.041436825
0001b0 7f 7c 05 bd 70 7f f0 3b fd f6 84 bd 2f 98 64 3d
       -0.03258943 0.0073394105 -0.06492422 0.055809196
0001c0 de 90 38 3c c3 06 56 3d 2b 1f d9 3c da b7 7f bc
       0.011265008 0.052252542 0.02650412 -0.0156077985
0001d0 93 4e 36 3d b7 d3 39 3d 74 60 8b 3b bf f7 65 bd
       0.044508528 0.045367923 0.0042534415 -0.056144472
0001e0 ac e6 68 bd 23 49 06 bd b6 a0 1a 3c dd 14 94 bd
       -0.05686061 -0.032784592 0.009437731 -0.07230542
0001f0 4c a3 a9 bd 5c ce 8f bd b7 69 a4 3d 0f 03 c3 bb
       -0.082830995 -0.07021782 0.08027976 -0.0059512923
000200 68 6d bb bd 5c 1c 9c bd 58 1a 3f 3c d8 a1 9b bd
       -0.09151727 -0.076225966 0.011663996 -0.075992286
000210 5f 84 cf 3c 09 1d 14 bd e6 a0 48 bd a9 d0 bd bd
       0.025331674 -0.036160503 -0.04898157 -0.092683144
000220 20 29 81 3c 93 03 91 3c aa b0 ae bc 9a 3e 59 3d
       0.01576668 0.0177019 -0.021324474 0.053038217
000230 ab 69 ec ba 4a b9 17 bc 60 55 99 bb e6 b3 90 bc
       -0.0018036863 -0.009260485 -0.004679367 -0.017663907
000240 e2 ba 82 bc cd 02 15 bd 4e 69 54 bd 8b 1b d0 3c
       -0.015958253 -0.036379624 -0.05185824 0.025403759
000250 48 dc 9b bd 7f dc 89 3c 87 e2 ac bd ff e6 93 3d
       -0.07610375 0.016828774 -0.08441644 0.072217934
000260 53 af 3f bc 07 50 ce 3b a3 fa 9d 3c 4b 5d 14 bd
       -0.011699515 0.006296161 0.019284552 -0.036221784
000270 d0 62 a2 bd e5 81 9f 3d c7 77 8e bc 55 50 8f 3d
       -0.07929003 0.07788447 -0.017391099 0.06997744
000280 9c 96 72 3d 2c da 97 bd e6 a2 a9 bd 63 da 79 bc
       0.059225664 -0.0741466 -0.082830235 -0.015249821
000290 3a 09 88 3b 72 2b 03 3d ef 8e b1 bd 5e 7f 5b bd
       0.0041514905 0.032023855 -0.086698405 -0.053588264
0002a0 f5 de b9 bc be b8 63 3d cd 13 1c bc 77 b0 4a bd
       -0.022689322 0.055596106 -0.009526205 -0.049484696
0002b0 72 37 42 3d a9 df 6d bb a5 c3 c4 bc 62 d4 92 bd
       0.047416158 -0.0036296642 -0.024019072 -0.07169415
0002c0 38 e5 06 bd d3 de d5 bb 27 e2 b8 bd 99 81 03 bb
       -0.032933444 -0.006526807 -0.0902751 -0.002006626
0002d0 dd 30 91 3d e3 c8 c4 3c b5 c8 ac bd 73 71 86 bd
       0.07089398 0.024021572 -0.08436719 -0.065646075
0002e0 4d 53 84 bd 6d 9b 25 bd b9 64 fb bc de ee 20 bd
       -0.06461201 -0.04043143 -0.030687677 -0.0392903
0002f0 46 23 b9 bb 9a f1 0f 3d cc ec 86 bc 33 17 93 3d
       -0.005649957 0.03514252 -0.016470335 0.07182159
000300 ce 0a 4e 3d 81 d7 d9 bc 5f 08 8a bd 6f d7 33 bd
       0.050303273 -0.026592018 -0.06739878 -0.043906625
000310 dd 9b bc bd 7c 5d e6 3c 31 76 87 bd a4 4a 7b 3d
       -0.09209416 0.028120749 -0.0661434 0.06135048
000320 3d cd 67 bd 0c 8c 93 bd 89 ee ab bd 53 55 eb 3c
       -0.056592215 -0.07204446 -0.08395106 0.02872721
000330 ce ea 29 3d 35 5a ec 3c e6 f0 0f 3d 3d 83 70 3c
       0.041483693 0.028851608 0.035141848 0.014679727
000340 fd f1 93 3d ab 0c 59 bd c5 de 0e 3c 8f 48 a5 3c
       0.0722389 -0.052990597 0.008720105 0.0201762
000350 d8 7b 2a bd f1 6d 9b bd 5e 7b fb 3c d5 28 86 3d
       -0.041622013 -0.07589329 0.030698474 0.06550757
000360 5c 09 3b bd 58 ba 8d 3b f1 d5 a6 bc 02 f0 4a bd
       -0.045663223 0.0043251924 -0.020365687 -0.049545296
000370 a3 aa b1 3c 05 14 9b 3d e3 4a 87 3c c8 48 6d bd
       0.021687811 0.07572178 0.016515201 -0.057930738
000380 f2 3e 0e 3d 13 a2 93 3c 01 95 8d 3d 39 73 8b 3a
       0.034727998 0.018021619 0.06913186 0.0010639197
000390 b4 ca 53 bd 22 51 60 3d e2 c0 96 bd 13 dc a5 3c
       -0.051706985 0.054764874 -0.07361008 0.020246541
0003a0 d1 62 1e bd 13 b3 a4 3c 76 bd 92 bd 6b 9b 77 bc
       -0.038668457 0.02010492 -0.07165043 -0.015112738
0003b0 c3 9d a7 3c 6b 48 bb 3c 15 a4 ee bc 77 b0 8f 3c
       0.020460969 0.02286168 -0.029130975 0.0175402
0003c0 77 ad 80 bd 5a ec 6b bd 92 12 48 3d 0a bc 2b 3d
       -0.06283086 -0.05759845 0.048845835 0.041927375
0003d0 31 f2 a0 3d 27 c7 a0 3d 3f 5d 79 bd a4 9f 17 bb
       0.07858694 0.07850485 -0.060879942 -0.0023135925
0003e0 81 01 3d bd b3 6e a0 3c 45 d4 49 3b 8f 00 b4 bd
       -0.046144012 0.019584036 0.0030796689 -0.08789169
0003f0 03 a6 48 bd 53 73 4e bd 8b 5f bf 3c 02 34 ba bd
       -0.048986446 -0.05040295 0.023360988 -0.09091951

weight f4 [128, 128]
000000 d6 40 a6 3d d2 80 2f bc 0a 33 28 3d 56 53 38 bd
       0.08117835 -0.0107118655 0.0410643 -0.04500135
000010 8a c0 e2 3c 1a 97 74 bc 8d fd ac 3d 60 74 8b 3d
       0.0276797 -0.014928604 0.084467985 0.06809306
000020 52 64 dc 3d 15 d2 1b bd 6b af d1 3d 87 14 39 bd
       0.10761322 -0.038042147 0.102385364 -0.045185592
000030 fa e5 46 3d 7d 64 30 bc dd e7 2d bd 30 f2 f0 3c
       0.048559166 -0.010766146 -0.04245745 0.029412359
000040 1a ae 03 bd 14 a0 9b 3d b4 04 5e bc ac 8c b0 3d
       -0.032148458 0.07598892 -0.013550926 0.08620581
000050 bc 34 54 3d 8c a3 46 bd 21 cc c5 3c de ce fb 3c
       0.051808104 -0.048495814 0.024145188 0.03073829
000060 66 c2 bd 3c 3d 80 2d bd 6f 53 b3 38 f6 8c a5 bd
       0.023163985 -0.042358626 8.550926e-05 -0.08083527
000070 ed bb 7a bd fb 7e 88 3d 11 ab 88 bc 39 c7 2a bc
       -0.061214376 0.066648446 -0.016683133 -0.010423475
000080 6d 14 4d bd 88 d9 99 3c 0c 53 08 3d 76 4a 8e bc
       -0.050068308 0.018780485 0.033282325 -0.01736949
000090 23 0b e8 bb 96 a8 bb 3d ff 82 af 3d d5 17 15 3d
       -0.0070814057 0.091630146 0.085699074 0.03639968
0000a0 98 d1 8a 3d 70 78 0e bc 1d 4c 6b bd d8 9b 7b bc
       0.06778258 -0.008695707 -0.057445634 -0.01535698
0000b0 f5 fd 9a bd d8 e9 d5 3d 0f 78 f9 bc 14 7b 9c 3a
       -0.0756797 0.10444993 -0.030452756 0.0011938536
0000c0 83 b1 7e 3d 9f 3a 05 3d 1a e9 6d bd d5 1f 2e 3d
       0.062181007 0.03252661 -0.05808363 0.042510826
0000d0 44 b8 10 3d 56 6e e7 3d 09 71 56 bd 10 ac e2 bd
       0.03533198 0.11300342 -0.052353892 -0.110679746
0000e0 22 3d 1a 3d 5c ed ad bd 3d 52 ae bd 76 b2 2c 3d
       0.037655957 -0.08492538 -0.085117795 0.04216238
0000f0 e9 e5 30 3d a3 a5 91 bd b8 bb 3c bd 91 f2 6c 3d
       0.04318801 -0.07111671 -0.04607746 0.057848517
000100 de 83 6f bc b4 19 79 3d 78 76 b8 bd dd cb 06 3d
       -0.014618842 0.060815528 -0.09006971 0.032909263
000110 f4 4f 3b 3d 27 aa 99 3d e7 ce 8d bc 95 bc 97 bd
       0.045730546 0.07503157 -0.017310573 -0.07409016
000120 c1 c4 b1 3d 36 62 8c bc b7 1c 06 be 53 4a c1 bd
       0.08680106 -0.017136674 -0.13096891 -0.09438004
000130 98 99 32 bc 8c f7 80 3d d0 f0 ce bc ee 94 21 bd
       -0.010900877 0.06297216 -0.025261313 -0.03944867
000140 17 b9 9a 3d 4f d5 a5 bd f6 92 2d bd d0 48 dc bc
       0.07554834 -0.08097326 -0.04237648 -0.026890188
000150 5f 22 8f 3c c4 a9 72 bd 46 90 e8 3c 2b e8 d0 3d
       0.017472444 -0.059243932 0.028389107 0.102005325
000160 f8 3d db bc c0 bd fb bd 08 87 80 ba 47 72 76 3d
       -0.026762947 -0.12292051 -0.0009805867 0.060167577
000170 55 71 97 3d a2 87 f9 bc fa f1 8b 3d d7 50 a2 bd
       0.07394663 -0.030460183 0.06833263 -0.07925575
000180 70 7f 3a bd bb d0 1a bd be c7 b5 3b 4b 8c f6 bd
       -0.04553169 -0.037796717 0.0055474928 -0.120384775
000190 e1 da 04 3d 5a 1e ed bb 8f e2 98 3c 78 f7 6d 3d
       0.0324353 -0.007236284 0.018662719 0.058097333
0001a0 5c 1e 38 3d 50 93 a5 bc 2c 30 63 bd 5b 67 34 bd
       0.044950828 -0.020211846 -0.055465862 -0.04404388
0001b0 c5 5c 7e 3d ef 3b 74 bd 87 85 b0 bd 1c fd 1a 3d
       0.06210019 -0.05962747 -0.08619218 0.03783904
0001c0 10 f3 94 3b 98 17 47 bd f4 01 d1 bd 2b c4 ec ba
       0.004545577 -0.048606485 -0.10205451 -0.0018063834
0001d0 0e ae 6e bd e1 63 89 bd 73 f1 99 3d bf 23 8c 3d
       -0.05827146 -0.067085035 0.07516756 0.068427555
0001e0 83 a5 83 bc 3c df 27 3d ef 4c a0 3c 41 ac ee 3c
       -0.016070133 0.040984377 0.019567935 0.029134871
0001f0 b9 f7 6d 3c 00 81 fe 3b 9c 54 30 3d 72 da 8c bd
       0.014524394 0.007766843 0.04304944 -0.06877603
000200 b8 54 6b bd 7e b0 19 3d ac 72 95 3d aa b8 83 3d
       -0.05745384 0.03752183 0.072972625 0.06431706
000210 f8 2c 7a 3d dc 1f b3 3d 2a 81 e6 3d 11 79 c4 3d
       0.06107804 0.08746311 0.11255105 0.09593404
000220 b3 b6 23 3d f8 04 6f 3c ac 42 f6 3b c8 2d 4d bd
       0.039969157 0.014588587 0.007515272 -0.05009249
000230 50 f1 96 bd 2f 96 59 bd d0 54 ef bc af 3d f2 3d
       -0.073702455 -0.05312174 -0.029215246 0.118281715
000240 ba ca c8 3c da ec ae ba a6 3d 00 bd 77 77 c1 bc
       0.02451073 -0.0013345734 -0.031308793 -0.023616536
000250 f5 a4 ce bc 73 31 cd 3d 65 3b 88 bd 83 c3 7a bd
       -0.025225142 0.10019197 -0.066519536 -0.06122161
000260 06 14 88 3b 3a d1 e6 3d e3 eb 2b 3d 3a 22 80 bd
       0.0041527776 0.112703755 0.041973006 -0.06256528
000270 c3 c4 f1 bc 23 8e 53 bd 4e 71 57 bd 10 e9 c4 3d
       -0.029512769 -0.051649224 -0.05259829 0.09614766
000280 db 50 62 3d ab 8c e3 bc c8 f9 76 3d a8 5e 7d bc
       0.05525289 -0.027777037 0.060296804 -0.015464462
000290 96 88 37 bd 32 57 00 3e 37 d6 db bc 84 0f ed bc
       -0.044807993 0.12533262 -0.026835544 -0.028938062
0002a0 69 93 26 bd 5e 46 6e 3d 46 22 17 3c 21 e4 fd bc
       -0.040667925 0.058172576 0.00922448 -0.03099257
0002b0 77 97 63 bc 34 5d 3e bd 9e 71 30 bd 7d 97 37 3d
       -0.0138910925 -0.046475604 -0.043077104 0.044822205
0002c0 28 39 87 3d 17 c1 88 3d 88 70 5c bc ae 50 30 bd
       0.066026986 0.06677454 -0.013454564 -0.043045692
0002d0 63 ef 06 bd c8 28 e1 bd 73 a7 f9 3a fc e2 88 bd
       -0.03294314 -0.109941065 0.0019047096 -0.06683919
0002e0 4d 3d 16 3d 91 5f 99 3d 76 92 5b 3d 48 c2 1a bd
       0.036679555 0.07488931 0.053606473 -0.037782937
0002f0 3b 14 2e bd f8 e6 0f bd d0 4d 2f bd 54 26 39 bc
       -0.042499762 -0.03513238 -0.042798817 -0.011300642
000300 b4 dd 41 bd 0f 91 a9 3d ae d9 59 3d f6 4f 20 3d
       -0.047330573 0.08279621 0.05318611 0.039138757
000310 93 96 a6 3c 08 8b dd 3d 9b 91 9d bd 7c 84 cf bd
       0.020335471 0.10817534 -0.07693788 -0.10132691
000320 53 ec 12 bd f0 62 00 3d ab 8a 8c 3d 9a 3e 35 bd
       -0.035869908 0.031344354 0.06862386 -0.044249155
000330 7c f3 9b bc d8 5a c1 3c b0 a8 a7 3d 9c e0 a4 3c
       -0.019037 0.023602888 0.081864715 0.020126633
000340 1b 1f ba 3b 5a ac eb bc ed c7 97 bd 0a b6 4b bb
       0.0056799776 -0.028768707 -0.0741118 -0.0031083846
000350 c9 39 7e 3d fb 3b bb 3c 42 12 a4 bd 27 47 76 bb
       0.062066827 0.02285575 -0.08011295 -0.0037579031
000360 4e 0e 59 3d 78 a0 51 bd 2c 89 b6 3d ab 60 7e bc
       0.052992158 -0.051178426 0.08912882 -0.015525977
000370 59 e1 d2 3b be ef aa 3d c2 72 8a 3d 4f f8 b4 3d
       0.006435555 0.083465084 0.067601696 0.088364236
000380 8b 70 c2 3c 8c 7e 62 bc 46 b2 09 3e 64 d6 17 3c
       0.023735305 -0.013824116 0.13446912 0.009267423
000390 69 df 4d 3c a1 18 26 3d 32 29 c7 bd 23 2c d8 bc
       0.012565472 0.04055083 -0.09724654 -0.026388234
0003a0 c4 7d 32 3b 1a ca be 3d 19 43 35 3d a5 27 44 3d
       0.0027235607 0.093158916 0.044253442 0.04788937
0003b0 82 d9 11 3d 4b d4 9e 3d 7c 7f de 3c d7 46 6b bd
       0.035607822 0.077553354 0.027160399 -0.057440605
0003c0 62 08 df bb c2 37 4a 3b 63 66 b8 bc f1 3c f7 bb
       -0.006806419 0.0030855988 -0.02250976 -0.0075451066
0003d0 0d 6f 37 bc b3 a5 81 bd 5c fd c5 3c 29 6c 86 bd
       -0.01119591 -0.06330433 0.024168663 -0.06563599
0003e0 ee 2d 60 3d dd e4 d8 3d 62 cd 80 bd c3 8d 83 3d
       0.054731302 0.10590527 -0.06289174 0.06423523
0003f0 6b 7f c2 3d ba 80 84 bc a0 f0 8a bd 68 ad 99 bc
       0.09496959 -0.016174663 -0.06784177 -0.018759444

bias f4 [128]
000000 3e 05 79 3b 23 b7 a3 3d 94 33 5a bd 25 b0 0b bd
       0.003799751 0.07993915 -0.053271845 -0.03410353
000010 1a d5 43 3c 7b 45 1a 3d 34 68 93 3c e7 cf 83 3b
       0.011952663 0.037663918 0.017994024 0.0040225866
000020 f8 a0 9b 3d 79 be b2 3d b9 e1 16 3d 25 a5 91 bd
       0.07599062 0.08727736 0.03683636 -0.07111577
000030 f5 5b 76 3d 61 cb 6a 3d 78 6a 28 bd 65 2c 9f 3d
       0.06014629 0.057322863 -0.04111716 0.077721395
000040 84 b8 6f 3d 5e bc 81 bd a5 a3 5c 3d d9 37 70 bd
       0.058525577 -0.06334756 0.053867 -0.05864701
000050 c3 cb 70 bd 87 14 1e 3d b2 e4 7f 3b a1 31 c1 bb
       -0.058788072 0.038593795 0.0039046225 -0.005895809
000060 40 62 a6 bd 35 08 8e bc 1b ad ad 3d 57 e0 75 3d
       -0.081242085 -0.017337898 0.08480283 0.0600284
000070 4b 02 88 bd a0 9e 3a bd 96 44 2d bd 5a d0 6c bd
       -0.06641062 -0.045561433 -0.042301737 -0.057815887
000080 0a 27 d2 3c e2 4d 6e bd b1 83 90 3d 34 a0 aa 3d
       0.02565338 -0.058179744 0.07056368 0.083313376
000090 ef f2 b7 3c fa 0f 14 3c 87 01 8f bd 4f 24 7f 3d
       0.022454707 0.009037012 -0.06982713 0.062290486
0000a0 4e 5c 41 3c af ee aa bd 1a c0 96 bd df 8b 23 3c
       0.011801792 -0.083463065 -0.07360859 0.009982078
0000b0 ff a5 20 3b 37 b5 20 bd 72 85 b3 3c db 0b 3a bd
       0.0024513004 -0.03923532 0.021914218 -0.045421463
0000c0 9b ef 83 3c 20 93 b3 3c a2 a6 75 3d 1c aa 0c bc
       0.016105464 0.02192074 0.059973367 -0.008585479
0000d0 5e e9 e9 3a 3c 1f 90 3c 5a b6 8c 3d f4 ff 80 3d
       0.0017846038 0.017593019 0.06870718 0.06298819
0000e0 cd 24 97 bd d7 bf 3e bd 7f 87 02 bd bb 6b 31 ba
       -0.07380066 -0.04656967 -0.0318675 -0.0006768067
0000f0 c8 f5 c1 3c 73 b1 6c bd 00 f9 65 3d f7 10 6a bd
       0.023676768 -0.057786416 0.056145668 -0.057145085
000100 80 35 20 bd 1f d4 f9 bc f3 7b b8 3d b1 81 51 bd
       -0.03911352 -0.030496655 0.090080164 -0.051149074
000110 8f ec 64 3d c0 18 a8 3d de 55 62 3d 1e b4 a5 bd
       0.055889662 0.08207846 0.05525767 -0.08090995
000120 d2 bf f8 bc 4e 6b 58 3d 48 27 a3 bd d9 14 b0 bd
       -0.030364905 0.05283671 -0.07966477 -0.085977264
000130 99 70 80 3d e5 9f b8 bc 7a 66 88 bd 36 37 8d 3d
       0.06271476 -0.022537181 -0.06660171 0.06895296
000140 60 41 38 bc 60 d3 21 3d ec a4 a4 3c e0 c8 92 3d
       -0.011246055 0.039508224 0.020098172 0.0716722
000150 99 2e 64 3d 3a 2f 7d bd d8 da 3c bd 5d 5e 16 3d
       0.0557085 -0.061812617 -0.046107143 0.036711086
000160 09 02 57 3c ae 15 df 3c 4c e9 dc 3c 1b 39 69 bd
       0.013123044 0.027232017 0.026966713 -0.056939226
000170 85 ed fe bc 94 a7 8b bd f8 de a6 bd 7d 3e a5 3c
       -0.031119118 -0.06819072 -0.08147997 0.020171398
000180 8f 1b 12 3d 24 28 83 3d 4d 20 00 bd a7 b7 3d bd
       0.035670813 0.064041406 -0.031280804 -0.046317723
000190 95 43 10 bb e1 7e 03 bd 50 0a a5 3d e6 3c ad 3d
       -0.0022012938 -0.032103423 0.080586076 0.08458881
0001a0 d9 5b ac 3d 2b b7 6f bd 10 4b d4 3c 15 ec 4f 3d
       0.08415956 -0.058524292 0.025914699 0.050762255
0001b0 a5 53 87 3b 88 a2 bb bd 8a 69 e1 3c af 74 d4 bb
       0.0041298443 -0.0916186 0.027516145 -0.0064836363
0001c0 d7 9e 8f bc 8f 86 62 3d 67 7f 86 3d d9 0f 82 3d
       -0.017531795 0.055304106 0.06567269 0.06350679
0001d0 a0 ff f7 3c a0 56 84 bc 56 f5 01 bd 8c 48 8d 3d
       0.030273259 -0.016154587 -0.03172811 0.06898603
0001e0 aa be f3 ba 8d 38 04 bd c1 1d ba 3c 75 a6 ba 3a
       -0.0018596251 -0.032280494 0.022719266 0.0014240282
0001f0 42 b8 ba 3c 29 ae 51 3c 2f 39 96 bd 63 50 98 bd
       0.02279294 0.012797871 -0.07335126 -0.074372075

weight f4 [128, 128]
000000 30 2b 4d be ec 0a a0 bd 39 00 0d be 7b fe 92 be
       -0.20036006 -0.07814583 -0.13769616 -0.28709778
000010 82 20 45 bd 3d 1f 76 bd 7e 47 5d be 95 4f 76 bd
       -0.048126705 -0.060088385 -0.21609303 -0.06013449
000020 cf 79 d4 bd 30 be 2f bd 32 7a 1d be 8d 06 47 be
       -0.10374796 -0.042905986 -0.15378645 -0.19436093
000030 df 97 3e be 14 57 82 bd 44 9d 93 bd 12 9d d5 bd
       -0.18612622 -0.06364265 -0.072077304 -0.104303494
000040 4e df 15 bd 3d ab 4a be 07 62 01 be ab bb 3a be
       -0.036589913 -0.19791885 -0.1263505 -0.18235652
000050 26 57 88 be 88 83 e5 bd 3e 38 56 bd 87 4b 6c 3c
       -0.2662899 -0.11206728 -0.05229973 0.014422304
000060 e8 ee 85 bb a4 af 5c be ba 21 52 3d 19 7f 42 be
       -0.0040873177 -0.21551377 0.051301695 -0.18993796
000070 32 83 54 be c1 a7 47 be 6d 68 e2 bd 30 7b 08 bd
       -0.20753172 -0.19497587 -0.11055074 -0.033320606
000080 d3 05 1b be 11 5a d0 bd 85 f9 2c be 6a 3b 93 be
       -0.1513894 -0.10173429 -0.16892059 -0.28756267
000090 ea 66 a9 bd d0 86 1a be 26 bd a6 bc be 30 cc bc
       -0.082715824 -0.1509049 -0.020353865 -0.024925586
0000a0 50 cf 82 bd dc 4b c7 bd 13 22 07 bd a3 a4 ed bd
       -0.06387198 -0.09731266 -0.03299148 -0.116036676
0000b0 22 23 33 bc 40 f1 3b be 85 0a e4 3c a7 34 c5 bd
       -0.010933669 -0.18353748 0.027837047 -0.09629183
0000c0 02 56 55 be 56 15 2d be 53 57 54 bd 89 b7 32 be
       -0.2083359 -0.1690267 -0.05184109 -0.17452826
0000d0 ed 19 45 be 0c 7a 9e 3c 6c 78 77 bc bb b6 b4 bd
       -0.19248171 0.019345306 -0.015104394 -0.088239156
0000e0 9f cb 74 bd fd a4 87 be b1 ac 13 be 77 a3 d3 bc
       -0.0597645 -0.26493064 -0.14421345 -0.025834782
0000f0 96 4d f7 bd 18 e1 81 3d c7 fe ba bd 6c b9 4f bd
       -0.12075345 0.06341761 -0.09130626 -0.05071394
000100 f8 61 5e ba 6f 23 b1 bd 61 6c 3d be 03 16 aa bd
       -0.00084832264 -0.086493365 -0.18498375 -0.0830498
000110 70 55 36 be b1 fe 7c bd 5e 1b a4 be ad 9a 55 bd
       -0.1780603 -0.06176633 -0.3205213 -0.052149463
000120 08 33 f4 bd 2b f0 21 be 28 c6 72 b9 62 12 23 bc
       -0.11923796 -0.15814273 -0.00023152737 -0.009953113
000130 30 b9 aa bd 71 7f 94 bb 2f a5 70 bd db 11 72 bd
       -0.08336103 -0.0045317938 -0.05875128 -0.05909906
000140 7b 9c 9b bd 37 c8 4e bc b2 a3 18 3d fb ef 11 be
       -0.07598206 -0.012620977 0.037265487 -0.14251702
000150 33 72 40 be 5d f3 db bc b6 93 2b bd c4 96 7b bd
       -0.18793564 -0.026849443 -0.041888915 -0.06142308
000160 89 fd 95 be 51 c8 6d be 1c a9 98 bd b5 68 54 3d
       -0.29294994 -0.23220946 -0.0745413 0.05185767
000170 57 9a 33 be 90 30 9d bd a0 da 54 bd 87 88 af 3d
       -0.17539345 -0.07675278 -0.05196631 0.085709624
000180 72 58 82 bc 01 d9 62 be de e4 c3 bd bc 0e c0 bd
       -0.015911315 -0.22153093 -0.09565137 -0.0937781
000190 d5 83 57 3b f2 72 c3 bc f6 75 9e 3d d7 24 57 be
       0.0032884974 -0.023858521 0.07737343 -0.21010147
0001a0 3f 8c e4 bd 1e 0c 30 3c 49 3b c6 3d d9 2b 3c be
       -0.11159562 0.010745076 0.096792765 -0.18376102
0001b0 a3 ee 8c be 77 e2 ea bd f6 a5 95 bd 99 bd 0e be
       -0.27525815 -0.11468976 -0.07307045 -0.13939513
0001c0 ff 23 ac 3c 2f 01 64 bd d7 e9 38 be 58 fe 2c 3d
       0.021013258 -0.05566519 -0.18057953 0.04223475
0001d0 46 ec 51 be 9f 8c 77 3b 3a f3 b2 bc 40 06 87 be
       -0.20500287 0.0037773026 -0.021844495 -0.26371956
0001e0 29 25 07 bd 29 31 24 be d7 cb 93 bd 44 62 80 bd
       -0.032994423 -0.16034378 -0.07216614 -0.06268743
0001f0 a6 82 f3 bc 2d 11 68 bd d0 34 9e bd f2 17 4b be
       -0.029725384 -0.056657005 -0.07724917 -0.19833353
000200 05 67 80 be 22 18 fc bc 50 d7 ec bd e4 38 17 be
       -0.25078598 -0.030773226 -0.11564505 -0.14767796
000210 f2 91 da bd 28 78 95 bd 49 d7 83 be 51 eb 06 be
       -0.10672368 -0.072983086 -0.25750187 -0.13175704
000220 64 4f c3 bd 66 ed 5f be 17 58 2b be 1c 76 62 be
       -0.09536627 -0.21867904 -0.16732822 -0.22115368
000230 f8 91 87 be d0 83 4f bd 60 68 80 bc ca 08 2a be
       -0.26478553 -0.050662816 -0.01567477 -0.16604915
000240 35 44 d3 3b d2 85 30 be f3 fc 78 be 95 22 39 be
       0.00644734 -0.17238548 -0.24315242 -0.18079598
000250 a4 58 96 be c6 ae 5b be 46 89 8d bd bb 4f 70 bd
       -0.29364502 -0.2145339 -0.069109485 -0.058669787
000260 dc 0b 42 3d 5c 38 4f be 64 6d 70 bd 71 a2 67 be
       0.04737459 -0.20236343 -0.058698073 -0.2262056
000270 33 f4 43 be cc d6 78 be 51 8e 8e be 25 10 58 3b
       -0.19136123 -0.24300689 -0.27842954 0.0032968607
000280 1e 7f 1b be 24 bf 4d be b3 89 16 be 41 11 af be
       -0.1518521 -0.20092446 -0.14700966 -0.3419285
000290 cb 94 06 be 3b 3d f5 bd c5 40 6c be 9a 50 2f bc
       -0.13142698 -0.119745694 -0.23071583 -0.010700369
0002a0 23 c4 c2 bd 6f b9 fe bd d1 62 29 be d4 d3 0d be
       -0.09510066 -0.124377124 -0.16541602 -0.13850337
0002b0 74 ad 02 be 94 fd 8f be e6 68 7f bd d9 0b 9d bd
       -0.1276148 -0.28123152 -0.0623559 -0.076682754
0002c0 58 99 1c be 62 d2 ae bd 28 ae 9e bd 26 3d 7e be
       -0.15292871 -0.08536221 -0.077480614 -0.24828014
0002d0 6d af 34 be ec cc 2f bd 21 25 76 3d cc 79 df bd
       -0.17645045 -0.042920038 0.060094003 -0.10911903
0002e0 a1 47 8a bd 52 09 50 be 67 8a 17 be 39 dc 2e bd
       -0.067519434 -0.20316055 -0.1479889 -0.04269049
0002f0 b4 6f 30 be 4a 42 4f 3c 6f 10 48 be 45 7d 05 3d
       -0.17230111 0.012650082 -0.19537519 0.03259017
000300 ee fc 24 3c da 6a 48 be 33 9f 4c be 3a 70 48 bd
       0.010070069 -0.1957201 -0.19982605 -0.048935153
000310 79 51 2e be 87 fb 31 be f6 ed 8b be a7 7f 3c bd
       -0.17023267 -0.17381106 -0.27329987 -0.046020176
000320 6b fd 20 be c6 32 18 be af 81 11 3d d4 a7 cb bd
       -0.15721671 -0.14863119 0.035524067 -0.0994412
000330 c5 14 8b bd ea 31 c8 3d 34 71 42 bd 77 b8 5b bd
       -0.06791071 0.09775145 -0.04747124 -0.053642716
000340 b4 6b 07 be 79 4d 5f bc c8 b7 1c bd bf 15 33 be
       -0.13224679 -0.013629311 -0.038261205 -0.17488764
000350 98 bc e1 bd c0 5f b3 bd f4 10 ae 3c e1 fa 98 bd
       -0.110222995 -0.08758497 0.021248318 -0.07469726
000360 84 c2 92 be 42 52 a1 be 86 b3 06 be 59 8b 1b bc
       -0.2866403 -0.3150807 -0.1315442 -0.009493672
000370 dd 09 2d 3c 5f 19 5c be 65 ef 61 bd 1c a1 7c 3c
       0.010561434 -0.21494053 -0.055159945 0.015419271
000380 78 01 7b bd f6 5a 0e be 3e f2 48 be 57 31 05 3d
       -0.061280698 -0.13901886 -0.19623658 0.032517757
000390 4c 2a a5 bd 91 ab 2a be fb 3a b8 bd 27 40 47 be
       -0.08064708 -0.1666701 -0.08995625 -0.19458066
0003a0 ea 5f 0a be 0f 83 3d 3c 36 c2 c6 bc e7 10 a9 be
       -0.13513151 0.011566891 -0.024262529 -0.33020708
0003b0 b8 6f 71 be 09 10 bb be c9 f4 07 be 30 59 9a be
       -0.23577774 -0.3653567 -0.13276972 -0.3014617
0003c0 7d d7 6a bd 4b 83 ce bd bc 69 60 be ab dc 79 3b
       -0.057334412 -0.10083636 -0.21915334 0.0038125913
0003d0 c4 aa 80 be 46 ed 81 bd 02 29 da bc d8 f4 4e be
       -0.25130284 -0.063440844 -0.026630882 -0.20210588
0003e0 70 43 15 3c 77 50 70 be dc 44 bf bc 8e 22 32 bd
       0.009110317 -0.23468195 -0.023348264 -0.043489985
0003f0 6b 3c 22 bc 4d cd 5f bd 8f a5 22 be d3 d8 b4 be
       -0.0099021 -0.05463915 -0.15883468 -0.35321674

weight f4 [128]
000000 10 0f 77 3f cf d5 6c 3f ec 55 71 3f ae 9a 65 3f
       0.9650736 0.92513746 0.9427173 0.8968915
000010 af b4 5d 3f 24 48 73 3f c7 31 77 3f 6c b3 74 3f
       0.86603826 0.9503195 0.9656033 0.95586276
000020 80 c5 80 3f a4 45 65 3f 0a dc 72 3f d7 0f 71 3f
       1.0060272 0.8955939 0.94867 0.94164795
000030 2a 5c 70 3f 9c d5 72 3f f7 b1 78 3f a9 89 6f 3f
       0.9389063 0.9485719 0.9714655 0.9356943
000040 a0 98 77 3f 3b 6e 67 3f 34 6f 6f 3f 2b be 7e 3f
       0.9671726 0.90402573 0.9352906 0.99508923
000050 e2 43 80 3f 22 d3 74 3f fa 42 81 3f 3d af 70 3f
       1.0020716 0.95634663 1.0098565 0.9401739
000060 74 92 72 3f ad 9b 7f 3f ec 6a 71 3f 7a b4 61 3f
       0.9475472 0.9984692 0.94303775 0.8816601
000070 bd dd 6c 3f 90 8b 67 3f 9e 2a 86 3f e3 94 75 3f
       0.92525846 0.9044733 1.0481756 0.9593031
000080 2b 9d 6e 3f c0 ff 69 3f ca b2 78 3f 06 86 7c 3f
       0.9320857 0.9140587 0.9714781 0.98642004
000090 b3 a3 6c 3f ff 24 75 3f 41 02 64 3f e1 b7 59 3f
       0.92437285 0.95759577 0.8906594 0.850462
0000a0 80 46 87 3f e4 3a 81 3f c5 60 6c 3f 7a d2 7f 3f
       1.056839 1.0096097 0.9233516 0.99930537
0000b0 2b 88 4f 3f 6c 58 75 3f 0f 51 80 3f 8f 0a 6a 3f
       0.8106715 0.95838046 1.0024737 0.9142236
0000c0 dd 5a 6f 3f af 73 6c 3f 2e e8 67 3f 9d 62 84 3f
       0.9349802 0.9236402 0.90588653 1.0342594
0000d0 ca 52 68 3f 70 c6 7d 3f 4c 5f 80 3f ea b7 80 3f
       0.90751326 0.99130917 1.0029082 1.0056126
0000e0 e2 45 8c 3f bf 23 77 3f 12 e3 71 3f c3 aa 81 3f
       1.0958827 0.9653892 0.94487107 1.0130237
0000f0 75 28 6d 3f 19 71 7f 3f 6a f9 74 3f 3c 06 69 3f
       0.9263986 0.9978195 0.95693076 0.9102514
000100 2e 2d 87 3f 80 fa 75 3f 01 ee 6a 3f 9e b2 72 3f
       1.0560663 0.9608536 0.91769415 0.948038
000110 ea f6 6a 3f fa 98 74 3f d2 88 86 3f ad 99 6e 3f
       0.9178301 0.95545924 1.0510504 0.9320324
000120 f9 39 5a 3f ab 19 68 3f ac 5e 6b 3f 8a 83 52 3f
       0.8524471 0.90664166 0.9194133 0.8223196
000130 a6 b4 46 3f fd 1f 7a 3f d5 98 70 3f dc 36 83 3f
       0.776194 0.9770506 0.93983203 1.0251117
000140 4b 97 80 3f 72 99 80 3f 2e 24 83 3f b3 37 64 3f
       1.0046171 1.0046828 1.0245416 0.8914749
000150 26 df 6a 3f 8e 16 68 3f c9 4d 68 3f 71 f5 7d 3f
       0.9174675 0.90659416 0.9074369 0.9920264
000160 97 85 84 3f e1 36 79 3f d6 a0 73 3f 85 55 75 3f
       1.0353268 0.97349364 0.9516729 0.9583362
000170 bd 94 73 3f 9b 4b 60 3f 65 47 73 3f d2 ee 82 3f
       0.9514883 0.87615365 0.95030814 1.0229132
000180 13 d8 80 3f ba ca 82 3f aa 84 75 3f 66 4a 71 3f
       1.0065941 1.0218117 0.95905554 0.9425415
000190 86 50 60 3f 08 6f 73 3f 8f c7 70 3f 07 52 6c 3f
       0.8762287 0.95091295 0.940545 0.92312664
0001a0 9e 06 73 3f e4 53 70 3f ef 0e 72 3f 0b cb 7a 3f
       0.9493197 0.93878007 0.94554037 0.9796607
0001b0 bc 19 80 3f 7e 79 7a 3f dc 6f 73 3f 09 b9 78 3f
       1.0007854 0.9784163 0.9509256 0.9715734
0001c0 55 06 74 3f e1 f4 6e 3f f4 f6 7c 3f 80 1d 5e 3f
       0.9532216 0.93342406 0.9881432 0.86763763
0001d0 c4 08 6b 3f 32 d0 7e 3f 08 56 8b 3f 77 3a 79 3f
       0.9181025 0.9953643 1.088563 0.97354835
0001e0 58 87 56 3f 8f 6c 6e 3f 8b f7 63 3f 92 b8 7e 3f
       0.8380027 0.931344 0.89049596 0.9950038
0001f0 e4 d7 77 3f d6 c9 69 3f 16 c5 6c 3f f7 e8 76 3f
       0.968138 0.913236 0.9248823 0.96449226

bias f4 [128]
000000 d6 9e e3 3d ee 69 98 3e da 4b 47 3e b4 89 b5 3e
       0.1111428 0.29768318 0.19462529 0.35456622
000010 0f 70 04 3e 09 a0 38 3e db a6 0e 3e 27 7c e2 3d
       0.12933372 0.18029799 0.13930838 0.110588364
000020 30 99 c7 3d d9 6d ae 3d 65 8d 03 3e fe 64 8d 3e
       0.09746015 0.085170455 0.12846906 0.27616113
000030 99 20 63 3e 49 19 bc 3e 33 8b 43 3e 4c b7 44 3e
       0.22180404 0.3673804 0.19096069 0.19210547
000040 64 e9 9a 3e 61 e7 4c 3e 35 42 68 3e a8 2a 16 3e
       0.30256188 0.20010139 0.22681506 0.1466471
000050 04 f0 47 3e 1f 8a 00 3e 07 5e e9 bd 47 4a b4 3e
       0.19525152 0.12552689 -0.113948874 0.3521292
000060 01 a6 b5 3e 79 26 63 3e 65 65 e0 3e e4 4a 9f 3e
       0.35478213 0.22182645 0.43827358 0.31111825
000070 f6 c7 82 3e 7c f8 c0 3d 88 37 44 3e d8 b6 ae 3e
       0.25543183 0.09422395 0.19161808 0.34123874
000080 c2 71 a0 3c df 9d 37 3d 49 b0 94 be d2 6a 2b 3e
       0.019585494 0.044828292 -0.29040745 0.16739967
000090 91 fd b3 3c a3 ce 00 3e f3 40 0f 3e ef 96 9e 3d
       0.021971496 0.12578826 0.1398962 0.07743632
0000a0 dd 2d db bd 62 54 9f 3e 93 04 4b 3e 04 e2 12 be
       -0.10702107 0.31119066 0.19825964 -0.1434403
0000b0 e6 5c 24 3e 03 e8 0c 3e bf a2 c3 bd b7 1c 9e 3e
       0.16051063 0.1376038 -0.09552526 0.30881283
0000c0 63 7b 56 3e 06 9a d9 3d a0 47 cb 3e f6 07 4f 3e
       0.20945506 0.10625081 0.39703083 0.2021788
0000d0 a3 0a 40 3e 75 1f 9c 3e 5d e2 b7 3e 25 9d 5b 3e
       0.18754058 0.3049275 0.3591489 0.21446665
0000e0 c5 dc e3 bd d6 4e 90 3e 39 7d d7 be cc a3 a9 3e
       -0.11126093 0.28185147 -0.42087725 0.3313278
0000f0 f4 1a 07 3e 0a 8f d7 3e 99 04 84 3e 93 70 04 3f
       0.13193876 0.42101318 0.25784758 0.51734275
000100 3f 67 de bd c2 bc 02 3e 8e 3e 5b 3e 6a b4 3f 3e
       -0.108595364 0.12767318 0.21410581 0.18721166
000110 f7 f2 ab 3d 48 ac 8e 3d 75 07 b5 3e 32 0d c6 3e
       0.08395951 0.06966454 0.35357252 0.38681942
000120 8b d8 37 3c 3d 22 43 3e e4 b2 d9 3e 14 8d 38 3d
       0.011221061 0.1905603 0.42519295 0.045056418
000130 00 7d 5e 3e ab e8 e2 3e c9 b4 ba 3e a8 8f aa 3e
       0.21727371 0.44318137 0.36466053 0.33312726
000140 b2 2c c7 bb 17 ba a4 3e 40 68 bc 3e b1 ae 94 3e
       -0.006078326 0.32173225 0.36798286 0.2903953
000150 32 69 15 3e 88 1f 54 3d a1 c8 d7 3e 4c 74 b6 3e
       0.1459091 0.051787883 0.42145255 0.35635602
000160 3b b9 82 3e 0f 28 6e 3e 56 da 8d be 45 d1 ab 3e
       0.25531945 0.23257469 -0.2770564 0.33558097
000170 c1 9e cd 3e 9f 6c cc 3d 59 a0 69 3d 2e 3a b5 3e
       0.40160182 0.09981655 0.057037685 0.3539595
000180 14 33 a2 3e 99 5f 1c 3e f4 ee b2 be 96 9b b4 3e
       0.31679595 0.15270843 -0.34947932 0.35274953
000190 be a8 a5 3e 66 c6 ee 3d c2 97 cd 3d 68 27 e3 be
       0.32355303 0.11658935 0.10038711 -0.44366002
0001a0 a1 99 11 3d 9b c0 db 3e 70 da dc 3e 88 3e 1c 3e
       0.035546903 0.42920384 0.43135405 0.15258229
0001b0 94 8b b3 3e 19 b4 59 3e 19 f6 d0 3e 3e 7c 0d 3e
       0.35067427 0.21260108 0.40812758 0.13816926
0001c0 bd 4c aa 3e 4d c5 62 3e 74 21 31 3e ac 64 5e bd
       0.33261672 0.22145577 0.17297918 -0.054295227
0001d0 ae 2a a4 3e f9 87 b9 bd d7 47 03 be bb 77 81 3e
       0.32063812 -0.09059138 -0.12820373 0.2528666
0001e0 4a cc 2a 3d 9b c1 21 3e aa 0b a1 3e 70 9b 0d be
       0.04169873 0.15796511 0.3145421 -0.13828826
0001f0 a8 95 ac 3e 8a 6c 6e 3e 4e ed 37 3e a0 ad 8d 3e
       0.3370793 0.23283592 0.17961618 0.27671528

running_mean f4 [128]
000000 b3 ad e9 40 93 ce 7a c0 68 08 8e 40 c0 7c f0 40
       7.3024535 -3.9188583 4.438526 7.5152283
000010 29 19 d7 3f e6 37 6b be 21 d7 a8 40 97 a3 72 40
       1.6804553 -0.22970542 5.276261 3.7912347
000020 35 dc 74 40 9c b5 12 40 7b 2d 46 40 52 4c 99 40
       3.8259404 2.2923346 3.096526 4.7905664
000030 2c 31 5b 40 99 8d ee be 2a aa 62 c0 2b 86 84 40
       3.4248762 -0.46592405 -3.541636 4.141378
000040 69 1c 1c 3e 5b bc 9a 40 ed 13 41 40 19 18 9c 40
       0.15245213 4.8354926 3.0168412 4.8779416
000050 73 6f df 40 c9 8c c1 40 26 35 17 c0 c6 c9 91 c0
       6.9823546 6.0484357 -2.362619 -4.5558805
000060 67 a4 fc c0 b2 a0 db 3f d5 bf 25 c0 55 65 38 40
       -7.8950686 1.7158415 -2.5898335 2.8811848
000070 57 c8 50 40 43 06 0f 40 5a 19 8d 40 55 9c 28 bf
       3.2622278 2.2347572 4.4093447 -0.65863544
000080 da ca c0 3f bf d6 4c 40 87 b2 33 c0 06 63 c5 3f
       1.5061905 3.200607 -2.8077714 1.5420845
000090 84 b2 05 40 45 2a 40 40 ac d3 2d c1 26 06 e7 40
       2.0890207 3.00258 -10.864178 7.2195005
0000a0 65 de 84 c0 5b a2 33 c0 24 ae 8b 40 9f 31 4d bf
       -4.152148 -2.8067844 4.3650074 -0.8015384
0000b0 06 8f c0 40 82 bb be 40 2b 57 9a bf f6 07 25 c0
       6.017459 5.960389 -1.2057852 -2.578611
0000c0 86 91 67 3f 30 a0 03 40 5a 38 6f bf 15 8b b2 40
       0.90456426 2.056652 -0.9344536 5.579478
0000d0 9d f1 7c 3f c3 3a a0 c0 9f dd 6e c0 42 c3 0b c1
       0.9880617 -5.007173 -3.7322767 -8.73517
0000e0 d0 01 1b c0 c1 b3 1d 40 fb 68 78 c0 ad 45 04 bf
       -2.4219856 2.4640963 -3.8814075 -0.51668817
0000f0 5c bd 08 40 4e 51 d4 bf 57 66 2e 40 e2 9f b3 c0
       2.1365576 -1.6587312 2.7249963 -5.613267
000100 c4 c0 bc c0 67 53 58 40 71 85 45 40 b6 ef 2e c1
       -5.898531 3.3800905 3.0862696 -10.933523
000110 13 46 23 40 dc ad 9e 40 e3 ec 14 41 71 13 ad c0
       2.551152 4.958723 9.307834 -5.408623
000120 58 4b f3 3f a8 04 9f 40 ef f6 12 c1 61 5e f4 40
       1.9007368 4.9693184 -9.1852865 7.636521
000130 a6 f6 6f 41 d6 1c b0 c0 01 bc 58 41 27 67 a4 c0
       14.997717 -5.50352 13.545899 -5.137592
000140 be 6a 9c c0 7d dd 10 c0 82 57 a6 bf f0 3f 2f 40
       -4.88803 -2.2635186 -1.2995455 2.7382774
000150 cc 51 62 40 66 6d 05 40 a3 34 f1 c0 80 4c 46 c0
       3.5362425 2.0848022 -7.5376754 -3.0984192
000160 3e 5e fd 3f 2b 00 70 40 30 d3 1f c1 63 f5 1a c0
       1.9794385 3.7500103 -9.989059 -2.4212272
000170 a6 84 21 c0 97 6d 18 40 41 e9 0b 40 80 f2 c6 c0
       -2.5237212 2.3816888 2.1861117 -6.217102
000180 45 9f 89 bf bd 22 96 3f cc 2b 53 c0 ef 5b 29 c0
       -1.075173 1.1729351 -3.2995481 -2.6462362
000190 cf a9 17 c0 ef 84 72 40 07 36 7a c0 ff bd 3c c0
       -2.3697393 3.7893636 -3.9095476 -2.9490964
0001a0 11 5c 72 c0 4e 61 24 c1 32 ac a4 c0 7a 71 04 41
       -3.7868693 -10.273756 -5.14602 8.277704
0001b0 1e 1e 2f 40 96 bc 0d 40 ec c8 97 c0 08 96 f3 3f
       2.7362132 2.2146354 -4.7432766 1.9030161
0001c0 27 b1 26 c0 c1 3a 15 40 e7 17 b1 40 17 54 1d 40
       -2.6045625 2.331711 5.534168 2.4582574
0001d0 c3 70 18 40 d6 31 d6 bf 27 99 69 c0 cd 98 e6 3f
       2.3818824 -1.6733959 -3.6499727 1.8015381
0001e0 1e bc 53 41 57 75 a3 3f 08 d6 17 41 17 a9 77 c0
       13.233427 1.2770184 9.489754 -3.8696954
0001f0 51 6b 66 c0 48 3d ef bf 94 70 34 40 0f 23 1e 3f
       -3.6003 -1.8690577 2.8193712 0.61772245

running_var f4 [128]
000000 3b 1a 42 42 55 28 9c 40 1f ab a0 41 ff 31 11 42
       48.525616 4.8799233 20.083555 36.298824
000010 d6 a0 3b 40 cb 52 73 40 75 69 96 41 0b 54 d7 40
       2.9316916 3.8019283 18.801493 6.729009
000020 70 b2 95 41 e1 fa 54 40 27 0c 28 41 4a a4 a9 41
       18.712128 3.3278124 10.502967 21.20522
000030 a3 e7 d1 40 32 b3 e5 3f 0d 21 86 3f b3 0b 22 41
       6.559526 1.7945311 1.0478836 10.127856
000040 33 11 39 40 8c 48 cb 41 d2 39 4d 41 05 9f b3 41
       2.8916748 25.410423 12.826616 22.452646
000050 ba 73 11 42 d6 85 b0 41 0c 99 09 41 b9 bd 1f 41
       36.363014 22.06535 8.599865 9.983819
000060 b0 04 0f 42 c1 fe 39 40 0b 05 14 40 0e 9c 78 40
       35.754578 2.906174 2.3128078 3.8845248
000070 22 24 0f 41 32 55 76 40 45 d5 9d 41 ed 83 98 40
       8.9463215 3.84895 19.729136 4.766104
000080 53 84 4e 40 3c 74 e8 40 35 11 ff 40 22 2f bd 40
       3.2268264 7.264189 7.9708505 5.9120035
000090 bf 72 a3 40 49 c1 2b 41 99 00 af 42 63 5c 49 42
       5.107757 10.734689 87.50117 50.34022
0000a0 d8 76 12 41 a7 fe 1d 40 dc 9f 10 41 6f fe 55 40
       9.154015 2.4686677 9.039028 3.3436544
0000b0 9a c0 4c 42 a1 fc 13 42 87 6b 10 40 58 8a 01 41
       51.188087 36.996708 2.256563 8.096275
0000c0 f0 57 43 40 26 67 bd 40 17 0f e8 3f f0 75 c3 41
       3.0522423 5.9188414 1.8129605 24.432587
0000d0 bb b9 22 40 c2 8b c4 41 57 2e 57 41 b2 74 aa 42
       2.542586 24.568241 13.448813 85.22792
0000e0 12 34 49 40 6c 18 2c 40 f9 4c 06 41 0f 90 52 40
       3.1438031 2.6889906 8.393792 3.2900426
0000f0 22 59 9f 40 65 f2 51 40 e5 71 79 40 ad dc 8e 41
       4.9796305 3.2804196 3.8975766 17.857752
000100 25 dc d8 41 bd fb 2e 41 46 c2 61 41 86 b8 b3 42
       27.107492 10.93646 14.10993 89.8604
000110 ab 32 81 40 ee be a1 41 a0 e8 48 42 00 b3 06 42
       4.037435 20.218227 50.227173 33.674805
000120 af 30 28 40 99 e2 73 41 a8 bb 5e 42 11 bd b9 41
       2.6279714 15.242822 55.683258 23.217318
000130 36 2d 13 43 63 26 14 42 ac fc 11 43 98 66 6e 41
       147.1766 37.037487 145.987 14.900047
000140 27 42 96 41 ff 29 c1 40 a5 89 80 40 12 39 3e 40
       18.7823 6.0363765 4.0168023 2.9722333
000150 28 13 37 41 ef ff 51 40 b8 dd 41 42 bf 7f 8a 40
       11.442177 3.281246 48.466522 4.328094
000160 66 f6 8d 40 c2 dd 34 41 27 d1 83 42 f2 c5 5d 40
       4.436328 11.30414 65.9085 3.4652066
000170 a7 02 83 40 ca 18 b9 40 69 68 91 40 c2 40 b6 41
       4.094074 5.784276 4.5439954 22.78162
000180 d5 1f 24 40 e4 92 97 40 f7 a1 03 41 9f c6 fe 3f
       2.5644429 4.736681 8.227042 1.9904364
000190 f8 f7 41 40 06 9a 52 41 0c e9 93 40 b8 a2 0c 41
       3.0307598 13.162603 4.622198 8.789726
0001a0 56 98 17 41 6a 3a a0 42 d1 c6 32 41 e1 ab 48 42
       9.474691 80.11409 11.173539 50.16785
0001b0 40 52 cc 40 b8 b2 93 40 de 31 83 41 70 cf 59 40
       6.3850403 4.6155663 16.39935 3.403286
0001c0 13 b9 13 41 88 ba 81 40 12 33 00 42 7c 85 97 40
       9.232684 4.05402 32.049873 4.7350445
0001d0 96 a3 5c 40 cd ae 7a 40 6b a0 3f 40 66 c9 36 40
       3.4474845 3.916919 2.9941661 2.8560424
0001e0 06 13 02 43 84 65 54 40 17 3c 8d 42 85 83 d6 40
       130.07431 3.318696 70.61736 6.7035546
0001f0 d3 9b 61 41 04 6d 4d 40 8a 0b 6f 40 3e 7f 6b 40
       14.100543 3.2097788 3.7350793 3.6796412
