Graph Neural Network/Models/GraphConv_LSTM-D2-F1-mean.pth (torch, 765002 bytes, 23 tensors)

weight_ih_l0 f4 [384, 96]
0	0xbd10862c	-0.035284206
1	0xbcce0f3e	-0.025153752
2	0x3d809bac	0.06279692
3	0xbd03dec8	-0.032194883
4	0x3d9b2d33	0.075769804
5	0x3cef233a	0.029191602
6	0xbdb07f89	-0.086180754
7	0x3d3b4631	0.045721237
8	0xbd824d43	-0.06362393
9	0x3d0ce849	0.034401212
10	0xbd9e1b33	-0.077200316
11	0x3d28a3e5	0.041171927
12	0x3cd155ed	0.025553668
13	0xbdb40bb7	-0.08791297
14	0xbccde246	-0.02513231
15	0xbda0a515	-0.07843987
16	0x3dacf194	0.08444515
17	0xbd8f9838	-0.07011455
18	0xbdc91849	-0.09819085
19	0xbdc66f84	-0.09689239
20	0x3d610d3b	0.05494426
21	0xbccb1b4c	-0.02479329
22	0x3b81e48e	0.0039640134
23	0x3c94f129	0.0181814
24	0xbc37c54f	-0.011216476
25	0xbdd40448	-0.10352379
26	0xbd0344e1	-0.03204811
27	0xbd05ebdf	-0.032695647
28	0x3cdffd92	0.027342591
29	0xbdd368c0	-0.10322714
30	0xbd84ca8f	-0.064839475
31	0x3cc31453	0.023813402
32	0xbd8c2e86	-0.06844811
33	0xbd037448	-0.032093316
34	0xbdcf4eb8	-0.10122436
35	0xbc0c07c9	-0.008546778
36	0x3d199ac4	0.03750111
37	0xbd341fc2	-0.0439756
38	0xbc6c84d4	-0.014435966
39	0xbd30c478	-0.043156117
40	0x3d0059c6	0.031335615
41	0xbdb402ad	-0.08789573
42	0x3d9b0af8	0.075704515
43	0x3c3d5d00	0.011557817
44	0xbd82dbde	-0.063895926
45	0x3ccb452e	0.02481326
46	0x3cbbef60	0.022941291
47	0xbd0ad93e	-0.033898585
48	0xbda7c5cd	-0.081920244
49	0x3d1fcfbb	0.039016467
50	0xbd0c49a3	-0.034249913
51	0x3cadcab3	0.021214819
52	0xbd4f6010	-0.05062872
53	0xbd0e112c	-0.034684345
54	0xbab2c147	-0.0013637923
55	0x3d96da95	0.0736591
56	0xbc41921d	-0.011814621
57	0xbdc42c58	-0.095787704
58	0xbc85f656	-0.016352814
59	0xbd42117e	-0.047379963
60	0xbdb8fa54	-0.09032121
61	0xbce693e8	-0.0281467
62	0x3d7a2a80	0.061075687
63	0x3ab6cdc9	0.0013946827
64	0x3d9b8d4b	0.07595309
65	0x3d98900d	0.074493505
66	0x3d2be56b	0.041966837
67	0x3d48e8e9	0.049050245
68	0xbd4c638f	-0.049899634
69	0x3d896b8d	0.06709967
70	0x3c01ea4f	0.007929399
71	0x3b4af6cb	0.0030969854
72	0xbdd51ac7	-0.10405498
73	0xbdb2ffb8	-0.08740181
74	0xbb308599	-0.00269351
75	0x3c963170	0.01833412
76	0xbd19f4eb	-0.037587088
77	0xbd3e911e	-0.046525113
78	0xbd34a0a4	-0.04409851
79	0x3d4e5a70	0.050379217
80	0xbcc932b1	-0.024560304
81	0xbd8f4ca5	-0.06997041
82	0xbda72dc3	-0.08163025
83	0xbd82f97b	-0.06395241
84	0xbdbdfdce	-0.09276925
85	0xbdaae308	-0.08344084
86	0x3d446cc4	0.04795529
87	0xbdac3435	-0.08408395
88	0x3d9cbddf	0.076534025
89	0xbc0ba8d4	-0.0085241385
90	0xbca3ecc7	-0.020010365
91	0x3d2c13c5	0.04201104
92	0xbd6571a5	-0.056016583
93	0x3ce137bc	0.027492397
94	0xbd4ef696	-0.05052813
95	0x3cbbbbfa	0.022916783
96	0x3bd60a08	0.0065319575
97	0x3ab4b43b	0.0013786623
98	0x3c827b73	0.015928006
99	0x3a0126c9	0.0004926739
100	0x3c59c93d	0.013292608
101	0x3c839bbf	0.016065476
102	0xbb9b9c21	-0.0047488366
103	0x3c233832	0.0099621285
104	0x3b8c7bc2	0.004287214
105	0xb9c00090	-0.00036621513
106	0x3c336b93	0.010950941
107	0x39bd977c	0.00036161754
108	0x3c62cbe8	0.01384256
109	0x3c503525	0.012707983
110	0x3c88bc96	0.016691487
111	0xbbb11140	-0.0054036677
112	0xbba00b79	-0.00488418
113	0x39882202	0.0002596528
114	0x3a7ac9ec	0.0009566832
115	0x3c6b2512	0.0143521
116	0xbb9d265f	-0.004795834
117	0x3c9182d6	0.017762583
118	0x3b04fa66	0.002029085
119	0x3c90c07e	0.017669912
120	0xbb8bb74b	-0.0042637936
121	0xbaf954db	-0.0019022481
122	0x3c7f63d0	0.015587762
123	0x3c909b3b	0.017652145
124	0x3ba9708b	0.005170887
125	0x3c374c0e	0.011187566
126	0xbb1d6aaa	-0.0024019876
127	0x3a6418ef	0.0008701225
128	0x3c08728a	0.0083280895
129	0x3bc823cb	0.0061077825
130	0x3c535929	0.012899675
131	0x3c4a5501	0.012349368
132	0xbaf70a96	-0.0018847759
133	0x3bb03d7a	0.0053784223
134	0x3c72c3ce	0.014817191
135	0x3c494e3b	0.012286718
136	0x3c8f2578	0.017473921
137	0x3be1316b	0.006872346
138	0x3c57c93e	0.0131705385
139	0x3c7d842c	0.015473407
140	0x3af1d817	0.0018451241
141	0x3b99566c	0.0046794917
142	0x3c2616b6	0.010137251
143	0x3c7d87c5	0.0154742645
144	0x3c73e7df	0.014886825
145	0xbba6272f	-0.005070589
146	0x3c8b20b5	0.01698337
147	0x3c64032a	0.01391677
148	0x3c84701f	0.016166745
149	0x3c821590	0.015879422
150	0x3c3e6032	0.011619614
151	0x3b9fbb87	0.00487465
152	0x39ecbb60	0.00045153033
153	0x3bee72af	0.007276855
154	0x3c7fef0d	0.015620959
155	0x3c313cd9	0.01081773
156	0xbaebd9fc	-0.0017994042
157	0x3c7655f6	0.015035143
158	0x3c048d66	0.008090353
159	0x3bb9a483	0.0056653633
160	0x3c94fbed	0.018186534
161	0x3b2b7176	0.0026160157
162	0x3c6d1d1c	0.014472272
163	0x3c17ebd1	0.009272532
164	0x3c8e0340	0.017335534
165	0x3c72b0c1	0.014812649
166	0xbba3feed	-0.0050047548
167	0x3c5bbb64	0.013411377
168	0x3b8ddb01	0.004329086
169	0xbb16f759	-0.0023035614
170	0x3c6650fc	0.014057394
171	0x3c17698f	0.009241476
172	0xbb7a2e12	-0.0038174433
173	0x3c811900	0.015758991
174	0x3c020816	0.007936498
175	0x3c25e589	0.010125526
176	0x3ae76c68	0.0017656209
177	0x3bc1f744	0.005919369
178	0x3a2b806d	0.0006542269
179	0x3c6ebb6d	0.014571053
180	0x3be4ef74	0.006986553
181	0x3b918be2	0.004441724
182	0xbb8a9b2a	-0.004229923
183	0x3c5ae6d3	0.013360697
184	0xbb9d64f4	-0.0048032943
185	0x3c4bac61	0.012431235
186	0x3a061f0c	0.00051163207
187	0x3bbc47e7	0.005745876
188	0x3bba74e0	0.005690202
189	0xbb10cc4b	-0.0022094424
190	0x3c92bb81	0.017911674
191	0x3c679eff	0.014137029
192	0xbc90a8d9	-0.017658638
193	0xbc14cf28	-0.009082593
194	0xbc6d566c	-0.014485937
195	0x3be3d653	0.0069530397
196	0x3c81552b	0.015787682
197	0xba405821	-0.0007337351
198	0xbb9771a1	-0.0046217
199	0x3a89155d	0.0010458637
200	0xbb3dba5c	-0.002895019
201	0xb98856b6	-0.00026004546
202	0xbc96f7c8	-0.018428698
203	0xbca6a306	-0.020341408
204	0x398e6469	0.00027159162
205	0xbb075fac	-0.002065639
206	0x3c7b52f0	0.015339598
207	0xbc348b00	-0.011019468
208	0xbc5facc6	-0.013652032
209	0xbcde49c1	-0.027134778
210	0xbb659be4	-0.0035035545
211	0xbc2a262c	-0.010385077
212	0xbc5a4581	-0.013322235
213	0x3c62eea7	0.013850844
214	0x391d7d2a	0.00015019314
215	0x3c504d0f	0.012713685
216	0xbc5113ce	-0.012761069
217	0x3be81042	0.007082016
218	0xbbb4d3f3	-0.0055184304
219	0xbc49937d	-0.01230323
220	0x3b4e4cc9	0.0031478873
221	0xbc865fe1	-0.01640314
222	0x3c5ae79d	0.013360885
223	0xbbda01b1	-0.0066530337
224	0xbc85ee23	-0.016348904
225	0xbcb0c233	-0.021576976
226	0x3c2710d4	0.010196883
227	0x3c4c5c17	0.012473128
228	0x3c620ada	0.0137965325
229	0xbbd3d302	-0.006464363
230	0x3c091a14	0.008368034
231	0xbc2dd6cb	-0.010610293
232	0x3a9d4ca8	0.0012000995
233	0xbce2945d	-0.027658636
234	0x3ac30213	0.0014877938
235	0xbcde7708	-0.027156368
236	0x3bed3feb	0.0072402856
237	0xbb09ef43	-0.0021047152
238	0xbcab4a20	-0.020909369
239	0x3c1c7f1a	0.009551788
240	0x3c1313f5	0.008976926
241	0x3c7f30a8	0.015575565
242	0xbcd586a5	-0.02606518
243	0xbcb186f0	-0.021670789
244	0xbc896393	-0.016771113
245	0xbc720966	-0.014772749
246	0x3b968390	0.00459332
247	0x3bc81a23	0.0061066314
248	0xbcbf0cb0	-0.02332148
249	0xba78ab74	-0.0009485998
250	0xbc80946f	-0.015695779
251	0xbccd0e89	-0.025031345
252	0x3bf305ec	0.0074164774
253	0xbbb011b5	-0.0053732046
254	0xba6df458	-0.00090772426
255	0x3b287e06	0.0025709881

weight_hh_l0 f4 [384, 96]
0	0xbdee89f4	-0.11647406
1	0x3d31f542	0.043446787
2	0x3c10e8c2	0.008844556
3	0x3de0ac0b	0.109703146
4	0x3d604175	0.054749925
5	0xbd7e8e47	-0.062147405
6	0x3c49a838	0.012308173
7	0x3ac9c86d	0.0015394815
8	0x3c62d705	0.01384521
9	0xbd805b20	-0.06267381
10	0x3dabc2f5	0.083867945
11	0xbdfa9682	-0.12235738
12	0x3c30b1d2	0.010784583
13	0x3ce6ead4	0.028188147
14	0xbc06c78f	-0.008226289
15	0x3bb32edf	0.005468234
16	0xbccc37bd	-0.024928922
17	0xbde42864	-0.111405164
18	0x3de8d1d9	0.1136815
19	0xbd3dbf9d	-0.046325315
20	0x3db092fa	0.086217836
21	0x3c267965	0.010160779
22	0xbd352c17	-0.0442315
23	0xbc6cf5df	-0.014462917
24	0x3d64c79d	0.05585443
25	0x3c9d333c	0.01918947
26	0x3c872ce3	0.016500896
27	0xbd13eb32	-0.03611297
28	0x3d5d31dd	0.05400263
29	0x389a4b89	7.357362e-05
30	0xbd295a1d	-0.041345704
31	0x3d577d36	0.052609645
32	0xbd049cdf	-0.032376166
33	0xbda9b472	-0.0828637
34	0xbdc5d02f	-0.096588485
35	0xbd5a19a2	-0.0532471
36	0x3d4bffc0	0.04980445
37	0x3d7703ff	0.060306545
38	0x3d99afbd	0.075042225
39	0xbbd78aab	-0.00657781
40	0xbca91610	-0.020640403
41	0x3c55bf2f	0.01304607
42	0x3d55ecac	0.05222766
43	0xbd394d8d	-0.045239974
44	0x3d2f3f94	0.042785242
45	0xbd36f2f7	-0.044665303
46	0x3d6d335c	0.05791031
47	0xbdb4abf5	-0.08821861
48	0x3cba2a8a	0.022725362
49	0x3dbe2578	0.0928449
50	0x3e0bbddb	0.13646643
51	0x3d436d28	0.04771152
52	0x3c492481	0.01227677
53	0xbce6621e	-0.028122958
54	0x3b5d065f	0.0033725721
55	0x3dc75962	0.09733845
56	0x3dabc343	0.083868526
57	0x3d3487e3	0.044074904
58	0xbbf58e96	-0.007493804
59	0xbb660a10	-0.0035101213
60	0xbd82bbab	-0.06383451
61	0x3c8391b8	0.016060695
62	0x3ce62521	0.028093876
63	0x3da656c8	0.08122021
64	0xbcd9fc23	-0.026609486
65	0x3c728b1e	0.014803676
66	0x3ba290b9	0.0049611
67	0xbc5586ae	-0.013032598
68	0x3d77a57a	0.060460545
69	0xbd116a1a	-0.035501577
70	0x3d355d02	0.044278152
71	0xbd2a23b8	-0.04153797
72	0xbcd1b137	-0.025597198
73	0xbbca42cd	-0.006172514
74	0xbccc1682	-0.024913076
75	0x3d838ff2	0.0642394
76	0xbd14fb84	-0.036372676
77	0xbccd644b	-0.025072237
78	0x3c4ad75b	0.012380446
79	0x3d67b18f	0.056565817
80	0xbcd0398b	-0.025418064
81	0xbd7ea30e	-0.06216722
82	0xbda7d2ea	-0.081945255
83	0x3bcbd264	0.006220149
84	0x3dec61d7	0.11542099
85	0x3bd451e1	0.0064794873
86	0xbd50a7cc	-0.050941274
87	0xbc01b706	-0.007917171
88	0x3ccbf5d3	0.024897492
89	0xbd009239	-0.03138945
90	0xba364877	-0.0006953547
91	0x3cea9135	0.028633693
92	0xbda3983a	-0.07988019
93	0x3d84f0ab	0.06491216
94	0x3d488f97	0.048965063
95	0x3d9bf3d9	0.076148696
96	0xbc0b3cc3	-0.008498373
97	0xbb2bfb1b	-0.00262422
98	0xbb249f85	-0.0025119495
99	0xbba88e50	-0.005143918
100	0x3c0239db	0.007948364
101	0xbbee6d36	-0.0072762026
102	0xbc0c4157	-0.0085605
103	0xbb12ca83	-0.0022398538
104	0xbc125167	-0.008930541
105	0xbb11fa7d	-0.0022274547
106	0x3bf8760d	0.007582432
107	0x3be18cb0	0.0068832263
108	0xbb6eb5a8	-0.0036424194
109	0x3b9430e0	0.004522428
110	0x3a8ea8fd	0.0010884103
111	0xb726fc40	-9.953103e-06
112	0xbb2ea4e4	-0.0026648575
113	0x3b129756	0.0022368035
114	0x3b07e374	0.0020734938
115	0xb838708c	-4.3973836e-05
116	0x3bd3275b	0.0064439005
117	0x3b2a3ffc	0.002597808
118	0x3c04b4bc	0.008099731
119	0x3b916d0e	0.004438049
120	0xbb6917cf	-0.003556717
121	0xbb8e8333	-0.0043491363
122	0xbaa71ab2	-0.0012749045
123	0x3a1eadc2	0.00060531136
124	0xbb7c3894	-0.0038485872
125	0xbb722e83	-0.0036953993
126	0xbc4b42ad	-0.012406033
127	0x39ef7201	0.00045670572
128	0x3b068b5d	0.0020529844
129	0x3c0a0978	0.008425109
130	0x3c29c37c	0.0103615485
131	0xba3cee01	-0.0007207096
132	0x3bc55c5a	0.006022972
133	0x3c18750b	0.009305249
134	0xbbd2ab70	-0.0064291283
135	0x3b478ff4	0.0030450793
136	0xbb7a30c3	-0.0038176037
137	0xbb44f057	-0.003005048
138	0xbbac6f8e	-0.005262322
139	0xbc08c112	-0.008346813
140	0x3c25eae6	0.010126805
141	0xbb048bdc	-0.0020224964
142	0xba0ef065	-0.00054526917
143	0x3c52e7b0	0.012872621
144	0x39f87b36	0.00047394045
145	0xbb6bebe6	-0.003599876
146	0xbcd4ca22	-0.02597529
147	0x3b0d6db4	0.002158028
148	0x3cc2d919	0.02378516
149	0x3abef32a	0.0014568318
150	0x3bf82895	0.007573197
151	0xbb712a33	-0.0036798834
152	0x39bd1827	0.00036066884
153	0x3b356ffb	0.0027685154
154	0x3a27c114	0.00063993153
155	0x3ba5160c	0.0050380286
156	0x3cdabbce	0.02670088
157	0x3836c970	4.3579785e-05
158	0xbc12b1b4	-0.008953501
159	0xbc18f657	-0.009336076
160	0xbac017ea	-0.0014655564
161	0x3b8ee40d	0.004360682
162	0xbb22386e	-0.0024752873
163	0x3b6e5669	0.0036367422
164	0xbc7041e4	-0.014664147
165	0xbb8758dc	-0.004130466
166	0x3b5898ae	0.0033049989
167	0xbbd19b7f	-0.0063967104
168	0xba0e4efe	-0.0005428641
169	0x3adb8a42	0.0016749578
170	0x3b03c11e	0.002010412
171	0x3b935945	0.0044967257
172	0x3ba37932	0.004988813
173	0xbb8f6467	-0.0043759826
174	0x395a9daf	0.00020848842
175	0x3afb06f6	0.0019151855
176	0xbbfe7023	-0.0077648326
177	0x3bb1eae6	0.0054296134
178	0xbb8797db	-0.0041379756
179	0x3b96feb6	0.0046080006
180	0xbbd2f172	-0.006437474
181	0xbb505647	-0.0031789707
182	0xbbd4c755	-0.006493489
183	0xba5a8a77	-0.0008336673
184	0xbb9cc3b1	-0.0047840704
185	0xbba727b4	-0.0051011685
186	0xbc8ba512	-0.017046485
187	0x3a7e2bf9	0.00096958835
188	0x3b51c253	0.0032006695
189	0x3c102ad2	0.008799272
190	0xbb9fa1e3	-0.0048715933
191	0xbb60b630	-0.003428828
192	0x3aa6b13b	0.0012717614
193	0xba80b778	-0.0009820303
194	0x39957b5e	0.0002851141
195	0x39b73e35	0.00034950828
196	0xbab3c605	-0.0013715631
197	0xbaf9d961	-0.0019061976
198	0xb93c2b89	-0.00017945295
199	0xba8dd231	-0.0010820088
200	0x3b66c390	0.003521178
201	0xb8afe6e4	-8.387657e-05
202	0x3b341a22	0.0027481397
203	0x3b950380	0.0045475364
204	0x3a5e28d2	0.00084747106
205	0x3aed26fc	0.0018093283
206	0x3a538962	0.0008069483
207	0x3b94f411	0.0045456965
208	0x38ab4c47	8.168123e-05
209	0x3a8caa66	0.0010731935
210	0xbd762bbd	-0.060100306
211	0x3c052c25	0.008128201
212	0xba3246b9	-0.00068006996
213	0x3c1f22fb	0.00971293
214	0x3d25ac7f	0.04044771
215	0xbb2e055d	-0.002655349
216	0xbb63c208	-0.0034753103
217	0x3ab8291f	0.0014050341
218	0x3beafef3	0.0071715056
219	0x3a11b5ac	0.0005558382
220	0x3aa227b3	0.001237145
221	0x3a7b8974	0.0009595372
222	0xbd094013	-0.03350837
223	0x3a927b20	0.001117561
224	0x39064775	0.00012805856
225	0xbbf548d9	-0.0074854908
226	0x3b8fa430	0.0043835863
227	0x3a9b8e8b	0.0011868043
228	0x3bc590ac	0.006029209
229	0xbcd10edf	-0.025519786
230	0xbc13e1d6	-0.009026011
231	0x3ab6838b	0.0013924701
232	0xb8b6296a	-8.68615e-05
233	0x3a9619d1	0.0011451786
234	0xb936d036	-0.00017434437
235	0x3a821ae1	0.0009926223
236	0xbb15b75f	-0.0022844893
237	0x3ba0c13d	0.0049058483
238	0xbc0f33d4	-0.008740384
239	0x3bb31d83	0.0054661646
240	0x397ad691	0.0002392179
241	0xbb593f39	-0.0033149256
242	0xbd1be57b	-0.038060647
243	0x3b95591c	0.004557742
244	0x3cf52c55	0.029928366
245	0x3af81874	0.0018928186
246	0xbab3d193	-0.0013719074
247	0xbc01c674	-0.00792085
248	0x3b86f091	0.004118033
249	0x3b2dee43	0.002653972
250	0xba7e6044	-0.0009703676
251	0x3bdde934	0.0067721847
252	0x3d038ff4	0.032119706
253	0x3c1f9504	0.009740118
254	0xbb8063bf	-0.0039181407
255	0xbc6cc8b5	-0.014452149

bias_ih_l0 f4 [384]
0	0xbc798845	-0.015230243
1	0x3d6aedbb	0.057355624
2	0x3c24dddb	0.01006266
3	0xbd60b84a	-0.05486325
4	0xbd72f5d8	-0.059316486
5	0x3b142cc1	0.0022609683
6	0x3dc616b6	0.096723005
7	0xbc7e68e4	-0.015527938
8	0x3c862959	0.016377138
9	0x3d0000c1	0.03125072
10	0x3c277b3c	0.010222252
11	0xbd9f22f8	-0.07770342
12	0xbd359ce3	-0.044339072
13	0x3b0c5289	0.00214115
14	0xbc4d1125	-0.012516295
15	0x3d388e1b	0.045057397
16	0x3cb4dd78	0.02207826
17	0xbcec0494	-0.028810777
18	0x3ca92af1	0.020650359
19	0x3c1c2b55	0.009531816
20	0x3d2add95	0.041715223
21	0xbd1dfed2	-0.038573094
22	0x3d13633d	0.035983313
23	0xbd6c1767	-0.057639506
24	0xbc238c8a	-0.009982238
25	0x3d86185d	0.06547616
26	0xbd639f4e	-0.055571847
27	0x3d4bafb3	0.049728107
28	0xbd5530e0	-0.052048564
29	0x3c790d9d	0.015201
30	0x3ca13142	0.019676808
31	0x3b96ece7	0.0046058777
32	0x3d19af96	0.037520967
33	0x3c37e9c4	0.011225168
34	0xbc8615df	-0.01636785
35	0x3d980c2f	0.07424199
36	0xbd3916ef	-0.045187887
37	0x3da3647b	0.079781495
38	0x3d824834	0.06361428
39	0xbcace116	-0.021103423
40	0xbd227f4a	-0.039672174
41	0x3d46d144	0.048539415
42	0x3d9e6426	0.077339455
43	0x3d48e207	0.04904368
44	0x3daaa553	0.08332314
45	0xbd025deb	-0.03182785
46	0x3b790762	0.0037998785
47	0x3cd5fcdc	0.02612155
48	0xbc64b494	-0.013959069
49	0xbd448679	-0.047979806
50	0xbcaf8912	-0.021427665
51	0xbc3ccea5	-0.011523877
52	0xbd540b5f	-0.051768657
53	0xbc7838ce	-0.015150262
54	0xbdb565f9	-0.0885734
55	0xba50e8a5	-0.0007969237
56	0xbd0cf49a	-0.034412958
57	0x3cd5dd60	0.026106536
58	0xbcc6135e	-0.024179157
59	0xbd3c72b7	-0.046007838
60	0xbc078d95	-0.008273502
61	0x3d769c03	0.060207378
62	0x3cc465ec	0.023974381
63	0x3cf4467c	0.029818766
64	0xbd2e4786	-0.04254868
65	0xbd0d2ef8	-0.03446862
66	0xbcecc48a	-0.02890231
67	0x3d983292	0.074315205
68	0xbc353a38	-0.011061244
69	0xbd5e1171	-0.054215852
70	0x3d4a16a9	0.049338017
71	0x3c641941	0.013922037
72	0x3ce233fd	0.02761268
73	0x3d58dfa4	0.052947655
74	0xbd21cdb6	-0.039502822
75	0x3dd5c0af	0.10437142
76	0x3d72e431	0.05929965
77	0x3c8aff5d	0.01696747
78	0x3c4b5d28	0.012412347
79	0xbcfa1545	-0.03052772
80	0xbd8fdeff	-0.07024955
81	0x3d5d7ef0	0.054076135
82	0xbb91b749	-0.004446898
83	0x3c619864	0.013769243
84	0xbd7c53bb	-0.06160329
85	0xbd237a5e	-0.03991162
86	0x3d3ee210	0.04660231
87	0xba17d8fc	-0.0005792526
88	0xbc8f1ab2	-0.017468784
89	0xbcb261c4	-0.021775134
90	0xbd629f47	-0.05532768
91	0x3d48a8fa	0.048989274
92	0x3d78ee29	0.060774002
93	0xbc880646	-0.016604554
94	0x3d54c8b4	0.051949218
95	0xbc6051a2	-0.013691338
96	0x3d260070	0.04052776
97	0x3cd7695a	0.026295353
98	0xbd1eec76	-0.038799725
99	0x3c8123e5	0.015764186
100	0x3b5ff1e8	0.0034171287
101	0xbca34ae7	-0.019933177
102	0x3d5895ae	0.05287712
103	0xbd07d432	-0.03316135
104	0x3dc77ad7	0.09740227
105	0xbbe3b502	-0.006949068
106	0x3d1977a6	0.03746762
107	0x3c521db1	0.012824462
108	0xbd044850	-0.032295525
109	0x3d097b9c	0.03356515
110	0xbc72d12f	-0.014820381
111	0xbcec2f2b	-0.028831085
112	0xbd1eb1f0	-0.038743913
113	0xbd504695	-0.050848562
114	0x3d0dbb19	0.03460226
115	0xbd0f84f4	-0.035038903
116	0xba048404	-0.0005055072
117	0xbd23c62d	-0.039983917
118	0x3dba28da	0.09089823
119	0x3d4745cf	0.04865056
120	0xbc8db65b	-0.017298868
121	0xbcc6a213	-0.024247205
122	0x3e04ce1e	0.12969252
123	0x3d1afbc3	0.037837755
124	0x3cdaadef	0.026694266
125	0x3cc5b74e	0.024135258
126	0xbd4a4f3a	-0.049391963
127	0x3b42ec91	0.0029743055
128	0xbd0f55e0	-0.034994006
129	0x3c4ccb3a	0.012499625
130	0x3d803a29	0.06261093
131	0x3d8f46f7	0.06995957
132	0x3be60d24	0.0070206095
133	0x3d0c7d50	0.034299195
134	0xbcb6896d	-0.022282327
135	0xbd177454	-0.036976174
136	0x3c98272d	0.018573368
137	0x3cfbb753	0.030727064
138	0xbc225cdb	-0.009909834
139	0x3d6edf35	0.058318336
140	0xbd37c55b	-0.044865947
141	0xbd381037	-0.04493734
142	0x3ad1ed82	0.0016016217
143	0x3d626e1a	0.055280782
144	0xbc8f81bc	-0.017517917
145	0x3cf0ed3b	0.029409995
146	0x3e01b70a	0.1266748
147	0xbbff4dd4	-0.0077912603
148	0x3da62768	0.08112985
149	0x3c5c197f	0.013433813
150	0xbbacc959	-0.005273026
151	0x3d879794	0.06620708
152	0x3d093429	0.03349701
153	0x3cab705d	0.020927602
154	0xbd356b74	-0.04429193
155	0xbd398711	-0.045294825
156	0x3e0b763f	0.13619326
157	0xba838046	-0.0010032735
158	0x3e0b50ef	0.13605092
159	0xbd358d01	-0.044323925
160	0xbb2811fe	-0.002564549
161	0x3c91bf03	0.017791277
162	0xbd48a538	-0.04898569
163	0x3cf922c1	0.03041208
164	0xbd7f389e	-0.062309854
165	0x3d659e66	0.056059264
166	0x3d826461	0.06366802
167	0x3b495bb6	0.003072483
168	0x3cb81988	0.022473112
169	0x3d1e5fd1	0.038665596
170	0xbc9742c0	-0.018464446
171	0xbd258ba5	-0.04041638
172	0xba0fcbc3	-0.000548538
173	0xbcf9ba94	-0.030484475
174	0xbc094fe9	-0.0083808685
175	0x3d1105bf	0.03540587
176	0x3d53aeac	0.051680252
177	0x3d62af1b	0.055342775
178	0x3d1c8986	0.03821709
179	0x3c8473ad	0.01616844
180	0xbc8c02f6	-0.017091256
181	0x3c803531	0.015650364
182	0x3dfbdd7d	0.12298105
183	0x3d14b48e	0.036305003
184	0x3c2910de	0.010318963
185	0x3db623f3	0.088935755
186	0x3d852908	0.06501967
187	0x3d19e06a	0.037567534
188	0x3e000430	0.12501597
189	0x3b9d1b74	0.0047945324
190	0xbba029bd	-0.004887788
191	0x3aa7b66e	0.0012795457
192	0x3ddf99e1	0.10918022
193	0x3d8d0edb	0.06887599
194	0xbdac5be1	-0.08415962
195	0xbd4e7997	-0.050408926
196	0x3cdef063	0.027214235
197	0xbd9d7bb0	-0.07689607
198	0xbd57b790	-0.052665293
199	0xbc0a7c0c	-0.008452427
200	0x3d0ae7e0	0.03391254
201	0xbd9afcf3	-0.075677775
202	0x3dbb1950	0.09135687
203	0xbc155721	-0.009115011
204	0x3c834cbb	0.016027799
205	0x3da235e4	0.07920435
206	0x3d485002	0.048904426
207	0x3d5f1cfb	0.054470997
208	0x3da86ecf	0.0822426
209	0x3cb49420	0.022043288
210	0xbd90f472	-0.07077874
211	0xbcfa0290	-0.0305188
212	0x3d5b9bd0	0.05361539
213	0x3d948994	0.072528034
214	0x3dc009fc	0.09376904
215	0xbd84568a	-0.064618185
216	0x3d1b480e	0.037910514
217	0x3d3dde83	0.04635478
218	0xbd1f9aa5	-0.03896584
219	0xbd7cec0b	-0.061748546
220	0x3dcdf2ea	0.10056098
221	0x3cb97c99	0.02264242
222	0xbd98c908	-0.07460219
223	0x3d850442	0.06494953
224	0x3cf95f0b	0.030440828
225	0xbd011311	-0.031512324
226	0x3c6b2f86	0.014354592
227	0x3c333db5	0.010940005
228	0x3da1a863	0.07893445
229	0x3d74c4f3	0.059758138
230	0xbd4d2dbf	-0.050092455
231	0xbd86e2c9	-0.065862246
232	0x3c872018	0.016494796
233	0x3d6be668	0.05759278
234	0x3d7f627b	0.062349778
235	0xb929769b	-0.0001616128
236	0xbc358cac	-0.011080902
237	0xbcd57da8	-0.026060894
238	0xbcd784ae	-0.026308384
239	0xbcbd5b64	-0.023114868
240	0x3c539a95	0.012915273
241	0xbd743a2d	-0.059625793
242	0xbdb523ee	-0.08844744
243	0xbd8dd640	-0.069256306
244	0x3dc6b23f	0.097019665
245	0x3b936039	0.0044975546
246	0x3cda130e	0.026620414
247	0x3daa77d2	0.08323635
248	0xbd82141a	-0.0635149
249	0x3cade45d	0.021227056
250	0x3d313117	0.043259706
251	0xbcec94b7	-0.028879507
252	0x3dc0ce4a	0.094143465
253	0xbd87975e	-0.06620668
254	0x3d25b3fc	0.04045485
255	0xbda16f80	-0.07882595

bias_hh_l0 f4 [384]
0	0x3dc92e49	0.09823281
1	0x3d5fb6f3	0.054617833
2	0x3c5e1ee9	0.013557174
3	0xbab1ea3d	-0.0013573837
4	0x3cb6b849	0.02230467
5	0xbd01a318	-0.03164968
6	0x3d1fe011	0.039032046
7	0xbc4bf974	-0.012449611
8	0x3c3b2341	0.011421979
9	0xbc9cb7cf	-0.019130616
10	0x3d2489a8	0.04017034
11	0x3d6cd6ec	0.057822153
12	0x3cd0d682	0.02549291
13	0xbb47e135	-0.0030499224
14	0xbcb174a0	-0.021662056
15	0xbd20516e	-0.039140157
16	0xbbf9fad5	-0.0076287785
17	0xbda82126	-0.082094476
18	0x3cc5efcf	0.024162201
19	0x3cb204f3	0.021730876
20	0xbd35337b	-0.04423855
21	0xbd75b864	-0.0599903
22	0xbd0138a3	-0.031548154
23	0x3d4aa8c7	0.049477365
24	0x3d711537	0.058858123
25	0x3d325779	0.04354045
26	0x3d922853	0.071365975
27	0xbda79c98	-0.08184165
28	0xbbbbeeb8	-0.0057352446
29	0x3d33c8a3	0.043892514
30	0x3d609ffc	0.054840073
31	0xbc5ad16f	-0.013355597
32	0xbd672808	-0.05643466
33	0x3c8be4a2	0.017076794
34	0x3d2b72aa	0.0418574
35	0xbcda0f7a	-0.026618708
36	0xbd749101	-0.0597086
37	0x3d5cf0b9	0.05394051
38	0xbd15ba75	-0.036554772
39	0x3cd6b145	0.026207576
40	0xbd0d5ddf	-0.03451335
41	0xbaced6c8	-0.0015780563
42	0x3da7ccce	0.0819336
43	0x3cbece42	0.02329171
44	0x3df89144	0.12137082
45	0x3da591c7	0.080844454
46	0xbcdb4f61	-0.02677125
47	0x3c279865	0.010229205
48	0xbc52310f	-0.012829079
49	0xbd45c7e4	-0.048286334
50	0xbd10fdb4	-0.0353982
51	0x3d60ac6e	0.05485194
52	0xbcad1e8d	-0.021132732
53	0x3c555a3d	0.013022003
54	0x3cf6dbe9	0.030134158
55	0xbd5e003f	-0.054199453
56	0xbd4f651e	-0.050633542
57	0x3cb16eac	0.021659218
58	0xbcc1ef96	-0.023673814
59	0x3da7ce8d	0.08193693
60	0xbd70dd5c	-0.058804855
61	0x3d012218	0.031526655
62	0x3ddcb328	0.10776359
63	0xbd864fdc	-0.06558201
64	0xbd49abb0	-0.049236
65	0x3d82fe2e	0.06396137
66	0x3d10c5a8	0.03534475
67	0x3c83c3b8	0.016084537
68	0xbceec106	-0.029144775
69	0xbd76d7d6	-0.06026443
70	0xbd881df9	-0.06646342
71	0xbcf99dfe	-0.030470844
72	0x3d23767b	0.039907914
73	0x3a90ebb8	0.0011056578
74	0x3c373a4c	0.011183333
75	0xbb604a78	-0.0034224074
76	0x3d1488d2	0.036263295
77	0xbd1bf890	-0.038078845
78	0xbcfbd527	-0.030741287
79	0x3dbe2f16	0.09286325
80	0x3d477e4c	0.04870443
81	0xbcb02e81	-0.02150655
82	0xbdbcb6bb	-0.092145406
83	0x3c7ec06f	0.015548809
84	0x3d4c8eac	0.04994075
85	0xbd22ac90	-0.03971535
86	0x3c3dc3be	0.011582313
87	0xbd5a1e07	-0.053251293
88	0xbcb96e37	-0.022635562
89	0xbd0c8fab	-0.0343167
90	0xbd6f5299	-0.05842838
91	0xbd88b7cd	-0.06675682
92	0xbd145de7	-0.036222365
93	0x3d86085b	0.065445624
94	0xbd031a72	-0.032007642
95	0xbd26bd55	-0.040707905
96	0x3e0473e9	0.12934841
97	0xbd4c446a	-0.049869932
98	0x3c8dd788	0.017314687
99	0x3d76501b	0.06013499
100	0x3d3cae9f	0.04606497
101	0xbc8948d0	-0.016758353
102	0x3d7fac2b	0.06242005
103	0xbcf260af	-0.029587118
104	0x3dec52e0	0.11539245
105	0x3ddcb7e7	0.10777264
106	0x3d45d6b8	0.048300475
107	0x3d83fe63	0.06445005
108	0xbc4a7e6c	-0.012359243
109	0x3cc4f117	0.024040742
110	0xbcae693c	-0.021290414
111	0x3d89d9a3	0.06730964
112	0x3c8bdf14	0.017074145
113	0xbc182f7a	-0.009288663
114	0x3dc21955	0.09477488
115	0xbd0f9b16	-0.03506001
116	0xbd30fa12	-0.043207236
117	0x3df9a0a9	0.121888466
118	0xbc8959bd	-0.016766423
119	0x3ab2e61e	0.0013648903
120	0xbcae621a	-0.021287013
121	0x3d9a964c	0.07548198
122	0xbb6144fa	-0.0034373389
123	0xbd439bce	-0.04775601
124	0x3d93fde7	0.072261624
125	0x3c9c4c7a	0.019079436
126	0x3cee37e0	0.029079378
127	0xb8d35744	-0.000100775185
128	0x3c6a3be1	0.014296503
129	0x3d1e7fb6	0.038696013
130	0x3c965d1a	0.018354941
131	0x3cbdef17	0.023185296
132	0xbc27e610	-0.010247722
133	0x3d49df8f	0.049285468
134	0xbd1e0501	-0.03857899
135	0xbc9861d2	-0.018601332
136	0x3a9c8a9e	0.0011943167
137	0x3dc00f8d	0.09377966
138	0x3dd88870	0.105728984
139	0x3c6a83ba	0.014313633
140	0xb8cd1ae8	-9.7801734e-05
141	0xbbb0ee72	-0.0053995186
142	0x3d156fd6	0.03648361
143	0xbd39d42b	-0.045368355
144	0xbbe24af5	-0.006905908
145	0x3d3584c0	0.044316053
146	0x3dc4023a	0.09570737
147	0xbd3ad119	-0.045609567
148	0x3c29155a	0.010320032
149	0xbc84bcde	-0.01620334
150	0xbb540404	-0.0032351026
151	0x3dae4ee5	0.08511142
152	0x3d11e9be	0.035623305
153	0x3b661ef8	0.0035113674
154	0xbd1f105a	-0.038833953
155	0x3dae65cc	0.0851551
156	0x3db0cfce	0.086333856
157	0xb91ab633	-0.00014754459
158	0x3de08662	0.109631315
159	0xbce2b13c	-0.027672403
160	0x3c15cadc	0.009142604
161	0xbd75dd44	-0.06002547
162	0x3b3b9c86	0.002862723
163	0x3dbba9a7	0.09163218
164	0xbb904b11	-0.00440348
165	0xbca7ab7e	-0.020467516
166	0x3d510c6d	0.05103724
167	0x3da36f98	0.07980269
168	0x3dab4751	0.08363212
169	0xbcf3b018	-0.029747054
170	0xbbf3dd45	-0.007442149
171	0xb941132c	-0.00018413056
172	0xbba89d03	-0.0051456704
173	0x3cefec56	0.029287498
174	0xbc943462	-0.018091384
175	0x3dddb9c6	0.10826449
176	0x3cc507ad	0.024051512
177	0x3d54805d	0.05188023
178	0x3bf5ba62	0.007499025
179	0x3ce0b6e5	0.02743096
180	0x3d13cce3	0.036084067
181	0xbd0e4adc	-0.03473936
182	0x3e105229	0.14093842
183	0x3d2343a4	0.03985943
184	0xbb99aa43	-0.004689486
185	0x3d90d75a	0.07072325
186	0x3c5bb882	0.013410689
187	0x3d9f41b6	0.07776205
188	0x3df44099	0.119263835
189	0x3dd4b9a1	0.103869684
190	0x3c2b3633	0.010449934
191	0xbd05704c	-0.032577798
192	0xbd3f71f3	-0.04673953
193	0xbd95c0b2	-0.07312144
194	0x3dc54986	0.09633164
195	0x3d77a4b9	0.060459826
196	0xbd25c4f3	-0.04047103
197	0xbbc989f3	-0.006150478
198	0x3d42a9e5	0.047525305
199	0xbabb3480	-0.0014282614
200	0x3d91e7c0	0.07124281
201	0xbc46d5d5	-0.0121359425
202	0x3be97af9	0.007125255
203	0x3c3bc62a	0.01146082
204	0xbd75d88a	-0.06002096
205	0x3d511b39	0.051051352
206	0x3ca1a9d1	0.019734295
207	0xbdbd8c27	-0.092552476
208	0x3d64ccbf	0.055859324
209	0xbc8cb403	-0.01717568
210	0x3dd4fc83	0.10399725
211	0xbd2bcc9e	-0.041943185
212	0xbda44215	-0.08020417
213	0x3d480d26	0.048840664
214	0xbdc826e8	-0.09773046
215	0x3dc89daf	0.09795701
216	0xbd0d0ee0	-0.034438014
217	0x3d6e1121	0.058121804
218	0x3cbcee3a	0.023062814
219	0xbdc88229	-0.09790451
220	0xbc48e9ce	-0.012262775
221	0xbc52dcae	-0.012869997
222	0xbde9ea15	-0.11421601
223	0x3da5439e	0.080695376
224	0xbda64e2b	-0.08120378
225	0xbce9d9c0	-0.028546214
226	0xbd366dfb	-0.04453848
227	0x3d4adc79	0.049526665
228	0xbce84302	-0.028352264
229	0xbda9e9a7	-0.08296519
230	0xbd98b2a8	-0.07455951
231	0xbd7c2934	-0.06156273
232	0x3ce6a4ba	0.02815472
233	0x3d3fd707	0.046835925
234	0xbb9e6cac	-0.004834732
235	0xbdc0fc68	-0.09423143
236	0x3ab20307	0.0013581224
237	0xbbbed6ca	-0.0058239447
238	0xbc7117e4	-0.014715169
239	0xbce520c3	-0.027969724
240	0x3d3de623	0.046362054
241	0x3d758878	0.0599446
242	0xbd7c394a	-0.061578073
243	0x3d7941d3	0.06085379
244	0x3cf345b0	0.029696316
245	0x3cd14aec	0.02554842
246	0x3d6d7ea8	0.057982117
247	0xbd17bb9f	-0.037044164
248	0xbd48d36e	-0.04902976
249	0x3d7acd3a	0.061230876
250	0xbde29d10	-0.110651135
251	0x3dae33d3	0.085059784
252	0xbb4b2481	-0.00309971
253	0xbd5985fd	-0.053106297
254	0xbd683e6d	-0.05670016
255	0xbb0fa1b5	-0.0021916453

weight f4 [96, 96]
0	0x3d18505f	0.037186023
1	0x3d292597	0.041295614
2	0xbd15f356	-0.036609016
3	0xbd44d4d7	-0.048054542
4	0xbd93e94c	-0.07222232
5	0xbcada2a9	-0.021195726
6	0xbbc6060b	-0.006043201
7	0xbbdf7f97	-0.00682063
8	0x3d93a0ac	0.0720838
9	0x3d148967	0.03626385
10	0xbcefa8c0	-0.029255271
11	0xbc22fa80	-0.009947419
12	0x3d2de093	0.0424505
13	0x3cd48e3a	0.025946725
14	0x3ccfb41c	0.025354438
15	0x3d6eabd8	0.05826935
16	0xbcabb759	-0.02096145
17	0x3c98d956	0.018658321
18	0xbda279ec	-0.07933411
19	0x3ce040e6	0.027374696
20	0xbc9cf2ce	-0.019158747
21	0x3d9130af	0.07089364
22	0x3ab6a0b2	0.0013933389
23	0xbd86956a	-0.06571467
24	0xbcf62ab9	-0.030049669
25	0x3c51dd53	0.012809115
26	0x3c66b48d	0.014081133
27	0xbd903597	-0.070414715
28	0x3ca929cb	0.020649811
29	0x3cb887bc	0.02252566
30	0x3b0e4e1e	0.0021714042
31	0xbccc1f76	-0.024917345
32	0x3cd85368	0.026406959
33	0x3ccd2d24	0.025045939
34	0xbd18ac86	-0.037273906
35	0x3c969c12	0.018384967
36	0x3cc045db	0.02347081
37	0x3becfac8	0.007232044
38	0xbc9a851b	-0.018862298
39	0xbc307668	-0.010770418
40	0x3d1dddcd	0.038541604
41	0xbd5c8ea7	-0.05384698
42	0xbd7df7ae	-0.062003784
43	0xbbc3aad3	-0.0059712916
44	0xbcbf6e5e	-0.023368057
45	0x3d79f355	0.061023075
46	0xbc8ea57e	-0.017412897
47	0x3ba92c93	0.0051627844
48	0x3c87d355	0.016580263
49	0x3d50877d	0.05091046
50	0xbd85f93a	-0.06541677
51	0x3cb2d641	0.02183068
52	0x3d94c77f	0.07264613
53	0x3ca86298	0.020554826
54	0x3cbcb4df	0.023035465
55	0x3c832e67	0.016013337
56	0x3d5ead0d	0.054364253
57	0x3cb8a1a5	0.022538016
58	0xbcf2b8d3	-0.029629147
59	0x3d0488f4	0.03235717
60	0x3d407d9d	0.046994794
61	0x3d722b36	0.05912324
62	0x3d52b11a	0.05143843
63	0xbd10c118	-0.0353404
64	0xbc136b7d	-0.008997795
65	0xbd576839	-0.05258963
66	0x3d42f85d	0.04760014
67	0xbd04fb95	-0.03246649
68	0xbb132e56	-0.0022458038
69	0x3c4e129f	0.012577682
70	0xbd0246a7	-0.03180566
71	0xbcd4edc9	-0.025992291
72	0xbd32bd3f	-0.04363751
73	0x3bb28d54	0.0054489765
74	0x3a7a76b2	0.000955443
75	0xbd9868e3	-0.074418806
76	0xbbc8cd6d	-0.0061280043
77	0xbb8b9eab	-0.004260858
78	0x3c0a7b6b	0.008452277
79	0x3d3e211e	0.0464183
80	0x3d889672	0.0666932
81	0xbcda71a3	-0.026665514
82	0xbba10929	-0.004914422
83	0xbb0e113e	-0.0021677758
84	0xbd86c9e5	-0.06581477
85	0x3ca4a866	0.02009983
86	0x3db8c086	0.09021096
87	0xbbea35f1	-0.0071475436
88	0x3d488523	0.048955094
89	0x3c84f1f2	0.01622865
90	0x3c0112f2	0.007878052
91	0xbd447351	-0.047961537
92	0x3d869fda	0.06573458
93	0x3d705a9f	0.058680173
94	0x3d467607	0.048452403
95	0x3b01ce55	0.0019806821
96	0x3cc9010f	0.024536638
97	0xbbc69946	-0.006060752
98	0xbc956722	-0.018237654
99	0xbcb07e26	-0.021544527
100	0x3d5954a8	0.05305925
101	0xbc8eecc7	-0.017446889
102	0x3c04135f	0.008061259
103	0x3ccc9254	0.024972118
104	0x3bcdcf3b	0.0062808073
105	0xbd4455e2	-0.047933467
106	0x3d1d59f1	0.038415853
107	0x3c49fe1c	0.012328651
108	0xbbdbd811	-0.0067091067
109	0x3d4f146a	0.050556578
110	0x3c5d2b4e	0.013499094
111	0x3d5fb84a	0.05461911
112	0xbcbabc7a	-0.02279495
113	0xbd22b7ac	-0.039725944
114	0xb996d623	-0.00028769774
115	0x3c4db4e0	0.012555331
116	0x3bca709d	0.0061779753
117	0xbbf9e046	-0.0076256124
118	0xbc82fe96	-0.015990537
119	0x3d832a85	0.06404594
120	0xbd978c78	-0.07399839
121	0xba136ab3	-0.00056235044
122	0xbd4021a1	-0.04690707
123	0x3b8bdad0	0.004268028
124	0xbbd309fe	-0.0064404
125	0x3d057180	0.032578945
126	0xbd037a6a	-0.032099165
127	0xb9b10a43	-0.00033767716
128	0x3d2dcd27	0.042431977
129	0xbd0a3d00	-0.03374958
130	0xbd1aa7bd	-0.037757624
131	0x3d666896	0.056252085
132	0x3d839401	0.06424714
133	0x3d8d0edf	0.06887602
134	0x3d20af09	0.039229427
135	0x3d1ff42c	0.03905122
136	0xbd1cda5d	-0.038294185
137	0xbd9fecc6	-0.07808833
138	0xbd3b6a4a	-0.045755662
139	0xbbe82fb9	-0.007085767
140	0x3d1e4135	0.038636405
141	0xbd6ab17b	-0.057298165
142	0x3d9a831c	0.075445384
143	0x3d0eb52c	0.034840748
144	0xbca4b2c4	-0.020104773
145	0x3d136754	0.035987213
146	0xbc938d45	-0.018011698
147	0xbb8f476c	-0.004372528
148	0x3d1b2951	0.0378812
149	0xbd492620	-0.049108624
150	0x3b86859c	0.004105283
151	0x3d8e375a	0.06944151
152	0x3cb6afec	0.022300683
153	0xbd54e026	-0.051971577
154	0xbc841f48	-0.016128197
155	0xbdbfbd32	-0.09362258
156	0x3cb932a0	0.022607148
157	0x3d7e1ecf	0.0620411
158	0xbcd65a9a	-0.026166249
159	0xbd886092	-0.06659044
160	0xbc681042	-0.014164032
161	0x3ce515f3	0.027964568
162	0x3cb4f211	0.022088083
163	0x3ca49424	0.02009017
164	0x3c5a3f32	0.013320731
165	0xbd4857cf	-0.048911866
166	0x3b3a72f3	0.0028449863
167	0xbc5588fd	-0.013033149
168	0x3cfb5972	0.0306823
169	0xbb1e76d5	-0.0024179716
170	0x3cef52f4	0.02921436
171	0x3d3466de	0.044043414
172	0xbcd4cb85	-0.025975952
173	0xbca5018a	-0.020142335
174	0x3c2d4267	0.010574914
175	0x3dc92445	0.09821371
176	0x3c74220b	0.014900695
177	0x3a30de48	0.00067469897
178	0xbd1a4590	-0.037663996
179	0x3bddaa9b	0.0067647225
180	0xbd75e5bc	-0.060033545
181	0x3b323605	0.0027192843
182	0xbd9d7e6b	-0.07690128
183	0xbd303b6c	-0.04302542
184	0xbcc32bd8	-0.023824617
185	0xbc7ddb00	-0.015494108
186	0xbd139930	-0.036034763
187	0x3aebd5f5	0.0017992841
188	0x3d74d18b	0.05977015
189	0x3d7c0e53	0.0615371
190	0xbd10e50e	-0.035374694
191	0xbd6f1a5a	-0.05837474
192	0x3cd509d4	0.026005663
193	0x3d7e0fec	0.062026903
194	0x3c94aeca	0.018149752
195	0x3d0f28a2	0.03495086
196	0xbd846fd3	-0.06466641
197	0x3d033859	0.03203616
198	0x3d1865dc	0.037206516
199	0x3d1e0b53	0.03858502
200	0xbd1d123c	-0.038347468
201	0x3d0cbda6	0.03436055
202	0x3c8c150c	0.01709988
203	0xbd708b38	-0.05872652
204	0x3c21941e	0.009861974
205	0xbc325bea	-0.010886172
206	0xbc889d5a	-0.016676594
207	0x3cbc4f14	0.022986926
208	0x3d717492	0.05894906
209	0x3c6d2947	0.014475173
210	0xbd327989	-0.043572936
211	0xbd4a3f84	-0.04937698
212	0xbd83d403	-0.064369224
213	0x3c9c5c76	0.019087058
214	0x3cf1ea33	0.02953062
215	0xbccf3a37	-0.025296314
216	0x3d8e0807	0.06935125
217	0x3d10b363	0.035327327
218	0x3d7ed6f8	0.06221673
219	0x3d78182e	0.060569935
220	0xbc8693fb	-0.016427984
221	0x3ca266b5	0.019824365
222	0x3dc81f1f	0.09771561
223	0xbccf6416	-0.02531628
224	0xbc76acee	-0.015055878
225	0xbd8e4f10	-0.06948674
226	0x3c81747c	0.015802614
227	0xbd0ebe0b	-0.034849208
228	0xbdb1e3a7	-0.08685999
229	0x3cb3129f	0.021859465
230	0x3d524431	0.051334564
231	0xbd4364e6	-0.047703646
232	0x3d2c36d5	0.04204448
233	0x3d30d8ee	0.04317563
234	0x3d6e4b09	0.058177028
235	0x3db244c3	0.087045215
236	0xbd59a2ed	-0.053133894
237	0xbbaa3cc9	-0.0051952344
238	0xbad05308	-0.0015893886
239	0xbdbd4a1b	-0.0924265
240	0x3acc83ef	0.0015603284
241	0x3d4896ad	0.04897182
242	0x3b517bf1	0.0031964744
243	0xbce81951	-0.028332384
244	0xbd49e51b	-0.049290758
245	0x3c21e938	0.009882264
246	0xbd4382c4	-0.04773213
247	0x3bfdc580	0.007744491
248	0x3d42f263	0.04759444
249	0xbc7519b3	-0.01495974
250	0xbcc36925	-0.023853848
251	0xbc978230	-0.018494695
252	0x3d4a12bb	0.04933427
253	0xbc1712f6	-0.009220829
254	0xbd3f927a	-0.04677055
255	0x3dbbe5ef	0.09174716

bias f4 [96]
0	0xb62f4a9e	-2.6120465e-06
1	0xb59fc4b2	-1.1903669e-06
2	0xb4e85dc7	-4.32816e-07
3	0xb5e1ae2a	-1.6814495e-06
4	0x35acbb24	1.2869464e-06
5	0xb5caaccd	-1.5100464e-06
6	0xb68824a4	-4.0573814e-06
7	0xb5762463	-9.169509e-07
8	0xb6088898	-2.0345087e-06
9	0xb65c5720	-3.2833268e-06
10	0xb617d31f	-2.2623642e-06
11	0xb47f8c8a	-2.3799853e-07
12	0xb609172f	-2.0428085e-06
13	0x35055c7b	4.968094e-07
14	0x35d695fe	1.5987896e-06
15	0xb59764e3	-1.1279739e-06
16	0x34d821d5	4.025775e-07
17	0xb66e023a	-3.546606e-06
18	0x34239950	1.5236333e-07
19	0x36873ca2	4.030372e-06
20	0x35c0ae1e	1.435579e-06
21	0xb6547bda	-3.1662553e-06
22	0x3362367b	5.2669275e-08
23	0x374f6c57	1.2363386e-05
24	0xb6d9c2fb	-6.4898027e-06
25	0x36a9dd45	5.0623516e-06
26	0xb6e72525	-6.8886607e-06
27	0xb508d409	-5.09725e-07
28	0xb61fc2e4	-2.3806288e-06
29	0x3581dca7	9.675467e-07
30	0x37e51bcf	2.7311877e-05
31	0x362ab435	2.5436868e-06
32	0xb52969de	-6.3111463e-07
33	0x368798cb	4.041101e-06
34	0x36195d09	2.285293e-06
35	0x3667e736	3.4556265e-06
36	0x36abe905	5.123324e-06
37	0x372da754	1.0350563e-05
38	0xb5f0cbcf	-1.794071e-06
39	0xb5acea30	-1.2883156e-06
40	0xb6005691	-1.9123875e-06
41	0x342c87bf	1.6068132e-07
42	0xb63cba23	-2.812253e-06
43	0xb6970dc9	-4.5017555e-06
44	0x36cb240b	6.0540674e-06
45	0x36bf57e1	5.702474e-06
46	0x35374432	6.827205e-07
47	0x361050e6	2.1504761e-06
48	0x36acc633	5.149073e-06
49	0x35af5e90	1.3066037e-06
50	0xb6823f18	-3.881647e-06
51	0xb3ddc808	-1.03275e-07
52	0xb6871ec0	-4.0268933e-06
53	0xb60d2e07	-2.1037429e-06
54	0x352b8ddc	6.3908897e-07
55	0x377ef6bc	1.5197027e-05
56	0x36ae9883	5.203359e-06
57	0xb684c142	-3.9564047e-06
58	0x36d15da1	6.239585e-06
59	0xb4f58c8d	-4.573707e-07
60	0xb65be457	-3.2766454e-06
61	0x34be1628	3.540638e-07
62	0xb5dfbfdd	-1.6670634e-06
63	0x34f8c180	4.633439e-07
64	0xb58f3333	-1.0669231e-06
65	0x3583f27c	9.830833e-07
66	0x35607d37	8.3628714e-07
67	0xb5ca3a38	-1.5067117e-06
68	0xb538e009	-6.8871356e-07
69	0x36d9008d	6.467168e-06
70	0xb3fe3024	-1.18365534e-07
71	0x344e6033	1.9220242e-07
72	0xb5f73087	-1.8417057e-06
73	0x36989cf9	4.548227e-06
74	0x3604a820	1.9767394e-06
75	0xb62616f7	-2.4749295e-06
76	0xb603ddfe	-1.9649738e-06
77	0x354be9cb	7.5963607e-07
78	0xb62272a7	-2.4206618e-06
79	0x365af0ae	3.2624625e-06
80	0xb5a52ca7	-1.2306454e-06
81	0x36285634	2.5084128e-06
82	0xb34318bd	-4.5424475e-08
83	0xb49b41fb	-2.8919007e-07
84	0xb640fde0	-2.8758004e-06
85	0x36821712	3.8769876e-06
86	0x355fc5c0	8.336174e-07
87	0xb6910a1b	-4.322513e-06
88	0xb5c5e70a	-1.4744885e-06
89	0x363aaf06	2.7818037e-06
90	0x361ab3f9	2.3052546e-06
91	0x35d7a22f	1.606595e-06
92	0xb597a592	-1.1298564e-06
93	0xb561a24f	-8.405522e-07
94	0xb6c23fe0	-5.7890866e-06
95	0xb5bada10	-1.3921544e-06

weight f4 [96, 96]
0	0xb59621e8	-1.1185739e-06
1	0xb6b323a6	-5.3387657e-06
2	0xb56a9c67	-8.739939e-07
3	0xb5433ba5	-7.2729955e-07
4	0xb6839bb5	-3.922231e-06
5	0xb575a30b	-9.150687e-07
6	0xb67243a4	-3.6100182e-06
7	0xb5542b9f	-7.903963e-07
8	0xb6bd2565	-5.6369922e-06
9	0xb53c52ae	-7.015577e-07
10	0xb5768608	-9.183718e-07
11	0xb56563e8	-8.545453e-07
12	0x3649ffd1	3.0100239e-06
13	0xb684bbad	-3.955755e-06
14	0xb66032b0	-3.3408105e-06
15	0xb611b40a	-2.171148e-06
16	0xb582fbc7	-9.759032e-07
17	0xb5d873fd	-1.6127011e-06
18	0xb5549947	-7.91992e-07
19	0xb561bccc	-8.409377e-07
20	0x36a9e6ec	5.0634753e-06
21	0xb56fe146	-8.9362254e-07
22	0xb5995b16	-1.1425898e-06
23	0xb64fc2ef	-3.095887e-06
24	0xb580d419	-9.598472e-07
25	0xb53fce20	-7.1452996e-07
26	0xb6afba42	-5.2370897e-06
27	0xb5807a29	-9.572296e-07
28	0xb56eefd1	-8.901089e-07
29	0xb5e2ad13	-1.6888683e-06
30	0xb580bbd4	-9.591408e-07
31	0xb5615fcd	-8.395844e-07
32	0xb5847d2f	-9.8712e-07
33	0xb58369f7	-9.7911e-07
34	0xb63452ef	-2.6870364e-06
35	0xb6c31493	-5.813848e-06
36	0x36d57871	6.361916e-06
37	0xb57d71f3	-9.441566e-07
38	0xb449f159	-1.8807386e-07
39	0xb5431b40	-7.2682815e-07
40	0xb56bc4d3	-8.783074e-07
41	0xb6c34694	-5.8196692e-06
42	0xb5801f53	-9.54586e-07
43	0xb5a6b021	-1.2419224e-06
44	0xb5408ef1	-7.173358e-07
45	0xb69cf85d	-4.6780756e-06
46	0xb6534251	-3.1480051e-06
47	0xb5852ac3	-9.921717e-07
48	0xb5ec4769	-1.7604153e-06
49	0xb5f4d4ad	-1.8241313e-06
50	0xb6a7127b	-4.9791392e-06
51	0xb6a68045	-4.962118e-06
52	0xb56cc06d	-8.819687e-07
53	0xb568d3c0	-8.673487e-07
54	0xb5c16c90	-1.4411216e-06
55	0xb563908c	-8.4774433e-07
56	0xb6b6f1e2	-5.4521815e-06
57	0xb55724a7	-8.014708e-07
58	0xb5449660	-7.3234514e-07
59	0xb5662d8c	-8.5747956e-07
60	0xb6af511e	-5.2248497e-06
61	0xb5828c60	-9.726609e-07
62	0xb554f61e	-7.93343e-07
63	0xb6828c71	-3.8906514e-06
64	0xb5779083	-9.222496e-07
65	0x3409b2e6	1.2824202e-07
66	0xb55f6ea9	-8.3235005e-07
67	0xb6b49ee0	-5.3829135e-06
68	0xb574a68a	-9.113943e-07
69	0xb69af49d	-4.6180344e-06
70	0xb5820306	-9.686635e-07
71	0xb542b774	-7.253759e-07
72	0xb566ac74	-8.593263e-07
73	0xb53d3655	-7.048705e-07
74	0x362f908c	2.616117e-06
75	0xb5c0e53d	-1.4371832e-06
76	0xb665eaa0	-3.4260229e-06
77	0xb587c971	-1.0116911e-06
78	0xb582e765	-9.7531e-07
79	0xb56d2e45	-8.835671e-07
80	0xb57efece	-9.4993163e-07
81	0xb561e05b	-8.414551e-07
82	0xb5610791	-8.383004e-07
83	0xb56265a9	-8.4339496e-07
84	0xb5ede083	-1.7723218e-06
85	0xb5829b9f	-9.731046e-07
86	0xb58a33f2	-1.0296919e-06
87	0xb6bf1be8	-5.6954923e-06
88	0xb539a481	-6.9157255e-07
89	0xb5c872d9	-1.4934586e-06
90	0xb6ac9cd9	-5.144259e-06
91	0x36a9ad23	5.0567483e-06
92	0xb5427c3c	-7.2451417e-07
93	0xb56bd2a6	-8.7850856e-07
94	0xb561b7b4	-8.4086355e-07
95	0xb53bdeac	-6.998696e-07
96	0x36c6c448	5.92371e-06
97	0xb5e7df2d	-1.7275794e-06
98	0xb5ca14a9	-1.5056186e-06
99	0xb539d988	-6.923442e-07
100	0xb5d87856	-1.6128276e-06
101	0x36e00912	6.676776e-06
102	0x36d1bec7	6.250895e-06
103	0xb5f90e91	-1.8556185e-06
104	0xb5f6b00a	-1.8379662e-06
105	0x36b2c399	5.327584e-06
106	0x3605c28f	1.9931792e-06
107	0x36beca19	5.6859685e-06
108	0xb5fd9b59	-1.8895181e-06
109	0x36b4892f	5.3803883e-06
110	0xb5a77077	-1.2475201e-06
111	0xb5fad8ed	-1.8689585e-06
112	0x36c5852f	5.886562e-06
113	0xb5df06e1	-1.6616797e-06
114	0xb5d09093	-1.5539284e-06
115	0x36b205b3	5.305477e-06
116	0x36eed2c7	7.1174904e-06
117	0xb5a41508	-1.2225073e-06
118	0x36a9e264	5.062948e-06
119	0xb5f42bd9	-1.8192178e-06
120	0xb4f0aa6f	-4.482749e-07
121	0xb5e9ed88	-1.7428983e-06
122	0xb54a8b8a	-7.545392e-07
123	0xb59f48f9	-1.1867661e-06
124	0x36b14c2a	5.2838777e-06
125	0x3598d44f	1.1386672e-06
126	0x3619f392	2.2940553e-06
127	0x34c29d02	3.6249554e-07
128	0x35bfc6a6	1.4288423e-06
129	0x35469c15	7.398788e-07
130	0xb4c4690f	-3.6584285e-07
131	0x35a1de0f	1.2060062e-06
132	0x37125169	8.721233e-06
133	0xb5d487ea	-1.5834787e-06
134	0x3680be3d	3.836844e-06
135	0x35806aef	9.567865e-07
136	0xb5e94c1d	-1.7382005e-06
137	0x364a7246	3.0166862e-06
138	0xb5a8f9e8	-1.2589708e-06
139	0x35efcf08	1.7867142e-06
140	0xb5ef9c2e	-1.7852342e-06
141	0x370d06f6	8.405876e-06
142	0x3643766a	2.912619e-06
143	0xb5cdc7d7	-1.5331851e-06
144	0x35b168a5	1.3217983e-06
145	0xb5ca1f95	-1.5059364e-06
146	0x370e1cc3	8.470556e-06
147	0xb5432e79	-7.271079e-07
148	0xb5c08bc3	-1.4345791e-06
149	0x36b1c007	5.297366e-06
150	0x370a8a4a	8.257639e-06
151	0x36ba8877	5.5591186e-06
152	0x3585d704	9.97185e-07
153	0xb5fad08f	-1.868715e-06
154	0xb5f4341c	-1.8194582e-06
155	0x33c1b533	9.020223e-08
156	0x370c2b92	8.354795e-06
157	0x36ca4931	6.0285897e-06
158	0xb5fc374f	-1.879156e-06
159	0x36e103e5	6.705976e-06
160	0xb5fcd726	-1.883808e-06
161	0xb593cbbd	-1.1011649e-06
162	0xb5f1cba0	-1.8015162e-06
163	0x355c8273	8.2146215e-07
164	0xb5fd7966	-1.88853e-06
165	0x36c87cc9	5.9749914e-06
166	0x36b8c6ca	5.5067694e-06
167	0xb5f99560	-1.859542e-06
168	0xb57e2bfd	-9.4686385e-07
169	0x36c4b1da	5.86196e-06
170	0x36acaf62	5.1464167e-06
171	0x3627344c	2.491538e-06
172	0x350c991f	5.2376885e-07
173	0x3701759c	7.716382e-06
174	0x3707952c	8.081359e-06
175	0x36b0d6d3	5.2702176e-06
176	0xb5f5df4d	-1.8318912e-06
177	0x36b4a2de	5.3833783e-06
178	0xb5c56d61	-1.4709477e-06
179	0xb5fd281f	-1.8861646e-06
180	0x36b50065	5.3942663e-06
181	0x36d79e30	6.4259148e-06
182	0x355e5707	8.2828086e-07
183	0xb5dd24fb	-1.6476546e-06
184	0xb5d45fbd	-1.5823094e-06
185	0xb5ea66c5	-1.7464268e-06
186	0xb5f2e258	-1.809628e-06
187	0xb5a118e1	-1.2002675e-06
188	0xb5d8ae07	-1.6143903e-06
189	0xb5de3463	-1.6555535e-06
190	0x36e7de05	6.910183e-06
191	0xb5cabf44	-1.5105838e-06
192	0xb62b5564	-2.553069e-06
193	0xb62ef770	-2.6072048e-06
194	0x358b6107	1.0384546e-06
195	0xb5fe1c91	-1.8932789e-06
196	0x35bbddd1	1.3997143e-06
197	0xb62ebe6c	-2.603886e-06
198	0x36299f26	2.52756e-06
199	0x36297a1a	2.5254035e-06
200	0x35b79b63	1.3679786e-06
201	0x36228787	2.4218768e-06
202	0xb6200d79	-2.38497e-06
203	0xb622dcee	-2.426848e-06
204	0xb62c25b4	-2.5651943e-06
205	0x3640222d	2.8630122e-06
206	0xb5f24703	-1.8051072e-06
207	0x363a35b5	2.7747421e-06
208	0xb618cdda	-2.2769586e-06
209	0xb62e1095	-2.5937672e-06
210	0xb629969e	-2.5270633e-06
211	0xb50ccfe5	-5.245659e-07
212	0xb621a6d2	-2.4087972e-06
213	0xb5f87fd9	-1.8514648e-06
214	0x35e29353	1.6881189e-06
215	0x363e90ef	2.8396569e-06
216	0x350c9674	5.2373e-07
217	0xb62af1b8	-2.5472673e-06
218	0x35cf97da	1.5466896e-06
219	0xb622257b	-2.4161698e-06
220	0xb4b5229a	-3.3739053e-07
221	0x361e8fc4	2.3627517e-06
222	0xb628ca72	-2.515179e-06
223	0x35353e95	6.7518823e-07
224	0x35c676b1	1.4786693e-06
225	0x36102d38	2.1483993e-06
226	0xb62f6649	-2.613657e-06
227	0xb6174289	-2.2539482e-06
228	0xb6273269	-2.4914282e-06
229	0xb61e63a1	-2.3601826e-06
230	0xb593bae7	-1.1006749e-06
231	0xb6236360	-2.4346737e-06
232	0xb5501285	-7.751299e-07
233	0xb6226f09	-2.4204512e-06
234	0xb512504a	-5.4506074e-07
235	0xb62bf111	-2.5621305e-06
236	0x350eeed0	5.324664e-07
237	0x3629ac8d	2.52834e-06
238	0x34527694	1.9600913e-07
239	0xb5892af8	-1.0219801e-06
240	0x347c4ff3	2.3498414e-07
241	0x362ba4aa	2.5576833e-06
242	0xb62f5f20	-2.6132402e-06
243	0x361adab9	2.3075102e-06
244	0x36133135	2.193335e-06
245	0x360ce10e	2.0992625e-06
246	0xb62ede22	-2.6057319e-06
247	0x3611d0f2	2.1728306e-06
248	0xb62edf0f	-2.6057858e-06
249	0xb47b9998	-2.3432074e-07
250	0xb6221632	-2.41528e-06
251	0x362a099e	2.5337572e-06
252	0xb5b6dda2	-1.362456e-06
253	0xb62ca49b	-2.572581e-06
254	0xb61f3c82	-2.3728066e-06
255	0xb6279560	-2.4971887e-06
