Graph Neural Network/Models/GraphConv_LSTM-D1-F1-mean.pth (torch, 768586 bytes, 23 tensors)

weight_ih_l0 f4 [384, 96]
0.018118577 0.0187222 0.019106315 0.018596953 0.017465508 0.01879492 0.018202389 0.017806213
0.017920151 0.017637553 0.018005205 0.018315895 0.017777557 0.017877936 0.018763112 0.018037627
0.017836452 0.017970724 0.017915964 0.017452646 0.018942516 0.019029692 0.018714039 0.018674968
0.0180417 0.01882933 0.017572856 0.018260583 0.01874711 0.018488314 0.01898608 0.01809043
0.01879441 0.018504381 0.017710524 0.019147543 0.019022599 0.018814754 0.017472785 0.017850772
0.017622434 0.018506428 0.01830877 0.018047241 0.019066289 0.01743624 0.018706089 0.018836137
0.017566482 0.018717118 0.019137988 0.017754367 0.017881976 0.018834243 0.018072248 0.017913966
0.017522354 0.018670624 0.018805135 0.018571291 0.017890392 0.018325832 0.017806789 0.017460296
0.018920574 0.017627945 0.017415326 0.017693125 0.018619651 0.01824444 0.01811503 0.018736312
0.019017937 0.017522756 0.018045336 0.018644825 0.017859135 0.018063344 0.018796995 0.017504213
0.01789132 0.018606761 0.017522776 0.01797266 0.018576019 0.018464193 0.017852606 0.01866457
0.017892167 0.018525954 0.017838456 0.018967615 0.018537229 0.018437361 0.01798523 0.017787086
-0.0013283172 -0.0013283166 -0.0013283177 -0.0013283184 -0.0013283163 -0.0013283172 -0.0013283184 -0.0013283162
-0.0013283165 -0.0013283155 -0.0013283155 -0.0013283166 -0.0013283184 -0.0013283166 -0.0013283168 -0.0013283162
-0.0013283177 -0.0013283166 -0.0013283165 -0.0013283155 -0.0013283162 -0.001328315 -0.0013283166 -0.0013283166
-0.0013283155 -0.0013283169 -0.0013283165 -0.0013283184 -0.0013283162 -0.0013283155 -0.001328315 -0.0013283166
-0.0013283177 -0.0013283156 -0.0013283155 -0.0013283166 -0.0013283166 -0.0013283165 -0.0013283178 -0.0013283172
-0.0013283166 -0.0013283155 -0.0013283187 -0.0013283166 -0.001328315 -0.0013283166 -0.0013283177 -0.0013283155
-0.0013283155 -0.0013283177 -0.0013283165 -0.0013283187 -0.0013283155 -0.0013283158 -0.0013283184 -0.0013283162
-0.0013283166 -0.0013283166 -0.0013283166 -0.0013283156 -0.001328316 -0.0013283162 -0.001328316 -0.0013283166
-0.0013283166 -0.0013283177 -0.0013283173 -0.0013283162 -0.0013283178 -0.001328316 -0.0013283177 -0.0013283166
-0.0013283158 -0.0013283155 -0.0013283177 -0.0013283162 -0.0013283187 -0.0013283177 -0.0013283184 -0.0013283158
-0.0013283172 -0.0013283177 -0.0013283168 -0.0013283166 -0.0013283184 -0.001328315 -0.0013283176 -0.0013283178
-0.0013283166 -0.0013283158 -0.0013283155 -0.0013283172 -0.0013283176 -0.0013283162 -0.0013283155 -0.001328316
-0.004285015 -0.004285015 -0.0042850147 -0.004285015 -0.0042850156 -0.0042850147 -0.0042850133 -0.0042850142
-0.004285014 -0.004285015 -0.0042850147 -0.0042850133 -0.004285015 -0.0042850147 -0.004285015 -0.0042850147
-0.0042850156 -0.0042850133 -0.004285015 -0.004285015 -0.0042850156 -0.004285015 -0.0042850147 -0.0042850133
-0.0042850147 -0.0042850133 -0.0042850133 -0.0042850133 -0.0042850133 -0.0042850147 -0.0042850147 -0.004285015
-0.0042850147 -0.0042850133 -0.0042850133 -0.0042850142 -0.004285015 -0.0042850133 -0.0042850133 -0.004285016
-0.0042850133 -0.004285015 -0.004285015 -0.0042850156 -0.0042850133 -0.0042850133 -0.0042850133 -0.0042850133
-0.004285015 -0.004285015 -0.004285014 -0.0042850156 -0.0042850142 -0.0042850147 -0.0042850142 -0.0042850133
-0.0042850133 -0.004285015 -0.0042850133 -0.0042850133 -0.0042850133 -0.004285016 -0.004285015 -0.004285015
00000000: 696d 943c 4d5f 993c d984 9c3c a358 983c
00000010: d313 8f3c cef7 993c 2d1d 953c 56de 913c
00000020: 48cd 923c a17c 903c a77f 933c 370b 963c
00000030: 3da2 913c c074 923c 19b5 993c a5c3 933c
00000040: c01d 923c 5737 933c 80c4 923c daf8 8e3c
00000050: 562d 9b3c 28e4 9b3c 2f4e 993c 3ffc 983c
00000060: 30cc 933c f83f 9a3c f3f4 8f3c 3897 953c
00000070: 8a93 993c ce74 973c b288 9b3c 6232 943c
00000080: bcf6 993c 8096 973c a915 913c 4fdb 9c3c
00000090: 48d5 9b3c 6621 9a3c 1623 8f3c c83b 923c
000000a0: ec5c 903c cb9a 973c 46fc 953c cfd7 933c
000000b0: e830 9c3c 72d6 8e3c 833d 993c 3e4e 9a3c
000000c0: 95e7 8f3c a454 993c 45c7 9c3c 9b71 913c
000000d0: 397d 923c 454a 9a3c 400c 943c 4fc0 923c
000000e0: 0a8b 8f3c 23f3 983c 3a0d 9a3c d222 983c
000000f0: df8e 923c 0e20 963c 8bdf 913c e508 8f3c
00000100: 52ff 9a3c 7b68 903c 96aa 8e3c 2cf1 903c
00000110: 3d88 983c 5d75 953c f965 943c e57c 993c
00000120: 81cb 9b3c e28b 8f3c d0d3 933c 08bd 983c
00000130: 524d 923c 94f9 933c 28fc 993c ff64 8f3c
00000140: d190 923c 356d 983c ed8b 8f3c 663b 933c
00000150: bc2c 983c 3842 973c a13f 923c 71e6 983c
00000160: 9892 923c bec3 973c f421 923c f961 9b3c
00000170: 63db 973c f309 973c c355 933c 39b6 913c
00000180: ee1a aeba e91a aeba f21a aeba f81a aeba
00000190: e61a aeba ee1a aeba f81a aeba e51a aeba
000001a0: e81a aeba df1a aeba df1a aeba e91a aeba
000001b0: f81a aeba e91a aeba ea1a aeba e51a aeba
000001c0: f21a aeba e91a aeba e81a aeba df1a aeba
000001d0: e51a aeba db1a aeba e91a aeba e91a aeba
000001e0: df1a aeba eb1a aeba e81a aeba f81a aeba
000001f0: e51a aeba df1a aeba db1a aeba e91a aeba
00000200: f21a aeba e01a aeba df1a aeba e91a aeba
00000210: e91a aeba e81a aeba f31a aeba ee1a aeba
00000220: e91a aeba df1a aeba fb1a aeba e91a aeba
00000230: db1a aeba e91a aeba f21a aeba df1a aeba
00000240: df1a aeba f21a aeba e81a aeba fb1a aeba
00000250: df1a aeba e21a aeba f81a aeba e51a aeba
00000260: e91a aeba e91a aeba e91a aeba e01a aeba
00000270: e41a aeba e51a aeba e41a aeba e91a aeba
00000280: e91a aeba f21a aeba ef1a aeba e51a aeba
00000290: f31a aeba e41a aeba f21a aeba e91a aeba
000002a0: e21a aeba df1a aeba f21a aeba e51a aeba
000002b0: fb1a aeba f21a aeba f81a aeba e21a aeba
000002c0: ee1a aeba f21a aeba ea1a aeba e91a aeba
000002d0: f81a aeba db1a aeba f11a aeba f31a aeba
000002e0: e91a aeba e21a aeba df1a aeba ee1a aeba
000002f0: f11a aeba e51a aeba df1a aeba e41a aeba
00000300: 5069 8cbb 5069 8cbb 4f69 8cbb 5069 8cbb
00000310: 5169 8cbb 4f69 8cbb 4c69 8cbb 4e69 8cbb
00000320: 4d69 8cbb 5069 8cbb 4f69 8cbb 4c69 8cbb
00000330: 5069 8cbb 4f69 8cbb 5069 8cbb 4f69 8cbb
00000340: 5169 8cbb 4c69 8cbb 5069 8cbb 5069 8cbb
00000350: 5169 8cbb 5069 8cbb 4f69 8cbb 4c69 8cbb
00000360: 4f69 8cbb 4c69 8cbb 4c69 8cbb 4c69 8cbb
00000370: 4c69 8cbb 4f69 8cbb 4f69 8cbb 5069 8cbb
00000380: 4f69 8cbb 4c69 8cbb 4c69 8cbb 4e69 8cbb
00000390: 5069 8cbb 4c69 8cbb 4c69 8cbb 5269 8cbb
000003a0: 4c69 8cbb 5069 8cbb 5069 8cbb 5169 8cbb
000003b0: 4c69 8cbb 4c69 8cbb 4c69 8cbb 4c69 8cbb
000003c0: 5069 8cbb 5069 8cbb 4d69 8cbb 5169 8cbb
000003d0: 4e69 8cbb 4f69 8cbb 4e69 8cbb 4c69 8cbb
000003e0: 4c69 8cbb 5069 8cbb 4c69 8cbb 4c69 8cbb
000003f0: 4c69 8cbb 5269 8cbb 5069 8cbb 5069 8cbb

weight_hh_l0 f4 [384, 96]
-0.0024706433 0.0007398326 -0.00030933812 0.0004008213 -0.00048282987 -0.00027483684 0.00049672736 -0.0010409828
-0.0009803644 0.0065381457 0.00079784123 -0.0011777274 1.1554245e-05 -0.0013802364 0.0011718546 -0.0011331906
-0.0006386182 0.0010836261 -0.0056004697 -2.9452347e-05 0.0055985283 0.00055173 0.0006761252 -0.0056647607
-0.00042537195 0.0031062476 0.00073013664 -0.0007357058 0.00059366605 0.0004299307 0.0006610117 -0.00068061217
0.00036583707 0.00031301647 0.0006230224 0.00046754564 0.0006069733 -0.00052579184 0.0004367513 0.0017815493
-0.019098237 -0.00090179604 0.00085059006 0.00069371046 0.0026055176 0.0052892696 0.00011569285 0.00056073884
-0.00022149687 -0.0057028015 0.0013820882 0.020868374 0.0006209765 -0.00056132907 -0.0009240109 -0.00038761165
0.0005416659 -0.0006814844 -0.005962934 0.0021218911 0.0001178296 -0.00060784695 0.0009984794 -0.0007979743
0.0002701476 0.001155931 -0.00052544574 0.00015820574 -5.699402e-05 -0.017886149 -0.0005224438 0.00045175574
-0.0005956036 4.5644367e-05 0.0001133634 0.00048721762 0.0009570849 0.00075539114 0.000535043 -0.0026722543
-0.0008325765 3.2188014e-05 2.333022e-05 0.00022873425 -0.000826246 0.0006882681 -0.001434654 4.5829915e-05
-0.0008920394 0.0005966428 -0.00057723076 -0.0008511781 0.019369224 0.00026743812 0.00045805392 -0.005345679
3.1742115e-05 -9.121643e-06 6.1944197e-06 -3.2477496e-06 -1.2210111e-05 2.7251524e-06 2.8760107e-06 9.990069e-07
-2.7891242e-06 -0.00041802833 -3.6282648e-07 -1.7896689e-07 3.424241e-06 -1.423868e-06 -5.6466606e-06 3.2782877e-06
4.0744208e-06 -5.779772e-06 0.00052575197 7.651363e-06 -0.0003383314 -2.1085123e-06 -1.4674416e-05 0.00045368786
-3.0180463e-06 -0.0006398021 -1.5124144e-06 1.0906315e-06 -2.9920407e-06 -2.80502e-07 -3.7970838e-06 4.1020407e-06
-1.242684e-06 1.0614435e-05 -2.4028814e-06 -1.4491162e-06 -1.708831e-06 3.7268646e-07 -1.9344873e-06 -6.7118303e-06
0.0008151839 3.86452e-06 -7.949912e-07 -2.1645083e-06 -0.00020967048 -0.0006260454 1.9570855e-06 -1.996418e-06
1.3886448e-06 0.0005960166 -1.3126685e-05 -0.00077678455 1.9778668e-06 4.083364e-06 4.3602977e-06 1.9760499e-05
-1.252455e-06 4.3538885e-06 0.00057103427 -0.00018592308 4.5661136e-06 1.2851001e-06 5.108257e-07 2.5666588e-05
6.370147e-08 -1.45690365e-05 8.458235e-06 2.838327e-06 1.0126222e-06 0.0007929418 8.773707e-08 1.5722007e-05
-2.1504968e-06 -1.9087904e-05 8.032382e-05 -8.22047e-06 2.6204814e-05 -4.3560617e-06 -3.249495e-06 0.00018985086
-2.5579661e-06 4.3311638e-07 1.0532772e-05 -4.3700056e-06 5.7744296e-06 2.8833392e-06 -2.4238022e-06 3.972654e-06
1.341736e-05 -4.797808e-06 7.757538e-07 9.577788e-06 -0.00091866957 2.5549614e-06 -8.590514e-07 0.0006150054
0.00028445738 1.857853e-05 -8.354933e-05 8.394e-05 -4.022449e-05 -2.2642664e-05 1.9218742e-06 -1.728505e-05
-2.5273855e-05 -0.0020242496 8.098183e-06 4.026227e-05 -1.4681796e-06 -3.935463e-05 -1.0615452e-05 -1.3612184e-05
0.00016150731 -3.093218e-05 0.0023951316 1.9795173e-06 -0.0016616166 2.2234351e-05 -0.00013459276 0.0021500518
-1.301514e-06 -0.0027609968 1.5008737e-05 -6.6355955e-05 0.000101111036 -1.5304482e-05 -1.9222207e-05 -9.677994e-05
-6.256091e-05 3.804614e-05 4.8653383e-05 5.8560494e-05 0.00010438157 -8.677937e-06 5.7312074e-05 9.75305e-05
0.003232566 -4.418267e-05 6.945424e-05 1.5273363e-05 -0.00077966205 -0.0027275968 4.2500003e-05 4.747179e-05
-1.3486682e-05 0.0026363097 -6.309032e-05 -0.0032043876 3.6806097e-05 -6.87364e-05 -1.0866033e-06 2.9505572e-05
-2.3928093e-05 -7.083361e-05 0.002553441 -0.00055800827 4.2405292e-05 2.9105287e-05 3.0218303e-05 0.00028344864
00000000: 84ea 21bb 53f1 413a a92e a2b9 5325 d239
00000010: 5424 fdb9 fa17 90b9 cf36 023a 9671 88ba
00000020: 927f 80ba f13d d63b 3826 513a f95d 9aba
00000030: 1bd9 4137 0ce9 b4ba ea98 993a 9187 94ba
00000040: f168 27ba 7508 8e3a 2584 b7bb 6f10 f7b7
00000050: dc73 b73b f9a1 103a fe3d 313a 759f b9bb
00000060: 7504 dfb9 3092 4b3b a466 3f3a 61dc 40ba
00000070: 41a0 1b3a 5268 e139 bf47 2d3a 1c6b 32ba
00000080: d2cd bf39 5c1c a439 5352 233a ea20 f539
00000090: 4a1d 1f3a 4bd5 09ba c4fb e439 e082 e93a
000000a0: e873 9cbc 8266 6cba 22fa 5e3a 1fda 353a
000000b0: 55c1 2a3b 9c51 ad3b 20a0 f238 8cfe 123a
000000c0: 9d41 68b9 91de babb 2f27 b53a 27f4 aa3c
000000d0: 07c9 223a 2826 13ba 5239 72ba 5b38 cbb9
000000e0: 95fe 0d3a a5a5 32ba b764 c3bb 6d0f 0b3b
000000f0: 491b f738 eb57 1fba 69df 823a 262f 51ba
00000100: 99a2 8d39 9c82 973a 11be 09ba 08e4 2539
00000110: dd0c 6fb8 f985 92bc 9cf4 08ba a1d9 ec39
00000120: 4822 1cba 4472 3f38 83bd ed38 3e71 ff39
00000130: e1e4 7a3a 7105 463a 2142 0c3a fd20 2fbb
00000140: 4341 5aba 9e01 0738 44b5 c337 62d8 6f39
00000150: 6e98 58ba e46c 343a 000b bcba 7f39 4038
00000160: c0d7 69ba 0568 1c3a 4d51 17ba 9821 5fba
00000170: 35ac 9e3c f036 8c39 f526 f039 ce2a afbb
00000180: d622 0538 2909 19b7 a9d9 cf36 eaf3 59b6
00000190: 07da 4cb7 c3e1 3636 7d01 4136 9e15 8635
000001a0: ca2c 3bb6 d02a dbb9 7eca c2b4 0b2a 40b4
000001b0: 03cc 6536 bb1b bfb5 7278 bdb6 8e00 5c36
000001c0: 02b7 8836 ddef c1b6 9ed2 093a 5b5e 0037
000001d0: 1262 b1b9 f77f 0db6 2332 76b7 f4dc ed39
000001e0: a489 4ab6 64b8 27ba 2afe cab5 d061 9235
000001f0: deca 48b6 e797 96b4 67d1 7eb6 43a4 8936
00000200: 4cca a6b5 a714 3237 3041 21b6 417f c2b5
00000210: fc5a e5b5 a315 c834 3dd2 01b6 2f36 e1b6
00000220: 11b2 553a f9ab 8136 6167 55b5 f841 11b6
00000230: feda 5bb9 321d 24ba 7956 0336 33fa 05b6
00000240: 7961 ba35 ff3d 1c3a af3a 5cb7 21a1 4bba
00000250: 7ebb 0436 d403 8936 ac4e 9236 59c3 a537
00000260: 071a a8b5 9e17 9236 76b1 153a 59f4 42b9
00000270: 9e36 9936 b47b ac35 ad1f 0935 944e d737
00000280: 41cc 8833 896d 74b7 d8e7 0d37 167a 3e36
00000290: 6fe9 8735 6cdd 4f3a f769 bc33 c1e2 8337
000002a0: 4151 10b6 f61e a0b7 8673 a838 a6ea 09b7
000002b0: 69d2 db37 492a 92b6 e611 5ab6 b412 4739
000002c0: 86a9 2bb6 1087 e834 e9b5 3037 10a2 92b6
000002d0: f9c1 c136 647f 4136 9ba8 22b6 d74c 8536
000002e0: 1f1b 6137 dbfc a0b6 653d 5035 49b0 2037
000002f0: dfd2 70ba e775 2b36 9099 66b5 5038 213a
00000300: 3923 9539 17d9 9b37 3437 afb8 f208 b038
00000310: b8b6 28b8 c0f0 bdb7 8cf9 0036 5dff 90b7
00000320: 3103 d4b7 46a9 04bb 6edd 0737 49df 2838
00000330: 440e c5b5 b610 25b8 0519 32b7 e35f 64b7
00000340: 4a5a 2939 2dbd 01b8 a4f7 1c3b d9d7 0436
00000350: 9aca d9ba e883 ba37 7821 0db9 e2e7 0c3b
00000360: aeaf aeb5 d7f1 34bb 09ce 7b37 9528 8bb8
00000370: 930b d438 2062 80b7 603f a1b7 56f6 cab8
00000380: 2233 83b8 bb93 1f38 2c11 4c38 da9e 7538
00000390: 6ee7 da38 7597 11b7 5f62 7038 4a89 cc38
000003a0: 75d9 533b c850 39b8 f6a7 9138 4c1f 8037
000003b0: 3c62 4cba 7bc1 32bb 0842 3238 721c 4738
000003c0: dc44 62b7 f0c5 2c3b 5c4f 84b8 b400 52bb
000003d0: 3f60 1a38 9326 90b8 68d7 91b5 bc82 f737
000003e0: 30b9 c8b7 818c 94b8 a257 273b 4d47 12ba
000003f0: 56dc 3138 2127 f437 507d fd37 d59b 9439

bias_ih_l0 f4 [384]
0.045838792 -0.001862317 -0.005254981 -0.006837324 -0.00398841 -0.0039080856 -0.0035966889 -0.005425603
-0.0061332397 0.026644636 -0.0046288515 -0.0056624943 -0.0034105547 -0.0066403374 -0.0045651314 -0.0039059948
-0.0026080313 -0.00449055 0.047137864 -0.0019316294 0.014350487 -0.0020876683 -0.008742505 0.03308734
-0.003940324 0.061574247 -0.0039356565 -0.003156181 -0.0024327594 -0.0036767581 -0.0025653765 -0.002544
-0.003223202 -0.0043640668 -0.0027844992 -0.0018660522 -0.0044523925 -0.0027887116 -0.0023232119 -0.009491474
0.04270444 -0.003358818 -0.0042594136 -0.0030894354 0.00435818 0.091741614 -0.004031622 -0.0032059832
-0.003941024 0.052069474 -0.003989612 0.093039855 -0.003594754 -0.0033916282 -0.0037175226 -0.0040056747
-0.0029966966 -0.0031801283 0.08070577 0.0016954408 -0.003116966 -0.0026999805 -0.0071664713 0.03817954
-0.0040067537 -0.0038693082 -0.0023602073 -0.0010713615 -0.0031048043 0.02848279 -0.0031221146 -0.0044432753
-0.005594319 -0.0032764918 -0.00318696 -0.008229874 -0.003939886 -0.004260102 -0.0022123414 0.0031941799
-0.0069735744 -0.0031526566 -0.002220429 -0.0032581508 -0.0035860785 -0.006687345 -0.0061888914 -0.0023576391
-0.0067912834 -0.001851169 -0.0035652427 -0.0026518374 0.079246454 -0.0046424395 -0.0027027698 0.08042469
0.08217363 -0.0036542942 -0.0067345155 -0.008433238 -0.0052893595 -0.0044585094 -0.005043534 -0.006928587
-0.007193336 -0.016831066 -0.0058413427 -0.0074951956 -0.004594182 -0.008085369 -0.0060814926 -0.0053695184
-0.0041340007 -0.0056694117 0.035664823 -0.003343332 -0.02355993 -0.003182131 -0.012228001 -0.005676771
-0.004820265 0.23360972 -0.0053282073 -0.0043799644 -0.0034855492 -0.0057497756 -0.0034104977 -0.0035654763
-0.0038959193 -0.005279524 -0.0044993055 -0.0028345117 -0.005697125 -0.004024374 -0.00366215 -0.012102946
0.0978612 -0.0051263156 -0.005525657 -0.0044397577 -0.016310757 0.15557358 -0.004900796 -0.00459973
-0.0052924557 0.13065243 -0.005634886 0.41338453 -0.0048770825 -0.004698165 -0.0050197174 -0.0045017977
-0.003991025 -0.0043448973 0.09586353 -0.01611425 -0.0037874049 -0.005327447 -0.00812506 0.10296862
-0.0053524077 -0.006182895 -0.004285142 -0.0017097843 -0.004656356 0.041779257 -0.004496308 -0.005513663
-0.0081872 -0.0038187613 -0.01034774 -0.011456684 -0.00494144 -0.0057323333 -0.0053042467 -0.015240012
-0.0086949635 -0.00462731 -0.0033073332 -0.0044217193 -0.005202627 -0.009723578 -0.0078060045 -0.003481497
-0.008770946 -0.0026756555 -0.0053962544 -0.004038542 0.16026233 -0.006601829 -0.0043759183 0.13875586
0.034782335 0.002229567 -0.00017909856 0.015719546 -0.0045762057 -0.011152337 -0.0012801765 0.003549762
0.005757542 0.0072624814 -0.00452907 0.0076128272 -0.0018437051 0.009340557 -0.003500133 0.008311386
0.0039991466 -0.0020529947 0.059942257 0.0032669248 0.012231299 -0.008238942 -0.005936368 0.044802606
-0.0016465234 -0.016880509 -0.0025741553 0.0022867487 -0.0013707005 0.00231319 -0.0012285552 0.001832299
-0.0017517334 0.006855351 -0.0026309814 0.0008367872 0.006772592 -0.0003880125 0.00362286 -0.006028104
0.017284166 0.0036691772 -0.004851653 -0.0019736767 0.014140097 -0.0016972913 -0.0006560327 0.0013400879
-0.0006757609 -0.012177029 -0.0064256284 -0.012301914 -0.0014522198 0.0008636303 0.0035781285 0.0035940346
-0.0026866614 0.001929959 0.0011873926 -0.0036128426 0.0011124098 0.00016603955 -0.0056960005 -0.047235955
00000000: 75c1 3b3d fd18 f4ba fa31 acbb a10b e0bb
00000010: 35b1 82bb 660f 80bb 6db6 6bbb 42c9 b1bb
00000020: 58f9 c8bb da45 da3c 9fad 97bb 728c b9bb
00000030: 9d83 5fbb 3097 d9bb 1997 95bb b8fb 7fbb
00000040: 81eb 2abb 7725 93bb a213 413d ba2e fdba
00000050: 4e1e 6b3c 43d1 08bb b93c 0fbc 9786 073d
00000060: d51d 81bb 4735 7c3d aef6 80bb eed7 4ebb
00000070: ee6e 1fbb c4f5 70bb e01f 28bb 3db9 26bb
00000080: 5b3c 53bb 7200 8fbb 257c 36bb 5296 f4ba
00000090: 60e5 91bb d1c2 36bb 0741 18bb 2182 1bbc
000000a0: daea 2e3d 9d1f 5cbb 8d92 8bbb 2078 4abb
000000b0: 10cf 8e3b 07e3 bb3d b21b 84bb 791b 52bb
000000c0: b523 81bb cd46 553d 4bbb 82bb ae8b be3d
000000d0: f795 6bbb 1446 5ebb aea1 73bb 0942 83bb
000000e0: 3a64 44bb b369 50bb 1149 a53d 8e39 de3a
000000f0: 0346 4cbb 28f2 30bb b8d4 eabb 2662 1c3d
00000100: 164b 83bb 3894 7dbb b5ad 1abb ed6c 8cba
00000110: f979 4bbb bd54 e93c 649c 4cbb e598 91bb
00000120: 8d50 b7bb 69ba 56bb 51dc 50bb 98d6 06bc
00000130: 291a 81bb 5398 8bbb eefc 10bb 7255 513b
00000140: 9582 e4bb cd9c 4ebb 9e84 11bb b386 55bb
00000150: 6a04 6bbb 8421 dbbb 2fcc cabb 9f82 1abb
00000160: 6a89 debb eda2 f2ba d9a6 69bb 73ca 2dbb
00000170: f74b a23d 9b1f 98bb f420 31bb b3b5 a43d
00000180: a64a a83d e27c 6fbb 36ad dcbb 902b 0abc
00000190: 5d52 adbb b018 92bb 3b44 a5bb 3309 e3bb
000001a0: 13b6 ebbb 4ee1 89bc bc68 bfbb 429a f5bb
000001b0: cb8a 96bb 7f78 04bc 4247 c7bb c9f2 afbb
000001c0: 8376 87bb 79c6 b9bb 4715 123d ce1b 5bbb
000001d0: c100 c1bc 4d8b 50bb f457 48bc 3504 babb
000001e0: 50f3 9dbb 6337 6f3e 3e98 aebb ce85 8fbb
000001f0: d06d 64bb 9d68 bcbb a882 5fbb c4aa 69bb
00000200: ae52 7fbb dbff acbb e96e 93bb 37c3 39bb
00000210: f3ae babb e5de 83bb ae00 70bb 6f4b 46bc
00000220: 746b c83d a7fa a7bb 9210 b5bb 637b 91bb
00000230: 239e 85bc ae4e 1f3e db96 a0bb 55b9 96bb
00000240: 566c adbb c0c9 053e daa4 b8bb 23a7 d33e
00000250: efcf 9fbb 11f3 99bb 717c a4bb d183 93bb
00000260: 25c7 82bb a45f 8ebb 1954 c43d 0802 84bc
00000270: 1c36 78bb dd91 aebb f91e 05bc 36e1 d23d
00000280: 4063 afbb e299 cabb 606a 8cbb d71a e0ba
00000290: 5894 98bb ba20 2b3d c455 93bb f5ab b4bb
000002a0: 9b23 06bc 2f44 7abb 9189 29bc d1b4 3bbc
000002b0: ceeb a1bb 4cd6 bbbb 3fcf adbb 3eb1 79bc
000002c0: 5275 0ebc b1a0 97bb d8bf 58bb 12e4 90bb
000002d0: cc7a aabb a44f 1fbc 83c9 ffbb d429 64bb
000002e0: 04b4 0fbc 0d5a 2fbb 10d3 b0bb bf55 84bb
000002f0: cf1b 243e 2854 d8bb dd63 8fbb 0416 0e3e
00000300: ec77 0e3d ed1d 123b 67cc 3bb9 47c6 803c
00000310: fff3 95bb 4bb8 36bc 98cb a7ba 20a3 683b
00000320: c3a9 bc3b 1cfa ed3b 9868 94bb 0675 f93b
00000330: 7aa8 f1ba 2309 193c 7d62 65bb 7b2c 083c
00000340: 460b 833b 898b 06bb 0386 753d e719 563b
00000350: c965 483c a1fc 06bc dd85 c2bb f082 373d
00000360: 28d0 d7ba fe48 8abc 29b3 28bb 47dd 153b
00000370: 14a9 b3ba e398 173b 7907 a1ba c129 f03a
00000380: 6b9a e5ba daa2 e03b 8b6c 2cbb d75b 5b3a
00000390: 9fec dd3b 286e cbb9 816d 6d3b 6787 c5bb
000003a0: 8697 8d3c 9476 703b 9dfa 9ebb cd58 01bb
000003b0: deab 673c a577 deba 9cf9 2bba e3a5 af3a
000003c0: 8c25 31ba 2982 47bc 148e d2bb f88d 49bc
000003d0: 6958 beba 4065 623a 097f 6a3b e589 6b3b
000003e0: b312 30bb aef6 fc3a 49a2 9b3a 71c5 6cbb
000003f0: 47ce 913a e71a 2e39 84a5 babb 7d7a 41bd

bias_hh_l0 f4 [384]
0.036169298 -0.0018623226 -0.0052549816 -0.006837328 -0.003988412 -0.0039081182 -0.0035966903 -0.005425604
-0.0061332374 0.02689874 -0.004628852 -0.0056624943 -0.0034105496 -0.0066403393 -0.004565153 -0.0039060155
-0.002608031 -0.0044905455 0.057698768 -0.0019316331 0.014479256 -0.0020876767 -0.00874247 0.030915627
-0.003940324 0.11427247 -0.0039356584 -0.0031561805 -0.0024327599 -0.0036767581 -0.0025653776 -0.0025439993
-0.0032232022 -0.0043641077 -0.0027844987 -0.0018660522 -0.0044523934 -0.0027887116 -0.002323209 -0.009491472
0.04873304 -0.0033588174 -0.004259414 -0.0030894354 0.004544083 0.11484689 -0.0040315883 -0.0032059462
-0.0039410223 0.04725667 -0.0039896136 0.016268695 -0.003594754 -0.0033916375 -0.0037175156 -0.004005679
-0.002996698 -0.003180125 0.06759479 0.0017281054 -0.0031169662 -0.0027000292 -0.00716647 0.036909997
-0.0040067537 -0.0038693142 -0.0023602063 -0.0010713673 -0.003104786 0.026876865 -0.0031221146 -0.0044432767
-0.005594319 -0.0032764995 -0.0031846752 -0.008229869 -0.0039388984 -0.004260109 -0.0022123428 0.0032035178
-0.006973573 -0.003152644 -0.0022204253 -0.0032581494 -0.0035860785 -0.0066873454 -0.0061888904 -0.0023576452
-0.0067912834 -0.0018511668 -0.0035652386 -0.0026518372 0.074843004 -0.004642438 -0.0027027698 0.0957428
0.040700547 -0.0036542988 -0.0067345137 -0.008433239 -0.005289363 -0.004458659 -0.0050435355 -0.006928587
-0.007193334 -0.01574324 -0.0058413413 -0.0074951937 -0.004594193 -0.008085367 -0.0060815495 -0.0053693275
-0.0041340007 -0.0056694117 0.04998402 -0.0033433272 -0.023504563 -0.003182117 -0.012228039 -0.005945118
-0.004820263 0.22261998 -0.0053282054 -0.0043799602 -0.0034855483 -0.0057497784 -0.0034104963 -0.0035654763
-0.0038959193 -0.005279545 -0.0044993055 -0.0028345117 -0.005697123 -0.0040243743 -0.0036621508 -0.012102952
0.07834318 -0.005126316 -0.005525657 -0.0044397577 -0.016329857 0.18351194 -0.0049007894 -0.0045997677
-0.0052924566 0.12126949 -0.0056348857 0.34181753 -0.004877082 -0.0046981676 -0.0050197127 -0.0045018243
-0.0039910246 -0.0043448983 0.08212339 -0.016105235 -0.0037874044 -0.005327547 -0.00812506 0.06377147
-0.0053524077 -0.006182919 -0.0042851414 -0.0017099251 -0.0046564075 0.055796076 -0.0044963076 -0.005513663
-0.0081872055 -0.0038187916 -0.0103468355 -0.011456683 -0.004941279 -0.005732278 -0.005304253 -0.0151988575
-0.008694962 -0.004627317 -0.0033073316 -0.0044217207 -0.0052026263 -0.009723577 -0.0078060036 -0.0034814875
-0.0087709455 -0.0026756583 -0.0053962655 -0.004038541 0.17819153 -0.006601832 -0.0043759183 0.14504643
-0.0623849 0.0021829263 -0.00024948295 -0.011315788 0.0023580668 0.017623568 -0.0007099117 0.0034937896
0.0062007126 -0.0182297 -0.004703471 0.007875289 -0.0022635336 0.004729943 -0.00427526 0.0043910234
0.0040419293 -0.002081173 -0.027649568 0.0034286145 -0.015024303 -0.0035663238 0.005092455 0.0068831984
-0.0015536125 0.038598407 -0.0024039873 0.0022185417 -0.0013974474 0.0012601499 -0.0012597365 0.001792488
-0.0018040902 8.185696e-05 -0.002628061 0.0008242909 -0.009666367 -0.000443786 -0.00047668238 -0.010117047
0.020966154 0.0037204279 -0.0048480034 -0.002000296 -0.05300738 0.042295117 -0.0021340053 -0.0064127
-0.0006768391 0.04743268 -0.006474314 -0.09710811 -0.0014463962 0.0010748759 0.0020339326 0.0035042772
-0.0028113013 0.0018962679 -0.028767446 -0.027113486 0.0008935006 0.000991784 -0.0065819733 0.06978768
00000000: 4226 143d 2d19 f4ba fb31 acbb aa0b e0bb
00000010: 3ab1 82bb ac0f 80bb 73b6 6bbb 44c9 b1bb
00000020: 53f9 c8bb bf5a dc3c a0ad 97bb 728c b9bb
00000030: 8783 5fbb 3497 d9bb 4797 95bb 11fc 7fbb
00000040: 80eb 2abb 6d25 93bb 8b55 6c3d da2e fdba
00000050: 673a 6d3c 67d1 08bb 943c 0fbc c542 fd3c
00000060: d51d 81bb af07 ea3d b2f6 80bb ecd7 4ebb
00000070: f06e 1fbb c4f5 70bb e51f 28bb 3ab9 26bb
00000080: 5c3c 53bb ca00 8fbb 237c 36bb 5296 f4ba
00000090: 62e5 91bb d1c2 36bb fb40 18bb 1e82 1bbc
000000a0: 4c9c 473d 9b1f 5cbb 8e92 8bbb 2078 4abb
000000b0: 88e6 943b d934 eb3d 6a1b 84bb da1a 52bb
000000c0: b123 81bb 3690 413d 4ebb 82bb ed45 853c
000000d0: f795 6bbb 3c46 5ebb 90a1 73bb 1242 83bb
000000e0: 4064 44bb a569 50bb 236f 8a3d 9881 e23a
000000f0: 0446 4cbb f9f2 30bb b5d4 eabb f02e 173d
00000100: 164b 83bb 5294 7dbb b1ad 1abb 1f6d 8cba
00000110: aa79 4bbb df2c dc3c 649c 4cbb e898 91bb
00000120: 8d50 b7bb 8aba 56bb fcb5 50bb 93d6 06bc
00000130: e011 81bb 6298 8bbb f4fc 10bb 1cf2 513b
00000140: 9282 e4bb 979c 4ebb 8e84 11bb ad86 55bb
00000150: 6a04 6bbb 8521 dbbb 2dcc cabb b982 1abb
00000160: 6a89 debb daa2 f2ba c7a6 69bb 72ca 2dbb
00000170: 4a47 993d 981f 98bb f420 31bb cd14 c43d
00000180: 9eb5 263d f67c 6fbb 32ad dcbb 912b 0abc
00000190: 6552 adbb f119 92bb 3e44 a5bb 3309 e3bb
000001a0: 0fb6 ebbb f8f7 80bc b968 bfbb 3e9a f5bb
000001b0: e28a 96bb 7d78 04bc bc47 c7bb 2ff1 afbb
000001c0: 8376 87bb 79c6 b9bb 0bbc 4c3d b91b 5bbb
000001d0: a48c c0bc 108b 50bb 1d58 48bc 44cf c2bb
000001e0: 4cf3 9dbb 7ef6 633e 3a98 aebb c585 8fbb
000001f0: cc6d 64bb a368 bcbb a282 5fbb c4aa 69bb
00000200: ae52 7fbb 0900 adbb e96e 93bb 37c3 39bb
00000210: eeae babb e6de 83bb b200 70bb 764b 46bc
00000220: 6472 a03d a8fa a7bb 9210 b5bb 637b 91bb
00000230: 31c6 85bc 8eea 3b3e cd96 a0bb a6b9 96bb
00000240: 586c adbb 235c f83d d9a4 b8bb b502 af3e
00000250: eecf 9fbb 16f3 99bb 677c a4bb 0a84 93bb
00000260: 24c7 82bb a65f 8ebb 4f30 a83d 20ef 83bc
00000270: 1a36 78bb b492 aebb f91e 05bc 9e9a 823d
00000280: 4063 afbb 159a cabb 5f6a 8cbb 911f e0ba
00000290: c794 98bb 6d8a 643d c355 93bb f5ab b4bb
000002a0: a123 06bc b144 7abb c685 29bc d0b4 3bbc
000002b0: 74ea a1bb d5d5 bbbb 4dcf adbb a104 79bc
000002c0: 5075 0ebc c0a0 97bb d1bf 58bb 15e4 90bb
000002d0: cb7a aabb a34f 1fbc 81c9 ffbb ab29 64bb
000002e0: 03b4 0fbc 195a 2fbb 28d3 b0bb bd55 84bb
000002f0: d777 363e 2e54 d8bb dd63 8fbb 0d87 143e
00000300: 4f87 7fbd 6d0f 0f3b 09cd 82b9 db65 39bc
00000310: cc89 1a3b 4d5f 903c 5e19 3aba 10f8 643b
00000320: 592f cb3b 7456 95bc 931f 9abb 5b07 013c
00000330: cb57 14bb a3fd 9a3b 7b17 8cbb 93e2 8f3b
00000340: 2972 843b 4a64 08bb 5981 e2bc 9bb2 603b
00000350: 7f28 76bc fcb8 69bb 9cde a63b 748c e13b
00000360: 96a2 cbba 5d19 1e3d 378c 1dbb f464 113b
00000370: 8e2a b7ba 9d2b a53a be1d a5ba ebf1 ea3a
00000380: 3977 ecba 9faa ab38 8c3b 2cbb 3a15 583a
00000390: af5f 1ebc f3ab e8b9 3aeb f9b9 f8c1 25bc
000003a0: 36c1 ab3c 6cd2 733b 00dc 9ebb 6617 03bb
000003b0: 441e 59bd a53d 2d3d abda 0bbb a021 d2bb
000003c0: e76d 31ba c548 423d 7b26 d4bb 9ee0 c6bd
000003d0: 0195 bdba dae2 8c3a ba4b 053b 04a8 653b
000003e0: cf3d 38bb 318c f83a b5a9 ebbc 1a1d debc
000003f0: cf39 6a3a c0fe 813a 98ad d7bb d8ec 8e3d

weight f4 [96, 96]
-0.005820065 0.0013973896 -0.0005131904 -0.0023847045 -0.0068266816 -0.0011862188 -5.278854e-06 -0.00043776672
-0.00032394123 -0.01911185 -0.0011852935 0.00037550268 0.0016210902 0.0010611912 0.00042183395 0.0019840442
0.00088352215 0.001492129 0.025725286 0.0027749604 -0.01696979 -0.00061595725 -0.0046444177 0.020321997
-0.0022369316 -0.0446584 7.041427e-05 0.00092641555 -0.0003701565 0.0022633732 0.00035496714 0.0003255472
-0.001426903 0.006253478 -0.0008359439 0.0007534483 0.00045578746 -0.0015587126 0.0010313034 -0.003389871
-0.013446657 0.0012322299 -0.0019584866 -0.00086658914 -0.013073012 -0.037097357 -0.0014549772 -0.0010285204
-0.00207448 0.033496942 -0.0016837618 0.047216795 0.0007349905 0.0010734883 9.758061e-05 0.0023105268
-0.0027016846 0.00032443381 0.028060123 -0.013601428 0.0026212374 -0.00039234443 0.000388468 -0.014442771
-0.00033952075 -0.0018422969 0.0017902736 0.0015526955 0.0025707493 -0.012649815 -0.0016999737 0.0082477955
-0.00034920478 -0.0018371604 0.01430729 0.0007347602 0.010728408 0.00037585857 -0.0021074014 0.014365477
-0.0010919609 7.726483e-05 0.0013514573 -0.0014419367 0.0008345525 0.00035458154 -0.00016445061 -0.00060694496
-0.0009630611 -0.0017324163 -0.00020373927 -0.0012709273 0.03865767 0.0012335877 -0.0017260123 0.033676226
0.02337419 0.0019235 -0.0076198615 0.002023497 0.012556079 5.744466e-05 0.002226258 0.0035477378
0.0041526845 0.023184726 -0.0012751505 0.003979107 0.0018494247 0.0034676832 -0.0034885656 0.00046390807
-0.0011915877 -0.0040450217 -0.0067436686 -0.003529837 0.024252463 -0.0016037892 0.0053907717 -0.01922502
0.0049442668 0.002897677 -0.0032344824 0.0011103749 -0.00085362775 0.0009405004 0.0008016601 0.00034448758
-0.0014878972 -0.011258597 -0.0019838277 0.0013521045 0.00081568543 0.0031492529 0.0035412277 -0.0036185288
0.026209263 0.0009006945 -0.002324009 -0.0015183062 0.022287972 -0.0027288345 -0.0042253644 -0.001871813
-0.00057056564 -0.017559757 -0.000897712 -0.041173894 -0.00022156483 0.0009416995 0.002105258 -0.0068396754
-0.00019732317 0.0027499504 -0.0015192225 0.020618685 0.0007028113 0.0034703212 -0.003786015 0.022358185
-0.0018615344 0.0009095102 -0.001231695 -0.0031146228 -0.004490385 0.023070196 0.004196815 -0.013273145
0.00043563364 0.004150232 -0.020920996 0.00049927534 -0.015655464 -0.0029561648 0.0011128772 -0.021303156
0.0010167635 0.00016836294 -0.0016668601 -0.0025890674 0.0032955122 0.00045808905 0.006260997 0.0032588611
0.0016772044 0.0006657287 0.0022167962 0.0014407566 -0.02516048 0.0019635318 -0.0018839668 -0.003926477
0.013237366 -0.0010229413 0.0015636547 -0.0008976324 0.0010395267 0.00050195056 -0.0015027876 0.00049701636
0.0006498306 0.0025277308 -0.0012911679 0.00086200464 -0.00039172 0.00092156575 -0.0003684817 0.0009200844
0.0011746818 1.9549949e-05 -0.008476031 0.00063774217 0.0018815652 -0.00025601976 -0.0008511053 -0.0036006235
-0.00048225265 0.019589206 0.00046562168 0.0006401477 -0.00090152986 -0.0006778219 -0.0016807257 0.00088742474
-4.2764703e-05 -0.0007751833 2.0508818e-05 -0.0015153105 -0.0011418953 -0.00039740466 -0.001419888 -0.0009723167
0.023977771 0.00043905556 -0.00087343913 -0.0005504616 0.0010193136 0.013428252 0.00023138688 -0.0001049129
0.0015006091 -0.008270343 -0.0003843816 -0.017704003 -0.0014687927 0.00036201286 4.6191604e-07 0.0011005354
-0.00022623292 0.00038657017 -0.010551623 0.0014159791 -0.0017349067 -0.00033058514 -0.00058898726 0.013487611
00000000: 3eb6 bebb 9d28 b73a a087 06ba b448 1cbb
00000010: 5bb2 dfbb e67a 9bba 0321 b1b6 0e84 e5b9
00000020: a8d6 a9b9 7490 9cbc da5b 9bba 1edf c439
00000030: c37a d43a ab17 8b3a 9829 dd39 bd06 023b
00000040: 2b9c 673a 8b93 c33a d6bd d23c 1cdc 353b
00000050: 3b04 8bbc 3178 21ba 3330 98bb 517a a63c
00000060: 7c99 12bb baeb 36bd 60ab 9338 b2da 723a
00000070: 9011 c2b9 1a55 143b e21a ba39 35ae aa39
00000080: eb06 bbba fae9 cc3b 3f23 5bba 0f83 453a
00000090: c2f6 ee39 b74d ccba cd2c 873a 9928 5ebb
000000a0: 5e4f 5cbc c682 a13a f459 00bb d02b 63ba
000000b0: 3030 56bc 66f3 17bd efb4 beba 6bcf 86ba
000000c0: 00f4 07bb 1734 093d acb1 dcba 6666 413d
000000d0: 61ac 403a 4ab4 8c3a 31a4 cc38 356c 173b
000000e0: bf0e 31bb c518 aa39 58de e53c 86d8 5ebc
000000f0: 11c9 2b3b 94b3 cdb9 4bab cb39 5fa1 6cbc
00000100: b401 b2b9 3a79 f1ba 9da7 ea3a d183 cb3a
00000110: 047a 283b 2b41 4fbc a7d1 deba c321 073c
00000120: 7915 b7b9 e0cc f0ba 2069 6a3c ec9c 403a
00000130: 34c6 2f3c e20e c539 541c 0abb 2d5d 6b3c
00000140: 2120 8fba 3d09 a238 6223 b13a 5eff bcba
00000150: dfc5 5a3a 21e7 b939 6070 2cb9 631b 1fba
00000160: f075 7cba 3f12 e3ba d8a2 55b9 3e95 a6ba
00000170: 8157 1e3d 56b0 a13a 5d3b e2ba 15f0 093d
00000180: 3b7b bf3c f31d fc3a 08b0 f9bb a59c 043b
00000190: 03b8 4d3c bcf0 7038 69e6 113b 2a81 683b
000001a0: 3e13 883b e5ed bd3c f322 a7ba 2b63 823b
000001b0: 6568 f23a 1242 633b 6ba0 64bb b038 f339
000001c0: 0c2f 9cba 1a8c 84bb fef9 dcbb d654 67bb
000001d0: 1aad c63c 3c36 d2ba 12a5 b03b ca7d 9dbc
000001e0: 8403 a23b f4e6 3d3b 9cf9 53bb 008a 913a
000001f0: fdc5 5fba ea8b 763a 8026 523a 579c b439
00000200: 8c05 c3ba fa75 38bc 1b03 02bb 1939 b13a
00000210: b9d3 553a b263 4e3b f113 683b d724 6dbb
00000220: cfb4 d63c 961c 6c3a 674e 18bb e701 c7ba
00000230: 4495 b63c 3fd6 32bb ed74 8abb 9f57 f5ba
00000240: 0392 15ba 7bd9 8fbc 6f54 6bba f5a5 28bd
00000250: db53 68b9 62dc 763a 5ef8 093b 5b1f e0bb
00000260: 89e8 4eb9 8338 343b a620 c7ba 84e8 a83c
00000270: de3c 383a 546e 633b cb1e 78bb 8328 b73c
00000280: bbfe f3ba 326c 6e3a d370 a1ba b31e 4cbb
00000290: 1424 93bb b5fd bc3c 7085 893b 9b77 59bc
000002a0: c265 e439 abfe 873b 8262 abbc cde1 023a
000002b0: e33f 80bc 37bc 41bb f6dd 913a f583 aebc
000002c0: ec44 853a 958a 3039 8b7a daba 58ad 29bb
000002d0: 85f9 573b ac2b f039 0d29 cd3b 9e92 553b
000002e0: a4d5 db3a 4c84 2e3a ab47 113b c5d7 bc3a
000002f0: 5a1d cebc 99ae 003b 70ef f6ba ada9 80bb
00000300: 8ae1 583c 3714 86ba 8cf3 cc3a 174f 6bba
00000310: ba40 883a 5595 033a 2ff9 c4ba 344a 023a
00000320: 6559 2a3a 49a8 253b 683c a9ba 27f8 613a
00000330: c55f cdb9 3b95 713a c730 c1b9 d231 713a
00000340: c8f7 993a 32ff a337 0ddf 0abc 272e 273a
00000350: da9e f63a 643a 86b9 b61c 5fba 70f8 6bbb
00000360: dbd6 fcb9 8b79 a03c af1e f439 96cf 273a
00000370: a554 6cba dcaf 31ba cc4b dcba 11a2 683a
00000380: 405e 33b8 ac35 4bba 5a0a ac37 629d c6ba
00000390: a6ab 95ba c05a d0b9 891b baba 12e3 7eba
000003a0: 086d c43c 0a31 e639 82f7 64ba da4c 10ba
000003b0: 7d9a 853a 2c02 5c3c 71a0 7239 af04 dcb8
000003c0: 16b0 c43a 5580 07bc d386 c9b9 fc07 91bc
000003d0: 8184 c0ba 8bcc bd39 42fd f734 d73f 903a
000003e0: f038 6db9 92ac ca39 b7e0 2cbc 6098 b93a
000003f0: cf65 e3ba 6352 adb9 4466 1aba 24fb 5c3c

bias f4 [96]
-1.6885917e-05 -1.7842302e-05 -7.139397e-05 -1.8255022e-10 3.7334394e-05 -9.330565e-06 1.30972585e-05 9.209685e-05
1.017922e-05 -1.4562122e-06 3.0268095e-05 -1.701515e-05 -0.0004380559 1.02822605e-05 8.915544e-08 9.396877e-06
1.0404962e-06 -3.7484766e-05 2.9149116e-05 9.878498e-05 7.265212e-05 -4.1345483e-08 -1.0836263e-05 3.9306302e-05
-6.970461e-09 -6.8854715e-06 -5.1677074e-05 2.281218e-05 6.1648797e-07 -1.7455619e-05 9.4091465e-06 -1.658203e-05
0.00012454769 2.1015432e-05 5.5623037e-05 9.543091e-06 -1.3300079e-05 4.2082697e-06 -6.122543e-07 7.3964577e-07
1.0512402e-06 1.8668909e-05 -3.40839e-05 0.00014104624 3.9066017e-05 1.7790837e-05 2.7964317e-05 4.451354e-05
1.9411314e-06 -0.00019760021 -1.614699e-05 1.2468851e-05 5.87303e-05 -3.004847e-05 -3.0779265e-05 -2.5330695e-05
3.7547645e-05 2.229587e-05 -8.3475636e-05 1.3483185e-09 -0.00012685686 -3.2909193e-05 -2.196609e-05 -1.0114292e-05
-1.7796989e-05 -0.00014572864 -9.021392e-06 -4.4677185e-05 -0.000102028906 -1.0513306e-06 -6.353779e-06 1.0508143e-05
3.1754356e-05 -9.894494e-05 -1.0938478e-05 -5.135037e-05 -2.0740956e-05 -1.8142742e-05 6.606299e-06 -2.6973517e-05
-0.00013361062 -2.2679783e-06 -8.033156e-05 3.5890193e-05 1.1933798e-05 1.2684564e-05 2.3858227e-05 5.2467847e-05
-7.7078187e-07 6.4248056e-06 2.5658466e-05 -3.3704535e-05 -5.187814e-05 2.4586611e-06 -0.0001386101 -8.192805e-06
00000000: 3ba6 8db7 0dac 95b7 59b9 95b8 52b7 48af
00000010: 8097 1c38 798a 1cb7 4cbc 5b37 1f24 c138
00000020: 6bc7 2a37 1273 c3b5 3de8 fd37 c2bb 8eb7
00000030: deaa e5b9 f981 2c37 b975 bf33 48a7 1d37
00000040: 2da7 8b35 f638 1db8 4085 f437 c82a cf38
00000050: cf5c 9838 d793 31b3 65cd 35b7 d2dc 2438
00000060: d380 efb1 c009 e7b6 d6bf 58b8 c95c bf37
00000070: bb7c 2535 a86d 92b7 fadb 1d37 a319 8bb7
00000080: 0499 0239 4c4a b037 c84c 6938 441b 2037
00000090: 6823 5fb7 c334 8d36 cc59 24b5 128c 4635
000000a0: 5718 8d35 2d9b 9c37 4ff5 0eb8 d0e5 1339
000000b0: d1da 2338 883d 9537 ea94 ea37 0db4 3a38
000000c0: 6244 0236 e732 4fb9 6673 87b7 4f31 5137
000000d0: 2e55 7638 9910 fcb7 fc18 01b8 417d d4b7
000000e0: 7a7c 1d38 0408 bb37 a40f afb8 bd4f b930
000000f0: e104 05b9 fa07 0ab8 d243 b8b7 8eb0 29b7
00000100: be4a 95b7 bcce 18b9 955a 17b7 c363 3bb8
00000110: 5af8 d5b8 721b 8db5 8c32 d5b6 214c 3037
00000120: fb2f 0538 a980 cfb8 6884 37b7 0a61 57b8
00000130: ddfc adb7 3e31 98b7 adab dd36 3045 e2b7
00000140: d419 0cb9 9233 18b6 ae77 a8b8 cd88 1638
00000150: 4637 4837 cacf 5437 2723 c837 ec10 5c38
00000160: bae7 4eb5 a994 d736 233d d737 f85d 0db8
00000170: bb97 59b8 7aff 2436 de57 11b9 d473 09b7

weight f4 [96, 96]
-9.843309e-06 -1.2826635e-05 -1.235218e-05 -1.2499891e-05 -1.2827939e-05 -1.28281345e-05 2.8114998e-06 -1.107901e-05
-1.2827443e-05 -1.1453097e-05 -1.2827877e-05 -1.2638069e-05 -1.2353036e-05 -1.2826103e-05 -1.2798386e-05 -2.7919705e-06
-1.2828158e-05 -1.1734099e-05 -1.2307086e-05 -1.2826393e-05 -1.2828148e-05 -1.2826399e-05 -1.2820272e-05 -1.2828088e-05
-1.1845518e-05 -1.2828086e-05 -8.454686e-06 -1.25376755e-05 -4.4267244e-06 -1.2828125e-05 -1.282648e-05 -5.726537e-06
-1.2827893e-05 -1.2827625e-05 -1.2826454e-05 8.65055e-07 -1.28240035e-05 -1.2826368e-05 -1.2815501e-05 -1.1478552e-06
-1.2827323e-05 2.5767145e-06 -1.2826407e-05 -1.2803895e-05 -1.2765149e-05 -7.844207e-06 -1.2828148e-05 -1.2827575e-05
-1.2823996e-05 -6.802528e-07 -1.28249285e-05 -1.2828084e-05 -1.28271695e-05 -1.2824805e-05 -3.264918e-06 -1.2657093e-05
-6.7983337e-06 -1.2828049e-05 -1.2827712e-05 -7.0039314e-06 -1.2781698e-05 -6.993758e-06 -1.2826426e-05 -1.2791206e-05
-1.2826418e-05 -1.2826512e-05 -7.632559e-06 -1.2826483e-05 1.8391178e-06 -1.2827277e-05 -1.282648e-05 -3.2040055e-06
-1.282517e-05 -8.539322e-06 -1.282738e-05 -1.28265965e-05 -8.906771e-06 -1.2243785e-05 -1.2827061e-05 -1.15385055e-05
-9.576367e-06 -2.2293018e-06 -1.2826737e-05 -1.2797478e-05 -1.2826471e-05 -1.2826951e-05 -1.2511434e-05 -1.2826509e-05
-1.2827542e-05 -1.2124966e-05 -1.2826533e-05 -1.2827933e-05 -1.2633334e-05 -1.2797601e-05 -1.1319454e-05 -9.593054e-06
3.682928e-05 3.8734444e-05 3.6840644e-05 4.4017874e-05 4.4200675e-05 3.972644e-05 3.5004083e-05 4.1245155e-05
4.2475924e-05 3.682019e-05 3.6820667e-05 3.9871164e-05 4.093466e-05 3.682168e-05 3.8262682e-05 -5.594606e-07
3.798561e-05 3.765841e-05 3.6837184e-05 4.0032195e-05 4.329793e-05 3.7222733e-05 3.825477e-05 1.9446334e-05
4.4792036e-05 2.48216e-05 4.2127853e-05 3.6822665e-05 3.814783e-05 3.6857346e-05 1.4287326e-05 3.759627e-05
3.6820904e-05 4.504093e-05 3.6820566e-05 4.0315073e-05 3.6960875e-05 3.8027185e-05 3.8439357e-05 4.035926e-05
4.4584674e-05 3.7007496e-05 4.505047e-05 3.8106195e-05 4.507826e-05 3.759552e-05 3.6821843e-05 3.682879e-05
3.825951e-05 4.30436e-05 3.6821828e-05 3.6820464e-05 3.683481e-05 3.691101e-05 3.6832545e-05 5.2272094e-06
3.6828296e-05 3.7407597e-05 3.8940005e-05 2.2706034e-05 3.6879195e-05 3.6882248e-05 3.6840996e-05 3.6959544e-05
3.6820205e-05 3.682019e-05 3.853404e-05 3.6821035e-05 3.682507e-05 3.815969e-05 3.6822043e-05 3.6820325e-05
4.2826305e-05 3.8494913e-05 4.5041357e-05 3.6960777e-05 3.693441e-05 2.9800422e-05 4.014842e-05 3.687771e-05
3.860093e-05 3.6823654e-05 3.6828413e-05 4.0327814e-05 3.7034537e-05 3.831049e-05 3.5521298e-05 3.6834914e-05
4.506615e-05 3.6822046e-05 4.3981945e-05 3.8197926e-05 3.9285365e-05 3.6938545e-05 3.693373e-05 3.936612e-05
-9.035706e-06 -1.3101285e-05 -1.4554838e-05 -1.4961842e-05 -1.4951063e-05 -6.9289435e-06 -1.1785905e-05 -1.0831455e-05
-1.4937735e-05 -1.4276306e-05 -7.232508e-06 -6.174633e-06 -1.4878901e-05 -1.4970962e-05 -9.924891e-06 -1.4834193e-05
-8.763602e-06 -1.4952622e-05 -1.4972516e-05 -1.3102305e-05 -1.36453045e-05 -1.1033251e-05 -1.3932947e-05 -1.4895699e-05
-8.598014e-06 -1.4873287e-05 -1.3723875e-05 -1.4728216e-05 -1.4885097e-05 -1.4972551e-05 -1.4972544e-05 -1.4567761e-05
-7.574276e-06 -1.13740925e-05 -1.4969582e-05 -1.3763334e-05 -1.2861242e-05 -1.4837979e-05 -8.571321e-06 -8.328103e-06
-1.4972544e-05 -5.168973e-06 -1.488975e-05 -1.4972551e-05 -1.0592055e-05 -1.4823358e-05 -1.4966741e-05 -1.4759038e-05
-1.4446166e-05 -1.48839845e-05 -7.6287315e-06 -1.4023538e-05 -8.633964e-06 -1.48552435e-05 -5.279038e-06 -1.3363926e-05
-1.4966377e-05 -1.4972544e-05 -1.49720445e-05 -9.320712e-06 -1.3837681e-05 -1.4441441e-05 -1.4705839e-05 -1.4723961e-05
00000000: b124 25b7 fa31 57b7 363c 4fb7 a0b6 51b7
00000010: 9437 57b7 6b38 57b7 33ad 3c36 fcdf 39b7
00000020: 7335 57b7 ad26 40b7 5037 57b7 1808 54b7
00000030: e33f 4fb7 b12f 57b7 a6b8 56b7 b05d 3bb6
00000040: 8538 57b7 92dd 44b7 887a 4eb7 f030 57b7
00000050: 7a38 57b7 f730 57b7 a616 57b7 3838 57b7
00000060: 1dbc 46b7 3638 57b7 9ad8 0db7 e858 52b7
00000070: 4689 94b6 6138 57b7 5031 57b7 9426 c0b6
00000080: 6237 57b7 3b36 57b7 3331 57b7 2036 6835
00000090: ad26 57b7 d530 57b7 2802 57b7 0110 9ab5
000000a0: ef34 57b7 9eeb 2c36 0031 57b7 4fd0 56b7
000000b0: e629 56b7 9d9a 03b7 7a38 57b7 0436 57b7
000000c0: a526 57b7 9e9a 36b5 a62a 57b7 3438 57b7
000000d0: 4634 57b7 1e2a 57b7 dd1a 5bb6 cd59 54b7
000000e0: 3e1d e4b6 0d38 57b7 9b36 57b7 5003 ebb6
000000f0: fa70 56b7 ecab eab6 1531 57b7 d099 56b7
00000100: 0c31 57b7 7331 57b7 970d 00b7 5331 57b7
00000110: 9bd7 f635 bc34 57b7 5031 57b7 6504 57b6
00000120: b02b 57b7 1c44 0fb7 2d35 57b7 d031 57b7
00000130: 4a6e 15b7 a86a 4db7 cf33 57b7 8195 41b7
00000140: 2faa 20b7 1d9b 15b6 6a32 57b7 c0b4 56b7
00000150: 4631 57b7 5633 57b7 33e8 51b7 7031 57b7
00000160: e035 57b7 556c 4bb7 8a31 57b7 8d37 57b7
00000170: c2f3 53b7 47b5 56b7 afe8 3db7 daf1 20b7
00000180: 2379 1a38 cb76 2238 5785 1a38 d59f 3838
00000190: 1d64 3938 f19f 2638 59d1 1238 a6fe 2c38
000001a0: 2d28 3238 616f 1a38 e46f 1a38 563b 2738
000001b0: 42b1 2b38 fa70 1a38 3e7c 2038 d72d 16b5
000001c0: bd52 1f38 69f3 1d38 a081 1a38 3ee8 2738
000001d0: cc9a 3538 9b1f 1c38 bf73 2038 af20 a337
000001e0: 15df 3b38 fb37 d037 70b2 3038 0972 1a38
000001f0: ec00 2038 4697 1a38 99b3 6f37 b0b0 1d38
00000200: 2570 1a38 55ea 3c38 c86f 1a38 fb17 2938
00000210: 7006 1b38 617f 1f38 f239 2138 6d47 2938
00000220: 6e00 3b38 7f38 1b38 93f4 3c38 37d4 1f38
00000230: 6a12 3d38 e2af 1d38 2771 1a38 9d78 1a38
00000240: d678 2038 b789 3438 2371 1a38 ac6f 1a38
00000250: 137f 1a38 e5d0 1a38 a57c 1a38 6365 af36
00000260: 1578 1a38 1ae6 1c38 8353 2338 d678 be37
00000270: bcae 1a38 03b2 1a38 b885 1a38 0205 1b38
00000280: 656f 1a38 616f 1a38 9c9f 2138 4970 1a38
00000290: 9e74 1a38 a80d 2038 5e71 1a38 866f 1a38
000002a0: 65a0 3338 9975 2138 caea 3c38 5506 1b38
000002b0: 05ea 1a38 ebfb f937 0a65 2838 24ad 1a38
000002c0: 6fe7 2138 1973 1a38 3578 1a38 a925 2938
000002d0: 8855 1b38 93af 2038 b4fc 1438 307f 1a38
000002e0: 6905 3d38 5f71 1a38 4179 3838 b636 2038
000002f0: 57c6 2438 76ee 1a38 4ae9 1a38 0d1d 2538
00000300: 1098 17b7 97cd 5bb7 8e30 74b7 9f04 7bb7
00000310: 54d6 7ab7 2c7f e8b6 14bc 45b7 bfb8 35b7
00000320: 159d 7ab7 4484 6fb7 c5ae f2b6 b22f cfb6
00000330: 65a0 79b7 cb2b 7bb7 1583 26b7 60e0 78b7
00000340: 6207 13b7 06dd 7ab7 7732 7bb7 f9d1 5bb7
00000350: 23ee 64b7 741b 39b7 8dc1 69b7 8ae8 79b7
00000360: 3040 10b7 4888 79b7 983f 66b7 3519 77b7
00000370: 01bb 79b7 9e32 7bb7 9632 7bb7 0f68 74b7
00000380: 8926 feb6 5bd3 3eb7 dd25 7bb7 12e9 66b7
00000390: 9dc6 57b7 a2f0 78b7 8bcd 0fb7 eeb8 0bb7
000003a0: 9632 7bb7 2471 adb6 fdce 79b7 9e32 7bb7
000003b0: 88b4 31b7 d6b1 78b7 aa19 7bb7 969d 77b7
000003c0: cf5d 72b7 3ab6 79b7 4efa ffb6 a346 6bb7
000003d0: 98da 10b7 c93a 79b7 9722 b1b6 a035 60b7
000003e0: 1a18 7bb7 9632 7bb7 7130 7bb7 2760 1cb7
000003f0: 6328 68b7 8449 72b7 19b9 76b7 ee06 77b7

weight_ih_l0 f4 [384, 96]
6.0946157e-05 2.5806082e-06 7.69642e-06 6.146888e-10 1.7203984e-05 1.19595325e-05 -6.180157e-06 4.531993e-05
3.299566e-05 1.022771e-05 5.3461904e-06 1.8723415e-05 5.9629972e-05 4.137171e-05 3.9249964e-05 5.436631e-05
0.00012471463 1.731674e-05 4.970753e-05 7.331435e-05 3.593508e-05 8.293137e-08 -5.291816e-05 1.5011407e-05
-7.52524e-13 -4.784665e-06 -7.626569e-06 0.000111292626 4.010792e-06 4.3535388e-06 -1.3591216e-05 -2.9118573e-06
9.282546e-06 9.556226e-06 5.9040107e-05 2.1708107e-05 -2.2072236e-06 4.8998652e-05 4.9227547e-05 7.857826e-05
2.4420737e-05 3.165196e-05 -4.9455703e-06 7.646323e-06 -1.680457e-05 1.0301589e-05 4.7867135e-05 6.52693e-07
-9.712434e-07 9.5181305e-05 -1.0250362e-05 4.8772517e-06 2.3230956e-05 -4.773691e-06 -8.088153e-06 3.792025e-05
3.393076e-05 1.052183e-05 3.6698024e-05 4.6287756e-09 3.8549642e-05 1.26122095e-05 -1.1801082e-05 -2.0782268e-06
-2.2613372e-06 1.5786463e-05 6.2365134e-06 8.416964e-07 3.9031793e-06 1.6581338e-06 4.21454e-06 -2.9252045e-05
-3.0193726e-06 -2.7849548e-05 6.378475e-06 1.8566918e-05 8.342736e-06 3.1967686e-06 5.4747993e-06 1.3336365e-05
5.204747e-05 9.064973e-06 -2.7270287e-05 5.6511017e-05 3.4148044e-07 2.5203985e-06 8.244312e-06 -4.8842676e-06
3.224739e-05 1.4670621e-05 5.9486115e-06 4.118639e-05 6.4188476e-05 7.8708254e-08 1.3754213e-05 1.2540352e-05
7.822404e-05 4.4396904e-05 0.0001390407 -5.7124183e-08 0.0001393323 0.0002607391 -8.099902e-05 2.8290724e-05
-0.000102620324 0.00033759713 0.00014271538 0.00041126384 0.00042535027 7.931177e-05 0.0001284605 0.0008198429
4.3812113e-05 0.00015788343 -6.6058245e-05 -0.00016993887 0.0005984863 -1.3528386e-07 -0.00014194034 -5.3345622e-05
8.2954796e-11 -0.00019166658 -0.00019140943 0.00054929225 0.00012477807 -0.0002601475 -0.00017266175 7.795316e-06
0.00014626248 0.0001246153 -0.00012237068 0.00057831634 -8.660371e-05 -0.0005732788 -0.00012920039 -4.1602067e-05
-0.00018809401 0.00038280216 -0.00035725365 0.00018008289 -2.5292888e-06 0.0001176625 5.1636933e-05 -0.00012189357
0.0006441928 0.00079781906 -0.00019740548 -6.319894e-05 6.217537e-05 0.00010559002 -0.0001972298 0.0005528208
3.4686425e-05 6.80217e-06 0.00077944377 1.5755546e-07 0.0004135455 0.00036802358 -0.00039853726 -0.00027550038
-0.00042206768 0.00013554044 0.00013983324 5.5705066e-05 0.00015416299 8.732026e-05 5.3929274e-05 -0.0003288478
-9.7981596e-05 -0.00036855874 0.00013085564 6.9102425e-05 0.0001432032 1.751488e-06 0.00013568522 0.00011920499
0.00042459695 0.00020751545 -0.00078908633 0.0008343359 2.9361565e-05 3.2601885e-05 0.00024626812 -0.00019624029
-0.0002963405 0.00013817199 -0.00019329775 0.000119440665 -1.5515017e-05 -1.3383749e-05 0.00016209597 0.0001106035
3.8910915e-05 -2.704538e-07 3.102013e-05 -5.107174e-09 5.0835406e-05 6.319749e-05 3.3855144e-05 6.387075e-05
-2.8813827e-06 1.0270562e-06 7.6653465e-05 1.769097e-05 3.4954206e-05 8.506088e-06 6.5906866e-06 1.7634942e-05
7.571486e-05 2.8475884e-05 -1.2954157e-05 7.0982314e-05 2.2259715e-05 8.187222e-09 4.578464e-06 3.151035e-05
-3.4594926e-13 5.3369126e-07 8.274787e-06 2.0543559e-05 2.442996e-05 1.6651913e-05 -2.8954507e-06 1.4963885e-05
-1.1335516e-06 2.9339875e-05 1.8366612e-05 5.816692e-06 1.0438433e-05 5.380845e-05 3.337871e-05 5.5837907e-05
-8.0088475e-06 1.6771874e-05 8.787387e-06 2.9879171e-05 1.3410553e-05 5.5464796e-05 4.2954365e-05 3.3293854e-05
2.525569e-05 7.986948e-05 1.689226e-05 1.7292392e-05 2.3124228e-05 4.6149205e-05 2.7629718e-05 1.0823217e-05
4.4852604e-05 -3.5310889e-06 -1.521114e-05 -5.5935015e-08 1.557383e-05 3.802336e-05 6.7882397e-06 2.5301455e-05
00000000: 70a0 7f38 832e 2d36 df1f 0137 e1f6 2830
00000010: 4651 9037 cda5 4837 255f cfb6 e815 3e38
00000020: d264 0a38 ae97 2b37 6d63 b336 3a10 9d37
00000030: 321b 7a38 8986 2d38 54a0 2438 6207 6438
00000040: d4c5 0239 6a43 9137 0e7d 5038 58c0 9938
00000050: 00b9 1638 0118 b233 71f4 5db8 81d9 7b37
00000060: 12d1 53ab f68b a0b6 bbe7 ffb6 c665 e938
00000070: 7194 8636 9d14 9236 d405 64b7 5469 43b6
00000080: 3bbc 1b37 ae53 2037 d5a1 7738 ce19 b637
00000090: d01f 14b6 e783 4d38 ad79 4e38 62ca a438
000000a0: 22db cc37 09c2 0438 20f2 a5b6 b548 0037
000000b0: 8af7 8cb7 fdd4 2c37 f2c4 4838 b934 2f35
000000c0: ab5b 82b5 139c c738 f8f8 2bb7 46a7 a336
000000d0: 19e0 c237 b22d a0b6 5ab2 07b7 8f0c 1f38
000000e0: e050 0e38 ea86 3037 34ec 1938 240b 9f31
000000f0: 5db0 2138 0799 5337 43fd 45b7 aa77 0bb6
00000100: 7ac1 17b6 2c6d 8437 3e43 d136 f0f0 6135
00000110: 0ef8 8236 0b8d de35 9f6a 8d36 4a62 f5b7
00000120: 6da0 4ab6 739e e9b7 af06 d636 27c0 9b37
00000130: c7f7 0b37 1188 5636 2bb4 b736 40bf 5f37
00000140: 8c4d 5a38 c315 1837 7fc2 e4b7 3e06 6d38
00000150: b754 b734 1e24 2936 0d51 0a37 8ae3 a3b6
00000160: 5f41 0738 d621 7637 2f9a c736 8dbf 2c38
00000170: ed9c 8638 5206 a933 e5c1 6637 6764 5237
00000180: 360c a438 d036 3a38 74cb 1139 b458 75b3
00000190: bb19 1239 cfb3 8839 05de a9b8 de51 ed37
000001a0: de35 d7b8 85ff b039 dea5 1539 e69e d739
000001b0: 8c01 df39 2f54 a638 5ab3 0639 baea 563a
000001c0: e6c2 3738 838d 2539 c088 8ab8 9e31 32b9
000001d0: bce3 1c3a 8b42 11b4 d2d5 14b9 6dbf 5fb8
000001e0: 666b b62e 1bfa 48b9 14b5 48b9 61fe 0f3a
000001f0: dcd6 0239 6864 88b9 890c 35b9 a1c8 0237
00000200: 095e 1939 2aab 0239 a150 00b9 279a 173a
00000210: 039f b5b8 1748 16ba f779 07b9 e17d 2eb8
00000220: 1a3b 45b9 d6b2 c839 c64d bbb9 a2d4 3c39
00000230: dabc 29b6 93c1 f638 bc94 5838 1da1 ffb8
00000240: 0cdf 283a bb24 513a a1fe 4eb9 ac89 84b8
00000250: 2664 8238 3670 dd38 79cf 4eb9 2deb 103a
00000260: 447c 1138 323e e436 9653 4c3a 842c 2934
00000270: 23d1 d839 4af3 c039 c4f2 d0b9 0971 90b9
00000280: f748 ddb9 dc1f 0e39 33a0 1239 dca4 6938
00000290: d0a6 2139 b51f b738 1e32 6238 3469 acb9
000002a0: 787b cdb8 1e3b c1b9 4b36 0939 15eb 9038
000002b0: d128 1639 ab14 eb35 b946 0e39 b1fd f938
000002c0: 709c de39 8198 5939 b0da 4eba 56b7 5a3a
000002d0: 7b4d f637 02be 0838 8c1d 8139 dac5 4db9
000002e0: 265e 9bb9 43e2 1039 f8af 4ab9 387c fa38
000002f0: 3f26 82b7 c48a 60b7 4ef8 2939 cdf3 e738
00000300: 4734 2338 e332 91b4 9c1b 0238 2d7b afb1
00000310: 1a38 5538 e588 8438 afff 0d38 59f2 8538
00000320: c75d 41b6 62d9 8935 04c1 a038 1267 9437
00000330: cb9b 1238 5fb5 0e37 9125 dd36 c0ee 9337
00000340: 1bc9 9e38 7fdf ee37 ae55 59b7 57dc 9438
00000350: 60ba ba37 c8a7 0c32 b5a0 9936 fb29 0438
00000360: 8bc0 c2aa fc42 0f35 f1d3 0a37 f554 ac37
00000370: f1ee cc37 b6af 8b37 774f 42b6 660d 7b37
00000380: 8924 98b5 e71e f637 0012 9a37 012d c336
00000390: ba20 2f37 62b0 6138 1e00 0c38 7f33 6a38
000003a0: bd5d 06b7 53b1 8c37 8a6d 1337 08a5 fa37
000003b0: e3fd 6037 dfa2 6838 e629 3438 01a5 0b38
000003c0: 2edc d337 9a7f a738 dab3 8d37 210f 9137
000003d0: e7fa c137 5590 4138 5ec6 e737 5d95 3537
000003e0: 1e20 3c38 a5f7 6cb6 5933 7fb7 333d 70b3
000003f0: 8ca4 8237 467b 1f38 89c6 e336 763e d437
