Graph Neural Network/Models/GraphConv-D4-F1-mean.pth (torch, 611902 bytes, 15 tensors)

weight f4 [192, 224]
0	0xbbf8d29c	-0.007593466
1	0xbbf8d29c	-0.007593466
2	0xbbf8d291	-0.007593461
3	0xbbf8d291	-0.007593461
4	0xbbf8d291	-0.007593461
5	0xbbf8d29c	-0.007593466
6	0xbbf8d29c	-0.007593466
7	0xbbf8d291	-0.007593461
8	0xbbf8d29c	-0.007593466
9	0xbbf8d29c	-0.007593466
10	0xbbf8d281	-0.0075934534
11	0xbbf8d29c	-0.007593466
12	0xbbf8d289	-0.007593457
13	0xbbf8d29c	-0.007593466
14	0xbbf8d291	-0.007593461
15	0xbbf8d294	-0.0075934622
16	0xbbf8d29c	-0.007593466
17	0xbbf8d29c	-0.007593466
18	0xbbf8d294	-0.0075934622
19	0xbbf8d29c	-0.007593466
20	0xbbf8d29c	-0.007593466
21	0xbbf8d29a	-0.007593465
22	0xbbf8d29c	-0.007593466
23	0xbbf8d29a	-0.007593465
24	0xbbf8d287	-0.007593456
25	0xbbf8d29c	-0.007593466
26	0xbbf8d287	-0.007593456
27	0xbbf8d29a	-0.007593465
28	0xbbf8d29c	-0.007593466
29	0xbbf8d294	-0.0075934622
30	0xbbf8d29c	-0.007593466
31	0xbbf8d291	-0.007593461
32	0xbbf8d29c	-0.007593466
33	0xbbf8d29c	-0.007593466
34	0xbbf8d29c	-0.007593466
35	0xbbf8d287	-0.007593456
36	0xbbf8d287	-0.007593456
37	0xbbf8d29c	-0.007593466
38	0xbbf8d29c	-0.007593466
39	0xbbf8d287	-0.007593456
40	0xbbf8d29c	-0.007593466
41	0xbbf8d29c	-0.007593466
42	0xbbf8d281	-0.0075934534
43	0xbbf8d29c	-0.007593466
44	0xbbf8d29c	-0.007593466
45	0xbbf8d29c	-0.007593466
46	0xbbf8d29a	-0.007593465
47	0xbbf8d291	-0.007593461
48	0xbbf8d29c	-0.007593466
49	0xbbf8d29c	-0.007593466
50	0xbbf8d29c	-0.007593466
51	0xbbf8d291	-0.007593461
52	0xbbf8d294	-0.0075934622
53	0xbbf8d294	-0.0075934622
54	0xbbf8d29c	-0.007593466
55	0xbbf8d29c	-0.007593466
56	0xbbf8d29c	-0.007593466
57	0xbbf8d29c	-0.007593466
58	0xbbf8d29c	-0.007593466
59	0xbbf8d29c	-0.007593466
60	0xbbf8d29a	-0.007593465
61	0xbbf8d29c	-0.007593466
62	0xbbf8d29c	-0.007593466
63	0xbbf8d29c	-0.007593466
64	0xbbf8d29c	-0.007593466
65	0xbbf8d29c	-0.007593466
66	0xbbf8d29c	-0.007593466
67	0xbbf8d29c	-0.007593466
68	0xbbf8d29c	-0.007593466
69	0xbbf8d291	-0.007593461
70	0xbbf8d29c	-0.007593466
71	0xbbf8d29c	-0.007593466
72	0xbbf8d291	-0.007593461
73	0xbbf8d29c	-0.007593466
74	0xbbf8d29c	-0.007593466
75	0xbbf8d29c	-0.007593466
76	0xbbf8d29c	-0.007593466
77	0xbbf8d289	-0.007593457
78	0xbbf8d29c	-0.007593466
79	0xbbf8d29c	-0.007593466
80	0xbbf8d29c	-0.007593466
81	0xbbf8d287	-0.007593456
82	0xbbf8d294	-0.0075934622
83	0xbbf8d291	-0.007593461
84	0xbbf8d29c	-0.007593466
85	0xbbf8d291	-0.007593461
86	0xbbf8d291	-0.007593461
87	0xbbf8d29c	-0.007593466
88	0xbbf8d287	-0.007593456
89	0xbbf8d289	-0.007593457
90	0xbbf8d29c	-0.007593466
91	0xbbf8d294	-0.0075934622
92	0xbbf8d281	-0.0075934534
93	0xbbf8d29c	-0.007593466
94	0xbbf8d29c	-0.007593466
95	0xbbf8d29c	-0.007593466
96	0xbbf8d291	-0.007593461
97	0xbbf8d29c	-0.007593466
98	0xbbf8d29c	-0.007593466
99	0xbbf8d291	-0.007593461
100	0xbbf8d29a	-0.007593465
101	0xbbf8d29c	-0.007593466
102	0xbbf8d29c	-0.007593466
103	0xbbf8d29c	-0.007593466
104	0xbbf8d29c	-0.007593466
105	0xbbf8d29c	-0.007593466
106	0xbbf8d289	-0.007593457
107	0xbbf8d287	-0.007593456
108	0xbbf8d29c	-0.007593466
109	0xbbf8d281	-0.0075934534
110	0xbbf8d29c	-0.007593466
111	0xbbf8d294	-0.0075934622
112	0xbbf8d287	-0.007593456
113	0xbbf8d291	-0.007593461
114	0xbbf8d29c	-0.007593466
115	0xbbf8d287	-0.007593456
116	0xbbf8d29a	-0.007593465
117	0xbbf8d291	-0.007593461
118	0xbbf8d29c	-0.007593466
119	0xbbf8d29c	-0.007593466
120	0xbbf8d294	-0.0075934622
121	0xbbf8d281	-0.0075934534
122	0xbbf8d29c	-0.007593466
123	0xbbf8d291	-0.007593461
124	0xbbf8d29c	-0.007593466
125	0xbbf8d29c	-0.007593466
126	0xbbf8d29c	-0.007593466
127	0xbbf8d29c	-0.007593466
128	0xbbf8d29c	-0.007593466
129	0xbbf8d29c	-0.007593466
130	0xbbf8d29c	-0.007593466
131	0xbbf8d29c	-0.007593466
132	0xbbf8d29c	-0.007593466
133	0xbbf8d29c	-0.007593466
134	0xbbf8d281	-0.0075934534
135	0xbbf8d29a	-0.007593465
136	0xbbf8d29c	-0.007593466
137	0xbbf8d291	-0.007593461
138	0xbbf8d29c	-0.007593466
139	0xbbf8d29c	-0.007593466
140	0xbbf8d29c	-0.007593466
141	0xbbf8d291	-0.007593461
142	0xbbf8d29c	-0.007593466
143	0xbbf8d29c	-0.007593466
144	0xbbf8d294	-0.0075934622
145	0xbbf8d291	-0.007593461
146	0xbbf8d29c	-0.007593466
147	0xbbf8d29c	-0.007593466
148	0xbbf8d29c	-0.007593466
149	0xbbf8d29c	-0.007593466
150	0xbbf8d29c	-0.007593466
151	0xbbf8d289	-0.007593457
152	0xbbf8d29c	-0.007593466
153	0xbbf8d29c	-0.007593466
154	0xbbf8d291	-0.007593461
155	0xbbf8d29c	-0.007593466
156	0xbbf8d29c	-0.007593466
157	0xbbf8d291	-0.007593461
158	0xbbf8d294	-0.0075934622
159	0xbbf8d291	-0.007593461
160	0xbbf8d29c	-0.007593466
161	0xbbf8d29a	-0.007593465
162	0xbbf8d29c	-0.007593466
163	0xbbf8d29c	-0.007593466
164	0xbbf8d291	-0.007593461
165	0xbbf8d29c	-0.007593466
166	0xbbf8d29c	-0.007593466
167	0xbbf8d287	-0.007593456
168	0xbbf8d29c	-0.007593466
169	0xbbf8d291	-0.007593461
170	0xbbf8d29a	-0.007593465
171	0xbbf8d29c	-0.007593466
172	0xbbf8d29c	-0.007593466
173	0xbbf8d29c	-0.007593466
174	0xbbf8d29c	-0.007593466
175	0xbbf8d29c	-0.007593466
176	0xbbf8d29c	-0.007593466
177	0xbbf8d29c	-0.007593466
178	0xbbf8d29c	-0.007593466
179	0xbbf8d29c	-0.007593466
180	0xbbf8d29c	-0.007593466
181	0xbbf8d29c	-0.007593466
182	0xbbf8d29c	-0.007593466
183	0xbbf8d29c	-0.007593466
184	0xbbf8d281	-0.0075934534
185	0xbbf8d29c	-0.007593466
186	0xbbf8d29c	-0.007593466
187	0xbbf8d29a	-0.007593465
188	0xbbf8d29c	-0.007593466
189	0xbbf8d29c	-0.007593466
190	0xbbf8d281	-0.0075934534
191	0xbbf8d29a	-0.007593465
192	0xbbf8d291	-0.007593461
193	0xbbf8d29c	-0.007593466
194	0xbbf8d294	-0.0075934622
195	0xbbf8d29c	-0.007593466
196	0xbbf8d29c	-0.007593466
197	0xbbf8d291	-0.007593461
198	0xbbf8d29c	-0.007593466
199	0xbbf8d29c	-0.007593466
200	0xbbf8d291	-0.007593461
201	0xbbf8d29c	-0.007593466
202	0xbbf8d29c	-0.007593466
203	0xbbf8d29c	-0.007593466
204	0xbbf8d281	-0.0075934534
205	0xbbf8d287	-0.007593456
206	0xbbf8d29a	-0.007593465
207	0xbbf8d287	-0.007593456
208	0xbbf8d287	-0.007593456
209	0xbbf8d29c	-0.007593466
210	0xbbf8d29c	-0.007593466
211	0xbbf8d29c	-0.007593466
212	0xbbf8d291	-0.007593461
213	0xbbf8d29c	-0.007593466
214	0xbbf8d29c	-0.007593466
215	0xbbf8d287	-0.007593456
216	0xbbf8d291	-0.007593461
217	0xbbf8d29a	-0.007593465
218	0xbbf8d29a	-0.007593465
219	0xbbf8d29a	-0.007593465
220	0xbbf8d29c	-0.007593466
221	0xbbf8d29c	-0.007593466
222	0xbbf8d29c	-0.007593466
223	0xbbf8d291	-0.007593461
224	0xba07fb3c	-0.0005187278
225	0xba07fb3c	-0.0005187278
226	0xba07fb3c	-0.0005187278
227	0xba07fb3c	-0.0005187278
228	0xba07fb3c	-0.0005187278
229	0xba07fb3b	-0.00051872776
230	0xba07fb3c	-0.0005187278
231	0xba07fb3c	-0.0005187278
232	0xba07fb3c	-0.0005187278
233	0xba07fb3c	-0.0005187278
234	0xba07fb3c	-0.0005187278
235	0xba07fb3c	-0.0005187278
236	0xba07fb3c	-0.0005187278
237	0xba07fb3c	-0.0005187278
238	0xba07fb3c	-0.0005187278
239	0xba07fb3c	-0.0005187278
240	0xba07fb3c	-0.0005187278
241	0xba07fb3c	-0.0005187278
242	0xba07fb3c	-0.0005187278
243	0xba07fb3c	-0.0005187278
244	0xba07fb3c	-0.0005187278
245	0xba07fb3b	-0.00051872776
246	0xba07fb3c	-0.0005187278
247	0xba07fb3c	-0.0005187278
248	0xba07fb3c	-0.0005187278
249	0xba07fb3b	-0.00051872776
250	0xba07fb3c	-0.0005187278
251	0xba07fb3c	-0.0005187278
252	0xba07fb3c	-0.0005187278
253	0xba07fb3c	-0.0005187278
254	0xba07fb3c	-0.0005187278
255	0xba07fb3c	-0.0005187278

bias f4 [192]
0	0x34aa76bd	3.175136e-07
1	0x370fc053	8.568243e-06
2	0x34f2122e	4.508924e-07
3	0x3598a2e9	1.1372296e-06
4	0x37a0b5ef	1.9158206e-05
5	0x36c3b3b8	5.832375e-06
6	0xb64fa56d	-3.0941694e-06
7	0x347db151	2.3626968e-07
8	0x36914537	4.3293944e-06
9	0xb6b8dd16	-5.509365e-06
10	0x35b8da97	1.3772686e-06
11	0xb4a776cc	-3.119261e-07
12	0xb34d8ca8	-4.7858208e-08
13	0xb2813488	-1.5041465e-08
14	0xb47b8732	-2.342538e-07
15	0x32ce467e	2.4013612e-08
16	0x370111e4	7.693165e-06
17	0x3449a682	1.8780159e-07
18	0x36d66a70	6.390088e-06
19	0xb4d86964	-4.0309817e-07
20	0x3616b706	2.2458275e-06
21	0x32a4e8de	1.9198009e-08
22	0x37d1a5dd	2.4991978e-05
23	0x3679f818	3.72483e-06
24	0x353c438f	7.013377e-07
25	0x32c76f12	2.3217158e-08
26	0x36165c0b	2.2405318e-06
27	0x371dbea2	9.402314e-06
28	0xb69e6709	-4.720762e-06
29	0x3550f7b4	7.7846494e-07
30	0xb40b5a44	-1.2978222e-07
31	0xb741123f	-1.1507945e-05
32	0x36c9cf39	6.0143907e-06
33	0x3730e7e0	1.0544405e-05
34	0x3786d5bb	1.607357e-05
35	0x33e4c409	1.0652736e-07
36	0xb527ceb6	-6.251315e-07
37	0x35aed964	1.3027279e-06
38	0xb4e9a5b1	-4.3520188e-07
39	0x3615367d	2.2234447e-06
40	0x34754353	2.2841895e-07
41	0x360ef284	2.1300812e-06
42	0x36bb1a8f	5.576126e-06
43	0x3231f73f	1.0358973e-08
44	0x3694ce0e	4.4347316e-06
45	0xb480adf3	-2.3968423e-07
46	0x346ad9b9	2.1872155e-07
47	0xb5b32c57	-1.3349444e-06
48	0x354bf453	7.597893e-07
49	0xb78463ae	-1.5782043e-05
50	0x35c2965f	1.449789e-06
51	0x3639bb4a	2.7676165e-06
52	0xb69a2f05	-4.5950314e-06
53	0xb7979667	-1.807064e-05
54	0x3745f5b2	1.179932e-05
55	0xb64e2e39	-3.0723297e-06
56	0xb6118f64	-2.1690148e-06
57	0x35a7212d	1.2452125e-06
58	0x34071375	1.2579933e-07
59	0xb5d0525b	-1.5521176e-06
60	0x3646d467	2.9627934e-06
61	0x32fd12ab	2.9461566e-08
62	0xb502cb8c	-4.8724974e-07
63	0x3653745d	3.1509182e-06
64	0x327c1fbb	1.4675545e-08
65	0x36cedbe1	6.1648757e-06
66	0xb6a65629	-4.957216e-06
67	0x35863f5c	1.0002218e-06
68	0x356e52b9	8.8782286e-07
69	0x36a75d6e	4.9878645e-06
70	0xb3fbeca1	-1.1731141e-07
71	0x357a30c4	9.320322e-07
72	0xb6731f56	-3.6228062e-06
73	0x32e5ffea	2.6775485e-08
74	0x381415b0	3.5306148e-05
75	0x3477cd1e	2.3078289e-07
76	0x36d37d19	6.3028533e-06
77	0x31b073bd	5.135432e-09
78	0xb394e63d	-6.933667e-08
79	0x34ce7b60	3.8460257e-07
80	0x36065677	2.0017885e-06
81	0x340abd21	1.2921056e-07
82	0x34745bfa	2.2757732e-07
83	0xb7a65ff6	-1.9833427e-05
84	0xb4911c8e	-2.702913e-07
85	0x36c6884f	5.9167282e-06
86	0xb1f893bd	-7.234546e-09
87	0xb5ab4eef	-1.2763466e-06
88	0x37146e63	8.847189e-06
89	0xb59e571b	-1.1797268e-06
90	0x358e5d34	1.060695e-06
91	0x3551aeb2	7.811278e-07
92	0x36e05d22	6.6865623e-06
93	0x3535a064	6.7661153e-07
94	0x361af14a	2.3088237e-06
95	0xb62e45f6	-2.5968743e-06
96	0xb611d68d	-2.1731569e-06
97	0xb2c36415	-2.27465e-08
98	0xb732e6fa	-1.0663405e-05
99	0xb55fe7e4	-8.341142e-07
100	0x36427cff	2.898101e-06
101	0xb7177576	-9.02765e-06
102	0xb548b9be	-7.4776096e-07
103	0x32afd45d	2.0469253e-08
104	0x366b7566	3.5086064e-06
105	0x3394d216	6.9300015e-08
106	0x3814024b	3.5288085e-05
107	0xb3cd650a	-9.564435e-08
108	0x3655c9b4	3.185688e-06
109	0xb6a39b7a	-4.8758784e-06
110	0xb64975f4	-3.0019992e-06
111	0xb77e2acf	-1.5149547e-05
112	0x35e8e1e2	1.7351088e-06
113	0xb3e60d36	-1.0712613e-07
114	0x340d6029	1.3166631e-07
115	0x32cc15e8	2.3758687e-08
116	0x34b205d7	3.3159333e-07
117	0xaf823ff0	-2.3692293e-10
118	0xb738a5bd	-1.1005844e-05
119	0x375f49e4	1.330904e-05
120	0x35f06f8f	1.7913861e-06
121	0xb6e6bb1c	-6.8763165e-06
122	0xb2846cc1	-1.5416278e-08
123	0x349b4fa7	2.8928955e-07
124	0x327bd154	1.4657719e-08
125	0x359ed4b0	1.1833818e-06
126	0xb4e4e8a9	-4.2637592e-07
127	0x3669cdfd	3.4839607e-06
128	0xb54288b8	-7.2469584e-07
129	0xb299b1d0	-1.7892404e-08
130	0xb4b19d25	-3.3083157e-07
131	0x36679482	3.4508125e-06
132	0x37a5bbbc	1.9756953e-05
133	0x3433606a	1.670575e-07
134	0xb61ffe44	-2.3840848e-06
135	0x330de867	3.304049e-08
136	0x34eb2135	4.3796322e-07
137	0xb746acf2	-1.1841987e-05
138	0x352a86cc	6.352609e-07
139	0x34879e35	2.526082e-07
140	0x33a494fb	7.6639445e-08
141	0x3412c677	1.366951e-07
142	0xb5fb287f	-1.8712743e-06
143	0xb304647b	-3.082503e-08
144	0x35ff8fb8	1.9040808e-06
145	0x38a01a33	7.6342745e-05
146	0x35ef2f86	1.7820719e-06
147	0x334e0d1e	4.7975043e-08
148	0xb0de7873	-1.618686e-09
149	0x355d8af0	8.2531096e-07
150	0x37818357	1.5439158e-05
151	0x3401eb37	1.2099632e-07
152	0xb4ac0552	-3.2041368e-07
153	0x341f53ed	1.4838561e-07
154	0xb4b745c9	-3.4137182e-07
155	0x36f2c1af	7.2347098e-06
156	0x37617d39	1.3440201e-05
157	0x37199aeb	9.15558e-06
158	0xb69b3234	-4.6252044e-06
159	0xb42b55dd	-1.5956853e-07
160	0xb55ebe4b	-8.297836e-07
161	0x36fa3eb9	7.4578825e-06
162	0x354a0b07	7.526691e-07
163	0x361f009c	2.36932e-06
164	0xb58673f4	-1.0017525e-06
165	0xb5c0b1f7	-1.4356909e-06
166	0x37fd7421	3.0214027e-05
167	0x35b85b6a	1.3735673e-06
168	0xb6136b66	-2.196722e-06
169	0xb68a477a	-4.1210415e-06
170	0x349a6ae6	2.8762514e-07
171	0xb5f3ec26	-1.8173639e-06
172	0xb53d64ec	-7.055485e-07
173	0x30dafb20	1.5932962e-09
174	0x35146a75	5.528921e-07
175	0x344ff417	1.9367177e-07
176	0x36b44cce	5.3733593e-06
177	0x34969692	2.8049232e-07
178	0xb7239681	-9.750599e-06
179	0x370648e5	8.0039945e-06
180	0x3377ce23	5.769665e-08
181	0xb5c60453	-1.4753408e-06
182	0x36850e37	3.9653637e-06
183	0xb67fe3a4	-3.8130465e-06
184	0xb5b85065	-1.3732466e-06
185	0xb626a79f	-2.4833496e-06
186	0x37abfc5d	2.0502304e-05
187	0x34da47cd	4.0657906e-07
188	0xb480e2c9	-2.4006866e-07
189	0x37b28174	2.1279535e-05
190	0x36686d2d	3.4634243e-06
191	0xb6887466	-4.0666664e-06

weight f4 [192, 224]
0	0xb5e036fe	-1.6705305e-06
1	0xb4c83466	-3.7291028e-07
2	0xb4c46f86	-3.658899e-07
3	0xb500557b	-4.7808106e-07
4	0x351c7bbd	5.829459e-07
5	0xb5b0cc5c	-1.3172498e-06
6	0x359c0e64	1.1627094e-06
7	0xb5828742	-9.72512e-07
8	0x34ae3354	3.2447372e-07
9	0xb5dea92d	-1.6589526e-06
10	0xb5dea4e2	-1.6588276e-06
11	0xb4ce7fef	-3.8463574e-07
12	0xb59e5f81	-1.1799713e-06
13	0x35179d46	5.6480746e-07
14	0x337153c6	5.6188377e-08
15	0xb5aff26a	-1.3109068e-06
16	0xb5d179e5	-1.5607189e-06
17	0xb4cd06b3	-3.81891e-07
18	0xb4f7288c	-4.6036837e-07
19	0xb4c46de5	-3.6587804e-07
20	0xb57b101a	-9.352822e-07
21	0x34b1e10a	3.3132557e-07
22	0xb5b0a489	-1.3160908e-06
23	0xb5daec7d	-1.6311093e-06
24	0xb4fe9bc1	-4.7424513e-07
25	0xb5d95020	-1.6191079e-06
26	0xb4a6b6b5	-3.1052846e-07
27	0xb5e48112	-1.7024888e-06
28	0xb5e204d0	-1.6839713e-06
29	0xb59f6a57	-1.1877372e-06
30	0xb5521801	-7.8266027e-07
31	0x3564ff51	8.5308153e-07
32	0xb44d6f47	-1.9132595e-07
33	0x3430ac1b	1.6453889e-07
34	0xb5e02d29	-1.6702444e-06
35	0xb5e03074	-1.6703402e-06
36	0xb5d4c490	-1.5852438e-06
37	0x358a9c0b	1.0327216e-06
38	0xb5d92965	-1.6179807e-06
39	0xb56bb2ca	-8.7804494e-07
40	0xb4d3d487	-3.9456447e-07
41	0xb5e030d4	-1.6703511e-06
42	0xb42d100a	-1.6117716e-07
43	0x34a55d21	3.0801405e-07
44	0xb4d5448a	-3.972421e-07
45	0xb5244c0b	-6.120542e-07
46	0xb50b3753	-5.186204e-07
47	0xb4c87628	-3.7338873e-07
48	0xb5abb137	-1.2792069e-06
49	0xb54df4e5	-7.672482e-07
50	0x3545b167	7.3646373e-07
51	0xb59e47fc	-1.1792868e-06
52	0xb5834414	-9.780074e-07
53	0x352f0c41	6.521041e-07
54	0xb4d037ab	-3.8783523e-07
55	0xb3c6f7bf	-9.265158e-08
56	0xb5e02e38	-1.6702752e-06
57	0xb4694921	-2.172642e-07
58	0xb5e042af	-1.6708708e-06
59	0xb532246a	-6.6363157e-07
60	0xb5e03e30	-1.67074e-06
61	0xb5e45620	-1.701239e-06
62	0x353ba2fe	6.9900113e-07
63	0xb5dd1e7c	-1.6474655e-06
64	0xb5a86682	-1.2546809e-06
65	0xb5c84fb2	-1.4924356e-06
66	0xb4c4d5b3	-3.6663332e-07
67	0xb4c5ac12	-3.6819307e-07
68	0xb4d2b349	-3.9245995e-07
69	0xb50d9828	-5.274801e-07
70	0xb5e03618	-1.6705044e-06
71	0xb5366c24	-6.795765e-07
72	0xb4c46de5	-3.6587804e-07
73	0xb565e502	-8.56424e-07
74	0xb586c868	-1.0042104e-06
75	0xb5c7a8c0	-1.4875768e-06
76	0x351aa3e5	5.760797e-07
77	0xb523fcac	-6.108992e-07
78	0xb56a5650	-8.7297394e-07
79	0xb5c6b5d2	-1.4805066e-06
80	0xb5ddaeb4	-1.6516628e-06
81	0x357336c5	9.0604254e-07
82	0xb4e5c706	-4.2799383e-07
83	0xb5455696	-7.351422e-07
84	0xb5b3ac6c	-1.3386721e-06
85	0x344ffefe	1.9371143e-07
86	0xb5e02e67	-1.6702805e-06
87	0xb4e2094a	-4.210254e-07
88	0x34467244	1.8481757e-07
89	0xb57ebe1a	-9.489901e-07
90	0xb5e02e41	-1.6702762e-06
91	0xb5b21c44	-1.327026e-06
92	0x35512085	7.790589e-07
93	0x350b49be	5.1888844e-07
94	0x34147fd4	1.3830078e-07
95	0xb5e558ff	-1.7087731e-06
96	0x35779381	9.2229317e-07
97	0xb496568d	-2.800265e-07
98	0x351fa93c	5.9478384e-07
99	0x35a4e777	1.2286317e-06
100	0xb5d545ba	-1.589003e-06
101	0xb5aeb6b1	-1.301718e-06
102	0x354f7cf2	7.729533e-07
103	0xb515b460	-5.5769306e-07
104	0xb51c74bf	-5.8284417e-07
105	0xb539f392	-6.927231e-07
106	0x34de788f	4.143844e-07
107	0xb5c40586	-1.4604746e-06
108	0xb4a999cc	-3.1590605e-07
109	0xb58cd4d6	-1.0492756e-06
110	0xb5e27495	-1.6872242e-06
111	0xb5a5e21e	-1.2359267e-06
112	0x3537b4cc	6.8435907e-07
113	0xb4c83d91	-3.7297698e-07
114	0xb5e02d1b	-1.6702428e-06
115	0x352423dd	6.114695e-07
116	0x34ed0abf	4.415251e-07
117	0xb5db63cf	-1.634582e-06
118	0xb5a15480	-1.2020027e-06
119	0xb502823f	-4.8618307e-07
120	0xb5dedd75	-1.6604741e-06
121	0xb497b6af	-2.8258862e-07
122	0xb581f520	-9.68259e-07
123	0xb5d85654	-1.6118379e-06
124	0xb4ce3dba	-3.8415402e-07
125	0xb47e0b47	-2.3659696e-07
126	0xb56c238a	-8.796857e-07
127	0x355059be	7.761663e-07
128	0xb5df7bdc	-1.6650843e-06
129	0xb4c522cf	-3.6719436e-07
130	0xb513f9ef	-5.512547e-07
131	0x3551c5b9	7.814629e-07
132	0xb42b7dad	-1.5971337e-07
133	0x359dfb12	1.1770483e-06
134	0x359f3560	1.1861957e-06
135	0x354d80ad	7.65557e-07
136	0xb5ab6391	-1.276947e-06
137	0xb4f60eef	-4.5831936e-07
138	0x3578ff8f	9.2759086e-07
139	0xb5574a00	-8.0201426e-07
140	0xb4c86869	-3.732887e-07
141	0xb50a33b3	-5.148424e-07
142	0xb5a68c4c	-1.2408796e-06
143	0x34f505c7	4.563901e-07
144	0x34d5328e	3.9711125e-07
145	0x3529cfbc	6.32597e-07
146	0xb4d9ca38	-4.0566533e-07
147	0x35013f4a	4.814834e-07
148	0x34e4a726	4.2589926e-07
149	0xb5b150e4	-1.321107e-06
150	0x351e8e34	5.906652e-07
151	0xb5d5ddce	-1.593429e-06
152	0xb5d0be6c	-1.5552628e-06
153	0xb4d794bd	-4.0155092e-07
154	0x34a70d72	3.1115957e-07
155	0xb485fe9c	-2.4958433e-07
156	0x358bd110	1.0417152e-06
157	0xb5accdc6	-1.2874887e-06
158	0xb5c8ffb6	-1.4975583e-06
159	0xb5590e65	-8.0859746e-07
160	0xb45242ad	-1.958203e-07
161	0xb5be2886	-1.4167897e-06
162	0x352c790f	6.4251157e-07
163	0xb5e02e50	-1.6702779e-06
164	0xb5e02e54	-1.6702784e-06
165	0xb4c49475	-3.6615862e-07
166	0x354f452c	7.721417e-07
167	0x33b2ed3b	8.331923e-08
168	0xb52c7710	-6.424825e-07
169	0xb4d7a837	-4.0169263e-07
170	0xb4faf320	-4.6743025e-07
171	0xb5af46c9	-1.3059117e-06
172	0x3534ad7f	6.7307695e-07
173	0xb4d8d8c1	-4.0390844e-07
174	0xb515121a	-5.5533167e-07
175	0xb503d9ed	-4.9118427e-07
176	0xb50be449	-5.2113734e-07
177	0xb302e5d1	-3.0477e-08
178	0xb5bd1621	-1.4088038e-06
179	0x358fd136	1.0715219e-06
180	0x349e84ad	2.9526328e-07
181	0x35223cdc	6.0438265e-07
182	0xb5e04051	-1.6708019e-06
183	0xb5dfec90	-1.6683643e-06
184	0xb4e4fd01	-4.2652394e-07
185	0xb4c49adf	-3.6620528e-07
186	0xb5db2743	-1.6328198e-06
187	0xb5d23fc3	-1.5664776e-06
188	0xb4c8397f	-3.7294737e-07
189	0x35675edf	8.619226e-07
190	0x3559e57e	8.1172755e-07
191	0xb4eb4390	-4.382132e-07
192	0xb59b095b	-1.1551123e-06
193	0x3490fb67	2.700501e-07
194	0xb4f8264d	-4.6221467e-07
195	0x35a1e8f3	1.2063232e-06
196	0xb5564625	-7.9823286e-07
197	0x336357f9	5.2932567e-08
198	0xb5de948a	-1.658352e-06
199	0x354c0005	7.599595e-07
200	0xb5d15fc4	-1.5599585e-06
201	0xb4c7bf3b	-3.7205777e-07
202	0x35932ec9	1.096597e-06
203	0xb53feaa7	-7.149451e-07
204	0xb5001baf	-4.7724e-07
205	0xb52789d5	-6.241292e-07
206	0xb5deac98	-1.659052e-06
207	0x3514ac08	5.5384635e-07
208	0x358bf272	1.0426868e-06
209	0xb5009ce6	-4.7912033e-07
210	0xb5c690d1	-1.4794297e-06
211	0xb5e512fc	-1.7067355e-06
212	0x358eec3b	1.0648577e-06
213	0xb5d511a8	-1.5874875e-06
214	0xb50d36c1	-5.260627e-07
215	0xb5446910	-7.3168576e-07
216	0x3433d2f8	1.6747424e-07
217	0xb51d9003	-5.869662e-07
218	0xb51b4ba5	-5.7852077e-07
219	0xb4c5283c	-3.6723384e-07
220	0xb5c49b21	-1.4648286e-06
221	0xb4d9084d	-4.042544e-07
222	0xb5acde2a	-1.2879657e-06
223	0xb5e043ac	-1.6708996e-06
224	0xb7c390cb	-2.3313236e-05
225	0xb72b305a	-1.0203652e-05
226	0xb571b0b9	-9.003666e-07
227	0x37b82e2b	2.1956008e-05
228	0x374f3ca3	1.235228e-05
229	0x3776d6ae	1.4712727e-05
230	0x37467673	1.1829298e-05
231	0x36929a17	4.3690775e-06
232	0x37b883d6	2.19959e-05
233	0x37aa78a0	2.032175e-05
234	0x375ce47b	1.3166219e-05
235	0x3758b87c	1.2917557e-05
236	0x377d2ca4	1.5090369e-05
237	0xb76e0d6c	-1.41890305e-05
238	0x37b0390f	2.1007405e-05
239	0x3869f0d6	5.5775825e-05
240	0x37669ba5	1.3745307e-05
241	0x37f75304	2.9483352e-05
242	0x3885bd3d	6.3771826e-05
243	0x37b55e4b	2.162079e-05
244	0x3746b8c3	1.1844738e-05
245	0x38043f8a	3.1530428e-05
246	0x3778e102	1.4834341e-05
247	0x37833582	1.5641333e-05
248	0x377be25c	1.5013469e-05
249	0x37b88cdb	2.20001e-05
250	0x37783aa9	1.479561e-05
251	0x37a02bde	1.9093914e-05
252	0x374d6e45	1.2244626e-05
253	0x374e9369	1.2312878e-05
254	0x37f197d5	2.8800141e-05
255	0x38707b13	5.733508e-05

weight f4 [160, 192]
0	0xbc379876	-0.011205783
1	0xbbd3852b	-0.006455084
2	0xbb95eba4	-0.0045752097
3	0xbca93695	-0.02065591
4	0xbccbac08	-0.024862304
5	0xbd471908	-0.048607856
6	0x3b808a4b	0.003922736
7	0xbbdb1be2	-0.0066866735
8	0xbcf29f88	-0.029617086
9	0xbbf3f37a	-0.007444796
10	0xbcf20170	-0.029541701
11	0xbcf38389	-0.029725807
12	0xbc0085e0	-0.007844418
13	0xba8a5e4e	-0.001055667
14	0xbbaa76b0	-0.005202137
15	0x3bc2bbd0	0.005942799
16	0xbcd45bfa	-0.025922764
17	0xbb2fbcbe	-0.002681538
18	0x3ca4a4af	0.020098059
19	0x3b86ede5	0.0041177147
20	0xbc63d70a	-0.01390625
21	0xbd0ec4c6	-0.034855627
22	0xbb13ccd9	-0.0022552519
23	0xbcd276f6	-0.02569149
24	0xbc46c765	-0.0121325
25	0xbd08ab52	-0.03336651
26	0xbc1fee26	-0.009761369
27	0xbcb164b8	-0.021654472
28	0xbd04420c	-0.03228955
29	0xbd21b235	-0.039476592
30	0xbbb929dd	-0.0056507424
31	0x3c0a9be8	0.0084600225
32	0xbd3e62a2	-0.046480782
33	0xbbb3bf38	-0.0054854415
34	0xbc6133c5	-0.013745253
35	0xbcca143a	-0.024667848
36	0x3959e703	0.00020780791
37	0xbc596fcd	-0.013271284
38	0xbcafeadf	-0.0214743
39	0xbc2f780f	-0.010709777
40	0xbca1e3c8	-0.019761935
41	0xbce386ce	-0.02777424
42	0xbd3f1a46	-0.046655916
43	0xbd30cb8f	-0.04316288
44	0xbd86cd94	-0.0658218
45	0xbc9b007f	-0.018921135
46	0xbc8e75d1	-0.017390164
47	0xbd1fc92a	-0.039010204
48	0xbd408044	-0.046997324
49	0xbc9cd622	-0.019145075
50	0xbcd833c8	-0.026391879
51	0xbce56c9e	-0.028005894
52	0xbccbb862	-0.024868194
53	0xbd1087ce	-0.035285763
54	0x3c33de30	0.010978267
55	0xbc8ba0d9	-0.017044472
56	0xbca4424d	-0.020051146
57	0xbc876a38	-0.016530141
58	0xbc80318f	-0.015648631
59	0xbc9115f1	-0.017710658
60	0xbcfa249b	-0.030535033
61	0xbcd1486a	-0.025547225
62	0xbc4f2e8c	-0.012645375
63	0xbcd314b2	-0.025766704
64	0x3cbb94de	0.022898134
65	0xbc9f534a	-0.019448895
66	0x3ba43f82	0.0050124535
67	0xbac0f331	-0.0014720914
68	0xbc785f2d	-0.01515941
69	0xbcd92571	-0.026507111
70	0x3d02f233	0.03196926
71	0xbcee5b28	-0.029096201
72	0xbce80113	-0.028320825
73	0xbbbf3cf7	-0.005836125
74	0xbd007dc2	-0.031369932
75	0xbd0c0b32	-0.034190364
76	0xbd9b50f4	-0.075838
77	0xbc0f70dc	-0.008754935
78	0xbc1b4f2f	-0.009479328
79	0xbcea300a	-0.02858736
80	0xbce86a9b	-0.028371146
81	0x3ba455b3	0.005015099
82	0xbc85f4b7	-0.01635204
83	0xbd187df7	-0.037229504
84	0xbb7755c3	-0.0037740327
85	0xbcbb72d8	-0.02288191
86	0xbc0ac3b8	-0.008469515
87	0xbcb76f7d	-0.022392029
88	0xbc4246d0	-0.011857703
89	0xbc8c7e70	-0.017150134
90	0xbcbec1f8	-0.02328585
91	0xbc884060	-0.016632259
92	0xbd5ddd24	-0.054165974
93	0x3bd4f0fa	0.006498453
94	0xbcea0fe9	-0.02857204
95	0xbc58c7de	-0.013231246
96	0xbc6fa43e	-0.014626561
97	0xb94b2026	-0.00019371565
98	0xbcb9904b	-0.022651812
99	0xbcfd6f7a	-0.030936945
100	0xbc852eab	-0.016257605
101	0x3bf77514	0.0075517986
102	0xbd17f159	-0.0370954
103	0x3b692510	0.003557507
104	0x3bc56934	0.006024504
105	0xbc8dbd90	-0.017302305
106	0x3c83eb10	0.016103297
107	0xbcafffa4	-0.021484204
108	0xbcd39074	-0.025825717
109	0xbcad3534	-0.021143533
110	0xbce947a0	-0.028476536
111	0xbbbab7b9	-0.005698171
112	0xbc22ba22	-0.009932073
113	0x38f6e1b6	0.00011772236
114	0xbbd0fc20	-0.006377712
115	0xba4a2e1f	-0.0007712561
116	0xbb4f74db	-0.0031655345
117	0x3b893e89	0.004188363
118	0xbc947aee	-0.018125024
119	0xbcdd25e2	-0.026995603
120	0xbc7fcb7f	-0.015612482
121	0xbc756cb4	-0.01497953
122	0xbcf95cc9	-0.030439751
123	0xbadb79a6	-0.0016744628
124	0xbd1fb7c2	-0.038993604
125	0xbcf938d7	-0.030422611
126	0xb9aa70be	-0.00032508926
127	0xbd64db03	-0.05587293
128	0xbbdb7347	-0.0066970917
129	0xbbd24550	-0.006416954
130	0xbc59e8de	-0.013300149
131	0xbd62f0fa	-0.055405594
132	0xbd87db2f	-0.06633603
133	0xbbd45456	-0.00647978
134	0xbc8dc628	-0.017306402
135	0xbb411fc9	-0.0029468408
136	0xbc0001f4	-0.007812966
137	0xbc0fd249	-0.008778163
138	0xbc38dc46	-0.011282986
139	0xbcae2108	-0.021255985
140	0xbb052102	-0.0020313864
141	0xbb9ac14a	-0.004722749
142	0xbbc089eb	-0.005875816
143	0xbce0629b	-0.027390769
144	0x3c6ad929	0.014334002
145	0xbcb660f6	-0.022263031
146	0xbc9263f9	-0.017869936
147	0xbc42d970	-0.011892661
148	0xba83c4af	-0.0010053123
149	0xbc15d8cb	-0.009145926
150	0xbd2aab5d	-0.04166733
151	0xbc6319b8	-0.013861112
152	0xbc4c5561	-0.012471528
153	0xbc8a233a	-0.0168625
154	0xbc16db2e	-0.00920753
155	0xbb777268	-0.00377574
156	0xbd99346c	-0.07480702
157	0xbce7eab2	-0.028310154
158	0xbcec8be4	-0.028875299
159	0xbc7b85df	-0.015351742
160	0xbbbad131	-0.005701207
161	0xbd150f3a	-0.036391474
162	0xbcdb5c7b	-0.026777497
163	0xbc5abace	-0.013350202
164	0xbc164d9d	-0.009173778
165	0xbccbb899	-0.024868296
166	0xbbe4fb42	-0.00698796
167	0xbd4b8e04	-0.049695984
168	0xbc3ed214	-0.011646766
169	0xbbc75fc2	-0.0060844133
170	0xbce0ca00	-0.027440071
171	0x3c12b7c6	0.008954948
172	0xbb1b9171	-0.0023737813
173	0xbc2daa74	-0.010599721
174	0xbca699bb	-0.020336976
175	0xbca64e04	-0.020300873
176	0xbc7feee0	-0.015620917
177	0xbd27bf0c	-0.04095368
178	0xbce2599f	-0.027630625
179	0xbc3be645	-0.011468475
180	0xbc4d0e37	-0.012515596
181	0x3c2c6c5b	0.010523881
182	0xbb88c461	-0.004173801
183	0xbbd42103	-0.006473662
184	0xbc665ca9	-0.014060178
185	0xbac74c4a	-0.0015205231
186	0xbd1859b0	-0.037194908
187	0xbc81ac33	-0.015829181
188	0xb980fe9d	-0.00024603764
189	0xbcc758d3	-0.024334347
190	0xbc097da6	-0.008391773
191	0xbcf97c7e	-0.03045487
192	0xbbc1ffc8	-0.005920384
193	0x3c708fc3	0.014682713
194	0x3c0712a8	0.008244194
195	0x3c920c71	0.017828198
196	0xbc5fe44b	-0.013665269
197	0x3d8665af	0.06562363
198	0xbc2f980d	-0.010717404
199	0x3c106605	0.008813386
200	0x3c6e793c	0.014555272
201	0xbc218521	-0.009858401
202	0x3b23ab2d	0.0024973855
203	0x3c815e8d	0.015792156
204	0xbadac277	-0.0016690035
205	0xbb51633f	-0.0031950024
206	0xbb3b8731	-0.0028614516
207	0xba8c3513	-0.001069697
208	0x3d533ca7	0.051571514
209	0xb9f10d4f	-0.00045977018
210	0x3c2213e8	0.009892441
211	0x3ca324ed	0.019915069
212	0x38bd14a0	9.016064e-05
213	0x3d0ce432	0.03439731
214	0xbba44ef2	-0.005014294
215	0x3c3c369f	0.011487632
216	0xbbc8c45a	-0.0061269226
217	0x3ca21ce5	0.019789169
218	0x3ba43fc5	0.0050124847
219	0x3bb20d14	0.005433688
220	0x3cbd09e6	0.023076009
221	0x3c985df0	0.01859948
222	0x3c27d597	0.010243795
223	0x3c20fe1b	0.009826208
224	0xba969acf	-0.0011490228
225	0x3cd6f09f	0.026237784
226	0x3d05aa75	0.032633264
227	0x3bfcf384	0.007719459
228	0xbb476a02	-0.0030428176
229	0x3c17590c	0.009237539
230	0x3a91dee5	0.001112905
231	0x3ba00843	0.0048837974
232	0xba5ef2a4	-0.0008504784
233	0x3c6eac92	0.014567511
234	0x3cac987c	0.021068804
235	0x3d2aaccd	0.041668702
236	0x3c041ed3	0.00806399
237	0xb9b75d21	-0.00034973866
238	0x3c89ba8f	0.01681259
239	0x3cf116b8	0.029429778
240	0x3d232d78	0.039838284
241	0xbc11105f	-0.008854001
242	0x3d14c54a	0.036320962
243	0x3a39452b	0.0007067497
244	0x3baa2481	0.00519234
245	0x3c4ec0b2	0.012619184
246	0x3ba33914	0.0049811695
247	0x3c4554f3	0.012044179
248	0xbd0537ac	-0.032523796
249	0x3cb1ad0e	0.021688964
250	0xbc66f8b3	-0.01409738
251	0xba80c9fe	-0.0009825823
252	0x3cbbbe1c	0.0229178
253	0x3bfc6060	0.0077019185
254	0x3ac08949	0.0014689352
255	0x3cb7ecb6	0.02245174

bias f4 [160]
0	0xb78305f2	-1.5619185e-05
1	0xb5ed69db	-1.7688684e-06
2	0x36a454dd	4.8974603e-06
3	0xb68688a3	-4.009418e-06
4	0xb667a42f	-3.451725e-06
5	0xb7dcf230	-2.6338821e-05
6	0xaecad8dc	-9.2244185e-11
7	0x2f39511d	1.6854469e-10
8	0xb5e45dae	-1.7014588e-06
9	0x35ffe76e	1.9066335e-06
10	0xb7ccc06e	-2.4408302e-05
11	0x375c70b2	1.3139261e-05
12	0x36bc36e8	5.6092285e-06
13	0xb5d4a5e9	-1.5843517e-06
14	0x37a22805	1.933054e-05
15	0x3752b17f	1.2558302e-05
16	0xb682f276	-3.902528e-06
17	0x347f28f7	2.3763629e-07
18	0x38311dbd	4.2227784e-05
19	0xb62d5cd8	-2.583305e-06
20	0x363cde58	2.8143604e-06
21	0x34faf43f	4.674384e-07
22	0xb588cd9e	-1.0192632e-06
23	0x34fcf46e	4.7116504e-07
24	0x381219a0	3.4832978e-05
25	0x3770ae25	1.4345661e-05
26	0x37229c7d	9.692388e-06
27	0x3688c539	4.0760756e-06
28	0xb4c01888	-3.5780636e-07
29	0xb6015045	-1.926922e-06
30	0x3707bb92	8.090299e-06
31	0xb52e20f7	-6.486802e-07
32	0xb71d0987	-9.3601475e-06
33	0xb5a7d628	-1.2504797e-06
34	0xb4a9a08b	-3.1595513e-07
35	0x3553c4e5	7.8890145e-07
36	0xb55383f9	-7.879567e-07
37	0x36ce5427	6.149075e-06
38	0x372f9376	1.0465146e-05
39	0x0c1448ce	1.1423414e-31
40	0x35527240	7.839735e-07
41	0x368c846a	4.18774e-06
42	0x36fafe27	7.480168e-06
43	0xb789369c	-1.6357102e-05
44	0x80aef10e	-1.606585e-38
45	0xb56df32c	-8.864324e-07
46	0x35d55b39	1.5896286e-06
47	0xb6080e8b	-2.0274044e-06
48	0x0a90dca4	1.3949691e-32
49	0xb76244ee	-1.3486699e-05
50	0x37e11934	2.6833826e-05
51	0xb60baee7	-2.081442e-06
52	0x36a73eb5	4.984288e-06
53	0x38289035	4.0188625e-05
54	0x37a2719c	1.9364808e-05
55	0x0047d048	6.595037e-39
56	0x37351d6b	1.079529e-05
57	0x311fa07c	2.322877e-09
58	0x36b847ff	5.4920088e-06
59	0x37aa70e2	2.0318144e-05
60	0xb714b32a	-8.863202e-06
61	0x37b1389c	2.1126405e-05
62	0x800362b7	-3.10919e-40
63	0xb737f98e	-1.0965754e-05
64	0xb698588b	-4.5402608e-06
65	0xb6d46f37	-6.3310395e-06
66	0x35ddb9c2	1.6519846e-06
67	0x18a7e626	4.340088e-24
68	0x36937ba0	4.3953332e-06
69	0x3799f8e5	1.8354922e-05
70	0xb7013979	-7.702381e-06
71	0x3711be5c	8.686995e-06
72	0xb3dd9dd9	-1.0319827e-07
73	0xb6ba521f	-5.552792e-06
74	0x342a42fa	1.585685e-07
75	0xb78efd4e	-1.7045673e-05
76	0xb6f72495	-7.3654323e-06
77	0x37a036d9	1.9099027e-05
78	0xb55d8ea8	-8.253651e-07
79	0x2dbafb05	2.1257227e-11
80	0x36a4521a	4.8971388e-06
81	0x863a4931	-3.5036484e-35
82	0x375e1926	1.32380865e-05
83	0xb6ca54bc	-6.0299335e-06
84	0xb5278391	-6.24038e-07
85	0xb690a430	-4.3106484e-06
86	0xb75584f5	-1.2726746e-05
87	0xb6082dd9	-2.0292266e-06
88	0x376a3daa	1.3961844e-05
89	0xb6bec896	-5.6857925e-06
90	0xb74ab364	-1.2081906e-05
91	0xb6f9094b	-7.42186e-06
92	0xb73f8d2e	-1.1417358e-05
93	0x3778c57d	1.4827933e-05
94	0x38a7d9b0	8.003728e-05
95	0x361d58d6	2.3446532e-06
96	0x379918a3	1.8250494e-05
97	0x000067d7	3.7251e-41
98	0x36a393a7	4.8749675e-06
99	0x36caf55a	6.048632e-06
100	0x38cd4a21	9.788969e-05
101	0xb69ed4f1	-4.7335566e-06
102	0xb6835ade	-3.9146826e-06
103	0x37e8b136	2.7739075e-05
104	0x35466749	7.391105e-07
105	0x3808c6ea	3.261018e-05
106	0x352bf420	6.405771e-07
107	0x37ded7c0	2.6564929e-05
108	0x3607c0c3	2.022877e-06
109	0xb506d023	-5.022177e-07
110	0xa6d3a838	-1.4686662e-15
111	0x358b6196	1.0384708e-06
112	0x36907bf5	4.305965e-06
113	0x3728151f	1.0018498e-05
114	0x3617ac2f	2.2600977e-06
115	0x38152fc3	3.556885e-05
116	0x37949744	1.7713413e-05
117	0x372421c4	9.783023e-06
118	0xb701444b	-7.7049e-06
119	0x3540183c	7.156084e-07
120	0x37b9d2ff	2.2151971e-05
121	0xb8043dd6	-3.152884e-05
122	0x3673d18f	3.63318e-06
123	0x373daad6	1.1305054e-05
124	0x36ad3ee4	5.163123e-06
125	0xb777ae9f	-1.4763004e-05
126	0xb7c611ea	-2.3611781e-05
127	0xb44382cc	-1.8208374e-07
128	0xb7d2410c	-2.506424e-05
129	0xb462fc0d	-2.1139586e-07
130	0x383fa4b6	4.5691348e-05
131	0xb783faab	-1.5733143e-05
132	0x38085b87	3.251017e-05
133	0xb385e990	-6.23578e-08
134	0x36ba1d10	5.5466153e-06
135	0x369a0a73	4.590774e-06
136	0xb43a3a31	-1.734377e-07
137	0x35a176ee	1.2030048e-06
138	0xb6f9a372	-7.439806e-06
139	0x374698b3	1.1837273e-05
140	0x37b0cc27	2.10759e-05
141	0x36e65cfa	6.865358e-06
142	0xb7a8c4f0	-2.0118867e-05
143	0xb7515d81	-1.2479141e-05
144	0x3843a7e3	4.664798e-05
145	0x3594a10b	1.1073729e-06
146	0x361cbc21	2.3355317e-06
147	0xb5c5bac0	-1.4731995e-06
148	0x37ee82dd	2.8432749e-05
149	0x370384d7	7.839138e-06
150	0x36d7b3ed	6.4284454e-06
151	0xb79735f0	-1.802572e-05
152	0x37d120da	2.493004e-05
153	0x35c27a11	1.4489652e-06
154	0x00a80aa3	1.5432179e-38
155	0xb7c74fc1	-2.3759787e-05
156	0xb7289104	-1.0047344e-05
157	0xb6ccea28	-6.106933e-06
158	0x377e7f89	1.5169274e-05
159	0x37f6a4a5	2.9402154e-05

weight f4 [160, 192]
0	0xbca0ca32	-0.019627664
1	0xbcea0ecd	-0.02857151
2	0x3bfb4157	0.007667701
3	0x3aadc713	0.0013258181
4	0xbc7db27d	-0.015484449
5	0x3c0ed13e	0.008716879
6	0xbcbd3164	-0.02309484
7	0x3baee535	0.005337382
8	0xbb24e68a	-0.0025161826
9	0xbc10ceb4	-0.008838344
10	0xbc9c603a	-0.019088853
11	0xbcbf1d79	-0.023329483
12	0xba33a38e	-0.00068526797
13	0xbac8fc7c	-0.0015334035
14	0xbbf94fbf	-0.0076083834
15	0xbbe0a8e3	-0.0068560704
16	0x3b460c7f	0.003021985
17	0xba1761db	-0.00057747745
18	0xbd033938	-0.03203699
19	0xbc2bd40e	-0.0104875695
20	0x3b4bbdc2	0.0031088446
21	0xbb45af70	-0.0030164383
22	0xbd27f336	-0.04100343
23	0xbb719d4f	-0.0036867445
24	0xbcbd6014	-0.023117103
25	0xbc06d154	-0.008228619
26	0x3af327a9	0.0018551248
27	0xbb8ecdcb	-0.0043580285
28	0x3c3c761f	0.011502772
29	0x3c0e0874	0.008669008
30	0xba4db333	-0.0007846832
31	0xbc1abe61	-0.009444804
32	0xbc698f28	-0.0142553225
33	0xbbb69ae7	-0.005572665
34	0x3c893ea1	0.016753497
35	0x3b7dd1ff	0.0038729904
36	0x3a967e41	0.0011481718
37	0xbd340df0	-0.043958604
38	0xbc5c09c2	-0.013430061
39	0xb88de529	-6.766088e-05
40	0xbc252c35	-0.010081341
41	0xbb4b26a8	-0.0030998383
42	0xbc9cca5a	-0.019139457
43	0xbca18b63	-0.019719785
44	0xbc77dc04	-0.015128139
45	0x3b40eeaa	0.002943913
46	0xbb2fe901	-0.0026841762
47	0xbbfd840f	-0.00773669
48	0xbc100353	-0.008789855
49	0x3b9fada9	0.004872997
50	0xbaf40055	-0.0018615822
51	0x3becc552	0.007225671
52	0xbc967dd2	-0.018370543
53	0xbc1e80e6	-0.0096742865
54	0xbcf5e640	-0.030017018
55	0xbcbee84d	-0.023304129
56	0xbcdd912b	-0.02704676
57	0xbb66c565	-0.003521287
58	0xbcdbffc0	-0.02685535
59	0xbbfe4694	-0.0077598784
60	0xbbe4d62c	-0.006983539
61	0xb9c13914	-0.00036854355
62	0xbb9d4ad1	-0.0048001786
63	0xba9e3e32	-0.0012072979
64	0xbc7e74c7	-0.015530772
65	0x3a7b71d2	0.00095918507
66	0xbd8377bb	-0.06419321
67	0xbb1291a7	-0.0022364648
68	0xbbb306fe	-0.00546348
69	0xbb6d42f2	-0.0036203233
70	0xbc86524a	-0.01639666
71	0x39bcd166	0.00036014168
72	0xbbbf01eb	-0.005829086
73	0x3b1b6ebc	0.0023717126
74	0xbb0a3612	-0.0021089357
75	0x3bf92347	0.0076030823
76	0xbcded4be	-0.027201053
77	0xbcad95bb	-0.021189561
78	0x3c28048a	0.010254988
79	0xbb8d3eff	-0.0043104882
80	0xbb431997	-0.0029769891
81	0xbd00901e	-0.03138744
82	0xbb207b9c	-0.002448774
83	0xbd3933a9	-0.045215283
84	0x3a54980c	0.0008109815
85	0xbcf50df3	-0.029913878
86	0x3aa32e09	0.0012449633
87	0x3aa2b0c5	0.00124123
88	0xbd116ba8	-0.03550306
89	0x3b0829c6	0.0020776852
90	0xbbdb97be	-0.0067014387
91	0xbc81b7cd	-0.015834713
92	0xbba1953d	-0.0049311207
93	0xbc08d683	-0.008351925
94	0xbcd6b193	-0.02620772
95	0x3c7df7a0	0.015500933
96	0xbc555673	-0.013021099
97	0x3783fac0	1.5733181e-05
98	0xbc86ca68	-0.016453937
99	0xbc43fc41	-0.0119619975
100	0xbaf3279e	-0.0018551236
101	0x3bc56bef	0.0060248296
102	0xbc47bc40	-0.012190878
103	0x3ca193cf	0.019723801
104	0xbd65f7b5	-0.056144435
105	0xba6232eb	-0.0008628803
106	0x3bc935f4	0.006140465
107	0xbb9a8d92	-0.0047165835
108	0xbbcc42ba	-0.0062335404
109	0xba816c0b	-0.0009874118
110	0xbab899b4	-0.0014083893
111	0x3a48ade0	0.0007655304
112	0xbc198104	-0.009369139
113	0x3b599b91	0.0033204297
114	0xbad06a11	-0.0015900751
115	0xbc1dcb13	-0.009630936
116	0xbd64ca02	-0.055856712
117	0x3a7dcd02	0.00096817326
118	0xbb50964f	-0.0031827872
119	0xbc940606	-0.018069278
120	0xbc89cb3f	-0.016820548
121	0xbd2eaebd	-0.042647112
122	0x3ceb8881	0.028751614
123	0xbc21c335	-0.009873201
124	0xbce44196	-0.027863305
125	0x3b8f2781	0.004368723
126	0xba737df2	-0.00092884817
127	0xbc86e391	-0.016465934
128	0xba92fec6	-0.0011214844
129	0x3a738381	0.000928931
130	0xbb8f46c8	-0.0043724515
131	0xbb27809d	-0.0025558837
132	0xbc0b9bd9	-0.008521044
133	0xbb468a5c	-0.003029487
134	0xbd58d3ee	-0.052936487
135	0xba8d8c16	-0.0010799195
136	0xbd1e6c54	-0.03867753
137	0xbd10bc4b	-0.03533582
138	0xbabb6c97	-0.001429933
139	0xbc4d16cd	-0.012517643
140	0xbb8e28be	-0.004338353
141	0xba3457a8	-0.0006879517
142	0xbb9f14fd	-0.004854797
143	0x3c187d3a	0.0093072
144	0xbcb0d13e	-0.02158415
145	0xbdabb414	-0.083839566
146	0x3ab74b0b	0.0013984157
147	0x3b89203f	0.0041847522
148	0x3abd7c72	0.0014456643
149	0x3b029519	0.0019925295
150	0x3c0bd9c9	0.008535811
151	0xbbbd7e7c	-0.0057829004
152	0xbb129bf4	-0.0022370787
153	0xbbafe18f	-0.005367465
154	0xba7e6647	-0.00097045716
155	0x3ab89504	0.0014082496
156	0xbc837932	-0.016049001
157	0xbc57b621	-0.0131659815
158	0xbc267b97	-0.010161302
159	0xbbad85ac	-0.005295476
160	0xbc552bc1	-0.01301092
161	0xbc67b79c	-0.014142897
162	0xba08e7db	-0.00052225374
163	0xbba2c0c4	-0.004966827
164	0xba4ab2c9	-0.00077323295
165	0xbb882851	-0.0041551967
166	0xbc4e1425	-0.012578045
167	0x3d1a429b	0.037661176
168	0xba2d6e1f	-0.00066158356
169	0xbc28445f	-0.010270207
170	0xbcb70e6e	-0.022345748
171	0xbbe8ae47	-0.0071008536
172	0xbadd820b	-0.0016899718
173	0xbabe5f33	-0.0014524221
174	0xbc35d045	-0.011097019
175	0xbb80af39	-0.003927138
176	0x3b280027	0.0025634856
177	0xbb98d532	-0.0046640867
178	0x3a636aee	0.00086752966
179	0x3a6802f1	0.0008850536
180	0xbcc02e72	-0.023459647
181	0xbcda9587	-0.026682628
182	0xb8c6a40a	-9.4719304e-05
183	0x3b044526	0.0020182817
184	0x3b3ccebd	0.002880975
185	0xbd04e8b6	-0.032448493
186	0xbb94ea30	-0.004544519
187	0xbb9b8e19	-0.004747164
188	0xbc102dfa	-0.008800024
189	0xbb818416	-0.0039525134
190	0xbd009a2a	-0.031397022
191	0xbc59373e	-0.0132578
192	0xbbd945cc	-0.006630635
193	0xbbbd57d1	-0.005778291
194	0x3c53c516	0.012925407
195	0x3c93c884	0.01803995
196	0xbbc05a74	-0.005870158
197	0x3c60ee97	0.013728759
198	0xbbb4ce12	-0.0055177296
199	0xb87f9111	-6.093184e-05
200	0x3c83222a	0.016007502
201	0xbc7de44f	-0.015496328
202	0x3cb60a63	0.02222175
203	0xbb904d96	-0.00440378
204	0xbb78bb47	-0.0037953423
205	0x3853a895	5.0463324e-05
206	0xbb9bc57c	-0.0047537666
207	0xbb7913af	-0.0038006117
208	0x3d38ae83	0.045088302
209	0xb9f25fe0	-0.0004622927
210	0xbd238070	-0.03991741
211	0x3c818daa	0.015814621
212	0xbc0a7e1b	-0.008452917
213	0x3c943170	0.01808998
214	0xbd1a5438	-0.037677974
215	0x3d35985b	0.04433475
216	0xbbaa21be	-0.0051920107
217	0xbb371bad	-0.002794008
218	0x3c2f2b5e	0.010691492
219	0x3c3d16a0	0.011541039
220	0x3b926929	0.0044681025
221	0x3d055721	0.032553796
222	0x3c18bc5f	0.009322255
223	0xbd4f72d0	-0.050646603
224	0x3cd40dfe	0.025885578
225	0x3cf65e6c	0.03007432
226	0x3ccfbdaf	0.025359003
227	0x3cc65057	0.02420823
228	0xb81f8ccb	-3.8039678e-05
229	0xbc02f0e8	-0.007992007
230	0x3cd73bf4	0.026273705
231	0xbbc1319d	-0.005895807
232	0xbbb22d76	-0.0054375483
233	0x3c8d713a	0.017265905
234	0x3cd8cdee	0.026465382
235	0x3d2d9642	0.042379625
236	0x3ccf2a91	0.025288852
237	0x3c9b457c	0.018954031
238	0xbc059d42	-0.008155169
239	0xbc91c655	-0.017794767
240	0x3cba0eeb	0.022712192
241	0xbb71b05e	-0.0036878805
242	0x3c362348	0.01111681
243	0x3b5de70e	0.0033859643
244	0xbc3f8d3c	-0.011691388
245	0xbbae7d0d	-0.005324966
246	0xbc45141d	-0.012028721
247	0xbb17099d	-0.0023046501
248	0xbd0583ed	-0.032596517
249	0x3cc1d286	0.023659956
250	0xbbe34b33	-0.0069364547
251	0xbb93977d	-0.004504143
252	0xbba55c82	-0.005046428
253	0xbc210693	-0.009828228
254	0xbb229c3e	-0.0024812366
255	0x3c7cbf21	0.015426428

weight f4 [192]
0	0x3e305ecb	0.1722366
1	0x3e83c2dd	0.25734606
2	0x3d8bdea4	0.06829575
3	0x3e334c99	0.17509688
4	0x3e324b71	0.17411591
5	0x3e61303e	0.21991059
6	0x3e429f7b	0.1900615
7	0x3df3a4ba	0.118966535
8	0x3e60d296	0.21955332
9	0x3e71e355	0.23621877
10	0x3e65740c	0.2240755
11	0x3e3375cb	0.17525403
12	0x3d95d741	0.07316447
13	0x3e5c6e21	0.21526386
14	0x3e0ab959	0.13547267
15	0x3dddc97b	0.10829445
16	0x3e276756	0.16348013
17	0x3cfecdb5	0.031103948
18	0x3eaf5f74	0.34252512
19	0x3da34c30	0.07973516
20	0x3e204788	0.15652287
21	0x3e60efaf	0.21966432
22	0x3eac0d93	0.33604106
23	0x3e8517b8	0.25994658
24	0x3e3e2815	0.18569978
25	0x3e684b01	0.22684862
26	0x3d841465	0.064492024
27	0x3e36bd2d	0.17845602
28	0x3da747a3	0.081679605
29	0x3e58258d	0.21108074
30	0x3da5d416	0.08097093
31	0x3ee5be96	0.44871968
32	0x3e6029ff	0.2189102
33	0x3defdecf	0.11712419
34	0x3e972220	0.29518223
35	0x3e744f13	0.2385829
36	0x3e3c78f8	0.18405521
37	0x3e395a4f	0.18100856
38	0x3e58e23e	0.21180055
39	0x3de765c4	0.11298707
40	0x3e54180a	0.20712295
41	0x3e48b7cd	0.19601364
42	0x3e8116f6	0.2521283
43	0x3e77ca3f	0.24198245
44	0x3e4d3754	0.20040637
45	0x3e024537	0.12721716
46	0x3e3df965	0.18552168
47	0x3e1ab6d6	0.15108809
48	0x3e681db7	0.22667585
49	0x3e30c11a	0.17261162
50	0x3e5c7b69	0.21531452
51	0x3e3ac004	0.1823731
52	0x3e92ebb3	0.2869545
53	0x3e35c47b	0.17750733
54	0x3ead8957	0.33893844
55	0x3e2a481c	0.1662907
56	0x3e8def9d	0.27721873
57	0x3da83cd4	0.08214727
58	0x3e517f0f	0.20458625
59	0x3e329ae6	0.17441902
60	0x3e2044a4	0.15651184
61	0x3dbbb93a	0.091661885
62	0x3dc57bb6	0.096427366
63	0x3e74dda4	0.23912674
64	0x3e8a6049	0.27026585
65	0x3e0a07a5	0.13479479
66	0x3e4451d2	0.19171837
67	0x3e290fb6	0.165099
68	0x3e77956d	0.24178095
69	0x3e803dc6	0.2504713
70	0x3e8be9b7	0.27326748
71	0x3ddf7824	0.10911587
72	0x3e600119	0.21875419
73	0x3de8dfa8	0.11370784
74	0x3e9bd0f2	0.3043285
75	0x3e7bc4f0	0.24586844
76	0x3e4af164	0.19818646
77	0x3dd2a843	0.102859996
78	0x3e303f0f	0.17211555
79	0x3e883155	0.26600137
80	0x3e3bafe4	0.18328816
81	0x3e06313f	0.13104723
82	0x3e2f2f0b	0.17107789
83	0x3e78e2cb	0.24305265
84	0x3d1e9df8	0.03872487
85	0x3e8b0a76	0.2715642
86	0x3d7cfb5a	0.061763145
87	0x3dee811a	0.11645718
88	0x3e440476	0.19142327
89	0x3e2f974a	0.17147556
90	0x3e7e6cfb	0.2484626
91	0x3def76ac	0.11692557
92	0x3e662672	0.22475603
93	0x3ecdd58d	0.4020199
94	0x3e266cca	0.16252437
95	0x3d8ca65c	0.06867668
96	0x3de506c9	0.11182935
97	0x3d02b335	0.031909186
98	0x3e09d740	0.13461018
99	0x3e79992a	0.24374834
100	0x3dbabd6c	0.091181606
101	0x3eb48567	0.35258028
102	0x3e710735	0.23537906
103	0x3e58ba7d	0.2116489
104	0x3e874f76	0.2642781
105	0x3e3df5a1	0.18550731
106	0x3ddb9498	0.107217014
107	0x3e0aba3a	0.13547602
108	0x3e1c1cd2	0.15245369
109	0x3e15d531	0.14632107
110	0x3ddab5a6	0.10679178
111	0x3e85b0fa	0.26111585
112	0x3db4c171	0.088259585
113	0x3e3b49e2	0.18289903
114	0x3dc40037	0.095703535
115	0x3da4a9a2	0.080401674
116	0x3e3a660e	0.18202993
117	0x3d81bdea	0.06335051
118	0x3e2da14a	0.16956058
119	0x3ee658d9	0.4498966
120	0x3df487c8	0.11939961
121	0x3ece4077	0.40283558
122	0x3e17f1c2	0.14838317
123	0x3e09b5bf	0.13448237
124	0x3e3b0ccb	0.18266599
125	0x3e8479b9	0.25874117
126	0x3e2aaea0	0.16668177
127	0x3e8284be	0.254919
128	0x3e172421	0.14759876
129	0x3dbaacf1	0.09115017
130	0x3e18cbcb	0.14921491
131	0x3e7c3cb3	0.2463253
132	0x3e71450d	0.23561497
133	0x3da2beaf	0.07946526
134	0x3ead8f25	0.33898273
135	0x3e253e04	0.16136938
136	0x3e96fb4f	0.29488608
137	0x3e8ba93f	0.27277562
138	0x3dba87a3	0.09107902
139	0x3df8e33e	0.12152718
140	0x3e0842d5	0.13306744
141	0x3df3beea	0.11901648
142	0x3dd20b09	0.10256011
143	0x3e89f806	0.2694704
144	0x3e969e75	0.29417768
145	0x3ee3a228	0.44459653
146	0x3df4a0e1	0.11944748
147	0x3d6d04f6	0.05786606
148	0x3e02aa9a	0.12760392
149	0x3e1ed9a2	0.15512708
150	0x3ecf7ee4	0.40526497
151	0x3def2119	0.11676235
152	0x3d9674fa	0.0734653
153	0x3e184196	0.14868769
154	0x3de7505a	0.11294623
155	0x3d9b6925	0.07588414
156	0x3eac5ac5	0.33663002
157	0x3e28ca52	0.16483429
158	0x3e3900f2	0.18066767
159	0x3e0c7d21	0.13719608
160	0x3e41085e	0.18850848
161	0x3e55163c	0.20809263
162	0x3d230b67	0.039805796
163	0x3e0fab50	0.14030194
164	0x3e1bc0ee	0.15210316
165	0x3e342466	0.1759201
166	0x3ebf1f55	0.37328592
167	0x3ec8bb09	0.39205196
168	0x3e0e0daa	0.138724
169	0x3e7eaa47	0.24869643
170	0x3e2ef40e	0.17085287
171	0x3da8ef88	0.08248812
172	0x3dddb5de	0.10825704
173	0x3e531d91	0.20616747
174	0x3da3a040	0.0798955
175	0x3e03509e	0.12823722
176	0x3e415874	0.18881398
177	0x3debfd44	0.11522916
178	0x3e56263a	0.2091302
179	0x3e0de800	0.13858032
180	0x3dcff3e4	0.1015394
181	0x3e4511b2	0.19245031
182	0x3d12b21a	0.035814382
183	0x3d906155	0.070498146
184	0x3e17afb0	0.14813113
185	0x3e9d1b42	0.3068486
186	0x3e940403	0.2890931
187	0x3dfb2f4c	0.122648805
188	0x3eca6eeb	0.3953775
189	0x3e3ed972	0.18637636
190	0x3e915554	0.28385413
191	0x3e7e5c34	0.2483986

bias f4 [192]
0	0xbd7a2e28	-0.061079174
1	0xbdfeebb2	-0.12447299
2	0xbcabb100	-0.020958424
3	0xbdd522e7	-0.10407048
4	0xbdd07fa3	-0.10180595
5	0x3e11b0f4	0.14227659
6	0xbddf4ff9	-0.109039254
7	0xbdd3bc05	-0.10338596
8	0xbe58edf7	-0.21184526
9	0x3e1eb7fb	0.1549987
10	0x3d4eb1d0	0.050462544
11	0xbe09379e	-0.13400123
12	0xbdb124f3	-0.08649626
13	0xbe893704	-0.26799786
14	0xbdb25893	-0.087083004
15	0xbdbb983e	-0.09159897
16	0x3ddd44d6	0.10804145
17	0xbd4254c4	-0.04744412
18	0xbcfad664	-0.030619808
19	0x3d8e9c16	0.06963365
20	0xbe431cd5	-0.19053967
21	0xbdcf7fa5	-0.10131768
22	0xbd48663a	-0.048925616
23	0xbcb79808	-0.022411361
24	0xbdff8d90	-0.12478173
25	0xbe9b5964	-0.30341637
26	0x3c70858f	0.01468028
27	0xbc96a450	-0.018388897
28	0x3e01f41f	0.12690781
29	0xbbfd3592	-0.0077273333
30	0xbba050c5	-0.004892441
31	0x3e77bb4b	0.2419254
32	0x3d8c22f5	0.06842605
33	0x3d02ec4a	0.031963624
34	0xbe2de59f	-0.16982125
35	0x3e17723d	0.14789672
36	0xbe7c6c76	-0.2465075
37	0xbdf25fb0	-0.11834657
38	0xbd85faab	-0.06541952
39	0xbe3aaec4	-0.1823073
40	0xbe19e320	-0.15028048
41	0xbe0679e6	-0.13132438
42	0x3daa8d20	0.08327699
43	0x3d8f6463	0.07001569
44	0x3d691484	0.05690433
45	0xbc1de23e	-0.00963646
46	0xbe04e27f	-0.12977026
47	0x3d1e7dea	0.0386943
48	0x3c522dcf	0.012828304
49	0xbe01b289	-0.12665762
50	0xbe4d553c	-0.20052046
51	0xbd152356	-0.036410652
52	0xbe2e03c0	-0.16993618
53	0xbc161db2	-0.009162353
54	0xbe27f623	-0.16402487
55	0xbda5de56	-0.08099048
56	0xbcde3507	-0.027124895
57	0x3c98726d	0.01860925
58	0xbd90c59b	-0.0706894
59	0xbdb2cf80	-0.08730984
60	0xbda86d88	-0.082240164
61	0x3ccaa111	0.024735006
62	0xbe15e37d	-0.14637561
63	0xbe4dbb9f	-0.20091103
64	0xbd33046f	-0.0437054
65	0xbdc498ac	-0.09599432
66	0xbd5a4b35	-0.05329438
67	0xbe56fa3c	-0.20993894
68	0xbe0d0d9a	-0.1377472
69	0xbe38eac1	-0.18058302
70	0x3e1f26c8	0.15542138
71	0xbb277786	-0.002555342
72	0xbd9fe46a	-0.078072384
73	0xbe4893b3	-0.19587593
74	0xbc2c7e3e	-0.010528145
75	0x3e15b814	0.14621001
76	0x3d83aa53	0.06428971
77	0x3e2d69cf	0.16934894
78	0x3e003b7d	0.12522693
79	0xbe3672cf	-0.17817234
80	0xbe3c5428	-0.18391478
81	0x3cffd84f	0.031231074
82	0xbc5327b3	-0.012887883
83	0xbe07d140	-0.13263416
84	0xbd8ef614	-0.069805294
85	0x3e43cd59	0.19121303
86	0xbd7514d0	-0.0598343
87	0xbd540ec4	-0.051771894
88	0xbdbfa62c	-0.09357867
89	0xbe7c7c46	-0.24656782
90	0xbecfa283	-0.40553674
91	0xbd86b006	-0.065765426
92	0x3d9af7cc	0.07566795
93	0x3d91aaad	0.07112632
94	0xbd8a79bc	-0.067615
95	0x3d9db45b	0.07700416
96	0xbda4f938	-0.08055347
97	0xbd2f873e	-0.042853586
98	0x3d25056e	0.04028838
99	0xbe1450d3	-0.14483957
100	0xbdaddcf9	-0.08489413
101	0x3e35338b	0.17695443
102	0xbc014053	-0.007888871
103	0xbd29ba1f	-0.041437265
104	0xbde0a6d8	-0.10969323
105	0xbe112008	-0.14172375
106	0x3da4b9a8	0.080432236
107	0xbd5c512c	-0.05378835
108	0xbdffac6f	-0.12484061
109	0xbc472255	-0.0121541815
110	0x3dfd4f0d	0.12368593
111	0x3d95fe33	0.07323875
112	0xbd6fcd73	-0.05854554
113	0x3dc048bf	0.09388875
114	0xbe01f032	-0.12689283
115	0xbce486d6	-0.027896326
116	0x3cd99e41	0.02656472
117	0xbd9db3d0	-0.07700312
118	0xbe71345b	-0.23555128
119	0x3dc48fa8	0.09597713
120	0x3caba38a	0.020952005
121	0xbd5e2f41	-0.054244284
122	0x3e1efbc5	0.1552573
123	0xbd837768	-0.06419259
124	0x3d65138c	0.055926844
125	0xbc9f3b4a	-0.01943745
126	0xbe88f8ec	-0.26752412
127	0x3d939a01	0.07207108
128	0xbdafe72c	-0.085890144
129	0xbe257a63	-0.16159968
130	0xbe05aecc	-0.13054961
131	0x3d9cc4ae	0.07654701
132	0x3d874905	0.06605724
133	0xbc83d923	-0.01609475
134	0xbdb6d3ef	-0.08927142
135	0xbe8496c4	-0.25896275
136	0xbe188733	-0.14895324
137	0xbd5082e7	-0.05090609
138	0xbd8c484b	-0.06849726
139	0x3d798dc6	0.06092622
140	0x3c106dd3	0.008815247
141	0xbe457fc7	-0.19287024
142	0xbc42bb8d	-0.011885536
143	0xbe5813c2	-0.21101287
144	0x3e4e7a55	0.20163853
145	0x3e3b3ab7	0.18284117
146	0xbd8b06e0	-0.06788421
147	0x3c5490ab	0.012973945
148	0xbe0f7e31	-0.14012982
149	0xbe83260b	-0.25614962
150	0x3db59fa7	0.08868342
151	0xbdf42772	-0.11921586
152	0xbd00dc19	-0.0314599
153	0xbe3c7b4c	-0.18406409
154	0xbe1a621e	-0.15076491
155	0xbd3a4aa7	-0.04548135
156	0x3dcf80e0	0.10132003
157	0x3d4e8a3c	0.0504248
158	0x3d4a69dc	0.04941736
159	0xbe377609	-0.1791612
160	0x3e1b28be	0.1515226
161	0xbc8633c1	-0.0163821
162	0x3e03fc3f	0.12889193
163	0xbdf2eedc	-0.11861965
164	0xbe27d4bc	-0.16389745
165	0x3d741c17	0.0595971
166	0xbd70f749	-0.05882958
167	0x3e18492c	0.14871663
168	0xbc43151b	-0.011906887
169	0xbd641466	-0.055683516
170	0xbd9ad5ae	-0.075602874
171	0x3c876694	0.016528405
172	0xbe495a39	-0.19663323
173	0xbe8c0257	-0.27345535
174	0x3d274c4d	0.04084425
175	0xbd962d36	-0.07332842
176	0xbe807237	-0.2508714
177	0x3d199c23	0.03750242
178	0xbe829e57	-0.2551143
179	0xbd833b80	-0.06407833
180	0x3b097309	0.0020973107
181	0xbcccfb22	-0.025022093
182	0xbd8cbb40	-0.068716526
183	0xbda781dc	-0.081790656
184	0xbe07bc4d	-0.13255425
185	0xbe1ec657	-0.15505348
186	0xbc922015	-0.017837564
187	0xbc9366ae	-0.017993297
188	0x3e49ced6	0.19707808
189	0xbc518d7e	-0.012790082
190	0xbe1d7f6d	-0.1538064
191	0xbe1f29c4	-0.15543276
