Graph Neural Network/Models/RG2 1.pth (torch, 322256 bytes, 21 tensors)

weight f4 [128, 128]
0	0x3d21f844	0.039543405
1	0x3c7906f4	0.015199412
2	0x3c48b6e1	0.012250633
3	0xbdab3a52	-0.08360733
4	0x3d863b44	0.06554273
5	0xbdba2290	-0.090886235
6	0x3d799a0f	0.060937937
7	0xbda917a3	-0.082564615
8	0xbdb84cd6	-0.0899903
9	0xbd8f9cc1	-0.0701232
10	0x3d6e3efc	0.058165535
11	0x3d1adeca	0.037810124
12	0xbdc576f2	-0.09641828
13	0x3c620416	0.0137949195
14	0xbdbc12eb	-0.09183296
15	0x3c74e10b	0.014946233
16	0xbccbf4be	-0.024896976
17	0xbd4fd575	-0.050740678
18	0xbd32b556	-0.043629967
19	0x3cf8c738	0.030368432
20	0xbdb85c30	-0.09001958
21	0xbce4d899	-0.027935313
22	0x3ce74b4e	0.02823415
23	0x3d959c51	0.073052056
24	0xbc7d2faf	-0.015453263
25	0xbb105a2b	-0.00220264
26	0xbd07a444	-0.03311564
27	0xbcd2cf3a	-0.025733579
28	0xbdaedb1e	-0.08537887
29	0xbd901586	-0.07035355
30	0x3cc422a8	0.023942307
31	0xbdbde036	-0.092712805
32	0xbd9ba1e9	-0.07599241
33	0xbcf917cf	-0.03040686
34	0xbd8280d7	-0.063722305
35	0x3d8445bf	0.064586155
36	0xbd818897	-0.063248806
37	0xbd3dee8a	-0.046370067
38	0xbd018671	-0.031622354
39	0xbc1cf1e7	-0.009579158
40	0x3d6f3368	0.058398634
41	0x3cd15f02	0.025557999
42	0xbd9a5332	-0.075353995
43	0x3ce00cfc	0.027349941
44	0xbb966f63	-0.004590915
45	0x3c44e83e	0.0120182615
46	0xbd2fca55	-0.04291757
47	0xbd8ebb03	-0.069692634
48	0x3d93c3c1	0.072150715
49	0xbd2f0534	-0.04272957
50	0x3cfdcf6a	0.030982692
51	0xbdc653c8	-0.09683949
52	0xbd554f82	-0.052077778
53	0x3d4ac3c0	0.049503088
54	0x3d99e429	0.07514221
55	0xbd860508	-0.065439284
56	0xbbd0b6c4	-0.0063694436
57	0x3d6070e2	0.054795153
58	0xbd9e1aeb	-0.07719978
59	0xba7c4b65	-0.0009624272
60	0x3d88f736	0.06687777
61	0xbdafe61f	-0.08588814
62	0x3cfd4e93	0.030921256
63	0xbda5ea92	-0.08101381
64	0xbcbba2bc	-0.022904746
65	0x3d782aef	0.06058782
66	0xbd22a3c6	-0.039706968
67	0xbc274dc7	-0.010211415
68	0x3d434457	0.047672596
69	0xbd791f62	-0.060820945
70	0x3d8ee58d	0.06977377
71	0x3ce7928b	0.02826812
72	0xbd063e7a	-0.032774426
73	0xbd790182	-0.060792454
74	0xbdc09b14	-0.09404579
75	0xbd2f165e	-0.04274594
76	0x3d731c3f	0.05935311
77	0xbd4bb20f	-0.049730357
78	0xbdacbf36	-0.08434908
79	0x3d9c70a7	0.07638674
80	0xbbdd3b97	-0.0067514884
81	0xbcc18a63	-0.023625558
82	0xbdae9e1b	-0.0852625
83	0xbd0c4e5b	-0.034254413
84	0xba2c0231	-0.0006561606
85	0x3cec255f	0.028826414
86	0x3b96a126	0.004596847
87	0x3d976879	0.073929735
88	0xbd505695	-0.05086382
89	0xbdacad26	-0.08431463
90	0x3c956ad5	0.018239418
91	0x3cf435e2	0.02981085
92	0xbd805206	-0.06265645
93	0x3d84d5e2	0.064861074
94	0xbc82e058	-0.015976116
95	0xbccea896	-0.025226872
96	0x3d19efb5	0.037582118
97	0xbc58c7b4	-0.013231207
98	0xbbf89b93	-0.0075869053
99	0xbd892a5e	-0.06697534
100	0xbd627441	-0.05528665
101	0xbdbaea73	-0.09126749
102	0xbd8abfde	-0.06774877
103	0xbdb0bfe3	-0.086303495
104	0x3cf9d428	0.030496672
105	0xbcdc12ca	-0.026864428
106	0xbd88dca4	-0.06682709
107	0xbd1bb55b	-0.03801475
108	0xbcd98945	-0.026554713
109	0x3d9567b5	0.07295171
110	0x3d94583f	0.07243394
111	0x3d44998d	0.047998
112	0xbc0f636f	-0.008751734
113	0xbd365848	-0.044517785
114	0xbd56671d	-0.05234443
115	0xbc91d8b8	-0.017803535
116	0x3cb0a710	0.021564037
117	0x3d68eb98	0.056865305
118	0x3d12cb4b	0.035838407
119	0xbd4d9c70	-0.05019802
120	0x3d947cb9	0.072503515
121	0xbd9e2266	-0.07721405
122	0x3d131a2a	0.035913624
123	0xbd50f225	-0.051012177
124	0xbdc5829e	-0.09644054
125	0xbdb63857	-0.08897465
126	0xbdb16603	-0.08662035
127	0xbd8112af	-0.06302392
128	0xbd952ab6	-0.07283537
129	0x3daf2699	0.08552284
130	0x3db2d595	0.08732144
131	0x3d86e094	0.06585804
132	0xbd9e6315	-0.07733742
133	0xbd73a630	-0.05948466
134	0xbc367ef4	-0.011138666
135	0x3da626b5	0.081128515
136	0x3d81c314	0.06336036
137	0xbcdf0a47	-0.02722658
138	0x3d12f46c	0.03587763
139	0x3d0028f8	0.03128907
140	0xbd0301b4	-0.031984046
141	0x3d54b90c	0.051934287
142	0x3d95751e	0.07297729
143	0x3cdc04de	0.02685779
144	0x3c478852	0.012178497
145	0x3da31c35	0.079643644
146	0xbd98ca5f	-0.07460474
147	0x3d2f55bf	0.042806383
148	0x3d342303	0.043978702
149	0x3d524853	0.051338505
150	0x3d259d11	0.040432993
151	0x39bd730e	0.00036134612
152	0x3cbba090	0.02290371
153	0x3cdc15ca	0.026865859
154	0x3cf09714	0.029368915
155	0x3a490275	0.00076679076
156	0xbc566d91	-0.013087646
157	0x3da31855	0.07963625
158	0x3db6ae29	0.08919937
159	0xbaf5e94d	-0.0018761546
160	0x3cfa52d8	0.030557081
161	0x3db4ede1	0.08834434
162	0x3cdece9b	0.027198127
163	0x3d8e9c83	0.06963446
164	0xbcca69f3	-0.024708724
165	0xbd904f84	-0.070464164
166	0xbd9baed4	-0.07601705
167	0xbd8d2e18	-0.06893557
168	0x3c6cfdce	0.014464809
169	0x3c7d6330	0.015465543
170	0x3d5472eb	0.051867407
171	0x3d851647	0.0649839
172	0x3da1ae3d	0.078945614
173	0xbc08fccb	-0.008361052
174	0xbcf73577	-0.030176861
175	0x3c4b2de3	0.012401077
176	0x3d65e021	0.05612195
177	0x3d110e5a	0.035414077
178	0x3cc3eefb	0.023917666
179	0xbd8ba285	-0.068181075
180	0x3d3ff053	0.04686005
181	0x3c6b83e9	0.014374712
182	0x3db69461	0.0891502
183	0x3cff6353	0.031175291
184	0x3db650c9	0.08902127
185	0x3b384f96	0.0028123609
186	0x3d396a2f	0.04526728
187	0xbd6fbf56	-0.05853208
188	0x3d749d72	0.059720464
189	0x3d5e0bb9	0.0542104
190	0x3da0a465	0.07843856
191	0xbd510567	-0.051030543
192	0x3ce71865	0.028209874
193	0x3bf554e8	0.0074869283
194	0x3d93f8ca	0.07225187
195	0x3d9796b5	0.07401792
196	0x3d0cf86d	0.034416605
197	0xbbf23134	-0.0073911194
198	0xbd5c49d1	-0.053781334
199	0x3d4f960c	0.050680205
200	0xbd0862d8	-0.03329739
201	0x3d105f7e	0.03524732
202	0x3d925759	0.071455665
203	0x3dae164d	0.08500347
204	0xbd871d35	-0.06597368
205	0x3c5f597d	0.0136321755
206	0xbcd7af3e	-0.02632868
207	0xbd897a71	-0.06712807
208	0x3d01c5c5	0.03168275
209	0xbcda911c	-0.026680522
210	0x3d11f3ba	0.035632826
211	0x3cb3ff6f	0.021972386
212	0x3d055f4a	0.032561578
213	0x3dacdae9	0.08440191
214	0xbd4c291c	-0.049843892
215	0x3d1c2c88	0.038128406
216	0x3db2b3db	0.08725711
217	0x3d42a4c3	0.04752041
218	0x3cdf05f4	0.027224518
219	0xbc3bd73b	-0.011464889
220	0xbd5ae049	-0.05343655
221	0xbd6c9a0e	-0.057764105
222	0xbbec7ca1	-0.0072170054
223	0xbcfc40db	-0.030792644
224	0xbd3549d3	-0.044259857
225	0x3d02ee54	0.03196557
226	0xbd2b819b	-0.04187165
227	0xbdb25c41	-0.08709002
228	0x3c7238aa	0.014784018
229	0xbd96f9cc	-0.07371864
230	0x3d946b16	0.072469875
231	0x3ce0ab7d	0.027425522
232	0x3ce79163	0.028267568
233	0x3cd7d336	0.02634583
234	0xbbee6d9c	-0.00727625
235	0x3d52e68d	0.0514894
236	0x3d970436	0.0737385
237	0x3d745c1c	0.059658155
238	0xbd96b937	-0.07359546
239	0x3a34ee15	0.0006901932
240	0x3b5f35ac	0.003405909
241	0xbda360c2	-0.079774395
242	0xbd8519e5	-0.064990796
243	0x3d16f402	0.036853798
244	0xbd051525	-0.032490868
245	0xbd92b995	-0.07164303
246	0xbd33bdac	-0.043882057
247	0x3db0b92d	0.086290695
248	0x3d6c8518	0.057744116
249	0xbd7c6901	-0.061623577
250	0xbd1055be	-0.03523802
251	0x3d0d5e85	0.03451397
252	0xbcbf1ee2	-0.023330156
253	0x3d16dee0	0.036833644
254	0x3d67642f	0.056492027
255	0x3d855f76	0.06512348

bias f4 [128]
0	0x3d249553	0.04018147
1	0xbd530b90	-0.0515247
2	0x3cba9a5d	0.022778684
3	0x3d500957	0.050790157
4	0xbc3f77f6	-0.011686316
5	0x3db25976	0.087084696
6	0xbcf79673	-0.030223107
7	0x3d0931ab	0.033494633
8	0xbdbb2733	-0.09138336
9	0xbb97a38c	-0.0046276506
10	0x3d36f097	0.044663038
11	0x3c80a4ef	0.015703646
12	0x3d46fb6a	0.04857961
13	0x3d4ce5c6	0.050023817
14	0x3d9f24ec	0.07770714
15	0xbd6b6f10	-0.057478964
16	0x3d6223b5	0.055209834
17	0x3d863605	0.06553272
18	0x3d16c4dc	0.036808833
19	0xbc1053d5	-0.00880905
20	0x3b5cab2b	0.003367136
21	0xbcd238b9	-0.025661813
22	0x3da5a7cb	0.080886446
23	0x3ce98e4a	0.028510232
24	0xbd0de7b2	-0.03464479
25	0xbd85f325	-0.06540517
26	0xbd9691cd	-0.07352028
27	0x3cdc67cb	0.026904961
28	0x3d0245db	0.0318049
29	0xbd43e2c1	-0.04782367
30	0xbce411c1	-0.027840497
31	0xbd5872d1	-0.052843872
32	0xbd5f5f10	-0.054534018
33	0x3da11cec	0.078668445
34	0xbbe039f5	-0.0068428465
35	0x3ca3298f	0.019917278
36	0xbd8de4d0	-0.06928408
37	0xbdb594fa	-0.08866306
38	0xbdaae49c	-0.08344385
39	0xbdb6065e	-0.08887933
40	0x3d7f8c09	0.062389407
41	0xbcbfca71	-0.023411961
42	0xbcf7d48f	-0.030252723
43	0xbc97e949	-0.018543856
44	0xbd4a4e2a	-0.04939095
45	0x3c8355d1	0.016032131
46	0xbd8e4039	-0.06945843
47	0xbd1403e5	-0.036136527
48	0xbd94c983	-0.07264998
49	0x3be7a107	0.0070687565
50	0x3a65d6f3	0.00087676867
51	0xbcebd39b	-0.028787425
52	0x3d9ad2b1	0.075597174
53	0xbcbf3231	-0.023339363
54	0xbccbac20	-0.024862349
55	0xbc697e0c	-0.014251243
56	0xbdc407e2	-0.09571816
57	0xbd5a5ca2	-0.053310998
58	0xbd9306e0	-0.07179046
59	0xbcc15292	-0.023598943
60	0x3d10a0ec	0.035309717
61	0x3d8789f6	0.06618111
62	0x3da608d5	0.08107153
63	0x3d141ec6	0.03616216
64	0x3da4bde6	0.08044033
65	0xbc9fce72	-0.01950762
66	0xbd1417f9	-0.036155675
67	0xbd11cad9	-0.03559384
68	0x3d4fb593	0.050710272
69	0xbd84f0a8	-0.06491214
70	0x3da382ad	0.07983909
71	0x3b99ba7e	0.004691421
72	0xbd37fec9	-0.044920716
73	0x3d942991	0.07234491
74	0xbcba6784	-0.022754438
75	0x3cb8d942	0.022564534
76	0xbdaa6539	-0.08320088
77	0xbd06bfcc	-0.032897756
78	0x3bf59f80	0.0074958205
79	0xbcb95f90	-0.022628576
80	0xbcfb9c25	-0.030714104
81	0xbd9d4a54	-0.076801926
82	0xbdbc8d75	-0.09206668
83	0xbdb36968	-0.08760339
84	0x3d4e7d5a	0.050412513
85	0xbd48bef3	-0.04901023
86	0xbda2cf01	-0.07949639
87	0x3d2fa468	0.0428814
88	0xbd0a009e	-0.033691995
89	0x3d369eff	0.044585224
90	0xbd900562	-0.07032277
91	0x3d5369f7	0.051614728
92	0x3d45d06e	0.048294477
93	0xbd567168	-0.052354246
94	0xbc2894c2	-0.010289373
95	0xbd00e848	-0.03147152
96	0xbccb090d	-0.02478459
97	0x3ce2638d	0.02763536
98	0x3ca6af68	0.020347312
99	0xbd40c14f	-0.047059353
100	0xbd87928e	-0.0661975
101	0xbd3dd705	-0.046347637
102	0xbbe07e0c	-0.0068509635
103	0xbb91b4ca	-0.0044466006
104	0xbd35ee6d	-0.044416834
105	0xbc967ce3	-0.018370098
106	0x3d856624	0.065136224
107	0xbc2b7b08	-0.010466345
108	0x3bfc73d0	0.0077042356
109	0xbd9b7e7c	-0.07592484
110	0xbd6f0a3b	-0.058359366
111	0x3d26ad23	0.04069246
112	0xbd6c2dcf	-0.057660874
113	0xbd0fb3b7	-0.0350835
114	0x3d6a0dd1	0.057142083
115	0xbb977e1d	-0.004623188
116	0xbc82a740	-0.015948892
117	0x3d7650b4	0.06013556
118	0x3d22bcc9	0.03973082
119	0xbcfde7bf	-0.030994294
120	0x3c4aaf22	0.0123708565
121	0x3da4f3c8	0.0805431
122	0x3cb929c5	0.022602925
123	0x3c8e0c04	0.017339714
124	0xbba5c192	-0.005058476
125	0xbda362dc	-0.0797784
126	0x3d71e452	0.059055634
127	0xbc526a97	-0.012842796

weight f4 [128, 128]
0	0x3c9e9d9d	0.019362265
1	0xbdc336f7	-0.09531968
2	0x3d8c7d04	0.06859782
3	0x3d7c4a35	0.061594207
4	0x3ce3159a	0.027720261
5	0x3da10488	0.078621924
6	0xbcbbd520	-0.022928774
7	0xbda14b1d	-0.07875655
8	0xbda50158	-0.08056897
9	0x3b119279	0.0022212549
10	0xbcf245f4	-0.029574372
11	0xbdbecf96	-0.093169376
12	0x3d931c44	0.071831256
13	0x3cf4db11	0.029889615
14	0x3d9a588e	0.07536422
15	0xbda2c70d	-0.07948122
16	0xbdb06ef5	-0.086149134
17	0xbd4d748d	-0.05015998
18	0x3c991d6d	0.01869079
19	0xbd2c1a7a	-0.042017438
20	0xbd0af20c	-0.03392224
21	0xbd0be572	-0.034154363
22	0xbd3639da	-0.044488765
23	0x3c85f0d8	0.016350195
24	0xbc6e921f	-0.014561205
25	0xbc9e6db4	-0.01933942
26	0xbc040165	-0.008056973
27	0xbca8993e	-0.020580884
28	0x3d173b78	0.03692195
29	0xbc73490b	-0.014848958
30	0x3d18cc0d	0.037303973
31	0x3c084026	0.008316075
32	0x3d89a277	0.06720441
33	0x3cf50ca5	0.029913256
34	0xbd3ad2b3	-0.045611095
35	0xbdc03265	-0.09384612
36	0xbd32fdef	-0.0436992
37	0x3d568d33	0.05238075
38	0xbd254ff3	-0.04035945
39	0xbce656d0	-0.028117567
40	0xbdbcf4e7	-0.09226399
41	0x3c34debb	0.011039431
42	0xbd8ab6f1	-0.067731746
43	0xbdb087a5	-0.08619622
44	0x3d540ba6	0.05176892
45	0xbdc2c925	-0.095110215
46	0x3cb897d9	0.022533344
47	0xbb304d78	-0.0026901644
48	0x3d6c5c7b	0.057705384
49	0xbdc2c2fe	-0.09509848
50	0xbb88673b	-0.0041626967
51	0x3c6d3ad9	0.014479362
52	0x3d90c473	0.0706872
53	0x3ab9456c	0.0014135069
54	0xbbd54b20	-0.0065091997
55	0xbd141eb4	-0.036162093
56	0xbd841f46	-0.064512774
57	0x3ccd0e87	0.025031341
58	0xbdb977db	-0.09056064
59	0xbd6a718b	-0.05723719
60	0x3b65cf5a	0.0035066218
61	0xbc689d46	-0.014197653
62	0xbd49b489	-0.049244437
63	0x3d8d6d5a	0.06905623
64	0xbdbb5f36	-0.091490194
65	0xbdb4ba5f	-0.0882461
66	0xbdbd8b54	-0.0925509
67	0xbdc6d372	-0.09708299
68	0xbd6f0bd1	-0.05836088
69	0xbcb91702	-0.022593979
70	0x3d94b392	0.07260813
71	0xbd112daa	-0.03544394
72	0xbcdfd813	-0.027324712
73	0x3d39369c	0.045218095
74	0xbd954c82	-0.07289983
75	0xbd9bbff7	-0.07604974
76	0x3d0eb1aa	0.034837402
77	0x3d999755	0.074995674
78	0xbd98f182	-0.07467939
79	0xbd499f56	-0.04922422
80	0x3ba016f0	0.004885547
81	0xbd6d1886	-0.057884715
82	0xbc8b657f	-0.01701617
83	0x3d43f6a5	0.04784264
84	0xbd5f6cb5	-0.05454703
85	0xba555bc0	-0.0008138977
86	0xbd891971	-0.06694306
87	0xbd21b9e3	-0.039483916
88	0x3d852143	0.06500485
89	0x3d9d61a5	0.0768464
90	0xbd1975f9	-0.037466023
91	0xbd196fe5	-0.037460227
92	0xbd0f9977	-0.035058465
93	0x3d56e810	0.052467406
94	0x3b9bf0dc	0.0047589373
95	0x3d1a047c	0.037601933
96	0xbcf6cf0d	-0.030128026
97	0xbd80aa56	-0.06282489
98	0xbdaa9272	-0.083287135
99	0x3cda6f48	0.026664391
100	0xbd6851e8	-0.056718737
101	0x3d2a4df1	0.041578237
102	0xbc3375f3	-0.010953414
103	0x3ce9d69d	0.028544718
104	0xbd6d40aa	-0.057922997
105	0xbd485e96	-0.04891833
106	0xbcbc1a72	-0.022961829
107	0x3d3cd322	0.04609979
108	0x3d4c248f	0.049839552
109	0xbd869e80	-0.065732
110	0x3d4ece8d	0.05048995
111	0xb9e0dfa2	-0.0004289123
112	0xbda417cf	-0.08012354
113	0x3c95139c	0.018197827
114	0xbdaa23af	-0.08307587
115	0xbb355da8	-0.0027674232
116	0xbd279bfe	-0.04092025
117	0xbcb97dc0	-0.02264297
118	0xbd983247	-0.07431465
119	0x3d71c577	0.059026208
120	0x3d875064	0.0660713
121	0xbd68c96f	-0.056832727
122	0xbd93420d	-0.071903326
123	0xbd786334	-0.060641482
124	0xbdb6d116	-0.08926599
125	0xbda5a0da	-0.080873206
126	0xbd2b58dc	-0.04183279
127	0x3d80f5d3	0.06296887
128	0xbd9a09cc	-0.075214
129	0xbcd2764b	-0.025691172
130	0xbd617e80	-0.05505228
131	0xbd4b0c62	-0.049572356
132	0x3d832c64	0.06404951
133	0xbd884c7b	-0.066552125
134	0x3d36362b	0.044485252
135	0x3d556216	0.052095495
136	0xbb945550	-0.0045267716
137	0x3d50a45e	0.050938003
138	0x3d5f23c7	0.05447748
139	0xbd2d882c	-0.04236619
140	0x3d877d06	0.06615643
141	0xbdc94dff	-0.0982933
142	0xbcb55d08	-0.022139087
143	0x3b819799	0.0039548394
144	0xbc2ec2ac	-0.010666531
145	0xbb3bea6e	-0.0028673667
146	0x3d948dea	0.072536305
147	0xbd5e2c34	-0.054241374
148	0xbc5bb90d	-0.013410819
149	0xbd383e12	-0.04498107
150	0x3d8b0a2e	0.06789051
151	0xbd90bb72	-0.07067002
152	0x3d959130	0.07303083
153	0xbd820b3e	-0.063498005
154	0x3d66c1ac	0.056337044
155	0xbcc9ed83	-0.024649387
156	0x3d46a4eb	0.04849712
157	0x3d1cd3eb	0.03828804
158	0x3d781310	0.060565054
159	0xbd609297	-0.0548273
160	0xbcf38cf0	-0.02973029
161	0xbdada1a6	-0.084780976
162	0x3d807cca	0.062738016
163	0xbd7ef541	-0.06224561
164	0xbd873499	-0.06601829
165	0xbd728e52	-0.05921776
166	0xbd4fca99	-0.05073032
167	0xbdb75046	-0.08950858
168	0x3b1c5209	0.0023852608
169	0xbd705b49	-0.058680806
170	0xbd8c03b8	-0.06836647
171	0x3d9551f4	0.07291022
172	0x3d7d30b3	0.06181402
173	0x3d7e501d	0.06208812
174	0xbd3aeec6	-0.04563787
175	0xbdb96881	-0.09053136
176	0xbd64fce9	-0.055905256
177	0xbc8a406b	-0.01687642
178	0xbca308fb	-0.019901743
179	0x3d62ef0d	0.055403758
180	0xbc106e43	-0.008815351
181	0xbd552ce1	-0.052044753
182	0x3d1b559b	0.037923437
183	0x3ccab46e	0.024744239
184	0xbdb7da34	-0.08977166
185	0x3c8c783a	0.017147172
186	0xbd83cf26	-0.06435995
187	0xbdb7877b	-0.08961388
188	0xbd91110a	-0.07083328
189	0xb97de6ee	-0.00024213988
190	0xbbec5c6e	-0.007213167
191	0xbcadb8af	-0.021206228
192	0x3c921315	0.017831365
193	0x3cb770ca	0.02239265
194	0x3c46ccc5	0.012133782
195	0xbcc2dc60	-0.023786724
196	0x3d8be218	0.06830233
197	0x3c3ee1ee	0.0116505455
198	0x3c7391bf	0.014866292
199	0x3d370a17	0.044687357
200	0x3ca4d3d9	0.020120548
201	0x3b408712	0.0029377383
202	0xbd5f6253	-0.05453713
203	0xbdb2edeb	-0.087367855
204	0x3d622844	0.05521418
205	0x3d6a4cc5	0.05720212
206	0x3d66ffa5	0.056396145
207	0xbd568d5a	-0.052380897
208	0x3cdb0332	0.026734922
209	0xbc368016	-0.0111389365
210	0xbd7d5f1a	-0.061858274
211	0xbcc814bb	-0.024423948
212	0xbd0a2cde	-0.033734195
213	0xbd1c605b	-0.03817783
214	0xbb70c612	-0.0036739153
215	0xbd394830	-0.04523486
216	0xbcb73fc5	-0.022369275
217	0xbd5b40c8	-0.053528577
218	0x3a8b85fd	0.001064479
219	0x3d98dd82	0.07464124
220	0x3bcfb053	0.006338158
221	0xbd07ea0a	-0.03318218
222	0x3d8f413c	0.06994864
223	0xbc930e01	-0.017951014
224	0xbcdacb1c	-0.026708178
225	0xbd03e1a7	-0.03219762
226	0x3c0435d6	0.008069476
227	0x3d0bc54f	0.034123715
228	0xbd589757	-0.052878704
229	0xbd8351e7	-0.06412106
230	0xbc08134e	-0.008305384
231	0xbdb8c752	-0.09022392
232	0xbd7a8f78	-0.06117198
233	0xbb6fb636	-0.0036577112
234	0xbcf6cc13	-0.030126607
235	0xbd59cbac	-0.053172752
236	0x3c8c1f46	0.017104756
237	0x3d288a93	0.04114778
238	0x3d6cb452	0.057789154
239	0x3d1aa483	0.037754547
240	0xbc85eae6	-0.01634736
241	0xbd4650ca	-0.04841689
242	0xbd796789	-0.060889754
243	0xbdafcdca	-0.08584173
244	0x3d45c83f	0.048286673
245	0x3d0de997	0.034646597
246	0x3b5cca4c	0.0033689914
247	0xbdb40449	-0.0878988
248	0x3d88c348	0.06677872
249	0x3c29a9b9	0.010355406
250	0xbd09f0f3	-0.033677053
251	0xbd47aec9	-0.048750672
252	0x3d0eb6ff	0.034842487
253	0xbd1fdc90	-0.039028704
254	0x3b318031	0.0027084465
255	0xbd258d39	-0.040417884

weight f4 [128, 128]
0	0x3e815f44	0.25267994
1	0x3db97454	0.09055391
2	0x3e0e5b03	0.13901906
3	0xbe24016e	-0.1601617
4	0x3ca60704	0.020267017
5	0x3ebcaf0f	0.3685231
6	0xbdd7110b	-0.105012976
7	0x3decd78b	0.11564549
8	0xbcba23b5	-0.022722105
9	0x3d16c4a9	0.036808643
10	0x3ce7f139	0.028313266
11	0x3dbc79f5	0.09202949
12	0xbde5c1f9	-0.11218638
13	0x3dbe52c0	0.09293127
14	0x3e70956d	0.23494501
15	0xbd2b5df7	-0.04183766
16	0xbcfc1273	-0.030770516
17	0x3ea7a2a3	0.3274127
18	0x3e3dd0e2	0.18536714
19	0x3d0edd17	0.034878816
20	0x3da96c6d	0.08272634
21	0x3e92a23e	0.28639406
22	0x3e88f527	0.26749536
23	0xbcf83c3f	-0.030302165
24	0x3e88de3e	0.26732057
25	0x3db7cf50	0.089750886
26	0x3e9bb294	0.30409682
27	0x3e92f70d	0.2870411
28	0x3e8e3d99	0.2778137
29	0x3c8ebbf3	0.017423606
30	0x3d873440	0.06601763
31	0x3e8f2188	0.2795527
32	0xbca3084e	-0.01990142
33	0x3e65ee3e	0.22454163
34	0x3e09c426	0.13453731
35	0x3daa68d9	0.08320779
36	0x3e86078f	0.26177642
37	0x3e72968b	0.2369024
38	0x3e772931	0.24136807
39	0xbdc42935	-0.09578172
40	0x3e7405ea	0.23830381
41	0x3e81e4b7	0.25369808
42	0x3d58af59	0.0529016
43	0x3de0fcfd	0.10985754
44	0x3d8d11f4	0.0688819
45	0x3e12d6ea	0.14339796
46	0xbd524bb7	-0.05134174
47	0x3e400959	0.18753566
48	0xbdc8662f	-0.09785115
49	0x3d68fabd	0.056879748
50	0x3b051641	0.0020307454
51	0x3e8847cf	0.26617286
52	0xbe59d63a	-0.21273127
53	0x3e869481	0.26285174
54	0x3e2ada66	0.16684875
55	0x3ebe0d2d	0.37119427
56	0xbd18df10	-0.037322104
57	0x3eafca6b	0.3433412
58	0x3c56e781	0.013116718
59	0x3c0a58f1	0.008444057
60	0x3d7ef536	0.06224557
61	0x3e5f9ead	0.21837874
62	0x3c150325	0.009094988
63	0x3e1a3cff	0.1506233
64	0x3ea5d4e7	0.32388994
65	0x3e753e0f	0.23949455
66	0x3d708066	0.0587162
67	0x3ea87b18	0.32906413
68	0xbd48711b	-0.04893599
69	0x3e951377	0.29116413
70	0x3c8ae250	0.016953617
71	0xbe51bc76	-0.20482048
72	0x3e9e732c	0.30947244
73	0x3d15db91	0.036586348
74	0xbd161e4f	-0.03665
75	0x3eb72370	0.35769224
76	0x3ea6c257	0.32570145
77	0x3e744cde	0.23857448
78	0x3e6df8fa	0.23239508
79	0x3e95492f	0.29157397
80	0x3e9a7275	0.3016545
81	0x3e840482	0.2578469
82	0x3dc67f11	0.09692205
83	0xbe63fccc	-0.22264403
84	0x3e927b1d	0.28609553
85	0x3d8685ba	0.06568475
86	0x3e51860d	0.20461293
87	0x3ea30607	0.31840536
88	0x3cb9486b	0.02261754
89	0x3e2ddb42	0.16978171
90	0x3e9e8c17	0.30966255
91	0x3eb1bc71	0.34714082
92	0x3e87b84f	0.26507804
93	0x3da86ce6	0.08223896
94	0x3ada9a58	0.0016678078
95	0x3dc404bf	0.09571218
96	0xbcc3106a	-0.023811538
97	0xbb283865	-0.002566838
98	0xbcfb5dde	-0.030684408
99	0x3dfbcc6c	0.1229485
100	0x3e2fe331	0.1717651
101	0x3c80b6d5	0.015712181
102	0x3e86699c	0.2625245
103	0x3e6a1699	0.22860183
104	0x3e947def	0.2900233
105	0x3c8da14e	0.01728883
106	0x3cb58f74	0.02216313
107	0xbd4198e7	-0.04726496
108	0x3e87caf5	0.2652203
109	0x3d8cb26b	0.06869968
110	0x3e349400	0.17634583
111	0x3daa68e5	0.08320788
112	0x3e157c52	0.14598206
113	0xbddeec69	-0.108849354
114	0x3d2d1d78	0.04226443
115	0x3e9e24ad	0.30887356
116	0x3db567cd	0.08857689
117	0x3da4326c	0.0801743
118	0x3e424254	0.18970615
119	0xbd52cf7b	-0.0514674
120	0xbe5d588f	-0.21615814
121	0xbe255fc7	-0.16149817
122	0x3e8a1221	0.26966956
123	0x3e6b89ed	0.23001833
124	0xbd90f1e9	-0.07077391
125	0x3cae7981	0.021298172
126	0x3d7653c9	0.060138498
127	0x3e4ecabf	0.20194529
128	0xbc457cb1	-0.0120536545
129	0xbe57850c	-0.21046847
130	0xbdd8a279	-0.10577864
131	0xbed145c5	-0.40873542
132	0xbe5fde8e	-0.21862242
133	0x3ce320e5	0.027725646
134	0xbee2cad4	-0.4429537
135	0x3e3b614f	0.18298839
136	0xbe69c60f	-0.2282946
137	0xbe48c531	-0.19606473
138	0xbe9a05fd	-0.30082694
139	0xbdb96752	-0.0905291
140	0xbd59b55d	-0.053151477
141	0xbe46a20d	-0.19397755
142	0xbb9ebbd5	-0.0048441687
143	0xbe5f5128	-0.21808302
144	0xbeb62f6d	-0.35583058
145	0xbc2b1863	-0.010442826
146	0xbcee3275	-0.029076794
147	0xbe5205a3	-0.20509963
148	0xbe5c7dff	-0.21532439
149	0x3d707267	0.058702853
150	0x3d99e5d2	0.07514538
151	0xbe9eccc3	-0.31015596
152	0x3c247066	0.0100365635
153	0xbe941592	-0.28922707
154	0x3dc5912d	0.09646831
155	0x3db16f61	0.08663822
156	0x3cd7ef66	0.026359271
157	0xbe5ee941	-0.21768667
158	0xbe9e7bc4	-0.309538
159	0x3e3869d9	0.18009128
160	0xbe8491f6	-0.2589261
161	0x3d71d80f	0.05904394
162	0x3d39d5e5	0.04537
163	0xbeb1a3b4	-0.34695208
164	0x3cbee27b	0.023301354
165	0x3d94aadd	0.07259152
166	0xbc021e5f	-0.007941811
167	0xbeb7e938	-0.3592012
168	0x3de6c536	0.11268084
169	0x3e7dc19b	0.24780886
170	0xbe4c1769	-0.19930805
171	0xbe4a10fd	-0.19733043
172	0xbe5a6067	-0.21325837
173	0xbd8c8d6c	-0.068629116
174	0xbe83ec79	-0.25766352
175	0x3da81dfb	0.08208843
176	0xbee7802c	-0.45214975
177	0xbef44ad4	-0.4771334
178	0xbeb81e30	-0.3596053
179	0xbd7bae57	-0.06144556
180	0xbf0452b6	-0.51688707
181	0xbde3690e	-0.11104022
182	0xbd042159	-0.032258365
183	0x3c420c13	0.011843699
184	0xbe5ca1f3	-0.21546154
185	0x3e4f263f	0.20229433
186	0xbe814d78	-0.25254416
187	0xbe74b5bb	-0.2389745
188	0xbeba9681	-0.3644295
189	0x3cc18184	0.023621328
190	0xbe924ac0	-0.28572655
191	0xbddb8430	-0.10718572
192	0x3e301a4c	0.17197531
193	0x3ccf2478	0.025285944
194	0xbe9157fa	-0.28387433
195	0x3d303b1e	0.04302513
196	0xbeaa8c6a	-0.33310252
197	0xbb95b540	-0.004568726
198	0xbea85c1d	-0.32882777
199	0xbf10a23e	-0.5649756
200	0x3d0b0ee9	0.033949766
201	0xbe9eac87	-0.30991003
202	0xbe601f49	-0.21886934
203	0x3dd00991	0.10158075
204	0x3de337c5	0.110946216
205	0x3e1c9d3b	0.15294354
206	0x3e0eee0f	0.13958
207	0x3db68385	0.08911804
208	0xbba0bcfa	-0.0049053403
209	0x3dbf6044	0.09344533
210	0xbe6d707c	-0.2318744
211	0xbde2d443	-0.11075642
212	0xbd6d89e9	-0.05799285
213	0xbe7b64a3	-0.24550109
214	0xbc9004f5	-0.017580489
215	0x3c62285d	0.013803569
216	0xbd42e325	-0.047579903
217	0xbd5c8aa2	-0.053843148
218	0x3c95ddc4	0.018294223
219	0xbcb66fa5	-0.022270033
220	0x3df2ee3f	0.11861848
221	0xbe858fa4	-0.26086152
222	0xbea4a349	-0.32155827
223	0xbe829f3f	-0.2551212
224	0xbeb922c2	-0.3615933
225	0xbea6693e	-0.32502168
226	0xbe7bf286	-0.24604234
227	0xbeaab9cd	-0.3334488
228	0x3c18ca42	0.009325566
229	0xbeab98c1	-0.3351498
230	0x3d450ab9	0.04810593
231	0x3d285a7e	0.041101925
232	0x3d88a0f8	0.06671327
233	0xbe4de3af	-0.20106386
234	0xbe8a9d72	-0.27073246
235	0xbe9d8de6	-0.30772322
236	0x3b5a8388	0.003334256
237	0xbeabae56	-0.33531445
238	0xbdc2156f	-0.094767444
239	0xbea194ca	-0.3155883
240	0x3d1f1d36	0.038846217
241	0xbf0c6650	-0.54843616
242	0xbcc5f103	-0.024162775
243	0xbc019f88	-0.00791157
244	0xbe632d04	-0.22185141
245	0xbea25719	-0.31707075
246	0xbc92c119	-0.017914342
247	0xbea10044	-0.31445515
248	0xbef47409	-0.47744778
249	0xbf05bae8	-0.5223832
250	0x3d927903	0.071519874
251	0xbd9b02cf	-0.07568895
252	0xbe906c71	-0.28207734
253	0xbe8d1d88	-0.27561593
254	0xbe5f6349	-0.21815218
255	0xbdd90169	-0.10595972

bias f4 [128]
0	0xbd8125c6	-0.06306033
1	0xbd8967c4	-0.06709245
2	0x3db7fe0b	0.08984002
3	0x3b740039	0.0037231578
4	0x3d9ec1b4	0.0775179
5	0x3d971cca	0.07378538
6	0xbd7ad4bf	-0.061238047
7	0xbcbda1c0	-0.023148417
8	0xbc3c00dd	-0.011474815
9	0xbcfd5df9	-0.030928599
10	0xbd8d488a	-0.06898601
11	0xbd768565	-0.06018581
12	0x3d6488ac	0.055794403
13	0x3cf41411	0.029794725
14	0xbd0ed5f6	-0.034872018
15	0xbd05dec9	-0.032683168
16	0x3c73799d	0.014860538
17	0x3d08f59c	0.033437356
18	0xbdbd3ac2	-0.09239723
19	0xbd16ff73	-0.03686471
20	0x3d07940f	0.033100184
21	0x3c05fffe	0.008178709
22	0xbd1883d4	-0.037235096
23	0xbc98ef9c	-0.018668942
24	0x3d131642	0.0359099
25	0xbd32d8ea	-0.043663897
26	0x3d88e4df	0.06684279
27	0xbd621422	-0.05519498
28	0x3d72f473	0.059315156
29	0x3dc08478	0.094002664
30	0x3d6ec443	0.05829264
31	0x3d876067	0.06610184
32	0xbc763679	-0.015027636
33	0xbcc8be48	-0.024504796
34	0xbd166a26	-0.036722325
35	0xbcba6495	-0.02275304
36	0xbcf3b541	-0.029749515
37	0xbd28a404	-0.041172042
38	0x3d20049d	0.0390669
39	0xbd5cde6d	-0.05392306
40	0xbc1c774a	-0.009549925
41	0x3d86f435	0.065895475
42	0x3d1d76bc	0.038443312
43	0xbca21223	-0.019784039
44	0x3c9199d3	0.017773544
45	0xbd930df3	-0.07180395
46	0xbbba0d78	-0.005677875
47	0xbd0020cc	-0.031281278
48	0x3d508937	0.05091211
49	0x3d248150	0.040162385
50	0xbd1c9ee6	-0.038237475
51	0x3d780e6a	0.06056062
52	0xbda6002a	-0.081055
53	0x3d8ec96f	0.06972014
54	0xbcaeb435	-0.021326164
55	0x3d1aaeb7	0.037764277
56	0x3d9de66d	0.07709966
57	0x3cf16f9a	0.029472161
58	0xbca1d5c7	-0.019755257
59	0x3d3e0606	0.046392463
60	0x3d8103df	0.062995665
61	0x3dc10b8d	0.09426031
62	0x3b31b6e9	0.002711708
63	0x3d448076	0.047974072
64	0x3d15b695	0.036551077
65	0x3ca3b4e2	0.019983713
66	0xbc9d1e7b	-0.019179573
67	0xbd34053f	-0.043950316
68	0x3d2244a9	0.03961626
69	0xbdb7d041	-0.08975268
70	0xbc8c876a	-0.017154414
71	0x3cd93bd6	0.02651779
72	0x3bc1b56b	0.0059115193
73	0x3db41d23	0.0879462
74	0x3c3a294e	0.011362387
75	0x3d0c14b5	0.034199435
76	0xbc39d777	-0.011342875
77	0xbcf96dd4	-0.030447878
78	0x3d238b87	0.039927986
79	0x3d04576b	0.03230993
80	0x3d9feebf	0.07809209
81	0xbd96690f	-0.07344257
82	0x3d6c3942	0.057671793
83	0xba27a210	-0.00063946936
84	0x3d91d960	0.07121539
85	0xbd552474	-0.052036718
86	0x3c72da05	0.014822488
87	0x3da76fd0	0.081756234
88	0x3d585b17	0.052821245
89	0x3ce7d971	0.028301926
90	0xbd087d66	-0.033322714
91	0x3d53edb5	0.051740367
92	0x3d8339ee	0.064075336
93	0x3c8c61b7	0.017136438
94	0xbd99af65	-0.07504157
95	0xbdc0a9d2	-0.09407391
96	0xbd0e401e	-0.034729116
97	0x3cc9525d	0.024575407
98	0x3d779339	0.060443137
99	0xbd5be5eb	-0.053686064
100	0x3cdaf83b	0.026729694
101	0xbd2bf641	-0.041982893
102	0xbd6cccbe	-0.057812445
103	0x3bbcbe14	0.0057599638
104	0xbcfc30ed	-0.030785048
105	0x3d89b61d	0.067241885
106	0x3d1442f1	0.036196653
107	0x3d9964d9	0.07489938
108	0xbc7543e5	-0.014969801
109	0xbd96a4c3	-0.073556446
110	0x3c0ea2fa	0.008705849
111	0x3d9ec755	0.07752863
112	0x3d77cc80	0.06049776
113	0x3d932fd5	0.071868576
114	0x3d8b11e8	0.06790525
115	0x3d1a82c4	0.037722364
116	0x3d86279d	0.065505244
117	0x3d1e4a19	0.038644884
118	0xbda154cc	-0.07877502
119	0x3c5a277c	0.013315078
120	0xbd095cbd	-0.033535708
121	0x3d9a24a9	0.075265236
122	0x3c87238e	0.016496446
123	0xbd83cbb6	-0.06435339
124	0x3d8c06ed	0.068372585
125	0x3b73ecb0	0.0037219934
126	0x3cddb811	0.027065309
127	0x3d7d862a	0.061895527

weight f4 [128, 128]
0	0x3cf66c44	0.030080922
1	0xbde78748	-0.113051
2	0xbe39ab52	-0.1813176
3	0xbda61978	-0.081103265
4	0xbd449821	-0.047996644
5	0xbe58e521	-0.21181156
6	0xbd99a596	-0.07502286
7	0xbe8eb01f	-0.27868745
8	0xbd932d70	-0.07186401
9	0xbc87f4ce	-0.016596224
10	0xbcc94804	-0.024570473
11	0xbd9450e6	-0.07241993
12	0xbe435e22	-0.19078878
13	0x3c82139f	0.015878497
14	0xbe3f6332	-0.18690184
15	0xbdc0d262	-0.09415127
16	0xbd9d3361	-0.076758154
17	0xbe505796	-0.20345911
18	0xbdddf542	-0.10837795
19	0xbd83f603	-0.064434074
20	0xbc623656	-0.0138069
21	0xbe84bee4	-0.25926888
22	0xbe80cd43	-0.25156602
23	0xbdc0ffbf	-0.0942378
24	0xbe679089	-0.2261373
25	0xbd2f8444	-0.042850748
26	0xbea5d6fc	-0.32390583
27	0xbe713168	-0.23554003
28	0xbe69b210	-0.22821832
29	0xbd52c13f	-0.051453825
30	0xbe185ce0	-0.14879179
31	0xbe9a32d6	-0.3011691
32	0xbdd28a56	-0.10280292
33	0xbe7e5532	-0.24837187
34	0xbe456da1	-0.19280101
35	0xbce2feb0	-0.027709335
36	0xbea136be	-0.31487077
37	0xbec19f90	-0.3781705
38	0xbe7a95d9	-0.24471225
39	0xbdaa9222	-0.08328654
40	0xbe9e2a59	-0.30891684
41	0xbecc9b16	-0.3996207
42	0xbd412cde	-0.04716193
43	0xbe201333	-0.15632324
44	0xbe0e3b70	-0.13889861
45	0xbdf3bc8a	-0.11901195
46	0xbd75da67	-0.060022738
47	0xbe9a7fe7	-0.30175707
48	0xbe3901ba	-0.18067065
49	0x3db19570	0.08671081
50	0xbdd552c5	-0.10416178
51	0x3d551f11	0.05203158
52	0xbe417258	-0.18891275
53	0xbded3c04	-0.11583713
54	0xbe74e697	-0.23916088
55	0xbe94fdba	-0.29099828
56	0xbd88c4a1	-0.06678129
57	0xbec69a91	-0.387898
58	0xbd9cb75b	-0.0765216
59	0x3c5bcda2	0.013415726
60	0x3c967861	0.018367948
61	0xbe88180e	-0.26580852
62	0xbd982773	-0.07429399
63	0xbd136258	-0.03598246
64	0xbed83716	-0.42229527
65	0x3c42dbb4	0.011893202
66	0xbd5aefdf	-0.053451415
67	0xbe90c159	-0.28272513
68	0xbe12ab0d	-0.14323063
69	0xbe844380	-0.25832748
70	0xbc721222	-0.014774831
71	0xbd2209d5	-0.039560158
72	0xbea977af	-0.33099124
73	0xbdb961db	-0.090518676
74	0xbc0e72f8	-0.008694403
75	0xbe4e487b	-0.20144837
76	0xbec7f500	-0.39054108
77	0xbeb8e4fc	-0.361122
78	0xbe61c166	-0.22046432
79	0xbebd140c	-0.36929357
80	0xbcd4a915	-0.02595953
81	0xbe6bbe20	-0.23021746
82	0xbc759232	-0.014988469
83	0xbe90c9a1	-0.2827883
84	0xbdf05f36	-0.1173691
85	0x3c68358e	0.014172925
86	0xbd24fc00	-0.04027939
87	0xbe91bd75	-0.28464857
88	0xbe6653d0	-0.2249291
89	0xbc1fc91c	-0.009752538
90	0xbe8e6f1e	-0.2781915
91	0xbe82e837	-0.2556779
92	0xbe91299f	-0.28352067
93	0xbd61ea4b	-0.05515508
94	0xbda6480f	-0.08119213
95	0xbdfea746	-0.124342486
96	0xbddcbda7	-0.10778361
97	0xbd2281c6	-0.039674543
98	0xbda975c3	-0.082744144
99	0xbd963135	-0.07333604
100	0xbd5faf12	-0.05461032
101	0xbd39d0cf	-0.04536515
102	0xbdb80692	-0.08985628
103	0xbebf122e	-0.37318558
104	0xbe8177f0	-0.25286818
105	0xbd2d86f4	-0.04236503
106	0x3ca2a47b	0.019853821
107	0xbe0a0e36	-0.13481984
108	0xbd1fac05	-0.03898241
109	0xbd08212e	-0.033234768
110	0xbde1524c	-0.11002025
111	0x3c1b0429	0.009461441
112	0xbdf81cc2	-0.1211486
113	0xbd311652	-0.043234177
114	0xbd9bea54	-0.07613054
115	0xbea84eb2	-0.3287254
116	0xbe0d58e9	-0.13803448
117	0xbc5e595c	-0.01357111
118	0xbd34f9e7	-0.044183638
119	0xbcccd254	-0.025002636
120	0xbe0ae165	-0.13562544
121	0xbe42552c	-0.18977803
122	0xbe574ec7	-0.21026145
123	0xbd6ba411	-0.057529513
124	0xbda81885	-0.08207802
125	0xbce49681	-0.027903797
126	0xbc67c002	-0.014144899
127	0xbe3e22cc	-0.18567961
128	0xbdc583df	-0.09644293
129	0x3d88b77a	0.066756204
130	0xbe3f51a6	-0.1868349
131	0x3e57bd5e	0.21068332
132	0x3cac3f80	0.021026373
133	0xbc117a64	-0.008879278
134	0x3e7bdd52	0.24596146
135	0x3d747410	0.059681
136	0x3ce8d1ce	0.028420355
137	0x3d97516d	0.073885776
138	0x3db14a05	0.08656696
139	0xbe89419e	-0.26807874
140	0x3e255fa0	0.1614976
141	0x3dcd7956	0.100329086
142	0x3ae6bf90	0.0017604697
143	0x3e37b323	0.17939429
144	0x3db26fd1	0.087127335
145	0x3c07f6e5	0.00829861
146	0xbe47cfbe	-0.19512841
147	0x3d63111e	0.055436246
148	0x3dbf14a5	0.093301095
149	0xbdb86ae3	-0.09004762
150	0x3d5eecc7	0.054425027
151	0x3e1c847a	0.15284911
152	0xbdbecd03	-0.09316447
153	0x3e278f3f	0.16363238
154	0xbda59104	-0.080843
155	0xbdbf2f8a	-0.09335239
156	0x3d13a2f5	0.03604408
157	0x3e3020bd	0.17199989
158	0x3e12ae3f	0.14324282
159	0x3abe9382	0.001453981
160	0x3dc4fcc1	0.096185215
161	0x3d274dde	0.040845744
162	0x3e81fed1	0.25389722
163	0x3e294a5c	0.16532272
164	0x3d6fcaa8	0.058542877
165	0xbd1cef4a	-0.03831414
166	0x3d1be0d4	0.03805621
167	0x3e246bed	0.16056795
168	0xbd79d979	-0.060998414
169	0x3dac2161	0.08404804
170	0x3e28005d	0.16406389
171	0x3c8d9ac9	0.017285721
172	0x3d473cf2	0.048642106
173	0xbe29798e	-0.16550276
174	0x3b43f386	0.002989979
175	0xbc87b9ae	-0.016568031
176	0x3e34ea53	0.17667513
177	0x3ca955f6	0.020670872
178	0x3e1c3159	0.152532
179	0xbdbc71f9	-0.09201426
180	0x3e6be198	0.23035276
181	0xbd97a225	-0.074039735
182	0xbe3b70df	-0.18304776
183	0xbd099bca	-0.033595838
184	0x3e286111	0.16443278
185	0xbbdf1fa4	-0.006809192
186	0x3db51480	0.08841801
187	0x3d2cbf49	0.04217461
188	0x3d933c04	0.071891814
189	0xbcad8c97	-0.021185203
190	0x3dd48b84	0.10378173
191	0xbe3064e0	-0.17225981
192	0xbc6240c6	-0.0138093885
193	0xbd94eff9	-0.07272334
194	0x3dda87b3	0.10670414
195	0x3d007011	0.031356875
196	0x3e2e47be	0.17019555
197	0xbdaa50c1	-0.08316184
198	0x3d9e51a4	0.077304155
199	0x3daf02c6	0.08545451
200	0x3ce6883b	0.028141132
201	0x3d9dd86c	0.07707295
202	0x3d2b7ac0	0.04186511
203	0x3d20131f	0.039080735
204	0x3d4d7037	0.050155845
205	0xbdad6161	-0.08465839
206	0x3c053896	0.008131167
207	0xbd0f66da	-0.035010196
208	0xbd4c89c5	-0.049936075
209	0xbda767bc	-0.08174083
210	0x3b127166	0.0022345423
211	0x3e4dc448	0.20094407
212	0xbda9d72e	-0.082929954
213	0x3dafa4ba	0.08576341
214	0xbe5350ac	-0.20636243
215	0x3d6da2ea	0.058016695
216	0x3e11e2ba	0.14246646
217	0xbe00dac0	-0.12583447
218	0x3c723117	0.014782212
219	0xbd48ff4a	-0.049071588
220	0xbcf0927b	-0.029366722
221	0x3e15c0ed	0.14624377
222	0x3d71cf1c	0.059035406
223	0x3dd027e9	0.10163862
224	0x3d4ec0dd	0.050476898
225	0x3dd0805d	0.10180733
226	0x3d2fe59f	0.042943593
227	0x3e0c6808	0.1371156
228	0xbe57cef7	-0.21075045
229	0x3e1fb02c	0.15594548
230	0xbda1ee49	-0.079067774
231	0x3d3bbf4d	0.045836736
232	0xbd305aac	-0.04305522
233	0x3c631143	0.013859096
234	0x3d1240f9	0.035706494
235	0x3e30edf1	0.17278267
236	0xbd3f2492	-0.046665736
237	0x3d1c1077	0.03810164
238	0xbe611f07	-0.21984492
239	0x3da29868	0.079392254
240	0xbd6e8a43	-0.058237325
241	0x3e157552	0.14595535
242	0xbe8cd378	-0.27505088
243	0xbd7a654d	-0.061131764
244	0x3d65c8db	0.056099754
245	0x3d6ea2ff	0.058260914
246	0xbe469fda	-0.19396916
247	0x3dc79db8	0.09746879
248	0x3e3fdfb7	0.18737684
249	0x3dacf5bc	0.084453076
250	0xbd81c639	-0.06336636
251	0xbe38c5f4	-0.18044263
252	0x3dbcc7bb	0.09217783
253	0x3d38f254	0.045152977
254	0x3e27682e	0.16348335
255	0xbe285799	-0.16439666

weight f4 [128]
0	0x3f73b2b6	0.95194566
1	0x3f6adc96	0.9174284
2	0x3f673888	0.90320635
3	0x3f97fea9	1.1874591
4	0x3f6b3f8a	0.9189383
5	0x3f1aeafe	0.6051482
6	0x3f9f0ef9	1.2426444
7	0x3f614872	0.8800117
8	0x3f65ce30	0.8976774
9	0x3f6560ca	0.89600813
10	0x3f7a3451	0.9773608
11	0x3f8eb0e9	1.1147739
12	0x3f4b4433	0.7940094
13	0x3f679115	0.9045575
14	0x3f52d3d9	0.82354504
15	0x3f70437d	0.9385298
16	0x3f6580fe	0.8964995
17	0x3f4ac334	0.79204106
18	0x3f81b43c	1.0133128
19	0x3f5b0af8	0.8556361
20	0x3f68b2a5	0.9089759
21	0x3f5f1385	0.8713916
22	0x3f4125e3	0.75448436
23	0x3f7b6a76	0.9820932
24	0x3f3341d1	0.700223
25	0x3f6508e2	0.8946668
26	0x3f524c17	0.82147354
27	0x3f4c5d8b	0.79830235
28	0x3f32b001	0.6979981
29	0x3f6a5775	0.915397
30	0x3f7a33ee	0.9773549
31	0x3f43de52	0.7651111
32	0x3f4b2618	0.79355
33	0x3f4a877a	0.7911297
34	0x3f326d7c	0.6969831
35	0x3f573855	0.8407033
36	0x3f3e38a7	0.74305195
37	0x3f42265d	0.7583979
38	0x3f356fe0	0.7087383
39	0x3f8034ad	1.0016075
40	0x3f384393	0.7197811
41	0x3f47be8f	0.78025144
42	0x3f5ee2d7	0.8706488
43	0x3f54690b	0.8297278
44	0x3f5ab231	0.8542815
45	0x3f867e40	1.0507278
46	0x3f805fc1	1.0029222
47	0x3f532112	0.82472336
48	0x3fc2d048	1.5219812
49	0x3f9ff3ca	1.2496274
50	0x3f5bd99b	0.85878915
51	0x3f7208f4	0.9454491
52	0x3fba47d0	1.4553165
53	0x3f6839fd	0.90713483
54	0x3f6b6d11	0.919633
55	0x3f2eece2	0.68330204
56	0x3f6deff8	0.9294429
57	0x3f5aae25	0.85421973
58	0x3f708a8d	0.9396141
59	0x3f71fe8f	0.9452905
60	0x3f6d2d37	0.9264712
61	0x3f72df77	0.9487223
62	0x3f6f0005	0.93359405
63	0x3f81f01b	1.0151399
64	0x3f60a275	0.8774789
65	0x3f74b2ef	0.9558553
66	0x3f6eb6d7	0.9324774
67	0x3f52e037	0.82373375
68	0x3f5fd875	0.8743966
69	0x3f2277c0	0.63463974
70	0x3f60518b	0.87624425
71	0x3fb6ed7f	1.4291228
72	0x3f3ad0b4	0.72974706
73	0x3f6acfcc	0.9172332
74	0x3f64e654	0.8941395
75	0x3f551f11	0.8325053
76	0x3f5255fd	0.8216246
77	0x3f46679f	0.77501863
78	0x3f5238f3	0.8211815
79	0x3f55aba1	0.8346501
80	0x3f73eeea	0.9528643
81	0x3f3272d1	0.69706446
82	0x3f5087c0	0.8145714
83	0x3f713c8c	0.9423301
84	0x3f7c798e	0.9862298
85	0x3f73b461	0.9519711
86	0x3f7f8d5f	0.9982509
87	0x3f348f79	0.7053142
88	0x3f4bee8d	0.79660875
89	0x3f70887f	0.93958277
90	0x3f3496a5	0.70542365
91	0x3f3eeaed	0.7457722
92	0x3f3aabf7	0.7291865
93	0x3f608ce2	0.8771497
94	0x3f6b6ab0	0.9195967
95	0x3f7f69a7	0.9977059
96	0x3f786d77	0.9704203
97	0x3f7795bc	0.9671285
98	0x3f5273cc	0.8220794
99	0x3f727814	0.94714475
100	0x3f77791c	0.96669173
101	0x3f5cbde0	0.86227226
102	0x3f4147a8	0.75499964
103	0x3f5d8668	0.8653321
104	0x3f30e7ec	0.69103885
105	0x3f7a1da9	0.9770151
106	0x3f4d3902	0.8016511
107	0x3f75db94	0.96038175
108	0x3f695de5	0.91158897
109	0x3f84cdd7	1.0375317
110	0x3f814ceb	1.0101599
111	0x3f64c54d	0.8936356
112	0x3f122d34	0.57100224
113	0x3fb8b210	1.442934
114	0x3f930983	1.1487278
115	0x3f26b7e7	0.6512436
116	0x3f5670f6	0.83766115
117	0x3f663c4e	0.8993577
118	0x3f559a96	0.83439004
119	0x3f71ac3d	0.9440344
120	0x3fb622a8	1.4229326
121	0x3fae279c	1.3605838
122	0x3f32167d	0.69565564
123	0x3f42456b	0.75887173
124	0x3f6fc15f	0.93654436
125	0x3f5e8a28	0.8692956
126	0x3f65dc66	0.89789426
127	0x3f8d0b9b	1.1019167

bias f4 [128]
0	0x3e42f1e3	0.19037585
1	0xbe14be7e	-0.14525792
2	0x3f0e12a8	0.5549722
3	0x3e985699	0.2975357
4	0xbe9b7acd	-0.30367127
5	0xbe114837	-0.14187704
6	0x3e9bcdfb	0.30430588
7	0xbeb2ba00	-0.34907532
8	0xbe8c1c60	-0.27365398
9	0xbeafd699	-0.34343413
10	0xbebbb71b	-0.36663136
11	0x3f2726e3	0.6529371
12	0x3f00d1c9	0.50320107
13	0xbe3011b5	-0.17194255
14	0xbd98fabe	-0.074697
15	0xbe26d809	-0.16293348
16	0xbe1e86f1	-0.15481164
17	0xbdba4b71	-0.090964206
18	0x3f18d694	0.5970242
19	0xbe19205a	-0.14953747
20	0xbeb53ab6	-0.35396355
21	0xbda27399	-0.07932205
22	0xbda5e2d6	-0.08099906
23	0xbec46010	-0.3835454
24	0xbdbeb220	-0.093113184
25	0xbeb4dc9f	-0.3532457
26	0xbd617b5c	-0.055049285
27	0xbdc612cb	-0.09671553
28	0xbdb4ddc2	-0.088313594
29	0xbeb14931	-0.34626153
30	0xbe30b241	-0.17255498
31	0xbea0f008	-0.3143313
32	0xbe1f78df	-0.15573452
33	0xbda36ca0	-0.07979703
34	0xbc6105f7	-0.013734332
35	0xbe26eed6	-0.16302046
36	0xbde71923	-0.11284091
37	0xbdb9d36e	-0.0907353
38	0xbe0571ba	-0.13031664
39	0x3e79b0b5	0.24383815
40	0xbdae852d	-0.08521495
41	0xbe9f2765	-0.31084743
42	0xbe65b89e	-0.22433707
43	0xbe8707e2	-0.26373202
44	0xbe182766	-0.1485878
45	0x3f1b36b2	0.60630333
46	0xbe8f0dc9	-0.27940205
47	0xbea800f4	-0.32813227
48	0x3ebeec92	0.37289864
49	0x3e862f97	0.26208183
50	0xbe989bf9	-0.29806498
51	0x3e3c112d	0.18365927
52	0x3eb5ca3f	0.35505864
53	0x3e3889e2	0.18021348
54	0x3f1528e5	0.58265525
55	0xbe27cc09	-0.16386427
56	0xbeb7f64b	-0.35930094
57	0xbead69ea	-0.3386987
58	0xbe2bbf68	-0.16772234
59	0xbe3cd0aa	-0.18438974
60	0xbe3f88fe	-0.18704602
61	0xbda74f27	-0.08169394
62	0xbe88909c	-0.26672828
63	0x3e499ba9	0.19688286
64	0xbeb1ae37	-0.34703228
65	0x3e3db1f1	0.1852491
66	0xbea5aefb	-0.32360062
67	0xbdb193b4	-0.0867075
68	0xbe7ca2d7	-0.24671493
69	0xbe18b7c9	-0.14913858
70	0xbe5227d3	-0.20523004
71	0x3eb2908e	0.3487591
72	0xbdb17e1a	-0.0866663
73	0xbe5ffcff	-0.21873854
74	0xbe467443	-0.19380288
75	0xbdb3e71b	-0.08784314
76	0xbdb2d028	-0.08731109
77	0xbd56e5d7	-0.052465286
78	0xbd89ec84	-0.06734565
79	0xbea860a0	-0.3288622
80	0x3e3dfeec	0.18554276
81	0xbdd0ae5b	-0.10189506
82	0xbe143ef9	-0.14477147
83	0x3f18c991	0.59682566
84	0x3e434c5b	0.19072096
85	0xbe5845f4	-0.21120435
86	0x3f13be1d	0.57711965
87	0xbda43453	-0.080177926
88	0x3f0184b8	0.5059314
89	0x3e3f44ed	0.18678637
90	0xbe908034	-0.2822281
91	0xbdb645e5	-0.0890005
92	0xbdb44b98	-0.08803481
93	0xbe8d4a8f	-0.27595946
94	0xbe836288	-0.2566111
95	0xbec6e3e7	-0.3884575
96	0xbe37fdb8	-0.1796788
97	0xbec27616	-0.37980717
98	0xbe1011dd	-0.14069314
99	0xbeb9e077	-0.36304066
100	0x3e4069ac	0.1879031
101	0xbeb1e630	-0.34745932
102	0x3e14e5b3	0.14540748
103	0xbd8b9908	-0.06816298
104	0xbd851bdf	-0.064994566
105	0xbea66b3d	-0.3250369
106	0xbe2a0ec2	-0.16607192
107	0xbe7bc883	-0.24588208
108	0xbed23ebb	-0.41063485
109	0xbecca180	-0.39966965
110	0x3e4c2faf	0.19940065
111	0xbe1d64ff	-0.15370558
112	0x3ddc7af6	0.107656404
113	0x3eb4613b	0.3523043
114	0x3f2db011	0.6784678
115	0xbde5e36b	-0.11225017
116	0xbe16dae5	-0.14731939
117	0xbeb5a6bc	-0.3547877
118	0x3e2d7384	0.16938597
119	0xbe4ca454	-0.19984561
120	0x3eb01f2c	0.34398782
121	0x3eaa937e	0.33315653
122	0xbdc108b7	-0.0942549
123	0x3e1597b7	0.14608656
124	0xbe31311c	-0.1730389
125	0xbe2e091c	-0.16995662
126	0xbeb4c187	-0.353039
127	0x3f2843d0	0.65728474

running_mean f4 [128]
0	0xc1034206	-8.203619
1	0x4068b144	3.6358194
2	0xc158054b	-13.501292
3	0x413c8aed	11.783917
4	0x409e6659	4.9499936
5	0xc0df12f0	-6.9710617
6	0x41884e5a	17.038258
7	0xc163b1cf	-14.23091
8	0x40ca6147	6.3243747
9	0x41175cc8	9.460152
10	0x40ba16cc	5.815283
11	0xc14b6173	-12.711291
12	0x41600e57	14.003501
13	0x40ae89aa	5.4543047
14	0xc0c898b4	-6.2686405
15	0x410029fd	8.010251
16	0x411e9763	9.91196
17	0xc0ec6edc	-7.3885326
18	0xc1196a52	-9.588457
19	0x3fd36421	1.6514932
20	0x40d754f1	6.729119
21	0xc126c3f5	-10.422841
22	0xc0b63421	-5.6938634
23	0x40725132	3.7862058
24	0xc1104d73	-9.0189085
25	0x4115e6c5	9.36884
26	0xc14e6a5a	-12.900965
27	0xc1241da4	-10.2572365
28	0xc097b1f8	-4.7404747
29	0x40ca2332	6.3167963
30	0x40ca4b11	6.3216634
31	0xc139b78e	-11.607313
32	0x405580e6	3.3359923
33	0xc0b475cd	-5.63938
34	0x41903ba0	18.029114
35	0x411f085a	9.939539
36	0xc0937538	-4.608059
37	0xc1297932	-10.592089
38	0xc0aaea65	-5.3411126
39	0x41309b56	11.037924
40	0xc0b8c91a	-5.7745485
41	0xc140e1bb	-12.05511
42	0x406822f5	3.6271336
43	0x40af39d5	5.4758096
44	0x40289299	2.6339476
45	0xc18a84d8	-17.314865
46	0x40185cf6	2.380674
47	0xc110506e	-9.019636
48	0x41ac7106	21.555187
49	0xc134d8af	-11.302901
50	0x40a1a065	5.0508294
51	0xc1708645	-15.032781
52	0x419a7866	19.308788
53	0xc0ffddf6	-7.995845
54	0x4103048e	8.188612
55	0xc092600e	-4.5742254
56	0x40e53c63	7.1636214
57	0xc1588285	-13.531865
58	0x412c84fe	10.782469
59	0x409b3fb2	4.8515253
60	0x40d5cfa1	6.6815953
61	0xc15363c2	-13.211855
62	0x3ff52d7d	1.9154507
63	0xc10f5e88	-8.960579
64	0xc072be32	-3.7928586
65	0xc0f7f1fe	-7.74829
66	0x40d8b427	6.7719913
67	0xc0b9e8a9	-5.809651
68	0x40f66aa4	7.7005177
69	0xc113c077	-9.2344885
70	0x4145d9b2	12.365648
71	0x418fa8e1	17.95746
72	0xc0bb653e	-5.8561087
73	0x405d2cbe	3.4558558
74	0x40baf10d	5.841925
75	0xc0a00874	-5.001032
76	0xc13dba3c	-11.857967
77	0xc09c46fc	-4.883665
78	0xc0b5b196	-5.677928
79	0xc0c6421f	-6.1955714
80	0xc11e78cb	-9.90449
81	0xc0c5b506	-6.1783476
82	0x40949ee1	4.6443944
83	0x4152b0eb	13.168193
84	0xc0f014fa	-7.5025606
85	0x4092f620	4.5925446
86	0xc1291cd8	-10.569542
87	0xc08ce165	-4.402514
88	0x416e8910	14.908463
89	0xc10409e1	-8.252412
90	0xc0a09707	-5.018436
91	0xc14bba0f	-12.732924
92	0xc0b6975a	-5.7059755
93	0x41250ffb	10.3164015
94	0x40938f2f	4.6112285
95	0x414bce2c	12.737835
96	0x40c26501	6.0748296
97	0x405de0a5	3.4668362
98	0x40776d40	3.866043
99	0x405b1c55	3.4236042
100	0xc131a53a	-11.1028385
101	0x4128370f	10.513442
102	0xc1035af6	-8.209707
103	0xc14223f9	-12.133782
104	0xc0c82331	-6.254296
105	0x40aa67be	5.325164
106	0x41086771	8.525254
107	0x408c9f34	4.394434
108	0xc13f6833	-11.962939
109	0x41139593	9.224017
110	0xc024b80f	-2.573734
111	0x40840367	4.1254153
112	0xbfd5323a	-1.6655953
113	0x419d7694	19.6829
114	0xbf9c9836	-1.2233951
115	0xc106a040	-8.414124
116	0x407effca	3.9843621
117	0x40f03445	7.5063806
118	0xc12fabba	-10.979425
119	0x41463796	12.388571
120	0x40f554ca	7.6666
121	0x416a937a	14.661005
122	0xc0ae6c3e	-5.450713
123	0xc0f001db	-7.5002265
124	0x40ff0997	7.9699206
125	0x4101c908	8.11158
126	0x40e7ff91	7.249947
127	0xc17c4ec5	-15.769231

running_var f4 [128]
0	0x4200b832	32.17988
1	0x41abf204	21.493172
2	0x42ba3f49	93.123604
3	0x429c1467	78.03985
4	0x420f4ba0	35.823853
5	0x42060882	33.50831
6	0x43568a5e	214.5405
7	0x42cefafd	103.49021
8	0x41941508	18.51027
9	0x423bc704	46.94435
10	0x420a35cc	34.552536
11	0x430a0ac2	138.04202
12	0x435af96d	218.97432
13	0x42370c4e	45.762016
14	0x422fb4dc	43.92662
15	0x427baa46	62.916283
16	0x42a173f6	80.72649
17	0x421f0db6	39.76339
18	0x42c0c538	96.38519
19	0x412730b4	10.44939
20	0x4224a401	41.16016
21	0x42f4a750	122.32678
22	0x4210e1ae	36.22039
23	0x420cddfd	35.216785
24	0x424f8619	51.880955
25	0x4267d87a	57.961403
26	0x42a70d87	83.52642
27	0x41fa0a3a	31.254993
28	0x41862ea6	16.772778
29	0x41a2f225	20.368235
30	0x41a008f4	20.004372
31	0x42ce3a11	103.11341
32	0x41bc6022	23.54694
33	0x421f96f6	39.897423
34	0x42e79b65	115.803505
35	0x42a52558	82.57294
36	0x42064f8e	33.57769
37	0x4305add9	133.6791
38	0x41b677de	22.808529
39	0x42cc3d7a	102.12007
40	0x41e7b151	28.96158
41	0x42f31ac9	121.552315
42	0x41f07cfe	30.061031
43	0x42313420	44.300903
44	0x40cc76d4	6.3895054
45	0x4330c329	176.76234
46	0x419bc656	19.471844
47	0x4309cb4c	137.79413
48	0x43af2bbf	350.34177
49	0x434798b5	199.59651
50	0x4142a62d	12.16557
51	0x42df186e	111.547714
52	0x43809d11	257.22708
53	0x42915f10	72.68567
54	0x4282f558	65.47919
55	0x421c9613	39.146557
56	0x4223e05d	40.969105
57	0x431049f7	144.28893
58	0x42bb509d	93.65745
59	0x4243f31a	48.987404
60	0x41bbd645	23.479624
61	0x42d8d351	108.41273
62	0x418cb768	17.589554
63	0x42e29d82	113.30763
64	0x421f70c2	39.860115
65	0x42e36786	113.702194
66	0x41ab2628	21.393631
67	0x421f1883	39.773937
68	0x41f8589b	31.043264
69	0x42492d5c	50.294296
70	0x42afdfe4	87.93729
71	0x439b74f6	310.91376
72	0x41f72673	30.893774
73	0x41b2246b	22.267782
74	0x4121d4ec	10.114483
75	0x417c9a87	15.787726
76	0x424f9623	51.896618
77	0x41edab9f	29.7088
78	0x41f78bc2	30.943241
79	0x42058766	33.382225
80	0x42e26458	113.195984
81	0x41e548b9	28.66051
82	0x41cbeb74	25.489967
83	0x4322c03b	162.7509
84	0x429b3aeb	77.615074
85	0x42349b01	45.15137
86	0x4220533a	40.081276
87	0x422e6344	43.59694
88	0x4360b80e	224.71896
89	0x42a2b74a	81.35799
90	0x421c0509	39.004917
91	0x423a8eda	46.639503
92	0x41f3ea56	30.489422
93	0x42b24e86	89.153366
94	0x420246f6	32.569298
95	0x4306f624	134.96149
96	0x416c952d	14.78642
97	0x41c26b74	24.302467
98	0x411e4922	9.892855
99	0x42019847	32.39871
100	0x42b6164a	91.04353
101	0x42c57050	98.71936
102	0x4139fff6	11.62499
103	0x429f0fc5	79.5308
104	0x41a6203f	20.765745
105	0x41cb5815	25.418009
106	0x425b1500	54.770508
107	0x41bd414d	23.656885
108	0x42c24a6d	97.14536
109	0x42a96669	84.70002
110	0x41e3fca1	28.498354
111	0x4155f5aa	13.372477
112	0x4148d5da	12.55221
113	0x43a63314	332.39905
114	0x412a79cc	10.654736
115	0x4255e3eb	53.472576
116	0x41dd1564	27.635445
117	0x42ac43c8	86.132385
118	0x426365c2	56.849373
119	0x432684da	166.51895
120	0x4216dba7	37.714504
121	0x43389b1a	184.60587
122	0x420e2976	35.54049
123	0x423b2ac2	46.791756
124	0x41ffadc7	31.959852
125	0x42450267	49.252346
126	0x424f09e3	51.759655
127	0x42f41bae	122.05406

weight f4 [128]
0	0x3ea5d067	0.3238556
1	0x3f3da6bb	0.74082536
2	0x3f7e231c	0.9927232
3	0x3f7a7e9c	0.9784944
4	0x3f608bc6	0.8771328
5	0x3f64f95e	0.89443004
6	0x3f54cd50	0.8312578
7	0x3ea82c41	0.32846263
8	0x3f4b5182	0.79421246
9	0x3f76b598	0.9637084
10	0x3f45154d	0.7698563
11	0x3f48c751	0.7842913
12	0x3f7166a4	0.9429724
13	0x3f2adf0a	0.6674658
14	0x3f553114	0.8327801
15	0x3f9cfe91	1.2265188
16	0x3f429928	0.7601495
17	0x3fdcca48	1.7249231
18	0x3f4fa413	0.8110973
19	0x3f806a02	1.0032351
20	0x3f9364bc	1.1515117
21	0x3f46d7a2	0.7767278
22	0x3f03dc1d	0.5150774
23	0x3f46c450	0.776433
24	0x3ed1a966	0.40949553
25	0x3f8e1311	1.1099569
26	0x3f7a16d3	0.97691077
27	0x3f72c4bc	0.9483144
28	0x3f55873b	0.8340947
29	0x3f6e6072	0.93115914
30	0x3f454b5c	0.77068114
31	0x3f80756f	1.0035838
32	0x3fe4de98	1.788043
33	0x3f67f8ea	0.9061419
34	0x3f589696	0.84604776
35	0x3f7f126d	0.9963749
36	0x3f7a7ba7	0.9784493
37	0x3f6e5572	0.9309913
38	0x3f2e6ea7	0.6813759
39	0x3f2c9ef9	0.67430073
40	0x3f6ea233	0.93216246
41	0x3f3a4a61	0.72769743
42	0x3f31dc51	0.694768
43	0x3fa97e38	1.3241644
44	0x3f64551b	0.8919236
45	0x3f871746	1.0553977
46	0x3f7871ef	0.9704885
47	0x3f806f1a	1.0033906
48	0x3f65f3ee	0.8982533
49	0x3e9ea635	0.3098618
50	0x3f4e08b2	0.8048202
51	0x3f7379a3	0.9510748
52	0x3f0fdc13	0.5619518
53	0x3f877316	1.0581996
54	0x3efdf498	0.49600673
55	0x3f81bd85	1.0135962
56	0x3f64fa01	0.89443976
57	0x3f6d6624	0.9273398
58	0x3f84923a	1.0357125
59	0x3f86e385	1.0538183
60	0x3f68e713	0.9097759
61	0x3fe189f7	1.7620229
62	0x3f590a89	0.847817
63	0x3f59c6cf	0.8506898
64	0x3f707667	0.9393067
65	0x3f5500e2	0.8320447
66	0x3f79b15a	0.9753624
67	0x3f3d731b	0.7400376
68	0x3f8fec0c	1.1243911
69	0x3f9e45b3	1.236502
70	0x3f0574cc	0.5213134
71	0x3f6e22bf	0.9302177
72	0x3f5f0e1d	0.8713091
73	0x3f881e48	1.0634241
74	0x3f4f8ea1	0.8107701
75	0x3f66a451	0.90094477
76	0x3f375080	0.7160721
77	0x3f91bd27	1.138585
78	0x3f579131	0.8420592
79	0x3f8b21bd	1.0869671
80	0x3f49bed8	0.7880683
81	0x3f693ce9	0.91108567
82	0x3f843caf	1.0331019
83	0x3f5fbafb	0.87394685
84	0x3f40ca7a	0.75308955
85	0x3f236ded	0.6383961
86	0x3f3577bd	0.7088583
87	0x3f61c8e5	0.88197166
88	0x3f527a41	0.82217795
89	0x3f4d097f	0.80092615
90	0x3f51a2aa	0.8188883
91	0x3f57a554	0.84236646
92	0x3f86cfcd	1.0532166
93	0x3f45fe03	0.77340716
94	0x3f6c7f59	0.9238182
95	0x3f551952	0.8324176
96	0x3fd52f96	1.6655147
97	0x3f6a7ee7	0.9159989
98	0x3f1e0661	0.61728483
99	0x3f2ed1a7	0.68288654
100	0x3f2b6bc3	0.66961306
101	0x3f578764	0.84190965
102	0x3f420630	0.7579069
103	0x3f174f98	0.59105825
104	0x3f9d759f	1.230152
105	0x3f716366	0.94292295
106	0x3f69e335	0.91362315
107	0x3f1ea768	0.6197419
108	0x3f1c2d11	0.61006266
109	0x3f0b3277	0.5437388
110	0x3f4418fc	0.76600623
111	0x3f4a8a68	0.7911744
112	0x3f4d2bf8	0.80145216
113	0x3f42997a	0.76015437
114	0x3fef0e60	1.8676262
115	0x3f5e2e25	0.8678916
116	0x3f715bda	0.9428078
117	0x3f389d31	0.72114855
118	0x3f7d7a17	0.9901442
119	0x3f27cc9d	0.6554659
120	0x3f455043	0.77075595
121	0x3f52fb57	0.82414764
122	0x3f70cc33	0.94061583
123	0x3f73da22	0.9525472
124	0x3f35331f	0.7078113
125	0x3f54ac53	0.83075446
126	0x3f600ba0	0.8751774
127	0x3f179e2c	0.59225726
