Graph Neural Network/Models/SAGEConv_LSTM-D1-F1-mean.pth (torch, 770162 bytes, 23 tensors)

weight_ih_l0 f4 [384, 96]
00000000: b162 83bb 0b34 aabb 6e54 b8bb 202a 933b
00000010: e146 e9ba e42c a33b 8940 443b ddbd 9dbb
00000020: d509 3ebb 1569 5c3a e17e 6d39 8a10 c2bb
00000030: 3f8d d8bb 297a a3b5 5a22 c7ba 9415 70ba
00000040: d57a e2bb b62f 96ba ff08 76b9 9202 b7bb
00000050: eaac 783b d9fb b238 3bb5 383b 2ebd 4f3b
00000060: 3a8b 1b3b 2919 70ba f1d8 1f3b e2a7 543b
00000070: ac99 ebbb 34e7 bab9 cc72 06ba bcfb 0db9
00000080: eef2 2bbb c5c8 a9bb 54a2 dcbb 6f12 a1bb
00000090: b385 f0ba e21e 47bb e84b de3a 1a5d 0e3b
000000a0: 0eab 283b 9ffa 1dbb aeb2 85bb 9671 8f3b
000000b0: 83ea dbbb 0f47 41bb 60e1 953b 5557 1b3b
000000c0: 2d50 d1bb bfa5 68bb 6609 a6bb 24a5 e9ba
000000d0: 9c25 5aba 0d0b 00bb 7546 643b 7776 82bb
000000e0: 622b ab39 257b 983a 482a 013a 134e 383b
000000f0: 1050 5bbb de07 463b 2b21 d4bb 7bb7 243b
00000100: 1d9e 17bb 3b43 1b3b 862a f6ba 4d7a 2d3b
00000110: 16e4 20bb a8d5 c7bb 717b 88bb c2d2 a6ba
00000120: ae0a 8d39 3cf0 6e3b bcc1 76ba 85dd 0e3b
00000130: 866f cbbb 020e 22b8 6ccd e7bb 6556 babb
00000140: 86f8 afbb 7bda 56bb 9d5b 533b 7316 9aba
00000150: c50c 7a3b 4617 c5bb 8069 58bb 09ba eebb
00000160: 34d6 833b 16e6 2a3a b59b 80bb 4abb 373b
00000170: 0801 753b fb88 2abb 4c0a 4c3b 216d 513a
00000180: af9c e33b 82e9 e23b da95 e23b fb2a ef3b
00000190: c80e 013c 8a57 d13b 38af cd3b 6781 df3b
000001a0: 694f ce3b 0bfd ee3b 92d3 ef3b f250 003c
000001b0: bd30 f93b b8fb d53b ab65 f93b 4d3c ef3b
000001c0: 93a2 e43b 4377 d83b c586 ea3b a1ae d93b
000001d0: c3da e23b a09b de3b 55d0 fd3b 09bd e23b
000001e0: bfd2 dd3b bd78 f23b 2ff4 d23b 0e2a ce3b
000001f0: 8448 e63b 7b96 fa3b f716 e83b bcd5 f73b
00000200: 43cf f83b 10a2 f53b a228 d63b d9ec e73b
00000210: 6613 ec3b 15d5 d53b 8e43 cc3b b4b7 003c
00000220: 9e5c f83b e6f6 e43b 8094 e93b de96 da3b
00000230: 5887 dc3b 745a ff3b 3429 f23b 6193 e83b
00000240: c7be cc3b 72e6 ea3b bb8f d23b 75e6 cc3b
00000250: 3547 f73b 3a75 003c 579f e23b f0f1 cd3b
00000260: 3062 f03b fb6e f33b beca f93b 9b04 e63b
00000270: aa26 d13b c4f1 e33b 3d1a e73b bca6 f63b
00000280: 756e f33b 453b f43b 6b5c d13b c5bb f63b
00000290: 0988 d83b f366 f43b 3cd6 de3b c78c fb3b
000002a0: 901b e13b 1f55 fa3b 79da d33b 5b8b f03b
000002b0: da31 d63b 70d9 f63b 23e3 003c 4863 df3b
000002c0: ced6 d43b c6aa f03b 7367 fb3b 1d51 ec3b
000002d0: 9d8e ef3b 678d e13b 3c43 003c 2b71 ef3b
000002e0: e736 ed3b 25e4 d33b 45c8 f83b 6f43 da3b
000002f0: a375 f83b b21d ee3b 31e4 ec3b 376d f53b
00000300: 73ab bd3c 1049 8e3d 7569 9e3d 41d9 aa3d
00000310: 8c4a abbc 872c 693c c3d7 503c ba69 01bd
00000320: 8086 ac3d f1d6 dfbb 57d0 5d3d 70b4 2bbd
00000330: 44a6 8d3d ded6 843d 8f57 683d 8635 e1ba
00000340: 06ec ea3c 71b1 f3bc 613a 953c b1d4 4dbd
00000350: eaad 7ebd a2fc 673d d473 1b3d 80fc 46bd
00000360: d5b4 0bbd a5b7 b3bc fd87 67bd 405c a33c
00000370: 53dc 913d 1879 be3c 9cbd 593d 3d90 7cbd
00000380: 7414 08bd f47d 81bc d694 753d 87cb a03d
00000390: 11cc 47bd b46e 873d 3f7b ec3c 003b 37bb
000003a0: f3c5 0cbc b2cb 713d 9569 24bd fd1f 613c
000003b0: b9aa f5bb 12f8 903b 9014 14bd 43c6 243b
000003c0: 3941 a63d e15c 3abd 3f8a 6abc f06b 5c3d
000003d0: bf3c 08bd cb07 683d d2f9 92bc fa50 6bbd
000003e0: b4dc e33c 8aea 1cbc 23b7 35bd 45b8 51bd
000003f0: 183b b03c bea9 7a3d f953 d63c f6ee ae3d
-0.0040095677 -0.0051941923 -0.005625299 0.0044911057 -0.0017797613 0.0049797166 0.0029945693 -0.004813893
-0.002899756 0.00084079924 0.00022649347 -0.0059223818 -0.0066086347 -1.218e-06 -0.0015192733 -0.0009158489
-0.0069116154 -0.0011458311 -0.0002346374 -0.005585023 0.0037944862 8.534612e-05 0.0028184194 0.0031698453
0.0023734109 -0.00091590226 0.0024390782 0.0032448699 -0.00718995 -0.00035648944 -0.00051288004 -0.00013540586
-0.0026237327 -0.0051814043 -0.006733218 -0.0049155275 -0.0018350392 -0.0030383398 0.0016959878 0.0021722973
0.0025736722 -0.002410568 -0.004080138 0.004377554 -0.0067113056 -0.0029491817 0.004573986 0.0023703177
-0.0063877315 -0.0035499183 -0.0050670383 -0.0017825705 -0.0008321644 -0.0019537837 0.0034832035 -0.0039814073
0.00032647984 0.001163338 0.000492726 0.0028122708 -0.003346447 0.0030217092 -0.0064736805 0.0025133777
-0.0023135014 0.0023691196 -0.0018780984 0.0026470602 -0.0024550012 -0.006098468 -0.004165106 -0.0012727606
0.00026901573 0.0036459109 -0.0009413024 0.0021799516 -0.006208363 -3.8636856e-05 -0.0070740487 -0.0056865686
-0.0053702025 -0.0032784033 0.003225065 -0.0011755958 0.0038154584 -0.0060147373 -0.0033021867 -0.0072853607
0.0040233377 0.0006519271 -0.0039248117 0.0028035217 0.0037384648 -0.0026021588 0.0031134067 0.0007988979
0.0069461684 0.006924809 0.0069148364 0.007298825 0.007877059 0.0063886093 0.006276991 0.006820846
0.0062960875 0.0072933487 0.0073189223 0.007831799 0.007604687 0.0065302514 0.0076109967 0.0073008896
0.006977388 0.006606014 0.007157179 0.006643132 0.006923051 0.0067934543 0.0077457824 0.0069195074
0.0067695077 0.007399647 0.0064378004 0.0062916344 0.0070276875 0.007647333 0.0070828157 0.007563321
0.007593067 0.007496126 0.0065356055 0.007077795 0.007204461 0.0065256455 0.006233639 0.007856298
0.0075794 0.0069874404 0.0071282983 0.006670817 0.0067300014 0.0077927653 0.0073901657 0.007097647
0.0062483284 0.0071685845 0.0064258254 0.0062530586 0.0075463303 0.007840449 0.0069159674 0.0062849447
0.0073359236 0.0074290014 0.0076230457 0.007019592 0.006382783 0.006956311 0.0070526884 0.0075272005
0.007428939 0.0074533545 0.006389191 0.007529708 0.0066080135 0.0074585616 0.006800441 0.007676694
0.006869741 0.0076395418 0.006465253 0.007340831 0.0065367045 0.007533245 0.007866654 0.006817255
0.0064953333 0.0073445765 0.007672244 0.007211818 0.007310702 0.0068833116 0.00782853 0.007307192
0.007239211 0.006466406 0.0075922334 0.0066608707 0.0075823828 0.0072667236 0.007229351 0.007489826
0.023153042 0.06947529 0.07734958 0.08342219 -0.02090957 0.014231808 0.012746754 -0.03159497
0.08424091 -0.006831043 0.054153766 -0.041920125 0.06916478 0.06486295 0.056724127 -0.0017182089
0.028676998 -0.029747697 0.018216314 -0.050251666 -0.062177576 0.056637414 0.03795226 -0.048580647
-0.034108 -0.021938154 -0.056526173 0.01994145 0.07122102 0.023251101 0.05315934 -0.061660994
-0.03322263 -0.01580713 0.059956394 0.0785132 -0.048778597 0.06612912 0.028867362 -0.002795875
-0.008592117 0.05903215 -0.040139753 0.013740537 -0.0074971584 0.0044241035 -0.036152422 0.0025142587
0.08117909 -0.045498732 -0.014315187 0.053813875 -0.033261057 0.056648057 -0.01794139 -0.057450272
0.0278152 -0.009577403 -0.044364106 -0.051201124 0.021512553 0.061197035 0.026163088 0.08541672

weight_hh_l0 f4 [384, 96]
00000000: 2242 343b e4bd b03b a2de ae3b 5110 77ba
00000010: 547b 11bb 24ab a539 0db2 9239 65dd 793b
00000020: a61d 8f3b 8788 06bc dfab 00bc 22c2 33bb
00000030: 9e37 78bb 3762 69bb a2a5 d5bb 4b2f 5fba
00000040: fbec 023b ef61 06bb fbcd feba 07c0 3e3b
00000050: ac4f 08bb 526c 93bb b436 4cbb e95e bebb
00000060: d19d 803b c0b3 92ba 3b13 803b 046e cd3a
00000070: 154c 30bb 7d43 34bb 22ac 433b c58a 8ebb
00000080: c516 283b 0f78 2f3a 304c 683b 7f89 0fbb
00000090: 9c14 f4b9 1b67 063b 0ef0 9d3a 60e5 8b3b
000000a0: 6347 a23a 4604 e13a a063 8fba fc55 f73a
000000b0: dac3 133b 3d63 e138 b7d5 b138 5043 4cbb
000000c0: 0823 c2ba 68f3 a3bb bc3c a73b 782f 543b
000000d0: b3c2 6e3b b824 c23b 8236 cc3b 2262 f0ba
000000e0: 8b63 ff3a 3d78 33ba d3ca 36ba 1c26 2eba
000000f0: 7356 2dba 2aa1 bb3b 44bd 983a 495a a93b
00000100: 9f24 0cba 969b 7439 b57a 20bb 8766 823b
00000110: dbbc d03b 44da bebb 57c0 b0bb 75b3 1e3b
00000120: 9a08 503b f0e0 513b 1eca f83a fef7 46bb
00000130: d846 28bb 3e5b cabb 0548 5c3b e431 f4ba
00000140: 7d54 98b9 339f 30bb fcda a7ba df00 11bc
00000150: c61c 003b 0efa 323a 6d99 d4ba 17d6 ea3b
00000160: 381e 22ba 739a 57ba 3b5e 623b 7428 c4bb
00000170: d9b7 97bb 16ca 76b9 3cdc 233b 8609 dfba
00000180: 0b5f 983b ed0e 243c a4d9 083c 8377 92ba
00000190: 5750 14bc bbfd 0bb8 ca2d 85b9 e660 f53b
000001a0: 0fd0 b33b 75ea 50bc 7485 8ebc a4b6 70bb
000001b0: 89a8 96bb 93d9 41bc 7e42 0ebc 8c3a 14bb
000001c0: a59c c73a 1441 32bc 5f0c 02ba 5828 d53a
000001d0: 27f9 4fbb ca7d bbbb 9138 10bc 8d3d 9bbc
000001e0: 2ced a63b be14 f9ba fd75 b33b b743 023b
000001f0: 6de7 04bc 9dc5 c2bb ec27 963c 727a 97bb
00000200: b1ce 243b f3ae fa39 d572 483c 48b3 38bb
00000210: d10b 4ebb 5d7d 603b 4f9d 183b e937 ed3b
00000220: 412f f2b8 e2ab d23b c7f8 9138 daa2 3a3c
00000230: 358d a13b 1a97 bb39 1f72 8eb8 875e dcbb
00000240: 46a7 09bc 8d99 63bc 940b d13c 2404 6b3b
00000250: 7936 fd3b ead0 2e3c 31b9 3f3c 1b1a 8abb
00000260: f23b a5bb 7604 0abc d8cd 17bb e625 b13a
00000270: 4549 4fba a1ca 5f3c a536 0d3b 7150 2f3c
00000280: f8ef 433a ffbc 153b 7761 7dbb 4279 613c
00000290: 34b3 603c edc6 81bc 88d4 03bc 87ed b23b
000002a0: 4c7c 6b3b 57f2 97b9 373b 943b 24c6 66bb
000002b0: abba 8dbb b990 91bc 628c 023c 3de6 cfbb
000002c0: 5110 a53b 6416 b2bb 0505 ffbb 38f3 a4bc
000002d0: 7946 c33b c69a a83b c85f adb9 e087 383c
000002e0: 3a3b d9b8 f0d2 033b 81f9 5a3b fdb6 ffbb
000002f0: 5d06 e8bb 98d8 4c39 c5a5 653b dbbf 6cbb
00000300: 4de2 f5bc 2eff 79bd 88f3 353b 0d95 873b
00000310: d936 eb38 d59c 3a3a 2bce 70b8 79f3 4c3d
00000320: ed2a bdbc 11f2 133d e115 803d 2b2a 793c
00000330: 2b77 243d e050 003d 4e53 283d 803d acbb
00000340: 82d5 77bc 92ce 6bbd 4d96 fb3b 6ab7 e5bc
00000350: 24bb 04bc 158a fd3c 3158 933c a5d0 93bc
00000360: 52dc 22bd 8e5b b63c ba9e 9dbc 4e1f 6ebc
00000370: 234d 1ebd eb13 d83c e147 7bbc 8cc7 24bb
00000380: 3701 b6bc e668 84bc e201 ab3c 3ab8 b9ba
00000390: 15b7 d9bb 27fd c63c 53ff a43c 72d6 a0bc
000003a0: 29c4 15ba cae1 1a3d 4447 b7bc f576 4cbb
000003b0: b8a3 4bbc 255f b3b9 d83a d4bb 544b 21bd
000003c0: dfcf 033d 6df1 26bc c39d a439 8981 12bd
000003d0: a632 7c3c 0fd2 d7bb 48e9 f2bc 29d0 4ebb
000003e0: 24a6 2e3c e803 943c 2ac2 a9bc 4352 283c
000003f0: 778f 223a 3d78 d7bc 0d16 48bc ad27 9cbd
0.0027505239 0.0053937305 0.0053365985 -0.00094247336 -0.0022198753 0.00031598762 0.00027979948 0.0038126346
0.004367548 -0.008211262 -0.007853477 -0.0027428945 -0.0037874947 -0.003561152 -0.006519989 -0.0008513822
0.0019977677 -0.002050515 -0.0019440049 0.0029106156 -0.0020799441 -0.004498997 -0.0031160535 -0.005809654
0.003925063 -0.0011192486 0.0039085425 0.0015673046 -0.0026900817 -0.0027506046 0.0029857238 -0.0043500387
0.0025648337 0.00066936103 0.0035445802 -0.0021902022 -0.00046554662 0.0020508233 0.0012049691 0.004269287
0.0012380894 0.0017167411 -0.0010939725 0.001887023 0.0022547157 0.000107473206 8.479825e-05 -0.003116805
-0.0014811466 -0.0050033815 0.0051036756 0.0032376926 0.0036431968 0.0059247874 0.006232084 -0.0018339793
0.0019484622 -0.0006846225 -0.0006972972 -0.0006643252 -0.0006612308 0.0057259994 0.0011653085 0.0051682335
-0.0005346033 0.00023327614 -0.0024487202 0.0039795074 0.0063701696 -0.005824359 -0.0053940224 0.0024215851
0.0031743408 0.0032024942 0.0018981134 -0.0030360217 -0.0025676992 -0.0061754277 0.0033612263 -0.0018630591
-0.00029054648 -0.002695036 -0.0012806351 -0.008850305 0.00195484 0.0006827422 -0.0016220041 0.007166635
-0.00061843125 -0.0008224614 0.003454103 -0.0059862677 -0.0046300706 -0.00023535671 0.0025003096 -0.0017016388
0.004650002 0.010013324 0.008352671 -0.0011174533 -0.009052358 -3.3376487e-05 -0.00025401852 0.007488358
0.005487449 -0.012751211 -0.01739762 -0.0036729956 -0.0045977277 -0.011831659 -0.008682845 -0.0022617904
0.0015229179 -0.010879774 -0.000496095 0.0016262634 -0.00317342 -0.0057217823 -0.008802549 -0.018950248
0.005094191 -0.0019003374 0.005476712 0.0019876787 -0.008111817 -0.0059439675 0.018329583 -0.004622751
0.0025147612 0.00047814063 0.012234409 -0.0028183032 -0.0031440149 0.003425441 0.0023287123 0.007239331
-0.00011548261 0.0064291814 6.960477e-05 0.011391366 0.0049301633 0.0003578 -6.792344e-05 -0.0067251357
-0.0084016975 -0.01389159 0.025518216 0.0035860622 0.007727441 0.010669926 0.011701868 -0.004214538
-0.0050425464 -0.008423915 -0.0023163464 0.0013515323 -0.00079073414 0.01365915 0.0021547463 0.010700331
0.0007474418 0.0022848246 -0.003866283 0.01376182 0.0137146 -0.015841926 -0.008046277 0.0054604444
0.003593224 -0.00028981522 0.0045236605 -0.0035213316 -0.004325231 -0.017769204 0.00796804 -0.006344585
0.0050373455 -0.005434798 -0.007782581 -0.020135507 0.0059593287 0.0051454036 -0.00033068494 0.011262864
-0.00010358398 0.0020114742 0.0033412876 -0.0078037963 -0.0070808367 0.00019535644 0.0035041433 -0.0036125097
-0.030015135 -0.061034374 0.0027763564 0.0041376413 0.000112158894 0.00071187067 -5.7412468e-05 0.05003688
-0.023091758 0.036119524 0.06254173 0.0152078075 0.04015271 0.03132713 0.04109507 -0.005256355
-0.015126588 -0.057570048 0.0076778294 -0.02804156 -0.008101258 0.030949632 0.017986389 -0.018043825
-0.039760895 0.022260454 -0.019240726 -0.014533831 -0.038647782 0.026376685 -0.0153369615 -0.0025143353
-0.022217376 -0.0161633 0.020874921 -0.0014169284 -0.0066441395 0.024290634 0.02014128 -0.019633505
-0.0005713129 0.037812985 -0.02237285 -0.0031198834 -0.01242917 -0.0003421243 -0.0064767413 -0.03937848
0.032180663 -0.010189396 0.0003139806 -0.035768066 0.015392935 -0.00658632 -0.029652253 -0.0031557179
0.010659728 0.018068269 -0.020722467 0.010273519 0.00062011875 -0.026302451 -0.012212289 -0.07624755

bias_ih_l0 f4 [384]
00000000: d9cd 8bbc 967b fd3c 9a18 a43d fc89 a6bb
00000010: f97d 6a3d c441 c3bb 471e 95bd a873 8a3d
00000020: 366e 2e3d be94 7a3b e067 5e3a 8691 653c
00000030: e2ff 393d 84a7 463b 7859 9f3c 90ce 31bc
00000040: e04f 86ba a589 9ebc df2c b03c b3d0 c13c
00000050: 24be 9bbc 3695 7dbc 136a 20bd 5005 223c
00000060: 4f27 ad3c 362b 9cbb 2a67 cd3b 675c 4bbc
00000070: 87e8 5cbd f8a0 293d df07 22bc c0b2 a1bc
00000080: 0b84 2fbd d07e 22bc bb95 19bd 3403 8ebc
00000090: c2a4 c5ba b05d 6e3d 61e4 c9bc cae7 d03a
000000a0: b404 df3c 8b16 783b 2d7d 85bc 51c5 6bbd
000000b0: 806b 92bc 1eda 0fbc 4181 c1bb 59af f2bc
000000c0: 359c 3f3d 0276 313d 4357 e63d 8971 6ebd
000000d0: cd1f c33c 795d 4b3d 7b5b 833c 0109 223c
000000e0: 3acd a2bd fe33 b23c f659 a8ba 9fa8 31bc
000000f0: 1e77 a3bb 7465 cb3c de5c 133a 04a3 34bc
00000100: cdbc 6e3c 0296 8abb c3c5 dcbb b17d 673c
00000110: 805f 033d 9524 9e3c e586 4c3c 32c9 e8bb
00000120: 3836 ccbc c8a5 9b3d db12 77bd f06a 1cbb
00000130: 1b42 a03d d637 aabc 4417 11bb 903c db3c
00000140: 845f 433d 2f0e 8c3a bb43 d53c 2d1d d53c
00000150: 35b3 4f3d e4b5 4a3a 156e 1b3d f57e 013d
00000160: bba6 6abc 135f 143c 5c99 6ebb 6c46 d63c
00000170: 21cb 123b f5ea 73bb 7a6d 2bbc e953 debb
00000180: 939d 763b ae3e 07ba dd66 e83d 74dd baba
00000190: 2223 86bc ba6c 403b 5bcb 893d c21b 163c
000001a0: 2b9f 253c ec07 f83c 771c 5f3d 5cf7 973c
000001b0: 0c18 c73d 0037 e63c eb26 413d 44a7 62bc
000001c0: 640b ce3a 0ab3 a33d a8bf 0c3c 9238 4f3a
000001d0: 3438 4dbc 06d2 d03d 0fc5 ff3c d1e7 db3d
000001e0: 74c7 bb3c 5528 3eba 9c33 2f3c 0655 0bbc
000001f0: 4388 88bc a340 703d 3606 c2bb bdfc d0bc
00000200: 1631 04bd 0b5f 22bc 22f1 be3d 781c 00bd
00000210: 17b3 fd3b 281c 7d3d c2a1 19bd 23a3 3fbd
00000220: 87a9 8d3b 454e cfbc cc3f d73a e512 733d
00000230: 8248 d6bb 6762 34bc 13a1 88bb abc5 13bd
00000240: 269e bdbc c9bd 353d 57b2 843d 3744 4b3c
00000250: e5b0 743d b90a 583d 91ac 4bbd 30d5 d1bb
00000260: dda8 143d 931b 943d f72e 82bc 148d 3ebc
00000270: e07b 14bc 67f4 7a3d e227 e03c c255 253d
00000280: 4f3f a4bc 1c49 30bc 8f0c 033d 8e16 3b3d
00000290: b769 313c 9d0e 56bd 8321 57bc 6a57 82bb
000002a0: 1ace 093c c9fe 3b3d 1ebc 923d 19c1 00bc
000002b0: f6c7 db3d ca85 863c 09b0 2d3d 2fcd 603d
000002c0: 7e52 753d 5f65 7c3b 76f3 003d e59f c83c
000002d0: 6e78 9bbc 2ba9 653d 2c49 fa3c c1a9 7c3c
000002e0: 6049 56ba a7c8 b5bc 2d19 503c 9fbc 14bb
000002f0: c58d ab3b 2650 8dbb 6699 833b 9f1c bebc
00000300: bd26 24bc d11e 933d 6075 6abd f8cb 5dbd
00000310: e83b 34bc 7e7c 4abd 2602 4bbd cb29 213d
00000320: 1ce9 203d 93f9 6c3d fee1 09bd 223b a9bc
00000330: 4fe1 6a3d 68de 73bc b884 5c3c 8fd4 0f3d
00000340: 41f0 433c df46 adbd f573 073d 9efd c2bc
00000350: 5d60 0a3d e9d3 5c3b 7436 673d 386b cd3c
00000360: 494c c6bb 5775 96bd b5e7 32bd 44c2 11ba
00000370: 7f54 893d ccbc 25bd 07e2 0fbc fbfa 4c3d
00000380: a294 7fbd b706 19bd fd4b a6bd 6711 253c
00000390: ce88 923d b603 c6bc 2be0 6c3c 60bb 783d
000003a0: ab91 9a3d 2de5 8c3d 5486 933d cb17 1abc
000003b0: bed8 ebbb d079 0dbd e66c 3c3a 1e1b 613d
000003c0: 5e2e d7bd eed7 e73c 819c 5ebd 7c41 913d
000003d0: e981 e63c 9b4f 353d a799 f6bc c057 c5bc
000003e0: 43eb 173d 3d28 c0bd 9410 89bd bbc9 0a3d
000003f0: 9f56 453d aa19 683d 1f62 fe3a c22b ce39
-0.01706593 0.03094272 0.08012505 -0.005082367 0.057249043 -0.0059587676 -0.072811656 0.06760341
0.042585574 0.003823563 0.00084841065 0.014011746 0.045410044 0.003031225 0.019451842 -0.010852471
-0.0010247193 -0.019352743 0.021505771 0.023659086 -0.019011565 -0.015477469 -0.03916366 0.009888962
0.021136908 -0.0047658933 0.0062684016 -0.012412167 -0.053932693 0.041413277 -0.009889572 -0.019738555
-0.042850535 -0.00991793 -0.03749631 -0.017335512 -0.0015079009 0.058194816 -0.024645032 0.0015938219
0.027223922 0.0037855234 -0.01629504 -0.057561222 -0.017873526 -0.0087800305 -0.005905301 -0.029624628
0.04677983 0.04332543 0.112471126 -0.058213744 0.023818875 0.04964969 0.016034832 0.009889842
-0.079493 0.021753307 -0.0012844193 -0.010843425 -0.004988565 0.02482865 0.0005621443 -0.011025194
0.014571381 -0.004229308 -0.006737442 0.014129088 0.032073498 0.019304553 0.012483333 -0.0071040625
-0.024928197 0.0759998 -0.060320716 -0.002386745 0.078251086 -0.020778578 -0.0022139112 0.026762277
0.047698513 0.0010685379 0.026033273 0.026014889 0.050708015 0.00077327923 0.03794678 0.031615216
-0.014321978 0.009055871 -0.0036407327 0.026156627 0.0022398906 -0.0037218903 -0.010463113 -0.006784905
0.0037630543 -0.00051591813 0.113477446 -0.0014256672 -0.016374175 0.002936168 0.0672824 0.009161891
0.010108749 0.030277215 0.054470506 0.018550567 0.097213835 0.028102398 0.047156256 -0.013833825
0.0015719947 0.07993133 0.008590616 0.0007904853 -0.012525607 0.10196309 0.031221895 0.10737575
0.022922255 -0.0007253935 0.010693457 -0.008504158 -0.016666537 0.058655392 -0.0059211506 -0.02551114
-0.032273374 -0.009910355 0.09323336 -0.03127715 0.0077422964 0.06179443 -0.03750778 -0.04678644
0.0043231877 -0.025305877 0.0016422211 0.05934419 -0.0065394053 -0.011009789 -0.004169592 -0.036077183
-0.0231467 0.044370446 0.06479328 0.0124064 0.059739012 0.0527446 -0.04972512 -0.0064035878
0.036293853 0.07231822 -0.015891535 -0.011630315 -0.009062737 0.061268236 0.027362768 0.04036499
-0.02004972 -0.010759618 0.0319944 0.045675807 0.010828427 -0.05226003 -0.013130548 -0.0039777057
0.008410955 0.04589728 0.07164787 -0.007858538 0.10731499 0.016421217 0.04240421 0.05488318
0.059893124 0.003851257 0.031482182 0.024490306 -0.018978324 0.056069534 0.03055247 0.015421332
-0.0008174386 -0.022190405 0.012701315 -0.0022695435 0.005235406 -0.004312533 0.0040160893 -0.023207007
-0.010019002 0.07183612 -0.057240844 -0.054149598 -0.011000611 -0.04943513 -0.049562596 0.039346498
0.03928481 0.0578552 -0.03366279 -0.02065808 0.057343777 -0.014884569 0.013459377 0.03511482
0.011959136 -0.08460783 0.03306957 -0.023802575 0.033783305 0.0033695644 0.056448415 0.02507554
-0.0060515744 -0.073465995 -0.043678004 -0.0005560259 0.067055695 -0.040463254 -0.008781916 0.05004404
-0.062397607 -0.03735992 -0.08119962 0.01007495 0.07155 -0.024171691 0.014457743 0.06072557
0.07547315 0.06879649 0.072033554 -0.009405087 -0.0071974685 -0.034539998 0.0007187858 0.0549575
-0.10506891 0.028301205 -0.054348473 0.07092568 0.028138118 0.04426537 -0.030102564 -0.024089694
0.037089597 -0.09382675 -0.06692615 0.03388379 0.04817831 0.0566651 0.0019407904 0.00039323984

bias_hh_l0 f4 [384]
00000000: c731 00bc f1e7 013d 2236 163d 33cb cebb
00000010: 6486 4d3d 3cee c0bb 5f84 703d bb35 253d
00000020: 66a8 753d c021 423d 64d1 803c 24e0 533b
00000030: 6348 57bd a986 67bc 45ea 433c c67a 34bb
00000040: 3121 82bb 19ef 693d 49e8 03bd 125c b63c
00000050: d741 2abd dd5a 35bd 3b63 e6bc 1417 ce3d
00000060: 9368 6cbb 1b70 c2bb 3cfe 993c 4abd 33bc
00000070: 9d2e 4abd 7013 923c a547 a23d 4a99 043d
00000080: 82e1 933d 11b1 afbb 3f75 913c f8e6 c1bc
00000090: 6ae4 9abc dedd 273d 2c57 5cbd e4cc 09bc
000000a0: c5a1 0cbd eab7 883d 563d ebbc ea82 ef38
000000b0: 2ac5 a8bc 6b88 14bc 9b99 d2bb e178 98bd
000000c0: a2b5 10bb 2508 73bd 47aa f03d 7813 7bbd
000000d0: 931c 4fbd 5d41 58bd 4b37 203d 2a90 5dbc
000000e0: 0664 763b ab20 3a3d 23eb 85bc 07ab 9ebc
000000f0: 04cb e4bb bacb df3c a351 8b3b 478f a6bd
00000100: a76a 393c 14e7 4bbb 9554 1dbd 873d 53bb
00000110: 4750 6e3c c997 f2bc 2edf 063c ea8d e4bb
00000120: 0df0 6fbc aced 223d a86c f03c e8ed 35bc
00000130: 9770 61bd d0cc 023a 9096 a9bd b36b 5bbd
00000140: f431 4ebd e4ec 063b 38d5 393d 9823 f03c
00000150: 81ed 403d f68d 5abd 1d70 173d aa5f 493c
00000160: 046f 9cbc 61a9 c6bc f49c 2fbb f2c2 c23b
00000170: 9d76 653c d2db 65bb 15a8 a3bb 6216 5bbc
00000180: aced be3c f491 1e3c b00c ed3d 57b9 42bc
00000190: f126 ee3c 5ba1 113c 941a 5abb 4fbe b33d
000001a0: 92c0 103c 7832 8f3d 5b53 a93d 5393 873c
000001b0: 897c 813d 0e18 573c bb0b bf3b 8765 ba3b
000001c0: c775 47bc 18c3 3f3c 1d97 c53d 5b07 3f3d
000001d0: 2d7b 873d c229 1d3d 71fe 11ba e7b0 183e
000001e0: c9f6 1b3c dccc 6abb 4fd2 073d 0baf 1dbc
000001f0: e5fa cf3d 3c8d be3d 18f8 113d da16 99bc
00000200: 504f cfbc 822b beba 0c58 5abc e168 01bd
00000210: 3fca 51bb e576 723d 4f80 67bc 0667 5b3d
00000220: 2104 943c 20ea 62bd 050e f1bc 5e10 f23b
00000230: 974b cbbc 650d 7cbc f521 8dbb 463e bd3c
00000240: a615 873d f20c 753b ef37 9fbc 7bb2 443d
00000250: cc27 2a3c 7e53 813d 29e5 913d 35a5 843b
00000260: 216a f23d be10 893d 602d ac39 0c30 cebc
00000270: d660 13bc aa02 cb3c 1475 aebb b7c4 f5bb
00000280: 22d4 3abc 795c 01ba 9c24 a63c 7549 d43d
00000290: 9709 0e3c 041d 69bd 78ef dfbb f3cf 1cbb
000002a0: 5129 c4bb dfd5 633d c78f 52bd 0b67 8d3c
000002b0: 5176 0c3e 8a88 a43d a91c 7fbc dd3c bc3d
000002c0: c522 503d ccd4 723c 5e84 48bd b962 f73c
000002d0: ae3b 583d 3fb7 3d3d 9296 37bd 16e6 8a3d
000002e0: 4f1a babb 995c 86bc e512 b83c 4971 693c
000002f0: 64f7 8d3b edf3 b9bb c81e 52bc c7c4 2abc
00000300: c0d9 2d3d d5b4 a03d bf66 2f3d 11a9 fabc
00000310: 71e3 dc3c c7f7 a83c 0e8c 393d c8ba 17bd
00000320: 782b 783d 2a57 6d3d 1cef 87bd 3ce5 99bd
00000330: 524c 93bd 3ddb bbbd da49 623d 23eb 2dbc
00000340: 8338 8d3c c2b5 85bd 5ee3 743d 40aa e73b
00000350: 4959 1dbd 132d 18bb 68db 96bd 9862 0a3d
00000360: b90c 6abd ad0c 9b3c bdab 73bd 2a12 12bd
00000370: 3f31 24bc 0ca3 1ebd 1750 c0bd 106c 8f3d
00000380: 97e1 403d c192 ed3c 3a0c b0bd e4a2 ea3c
00000390: f151 92bd 24eb 973d a721 193d 4cc6 9ebd
000003a0: 5bd8 eabd f2de cc3c e152 a0bd 2ab0 bf3d
000003b0: 61a9 753b 26ea db3c 116c 82bc 9c80 d8bc
000003c0: 1b2a 03bd 0ab8 4e3d a966 793d 82a4 043c
000003d0: a8cb 7d3d d8f6 433c f411 97ba ad0e 65bd
000003e0: 4444 88bd 79c6 ebbd 600b 8bbd 355b d23d
000003f0: 2f9d c6bc a545 fbbc fa5b da3d 7ab1 a7bb
-0.007824368 0.031715337 0.03667272 -0.0063108443 0.050176993 -0.0058877748 0.05871999 0.040334444
0.05997505 0.047395468 0.015724845 0.0032329643 -0.052559268 -0.014131227 0.01195771 -0.0027539
-0.003971242 0.057112787 -0.032203946 0.0222607 -0.041566696 -0.044276107 -0.028123489 0.100629956
-0.0036073073 -0.005933774 0.018797986 -0.010970423 -0.04936086 0.017831534 0.07923821 0.03237275
0.072207466 -0.005361684 0.017756103 -0.023669705 -0.018907744 0.040983073 -0.05379407 -0.008410666
-0.034333963 0.06675704 -0.02871577 0.00011420793 -0.020601828 -0.009065728 -0.0064270026 -0.07444931
-0.0022080918 -0.05933394 0.11751228 -0.061297864 -0.05056436 -0.05279671 0.03911523 -0.013523141
0.003759624 0.04544131 -0.016347473 -0.019368662 -0.006982209 0.027318824 0.004251675 -0.08132797
0.011316932 -0.0031113075 -0.03841074 -0.0032232718 0.014545507 -0.029613392 0.008231921 -0.0069749253
-0.014644635 0.039777443 0.029348686 -0.011104085 -0.055039015 0.0004989626 -0.08280671 -0.053569507
-0.050340608 0.0020587975 0.045369357 0.029313847 0.0471015 -0.05335804 0.036972154 0.0122908745
-0.019095905 -0.024250688 -0.0026796432 0.0059436494 0.01400533 -0.003507365 -0.004994402 -0.013372036
0.02330669 0.009678353 0.115746856 -0.011885009 0.029071303 0.008888568 -0.0033280002 0.08776533
0.008834975 0.06992048 0.08267852 0.016549742 0.06322581 0.013128294 0.005830256 0.0056883725
-0.012174076 0.011704229 0.09647963 0.046637874 0.06615291 0.0383699 -0.0005569226 0.14911233
0.009519287 -0.0035827672 0.03315955 -0.009624253 0.10155276 0.09304282 0.03563699 -0.018687654
-0.025306374 -0.0014508816 -0.013326656 -0.03159416 -0.0032011417 0.059195418 -0.014129712 0.053565048
0.018068375 -0.05539906 -0.02942563 0.007387205 -0.024816317 -0.015384053 -0.0043070265 0.023100983
0.06595926 0.003739175 -0.01943585 0.048021775 0.010385465 0.06314753 0.07123787 0.0040480145
0.11836649 0.066926464 0.00032840203 -0.025169395 -0.008995255 0.024781544 -0.0053240154 -0.007500257
-0.0114031155 -0.0004934739 0.020281129 0.10365573 0.008669279 -0.056912437 -0.006833967 -0.0023927658
-0.0059863706 0.055623885 -0.051406648 0.017261049 0.13717009 0.08033855 -0.015570798 0.09191296
0.05081441 0.014821243 -0.04895436 0.030198442 0.05279129 0.046317335 -0.04482133 0.06782167
-0.0056794058 -0.016401576 0.022469947 0.014248201 0.00433247 -0.00567483 -0.012824722 -0.010422892
0.04244399 0.07846991 0.042822596 -0.030598195 0.026963921 0.020625962 0.045299582 -0.037043363
0.06058833 0.057944454 -0.06637403 -0.07514426 -0.07192291 -0.09172676 0.05524621 -0.010615143
0.017238861 -0.06528808 0.059787147 0.007069856 -0.038415227 -0.0023220226 -0.07366067 0.033785433
-0.05714104 0.018926943 -0.059489954 -0.035661854 -0.010021507 -0.038729712 -0.09390276 0.07003033
0.04709014 0.029000642 -0.08596082 0.028642125 -0.07144535 0.074178964 0.03738561 -0.07752666
-0.11467048 0.025008652 -0.07828308 0.093597725 0.003748499 0.02684505 -0.01592067 -0.026428513
-0.032022577 0.050468482 0.06088892 0.008095862 0.0619618 0.011960708 -0.0011525736 -0.0559222
-0.06653646 -0.11512465 -0.06789279 0.102713026 -0.024244873 -0.030672858 0.106620744 -0.0051175924

weight f4 [96, 96]
00000000: 347b 0f3d 85d7 393d d2a5 463c 3aea aabc
00000010: b563 1e3d 6215 fb3b d0d0 2f3c 8ccf bc3b
00000020: cd51 e3bc 58a7 05bd 29f8 923b 7359 9c3b
00000030: cd74 80bd feac 003d 5ff1 bd3c 1f88 7a3c
00000040: 2ac7 043c 80da b0bc eb00 e0bb 7ad0 303d
00000050: 1c43 35bd 3f1c 4ebd c0ef 6fbc c99b 6e3c
00000060: 7d97 c93c bcc1 8ebc 555c 093d d447 d83a
00000070: 6b5b 9d3c 4965 50bc fc81 70bd 72c8 28bd
00000080: 1437 3bbd 34e9 d53c 5f8b 55bd 9a67 bb3b
00000090: 39de 8b3c cdad ec3c b94b 89bb 7ae6 2e3d
000000a0: 5b81 f93c 0afe 7f3c e633 abbc 3ac8 f0ba
000000b0: dd77 6f3b aa2a abbb 3753 2d3c 2444 513d
000000c0: 9845 893b 8299 d7ba 63b5 f03b 5dbd 323d
000000d0: 8b43 7bbc 5c39 90bd 9645 14bd 42bc 2dbc
000000e0: 25fe 36bc 91d2 0ebd e39a 42bc 1334 9ebc
000000f0: 2b2c e3ba 5c4b 8abc fce8 77bc e43f bfbc
00000100: fac4 8dbc 7033 aabc e890 71bc 4a61 95bd
00000110: 6134 ec3c 1f1c 94bc 6aca 7cbc 42cc 26bc
00000120: 97ea 903c 91a7 dbbc 5a27 1d3d 0dc0 08bd
00000130: c5e3 0f3c b15b 933d 67e8 b939 aacc 623b
00000140: b06d 4cbd 5db1 47bc 42c8 103d 5160 113d
00000150: b321 05bc cc4f 063d ed4a 9fbc 3a3e eebb
00000160: 0f7f 6a3c c095 803b f1ad 1f3a 53cc 97bc
00000170: 598e 46bc f379 90bb 4f07 1d3c 0ec2 fb3c
00000180: 186f 853c 3cbc dabc 4ab2 6b3d fa7c 73bc
00000190: e4f7 843c ef7c a0bb 4f06 ee3c 6bac 4abd
000001a0: d0fd d63b 7bb3 c4bc 2afb 933c 79c1 78bc
000001b0: db6a e43a 1a50 0fbd f11a 8cbd 5da5 1b3b
000001c0: 8720 f83b 9c52 bebc 7adf bf3c bca1 c8bb
000001d0: 4942 653d b630 603d 304d 3cbc 2f6a 14bd
000001e0: 8765 d73c bd10 eaba 49fc 653d ed3e 8f3c
000001f0: 860f 91bb 4c9e 183d 3502 ef3c 1dc2 133d
00000200: dde3 4f3c b0b5 a9bb 66e1 26bc 99d7 7bbc
00000210: 8d74 c53b b3a6 24bd df20 ec3c f736 9f3c
00000220: 6055 2bbd 9a4f 43bb cb48 223c 4cb2 fa3c
00000230: 54d0 9b3c 64f5 4e3b 2c6a 103c d59e 03bd
00000240: 032f 65bd cb5e 1d3c 1867 bb3d be73 fa3c
00000250: 80b6 363d 10fc 2bbd d7f3 9a3d 8eeb 853c
00000260: 05db a7bc abfa 2ebd 56f2 e5bc ef31 6a3d
00000270: 2b12 c83b 02ad ac3b 4377 983c 9091 b7bc
00000280: d0ac 323c 5efe b63b aa48 46bd d82d 693d
00000290: c650 483d 90a6 08bd fe4e 10bc b342 b03b
000002a0: 8ecd 693b 13f4 e3bc 6a62 87bd 479e 093c
000002b0: ad23 ddbd 04f5 fabb ecda 043d 6877 cc3b
000002c0: 1513 6c3d 24da c3bc 8947 06bd b587 d3bc
000002d0: 2fb9 3e3c c6ca 763d 7fc8 41bc 2a8c 233d
000002e0: 9116 8dbc 6b16 deba 8b5d 57bc 61aa e43c
000002f0: 4156 fe3c ba42 a6bb dbfb 313b 762d 3fba
00000300: 0fb5 f8ba 9de4 803d 2ef7 1abd 2bf8 54bc
00000310: 1af7 9d3d 9248 233d a483 2ebd cb86 94bc
00000320: d6ac cb3d 0446 91bd 9563 8a3a a708 7b3c
00000330: 72f9 453d 6dad 47bd a532 35bc cf44 75bc
00000340: 8bfb f93a e42d 313d 3d17 43bc 1b54 16bd
00000350: 4fa0 c8bd 7f97 933b 8cc6 a5bc c4da afbd
00000360: d63c 3e3d 4d6e f5bb 3789 593d 6e7a a2bb
00000370: 25b9 ebbb 60ba b13b 03c8 c0bc ef76 41bd
00000380: d83c 41bd 8644 07bc 3b3c 3bbd 4fd4 1d3c
00000390: aa06 e8b9 958c 213d aaaa 8e3c f13d 03bc
000003a0: 6918 b33d cd26 59bc d2d1 a8bd 65c7 05bd
000003b0: 438f bc3c ad7c 19b9 c362 893c ec34 5fbd
000003c0: 7ec0 823d c1a9 853d 5d62 b73d fc41 973c
000003d0: 314b 8e3d 0d04 003d 2327 aa3c f719 bf3c
000003e0: 9945 37bc e942 5b3d 4aca a2bc d657 7239
000003f0: ec11 b53b e686 0d3c 6545 9cbb 45cd 293c
0.035029605 0.04537155 0.012124496 -0.020863641 0.038669307 0.007662461 0.010730937 0.005762046
-0.027748967 -0.032630295 0.0044851494 0.0047714054 -0.06272278 0.03141498 0.023186384 0.015291243
0.008104125 -0.021588564 -0.006836047 0.04316757 -0.044253454 -0.050319906 -0.014644563 0.014563509
0.024608368 -0.017426364 0.03353532 0.0016500899 0.01920863 -0.012719461 -0.058717713 -0.041206785
-0.045706823 0.026112176 -0.052134868 0.0057191374 0.017073737 0.028891468 -0.004189935 0.04270027
0.03045719 0.0156245325 -0.02089877 -0.0018370219 0.003653995 -0.005223592 0.010578922 0.051090375
0.0041892044 -0.0016448947 0.0073458417 0.043637622 -0.015335928 -0.070421904 -0.036199175 -0.010603966
-0.011168991 -0.03486878 -0.011877748 -0.01931194 -0.0017331889 -0.016881637 -0.015131231 -0.023345895
-0.01730584 -0.02077648 -0.014744021 -0.07293947 0.02883357 -0.018079815 -0.015429119 -0.010180535
0.017689986 -0.0268133 0.038367607 -0.03338628 0.008782332 0.07195223 0.00035459103 0.0034606853
-0.049909294 -0.012188283 0.03534723 0.035492245 -0.00812571 0.032790944 -0.019444907 -0.0072706016
0.01431252 0.0039241016 0.0006091288 -0.018530047 -0.012118899 -0.0044090687 0.009584262 0.03073218
0.016288325 -0.026701085 0.057543077 -0.01486134 0.016231485 -0.0048977057 0.029055743 -0.049480837
0.0065610185 -0.024011364 0.0180641 -0.015182846 0.0017426865 -0.0349885 -0.06841076 0.0023749687
0.007572237 -0.02323275 0.023421992 -0.006122796 0.055971418 0.054733954 -0.011493012 -0.036234077
0.02629353 -0.0017857772 0.0561488 0.01748606 -0.0044268994 0.03726034 0.029175857 0.036073793
0.012688604 -0.0051791295 -0.010185575 -0.015371227 0.006025857 -0.04019804 0.028824268 0.019435389
-0.041829467 -0.0029802085 0.0099050505 0.030602597 0.019020237 0.003157937 0.008814376 -0.032133896
-0.055953037 0.00960512 0.09150523 0.030572768 0.04460764 -0.041988432 0.0756604 0.016347673
-0.020490179 -0.042719524 -0.028069656 0.057176527 0.0061056814 0.0052696476 0.018611556 -0.022408277
0.0109054595 0.005584522 -0.04840914 0.056928486 0.048905157 -0.03336197 -0.008807896 0.005379045
0.0035675499 -0.027826345 -0.06610568 0.008399553 -0.1079782 -0.0076586027 0.032435343 0.0062398203
0.057635386 -0.023907728 -0.032783065 -0.025821546 0.011640831 0.060251974 -0.011827587 0.039928593
-0.017222675 -0.0016943937 -0.013144861 0.027913274 0.031046988 -0.0050738724 0.0027158174 -0.0007292846
-0.0018974858 0.062936045 -0.037833385 -0.012998621 0.077131465 0.03986413 -0.04260601 -0.01813068
0.09945075 -0.070934325 0.0010558242 0.015321887 0.048333593 -0.048749376 -0.011059438 -0.0149700185
0.0019072158 0.043256655 -0.011907396 -0.036701303 -0.097962014 0.0045041437 -0.020236276 -0.08586648
0.046444736 -0.0074899555 0.053109374 -0.0049584424 -0.007193702 0.005423829 -0.023532873 -0.047232565
-0.047177166 -0.008256083 -0.045711737 0.009633138 -0.00044255453 0.03944071 0.017415363 -0.008010373
0.0874489 -0.01325388 -0.08243145 -0.03266086 0.023017531 -0.00014637662 0.016770726 -0.05449383
0.06384371 0.065265186 0.08954308 0.018464081 0.069479354 0.031253863 0.020770615 0.02332781
-0.011186027 0.053530607 -0.01987185 0.0002311164 0.005525818 0.008638119 -0.0047690147 0.0103638815

bias f4 [96]
00000000: f97f 9834 9d00 65b6 1d2d 8db7 c5fb 9236
00000010: 024d 02b7 c3e1 8736 8076 79b6 aec7 c835
00000020: 26f1 c836 de75 2d35 3949 c236 7b29 4036
00000030: cdbd 7bb5 6c89 05b5 18a7 ceb5 a8e4 b5b4
00000040: 8d4e 0336 930e 4c34 b0be 6a35 ab1b 9b37
00000050: 00f0 9337 e773 dab6 69c2 7236 eb56 1435
00000060: 0dea a036 f28a 9235 8f28 2c37 5fda cc35
00000070: b560 3137 79a3 57b7 8e72 0bb6 aef1 a536
00000080: 0aa5 f435 d9b3 6ab6 2ec8 dd33 9c6d 79b6
00000090: 00ac e1b5 3105 aa33 6b0c 4db6 3eda a336
000000a0: 299b 3db5 f35f 17b5 9e03 04b6 49f9 ac36
000000b0: b1e2 0d37 0f70 9034 8d21 3437 d68e a4b4
000000c0: 8d24 da36 1ee1 2ab7 f72e 3d36 59ac a335
000000d0: eb95 c6b5 ead4 1d36 ef70 3436 d875 3636
000000e0: 45f2 64b6 feaa 9d35 d429 8bb5 437b c936
000000f0: a6c2 98b6 0664 d036 5915 b135 b661 2337
00000100: 9a1d 98b6 ef46 b036 dadd fcb5 10e9 4f35
00000110: 585d a335 5ccd 1336 affd e536 73bb 3fb5
00000120: 3773 d634 8fc3 d033 aed0 7bb2 a8fc 1e35
00000130: 1705 49b4 b276 2fb6 0345 fd35 f54a e136
00000140: 7e1d 2238 2a14 26b6 295c 7c35 b89b a636
00000150: 1e77 ff37 8b2a dfb5 730d 87b7 b173 a6b5
00000160: e431 6cb7 4327 6db5 772a 2eb4 2e23 61b6
00000170: 34ad 4db6 a940 9435 4be4 a5b6 2913 24b6
2.840532e-07 -3.4124016e-06 -1.6829517e-05 4.380449e-06 -7.766534e-06 4.0495956e-06 -3.7172867e-06 1.4959276e-06
5.988538e-06 6.461904e-07 5.790175e-06 2.8634374e-06 -9.3780983e-07 -4.9746336e-07 -1.5396827e-06 -3.3880247e-07
1.9566244e-06 1.9004283e-07 8.744928e-07 1.8490324e-05 1.7635524e-05 -6.510399e-06 3.6173972e-06 5.526078e-07
4.7956187e-06 1.0918286e-06 1.0261442e-05 1.5262739e-06 1.05725385e-05 -1.285306e-05 -2.0779294e-06 4.9455184e-06
1.8227449e-06 -3.4973402e-06 1.0327527e-07 -3.7167692e-06 -1.6813865e-06 7.917186e-08 -3.0554609e-06 4.8831853e-06
-7.0633774e-07 -5.639151e-07 -1.9671638e-06 5.15502e-06 8.457036e-06 2.6903624e-07 1.0736648e-05 -3.0651307e-07
6.5011614e-06 -1.0185204e-05 2.8190532e-06 1.2194606e-06 -1.4795781e-06 2.3518755e-06 2.6887826e-06 2.7188707e-06
-3.4115667e-06 1.1747177e-06 -1.0368481e-06 6.0046164e-06 -4.552613e-06 6.2105273e-06 1.3193741e-06 9.738307e-06
-4.533399e-06 5.2534665e-06 -1.884003e-06 7.745266e-07 1.2171613e-06 2.2024242e-06 6.8542645e-06 -7.142582e-07
3.9944436e-07 9.721327e-08 -1.4657571e-08 5.922725e-07 -1.8721435e-07 -2.6146122e-06 1.8870054e-06 6.7142487e-06
3.8651277e-05 -2.4747665e-06 9.4011426e-07 4.9653136e-06 3.0453837e-05 -1.6627176e-06 -1.6099517e-05 -1.2401634e-06
-1.4078312e-05 -8.8346513e-07 -1.6220461e-07 -3.354809e-06 -3.0648198e-06 1.1045678e-06 -4.94396e-06 -2.4449057e-06

weight f4 [96, 96]
00000000: 0d42 98b5 ad1e 0eb7 f685 c0b6 30cc ea34
00000010: 9e9d eeb6 33fd edb4 7354 09b7 254c 98b5
00000020: 59a9 b834 4f6e 7fb5 c68a 7ab5 ced9 04b7
00000030: 88fa bab6 ce18 98b5 6233 c2b6 eb5a 14b7
00000040: 7c26 a8b6 d740 eeb6 f70a 5934 f747 d734
00000050: 1e15 9fb6 b9f4 6fb6 f567 66b4 09e4 97b5
00000060: e232 d7b6 db6c 8bb5 740a b834 c9b0 feb4
00000070: 612d 4134 7227 32b5 ebf8 97b5 9657 bfb6
00000080: 25f3 8ab6 018c 41b5 0bf1 91b5 1708 9634
00000090: 62cb 92b5 1061 98b5 b102 4434 0515 adb6
000000a0: 8236 8cb5 19c3 f834 7bcc 97b5 af8f 9534
000000b0: 869a 9132 4376 c7b6 3875 04b7 d36b a634
000000c0: 2aec 8ab5 2161 98b5 ea56 6bb5 cdf9 8334
000000d0: 538c fab4 11c0 9ab5 3537 bdb6 2441 87b5
000000e0: 077b d6b6 80ff da34 cb22 91b5 78e4 e734
000000f0: e235 0bb7 63bb dab6 86d6 8ab5 70dc f5b6
00000100: 823b 70b5 6f4b d4b2 d28a 8eb5 0e33 e2b4
00000110: f7eb f9b6 d1dc 07b7 443e ccb6 572f 05b7
00000120: b8e5 6cb5 c914 8fb5 79be 9fb6 e84e bbb6
00000130: 1c4e 95b5 7b98 05b5 969b d6b5 40f8 4734
00000140: f844 66b5 d0b5 91b5 6269 1fb4 f6bb 0535
00000150: 7f87 0fb4 394d 98b5 4ae0 eab6 2d7d 33b5
00000160: 03cc 10b7 4063 9534 a8e6 dbb6 c8ed bdb6
00000170: 07bd e1b6 0cff d033 2281 0535 01a3 82b5
00000180: 6422 0536 0056 3836 f24f 5c36 edf5 2736
00000190: abae 4836 f841 5a36 6427 2d37 54df 1bb5
000001a0: 247a a535 b4b4 5536 32a4 e336 b9f6 1336
000001b0: b874 3436 5834 3134 d41f d134 c315 6036
000001c0: 2caa 5736 8447 e636 21d7 8137 8e78 4c36
000001d0: b7e5 b237 905e 5336 b8e0 5d36 66ef b937
000001e0: 22b6 9336 c51c 0036 b500 4db5 f13b 2237
000001f0: 5b98 5c36 c41a 5036 136c 61b5 2898 5f36
00000200: fcde fb32 f7be 5a36 db55 ac35 fb7c 8935
00000210: 4a6f 59b5 b32d 21b5 0acc 5f36 e18b 1936
00000220: 9eab c3b4 1077 1f36 02d3 7835 8cd8 0c36
00000230: 5f6c 5536 bd84 d233 bff7 df35 f874 5c36
00000240: e295 a935 7b7a dbb4 e9e1 5f36 dde1 9336
00000250: 43cc 0a35 d1bd 4437 7c12 5c36 efcd 5f36
00000260: 5931 c4b4 03ee d035 4b74 d235 66e5 47b7
00000270: 3913 6036 6ef3 e837 5af6 9f34 b4ce 9a36
00000280: 4ea5 4c36 2e5e 4436 5017 6036 97da 5fb5
00000290: 2655 ae33 ea11 2736 0740 a437 4ef1 5f36
000002a0: b1a9 6db7 c368 4d36 8572 47b5 55a6 5f36
000002b0: cb56 ab37 d55d dd36 e0df 2236 f96c 3336
000002c0: 581a 57b6 f713 6036 e663 5336 17a2 5636
000002d0: 1494 38b5 6b11 57b5 d9a5 9c37 986d 5f36
000002e0: af2d 3b37 9b34 7633 1ded 5436 cb22 5236
000002f0: 063a 4235 d533 bd36 875a 83b7 d49b 44b5
00000300: f81d 9136 499c 1d37 7e38 9635 1efd 9cb4
00000310: 7f75 ad34 459a 8934 fc15 cb34 257d 9534
00000320: 5370 a7b3 b418 c634 7a8d cbb7 0873 9035
00000330: 5d26 1eb6 f8e2 0037 8a75 47b7 3142 a2b4
00000340: 405f 9135 7074 b9b3 0626 aa34 9833 b6b3
00000350: f5ab 6d35 659f 8834 8389 bb34 b3ca 8734
00000360: 4501 0238 662f 92b4 21ba ecb6 3e05 4eb4
00000370: a63f 1837 f58a 1c36 1fdd 8735 2c8b 5033
00000380: ce10 9934 1b57 a935 d6a9 f133 63dc 85b3
00000390: 0dfb c8b7 060a 9435 89bb 6035 1e55 6a35
000003a0: fe5b 3537 18b8 8bb4 bc6a d635 547d 1f35
000003b0: 064c a3b4 a1e5 fcb7 f22c a234 2b57 1437
000003c0: e889 5136 4ef7 9b35 dee3 9f36 dc9b 5236
000003d0: b951 d135 e5a2 c634 4faf 1536 a439 2136
000003e0: 6d38 c334 61cd 46b4 ede5 3635 cf03 86b4
000003f0: 4d93 a234 fe0d 1c36 af75 bd34 3041 2237
-1.1344106e-06 -8.471002e-06 -5.737641e-06 4.3734462e-07 -7.111302e-06 -4.4328917e-07 -8.185499e-06 -1.1347043e-06
3.4395887e-07 -9.515542e-07 -9.33342e-07 -7.918525e-06 -5.5723976e-06 -1.1332102e-06 -5.7876323e-06 -8.842656e-06
-5.0112703e-06 -7.100501e-06 2.0213689e-07 4.0099232e-07 -4.7410276e-06 -3.5756223e-06 -2.1458239e-07 -1.1316744e-06
-6.413423e-06 -1.0387988e-06 3.4280276e-07 -4.7439815e-07 1.7991034e-07 -6.636757e-07 -1.1322821e-06 -5.70244e-06
-4.1410262e-06 -7.2101835e-07 -1.0873495e-06 2.7945563e-07 -1.093704e-06 -1.1353131e-06 1.8254902e-07 -5.1582488e-06
-1.0446677e-06 4.6335552e-07 -1.1309888e-06 2.7857956e-07 1.695049e-08 -5.9444296e-06 -7.895105e-06 3.0998362e-07
-1.0350534e-06 -1.1353151e-06 -8.76708e-07 2.4582405e-07 -4.6668228e-07 -1.1529793e-06 -5.639066e-06 -1.0077242e-06
-6.3920193e-06 4.0791565e-07 -1.0813468e-06 4.3193336e-07 -8.297591e-06 -6.518721e-06 -1.0344236e-06 -7.3272313e-06
-8.949356e-07 -2.4714351e-08 -1.0620226e-06 -4.2132928e-07 -7.448248e-06 -8.09804e-06 -6.0869224e-06 -7.93844e-06
-8.8251136e-07 -1.066038e-06 -4.760743e-06 -5.58222e-06 -1.1124098e-06 -4.976825e-07 -1.5989524e-06 1.8623632e-07
-8.578204e-07 -1.0856256e-06 -1.4846367e-07 4.981988e-07 -1.3367206e-07 -1.1347357e-06 -6.999854e-06 -6.686485e-07
-8.630569e-06 2.7825627e-07 -6.5535605e-06 -5.6603203e-06 -6.727528e-06 9.7321475e-08 4.9734274e-07 -9.733195e-07
1.9838562e-06 2.7468195e-06 3.282909e-06 2.5028087e-06 2.9903993e-06 3.252293e-06 1.0320775e-05 -5.8066985e-07
1.2329006e-06 3.1844656e-06 6.784242e-06 2.2048318e-06 2.689003e-06 1.6503452e-07 3.8952442e-07 3.3391268e-06
3.213655e-06 6.8628597e-06 1.5478176e-05 3.046854e-06 2.1326223e-05 3.1496493e-06 3.306237e-06 2.2165197e-05
4.4021444e-06 1.9090232e-06 -7.636948e-07 9.669909e-06 3.2871237e-06 3.1009995e-06 -8.39763e-07 3.3318156e-06
2.9321647e-08 3.2595688e-06 1.2839986e-06 1.024367e-06 -8.1000746e-07 -6.0043675e-07 3.3348356e-06 2.2880197e-06
-3.6446448e-07 2.376215e-06 9.2694256e-07 2.0987673e-06 3.1802554e-06 9.803032e-08 1.6686898e-06 3.285064e-06
1.2635103e-06 -4.0881045e-07 3.3361086e-06 4.4072353e-06 5.1706246e-07 1.1726705e-05 3.2793314e-06 3.3349459e-06
-3.654375e-07 1.5566478e-06 1.5680065e-06 -1.1914735e-05 3.338979e-06 2.7769911e-05 2.9795302e-07 4.613621e-06
3.0494589e-06 2.9261096e-06 3.339217e-06 -8.3392064e-07 8.117995e-08 2.4895367e-06 1.9580139e-05 3.3370047e-06
-1.416581e-05 3.060836e-06 -7.4299925e-07 3.3326407e-06 2.0425205e-05 6.5972367e-06 2.4270194e-06 2.673651e-06
-3.205283e-06 3.3390222e-06 3.1499599e-06 3.1982834e-06 -6.8760824e-07 -8.011909e-07 1.8673878e-05 3.3293381e-06
1.1156705e-05 5.7324183e-08 3.172848e-06 3.131269e-06 7.2355067e-07 5.638673e-06 -1.5658572e-05 -7.324245e-07
4.3248256e-06 9.394317e-06 1.1192312e-06 -2.924143e-07 3.230925e-07 2.5630484e-07 3.7827692e-07 2.7844467e-07
-7.796975e-08 3.6898348e-07 -2.4265366e-05 1.0762315e-06 -2.3566165e-06 7.68224e-06 -1.1888691e-05 -3.0223012e-07
1.0831063e-06 -8.635914e-08 3.1692633e-07 -8.48442e-08 8.853961e-07 2.544795e-07 3.4931517e-07 2.5293193e-07
3.0995598e-05 -2.7229106e-07 -7.0550163e-06 -1.9187152e-07 9.074725e-06 2.3326695e-06 1.0122639e-06 4.855535e-08
2.8510698e-07 1.2616832e-06 1.125333e-07 -6.233383e-08 -2.3958763e-05 1.1029776e-06 8.37194e-07 8.7295655e-07
1.0809859e-05 -2.6024713e-07 1.5975306e-06 5.941449e-07 -3.041643e-07 -3.014767e-05 3.0207553e-07 8.841783e-06
3.12237e-06 1.1620375e-06 4.7650965e-06 3.138316e-06 1.5595498e-06 3.6998895e-07 2.2304773e-06 2.402442e-06
3.6362636e-07 -1.8514903e-07 6.813487e-07 -2.4962216e-07 3.0282027e-07 2.3253956e-06 3.528962e-07 9.67113e-06

weight_ih_l0 f4 [384, 96]
00000000: d346 94ba 19bb a33a 0a87 5cbb 8934 0739
00000010: 27f6 3139 4365 3d3a 7a40 b938 dadb efb9
00000020: 2aa0 0c3b 7efb 44ba d42b e53a 1c3e f2ba
00000030: 85c7 943a 8412 b33b 5450 c8ba e56d b439
00000040: 9607 8b3a cb57 9639 7914 fa3a b4fb 11bb
00000050: b092 e5b9 b29f 073b 295f 993a dea7 ac3b
00000060: d08c 953a 996c 0c3b 0ff9 9d3a b1b8 8439
00000070: da2e 453b 0606 4d3a 0e5e 413b a7a1 61bb
00000080: 9b88 f23a 2d2c 403a fa3d 1b3b 1fda 483a
00000090: 3150 2e3b 5baa 34ba f4de 81bb 7ba4 543a
000000a0: 92a4 0cbb 07c9 16bb 4e60 043b a35b 57bb
000000b0: 1f45 173b 7d9d 7a3a 9f18 e23a 6fb3 2aba
000000c0: 9ef4 35bb 92c0 41ba 86fe 13ba 0463 513b
000000d0: ce2f 9bba f90c 5bbb 8e4c c33a df19 493b
000000e0: bd3c a339 0cd2 c6ba 3dd0 823b 204b 043b
000000f0: 82bd c2ba b3e6 33bb 127b 67ba 768f 66bb
00000100: c7bf 833a 0c61 02bb db70 033b abd2 6aba
00000110: 4a3b f8b9 4cde 04b8 9dfa 01bb b50d b63b
00000120: 0567 503b d9cf eaba bae7 78bb f93a 09bb
00000130: 4b11 a83a 0703 42bb a704 1ebb 317c adba
00000140: 632a 1ebb 56f0 20ba f5ad 793b c495 9a3b
00000150: 0a44 af3b 8b60 d4ba 29fb 093b c5a6 cc3a
00000160: 2778 d539 08ee 123a 3fe8 963a d3c7 3abb
00000170: ed3a 1a3a 4b8e daba fa65 dd3a 2cc4 aeba
00000180: 1f26 9139 cbc9 103b 3df4 3abb f49e 4f3b
00000190: 4c67 263b ddf6 d73a 26f7 843a 40d4 4eb9
000001a0: 528b 783b 20be 8939 7c6a 903b ee18 88b9
000001b0: 45a5 013b eccd 033c 4cf9 7039 373b 273a
000001c0: 13fb fd3a f066 023a 4845 3c3b 323c cbba
000001d0: 653d e23a 0dda 663b c47e d23a ec85 ea3b
000001e0: 03e9 263b 5890 783b 9782 f83a 5b75 133b
000001f0: f5c2 983b b437 3f3b bcfc 8a3b 4c34 30bb
00000200: 2e48 493b 37b6 133b 285c 7c3b e259 fb3a
00000210: 0f54 783b 960d 983a d7d8 4abb ea0d 253b
00000220: 0a18 c6ba 3d11 2dba 011d 723b c508 4dbb
00000230: 58af 623b 4de1 973b d3f6 523b defb 5cba
00000240: f4b0 30bb 0f6e 113a e15a 133b 913c cd3b
00000250: f2ca 5b3a acd0 7cbb 42e5 223b 377d c43b
00000260: 9194 2f3b 820c 6cb9 872a be3b 010b 353b
00000270: 424a dc3a 7362 1cbb 16dd 1f3a 8644 c7bb
00000280: 5bde fd3a 2833 bcba 68bb 543b 5e5c 463a
00000290: db82 983a f074 0f3a f2a0 d7ba cdb3 103c
000002a0: 7e8a a33b 954b 3bba 473a 92bb dd44 c9ba
000002b0: ffb7 2f3b aa49 95bb db99 41ba 6a9e f6ba
000002c0: 4c82 21bb d2a6 1239 0829 d03b ef47 fd3b
000002d0: 1e62 ef3b 3404 afba 82fb 6b3b 6081 193b
000002e0: 6e4a 193a 0966 7c3a 5781 203b 001e 2ebb
000002f0: b900 e43a fd5b 16ba fc48 1e3b 432a 6f3a
00000300: 5b87 093c 59b7 d23b cf69 913b fc64 643c
00000310: 1d60 5d3c 1307 e63b f1ed db3b bd78 7f3b
00000320: 3de7 3b3c 77c3 b83b 37c5 553c 85d7 213c
00000330: 1f2a c73b c32d a23c 2548 1c3c 45b2 363b
00000340: 310a 143c e84c 973b 1138 073c 6cd4 c43b
00000350: 9fba 513c 05f1 393c 8037 af3b caeb 8b3c
00000360: 691b 1a3c fea1 173c 113b ce3b 1339 173c
00000370: f9f4 343c 06e1 313c d4de 303c c0b8 bc3b
00000380: ef5a 173c 2f1b 1d3c dfb4 173c cf59 f93b
00000390: 7adc 063c 8a3c 2a3c 6c8c 913b d252 103c
000003a0: 6fa1 8d3b d46b 103c edb0 273c adcf 003b
000003b0: 3bfc 1e3c 6228 853c d16d 2a3c dd7a bc3a
000003c0: 800b bcb9 3758 f13b 62d8 553c a2c3 9a3c
000003d0: 496a 243c f9bc de39 522e f93b f184 8c3c
000003e0: 1a59 5f3c daef db3b e2db 5c3c 1a91 153c
000003f0: 63a0 6a3c 3289 473b 3523 133c 522e 5abc
-0.0011312611 0.0012491673 -0.0033649825 0.00012894174 0.00016971734 0.0007224867 8.833497e-05 -0.00045749435
0.002145777 -0.0007514282 0.0017484375 -0.0018481645 0.0011350965 0.0054648537 -0.0015282729 0.00034414153
0.0010607119 0.0002867564 0.0019079588 -0.002227527 -0.00043787574 0.002069455 0.0011701334 0.0052690348
0.0011409763 0.0021427034 0.0012052375 0.00025314608 0.003008774 0.0007821027 0.0029505524 -0.0034428628
0.0018503846 0.00073308015 0.0023688064 0.0007661897 0.002659809 -0.000689184 -0.0039633457 0.00081116677
-0.0021460396 -0.0023008005 0.0020199004 -0.0032861016 0.002308197 0.0009560211 0.0017249769 -0.0006511723
-0.0027764211 -0.0007391061 -0.0005645532 0.0031949887 -0.0011839808 -0.003342448 0.0014900134 0.0030685586
0.00031135036 -0.00151688 0.003992109 0.002018638 -0.0014857503 -0.002745074 -0.00088302896 -0.0035180724
0.0010051661 -0.001989427 0.002005628 -0.00089577836 -0.0004734642 -3.1678283e-05 -0.0019833215 0.005555833
0.0031799686 -0.0017914727 -0.0037979917 -0.0020939691 0.0012822537 -0.0029603855 -0.002411166 -0.0013235864
-0.0024134151 -0.00061393285 0.0038098071 0.0047175605 0.005348687 -0.0016203088 0.0021054244 0.0015613666
0.00040716046 0.00056049274 0.0011513307 -0.0028500452 0.00058834144 -0.0016674487 0.0016891353 -0.001333361
0.00027684958 0.0022092934 -0.0028526925 0.0031680437 0.002539116 0.0016476769 0.0010144457 -0.0001972476
0.0037924838 0.0002627233 0.004407225 -0.00025958515 0.0019782346 0.008044701 0.00022981054 0.0006379368
0.0019377194 0.00049744453 0.0028727818 -0.001550561 0.0017260729 0.0035225183 0.0016059508 0.007157078
0.0025468476 0.0037927832 0.0018959817 0.002250037 0.0046619126 0.0029177489 0.004241554 -0.002688664
0.0030713188 0.0022539028 0.0038507078 0.0019176567 0.00378919 0.0011600729 -0.0030952 0.0025185295
-0.0015113365 -0.0006601995 0.0036943557 -0.0031285745 0.0034589376 0.0046350122 0.0032190576 -0.0008429865
-0.002696094 0.0005547711 0.0022484588 0.0062633236 0.0008384428 -0.0038576527 0.0024855887 0.005996372
0.0026791433 -0.00022511373 0.0058034095 0.0027624967 0.0016806799 -0.0023862391 0.0006098313 -0.0060811667
0.0019368635 -0.0014358507 0.0032460336 0.00075668644 0.0011635678 0.0005472442 -0.0016451164 0.00883193
0.004990875 -0.00071447465 -0.0044625136 -0.0015355606 0.002681255 -0.0045559006 -0.0007385292 -0.0018815522
-0.0024644313 0.0001398579 0.0063525476 0.0077295224 0.0073053977 -0.0013352693 0.0036008065 0.002342306
0.00058475777 0.00096282415 0.0024491155 -0.0026568174 0.0017395235 -0.0005735753 0.0024152389 0.0009123424
0.008394088 0.006430548 0.004437662 0.013940092 0.013511685 0.0070198863 0.0067117144 0.0038981878
0.011468706 0.0056385356 0.013047508 0.009878044 0.0060780193 0.019797212 0.009538685 0.0027877253
0.009035633 0.0046173222 0.008253113 0.006006768 0.012800842 0.011348967 0.0053471923 0.017080206
0.009405949 0.009254931 0.0062936624 0.009229916 0.011044734 0.010856872 0.010795314 0.0057593286
0.009237989 0.009589001 0.009259432 0.007609583 0.008231277 0.01039041 0.0044417884 0.008808808
0.004322223 0.008814771 0.0102350535 0.0019655034 0.009703691 0.016254608 0.010402159 0.0014379878
-0.00035866722 0.0073652524 0.013052078 0.018892113 0.010035106 0.00042483935 0.0076043988 0.017153235
0.013632083 0.006711942 0.0134801585 0.009128833 0.014320466 0.0030446765 0.008980562 -0.013316708
