Graph Neural Network/Models/SAGEConv_LSTM-D3-F1-mean.pth (torch, 764722 bytes, 23 tensors)

weight_ih_l0 f4 [384, 96]
0	0xbca49e37	-0.020094974
1	0xbd32ee4b	-0.043684285
2	0xbd191262	-0.037371047
3	0x3c423d7e	0.011855481
4	0xbc12c13b	-0.008957203
5	0x3c39b622	0.011334928
6	0x3cc5b347	0.024133338
7	0xbc5617a9	-0.013067164
8	0xbd4fa091	-0.050690237
9	0xbba68e4e	-0.005082882
10	0x3cda549b	0.026651671
11	0x3d0c6a5b	0.034281116
12	0xbd30e464	-0.04318656
13	0xbcf998fc	-0.030468456
14	0xbbc4371f	-0.0059880163
15	0xbd108ef2	-0.035292573
16	0xbd3e8150	-0.04651004
17	0x3c60d9a0	0.013723761
18	0x3c164586	0.009171849
19	0xbd4069e6	-0.046975993
20	0xbc3e4332	-0.0116127
21	0xbd5699cb	-0.052392762
22	0xbd2a929d	-0.041643728
23	0xbceaeaf6	-0.028676491
24	0x3ab1c3e3	0.0013562407
25	0x3cf7cd5b	0.030249288
26	0x3bb7a037	0.005603816
27	0x3d462710	0.048377097
28	0xbd134b99	-0.035960767
29	0x3d391461	0.04518545
30	0x3b9f331f	0.004858389
31	0xbd208240	-0.039186716
32	0xbc8c6c95	-0.01714162
33	0xbd31fe07	-0.04345515
34	0xbccf8000	-0.02532959
35	0xbd423687	-0.047415283
36	0xbcc2ec2a	-0.023794252
37	0xbd3c4506	-0.045964263
38	0x3c822b7b	0.015889874
39	0x3b6eacfe	0.003641903
40	0xbcd9f67e	-0.026606794
41	0x3ca5d093	0.020241058
42	0xbc130e7f	-0.008975624
43	0xbd550002	-0.05200196
44	0xbd265628	-0.04060951
45	0xbcebe530	-0.028795809
46	0xbd41aec4	-0.04728581
47	0x3bec9a81	0.0072205667
48	0xbc36d8ba	-0.01116007
49	0xbd34ba3c	-0.04412292
50	0x3abb3081	0.0014281423
51	0x3d3b24d0	0.045689404
52	0x3ccf2a53	0.025288736
53	0x3d1e8c5b	0.038708072
54	0x3c8b8f05	0.01703597
55	0x3cc198c3	0.023632413
56	0x3c9c14fc	0.019052975
57	0x3c29105c	0.010318842
58	0x3c883525	0.016626904
59	0x3cbcf540	0.023066163
60	0xbc4f38b9	-0.012647801
61	0x3c1d4fec	0.009601574
62	0xbc95a311	-0.018266233
63	0x3b73363d	0.0037111186
64	0x3d438d22	0.047742017
65	0xbd5be0e8	-0.053681284
66	0xbd3710f8	-0.044693917
67	0x3cd9899d	0.026554877
68	0xbbd9d7d7	-0.0066480446
69	0xbcf518a9	-0.029918985
70	0xbd2db1ed	-0.04240601
71	0x3d2048e9	0.039132033
72	0xbd41189c	-0.04714261
73	0x3d326948	0.043557435
74	0xbb92e807	-0.004483226
75	0xbbadd664	-0.0053050984
76	0xba92c347	-0.0011197113
77	0x3d25a23f	0.040437933
78	0xbd3c7ba7	-0.04601636
79	0x3d209cf0	0.039212167
80	0xbc5820a2	-0.013191374
81	0x3d41b188	0.047288448
82	0xbc948350	-0.01812902
83	0xbcf6c59f	-0.03012353
84	0xbce3f957	-0.027828855
85	0x3c219b5e	0.009863703
86	0xbc1fbd0d	-0.009749663
87	0x3cbf878c	0.023380063
88	0x3d208d89	0.03919748
89	0x3c19435a	0.009354437
90	0xbce7c28f	-0.028291015
91	0xbc8e8780	-0.017398596
92	0xbbdfdb81	-0.006831587
93	0x3d0c0745	0.03418662
94	0x3c0859c3	0.008322182
95	0x3cae0243	0.021241313
96	0xbc0da0f7	-0.008644334
97	0x3bbb9f41	0.0057257717
98	0x3cb6fca5	0.022337267
99	0xbc8250fd	-0.015907759
100	0xbd6422b6	-0.055697165
101	0xbd30f4ec	-0.043202326
102	0x3c6b8e1f	0.014377146
103	0x3d080003	0.033203136
104	0x3cc0e7cc	0.02354803
105	0xbd42143d	-0.047382582
106	0xbb457732	-0.003013086
107	0xb90b9a09	-0.00013313456
108	0x3d14cc89	0.036327872
109	0xbc982354	-0.018571533
110	0xbcf50a5a	-0.029912163
111	0xbd438050	-0.04772979
112	0x3d870ec2	0.06594612
113	0xbbd0f723	-0.0063771172
114	0x3d41e00c	0.04733281
115	0xbc54c756	-0.0129869785
116	0xbd0d08db	-0.034432273
117	0x3d7b17c6	0.06130197
118	0x3ba08383	0.00489849
119	0xbcf064f1	-0.029345008
120	0x3b8cb8b9	0.0042944816
121	0xbd2e99ca	-0.042627133
122	0xbd00e2a4	-0.03146614
123	0x3d63ff3a	0.055663325
124	0xbcb2367d	-0.021754498
125	0xbcc2470f	-0.023715524
126	0x3cd7bf63	0.026336377
127	0xbcabba97	-0.020962996
128	0xbd6ae80a	-0.057350196
129	0xbcff9e52	-0.031203423
130	0x3d85eafa	0.06538959
131	0xbd5b393b	-0.053521376
132	0xbd645073	-0.055740785
133	0x3c569ff7	0.013099662
134	0x3c15f457	0.009152493
135	0x3d6390cc	0.05555801
136	0x3d5eb4fa	0.05437181
137	0x3c83c6a3	0.016085928
138	0xbd153a6f	-0.03643268
139	0x3cf9ac66	0.030477714
140	0xbc724c04	-0.014788631
141	0x3c050794	0.008119483
142	0xbcbbd5a9	-0.02292903
143	0xbc168c90	-0.009188786
144	0x3cf2b7b4	0.029628612
145	0xbbf3e5dc	-0.007443173
146	0x3d5c3c5e	0.053768508
147	0xbc9c4343	-0.019075042
148	0x3cceb17e	0.02523112
149	0xbd4cebf0	-0.050029695
150	0xbd223612	-0.039602347
151	0x3d1752e4	0.036944285
152	0xbcc16574	-0.023607947
153	0xbd43d0f7	-0.047806706
154	0xbc453519	-0.012036585
155	0x3c8462b2	0.016160343
156	0x3d4b4cdc	0.049633846
157	0x3c2b0a14	0.0104394145
158	0x3d0f7c81	0.035030846
159	0xbcc51afe	-0.024060722
160	0xbcfdac24	-0.030965872
161	0x3cf043e7	0.029329253
162	0x3d16b481	0.036793236
163	0xbd612b9b	-0.054973226
164	0xbd353b7f	-0.044246193
165	0x3d735de9	0.05941573
166	0xbcfc77cf	-0.030818848
167	0x3d31bf5f	0.043395396
168	0x3d09b91b	0.033623796
169	0xbd6a4d52	-0.057202645
170	0x3b57cb69	0.0032927638
171	0xbb9087db	-0.0044107265
172	0xba3d34ae	-0.0007217628
173	0x3ac665ba	0.0015136518
174	0x3c762c4a	0.015025208
175	0xbb83e9fd	-0.0040256963
176	0x3ba1f4bd	0.004942505
177	0x3cb60d10	0.022223026
178	0x3cc128cb	0.023579022
179	0xbd0f5092	-0.034988947
180	0x3c506d88	0.012721427
181	0xbd6949c9	-0.056955133
182	0xbc8fef6b	-0.017570218
183	0xbba8bfab	-0.0051498017
184	0x3d2904af	0.041264232
185	0xbd59c41c	-0.05316554
186	0xbd19acfe	-0.037518494
187	0xbd11a95c	-0.035561904
188	0xbd1692f1	-0.036761228
189	0xbcac53f9	-0.021036135
190	0x3d0c1eac	0.03420894
191	0xbd32ec3c	-0.043682322
192	0xbb1cd13c	-0.0023928424
193	0xbc517e5e	-0.012786476
194	0xbc3ca0db	-0.01151296
195	0x3bb3e64f	0.0054901014
196	0xbbf4a824	-0.007466333
197	0x39f0ee6f	0.00045954014
198	0xbbe0928c	-0.0068534072
199	0xbc275fa4	-0.010215674
200	0xbc827ac1	-0.015927674
201	0xbc2f2839	-0.010690742
202	0xbc4320e2	-0.011909695
203	0xbc2f9ff8	-0.010719292
204	0xbb90d885	-0.0044203424
205	0xbbd4005f	-0.006469771
206	0xbc8cab4c	-0.017171524
207	0xbc7f604b	-0.015586923
208	0xbbe9771f	-0.007124796
209	0xbc9d1a58	-0.0191776
210	0x3b0e3931	0.002170157
211	0xbc8b4825	-0.017002175
212	0x3ba321b5	0.0049783834
213	0xbab6a418	-0.0013934402
214	0xbc529380	-0.01285255
215	0xbbb553a3	-0.005533652
216	0x3bb8d24c	0.0056403037
217	0xbc0f1869	-0.008733847
218	0xbc33d45e	-0.010975925
219	0x3a2f8566	0.0006695598
220	0xbc9a0b86	-0.018804323
221	0xbb7d397f	-0.0038639007
222	0xbc390183	-0.011291864
223	0xbb570238	-0.003280772
224	0xbc2c89ce	-0.010530902
225	0xbb96ebe1	-0.0046057557
226	0x3ba382a0	0.004989937
227	0xbc00bc0b	-0.007857333
228	0xbba98ce3	-0.0051742657
229	0x3a89b6f4	0.0010506795
230	0xbbced827	-0.0063123885
231	0xbc05f553	-0.008176166
232	0xbc6e1065	-0.014530276
233	0xbbe77190	-0.0070630983
234	0xbb82f36a	-0.0039963024
235	0x3b9a4f3a	0.0047091516
236	0xbb78e683	-0.0037979193
237	0x38c6caa3	9.47912e-05
238	0xbb3e6830	-0.00290538
239	0xbc873a18	-0.016507193
240	0xbc995e57	-0.018721743
241	0xbb18deee	-0.0023326236
242	0xbc6c4e82	-0.014423015
243	0xbc978357	-0.018495245
244	0x3a9fd4af	0.0012194122
245	0x3b8d2924	0.004307883
246	0xbba05e21	-0.0048940335
247	0x3b884607	0.0041587385
248	0xbb8c1d1f	-0.0042759324
249	0xbc202052	-0.009773331
250	0xbb977bcd	-0.0046229125
251	0xbc378e4d	-0.011203361
252	0xbc9f54ce	-0.019449618
253	0xbc696394	-0.014244933
254	0xbb96b100	-0.0045987368
255	0x3b23fe77	0.00250235

weight_hh_l0 f4 [384, 96]
0	0x3a2f1c83	0.0006679969
1	0x3c262eac	0.010142963
2	0x39a2e376	0.0003106852
3	0xbc06b699	-0.008222246
4	0x3b952683	0.00455171
5	0xbc98d844	-0.018657811
6	0xbae82534	-0.0017711283
7	0xbbb608b8	-0.0055552386
8	0xba3b0436	-0.00071341114
9	0x3ad794be	0.0016447527
10	0xb9946ffa	-0.0002831219
11	0x3ca72316	0.020402472
12	0x3bb90e45	0.005647453
13	0x3b22096f	0.002472486
14	0xbcc65a0b	-0.024212858
15	0xbcf1f4d0	-0.029535681
16	0x3bb77758	0.0055989437
17	0x3b7a1013	0.0038156554
18	0xb9fed24d	-0.00048603342
19	0x3b734782	0.003712148
20	0x3bc358a9	0.005961497
21	0x3c273ded	0.010207635
22	0xbaeb7ee7	-0.0017966897
23	0xbb68a41b	-0.0035498205
24	0x3b19f30c	0.0023490814
25	0xbd169d23	-0.03677095
26	0xbb982b15	-0.0046438077
27	0xbcbbf2b6	-0.022942882
28	0xbbdf9130	-0.0068227276
29	0x3b8d06b5	0.004303778
30	0x3ab96ba4	0.0014146459
31	0xb9ad0417	-0.00033000179
32	0xbd66f612	-0.056387015
33	0xbaea4f1e	-0.0017876362
34	0xbc98d67d	-0.018656963
35	0x3c20d90f	0.009817376
36	0x3c455f9f	0.012046724
37	0x3cfac0a3	0.030609434
38	0xbc0e175b	-0.008672561
39	0xbcb3d96e	-0.021954264
40	0xbaf07747	-0.0018346094
41	0xbb51965f	-0.0031980497
42	0xbd1e4904	-0.038643852
43	0x3c94047e	0.018068548
44	0x3c20f17c	0.009823199
45	0xbc092cd6	-0.008372506
46	0x3a55fbb9	0.0008162815
47	0x3bbb982b	0.005724927
48	0x3d423106	0.047410034
49	0x3ac79781	0.0015227647
50	0x3c84e9a4	0.01622469
51	0x3ca75415	0.020425836
52	0x3c4d800b	0.012542735
53	0xbbe047ac	-0.0068444815
54	0x3ce8b9e0	0.028408945
55	0xbbaa7b56	-0.005202691
56	0x3b08f72a	0.0020899274
57	0x3bf2a74c	0.0074051972
58	0xbcaba344	-0.020951875
59	0x3b56d3eb	0.0032780122
60	0x39c9a93c	0.00038463797
61	0xbaadc0f2	-0.0013256355
62	0x3b6c0643	0.0036014474
63	0x3cc8d4a2	0.024515454
64	0x3cd52024	0.026016302
65	0xba2a8813	-0.0006505262
66	0x3bfa17a2	0.007632212
67	0xbd1ee3ef	-0.038791593
68	0xbc9dd934	-0.01926861
69	0x3a9c2235	0.001191205
70	0x3c50b259	0.012737834
71	0x3bdff781	0.0068349247
72	0x3ca5e876	0.020252448
73	0xbb790baa	-0.0038001337
74	0xbc7ed656	-0.015554031
75	0x38bbc8a9	8.954231e-05
76	0xbc23d388	-0.009999163
77	0x3ca03cef	0.019560305
78	0x39cea002	0.00039410597
79	0xbd02b45c	-0.031910285
80	0x3bb28bb7	0.005448784
81	0x3b7bd9d8	0.0038429406
82	0xbcba1521	-0.022715153
83	0xbb021564	-0.0019849176
84	0x3b38985d	0.0028166987
85	0xbb7caada	-0.0038553984
86	0x3becb8ad	0.0072241635
87	0x3d1b974a	0.037986077
88	0xbc82ab26	-0.01595075
89	0x3cc594df	0.024118839
90	0xbd0fad8a	-0.03507761
91	0xbb3cd241	-0.0028811845
92	0xbc8bfb44	-0.017087586
93	0xbc8905be	-0.01672637
94	0x3875e8c3	5.8629328e-05
95	0x3ca69c18	0.020338103
96	0x3bee9bff	0.00728178
97	0xbafba681	-0.0019199402
98	0xb886b81b	-6.42391e-05
99	0x3c15d0b6	0.009143999
100	0x3b0b2094	0.0021229135
101	0xbcb3619e	-0.021897133
102	0xbb2594b1	-0.002526563
103	0xbce7a8a2	-0.028278653
104	0xbbc7f144	-0.006101759
105	0x3bdb853a	0.0066992315
106	0x3b853b95	0.0040659406
107	0xbc916b7a	-0.017751444
108	0x3b243980	0.0025058687
109	0x3a9ffb8d	0.0012205705
110	0x3c333ac1	0.010939301
111	0x3c368ffb	0.011142726
112	0x3b7f88c0	0.0038991421
113	0xbbaac172	-0.0052110488
114	0xba9b71fb	-0.001185953
115	0x3c0ca956	0.008585295
116	0xbb3066d9	-0.002691677
117	0xbc4d37bc	-0.012525495
118	0xb9b0f17f	-0.00033749265
119	0xbc0a1d12	-0.008429782
120	0xbc290603	-0.010316375
121	0xbc7fa2d4	-0.015602786
122	0xbbfd87b0	-0.0077371225
123	0x3ccc0e81	0.02490926
124	0xbc53d304	-0.012928728
125	0xbc135930	-0.008993432
126	0x3b7ade9c	0.0038279658
127	0x3c3c21f6	0.011482706
128	0x3c9e7e62	0.019347373
129	0x3c4719ec	0.012152176
130	0x3c79731a	0.015225196
131	0x3bd21c3b	0.0064120567
132	0xbc325c1b	-0.0108862175
133	0x3a96d1ec	0.0011506653
134	0x3cdecf7e	0.02719855
135	0xbc723203	-0.014782432
136	0xbb71fa23	-0.0036922775
137	0x3b9a534e	0.0047096377
138	0xbc6cfd3c	-0.014464673
139	0xbc49e936	-0.012323668
140	0xba4c8d6c	-0.0007803056
141	0x3b818dde	0.0039536795
142	0x3ac6e157	0.0015173358
143	0xb8c4a99b	-9.3776e-05
144	0xbb9d50ac	-0.0048008766
145	0xbb9a501d	-0.0047092573
146	0x3cde3c3d	0.027128333
147	0xbab44858	-0.001375447
148	0x3c380782	0.011232259
149	0x3b44c905	0.0030027044
150	0xbcd0a5a5	-0.02546961
151	0x3c5f7a25	0.013639961
152	0xba7cc083	-0.00096417236
153	0x3a284103	0.0006418379
154	0xbc8edae0	-0.017438352
155	0xbb7cfc86	-0.0038602664
156	0xbc0b8347	-0.008515186
157	0x3bef1913	0.0072966903
158	0xbc29ba19	-0.010359311
159	0x3b4372cc	0.0029823063
160	0x3bbd61b9	0.0057794717
161	0x3acf21de	0.001580294
162	0x3be5b3ab	0.0070099435
163	0xbbf2b6eb	-0.0074070594
164	0xbc86b40a	-0.016443271
165	0xbab5716a	-0.0013843004
166	0xbc2333ce	-0.009961082
167	0xbb8420bb	-0.004032222
168	0x3c8ddaa2	0.017316166
169	0xba3547a9	-0.000691528
170	0xbb4f1ec7	-0.0031604038
171	0x3b6f11d6	0.0036479137
172	0xbc4f6a25	-0.012659584
173	0x3b74484b	0.0037274535
174	0x3b89b848	0.0042028762
175	0x3b9c49b8	0.00476953
176	0xbb4c0eb8	-0.0031136703
177	0x3c7055b7	0.0146688735
178	0x3c95e43a	0.018297303
179	0x3b8b7251	0.004255571
180	0xb9a28a77	-0.00031002212
181	0x3b45b553	0.0030167892
182	0xbbb5c39f	-0.0055470015
183	0xbd033b9b	-0.032039266
184	0xbc111dd9	-0.008857214
185	0x3c820c7a	0.01587509
186	0x3d1ef919	0.038811777
187	0xbaa895f9	-0.0012862078
188	0xbc2054b1	-0.009785817
189	0x3c9b42fe	0.018952843
190	0x3c2ad2a1	0.010426194
191	0x3bbc111e	0.005739345
192	0xb82a5833	-4.06133e-05
193	0xbbd3dc30	-0.0064654574
194	0x3b6233e2	0.0034515788
195	0xbc5b02b2	-0.013367342
196	0x3b0f9f89	0.0021915159
197	0xbbde5d32	-0.006786012
198	0xbb47fb94	-0.0030514942
199	0xbc8d5d18	-0.017256305
200	0xb98d8872	-0.00026995275
201	0x3bbe70e0	0.0058117956
202	0x3a4b9108	0.0007765447
203	0x3bb151fe	0.0054113856
204	0x3bb6a1cd	0.0055734874
205	0x3b91931c	0.0044425856
206	0xbd18c780	-0.037299633
207	0xbd2ba2e9	-0.04190341
208	0x3c12b6ea	0.008954743
209	0x3b16c678	0.002300648
210	0xbbf342cf	-0.0074237357
211	0x3bad0e32	0.005281233
212	0x3b28f9ce	0.002578366
213	0x3c7511d7	0.014957867
214	0xbaffd98a	-0.0019519788
215	0xbbc96d52	-0.006147065
216	0x3b4ada17	0.0030952746
217	0xbd201fbe	-0.03909277
218	0xbbd4f12e	-0.0064984774
219	0xbc2dc19b	-0.010605241
220	0xbcbce6d3	-0.023059284
221	0x3beff041	0.0073223417
222	0x3b8cc78f	0.00429625
223	0x3c22d4d8	0.009938441
224	0xbd5b4ebc	-0.053541884
225	0xb9a3461f	-0.00031142027
226	0xbbfac3d5	-0.0076527395
227	0x3cbf6f4a	0.023368496
228	0x3c4eadf9	0.0126147205
229	0x3c9a98c3	0.01887167
230	0xbb8e7e35	-0.004348541
231	0xbc9d88d3	-0.019230282
232	0xbb77de37	-0.003782166
233	0xbbbf8b6b	-0.0058454773
234	0xbc84cf95	-0.016212264
235	0x3cadddc2	0.021223906
236	0x3b3fe3dd	0.0029280104
237	0x3ae724e0	0.0017634891
238	0xbb5dfd01	-0.0033872726
239	0x3c10610e	0.008812202
240	0x3ca48ca9	0.020086603
241	0xbaf7a227	-0.001889293
242	0x3c1d7afe	0.009611843
243	0x3c68402c	0.014175456
244	0x3c166da6	0.009181416
245	0xbc24988a	-0.010046134
246	0x3ca29619	0.019846963
247	0xbb8a8add	-0.0042279796
248	0x3b7bd35b	0.0038425538
249	0x3bbc7d5d	0.005752249
250	0xbd0335d2	-0.03203375
251	0x3a64d58d	0.00087293313
252	0x3ac1b7b3	0.0014779478
253	0xbae0c60f	-0.001714887
254	0xbb864d0c	-0.00409854
255	0x3cd88389	0.026429908

bias_ih_l0 f4 [384]
0	0x3b46e0d8	0.003034642
1	0xbc5ad0d5	-0.0133554535
2	0xbd9ff07f	-0.07809543
3	0xbcf51ae2	-0.029920045
4	0x3b89f7ca	0.004210447
5	0x3d52c414	0.051456526
6	0xbd86215b	-0.06549331
7	0xbd696db7	-0.056989398
8	0xbd4dfc5e	-0.050289504
9	0x3dd5f532	0.10447158
10	0x38b55bd0	8.647854e-05
11	0x3db0269e	0.08601116
12	0x3d64a7bf	0.055824038
13	0xba9dcda7	-0.0012039439
14	0x3d9fb31c	0.07797834
15	0x3c944902	0.01810122
16	0x3c8cf361	0.017205896
17	0xbcb108a2	-0.021610562
18	0xbda0655a	-0.07831831
19	0xbd540fab	-0.051772755
20	0xbbd2dce7	-0.006435025
21	0x3c5f920d	0.013645661
22	0xbd79da65	-0.060999293
23	0x3b5f22a9	0.0034047759
24	0x3c48aad6	0.012247762
25	0x3d9481a8	0.072512925
26	0x3db109ad	0.08644424
27	0x3b6424ed	0.0034812049
28	0xbd5b8d2f	-0.05360144
29	0xbdd70fe3	-0.10501077
30	0x3c655186	0.0139964875
31	0x3d9513c2	0.07279159
32	0xbd9e6f97	-0.07736128
33	0xbcb43d04	-0.02200175
34	0x3cdb770f	0.02679017
35	0xbd37f5ff	-0.044912335
36	0xbcbdaebd	-0.02315461
37	0x3c8e7b82	0.017392877
38	0xbd40c09a	-0.04705868
39	0x3d163f6e	0.036681585
40	0xbc813ff0	-0.015777558
41	0xbca5871e	-0.02020603
42	0x3c43fc81	0.011962057
43	0xbc2185ba	-0.009858543
44	0x3d74943c	0.05971168
45	0x3db5b48d	0.08872328
46	0x3d874b19	0.066061206
47	0xbc311b8a	-0.0108097885
48	0xba5cd8c9	-0.00084246375
49	0xbd841b44	-0.06450513
50	0x3c2fb02e	0.010723157
51	0xbd6a761e	-0.05724155
52	0x3c9aa93e	0.01887953
53	0xbc409d52	-0.011756258
54	0xbcc2d848	-0.023784772
55	0x3bda07a9	0.006653745
56	0xbd9065cf	-0.070506684
57	0xbd60ab6a	-0.054850973
58	0x3d1aef69	0.037825976
59	0x3b89a607	0.0042007
60	0xbd0203bf	-0.031741854
61	0x3c262b7b	0.0101422025
62	0xb9af2366	-0.00033404975
63	0x3897276b	7.207583e-05
64	0xbd8ddd4e	-0.06926976
65	0xbd65ba6f	-0.056086
66	0xbcfceec5	-0.030875573
67	0xbd4f12a8	-0.0505549
68	0xbd4b3a5f	-0.049616214
69	0xbdb3c194	-0.087771565
70	0xbda7baef	-0.08189952
71	0x3d1527ec	0.036415026
72	0xbd557d63	-0.05212153
73	0x3b88a1c4	0.0041696746
74	0x3d9c65fe	0.07636641
75	0x3d24069e	0.040045373
76	0x3d228230	0.039674938
77	0xbce1f303	-0.027581697
78	0xbbf66f45	-0.0075205886
79	0x3c98ef3a	0.01866876
80	0xbb913b45	-0.0044321143
81	0x3d6059c1	0.054773096
82	0x3d842e5f	0.06454157
83	0x3cfca539	0.030840503
84	0x3ccd77c6	0.025081526
85	0x3d0aff55	0.03393491
86	0xbc84615b	-0.016159704
87	0x3d47cc76	0.048778974
88	0xbcf7f713	-0.030269181
89	0x3dcb39ab	0.09923109
90	0x3d40198f	0.046899375
91	0x3d4b598a	0.049645938
92	0x3d824f6d	0.063628055
93	0xbc9c74da	-0.019098688
94	0xbd0b29dc	-0.033975467
95	0xbc9d037e	-0.019166704
96	0xbdb4793d	-0.08812187
97	0x3cb22e33	0.021750545
98	0xbc086b3b	-0.008326347
99	0x3e115bfd	0.14195247
100	0x3d2e7ac7	0.04259756
101	0x3d43a6e6	0.04776659
102	0xbdbbd089	-0.09170634
103	0x3e1448de	0.14480922
104	0xbc60ddb8	-0.013724737
105	0xbc0d780b	-0.0086345775
106	0xbda59ed5	-0.080869354
107	0x3dc2b90d	0.09507952
108	0x3dd2d0da	0.102937415
109	0x3caa39a9	0.020779448
110	0xbd3a62cc	-0.045504376
111	0xbd0fc1f5	-0.03509708
112	0xbcf44936	-0.029820066
113	0x3d5a1eb0	0.053251922
114	0x3d4f60c0	0.050629377
115	0xbd77a6ae	-0.060461693
116	0x3d07a6a8	0.03311792
117	0x3dd34965	0.10316733
118	0xbc860017	-0.016357465
119	0xbb270463	-0.0025484792
120	0xbb492ada	-0.0030695708
121	0x3c5dcf57	0.013538203
122	0x3dec5c75	0.11541072
123	0xbce1d4c7	-0.02756728
124	0x3d2daa9d	0.042399038
125	0xbda97187	-0.08273607
126	0xbdb01d5f	-0.08599352
127	0x3dab333c	0.083593816
128	0x3e0db1a5	0.13837297
129	0xbd44d894	-0.048058107
130	0xbd948522	-0.072519556
131	0x3d90cc63	0.07070234
132	0xbc0887f0	-0.008333191
133	0x3d80f0b7	0.06295913
134	0xbd3b2ea3	-0.045698773
135	0xbd854618	-0.0650751
136	0xbd3d8d5c	-0.04627739
137	0xbb8c4f17	-0.004281889
138	0x3d814dbf	0.06313657
139	0x3d85fc9f	0.06542324
140	0x3adc7750	0.0016820226
141	0x3d56de42	0.052458055
142	0xbd4ff47d	-0.05077027
143	0xbdc5319d	-0.096286036
144	0x3c9d31c3	0.019188767
145	0xbcf07601	-0.029353144
146	0x3d8f1134	0.06985703
147	0x3dc0dce2	0.0941713
148	0xbd9f538b	-0.077796064
149	0x3d923b31	0.07140196
150	0x3de646e4	0.1124399
151	0xbc8c52f2	-0.017129395
152	0x3d934fb1	0.07192934
153	0xbd343fd3	-0.04400618
154	0x3d0baa2f	0.034097847
155	0x3cca8478	0.02472137
156	0x3d8a1077	0.06741422
157	0x3d0a35f4	0.03374286
158	0xbdba6799	-0.09101791
159	0x3dc7b4c0	0.09751272
160	0x3dacfa4d	0.084461786
161	0xbd99c58a	-0.07508381
162	0x39b62704	0.00034742814
163	0xbaf23df4	-0.0018481598
164	0xbd312290	-0.043245852
165	0x3cad34f9	0.021143423
166	0xbd81f728	-0.063459694
167	0xba54087a	-0.00080884213
168	0x3d5ff051	0.054672543
169	0x3d4d9b7c	0.05019711
170	0x3d7bed54	0.06150563
171	0x3bb6d3c0	0.005579442
172	0xbd905ac7	-0.070485644
173	0xbdbd6bb8	-0.09249061
174	0x3c0f01c8	0.008728452
175	0xbd1e3536	-0.038624965
176	0xbd3b49b9	-0.045724604
177	0x3d56e7b9	0.05246708
178	0x3d2223d4	0.03958495
179	0xbcbec624	-0.02328784
180	0x3d640209	0.055666003
181	0xbd669239	-0.056291793
182	0x3c64aa6f	0.01395665
183	0xbd93f3c8	-0.07224232
184	0x3ddf2533	0.10895767
185	0x3dbb4575	0.09144107
186	0x3d771426	0.06032195
187	0xbc04b0f6	-0.008098831
188	0x3b82a5b1	0.003987037
189	0xbd1e5a8e	-0.03866058
190	0x3dc78d94	0.09743801
191	0x3d194a46	0.03742435
192	0xbc9b1408	-0.01893045
193	0xbc94a646	-0.018145692
194	0xbc06bb83	-0.008223417
195	0xbcc841e0	-0.024445474
196	0xbcb4625f	-0.022019563
197	0xbceda106	-0.029007446
198	0x3dbf7bbc	0.09349772
199	0xbca73a1c	-0.02041345
200	0xbcc6fabf	-0.024289487
201	0xbd9a199f	-0.07524418
202	0x3d2c9c52	0.042141266
203	0x3cd6aae0	0.026204526
204	0xbd098f8d	-0.033584166
205	0xbd660ebe	-0.056166403
206	0xbd1de5f4	-0.03854938
207	0xbce4ab2b	-0.02791365
208	0xbdabf7a2	-0.083968416
209	0x3d6ddaaa	0.058069862
210	0x3d92cc2b	0.07167848
211	0xbb4f8ec6	-0.0031670793
212	0x3cf7173e	0.03016245
213	0xbda28c5d	-0.079369284
214	0x3d199d05	0.03750326
215	0x3da6630d	0.08124361
216	0xbd1c1313	-0.038104128
217	0x3d73e64d	0.059545804
218	0x3bd12bf8	0.0063834153
219	0x3dc599f0	0.09648502
220	0x3dd96be2	0.1061628
221	0xbd989613	-0.074504994
222	0xbd8e5189	-0.06949145
223	0xbc80dfef	-0.01573178
224	0x3d57321b	0.05253802
225	0xbde6d050	-0.11270201
226	0xbd8a33b4	-0.06748143
227	0xbd8861c4	-0.06659272
228	0x3b93b1c4	0.0045072753
229	0xbd10cfc8	-0.035354406
230	0x3db44259	0.08801717
231	0x3d879073	0.066193484
232	0x3dbae63c	0.09125945
233	0x3c87bb3e	0.016568776
234	0xbd9b1e1d	-0.07574103
235	0xbd5ae045	-0.053436536
236	0xba3c5b81	-0.0007185266
237	0xbd76a63d	-0.06021713
238	0x3d100092	0.035156794
239	0xbd8f4959	-0.06996412
240	0xbcb9a760	-0.022662818
241	0x3d19d6d7	0.037558403
242	0x3daabbe9	0.08336622
243	0xbd2ac2bd	-0.041689623
244	0xbd2e4fe4	-0.04255666
245	0x3c752185	0.014961605
246	0x3dd9e3ca	0.106391504
247	0x3bbefeac	0.005828699
248	0x3ce186ae	0.02753004
249	0xbd0024c8	-0.031285077
250	0xbd73da93	-0.05953462
251	0xbcd7393c	-0.026272409
252	0x3cdd3dd3	0.02700702
253	0xbd71684d	-0.05893736
254	0x3cf62f2c	0.03005179
255	0x3d84835a	0.06470366

bias_hh_l0 f4 [384]
0	0xbd8f182c	-0.06987032
1	0xbcd3f0c6	-0.025871646
2	0xbd4b4bc2	-0.049632795
3	0xbd843da5	-0.0645707
4	0x3dc0eb44	0.09419873
5	0xbd00e7b9	-0.031470988
6	0x3d1b9e75	0.037992913
7	0xbd191d20	-0.03738129
8	0x3c59a817	0.013284705
9	0x3db7076e	0.08936964
10	0x3d64f70c	0.055899665
11	0xbcdc7191	-0.026909621
12	0x3d853146	0.06503539
13	0xbc41cff3	-0.011829364
14	0x3cef3331	0.029199215
15	0xbb92b14f	-0.0044767032
16	0xbd02f5e7	-0.031972792
17	0x3d55fcf6	0.052243195
18	0xbcf7919b	-0.030220797
19	0xbc720514	-0.0147717185
20	0x3d4662cb	0.04843406
21	0x3d8c466c	0.068493694
22	0x3bc5605d	0.0060234503
23	0x3cfe0c3f	0.031011699
24	0x3d1d4a91	0.03840119
25	0x3cd66f06	0.026175987
26	0x3de8ad38	0.11361164
27	0x3d0fe8f1	0.03513426
28	0xbd45f8d3	-0.048333
29	0xbcebec6c	-0.028799258
30	0xbd56a1ff	-0.052400585
31	0x3d695a0f	0.056970652
32	0x3d404f26	0.04695048
33	0xbd551393	-0.05202062
34	0xbd8dd24a	-0.06924875
35	0xbdbea660	-0.09309077
36	0xbc8152f6	-0.01578663
37	0xbdca2af1	-0.09871472
38	0xbd3a6362	-0.045504935
39	0x3c25f2bc	0.010128673
40	0x3c48923e	0.012241898
41	0xbd4f50e0	-0.050614238
42	0x3d199014	0.03749092
43	0x3ccd58b1	0.025066705
44	0xba54e728	-0.0008121603
45	0x3aa1c000	0.0012340546
46	0xbd45578e	-0.0481792
47	0xbc2cd4ca	-0.01054878
48	0x3c5aeddb	0.013362373
49	0xbcb52ec7	-0.022117032
50	0x3c38cd9f	0.011279493
51	0x3d19f540	0.037587404
52	0x3da0a067	0.07843094
53	0xb9b4c3aa	-0.00034478056
54	0x3d867e6b	0.06567081
55	0x3dba82a0	0.09106946
56	0xbd5dd6dd	-0.054159988
57	0x3d152a4f	0.0364173
58	0xbd60640d	-0.054782916
59	0xbd4a3b39	-0.049372885
60	0x3cf266d1	0.029590042
61	0xbd2c37d5	-0.042045433
62	0x3c264b7d	0.010149834
63	0xbcb8c657	-0.022555513
64	0xbcc7d524	-0.024393626
65	0xbdb266c2	-0.08711006
66	0x3c88ab9b	0.01668339
67	0x3d76f691	0.060293738
68	0x3d771fb6	0.060332976
69	0xbcc306b2	-0.023806904
70	0xbd96ecd2	-0.07369389
71	0x3ddebb1a	0.108755305
72	0x3d0fa440	0.03506875
73	0x3c4a442d	0.012345356
74	0x3d0c8692	0.034308024
75	0x3c33dd1c	0.01097801
76	0xba54ecef	-0.0008122464
77	0xbd984303	-0.074346565
78	0xbd4d881d	-0.050178636
79	0xbc5f2186	-0.013618832
80	0x3c7901eb	0.015198211
81	0x3daf4069	0.08557207
82	0x3dacb885	0.08433632
83	0xbd9f014a	-0.07763918
84	0x3c6c3333	0.014416504
85	0xbd510d79	-0.05103824
86	0xbd4c0c8b	-0.04981665
87	0x3d411925	0.04714312
88	0x3da3b773	0.079939745
89	0xbd7d87a6	-0.061896943
90	0x3d23458d	0.03986125
91	0xbaef529a	-0.001825887
92	0x3d9631c2	0.07333709
93	0x3c585fea	0.013206461
94	0x3d9c2818	0.07624835
95	0x3d012c18	0.03153619
96	0xbca1b500	-0.019739628
97	0xbcc2b13f	-0.023766158
98	0xbd2e9132	-0.042618938
99	0x3db87fb1	0.0900873
100	0x3d4fcdff	0.050733563
101	0x3d46cf2c	0.04853742
102	0xbc1a7e6b	-0.009429554
103	0x3e18da34	0.14926988
104	0xbd8287d4	-0.063735634
105	0x3af1f65c	0.0018460262
106	0x3d9cce58	0.076565444
107	0x3db784d2	0.0896088
108	0x3d899056	0.06716983
109	0xbd99fc79	-0.075188585
110	0x3d1d9f0c	0.038481757
111	0xbccdd335	-0.025125125
112	0xbd4521cf	-0.048127946
113	0xbda640f9	-0.08117861
114	0xbd6cbd5c	-0.057797775
115	0xbcb2f20c	-0.021843933
116	0xbd35823f	-0.044313665
117	0x3a108a59	0.00055137795
118	0xbd541e44	-0.051786676
119	0xbd8f74b8	-0.07004684
120	0xbd1e6146	-0.038666986
121	0xbd01a637	-0.031652655
122	0x3dd24d3f	0.1026864
123	0x3d04b34a	0.032397546
124	0xbd77a044	-0.060455576
125	0x3c121ee0	0.008918494
126	0xbdc03148	-0.093844
127	0xbbd60a3a	-0.006531981
128	0x3dcf41d2	0.10119976
129	0xbd8234c4	-0.063577205
130	0x3d7861e3	0.060640227
131	0xbdb9b7a6	-0.09068231
132	0xbd2df96f	-0.042474207
133	0xbd11bee0	-0.035582423
134	0xbd8eae0e	-0.06966792
135	0x3d9ec3a5	0.0775216
136	0x3d9bfbf1	0.076164134
137	0x3cd63f51	0.026153238
138	0x3d8620da	0.06549235
139	0xbd85f145	-0.06540159
140	0x3d70378b	0.05864672
141	0x3dc56e07	0.09640127
142	0x3cccdead	0.025008524
143	0xbc16cc2e	-0.009203954
144	0x3be3c46f	0.006950907
145	0xbc3f4c59	-0.011675918
146	0x3cef8e3b	0.029242625
147	0x3d0f76d6	0.03502544
148	0x3d98821f	0.07446694
149	0x3d3d1590	0.04616314
150	0x3dfba1b8	0.12286705
151	0xbd07aaa1	-0.03312171
152	0xbcd29206	-0.025704395
153	0x3d53454c	0.05157976
154	0xbd88a883	-0.06672766
155	0xbd711a59	-0.058863018
156	0x3d9ca35a	0.07648344
157	0xbd798622	-0.060918935
158	0x3d404034	0.04693623
159	0x3d846768	0.06465036
160	0xbcae5a99	-0.021283435
161	0xbc9ece4f	-0.019385485
162	0x3d2aa135	0.041657645
163	0xbd332fe9	-0.043746863
164	0xbc4a74eb	-0.012356977
165	0xbcb9406c	-0.022613727
166	0xbda3fbc0	-0.08007002
167	0x3cceb4cf	0.0252327
168	0xbd66b24d	-0.056322385
169	0x3c04df71	0.008109913
170	0x3da60d15	0.08107964
171	0x3b490f7d	0.0030679398
172	0xbb706afa	-0.0036684857
173	0xbd7679ef	-0.06017488
174	0xbd3c3f19	-0.045958612
175	0xbdb833ef	-0.089942805
176	0xbd2bb401	-0.041919712
177	0xbd2179b4	-0.039422706
178	0xbca0fa5e	-0.019650634
179	0xbda5c05f	-0.080933325
180	0xbd07425e	-0.033022277
181	0x3d2435a0	0.040090203
182	0xbd7fdd94	-0.062467173
183	0x3c7d9067	0.015476323
184	0xbc75d528	-0.015004434
185	0x3dc41e7b	0.09576126
186	0x3d8c8f31	0.06863249
187	0x3d60c644	0.05487658
188	0xbd43fa15	-0.04784592
189	0x3cb55d1f	0.02213913
190	0xbd4fe803	-0.050758373
191	0xbd2797b1	-0.04091615
192	0xbda916b9	-0.08256287
193	0xbd880e97	-0.06643408
194	0xbd0a92c0	-0.033831358
195	0xbd9aa1c7	-0.07550388
196	0xbbd4efbb	-0.0064983047
197	0xbda20759	-0.07911558
198	0xbd0fb4c4	-0.0350845
199	0x3d221b08	0.03957656
200	0xbb7a8e28	-0.0038231704
201	0x3da41488	0.080117285
202	0xbdce5bb0	-0.10076082
203	0x3cb7e876	0.022449713
204	0xbc12a0bb	-0.008949454
205	0xbd6dcf27	-0.058058884
206	0xbb9a742a	-0.004713555
207	0x3cc28713	0.023746049
208	0xbb1d3953	-0.0023990467
209	0xbd8937ef	-0.067001216
210	0xbcfa23e4	-0.030534692
211	0x3c2e9a16	0.010656854
212	0xbd97f7c5	-0.07420305
213	0xbc597367	-0.013272143
214	0xbd1ca12d	-0.038239647
215	0xbc122760	-0.008920521
216	0xbdbe3e7e	-0.09289263
217	0x3d8a97a2	0.06767203
218	0xbd6bcd0b	-0.05756859
219	0x3dc1f774	0.09471026
220	0x3d47788d	0.04869895
221	0x3d49dd76	0.049283467
222	0xbda979ad	-0.08275161
223	0xbd9a15f8	-0.075237215
224	0x3c470a02	0.012148382
225	0x3d0516b0	0.03249234
226	0xbdaddef9	-0.08489794
227	0x3c0bd062	0.008533569
228	0xbd1b8abd	-0.037974108
229	0xbce4ce6c	-0.02793046
230	0xbda3085b	-0.07960578
231	0x3d9084f7	0.07056611
232	0x3da928cd	0.08259735
233	0x3d534414	0.051578596
234	0xbc6176ae	-0.013761206
235	0x3d981e7f	0.07427692
236	0xbdd3874b	-0.103285395
237	0x3daa9c6f	0.083306186
238	0x3dd29e3f	0.10284089
239	0xbba2c6cf	-0.0049675475
240	0xbcbfdedc	-0.023421697
241	0x3d42d5ea	0.047567286
242	0x3cab1cd4	0.02088777
243	0xbdd4658e	-0.103709325
244	0x3c96d0a3	0.018410033
245	0x3c26f4a2	0.010190161
246	0x3dd728f2	0.105058566
247	0xbdb32f08	-0.08749205
248	0x3d00537c	0.031329617
249	0xbd96b8b3	-0.07359447
250	0x3d9854b7	0.07438033
251	0x3cbacb8d	0.022802139
252	0x3cc8c55e	0.024508175
253	0x3d0ef841	0.034904722
254	0x3c4d66e4	0.012536738
255	0x3c640057	0.013916097

weight f4 [96, 96]
0	0xbd499256	-0.049211822
1	0x3c9b708b	0.018974563
2	0x3be7364f	0.0070560346
3	0xbcffe9d4	-0.031239428
4	0xbc83728e	-0.016045835
5	0xbd5a6d7f	-0.05332708
6	0x3d0225ef	0.031774458
7	0x3d7a34fd	0.06108569
8	0x3c00aa9e	0.007853178
9	0x3ccc6cda	0.024954248
10	0xbb8dbdf8	-0.0043256246
11	0xbaa2579f	-0.0012385732
12	0xbd4aa8ea	-0.049477495
13	0x3ceb45c1	0.028719785
14	0xbd92071c	-0.07130262
15	0xbd41655a	-0.047215797
16	0x3d0c2fa2	0.034225114
17	0xbd6d1fca	-0.057891645
18	0xbce25f24	-0.027633257
19	0x3ccb271d	0.024798924
20	0xbd2fa1e4	-0.042879
21	0x3d0b80d5	0.03405841
22	0xbc547311	-0.012966887
23	0xbd192a1d	-0.037393678
24	0x3c1bacf6	0.009501686
25	0x3ca7893b	0.020451179
26	0xbcd565de	-0.02604955
27	0x3cf846f8	0.030307278
28	0x3d608226	0.05481162
29	0x3c0d977a	0.008642072
30	0xbce91f6b	-0.028457364
31	0x3cd5c17f	0.026093243
32	0xbd593f88	-0.053039104
33	0x3ad060f1	0.0015898031
34	0xbcfd1536	-0.030893903
35	0x3b9d80ca	0.0048066126
36	0x3d615165	0.055009264
37	0xbc6c1320	-0.014408857
38	0x3d161587	0.036641624
39	0x3c00d64a	0.0078635905
40	0x3cad877e	0.021182772
41	0xbb3547a0	-0.00276611
42	0x3cd8bbeb	0.026456794
43	0x3d0685c3	0.03284241
44	0xbda8d3f0	-0.08243549
45	0xbc9bf763	-0.019038862
46	0x3d1d2064	0.03836097
47	0x3cb192b8	0.021676406
48	0x3d9e4eb9	0.07729859
49	0x3cc0dedd	0.02354377
50	0x3d61be98	0.055113405
51	0xbd0a0ac8	-0.033701688
52	0x3cde1e79	0.02711414
53	0xbd4ad012	-0.049514838
54	0xbd5fc713	-0.05463321
55	0xbd635faf	-0.055511173
56	0x3cdf82dc	0.027284078
57	0xbca2398a	-0.019802827
58	0xbd760b75	-0.06006952
59	0x3d34a1af	0.044099506
60	0x3ce7be51	0.028288992
61	0xbd28c070	-0.041199148
62	0x3d144c71	0.036205713
63	0xbc77fdf9	-0.015136235
64	0x3d4b7002	0.049667366
65	0xbb779a61	-0.0037781226
66	0x3c913250	0.017724186
67	0xbc97a4c7	-0.01851119
68	0xbd0d0eb2	-0.034437843
69	0xbcca72ec	-0.024713002
70	0x3d1ef24d	0.038805295
71	0xbbbb7438	-0.0057206415
72	0xbb92df16	-0.0044821603
73	0xbcaa2edd	-0.0207743
74	0xbd310bf3	-0.043224286
75	0x3ce51a8d	0.027966762
76	0xbd83e9c2	-0.0644107
77	0x3d0a5354	0.033770874
78	0xbcb54358	-0.022126839
79	0xbd5cd29d	-0.053911794
80	0x3ce2e8ac	0.027698837
81	0x3da07c69	0.07836229
82	0xbdaba8af	-0.08381783
83	0xbd8ab2ee	-0.067724094
84	0x3d8e7ef9	0.06957812
85	0xbceb6182	-0.028733019
86	0xbc133813	-0.008985537
87	0xbd63f60f	-0.05565458
88	0xbd51fc59	-0.051266048
89	0x3c036578	0.0080197975
90	0xbd321eda	-0.043486454
91	0xbce51100	-0.027962208
92	0x3c82f329	0.015985088
93	0x3cee612d	0.029099071
94	0x3be968b2	0.0071230764
95	0x3d06f25f	0.032945987
96	0x3cc01edb	0.023452213
97	0x3d61466e	0.054998808
98	0x3d514790	0.051093638
99	0xbd293f5a	-0.041320182
100	0xbce2f3b7	-0.027704103
101	0xbdc628d4	-0.09675756
102	0x3c1ac372	0.009446012
103	0x3d295018	0.04133615
104	0xbc366c66	-0.011134243
105	0x3d083f99	0.033263776
106	0xbc5ac4d6	-0.013352593
107	0x3da5b803	0.08091738
108	0xbc98c1a1	-0.018647017
109	0xbd604054	-0.054748848
110	0xbcef21a6	-0.02919085
111	0xbccd31d3	-0.025048172
112	0xbd0ae163	-0.03390635
113	0xbcd92ee0	-0.02651161
114	0x3cefe6bf	0.029284833
115	0x3bdcceb4	0.006738508
116	0x3d091116	0.03346356
117	0x3d0f5746	0.03499534
118	0xbd1ed608	-0.038778335
119	0xbb887ba8	-0.0041651316
120	0x3d761016	0.060073934
121	0xbd6930b5	-0.056931216
122	0xbb06acb1	-0.002054971
123	0xbcc50eb1	-0.024054857
124	0xbd32a756	-0.043616615
125	0x3d16def9	0.036833737
126	0xbc5fd780	-0.013662219
127	0x3d96cc63	0.073632024
128	0x3d7368fc	0.059426293
129	0x3d31e896	0.0434347
130	0xbd228b1c	-0.039683446
131	0x3c13a97c	0.009012576
132	0x3d64c442	0.05585123
133	0xbd22f37d	-0.03978299
134	0x3c45f7d5	0.012083014
135	0xbc828f4f	-0.015937475
136	0x3c5f3f6c	0.013625961
137	0xbd16afc4	-0.036788717
138	0xbda4e37c	-0.08051202
139	0x3d43470b	0.047675174
140	0x3d82ac65	0.06380538
141	0xbd8a8235	-0.06763116
142	0x3c1b5337	0.009480289
143	0xbd1975b5	-0.03746577
144	0x3da38116	0.079836056
145	0x3c31380c	0.010816585
146	0xbcca8e33	-0.024726009
147	0xbbc3d984	-0.0059768576
148	0xbd893260	-0.066990614
149	0xbd53e76e	-0.05173438
150	0x3d29bce0	0.04143989
151	0xbc40f6af	-0.011777564
152	0x3cda57c4	0.026653178
153	0xbc43259e	-0.011910824
154	0xbd3b8ef0	-0.045790613
155	0x3c524bf8	0.012835495
156	0xbcb76fa4	-0.022392102
157	0xbcd13d85	-0.02554203
158	0xbd470dc5	-0.048597116
159	0xbd2e19d5	-0.042505104
160	0x3da0f316	0.07858865
161	0xbc0bb07a	-0.008525962
162	0xbc8d3098	-0.017235085
163	0xbbccb9b2	-0.0062477225
164	0x3c885c56	0.016645592
165	0x3c7dc3d1	0.015488581
166	0x3c6066ed	0.013696414
167	0x3b10e3fd	0.0022108548
168	0x3bbb1678	0.0057094656
169	0x3d87bdde	0.06628011
170	0x3cba910b	0.02277424
171	0xbcd988c9	-0.026554482
172	0xbd8bc0e3	-0.068238996
173	0xbcdcbb78	-0.02694486
174	0xbd1dac95	-0.038494665
175	0xbd2f3a50	-0.04278022
176	0x3cc6c78f	0.024265079
177	0x3d670443	0.05640055
178	0xbd3fc26a	-0.046816267
179	0xbd4108ca	-0.047127523
180	0x3c6f3fc8	0.014602609
181	0xbd0cea9e	-0.034403436
182	0xbd2f6a6b	-0.042826097
183	0x3c81819a	0.01580887
184	0xbd520ecc	-0.051283643
185	0x3d8d431d	0.068975665
186	0x3994539d	0.00028291057
187	0xbd916eb2	-0.071011916
188	0xbd3932a4	-0.04521431
189	0xba559b62	-0.0008148459
190	0x3d191507	0.03737357
191	0x3c6adecd	0.014335346
192	0x3d91d49b	0.071206294
193	0xbc3dfdaa	-0.011596123
194	0x3d27c59e	0.040959947
195	0x3e02a2e2	0.12757447
196	0xbd249ee7	-0.040190604
197	0x3d4bd991	0.049768034
198	0xbd9ffd3b	-0.07811972
199	0x3d8c5275	0.06851665
200	0xbc9c1407	-0.019052519
201	0xbdd29df4	-0.102840334
202	0x3bb72157	0.005588691
203	0x3ca08a79	0.019597279
204	0xbdf12a60	-0.117756605
205	0xbd982844	-0.07429555
206	0x3bce09f0	0.0062878057
207	0xbd05be29	-0.032652054
208	0x3a32bde7	0.0006818459
209	0xbde53bc1	-0.11193038
210	0x3cea5386	0.02860428
211	0x3cc9b932	0.02462444
212	0xbe03ce74	-0.12871724
213	0xbd48d587	-0.04903176
214	0x3d443649	0.047903333
215	0x3bf15403	0.0073647513
216	0x3dbf2cb3	0.093346976
217	0x3db1d152	0.08682503
218	0x3e07f12f	0.13275598
219	0x3c0eeeaa	0.008723894
220	0xbc8890a6	-0.016670536
221	0xbdc126c5	-0.09431223
222	0x3ca7bf99	0.020477103
223	0xbd013ea5	-0.031553883
224	0xbce13d8e	-0.027495172
225	0xbcb665c9	-0.022265332
226	0xbc62e580	-0.013848662
227	0x3dac5151	0.084139474
228	0x3cd28c0b	0.025701543
229	0xbd8c6159	-0.06854505
230	0x3ca7ee33	0.020499324
231	0xbd5c18e7	-0.053734686
232	0xbc8f97bc	-0.017528407
233	0xbc435a5d	-0.0119234
234	0xbd0930eb	-0.033493917
235	0x3bea963c	0.0071590226
236	0x3dc9f13c	0.09860465
237	0x3d2d17b9	0.04225895
238	0x3d508095	0.050903875
239	0x3d3339ac	0.043756172
240	0xbbc8fd53	-0.006133714
241	0xbdb580d0	-0.0886246
242	0xbd9ebf82	-0.07751371
243	0x3d6681ea	0.05627624
244	0xbd884add	-0.06654904
245	0x3d957ac8	0.07298809
246	0xbc3185a2	-0.010835083
247	0x3ca603b5	0.02026544
248	0xbbc86f0d	-0.006116754
249	0x3d4ecdca	0.050489224
250	0x3d8624aa	0.06549962
251	0x3da0bd34	0.07848588
252	0xbdd14568	-0.10218316
253	0xbd165a4f	-0.03670722
254	0x3ccdc8aa	0.025120098
255	0x3c99d3d7	0.01877777

bias f4 [96]
0	0xb68117c3	-3.847266e-06
1	0xb6552d5c	-3.1765876e-06
2	0x372e000e	1.0371221e-05
3	0x359335e3	1.0968037e-06
4	0x352c2298	6.4125334e-07
5	0x36ccefe7	6.107602e-06
6	0xb734f04f	-1.0784787e-05
7	0xb46c8d44	-2.2030605e-07
8	0x3828a586	4.0208477e-05
9	0xb7208cf4	-9.569561e-06
10	0x3751b7a9	1.25001325e-05
11	0xb5dd40e8	-1.6484673e-06
12	0xb4911f1f	-2.7030998e-07
13	0xb57704ff	-9.202194e-07
14	0x36c265c9	5.7935e-06
15	0x358d3274	1.0520002e-06
16	0xb10dd1e1	-2.0637503e-09
17	0xb4aab350	-3.1795435e-07
18	0xb701b0d0	-7.7301665e-06
19	0x33cdb993	9.579812e-08
20	0x360a7dd8	2.0636853e-06
21	0xb6b4a1f8	-5.3832737e-06
22	0xb68e36ab	-4.238294e-06
23	0xb452fa06	-1.9648732e-07
24	0x3679919c	3.7188647e-06
25	0x3584d66f	9.897175e-07
26	0xb5c340d0	-1.4547495e-06
27	0xb5a96297	-1.2620175e-06
28	0x360a8abe	2.064436e-06
29	0x3668935f	3.4656475e-06
30	0x361840ca	2.2687477e-06
31	0x36c3c53a	5.834413e-06
32	0xb5488e9d	-7.4713336e-07
33	0xb6665f08	-3.4327986e-06
34	0xb628683c	-2.5094623e-06
35	0x35803a11	9.553643e-07
36	0x35710208	8.978245e-07
37	0x375a8678	1.3025121e-05
38	0xb6f37f1d	-7.2567623e-06
39	0x37146d59	8.846947e-06
40	0x36bca726	5.6222952e-06
41	0x35c7db8c	1.4890552e-06
42	0x36a72423	4.9811947e-06
43	0x36ab74d2	5.109797e-06
44	0xb818e364	-3.6451398e-05
45	0xb5466d93	-7.39202e-07
46	0x36b69203	5.4410207e-06
47	0xb6029392	-1.9457407e-06
48	0xb72cde18	-1.0303709e-05
49	0x3564c579	8.522398e-07
50	0x369d670f	4.690962e-06
51	0xb6c750ad	-5.940054e-06
52	0x36f3cfe1	7.2661646e-06
53	0xb5c12e5c	-1.4393113e-06
54	0xb5cda14f	-1.5320637e-06
55	0xb6f6bbcc	-7.3532337e-06
56	0x361c30ea	2.3274283e-06
57	0x34e9e012	4.3562665e-07
58	0xb38823b1	-6.339486e-08
59	0xb63f8095	-2.8536062e-06
60	0x3772cd81	1.4472172e-05
61	0x373ac38d	1.1131994e-05
62	0xb4ce9256	-3.8476963e-07
63	0x36b5fe53	5.4238276e-06
64	0x37770677	1.47238525e-05
65	0xb665d695	-3.4248562e-06
66	0xb6454c13	-2.9399569e-06
67	0xb4e08cb3	-4.1825623e-07
68	0xb776d17a	-1.4711515e-05
69	0x360c497f	2.0904406e-06
70	0x366e83f3	3.5541568e-06
71	0x3636d2f3	2.7242902e-06
72	0x36af31e9	5.2212167e-06
73	0xb4f73cf6	-4.605169e-07
74	0xb5d6df40	-1.6009217e-06
75	0x370b5a78	8.3061095e-06
76	0x36d51d79	6.3513257e-06
77	0xb72ad19b	-1.0181592e-05
78	0x36b9d3d9	5.538092e-06
79	0xb24a891a	-1.1789121e-08
80	0x351edeea	5.918397e-07
81	0x3729c36e	1.0118687e-05
82	0x368ef504	4.2604534e-06
83	0x35a4063a	1.2220764e-06
84	0x37107c37	8.61199e-06
85	0x34c7e5f9	3.7233966e-07
86	0x351ea8c4	5.9105173e-07
87	0x367508a0	3.6512865e-06
88	0xb8b047f8	-8.405739e-05
89	0xb65c6805	-3.2843102e-06
90	0x36d15159	6.2381555e-06
91	0xb7b8bc39	-2.2022157e-05
92	0xb52a6a3e	-6.348454e-07
93	0x35e72ba2	1.722354e-06
94	0x3667ccc7	3.4540878e-06
95	0x35444e0f	7.312928e-07

weight f4 [96, 96]
0	0xb4deb0ea	-4.1479444e-07
1	0xb4f8b03e	-4.6321833e-07
2	0x34e898b4	4.3324474e-07
3	0xb5bddf82	-1.4146647e-06
4	0xb77dc1df	-1.5125114e-05
5	0x322e4c04	1.0145417e-08
6	0x341b4f31	1.446431e-07
7	0x372908cf	1.0075236e-05
8	0xb586f823	-1.0055995e-06
9	0xb37233e4	-5.639221e-08
10	0x34f6d28f	4.5974272e-07
11	0x34c29fb7	3.6251524e-07
12	0xb56329eb	-8.462509e-07
13	0x34d58fed	3.9779061e-07
14	0xb4d5c193	-3.9815185e-07
15	0x34325fb9	1.6612366e-07
16	0xb4c04797	-3.5814875e-07
17	0xb434b777	-1.683055e-07
18	0x351fdd56	5.95542e-07
19	0xb4a78a0b	-3.1206613e-07
20	0x358043e4	9.556502e-07
21	0xb5aaa92c	-1.2715223e-06
22	0x34e414d3	4.248346e-07
23	0x35285d6f	6.272084e-07
24	0xb5d79efc	-1.6065019e-06
25	0xb4b7c4f3	-3.4229706e-07
26	0xb5437ccb	-7.282476e-07
27	0xb6001b9d	-1.908956e-06
28	0xb5fcd69e	-1.8837925e-06
29	0xb4a4874b	-3.064582e-07
30	0xb4d3f941	-3.948317e-07
31	0xb54d28b9	-7.642771e-07
32	0xb5f44c67	-1.8201653e-06
33	0xb5539b28	-7.882941e-07
34	0xb607e4fd	-2.0249856e-06
35	0xb475189f	-2.282636e-07
36	0xb5fda8e9	-1.8899128e-06
37	0xb5e24812	-1.6859287e-06
38	0xb6035068	-1.9567324e-06
39	0xb608c13e	-2.037806e-06
40	0x3504fccc	4.95417e-07
41	0x3465c7ce	2.1399975e-07
42	0xb7663b15	-1.3722824e-05
43	0xb5bfa24f	-1.4277847e-06
44	0x33fbd4b4	1.1726789e-07
45	0x35673557	8.6131826e-07
46	0xb47e9f3d	-2.3713524e-07
47	0x3555d06d	7.965198e-07
48	0x34e597ba	4.276497e-07
49	0xb5db33b4	-1.6331819e-06
50	0x34341c6a	1.6774143e-07
51	0x3476a711	2.2971314e-07
52	0x3406257f	1.2493363e-07
53	0xb4524849	-1.9584071e-07
54	0x343853b6	1.7166789e-07
55	0xb501e19c	-4.838455e-07
56	0xb53edbe6	-7.110051e-07
57	0xb60558ff	-1.9870347e-06
58	0x34cd2a37	3.821494e-07
59	0x34f37518	4.5347474e-07
60	0xb586e995	-1.0051759e-06
61	0x35f339a2	1.8121684e-06
62	0xb66aeb5d	-3.5005717e-06
63	0xb4fc8fa1	-4.7043162e-07
64	0xb5cf8cec	-1.5463715e-06
65	0xb584d445	-9.896545e-07
66	0x342a0aae	1.5836369e-07
67	0xb542f45a	-7.262621e-07
68	0x34d98c2f	4.0521397e-07
69	0x342ee692	1.6288894e-07
70	0x3437582c	1.707528e-07
71	0xb53630d0	-6.7871315e-07
72	0x34b0daf6	3.294187e-07
73	0xb73a0f9e	-1.10901e-05
74	0x34560977	1.9933746e-07
75	0x34bbc656	3.4975773e-07
76	0xb5892bf8	-1.0220092e-06
77	0xb4944841	-2.761972e-07
78	0x34c65d3b	3.6948208e-07
79	0x34d086ba	3.8841046e-07
80	0xb5a87a5d	-1.2552588e-06
81	0xb600cd45	-1.919297e-06
82	0xb5f42f8a	-1.8193252e-06
83	0xb4e827fc	-4.324246e-07
84	0xb5e8ecd2	-1.7354271e-06
85	0xb3c1ece9	-9.0303566e-08
86	0x35b741e6	1.3653741e-06
87	0xb4a0ce9a	-2.9952645e-07
88	0xb6051b73	-1.9834522e-06
89	0x3333990a	4.1815873e-08
90	0x342277f4	1.5131064e-07
91	0xb5d2f3da	-1.5717189e-06
92	0xb60345b4	-1.9561094e-06
93	0xb4b3e3e2	-3.3507155e-07
94	0xb406745f	-1.2522058e-07
95	0x347a7ac3	2.3327725e-07
96	0xb5daccb4	-1.6301842e-06
97	0xb6225ce0	-2.4193941e-06
98	0x37466790	1.1825832e-05
99	0xb59de028	-1.176265e-06
100	0xb61b62a2	-2.3154212e-06
101	0xb58be97f	-1.0424263e-06
102	0xb618cde8	-2.2769618e-06
103	0xb60857f9	-2.0316786e-06
104	0xb6b31345	-5.336859e-06
105	0xb67ccd18	-3.7670306e-06
106	0xb5a315d6	-1.2150801e-06
107	0xb619964f	-2.2886268e-06
108	0xb5f0a489	-1.792928e-06
109	0xb5d2f5c5	-1.5717748e-06
110	0xb55b72d3	-8.175095e-07
111	0xb63f9943	-2.8550428e-06
112	0xb67298a9	-3.614967e-06
113	0x359a258a	1.1484819e-06
114	0xb5f4ebe7	-1.8248073e-06
115	0xb5d71195	-1.6023865e-06
116	0xb65d0a4f	-3.2937567e-06
117	0xb6832e36	-3.909484e-06
118	0xb60c39c4	-2.089525e-06
119	0x3754a930	1.2675577e-05
120	0xb66e4e4e	-3.5510343e-06
121	0xb68608da	-3.9945417e-06
122	0xb611f275	-2.1747812e-06
123	0xb60a8f28	-2.064693e-06
124	0xb6074946	-2.0159218e-06
125	0xb5ed5b40	-1.7684433e-06
126	0xb6646c66	-3.4037744e-06
127	0xb606f7c3	-2.0111772e-06
128	0xb683827c	-3.9192946e-06
129	0xb5abe972	-1.2808434e-06
130	0x36313cd3	2.641046e-06
131	0xb6816dd2	-3.8572844e-06
132	0xb68550db	-3.9731217e-06
133	0xb5859b16	-9.954408e-07
134	0x37081d12	8.113e-06
135	0xb63fa793	-2.855876e-06
136	0xb667e80e	-3.4556756e-06
137	0xb550365f	-7.756516e-07
138	0x37b3a797	2.1416503e-05
139	0xb6805ea1	-3.8257135e-06
140	0xb6184d9f	-2.2694946e-06
141	0xb6855093	-3.973089e-06
142	0xb5f9d962	-1.8615212e-06
143	0xb5dff285	-1.6685377e-06
144	0xb660349f	-3.340923e-06
145	0xb5931c5a	-1.0960605e-06
146	0xb67f4d84	-3.804308e-06
147	0xb5b52942	-1.3497558e-06
148	0xb58afe66	-1.0355841e-06
149	0x385f398d	5.322094e-05
150	0xb5d3ae69	-1.5771485e-06
151	0xb6782134	-3.6974207e-06
152	0xb6030977	-1.952603e-06
153	0xb673ffd8	-3.6358742e-06
154	0xb68636ca	-3.9998895e-06
155	0xb6608770	-3.3457436e-06
156	0xb59e15a3	-1.1778214e-06
157	0xb667ee59	-3.456042e-06
158	0xb685fa00	-3.9928127e-06
159	0xb603c579	-1.9635465e-06
160	0xb6643445	-3.4005072e-06
161	0xb64dc282	-3.06606e-06
162	0xb646eae4	-2.9641024e-06
163	0x36441d4c	2.922333e-06
164	0xb6000387	-1.907554e-06
165	0xb5c10f65	-1.4384101e-06
166	0xb574859e	-9.109152e-07
167	0xb67ca585	-3.7647271e-06
168	0xb62ab75a	-2.5438699e-06
169	0x362cb3f0	2.5734735e-06
170	0xb685eaf1	-3.9910597e-06
171	0xb66f53b6	-3.5662501e-06
172	0xb5524cda	-7.834293e-07
173	0xb6509350	-3.1080162e-06
174	0xb598aab9	-1.1374569e-06
175	0xb5fc223c	-1.8785427e-06
176	0x35001673	4.7716384e-07
177	0xb6066dbf	-2.0031437e-06
178	0xb5b07b40	-1.3148892e-06
179	0x3544fcbd	7.338347e-07
180	0xb6835cf2	-3.9149245e-06
181	0xb58dce2d	-1.0565324e-06
182	0xb60f5bff	-2.136221e-06
183	0xb5b27422	-1.3295833e-06
184	0xb625aa7c	-2.468615e-06
185	0xb638251b	-2.7439735e-06
186	0xb55b87d5	-8.178152e-07
187	0xb55fe3a1	-8.340522e-07
188	0xb6034fec	-1.9567042e-06
189	0xb61046ec	-2.1498954e-06
190	0xb6591b01	-3.2351238e-06
191	0x37586fa8	1.29006e-05
192	0x35bbdcb5	1.399682e-06
193	0x35163ca2	5.5967587e-07
194	0xb58042a9	-9.556144e-07
195	0x36079349	2.0202299e-06
196	0xb5a0811e	-1.1958507e-06
197	0xb555eb2e	-7.9690915e-07
198	0x346ea279	2.2224584e-07
199	0x35f55897	1.8279706e-06
200	0x369f6c84	4.751202e-06
201	0x3411caa3	1.3577896e-07
202	0xb3be340d	-8.8570324e-08
203	0x368b2201	4.1464814e-06
204	0x35804075	9.555503e-07
205	0xb5ae6cc9	-1.2995671e-06
206	0xb5032423	-4.885389e-07
207	0xb59f52dd	-1.187054e-06
208	0xb543c54d	-7.293027e-07
209	0x36322ffb	2.6551995e-06
210	0xb526db64	-6.2159074e-07
211	0x35ec8d02	1.7624409e-06
212	0x364e8b20	3.0777373e-06
213	0x34dab237	4.0735333e-07
214	0x35797a95	9.293811e-07
215	0xb38ff9d1	-6.704398e-08
216	0x34843fd9	2.463337e-07
217	0xb4bd3281	-3.524074e-07
218	0xb53901e6	-6.8920633e-07
219	0x34de35f6	4.1389984e-07
220	0xb591a401	-1.0851073e-06
221	0x35a3dcd2	1.2208714e-06
222	0xb52ab603	-6.3594797e-07
223	0x35193807	5.707847e-07
224	0xb4eba63a	-4.3893107e-07
225	0x36370515	2.7272083e-06
226	0xb521868d	-6.017297e-07
227	0x35377a67	6.835093e-07
228	0x366873ae	3.4638028e-06
229	0xb5591d21	-8.088119e-07
230	0x366cc090	3.5278827e-06
231	0xb5a8afd2	-1.2568146e-06
232	0x3619adea	2.2900008e-06
233	0xb53e297f	-7.08409e-07
234	0x360276c0	1.9440631e-06
235	0x3656a146	3.1982358e-06
236	0xb4eea943	-4.445411e-07
237	0xb2fbe463	-2.9324104e-08
238	0xb59b4080	-1.1567172e-06
239	0xb4fd4211	-4.7172992e-07
240	0xb3afbeab	-8.183755e-08
241	0xb5828a3f	-9.72599e-07
242	0xb556b4b8	-7.998419e-07
243	0xb5075a99	-5.0423256e-07
244	0x360de2eb	2.114272e-06
245	0xb565b826	-8.557712e-07
246	0x35c7ab27	1.4876467e-06
247	0xb43d796d	-1.7646171e-07
248	0xb5607e19	-8.363e-07
249	0x34131479	1.369789e-07
250	0x346872ca	2.1648444e-07
251	0xb4967f8c	-2.803248e-07
252	0x36583e43	3.222275e-06
253	0xb4b79cc8	-3.420048e-07
254	0x341b42c8	1.4459795e-07
255	0xb58f4052	-1.067305e-06
