Graph Neural Network/Models/SAGEConv_LSTM-D4-F1-mean.pth (torch, 764722 bytes, 23 tensors)

weight_ih_l0 f4 [384, 96]
00000000: ebe9 5f3a a83f 9d3d 11b2 ebbc 6a39 413d
00000010: b62c ff3c 5f3e 96bd dc61 10bd 1fe3 84bc
00000020: 8230 823d 6f66 a8bd 5023 513d c66f 123d
00000030: 89f5 bdbc a64d 50bd a2c5 12bb e206 9fbd
00000040: ab34 993d cae6 293d 8984 8b3d 6cb7 44bd
00000050: a018 85bd 7ce6 d5bc d675 753d c6f4 83bd
00000060: b3e9 12bd ec03 15bc eda6 a1bd dc5e 4e3d
00000070: df82 413d 42c7 143d 577c 0a3c a7d8 a33d
00000080: 323e b6bd 2e3a 003d e7f3 a5bd 98cf b8bd
00000090: bc4f 933c aca2 8abd 7bd8 8ebd 5f6b 9fbd
000000a0: b031 afbd b23a b8bd 57ec 9cbd 6e8c 38bd
000000b0: a780 8c3d d34f 673d 0aa6 fe3c 8858 a0bd
000000c0: c6fc 0f3c 0c05 abbc 934a 74bd 35de d33c
000000d0: 249c 8ebd 19b6 2cbc 441f a53c 0f66 f63c
000000e0: b87f ae3d a133 ee3b cc7b a53d 56a5 a1bd
000000f0: a581 11bc 0060 14bc 73f2 323d 9d07 223d
00000100: 3fe2 483d d944 9a3c 993b 823d 6d9c 47bd
00000110: 78c1 b03d c3ee 403d 28f0 8dbd 29fb 1f3c
00000120: 0d97 8dbc 536e 803d 824f 973d 7bf6 d1bc
00000130: d47c 7c3d 3241 67bd 3b9d 0cbc 9275 b73c
00000140: 0ac9 a3bd 47a0 ad3d b1b8 5c3d 026a a93d
00000150: e3cd 7ebd 51db 13bd 02dc dabc bf09 de3a
00000160: 53c6 4a3d 72fe 803d 4a80 a2ba e05c d93c
00000170: 048e 9a3c bbc3 e1bc eb1c 16bd 3afc 9bbd
00000180: 637d 91bc e99e 18bc ae3b 003d 98a1 22bc
00000190: 4451 05bd 23ed 1fbc 11fa 303d 2362 91bd
000001a0: fad6 9bbd 3b9b 163d 098b 2fbd cce0 e33c
000001b0: a3e1 533a d391 8ebd 670d 343d 0c68 783d
000001c0: 1fbc b9bc 7e7e d23c 44a7 1bbd 20e7 ce3c
000001d0: 82f6 92bd 7f45 533c 7e90 5e3d 30af 423d
000001e0: ae70 2c3c 951a 07bd a10d 9cbd d366 263c
000001f0: 497f 2fbd 8968 993c b531 ea3b dcaa 133d
00000200: 45e7 3e3d 113d 69bd 29a5 443d 2533 a63c
00000210: 7837 803c 22d9 19bd 76b0 533c 4fbc 783c
00000220: f3fe 143d c365 8bbc 0ac0 3f3d 91c0 35bc
00000230: 035a 253d c871 12bd 23f0 f0bc 9c74 733d
00000240: b83a 3b3d 8282 a03c 0b82 a5bc 97b8 113d
00000250: 906a 91bd e239 f83c 0424 93bd 2437 77ba
00000260: e8ed 543d 66c4 7ebd 6cac 51bd b3eb c43c
00000270: c5f4 60bc f2d8 72bc eb8c 9fbd e946 d5ba
00000280: d552 f23c 08dd 59bd ad18 333d ddab 88bd
00000290: 6a32 fd3c 532b 153d f5dd 6c3c 214d 32bd
000002a0: d6cf 47bd ae2d e53c 7eb5 c3bc eba2 643d
000002b0: 0d16 dabc 4d21 b3bc d81b a1bb 756b 1fbd
000002c0: db2b c8bc 10d2 3bbd 29b4 9abd 8d7d 01bd
000002d0: 79fd 1c3d b2ab 3b3d d7b8 67bd a344 d33c
000002e0: 949f 23b9 7a1c 37bd 4cab 1a3d a0af 193b
000002f0: 2f76 0f3d 5355 653d 1a37 e0bb 19c6 b6bb
00000300: 29df 703d fce8 a1bd 106b 5bbd 37de 56bd
00000310: f8b5 4a3d 1eb7 5b3d 0153 33bd a08d c33c
00000320: 5689 c2bd 64a4 c53b 6a6e c1bc ab76 1d3d
00000330: af70 c6bd 1784 c4bc 56af be3d 018a 59bc
00000340: ff92 06bd 4881 bbbd 3578 babc 0e92 93bd
00000350: 7cf3 19bd c294 6abd 0230 a83d c155 483d
00000360: 0d20 973d 996d 1cbd 15b6 813d e295 be3b
00000370: f805 15bc 8396 c1bd 0a0a 05bd 8124 a83d
00000380: dfdd 9d3c 9e65 c53d d5fa 63bd 050c e1bb
00000390: b1a2 3ebd 9c03 aebd 9af8 aa3d 7449 bebd
000003a0: 02cb 1a3d 2376 3e3d b83e b03d 42c9 5bbd
000003b0: d050 9f3d 5bc2 98bc 7dd9 583c d9d1 373c
000003c0: 39bd 323d e006 173d a902 59bd e1a8 a1bb
000003d0: 20e9 153b 6097 0e3c 01ae c1bd 2e02 c7bd
000003e0: 1f4c 26bd 1c08 b53c 49df bcbd ab5b 003b
000003f0: ac86 d5bc 3516 b0bc 95e4 c4bd 9c24 8ebd
0.00085416314 0.07678157 -0.028771432 0.047173895 0.03114925 -0.07336115 -0.035249576 -0.016221581
0.063569084 -0.08222663 0.051059067 0.035751127 -0.02318837 -0.0508553 -0.002239563 -0.07764985
0.07480749 0.041479863 0.068123884 -0.048026487 -0.064988375 -0.02611088 0.05992683 -0.06443171
-0.035867404 -0.009095173 -0.07893167 0.050383434 0.04724395 0.03632284 0.0084524965 0.080003075
-0.088985816 0.031305484 -0.08103161 -0.0902397 0.017982356 -0.067693084 -0.06974884 -0.07784151
-0.08554399 -0.0899557 -0.07662266 -0.0450558 0.06860476 0.05647261 0.031085033 -0.07829386
0.008788293 -0.02087643 -0.059641432 0.025862793 -0.06963375 -0.010541462 0.02015651 0.030077962
0.08520454 0.0072693382 0.08080253 -0.078928635 -0.008881007 -0.009056091 0.04368825 0.03955804
0.04904389 0.018831657 0.063590236 -0.048733164 0.08630651 0.0471027 -0.06930572 0.009764471
-0.01728394 0.06271043 0.07388212 -0.025630226 0.061642483 -0.05645866 -0.008582409 0.02239493
-0.079973295 0.08477836 0.053887073 0.082721725 -0.062208068 -0.03609783 -0.026716236 0.001694016
0.049505543 0.062985316 -0.0012397852 0.026533544 0.018866546 -0.027559152 -0.036648672 -0.07616468
-0.017759984 -0.009315231 0.031306915 -0.009926222 -0.032548204 -0.009761128 0.043207232 -0.07098796
-0.07609363 0.036769133 -0.042857204 0.027817152 0.0008082634 -0.069614075 0.043958094 0.0606461
-0.022672711 0.025695082 -0.038001314 0.025256693 -0.07175924 0.012894987 0.054337017 0.047530353
0.010524912 -0.032984335 -0.07619787 0.010156351 -0.042845998 0.018726604 0.007147039 0.036051616
0.046607275 -0.056943003 0.04800907 0.02028806 0.01565145 -0.03756059 0.01292049 0.015181615
0.03637595 -0.017016297 0.046814002 -0.011093275 0.040369045 -0.03575304 -0.029411381 0.05943738
0.045710295 0.019593481 -0.02020361 0.03557643 -0.07100403 0.030301038 -0.07184604 -0.0009430519
0.051984698 -0.06219902 -0.051189825 0.024038171 -0.013730233 -0.014822232 -0.0779055 -0.0016271743
0.029580513 -0.053189307 0.043724705 -0.06673405 0.030907828 0.03641827 0.014457216 -0.043530587
-0.048782192 0.027975883 -0.023890253 0.055819433 -0.026621843 -0.021866465 -0.0049166493 -0.03892084
-0.024434974 -0.045854628 -0.07553894 -0.031613875 0.038327668 0.04581804 -0.05657276 0.025789564
-0.00015604339 -0.04470489 0.037761018 0.0023450628 0.035024818 0.055989575 -0.006842506 -0.0055778143
0.058806572 -0.07905766 -0.0535689 -0.052458014 0.049489945 0.05364143 -0.04378033 0.023871243
-0.09498851 0.00603156 -0.02361222 0.03844325 -0.096894614 -0.023988767 0.093107864 -0.013277532
-0.03285503 -0.09155518 -0.022762397 -0.07205592 -0.03758572 -0.057270773 0.08212282 0.048909906
0.0737916 -0.038190458 0.063335575 0.0058162073 -0.009095661 -0.09452536 -0.032480277 0.082100876
0.019270835 0.096385226 -0.055659134 -0.006867888 -0.046541873 -0.08496782 0.08348198 -0.09291354
0.03779126 0.046499383 0.08605713 -0.05365873 0.07779086 -0.018647363 0.013235447 0.011219465
0.043637488 0.03687179 -0.052981053 -0.004933462 0.002287455 0.008703083 -0.09457017 -0.097172126
-0.04059994 0.022098593 -0.09222276 0.0019585888 -0.026065193 -0.021494964 -0.09613911 -0.069405764

weight_hh_l0 f4 [384, 96]
00000000: 212c b73c 0f94 15bc 7449 1cbc 0bfe 6abb
00000010: 1311 813d e0b2 64bc 2add abbb 09a4 8abc
00000020: 1824 b0b8 8a3e 003d 57fb 94bd 7265 d6bc
00000030: eb66 8c3d 2b66 333c 0153 48bd 8892 953a
00000040: 0575 373d 2b22 733c 94b8 ff3c ee9e eb3c
00000050: 7c54 a53b ef89 01bd c3f9 fdbb 45f0 d63c
00000060: cff1 403c 678d 563c e3d2 8f3c 5027 513b
00000070: 65bc 703d 5921 ef3c d356 a73d 93e6 f5bb
00000080: 027d 1b3b 95aa 54bd 0e8c ef3b d4e0 f2bb
00000090: d348 67bc 9772 e33b d41b 81bd 7f06 423c
000000a0: fef4 41bc b2b8 a83d 66e3 9f3d b6f5 0ebc
000000b0: e161 25bd 54f8 8cbc 1079 03bd d3ee 033d
000000c0: c843 c8ba d950 d83c 3b99 10bc 9748 bcbd
000000d0: f05d 723d 9af0 0f3c 5479 0dbd e51c 14bb
000000e0: 6b98 703c 2861 1abb 6b03 b2bc f1dd 10bb
000000f0: 5126 55bc 01f9 7fbc afed 9238 b3e7 813c
00000100: 3c44 773b 9b16 45bc 90cf be3c 128e 00bd
00000110: 15ce a03c 0612 6abb 3794 4abd c1fa e6bc
00000120: 8ceb e1bc 1ccc 4c3b ec53 f33c 499b 133c
00000130: fdfb 93bd fd65 b0bc 8d0e 44bc 0a3b 4cbb
00000140: b6aa 0c3d d7b5 21bc 7b8b 0d3b 1265 65bc
00000150: 7470 1abc 18d3 a23d 336a 203c c0d6 acbc
00000160: 3574 8a3c d89b 773c e969 083c b0b3 a6bd
00000170: 4293 853a f4ad a83c c8d1 a0bc ddab f83b
00000180: e3b3 853d 9dd3 653c 5048 e53d ab18 f3bc
00000190: 9dcd e6bc 643d fb3b 9f4b 14bd 7aa1 c0bb
000001a0: fc19 f43b cbe4 7dbd ba15 7b3d 8832 2abd
000001b0: 493f 293d 2926 96bd 8626 5bbd bceb 02bb
000001c0: 5c61 933c 2dde d6b9 f167 5f3c 9c29 97bc
000001d0: c89f 953b 09a8 613d 41a9 8dbc e5b5 54bb
000001e0: dd12 7e3d c3c6 45bc 6381 4cbc 955c 76bc
000001f0: 70d9 adbc c59d 933d 7a30 c63d f209 573d
00000200: 2ca9 b7ba 72c6 04bc bf78 6c3a a08e 2ebc
00000210: d550 38bc baeb 98bd 66bc 533b ffce bd3c
00000220: 578e 68bb 9b5e d7bc 8878 af3d 0f4c 8a3c
00000230: 08b4 25bd 40d6 03bd 72c5 75bd 76ab 5e3d
00000240: 1751 7a3c 098b 983d 4431 61bc bc2e df3c
00000250: d7aa 643d e048 603d 2c2f 51bd 1947 3cbd
00000260: d2bf 29bd c5bf e6bc 9573 683d 549d 573b
00000270: 89bf ccbd 318d b1bd e5cd 893a fb8a 1fbc
00000280: 2e1c 2ebb 0c4f 9a3b 04b4 62bd 6e45 423d
00000290: 5637 88bc 76ec 28ba 9eca 7f3d bb31 393c
000002a0: a0b4 8c3d db65 7c3d 1a73 d1bc b1b0 a8bb
000002b0: cfb8 8cbd df59 d73a 5d35 0bbd b91a c939
000002c0: 1c51 53bd ed01 0d3d 03d9 caba 2352 64bd
000002d0: 7185 9e3c 303a af3d 333c af3c b77e 583c
000002e0: e16d 4ebc ea78 cfbc c2cb be3b 1529 cb3c
000002f0: bb27 8638 650f 2bba 3192 b5bd 2323 20bc
00000300: 0eef a23c ec6e 7cbd a950 183e 3ac5 d4bd
00000310: ca97 d33c e6c5 1f3c a960 b23c 1fd4 6bbd
00000320: f73f 6a3b 28d7 04be 8a4d 52bd a86b ad3d
00000330: 5a19 023e 0983 8fbd ab2b feba b10a 4fbd
00000340: cf0d ad3d 6c3d 513d b2b7 233c 7c9d e8bc
00000350: 7395 4439 3814 0b3e 3446 07be 5832 4eba
00000360: ce4b 0dbe ad3c cf3c 9320 e43c 08ff 82ba
00000370: 130d 5f3d c126 7f3d 1acb bd3d 1c47 45bd
00000380: e0a1 a83b 492a e0bd d034 e13b ba68 0cbc
00000390: 9f09 f93b 3856 d4bd 7740 a4bd bda8 a73d
000003a0: 4828 a03d afed fd3d 9600 703c 085a 9bbc
000003b0: cc90 e03c 8d89 be3c 8700 95bd ca3b 883d
000003c0: 4f59 583b b04f c73c 0378 57bd 54fd a7bb
000003d0: e170 683d 0b4b 14bd 4751 05bc 5a0f acbc
000003e0: fba5 de3d 12e7 b93d 7122 81bd e125 8dbc
000003f0: 4a35 373d a750 b2bd a697 243c 376c b53c
0.02235991 -0.009129538 -0.009538997 -0.0035856988 0.06302085 -0.013958663 -0.0052448707 -0.016923921
-8.399057e-05 0.031309642 -0.07274502 -0.02617142 0.068555675 0.010949652 -0.048907284 0.0011411468
0.044789333 0.014839689 0.031215943 0.028762307 0.0050454717 -0.031625684 -0.007750721 0.026237616
0.011776402 0.013095236 0.017556613 0.0031914301 0.058773417 0.029190706 0.08170857 -0.007504293
0.0023725634 -0.051920492 0.007310397 -0.0074120555 -0.014116484 0.0069411504 -0.06304136 0.011842369
-0.011838196 0.08238353 0.07807045 -0.008725574 -0.040376548 -0.017208256 -0.032097876 0.032210182
-0.001527899 0.026405739 -0.0088255955 -0.09193533 0.059171617 0.008785391 -0.034539536 -0.002260023
0.014684777 -0.0023556445 -0.021730145 -0.0022104944 -0.013009624 -0.015623332 7.0060945e-05 0.015857553
0.003772988 -0.012029315 0.023292333 -0.03138549 0.019629518 -0.003571631 -0.049457755 -0.02819574
-0.027578138 0.0031249588 0.029703103 0.009009191 -0.07225797 -0.021533007 -0.01196636 -0.003116312
0.03434249 -0.009870014 0.002159803 -0.014001148 -0.009426225 0.07950419 0.009790945 -0.021098495
0.016901115 0.01511284 0.008326032 -0.081397414 0.0010190981 0.02059076 -0.019631281 0.007588847
0.06528451 0.014027503 0.11195433 -0.029674849 -0.028174216 0.0076672304 -0.03620493 -0.0058786245
0.0074493866 -0.061985772 0.061300017 -0.041552097 0.04132012 -0.07331497 -0.053503536 -0.0019976934
0.01799076 -0.00040982795 0.013635621 -0.018452458 0.0045661665 0.05509189 -0.01729262 -0.003245705
0.06202971 -0.012071314 -0.01248202 -0.015036722 -0.021221846 0.072078265 0.09677215 0.05249972
-0.0014012209 -0.008103954 0.0009020678 -0.010654122 -0.011249741 -0.07466836 0.003230834 0.023169992
-0.0035485232 -0.026290229 0.085679114 0.01688197 -0.040454894 -0.032186747 -0.06000275 0.054362737
0.015278122 0.07448394 -0.013744656 0.027243964 0.055826988 0.054757 -0.051070377 -0.04596624
-0.0414427 -0.028167615 0.056750853 0.0032900171 -0.0999747 -0.08669508 0.0010513632 -0.009737725
-0.002656709 0.00470913 -0.055347458 0.047429495 -0.016627949 -0.0006443927 0.06244909 0.011303361
0.06870389 0.061620574 -0.02556758 -0.0051480164 -0.06871187 0.0016429982 -0.033986438 0.00038357617
-0.051591024 0.034425665 -0.0015476051 -0.055742394 0.01935074 0.0855602 0.02139101 0.013213805
-0.012599439 -0.025326211 0.0058226297 0.024799863 6.397018e-05 -0.0006525426 -0.088657744 -0.009774002
0.01988938 -0.06162922 0.1487452 -0.103891805 0.025829215 0.0097517725 0.021774607 -0.05757534
0.0035743692 -0.129727 -0.05134348 0.084677994 0.12704983 -0.07007415 -0.0019391676 -0.050547305
0.084498994 0.051083967 0.009992527 -0.028395407 0.00018747691 0.13581932 -0.13210374 -0.0007865778
-0.13798448 0.025297487 0.027847564 -0.0009994218 0.054455828 0.062292818 0.09267254 -0.04816352
0.00514625 -0.10945565 0.006872751 -0.008569891 0.007600024 -0.103680074 -0.08020108 0.08186481
0.07820183 0.1239885 0.014648577 -0.018963829 0.027412795 0.023258949 -0.07275491 0.06652029
0.0033012216 0.02432999 -0.052604686 -0.0051266346 0.056748275 -0.03620438 -0.008137054 -0.021003414
0.10871502 0.09077276 -0.06305397 -0.017229976 0.044728555 -0.087067895 0.010045921 0.022146327

bias_ih_l0 f4 [384]
00000000: 8f0a 5dbd a007 393d 1a44 5abd 042a 083d
00000010: 7e46 8c3d a5f5 583d d259 993d 30d5 a63a
00000020: 1f13 dfbc 5035 02bd 8900 173e 1013 5c3d
00000030: e9a3 573b 9b83 95bd 288a 05bd fae2 7b3c
00000040: a31b c4bd 14ac 0bbd fc8d 1bbc e31f 8a3d
00000050: 6fb3 97bd 495b 70bd 758a cb3d 005f 8b3d
00000060: edb3 acbc 112e 3b3d 8e34 8f3b 6287 033d
00000070: ff02 c73d 4961 d83d cf02 2cbc 8578 7b3b
00000080: 8698 d9bc 83af 613d ca89 ff3c 7351 41bd
00000090: 072e ae3d 4105 083d fe01 ef3c 8a62 0b3c
000000a0: e8e5 593d 47da 7abc 2a32 b9bd 5905 4abd
000000b0: 8250 b23d 37e1 e63c 3eb5 f9bc 0b26 c8bd
000000c0: ba05 943d 3f20 c3bd 3ffb 2abb 43cd 49bd
000000d0: 8eff a5bd cb5d abbd 55fe 94bb 2068 73bd
000000e0: 0753 97bc 6a79 743d c128 523d 0e13 663b
000000f0: 4094 45bd 676b aebc 7a9d 59bc 1e85 7bbd
00000100: 4782 d4bc 5db5 a83c daa7 003d 4d88 82bb
00000110: 7224 c63b 2769 09bd cce9 963d 2675 a63d
00000120: 126b 333d 40a4 453d 2f62 4ebd 725f ad3d
00000130: 6504 9e3d f41e c03c 1bdb 063d 56aa debc
00000140: f22c 3cbb 57bf 2cbd 3cb2 873c bbc2 4fbd
00000150: 559d 233d 0b2a 893d fb81 ccbc 1c2a 50bd
00000160: 618a 733d 4ed6 03bc f20b 88bc 66fd 8c3d
00000170: 3f01 1f3d d374 093c 39fe b2bd 8699 59bd
00000180: 361b e0bb 8364 7abd d0fa ac3d bd6c 5b3d
00000190: 2210 aebc 08c3 5ebd e580 8f3d 0026 26bd
000001a0: 72f7 1a3d 407b 49bd dd62 783d e1a1 d03d
000001b0: d558 2bbd 07b9 05bd f09d 33bd 5327 9e3d
000001c0: 88b9 8bbd 97bf c6bc 6508 d33c 45ef 77bd
000001d0: 3a67 8dbc f8f7 67bd 6cd2 debb 72a8 0ebc
000001e0: 1d2d 41bd d9c2 033e f678 063d ab21 373d
000001f0: 2638 1abd e6f0 d43d b28a 193d 3ada 67bd
00000200: 7a1c b2bc af26 0ebc 01f2 3e3d b46c b7bc
00000210: d5b8 fb3c 78b5 7d3d 2407 3ebc cbe6 083d
00000220: bb93 c23d 8f26 b4bc 50cd 9bbc b18d 96bc
00000230: cb85 913c d35b 7dbd 2ec9 913d 4e66 33bd
00000240: 320f 57bc 6ab7 843d 0a5d ab3c 8806 123a
00000250: a3b4 6b3d 4b10 9fbc 1a6b 963d f524 7ebd
00000260: 66f7 e43b 4275 19bd 9167 b73d 2b8a 753c
00000270: 502c 0ebc 8292 e73d 91f6 ad3c bb6e 13bb
00000280: dad0 253d cc1e 34bd 4df3 633d 098f 7f3d
00000290: 15e1 2b3d 2f7a 01bc eaad c4ba 8881 653d
000002a0: 18fe 963c 7592 963d 8a1f cbbc 360f a23d
000002b0: cf08 bbbc b0f5 bebc 70a5 11bd 5abb c8bc
000002c0: 75cd e4bc 799a 0b3c 87fa f2bc 26f2 bebc
000002d0: 9a8a 99bc f73f 03bd f5fd bb3b 63b4 573c
000002e0: fa8a d9bc f354 80bd 6af8 c33d 5bcb 29bd
000002f0: be15 2c3d ea2c 98bc 27be c13d 8685 c6bb
00000300: 2194 8ebb a196 833c bc3a 843d 3ee4 9abc
00000310: f0d9 153c 529d aabd 8703 05bd 8492 3ebd
00000320: 1007 8cbd 0248 823c c8f3 82bd 278b a03d
00000330: 5648 833d 84a7 dcbc f161 58bd 581a 3bbc
00000340: 3e48 21bb 0e26 7bbd 9f42 063d d9b3 513d
00000350: 76c9 38bd d8a2 edbc 3870 413d d4f4 b73d
00000360: e606 283d ab17 013d 271a f13c 1026 c4bd
00000370: 0cbc d4bc cfb9 cdbd 77aa 653d 8bd2 653c
00000380: 40d4 b2bd c34c 993d 6ff4 40bd 3f68 7ebc
00000390: fbaf bfbd bc24 0c3d b5ec dc3d 8120 49bc
000003a0: a4c1 92bd 0c47 51bd 7cdc 213c 8346 d6bd
000003b0: 4ecd 383c cec0 42bc 6a57 073d 019f 5f3d
000003c0: d05e b53d b332 9b3c 4750 e2ba d8d5 d63d
000003d0: 13b9 77bc e196 323d 80ff c5bc 4be6 143d
000003e0: f506 8d3d e269 773d 3585 8c3d 7726 c9bd
000003f0: 7485 533d fc57 173d 54f7 133d 1a80 963d
-0.053965148 0.045173287 -0.053287603 0.033243194 0.06849383 0.05296864 0.07487835 0.001272833
-0.027230797 -0.031789124 0.14746298 0.053729117 0.0032904095 -0.073004924 -0.03260246 0.01537394
-0.09575584 -0.034099653 -0.009494301 0.06744363 -0.07407271 -0.058680806 0.09938518 0.06805229
-0.021081889 0.04569823 0.0043702787 0.032111533 0.09717368 0.10565431 -0.0104987165 0.0038371396
-0.026561987 0.05509902 0.031193633 -0.047196817 0.08504873 0.033208136 0.029175755 0.00850738
0.05319777 -0.01531083 -0.09042771 -0.049321506 0.08706762 0.028183563 -0.03048193 -0.09772881
0.07227655 -0.09527635 -0.0026089696 -0.04926802 -0.08105384 -0.08367499 -0.0045469203 -0.059425473
-0.018472208 0.059686102 0.051308397 0.0035106572 -0.048237085 -0.021291448 -0.013282174 -0.061406247
-0.025941027 0.020594293 0.031410076 -0.0039835335 0.006046825 -0.033547547 0.07368812 0.08127813
0.043803282 0.048252344 -0.050386604 0.084654704 0.07715682 0.02345226 0.0329238 -0.027180832
-0.0028713313 -0.042174663 0.016564481 -0.05072282 0.039944965 0.06697472 -0.024964323 -0.05082141
0.05945814 -0.0080467 -0.016607258 0.068842694 0.038819548 0.0083896695 -0.087398954 -0.053124927
-0.0068391813 -0.06113101 0.08446276 0.053570498 -0.021247927 -0.054385215 0.070070066 -0.040563583
0.03783364 -0.049189806 0.06064116 0.10187126 -0.041832764 -0.03264716 -0.043851793 0.07722344
-0.06822497 -0.024261279 0.025760839 -0.06053092 -0.017261136 -0.056632966 -0.0067999866 -0.008707153
-0.047162164 0.12867297 0.0328302 0.044709843 -0.037651204 0.1039751 0.037485786 -0.0566046
-0.021742094 -0.008676215 0.04661751 -0.0223907 0.030727783 0.06194064 -0.011598382 0.033423226
0.095008336 -0.021991042 -0.019018799 -0.01837811 0.017763993 -0.06185515 0.0711845 -0.043798737
-0.013126181 0.06480296 0.020918388 0.0005570431 0.057545315 -0.019416949 0.07344647 -0.062046964
0.0069875 -0.03746534 0.089553006 0.014986555 -0.008677557 0.11307241 0.021235736 -0.002249642
0.04048238 -0.043974683 0.05565195 0.06239227 0.0419627 -0.007902666 -0.0015005444 0.056031734
0.018431708 0.07352153 -0.024795312 0.079130575 -0.022831349 -0.023310512 -0.035558164 -0.024503399
-0.02793 0.008520716 -0.029660476 -0.023308825 -0.018742848 -0.032043424 0.005737061 0.013165566
-0.026555527 -0.06266203 0.095688656 -0.0414537 0.042012922 -0.018576104 0.09460097 -0.0060583977
-0.0043511544 0.016063036 0.06456515 -0.018907662 0.009146199 -0.08330788 -0.032474067 -0.046526447
-0.068372846 0.015903477 -0.06394154 0.07839041 0.06410281 -0.026935346 -0.05282778 -0.011419855
-0.002460971 -0.06131559 0.03277838 0.051196907 -0.045114003 -0.029008314 0.04722616 0.08982244
0.041022204 0.031516712 0.029431416 -0.09577572 -0.025968574 -0.10045206 0.05607077 0.014027248
-0.0873189 0.07485344 -0.04710811 -0.015527784 -0.093597375 0.03421472 0.10787336 -0.012275816
-0.0716584 -0.051093146 0.009879228 -0.10462668 0.011279417 -0.0118867885 0.03304235 0.054594997
0.08855975 0.018945074 -0.0017266356 0.10490006 -0.015119809 0.04360092 -0.024169683 0.036352437
0.068860926 0.060403712 0.06861345 -0.0982179 0.051640943 0.036949143 0.036124542 0.07348652

bias_hh_l0 f4 [384]
00000000: cda0 afbc 0976 b039 7082 b23d 2f63 0dbc
00000010: fd94 fe3c cabf 6ebd c4fc a4bc 0ad4 24bc
00000020: eb7e 4f3d 95fe 1f3c 8c84 f33d e73d aebc
00000030: 6bd9 833d ae03 893d a3b9 02bd 04ae 7cbd
00000040: 939e 03bc 347b e5bb 5eff 013c 9137 17bd
00000050: 5423 95bd 2132 993d 3388 4a3d e359 463d
00000060: 5aca 94bc 9b4f 7c3d 6927 72bb 321e e7bc
00000070: 63e6 903d f924 afbd ec70 503c 47fb a5bc
00000080: f491 b7bc 88a4 a3bc 4464 bdbc e6c5 d13b
00000090: ebe9 373d 7423 c53d 6d74 8d3d 6fcd c63c
000000a0: f4a2 14bc 512a 923d 7049 a63c 0c2e 11bb
000000b0: 4505 83bd 3890 44bd b118 d63c cea9 20bd
000000c0: 8300 b83b 23cb c3bc 2abd edbc 5e78 adbd
000000d0: c3e4 e33c 23b2 a1bd 8c45 33bd 6133 00bd
000000e0: 0fc2 f6bc 8ed4 08bd ab27 963c 2cdb 123c
000000f0: 5beb d13d 1d03 8b3d e27e 7f3c 6c01 c53d
00000100: 293c 9ebb 71b2 30bd b5cf 8fbc 0dd6 e63b
00000110: 8d0a 5fb9 7e36 153d d78d 673d 27af b73d
00000120: bda3 7fbd 5e81 03bd 25d0 443d 3143 983c
00000130: 9a74 3dbd 5de9 0d3d 23db 573c 4c23 fd3c
00000140: 51c6 57bb ecaa 4e3d 6e43 803c f1cf 943b
00000150: 1fb7 133c 1173 a63d c387 27bd d91c 0abd
00000160: 1ff5 963d 3a9e 673d 2bda 843c 7767 333d
00000170: a944 cbbc 3b2a 1c3d 14a4 a43d 27fe 4fbd
00000180: 937f 08bd 0bd3 653d 7d2d 6b3d 5404 64bd
00000190: 1ca7 093d f44b a23b b575 c2bc 8b82 a53c
000001a0: c7ce 123d db14 4d3d 534a 9a3d 4598 9e3b
000001b0: e053 4bbd afa0 26bd c916 413d 99ef 77bb
000001c0: 6766 743d cb71 48bd d1d7 12bc e95c 33bb
000001d0: 8aa9 cd3d abc9 823d db28 9f3d 8e56 a03d
000001e0: cb03 5b3c 67ac 533d e084 ccbc 7899 4e3d
000001f0: 5a7f a43d 66ec d73d a582 923d 502a b5bc
00000200: 32f4 16bd b4d9 22bd 675c 2d3c a83d 0a3d
00000210: 02d9 6cbd 60d9 c93d fda9 6b3d 0507 d03c
00000220: b773 24bc 876b 6f3d aeaf d5bc 9c8f 873d
00000230: 6981 313d d3fa febc cd68 f2bc 0ff4 853d
00000240: 4ebe c83d df41 033c 4794 56bc 4939 b63d
00000250: 910e 0fbc f567 00bd e64b bdbc 33d5 be3d
00000260: ed0d 773c 3fdb 44bc dcdc ca3c a358 2a3b
00000270: df9d eabc c553 4cbd 6c61 213c 58f5 89bd
00000280: 6603 1b3c cd86 18bc 9867 c03d d026 03bd
00000290: 9534 933c b561 823c 2a9f 1ebb 57b6 91bd
000002a0: a103 f83c e473 af3d 8adb 883d c52b 143d
000002b0: f1b6 86bd cae5 ed3a bf83 e4bc 18ab ff3c
000002c0: 67a8 593d 2e5f 3abd 2484 ffbc 1ce3 3a3d
000002d0: d4fe 62bc 62d9 26bd a173 933d e864 02bd
000002e0: 5353 683d 4b8b d63c 549f 8a3d 6c1c 58bc
000002f0: 46d0 c9bc e598 8f3d f70e f93b ce3c 80bb
00000300: 33d9 cfbd 06a0 fbbc 6fd4 02be 54f0 933d
00000310: 57c0 56bd 2e90 bbbc 4b38 813d a7db 92bd
00000320: 7a33 90bd 865d 143d 2da4 9fbd 5bd6 743d
00000330: b350 4e3d 0160 35bb 23a8 3b3b f635 c43d
00000340: f565 813b 0f36 4bbc d999 a83d fcc1 f7bb
00000350: 50b6 03bd 4a9e 963d 655c 09bc b973 23bc
00000360: 7c1f 843d 5ea1 62bd 90b9 ef3d b0e0 7a3d
00000370: 7c09 843d 3a3e edb9 14d7 4d3d d33c e8bd
00000380: 26cb a9bd 2175 76bd 8d20 56bd 10f9 01bd
00000390: d823 f53c b577 ef3c 6cf7 5d3d a678 663c
000003a0: 45d2 133d c781 22bd 5db2 cabc a550 cfbc
000003b0: b408 56bc 625d a2bd e214 7b3d 23ea bdbd
000003c0: dc6f 873c ec4f 2a3d 115a 92ba 97c7 9d3b
000003d0: 46aa 8cbd 46e6 ccbd d6ff b9bd 84dd 1d3c
000003e0: 6593 a8bd c673 4b3d 74a7 b83d 86f0 00bc
000003f0: 089d ef3d 0bc5 3cbd 4040 92bd 8a1f ed3d
-0.02143898 0.0003365728 0.08716285 -0.008629604 0.031076903 -0.058288373 -0.02014006 -0.01006032
0.050658148 0.009765287 0.11890516 -0.021269752 0.064379536 0.06690155 -0.03191532 -0.06168939
-0.0080334125 -0.0070032123 0.007934419 -0.036918227 -0.07282129 0.074802645 0.049446296 0.048425566
-0.018162895 0.061599355 -0.003694976 -0.02821264 0.07075193 -0.08551974 0.012722235 -0.02026142
-0.022408463 -0.019975916 -0.0231191 0.006401765 0.044900816 0.09625903 0.06906972 0.02426788
-0.009072054 0.071369775 0.02029869 -0.002215269 -0.063974895 -0.0479891 0.02613482 -0.03922444
0.0056152954 -0.023900574 -0.029020865 -0.08470224 0.027819043 -0.07895305 -0.043767497 -0.031299
-0.030121831 -0.033405833 0.018329462 0.008963387 0.102499686 0.06787703 0.015594216 0.09619412
-0.004828949 -0.043138925 -0.017555097 0.00704456 -0.00021270868 0.03642892 0.056531753 0.089689545
-0.062412012 -0.032105796 0.048050065 0.018586727 -0.046253778 0.03464638 0.013174805 0.03090062
-0.0032924602 0.050455973 0.015657153 0.00454139 0.009015827 0.08127416 -0.040900957 -0.033718918
0.07370972 0.05654738 0.016217312 0.043799844 -0.024813013 0.03812621 0.08039108 -0.050779488
-0.03332479 0.05610947 0.057416428 -0.05566819 0.033606634 0.004952902 -0.023737768 0.02020385
0.03584173 0.050068717 0.075337075 0.0048399293 -0.049640536 -0.040680584 0.04714087 -0.003783202
0.05966797 -0.048936646 -0.008962587 -0.0027368611 0.10042103 0.06386121 0.077714644 0.07829009
0.0133676035 0.051678088 -0.024965703 0.050439328 0.08032103 0.10543136 0.07153825 -0.022114903
-0.036853977 -0.0397584 0.0105811125 0.033750206 -0.057824142 0.09855914 0.05753516 0.025393972
-0.010037354 0.058452155 -0.026084747 0.06619188 0.043336306 -0.031125462 -0.029590989 0.06540691
0.09801923 0.00801131 -0.0130968755 0.08897645 -0.0087315 -0.03134914 -0.02310748 0.09318008
0.015079004 -0.012015163 0.024763517 0.0025992773 -0.028639732 -0.049884576 0.009849887 -0.06736249
0.0094612595 -0.009309483 0.09394759 -0.032019436 0.017969409 0.015915731 -0.0024203756 -0.07114857
0.030275168 0.08567026 0.06682499 0.036174554 -0.06577862 0.0018150148 -0.027894853 0.031209514
0.053139117 -0.045500927 -0.03119094 0.045626745 -0.013854701 -0.040734656 0.07199789 -0.031834513
0.05672009 0.026189467 0.06768671 -0.01319037 -0.024635445 0.07011584 0.007600661 -0.0039134985
-0.10148849 -0.030715954 -0.1277635 0.07223573 -0.052429523 -0.022895899 0.06309565 -0.071708016
-0.070410684 0.036222003 -0.07794986 0.059774738 0.05036993 -0.002767563 0.0028634153 0.09580605
0.003948922 -0.012403025 0.08232469 -0.0075609665 -0.03215629 0.0735441 -0.008383845 -0.009976321
0.06451318 -0.055329673 0.11705315 0.061249435 0.064471215 -0.00045250525 0.050253943 -0.11339726
-0.082907006 -0.060170297 -0.052277137 -0.031731665 0.029924318 0.029231885 0.054191038 0.014066851
0.0360892 -0.039674547 -0.024743253 -0.025307009 -0.013063598 -0.079279676 0.061299212 -0.09273174
0.01653283 0.041580126 -0.0011165758 0.0048150527 -0.068684146 -0.10004859 -0.09082 0.009635333
-0.08231238 0.049670957 0.09016314 -0.007869845 0.11699873 -0.046086352 -0.07141161 0.11578281

weight f4 [96, 96]
00000000: 5e8f 90bd fff1 623b 8054 8e3d c36e 163d
00000010: 6d83 4dbd 824f ba3b 50df 90bd 363d 89bc
00000020: 5ed5 5b3d 2239 92bc fde4 29bd e246 a3bd
00000030: 89e2 09bc 9f59 92bc efe4 5c3c 9947 61bd
00000040: 7428 0a3d c238 8cbd bbbb 9ebd ff90 bc3c
00000050: 3ba7 bebb e6ea d3bc b071 ad3d 2e11 423d
00000060: e852 3f39 de83 1ebd 5bd6 193d 6e9e ee3b
00000070: bb68 6cbd 2d67 653d 6bc6 4e3d f02a 663c
00000080: 97c6 8dbd 5ac8 46bd b128 a1bc 9d49 41bc
00000090: b30f 8c3d 5e5b 7cbd f8a5 7cbd a211 99bc
000000a0: 1eb0 a8bd 2dfa 183d 6353 103d 3f0a 793d
000000b0: ddc8 ffbb 8a80 1fbd 61c0 de3c 7e5f 1f3d
000000c0: 93e8 e63b 9f3d bc3c 8045 533b 3edb febc
000000d0: 3589 95bd 8580 943d 2311 92bd f074 9cbd
000000e0: 6d83 483c 868c c73c d04b 2abc 6774 763d
000000f0: 6f80 023c c8ed 813c 7611 0abc 5078 90bc
00000100: d69d 55bd ed96 7c3d b68e 8a3d a1da 473d
00000110: 2953 96bc 3b1a feba 7b4c 273d a09d 94bc
00000120: 64b0 443d 20e3 8f3d d6d2 ba3c 7960 38b6
00000130: bdb1 73bc 78c3 dcbb e460 83bc 1b5b 8a3c
00000140: b741 bd3c 0f94 813d f794 cb3c d441 c1bc
00000150: 3e20 bfbc 3f92 14bc bd74 a8bc cc14 efbc
00000160: 1de5 5e3c c3ef 4ebd d6e9 2a3d 379d 64bd
00000170: 1f6e 03bd 0776 33bd 69fb 263d 5a5a 9dbd
00000180: 1b3b 543c 70ba 4abd d83a e5bc bc19 693c
00000190: 771d 083d 0ba5 10bd 9508 cc3c 2eb5 45bd
000001a0: 3f7a 523d af59 e13b 447a 023e 7cab abbd
000001b0: ff71 1bbb ce4f ba3b 8b09 c83c 4c4e 463d
000001c0: 1ef0 82bd c0e6 c7bc 37d4 ddbd 8aba af3d
000001d0: 3965 293c 26ac e1bd 211f e63d 26aa ab3b
000001e0: 8129 063d e775 9d3d a646 f23d 3092 9dbd
000001f0: 7f5b 563c f73e 4e3d b0a1 33bd dbdc fcbc
00000200: 0d75 8ebd 941b 173d 577d f63c a19a 35bc
00000210: ef6c 39bd 7a01 a73d 538e 7a3d 2c25 43bc
00000220: 164e 863c 0fe6 b43d 8601 d93b 137a 953d
00000230: bc3b e6bc ae7a dbbb 8558 85bd fab8 13bd
00000240: 355f e4bc 04fe 06bd 4278 963d 1b90 1cbd
00000250: ce19 16bc 3c03 4b3d 0156 143c aec2 4a3d
00000260: c041 9ebd 1091 de3d 28fe abbd 5107 f03c
00000270: 7a27 913b 00da 44bd debe 393d 612d 103c
00000280: b0a0 913c 1c16 023d 713b 5cbc 783e 7b3d
00000290: 58d3 c4bb 4686 523d aaef 7abd 6e5a 113d
000002a0: ad2d 9dbc 7d50 b5bd e40d adbd 8304 dd3d
000002b0: 41ba a03d 813c 3b3b c1a6 c0b9 0d55 863d
000002c0: 9ca9 6f3d 1cdf b4bc befe 173c dce7 5fbd
000002d0: 52a9 9e3d 3337 b2bd 28e6 32bd a18a c33d
000002e0: a1ac 003d f679 7c3d 7b47 fb3c 8720 f73c
000002f0: 4401 d7ba f18f 2dbd 4f01 603d 3894 a83d
00000300: fc7f 073c 4f3f 363c c43e a4bd f3ec 7fbd
00000310: 739e 0ebd 811c 113d 9ea8 67bc 92dc 3ebd
00000320: 0c51 6dbd 3aed 0b3c 8f0d 1e3c fa89 a0bd
00000330: a3d1 383d 766b 0fbd 4bfe 69bd d36d 4fbd
00000340: 6026 a63c 225b d03b 64b6 bdbb faee e73c
00000350: a00f bcbc f289 9ebd 2d66 993d 7254 a23c
00000360: ed99 11bd 4279 003d 343a 04bd 5d66 113c
00000370: 75d4 1fbd 6171 50bd 63ca 7bbc a217 28bd
00000380: 07fd 73bd 88b7 333d 3713 2f3d acae 613d
00000390: 8d77 84bd 0c7d d23b f57d d73c bb42 15bc
000003a0: fd84 2c3d 60e5 71bd b5b7 55bd b9e5 7c3c
000003b0: 649a 59bc 5efa 213b ed01 b53b 6136 6b3d
000003c0: 39b0 3c3d f175 6abd 85cb a5bc fa5e 70bd
000003d0: 207a a33c 7b9b 52bc 9a50 ed3c c6c3 28bd
000003e0: 073d ad3c 1a3b 51bd 5bf2 64bc 3553 5bbc
000003f0: d541 c43d 36f4 2a3d 404c 263c f349 6ebd
-0.07058595 0.0034629104 0.06949711 0.036726724 -0.050174166 0.0056857476 -0.070738435 -0.01675282
0.05367028 -0.017849509 -0.041478146 -0.07972504 -0.008415827 -0.017865 0.013482316 -0.05499992
0.033729985 -0.06846763 -0.077506505 0.023018358 -0.0058182753 -0.025868844 0.0846895 0.047379665
0.00018246064 -0.038699977 0.03755794 0.00728207 -0.057717066 0.0560066 0.050482195 0.014048323
-0.06922644 -0.048530914 -0.019672723 -0.011797336 0.06838932 -0.061610572 -0.061681718 -0.018685166
-0.08236717 0.03734796 0.035235774 0.060800787 -0.007805927 -0.038940944 0.027191343 0.038909428
0.007046768 0.022978602 0.003223747 -0.031110402 -0.07301561 0.07251076 -0.07132175 -0.076394916
0.012238366 0.024358999 -0.010394052 0.060169604 0.007965191 0.015860453 -0.008427015 -0.017635494
-0.052152477 0.06166737 0.06765501 0.048792485 -0.0183502 -0.0019386479 0.04084442 -0.018141568
0.04801978 0.070257425 0.022805613 -2.747429e-06 -0.014873919 -0.006737169 -0.016037412 0.016889146
0.023102624 0.06327068 0.024851305 -0.02359096 -0.023330804 -0.009068071 -0.020563478 -0.029184721
0.01360443 -0.050521623 0.04172691 -0.055813994 -0.03208744 -0.04381373 0.040767107 -0.07683249
0.012953545 -0.049494207 -0.02798216 0.014227327 0.033231225 -0.035313647 0.024906436 -0.04826849
0.051386114 0.006877146 0.12741953 -0.083823174 -0.002371907 0.005685783 0.024418613 0.048414513
-0.06393455 -0.024402022 -0.108314924 0.085805014 0.010339075 -0.11019163 0.11236406 0.005238789
0.032754425 0.07688504 0.11829881 -0.07693899 0.013083338 0.050353017 -0.04385537 -0.03086703
-0.069559194 0.036891535 0.030089064 -0.01108423 -0.045269903 0.081545785 0.061170887 -0.011910718
0.016394656 0.08832943 0.006622496 0.072986744 -0.028104655 -0.006697974 -0.065110244 -0.03606508
-0.02787743 -0.032957092 0.07347156 -0.038223367 -0.009161426 0.04956363 0.009053708 0.049502067
-0.077273846 0.10867512 -0.08398086 0.029300364 0.004429755 -0.048059464 0.04534804 0.008799882
0.017776817 0.031759366 -0.013441906 0.06133887 -0.0060066395 0.051397584 -0.061263718 0.03548663
-0.019186819 -0.088532425 -0.08449915 0.10791876 0.07848025 0.0028569999 -0.00036745335 0.06559191
0.05851136 -0.022079043 0.009277044 -0.054664478 0.07747139 -0.08701935 -0.043676525 0.09547926
0.03141463 0.06163975 0.030673733 0.030166877 -0.0016403575 -0.0423736 0.054688748 0.082313955
0.00827026 0.011123492 -0.08019784 -0.06248183 -0.034819078 0.035427574 -0.014139323 -0.04659707
-0.05793862 0.008540446 0.009646787 -0.07838817 0.0451218 -0.035014592 -0.05712728 -0.050641846
0.02028197 0.00635852 -0.005789565 0.028312195 -0.02295667 -0.07741155 0.074901916 0.019815657
-0.035547186 0.03136564 -0.03228207 0.008874503 -0.039020974 -0.050889377 -0.015368077 -0.041038163
-0.059567478 0.0438762 0.042742934 0.05509822 -0.06468115 0.006423598 0.026305178 -0.009110148
0.042119015 -0.05905664 -0.05217715 0.0154356295 -0.0132814385 0.002471588 0.005523911 0.057424907
0.046066497 -0.057241384 -0.020238647 -0.058684327 0.019955695 -0.012854452 0.028969098 -0.04120233
0.021147264 -0.051081754 -0.013973798 -0.013386537 0.09582869 0.041736804 0.010150015 -0.058175992

bias f4 [96]
00000000: 864e 53b5 d434 6334 ac8c b9b5 978d acb5
00000010: f25b 9331 2c7e 01b6 e30d 76b6 ec91 3733
00000020: 3c69 e835 e633 9036 4e47 c536 050a 6ab5
00000030: 648f 31b5 5630 5a36 dec5 b735 81b9 e3b4
00000040: d792 43b4 948d 8234 91fe 0e36 431e a135
00000050: 1840 c9b5 f77d 32b6 1d68 9136 736b 82b3
00000060: fa5b c334 068a 52b4 6453 4eb4 0b5f 0eb5
00000070: 454a 2336 319e 2e34 b2ed 30b5 45da dbb4
00000080: f011 f034 599a 9db5 65a4 4c35 0a21 3fb6
00000090: f3b0 38b5 cd3f 0bb6 4ac9 0cb5 52b6 2eb5
000000a0: c3a2 25b5 b37a 14b4 de87 79b3 5ec5 19b7
000000b0: 84ee 3fb6 20c5 b8b4 fd8e 2ab5 62a4 0436
000000c0: 16f4 6fb4 2b0f 9f34 ae2b ffb5 2e18 8035
000000d0: ffa1 e634 e47c 9c35 d855 13b4 834f 7d36
000000e0: 0feb c0b5 2de4 9eb6 7ba6 7435 136f 8235
000000f0: 1b16 29b7 9f31 01b5 b306 75b4 8cee 1a34
00000100: 121e 19b6 89a0 ea36 7b61 69b5 2e94 2c36
00000110: 1968 2f36 e377 98b4 cf36 0d37 407e 10b6
00000120: fdbd 3235 322d 81b5 dfa1 f934 65de a0b3
00000130: 1bc1 17b5 1e6f 5135 cd48 5b35 3e59 c3b5
00000140: 167c 5936 0894 95b5 519d df34 f1fb f333
00000150: 395b a1b5 7753 a235 d994 cf35 b5cb 5034
00000160: 60c9 d5b6 7d8f 6735 defe 2236 5ccc 00b4
00000170: 59d3 2836 4b64 3bb6 5dd7 1e36 1a77 7eb5
-7.871789e-07 2.1160241e-07 -1.3824515e-06 -1.2856207e-06 4.288716e-09 -1.929594e-06 -3.666494e-06 4.2740723e-08
1.7315974e-06 4.297576e-06 5.8793585e-06 -8.7186373e-07 -6.61463e-07 3.2512667e-06 1.3692149e-06 -4.2417017e-07
-1.821421e-07 2.43174e-07 2.1307826e-06 1.2004242e-06 -1.4994321e-06 -2.6597388e-06 4.333457e-06 -6.0731416e-08
3.6388502e-07 -1.9607987e-07 -1.9215582e-07 -5.303743e-07 2.4332123e-06 1.6262562e-07 -6.5911e-07 -4.095074e-07
4.4716535e-07 -1.1742333e-06 7.623515e-07 -2.848045e-06 -6.8802836e-07 -2.074975e-06 -5.244698e-07 -6.508536e-07
-6.170414e-07 -1.3828212e-07 -5.80984e-08 -9.165464e-06 -2.8600052e-06 -3.4416098e-07 -6.353801e-07 1.9765216e-06
-2.2347407e-07 2.9627094e-07 -1.9011693e-06 9.54378e-07 4.2958706e-07 1.1659254e-06 -1.3721672e-07 3.774622e-06
-1.4373526e-06 -4.73533e-06 9.1139344e-07 9.718082e-07 -1.0078332e-05 -4.8128453e-07 -2.281984e-07 1.442915e-07
-2.281628e-06 6.992432e-06 -8.6941117e-07 2.571625e-06 2.6137625e-06 -2.8399435e-07 8.417016e-06 -2.153116e-06
6.6586637e-07 -9.624403e-07 4.649764e-07 -7.491034e-08 -5.653289e-07 7.8020264e-07 8.1689797e-07 -1.4554605e-06
3.2407747e-06 -1.1144448e-06 4.165145e-07 1.1361397e-07 -1.2021984e-06 1.2094232e-06 1.5466022e-06 1.9445618e-07
-6.371338e-06 8.626301e-07 2.4288233e-06 -1.1995274e-07 2.5156971e-06 -2.792355e-06 2.3669193e-06 -9.479569e-07

weight f4 [96, 96]
00000000: 3845 efb4 0114 12b5 0819 07b4 c9d3 9334
00000010: 9982 10b5 9e6a 64b4 0ba8 dfb2 abde d935
00000020: f942 b334 243e 9535 a4b6 10b5 1bc4 9cb4
00000030: 662e 0eb4 2778 a134 24e3 d8b4 1886 03b5
00000040: b410 b5b5 8c28 48b3 415d 78b4 68dc e2b4
00000050: 8729 3ab4 ed59 d034 0c77 94b4 9992 69b5
00000060: 94dd 12b5 3385 efb3 f934 9234 56c0 92b4
00000070: 5557 1933 cbda a9b4 5c06 06b5 9dba b5b4
00000080: 2407 42b4 5da7 f632 b5f5 9ab3 b04d b5b5
00000090: df6b 82b4 595e 7035 f77d b0b4 ec11 8ab4
000000a0: 9b91 ebb4 bd4b beb4 f958 f5b5 821b 95b4
000000b0: ff55 42b4 3835 11b5 eec7 8e35 e94d 5fb4
000000c0: 2cc7 ca35 7f19 d035 3d62 33b4 8dc5 f8b5
000000d0: 6d82 ad32 63e9 bf35 98d9 edb4 7cb9 6f35
000000e0: 5954 82b4 c8db 98b4 d5c7 12b5 8d6e 4fb4
000000f0: 6b22 dbb4 5b4b 13b5 ac3d a8b4 1831 edb4
00000100: 7027 fdb4 5ca1 96b4 2a6a e234 b3fd 4cb4
00000110: b7a0 a435 6e4e fab3 2be1 12b5 0162 93b4
00000120: 625d ab35 e897 7335 0e42 a7b4 0c05 08b4
00000130: 54e2 e4b4 0a87 a234 fd65 8f33 0635 a2b4
00000140: 0138 6d35 3ed6 0bb5 d3f3 10b5 b00f 1ab4
00000150: d526 11b5 c7c0 eab3 7712 b7b4 2118 acb4
00000160: 60d8 ceb4 2588 edb4 b646 fab3 ae2d b0b4
00000170: e13a dcb4 7d7c 28b4 641e 8934 6514 13b5
00000180: 498e f135 ad98 6636 56d4 0ab6 24ee 2235
00000190: b983 7b35 3894 7136 bd45 c7b5 683f d134
000001a0: b8ab 6536 452c a235 1fb7 dcb5 b710 da35
000001b0: fe49 ad34 c766 1336 6d02 19b5 9b6d 7836
000001c0: 9195 6936 a7fb 1a36 0f25 5036 c587 8db5
000001d0: 0e7d 42b6 3261 3436 89d6 bd34 4e93 7336
000001e0: 6e61 8335 3799 9f35 d87b 0336 30f3 7d35
000001f0: b5a7 6b36 2be7 7a36 f46e 7436 9694 2b35
00000200: 05a8 c934 05e6 1d35 059b e734 8a08 2cb6
00000210: cefb 3a36 d506 f434 3601 4435 d74d 0735
00000220: 61f8 0735 4d73 a435 96c5 d034 1a46 35b6
00000230: 6082 c735 e30f a135 7a2b 0335 d81e e935
00000240: 6fbd f0b5 784e 45b6 db0f 8735 171e bb35
00000250: afa9 c934 2f87 3d35 a4c2 ff35 075b 7636
00000260: 90f2 c734 fd13 19b5 dcaf fd34 82f8 5135
00000270: e72d 2335 2464 bb34 d6e4 2835 864a 6736
00000280: 4083 dd33 d233 1136 0eda 3435 27fe b234
00000290: 22c9 5235 2b0d 2036 b303 b1b5 eeb9 e035
000002a0: 6f2f 6f35 c20c 8ab6 aa36 0035 de1b f834
000002b0: f47a 5835 abf1 f334 bb0c a7b6 5d91 2435
000002c0: dd18 fe34 5680 0935 eb6c 5936 c3f2 c834
000002d0: 47dd 0c36 6fe6 c935 04f6 1136 829a 8935
000002e0: 82d3 0d36 eb2e df34 4b64 7235 e137 a334
000002f0: b611 d435 b086 ef35 111a 0035 51ea 10b6
00000300: 81f7 4fb6 1046 c735 272e c535 70a6 5a35
00000310: ea3a c535 7b32 c235 2e0c b735 7200 c335
00000320: c3dc 8235 559a a835 0227 bc35 b061 c535
00000330: 223b 11b6 c479 be35 8055 a535 e32b b635
00000340: e38a 7935 a41d c235 31dd c535 2483 9035
00000350: cf4d 8e35 7441 b635 2397 c535 b8f2 3136
00000360: 8430 a535 f1b7 9834 4cf4 8635 fb3b 7235
00000370: 52f3 a834 bdd6 a335 170f c735 2057 c235
00000380: 2feb c035 6b00 bb35 2d80 c435 a9e9 c635
00000390: d906 7a35 3bfa 1b35 9829 c235 dee1 43b6
000003a0: f5f9 bcb5 8240 b735 c4f6 c435 1fdf b435
000003b0: 026a b535 74c9 c035 3155 c735 47cb bf35
000003c0: cf1f b935 7650 a635 2831 b135 a5ae 2936
000003d0: b492 b235 7562 be35 5969 c035 9912 9c35
000003e0: 9756 c735 36bb c335 99a2 b735 90cb c335
000003f0: 801d ae35 6195 c435 c7ac ba35 15f8 be35
-4.4567582e-07 -5.441835e-07 -1.2581961e-07 2.7534978e-07 -5.3834225e-07 -2.1272942e-07 -2.6037034e-08 1.6232565e-06
3.3390077e-07 1.111945e-06 -5.390996e-07 -2.919995e-07 -1.324166e-07 3.007601e-07 -4.0398402e-07 -4.8996435e-07
-1.3490412e-06 -4.6603006e-08 -2.3130725e-07 -4.2256147e-07 -1.7337707e-07 3.880845e-07 -2.7653766e-07 -8.701259e-07
-5.4711677e-07 -1.11535336e-07 2.7233162e-07 -2.7334562e-07 3.5702516e-08 -3.1637896e-07 -4.9928144e-07 -3.3849656e-07
-1.8070256e-07 2.8714277e-08 -7.215878e-08 -1.3508161e-06 -2.4292873e-07 8.954426e-07 -3.2874206e-07 -2.5717543e-07
-4.3878103e-07 -3.5445365e-07 -1.8279817e-06 -2.7773427e-07 -1.8098943e-07 -5.409415e-07 1.0638012e-06 -2.0796837e-07
1.510814e-06 1.5504628e-06 -1.6706413e-07 -1.8534935e-06 2.0199161e-08 1.4298533e-06 -4.430301e-07 8.9304353e-07
-2.4275758e-07 -2.8472118e-07 -5.468003e-07 -1.9318595e-07 -4.081697e-07 -5.4871424e-07 -3.133731e-07 -4.418041e-07
-4.7153617e-07 -2.8057082e-07 4.2173025e-07 -1.9091276e-07 1.2265726e-06 -1.16557985e-07 -5.47169e-07 -2.745219e-07
1.2767671e-06 9.0745607e-07 -3.1154235e-07 -1.2667823e-07 -4.2632985e-07 3.0273105e-07 6.677508e-08 -3.021343e-07
8.8370876e-07 -5.20933e-07 -5.399899e-07 -1.4348075e-07 -5.407322e-07 -1.093154e-07 -3.409984e-07 -3.2055053e-07
-3.8527924e-07 -4.4243748e-07 -1.16543944e-07 -3.281579e-07 -4.1021033e-07 -1.5691508e-07 2.554035e-07 -5.4791445e-07
1.799731e-06 3.436154e-06 -2.0687198e-06 6.0696243e-07 9.369647e-07 3.5998073e-06 -1.4846952e-06 3.8975418e-07
3.4223613e-06 1.2082825e-06 -1.6444573e-06 1.624713e-06 3.2277597e-07 2.1964531e-06 -5.700047e-07 3.7018679e-06
3.4806765e-06 2.309427e-06 3.1015986e-06 -1.0544833e-06 -2.8981044e-06 2.6878665e-06 3.5360088e-07 3.6295564e-06
9.788616e-07 1.1891015e-06 1.9592608e-06 9.460373e-07 3.5115347e-06 3.738746e-06 3.6423417e-06 6.3918685e-07
3.7561418e-07 5.882178e-07 4.3139895e-07 -2.5634968e-06 2.786273e-06 4.5453513e-07 7.301745e-07 5.040469e-07
5.065286e-07 1.2252509e-06 3.8886782e-07 -2.7011906e-06 1.48646e-06 1.2000058e-06 4.886457e-07 1.736883e-06
-1.7936526e-06 -2.9400962e-06 1.0062898e-06 1.3941343e-06 3.7562629e-07 7.0604705e-07 1.9055628e-06 3.6709841e-06
3.7243126e-07 -5.702603e-07 4.7252877e-07 7.8220194e-07 6.078903e-07 3.4904326e-07 6.2917877e-07 3.446506e-06
1.0314989e-07 2.1636847e-06 6.7372537e-07 3.3340004e-07 7.8523783e-07 2.3849523e-06 -1.3188604e-06 1.6743413e-06
8.9103463e-07 -4.1142057e-06 4.776326e-07 4.6213876e-07 8.064519e-07 4.5438114e-07 -4.97847e-06 6.130629e-07
4.7329277e-07 5.122323e-07 3.2398918e-06 3.7429535e-07 2.0990426e-06 1.5042732e-06 2.1749884e-06 1.0252263e-06
2.113375e-06 4.1571124e-07 9.029797e-07 3.0401773e-07 1.5800385e-06 1.7846087e-06 4.772165e-07 -2.1594062e-06
-3.098947e-06 1.4847046e-06 1.4691076e-06 8.1453527e-07 1.469479e-06 1.4468818e-06 1.3638107e-06 1.4528762e-06
9.750005e-07 1.2561892e-06 1.4018444e-06 1.4706075e-06 -2.1641104e-06 1.4191542e-06 1.2318342e-06 1.3572829e-06
9.2961835e-07 1.4462753e-06 1.4742019e-06 1.0767003e-06 1.060247e-06 1.3579106e-06 1.472163e-06 2.6516336e-06
1.2307578e-06 2.844604e-07 1.0054878e-06 9.023931e-07 3.1469477e-07 1.2206943e-06 1.4831047e-06 1.4479483e-06
1.4373562e-06 1.3932707e-06 1.4640442e-06 1.4820154e-06 9.314222e-07 5.8106133e-07 1.4466232e-06 -2.9188736e-06
-1.4079839e-06 1.3653337e-06 1.4674956e-06 1.3475982e-06 1.3516403e-06 1.4363745e-06 1.4851449e-06 1.428977e-06
1.3792832e-06 1.2391381e-06 1.3201834e-06 2.528462e-06 1.330473e-06 1.4184758e-06 1.4335775e-06 1.1628318e-06
1.4851856e-06 1.4583118e-06 1.3681885e-06 1.4587877e-06 1.2972596e-06 1.4646613e-06 1.3908365e-06 1.4228305e-06

weight_ih_l0 f4 [384, 96]
00000000: 5cc0 d6bb e7a3 eb3a 9941 e9ba a46a 913b
00000010: 0e4a 54bb 0236 723b d815 bf3b da9f a03b
00000020: c05d a13b c6cd d539 1bfd 11bc bc9e 01bb
00000030: d471 e7bb 6da7 c73b 71d8 9e3a 0594 e0ba
00000040: 73ce 68ba 53be 36bb b8eb e03a 4a07 91bb
00000050: 4f8c 28bb 28b5 33bb a682 a43b 8288 b13a
00000060: a5ad b73b ae6b d53a 1af4 6d3b c738 97bb
00000070: 12d7 32bb a450 f4bb aee2 24bb a99f c8bb
00000080: d28f efb7 54f1 9839 70c8 9ab8 df6c a23b
00000090: 9552 14bb 01d2 8fbb 3b16 cabb acdc d5bb
000000a0: 2ef1 473b 9ffc c73b 7ffe b33b c344 fbbb
000000b0: dacd c13b 8dd6 0e3a 3507 613b 0a72 313b
000000c0: 711c 85bb 236e fdba a58b 04bb 5d6c abbb
000000d0: 6f6f c33b 13ef 9d3b 1473 0b3c de1e 773b
000000e0: f6b3 60bb 5ffb 293b d7fb 7cb7 fadb 953b
000000f0: b2e9 87bb 8cac 86bb 8d70 cd3b 81d1 0dbb
00000100: c53f fd39 6742 babb 55ca 3f3a 6368 39ba
00000110: 20f9 6d3b d02d aab9 75b4 513b 00ea 65b9
00000120: af4c 2f3b fa2b 5d3c f7dd 35bb aef6 e23a
00000130: ed9e 083c 4ed5 adbb a6ef 18bc c581 af39
00000140: 480a 4b3b 889b 8abb e761 cdbb 2537 babb
00000150: 685a 113a 4179 9fba 7c5c 6239 b304 8fbb
00000160: 6b1e 9fbb 7aa9 c639 382a 0bbb 6264 4c3b
00000170: d606 ddbb 485c 9d38 52a1 8bbb 6d4e bf3a
00000180: 94ab 13bc 66ca ef3b fb29 2ebb e431 023c
00000190: 7429 2fbb 123d a73b 12b8 053c 71f4 273c
000001a0: 50dd 4a3c 9754 f43b b9ae 7fbc 8579 c3ba
000001b0: 560a 2cbc 9119 603c 7518 d03b a2c0 9f3a
000001c0: ac90 a43b 230e d53a db65 0f3c dbb9 23bb
000001d0: 6b67 48ba 796d bd3b 7ddf eb3b edb1 763b
000001e0: e668 363c f0ea 4c3b 2cd5 2a3c 5a53 3ebb
000001f0: d4cb b93a b41b 2dbc d175 f1ba e938 00bc
00000200: e798 b03b d205 7e3b 2508 8bb7 8d1e 313c
00000210: 0b5c 5fbb 4071 9abb 56ad 1cbc 0717 03bc
00000220: 23ed 6b3b 2878 7b3c a53c 8b3c 8990 5ebc
00000230: 1269 8f3c c887 e83b 1709 2b3c 086e a33b
00000240: 0581 bf3a 8622 003b d3d4 3f3b f591 5ebb
00000250: 8731 683c 20e7 843c dff6 a73c bcb1 013c
00000260: 60b2 41bb 6fb4 d53b f2f3 0cba 1dc8 983b
00000270: 5ca4 98bb cfe5 0dba e600 b83c 1090 413b
00000280: 6379 dc3b c413 e1bb 9b21 153c 419b 59bb
00000290: be24 5d3c 05e2 963a e54c 573c 3544 263a
000002a0: 999f d03b 7e87 9e3c e658 b939 4fc9 bf3b
000002b0: 750a 9a3c d877 23bc ec23 90bc 82ba 833b
000002c0: 0269 553c c28e a1bb 5c50 f1bb 4e63 68bb
000002d0: a376 233c f576 123b 3eab 4e3b 2473 c8bb
000002e0: 3d68 4cbb f23e 183c a456 893b 0f44 cc3b
000002f0: d94f 4dbc 23c2 9c3b b719 8abb 1e6e 763b
00000300: 8dbc abbb 70b3 043b ff93 ddba 8b16 653b
00000310: 603f 28bb f5ed 443b ac88 913b da9b 8c3b
00000320: 920a 8e3b 8235 7e38 d99c ebbb 476a eeba
00000330: 96dc 9dbb 2a01 b83b a66b 9b3a de19 1dba
00000340: 62e7 28ba eb08 1dbb 8ea8 003b 1037 65bb
00000350: ad42 0abb eec4 edba 6653 723b 1baa 983a
00000360: 6677 9a3b 8ca0 a93a 1946 5d3b 2001 6abb
00000370: 7469 c7ba 388c afbb cf58 11bb dd77 97bb
00000380: ca40 b837 3a77 8a39 3e73 64b9 9d51 893b
00000390: c528 0cbb a9b4 68bb e58c a5bb c1ae a1bb
000003a0: 6be7 153b 5229 b53b 6a1a af3b 5178 c7bb
000003b0: a5ab b93b a904 7c3a a4cf 1a3b c488 0e3b
000003c0: 80aa 49bb d06d d2ba 44cb 80ba 1bee 89bb
000003d0: 2bdf a73b 692c 613b f237 fa3b 50ed 593b
000003e0: 9745 57bb 86c7 f03a ad10 72b9 d764 9a3b
000003f0: 5815 71bb ca7a 4dbb ab15 d33b 3e6b e2ba
-0.0065536927 0.0017977924 -0.0017796039 0.0044377614 -0.0032392773 0.003695846 0.0058314614 0.0049018683
0.004924506 0.0004077984 -0.008910443 -0.001977845 -0.00706313 0.0060929568 0.0012118948 -0.0017133957
-0.0008880861 -0.0027884438 0.0017160093 -0.0044259178 -0.0025718396 -0.002742121 0.0050204573 0.0013544711
0.005605417 0.0016282701 0.0036308826 -0.0046149227 -0.0027288836 -0.007455902 -0.0025159526 -0.0061225486
-2.8557992e-05 0.00029171503 -7.3806266e-05 0.004956826 -0.002263223 -0.004389048 -0.006167201 -0.0065265503
0.0030508745 0.006103113 0.005492985 -0.007668109 0.005914432 0.00054488407 0.003433657 0.002707603
-0.0040622284 -0.0019335191 -0.0020224836 -0.005231424 0.0059642117 0.0048197596 0.0085113235 0.0037707607
-0.0034286953 0.0025937182 -1.50790065e-05 0.0045733424 -0.0041477317 -0.0041099247 0.0062695206 -0.0021639767
0.00048303432 -0.0056841853 0.00073162216 -0.0007072745 0.003631182 -0.0003245906 0.003199843 -0.00021926314
0.0026748588 0.013499254 -0.002775071 0.0017315948 0.008338672 -0.005304969 -0.00933448 0.00033475287
0.003098147 -0.0042299666 -0.0062677744 -0.0056828433 0.00055447826 -0.0012166874 0.00021587493 -0.004364574
-0.004855921 0.00037891773 -0.002123488 0.0031187763 -0.0067451997 7.503532e-05 -0.0042611742 0.0014595516
-0.009013075 0.007317829 -0.0026575315 0.007946465 -0.002672759 0.0051037157 0.008161562 0.0102511505
0.012381867 0.007456373 -0.015605622 -0.0014913535 -0.010500511 0.0136779705 0.0063505718 0.0012188146
0.005022129 0.0016254823 0.008752312 -0.0024982605 -0.0007644805 0.0057808724 0.0071982727 0.0037642673
0.011133408 0.0031267963 0.010426801 -0.002904138 0.0014175125 -0.010565687 -0.0018421953 -0.007826068
0.005389321 0.0038760793 -1.6573884e-05 0.0108105065 -0.0034081961 -0.0047132075 -0.009562811 -0.008001096
0.0035999499 0.015348472 0.016996691 -0.013584265 0.017506156 0.0070962645 0.010439179 0.004987482
0.0014610594 0.0019551828 0.002927114 -0.003396151 0.0141719645 0.01622349 0.02050346 0.00791591
-0.0029555783 0.0065217535 -0.0005376927 0.0046625272 -0.004658265 -0.00054129673 0.022461366 0.002953533
0.0067283376 -0.0068688113 0.00910225 -0.003320411 0.01349753 0.0011511451 0.013140892 0.0006342561
0.006366682 0.019351717 0.00035352184 0.0058528553 0.018803814 -0.009977303 -0.017595254 0.004020036
0.013025524 -0.004930348 -0.007364316 -0.003545958 0.009977016 0.0022348736 0.0031535174 -0.0061172415
-0.003119006 0.009292351 0.0041912366 0.006233699 -0.012531244 0.004783885 -0.004214491 0.0037602256
-0.005240983 0.0020248555 -0.0016905068 0.0034956064 -0.002567254 0.003004906 0.0044413414 0.00429104
0.004334756 6.0608152e-05 -0.0071903286 -0.0018189632 -0.0048175557 0.005615373 0.0011857643 -0.0005992929
-0.000644317 -0.0023961614 0.0019631716 -0.0034975447 -0.002109687 -0.0018140355 0.003697598 0.0011647375
0.0047139404 0.0012941523 0.0033763705 -0.0035706237 -0.0015213923 -0.0053572915 -0.0022178178 -0.004622443
2.1964679e-05 0.00026410242 -0.00021786705 0.0041906373 -0.0021386605 -0.0035508072 -0.0050521963 -0.0049341624
0.0022873532 0.0055286074 0.005343725 -0.006087341 0.0056662136 0.00096137315 0.0023622299 0.0021749
-0.0030771792 -0.0016054455 -0.0009826203 -0.0042092926 0.0051230392 0.0034358746 0.0076360637 0.0033253022
-0.0032847875 0.001837001 -0.0002308513 0.004711728 -0.0036786404 -0.0031353706 0.006441792 -0.0017274392
