Graph Neural Network/Models/SAGEConv_LSTM-D5-F1-mean.pth (torch, 764722 bytes, 23 tensors)

weight_ih_l0 f4 [384, 96]
00000000: a380 a8bc c9f5 143d b9d5 643d 7100 90bc
00000010: a185 78bc 78c9 95bd 81e9 b23c ba91 86bd
00000020: 0413 3cbd 70d9 bcbd e9ba 5a3d 6131 49bd
00000030: b8a6 b5bd 4148 723c 3a07 a7bc 2994 a5bd
00000040: 0fba 24bc 70bb 9cbd 02c2 66bd 997c 9f3d
00000050: aafe 8dbd fc7d 9c3d b352 7cbd a90a acbd
00000060: 6c3c 4a3d a803 c5bd 6f0d 82bd ecd1 8c3d
00000070: abb3 71bd 2a59 3d3c 9136 5ebd 25cf 52bd
00000080: c9e5 383d 8027 5ebd 43e4 9ebd 6f3c 1cbc
00000090: 1e25 d8bc d439 06bd 7deb 943d 9797 233d
000000a0: 47c3 243d 64ec 8ebd 9416 b7bd c5c6 4c3d
000000b0: db24 153d 6a6f b1bd 3942 9c3d fc61 a13a
000000c0: bffa 663d 8991 30bc 4de7 8ebd d459 7fbd
000000d0: b321 88bd e504 9fbd 788b bcbc 853c 7d3d
000000e0: adb5 a8bd 3e37 963d 780b 3f3d a0cf 59bd
000000f0: d9aa 07bc e0ff 12bc dd42 a33d 3d2b abbd
00000100: 9136 23bd ecb8 333c d8f0 9abd 4eeb 4e3c
00000110: c77a 333d 1948 bfbd 47bf 8dbd c371 9ebd
00000120: 340a b03b 9922 ac3b c655 debc 0e00 cc3c
00000130: 083a 03bd 6a22 6abd f063 7abc ef63 28bd
00000140: e0bd 653d a24e 0fbd 89aa 713d c819 19bd
00000150: 62bd 6b3d 0093 0e3d f1f9 5abd 850b 95bd
00000160: f66c aabc 53c8 bdbd eda3 563c 1fdd 383d
00000170: e353 9bbd 262b c7bd 3e1d 0dbb 43b4 453c
00000180: 0aba 113d f13c 483c 2219 9cbd dd49 bfbd
00000190: c9fb 573d e26d 09bd 9dc7 a6bd f955 b9b9
000001a0: 22d0 693d 7074 53bd 0aea 82bd f4d9 a5bd
000001b0: 69e3 3bbd b81c 113d 0b17 41bc b835 5e3d
000001c0: a5d9 b2bd a9fb 793d 0ee6 c5bd e11b b3bd
000001d0: 4a43 9bbc 7c64 073d 5845 4c3d 7b68 89bd
000001e0: f42b 39bd db97 f23c 1de2 dc3c de86 44bd
000001f0: f85d bdbd 61c7 843b f6e8 753d 70f5 cbbd
00000200: cfe7 f03c c5af 98bc 876d 96bd 3edb 6b3c
00000210: e88a 59bd a9e5 283d 8a12 493d 7a84 f9bc
00000220: d586 033d 5e72 0dbd deef b1bd d02b adbc
00000230: ecf6 163c 6600 9dbd 34d3 283a e4dd e73c
00000240: b608 cd3c a14f de3c 7693 0dbd 1ab5 0e3d
00000250: 8540 533d c4f1 823d 23d9 6a3d e119 9a3c
00000260: 0538 a0bd ba0f a03c 4a78 34bd a96a 633d
00000270: 79fa c6bd 0f45 8a3c dbc9 e0bc 77e0 4cbd
00000280: d699 293a 06d8 bebc bd24 7f3d c67e 8b3d
00000290: 05da 073d 29cf 1b3d 8751 c8bd e48a 1abd
000002a0: 2669 f7bc d45c 14bd 2a8b 53bd 5441 1e3d
000002b0: 7f6f 09bd 476e 163d f048 e2bc 67c7 bdbd
000002c0: 1607 c33c 6d83 80bd 0192 b83c d10b 9fbd
000002d0: 9052 413d e5e0 72bd 88a7 8bbd 5181 88bd
000002e0: a34d 1dbd 615d a73c 9578 10bd 1fae 0dbd
000002f0: 1f39 d4bb b9e5 9dbd b4a6 9ebd 1dff 23bb
00000300: 35ba 9fbd f2a9 2dbd c954 9fbd 3892 0f3d
00000310: cfc2 8b3c 34ba a4bd 17ab 70bd 00a2 673d
00000320: ef82 8b3d d6d3 33bd 8592 12bc 38b8 aebc
00000330: d014 213d 376b 82bd ec8f cc3c a858 c73d
00000340: 00a6 863b f74d b13d 0fc6 a13d 545d 593b
00000350: a376 b63c 1a66 0a36 07ea d7bc 2046 04bd
00000360: 8cc7 523d 298a 3bbd f3c9 0abd ed65 433d
00000370: b3a1 dbbc efd0 8c3d 4c1c 87bb 33be 59bd
00000380: 3480 833d 06fe 12bd 478f 253d 464a 943d
00000390: 7cbd 3ebd 836d ce3d 0652 23bd a7d9 cfbb
000003a0: 788c c2bc 2ed3 9f3c 87d8 023d 9cf0 373d
000003b0: 97e1 b63d 81ee 853d d544 4f3d fc70 69bd
000003c0: dcaf 553d 3040 8fbd e334 0fbc 7066 773c
000003d0: 2388 b93d 07e9 a8bc 191f aebb 2e2c 473c
000003e0: 004e 82bd d315 03bd 2086 9c3d 55df 203d
000003f0: a20b 903d c93e 85bd fa2f 753d 1f6e c33c
-0.020569151 0.03636721 0.055867884 -0.017578335 -0.015168578 -0.07313818 0.021839859 -0.06570764
-0.045916572 -0.092211604 0.053400908 -0.049119357 -0.0886969 0.0147877345 -0.020389188 -0.080849
-0.010054125 -0.07652938 -0.056337364 0.07787437 -0.06933339 0.07641217 -0.061602306 -0.08400471
0.04937403 -0.09619838 -0.063502185 0.06875977 -0.059009235 0.011556903 -0.054251257 -0.05146708
0.045141015 -0.05423689 -0.07758381 -0.009535893 -0.026384886 -0.032769993 0.07271478 0.03993949
0.040225293 -0.06978682 -0.08939853 0.04999425 0.0364121 -0.08663829 0.076298185 0.0012312527
0.056391474 -0.010776886 -0.06977711 -0.062341526 -0.066470526 -0.077646054 -0.023015723 0.061825294
-0.08237777 0.07334755 0.046641797 -0.053176522 -0.008280479 -0.008972138 0.079717375 -0.083578564
-0.03984696 0.010969382 -0.075654685 0.012629343 0.04381826 -0.093399234 -0.06921249 -0.07736542
0.00537231 0.005253148 -0.02714051 0.02490237 -0.032037765 -0.057161726 -0.015282616 -0.04111093
0.056089282 -0.0349871 0.059000526 -0.037378103 0.057553656 0.03480816 -0.05346102 -0.07277588
-0.02080391 -0.092667244 0.013100606 0.045132753 -0.075843595 -0.09725027 -0.0021532322 0.0120669035
0.03557781 0.012221561 -0.07621981 -0.0934026 0.052730355 -0.033552058 -0.08143542 -0.00035350004
0.057083257 -0.051624715 -0.06392296 -0.08098212 -0.045871172 0.03542778 -0.011785279 0.05425045
-0.08732919 0.061031017 -0.0966302 -0.08745552 -0.018952984 0.033054814 0.04987082 -0.06709381
-0.045207933 0.029613426 0.026963288 -0.047980182 -0.09246439 0.004052088 0.060036622 -0.09958923
0.02940741 -0.018638501 -0.073451094 0.014395533 -0.053110987 0.041234646 0.049089946 -0.030458678
0.032111008 -0.034532897 -0.08688329 -0.021139055 0.009214144 -0.076660916 0.0006440163 0.028304048
0.025028568 0.02713758 -0.034564458 0.03484068 0.051575202 0.063937694 0.057335984 0.018811168
-0.07823185 0.019538749 -0.04406003 0.05552164 -0.097157426 0.016878633 -0.027440002 -0.050018754
0.0006469762 -0.023296367 0.062290896 0.068112895 0.033166904 0.03803936 -0.09781175 -0.037730113
-0.030201506 -0.03622134 -0.05164639 0.03863652 -0.033553597 0.036726262 -0.02762267 -0.092665486
0.02380709 -0.062750675 0.022530558 -0.07765926 0.04719788 -0.059296507 -0.068190634 -0.0666529
-0.03840412 0.020430269 -0.035271246 -0.034589883 -0.006476536 -0.07709832 -0.0774664 -0.0025023886
-0.07799188 -0.0423984 -0.07779843 0.035051554 0.017060665 -0.08043328 -0.058756914 0.05655098
0.06812083 -0.043903194 -0.008946066 -0.021328077 0.03932649 -0.06368106 0.024970971 0.09733707
0.004109144 0.08657449 0.07899105 0.00331672 0.022273367 2.0623033e-06 -0.02635671 -0.03229344
0.051459834 -0.045786057 -0.033884 0.047704626 -0.026810503 0.068757884 -0.0041232463 -0.053159904
0.06420937 -0.035886787 0.040419843 0.07240729 -0.046567425 0.100794815 -0.039873146 -0.006343085
-0.023748621 0.019509878 0.031944778 0.044907197 0.089297466 0.06539632 0.050602753 -0.056992516
0.052169666 -0.06994665 -0.0087406365 0.015100107 0.09059169 -0.020618929 -0.0053137657 0.012156529
-0.063625336 -0.032003235 0.0764277 0.039275486 0.07033469 -0.06506116 0.059860207 0.02385622

weight_hh_l0 f4 [384, 96]
00000000: 9f81 95bc af00 80bd 0a42 f7bb f570 c43d
00000010: 08f1 fb3c c87d bbbb fb22 2c3c c2e3 743d
00000020: 2072 4d3a edc0 bcbc fb1f 6bbc a90e b2bd
00000030: f8d8 a73d 3772 abbc 65f9 2fbd 391e 0e3d
00000040: 418c 883d 7204 6dbd 4dfe 343c 17da 5f3c
00000050: ddb9 c6bd 8de6 3bbc 6638 a83d 6094 a73d
00000060: c3e4 ac3d 2db1 40bd 102a ccbd 97c0 b53d
00000070: 7ae7 073d 8cb3 29bd 92a6 52bd e153 563b
00000080: 403b 9f3c e9a4 853c 0fdf 21bd f22b 8b3c
00000090: 981b 96bd 8967 933d 6a42 723d 15a1 9bbb
000000a0: e5bf 703c b229 69bd d677 803d 68c5 9fbd
000000b0: a073 87bd 72c5 9d3d 0811 e8bc e953 c03d
000000c0: cb0f 48bd 372b 353c d1b7 b0bd be9b d739
000000d0: 3147 ef3c 7c06 48bb 000d 933d e7d4 a33d
000000e0: 7306 7b3d b4cc 773d d7f5 49bc 1b4f 41bd
000000f0: ae8e 493a 8cd9 75bb c30f 673c 967e 30bd
00000100: d69d 2e3d 778c 273d 60e7 593d 392c eabc
00000110: d8a8 4d3c 0beb 733d 9e42 bcbd c2d8 2c3b
00000120: ad17 85bd 5e71 f6bb 47b4 91bc 8693 a3bd
00000130: 041f 77bd 670a b5bc 3a1a 66bd 9ca9 8a3d
00000140: 231d 913d c992 9cbc 24d2 bf3d 8705 813d
00000150: bb8d 2e3d 1031 b1bb 6d3a c3bd 26ec ecba
00000160: 65f4 be3d 9e98 c3bc e337 dabc a194 28bd
00000170: 9ff7 9d3d 84a1 13bc 9d58 f1bc fb40 483d
00000180: e03d c7bb 66a2 34bc e0a2 93bd 6525 6bbd
00000190: e49f 88bd b8eb 0c3d fc15 95bd 862f 203d
000001a0: 7025 af3d d9d6 023d c02a 8ebd 988d 113d
000001b0: 4bb6 a43b 73aa e1bc 422a 9f3d f846 413d
000001c0: dc30 f03c c5f9 ad3d 8895 ee3c 8e66 bebd
000001d0: e581 b73c 3d39 34bd 8d58 27bd 8975 91bc
000001e0: c6df 74bb dbbe 8e3d bf3c 0c3c f526 03bc
000001f0: 7aca 713d 171e 773d eea0 b23d 1fcc bcbc
00000200: ac9f 02bd d00d 58bd 9372 8a3d 2dc8 b5bd
00000210: 9e4d c9bc bb0b 3fbd f70c 3ebd 716f 9b3d
00000220: af98 323c c222 4d3b 41eb 0fbd 7a0e cfbc
00000230: 136f b5bd 2c84 853c 407a 2fbd c022 d53c
00000240: 5c85 c33c 6771 6c3c c85e 48bb c475 dbbc
00000250: c847 913d 8582 5dbd 1f36 afbd 5f9b 17bd
00000260: 3863 70bc 5645 98bd 5213 923d ab10 d03b
00000270: 8dfa 13bd 56da c53d baa6 aa3d faa7 98bd
00000280: 9efc 96bd c87c 77bd f5a6 a2bc 795a 5e3d
00000290: eaca 693d de94 9ebd f43e b83c 4754 f53c
000002a0: b18e b03d fb5b b93a f6f5 1f3d d802 973d
000002b0: a5df b1bc bf41 ab3c 691a d5bc 31d5 8a3d
000002c0: c3c1 0bbd 28a7 b0bc 3cfb 5a3d fbb0 b7bc
000002d0: 7ff9 8d3d b1eb be3c 9dbb 923d aed3 9f3d
000002e0: de70 7abd 710d 6f3d f906 15bc de46 bdbc
000002f0: 8f01 5e3d 91a0 9c3c a10c 89bd 6036 55bd
00000300: f8a0 6fbc 591d c83d 6a50 8abd b59e 11bd
00000310: 8284 32bd 9532 87bd 393c 81bd b060 bfbd
00000320: 376b 75bd ae9a 543d 16b6 f2bc b1f2 bbbd
00000330: 30e8 053c 38ee b13d ac55 633d 0832 0e3d
00000340: 7b91 433d eff5 893d a35b a9bc 281d 1fbd
00000350: ff14 29bb e50e 0fbd 8681 973d 05dc b8bd
00000360: e2a0 c03d 63c4 8c3d 877d f33c a2b0 08bd
00000370: be54 dabc 01ec 56bd fca9 aebc d88a 4b3c
00000380: 81ec a13d 746d 62bd 365a c6bd fa82 b83c
00000390: 0d3e b0bd 0a76 833c 923c d0bd 471a c73c
000003a0: ee8a 2c3d 2657 7c3d e3c6 01bd 24c2 423d
000003b0: 9e99 63bd 8b20 61bd 1f1c 573d 4daf cdbc
000003c0: e25f 833d 0722 b7bc efab abbd 808b c63c
000003d0: aef8 4abb 00da 80bd f4f1 0c3d 6991 243d
000003e0: 5b54 80bd 78c0 3dbc 02a5 a3bc ffd2 833c
000003f0: dadc 06bd 4cea 973d 433e 0cbd 5dc5 3f3d
-0.018250285 -0.062501304 -0.0075457143 0.09591857 0.030754581 -0.0057217814 0.010506387 0.05978752
0.00078371353 -0.023041213 -0.014350886 -0.086942025 0.081956804 -0.020928485 -0.04296245 0.03469679
0.06667376 -0.057865568 0.011046958 0.0136628365 -0.09703419 -0.011468542 0.08213882 0.08182597
0.0844207 -0.047043968 -0.0996896 0.08874624 0.033179738 -0.041430995 -0.051428385 0.0032703804
0.019437432 0.016313987 -0.039519366 0.016988728 -0.07329482 0.07197482 0.05914537 -0.004749427
0.014694189 -0.05692453 0.06272857 -0.07801324 -0.066138506 0.07703675 -0.028328434 0.093910046
-0.048843186 0.0110576665 -0.0862881 0.00041124033 0.029208751 -0.0030521443 0.07180214 0.07999592
0.061285447 0.060497954 -0.012326679 -0.04719458 0.00076888024 -0.0037513701 0.014102879 -0.04308947
0.042630993 0.040905442 0.053199172 -0.02858554 0.0125524625 0.059550326 -0.09192394 0.0026374315
-0.064986564 -0.0075208386 -0.017786158 -0.07987122 -0.060332313 -0.022099687 -0.056177355 0.06770632
0.070856355 -0.019112961 0.09366253 0.062998824 0.042615633 -0.00540746 -0.09532628 -0.0018075749
0.09323958 -0.023876484 -0.026637977 -0.04115737 0.077132456 -0.009010676 -0.0294612 0.048890095
-0.006080374 -0.011025047 -0.072088 -0.05740871 -0.06671122 0.034404486 -0.07279584 0.039107822
0.085520625 0.031943176 -0.06941748 0.035535425 0.005026614 -0.027547097 0.07771732 0.04718682
0.029320173 0.084949054 0.029124036 -0.092969045 0.022400806 -0.0439999 -0.040855933 -0.01775624
-0.0037364825 0.069699965 0.008559405 -0.008004894 0.059030987 0.06033143 0.08722101 -0.023046551
-0.031890556 -0.052747548 0.067601345 -0.08876071 -0.024573144 -0.046642046 -0.046399083 0.07589615
0.01090066 0.0031301235 -0.035136465 -0.025275458 -0.08859076 0.016298376 -0.042841196 0.026017547
0.023867302 0.014431334 -0.0030574072 -0.026789553 0.07093769 -0.05407955 -0.08555245 -0.037013408
-0.014672093 -0.074351 0.07132591 0.006349643 -0.036127616 0.09660785 0.08332582 -0.07453914
-0.07372402 -0.060421735 -0.019855002 0.0542855 0.05707828 -0.07743238 0.022490956 0.029947413
0.08620966 0.0014141792 0.039052926 0.07373589 -0.021713087 0.020905374 -0.02601357 0.06778944
-0.034120332 -0.021564081 0.053462252 -0.022423258 0.06932353 0.023305746 0.07164691 0.078040466
-0.061142795 0.058362428 -0.009095901 -0.023105081 0.054200705 0.019119533 -0.06691862 -0.05205381
-0.01462578 0.097712226 -0.06753619 -0.035551745 -0.0435834 -0.06601445 -0.06310315 -0.093446136
-0.0599167 0.051905327 -0.029627841 -0.09177149 0.008173034 0.08688015 0.055501625 0.034715682
0.047746163 0.06736361 -0.020673579 -0.038846165 -0.0025799868 -0.034926314 0.073977515 -0.090263404
0.09405686 0.06873395 0.029722942 -0.033371575 -0.026651736 -0.052471165 -0.02132129 0.01242324
0.07906438 -0.055280164 -0.09685175 0.022523392 -0.08605585 0.016047496 -0.10167803 0.024304522
0.04212468 0.06160655 -0.031683814 0.04754843 -0.055566423 -0.054962676 0.052517053 -0.025108004
0.064147726 -0.022355093 -0.08382403 0.02423644 -0.0030970979 -0.0629158 0.034410432 0.040177736
-0.062660895 -0.011581533 -0.019976143 0.016091822 -0.032925464 0.074177355 -0.034239065 0.04681908

bias_ih_l0 f4 [384]
00000000: 5c46 87bd 75c3 acbc 18ac 973d a55b ebbc
00000010: 8a15 8a3c 98d3 003b 55b3 843d bed8 a53d
00000020: d4b4 b73d ec46 8abb 003a e93b cede 3abd
00000030: dcf0 953d 4f24 a63c f61d 4f3c c897 903d
00000040: 0c02 2d3d eead 2a3d b5da 34bd 22c6 053d
00000050: 0606 4bbd a4dc 8cbd 5e8f 983d 75f0 323d
00000060: 58fd 00bd c571 b03c 33ed b43d c833 07bd
00000070: 3c4e 55bd 54e9 1f3d 0acc 3dbd b27b 23bd
00000080: 40fa 1fbd 7230 b0bd 2047 82bd 9f75 5abd
00000090: 8755 babd 7723 8c3d cc57 90bd 406e 13bd
000000a0: 60d7 0abd 67ce 74bd 3e7a 8abd 051f ce3d
000000b0: 8808 463c 3de3 babd ae89 4bbd 0561 82bc
000000c0: 8605 093b 77f4 ba3c d9a0 97bd d542 733d
000000d0: a4bd 943d b23a c93d 6995 99bd 6051 3e3d
000000e0: abd8 bcbc e1f9 a93d 02ab 2fbc a7c3 0e3d
000000f0: 9b77 bcbd bf0b 853d 6af0 e53c f1c7 c6bc
00000100: 6bd9 ae3d 2fc1 92bd c2cc 783c 6d0d 5f3d
00000110: 861d a43c c538 dd3d 7835 9f3d a224 2f3c
00000120: 4964 2c3d 4877 96bd cba9 88bd 2fab 18bd
00000130: d58c 863d f72c 793c a189 3cbd 67ab 22bd
00000140: d5ab a83d 1b0c 50bc 728b 7b3d 651c ad3c
00000150: 9219 7c3d 9664 a9bd 746b 4b3d 09f0 843c
00000160: e138 b3bd 6d05 4abd ad47 abbd 15b6 e7bc
00000170: ba98 42bd 5723 8bbd 825f 00bb b63c 8f3d
00000180: 27f7 b3bd 6c5e b6bc e864 cbbc 1a82 803d
00000190: 9836 d63d c13e 0cbd 1b79 babd 9680 783d
000001a0: 71c7 b53d f28c 34bd 5865 f73d a90f f93d
000001b0: 260a 9c3d 556c 8cbd 5e8d f53c 9f90 463c
000001c0: 3032 823d 0e6f 493b 98af 833d bab1 383d
000001d0: d4f4 ffb8 4bef bbbd 2818 f93d bba6 243d
000001e0: ac7a e13d 2e7c 3e3d 6980 eb3c 425f 843d
000001f0: 3d67 c63d cb78 2fbd c441 cc3d 45e7 ab3d
00000200: a988 e13d 122e 523d 8201 b73c 8095 96bd
00000210: 5b7a 5bbd 0882 c83c a37b ca3d 7f04 5e3d
00000220: 15c9 a4bc b42a 57bd 25cd 0a3c 069c 3fbd
00000230: e778 483d c35c 8bbd c047 f13d 1f5f b53d
00000240: 1b18 bf3b c642 b63c 4a97 bb3d 523d 39bd
00000250: 64a8 dbbc d8a3 64bd 50b4 ac3d e19c a9bc
00000260: c018 ce3d 5641 663d fd34 d03c 0753 a63c
00000270: f4ea 3a3d b3e3 88bd 21ac d13d b5b0 26bd
00000280: e6a7 74bd 7f2c 1e3d 3abf 5d3d 31bc 6c3d
00000290: e413 8abd 23a1 4ebc 57bc a33c db4f 7b3d
000002a0: 5410 b1bc 6f54 a0bd 0c8e 8ebd 6411 5d3d
000002b0: a2b7 6ebd 2e05 87bd 9eba 4fbd 7be2 7cbd
000002c0: e407 9d3d 04f7 173c 57f7 833d a91c 583d
000002d0: 062e a4bc 6729 a53d 476f 573d e8f7 c93d
000002e0: 44ff 8e3d d678 733d 529d 7e3d 4821 e23b
000002f0: 22db 70bd 8d97 9e3c d285 c03c a1a4 c43d
00000300: 3d5c 5d3d b5dc ab3d ebf8 a7bd f785 7f3d
00000310: d7f5 04bd 378b e9bd b498 7bbd 3399 98bd
00000320: 7056 363b e50a d9bc 8a98 b33b 588d 77bd
00000330: 2b95 333d 402f acbc c277 8f3d a667 2e3d
00000340: 15c8 82bd 2c94 d8bd 999d 45bc 11c8 c63d
00000350: a214 b4bc 73a2 bd3d 435d 1dbd 145c a1bd
00000360: ef12 bb3d 5a28 6c3c b322 7c3d de84 c9bc
00000370: b144 d8bc dcb4 8f3d fba7 01bd cbc4 b93d
00000380: ad0c 79bd be03 a03c f261 a2bd a824 f7bc
00000390: eda3 63bd 843e bbbd 3502 37bd 86db 9d3d
000003a0: 5472 163d 3116 92bd 2373 90bd fa73 cd3d
000003b0: 4680 93bd 9621 123d 1b1b a13d 6722 933d
000003c0: 025c 433d cb9c 91bd 70e1 7abd 2202 103d
000003d0: 1e93 0cbd 524f b5bd 64c2 b83d 6074 3d3d
000003e0: 8b9e 1f3d 31c3 aabd 6d4e 14bc 79d1 003d
000003f0: 8eac 84bd 1bd0 4ebd af85 b3bd cd9f 3e3d
-0.06605217 -0.021089295 0.07405871 -0.028730223 0.016855974 0.001965737 0.06479517 0.08097981
0.08970037 -0.0042198803 0.00711751 -0.04562264 0.07321331 0.020280985 0.012641421 0.070602
0.04223828 0.04166978 -0.044153888 0.032659657 -0.04956629 -0.06878021 0.0744922 0.04368635
-0.031491607 0.021538625 0.08834305 -0.033008367 -0.052076563 0.03904088 -0.046337165 -0.039912887
-0.039057016 -0.0860299 -0.06361222 -0.05333483 -0.09098344 0.06842702 -0.07047996 -0.035993814
-0.033896804 -0.059767153 -0.06761597 0.1006451 0.012086995 -0.091253735 -0.04969185 -0.015915403
0.0020907833 0.022821648 -0.07403726 0.059389908 0.072627336 0.09825648 -0.07499201 0.046464324
-0.023052534 0.08299614 -0.010721924 0.034854557 -0.092025004 0.06496381 0.02806874 -0.024265261
0.08537563 -0.07165753 0.015185537 0.054456163 0.02003361 0.108018436 0.0777387 0.010689886
0.042087827 -0.0734697 -0.066730104 -0.03727263 0.0656983 0.015208474 -0.04602969 -0.039714243
0.08235899 -0.012698199 0.061412282 0.021131704 0.061547823 -0.08271138 0.049663022 0.016227739
-0.08751083 -0.04932158 -0.083632804 -0.028285066 -0.047508933 -0.0679385 -0.0019588177 0.069940016
-0.08787375 -0.02226182 -0.02482839 0.06274815 0.10459632 -0.034239534 -0.0910513 0.060669504
0.08875931 -0.04407973 0.12079877 0.1216119 0.07619123 -0.068566 0.029974636 0.012119441
0.06357229 0.003073636 0.06429976 0.04509137 -0.0001220495 -0.09176501 0.121628106 0.04019807
0.11009726 0.046505146 0.028747754 0.064634815 0.0968766 -0.042839807 0.09973481 0.083937205
0.11012394 0.051313467 0.022339586 -0.073527336 -0.053583484 0.024476066 0.09886863 0.054203507
-0.020115415 -0.05253096 0.008471762 -0.046779655 0.048943426 -0.06804802 0.11781263 0.088560335
0.005831731 0.022248637 0.091597155 -0.045224495 -0.026813693 -0.055820316 0.084328294 -0.020704689
0.100633144 0.056214653 0.025415892 0.020303262 0.045634225 -0.06684055 0.10237909 -0.040695865
-0.059730433 0.038616654 0.054137446 0.05779666 -0.06742075 -0.01261166 0.019987268 0.061355453
-0.021614231 -0.078286044 -0.06960687 0.053971663 -0.058280595 -0.06592785 -0.05071508 -0.061739426
0.07667521 0.009275202 0.06443661 0.052761707 -0.020041477 0.080645375 0.052596357 0.098617375
0.06982282 0.05944141 0.06216175 0.00690094 -0.05880273 0.019359374 0.02350131 0.09601713
0.054043043 0.08391706 -0.08201774 0.06238362 -0.032461014 -0.11403506 -0.061424926 -0.074510954
0.0027822517 -0.026494453 0.0054808306 -0.06043753 0.04384343 -0.021018624 0.07005264 0.042579316
-0.06385819 -0.105751365 -0.0120615 0.097061284 -0.021982495 0.092595 -0.03841902 -0.07878891
0.09134471 0.014413917 0.06155653 -0.024599489 -0.026399942 0.07016918 -0.03165434 0.090707384
-0.060803104 0.019533034 -0.07928838 -0.030168846 -0.055576254 -0.09142783 -0.04467984 0.077078864
0.036730126 -0.07133139 -0.070532106 0.100318864 -0.072022006 0.03567656 0.07866498 0.07184296
0.047695167 -0.07109984 -0.06125015 0.035158284 -0.03431999 -0.0885302 0.09021452 0.046253562
0.038969558 -0.08338011 -0.009051901 0.03144977 -0.06478225 -0.050491434 -0.087657325 0.046539117

bias_hh_l0 f4 [384]
00000000: 0b9d 5ebc 183c 8a3b 7c01 6f3b 1494 d43c
00000010: c1c0 483d 89ed 143d b54e 46bb 0268 d23d
00000020: f5ce 7b3d 6dae 4e3d 8ff5 f93d 98f5 1f3c
00000030: f4be 57bd 1de8 413d 58d2 30bd e705 37ba
00000040: c684 86bd c3cc 72bc 8498 fa3c f32e 16bd
00000050: 80e1 83bd c240 d23c ee5c 583b 86c9 e7bc
00000060: a7e4 9a3d f9fa 60bc 6c0c c83d 7f01 9cbd
00000070: 0633 683d 56c9 9e3d 81f8 03bd 6aa7 7fbd
00000080: e693 df3d b26b 3a3d 8365 b33d 09ff 403d
00000090: 5f2f 9d3d 19b8 a83d 641f 943d e83f e4bc
000000a0: bd24 393d 857b adbd a7a6 b6bc 749a 8bbd
000000b0: 7199 85bd f7c1 d4bd 5abf 463d 6853 1fbd
000000c0: fed9 7b3d ffcc 1fbd 9bbd cc3d 21f3 66bd
000000d0: 507b c8bd bcb5 b93d b55d afbc 0d63 09bd
000000e0: 9f22 0fbd ffee 2e3d d97f b4bc a8cb 91bd
000000f0: 6424 d13c 102f 7b3c 8fad 0d3d 8047 78bd
00000100: a733 953c fd44 c13d fc64 a4bd 99c7 b5bc
00000110: 57c2 bcbd 4d56 e13b 80a2 39bd 6a6a 11bd
00000120: 8606 e4bc b8fb a13d e1a7 a1bc e0e9 3a3d
00000130: 4f93 83bd 491f 983d c6e8 be3c 14fa 85bd
00000140: b978 a7bc 6075 ac3b 2f40 2abd 3b8b aa3d
00000150: 403e 803d f6c6 cebd a5cd 5cbc 978f 9c3d
00000160: 6bf7 c63d a097 9b3d 80d5 46bd 9dbb 883c
00000170: 2542 11bc 980f 90bd 0b9f c43d 7dc1 4bbd
00000180: 4353 983c 7051 cf3c 7f29 abbc 39c0 b7bd
00000190: 61bf 15bd 3800 96bc 2bc1 bd3d 777d f13d
000001a0: fca0 a5bc b2e0 a93d c34b f4bc c09e d03d
000001b0: ab92 8bbd 87d0 a13d bf6f 593d 8637 81bd
000001c0: d691 9a3d 90d1 95bd 7c92 503d 5269 f43d
000001d0: 1607 e83d 241e b0bd 324d 923d 02b7 c73d
000001e0: cf05 99bc 099d 28bd cc38 1c3c 8345 88bd
000001f0: 9879 fbbc 8c00 c13d a885 debc ecbb cd3d
00000200: 5c76 3b3d 9256 1fbd d887 ad3d 6aa9 9f3d
00000210: 9a4d 25bd 7b50 ca3d 92b5 983d 741c dd3d
00000220: 6e57 973d 92eb e4bc e196 163a e55b 07bd
00000230: 8ff9 bbbc 47ea 22bd 9817 9bbd 95ae 01bc
00000240: f0ce 103d dea1 a2bc 725d 023d 15cc b0bb
00000250: 538e 3abd 3f3c bebd 4379 a03d 7e00 933d
00000260: ccd6 9dbd 8bf7 b3bd 1bd8 ba3d e94d 95bd
00000270: 8644 10bd 5068 bf3d 25a9 843d 3552 9c3d
00000280: 23dc 1f3c 85a3 8ebd 5538 a63d de55 203d
00000290: ca61 1b3d bcc6 a3bd 1a48 64bc 8b27 bb3d
000002a0: 2391 86bd 41a8 aabd 694a 09bd d000 9f3c
000002b0: e310 cc3d f0a2 1ebd 76fb 9c3d 547b c93d
000002c0: acaf 4f3d 17bf f03d 9d48 673d 2d81 8fbd
000002d0: 026d 8cbd e314 97bb f3da f739 54ea 0b3d
000002e0: 6f74 91bb e230 82bd 7897 c3bd c261 bf3c
000002f0: a267 e63d fa30 52bd 976b 9e3d dd81 743d
00000300: 7bb4 443d c165 953d 2d6e 29bd ca22 e13c
00000310: 8ca9 df3b 9673 81bd 58c7 74bd 9ef1 1bbc
00000320: fcef c43d 0fc8 383d 1f8d 8cbc 3b46 09bd
00000330: 6c75 cfbb 3131 8abd d659 5fbd 6d70 dabb
00000340: f687 c1bc 2a2d 34bd 3c76 9d3c 7e9b f5bc
00000350: 4e76 8bbd 3660 e03d eba0 cabd 8758 eebc
00000360: bfdd 97bd 26f3 773d a93f cb3d cabb d13d
00000370: 33ab 9ebd 392a cabd 5f2f 803d 5154 14bd
00000380: d3f6 91bd b3e6 f53d 0ccb 803b 545c b93d
00000390: 681f cbbd 48fa 733b 51e3 82bd 794c 6bbd
000003a0: 32e9 6ebb 332b 673d ba27 643d 5b61 3fbd
000003b0: e0de 0abd 7905 d83b 72e2 c8bd 68a4 a2bd
000003c0: bcdb 163d 3faf 2fbd 5093 fa3c fb9d e4bd
000003d0: 81f3 2e3d 9bf7 fc3c 0910 803d 6cf4 c7bc
000003e0: b528 833b c21f 43bc 13e6 a13d ab44 9abd
000003f0: fad3 17bc 7a31 a63d e279 0dbc 9eee 3b3d
-0.013587247 0.0042185895 0.003646939 0.025949515 0.04901195 0.036359344 -0.0030259315 0.10273744
0.061476666 0.050459314 0.1220504 0.009763144 -0.05267234 0.0473405 -0.04316935 -0.00069817755
-0.06568293 -0.014819327 0.030590303 -0.036665868 -0.06439495 0.025665645 0.0033014375 -0.028294336
0.07563143 -0.013731712 0.09767994 -0.07617473 0.056689285 0.077532455 -0.032219414 -0.062415518
0.10916881 0.045512863 0.08759596 0.04711822 0.07675051 0.08238239 0.0723255 -0.027862504
0.045201052 -0.08470825 -0.022296263 -0.06816569 -0.06523407 -0.10388558 0.04852233 -0.0388979
0.06148719 -0.03901386 0.09997102 -0.05638421 -0.09789145 0.09067866 -0.021406988 -0.033541728
-0.034945127 0.042708393 -0.022033619 -0.071189225 0.025530048 0.015331045 0.034589346 -0.060615063
0.018213106 0.094369866 -0.08027074 -0.022189902 -0.09216755 0.006876743 -0.045320988 -0.035501875
-0.027835142 0.0790934 -0.019733371 0.045633197 -0.06424581 0.07427842 0.023304354 -0.06541839
-0.020443307 0.0052630156 -0.041565116 0.08327337 0.06261873 -0.100965425 -0.013476764 0.07644575
0.0971516 0.075972795 -0.048543453 0.016691023 -0.008865868 -0.07034224 0.096006475 -0.04974507
0.01859439 0.025307387 -0.02089381 -0.089722104 -0.036559466 -0.018310651 0.092653595 0.11791509
-0.020218365 0.0829481 -0.029821282 0.10186529 -0.06815084 0.079011016 0.053085085 -0.063094184
0.07547347 -0.073153615 0.05092095 0.11934151 0.113294765 -0.08599499 0.0714363 0.09751703
-0.018679528 -0.041165385 0.009535026 -0.06653883 -0.030697629 0.094239324 -0.027163342 0.10045609
0.045767173 -0.03890092 0.08473176 0.07795985 -0.04035721 0.09878632 0.07456507 0.10796443
0.07389723 -0.02794436 0.00057445286 -0.03304662 -0.022946147 -0.039774206 -0.075728595 -0.007915159
0.0353536 -0.019852575 0.031827398 -0.005395422 -0.045545887 -0.09288835 0.07835629 0.07177828
-0.07706985 -0.087874494 0.0912325 -0.07290251 -0.0352216 0.09346068 0.06477574 0.07632867
0.0097570745 -0.069647826 0.08116213 0.03914439 0.037935056 -0.0799689 -0.013933206 0.091384016
-0.065706514 -0.08332873 -0.03351823 0.019409567 0.099641584 -0.038729608 0.0766515 0.09837976
0.050704643 0.117551975 0.056465734 -0.0700706 -0.06856729 -0.004610644 0.0004727464 0.03415902
-0.004438929 -0.0635698 -0.09550375 0.023362044 0.11250235 -0.05131624 0.07735365 0.05969416
0.048023682 0.07294799 -0.041364837 0.027482409 0.0068256315 -0.063208744 -0.05976042 -0.009518055
0.09616086 0.045112666 -0.017157136 -0.033514243 -0.0063311365 -0.06747664 -0.054529034 -0.006666234
-0.023624402 -0.043988384 0.019221418 -0.029981371 -0.06809674 0.10955851 -0.09893974 -0.029094948
-0.074153416 0.06053462 0.099242516 0.10240896 -0.077474974 -0.098713346 0.06259035 -0.036213223
-0.07127156 0.12006893 0.003930455 0.09050813 -0.099181 0.0037228037 -0.063910134 -0.057445977
-0.0036454913 0.056437682 0.05570195 -0.046723705 -0.033903956 0.0065924493 -0.09808816 -0.07941514
0.03683065 -0.042891737 0.030587822 -0.11162945 0.042712692 0.030879786 0.062530585 -0.024408542
0.0040026554 -0.011909427 0.07905211 -0.075326286 -0.009266848 0.08114906 -0.008635016 0.04588186

weight f4 [96, 96]
00000000: a0ef 403d 9f6d b23b 9419 cb3c fa7e 343d
00000010: f3b7 d23c 62e7 84bc 8648 31bd 66b7 823d
00000020: c1bd 563d 928a 86bc 41bb d33c 0a7d dcbd
00000030: 7c6e 033d f276 3ebd 9f6e 44bd e145 10bd
00000040: 8769 0e3c ce23 593d 1907 ddbd 13b0 263d
00000050: 3f68 ca3d 0e1a 80bd 6cdd db3d 2fd1 963d
00000060: 4ff0 ff3c 4b0b 103d a2bf 1f3b 20e7 bc3c
00000070: 3245 a43d 28a1 bd3d 182a d7bd 03b7 cfbb
00000080: d90c 7f3b 1888 a9bd 8c70 a13d 903e 683b
00000090: af4b 48bc 1523 13bd 0e84 a93d f518 cbbb
000000a0: 53b6 cebc 06bf 903d 2d25 56bc df19 4dbd
000000b0: d3b0 f33c b178 1cbc edc4 3dbd 7fb3 583d
000000c0: c7d4 343b 728f 9ebd afcf a53d e933 87bc
000000d0: 9bb6 223c eb73 be3c 3d99 b23d 6f80 a53d
000000e0: a62a ebbd c9ba 9b3d 0f36 debd 13ca 4cbb
000000f0: 9889 883d 6d7e e33d 6181 303d 9296 1a3c
00000100: 3638 663d 8462 223d a520 85bd 4067 003d
00000110: 23ef 863d a1cf c2bd baa6 76bd 351d 813c
00000120: ca72 42bd 9c74 6a3d 7d56 27bc 3866 25bd
00000130: 2862 353d 9ce5 aa3b 82a6 a43d 6f71 a63d
00000140: 748c 913d 711d a73d a119 0a3d e0b8 8f3d
00000150: 1963 633c e631 58bd 4a93 0e3c 7558 b2bd
00000160: 8a1a 9f3d d392 aebc 519b b2bc 6fbb c33d
00000170: 19f0 9dbd c24c a93d 25ee 8abd a8c9 a33d
00000180: 4594 6c3d 2397 9dbc 2b70 b03c 5fbe 923c
00000190: b27a 643d 6dde 03bd efbc af3c bb85 a8bd
000001a0: 2210 93bc 9024 003c 23c2 b2bc 5afa be3d
000001b0: b6ff 65bc 53d0 47bb 7b7a 143d 0ec8 92bc
000001c0: 63ee 4d3d 81a7 013e 59c4 693a 711e 343d
000001d0: 6a44 9c3d c3e7 5a3d 29c6 473c 0cbb 8ebd
000001e0: 6c5c 563d 836f 763c 9ab7 523c 78f1 9fbd
000001f0: e7e7 25bd 5b17 933d 411c 02bd 79e0 3a3d
00000200: 3b62 c43c d9a7 50bc b4cc cebd 33f1 863d
00000210: e6f4 5e3d b3ef d93c be9a e43c 695f 0dbd
00000220: 2651 cf3c c983 76bd 0579 8e3d d160 dbbd
00000230: 89c8 3bbc df1a 78bc da28 2dbd 21fd 993c
00000240: 7b40 afbd baa2 03bd af28 e23c 43e1 23bd
00000250: 6bab d7bd ce67 3dba f7a3 19bd dffe 8f3d
00000260: 61fa ff3c 00f8 7d3d 22ba 813d f088 ffbc
00000270: 4749 8d3c 8f50 f53d 1d9c ef3d 28ea bbbd
00000280: 10d4 e63d fc0d babb 2704 213a c103 3cbd
00000290: 7f59 123c 0bf7 2cbd 8043 91bd 65ca 943c
000002a0: 165e 883d 4b3d a4bd 7152 dabd 7263 7cbd
000002b0: ebd5 683c 27e6 c3bd 205f c2bd a792 5a3c
000002c0: fea8 23bb 1d06 b03c c023 773d c185 ad3b
000002d0: cec3 e43d bdfd b6bd 0f0b d33c 7c4f 8a3d
000002e0: 6098 29bc aa08 19bd 1d70 61bc e87d 12bc
000002f0: 560a 8bbd 018a c73d 68e6 7d3d 1a48 fcbc
00000300: 06dd 53ba 8d39 df3d 731a 67bd 5cc1 bcbc
00000310: 32b5 c9bd b346 bd3c 97ee a43d 541b e43c
00000320: 927e 07bd 53a3 b7bd f1f8 c1bc e69d cabd
00000330: b477 803d c249 4fbc 18ed 8bbd 7f9d b3bb
00000340: dad9 f9bc 0cbd 8e3d f96a d43b d25d ce3c
00000350: 2701 c03c 4d24 e13c bc83 79bd 29cb e7bc
00000360: 006c 963c c381 b03c 82a3 6e3d f56c 9e3d
00000370: 6b70 32bd 930e 223d 800f 863d 7ab0 ecbd
00000380: 5b2c f23d 7a25 753d 4c5e c7bb 7ca4 8abc
00000390: c79b 013d ac2c 85bd 0f23 783d 377b ea3d
000003a0: d5ca 5bbc 7830 623c de8c c2bd 4f28 ccbc
000003b0: 76cb 18bd fe51 f03d 82f6 033d 49c1 35bd
000003c0: 40ae 9d3d f4ec debc 3691 1fbd 4b3c a0bd
000003d0: 4e56 db3c e7be ba3b f0e4 7e3d 5b2e 5abd
000003e0: 7cf3 81bd 3fe0 533d 771d 823d 1f4e 3dbd
000003f0: d850 763d 0eca d43d 2374 0cbd b0cc 6e3d
0.047103524 0.0054451968 0.02479247 0.044066407 0.02572248 -0.016223613 -0.043282054 0.06382637
0.052427057 -0.016423497 0.025846126 -0.10766037 0.032087788 -0.046500154 -0.04795706 -0.03522289
0.008692152 0.05301266 -0.107923694 0.04069526 0.098831646 -0.062549695 0.10735592 0.07364117
0.031242518 0.03516702 0.0024375697 0.023059428 0.080210105 0.09259254 -0.105060756 -0.0063389554
0.003891757 -0.08277911 0.07882795 0.003543768 -0.012225076 -0.03592213 0.082771406 -0.0061980435
-0.025233423 0.07067685 -0.013070387 -0.0500735 0.029747402 -0.009550259 -0.04633038 0.052905556
0.0027592645 -0.07742204 0.08096253 -0.016504245 0.009931232 0.023248633 0.08720634 0.080811374
-0.11482744 0.07603986 -0.108501546 -0.0031248375 0.06666869 0.11108098 0.043092135 0.009435313
0.05620595 0.039644733 -0.06500367 0.031348467 0.065885805 -0.09512258 -0.060217597 0.015760997
-0.047472753 0.057240114 -0.0102134915 -0.040380687 0.044283062 0.00521536 0.08039571 0.081271045
0.071068674 0.081599124 0.033715848 0.07017684 0.013878607 -0.05278196 0.008702109 -0.08708278
0.07768734 -0.021310246 -0.021802576 0.095572345 -0.077118106 0.082665935 -0.06783704 0.07997447
0.05775859 -0.019237107 0.02153786 0.017913042 0.055781074 -0.032194544 0.021452395 -0.08228632
-0.017952029 0.007821217 -0.021821087 0.093250945 -0.014038017 -0.003048916 0.03624962 -0.01791766
0.05027617 0.12661554 0.0008917503 0.043974344 0.076302364 0.05344368 0.012193241 -0.0696927
0.052334234 0.015041235 0.012861157 -0.078097284 -0.040504362 0.07182189 -0.031765226 0.04562423
0.023972621 -0.0127353305 -0.10097638 0.06588974 0.054432772 0.026603555 0.027905818 -0.03451482
0.02530725 -0.060184274 0.069566764 -0.10711826 -0.0114613855 -0.015143125 -0.042275287 0.01879746
-0.085572205 -0.03213761 0.02760729 -0.04000975 -0.10530742 -0.0007225246 -0.037509885 0.07031035
0.03124732 0.06200409 0.0633433 -0.031193227 0.017246855 0.11978256 0.11699698 -0.09175521
0.112709165 -0.0056779366 0.00061422813 -0.045902018 0.00893247 -0.042227786 -0.07092953 0.018162915
0.066585705 -0.08019503 -0.10660256 -0.061618276 0.014211158 -0.095653825 -0.094908 0.013340629
-0.0024972553 0.02148729 0.06033683 0.0052954857 0.11170159 -0.089351155 0.02576211 0.06753442
-0.01035127 -0.03736178 -0.01375964 -0.008941151 -0.06789081 0.09743119 0.06198731 -0.0307961
-0.0008081946 0.10899649 -0.05642171 -0.02304142 -0.098490134 0.023105001 0.0805332 0.027845062
-0.03307969 -0.089666985 -0.023678275 -0.09893398 0.062728316 -0.012651863 -0.068323314 -0.0054814215
-0.030499388 0.069696516 0.0064824787 0.025191221 0.02343805 0.02748313 -0.060916647 -0.028295116
0.018362045 0.02154625 0.058261402 0.07735626 -0.04356424 0.03956468 0.06545925 -0.11557098
0.118248664 0.059850194 -0.006084239 -0.016924135 0.0316427 -0.06502661 0.06058031 0.114492826
-0.013415058 0.013805501 -0.094995245 -0.024921564 -0.03730341 0.11734389 0.03221751 -0.044373784
0.07699251 -0.027212597 -0.038956843 -0.07824 0.026774552 0.005699027 0.06223005 -0.053266864
-0.06345269 0.05172753 0.06353276 -0.04621708 0.060135692 0.103901014 -0.034290444 0.058300674

bias f4 [96]
00000000: 3dd9 e3b8 98bb 4dbc 5aa3 3c3a 5c12 26b9
00000010: c0c2 17ba b674 3838 82bd 58b8 8c66 e5ba
00000020: 0188 03bc 54ff 2939 d89f 483c f92f cab8
00000030: 3f1b fa36 b6a9 1a3b c7b2 20ba 087b 9bb8
00000040: caba 2eb9 15de efbb 857b 07bb bbd2 1d3c
00000050: a78e 5b3b 08ab 3539 3066 d0b7 6f88 c63b
00000060: 88e3 9337 732f 52b9 2918 18b8 231e 2e3c
00000070: e5ef 9bb6 352d dcbb 0864 983a d649 153c
00000080: e18b 193b ad60 43b9 5cdd 07b9 77a2 c838
00000090: 2d4e 75b8 04e5 00b9 c42a 57bb 4c70 29bb
000000a0: 7163 e73b 0bd9 30ba 7ed9 d0bb 1e75 fcb8
000000b0: 305b e6b7 642e 9ab8 eb20 4db9 dfdc 5138
000000c0: a75c 2639 5b8c 2cb8 e65d 9db9 135d 5938
000000d0: 4094 a0b7 d8f1 b1b9 4407 3c3c c0e0 633b
000000e0: 8e5d bc37 d6ab 7e39 68c7 2e37 012f dab9
000000f0: d5d7 df36 13c8 9e39 100a cbbb b997 0b3b
00000100: 0d55 5137 ed02 c738 0595 8eb9 49a0 ad38
00000110: 5baa b83b 2b07 373a 0976 41b8 ad3a deb8
00000120: 7b2e 9eb8 963e 0a3b 40f3 6736 f0aa 2bb9
00000130: 4b6f 03b9 a674 aa38 0268 09b9 286e f838
00000140: c49c 1038 f341 e935 ab52 61b8 c428 2ab9
00000150: c3c4 2e39 e405 a43a c729 8bb8 b5d5 06bc
00000160: 752d 833b 7bbd 2eb9 4846 83b7 42f7 35b9
00000170: d86d 0939 20d5 f038 c200 87bb e40e 283b
-0.00010864667 -0.012556933 0.0007195972 -0.00015837833 -0.0005789213 4.3977714e-05 -5.1674906e-05 -0.0017501875
-0.008028031 0.00016212213 0.012245141 -9.641046e-05 7.4537525e-06 0.002359969 -0.00061301555 -7.413892e-05
-0.00016663517 -0.0073201754 -0.0020672989 0.009632762 0.0033501775 0.00017325219 -2.4843117e-05 0.0060587446
1.7629718e-05 -0.00020044837 -3.6262125e-05 0.010627302 -4.6472874e-06 -0.0067192563 0.0011626491 0.009111842
0.0023429322 -0.00018632664 -0.00012957066 9.5670046e-05 -5.848536e-05 -0.00012292346 -0.0032831887 -0.0025854288
0.007061415 -0.0006746209 -0.0063735833 -0.00012038111 -2.7460599e-05 -7.351933e-05 -0.00019562586 5.0035185e-05
0.0001586551 -4.1138712e-05 -0.00030015333 5.1823514e-05 -1.914252e-05 -0.00033940258 0.011476342 0.0034771413
2.2454911e-05 0.00024287342 1.0417636e-05 -0.0004161522 6.671044e-06 0.00030285175 -0.006196268 0.002130015
1.2477173e-05 9.4896044e-05 -0.0002719538 8.279138e-05 0.0056355423 0.0006981964 -4.6124715e-05 -0.00010596714
-7.542685e-05 0.0021094433 3.4563272e-06 -0.0001637151 -0.00012534593 8.127959e-05 -0.00013104084 0.0001184608
3.4478275e-05 1.7379047e-06 -5.372117e-05 -0.0001622765 0.00016667233 0.0012513963 -6.635818e-05 -0.008229663
0.0040032216 -0.0001666452 -1.5649144e-05 -0.00017353616 0.00013106258 0.000114837894 -0.0041199634 0.002564364

weight f4 [96, 96]
00000000: 056e 1fbc 2b85 bebb e6bf 49bc 2cb8 f839
00000010: fa01 f73b bb2c 5639 282c 5839 9085 07b9
00000020: 7457 4b3c 8ea6 d737 0b20 923b fe03 d838
00000030: 8ca2 f4b9 5dd7 a13b a51e ba39 0c54 4839
00000040: ed74 6239 f26f 01bc d3fe 9139 b9a1 35bc
00000050: fadd 2939 84c7 87ba 6563 ed38 97ca 043c
00000060: 4a73 7739 beea f63b f18f eab9 044a 8338
00000070: cdbc 8dba b004 ba3b 2970 f139 6f3b 8eba
00000080: 4254 23b9 bf0a 7439 1709 1dbc 06ab 2e39
00000090: a57d 87ba b570 9439 a4e0 5e39 ecc3 ba39
000000a0: e7dc 6939 cde0 49bc a1d9 03bc 6f03 7fbb
000000b0: 2bfb 1b39 5141 f0b8 7435 f539 19c8 0cbb
000000c0: e717 8a39 31ce d5ba d7ed 00bc 6979 8eba
000000d0: 1aa5 37bc 04bf 0cbc b725 3b38 ce97 7e39
000000e0: 601b cab8 e59c d03a 5a75 2fbc 031f a13a
000000f0: 77c1 d139 d22c 0039 9141 c238 8497 79ba
00000100: 55bf 7a39 7a91 133b 508b 5e39 b515 abb8
00000110: 8569 4e3c c995 8839 7bd3 8aba d1c2 433b
00000120: e21c 7639 6131 8eba 5f9d b4b9 d2bf aa38
00000130: a779 4f3c 52f6 0c3c 610a 353b 7e21 48b8
00000140: cdb5 6939 68ef 53ba 66a2 5bbb f313 cdba
00000150: ca3f e138 5b96 bdb9 a875 8eba 8758 ca38
00000160: 7cae b5b9 d3b5 8dba 62bf a638 c56d 5e3a
00000170: 143a 89ba 37eb 3d39 1a29 7e39 a0fa 5eba
00000180: 0127 0239 5ab2 e239 96a4 29bc 3a7c 94b8
00000190: 7914 64b8 e41a b83b b09d 0cbc 5e1d a037
000001a0: 2c8f 163a 4699 2ebc 073a 2d3a 789b cd38
000001b0: 8b1f 113b cdc1 db39 9bd7 2f39 a0c8 cf38
000001c0: 9087 7fb9 a7a4 1fbc 80cf a7bb d3a4 b539
000001d0: 5c5b ee3b 7390 a939 1f9c 8bbb 717d 963b
000001e0: 4dc1 42b8 3e6f 7037 22a7 4139 e29b b339
000001f0: af9c 9439 645f 87b9 8f72 9d37 43e9 83b8
00000200: 2d28 6538 1f95 b139 0db8 5ab8 e4e8 e139
00000210: d26f 163a 1e09 6138 b0ee a0b8 5358 90ba
00000220: d5e9 8eb8 a98a 36ba d672 3e39 0fdf 6138
00000230: 1988 c4b7 1fc8 bb39 8069 ba39 af2f 553c
00000240: f455 0b3a 084a b13b 0e0a 1e3c 1cc1 a339
00000250: 7d5a da3b 3ab5 8f39 298a 02bc 3f49 9e38
00000260: 0197 b939 4e3a 5d39 001b 003a 3ee5 4939
00000270: 482b dbb8 619a 08bc 2d37 95ba af8c 0139
00000280: 0035 a838 ce53 a7b8 22e9 113b 2a2a c938
00000290: 7b3e dcb8 e75d 0a3b 3e20 173b 4f07 64bb
000002a0: df9f b7b7 b63a 29bb bb13 c439 3e28 bbbb
000002b0: 1280 91b8 b45c a2b8 cf79 b539 6313 8b39
000002c0: 30ae 803b 9120 21bb 1e87 edbb 3f91 25b8
000002d0: 5711 2eb8 ba88 af39 deef f63b 82cc f738
000002e0: d753 8139 bdcc 19bc edaf 2d3c c5d2 a6b8
000002f0: ef8f d73a 7328 b8bb 9744 3db8 77f1 c1b8
00000300: 792a a638 0084 423a 0c90 5f38 3795 bb3a
00000310: 97e7 8139 0876 7639 97ea 10b9 d9e0 96bb
00000320: 592d 9539 ec04 0139 7c34 dbb8 e8a8 8139
00000330: 8ab1 3a39 8c57 013a 6140 f838 950a 8138
00000340: ad08 3739 0d6e 2cb8 a631 603a 4957 09bb
00000350: b6af 1b3b 4443 223a a380 2239 ff9c 8139
00000360: 7044 bcb8 1843 473a 7471 15b9 c4f5 ca39
00000370: c430 abba f738 1f39 e53f 183a 49b2 483a
00000380: 8c5a 563a d066 00bb 1fdd 2f3a fc38 6a3b
00000390: 662a 253c 6321 4a3a 4340 503c 30f8 fa39
000003a0: e45f c138 2068 4039 3836 c2b8 aef3 cc39
000003b0: 2b6f a0ba 0f20 e839 0566 1b3a 197e 5138
000003c0: 47b4 603a fae1 613a 3ac3 9239 1019 50bb
000003d0: a2c5 a039 adf1 4bba 1c53 c738 d0de 14bc
000003e0: 42bc 2a3c 6557 2439 c62f f23b 064f f839
000003f0: f65c bfbb c59c 8138 6bc9 6d38 0e62 3b38
-0.009730821 -0.0058142147 -0.012313819 0.00047439465 0.0075380774 0.00020425294 0.00020615815 -0.00012924359
0.012410987 2.5707555e-05 0.004459386 0.00010300426 -0.00046660413 0.0049390034 0.00035499517 0.00019104796
0.00021596598 -0.007900225 0.00027846414 -0.011085921 0.00016199789 -0.0010359143 0.00011319554 0.008104942
0.00023598704 0.0075353077 -0.00044739203 6.260353e-05 -0.0010813713 0.0056768283 0.00046050668 -0.0010851453
-0.0001557628 0.00023273657 -0.009584687 0.00016657644 -0.0010337128 0.00028312733 0.00021255255 0.00035622658
0.00022302904 -0.012321663 -0.008047492 -0.0038911959 0.00014875519 -0.00011456258 0.00046769867 -0.0021481572
0.0002633922 -0.001631206 -0.007869205 -0.0010869923 -0.011208797 -0.008590464 4.46194e-05 0.0002427988
-9.6372096e-05 0.0015915899 -0.010709131 0.0012292567 0.0004000773 0.00012223728 9.2628536e-05 -0.0009521174
0.00023913135 0.002251713 0.00021223468 -8.157959e-05 0.0125984 0.0002605154 -0.001059159 0.0029870758
0.00023471148 -0.0010848456 -0.00034449526 8.141961e-05 0.0126632815 0.008603649 0.0027624595 -4.7714908e-05
0.00022288338 -0.00080846855 -0.0033513545 -0.0015646204 0.00010740718 -0.00036160913 -0.0010868805 9.6486e-05
-0.0003465301 -0.0010811634 7.951145e-05 0.0008484985 -0.0010469579 0.00018112069 0.00024238639 -0.0008505974
0.00012412296 0.0004323896 -0.010354182 -7.080329e-05 -5.4378503e-05 0.00561844 -0.0085825175 1.9087161e-05
0.000574338 -0.01065666 0.0006608073 9.80412e-05 0.0022144045 0.00041915328 0.0001676962 9.9078985e-05
-0.00024369196 -0.009743846 -0.0051211715 0.00034645814 0.0072740745 0.00032341815 -0.0042605544 0.0045925905
-4.643323e-05 1.4331015e-05 0.00018468176 0.00034257682 0.00028345498 -0.00025820278 1.8769204e-05 -6.290015e-05
5.463527e-05 0.00033871175 -5.214666e-05 0.0004308886 0.00057387084 5.365267e-05 -7.6738535e-05 -0.0011012651
-6.814642e-05 -0.0006963411 0.00018162592 5.385192e-05 -2.3428396e-05 0.0003581652 0.00035555288 0.013011857
0.0005315237 0.0054104365 0.009645952 0.0003123366 0.006663619 0.0002741011 -0.00796751 7.54767e-05
0.00035398456 0.00021097923 0.0004886836 0.00019254253 -0.000104507955 -0.008337588 -0.0011384242 0.00012354807
8.020736e-05 -7.9787904e-05 0.0022264202 9.5922805e-05 -0.000105020554 0.00211131 0.002305999 -0.0034794395
-2.1889746e-05 -0.0025822348 0.00037398734 -0.0057115844 -6.937994e-05 -7.742029e-05 0.00034613765 0.0002652659
0.003927015 -0.0024586061 -0.0072487732 -3.9474337e-05 -4.150098e-05 0.0003348047 0.0075359186 0.0001181597
0.00024667263 -0.009387192 0.010601026 -7.954756e-05 0.0016446094 -0.0056200563 -4.512499e-05 -9.2479335e-05
7.923408e-05 0.0007420182 5.3301497e-05 0.0014311437 0.00024777345 0.00023504358 -0.00013820302 -0.0046044406
0.0002845328 0.00012304232 -0.0001045251 0.00024730642 0.00017804481 0.0004934005 0.00011837553 6.1531704e-05
0.00017455472 -4.111049e-05 0.000855232 -0.0020956567 0.0023755855 0.0006189833 0.00015497445 0.0002472177
-8.977286e-05 0.00076012453 -0.00014252012 0.00038711552 -0.0013060798 0.00015184643 0.0005807861 0.0007655961
0.00081769447 -0.001959253 0.000670867 0.0035739532 0.010080909 0.00077106635 0.012710634 0.0004786863
9.220818e-05 0.00018349336 -9.26074e-05 0.00039091468 -0.0012240162 0.00044274374 0.0005927983 4.994692e-05
0.00085717853 0.0008616742 0.00027992745 -0.003175322 0.00030664826 -0.0007779848 9.50454e-05 -0.009086326
0.010420861 0.00015672816 0.007390949 0.00047361123 -0.005839939 6.1804e-05 5.669279e-05 4.4675595e-05

weight_ih_l0 f4 [384, 96]
00000000: 81e9 413d a43f dfbc 5a0b 603b e913 943c
00000010: 9845 acbc 1507 aab9 bbd7 2c3d 3f5b 93bc
00000020: d928 b8bc 4e89 72b9 e5e5 75bc f5dd 093d
00000030: 3fd4 453d 1e57 2cbd df6b 47bc d1bf 633c
00000040: e1ab 3d3a 7a4b bbbb 32b9 36bc 6e7e 05bd
00000050: 3b75 eebc 528f ec39 eb0f 31bd 193b 55bc
00000060: 4ee0 123d 4f47 df3c 048c 22bd 2db1 88bc
00000070: 5ac8 9dbb 86be 00bc ad76 9b3a fe16 57bd
00000080: 7f2e 343d 8be0 33bd 2ce4 613b 1678 e4ba
00000090: e212 a23b 4c48 d3ba f1a1 033d 6940 1c3b
000000a0: a8c0 7cbc 3481 a6bb 5658 4d3d 641b 053c
000000b0: f5bc 3f3b 5a3a 103d 7125 1ebd 1196 473d
000000c0: df28 8b3c 7778 0bbc 550a 1e3d aee2 9fba
000000d0: 7d4a 263b 8aa7 8bbc aa19 29bc e3e9 1d3d
000000e0: ea56 68bc f485 2f3d 8716 18bd f5e6 123b
000000f0: d77f 49bc 0bef 4d3b d0f8 03bc df41 b03c
00000100: d2bb ffbc 93eb e7bc d7f8 b9bc 4f19 81bb
00000110: 397f 86bd 9acd aa3c 849c 6b3a 1490 9abc
00000120: 5f5e 1ebb 22ad b33b 6c65 cb3b e39a f5bc
00000130: 1770 013d de07 373d 0730 bdbb 1407 2bbd
00000140: a02e 5abc 77f6 533d 17b2 bbbc 26fa 9c3c
00000150: 0d9c ccbb 8e32 87bb cc81 3b3d 7c24 473b
00000160: 1253 5fbb 5eb0 3ebb 46cc 2a3d 0ac9 e63c
00000170: 6173 51bb cf56 523d 1214 bd3b cb35 4ebd
00000180: d2cf 173c ce8c 963c 414d 31bb 858e cd3b
00000190: d7da 253d 4b5d 75bc 35cd 103c 4bc9 df3c
000001a0: 3f7b 28bc 09d2 d13c 2a3f ca3a 1084 25bd
000001b0: 20ad 74bd b84d 2fbc 570b 703c c949 acbc
000001c0: eade 74bc fb01 2ebc 791a eb3c 8285 50bc
000001d0: 5856 f43c f753 7dbb e117 01bd f238 e7bc
000001e0: b4af 6fbc 07be ed3c d4f6 a73c a65a dbbc
000001f0: a52a 53bc e49f 1ebd 973c 2a3b f5f6 e0bb
00000200: 2bbd 52bd 2ff9 123d cbf9 843b 5212 21bd
00000210: 8a69 f1bb 641b 4e3c c3ec 23bd 1181 233d
00000220: 1709 96bc 197e dd3b d7bc 05bc 0240 6fbc
00000230: a89d 2ebc 9e82 21bc 30d7 38bd 712c 92bb
00000240: ee2a 35bb 4b3c 3b3d 4ee2 f73c dc78 46bc
00000250: 963f 9abc ed9d 05bd 4efd 5fbd 3d40 1a3d
00000260: 7c72 3abc 02d5 1bbc a805 193d b736 383c
00000270: be71 123c f2e5 833c ae74 9cbc 3d60 c53b
00000280: 14f3 283d 8cea 1cbc 53fb 33bc 9010 16bc
00000290: 6203 8cbd 72d0 ea3c ff8f b83c 1e93 c6bc
000002a0: 8ceb bfbb 2128 933c 5046 c839 73cf ecbc
000002b0: 5b34 003d 1025 27b8 d9cb d2bc 03cd 35ba
000002c0: d869 4cbd 6158 24bd cc70 df3c 9b89 79bb
000002d0: 3a59 67bc 38d8 4e3d 53ca edbb f1fd 0bbc
000002e0: 237f 82bb 75f7 89bb a5ea 363d 87f7 b0bb
000002f0: 363f 16bc 557f 103d 414e 33bd e2df cfbc
00000300: 6cc5 283c 8580 be3c 30da 213b 6526 13bd
00000310: 212f 103d 87c4 a33a 40d3 1ebd d239 c93c
00000320: 2496 e5ba d2fe e33a 2c92 f13c 8766 e73b
00000330: 98a2 b93b 6449 e6bb 3867 42bc 20fa 76ba
00000340: ba96 7c3b 1a93 a03b f3df e3bb f94f 3a3c
00000350: 93eb 8b3c 55b0 ddb9 1c4e d83b e88e 813b
00000360: d11a db38 3d88 13bc 5cce 6a3a 287b 123d
00000370: 6033 62b9 3a48 e43b 690e d83c ac07 22bd
00000380: 475c 40bc 4914 6abc b02b 143b 2106 47bc
00000390: 2cc8 1fbc b1ab 2ebc 1722 1dbb 31ff 123d
000003a0: 5536 e63a 35de 6c3b 6584 353a bc3e f0ba
000003b0: 5674 1abc bd35 65bc a701 99bb bafc bebb
000003c0: 4d2d 183d 7c25 bb3a 21b7 f1bc e4ee a5bb
000003d0: 2273 353d 8b14 05bc 98e2 90bc 0da4 403b
000003e0: 1dfe d9bb fd8d 04bd 7457 acba 2988 fb3b
000003f0: 663e 683b 6049 0a3c d690 e93c 53d5 08bc
0.047341827 -0.027252026 0.0034186454 0.0180759 -0.021029279 -0.00032430203 0.042197924 -0.017987845
-0.022480415 -0.00023130068 -0.015008424 0.03365894 0.048298117 -0.04207527 -0.012171715 0.013900713
0.000723539 -0.0057157846 -0.011152552 -0.032591276 -0.029108634 0.0004512021 -0.04322807 -0.013014578
0.035858445 0.027255682 -0.03968431 -0.016686046 -0.0048151435 -0.007857924 0.001186093 -0.05251216
0.043989655 -0.043915313 0.0034468276 -0.0017430808 0.0049460987 -0.0016119569 0.03213686 0.0023842102
-0.015426792 -0.00508132 0.05013307 0.008124206 0.0029256914 0.0352119 -0.038609926 0.0487271
0.016987262 -0.008512608 0.038584072 -0.0012198293 0.0025373988 -0.017047662 -0.01032106 0.03855313
-0.014180878 0.042852357 -0.03713086 0.0022415493 -0.012298546 0.0031422998 -0.008054927 0.021515785
-0.03121749 -0.028310573 -0.022701664 -0.0039397846 -0.065672345 0.020849992 0.0008987861 -0.01886753
-0.0024165136 0.0054832855 0.006207159 -0.029981082 0.031601038 0.044685237 -0.0057735476 -0.041754797
-0.01331678 0.05174872 -0.022912068 0.019162249 -0.0062441886 -0.0041258996 0.04577808 0.0030386737
-0.0034076613 -0.0029096822 0.041698717 0.028172035 -0.003195964 0.05135232 0.005770215 -0.05034427
0.009265857 0.018377688 -0.0027054104 0.006273093 0.040491905 -0.014975856 0.008837988 0.027317664
-0.01028329 0.025612848 0.0015430201 -0.040409148 -0.059735417 -0.010699682 0.014651141 -0.021031277
-0.014945725 -0.010620589 0.028699147 -0.012727143 0.029826328 -0.0038654783 -0.031516913 -0.028225396
-0.014629293 0.029021276 0.020503439 -0.026776623 -0.012888585 -0.038726702 0.0025976056 -0.006865377
-0.051449936 0.03588217 0.004058098 -0.039324112 -0.0073673176 0.012579773 -0.040020715 0.03991801
-0.018314881 0.006759417 -0.008162699 -0.014602663 -0.010657705 -0.009857802 -0.045127094 -0.0044608642
-0.0027643996 0.045711797 0.030259278 -0.012113776 -0.018829148 -0.032621313 -0.05468493 0.03765892
-0.011379834 -0.009511234 0.03735891 0.011243514 0.008938251 0.016100857 -0.019098606 0.0060234354
0.041247442 -0.009577405 -0.010985213 -0.009159222 -0.06836583 0.028663848 0.0225296 -0.024240073
-0.005856937 0.01796347 0.0003819936 -0.028907513 0.03129993 -3.985042e-05 -0.025731968 -0.0006935151
-0.049905628 -0.040123347 0.027275465 -0.0038076404 -0.014120394 0.05049917 -0.007256785 -0.008544431
-0.003982441 -0.0042104074 0.04465737 -0.0054006013 -0.009170344 0.035277683 -0.0437758 -0.02537531
0.010300975 0.023254642 0.00246967 -0.035925288 0.035201196 0.0012494483 -0.038775682 0.024563704
-0.0017516059 0.0017394668 0.029488645 0.0070617828 0.0056651346 -0.007027792 -0.01186543 -0.0009421427
0.0038541988 0.0049003484 -0.006954187 0.011371606 0.017080104 -0.00042283782 0.0066011082 0.0039538033
0.00010447729 -0.00900465 0.00089571415 0.035761982 -0.00021572178 0.006966618 0.026374059 -0.039558098
-0.011740751 -0.014287063 0.0022609048 -0.012147457 -0.009752315 -0.010661052 -0.0023976618 0.0358879
0.00175638 0.0036143188 0.00069243304 -0.0018329243 -0.009427151 -0.013989863 -0.0046693864 -0.005828467
0.037152577 0.0014278139 -0.029506268 -0.0050638784 0.044299252 -0.008122574 -0.017686173 0.0029394657
-0.006652607 -0.032361973 -0.0013148622 0.0076761437 0.0035437583 0.0084403455 0.028511446 -0.008351642
