Graph Neural Network/Models/SAGEConv-D4-F1-mean.pth (torch, 611624 bytes, 15 tensors)

weight f4 [192, 224]
0	0xba32a2f5	-0.00068144436
1	0xba32a2f5	-0.00068144436
2	0xba32a2f5	-0.00068144436
3	0xba32a2f5	-0.00068144436
4	0xba32a2f5	-0.00068144436
5	0xba32a2f5	-0.00068144436
6	0xba32a2f5	-0.00068144436
7	0xba32a2f5	-0.00068144436
8	0xba32a2f5	-0.00068144436
9	0xba32a2f5	-0.00068144436
10	0xba32a2f5	-0.00068144436
11	0xba32a2f5	-0.00068144436
12	0xba32a2f5	-0.00068144436
13	0xba32a2f5	-0.00068144436
14	0xba32a2f5	-0.00068144436
15	0xba32a2f5	-0.00068144436
16	0xba32a2f5	-0.00068144436
17	0xba32a2f5	-0.00068144436
18	0xba32a2f5	-0.00068144436
19	0xba32a2f5	-0.00068144436
20	0xba32a2f5	-0.00068144436
21	0xba32a2f5	-0.00068144436
22	0xba32a2f5	-0.00068144436
23	0xba32a2f5	-0.00068144436
24	0xba32a2f5	-0.00068144436
25	0xba32a2f5	-0.00068144436
26	0xba32a2f5	-0.00068144436
27	0xba32a2f5	-0.00068144436
28	0xba32a2f5	-0.00068144436
29	0xba32a2f5	-0.00068144436
30	0xba32a2f5	-0.00068144436
31	0xba32a2f5	-0.00068144436
32	0xba32a2f5	-0.00068144436
33	0xba32a2f5	-0.00068144436
34	0xba32a2f5	-0.00068144436
35	0xba32a2f5	-0.00068144436
36	0xba32a2f5	-0.00068144436
37	0xba32a2f5	-0.00068144436
38	0xba32a2f5	-0.00068144436
39	0xba32a2f5	-0.00068144436
40	0xba32a2f5	-0.00068144436
41	0xba32a2f5	-0.00068144436
42	0xba32a2f5	-0.00068144436
43	0xba32a2f5	-0.00068144436
44	0xba32a2f5	-0.00068144436
45	0xba32a2f5	-0.00068144436
46	0xba32a2f5	-0.00068144436
47	0xba32a2f5	-0.00068144436
48	0xba32a2f5	-0.00068144436
49	0xba32a2f5	-0.00068144436
50	0xba32a2f5	-0.00068144436
51	0xba32a2f5	-0.00068144436
52	0xba32a2f5	-0.00068144436
53	0xba32a2f5	-0.00068144436
54	0xba32a2fd	-0.0006814448
55	0xba32a2f5	-0.00068144436
56	0xba32a2f5	-0.00068144436
57	0xba32a2f5	-0.00068144436
58	0xba32a2f5	-0.00068144436
59	0xba32a2f5	-0.00068144436
60	0xba32a2fd	-0.0006814448
61	0xba32a2f5	-0.00068144436
62	0xba32a2f5	-0.00068144436
63	0xba32a2f5	-0.00068144436
64	0xba32a2f5	-0.00068144436
65	0xba32a2f5	-0.00068144436
66	0xba32a2f5	-0.00068144436
67	0xba32a2f5	-0.00068144436
68	0xba32a2f5	-0.00068144436
69	0xba32a2f5	-0.00068144436
70	0xba32a2fd	-0.0006814448
71	0xba32a2f5	-0.00068144436
72	0xba32a2f5	-0.00068144436
73	0xba32a2f5	-0.00068144436
74	0xba32a2f5	-0.00068144436
75	0xba32a2f5	-0.00068144436
76	0xba32a2f5	-0.00068144436
77	0xba32a2f5	-0.00068144436
78	0xba32a2f5	-0.00068144436
79	0xba32a2f5	-0.00068144436
80	0xba32a2fd	-0.0006814448
81	0xba32a2f5	-0.00068144436
82	0xba32a2f5	-0.00068144436
83	0xba32a2f5	-0.00068144436
84	0xba32a2fd	-0.0006814448
85	0xba32a2f5	-0.00068144436
86	0xba32a2f5	-0.00068144436
87	0xba32a2f5	-0.00068144436
88	0xba32a2f5	-0.00068144436
89	0xba32a2f5	-0.00068144436
90	0xba32a2f5	-0.00068144436
91	0xba32a2f5	-0.00068144436
92	0xba32a2f5	-0.00068144436
93	0xba32a2f5	-0.00068144436
94	0xba32a2f5	-0.00068144436
95	0xba32a2f5	-0.00068144436
96	0xba32a2f5	-0.00068144436
97	0xba32a2f5	-0.00068144436
98	0xba32a2f5	-0.00068144436
99	0xba32a2f5	-0.00068144436
100	0xba32a2f5	-0.00068144436
101	0xba32a2f5	-0.00068144436
102	0xba32a2f5	-0.00068144436
103	0xba32a2f5	-0.00068144436
104	0xba32a2f5	-0.00068144436
105	0xba32a2f5	-0.00068144436
106	0xba32a2f5	-0.00068144436
107	0xba32a2f5	-0.00068144436
108	0xba32a2f5	-0.00068144436
109	0xba32a2f5	-0.00068144436
110	0xba32a2f5	-0.00068144436
111	0xba32a2f5	-0.00068144436
112	0xba32a2f5	-0.00068144436
113	0xba32a2f5	-0.00068144436
114	0xba32a2f5	-0.00068144436
115	0xba32a2f5	-0.00068144436
116	0xba32a2f5	-0.00068144436
117	0xba32a2f5	-0.00068144436
118	0xba32a2f5	-0.00068144436
119	0xba32a2f5	-0.00068144436
120	0xba32a2f5	-0.00068144436
121	0xba32a2f5	-0.00068144436
122	0xba32a2f5	-0.00068144436
123	0xba32a2f5	-0.00068144436
124	0xba32a2f5	-0.00068144436
125	0xba32a2f5	-0.00068144436
126	0xba32a2f5	-0.00068144436
127	0xba32a2f5	-0.00068144436
128	0xba32a2f5	-0.00068144436
129	0xba32a2f5	-0.00068144436
130	0xba32a2f5	-0.00068144436
131	0xba32a2f5	-0.00068144436
132	0xba32a2f5	-0.00068144436
133	0xba32a2f5	-0.00068144436
134	0xba32a2f5	-0.00068144436
135	0xba32a2f5	-0.00068144436
136	0xba32a2f5	-0.00068144436
137	0xba32a2f5	-0.00068144436
138	0xba32a2f5	-0.00068144436
139	0xba32a2f5	-0.00068144436
140	0xba32a2f5	-0.00068144436
141	0xba32a2fd	-0.0006814448
142	0xba32a2f5	-0.00068144436
143	0xba32a2f5	-0.00068144436
144	0xba32a2f5	-0.00068144436
145	0xba32a2f5	-0.00068144436
146	0xba32a2f5	-0.00068144436
147	0xba32a2f5	-0.00068144436
148	0xba32a2f5	-0.00068144436
149	0xba32a2f5	-0.00068144436
150	0xba32a2f5	-0.00068144436
151	0xba32a2f5	-0.00068144436
152	0xba32a2fd	-0.0006814448
153	0xba32a2f5	-0.00068144436
154	0xba32a2f5	-0.00068144436
155	0xba32a2f5	-0.00068144436
156	0xba32a2f5	-0.00068144436
157	0xba32a2f5	-0.00068144436
158	0xba32a2f5	-0.00068144436
159	0xba32a2fd	-0.0006814448
160	0xba32a2f5	-0.00068144436
161	0xba32a2f5	-0.00068144436
162	0xba32a2f5	-0.00068144436
163	0xba32a2f5	-0.00068144436
164	0xba32a2f5	-0.00068144436
165	0xba32a2f5	-0.00068144436
166	0xba32a2f5	-0.00068144436
167	0xba32a2f5	-0.00068144436
168	0xba32a2f5	-0.00068144436
169	0xba32a2f5	-0.00068144436
170	0xba32a2f5	-0.00068144436
171	0xba32a2f5	-0.00068144436
172	0xba32a2f5	-0.00068144436
173	0xba32a2f5	-0.00068144436
174	0xba32a2f5	-0.00068144436
175	0xba32a2f5	-0.00068144436
176	0xba32a2f5	-0.00068144436
177	0xba32a2f5	-0.00068144436
178	0xba32a2f5	-0.00068144436
179	0xba32a2f5	-0.00068144436
180	0xba32a2f5	-0.00068144436
181	0xba32a2f5	-0.00068144436
182	0xba32a2f5	-0.00068144436
183	0xba32a2f5	-0.00068144436
184	0xba32a2f5	-0.00068144436
185	0xba32a2f5	-0.00068144436
186	0xba32a2f5	-0.00068144436
187	0xba32a2f5	-0.00068144436
188	0xba32a2f5	-0.00068144436
189	0xba32a2f5	-0.00068144436
190	0xba32a2f5	-0.00068144436
191	0xba32a2f5	-0.00068144436
192	0xba32a2f5	-0.00068144436
193	0xba32a2f5	-0.00068144436
194	0xba32a2f5	-0.00068144436
195	0xba32a2f5	-0.00068144436
196	0xba32a2f5	-0.00068144436
197	0xba32a2f5	-0.00068144436
198	0xba32a2f5	-0.00068144436
199	0xba32a2f5	-0.00068144436
200	0xba32a2f5	-0.00068144436
201	0xba32a2f5	-0.00068144436
202	0xba32a2f5	-0.00068144436
203	0xba32a2f5	-0.00068144436
204	0xba32a2f5	-0.00068144436
205	0xba32a2f5	-0.00068144436
206	0xba32a2f5	-0.00068144436
207	0xba32a2f5	-0.00068144436
208	0xba32a2f5	-0.00068144436
209	0xba32a2f5	-0.00068144436
210	0xba32a2f5	-0.00068144436
211	0xba32a2f5	-0.00068144436
212	0xba32a2f5	-0.00068144436
213	0xba32a2f5	-0.00068144436
214	0xba32a2f5	-0.00068144436
215	0xba32a2f5	-0.00068144436
216	0xba32a2f5	-0.00068144436
217	0xba32a2f5	-0.00068144436
218	0xba32a2f5	-0.00068144436
219	0xba32a2f5	-0.00068144436
220	0xba32a2f5	-0.00068144436
221	0xba32a2f5	-0.00068144436
222	0xba32a2f5	-0.00068144436
223	0xba32a2f5	-0.00068144436
224	0x39d306d8	0.00040250155
225	0x39d306d8	0.00040250155
226	0x39d306d8	0.00040250155
227	0x39d306d8	0.00040250155
228	0x39d306d8	0.00040250155
229	0x39d306d8	0.00040250155
230	0x39d306d8	0.00040250155
231	0x39d306d8	0.00040250155
232	0x39d306d8	0.00040250155
233	0x39d306d8	0.00040250155
234	0x39d306d8	0.00040250155
235	0x39d306d8	0.00040250155
236	0x39d306d8	0.00040250155
237	0x39d306d8	0.00040250155
238	0x39d306d8	0.00040250155
239	0x39d306d8	0.00040250155
240	0x39d306d8	0.00040250155
241	0x39d306d8	0.00040250155
242	0x39d306d8	0.00040250155
243	0x39d306e3	0.00040250187
244	0x39d306d8	0.00040250155
245	0x39d306d8	0.00040250155
246	0x39d306d8	0.00040250155
247	0x39d306d8	0.00040250155
248	0x39d306d8	0.00040250155
249	0x39d306d8	0.00040250155
250	0x39d306d8	0.00040250155
251	0x39d306d8	0.00040250155
252	0x39d306d8	0.00040250155
253	0x39d306d8	0.00040250155
254	0x39d306d8	0.00040250155
255	0x39d306d8	0.00040250155

bias f4 [192]
0	0xb72c9894	-1.0287524e-05
1	0xb61865eb	-2.270909e-06
2	0x36dff2f5	6.674202e-06
3	0x33f09d16	1.1204445e-07
4	0xb6005c2b	-1.9127135e-06
5	0xb2b066ed	-2.0535902e-08
6	0xb61e705a	-2.3609232e-06
7	0x368c4986	4.1808844e-06
8	0x355b8435	8.1776244e-07
9	0xb5b4c2c7	-1.3467733e-06
10	0xb52ce160	-6.4402957e-07
11	0x33d9cbb2	1.0141902e-07
12	0xb626683e	-2.4796605e-06
13	0xb64da081	-3.0640806e-06
14	0xb4fd2fcb	-4.7159696e-07
15	0x3761bb86	1.3454706e-05
16	0x3456e285	2.001271e-07
17	0x367cfee5	3.7699294e-06
18	0x32f69eca	2.8710378e-08
19	0xb73c2a03	-1.1215455e-05
20	0x31478e49	2.903919e-09
21	0x33e99528	1.08770394e-07
22	0xb52bfd38	-6.4070946e-07
23	0x37284e28	1.00317775e-05
24	0xb4936ca5	-2.7459933e-07
25	0xb3a0898b	-7.4755995e-08
26	0x35b6d8d4	1.3623162e-06
27	0x349019f8	2.6840985e-07
28	0x377dd8cc	1.5130452e-05
29	0x35545779	7.9103444e-07
30	0x3791c219	1.737573e-05
31	0x349d8dbc	2.9346654e-07
32	0x3335cd19	4.232888e-08
33	0x33e03815	1.0441014e-07
34	0x3566fb66	8.604751e-07
35	0x359cac46	1.1673044e-06
36	0x35caea6e	1.5118401e-06
37	0x3493d7cd	2.75379e-07
38	0x32dd532d	2.576561e-08
39	0xb5ad464d	-1.2909965e-06
40	0xb3bfe9f9	-8.93669e-08
41	0x36aeebf5	5.213073e-06
42	0x36c0e27b	5.7484117e-06
43	0xba56109a	-0.0008165926
44	0x36daff95	6.52666e-06
45	0xb74f1c15	-1.23447e-05
46	0x37b2b5d1	2.1303918e-05
47	0xb7489a6c	-1.1956883e-05
48	0xb541d0ba	-7.220184e-07
49	0x348edb67	2.6609197e-07
50	0xb6ac35b3	-5.132251e-06
51	0x36dd74bf	6.5999043e-06
52	0x3525b37d	6.172848e-07
53	0xb5d1de96	-1.5636494e-06
54	0xb83933f9	-4.415584e-05
55	0x374387bb	1.1654508e-05
56	0x3497af26	2.825338e-07
57	0x3373c3b4	5.6755837e-08
58	0xb488ce23	-2.5481958e-07
59	0xb43a6ceb	-1.7362224e-07
60	0x3209d9e5	8.023993e-09
61	0xb4882e4b	-2.5365657e-07
62	0x368bfdd9	4.1720746e-06
63	0x32bf743b	2.2288182e-08
64	0xb33c8328	-4.3891447e-08
65	0x36064574	2.0007983e-06
66	0xb4002f19	-1.1938063e-07
67	0x364cc81c	3.0514848e-06
68	0x33cc980f	9.5271496e-08
69	0x37bd07e6	2.2534234e-05
70	0x3565d633	8.562085e-07
71	0xb7d7f0e4	-2.574217e-05
72	0xb5b2dac0	-1.3325698e-06
73	0xb36e0ca3	-5.5425186e-08
74	0x36dc07b6	6.5574086e-06
75	0x3611fd01	2.1753951e-06
76	0x344ce5fc	1.9082648e-07
77	0x355c708c	8.2120164e-07
78	0x3683df54	3.930103e-06
79	0x316c0a95	3.4348535e-09
80	0x352a3fbe	6.342269e-07
81	0x3606364c	1.999916e-06
82	0x330cdaf8	3.279544e-08
83	0x360fd9fc	2.1435544e-06
84	0x35c20209	1.4454719e-06
85	0x35beac96	1.4206332e-06
86	0xb591e62f	-1.0870334e-06
87	0xb5f77cdf	-1.8439276e-06
88	0xb41aef94	-1.4429526e-07
89	0xb518c93a	-5.6917236e-07
90	0xb805936f	-3.184698e-05
91	0x35f429d1	1.8191587e-06
92	0x37a71b12	1.9920557e-05
93	0x3427cc60	1.5627438e-07
94	0x36f34464	7.249926e-06
95	0xb45d3aca	-2.0603616e-07
96	0x337eb0b5	5.9299698e-08
97	0x36342715	2.684484e-06
98	0xb370e63d	-5.6088755e-08
99	0xb397ec0f	-7.074424e-08
100	0x36774199	3.684405e-06
101	0xb3d5945f	-9.945574e-08
102	0x35e80348	1.7286302e-06
103	0x36219c25	2.4081758e-06
104	0x37fe5769	3.0319863e-05
105	0xb5154346	-5.560472e-07
106	0x36f2b2a9	7.232961e-06
107	0xb63b30b8	-2.789353e-06
108	0xb709bac0	-8.2093175e-06
109	0xb4156e2a	-1.3916784e-07
110	0x35727963	9.0328666e-07
111	0x344bf569	1.8995128e-07
112	0xb6122392	-2.17764e-06
113	0xb490d8be	-2.697979e-07
114	0xb783039d	-1.56181e-05
115	0x3607d323	2.0239465e-06
116	0x36c2f6fe	5.810404e-06
117	0x32e99bb2	2.7195572e-08
118	0xaed0c518	-9.493756e-11
119	0xb6586c30	-3.2249482e-06
120	0xb5f060c7	-1.7909559e-06
121	0x36198856	2.2878135e-06
122	0x355b3621	8.1662625e-07
123	0xb6238a61	-2.436944e-06
124	0x304400fd	7.130579e-10
125	0xb53f00f2	-7.115442e-07
126	0x36977b64	4.5145152e-06
127	0xb5c6ca47	-1.481102e-06
128	0xb6a1b9eb	-4.8198176e-06
129	0xb455f441	-1.992603e-07
130	0xb5bd287e	-1.4093382e-06
131	0xb8075faf	-3.227562e-05
132	0xb603fd44	-1.9667941e-06
133	0x34775b5f	2.3036908e-07
134	0xb12d855d	-2.5250622e-09
135	0x33a2e4f2	7.585358e-08
136	0xb5248bac	-6.129801e-07
137	0x37037611	7.835698e-06
138	0x368a9065	4.12953e-06
139	0x3762e66f	1.3524302e-05
140	0xb42ca174	-1.6077485e-07
141	0x339fd88f	7.443406e-08
142	0xb430e536	-1.6474664e-07
143	0xb52a0b0a	-6.3346e-07
144	0x354c97ca	7.6216804e-07
145	0xb464b03a	-2.1298266e-07
146	0xb5b03c1c	-1.3130516e-06
147	0x37ca481b	2.4113853e-05
148	0x36363e6a	2.7156443e-06
149	0x372570c2	9.86102e-06
150	0x330a81b1	3.2248582e-08
151	0x352a8ccd	6.353483e-07
152	0xb43c80bd	-1.7555699e-07
153	0xb3f77210	-1.15225816e-07
154	0x34d8eaa1	4.040385e-07
155	0xb64b437a	-3.0288634e-06
156	0xb627cb6f	-2.5003353e-06
157	0x384ea7f9	4.9270664e-05
158	0xb6721484	-3.6072752e-06
159	0xb28fbf4c	-1.6734383e-08
160	0x340f7dcb	1.3363676e-07
161	0x3383e1c0	6.1412265e-08
162	0xb74c5367	-1.2178766e-05
163	0x35aa91f2	1.2708463e-06
164	0x37cd2cee	2.4458826e-05
165	0x35b44442	1.3430911e-06
166	0xb349e0c4	-4.7003383e-08
167	0xb68015e5	-3.817246e-06
168	0xb5b1c4b4	-1.3244776e-06
169	0x359968bf	1.1429873e-06
170	0xb2841ea7	-1.5380762e-08
171	0x36e70a76	6.8855543e-06
172	0xb5582ec1	-8.0534306e-07
173	0x36476893	2.971418e-06
174	0xb4b9df90	-3.4621598e-07
175	0xb708ce12	-8.154211e-06
176	0xb611c94d	-2.1723856e-06
177	0xb500ad84	-4.7936214e-07
178	0x336ef07e	5.563242e-08
179	0xb38ae3a9	-6.467537e-08
180	0xb7d9f1f5	-2.5981086e-05
181	0x361eeb50	2.3680805e-06
182	0xb34e4345	-4.8024294e-08
183	0x351858fe	5.6753913e-07
184	0xb3c70daa	-9.269145e-08
185	0xb7495153	-1.1999468e-05
186	0xb6277b13	-2.4956578e-06
187	0x362679f3	2.4806911e-06
188	0x36949b6f	4.4288386e-06
189	0x36b27b0b	5.3191375e-06
190	0x32ecf310	2.7584548e-08
191	0xb528ce9d	-6.288554e-07

weight f4 [192, 224]
0	0xb730b9c0	-1.0533666e-05
1	0xb73eec4f	-1.1379902e-05
2	0xb7e8a6b3	-2.773418e-05
3	0xb730ba23	-1.0533756e-05
4	0x383d2a87	4.5100718e-05
5	0xb7e8c3a4	-2.7747657e-05
6	0xb7f5672a	-2.9254315e-05
7	0xb8033d91	-3.1290172e-05
8	0xb732e9dd	-1.0664077e-05
9	0xb730be25	-1.0534689e-05
10	0x36ae1277	5.1877537e-06
11	0xb8077dab	-3.2303546e-05
12	0xb730bbde	-1.0534159e-05
13	0xb8131925	-3.507095e-05
14	0x37133020	8.773088e-06
15	0xb7311385	-1.0554567e-05
16	0x36a13ab6	4.8050088e-06
17	0xb80a8642	-3.30268e-05
18	0x38334a8c	4.2746353e-05
19	0xb730ba23	-1.0533756e-05
20	0x381f4c50	3.7979626e-05
21	0xb7313e3c	-1.0564512e-05
22	0xb730b9c0	-1.0533666e-05
23	0xb730b9c0	-1.0533666e-05
24	0x37368ae3	1.0880382e-05
25	0xb7b79c88	-2.188819e-05
26	0xb730b9c0	-1.0533666e-05
27	0x3774016b	1.45438635e-05
28	0x36b96fe3	5.526455e-06
29	0xb439a613	-1.7289885e-07
30	0xb812bf27	-3.4987137e-05
31	0x379fbfaa	1.9043528e-05
32	0xb7df4e9b	-2.6620275e-05
33	0xb730b9c0	-1.0533666e-05
34	0xb730bdfd	-1.0534653e-05
35	0x3845c964	4.715602e-05
36	0x37c6dfe1	2.3707691e-05
37	0x3840ef8f	4.5999474e-05
38	0x3845d9a5	4.7171157e-05
39	0xb7db8db6	-2.6172824e-05
40	0xb7babf7d	-2.2262097e-05
41	0x3699672f	4.5717675e-06
42	0x36c4ea5a	5.8685373e-06
43	0xb8109b7a	-3.4477074e-05
44	0xb730cee4	-1.0538588e-05
45	0x382ae5b2	4.074508e-05
46	0x3833bcc1	4.2852716e-05
47	0xb76cc492	-1.4112464e-05
48	0xb7ef648a	-2.8537837e-05
49	0xb80d4896	-3.368462e-05
50	0xb732fce7	-1.066851e-05
51	0xb70acafe	-8.272704e-06
52	0xb73f4699	-1.1400924e-05
53	0xb730b9c0	-1.0533666e-05
54	0xb77a37ee	-1.4914183e-05
55	0xb7316d2c	-1.0575441e-05
56	0x38436634	4.6586807e-05
57	0xb730d653	-1.0540319e-05
58	0xb730ba23	-1.0533756e-05
59	0xb7348dc3	-1.07618425e-05
60	0x366126fb	3.3550302e-06
61	0xb74098bd	-1.1479654e-05
62	0x36b81ff9	5.4873494e-06
63	0xb730d289	-1.05394365e-05
64	0xb708d4c9	-8.155775e-06
65	0x35cafc98	1.5123687e-06
66	0x3833eeed	4.2899443e-05
67	0xb7f02e5b	-2.8631815e-05
68	0xb7ca8adb	-2.4144936e-05
69	0x384ac2ef	4.83421e-05
70	0xb7eae898	-2.8003284e-05
71	0xb812cd33	-3.500022e-05
72	0x364cfc3e	3.0545193e-06
73	0x382c2fd0	4.1052524e-05
74	0xb742ec0f	-1.1618263e-05
75	0x38403d70	4.5833585e-05
76	0xb7c1ba05	-2.3094015e-05
77	0x37a5e532	1.977626e-05
78	0xb60c90ae	-2.094584e-06
79	0xb730badc	-1.0533924e-05
80	0x384944df	4.7986276e-05
81	0xb735e77f	-1.084234e-05
82	0x38014cd3	3.0827545e-05
83	0x3849fcc0	4.8157526e-05
84	0xb730b9c0	-1.0533666e-05
85	0xb730b9c0	-1.0533666e-05
86	0x37dd3e32	2.6374215e-05
87	0x384b26cf	4.8435115e-05
88	0xb8114f85	-3.4644752e-05
89	0xb74100d1	-1.15038865e-05
90	0xb781ab6a	-1.545782e-05
91	0xb7eb5424	-2.8053364e-05
92	0x37ae4390	2.0773878e-05
93	0xb7c2e183	-2.3231614e-05
94	0xb730b9c0	-1.0533666e-05
95	0xb7f1d28f	-2.8827488e-05
96	0x374db25b	1.2260479e-05
97	0xb7324c94	-1.06274565e-05
98	0xb733b54a	-1.0711441e-05
99	0x36cd2914	6.114258e-06
100	0xb730b9c0	-1.0533666e-05
101	0xb73b9d0d	-1.1182635e-05
102	0x3440ab6b	1.7943755e-07
103	0x36bf871c	5.7079724e-06
104	0xb730ba60	-1.0533811e-05
105	0xb730ba23	-1.0533756e-05
106	0xb68f9d76	-4.280063e-06
107	0xb8116d16	-3.4672288e-05
108	0xb7a779df	-1.9964702e-05
109	0xb75cde5d	-1.3164795e-05
110	0xb80a2a1c	-3.294098e-05
111	0x36a95c32	5.0473254e-06
112	0xb730db7a	-1.0541518e-05
113	0xb811c39a	-3.4752862e-05
114	0xb80f501b	-3.416846e-05
115	0xb731efde	-1.0605871e-05
116	0xb730beeb	-1.0534869e-05
117	0xb730b9c0	-1.0533666e-05
118	0x38384fb8	4.3943262e-05
119	0x36487837	2.9872297e-06
120	0xb74f886a	-1.2369923e-05
121	0x3800cf6d	3.071076e-05
122	0x381f3e25	3.796643e-05
123	0xb730b9c0	-1.0533666e-05
124	0xb790dcc0	-1.7268932e-05
125	0xb812ab7b	-3.4968816e-05
126	0xb730b9c0	-1.0533666e-05
127	0xb730b9c0	-1.0533666e-05
128	0x3701bdb3	7.733167e-06
129	0x381a7b67	3.683139e-05
130	0xb730ef39	-1.0546116e-05
131	0xb730b9c0	-1.0533666e-05
132	0x37f235c9	2.8873694e-05
133	0xb730b9c0	-1.0533666e-05
134	0xb788f602	-1.632702e-05
135	0xb533d602	-6.699412e-07
136	0x368a1f4c	4.116364e-06
137	0x3824ab22	3.9260027e-05
138	0xb8120618	-3.4814788e-05
139	0xb730b9c0	-1.0533666e-05
140	0x38216005	3.8474816e-05
141	0xb7ef2435	-2.850788e-05
142	0x382655de	3.9657454e-05
143	0xb7eb294c	-2.8033413e-05
144	0xb76fe37f	-1.4298478e-05
145	0xb730b9c0	-1.0533666e-05
146	0xb752e6ef	-1.2570744e-05
147	0x3814423a	3.5347628e-05
148	0xb80e8ec9	-3.3988417e-05
149	0xb763e55e	-1.3583658e-05
150	0x369c8402	4.66453e-06
151	0xb732f41f	-1.0666466e-05
152	0xb7f58146	-2.9266474e-05
153	0x36ba5161	5.5527057e-06
154	0x36901d8b	4.2949737e-06
155	0xb748dea9	-1.1972771e-05
156	0xb7439919	-1.1658552e-05
157	0xb76001b8	-1.3351841e-05
158	0xb7e98ccb	-2.7841326e-05
159	0xb730bf7b	-1.0535e-05
160	0x376b7a26	1.4035531e-05
161	0xb7f4527e	-2.912548e-05
162	0x3807e4a9	3.2399465e-05
163	0xb740231f	-1.1452269e-05
164	0xb730b9c0	-1.0533666e-05
165	0x37d20010	2.503398e-05
166	0xb795f0d5	-1.787433e-05
167	0xb7bcad6c	-2.2492102e-05
168	0xb730ba86	-1.0533846e-05
169	0x384b323c	4.8445756e-05
170	0xb73aec1b	-1.11414365e-05
171	0x360fcf05	2.1429162e-06
172	0x377002aa	1.4305735e-05
173	0xb730bc82	-1.0534308e-05
174	0xb777d918	-1.4772893e-05
175	0x36551397	3.1750876e-06
176	0xb7cc01b1	-2.4319483e-05
177	0x379cddf7	1.870001e-05
178	0xb730ba60	-1.0533811e-05
179	0xb734c1e5	-1.0773981e-05
180	0xb73103f7	-1.0550945e-05
181	0xb730e14e	-1.0542875e-05
182	0x36a6ff6e	4.9769214e-06
183	0xb7346743	-1.0752879e-05
184	0xb78981d3	-1.6392127e-05
185	0x36c17209	5.7651237e-06
186	0xb7325056	-1.0628331e-05
187	0x3832e0a5	4.2647724e-05
188	0xb730b9c0	-1.0533666e-05
189	0xb730ba60	-1.0533811e-05
190	0xb730b9c0	-1.0533666e-05
191	0xb74d0195	-1.22193205e-05
192	0xb7312836	-1.05593845e-05
193	0x36c2961a	5.7991247e-06
194	0xb7d3ae48	-2.5234316e-05
195	0xb809d509	-3.286175e-05
196	0xb730b9c0	-1.0533666e-05
197	0xb774cc47	-1.4591095e-05
198	0xb730b9c0	-1.0533666e-05
199	0x37028f19	7.781921e-06
200	0xb75fbccd	-1.3335794e-05
201	0xb7eb8d1a	-2.8079889e-05
202	0x380312e0	3.1250413e-05
203	0x38072371	3.2219516e-05
204	0x372e5337	1.0390583e-05
205	0xb7554f9e	-1.2714327e-05
206	0xb7b71fdd	-2.1830137e-05
207	0xb80eb369	-3.4022527e-05
208	0xb8100d6d	-3.434478e-05
209	0xb7f3679c	-2.9016104e-05
210	0xb80ff5b9	-3.4322704e-05
211	0xb7f1c215	-2.8819815e-05
212	0x38465cad	4.729319e-05
213	0x36ba3acf	5.550078e-06
214	0x381cf6a0	3.7422986e-05
215	0xb785b804	-1.5940524e-05
216	0x36683cd7	3.4606107e-06
217	0x36c20f5c	5.7834386e-06
218	0xb730c649	-1.0536584e-05
219	0xb7120365	-8.7030685e-06
220	0xb73153b3	-1.056951e-05
221	0xb730b9c0	-1.0533666e-05
222	0xb7b7e031	-2.1919697e-05
223	0x383e0701	4.5306053e-05
224	0xb7a2cfd4	-1.9408682e-05
225	0x37d22e89	2.505562e-05
226	0x35979564	1.1293855e-06
227	0x37f26fa1	2.890063e-05
228	0xb7623c34	-1.3484667e-05
229	0xb76ed592	-1.4235631e-05
230	0x377edc0c	1.5190813e-05
231	0x37d25e0a	2.5077741e-05
232	0xb73ee97f	-1.1379248e-05
233	0xb78db5d3	-1.6893178e-05
234	0xb74ead8d	-1.2318965e-05
235	0x37d25e06	2.5077734e-05
236	0xb619d26b	-2.2921256e-06
237	0xb6849225	-3.95092e-06
238	0xb7b0f9c6	-2.1097145e-05
239	0xb75884cf	-1.2905525e-05
240	0xb759c2b1	-1.2979538e-05
241	0xb73aadbb	-1.1126914e-05
242	0xb76c4bb5	-1.4084323e-05
243	0x37d25e07	2.5077736e-05
244	0x37d25e06	2.5077734e-05
245	0xb74910a8	-1.1984412e-05
246	0xb7a5ce08	-1.9765474e-05
247	0x37ed95b5	2.8322314e-05
248	0xb7abbbbf	-2.0472215e-05
249	0xb7266e61	-9.920071e-06
250	0x35ffe364	1.906516e-06
251	0xb767f5f4	-1.3825938e-05
252	0xb771ccad	-1.4412374e-05
253	0xb7583e50	-1.28891115e-05
254	0x37d24797	2.5067287e-05
255	0x37a40165	1.9550973e-05

weight f4 [160, 192]
0	0x3d470cd6	0.048596226
1	0xbcf3556f	-0.029703824
2	0xbc658e9a	-0.01401105
3	0x3cd2d27b	0.02573513
4	0xba70a326	-0.00091795844
5	0xbc89a8d3	-0.016804134
6	0xbc24cb05	-0.010058169
7	0xbcd32b33	-0.025777435
8	0xbce44b22	-0.027867857
9	0xbc8597e4	-0.016307779
10	0x3d45f4be	0.048329107
11	0xbd667324	-0.05626215
12	0xbc9bb136	-0.0190054
13	0x3c14fb1b	0.009093071
14	0xbc26ca95	-0.010180135
15	0x3d0dc17f	0.03460836
16	0xbcf5a3cb	-0.02998533
17	0x3d4fc7d0	0.050727665
18	0xbd009bbc	-0.03139852
19	0x3c94d402	0.0181675
20	0xbc346492	-0.011010306
21	0xbc5ea2c9	-0.013588616
22	0xbd47f26c	-0.048815176
23	0x3d02fbf2	0.031978555
24	0xbcba616d	-0.022751534
25	0xbd24c0e8	-0.040223032
26	0xbd5c21fd	-0.05374335
27	0xbc394c16	-0.011309644
28	0x3d2d5457	0.04231676
29	0xbcd67e9d	-0.02618342
30	0xbd7bf518	-0.061513036
31	0x3b321b20	0.0027176812
32	0xbd10e348	-0.035373002
33	0xbc8c0725	-0.01709325
34	0xbda7f032	-0.082001105
35	0xbcd13f8f	-0.025543002
36	0xbcb5a373	-0.022172665
37	0x3c047225	0.008083855
38	0xbbfba1eb	-0.0076792142
39	0xbd1aaa12	-0.037759848
40	0x3c0230c0	0.007946193
41	0xbce60593	-0.02807883
42	0xbc0112c5	-0.00787801
43	0x3bbb59d6	0.0057174964
44	0x3cc8761d	0.024470383
45	0xbcb2d453	-0.02182976
46	0x3d343b1d	0.044001687
47	0xbce58028	-0.028015211
48	0xbcaa01cf	-0.020752816
49	0xbc80329e	-0.015649136
50	0x3cd4814d	0.025940562
51	0xbd7f1853	-0.062279057
52	0x3cd19eb2	0.025588367
53	0xbc1623b0	-0.009163782
54	0xbcdcdb00	-0.026959896
55	0x3d83f609	0.06443412
56	0x3d9b82d7	0.07593315
57	0xbcfa874e	-0.030582096
58	0xbc8990e6	-0.016792726
59	0xbd642341	-0.055697683
60	0x3c0bbdf9	0.00852918
61	0xbc794a8f	-0.01521553
62	0xbb11ae51	-0.0022229145
63	0xbd7176bd	-0.05895113
64	0xbccf8c29	-0.025335388
65	0x3d691c64	0.05691184
66	0xba9bc28c	-0.0011883541
67	0xbb995192	-0.0046789134
68	0xbd81cb5a	-0.06337614
69	0xbd74658e	-0.059667163
70	0xbada3d27	-0.0016650305
71	0x3cc715fb	0.024302473
72	0xbc836542	-0.016039494
73	0xbcbcd449	-0.023050444
74	0xb8b7039e	-8.726794e-05
75	0xbc9bc335	-0.01901398
76	0xbc66e1e0	-0.014091939
77	0x3c2b0b47	0.0104397
78	0x3d0e4340	0.034732103
79	0xbbe22488	-0.0069013275
80	0xbc9cbc6e	-0.019132819
81	0xbcdbfffb	-0.02685546
82	0x3c94b16d	0.01815101
83	0xbd435961	-0.04769266
84	0xbcfffe24	-0.031249113
85	0xbd4a0773	-0.04932351
86	0xbcd0a070	-0.025467128
87	0xbd817380	-0.06320858
88	0x3c589b2d	0.013220591
89	0xbcafdc8b	-0.021467468
90	0x3a0385a0	0.0005017165
91	0xbcde92dc	-0.027169637
92	0x3d5266be	0.051367514
93	0x3c0c8e4f	0.008578851
94	0xbd652046	-0.05593898
95	0xbd0324b1	-0.032017414
96	0xbcabda69	-0.02097817
97	0xbd2a6827	-0.041603234
98	0x3c9e487b	0.01932167
99	0xbc40303f	-0.011730253
100	0xbc3bb021	-0.011455567
101	0xbce9087c	-0.028446428
102	0xbc2c3b53	-0.010512191
103	0xbd457bae	-0.048213653
104	0x3ad94b76	0.0016578275
105	0xbd06b9f6	-0.03289219
106	0xbd1341c9	-0.03595141
107	0xbd0b9161	-0.03407419
108	0xbd080e42	-0.033216722
109	0xbd095a1d	-0.033533204
110	0x3cd292fa	0.02570485
111	0xbd4ecf0b	-0.05049042
112	0xbc6e8e5a	-0.014560306
113	0xbbca2e1b	-0.006170047
114	0xbd30dd29	-0.043179665
115	0xbcbb146f	-0.022836892
116	0xbcab360c	-0.020899795
117	0xbd8279b2	-0.06370868
118	0xbac98349	-0.0015374209
119	0x3c898305	0.016786108
120	0x3b608c59	0.0034263341
121	0xbbf8225f	-0.0075724567
122	0x3ba1a827	0.0049333754
123	0x3bd5dd62	0.006526635
124	0xbb858876	-0.0040751053
125	0xbcb1edee	-0.021719899
126	0x3bab6618	0.0052306764
127	0xbd8a34fe	-0.06748389
128	0xbcf88afe	-0.030339714
129	0xbcaa6d66	-0.020804118
130	0xbd08de85	-0.033415336
131	0x3ba0b9f1	0.0049049784
132	0xbd696097	-0.05697688
133	0xbc2930d3	-0.010326582
134	0xbd10600c	-0.035247847
135	0xbb585a4d	-0.0033012808
136	0xbc16ddff	-0.009208201
137	0x3c8df1d0	0.01732722
138	0xbc401c26	-0.011725461
139	0xbcc05717	-0.023479028
140	0xbd4eafef	-0.050460752
141	0xbc958669	-0.018252568
142	0xbcaa5b6c	-0.020795546
143	0xbc241786	-0.010015374
144	0x3c110d5b	0.008853282
145	0xbce4c44a	-0.02792563
146	0xbd4a66e9	-0.04941455
147	0x3d1f485f	0.038887378
148	0x3b77b4ba	0.003779693
149	0xbb17831d	-0.002311892
150	0x3c731869	0.014837363
151	0xbc2dbb6d	-0.010603768
152	0x3b2d6a29	0.0026460981
153	0x3c397df2	0.011321532
154	0xbd161874	-0.036644414
155	0xbbf14ba8	-0.0073637553
156	0x3d0bcebb	0.0341327
157	0x3dbf81f1	0.09350956
158	0xbc8ce376	-0.017198306
159	0xbce5979e	-0.028026398
160	0xbc08875f	-0.008333056
161	0xbcd70e03	-0.026251798
162	0xbd01aca8	-0.0316588
163	0xbcd4d19b	-0.025978854
164	0xbc896f0c	-0.016776584
165	0xbd2cf65b	-0.04222713
166	0xbcce3fd4	-0.02517692
167	0x3c67ec8d	0.014155519
168	0xbc9b43ee	-0.01895329
169	0x3c7d8764	0.015474174
170	0xbca33a95	-0.019925395
171	0xbd4b862a	-0.049688496
172	0x3d484325	0.04889216
173	0xbd56ee57	-0.052473392
174	0xbca41b0f	-0.020032434
175	0xbd3437bc	-0.043998465
176	0x3d9e4f75	0.07729999
177	0xbd1be5b8	-0.038060874
178	0xbcc3bfb1	-0.023895117
179	0xbca82bd4	-0.020528711
180	0xbba58560	-0.0050513
181	0xbd151071	-0.036392633
182	0xbb8bb4e6	-0.004263508
183	0xbc823ecb	-0.015899083
184	0xbc493aba	-0.012282068
185	0x3c667ef9	0.014068359
186	0xbd8508ad	-0.064957954
187	0xbd487102	-0.048935898
188	0xbd18ca4b	-0.037302297
189	0xbd03f7fb	-0.032218914
190	0xbce4814f	-0.02789369
191	0xbc8fc2e5	-0.017548988
192	0x3a7ae297	0.00095705077
193	0x3cbb4898	0.022861764
194	0x3d2cc66d	0.04218142
195	0x3c8e1c63	0.01734752
196	0x3ad8908c	0.001652257
197	0x3c306596	0.0107664075
198	0x3ccf051b	0.02527099
199	0x39f5a9d4	0.00046856573
200	0x3bca2506	0.0061689643
201	0x3be0a763	0.0068558916
202	0x3c38b631	0.011273907
203	0x3d23eba1	0.040019635
204	0x3c1a6dd9	0.009425604
205	0xba8841c4	-0.0010395576
206	0x3c858526	0.016298842
207	0x3cc6ab7d	0.024251694
208	0x3ce82467	0.02833767
209	0x3c8e0fda	0.017341543
210	0x3d07bfe9	0.033142004
211	0x3cacb5b7	0.021082742
212	0xbb9ec7d2	-0.004845598
213	0x3c6b4502	0.014359714
214	0x3d2a15c8	0.04152468
215	0x3c46c408	0.012131698
216	0xbbbf97db	-0.00584696
217	0x3c9b6d6e	0.018973079
218	0x3b89ef20	0.004209414
219	0x3bec6c5b	0.0072150654
220	0xbb42558e	-0.0029653045
221	0x3ca59dfc	0.020216934
222	0x3cfbd592	0.030741487
223	0xbb6341d3	-0.0034676685
224	0x3c7086f5	0.014680614
225	0x3c699883	0.014257553
226	0x3d2b1c12	0.041774817
227	0x3ba365c0	0.004986495
228	0xb9ea420d	-0.0004468117
229	0xb9f79571	-0.00047222854
230	0xbb9ddfac	-0.0048179235
231	0x3d136ffb	0.035995465
232	0x3bbd7abf	0.0057824547
233	0x3c0f93dc	0.00876328
234	0xbb164633	-0.0022930026
235	0x3d03de18	0.032194227
236	0xbb8b46df	-0.004250392
237	0xbbac8331	-0.0052646627
238	0x3d0be547	0.034154203
239	0x3d1cb5ba	0.038259245
240	0x3ccfec18	0.025381133
241	0x3b5b7468	0.0033486132
242	0xbb4b916f	-0.0031062027
243	0x3ccfdfa8	0.025375202
244	0x3d0c6fcc	0.034286305
245	0xb7d7d190	-2.5727582e-05
246	0x3ca7aa2a	0.020466883
247	0x3c5dfce4	0.013549063
248	0xbb402636	-0.002931965
249	0x3c4e0d91	0.012576477
250	0x3b133bde	0.0022466104
251	0x3cff2e22	0.031149928
252	0x3adadbf6	0.0016697634
253	0x3b8f23bd	0.004368274
254	0x3b7ddab2	0.003873509
255	0x3b410621	0.0029453116

bias f4 [160]
0	0x3719e545	9.172892e-06
1	0x36853c96	3.970762e-06
2	0x37bd01a6	2.2531323e-05
3	0x35aa4cd2	1.2688345e-06
4	0xb765fb98	-1.3708042e-05
5	0x3746d1fc	1.18506105e-05
6	0x3627f6c1	2.502857e-06
7	0x3696b222	4.4910857e-06
8	0x85a53d46	-1.5539034e-35
9	0xb292c7ee	-1.7087554e-08
10	0xb0b6bafe	-1.3295389e-09
11	0xad1a7843	-8.78059e-12
12	0x36cb9613	6.0673424e-06
13	0x368ae7fb	4.1397266e-06
14	0x369fa715	4.75802e-06
15	0x360d8ef3	2.1093845e-06
16	0x373126a4	1.0559019e-05
17	0x3604c403	1.9783627e-06
18	0x366ae800	3.500376e-06
19	0xb6f7746d	-7.3747274e-06
20	0x353cc39a	7.0320095e-07
21	0x359252b6	1.090192e-06
22	0x34e8c2c0	4.3355067e-07
23	0x367b8897	3.748142e-06
24	0xb6b0f441	-5.2736436e-06
25	0xaa152a5c	-1.3248555e-13
26	0xb59c441b	-1.1642727e-06
27	0xb765f3ef	-1.3706259e-05
28	0x36f4dce1	7.2974804e-06
29	0x368fbc95	4.283686e-06
30	0x3661f127	3.3667982e-06
31	0xb402a0a7	-1.2165638e-07
32	0xb66657fb	-3.4323882e-06
33	0x34a79270	3.121272e-07
34	0x372a4a02	1.0150021e-05
35	0xb483455f	-2.4451126e-07
36	0x35bc307e	1.4021205e-06
37	0xb6aa3dea	-5.0736026e-06
38	0xb68d6ce7	-4.2148054e-06
39	0x371e6da7	9.443064e-06
40	0x35f13c05	1.7973367e-06
41	0xb7b6fe80	-2.1814601e-05
42	0xb73d2dba	-1.1275924e-05
43	0x250345e2	1.1386116e-16
44	0xb6e92db4	-6.9492617e-06
45	0x33f40e14	1.1364696e-07
46	0xae526025	-4.7833865e-11
47	0xb7318837	-1.0581737e-05
48	0xb7512d30	-1.2467892e-05
49	0x36eda312	7.0821343e-06
50	0x36e0a1ae	6.694542e-06
51	0xb783ee29	-1.5727319e-05
52	0x36e8089e	6.915142e-06
53	0x3699929a	4.576822e-06
54	0x36ec4898	7.041799e-06
55	0xb71a2313	-9.187282e-06
56	0x366ce072	3.5297385e-06
57	0x1cf8ee04	1.6472789e-21
58	0xb6701c22	-3.5779162e-06
59	0x35a2b8d7	1.2123736e-06
60	0xb4d3dc46	-3.9462083e-07
61	0x36b2decd	5.330751e-06
62	0xb5d671b3	-1.5977333e-06
63	0x3625b63f	2.4692997e-06
64	0x343d3237	1.7620265e-07
65	0xb62342b4	-2.432772e-06
66	0xb68edea3	-4.257848e-06
67	0xb582301e	-9.699759e-07
68	0x3564e7be	8.527385e-07
69	0x3752f4c7	1.2573967e-05
70	0xb703c4cd	-7.85403e-06
71	0x3818e1fe	3.6450096e-05
72	0x379567ad	1.7810462e-05
73	0xb2cea099	-2.4054588e-08
74	0x37be162e	2.2660093e-05
75	0xb60665f5	-2.0026903e-06
76	0x37cb6706	2.424746e-05
77	0xb51fa385	-5.947007e-07
78	0x358ad8de	1.0344918e-06
79	0xb66fbcf2	-3.5723756e-06
80	0x36e53c93	6.8317836e-06
81	0xb57833fa	-9.2462835e-07
82	0x37c2990a	2.3197867e-05
83	0x36cf3812	6.175608e-06
84	0x13ddf9b6	5.6034477e-27
85	0xb6a93ac8	-5.0434355e-06
86	0x0e1eca3e	1.957238e-30
87	0x12242b0f	5.180235e-28
88	0x38747e82	5.8291953e-05
89	0xb6c7de2a	-5.9565255e-06
90	0x37a92c23	2.0166923e-05
91	0x36696de6	3.4783675e-06
92	0xb7804d0c	-1.5294667e-05
93	0xb63f35b2	-2.8492473e-06
94	0x35e27df7	1.6874973e-06
95	0x36add3b6	5.180448e-06
96	0x3821c51b	3.856896e-05
97	0xb5458808	-7.358617e-07
98	0x367a8cc8	3.7334848e-06
99	0xb6e7f2dd	-6.9126095e-06
100	0xb73f3e81	-1.139904e-05
101	0xb8596030	-5.1826413e-05
102	0xb73f395c	-1.1397842e-05
103	0xb6d70629	-6.4082164e-06
104	0xa116454b	-5.0913685e-19
105	0x36018d67	1.9304805e-06
106	0x34154e6a	1.3905233e-07
107	0x37196d5e	9.144975e-06
108	0xb6662da4	-3.4299237e-06
109	0xb693819c	-4.39603e-06
110	0x35de35d1	1.6555952e-06
111	0x3666e870	3.4407967e-06
112	0xb6a9b286	-5.0573753e-06
113	0xa1184fd1	-5.160524e-19
114	0xb65ba74e	-3.2730927e-06
115	0x37d547f2	2.542508e-05
116	0xb5917706	-1.0837982e-06
117	0x35b7c805	1.3692776e-06
118	0xb6a23f93	-4.8353772e-06
119	0xb6a9c4fa	-5.0595236e-06
120	0xb80174bc	-3.0864714e-05
121	0xb65d2bfc	-3.2957169e-06
122	0xb3052bfc	-3.100648e-08
123	0xb594c5e3	-1.1084452e-06
124	0x37e82292	2.7672653e-05
125	0xb47a7236	-2.3324614e-07
126	0x37ea3a6e	2.7922182e-05
127	0x34b25a84	3.3220942e-07
128	0x376818e6	1.3834075e-05
129	0x37fcdf40	3.01447e-05
130	0x372616b6	9.899659e-06
131	0x36feb754	7.591132e-06
132	0x3633060d	2.66766e-06
133	0x367397d3	3.6298195e-06
134	0xb6132d65	-2.193113e-06
135	0x368be345	4.1689805e-06
136	0x36c30e75	5.813136e-06
137	0x36251d91	2.4604126e-06
138	0x305c37f5	8.0115053e-10
139	0xb722b8d5	-9.698987e-06
140	0xb567bd76	-8.632991e-07
141	0xb65906e3	-3.2339528e-06
142	0xb6c5517c	-5.8805435e-06
143	0x35ac1e65	1.2823845e-06
144	0x363d68db	2.8224229e-06
145	0x37a2288c	1.9330786e-05
146	0x98d1782a	-5.414657e-24
147	0x36482e77	2.9829368e-06
148	0x910848e5	-1.0750971e-28
149	0x373da007	1.1302537e-05
150	0xb685bd71	-3.9857628e-06
151	0xb72ef353	-1.04278615e-05
152	0xb6d7008a	-6.407562e-06
153	0x37ccbf4b	2.4407773e-05
154	0xa7e1b0f3	-6.2641894e-15
155	0x381a7cda	3.683274e-05
156	0x361edc94	2.3672228e-06
157	0x3609fbc6	2.0561142e-06
158	0xb6b97776	-5.5273367e-06
159	0x367cec83	3.7688594e-06

weight f4 [160, 192]
0	0xbcd11401	-0.025522234
1	0xbc820239	-0.0158702
2	0xbc6561d4	-0.014000375
3	0xbcd1ec0f	-0.025625257
4	0xbcb8004a	-0.022461075
5	0xba421d5f	-0.00074048893
6	0xbc912a3d	-0.017720336
7	0xbc62ea06	-0.013849741
8	0xbc884e27	-0.016638828
9	0xbc30cd71	-0.010791169
10	0x3cf34635	0.029696563
11	0xbcd20280	-0.025635958
12	0xbcb03de8	-0.021513894
13	0xbd3c041c	-0.045902357
14	0xbce0c3e4	-0.027437158
15	0x3a62c5d4	0.00086506945
16	0xbd2385f3	-0.039922666
17	0xbcd00bb6	-0.02539621
18	0xbc6c8e51	-0.014438228
19	0xbd0aef78	-0.03391978
20	0xbc056f02	-0.008144142
21	0xbcbba2e9	-0.02290483
22	0xbca2832d	-0.01983794
23	0xbcd3f35d	-0.02587288
24	0xbc4ecad1	-0.012621597
25	0xbcf8ab04	-0.030354984
26	0xbcdac8b1	-0.026707025
27	0xb779e939	-1.4895858e-05
28	0xbd48638c	-0.04892306
29	0xbc956380	-0.018235922
30	0x3a5ad719	0.0008348092
31	0xbcd3224a	-0.025773186
32	0xbc0c4910	-0.008562341
33	0xbc350a55	-0.011049827
34	0xbca75e39	-0.020430671
35	0xbc9ef2b9	-0.019402849
36	0xbc1a86f9	-0.009431594
37	0xbc4a0352	-0.012329893
38	0xbc4f6989	-0.012659439
39	0xbc949332	-0.018136594
40	0xbcec46c2	-0.028842334
41	0xbb99cccd	-0.0046936036
42	0xbc90eb41	-0.017690303
43	0x3c17c674	0.0092636235
44	0x3cbfe1c2	0.02342308
45	0xbc1ce415	-0.009575863
46	0x3c6eca07	0.014574534
47	0xbd1e116a	-0.038590826
48	0xbad814d5	-0.0016485701
49	0xbc2b572c	-0.010457795
50	0xbc9b5dde	-0.018965658
51	0xbcd943bf	-0.026521562
52	0x3c9f6d59	0.01946132
53	0xbcf73d75	-0.030180672
54	0x3d07a91e	0.033120267
55	0x3d1f1595	0.03883894
56	0x3cd7d67b	0.02634739
57	0xbc18cdc0	-0.009326398
58	0xbab20418	-0.0013581542
59	0xbcf61086	-0.030037176
60	0xbc71434e	-0.014725519
61	0xbbce61c5	-0.006298276
62	0xbce2f780	-0.027705908
63	0xbcb47f7e	-0.02203345
64	0xbccfbd5f	-0.025358854
65	0x3d109f1d	0.035307992
66	0x39b78924	0.00035006658
67	0xbca1cb19	-0.019750165
68	0xbcd2124c	-0.02564349
69	0xbc78df79	-0.015189999
70	0xbcddff8a	-0.02709939
71	0x3aba78c2	0.0014226662
72	0xbc54fbc2	-0.012999477
73	0xbc8fd995	-0.017559806
74	0xbcabfef8	-0.020995602
75	0xbc8f3a50	-0.01748386
76	0xbb806006	-0.003917697
77	0xbbfdf243	-0.007749827
78	0x3d139416	0.036029898
79	0xbaa0b5ac	-0.0012261174
80	0xbbb65655	-0.005564491
81	0xbcbad0ab	-0.022804579
82	0xbc2a0412	-0.010376947
83	0xbca7da5e	-0.020489868
84	0xbd0c69fb	-0.03428076
85	0xbd0615c6	-0.03273561
86	0xbcb507b3	-0.022098398
87	0xbc16ac30	-0.009196326
88	0xbcd0d973	-0.025494313
89	0xbc2dcd7f	-0.010608076
90	0xbc97555a	-0.018473316
91	0x3c082ae5	0.008311008
92	0x3c77fa9a	0.015135432
93	0xbc725114	-0.014789838
94	0xbc8135f5	-0.015772799
95	0xbca5c36c	-0.020234786
96	0xbc450790	-0.012025729
97	0xbd10cf59	-0.035353992
98	0xbb5b10e3	-0.0033426813
99	0xbcc606e6	-0.024173211
100	0xbbc3b659	-0.0059726653
101	0xbc38efcf	-0.011287644
102	0xbb8d0900	-0.0043040514
103	0xbd3b48e3	-0.045723807
104	0xba2476fc	-0.00062738336
105	0xbbe20a18	-0.006898176
106	0xbd64c077	-0.05584761
107	0xbc9a35b0	-0.018824428
108	0xbcd5864a	-0.02606501
109	0xbca8f292	-0.020623479
110	0xbcd3ac6f	-0.025839059
111	0xbc85acf4	-0.016317822
112	0xbc41a01d	-0.011817959
113	0xbbebe40f	-0.0071988176
114	0xbc1764b8	-0.009240322
115	0xbc969031	-0.018379303
116	0xbd26306c	-0.040573522
117	0xbd2f9d5b	-0.042874675
118	0xb98684da	-0.00025657454
119	0xbccb3f94	-0.02481059
120	0xbcb7cad9	-0.022435592
121	0xbbf79df0	-0.0075566694
122	0xbba6edcc	-0.0050942656
123	0xbb11bb7a	-0.002223699
124	0xbb20f5dc	-0.0024560606
125	0xbcc592f5	-0.024117926
126	0xbcf18dff	-0.029486654
127	0xbd0c84ac	-0.034306213
128	0x3bf23aa7	0.007392246
129	0xbceaf65b	-0.028681925
130	0xbc2364f5	-0.0099728005
131	0xbcf59a94	-0.029980935
132	0xbd0208d1	-0.03174669
133	0xb9979ee6	-0.00028919353
134	0xbca5bce7	-0.020231677
135	0xbc0a66e0	-0.008447379
136	0xbc5921b4	-0.013252664
137	0xbd086e1e	-0.03330814
138	0xbbf516af	-0.0074795107
139	0xbd0f99ae	-0.03505867
140	0xbc4be679	-0.012445086
141	0xbcd2105a	-0.025642563
142	0xbcaff9fa	-0.021481503
143	0xbbd08828	-0.0063638873
144	0xbd2106bc	-0.039313063
145	0xbc718b9b	-0.014742757
146	0xbcd165f7	-0.025561316
147	0xbc9669e4	-0.01836104
148	0xbcab8ebc	-0.020942084
149	0xbc813287	-0.015771164
150	0xbc84d326	-0.016213965
151	0xbd0cdf77	-0.0343928
152	0x3c2910b0	0.01031892
153	0xbd0c345f	-0.034229632
154	0xbc8bcf13	-0.017066514
155	0xbcf07448	-0.029352322
156	0x398b4dfb	0.00026570246
157	0x3cf89a6e	0.030347075
158	0xbc6ee1b9	-0.014580184
159	0xbbf893f6	-0.0075859977
160	0xbd1d4e39	-0.038404677
161	0xbc9a5691	-0.018840106
162	0xbc2c2f4c	-0.010509323
163	0xbc2ad881	-0.010427595
164	0xbd007003	-0.031356823
165	0xbabf79bd	-0.0014608424
166	0xbc8f4eea	-0.017493684
167	0x3c9bf682	0.019038443
168	0xbc8ec22f	-0.017426578
169	0xbcbed603	-0.023295408
170	0xbc2dd0e1	-0.010608883
171	0xbc032fda	-0.008007014
172	0xbc8369a3	-0.016041582
173	0xbc43249a	-0.011910582
174	0xbc15548c	-0.009114396
175	0xbcd0103a	-0.025398362
176	0x3d08fd3e	0.033444636
177	0xbc85dc38	-0.01634036
178	0xbc843027	-0.016136242
179	0xbc267ee6	-0.010162091
180	0x3be18584	0.0068823714
181	0xbc9dfe03	-0.019286161
182	0xbb468b82	-0.0030295555
183	0xbb916f88	-0.0044383444
184	0xbc5c060f	-0.013429179
185	0xbd4575ca	-0.048208036
186	0xbd4a5f14	-0.04940708
187	0xbd0a8e9a	-0.0338274
188	0xbc47bd1b	-0.012191082
189	0xbcc6e0b2	-0.024277065
190	0xbb97b4d1	-0.0046297093
191	0xbc488650	-0.012239054
192	0xbc1aeddd	-0.009456125
193	0x3ccfed39	0.025381671
194	0x3cbef1b8	0.02330862
195	0x3caf8d2c	0.02142962
196	0xbc25d082	-0.010120513
197	0xbb7e89dd	-0.0038839497
198	0x3c1737b9	0.009229594
199	0x3a834f5f	0.0010018161
200	0xbb8aca3f	-0.0042355354
201	0x3c2762f9	0.010216468
202	0xbcc06322	-0.02348477
203	0x3c01e29f	0.007927566
204	0x3c8c7962	0.017147724
205	0xbbf18d2c	-0.0073715653
206	0xbbcb2b13	-0.006200203
207	0x3c896aec	0.016774617
208	0x3b401dc1	0.002931461
209	0xbbd36d7a	-0.0064522596
210	0x3bcbeedf	0.006223544
211	0xbc05c96b	-0.008165698
212	0xba5fcf2b	-0.00085376453
213	0x3b45253e	0.0030082013
214	0x3c9c0d63	0.019049352
215	0xbc0a127c	-0.008427259
216	0xbb7abd2a	-0.0038259723
217	0x3beaf6d4	0.0071705375
218	0xbac3d124	-0.0014939648
219	0x3ba9be96	0.0051801903
220	0xbc44b2d0	-0.012005523
221	0x3c8b3f61	0.016997995
222	0xbb851bb9	-0.0040621427
223	0xbcb3208f	-0.021866111
224	0x3c33d86e	0.010976894
225	0xbbc22881	-0.0059252386
226	0x3b90e8b2	0.0044222707
227	0x3c4dc8e6	0.012560105
228	0x3b901e90	0.0043981746
229	0x38623c29	5.3938627e-05
230	0xbbc471bf	-0.005995005
231	0x3b030cdd	0.001999668
232	0xbb9a7107	-0.004713181
233	0x3afeb19f	0.0019431597
234	0xbb70d731	-0.0036749358
235	0xbc6549e6	-0.01399467
236	0xbd08afc3	-0.033370744
237	0xbb2539f4	-0.0025211545
238	0xbcc03f75	-0.023467759
239	0x3c2c15a6	0.010503208
240	0x3bcf3970	0.0063239858
241	0xbacdc760	-0.0015699677
242	0xbc3066dd	-0.010766712
243	0x3ca27fe6	0.019836377
244	0xbd0e6e73	-0.0347733
245	0x3b836b1e	0.004010572
246	0xbd1d1127	-0.038346436
247	0xbd36f533	-0.044667434
248	0xbd523afa	-0.051325776
249	0xbb68704a	-0.003546732
250	0x3b0db1f6	0.0021620966
251	0xbad36f26	-0.0016131147
252	0xbafb6d8c	-0.0019182428
253	0x3b738550	0.0037158318
254	0x3bcf99ea	0.0063354867
255	0x3aac78f6	0.0013158608

weight f4 [192]
0	0x3ecb43a2	0.39700037
1	0x3e2676d8	0.16256273
2	0x3dcd9f38	0.10040134
3	0x3e8407e9	0.25787285
4	0x3e2449b6	0.16043743
5	0x3d7d881e	0.06189739
6	0x3e12ac2d	0.14323492
7	0x3e0c21d6	0.13684782
8	0x3df6356f	0.120219104
9	0x3de43cee	0.11144434
10	0x3eb9d978	0.36298728
11	0x3e6eef40	0.23333454
12	0x3d8db251	0.06918777
13	0x3e82f4cd	0.25577393
14	0x3e393af8	0.18088901
15	0x3e59845b	0.21241896
16	0x3e26a252	0.16272858
17	0x3e856277	0.26051685
18	0x3ddbcf1c	0.10732862
19	0x3e94e826	0.29083365
20	0x3dd91338	0.10599369
21	0x3db60b1e	0.08888839
22	0x3e37cff6	0.17950425
23	0x3e44140e	0.19148275
24	0x3e37cf06	0.17950067
25	0x3e60a9d7	0.21939789
26	0x3e67b984	0.22629362
27	0x3dad181c	0.08451864
28	0x3eaf047c	0.3418311
29	0x3e247579	0.16060437
30	0x3e8452a2	0.25844294
31	0x3e9b8a49	0.3037894
32	0x3e0ff855	0.14059575
33	0x3e66e581	0.22548486
34	0x3eacb65c	0.3373288
35	0x3df2dc0d	0.118583776
36	0x3daa5b92	0.08318247
37	0x3d4b1637	0.049581733
38	0x3dda3ec0	0.106565
39	0x3e2335d3	0.15938501
40	0x3e28addb	0.1647257
41	0x3de57ecc	0.11205825
42	0x3ddfae48	0.109219134
43	0x3ddae409	0.106880255
44	0x3ea0b9ca	0.31391746
45	0x3e01c7b1	0.12673832
46	0x3ebd0249	0.36915806
47	0x3e3f1da6	0.18663654
48	0x3db7ac21	0.08968378
49	0x3d45ac66	0.048260115
50	0x3ea0e69a	0.31425935
51	0x3e8f6752	0.28008515
52	0x3ece484e	0.4028954
53	0x3e63cb37	0.22245489
54	0x3ead70b6	0.33875054
55	0x3ecaad29	0.39585236
56	0x3ed2b3a3	0.41152677
57	0x3e387d1b	0.18016474
58	0x3d7315a2	0.059346803
59	0x3e70dad5	0.23520978
60	0x3ddbaa73	0.1072587
61	0x3d964440	0.073372364
62	0x3e29f532	0.16597441
63	0x3e700a55	0.23441441
64	0x3e1ff624	0.15621239
65	0x3dd7eafd	0.10542867
66	0x3c562d3d	0.013072309
67	0x3e0d1560	0.13777685
68	0x3e43a26a	0.19104925
69	0x3e9b34e8	0.30313802
70	0x3e7ed85c	0.24887222
71	0x3e88d001	0.26721194
72	0x3e11e9fc	0.14249414
73	0x3e0650b8	0.1311673
74	0x3e4e4819	0.2014469
75	0x3d6e1c89	0.058132682
76	0x3e30c375	0.17262061
77	0x3dd37b3a	0.10326238
78	0x3ec32903	0.38117227
79	0x3c683d03	0.014174703
80	0x3e101549	0.1407062
81	0x3e03a9f9	0.12857808
82	0x3e24970c	0.16073245
83	0x3e1af275	0.15131553
84	0x3df88c37	0.12136119
85	0x3e728cb0	0.2368648
86	0x3df17164	0.11789206
87	0x3e6e2c82	0.23259166
88	0x3e3785c0	0.17922115
89	0x3e2225c1	0.15834714
90	0x3ea84493	0.32864818
91	0x3e506cb3	0.20353965
92	0x3e8d7480	0.27627945
93	0x3e349cea	0.17637983
94	0x3e8983f6	0.2685849
95	0x3e3f0f31	0.18658139
96	0x3de5cf77	0.112212114
97	0x3e0797b7	0.13241468
98	0x3e8ab7ed	0.2709345
99	0x3e01a9ce	0.12662432
100	0x3e240c1f	0.16020249
101	0x3e5a599a	0.21323243
102	0x3d34a4da	0.044102527
103	0x3e586bac	0.21134824
104	0x3ea3b42f	0.31973407
105	0x3deef682	0.116681114
106	0x3e6284d2	0.2212098
107	0x3e47c758	0.19509637
108	0x3e74edfd	0.2391891
109	0x3e06b1b4	0.13153726
110	0x3ee0f961	0.4394026
111	0x3e547cfc	0.20750803
112	0x3dbd3b56	0.09239833
113	0x3d596d7e	0.053082936
114	0x3e6d378a	0.23165718
115	0x3e136f83	0.14398007
116	0x3e2af7dc	0.16696113
117	0x3e96e97d	0.29475012
118	0x3c321a98	0.010870598
119	0x3d23f8f1	0.04003233
120	0x3e7c122f	0.24616311
121	0x3cad971e	0.021190222
122	0x3de5bd79	0.1121778
123	0x3e9b7823	0.30365095
124	0x3d8c776e	0.06858717
125	0x3e62f324	0.22163063
126	0x3e7c9cf0	0.24669242
127	0x3e90e221	0.28297523
128	0x3e1a826e	0.15088817
129	0x3e328825	0.17434748
130	0x3e1203c5	0.1425925
131	0x3e6b72cf	0.22993015
132	0x3e915c3b	0.2839068
133	0x3e3c005e	0.18359515
134	0x3e313386	0.17304811
135	0x3dad00be	0.08447407
136	0x3daf81e7	0.08569699
137	0x3eb96c96	0.36215657
138	0x3d6ef445	0.058338422
139	0x3e326e5b	0.1742491
140	0x3e57126a	0.21003118
141	0x3d9afba5	0.07567529
142	0x3dfbc4de	0.12293409
143	0x3d92b298	0.0716297
144	0x3e79babb	0.24387638
145	0x3e0eaa94	0.13932258
146	0x3e2c8181	0.16846277
147	0x3ec199d0	0.37812662
148	0x3e05d4a9	0.13069405
149	0x3d9afb24	0.075674325
150	0x3e03edc3	0.12883668
151	0x3e4929fa	0.19644919
152	0xbbec7384	-0.007215919
153	0x3e653119	0.2238201
154	0x3e0b6d30	0.1361587
155	0x3e0b411f	0.1359906
156	0x3d97e246	0.07416205
157	0x3eb8675a	0.3601635
158	0x3dedcc8d	0.116112806
159	0x3df70fc9	0.12063558
160	0x3e4373f0	0.19087195
161	0x3e1a5cdb	0.15074484
162	0x3e3f5b73	0.18687229
163	0x3e36e658	0.17861307
164	0x3e3608f0	0.17776847
165	0x3e20010e	0.15625402
166	0x3df487da	0.11939974
167	0x3e99fc21	0.30075172
168	0x3dac3fdd	0.084106185
169	0x3d89a4ba	0.06720872
170	0x3e252c8e	0.16130278
171	0x3e3c2799	0.1837448
172	0x3e7be55b	0.24599211
173	0x3e2bc95d	0.16776033
174	0x3d9442e3	0.0723932
175	0x3e76e1e6	0.24109611
176	0x3e8fa569	0.28055885
177	0x3e17fe24	0.1484304
178	0x3e061f56	0.13097891
179	0x3dd0db29	0.101980515
180	0x3ead28d7	0.3382022
181	0x3e0cb812	0.13742092
182	0x3cf2479d	0.029575163
183	0x3da1743d	0.07883499
184	0x3d9df597	0.07712858
185	0x3e969293	0.29408702
186	0x3e7da535	0.24770053
187	0x3e96c2ad	0.294454
188	0x3e4c93f9	0.19978322
189	0x3e4b930b	0.19880311
190	0x3e0e1cea	0.13878217
191	0x3e4a8d40	0.19780445

bias f4 [192]
0	0xbe32fee9	-0.17480053
1	0x3d20f903	0.039299976
2	0x3cf027ca	0.029315848
3	0xbdca1b60	-0.098685026
4	0xbe1b66f4	-0.15175992
5	0xbce93780	-0.028468847
6	0xbc661869	-0.014043906
7	0xbe3be63f	-0.1834955
8	0xbdc247b7	-0.09486335
9	0xbe38f3fe	-0.18061826
10	0x3df778b4	0.12083569
11	0xbca12d93	-0.019675052
12	0x3c929860	0.017894924
13	0xbe0089bf	-0.12552546
14	0xbddc4706	-0.10755734
15	0x3e3a4904	0.18191916
16	0x3c839d2b	0.016066154
17	0xbdda92b9	-0.106725164
18	0x3d096efb	0.033553105
19	0xbe58ce31	-0.21172406
20	0xbe1a62f0	-0.15076804
21	0x3c8cbc39	0.017179595
22	0xbb8a77d8	-0.0042257123
23	0xbd533eaf	-0.05157345
24	0xbe64bc08	-0.22337353
25	0xbe9652a2	-0.2935992
26	0xbe824a05	-0.25447097
27	0xbd8e5789	-0.0695029
28	0xbdccee80	-0.10006428
29	0xbc7f3c97	-0.015578411
30	0xbd0663bd	-0.03280996
31	0xbd416956	-0.047219597
32	0xbc1af350	-0.009457424
33	0xbd887291	-0.06662477
34	0xbc9fe052	-0.019516144
35	0xbdc4a962	-0.0960262
36	0xbd83902a	-0.064239815
37	0xbc64bb36	-0.01396065
38	0xbdadc500	-0.084848404
39	0xbbf1037f	-0.007355153
40	0xbdb4c33f	-0.08826303
41	0xbc2ea1b8	-0.010658674
42	0xbd335a04	-0.043787017
43	0x3dedec49	0.116173334
44	0x3e4a29b3	0.1974247
45	0xbdaeeec3	-0.08541634
46	0x3e45fb8e	0.19334242
47	0x3d717849	0.058952603
48	0xbcd3393b	-0.025784126
49	0xbd47a50d	-0.04874139
50	0xbdc90617	-0.09815615
51	0xbca71f9a	-0.020400811
52	0x3deaf3df	0.11472296
53	0xbe147bd5	-0.14500363
54	0x3e20ed2f	0.15715478
55	0x3e59300d	0.21209736
56	0x3e67f056	0.22650275
57	0xbe89720a	-0.26844817
58	0xbd371bde	-0.04470431
59	0x3d7a7fa9	0.061156902
60	0xbdd021aa	-0.10162671
61	0xbddac15a	-0.1068141
62	0xbe16bf57	-0.14721428
63	0xbe6a9a6e	-0.22910473
64	0x3d1ddf21	0.03854287
65	0x3dd3236b	0.1030949
66	0xbd06cd48	-0.032910615
67	0xbd786211	-0.0606404
68	0xbc8955ff	-0.016764639
69	0x3db20df0	0.086940646
70	0xbe278cee	-0.16362354
71	0x3da08ac6	0.07838969
72	0xbe197615	-0.14986451
73	0xbe2d456e	-0.16921017
74	0xbcb2d5ae	-0.021830406
75	0x3db189bb	0.08668848
76	0xbe116fea	-0.14202848
77	0xbdda0363	-0.10645177
78	0x3e243857	0.16037117
79	0xbb9ba62c	-0.004750034
80	0xbe60167d	-0.21883579
81	0xbc6c556c	-0.014424663
82	0x3d493898	0.049126238
83	0xbbd4ad80	-0.0064904094
84	0xbc27b654	-0.0102363415
85	0xbc803c63	-0.015653795
86	0xbdb77cfb	-0.08959385
87	0xbc920b24	-0.017827578
88	0xbe1a7aea	-0.1508595
89	0xbe76aa40	-0.24088383
90	0xbe0f6cd4	-0.14006358
91	0x3d83d7d8	0.06437653
92	0x3e2d9046	0.16949567
93	0x3de2f9ac	0.110827774
94	0xbce6ebcd	-0.02818861
95	0x3cfec8b7	0.031101568
96	0xbe27824b	-0.16358297
97	0x3b22272f	0.0024742594
98	0x3ccb62b8	0.024827346
99	0xbd89b6e2	-0.06724335
100	0xbe8ac76e	-0.27105278
101	0x3d85b577	0.06528752
102	0xbd568541	-0.052373175
103	0xbc82e768	-0.015979484
104	0x3d8a6dd3	0.067592286
105	0xbd9db039	-0.076996274
106	0x3d8bd390	0.06827462
107	0xbe8f76cb	-0.2802032
108	0x3d8cf981	0.068835266
109	0xbdb4e137	-0.08832019
110	0xbdf65669	-0.120282
111	0xbc92cafa	-0.017919052
112	0xbe1397be	-0.14413354
113	0xbd8a92fa	-0.06766315
114	0x3d87d950	0.06633246
115	0xbe2668fc	-0.16250986
116	0x3d580d2d	0.05274694
117	0xbc545da6	-0.012961781
118	0xbc855888	-0.016277567
119	0x3dec714f	0.115450494
120	0xbe2218ef	-0.15829824
121	0x3d95dcee	0.073175296
122	0xbc99d150	-0.018776566
123	0xbde62ad4	-0.112386376
124	0xbdaeac16	-0.085289165
125	0xbdd413aa	-0.10355313
126	0xbdfc7457	-0.123268776
127	0xbcc68b2f	-0.02423629
128	0xbd2f9107	-0.04286292
129	0xbe7c36fe	-0.24630353
130	0xbdc98cf1	-0.098413356
131	0xbdbd9e59	-0.09258718
132	0xbcbabca4	-0.022795029
133	0xbe8156f2	-0.25261647
134	0xbe674bca	-0.22587505
135	0xbd152181	-0.036408905
136	0xbde91699	-0.11381263
137	0xbe2a2da1	-0.16618969
138	0xbccca1e8	-0.024979547
139	0x3d643f89	0.055724654
140	0xbbfce4f0	-0.007717721
141	0x3caed155	0.021340052
142	0xbe1d20fb	-0.15344612
143	0xbd87ef81	-0.066374786
144	0xbdea8a46	-0.11452155
145	0xbe3ee341	-0.18641378
146	0x3cb4f1b2	0.022087906
147	0xbd7fca40	-0.06244874
148	0xbdcc099b	-0.099627696
149	0xbcd07c63	-0.025449937
150	0xbd6c394e	-0.057671838
151	0x3d52a795	0.05142935
152	0x3e0dc9ca	0.13846508
153	0xbde863c9	-0.113471575
154	0xbdf2e761	-0.11860538
155	0xbd727e64	-0.059202567
156	0x3da1de86	0.07903771
157	0x3e3cf9d2	0.18454674
158	0xbe14a3d8	-0.14515626
159	0xbe138c2a	-0.14408937
160	0x3dee8137	0.116457395
161	0xbe5e7074	-0.21722585
162	0xbe6c1d95	-0.2305816
163	0xbe8cdecf	-0.2751374
164	0x3d6163d9	0.055026863
165	0xbbe55dd5	-0.006999711
166	0xbe02c992	-0.12772205
167	0x3d93d76d	0.072188236
168	0xbc6d0474	-0.014466394
169	0x3df1b57d	0.11802194
170	0xbe750e4c	-0.23931235
171	0x3de5febc	0.11230227
172	0x3d1e7927	0.03868976
173	0x3d4111ed	0.047136236
174	0xbd257116	-0.04039105
175	0xbe25ee31	-0.16204144
176	0x3e1a70b5	0.15082057
177	0xbd0754cd	-0.033039857
178	0xbe45ff6f	-0.19335721
179	0xbe0138fd	-0.12619396
180	0x3e374dff	0.17900847
181	0xbc06272c	-0.00818805
182	0xbd4e59d6	-0.050378643
183	0xbdb814ce	-0.08988343
184	0xbdc252bc	-0.094884366
185	0xbe2fe969	-0.17178883
186	0x3d858c94	0.06520954
187	0xbc387e4a	-0.011260578
188	0xbe9d5371	-0.30727723
189	0xbe7d7d3c	-0.24754804
190	0xbd63a304	-0.055575386
191	0xbd9757f7	-0.07389825
