Graph Neural Network/Models/SAGEConv-D3-F1-mean.pth (torch, 611624 bytes, 15 tensors)

weight f4 [192, 224]
0	0xbb81934b	-0.0039543263
1	0xbb818986	-0.0039531616
2	0xbb81905e	-0.0039539775
3	0xbb819859	-0.003954929
4	0xbb818dd1	-0.0039536734
5	0xbb818974	-0.0039531533
6	0xbb8197b9	-0.0039548543
7	0xbb819507	-0.003954533
8	0xbb818ae4	-0.0039533246
9	0xbb81a100	-0.0039559603
10	0xbb818929	-0.0039531183
11	0xbb818b6f	-0.0039533894
12	0xbb8189e3	-0.003953205
13	0xbb819678	-0.003954705
14	0xbb8190ff	-0.0039540525
15	0xbb819e4a	-0.003955637
16	0xbb818932	-0.0039531225
17	0xbb818fcd	-0.00395391
18	0xbb8195dc	-0.003954632
19	0xbb818adc	-0.003953321
20	0xbb81892d	-0.00395312
21	0xbb818a92	-0.0039532864
22	0xbb819742	-0.003954799
23	0xbb818e01	-0.0039536958
24	0xbb818aba	-0.003953305
25	0xbb818be8	-0.0039534457
26	0xbb81892d	-0.00395312
27	0xbb818ac8	-0.0039533116
28	0xbb818a7b	-0.0039532757
29	0xbb818b6f	-0.0039533894
30	0xbb818dad	-0.0039536566
31	0xbb818e92	-0.0039537633
32	0xbb819189	-0.0039541167
33	0xbb818cc7	-0.0039535495
34	0xbb819f3e	-0.0039557507
35	0xbb819208	-0.003954176
36	0xbb818f1f	-0.003953829
37	0xbb818937	-0.003953125
38	0xbb819d21	-0.003955499
39	0xbb819f45	-0.003955754
40	0xbb8189c3	-0.00395319
41	0xbb81893f	-0.0039531286
42	0xbb8190e4	-0.00395404
43	0xbb81892a	-0.003953119
44	0xbb819797	-0.0039548385
45	0xbb818974	-0.0039531533
46	0xbb818c4b	-0.003953492
47	0xbb81896e	-0.0039531505
48	0xbb818955	-0.003953139
49	0xbb818e78	-0.003953751
50	0xbb8193e1	-0.003954396
51	0xbb81892a	-0.003953119
52	0xbb818f7a	-0.0039538713
53	0xbb8189e6	-0.0039532064
54	0xbb819d30	-0.003955506
55	0xbb8189af	-0.0039531807
56	0xbb81895e	-0.003953143
57	0xbb8195b6	-0.0039546145
58	0xbb818a52	-0.0039532566
59	0xbb818965	-0.0039531463
60	0xbb81892f	-0.003953121
61	0xbb819a17	-0.0039551365
62	0xbb81899a	-0.003953171
63	0xbb818962	-0.003953145
64	0xbb818965	-0.0039531463
65	0xbb818972	-0.0039531523
66	0xbb818954	-0.0039531384
67	0xbb818932	-0.0039531225
68	0xbb81893d	-0.0039531277
69	0xbb818c2a	-0.0039534764
70	0xbb819337	-0.003954317
71	0xbb818965	-0.0039531463
72	0xbb8190b3	-0.003954017
73	0xbb81951b	-0.0039545423
74	0xbb818b45	-0.00395337
75	0xbb8189fc	-0.0039532166
76	0xbb818f7a	-0.0039538713
77	0xbb819601	-0.0039546494
78	0xbb8190b3	-0.003954017
79	0xbb81892d	-0.00395312
80	0xbb81943a	-0.0039544376
81	0xbb818a6f	-0.00395327
82	0xbb818933	-0.003953123
83	0xbb818929	-0.0039531183
84	0xbb818a92	-0.0039532864
85	0xbb818929	-0.0039531183
86	0xbb818928	-0.003953118
87	0xbb8189e6	-0.0039532064
88	0xbb81892d	-0.00395312
89	0xbb8189a9	-0.003953178
90	0xbb818a72	-0.0039532715
91	0xbb819a8a	-0.00395519
92	0xbb8191e9	-0.0039541614
93	0xbb818b0b	-0.003953343
94	0xbb81892b	-0.0039531193
95	0xbb81933d	-0.0039543197
96	0xbb819516	-0.00395454
97	0xbb819e4e	-0.003955639
98	0xbb819e48	-0.003955636
99	0xbb81894b	-0.003953134
100	0xbb8197cc	-0.003954863
101	0xbb819149	-0.003954087
102	0xbb819435	-0.0039544352
103	0xbb818b61	-0.003953383
104	0xbb818980	-0.003953159
105	0xbb8189e1	-0.003953204
106	0xbb8199da	-0.003955108
107	0xbb818984	-0.0039531607
108	0xbb819189	-0.0039541167
109	0xbb818ba2	-0.003953413
110	0xbb819160	-0.0039540976
111	0xbb8189ff	-0.003953218
112	0xbb8189de	-0.0039532026
113	0xbb818929	-0.0039531183
114	0xbb8199f6	-0.003955121
115	0xbb818932	-0.0039531225
116	0xbb8191b4	-0.0039541367
117	0xbb819062	-0.0039539794
118	0xbb818929	-0.0039531183
119	0xbb818957	-0.0039531398
120	0xbb818d4b	-0.003953611
121	0xbb818d66	-0.0039536236
122	0xbb81a105	-0.0039559626
123	0xbb818962	-0.003953145
124	0xbb818a26	-0.003953236
125	0xbb818e98	-0.003953766
126	0xbb8195e0	-0.003954634
127	0xbb818998	-0.00395317
128	0xbb8189b5	-0.0039531835
129	0xbb818a88	-0.003953282
130	0xbb81a0b7	-0.0039559263
131	0xbb81892d	-0.00395312
132	0xbb818e74	-0.0039537493
133	0xbb818db4	-0.00395366
134	0xbb818d00	-0.003953576
135	0xbb818a60	-0.003953263
136	0xbb818988	-0.0039531626
137	0xbb819f21	-0.003955737
138	0xbb819468	-0.003954459
139	0xbb818d7d	-0.0039536343
140	0xbb818932	-0.0039531225
141	0xbb818f47	-0.0039538476
142	0xbb818933	-0.003953123
143	0xbb818932	-0.0039531225
144	0xbb81896e	-0.0039531505
145	0xbb818b34	-0.003953362
146	0xbb818b42	-0.0039533684
147	0xbb81a07c	-0.003955899
148	0xbb818a3e	-0.0039532473
149	0xbb8193e4	-0.0039543975
150	0xbb818980	-0.003953159
151	0xbb8190c1	-0.0039540236
152	0xbb818932	-0.0039531225
153	0xbb81a027	-0.003955859
154	0xbb81892d	-0.00395312
155	0xbb8196ca	-0.003954743
156	0xbb818935	-0.003953124
157	0xbb818929	-0.0039531183
158	0xbb81967c	-0.0039547067
159	0xbb818b2c	-0.003953358
160	0xbb818a03	-0.00395322
161	0xbb819bdf	-0.003955349
162	0xbb818929	-0.0039531183
163	0xbb818d25	-0.0039535933
164	0xbb818929	-0.0039531183
165	0xbb818a05	-0.003953221
166	0xbb81952a	-0.0039545493
167	0xbb819282	-0.0039542327
168	0xbb8189f4	-0.003953213
169	0xbb81923e	-0.003954201
170	0xbb81892a	-0.003953119
171	0xbb818962	-0.003953145
172	0xbb818d61	-0.0039536213
173	0xbb818932	-0.0039531225
174	0xbb81a0fa	-0.0039559575
175	0xbb818929	-0.0039531183
176	0xbb818a81	-0.0039532785
177	0xbb81894b	-0.003953134
178	0xbb81942d	-0.0039544315
179	0xbb818a2a	-0.003953238
180	0xbb818e17	-0.003953706
181	0xbb8189d6	-0.003953199
182	0xbb8189b2	-0.003953182
183	0xbb819997	-0.003955077
184	0xbb8195dc	-0.003954632
185	0xbb819538	-0.003954556
186	0xbb81892d	-0.00395312
187	0xbb81892d	-0.00395312
188	0xbb81893e	-0.003953128
189	0xbb81955a	-0.0039545717
190	0xbb819ac2	-0.003955216
191	0xbb81921c	-0.003954185
192	0xbb8189f1	-0.0039532115
193	0xbb8189b9	-0.0039531854
194	0xbb818f04	-0.0039538164
195	0xbb81893e	-0.003953128
196	0xbb818c90	-0.003953524
197	0xbb81949e	-0.003954484
198	0xbb818dc8	-0.003953669
199	0xbb818c49	-0.003953491
200	0xbb818969	-0.003953148
201	0xbb818da2	-0.0039536515
202	0xbb819689	-0.0039547128
203	0xbb8197ac	-0.0039548483
204	0xbb8190ef	-0.003954045
205	0xbb8189b9	-0.0039531854
206	0xbb819544	-0.0039545614
207	0xbb819dcb	-0.003955578
208	0xbb818a79	-0.003953275
209	0xbb8198c6	-0.0039549796
210	0xbb81959c	-0.0039546024
211	0xbb818932	-0.0039531225
212	0xbb8192c5	-0.003954264
213	0xbb8189d8	-0.0039532
214	0xbb81a03b	-0.0039558685
215	0xbb818962	-0.003953145
216	0xbb818940	-0.003953129
217	0xbb81899a	-0.003953171
218	0xbb818a03	-0.00395322
219	0xbb8195bc	-0.0039546173
220	0xbb818b1d	-0.003953351
221	0xbb818932	-0.0039531225
222	0xbb8192b3	-0.0039542555
223	0xbb8199ea	-0.0039551156
224	0xbc276d9a	-0.010219002
225	0xbc09fb71	-0.008421765
226	0xbc6b02c3	-0.01434392
227	0xbc2a1787	-0.010381586
228	0xbc510313	-0.012757081
229	0xbc22e353	-0.009941894
230	0xbc18d0b4	-0.009327102
231	0xbc27d236	-0.010242989
232	0xbc05e339	-0.00817185
233	0xbc0567bf	-0.008142411
234	0xbc17d2da	-0.0092665795
235	0xbc1c5cc0	-0.009543598
236	0xbc281d40	-0.01026088
237	0xbc14dc43	-0.009085718
238	0xbc23f6ce	-0.010007573
239	0xbc66a53e	-0.014077483
240	0xbc531ea9	-0.012885728
241	0xbc2eb65d	-0.010663596
242	0xbc0522c1	-0.008125962
243	0xbc1b65d7	-0.00948473
244	0xbc24a5be	-0.010049282
245	0xbc090dc6	-0.0083651
246	0xbc05202c	-0.008125346
247	0xbbcb2b28	-0.006200213
248	0xbc24786a	-0.010038475
249	0xbc1b03cd	-0.009461355
250	0xbc19c9cd	-0.009386492
251	0xbc19c807	-0.009386069
252	0xbc084f4c	-0.008319687
253	0xbc05724e	-0.008144928
254	0xbc05cd40	-0.008166611
255	0xbc349370	-0.01102148

bias f4 [192]
0	0x350f2883	5.3330604e-07
1	0xb31de337	-3.676106e-08
2	0xb6ac1d2f	-5.129397e-06
3	0xb66867c6	-3.4631098e-06
4	0x375fdd48	1.3343357e-05
5	0x354185db	7.209289e-07
6	0xb5259ccd	-6.1695465e-07
7	0x330b4581	3.2426673e-08
8	0x35e3f28d	1.698341e-06
9	0x3528bbf5	6.285839e-07
10	0x34d0f7af	3.8923233e-07
11	0xb397f147	-7.0753735e-08
12	0x349e9b80	2.9542934e-07
13	0x33573cf2	5.0114018e-08
14	0xb461f1bb	-2.1042699e-07
15	0x359ffaf5	1.1919461e-06
16	0x341beef9	1.4522438e-07
17	0xb56a7971	-8.7348513e-07
18	0x331462f9	3.454895e-08
19	0xb490cb14	-2.696985e-07
20	0x34595ee0	2.0244215e-07
21	0xb40787a4	-1.26222e-07
22	0xb6343c68	-2.6857251e-06
23	0xb439d988	-1.7308605e-07
24	0x361a2a21	2.297231e-06
25	0x357bb9d2	9.377519e-07
26	0x34531852	1.9659754e-07
27	0x343fa0f4	1.7846816e-07
28	0xb2103dea	-8.395981e-09
29	0x36a4e6b2	4.9144373e-06
30	0xb2789847	-1.4470124e-08
31	0x34bab9a1	3.4780263e-07
32	0xb621b276	-2.4094747e-06
33	0xb564aac1	-8.51851e-07
34	0x366750c4	3.4468694e-06
35	0xb4af7e8c	-3.2688365e-07
36	0x33a302ea	7.590809e-08
37	0xb3a467f3	-7.6557534e-08
38	0x32280b93	9.781519e-09
39	0xb3c9a1a9	-9.389198e-08
40	0xb3dde5db	-1.0332925e-07
41	0x2f141ebc	1.347144e-10
42	0xb4a04819	-2.985478e-07
43	0x35986946	1.1355521e-06
44	0x34eb17f6	4.3789595e-07
45	0x332e2906	4.0549843e-08
46	0x35349869	6.727701e-07
47	0xb3882295	-6.339284e-08
48	0x364566ff	2.941524e-06
49	0x35c82870	1.491293e-06
50	0x333527a8	4.2178414e-08
51	0xb263968d	-1.324737e-08
52	0xb2910bbf	-1.6885563e-08
53	0xb5fc1622	-1.8781905e-06
54	0xb4ad1bea	-3.224407e-07
55	0x320825ab	7.924807e-09
56	0xb5ae1323	-1.296958e-06
57	0xb580b7ba	-9.590215e-07
58	0xb418af39	-1.4219849e-07
59	0x330d8ff7	3.2960056e-08
60	0x333827de	4.2877097e-08
61	0x348e3450	2.6487623e-07
62	0xb64d1166	-3.0557508e-06
63	0xb5f41ee4	-1.8188407e-06
64	0xb399d1e8	-7.1627994e-08
65	0xb6247a67	-2.4509152e-06
66	0xb35fd8b7	-5.2118335e-08
67	0xb63c3073	-2.8042384e-06
68	0x3749f1bb	1.2036816e-05
69	0x32ac3012	2.0045295e-08
70	0xb5394bfd	-6.902845e-07
71	0xb653900f	-3.1525303e-06
72	0xb33f029f	-4.4473037e-08
73	0x3387660f	6.304992e-08
74	0xb691d744	-4.346397e-06
75	0xb5302591	-6.5619776e-07
76	0x364578fc	2.942571e-06
77	0x350c687a	5.23061e-07
78	0x34610087	2.095495e-07
79	0xb22b1ff4	-9.960775e-09
80	0xb4dea500	-4.1470776e-07
81	0x341045b8	1.3436409e-07
82	0x33551f84	4.962159e-08
83	0xb439c203	-1.7300049e-07
84	0x31e42cb7	6.640757e-09
85	0xb48910f3	-2.553057e-07
86	0xb1c9c2ca	-5.872015e-09
87	0xb4255b47	-1.5400029e-07
88	0xb2f306a5	-2.8291945e-08
89	0xb0be74a5	-1.3857472e-09
90	0xb2011399	-7.513244e-09
91	0x34fcbf7b	4.7077978e-07
92	0xb61ed90a	-2.3670168e-06
93	0x3094f5de	1.0838297e-09
94	0xb5bcf91f	-1.4079595e-06
95	0x340be19a	1.3027457e-07
96	0x349b57f3	2.893499e-07
97	0x33a78351	7.80043e-08
98	0x325f68fb	1.3004178e-08
99	0xb5143deb	-5.52244e-07
100	0xb6f30089	-7.2420266e-06
101	0xb56d03f1	-8.8295116e-07
102	0xb40d5432	-1.3162278e-07
103	0x342f3cbb	1.6320239e-07
104	0x366c7fef	3.5241208e-06
105	0x3504db8d	4.949332e-07
106	0x35573e50	8.018442e-07
107	0x3393410a	6.8570515e-08
108	0x32f7eefb	2.886326e-08
109	0xb646961b	-2.9591672e-06
110	0x351a58a9	5.749849e-07
111	0x300e5440	5.1779026e-10
112	0x32d265bd	2.4493483e-08
113	0x37e615f8	2.7428367e-05
114	0x32003803	7.463316e-09
115	0xb42cec6d	-1.610476e-07
116	0xb5cb76c9	-1.515925e-06
117	0x3560ff8b	8.3818367e-07
118	0xb42b1f72	-1.5937056e-07
119	0x34930397	2.7383496e-07
120	0xb0b567cd	-1.3198985e-09
121	0x3494afbb	2.769501e-07
122	0xb59f16c3	-1.1853048e-06
123	0x3612b1eb	2.1859257e-06
124	0xb33ab1d8	-4.3468248e-08
125	0xb371bcac	-5.628378e-08
126	0xb3cf84c7	-9.663341e-08
127	0x35a4bfc3	1.2274762e-06
128	0x333f82ca	4.4589605e-08
129	0xb40198bb	-1.2069624e-07
130	0x3438730c	1.7178189e-07
131	0x34bd0af4	3.5211963e-07
132	0x32dae6d0	2.5483502e-08
133	0x33776c15	5.760747e-08
134	0xb438399e	-1.7157296e-07
135	0x3662cd5a	3.3796155e-06
136	0x3603a6b9	1.9617567e-06
137	0xb4ea2c57	-4.3618158e-07
138	0xb594d4a9	-1.1088752e-06
139	0xb75bcb1c	-1.3100707e-05
140	0x3688e6da	4.0799905e-06
141	0xb36cef06	-5.5165422e-08
142	0xb4b32941	-3.3371364e-07
143	0x34f524da	4.566162e-07
144	0x37f63e89	2.9354605e-05
145	0xb2ae10fc	-2.026399e-08
146	0x350edfc8	5.3224767e-07
147	0x33e911b9	1.0853132e-07
148	0x361a8a25	2.30282e-06
149	0xb669ff79	-3.486841e-06
150	0xb4184d08	-1.4184127e-07
151	0x352e920e	6.503259e-07
152	0xb4176f10	-1.4103375e-07
153	0xb6541b43	-3.160633e-06
154	0xb527cf3e	-6.2513925e-07
155	0x33413084	4.498044e-08
156	0xb725fb9c	-9.893349e-06
157	0xb5de7c20	-1.6576414e-06
158	0x32cea0ac	2.4054621e-08
159	0x352f5eb3	6.5330386e-07
160	0x361dcede	2.3515236e-06
161	0x34ac7823	3.2124908e-07
162	0xb2783666	-1.4447869e-08
163	0xb4ca413e	-3.7672902e-07
164	0x342d66b0	1.6149238e-07
165	0x3327c07a	3.9057774e-08
166	0x3598fb17	1.1397959e-06
167	0x353edbc1	7.11003e-07
168	0xb5590ab5	-8.085438e-07
169	0x3509da2a	5.135395e-07
170	0xb5886c98	-1.0164395e-06
171	0x36647747	3.4044076e-06
172	0x3543c48f	7.292919e-07
173	0x36cc54bf	6.0895395e-06
174	0x3371f73b	5.633704e-08
175	0xb0f02292	-1.7472124e-09
176	0xb171846d	-3.514539e-09
177	0x33bcc93b	8.791036e-08
178	0x34c83aca	3.7295678e-07
179	0x34870a94	2.5153406e-07
180	0x351e2711	5.8916436e-07
181	0x33024cfe	3.0338008e-08
182	0x341518fb	1.3885794e-07
183	0x33ad37b0	8.06607e-08
184	0xb0d6db4d	-1.5632878e-09
185	0x35d0c501	1.5554543e-06
186	0x36873248	4.029167e-06
187	0x366a0ec0	3.4877303e-06
188	0xb3ed7f4c	-1.1059328e-07
189	0xb2a56f01	-1.9259007e-08
190	0xb3974487	-7.0439505e-08
191	0x336eee90	5.5630665e-08

weight f4 [192, 224]
0	0x37507d6c	1.2426968e-05
1	0xb6cc2385	-6.083809e-06
2	0xb6b02b74	-5.2502673e-06
3	0x34bb99e4	3.4943434e-07
4	0xb6ce8637	-6.154903e-06
5	0x3607cc96	2.0235652e-06
6	0xb6a27700	-4.8418297e-06
7	0xb52f6a96	-6.5347683e-07
8	0xb53bdfa3	-6.998836e-07
9	0x3667f303	3.4563134e-06
10	0xb538decc	-6.8869554e-07
11	0x36eff0b1	7.150775e-06
12	0x34bb2e58	3.4865184e-07
13	0x37524d59	1.2534984e-05
14	0xb52b1f9a	-6.374845e-07
15	0x34d56f65	3.9755392e-07
16	0x348efb15	2.6632247e-07
17	0xb6db6d00	-6.539398e-06
18	0x3694e80b	4.437757e-06
19	0x36200b35	2.3848381e-06
20	0x34f03180	4.47395e-07
21	0x347ae0e7	2.3364883e-07
22	0xb671ca07	-3.6029394e-06
23	0x374f349c	1.23504105e-05
24	0x34c6db6a	3.704002e-07
25	0x34082a09	1.268128e-07
26	0xb543afad	-7.28988e-07
27	0xb535c4cc	-6.771413e-07
28	0x3485d858	2.493059e-07
29	0xb307a2c0	-3.1580157e-08
30	0xb509ba75	-5.130781e-07
31	0xb53a39cc	-6.9374505e-07
32	0x34577b22	2.0068231e-07
33	0xb6e47c1f	-6.809379e-06
34	0xb6dc39de	-6.5632476e-06
35	0xb5446098	-7.315625e-07
36	0x371acf4c	9.22738e-06
37	0x371383c1	8.792559e-06
38	0x36cc23e3	6.0838515e-06
39	0xb53d40c5	-7.050224e-07
40	0x34db8ae4	4.0892985e-07
41	0xb513aab7	-5.501019e-07
42	0xb5699ac9	-8.7024506e-07
43	0x3708da66	8.1570815e-06
44	0xb6b59edd	-5.4127145e-06
45	0x34285ec0	1.5680689e-07
46	0xb6e40763	-6.7957894e-06
47	0xb6386c91	-2.748133e-06
48	0x34af8890	3.2695652e-07
49	0xb6e2ddfe	-6.761168e-06
50	0xb5423546	-7.2348155e-07
51	0x370b8902	8.316945e-06
52	0xb6a29b0c	-4.846026e-06
53	0xb5a8c19f	-1.2573327e-06
54	0xb53e48bc	-7.088636e-07
55	0x363f2a17	2.8485717e-06
56	0xb6af5021	-5.2247347e-06
57	0xb4e80a99	-4.3221078e-07
58	0xb6ace316	-5.1524357e-06
59	0x34c06de0	3.5842731e-07
60	0xb534daa6	-6.73734e-07
61	0x34464899	1.8466598e-07
62	0x3448f5a4	1.8715815e-07
63	0xb5023d20	-4.851772e-07
64	0x366bdc98	3.5146131e-06
65	0xb4794800	-2.3216126e-07
66	0x34f1867e	4.4987604e-07
67	0xb5ddcb00	-1.6524864e-06
68	0xb6d47b93	-6.3324783e-06
69	0xb6e361d1	-6.7765145e-06
70	0xb6b0c24d	-5.2678283e-06
71	0xb538f202	-6.889751e-07
72	0xb543ff48	-7.3014644e-07
73	0xb6b88ee6	-5.500263e-06
74	0xb5362149	-6.784872e-07
75	0x36e0bf70	6.6980065e-06
76	0xb5214860	-6.0082493e-07
77	0xb53b1076	-6.968688e-07
78	0xb54444a7	-7.311559e-07
79	0xb53f8ae3	-7.135515e-07
80	0xb6c72cba	-5.935869e-06
81	0xb6b819a3	-5.486612e-06
82	0xb6e45eba	-6.805957e-06
83	0x34e09c79	4.18371e-07
84	0xb539f382	-6.927222e-07
85	0x341f4956	1.4834708e-07
86	0x36b9bd42	5.535462e-06
87	0x3640dc69	2.8738525e-06
88	0xb6445c15	-2.9259875e-06
89	0xb49dad99	-2.9369838e-07
90	0xb6a164ef	-4.809924e-06
91	0xb3ffd444	-1.1912974e-07
92	0xb53f451f	-7.125363e-07
93	0x3733d966	1.0719848e-05
94	0xb5368db1	-6.800647e-07
95	0xb53d961d	-7.062643e-07
96	0xb48921bc	-2.5542784e-07
97	0xb6aecee9	-5.2096916e-06
98	0xb5437b21	-7.2822337e-07
99	0xb4a17d65	-3.0079823e-07
100	0x34e37950	4.237031e-07
101	0xb6858043	-3.9786405e-06
102	0xb53d7f63	-7.059336e-07
103	0xb6cd2ed7	-6.114929e-06
104	0xb6e3a0c8	-6.7838446e-06
105	0x34f0667e	4.4778056e-07
106	0x3556e0a0	8.0048085e-07
107	0xb5414c60	-7.2009243e-07
108	0xb6c6c06d	-5.923261e-06
109	0xb6aa2806	-5.071054e-06
110	0xb53a7665	-6.9462686e-07
111	0x37389ec7	1.1004223e-05
112	0xb6af86bf	-5.231093e-06
113	0xb4f3d26c	-4.541538e-07
114	0x33f065c5	1.1194383e-07
115	0xb54402c0	-7.301969e-07
116	0xb6916f3e	-4.334287e-06
117	0x34c0897c	3.586282e-07
118	0xb6c55273	-5.880656e-06
119	0xb53e4234	-7.0876854e-07
120	0xb68af24a	-4.1409266e-06
121	0xb53b9163	-6.9874494e-07
122	0xb6def304	-6.6444063e-06
123	0xb648a235	-2.989674e-06
124	0xb537d8e5	-6.8488436e-07
125	0xb53f162c	-7.118531e-07
126	0xb542c116	-7.255161e-07
127	0xb53f764a	-7.132518e-07
128	0xb4c4084c	-3.6513882e-07
129	0xb5397510	-6.908822e-07
130	0x3484f39f	2.4764174e-07
131	0xb6e4cb2a	-6.818581e-06
132	0xb534ae90	-6.730925e-07
133	0x36a84553	5.0148606e-06
134	0x3481bd06	2.4165655e-07
135	0xb5414e25	-7.201182e-07
136	0xb4e5e4bf	-4.282101e-07
137	0x36906d34	4.3042473e-06
138	0x34e94bfe	4.3454924e-07
139	0xb5415c32	-7.2032265e-07
140	0xb5067ee9	-5.010357e-07
141	0x346694a3	2.1474493e-07
142	0xb533040b	-6.668858e-07
143	0xb53c1e72	-7.007976e-07
144	0x362df781	2.5923075e-06
145	0xb53854ac	-6.8668555e-07
146	0xb693e73d	-4.407861e-06
147	0xb5446223	-7.31585e-07
148	0xb556c947	-8.001411e-07
149	0xb3b8e1a7	-8.6092136e-08
150	0xb53f53fc	-7.127526e-07
151	0xb689d3e7	-4.107587e-06
152	0xb6bee364	-5.688913e-06
153	0xb6aa2c83	-5.0715767e-06
154	0x348168e1	2.4104432e-07
155	0xb56c0724	-8.792724e-07
156	0xb6c46db1	-5.854025e-06
157	0x34a5b6e8	3.0866727e-07
158	0xb53847c3	-6.864977e-07
159	0x34e84648	4.3264504e-07
160	0xb60d0c0a	-2.1017645e-06
161	0x340c993a	1.309426e-07
162	0xb54194f3	-7.211485e-07
163	0xb6e39c7e	-6.7833453e-06
164	0xb32af1b2	-3.980103e-08
165	0x360c8d7f	2.0943987e-06
166	0xb54461cb	-7.3158e-07
167	0xb5202bdd	-5.9668474e-07
168	0xb629e180	-2.531422e-06
169	0xb3d1f1db	-9.776314e-08
170	0xb53b5a1e	-6.9794066e-07
171	0x35e7b4c5	1.7263452e-06
172	0xb6c6b4da	-5.9219137e-06
173	0xb53c4950	-7.014214e-07
174	0xb692e880	-4.3782056e-06
175	0x36899225	4.0999316e-06
176	0x34ea23bd	4.36119e-07
177	0xb531f212	-6.6289897e-07
178	0x3457091c	2.002675e-07
179	0xb541dd0a	-7.2219757e-07
180	0xb6877386	-4.036762e-06
181	0xb4f72afe	-4.6038616e-07
182	0xb5407c66	-7.17066e-07
183	0x361bda7b	2.3223972e-06
184	0xb6e1c61b	-6.728585e-06
185	0x34ab2d1b	3.188405e-07
186	0x3667a2a9	3.4516363e-06
187	0xb524cadd	-6.1389966e-07
188	0x363fdcb0	2.8589675e-06
189	0xb5d017f7	-1.5504182e-06
190	0xb63db484	-2.8268269e-06
191	0xb53be619	-6.9997765e-07
192	0x3752c49a	1.256275e-05
193	0xb4d1ca34	-3.9076406e-07
194	0x374d9613	1.2253894e-05
195	0xb37dee81	-5.912307e-08
196	0x36e001e8	6.675942e-06
197	0x34d49fc1	3.9604313e-07
198	0xb543a083	-7.2876736e-07
199	0xb5179eba	-5.648286e-07
200	0x370bf74c	8.342624e-06
201	0xb5ba2b5c	-1.3870699e-06
202	0xb507c42e	-5.05769e-07
203	0xb51149ff	-5.412439e-07
204	0xb65ae582	-3.2618123e-06
205	0xb53e2ade	-7.0842896e-07
206	0xb6447aaa	-2.9277676e-06
207	0xb64e40da	-3.073414e-06
208	0x33d34ffc	9.840002e-08
209	0xb4fa3d0e	-4.6610552e-07
210	0x35716982	8.993303e-07
211	0x34e246e4	4.214736e-07
212	0x35f6e5cd	1.8395309e-06
213	0xb5440c3e	-7.3033505e-07
214	0xb61ed514	-2.3667862e-06
215	0xb67e46ea	-3.7890227e-06
216	0xb5408114	-7.1713407e-07
217	0xb542304d	-7.234092e-07
218	0x357a8749	9.3329123e-07
219	0xb6ae330f	-5.191548e-06
220	0x363f719d	2.852735e-06
221	0xb52def9c	-6.47962e-07
222	0xb53c51f0	-7.015469e-07
223	0x35fe7e79	1.8961283e-06
224	0x35b8ca70	1.3767985e-06
225	0xb5e72443	-1.7221395e-06
226	0xb5a3c5d4	-1.2202022e-06
227	0xb520bbca	-5.9877914e-07
228	0xb4f2bff5	-4.521568e-07
229	0xb59d31e6	-1.1711934e-06
230	0xb503ac52	-4.905206e-07
231	0x36c2e410	5.8082005e-06
232	0xb5a2a597	-1.2118134e-06
233	0xb56c4146	-8.8011836e-07
234	0xb586efdd	-1.0053587e-06
235	0x3593e916	1.102019e-06
236	0xb5788501	-9.2580746e-07
237	0xb51eb890	-5.912816e-07
238	0xb587c4b7	-1.0115535e-06
239	0xb584cee5	-9.894981e-07
240	0xb567d2ec	-8.636114e-07
241	0xb65f7fbd	-3.3303943e-06
242	0x35dd6cd9	1.6497462e-06
243	0xb5ee09bc	-1.7735215e-06
244	0xb58306ea	-9.762273e-07
245	0xb633b798	-2.6779944e-06
246	0xb4f32d4b	-4.5295232e-07
247	0xb5abdab8	-1.2804148e-06
248	0xb589f3f2	-1.0278293e-06
249	0xb51f6060	-5.937236e-07
250	0xb4fc1f0f	-4.6961256e-07
251	0xb5bcdc5b	-1.4071223e-06
252	0xb55cb873	-8.2224796e-07
253	0xb5869c9a	-1.0029355e-06
254	0x35f89f8b	1.8523873e-06
255	0xb5887d93	-1.0169337e-06

weight f4 [160, 192]
0	0xbc82659f	-0.015917597
1	0xbcee2e1d	-0.029074723
2	0x3d278583	0.04089881
3	0x3cf14032	0.029449556
4	0x3cce916c	0.025215827
5	0x3d00f5f6	0.031484567
6	0xbc0bc3c6	-0.008530563
7	0xbc85f756	-0.01635329
8	0x3caa2002	0.020767216
9	0xbd2b60d3	-0.041840386
10	0xbd094b27	-0.033518936
11	0x3d209233	0.039201926
12	0x3d65cf0a	0.05610565
13	0xbca92753	-0.020648634
14	0x3c6bf98d	0.014402759
15	0x3d99bb6e	0.075064525
16	0xbc83f90d	-0.016109968
17	0xbcfe73ae	-0.03106102
18	0xbc0f2b70	-0.008738384
19	0xbdc5c942	-0.096575275
20	0xbd1695c8	-0.036763936
21	0x3cd14c21	0.025548996
22	0xbc483cf9	-0.012221568
23	0xbd7638d2	-0.06011278
24	0x39e4ac71	0.00043616028
25	0xbab7cf12	-0.0014023504
26	0xbc320738	-0.010865979
27	0xbca97428	-0.02068527
28	0xbbbf31fb	-0.0058348156
29	0xbd145168	-0.036210448
30	0x3cefd6e4	0.029277273
31	0x3bad73fa	0.0052933665
32	0x3d15cbdb	0.036571365
33	0x3cf5fb5f	0.03002709
34	0xbd1f9970	-0.03896469
35	0xbdbdf312	-0.092748776
36	0xbc8f2ed7	-0.01747839
37	0xbc85e3e7	-0.016344024
38	0xbd5809d9	-0.052743766
39	0x3b0c3ac0	0.0021397322
40	0x3d1d8b3c	0.038462862
41	0xbd47007c	-0.048584446
42	0x3cbaaf98	0.022788808
43	0xbb2223cf	-0.0024740582
44	0x3cee7a1a	0.029110957
45	0xbcdaf8ae	-0.026729908
46	0xbc8857cb	-0.016643425
47	0xbd869053	-0.065704964
48	0xbd0f9b90	-0.035060465
49	0x3a820070	0.0009918343
50	0xbd25f117	-0.040513124
51	0xbbd9959a	-0.0066401483
52	0x3cde62e2	0.02714676
53	0xbd6b52f8	-0.057452172
54	0x3b1c54e0	0.00238543
55	0xbd1101c9	-0.035402093
56	0xbd750314	-0.05981739
57	0x3c78f70a	0.015195617
58	0x3ca57bfb	0.02020072
59	0xbc1b5b31	-0.009482191
60	0xbcded774	-0.027202345
61	0x3d8b34c0	0.06797171
62	0xbdb25284	-0.08707145
63	0xbcf03f10	-0.029326946
64	0x3bee3cfe	0.0072704544
65	0x3d046490	0.032322466
66	0x3cb4fa25	0.022091934
67	0xbcdc8474	-0.026918627
68	0xbd5106e5	-0.051031966
69	0xba40ee6b	-0.0007359746
70	0xba3f3b7e	-0.0007294937
71	0xbd7ea762	-0.062171347
72	0x3a9d2643	0.0011989552
73	0x3d51bcd7	0.051205482
74	0xbde0f3e2	-0.10984017
75	0xbd90f024	-0.07077053
76	0xbd44d6e2	-0.04805649
77	0xbd6e3f1c	-0.058165655
78	0xbc07c963	-0.00828776
79	0x3bde6e1f	0.00678803
80	0x3c10779d	0.0088175805
81	0xbcc3e1f4	-0.023911454
82	0xbcfc64c5	-0.03080977
83	0xbd31e3fd	-0.043430317
84	0x3d09288f	0.033485945
85	0x3d313a4c	0.043268487
86	0x3da6924d	0.081333734
87	0x3bae18a4	0.005312996
88	0x3d445b0a	0.047938384
89	0x3d9b8714	0.075941235
90	0x3c7b1f70	0.0153273195
91	0xbc189bfb	-0.009314532
92	0xbc5fc5fc	-0.013658043
93	0xbc612c4a	-0.0137434695
94	0x3c8e065a	0.017337013
95	0xbd0803ee	-0.033206873
96	0xbcde08e5	-0.02710385
97	0x3cff479c	0.031162076
98	0x3d87bb3d	0.0662751
99	0xbd1854af	-0.037190136
100	0x3d50e361	0.050998095
101	0xbc6ed7e4	-0.0145778395
102	0x3d761d55	0.060086567
103	0xbc48c1a9	-0.012253203
104	0x3d42d815	0.047569353
105	0xbd2bf076	-0.04197737
106	0xbcaa10b8	-0.020759925
107	0x3c9c1b36	0.019055944
108	0x3d5bb0cc	0.053635404
109	0x3d3201de	0.043458812
110	0xbbf5e273	-0.0075038015
111	0xbcd0c387	-0.02548386
112	0xba71b552	-0.0009220439
113	0x3bd3b529	0.006460805
114	0xbccfeea9	-0.025382357
115	0xbd194f2a	-0.037429012
116	0xbcd73e39	-0.026274787
117	0xbc8db4c4	-0.01729811
118	0xbd8fcfa9	-0.0702203
119	0x3c044b66	0.008074617
120	0x3b8fd5f0	0.004389517
121	0xbb50fb4a	-0.0031888061
122	0x3c2c9767	0.010534144
123	0x3c3a1268	0.011356927
124	0xbd13c851	-0.03607971
125	0xbc9e36e6	-0.019313287
126	0x3d7ab677	0.06120917
127	0xbbeb08cf	-0.007172681
128	0xbd2b44ce	-0.041813664
129	0x3d5be8b7	0.05368873
130	0xbd04fd93	-0.03246839
131	0x3be1253a	0.006870893
132	0x3ce02063	0.027359193
133	0x3c826131	0.015915485
134	0xbbef9434	-0.0073113684
135	0xbcab8a85	-0.020940075
136	0xbd654193	-0.05597074
137	0x3d8f00dc	0.06982586
138	0xbc8b220e	-0.016984012
139	0x39a93a45	0.00032277606
140	0xbd228f09	-0.03968719
141	0x3cec1483	0.028818374
142	0xbd90315b	-0.07040664
143	0xbd9dc1b1	-0.07702959
144	0xbc9a9090	-0.01886776
145	0x3cbfa23b	0.023392787
146	0x3d69a3c0	0.05704093
147	0x3d33514f	0.043778714
148	0x3c4e1b9a	0.012579823
149	0xbd8aa99f	-0.06770634
150	0x3d20e416	0.03928002
151	0xbd731d79	-0.05935428
152	0x3d25e7d4	0.04050429
153	0x3c4bb26e	0.012432678
154	0x3d1f7238	0.038927287
155	0x3d76eff6	0.06028744
156	0xbce70511	-0.028200658
157	0x3ce93465	0.028467366
158	0xbc8dc63d	-0.017306441
159	0x3ce30617	0.027712865
160	0x3d55842f	0.052128013
161	0x3c32a2cf	0.010903074
162	0x3c817112	0.015800986
163	0x3cf04794	0.029331006
164	0x3c9a3efc	0.018828861
165	0x3d407762	0.046988852
166	0x3c40d2a7	0.011768973
167	0xbd5b8ac1	-0.053599123
168	0x3d5be4c5	0.05368497
169	0x3c831588	0.016001478
170	0x3cd3a8bd	0.025837297
171	0x3b58715d	0.0033026554
172	0x3d419d67	0.04726925
173	0x3c5a37af	0.01331894
174	0x3a96bbd0	0.0011500064
175	0xbd132b0e	-0.035929732
176	0xbccb3860	-0.024807155
177	0xbc60dee9	-0.013725021
178	0xbd9872f8	-0.074438035
179	0xbda7249e	-0.08161281
180	0x3d8057ac	0.06266722
181	0x3d70b193	0.058763098
182	0x3c911992	0.017712388
183	0xbd88fbbe	-0.06688641
184	0xbb73160c	-0.0037091998
185	0xbc984ad6	-0.018590372
186	0x3d838e78	0.06423658
187	0xbada2218	-0.0016642241
188	0x3ce3257b	0.027727833
189	0x3c51d1dc	0.012806382
190	0xbd41bdc9	-0.047300134
191	0x3c2b63ab	0.010460774
192	0x3c30404e	0.010757519
193	0xbc8709f1	-0.016484233
194	0xbc825c30	-0.015913099
195	0x3d393645	0.04521777
196	0x3c1bce70	0.009509668
197	0x3c241323	0.010014328
198	0x3d979062	0.07400586
199	0xbd047bfe	-0.03234481
200	0x3c94c7bd	0.018161649
201	0x3cdda043	0.027053958
202	0xbd6fa920	-0.0585109
203	0xbd331146	-0.043717645
204	0xbc919139	-0.017769443
205	0xbd1e4996	-0.038644396
206	0xbd042012	-0.032257147
207	0xbcacd23e	-0.021096345
208	0x3b789537	0.0037930736
209	0xba1b0926	-0.0005914144
210	0x3d131f4f	0.03591853
211	0xbd66a4ed	-0.05630963
212	0x3d596926	0.053078793
213	0xbc58e644	-0.013238493
214	0xbd112cf5	-0.035443265
215	0xba64e6aa	-0.00087318814
216	0xbc298b37	-0.010348133
217	0xba5e9e33	-0.00084922015
218	0xbb5258df	-0.0032096428
219	0xbcef2754	-0.029193558
220	0xbd599894	-0.053124025
221	0x3c1e6259	0.009667003
222	0x3d6065c2	0.054784544
223	0x3c1a43fc	0.009415623
224	0xbcd55d70	-0.026045531
225	0xbd1584e3	-0.036503684
226	0x3b97f774	0.004637653
227	0xbd0d99da	-0.034570552
228	0x3d075f32	0.03304977
229	0xbd13ac34	-0.036052898
230	0x3be3c421	0.0069508706
231	0x3c285baf	0.010275765
232	0x3d06e0bf	0.03292918
233	0xbba84915	-0.005135665
234	0xbcb247b3	-0.021762704
235	0xbbe30a06	-0.006928685
236	0x3bc25342	0.0059303353
237	0x3cf7d34e	0.030252125
238	0xbcd63d9d	-0.026152426
239	0xbc7de0a8	-0.015495457
240	0xbd7c579f	-0.061607
241	0x3cbd1105	0.023079405
242	0xbb1e63ea	-0.002416844
243	0x3d113367	0.03544941
244	0xbb85222a	-0.0040629106
245	0xbcd0ea8d	-0.025502468
246	0x3c3cf848	0.011533804
247	0xbc155c25	-0.009116207
248	0x3c65b2f3	0.014019716
249	0xbd348108	-0.044068366
250	0xbbfda17f	-0.007740199
251	0x3d9d4283	0.07678702
252	0xbcf673ce	-0.030084517
253	0x3c9564e4	0.018236585
254	0xbcc9f74b	-0.024654051
255	0xbb98a3ed	-0.0046582134

bias f4 [160]
0	0x35f32562	1.8115791e-06
1	0x358b9ee8	1.0402555e-06
2	0x3543b4bc	7.2906164e-07
3	0x3555ee9d	7.969591e-07
4	0xb4d72019	-4.0070225e-07
5	0xb4a3c9c4	-3.050792e-07
6	0xb401aa00	-1.2075907e-07
7	0x3689a8da	4.102575e-06
8	0xb4ce19a8	-3.8389157e-07
9	0x35860046	9.983858e-07
10	0x34f74a09	4.6061203e-07
11	0xb4a9f114	-3.165411e-07
12	0xb4b623a4	-3.3926074e-07
13	0xb4dc2e31	-4.1011802e-07
14	0xb3bc199b	-8.75909e-08
15	0x357754fb	9.2138333e-07
16	0x33e8aa11	1.0834277e-07
17	0xb40f5450	-1.3348586e-07
18	0xb66a6261	-3.4925981e-06
19	0x341f7def	1.4853843e-07
20	0x34abb724	3.1984484e-07
21	0xb4aad54d	-3.1820164e-07
22	0xb4aea636	-3.253096e-07
23	0xb48bc1d7	-2.6031805e-07
24	0xb3a888ab	-7.8479694e-08
25	0xb477500e	-2.3032791e-07
26	0xb45c6fad	-2.0529724e-07
27	0x34fa25b5	4.6593564e-07
28	0xb482d855	-2.437179e-07
29	0xb398b49f	-7.110906e-08
30	0xb604e1cb	-1.9800962e-06
31	0x3316d3c7	3.5117207e-08
32	0xb320ac7c	-3.7409777e-08
33	0x3315954f	3.482756e-08
34	0xb47cde36	-2.3550169e-07
35	0x34bf2fcf	3.5611308e-07
36	0x35017ac4	4.823489e-07
37	0xb4571ba2	-2.0033488e-07
38	0xb6726807	-3.6121362e-06
39	0x33000b58	2.981264e-08
40	0x3498bc71	2.8449315e-07
41	0xb515a1d5	-5.574232e-07
42	0xb63b4569	-2.7905573e-06
43	0x35111da4	5.405984e-07
44	0x31d45adf	6.180343e-09
45	0xb37437c5	-5.68614e-08
46	0xb380b2ef	-5.993012e-08
47	0x3529ab4d	6.320668e-07
48	0xb4110cbd	-1.3508811e-07
49	0x35822c65	9.698675e-07
50	0xb2c39b86	-2.2771712e-08
51	0x365fb0e6	3.3332558e-06
52	0xb4796dd9	-2.3229894e-07
53	0x33d90802	1.01063065e-07
54	0x353e0424	7.078654e-07
55	0x356c6b00	8.8072557e-07
56	0xb44e2040	-1.9196978e-07
57	0x34526f04	1.9598161e-07
58	0x339cd3fe	7.302877e-08
59	0xb4a4fd3f	-3.073164e-07
60	0x36040120	1.9670188e-06
61	0xb48aa5b0	-2.5825057e-07
62	0xb4132593	-1.3704111e-07
63	0xb42287a3	-1.513677e-07
64	0x352dfff3	6.481998e-07
65	0xb3da0863	-1.01529416e-07
66	0x3577cc4f	9.231198e-07
67	0x3604595e	1.9721551e-06
68	0xb2536fac	-1.2307208e-08
69	0x36023c70	1.9406689e-06
70	0x352da015	6.468047e-07
71	0xb4bf2827	-3.5605737e-07
72	0x33c17b81	9.009728e-08
73	0x35837323	9.79377e-07
74	0x32d8595c	2.5186345e-08
75	0xb4360a66	-1.6953854e-07
76	0xb4b35ad1	-3.3407426e-07
77	0x35a97b40	1.2627352e-06
78	0x352ae5ce	6.3664345e-07
79	0x341c5539	1.4559636e-07
80	0xb6ca8fee	-6.0368247e-06
81	0x3484bd18	2.47245e-07
82	0xb54c2735	-7.6052976e-07
83	0x36461cba	2.952102e-06
84	0xb32b6201	-3.9903174e-08
85	0xb4c2bc34	-3.6272252e-07
86	0xb4ec0076	-4.395876e-07
87	0xb43851d4	-1.7166104e-07
88	0xb4012856	-1.2028735e-07
89	0x35f4267a	1.8190615e-06
90	0xb45104c2	-1.9466373e-07
91	0x3380e461	6.0020064e-08
92	0xb4c32908	-3.6351435e-07
93	0xb532df4d	-6.663511e-07
94	0x35dfeff0	1.6684626e-06
95	0x34b85a68	3.433845e-07
96	0x35acfba1	1.2888232e-06
97	0x34d74abb	4.0101244e-07
98	0x343a0898	1.7325726e-07
99	0xb4b6a21d	-3.4018095e-07
100	0xb442fe62	-1.8160202e-07
101	0x33defb66	1.038341e-07
102	0x353250e5	6.6427884e-07
103	0xb3e9db4f	-1.08898e-07
104	0xb5cad77e	-1.5112889e-06
105	0xb50239c0	-4.851281e-07
106	0x361b67fe	2.3157331e-06
107	0x35b67676	1.3594533e-06
108	0xb4b28255	-3.3249913e-07
109	0xb4ceb080	-3.849891e-07
110	0xb3a712b2	-7.779944e-08
111	0x35bfff0f	1.4304841e-06
112	0x337ee170	5.9344018e-08
113	0xb4ca8f7e	-3.7729836e-07
114	0xb34df540	-4.7953336e-08
115	0xb5212693	-6.0033307e-07
116	0x34de2bc0	4.1382555e-07
117	0x34009e3c	1.1978494e-07
118	0x35ffad54	1.9049426e-06
119	0x3590b86c	1.078251e-06
120	0x3604b3f3	1.9774277e-06
121	0xb2b3f145	-2.094806e-08
122	0xb6584199	-3.222469e-06
123	0x365ac88c	3.2601265e-06
124	0xb6214ac0	-2.403438e-06
125	0xb62dcac5	-2.5897036e-06
126	0x359fda8c	1.1910029e-06
127	0xb349695f	-4.6894794e-08
128	0x350f20a3	5.3319144e-07
129	0x340d7efe	1.3177848e-07
130	0x36062449	1.9988677e-06
131	0xb4473bde	-1.8555099e-07
132	0x3529bd1b	6.323259e-07
133	0xb3f732ef	-1.15110986e-07
134	0xb3378961	-4.2732953e-08
135	0xb5174471	-5.635148e-07
136	0x326aa02b	1.3657011e-08
137	0x34bca146	3.513507e-07
138	0x3379192c	5.7997724e-08
139	0xb328c88d	-3.9297948e-08
140	0xb442ce10	-1.8142623e-07
141	0xb3e713c7	-1.0760373e-07
142	0xb3c6636c	-9.238178e-08
143	0xb610c06d	-2.1569679e-06
144	0x358e3b5c	1.05971e-06
145	0x3570f88b	8.9768645e-07
146	0x3488d2f9	2.5485477e-07
147	0xb4bff3de	-3.575396e-07
148	0xb6705a74	-3.5815438e-06
149	0xb64ffdd3	-3.0993149e-06
150	0x34dfd189	4.1689444e-07
151	0xb4c50d8c	-3.6703966e-07
152	0x3492bde4	2.7332783e-07
153	0x3622d89d	2.4265967e-06
154	0x35a82792	1.2528492e-06
155	0x3575e422	9.160159e-07
156	0xb43327d4	-1.6685163e-07
157	0xb49de718	-2.9411672e-07
158	0x35497a37	7.505618e-07
159	0x3517b566	5.6515853e-07

weight f4 [160, 192]
0	0xbc74e234	-0.014946509
1	0xbd2e1b7e	-0.042506687
2	0xbd39eab8	-0.04538986
3	0xbd3c8f69	-0.046035204
4	0xbd9654fc	-0.07340428
5	0xbd44ce16	-0.0480481
6	0xbce38f7a	-0.027778376
7	0xbce44e19	-0.027869271
8	0xbdac7b34	-0.08421937
9	0xbd3a4448	-0.045475274
10	0xbd83e263	-0.06439664
11	0xbcfb81ec	-0.0307016
12	0xbd8a6960	-0.0675838
13	0xbdb37346	-0.08762221
14	0xbdab15d8	-0.08353776
15	0xbd6a34fa	-0.05717943
16	0xbc78829a	-0.015167857
17	0xbd85c036	-0.06530802
18	0xbc69cd64	-0.01427016
19	0xbd430e8e	-0.047621302
20	0xbd63a032	-0.055572696
21	0xbd32718a	-0.04356531
22	0xbd9a8a31	-0.07545889
23	0xbd73e2a7	-0.059542324
24	0xbd4327dd	-0.04764544
25	0xbccabdc5	-0.024748692
26	0xbd4434f3	-0.04790206
27	0xbd2c0f19	-0.042006586
28	0xbd0f6714	-0.035010412
29	0xbce8d889	-0.028423565
30	0xbd20996a	-0.039208807
31	0xbcf9783e	-0.030452844
32	0xbd9046fe	-0.07044791
33	0xbd39d3a6	-0.04536786
34	0xbd77fa75	-0.06054159
35	0x3bef69d9	0.007306319
36	0xbd2b454b	-0.04181413
37	0xbcac7b4c	-0.021054886
38	0xbd91615e	-0.070986494
39	0xbd3792f3	-0.044817876
40	0xbdb6de6c	-0.08929142
41	0xbb8f47dc	-0.00437258
42	0xbcc8a6eb	-0.024493655
43	0xbd1bc8ea	-0.038033403
44	0xbd64bfbd	-0.05584692
45	0xbbd40c11	-0.006471165
46	0x3c309e05	0.010779862
47	0xbd26f24d	-0.04075842
48	0xbd9f4de8	-0.07778531
49	0xbd971c22	-0.07378413
50	0xbd1bdca6	-0.038052224
51	0xbd40a377	-0.047030892
52	0xbc8f3037	-0.017479045
53	0xbda28bea	-0.07936843
54	0xbcb91e85	-0.02259756
55	0xbd0bf32c	-0.034167454
56	0xbd71d6d8	-0.05904278
57	0xbd55de77	-0.052214112
58	0xbd6c5e2c	-0.057706997
59	0xbd26cd9b	-0.040723424
60	0xbb166c12	-0.0022952599
61	0xbdd53e37	-0.10412257
62	0x3ca01d6d	0.019545281
63	0xbdb5c050	-0.08874571
64	0xbc926f4a	-0.017875332
65	0x3aab851f	0.0013085938
66	0x3bbd4adf	0.0057767476
67	0xbd9675a4	-0.07346657
68	0xbd2e8ff6	-0.04261776
69	0xbd8559dc	-0.0651128
70	0xbd8ccdcc	-0.0687519
71	0xbd016789	-0.03159288
72	0xbdb0db5a	-0.08635588
73	0xbd38252a	-0.044957317
74	0xbde833fd	-0.11338041
75	0xbd8bcaed	-0.068258144
76	0xbcc7c610	-0.024386436
77	0xbdd3fdfb	-0.10351177
78	0xbdd0a24b	-0.10187205
79	0x3c3057a3	0.010763082
80	0xbd8c6cbd	-0.06856678
81	0xbcf0c679	-0.029391514
82	0xbcb05e51	-0.021529349
83	0xbde79225	-0.11307172
84	0xbd7cae83	-0.061689865
85	0xbd89bf1a	-0.06725903
86	0xbd9cdb0e	-0.07658969
87	0xbd2f38b5	-0.04277869
88	0xbcfd7f4f	-0.030944495
89	0xbd73469a	-0.059393503
90	0xbd922ed0	-0.07137835
91	0xbd4e3ddb	-0.05035196
92	0xbda2cd6d	-0.07949338
93	0xbcd55803	-0.026042944
94	0xbd8419dd	-0.064502455
95	0x3ccefa4e	0.025265839
96	0xbc65b716	-0.014020702
97	0xbd313ffa	-0.043273903
98	0xbd5a4833	-0.05329151
99	0xbd107444	-0.03526713
100	0xbd8c8580	-0.068614006
101	0xbd6870fa	-0.056748368
102	0xbd56f459	-0.05247912
103	0xbdf0fbef	-0.117668025
104	0xbca4d2ac	-0.020119987
105	0xbd496f68	-0.04917851
106	0xbcaa40c5	-0.020782838
107	0xbc0c6c0e	-0.008570684
108	0xbd931f71	-0.07183731
109	0xbd4f9cca	-0.050686635
110	0xbd79700a	-0.060897864
111	0xbdc06747	-0.093946986
112	0xbc77f80e	-0.015134824
113	0xbcf9fb0f	-0.030515222
114	0xbda1ae5c	-0.078945845
115	0xbcbb65a4	-0.022875614
116	0xbdc0eb10	-0.094198346
117	0xbd6a7927	-0.057244446
118	0xbd84a316	-0.06476419
119	0xbd977885	-0.07396034
120	0xbc6bf245	-0.014401023
121	0xbcae5a41	-0.02128327
122	0xbc418176	-0.011810651
123	0xbdbed6a7	-0.093182854
124	0xbd431eac	-0.047636673
125	0xbd600d35	-0.054700095
126	0xbd836973	-0.06416597
127	0xbcac15f6	-0.021006566
128	0xbd7d7163	-0.061875712
129	0xbd849d5c	-0.064753264
130	0xbd980937	-0.074236326
131	0xbdac7c7e	-0.084221825
132	0xbd8089af	-0.06276261
133	0xbd306760	-0.043067336
134	0xbd412ff3	-0.04716487
135	0xbd721d5f	-0.05911004
136	0xbd82a492	-0.063790455
137	0xbd772be4	-0.06034459
138	0xbd4bfe67	-0.049803164
139	0xbd7f43e9	-0.062320624
140	0xbd9d2c39	-0.076744504
141	0x3cf906df	0.030398784
142	0xbd962b26	-0.07332449
143	0xbde273cb	-0.11057242
144	0xbd206379	-0.039157365
145	0xbd92ac47	-0.071617655
146	0xbdc7931c	-0.09744856
147	0xbd69b700	-0.057059288
148	0xbd36113c	-0.04445003
149	0xbcf4b73d	-0.029872531
150	0xbd0d1e91	-0.03445298
151	0xbd597a51	-0.053095166
152	0xbdaaf59a	-0.08347626
153	0xbd95a543	-0.07306912
154	0xbac60adb	-0.0015109436
155	0xbbe05420	-0.006845966
156	0xba764493	-0.00093943736
157	0xbd91004d	-0.070801355
158	0xbb53833f	-0.0032274274
159	0xbc6e1cf6	-0.014533272
160	0xbc230fc0	-0.009952486
161	0xbbf2e639	-0.0074126986
162	0xbd42a314	-0.047518805
163	0xbccbc006	-0.024871837
164	0xbd8dd7ea	-0.06925948
165	0xbd29ace5	-0.04142465
166	0xbd89f510	-0.06736195
167	0xbd4d66f8	-0.050147027
168	0xbd21b03b	-0.039474707
169	0xbd506bd9	-0.0508841
170	0x3bf5a2ab	0.007496198
171	0xbccc5f63	-0.024947828
172	0xbd9dd7a0	-0.07707143
173	0xbd81adf2	-0.063320056
174	0xbcdf8697	-0.027285857
175	0xbc6522c1	-0.013985337
176	0xbbe05dbe	-0.0068471124
177	0xbce60916	-0.028080504
178	0xbd55d1a9	-0.0522019
179	0xbd668562	-0.056279548
180	0xbb435522	-0.0029805382
181	0xbd703bac	-0.058650658
182	0xbd08b804	-0.033378616
183	0xbcfc3feb	-0.030792197
184	0xbd2ca353	-0.042147946
185	0xbd8b130d	-0.06790743
186	0xbd9f9578	-0.07792181
187	0xbd9d4dd0	-0.07680857
188	0xbe0c8b28	-0.13724959
189	0xbd84dbe7	-0.064872555
190	0xbd0d0d8c	-0.034436747
191	0xbdc9549a	-0.098305896
192	0xbd7d73af	-0.061877903
193	0xbd21ed53	-0.03953297
194	0xbd303f47	-0.043029096
195	0xbd83cd1d	-0.06435607
196	0xbd9c7b15	-0.076406635
197	0xbcf31a35	-0.029675582
198	0xbd869eb5	-0.0657324
199	0xbd7d4af4	-0.06183906
200	0xbd836b60	-0.064169645
201	0xbd71ec5e	-0.059063308
202	0xbdbfdb23	-0.09367969
203	0xbd2fc880	-0.04291582
204	0xbd4db329	-0.05021969
205	0xbd4f6e95	-0.05064257
206	0xbd4a67ce	-0.049415402
207	0xbc2d73db	-0.010586704
208	0xbd811266	-0.06302337
209	0xbd7563b8	-0.059909552
210	0xbd8980a9	-0.06713993
211	0xbd56372f	-0.05229872
212	0xbcc7c2ad	-0.02438482
213	0xbd26935c	-0.040667877
214	0xbdd459ac	-0.10368666
215	0xbd1772dc	-0.036974773
216	0xbc968e4c	-0.0183784
217	0xbd6c818d	-0.057740737
218	0xbd8094f0	-0.062784076
219	0xbd82435b	-0.06360503
220	0xbb22ef85	-0.0024862003
221	0xbd53fcd6	-0.051754795
222	0xbd711dbe	-0.058866255
223	0xbce78dd9	-0.02826588
224	0xbd32f50b	-0.043690722
225	0xbd27a867	-0.040932085
226	0xbd48cbdd	-0.049022544
227	0xbce12e87	-0.027488006
228	0xbd274cad	-0.040844608
229	0xbd1acdd8	-0.037793964
230	0xbcdbcdc3	-0.026831513
231	0xbd2f2d9a	-0.0427681
232	0xbd242cde	-0.04008185
233	0xbdacb952	-0.084337845
234	0x3c95492e	0.018223371
235	0xbdfe6710	-0.12422001
236	0xbb25c008	-0.0025291461
237	0x3a5d7652	0.0008448112
238	0xbd553d9e	-0.052060716
239	0xbdb70dbf	-0.08938169
240	0xbd239c0c	-0.03994374
241	0xbd1dcd46	-0.038525842
242	0xbd8f3e07	-0.06994253
243	0xbda54f4f	-0.080717675
244	0xbd928f86	-0.07156281
245	0xbdd006fe	-0.10157584
246	0xbd18b1a9	-0.037278805
247	0xbd78d8c8	-0.060753614
248	0xbd8642ad	-0.06555686
249	0xbd94a860	-0.072586775
250	0xbd7af726	-0.061270855
251	0xbd4372c5	-0.047716875
252	0xbd90aae0	-0.07063842
253	0xbd159e50	-0.03652793
254	0xbd61d065	-0.05513038
255	0xbd2be01e	-0.04196178

weight f4 [192]
0	0x3f5210b1	0.8205672
1	0x3f5e537c	0.8684614
2	0x3f57c56e	0.8428563
3	0x3f495086	0.78638494
4	0x3f43a517	0.7642378
5	0x3f3b612c	0.7319515
6	0x3f435d65	0.76314384
7	0x3f4ea9da	0.8072792
8	0x3f33d6cf	0.70249647
9	0x3f4b0cb7	0.79316276
10	0x3f5a2efd	0.8522795
11	0x3f2aaf4e	0.66673744
12	0x3f27f647	0.65610164
13	0x3f279670	0.65463924
14	0x3f46329f	0.7742099
15	0x3f49725c	0.78690124
16	0x3f50d02c	0.81567645
17	0x3f5629cb	0.8365752
18	0x3f4397e1	0.76403624
19	0x3f486391	0.78276926
20	0x3f353831	0.70788866
21	0x3f4c0e6c	0.79709506
22	0x3f667fb0	0.90038586
23	0x3f43f8f6	0.7655176
24	0x3f3868aa	0.72034705
25	0x3f5490a9	0.83033234
26	0x3f2e4801	0.6807862
27	0x3f40378a	0.75084746
28	0x3f32710d	0.6970375
29	0x3f405ae9	0.7513872
30	0x3f3db03b	0.7409703
31	0x3f47dcc5	0.7807124
32	0x3f27ed48	0.6559644
33	0x3f358c79	0.7091747
34	0x3f5a5b5c	0.85295653
35	0x3f55d064	0.83521104
36	0x3f3cc9d7	0.73745483
37	0x3f6002b5	0.8750413
38	0x3f30204d	0.6879929
39	0x3f33810e	0.70118797
40	0x3f4a4d8c	0.7902458
41	0x3f4b5eb1	0.7944136
42	0x3f38a225	0.7212241
43	0x3f5aa9cd	0.85415345
44	0x3f33412c	0.7002132
45	0x3f3827d9	0.719358
46	0x3f31a2ce	0.69389045
47	0x3f3f8ae9	0.74821335
48	0x3f4c6df2	0.79855263
49	0x3f23db8b	0.6400687
50	0x3f552cc0	0.8327141
51	0x3f539fa2	0.82665455
52	0x3f529862	0.8226377
53	0x3f538fdb	0.8264138
54	0x3f54da5e	0.831457
55	0x3f5af3be	0.8552817
56	0x3f442079	0.7661205
57	0x3f563a2d	0.8368252
58	0x3f41bc1d	0.75677663
59	0x3f27984d	0.6546677
60	0x3f594a27	0.8487877
61	0x3f42541c	0.7590959
62	0x3f4cbc7a	0.7997509
63	0x3f4353a7	0.7629952
64	0x3f4cb4e9	0.79963547
65	0x3f556cab	0.8336894
66	0x3f43a93a	0.76430094
67	0x3f4e94ba	0.8069569
68	0x3f2fbde3	0.6864912
69	0x3f410a92	0.75406754
70	0x3f305f27	0.6889519
71	0x3f49748e	0.78693473
72	0x3f329297	0.6975493
73	0x3f420398	0.75786734
74	0x3f505e83	0.81394213
75	0x3f367dd6	0.7128576
76	0x3f60b949	0.8778272
77	0x3f549d40	0.83052444
78	0x3f4ad8d1	0.79237086
79	0x3f241ad7	0.64103454
80	0x3f30e6df	0.6910228
81	0x3f3799ff	0.71719354
82	0x3f52e3b4	0.823787
83	0x3f54fda6	0.83199537
84	0x3f22a9c5	0.635403
85	0x3f4d0c4e	0.800969
86	0x3f5d073c	0.86339164
87	0x3f5fd754	0.8743794
88	0x3f46f845	0.7772258
89	0x3f4f8b0c	0.81071544
90	0x3f47ec38	0.78094816
91	0x3f4426ed	0.76621896
92	0x3f51ef91	0.82006174
93	0x3f5127b2	0.81701195
94	0x3f3fd141	0.7492867
95	0x3f4d6373	0.8022987
96	0x3f2cae23	0.6745321
97	0x3f32d5e1	0.69857603
98	0x3f2439d9	0.6415077
99	0x3f3fedba	0.74972117
100	0x3f4f707e	0.81031024
101	0x3f4b4163	0.7939665
102	0x3f51267f	0.81699365
103	0x3f5cbf13	0.86229056
104	0x3f273189	0.6530996
105	0x3f4a55a7	0.79036945
106	0x3f2a0f50	0.66429615
107	0x3f30dedb	0.6909005
108	0x3f595946	0.84901845
109	0x3f47b767	0.78014225
110	0x3f5f5572	0.87239754
111	0x3f490a4b	0.7853133
112	0x3f2fb422	0.68634236
113	0x3f51ab45	0.8190196
114	0x3f538963	0.8263151
115	0x3f4acb81	0.7921677
116	0x3f4784c5	0.77936965
117	0x3f4e5deb	0.8061206
118	0x3f4f229d	0.8091219
119	0x3f420749	0.75792366
120	0x3f380d92	0.71895707
121	0x3f2c5d97	0.67330307
122	0x3f4074cf	0.75178236
123	0x3f370265	0.7148803
124	0x3f3c79ad	0.7362316
125	0x3f588f96	0.84594095
126	0x3f4a92d5	0.791303
127	0x3f3b1d19	0.73091274
128	0x3f3c6a28	0.7359948
129	0x3f4da430	0.80328655
130	0x3f495dec	0.7865894
131	0x3f556b33	0.833667
132	0x3f24d6cc	0.64390254
133	0x3f261bc2	0.64886105
134	0x3f3e608e	0.7436608
135	0x3f44ff4e	0.76952064
136	0x3f5573d5	0.8337987
137	0x3f4384a4	0.7637427
138	0x3f55ed10	0.83564854
139	0x3f4bd8d0	0.79627705
140	0x3f65fe49	0.89841133
141	0x3f4f34ed	0.80940133
142	0x3f66b062	0.9011289
143	0x3f4fa32a	0.81108344
144	0x3f5111c7	0.8166775
145	0x3f2cab03	0.67448443
146	0x3f549703	0.83042926
147	0x3f41c056	0.75684106
148	0x3f360bae	0.7111157
149	0x3f3aebfc	0.73016334
150	0x3f4d94c4	0.80305123
151	0x3f321dfd	0.6957701
152	0x3f4a39d7	0.78994507
153	0x3f3d2899	0.7389007
154	0x3f5acf17	0.85472244
155	0x3f52b025	0.82300025
156	0x3f54ff54	0.832021
157	0x3f499cf4	0.78755116
158	0x3f43d07d	0.7649
159	0x3f4ac5ec	0.79208255
160	0x3f20c10d	0.6279457
161	0x3f3e4ba2	0.74334157
162	0x3f486035	0.782718
163	0x3f445abd	0.76700956
164	0x3f5ac49e	0.85456264
165	0x3f3abf9d	0.7294863
166	0x3f3b274d	0.73106843
167	0x3f392d19	0.7233444
168	0x3f44535c	0.76689696
169	0x3f4a68c3	0.79066104
170	0x3f484c42	0.7824136
171	0x3f567bca	0.8378264
172	0x3f3e2d49	0.7428785
173	0x3f3aabd3	0.7291843
174	0x3f0e388c	0.55555034
175	0x3f399246	0.7248882
176	0x3f5ff743	0.87486666
177	0x3f4a072d	0.789172
178	0x3f5706f8	0.8399501
179	0x3f59f7e7	0.85143894
180	0x3f3badca	0.73312056
181	0x3f478dc2	0.7795068
182	0x3f3516ef	0.7073812
183	0x3f5302aa	0.8242594
184	0x3f244c0d	0.64178544
185	0x3f42f2d6	0.7615179
186	0x3f47f5b0	0.78109264
187	0x3f239e87	0.6391377
188	0x3f592519	0.8482223
189	0x3f4c7772	0.7986976
190	0x3f5fa454	0.8736012
191	0x3f521fdb	0.8207986

bias f4 [192]
0	0x3e01ea34	0.12686998
1	0x3e222fc9	0.15838541
2	0xbcda21b3	-0.026627397
3	0xbc8061aa	-0.01567157
4	0xbccf59bb	-0.025311342
5	0xbd4cc4f8	-0.04999253
6	0xbcbe2283	-0.023209816
7	0x3e100146	0.14062986
8	0xbd8ee517	-0.06977289
9	0x3e01b0e9	0.12665142
10	0xbd352496	-0.044224344
11	0xbdd1e4cf	-0.1024872
12	0xbdb2ec20	-0.087364435
13	0x3d1e5c88	0.038662463
14	0xbd8140a9	-0.06311161
15	0xbd7c6647	-0.061620977
16	0x3da4050e	0.080087766
17	0x3c148f6f	0.0090674
18	0xbd0dc3df	-0.034610625
19	0x3de95dc5	0.11394838
20	0xbe068243	-0.13135628
21	0xbd78345a	-0.0605968
22	0x3d7cafe4	0.06169118
23	0x3c44956b	0.011998515
24	0xbd949104	-0.07254222
25	0xbb22eb70	-0.002485957
26	0xbdef5f15	-0.11688057
27	0x3d96e91a	0.07368679
28	0xbd09ac78	-0.033611745
29	0x3df47a4e	0.1193739
30	0xbd715797	-0.058921423
31	0xbadc617a	-0.0016813718
32	0xbdc87050	-0.09787047
33	0xbe0796c5	-0.13241108
34	0x3e3e3b4b	0.18577306
35	0x3dafbc84	0.085808784
36	0xbdac2536	-0.08405535
37	0xb90cddd1	-0.00013434073
38	0x38d0ec73	9.962255e-05
39	0xbd42f267	-0.047594454
40	0x3c803e52	0.015654717
41	0xbd0ad6c2	-0.033896215
42	0xbbd60119	-0.0065308926
43	0x3e64367c	0.22286409
44	0xbd810142	-0.06299068
45	0xbd806046	-0.06268363
46	0xbd28cd65	-0.041211504
47	0xbda32d3f	-0.079676144
48	0xbcb30aa4	-0.02185566
49	0xbde90067	-0.1137703
50	0x3c3d2b7b	0.011546011
51	0xbd86ea9e	-0.065877184
52	0xbd00e69c	-0.031469926
53	0xbc88f6aa	-0.016719181
54	0xbd048a7c	-0.03235863
55	0x3e207443	0.1566935
56	0x3b80be58	0.0039289407
57	0x3aedb561	0.001813572
58	0xbcc14c71	-0.02359602
59	0xbd972662	-0.07380368
60	0x3dda2702	0.106519714
61	0x3aee3133	0.0018172621
62	0x3d2a72f1	0.041613523
63	0xbda594b6	-0.08085005
64	0x3d6c6a56	0.057718597
65	0x3e4dff92	0.20117024
66	0x3c974daa	0.01846965
67	0xbd49796e	-0.04918807
68	0xbccdcbc8	-0.025121585
69	0x3d06536a	0.032794394
70	0x3d157999	0.036492918
71	0xbd09a209	-0.033601794
72	0xbdc5e310	-0.09662449
73	0x3d4e5568	0.05037442
74	0x3da5219d	0.08063052
75	0xbcb90674	-0.022586085
76	0x3e0432b1	0.12909962
77	0x3e4e088f	0.20120452
78	0x3d825ad5	0.06364981
79	0xbdf77a35	-0.12083856
80	0x3c91296d	0.017719949
81	0x3dbba166	0.09161644
82	0x3cf17fd9	0.029479908
83	0x3cab517c	0.020912878
84	0xbd840ac6	-0.06447367
85	0xbd48be11	-0.049009386
86	0xbd0b1daa	-0.033963837
87	0xbafe94a0	-0.0019422956
88	0xbdf5a22a	-0.11993821
89	0xbd0e4c43	-0.034740698
90	0xbc58cf8a	-0.013233075
91	0xbcad33c3	-0.021142846
92	0xbd7d48c6	-0.06183698
93	0x3e336180	0.17517662
94	0xbcd597dd	-0.02607339
95	0x3e1e6429	0.15467896
96	0xbd54daed	-0.051966596
97	0xbde8b077	-0.11361783
98	0xbd8ac183	-0.06775191
99	0xbd88975d	-0.06669495
100	0xbd995cf9	-0.07488436
101	0xbdcfdf38	-0.101499975
102	0x3cb9f536	0.022699933
103	0xbd4b3ea9	-0.049620304
104	0xbd9472ee	-0.072484836
105	0xbd1a4823	-0.03766645
106	0xbda1456c	-0.07874569
107	0xbd9c00e2	-0.07617356
108	0xbd84688b	-0.064652525
109	0x3d1be105	0.038056392
110	0x3d655aad	0.05599468
111	0x3e0f00e2	0.1396518
112	0xbd818971	-0.06325043
113	0x3cc118da	0.02357142
114	0xbd897b55	-0.06712977
115	0x3d818b83	0.06325438
116	0x3da76236	0.08173029
117	0x3e046446	0.12928876
118	0x3e22936b	0.15876548
119	0xbd7d2655	-0.061804134
120	0xbdfa58ae	-0.122239456
121	0xbd8931a0	-0.06698918
122	0xbdb57f15	-0.088621296
123	0xbdb45c62	-0.08806683
124	0xbb5f2599	-0.003404951
125	0x3e2430cf	0.16034244
126	0x3d48355c	0.048879012
127	0xbcccdd16	-0.025007766
128	0xbd847f7b	-0.064696275
129	0xbd829dfb	-0.06377789
130	0x3dcdc6b3	0.100476645
131	0x3dd57085	0.10421852
132	0xbddbd1ad	-0.10733352
133	0xbdd24f24	-0.10269001
134	0xbce578e3	-0.028011745
135	0xbcdb2270	-0.02674982
136	0x3d46f845	0.048576612
137	0xbd8edb53	-0.069754265
138	0x3d577830	0.052604854
139	0xbccb9aea	-0.024854142
140	0x3db2e1b8	0.08734459
141	0x3d1e5d85	0.038663406
142	0xbcbae1ac	-0.022812687
143	0x3c179701	0.009252311
144	0x3bd7ed05	0.006589534
145	0xbe2585f3	-0.16164379
146	0xbd194f4e	-0.037429146
147	0xbd61b9bb	-0.055108767
148	0x3dbdc755	0.09266535
149	0xbd85e357	-0.06537502
150	0xbc23089b	-0.009950782
151	0xbd5956a2	-0.053061135
152	0xbd2cc48b	-0.042179625
153	0x3c20b43a	0.009808594
154	0xbd1b3973	-0.037896585
155	0x3e0ce9d7	0.13761078
156	0x3e2bbd07	0.16771327
157	0x3da64543	0.081186794
158	0xbca17881	-0.019710781
159	0x3d980196	0.074221775
160	0xbd5f2e10	-0.054487288
161	0x3dbd1031	0.09231604
162	0xbc608511	-0.0137036005
163	0x3d839d91	0.06426538
164	0x3e1f9c8c	0.15587062
165	0x3bff696c	0.0077945497
166	0xbbbfe1b0	-0.0058557615
167	0xba529eae	-0.00080345094
168	0xbcf7ed7a	-0.030264605
169	0xbe097c9f	-0.13426445
170	0x3d8306ce	0.06397782
171	0x3e2ff358	0.17182672
172	0xbd5693a3	-0.05238689
173	0x3e18a48c	0.1490652
174	0xbe3191b6	-0.1734074
175	0xbde73b9b	-0.11290666
176	0xbcb77130	-0.02239284
177	0xbd4db02b	-0.050216835
178	0x3d73fa1f	0.059564706
179	0x3e231d11	0.15929057
180	0xbcc8b173	-0.024498677
181	0x3bf23a37	0.0073921937
182	0xbda861e5	-0.08221797
183	0xbce6f186	-0.02819134
184	0xbd9d2259	-0.07672567
185	0x3d85beb0	0.065305114
186	0x3c83f905	0.016109953
187	0xbd9d7a86	-0.07689385
188	0x3e1f4000	0.15551758
189	0x3d1fa00e	0.038971
190	0xbc811229	-0.01575573
191	0x3dfe4dd6	0.1241719
