Graph Neural Network/Models/SAGEConv_LSTM-D2-F1-mean.pth (torch, 764722 bytes, 23 tensors)

weight_ih_l0 f4 [384, 96]
000000 44 db 12 bc 71 d6 12 bc ea d8 12 bc c0 da 12 bc
       -0.00896341 -0.00896226 -0.008962849 -0.008963287
000010 47 d7 12 bc 63 d8 12 bc 73 d6 12 bc 5a db 12 bc
       -0.008962459 -0.008962723 -0.0089622615 -0.00896343
000020 bc d9 12 bc 30 d7 12 bc f9 d9 12 bc 0a d5 12 bc
       -0.008963045 -0.0089624375 -0.008963102 -0.008961925
000030 d5 d9 12 bc 27 db 12 bc b8 da 12 bc 29 db 12 bc
       -0.008963068 -0.008963383 -0.008963279 -0.008963385
000040 0d d9 12 bc 61 db 12 bc 7e d5 12 bc cb d5 12 bc
       -0.008962882 -0.008963437 -0.008962033 -0.008962105
000050 ea d3 12 bc 22 d2 12 bc 7f d5 12 bc 69 d8 12 bc
       -0.008961657 -0.008961232 -0.008962034 -0.008962729
000060 7c d6 12 bc f4 da 12 bc 87 d8 12 bc 3c d4 12 bc
       -0.00896227 -0.008963335 -0.008962757 -0.008961733
000070 2f db 12 bc cc d6 12 bc 9d d6 12 bc 03 db 12 bc
       -0.00896339 -0.008962344 -0.008962301 -0.008963349
000080 d2 d7 12 bc 1c d1 12 bc ea d5 12 bc 5f db 12 bc
       -0.008962588 -0.008960988 -0.008962134 -0.008963435
000090 4d db 12 bc 38 db 12 bc 72 da 12 bc a0 d7 12 bc
       -0.008963418 -0.008963399 -0.008963214 -0.008962542
0000a0 9a da 12 bc d6 da 12 bc c6 da 12 bc 56 d9 12 bc
       -0.0089632515 -0.008963307 -0.008963292 -0.00896295
0000b0 af d8 12 bc dc da 12 bc 61 db 12 bc da d4 12 bc
       -0.008962794 -0.008963313 -0.008963437 -0.008961881
0000c0 b5 d9 12 bc 5a d1 12 bc 1a db 12 bc 1f d3 12 bc
       -0.008963038 -0.008961046 -0.008963371 -0.008961468
0000d0 a0 da 12 bc 9d d6 12 bc d3 d2 12 bc 2d db 12 bc
       -0.008963257 -0.008962301 -0.008961397 -0.008963388
0000e0 8e d4 12 bc 4c d5 12 bc 9c d8 12 bc ca d2 12 bc
       -0.00896181 -0.008961987 -0.0089627765 -0.008961389
0000f0 76 da 12 bc 52 db 12 bc 5a d1 12 bc 5a db 12 bc
       -0.008963218 -0.008963423 -0.008961046 -0.00896343
000100 37 d9 12 bc 94 d9 12 bc 2a d9 12 bc 56 da 12 bc
       -0.008962921 -0.0089630075 -0.008962909 -0.008963188
000110 61 db 12 bc ff d9 12 bc 2b db 12 bc 6b d9 12 bc
       -0.008963437 -0.008963107 -0.0089633865 -0.008962969
000120 e8 da 12 bc a0 da 12 bc ed d7 12 bc 2b db 12 bc
       -0.008963324 -0.008963257 -0.0089626135 -0.0089633865
000130 09 d1 12 bc df d4 12 bc 0e db 12 bc dd d4 12 bc
       -0.008960971 -0.008961885 -0.0089633595 -0.008961883
000140 1f d9 12 bc b9 d5 12 bc c8 d8 12 bc e8 d2 12 bc
       -0.0089628985 -0.008962088 -0.0089628175 -0.008961417
000150 a7 d6 12 bc 5d db 12 bc 06 d5 12 bc 9d da 12 bc
       -0.00896231 -0.008963433 -0.008961922 -0.008963254
000160 a7 da 12 bc 37 d2 12 bc 34 d9 12 bc ed d8 12 bc
       -0.008963264 -0.008961252 -0.008962918 -0.008962852
000170 45 d7 12 bc b0 da 12 bc a5 d3 12 bc 2b d3 12 bc
       -0.008962457 -0.008963272 -0.008961593 -0.008961479
000180 b9 57 46 3c 4b 58 46 3c 2c 58 46 3c 07 58 46 3c
       0.012105876 0.012106012 0.012105983 0.012105948
000190 b2 57 46 3c 5a 58 46 3c 57 58 46 3c 2e 58 46 3c
       0.012105869 0.012106026 0.012106023 0.012105985
0001a0 4f 58 46 3c 54 58 46 3c 54 58 46 3c 5e 58 46 3c
       0.012106015 0.01210602 0.01210602 0.012106029
0001b0 ff 57 46 3c 46 58 46 3c 4f 58 46 3c 54 58 46 3c
       0.012105941 0.012106007 0.012106015 0.01210602
0001c0 d9 57 46 3c b5 57 46 3c d4 57 46 3c 5b 58 46 3c
       0.012105905 0.012105872 0.012105901 0.0121060265
0001d0 0e 58 46 3c 06 58 46 3c 61 58 46 3c 56 58 46 3c
       0.012105955 0.012105947 0.012106032 0.012106022
0001e0 59 58 46 3c 04 58 46 3c 06 58 46 3c 46 58 46 3c
       0.012106025 0.0121059455 0.012105947 0.012106007
0001f0 5f 58 46 3c 5f 58 46 3c 4d 58 46 3c 42 58 46 3c
       0.01210603 0.01210603 0.0121060135 0.012106003
000200 19 58 46 3c 59 58 46 3c 10 58 46 3c 2d 58 46 3c
       0.012105965 0.012106025 0.012105957 0.012105984
000210 4f 58 46 3c 35 58 46 3c 59 58 46 3c 3b 58 46 3c
       0.012106015 0.012105991 0.012106025 0.012105997
000220 4c 58 46 3c 5c 58 46 3c 47 58 46 3c 5b 58 46 3c
       0.012106013 0.012106027 0.012106008 0.0121060265
000230 1c 58 46 3c 5b 58 46 3c f0 57 46 3c 2b 58 46 3c
       0.012105968 0.0121060265 0.012105927 0.012105982
000240 5f 58 46 3c 60 58 46 3c 50 58 46 3c 2f 58 46 3c
       0.01210603 0.012106031 0.012106016 0.012105986
000250 2c 58 46 3c 3d 58 46 3c 03 58 46 3c ca 57 46 3c
       0.012105983 0.012105999 0.012105945 0.0121058915
000260 59 58 46 3c 55 58 46 3c 44 58 46 3c 2c 58 46 3c
       0.012106025 0.012106021 0.012106005 0.012105983
000270 d6 57 46 3c 5b 58 46 3c 5a 58 46 3c 5a 58 46 3c
       0.012105903 0.0121060265 0.012106026 0.012106026
000280 5b 58 46 3c 4c 58 46 3c 2e 58 46 3c 36 58 46 3c
       0.0121060265 0.012106013 0.012105985 0.012105992
000290 db 57 46 3c 0a 58 46 3c 0b 58 46 3c 59 58 46 3c
       0.012105907 0.012105951 0.012105952 0.012106025
0002a0 56 58 46 3c 4c 58 46 3c e3 57 46 3c 54 58 46 3c
       0.012106022 0.012106013 0.012105915 0.01210602
0002b0 14 58 46 3c 51 58 46 3c f9 57 46 3c 3d 58 46 3c
       0.01210596 0.012106017 0.012105935 0.012105999
0002c0 5f 58 46 3c 05 58 46 3c 5f 58 46 3c 54 58 46 3c
       0.01210603 0.012105946 0.01210603 0.01210602
0002d0 1f 58 46 3c 54 58 46 3c 31 58 46 3c 5f 58 46 3c
       0.012105971 0.01210602 0.012105987 0.01210603
0002e0 5b 58 46 3c 5a 58 46 3c 0a 58 46 3c 28 58 46 3c
       0.0121060265 0.012106026 0.012105951 0.012105979
0002f0 4e 58 46 3c 30 58 46 3c 5c 58 46 3c 30 58 46 3c
       0.012106014 0.0121059865 0.012106027 0.0121059865
000300 46 7e 98 3c e1 6e 98 3c ee 8c 98 3c 41 8d 98 3c
       0.0186149 0.018607559 0.018621888 0.018622043
000310 c3 86 98 3c 12 70 98 3c c7 80 98 3c 5c 8d 98 3c
       0.018618947 0.018608127 0.018616093 0.018622093
000320 65 74 98 3c 22 76 98 3c ee 6f 98 3c c5 7a 98 3c
       0.018610189 0.018611018 0.01860806 0.018613229
000330 a7 86 98 3c cd 76 98 3c d0 86 98 3c 08 8c 98 3c
       0.018618895 0.018611336 0.018618971 0.01862146
000340 5b 6f 98 3c 00 8d 98 3c 19 8a 98 3c 8f 85 98 3c
       0.018607786 0.018621922 0.018620538 0.018618373
000350 3d 89 98 3c 0b 88 98 3c a8 6d 98 3c eb 7f 98 3c
       0.018620128 0.018619558 0.018606976 0.018615684
000360 8f 73 98 3c 8a 79 98 3c 47 6d 98 3c 64 70 98 3c
       0.01860979 0.018612642 0.018606795 0.01860828
000370 dd 8b 98 3c 76 86 98 3c e6 79 98 3c 62 7e 98 3c
       0.01862138 0.018618803 0.018612813 0.018614952
000380 70 74 98 3c c4 86 98 3c 39 7d 98 3c c9 8d 98 3c
       0.01861021 0.018618949 0.018614398 0.018622296
000390 06 78 98 3c 83 8d 98 3c be 8a 98 3c c6 70 98 3c
       0.01861192 0.018622166 0.018620845 0.018608462
0003a0 ed 7f 98 3c df 7c 98 3c 2f 8d 98 3c 26 73 98 3c
       0.018615687 0.01861423 0.01862201 0.018609595
0003b0 89 8b 98 3c 21 8d 98 3c b8 76 98 3c 4a 86 98 3c
       0.018621223 0.018621983 0.018611297 0.018618722
0003c0 e4 75 98 3c dd 6d 98 3c b9 70 98 3c 87 7a 98 3c
       0.018610902 0.018607074 0.018608438 0.018613113
0003d0 ba 7d 98 3c a4 8b 98 3c d9 84 98 3c bb 8b 98 3c
       0.018614639 0.018621273 0.018618034 0.018621316
0003e0 e7 84 98 3c 86 78 98 3c ce 7a 98 3c ab 78 98 3c
       0.01861806 0.018612158 0.018613245 0.018612226
0003f0 b9 7d 98 3c 18 6d 98 3c cc 78 98 3c 17 6e 98 3c
       0.018614637 0.018606707 0.018612288 0.018607182

weight_hh_l0 f4 [384, 96]
000000 83 b5 a0 ba a6 7d dc 3b bc a1 08 3c 78 c8 e7 bb
       -0.0012261126 0.0067288456 0.008339342 -0.0070734583
000010 cb a7 fa bb 9a d1 25 3c 43 6c b0 bb 93 7e d2 3b
       -0.007649397 0.010120774 -0.0053839996 0.00642378
000020 d5 d2 cc bb 33 ba a8 39 0a df 21 ba ba d2 05 3c
       -0.006250719 0.00032182186 -0.0006174898 0.008167917
000030 a3 5d 04 bb 15 a0 52 bb f4 78 b4 3b 99 22 73 ba
       -0.0020197413 -0.0032138873 0.005507583 -0.000927487
000040 5e bc 94 3b 1a 0a 11 3b 41 da 93 3b 41 46 20 3c
       0.0045390567 0.0022131265 0.004512102 0.009782375
000050 e6 a2 09 3c b0 a3 02 bc ba 4d 2e bc e7 44 15 3c
       0.008400654 -0.007973596 -0.010638649 0.009110666
000060 77 14 1b bc 16 c2 cd 3b 16 5c 31 3c 95 35 dd bb
       -0.009465328 0.0062792404 0.010825178 -0.0067507722
000070 07 59 cc 3b d8 bd cf b9 39 fa cf bb 92 de 60 3c
       0.006236199 -0.0003962356 -0.0063469675 0.01372494
000080 98 ce 24 bc 47 2c 3e bb b2 d2 7c b9 dc 1d bf ba
       -0.010059021 -0.002901809 -0.00024111083 -0.0014581042
000090 df 09 84 3b 7c b7 0a bc 3a 05 05 bc c7 30 ea 3b
       0.004029497 -0.008466598 -0.008118922 0.007146928
0000a0 0c 7c d0 3b dd 0c 90 bc 5e c7 fc bb 0d 29 a3 3a
       0.006362444 -0.017584259 -0.007714196 0.0012448147
0000b0 aa 2a 7e ba 6d 95 40 ba 68 ef a2 3b 20 17 1c bc
       -0.00096956885 -0.0007346485 0.004972387 -0.009526998
0000c0 8b f9 de 3b df eb 28 b9 2a ad 53 ba 4c dd be 3b
       0.00680465 -0.00016109597 -0.00080748147 0.0058247205
0000d0 d1 17 f7 bb 7d d7 dc ba 7c 7e 00 bc 54 53 03 3c
       -0.007540681 -0.0016848888 -0.007842656 0.008015472
0000e0 e4 f6 08 bc ec 64 bb bb 35 ea cf bb 5f ce af 3b
       -0.008359645 -0.005718818 -0.0063450583 0.0053651775
0000f0 1c 77 ee 39 19 65 0c ba 24 5a 82 bb 30 1c 10 ba
       0.0004548364 -0.0005355641 -0.0039780308 -0.00054973643
000100 b1 55 2c 3c 7e 64 b0 bb 1b e4 e5 3b 18 c0 98 3b
       0.010518477 -0.0053830734 0.0070157177 0.0046615712
000110 7b 73 28 bc fa 97 a6 3b 46 d3 99 bb 64 bd f4 bb
       -0.010281439 0.005084035 -0.004694375 -0.007468866
000120 54 7e d4 3b b0 64 6d bb 5b 1b 24 bc 54 72 59 3a
       0.006484786 -0.0036223345 -0.010016288 0.0008294929
000130 91 bf a2 bb 83 02 10 3a d9 47 67 ba aa 2c 28 bc
       -0.004966684 0.00054935383 -0.0008822657 -0.010264555
000140 c6 f4 82 3b 06 0e b9 3b eb d6 cf 39 2a 23 8b 38
       0.0039964644 0.0056474237 0.00039642243 6.634586e-05
000150 8c 29 06 bc 27 64 b4 bb e5 99 97 bb fd 28 89 3b
       -0.0081886165 -0.005505103 -0.0046265 0.0041857944
000160 da 19 46 bb e4 40 5d 3c 8b 86 89 bc 2f e4 e3 bb
       -0.003022781 0.013504241 -0.016787788 -0.006954692
000170 f0 b9 0a 3c 4a 74 f5 3b 1d b6 93 3c 69 b8 95 39
       0.0084671825 0.0074906694 0.018031174 0.0002855689
000180 91 c0 82 bb 6b e6 97 bb cc ad a0 3b 08 99 a7 3b
       -0.003990241 -0.0046356223 0.0049035307 0.0051146783
000190 90 6a ec bc ed 04 c8 3c 82 cb f4 bb a3 e5 9f 38
       -0.028859407 0.024416411 -0.007470549 7.624484e-05
0001a0 02 a0 46 bc 58 10 97 ba b4 6f 78 3b 60 cb 48 bb
       -0.01212311 -0.0011525257 0.0037908377 -0.00306388
0001b0 dd d1 5a 3c 42 98 dc 3a 94 d6 de 3a de 85 b3 39
       0.013355699 0.0016830044 0.0017001205 0.0003424128
0001c0 e0 ce 77 3c 08 d5 52 3b 12 07 70 3c 63 1f d0 3c
       0.015125006 0.0032170434 0.014650123 0.025405591
0001d0 4c 69 9c bb 2c 4f d9 bc 13 25 b0 bc 9b 2e e1 3a
       -0.0047732946 -0.02652701 -0.021502053 0.0017180027
0001e0 89 63 ba bc 71 91 9e bb 6e a0 ef 3c 55 0e 8b 3b
       -0.02275254 -0.0048391153 0.029251304 0.004243652
0001f0 94 5c 80 bb c3 32 20 3a d7 5e 06 3c 29 e1 ff 3c
       -0.003917286 0.000611108 0.0082013225 0.031235294
000200 8d 66 06 bd eb 5f e2 3b ea cc 5e bb 21 58 ec bc
       -0.032812644 0.006908407 -0.003399665 -0.028850617
000210 83 53 59 bb a1 39 52 3b bc 47 b7 3b 7d 98 70 bb
       -0.003316135 0.0032077807 0.005593268 -0.0036711984
000220 05 09 7a bb b4 6c b1 bc b3 5e 7a 3b 4b fb 96 3a
       -0.0038152349 -0.021658279 0.0038203418 0.0011518983
000230 77 f9 d9 3b 07 2b 7a ba 96 8d 63 3c 8d b4 b2 bc
       0.006652053 -0.0009543155 0.013888737 -0.021814609
000240 29 cb 9b bb 16 1d a7 3a 8a 9e 5b 3c 63 86 35 3b
       -0.004754443 0.0012749757 0.013404498 0.002769851
000250 9e 47 71 bb be fc 19 3a 48 32 93 bc 5f 49 96 3c
       -0.0036816369 0.00058741483 -0.017968312 0.018345533
000260 9d fe 38 3b 65 65 21 bb a9 68 dc 3b 02 0f e3 ba
       0.0028227933 -0.0024627086 0.0067263437 -0.0017323198
000270 81 f9 1d bb 5e 83 41 bb f9 cd 06 3c 50 53 03 bb
       -0.0024105015 -0.0029527764 0.008227819 -0.0020038672
000280 2c 3b 15 3d a8 3c 30 3b 54 ae 6b bb c5 01 90 3c
       0.036433384 0.0026891623 -0.0035962062 0.017578969
000290 41 49 63 bb 74 3f e5 bb 94 87 08 bc 8b 9d b7 3b
       -0.0034681114 -0.0069960896 -0.008333106 0.0056034974
0002a0 14 f6 c1 bb 5f d1 c3 3b 4a c9 b2 bc a2 ae d1 bb
       -0.0059192274 0.0059758867 -0.021824498 -0.0063989917
0002b0 5a 62 2c 3c 70 e8 96 ba 65 9d 01 3b 2c e7 2e bd
       0.010521496 -0.0011513364 0.0019777652 -0.04270093
0002c0 41 be b9 bb 4f c6 da bb 2c 6d e3 3c 2d bf 86 ba
       -0.005668432 -0.0066764723 0.027762018 -0.0010280363
0002d0 d2 c8 00 3b f8 45 d9 3b a7 af 02 3c 8b 04 4e bc
       0.0019650948 0.0066306554 0.007976449 -0.012574325
0002e0 ce 92 83 3b 83 3d 46 3d 87 17 3c bd 5f f6 cc bc
       0.004015303 0.048398506 -0.045920875 -0.025019823
0002f0 d2 8b 10 3d 83 1a 07 3c 7c 50 4f 3d ad 2a d8 bb
       0.035289593 0.008246067 0.050613865 -0.006596884
000300 60 79 1b bc 01 1c 14 3c 0a 27 22 3d 10 f9 ed bb
       -0.009489387 0.00903988 0.03958801 -0.0072623566
000310 1a 12 f6 3b 62 7a 0b bd 46 e0 a6 bb 4c 5d ca 3c
       0.007509482 -0.03405226 -0.0050926534 0.02470269
000320 58 4a e4 3b 9d 6b a9 39 c9 66 86 3a 87 21 4e 3c
       0.0069668703 0.0003231437 0.0010254021 0.012581236
000330 ba b6 bf 3b 46 ea 31 bc cf 7e dd 3c 17 c3 05 bc
       0.00585064 -0.010859078 0.027038006 -0.008164189
000340 41 4b ee 3c 37 1b 47 3c c9 aa fd bc 8a 29 89 bb
       0.029088618 0.012152485 -0.030965226 -0.00418586
000350 b5 c4 e2 3c 67 cd 46 b9 8b 8f d7 3c 6b ee 02 3d
       0.027681688 -0.0001895927 0.026313564 0.031965654
000360 34 0e 69 3c 2d 24 d2 3b 41 be bc 3c 68 7b 24 bc
       0.014224578 0.006413004 0.023039939 -0.010039188
000370 df e4 ef 3b a3 e5 9d b9 19 4b 5a bb 8e 47 83 bc
       0.0073209847 -0.00030116466 -0.0033308922 -0.01602533
000380 4f 06 2a bb a8 05 26 3b f3 10 55 bb 18 1e c3 bc
       -0.0025943702 0.0025332961 -0.0032511323 -0.02381806
000390 a1 1e e4 bb 51 24 5e bc d6 08 65 bc 56 c8 ec 3b
       -0.006961659 -0.013558463 -0.013979157 0.0072260303
0003a0 36 37 17 3c bb 81 4b 3d c9 dc 43 bc d5 c4 12 3c
       0.009229472 0.049684267 -0.011954495 0.008958061
0003b0 6c 56 71 bc 65 e2 4f bb ae e3 ed 3b 75 0f be 3c
       -0.014730077 -0.0031720635 0.0072598075 0.02320073
0003c0 9d a1 39 3c 2b dc ed 3a 8e ea 62 3c d7 14 b1 3b
       0.0113300355 0.001814728 0.0138498675 0.0054040956
0003d0 1f c0 1b bd 60 70 1c bd dc f6 a4 3c 2b 60 ba 3c
       -0.038025018 -0.038193107 0.020137243 0.022750935
0003e0 8c d8 81 bc 78 a6 2f ba fa 21 3b bb 59 7b f5 bb
       -0.015850328 -0.0006700526 -0.0028554187 -0.007491511
0003f0 0e 4b 93 ba c7 b3 3f bc bc de fd 3a bf 3f 15 bc
       -0.0011237578 -0.011700577 0.0019368748 -0.009109437

bias_ih_l0 f4 [384]
000000 64 51 55 bc d6 50 15 3d e4 7a c0 bc 35 1b db 3c
       -0.013019893 0.036454044 -0.023496099 0.026746372
000010 af 31 82 bc 75 00 dd bc fb 38 39 3b a3 ee e0 3c
       -0.015892832 -0.026977757 0.0028262723 0.02745754
000020 40 43 1e bd 19 ae 68 bc b1 f6 e8 bb 62 e0 fd 3c
       -0.038638353 -0.014201664 -0.007109486 0.030990783
000030 58 2e 2e 3a 5f 7f 92 bc f8 1d ed 3c ec e1 0e bd
       0.0006644479 -0.017883 0.028944954 -0.034883425
000040 93 57 06 bd 19 aa 05 bd 38 02 2f bd dc ee 64 bd
       -0.03279836 -0.03263292 -0.042726725 -0.055891857
000050 54 cb 86 3d 46 8e ca bc b9 1d 60 bc 8a 83 99 3c
       0.065817505 -0.024726044 -0.013678961 0.01873948
000060 50 99 37 bd 8c 11 5f b9 0e 17 2a 3b 35 f7 a6 3c
       -0.044823945 -0.00021273474 0.0025953683 0.02038155
000070 76 76 e8 b7 19 a9 8c bc 79 da 48 bb 07 d8 87 bd
       -2.7711718e-05 -0.017170476 -0.0030647798 -0.06633001
000080 73 f6 91 3c 06 19 86 bb 35 e5 e0 bc ab 99 20 3d
       0.017817711 -0.0040923385 -0.027453044 0.03920905
000090 74 ee 84 bc 6d 80 5e 3d e5 a6 97 3d d1 58 f8 3c
       -0.016226985 0.054321695 0.074048795 0.030315788
0000a0 a2 df 97 bc 26 52 25 bd 6d 62 68 3d 10 12 cb bc
       -0.018539254 -0.040361546 0.05673449 -0.024788886
0000b0 78 4a b2 3c a9 7f 16 bc f7 ee a6 3b 14 48 72 bd
       0.021764025 -0.00918571 0.005094405 -0.05915077
0000c0 71 e2 bd 3a c4 55 7b bc 0a 01 dd 3a d0 9d 89 bc
       0.001448704 -0.015340272 0.0016861272 -0.016798884
0000d0 a9 f4 83 bc eb e5 d2 bc 97 91 52 3c 69 5d 39 3d
       -0.016107874 -0.025744399 0.012852094 0.0452551
0000e0 12 cd ab 3c e6 63 98 bc 9f 98 09 bb 67 d7 d5 3b
       0.020971809 -0.018602323 -0.002099551 0.006525922
0000f0 7e bb 18 bc 24 bc 10 bd 66 ef 02 bc 9b e0 09 bd
       -0.009322045 -0.035335675 -0.007991647 -0.033661466
000100 95 7e c9 3c d5 6a cf ba 69 4c 62 bb 4c ac a1 ba
       0.024596492 -0.0015824685 -0.0034530407 -0.0012334674
000110 e2 22 89 3c a8 42 00 3b 50 ee d7 3c e8 ef 50 3b
       0.016740266 0.001957098 0.026358753 0.0031881277
000120 99 44 a6 3b e3 31 89 bc bc 49 24 bd 6d b3 0f bc
       0.0050740954 -0.01674742 -0.04010938 -0.008770806
000130 93 ac ae bb 82 4b e1 bb b5 88 1a bd 80 7a e7 3c
       -0.005330631 -0.0068754563 -0.03772803 0.028256655
000140 6f 09 50 3d 42 b0 09 bc 2c 09 11 3d 1d 01 5c bc
       0.050790247 -0.00840384 0.035409138 -0.013428
000150 8d 3e fe 3b d1 f9 a5 bb c5 c5 5e bc 0c c7 19 bb
       0.0077589215 -0.005065181 -0.013596957 -0.0023464588
000160 10 1e 32 bb a7 44 0e bc 33 a7 f7 bc 65 64 99 3c
       -0.0027178563 -0.00868336 -0.030231094 0.01872463
000170 1e 42 6f bc da 87 c0 3c ae 77 fd bc 88 45 28 bc
       -0.014603166 0.02350228 -0.030940857 -0.010270484
000180 3d 21 02 bc 65 92 24 3d 46 e6 cf 3d 48 b7 fe 3c
       -0.007942495 0.040178675 0.10151343 0.031093255
000190 39 f6 8a 3b c9 4c 00 3e b5 c7 67 3c a6 ba 6e 3d
       0.004240778 0.12529291 0.014146735 0.05828347
0001a0 05 42 7b 3d da a7 51 bc 75 19 f3 bb fe 41 38 3d
       0.061342258 -0.012796367 -0.007418806 0.04498481
0001b0 62 b4 de bb f9 e0 44 bc 98 91 a8 3d d9 79 fe bc
       -0.0067964057 -0.012016528 0.08230895 -0.03106396
0001c0 ae f2 27 bd a6 0b e2 bc f2 9f b8 3d f3 e2 33 3d
       -0.04100292 -0.027593445 0.09014882 0.043917608
0001d0 9d f0 e0 3d 6f 37 11 bd 65 9d 99 3d 31 fd ee 3d
       0.10983393 -0.035453256 0.07500724 0.11669386
0001e0 63 e1 f4 3c 93 62 51 3c 6e bb 73 3d f9 0c 1c 3d
       0.029892629 0.01277985 0.05950492 0.03809831
0001f0 d0 dd a6 3c 32 d9 79 bc 37 8b 23 ba 5d f6 82 3d
       0.02036944 -0.015249537 -0.0006238701 0.06394646
000200 e0 40 6f 3c 71 8e 32 bc a3 f7 fb bc d1 c5 90 3c
       0.01460287 -0.0108982185 -0.03075773 0.017672451
000210 dd 8a 52 3c 84 c9 94 3d a2 fd f4 3d 70 54 09 3d
       0.01285049 0.072649986 0.11962439 0.03352779
000220 71 75 ff 3c 4f 48 4b 3e a4 9f c4 3d 4a 78 02 bd
       0.03118393 0.19851802 0.096007615 -0.031852998
000230 91 52 c3 3c cb e6 16 bc 43 16 26 3b ea e8 4e 3b
       0.023843082 -0.009210299 0.002534286 0.0031571933
000240 b9 ba 0f 3d 84 4c 84 bc 90 7d 92 bb 8d 37 f8 ba
       0.035090182 -0.016149767 -0.0044705346 -0.0018937454
000250 36 62 50 3d 03 b5 92 3d dc 0c 8f 3d c0 b6 86 3c
       0.05087491 0.071634315 0.069848746 0.016444564
000260 41 b3 99 3d 20 37 d0 b9 f2 0d 1c 39 a3 8f 33 3c
       0.07504893 -0.00039713923 0.00014882514 0.010959539
000270 67 01 08 bc 10 2f 18 bd 08 20 93 bb 7b 4c 10 bd
       -0.008301116 -0.037154257 -0.0044899024 -0.035229187
000280 6e 4c 67 3d 04 33 9d 3b b1 9a 16 3d 39 55 a7 3b
       0.056469373 0.0047973413 0.03676862 0.005106595
000290 9b 4d 06 3e 36 fe ea 3a 32 6b f3 3d 34 dd f0 3c
       0.13115542 0.0017928544 0.1188568 0.029402353
0002a0 49 cd 8f 3c 2c df 39 bc 3d 57 db 3c 3a a6 09 bc
       0.017553942 -0.011344712 0.026774997 -0.008401448
0002b0 f5 19 25 bb a6 88 83 bb 0e 63 d2 bc 49 ca ba 3c
       -0.0025192474 -0.0040140925 -0.025681999 0.022801535
0002c0 d4 f1 0f 3d f1 bf aa bb c9 b1 5d 3c 45 f2 44 bc
       0.035142735 -0.0052108695 0.013531157 -0.012020652
0002d0 57 5d 59 3d ac 69 b3 bb 6d c1 3d bc 46 61 f7 bb
       0.05306753 -0.0054752436 -0.011581761 -0.0075494377
0002e0 b9 f3 d7 bb 39 02 15 3c 6c a6 b1 3d 14 70 38 3d
       -0.0065903333 0.009094768 0.086743206 0.04502876
0002f0 4f 12 f6 39 f9 25 8d 3d 70 04 f0 3d ac d3 28 bc
       0.00046934417 0.06892008 0.117195964 -0.010304373
000300 bd ae 9f b9 01 37 ad 3d 89 8d 45 bd a9 42 4b bd
       -0.00030457033 0.08457757 -0.04823068 -0.04962412
000310 d8 b2 02 3c b2 14 d2 bc 41 85 bc bd e9 a8 73 bd
       0.00797721 -0.025644634 -0.09205104 -0.059487257
000320 38 f7 76 bb 9e 05 da ba d8 91 c9 39 8b 69 4b 3b
       -0.0037683975 -0.0016633754 0.0003844637 0.003103825
000330 40 74 a2 bc 37 00 28 3d cd 38 02 bc bc 78 f8 bb
       -0.019830823 0.04101583 -0.007948113 -0.007582752
000340 11 a8 ed 3a 16 49 c9 3c e6 87 46 3d 43 5b 88 3d
       0.0018131753 0.024570983 0.048469447 0.06658032
000350 44 b0 1c bc 85 35 23 3d 28 ef c8 bc 99 61 98 bd
       -0.009563509 0.039845962 -0.024528101 -0.0744049
000360 57 75 f6 bd fb 8f 42 3d 18 20 96 3d e1 08 6f bd
       -0.120340995 0.04750059 0.0733034 -0.058358077
000370 19 cc 4d 3d 00 2d bd 3c ea de 81 3d 15 83 7d 3d
       0.05024347 0.023092747 0.063413456 0.061892588
000380 34 6e 9d bd e3 28 2c bd 47 f2 b4 bb 1e 77 9a bc
       -0.07687035 -0.04203118 -0.005522046 -0.018855628
000390 7e 23 31 3d 7f b5 0f bd 3a 75 e2 bd 7d e2 55 3d
       0.04324674 -0.035085198 -0.110575154 0.05221795
0003a0 15 23 a4 3c c3 59 e6 bd 61 d5 ee bd 8c b1 2e 3c
       0.02003626 -0.112475894 -0.116617925 0.010662448
0003b0 7b a5 62 3c af 04 88 3c eb ab bf 3d b8 54 0a bd
       0.013833399 0.016603796 0.093589626 -0.0337722
0003c0 96 f4 93 bd dc 20 7f 3b d6 16 56 3d 51 7c a5 3d
       -0.072243854 0.0038929498 0.05226787 0.08080352
0003d0 f9 63 d3 3c 7a 06 fb bc 29 6a e1 bd a9 8a 7c 3d
       0.025804507 -0.030642737 -0.110065766 0.061655674
0003e0 dc 70 ae 3d 6c bb 46 bd a1 56 06 bc bc a8 65 3d
       0.0851762 -0.048518583 -0.008199365 0.05606912
0003f0 5d 19 02 bd 22 72 29 bc 38 5f 5d bb 1b 93 88 3c
       -0.03176247 -0.010342153 -0.0033778679 0.016671708

bias_hh_l0 f4 [384]
000000 81 75 5a bc 20 5e 15 3c 33 e0 a4 3d 26 a7 64 3c
       -0.013333679 0.009116679 0.08050575 0.013955867
000010 ab 9c a9 bc a3 55 55 3d bf 80 94 3c 50 2e 49 bc
       -0.020704588 0.052083623 0.018127797 -0.012279108
000020 c2 f0 ef 3b 1c b2 68 bc bc 80 dd bb b2 90 c3 3c
       0.0073224017 -0.014202621 -0.006759731 0.023872707
000030 d8 de b4 3a d1 ab 8f bc ce 83 2e 3d ca dc 0e bd
       0.0013799323 -0.017537983 0.042606167 -0.03487853
000040 0f 57 06 bd c7 ae 05 bd 30 35 b7 bc 40 0e db bc
       -0.03279787 -0.032637384 -0.022364229 -0.026740193
000050 43 5a ed 3b a2 a7 44 3d c7 2f bc bc 62 77 a0 3d
       0.007243426 0.04801143 -0.022972 0.078352705
000060 79 f9 e1 bc c8 09 90 3c f6 fa 9f bb 76 90 17 3d
       -0.027584778 0.017582789 -0.004882212 0.037003003
000070 73 76 2c 3b 24 ac 8c bc 3d 71 63 bb cd a9 38 3b
       0.0026315718 -0.017171927 -0.0034704946 0.002817738
000080 7e bb a1 3c 0c 57 8c bc 44 da e0 bc 43 e1 1f 3d
       0.019742724 -0.017131351 -0.027447827 0.039033186
000090 29 b4 3f 3c d9 35 92 3d 13 2a b0 3d 4f 99 b8 3c
       0.011700668 0.07139177 0.08601775 0.02253404
0000a0 a8 cb 06 3d 0b 6a 8d bd eb a9 55 3d 50 24 cb bc
       0.032909065 -0.06904992 0.052164 -0.024797589
0000b0 2b 63 0e bd 91 5d 11 bc 5e 68 a3 3b 98 21 92 bd
       -0.034762543 -0.008872406 0.004986807 -0.07135314
0000c0 c6 bb 21 3c 6d b8 7b bc bf 06 dd 3a b3 c6 75 3c
       0.009871429 -0.015363795 0.0016862972 0.015000987
0000d0 cb 91 30 3d ca 93 4e 3b 60 7b 6f 3d 3e f3 35 3d
       0.04310779 0.0031521195 0.05846727 0.044421427
0000e0 cb 23 e3 3c 2c c0 af bc 1b 43 2b bb 21 6d 00 bc
       0.027727028 -0.02145394 -0.0026132527 -0.007838518
0000f0 39 cb 18 bc 55 bb 10 bd ec 59 02 bc 0e df 09 bd
       -0.009325796 -0.035334904 -0.007956009 -0.033659987
000100 20 16 e9 bb 79 98 17 bd 66 35 7d 3a b7 1a 5b b9
       -0.007113233 -0.037010644 0.0009659141 -0.0002089542
000110 28 1a 7b 3d b2 cd fd ba 3d 22 14 3d 2e 66 2c 3c
       0.06130424 -0.001936367 0.036165465 0.010522408
000120 4d 9c c8 3b a0 77 8a bc d5 2f 31 bd 69 7b 11 bc
       0.006122148 -0.016902745 -0.043258507 -0.008879521
000130 d2 0f 7a 3c ae ae 25 bc 4c 8a 1a bd 46 2e 96 bc
       0.015262561 -0.010112448 -0.037729546 -0.018332612
000140 bd fd 8c b9 a0 d0 0c bc 14 d7 10 3d ae 35 5b bc
       -0.0002689193 -0.008594662 0.035361364 -0.013379497
000150 4b 20 9f 3d a1 48 0b bb c8 01 41 bc cb 36 63 bb
       0.07769831 -0.0021253007 -0.01178021 -0.003467011
000160 8d 3e 45 3c f4 98 86 bc fc 03 40 bd 84 5b 52 bd
       0.012038839 -0.016430356 -0.0468788 -0.051356807
000170 48 fc cc 3c 27 14 90 bc 01 5b ec bc 52 51 28 bc
       0.02502264 -0.017587734 -0.028851988 -0.0102732945
000180 ea 09 0a bc f2 c1 13 3d 16 86 41 3c 82 e4 00 3d
       -0.008425215 0.036073633 0.011811754 0.031467922
000190 c6 2f 60 3d df 33 d6 3d eb 39 0c 3c d8 0f 96 3d
       0.05473306 0.104591124 0.008558731 0.07327241
0001a0 de 18 96 3c 5a a7 51 bc 3f 77 f3 bb d3 7f 38 3d
       0.018322404 -0.012796247 -0.0074299867 0.045043778
0001b0 65 02 e6 bb cc ed 3d bc 9f 39 22 3c 68 9b fe bc
       -0.0070193284 -0.01159234 0.009901433 -0.031079963
0001c0 bb f3 27 bd ee 0b e2 bc df b6 94 3d 51 93 9d 3d
       -0.041003924 -0.02759358 0.072614424 0.07694114
0001d0 66 a4 d8 3d 5d 59 8a 3c ac 99 f4 3d e9 c2 b3 3d
       0.105782315 0.016888315 0.11943373 0.087774105
0001e0 48 c4 ee 3d c9 e3 60 3c 2b 21 57 3d 8e 28 26 3d
       0.116585314 0.013726183 0.052521866 0.04056602
0001f0 4d 5e a9 3c 3f e3 79 bc b5 c0 10 ba db 1b 0c 3e
       0.020674849 -0.015251934 -0.00055218796 0.13682501
000200 b8 8a aa 3c fb 00 37 bc 3a f5 fb bc 87 0d 99 3c
       0.0208181 -0.011169667 -0.030756582 0.018683208
000210 8f fa 2b 3c 16 91 87 3d 54 1f 0b 3e 6a c8 fe 3c
       0.01049675 0.0661947 0.1358617 0.031101424
000220 50 94 00 3d 59 62 5a 3e 78 bf d4 3d 48 77 02 bd
       0.03139144 0.21326579 0.10388082 -0.031852037
000230 96 2b 46 3d 90 d6 16 bc 40 3c 99 ba b9 11 53 3d
       0.04838141 -0.009206429 -0.001169093 0.051530574
000240 0b d3 0e 3d 9b 34 84 bc 84 6c 91 bb c2 71 42 3c
       0.034869235 -0.016138365 -0.004437985 0.011867942
000250 6a 30 41 3d 4e f2 a8 3c b7 d4 e4 3d da af 81 3c
       0.047165312 0.020623352 0.11173385 0.015830923
000260 16 38 70 3d 8a f3 76 b9 6b 43 94 37 81 fd b3 3c
       0.058647238 -0.00023551114 1.7674369e-05 0.021971466
000270 c0 dc 07 bc 24 2a 18 bd a6 b9 70 bb b9 4c 10 bd
       -0.008292377 -0.037149563 -0.003673175 -0.03522942
000280 f4 15 b7 3d ef 60 34 3c 05 4c 20 3d 5b 56 c2 3b
       0.08939734 0.011009439 0.039134998 0.0059307045
000290 7d 9e 89 3d b7 27 da 3a 9e 3c 15 3d f3 ca d4 3c
       0.06719682 0.0016643916 0.036434762 0.02597568
0002a0 94 45 8f 3c fc 07 3a bc bc a3 86 3d 3e d2 09 bc
       0.017489232 -0.011354443 0.065741986 -0.008411942
0002b0 7e b2 35 bb ce 11 9f bb f3 69 d0 bc 42 50 87 3d
       -0.0027724798 -0.0048544174 -0.025441146 0.06607105
0002c0 c9 33 23 3d 37 1b 53 ba ad 30 a8 3c 9d d5 44 bc
       0.039844308 -0.00080530666 0.020531023 -0.01201382
0002d0 cf 4d 44 3d d1 fe c5 bb 74 40 3d bc 9a 74 0a bc
       0.047925767 -0.0060423394 -0.011551011 -0.008450652
0002e0 b4 7a 90 bc 69 c4 3e 3d f1 d5 7b 3d a0 82 2e 3d
       -0.017636634 0.04657403 0.061483327 0.042605042
0002f0 26 09 d7 3c c3 ab ad 3d 23 10 b6 3d 7d a9 28 bc
       0.02624948 0.084800266 0.088897966 -0.010294315
000300 cb 62 52 3d 87 ca 33 3c 2c 1d a3 bd 1a 0a 09 bc
       0.051363748 0.010973579 -0.079645485 -0.008364225
000310 8b 5d 6c bd f3 ac 31 bb 8f 72 7f bd 12 a2 45 3d
       -0.057706397 -0.0027111142 -0.06236511 0.048250265
000320 66 0a 06 be 69 15 1a bd e6 b0 e9 3c 04 70 57 bd
       -0.13089904 -0.037618075 0.028526735 -0.05259706
000330 b2 a1 17 3c 5f 76 ad 3d 59 74 db 3c 89 11 a1 bb
       0.00925486 0.08469843 0.026788877 -0.0049154204
000340 10 d1 80 3c fa 3a 0f bc 72 7c 52 bd ee 5b 17 3c
       0.015724689 -0.008742088 -0.05138821 0.009238226
000350 1a 3a 23 bd a6 40 b1 bd 23 29 c1 bd d4 25 90 3c
       -0.03985033 -0.08654909 -0.09431674 0.017596163
000360 f4 1d 87 bc 52 d9 6c 3c 48 06 de 3d 67 5a 83 bd
       -0.016493775 0.01445611 0.10841042 -0.06413727
000370 f8 24 22 3d 44 8d 75 3c e5 86 a5 3c f4 c3 e3 3d
       0.039586037 0.014987294 0.020205924 0.111213595
000380 d2 cd 88 3c 7e 7b fc 3c 52 d3 c9 3c fa 65 8e bd
       0.016699705 0.030820604 0.024636898 -0.06953044
000390 ef c3 46 3c dc 82 78 bb cd 83 f6 3b de 44 88 3d
       0.012131675 -0.0037919795 0.007523036 0.066537604
0003a0 85 b7 f4 3b bf a7 f6 bd 3a 32 fa bc 1d 64 0e 3a
       0.0074681663 -0.12043714 -0.030541528 0.0005431788
0003b0 57 82 90 3c 6e 67 b7 3c 1c b7 34 3d 41 77 b3 bc
       0.017640276 0.022388186 0.04411994 -0.02190745
0003c0 61 d2 74 3d 3c a4 a7 3b 23 db 82 3c 89 5c 5b 3d
       0.059770945 0.005116014 0.015973633 0.053555045
0003d0 a1 ec 79 3d cb d8 a0 bc 29 8d 86 bc 35 c8 5d 3d
       0.061016683 -0.019634625 -0.016424732 0.05414601
0003e0 bd 23 eb 3c 47 4a 97 bc 32 ad 46 3d 17 78 de 3d
       0.028703565 -0.018468035 0.048505016 0.10862749
0003f0 c3 d9 90 bb 00 04 65 3c 07 bb 47 bd 97 c6 5a bc
       -0.0044204905 0.013978004 -0.048762348 -0.013353012

weight f4 [96, 96]
000000 63 b4 9f bc 19 54 13 3d e8 33 16 3d c4 46 07 bd
       -0.019495195 0.035968874 0.036670595 -0.03302647
000010 5f 3b bd 3c 8f 78 d9 bc 05 71 5c 3c 03 97 1d 3d
       0.0230996 -0.026546745 0.01345468 0.038474094
000020 1c 74 d7 3c 70 46 4c bb 86 fa 69 bb be 20 0b 3d
       0.026300482 -0.0031169914 -0.0035702302 0.033966772
000030 0e 8d 28 bc 4e 6e 8a bc 3f af 1f 3d c6 e6 38 bb
       -0.010287536 -0.0168983 0.038985487 -0.0028213724
000040 48 ec 8f 3b 3e 49 1b 3c ed c7 ed bc e7 24 40 bc
       0.0043921806 0.0094779115 -0.029025996 -0.011727548
000050 e8 6e 22 3d d4 cb c9 3c 6c 13 d7 3c f6 d3 66 3d
       0.03965655 0.024633326 0.026254378 0.056354485
000060 41 45 f1 3c f0 dc ca 3c e6 fc de 3c 2d 02 0f bd
       0.029451968 0.024763554 0.0272202 -0.034914184
000070 14 9e f8 3c e9 06 50 3b 7f 3a a1 bc 2a c5 93 bc
       0.030348815 0.00317424 -0.019681213 -0.018038351
000080 01 ee 64 3c 32 3d 82 bc 18 4d b1 3a da 45 af bc
       0.01397276 -0.01589832 0.0013527004 -0.021395613
000090 a8 65 0a bc e9 f5 dc bc ae 63 05 bd 7e ea ff 3c
       -0.008447088 -0.026972728 -0.032565765 0.031239744
0000a0 08 d8 ae 3c 3f 3d 99 3c bc 66 f7 bc 87 d9 94 3b
       0.021343246 0.018705962 -0.030200355 0.004542533
0000b0 aa 36 0e bc 72 53 8e ba 88 a4 42 bc 92 d5 43 3c
       -0.008680025 -0.0010858609 -0.011880048 0.011952775
0000c0 82 86 0b 3d dc 77 92 bb 1a 50 ac 3b e0 07 62 ba
       0.034063824 -0.0044698548 0.0052585723 -0.0008622389
0000d0 78 df 1e bd 03 50 04 bd 71 28 ff 3c eb 8e d0 3c
       -0.038787335 -0.032302868 0.031147214 0.025458774
0000e0 01 da 29 bd 02 71 03 3b 63 41 d0 bc a0 70 46 bc
       -0.04146767 0.0020056372 -0.025421804 -0.012111813
0000f0 ad d9 85 bb bb b5 24 bb c0 f2 77 bc c6 c0 2b bb
       -0.004084787 -0.0025132734 -0.01513356 -0.0026207431
000100 f8 67 c2 3c 71 c2 44 3c 9e 06 01 3d 82 06 b9 3b
       0.023731217 0.012009249 0.03150045 0.0056465277
000110 01 1c 57 bd 8b f0 af 3c be 64 1a bd 7c bb f7 bc
       -0.05251694 0.021477005 -0.03769373 -0.030240767
000120 dd 73 ce 3c 58 d2 4d bc f8 a9 d3 3b 6f 26 85 3b
       0.025201732 -0.012562357 0.006459471 0.0040634195
000130 19 3c a0 bc 47 2f c8 bb 58 c8 98 bb e5 db 2b bc
       -0.019559907 -0.0061091515 -0.0046625547 -0.010489439
000140 6a 22 d4 bc 90 64 c9 3c f1 17 71 3c 2a 7c 62 3b
       -0.025895316 0.024584085 0.014715181 0.003455887
000150 75 ea 2a bd c6 d6 83 bc a1 63 6f bc 56 9c 70 3c
       -0.041727502 -0.016093623 -0.014611156 0.014685711
000160 07 ba a4 bc c7 32 0d bb d9 64 53 bc a6 ec 98 ba
       -0.020108236 -0.0021545158 -0.012902462 -0.0011667206
000170 00 54 bb 3c d7 58 1e 3d d3 f4 b5 3b 46 64 51 bb
       0.022867203 0.038658943 0.005552867 -0.0031950637
000180 d4 4a 15 3c 5a 40 9d bc 6a 15 8a 3b 45 ab bb 3c
       0.009112079 -0.019195724 0.0042139785 0.022908816
000190 e2 6f 37 bc bb 95 1c 3d 99 8e d7 bc 4e 00 f0 bb
       -0.011196109 0.03822873 -0.026313113 -0.007324255
0001a0 b7 8d 1e bd a5 01 e3 3b f8 e5 b8 3a 2c 19 aa 39
       -0.03870937 0.0069276863 0.0014106622 0.0003244368
0001b0 9f 2d 32 bc a1 f4 b6 3b 36 9c f3 bb f2 db b0 3a
       -0.010875135 0.0055833613 -0.0074343933 0.0013493283
0001c0 d8 35 fa bb 47 1e e3 bb bc 37 9c 3c d7 7e 01 3d
       -0.007635813 -0.0069310996 0.019069545 0.031615105
0001d0 c6 0b 39 bc 7f f7 ef bc 2d cd 00 bd cf b9 94 bb
       -0.011294311 -0.02929282 -0.03144567 -0.0045387517
0001e0 34 77 5f bd f0 90 62 3a 0f c5 4a 3c 03 fa 52 3c
       -0.05455704 0.0008642813 0.012376084 0.01287699
0001f0 7a 22 18 bc 33 9d e4 bb 03 bc 95 3b 2d 5d 26 3d
       -0.009285564 -0.0069767474 0.004569532 0.040616203
000200 1a ca 82 bc 85 04 51 3a 32 8b 51 bb 09 9f b0 3b
       -0.01596551 0.0007973391 -0.0031973836 0.005390052
000210 38 d6 f3 3c 5c da 0f 3d ec 4f 50 3d ec 10 b7 bc
       0.029765233 0.035120353 0.05085747 -0.022346936
000220 3d 70 8a 3b ee 70 2d bd 7a 9e 89 3d a1 f0 94 ba
       0.0042248056 -0.042344026 0.0671968 -0.0011363217
000230 64 04 17 3c 5c 41 3e bb d5 5d 27 3c 76 a5 14 bc
       0.009217355 -0.0029030656 0.010215242 -0.009072652
000240 97 a2 27 bc aa a0 7f 3b a3 86 42 bc 1a 76 40 3c
       -0.0102316355 0.0039005675 -0.01187292 0.011746908
000250 57 0a cf 3a 31 ac 69 3b 01 92 f7 bc 2f f2 9f bc
       0.0015795928 0.0035655613 -0.030220987 -0.019524662
000260 2e e9 d2 bb fe 26 a9 bc 4b 59 84 3b 12 97 e3 3c
       -0.0064364886 -0.020648476 0.004038965 0.027781997
000270 1e 6b fa 3b 75 f6 f4 ba 9b ba fd ba 43 8a 2b bb
       0.007642164 -0.0018689173 -0.0019357981 -0.002617494
000280 90 87 21 3c 54 5d 02 bd fc 4c a0 bb c6 95 53 3c
       0.009858981 -0.031827286 -0.0048919898 0.012914127
000290 b8 f0 f1 bb a6 f1 80 bb 29 33 8f bc 75 55 5e bb
       -0.0073834322 -0.0039350567 -0.01748045 -0.0033925448
0002a0 f7 7d 2a ba e6 74 24 3b f9 00 c6 bc 38 6d 4e 3a
       -0.00065037556 0.002509409 -0.024170386 0.0007874551
0002b0 4f 7f f3 bb 43 62 e0 3b 46 0a 68 ba 28 4f a2 3a
       -0.007430948 0.006847651 -0.00088516285 0.001238321
0002c0 a6 fd 0c 3d 3f 8b 14 bb 48 a2 ff bb f9 d8 8b ba
       0.034421586 -0.0022666005 -0.007801328 -0.0010669521
0002d0 b0 b2 9b bb 2f ab 41 3a 7e bd 65 bb b2 ed 3c ba
       -0.004751526 0.0007387874 -0.0035055573 -0.000720705
0002e0 89 d8 4f 3c e7 24 9d 3a ae 7f 08 3c 25 ae 10 bc
       0.012685903 0.0011989147 0.008331222 -0.008830582
0002f0 31 df 64 3c 20 27 e1 3b 45 c3 d3 bb 2f d1 0d 3b
       0.013969229 0.006871119 -0.006462487 0.0021639576
000300 1f 7f 22 bc 9a 28 2e 3c 12 77 53 3d be 87 a1 bb
       -0.009918003 0.010629797 0.051627226 -0.004929512
000310 3b 74 a2 3c a7 22 a1 bc ac 64 3a 3c ce b8 14 3d
       0.019830814 -0.019669844 0.011376541 0.036309056
000320 5e b7 de 3c cf b1 d5 3a ab 5f f8 ba 4b 01 d3 3c
       0.027187046 0.0016303601 -0.001894941 0.025757452
000330 c1 49 59 bb 82 fc 0b bc e6 3b f6 3c f6 63 eb 39
       -0.0033155533 -0.008544089 0.030057859 0.0004489717
000340 5c 70 94 3b 3d 19 a5 3a 1a aa a2 bc 20 f9 0f bc
       0.004529996 0.0012596023 -0.019856501 -0.008787423
000350 49 0a 5c 3d 86 49 16 3c e2 8d 88 3c f3 fb 67 3d
       0.053720746 0.009172803 0.016669217 0.056636762
000360 d5 f7 c9 3c e7 4d 02 3c 1a 3f d7 bc 67 01 2c bc
       0.024654308 0.007953144 -0.026275206 -0.010498381
000370 45 7b c4 3b e3 79 1b bb 1c 60 38 bc 47 15 55 bc
       0.00599614 -0.0023723773 -0.011253383 -0.013005561
000380 2e 7a 7f 3c 50 f7 ba bb 90 21 0c bc 5e 74 98 ba
       0.015593095 -0.0057057515 -0.008552924 -0.001163136
000390 3f 89 08 bc 18 e5 8b bc ad de a8 bc 94 9d 78 3b
       -0.008333503 -0.017077014 -0.020613993 0.003793572
0003a0 ab c7 b3 3c 45 ce b5 b9 2e 6a bd bb c3 c4 ff ba
       0.021945795 -0.00034676693 -0.00578048 -0.0019513596
0003b0 78 cf 80 bc 62 8d 03 bb 17 09 b8 bc b6 44 d2 3c
       -0.015723929 -0.0020073284 -0.022465272 0.02566753
0003c0 7c 53 80 3c bc 12 f4 b9 97 d5 b4 ba 75 b0 a7 bc
       0.015664808 -0.00046553265 -0.0013796565 -0.020469883
0003d0 78 10 27 bd 30 f5 2c bd 00 58 5b 3c 01 1e cf bb
       -0.04078719 -0.042226017 0.01338768 -0.0063207154
0003e0 6c c0 15 bd 8f aa a3 3c 17 ba 0d bc 13 48 7c bc
       -0.03656046 0.01997879 -0.008650324 -0.015398043
0003f0 e8 6d 06 38 11 e7 73 bb bf 5c 53 39 25 15 ca bb
       3.2050448e-05 -0.0037216584 0.00020157079 -0.0061670714

bias f4 [96]
000000 d1 1a ff b4 60 bc 8b 38 59 24 92 35 fe 68 46 36
       -4.7516963e-07 6.663124e-05 1.0888426e-06 2.9565413e-06
000010 2c f5 d6 b6 12 23 50 35 e9 40 cd b5 11 13 ad 37
       -6.4062388e-06 7.753707e-07 -1.5292582e-06 2.0632086e-05
000020 6a 28 2e 37 f4 a0 9d b6 3f 5f 82 36 1a 96 1d 34
       1.0380618e-05 -4.697702e-06 3.88539e-06 1.4676371e-07
000030 e0 30 fb b5 23 b3 7e b7 40 e4 22 36 9c a7 22 37
       -1.8715182e-06 -1.5181288e-05 2.427274e-06 9.694977e-06
000040 8f ea f7 b6 5b 16 97 37 6b 03 11 37 2f 47 24 36
       -7.38848e-06 1.8011013e-05 8.643469e-06 2.4479339e-06
000050 5f 74 16 b6 30 60 39 b7 29 87 76 b6 8e bd ec b5
       -2.2419479e-06 -1.1049255e-05 -3.673553e-06 -1.7638538e-06
000060 1d f0 2b 35 3e 55 21 b7 96 cc 86 36 6b a8 57 38
       6.4051875e-07 -9.616195e-06 4.017328e-06 5.1416846e-05
000070 55 7e a8 36 01 78 17 37 77 d4 c6 b7 61 f4 02 37
       5.021497e-06 9.028242e-06 -2.3702376e-05 7.805503e-06
000080 d3 ed a5 b6 d8 ef 5e b6 f7 e2 19 37 be 45 78 35
       -4.9450696e-06 -3.3220185e-06 9.172355e-06 9.248869e-07
000090 2b 03 7a 36 c8 8d 9f b6 29 e9 ee 35 6f 46 8f b7
       3.7254747e-06 -4.7550748e-06 1.780024e-06 -1.7079727e-05
0000a0 06 de a5 b6 9b 65 ab b6 fb 61 45 37 59 35 ac b5
       -4.94323e-06 -5.1080256e-06 1.1764928e-05 -1.2830525e-06
0000b0 99 ff 14 37 83 97 62 b7 bf 35 7a b6 ab ee b5 34
       8.880998e-06 -1.3505926e-05 -3.7284187e-06 3.388753e-07
0000c0 4e 9e 8e 36 b1 d3 71 36 ac 60 96 35 c4 c5 07 37
       4.250359e-06 3.603502e-06 1.1204006e-06 8.092673e-06
0000d0 aa 2b fe 36 cd 19 9d 36 5a f4 18 b6 19 27 87 b6
       7.574873e-06 4.681968e-06 -2.2791996e-06 -4.027865e-06
0000e0 b6 71 88 37 72 8c 4c b5 5f 89 c1 35 76 33 d4 37
       1.6265414e-05 -7.6200297e-07 1.4419601e-06 2.5296333e-05
0000f0 1e 50 aa b6 11 16 11 b7 36 d9 2b 35 75 78 1b b6
       -5.0757217e-06 -8.647811e-06 6.401855e-07 -2.3166915e-06
000100 de 07 89 35 c7 75 c8 36 cb f0 90 37 5e e8 22 37
       1.0209585e-06 5.9741756e-06 1.7278266e-05 9.710055e-06
000110 2f e9 7c 37 26 e6 cc 36 b5 37 b6 b6 fb 88 df b6
       1.5074663e-05 6.1064666e-06 -5.430508e-06 -6.6618645e-06
000120 21 e6 ea b6 e0 dc 7f 35 3a 49 61 37 53 b7 e1 35
       -7.000534e-06 9.531632e-07 1.34280945e-05 1.6817161e-06
000130 12 8e 29 b6 8d e1 84 37 e4 2e cd b6 cb 4a b6 b7
       -2.5265658e-06 1.5840656e-05 -6.114935e-06 -2.1730919e-05
000140 cc 03 8e 35 b4 ae 93 b7 3d 22 2a b6 e6 e1 11 b7
       1.058093e-06 -1.7605118e-05 -2.5351903e-06 -8.69527e-06
000150 5b ec a4 b6 47 85 64 b8 68 1e c1 b7 7f 7f 6d b7
       -4.9150963e-06 -5.448356e-05 -2.3021552e-05 -1.4155986e-05
000160 e2 4c 1a 37 cc 48 e6 36 f1 1f a0 b6 8d cc 55 b7
       9.197016e-06 6.863009e-06 -4.77209e-06 -1.2743415e-05
000170 da b1 76 37 23 5c 11 38 4b 6b ee 36 b8 dd 5b 35
       1.4704152e-05 3.4656503e-05 7.1054433e-06 8.19065e-07

weight f4 [96, 96]
000000 02 9f 87 b5 e7 cd 3f 37 0d 6c e2 34 1c f1 2d b5
       -1.0104561e-06 1.14324275e-05 4.2174398e-07 -6.479838e-07
000010 0e 25 2a b6 48 2e 77 b5 92 ea d3 b5 0e 0b 70 b5
       -2.5353543e-06 -9.208202e-07 -1.5788994e-06 -8.9423054e-07
000020 e2 20 a4 35 7e 70 66 b5 b1 00 02 b4 42 86 e5 b4
       1.2228522e-06 -8.5845375e-07 -1.2107445e-07 -4.275226e-07
000030 5d 71 41 37 f2 a9 7d b5 cd 57 86 b5 c9 06 75 36
       1.1530091e-05 -9.449715e-07 -1.0009331e-06 3.6511794e-06
000040 a0 d6 a1 b5 c4 01 42 37 be 10 42 37 3b 08 77 b5
       -1.2057899e-06 1.1563712e-05 1.1567199e-05 -9.202665e-07
000050 e4 53 9b b5 03 90 c5 36 30 f1 69 b5 ec 94 75 b5
       -1.1572815e-06 5.8878227e-06 -8.715024e-07 -9.148632e-07
000060 4a 07 e5 b5 82 5d b5 b5 e1 88 46 36 53 2a bf b5
       -1.7063951e-06 -1.3512765e-06 2.9583973e-06 -1.4242927e-06
000070 0b 96 37 b6 17 14 77 b5 f8 70 86 b5 ad cb 93 b5
       -2.7356461e-06 -9.2043905e-07 -1.0016656e-06 -1.1011631e-06
000080 55 89 c4 b3 e5 34 aa b5 56 cf 73 b4 e8 67 e6 b5
       -9.151942e-08 -1.2681381e-06 -2.2706567e-07 -1.7166576e-06
000090 71 b8 73 b5 bc bc 40 37 52 49 a9 b5 e7 84 1f 37
       -9.079295e-07 1.1488035e-05 -1.261282e-06 9.508082e-06
0000a0 8a d7 2a b6 00 ac e0 36 22 be 98 b5 de 91 b4 36
       -2.5457434e-06 6.6957437e-06 -1.1380218e-06 5.381399e-06
0000b0 43 83 8d b5 78 73 00 b5 97 97 26 36 26 3e a4 b5
       -1.0543521e-06 -4.7851745e-07 2.4824164e-06 -1.223704e-06
0000c0 bb 95 fc b5 56 72 cb b5 08 7d bb 35 9a 63 2b b6
       -1.881904e-06 -1.5157955e-06 1.3968975e-06 -2.5538961e-06
0000d0 37 4e 97 b5 fe fb 37 b6 ea 1f 78 b5 59 99 67 b5
       -1.127314e-06 -2.7415804e-06 -9.243364e-07 -8.6277356e-07
0000e0 11 2d ae b6 ae 09 6a b5 31 1c 03 b5 ee c1 38 37
       -5.1908505e-06 -8.718588e-07 -4.8842327e-07 1.1012407e-05
0000f0 66 73 3d b6 82 c6 b4 34 6a 47 a3 36 3e ba 0a b5
       -2.8230365e-06 3.3672046e-07 4.8660922e-06 -5.1680024e-07
000100 71 67 11 b6 e8 c4 66 b5 1a 08 10 b5 72 df c7 b3
       -2.1666895e-06 -8.5968213e-07 -5.365597e-07 -9.307304e-08
000110 90 1a 1a b6 4f 5b 98 36 d9 54 e2 b5 37 4d df b4
       -2.296325e-06 4.5405827e-06 -1.6863006e-06 -4.1593168e-07
000120 bc 00 83 b5 60 e7 b8 b6 18 9f 2f b5 7e 30 90 b6
       -9.760474e-07 -5.510563e-06 -6.542409e-07 -4.2971797e-06
000130 c1 4c 02 35 5d 5e 97 b5 0b 98 54 b5 c2 16 86 b5
       4.8540466e-07 -1.127784e-06 -7.9197406e-07 -9.990401e-07
000140 0a d0 3a b5 cd 3b af b5 a4 6d 08 36 b1 1b 6d b5
       -6.9593136e-07 -1.305592e-06 2.0329398e-06 -8.8329676e-07
000150 5d 58 9e b5 90 f1 a8 b5 46 b3 01 b6 98 78 63 b5
       -1.1797634e-06 -1.2587279e-06 -1.9326849e-06 -8.4739577e-07
000160 a8 f6 81 b5 de 96 5a b5 24 f0 37 36 8e 1f 2f b6
       -9.683035e-07 -8.143087e-07 2.7408905e-06 -2.60954e-06
000170 0a e7 e6 b4 28 f6 77 36 58 d0 a5 b5 22 67 95 36
       -4.3008941e-07 3.694915e-06 -1.2354094e-06 4.4525523e-06
000180 c0 24 fc b7 93 4f 81 b7 ff 51 47 b7 69 56 a6 36
       -3.0057854e-05 -1.5415053e-05 -1.18804155e-05 4.957245e-06
000190 0c 8e 7b b7 a7 69 30 b8 e2 27 a1 b7 30 17 42 b7
       -1.4993839e-05 -4.2060066e-05 -1.9211267e-05 -1.15687e-05
0001a0 17 08 01 b8 5c d4 75 b7 ca 99 11 b8 9c a8 c9 38
       -3.076353e-05 -1.4652582e-05 -3.471392e-05 9.615833e-05
0001b0 7d b3 2c b8 b2 a9 22 b8 0b 03 2f b8 33 c9 3d b8
       -4.1175157e-05 -3.878185e-05 -4.1726085e-05 -4.5248493e-05
0001c0 b9 99 1a b8 3e b9 ea b7 17 06 9d b8 0b 76 ef b7
       -3.6859627e-05 -2.7981234e-05 -7.487478e-05 -2.8545988e-05
0001d0 f8 dd 1d b8 0a 69 06 b8 5a 0f 85 b7 3f 96 47 b8
       -3.763844e-05 -3.2045915e-05 -1.5861984e-05 -4.7585225e-05
0001e0 11 36 2f b8 02 ad 46 37 1e 05 a1 b7 66 b8 b3 b7
       -4.1773605e-05 1.1842001e-05 -1.9195078e-05 -2.142433e-05
0001f0 6b 74 09 b8 7c 29 12 b8 17 ac 52 b7 82 31 1b b8
       -3.2771768e-05 -3.4847748e-05 -1.2557043e-05 -3.7000988e-05
000200 5e e8 3f b7 79 f3 ee b7 13 a6 21 b7 ab 99 5d b8
       -1.1438589e-05 -2.8485187e-05 -9.635015e-06 -5.283362e-05
000210 2b ad 36 b7 72 99 20 b8 86 20 0f b8 18 22 74 b7
       -1.0888364e-05 -3.828988e-05 -3.4124147e-05 -1.4551471e-05
000220 00 08 c8 34 6b a9 2d b8 49 99 c6 38 49 bc 93 36
       3.7258724e-07 -4.1404197e-05 9.469927e-05 4.4028607e-06
000230 52 8c 74 b7 6e c4 1a b8 42 db 11 b8 63 e8 1c b8
       -1.4576204e-05 -3.68994e-05 -3.4774894e-05 -3.7409725e-05
000240 88 21 90 38 ff bd c7 b7 4d a7 2f b8 f9 ea 3f b8
       6.872701e-05 -2.3811122e-05 -4.1879062e-05 -4.5756784e-05
000250 80 a2 1f b7 e4 75 88 37 6e f7 81 b7 56 d1 50 b7
       -9.5149735e-06 1.626736e-05 -1.5493217e-05 -1.2446506e-05
000260 cd 44 b3 38 3d f1 49 b8 65 1c 95 b7 7a be 3c b8
       8.5482e-05 -4.8146805e-05 -1.7775406e-05 -4.5000088e-05
000270 48 4e 74 b7 eb d2 16 b8 76 46 24 b8 da 03 2a b8
       -1.456176e-05 -3.595922e-05 -3.916627e-05 -4.0534745e-05
000280 49 9a 81 b7 b7 1a 4e b8 79 d8 1f b8 e0 8b 75 b7
       -1.5449843e-05 -4.9139107e-05 -3.811016e-05 -1.4635705e-05
000290 45 20 2b b8 73 df 2f b8 0c bf 0f b8 19 79 5f 38
       -4.079963e-05 -4.1931355e-05 -3.4271783e-05 5.3280124e-05
0002a0 c6 4c 13 b8 56 cf 75 b7 c6 6f 6b b7 4b b4 a2 b7
       -3.5119032e-05 -1.4651412e-05 -1.4033116e-05 -1.939586e-05
0002b0 19 7d 5d b7 be 32 2e b8 87 c5 29 b8 c9 9f 2a b8
       -1.3201753e-05 -4.153209e-05 -4.04767e-05 -4.067997e-05
0002c0 f3 65 17 b8 bf 7e 1a b8 38 c8 80 b7 5a d4 0e b8
       -3.6096153e-05 -3.6834503e-05 -1.5352023e-05 -3.4053206e-05
0002d0 fb d4 06 38 dc dc 03 b8 39 3b f5 35 85 1f 14 b8
       3.2146443e-05 -3.1438525e-05 1.8271159e-06 -3.5315305e-05
0002e0 4b 55 17 b8 8e 07 0d b7 ba 12 11 b8 df 3a 1a b8
       -3.608064e-05 -8.406014e-06 -3.4588134e-05 -3.677129e-05
0002f0 af e2 6d b7 cf e4 a6 b7 9f df 16 b8 96 5a 01 b8
       -1.417908e-05 -1.989529e-05 -3.597105e-05 -3.084036e-05
000300 f9 34 84 b6 30 76 08 36 5b 40 f7 b7 45 ce 1f 36
       -3.9400734e-06 2.0334373e-06 -2.9474662e-05 2.381291e-06
000310 6c 41 f0 b6 f4 a0 1f 36 c8 cd 0c 36 29 a7 81 b6
       -7.1601735e-06 2.3786533e-06 2.0981406e-06 -3.8639596e-06
000320 5e 0d f3 36 74 3f 26 36 62 4b 88 b6 46 29 a3 b6
       7.2435205e-06 2.4772862e-06 -4.0618916e-06 -4.8625834e-06
000330 f4 15 2c 36 ec 56 7a 36 a1 26 93 b7 e8 bf ce 36
       2.5642776e-06 3.7303498e-06 -1.7541754e-05 6.1616192e-06
000340 e0 2c bc b6 c0 22 2f 35 9d 62 da 36 da ac f1 36
       -5.6080607e-06 6.524315e-07 6.5083864e-06 7.2024823e-06
000350 32 31 5b b6 54 00 06 36 b2 2c 2f 36 d7 73 2f b8
       -3.2662178e-06 1.9967747e-06 2.6103048e-06 -4.1831136e-05
000360 65 62 71 b6 e7 f6 87 b6 45 50 24 36 ff c0 a8 35
       -3.5969072e-06 -4.0520567e-06 2.4484627e-06 1.2573145e-06
000370 6a c5 30 b7 b9 4b 29 36 0c eb 26 36 4e 56 5d b6
       -1.05363815e-05 2.5227039e-06 2.4872743e-06 -3.2981802e-06
000380 6a ac 07 36 9e 0a 47 b6 2f 16 a8 35 59 5e 96 35
       2.0216926e-06 -2.965949e-06 1.2523432e-06 1.120333e-06
000390 af 98 a6 b6 f9 f1 0d 36 7f 79 9e b6 13 91 9f b6
       -4.96496e-06 2.1151484e-06 -4.722911e-06 -4.755458e-06
0003a0 46 3f 7a b6 79 16 2b 35 f3 8c 1f 36 27 4d ab b5
       -3.7289733e-06 6.3735166e-07 2.377489e-06 -1.2762947e-06
0003b0 9a fa 81 b5 92 68 d9 35 54 ac 37 35 3e fc 46 b7
       -9.684184e-07 1.6198194e-06 6.8423583e-07 -1.1860449e-05
0003c0 f6 3d f4 35 f5 12 a0 b6 0b a5 7f b6 68 87 45 35
       1.819745e-06 -4.7705785e-06 -3.8094029e-06 7.358526e-07
0003d0 d2 09 cc 35 7d 30 2e 36 27 f6 23 36 a5 48 cd 35
       1.5202043e-06 2.5956244e-06 2.4432172e-06 1.5294833e-06
0003e0 7d 1b 9d b6 ee ae 27 35 5c 99 9a 35 fc ca fa b6
       -4.6821647e-06 6.2466904e-07 1.1518528e-06 -7.474211e-06
0003f0 60 ae ef 35 b2 ee f5 36 05 2c 98 35 fe 51 4c 34
       1.7857637e-06 7.329357e-06 1.1337694e-06 1.9028809e-07
