Graph Neural Network/Models/SAGEConv-D5-F1-mean.pth (torch, 611624 bytes, 15 tensors)

weight f4 [192, 224]
00000000: 450e 59ba 8ba7 65b7 042c 4dba 4ba4 0e3a
00000010: f2bf ed39 4500 0f3a 87b5 f139 e3b0 38ba
00000020: 8119 39ba da65 7eba 5908 62ba 9811 3339
00000030: fb72 55ba cfe0 9139 a3bb e2b9 8f8c d2b9
00000040: be6f 78ba 58c6 103a 482d ff39 219d 05ba
00000050: 53c9 49b9 f255 80ba 04cd 103a 1e89 72ba
00000060: ad02 a2b8 031e 02ba 2c1a 80ba 6dea e739
00000070: 75c1 063a 5a20 7c39 dc80 65ba e41e 69ba
00000080: 0d53 5cba 608a ffb9 69fc 38ba 3707 073a
00000090: 3699 2cba b73b 36ba f389 1038 a995 3039
000000a0: fef4 b739 f0cc 103a b955 da39 ef9e 24ba
000000b0: 9adc d539 f9b0 6b39 840e 5c39 2f00 c039
000000c0: 9c28 80ba 6780 3739 77cb 69ba 87b1 4fba
000000d0: e4f4 a839 28f2 38ba 3b14 0dba 859c 36ba
000000e0: 67b7 a2b9 26f7 44ba e71f ae39 3bb2 9239
000000f0: 6c34 8339 ad65 80ba 3161 b339 629d 36ba
00000100: 3f38 b1b9 0a22 38ba 08c6 cf39 b39d 73ba
00000110: 8c87 8639 df80 49b8 8791 d9b7 7c5a 80ba
00000120: ded7 23ba 9125 9739 f65d 39ba b680 ea39
00000130: 815c 04ba 904e 2dba 4ab2 7539 61d6 103a
00000140: 72db 6439 cbf4 70ba 8389 78b9 34e2 f238
00000150: ad1e 6239 0fe7 103a 4ab7 37ba c21a 5cba
00000160: ae32 35ba fe54 f9b9 b856 a339 f94f 92b9
00000170: d2e9 44ba c7c0 0a3a 7450 20ba da57 33ba
00000180: 0459 cb39 cd29 39ba 598f 73ba c8b2 103a
00000190: dede 75ba a7ac 2eba 79ae 5739 801d 2dba
000001a0: 3e63 1039 1424 89b9 6d9a fb39 3d22 ae39
000001b0: 106e 0b39 49bf c839 669e 103a 09af 4b39
000001c0: f543 03ba 917e 2eba 50cc 0f3a 2023 58b8
000001d0: 2d61 6bba 7a93 8db8 99c0 4bba 6794 fab9
000001e0: 6811 5c39 5716 9d39 ce10 4cba 04e5 07ba
000001f0: d41b 33ba fd0b 03ba 923a 7dba eda5 adb9
00000200: 15bb db39 8252 77b8 22ba ad39 cdc4 9439
00000210: fe12 76b9 0d5c ea39 d3c0 9339 ce13 12b8
00000220: 27c0 70b8 b4fc 07ba 918d afb8 68f8 9d39
00000230: 0f40 5c39 f9bc 103a 7561 80ba 3577 7dba
00000240: 79d4 0e3a ec4c 9038 f430 7fba 9d42 3eba
00000250: c72b 56ba b3f4 0dba 7a05 39ba ab18 053a
00000260: 7e4a 0a3a 2555 023a c606 b339 742d 0b39
00000270: bf79 d239 06ab 35ba 4f7e 61ba d914 de39
00000280: 4835 4cba ece1 50ba 3c05 be39 8d2d 3db9
00000290: 7f31 80b9 c7dd 31ba a872 57b9 a13c 92b9
000002a0: 8879 2aba 0a5b bcb7 c3eb 5e39 6761 8439
000002b0: 691e fd39 47ac 11ba eb92 063a e463 0fba
000002c0: f135 34ba 6bc4 2cba 238f 5cba f3e1 c639
000002d0: ced6 103a 6b65 7fba b85d f1b9 033f 37ba
000002e0: 6224 98b9 ea82 17ba afb7 73ba 0793 34ba
000002f0: ff07 34ba 99cd 003a d1b2 4aba 75f4 10ba
00000300: 97f2 89b9 b9d4 f439 765f 113a 9592 4f38
00000310: 86cd 7fba 187e 14ba d489 7fba be05 31ba
00000320: f0ad 75ba 385e f839 4ae6 40ba d6d1 6d39
00000330: 2c5c a937 7f59 1dba f95b 72ba 61d6 12b9
00000340: a9dd b9b9 97ec 7dba 0c49 0f39 8488 0d3a
00000350: 69df 8d39 e465 80ba 4326 6dba ed1d 15ba
00000360: 9325 3139 d653 3b39 36bd 19ba 336c 4cba
00000370: feb8 2e39 6065 d739 4191 33ba c656 35ba
00000380: 2c95 f4bb 30c5 b7bb ea98 5b3c 52dd ae3c
00000390: cb21 debb 9289 a1bb cef3 babb b015 1cbc
000003a0: 59f4 91bc adb3 fabb e085 d4bb d306 1ebc
000003b0: ddd5 ce3b 8af7 dcbb 0cef b3bb 5f38 b6bb
000003c0: ac35 0dbd 5e37 2e3c c11b f1bc 3a08 adbb
000003d0: c78f 5abc 7150 1bbc e186 a1bb 8040 cdbb
000003e0: ee19 003c dd0e 9fbc b7e5 72bc a77e a1bb
000003f0: 91f0 96bc 9d34 c1bb 5871 01bc 97aa cf3b
-0.00082800194 -1.3688473e-05 -0.0007826688 0.00054413517 0.00045347173 0.0005455057 0.0004610235 -0.0007045401
-0.00070609903 -0.0009704508 -0.000862246 0.00017077324 -0.00081424386 0.0002782405 -0.0004324588 -0.00040159046
-0.00094771 0.00055227196 0.00048671127 -0.00050969614 -0.00019243853 -0.0009791239 0.0005523714 -0.00092519994
-7.7252604e-05 -0.00049635785 -0.0009773425 0.00044234414 0.00051405217 0.00024044645 -0.0008754858 -0.00088928477
-0.00084047095 -0.00048740488 -0.0007056655 0.00051509164 -0.00065841095 -0.0006951647 3.446075e-05 0.0001684042
0.00035087013 0.0005523702 0.0004164407 -0.00062797865 0.00040790887 0.00022477274 0.00020986242 0.0003662123
-0.0009777728 0.00017500074 -0.0008918563 -0.0007922877 0.00032225915 -0.0007055127 -0.0005381738 -0.0006966072
-0.00031035693 -0.00075136346 0.00033211635 0.00027980082 0.00025025324 -0.0009795927 0.00034213954 -0.0006966201
-0.00033801977 -0.0007024115 0.00039629661 -0.00092932134 0.00025659462 -4.8042155e-05 -2.5936182e-05 -0.0009792591
-0.0006250123 0.00028828954 -0.0007071191 0.00044727855 -0.00050491845 -0.0006611133 0.00023431439 0.0005525109
0.00021825524 -0.00091917504 -0.0002370235 0.00011581593 0.00021564467 0.00055275945 -0.0007008208 -0.0008396321
-0.0006912154 -0.00047556305 0.00031154393 -0.00027906874 -0.00075116486 0.0005293008 -0.0006115504 -0.0006841399
0.000387855 -0.0007063419 -0.0009291075 0.00055198045 -0.0009379218 -0.00066633004 0.00020568994 -0.0006603822
0.00013769881 -0.00026157557 0.00047989507 0.00033213376 0.00013297074 0.0003828949 0.0005516767 0.00019424794
-0.000500738 -0.0006656433 0.0005485462 -5.1531126e-05 -0.0008979019 -6.7508736e-05 -0.0007772535 -0.00047794284
0.0002098732 0.00029962018 -0.00077844865 -0.00051839673 -0.0006832455 -0.000499904 -0.0009659912 -0.00033120756
0.00041910322 -5.896623e-05 0.0003313581 0.00028375388 -0.00023467463 0.0004470054 0.0002818169 -3.4827557e-05
-5.7399415e-05 -0.0005187497 -8.371019e-05 0.0003013045 0.00021004699 0.0005521323 -0.000979467 -0.00096689473
0.0005448531 6.880783e-05 -0.00097347726 -0.0007257851 -0.00081699755 -0.0005415186 -0.0007058006 0.0005077223
0.00052753824 0.0004971794 0.00034146587 0.00013273006 0.0004014503 -0.00069300865 -0.00086018903 0.00042358672
-0.0007789922 -0.00079682353 0.00036243524 -0.00018041414 -0.0002445094 -0.00067850616 -0.0002054671 -0.00027892462
-0.0006503095 -2.245374e-05 0.00021259398 0.00025249572 0.00048278578 -0.00055569824 0.0005133587 -0.0005469902
-0.0006874493 -0.0006590548 -0.0008413663 0.00037933848 0.00055251725 -0.00097425905 -0.00046036928 -0.00069902855
-0.00029018807 -0.00057797006 -0.00092970853 -0.0006888364 -0.00068676466 0.0004913449 -0.0007732334 -0.0005529591
-0.0002631142 0.00046697797 0.0005545536 4.948916e-05 -0.00097581034 -0.00056645414 -0.0009748016 -0.000675287
-0.0009371927 0.00047372445 -0.00073585345 0.00022680251 2.018929e-05 -0.00060024107 -0.00092452724 -0.00014003507
-0.000354511 -0.0009686439 0.00013664755 0.00053990656 0.0002706007 -0.0009795991 -0.0009046534 -0.0005688358
0.00016894033 0.00017864941 -0.00058646814 -0.00077981054 0.00016662848 0.00041083526 -0.00068499526 -0.00069175323
-0.0074640717 -0.0056082234 0.013403157 0.021345768 -0.006778931 -0.0049297297 -0.0057053333 -0.009526655
-0.01781671 -0.0076508136 -0.0064856857 -0.009645182 0.0063121156 -0.006743376 -0.005491143 -0.005560919
-0.034475014 0.010633318 -0.02943218 -0.0052805217 -0.013339943 -0.009479628 -0.004929409 -0.0062637925
0.007818682 -0.019416267 -0.014825276 -0.004928428 -0.018425258 -0.0058961646 -0.007900558 0.0063374746

bias f4 [192]
00000000: c7d7 9736 2e29 3637 ffd6 a3b6 0ba6 b737
00000010: d1a2 05b9 5cc1 0439 1179 7736 53a4 21b7
00000020: 767d e138 f711 0637 8460 2fb7 c7a5 0cb8
00000030: f830 3b38 744b 0a37 d827 1c37 3b04 3eb8
00000040: 5676 bcb5 9a56 a9b6 675e 0639 e2d4 15b9
00000050: 2582 4437 95bd d935 8e92 9036 03ca 11b8
00000060: eae5 06b7 6032 2fb8 4e04 18b9 806d 9a36
00000070: 7233 df37 0393 3639 de1e 6837 636f 6138
00000080: 572e 3fb7 92a8 3736 7044 4438 f988 3037
00000090: 0893 1839 f3d0 deb7 afd9 2fb4 14bd b6b6
000000a0: 2e10 7a37 4322 aeb5 4748 ebb7 eea5 7337
000000b0: 1df1 5037 3383 2fb6 7df8 a337 be59 fb37
000000c0: 1dbb 0a38 6960 1639 3be3 1338 9505 6ab7
000000d0: ac1f 8eb6 3143 1537 60dd cfb5 4cab a938
000000e0: 324a aa37 478c 8438 1146 9ab7 809f 4a38
000000f0: f863 2db5 9690 e3b6 e0a4 35b7 24c5 08b5
00000100: 27c6 8238 6c7e e637 38c1 ff38 4bff 1eb7
00000110: cefd 0239 e99e 0039 3d41 ee36 1e25 ad37
00000120: 82c6 bb38 958f 1bb9 1ea6 c8b6 dfb2 3037
00000130: c5de e238 c45e aab7 681e b837 8855 6ab6
00000140: 2ef6 deb6 3736 5938 e4fd 6d36 f7d0 99b7
00000150: ac00 4938 e3ae 5db8 48c0 d5b8 eecb fa38
00000160: d0b0 52b6 406b e937 3c3a 7eb7 266a 5638
00000170: a41d 1eb6 9d5a f237 a90b ebb4 a6c2 b6b7
00000180: 4c95 14b9 607f fe37 71c4 5d38 7105 1739
00000190: 1bde e8b6 4318 3cb7 0371 d337 7a3f 9fb7
000001a0: 7c84 f7b7 3697 7fb7 5be0 25b4 7399 0fb9
000001b0: 43fd d3b5 5b2b 16b9 488c e7b6 5e1b 2636
000001c0: 1a4c cd36 c3ac b836 f1a9 9db8 cfa7 bf38
000001d0: aec8 afb7 7a87 5bb8 8aea 3a38 69de cab6
000001e0: 2bea b8b7 56ce 0cb9 4383 dfb6 0889 1ab9
000001f0: 8a95 5db2 d976 b037 4eae 2db7 346c ca38
00000200: 99bc a337 4784 1b38 be28 8635 423d 1ab9
00000210: 1350 f736 0a46 06b9 a34b 6837 bdf7 7437
00000220: 11b5 ed37 ab4c de37 6e49 1738 b56f 00b7
00000230: faac 1938 527f 0437 eaef c1b6 d8ba 44b7
00000240: 2ff8 0b36 dd56 8db6 64b0 5f37 8077 3837
00000250: 3bf1 b737 4d4f 20b6 e988 0cb9 2191 4638
00000260: e1ec 2db8 6fae 4838 1a55 d5b5 ef72 5d38
00000270: 819a d4b7 27ce 6a36 e34a f0b7 2414 1239
00000280: 905f 1738 1a0a 5d36 1822 5eb8 9989 8f37
00000290: 5d43 8338 c934 d0b7 9732 0ab9 22cf 13b9
000002a0: b776 3db6 36b4 1039 58f4 2436 a87b 3f35
000002b0: b253 07b9 b8fe bd36 00b6 24b8 b7f0 1939
000002c0: f367 0736 e8ac 39b8 d0db 1537 be20 43b8
000002d0: 7966 fbb6 ce79 b538 18ab 0fb7 6c53 b637
000002e0: a2eb 1036 0485 81b6 163e 16b7 07fe 3db8
000002f0: 9842 ec38 6c3a 43b8 2c85 8cb7 314f 3a36
4.5252705e-06 1.0857633e-05 -4.8828074e-06 2.189262e-05 -0.00012744522 0.00012660533 3.6876338e-06 -9.6346075e-06
0.00010752205 7.991205e-06 -1.0453285e-05 -3.3532993e-05 4.462988e-05 8.243009e-06 9.307601e-06 -4.530347e-05
-1.4041532e-06 -5.0466742e-06 0.00012814403 -0.00014289052 1.1712812e-05 1.6222936e-06 4.3085956e-06 -3.4758832e-05
-8.040553e-06 -4.1770167e-05 -0.00014497453 4.602305e-06 2.6607628e-05 0.00017411639 1.3835464e-05 5.3747917e-05
-1.13952765e-05 2.7367246e-06 4.679378e-05 1.0522309e-05 0.00014550623 -2.6561762e-05 -1.6377338e-07 -5.4460343e-06
1.4904928e-05 -1.2973982e-06 -2.804784e-05 1.4522562e-05 1.2453905e-05 -2.61534e-06 1.9546826e-05 2.9963321e-05
3.3076027e-05 0.0001434103 3.5259156e-05 -1.3948787e-05 -4.235617e-06 8.896736e-06 -1.548713e-06 8.0904545e-05
2.030013e-05 6.320379e-05 -1.8390858e-05 4.83091e-05 -6.4592996e-07 -6.781959e-06 -1.0826829e-05 -5.0950825e-07
6.235792e-05 2.7477006e-05 0.00012195337 -9.476974e-06 0.00012492316 0.0001226623 7.1005475e-06 2.0640491e-05
8.95383e-05 -0.0001483544 -5.979803e-06 1.0532064e-05 0.00010818014 -2.0309708e-05 2.1948668e-05 -3.4918503e-06
-6.6447747e-06 5.1787323e-05 3.5463536e-06 -1.8336328e-05 4.792276e-05 -5.2853382e-05 -0.00010192447 0.00011958914
-3.1395357e-06 2.7825707e-05 -1.51531385e-05 5.1120434e-05 -2.3561088e-06 2.8890843e-05 -4.3780645e-07 -2.1786731e-05
-0.00014169997 3.0338473e-05 5.2873456e-05 0.00014402509 -6.9399953e-06 -1.1211322e-05 2.5205785e-05 -1.8983836e-05
-2.9506387e-05 -1.5234391e-05 -1.5448443e-07 -0.00013694707 -1.5794434e-06 -0.00014321266 -6.9006674e-06 2.4751857e-06
6.1183355e-06 5.5037394e-06 -7.5179974e-05 9.1388465e-05 -2.0955074e-05 -5.233984e-05 4.4564287e-05 -6.045961e-06
-2.2043552e-05 -0.00013428307 -6.6611988e-06 -0.00014737633 -1.2897894e-08 2.1036178e-05 -1.0352187e-05 9.652265e-05
1.9518937e-05 3.7078073e-05 9.995636e-07 -0.00014709405 7.3704955e-06 -0.00012805327 1.3845888e-05 1.4601214e-05
2.8336917e-05 2.6500164e-05 3.6069592e-05 -7.655403e-06 3.663914e-05 7.897457e-06 -5.779778e-06 -1.1726013e-05
2.0857076e-06 -4.2122397e-06 1.3332905e-05 1.0995078e-05 2.1927632e-05 -2.3888017e-06 -0.00013402443 4.734204e-05
-4.1467025e-05 4.784617e-05 -1.5894504e-06 5.2797546e-05 -2.5344316e-05 3.4988714e-06 -2.8645101e-05 0.00013931148
3.6090205e-05 3.2937446e-06 -5.2960677e-05 1.7111002e-05 6.259114e-05 -2.4820112e-05 -0.00013179552 -0.00014096175
-2.8232296e-06 0.00013800044 2.4580131e-06 7.133299e-07 -0.00012905782 5.662292e-06 -3.9270148e-05 0.0001468089
2.0177074e-06 -4.426847e-05 8.932271e-06 -4.6522116e-05 -7.4923123e-06 8.6534405e-05 -8.5633e-06 2.1734937e-05
2.1594828e-06 -3.8599846e-06 -8.955152e-06 -4.5297693e-05 0.00011265761 -4.6546033e-05 -1.6751314e-05 2.7762255e-06

weight f4 [192, 224]
00000000: b409 feb8 b308 9db8 a3c2 ce37 fdf4 5838
00000010: 4ac6 7ab6 1926 d9b6 5470 0035 6648 26b7
00000020: 7414 0238 d5ce 0337 e777 2a38 3061 42b8
00000030: aef2 5438 5022 8f38 b544 a2b7 2316 fcb8
00000040: 9f16 65b7 bb55 7d37 8ee7 0136 b594 66b8
00000050: 86a2 57b8 9797 0db7 6c03 5438 b91b 8838
00000060: 7429 7bb6 ba9d dbb7 cd17 1a39 f15b 5f36
00000070: 8201 31b7 4fde a036 e68a 7fb6 72fc 7736
00000080: e6f6 ca37 e349 0b39 bccb 1db8 303c 1a39
00000090: 8b1e 1539 f5a1 5cb8 abfc c1b7 0174 d936
000000a0: 36d4 c9b7 4e7a 0939 ec39 b236 a35e 87b7
000000b0: fa5b 3038 0916 ac38 8951 4c37 0ce1 1839
000000c0: 1d79 7f37 2755 d736 c326 3fb8 7cc0 62b7
000000d0: 2714 3bb8 e7f6 0db9 9d98 3d38 c4a0 dbb8
000000e0: 329b 13b8 237c 4a38 a899 a8b8 84c8 1639
000000f0: 0bf1 f0b6 6d39 42b7 aa2d 7337 6410 f638
00000100: c322 1a39 537d fd38 2dd2 bdb8 6945 d7b6
00000110: 93ef c237 41a3 b936 e6dd 9438 824d f937
00000120: 1967 d336 3e17 21b6 c5b0 dab6 a97c 36b7
00000130: 18e1 95b8 1dbd 9a38 72d7 25b6 e6dc c1b8
00000140: af86 cdb5 3c7b 5138 0e49 beb7 fb8a 0eb9
00000150: 212b 66b6 5885 a1b8 023b 1a39 29d2 1cb9
00000160: 1423 0ab6 73b3 8037 2159 4638 f769 0a36
00000170: a831 dab7 7f8f e4b7 71c8 0c39 a29d 4336
00000180: 8b45 6bb8 886a 0b39 3ec0 8836 a7a2 9437
00000190: cbab 13b7 d841 4cb7 2b45 81b6 34fb 5cb6
000001a0: e855 cdb7 aaa4 3837 d170 2c37 f89a ec35
000001b0: b2c3 6337 6032 f0b8 e33f fbb7 f395 4234
000001c0: 7707 8e36 5c88 d236 da9e 84b5 e95e d436
000001d0: c47e fbb8 eeaf 77b7 af4f 2738 3d33 0ab7
000001e0: 834b 4136 b27e 1937 574a 9db7 1fa3 90b8
000001f0: 3aa3 1eb7 81b9 db34 166a cdb6 8792 3bb8
00000200: dba8 1939 f1c9 37b8 2640 1c38 772f 2f37
00000210: 3ef4 67b7 a1f5 d4b5 3d8b 29b6 118d f9b5
00000220: 7de3 0437 30dc 9fb6 ba9b e138 9a72 d036
00000230: 8c9d 0ab7 3ba8 4c35 90ff 62b8 e0ba 4337
00000240: 0ac0 2237 b24d fc32 ca7c 2337 16ed f138
00000250: ab0f 3237 c605 ac37 7494 8536 ba19 35b7
00000260: dea2 41b8 9d44 8bb5 2357 1237 e155 5fb6
00000270: 7c72 12b8 a8e7 c9b6 e765 0239 9963 5938
00000280: 5f05 89b7 1ac6 8d36 fd84 0bb7 45ea d335
00000290: 5eaa deb8 2217 f538 4ee8 34b8 92a8 5a38
000002a0: 7df7 ee38 f05d fdb7 b101 9838 fdae 0ab7
000002b0: b5ed 7536 7673 2d38 dc25 7fb6 c098 4e38
000002c0: ef84 3eb7 f649 aeb5 25c0 e137 0f7f 05b7
000002d0: 1974 3137 85fb 62b8 552c 84b6 6e0c aeb6
000002e0: 9cbb e6b6 c7cb a136 ec04 12b6 24af 30b7
000002f0: b26d ffb7 a12e 01b6 e0b4 e037 4413 63b8
00000300: 22c1 b737 d488 15b7 c54f 5637 d484 3c36
00000310: b7a7 bcb5 0236 3b37 7ddd ccb6 f9fb 5538
00000320: d597 bf36 9c47 ceb6 821c e4b6 4909 f538
00000330: 2ce6 2f38 58fd 4a37 f005 4937 fe61 9a37
00000340: ab75 46b7 f7fe fab7 76a9 1437 7a17 29b8
00000350: 7897 0cb9 7775 58b8 3002 83b6 13db 9935
00000360: 9843 5538 7b5b 50b8 572b 3737 bbe4 1738
00000370: 07c3 ecb8 8442 b036 fe1a aab6 64a0 f1b7
00000380: 6a4c c036 c236 4638 01c8 3f36 5709 1a39
00000390: 6f18 e1b8 3581 17b9 ccb9 48b6 5138 8238
000003a0: 8d6d 5a37 45be e0b8 3b27 52b7 7bf1 d237
000003b0: 4b8e 1639 229d 47b7 62af 3837 9442 0a35
000003c0: d29e 0db9 1e40 48b6 5397 06b8 460a fb36
000003d0: 8ea4 3538 cd07 0e37 9324 42b7 c7a3 8db6
000003e0: c6ed 0638 4e25 15b9 1324 41b7 c96d 9737
000003f0: 9ba3 edb8 d763 44b5 b17d 2cb8 a8df 04b9
-0.00012113471 -7.487964e-05 2.4647748e-05 5.1726576e-05 -3.7368322e-06 -6.471539e-06 4.7847175e-07 -9.911228e-06
3.1013464e-05 7.856365e-06 4.0642826e-05 -4.6343717e-05 5.0770752e-05 6.8251626e-05 -1.93439e-05 -0.0001202042
-1.36547305e-05 1.5099936e-05 1.935728e-06 -5.4974767e-05 -5.1411356e-05 -8.43955e-06 5.0547926e-05 6.490149e-05
-3.7426043e-06 -2.6180282e-05 0.00014695451 3.3283106e-06 -1.0550373e-05 4.7942517e-06 -3.807881e-06 3.695281e-06
2.4195248e-05 0.00013283598 -3.762146e-05 0.00014709006 0.00014221125 -5.260292e-05 -2.312505e-05 6.4806086e-06
-2.4059886e-05 0.000131109 5.3115564e-06 -1.6137323e-05 4.204733e-05 8.2057035e-05 1.2178331e-05 0.00014579686
1.5227383e-05 6.4174124e-06 -4.557405e-05 -1.3515466e-05 -4.4603043e-05 -0.00013538786 4.5203244e-05 -0.00010472679
-3.5192068e-05 4.8276164e-05 -8.039485e-05 0.00014379813 -7.1806185e-06 -1.1576672e-05 1.4494561e-05 0.00011733247
0.00014699534 0.000120873236 -9.0513706e-05 -6.4155797e-06 2.3238163e-05 5.532435e-06 7.098522e-05 2.9719205e-05
6.300292e-06 -2.4004398e-06 -6.517485e-06 -1.087707e-05 -7.1468006e-05 7.378517e-05 -2.4712322e-06 -9.244103e-05
-1.5312888e-06 4.9944254e-05 -2.2683784e-05 -0.0001359395 -3.4297775e-06 -7.7019155e-05 0.00014708567 -0.0001495561
-2.058402e-06 1.5342352e-05 4.7289886e-05 2.0625282e-06 -2.6010748e-05 -2.7246539e-05 0.0001342611 2.9149019e-06
-5.6093133e-05 0.00013295759 4.075496e-06 1.7718716e-05 -8.801881e-06 -1.2174678e-05 -3.852552e-06 -3.2928774e-06
-2.4477908e-05 1.10055935e-05 1.0278266e-05 1.7628472e-06 1.3575818e-05 -0.00011453475 -2.9951281e-05 1.8122209e-07
4.232799e-06 6.274362e-06 -9.880998e-07 6.3291413e-06 -0.000119922246 -1.4763309e-05 3.9890114e-05 -8.237371e-06
2.8803195e-06 9.149009e-06 -1.8750476e-05 -6.896839e-05 -9.455538e-06 4.09269e-07 -6.121826e-06 -4.472074e-05
0.0001465412 -4.3818673e-05 3.725304e-05 1.0441864e-05 -1.382554e-05 -1.5866718e-06 -2.526401e-06 -1.8593001e-06
7.920779e-06 -4.7642025e-06 0.000107578424 6.2122244e-06 -8.262123e-06 7.624073e-07 -5.412061e-05 1.1666416e-05
9.700665e-06 2.9371993e-08 9.744612e-06 0.00011535936 1.0613275e-05 2.0506686e-05 3.980991e-06 -1.0794431e-05
-4.6166468e-05 -1.0376276e-06 8.722566e-06 -3.3279578e-06 -3.4915734e-05 -6.017235e-06 0.00012435728 5.182959e-05
-1.6334174e-05 4.2251895e-06 -8.316009e-06 1.5788906e-06 -0.00010617518 0.00011686819 -4.3131695e-05 5.2132244e-05
0.00011394823 -3.0203693e-05 7.24824e-05 -8.266184e-06 3.6646209e-06 4.1353946e-05 -3.8019998e-06 4.9256487e-05
-1.13558335e-05 -1.2985536e-06 2.6911564e-05 -7.957001e-06 1.0577053e-05 -5.4116845e-05 -3.9390675e-06 -5.187051e-06
-6.8763748e-06 4.8218967e-06 -2.175856e-06 -1.0531196e-05 -3.044945e-05 -1.924964e-06 2.6787107e-05 -5.413896e-05
2.1905234e-05 -8.91295e-06 1.2773967e-05 2.80915e-06 -1.4055903e-06 1.1158643e-05 -6.1054584e-06 5.1017825e-05
5.709919e-06 -6.147615e-06 -6.7982483e-06 0.0001168424 4.1937616e-05 1.2099124e-05 1.1981916e-05 1.8403862e-05
-1.1829116e-05 -2.992105e-05 8.860943e-06 -4.0314604e-05 -0.00013407867 -5.160781e-05 -3.904359e-06 1.1463147e-06
5.084611e-05 -4.9676262e-05 1.0917741e-05 3.6214227e-05 -0.000112896836 5.252952e-06 -5.069537e-06 -2.8804126e-05
5.7309417e-06 4.7257876e-05 2.8577635e-06 0.00014690064 -0.00010733387 -0.00014448616 -2.991047e-06 6.209373e-05
1.3019319e-05 -0.00010716593 -1.25261095e-05 2.5146399e-05 0.00014358123 -1.189791e-05 1.1008089e-05 5.150589e-07
-0.00013505973 -2.9839644e-06 -3.208902e-05 7.481579e-06 4.3307016e-05 8.465676e-06 -1.1571817e-05 -4.2211936e-06
3.2169533e-05 -0.00014223644 -1.1512096e-05 1.8051725e-05 -0.000113315145 -7.3160976e-07 -4.1125055e-05 -0.0001267182

weight f4 [160, 192]
00000000: eca9 293d 3062 d23c 1346 2b3d f1fc 03bd
00000010: 2c6f da3c ae0c 06bc d5fe 95bb df25 503d
00000020: b3d2 103d b231 45bb 89e2 39bb 3aee 9fbc
00000030: a6e7 20bd 633a 993c d017 543d a8c7 8d3a
00000040: f492 593c 8f0d b8bc 4bdd b0bd b511 363d
00000050: 96cb 26bd 9bbc 893c 654d 3abd 472d 5e3d
00000060: 7418 d3bc 090d 60bb 105c d23d 6dbf 5dbd
00000070: 3c03 373c e824 a43d 3bdf 343b 1dc0 6abc
00000080: 2c45 6e3d ba97 513d 65db 48bd 5a4e 8a3d
00000090: 0196 183d eed1 cb3d 0fe2 e6bc a12c 773d
000000a0: 2a82 44bb 0859 29bd e9e7 f3bb d2fb a43d
000000b0: ccec 9e3b 1b22 cd3c dba3 a83c 363a 633d
000000c0: 1438 b0ba f5c8 aebd f336 0a3c 219a d43c
000000d0: cee9 b13d 8c17 84bd ac23 9cbd aa86 beba
000000e0: da8d fa3c b550 793d ba37 43bc abe8 72bb
000000f0: 0f1e b83b 3233 aabd 9c8e bf3c fdc4 ea3c
00000100: bcac b33c 3f9a 6d3d 2ea0 ef3c 9190 01bc
00000110: 8bd1 d9bc 04a1 8c3d 487d 92bd d6f7 1fbd
00000120: 015f abbd 3152 79bd e144 0a3d a7d5 34bd
00000130: aff1 113d 7352 d83c 0739 5dbd 2acf 4d3d
00000140: cf40 a33d b11b 363d 4527 00bc 2e88 5dbd
00000150: 5d53 713d 5ce4 963d 6520 bc3d 2cd3 31bd
00000160: 1981 513d 059a 2abc d4cf 82bb d627 0abd
00000170: 6376 4a3a 70fe a33d e225 50bd 5485 963d
00000180: 8e38 36bd af3f 033d 5fcc 71bd 3061 c63b
00000190: 0ac0 33bd 1920 2fbd 5183 833d df0d a43d
000001a0: c901 08bc 67fa ad3d f6e9 b43d e9d4 05bb
000001b0: 8888 083d fc70 313d 3d54 113d abb1 11bd
000001c0: 5600 cbbc 9c32 5c3c 4887 773c b073 543c
000001d0: 5be1 b2bc 6f33 0a3d b624 c43c 4670 68bc
000001e0: cc2f 253c 8571 b03c 2653 5a3d dbfe 7f3d
000001f0: 873a 8ebc ffda 613d 82c4 51bc 8136 943d
00000200: 70c8 a73d 7cd2 d8bb e930 62bd 78ad 6ebd
00000210: 1a70 36bd a647 84bd 7c2d 2e3c 106f a73c
00000220: 23fa 60bd 0fc8 4c3d 53fc ed3c 6e25 2d3d
00000230: 6991 17bd aed0 453d eb08 88bd a5a2 2f3d
00000240: b2ce 90bb a266 35bb 6c75 e13c d6f7 97bc
00000250: a3b5 ff3c 4297 133c fd59 573d 4871 543b
00000260: 9bc3 b93d 64f8 443d cad6 a93c 7534 9ebc
00000270: cd36 2a3c 3e92 393d 3871 963d 042e 78bc
00000280: 6ff7 9ebc 5dd3 74bd d853 973c 21f3 1bbd
00000290: de1b 963d be3c 453c e2bd 04bb 8409 44bd
000002a0: 58fd 97bd 58df ae3c b73f 05bb a1cc 983c
000002b0: 9477 35bd 709a 6f3d dd21 973d 4290 953c
000002c0: 1e48 343b cbf2 4cbd 4cad 3cb9 7a7e 30bd
000002d0: 4000 533d 927a 0e3c 829a 8a3c 8c4b b53b
000002e0: 50ad 9a3d e85b 543c 8415 983c e7a6 013d
000002f0: a397 183d 34f1 903c 484b aebb 0a23 003c
00000300: 8e45 79bb 8d5f 3bbd 1ffa 163d 9640 2dbd
00000310: 2f86 7abd 01a2 5d3d b265 9bbd ce5f 76bd
00000320: cc87 cbbd cf39 5b3d 6de2 12bd 9599 2b3d
00000330: 73f2 963c e396 9d3c 0850 27bd bbe8 463d
00000340: 6a4a 3fbd 9e56 a4bd caa6 77bd dd98 b7bc
00000350: c470 50bc 2178 a0bd da21 723d 6c8b 753c
00000360: c029 3fbb aba2 85bc 131c dd3c 1971 673d
00000370: 4bcf 70bc e190 b5bc ed53 ff3c 4e3d b7ba
00000380: b81e f6bc 70ee 4c3d 2e4a 76ba 4173 4cbd
00000390: 3a47 003d 8ee4 0cbc 759e b93c 53b1 65bd
000003a0: 195e acbb 291e 3e3d 35dc 97bd da3c 5ebd
000003b0: 0481 8abc bd51 7ebd 8547 c53c 022c 75bd
000003c0: 58a6 663d 8103 053d 60e3 223d 7d7e 953c
000003d0: d635 96bd 696c 1fbd d2a0 39bc 468d acbd
000003e0: 43a3 003c d6f6 b6bd 0cb9 9cbd 2df3 8eba
000003f0: dbb9 7dbd f306 8ebd 8946 693d 6759 463d
0.041421816 0.025681585 0.041814875 -0.032223646 0.026664339 -0.008181734 -0.0045774975 0.050817367
0.03535719 -0.0030089435 -0.0028363785 -0.019522775 -0.039283417 0.018704599 0.051780522 0.0010816948
0.013279665 -0.022467403 -0.08635958 0.04445048 -0.0407215 0.016813567 -0.045483965 0.0542424
-0.025768496 -0.0034187457 0.10271466 -0.054137636 0.011170205 0.08014852 0.0027598876 -0.01432803
0.058171436 0.05117009 -0.049037356 0.067532256 0.03725243 0.0995215 -0.028183965 0.060345296
-0.002998481 -0.041344672 -0.0074434173 0.080558434 0.0048500057 0.025040677 0.020585945 0.055475436
-0.0013444447 -0.08534423 0.0084359525 0.0259524 0.08687173 -0.06449804 -0.07623991 -0.0014535983
0.030585218 0.060867984 -0.011915142 -0.003706495 0.0056188176 -0.08310546 0.023383431 0.028658384
0.021932952 0.05800843 0.029251184 -0.0079080025 -0.026589176 0.06866649 -0.07152802 -0.039054714
-0.0836773 -0.0608694 0.033757094 -0.044149067 0.035630878 0.026406502 -0.054009464 0.050246395
0.07971346 0.044460002 -0.007821863 -0.05408495 0.058917392 0.07367775 0.09185866 -0.04341428
0.051148508 -0.010412698 -0.00399206 -0.033729397 0.00077233295 0.080075145 -0.050817378 0.07349649
-0.04448753 0.032043155 -0.059032794 0.006054066 -0.043884315 -0.04275522 0.06421531 0.08010458
-0.008301207 0.08495026 0.08833687 -0.0020421094 0.03333333 0.04332064 0.035480727 -0.035569828
-0.024780434 0.013439801 0.015107937 0.012967035 -0.021835973 0.033740457 0.023943286 -0.014186924
0.010082196 0.021538505 0.053301953 0.06249891 -0.017361892 0.05514049 -0.012803199 0.07236958
0.08192527 -0.0066168886 -0.055222426 -0.0582709 -0.044540502 -0.06458978 0.0106309615 0.0204387
-0.05492605 0.04999548 0.029050982 0.042272024 -0.03700391 0.048294716 -0.06642326 0.04287972
-0.0044191713 -0.0027679582 0.027521811 -0.018550795 0.03121454 0.009008231 0.052576054 0.0032416154
0.09070512 0.048088446 0.020732302 -0.019312123 0.010389042 0.045305483 0.073458135 -0.01514769
-0.019405095 -0.059771884 0.018472597 -0.038073663 0.07329534 0.012038408 -0.002025478 -0.047860637
-0.07421368 0.021346733 -0.0020332166 0.018652262 -0.04430349 0.058496892 0.07379506 0.018257264
0.0027508806 -0.050036233 -0.00017993635 -0.043089367 0.05151391 0.008696215 0.016919378 0.0055326875
0.07552588 0.012961365 0.018564947 0.03165331 0.037253987 0.01769314 -0.005319033 0.007820854
-0.0038035843 -0.04574542 0.036859628 -0.042297922 -0.061163124 0.054109577 -0.07587756 -0.06014996
-0.099380106 0.053521927 -0.035860468 0.041894514 0.018426156 0.019236987 -0.040847808 0.048561793
-0.046701826 -0.080243334 -0.060461797 -0.022411758 -0.012722198 -0.07835413 0.059114315 0.014986854
-0.0029169172 -0.016312918 0.026990926 0.056504343 -0.01469786 -0.02216381 0.031167949 -0.0013980062
-0.030043945 0.05003208 -0.0009395209 -0.049914602 0.031317927 -0.008599414 0.022658566 -0.056077313
-0.0052602408 0.04641548 -0.07415048 -0.05425725 -0.016907223 -0.06208967 0.024081955 -0.059856422
0.05631098 0.032474045 0.039767623 0.01824879 -0.07334487 -0.038921747 -0.011329846 -0.08425383
0.007851425 -0.08933799 -0.076524824 -0.0010906212 -0.061944824 -0.06934919 0.056952033 0.048425104

bias f4 [160]
00000000: 18c5 ea34 d18c 9138 115e 7237 b871 5f38
00000010: 94b9 9ab8 3b7b 0cb7 26b8 a039 525e 7936
00000020: ac7f 0bb8 ad8a 9037 1e95 9239 30cf 9db7
00000030: 9962 2037 178a 4736 15f5 3437 f1ef 9838
00000040: da32 1ab6 4adc 77b7 7588 1639 d0fb a435
00000050: 1147 82b6 52c3 f537 ff2f adb6 ba7d 89b8
00000060: 1ba2 1939 e06b aa37 f511 42ba 51bb 75b8
00000070: 583b 2e37 fb04 67b6 22e5 47ba 4836 87b9
00000080: 74c0 3736 e57b 0337 02d3 f237 631e 2b37
00000090: 2f09 80b7 a80b 3bb8 5595 0438 b5df 0ab8
000000a0: be50 0db8 2aea 0a3a dc15 0537 3cce 1a39
000000b0: 2cbf f039 fea7 a138 9ed5 87b8 7d09 8a36
000000c0: acc7 9db9 6d66 b137 005c 74b6 e060 81b8
000000d0: 775e eeb7 4c60 a539 85fa 2eb7 d731 e536
000000e0: d6c2 7837 588b 1cb7 d195 5cb7 8806 fcb7
000000f0: 3fc9 83b6 486d c3b4 2780 5eb8 47d3 c0b8
00000100: aa43 3137 64f2 263a 087a a5b6 9fe4 8cb6
00000110: ccb7 b0b6 1782 6bb6 6162 ce37 0f8a a237
00000120: bcd3 1837 b638 01b9 dca8 3db7 c2dd 1ab7
00000130: 0d53 00b8 cee4 4db8 53e0 71b9 32c0 42b7
00000140: 3762 63b6 8256 c3b6 027e 6538 4103 fab7
00000150: 67e9 8737 48ba 5eb8 b377 f6b8 3413 db37
00000160: 6cc4 46b8 589f 1238 2d02 3837 0e36 2737
00000170: d84a 1cb8 256a b238 79c5 0ab7 3f76 9f37
00000180: d72a 9337 a2ce 353a e3ff 5b38 9274 2ab4
00000190: cd33 f3b6 35e2 7036 5fa6 7eb8 efdc 7e37
000001a0: e488 8637 9ade f737 95d9 0fb8 9385 8539
000001b0: 0638 3b35 89c1 ac36 8226 ebb7 6393 e8b7
000001c0: e89e 2a37 adb6 f9b7 036b afb7 0ee6 5bb8
000001d0: 4b77 8fb6 b6d3 59b7 0788 4bb8 60e3 5938
000001e0: a753 d2b7 005c b1b9 831b c835 e9d0 13b9
000001f0: 7cfb a937 7ca9 6937 fdf0 2a38 7987 cab6
00000200: d00f 1638 d256 1337 419f 54b8 a12c 4438
00000210: cd98 cb37 a5fa ca36 dbcb cb37 c59b 2f3a
00000220: 50c5 0138 c0db c536 df20 53b7 38b8 ac39
00000230: 73cb 3d38 3049 b436 c3d4 d3b5 a4ee ecb7
00000240: 684e 0838 952f e536 58af 1ab9 6e70 f837
00000250: 9851 a1b7 ff15 69b8 46a3 f0b6 28cc a6b7
00000260: 2753 55b8 6243 1a38 651f 3bb8 b33f aeb8
00000270: 488b 20ba 59ac 63b5 2e06 b8b8 c676 b9b6
4.37293e-07 6.940368e-05 1.4446226e-05 5.3273252e-05 -7.377859e-05 -8.373342e-06 0.0003065478 3.7158793e-06
-3.3259086e-05 1.7230714e-05 0.0002795839 -1.8812338e-05 9.5597e-06 2.973369e-06 1.0785899e-05 7.2926174e-05
-2.2977388e-06 -1.4773637e-05 0.00014355949 1.2292239e-06 -3.882575e-06 2.9297229e-05 -5.1613893e-06 -6.5560875e-05
0.00014651606 2.0315812e-05 -0.00074031885 -5.8587004e-05 1.0385025e-05 -3.4424581e-06 -0.0007625391 -0.0002578965
2.7381147e-06 7.837055e-06 2.8946906e-05 1.0199469e-05 -1.5263066e-05 -4.459513e-05 3.161033e-05 -3.3110107e-05
-3.3692217e-05 0.00052991754 7.932507e-06 0.00014763413 0.000459188 7.708369e-05 -6.477091e-05 4.113825e-06
-0.0003009414 2.114774e-05 -3.6412384e-06 -6.169244e-05 -2.84158e-05 0.00031543 -1.0429537e-05 6.830534e-06
1.4827316e-05 -9.330768e-06 -1.3147904e-05 -3.0043782e-05 -3.9275324e-06 -3.6401093e-07 -5.3048276e-05 -9.194627e-05
1.0565776e-05 0.00063685165 -4.9315895e-06 -4.19894e-06 -5.2666055e-06 -3.509345e-06 2.4602925e-05 1.9376193e-05
9.109204e-06 -0.00012323525 -1.13045935e-05 -9.230747e-06 -3.0594925e-05 -4.90889e-05 -0.00023067118 -1.160805e-05
-3.3882804e-06 -5.8215237e-06 5.471521e-05 -2.9803838e-05 1.620194e-05 -5.3102412e-05 -0.0001175249 2.6115777e-05
-4.738981e-05 3.4957513e-05 1.0967761e-05 9.966561e-06 -3.7263002e-05 8.5074724e-05 -8.271419e-06 1.900934e-05
1.7543714e-05 0.0006935393 5.2451982e-05 -1.5874892e-07 -7.2479947e-06 3.5894457e-06 -6.0713264e-05 1.519102e-05
1.603779e-05 2.9548351e-05 -3.4296496e-05 0.00025467257 6.9744453e-07 5.14853e-06 -2.8032115e-05 -2.7725187e-05
1.0169788e-05 -2.9768178e-05 -2.0911457e-05 -5.2427924e-05 -4.2756196e-06 -1.2983501e-05 -4.8525657e-05 5.194859e-05
-2.5072904e-05 -0.00033828616 1.4909168e-06 -0.00014096838 2.0263476e-05 1.3927343e-05 4.0755596e-05 -6.03584e-06
3.5777513e-05 8.782097e-06 -5.0693056e-05 4.6771605e-05 2.427064e-05 6.049248e-06 2.4294413e-05 0.00066989317
3.093976e-05 5.89664e-06 -1.2584233e-05 0.0003294365 4.525059e-05 5.372938e-06 -1.5782647e-06 -2.8244518e-05
3.249795e-05 6.830271e-06 -0.00014751905 2.9616258e-05 -1.923069e-05 -5.5572014e-05 -7.171565e-06 -1.988381e-05
-5.08606e-05 3.6779216e-05 -4.4613513e-05 -8.3088315e-05 -0.000612427 -8.481489e-07 -8.774955e-05 -5.5272567e-06

weight f4 [160, 192]
00000000: c0af d3bc d479 19bd ac6a 97bd fd40 073b
00000010: cf36 643d f02b a53c 0af7 593d aa27 ed3c
00000020: 3a23 1b3d 76af 94bc 0e4f 803c 0986 3fbc
00000030: 1bc9 9cbd d8ea 9dbc b63e 7dbd a5cf b13c
00000040: b5bf 123d cc91 e737 9e50 463c ae75 0dbc
00000050: 0320 8b39 9bf9 5bbc 53c1 54bd 07f2 0cba
00000060: 4935 023c fb87 333b f2e4 01bd 207d d3bc
00000070: d43e a2bc 6ee4 11bd 150f 44bd b58d a13b
00000080: ff71 ed3c 18d0 1dbd d71f 04bd 1b0b 3f3d
00000090: e7d0 d1bc af7a 82bd 6fed 96bc 55f7 4a3d
000000a0: 0f74 7d3a 9f21 96bd 73bd 7e3d a2a5 3f3c
000000b0: 9427 c4bc a109 ab3c abbb 2cbd abed 64bc
000000c0: a521 0e3d dc53 0f3c 2ad5 50bd 1ef1 dd3c
000000d0: 43ac d83c 59d6 b6bd 1078 64bd f336 a43c
000000e0: 5889 2d3c e9a2 1ebd 4c8e 7c3c ac4a 283d
000000f0: c723 88bd 6fea 143c 44e7 5dbd 7998 7fbd
00000100: e8c0 81bc f865 7f3c 1f0d 783c 80b4 a0bd
00000110: d88a c63c f38a 883c ffd6 a3bb bd32 a6bc
00000120: 4c94 afbd 5f75 f33c 33a2 e2bc 7102 6dbb
00000130: abfd 343d 073e 283d 71f4 1ebd 05d6 233c
00000140: 90a6 39bd 8af3 4dba 3216 17bd b6e1 6bbd
00000150: 6bc7 68bc 0791 9c3b 53e7 c93c b0f8 d83c
00000160: 2478 62bd 3165 2a3d c390 5dbd 2b65 14bd
00000170: cf3f fdbc e1e8 11bc 46cc 23bd ba81 da3a
00000180: 9386 0fbd 4292 5dbd bae7 a8bd 5139 cbba
00000190: 915c 12bd 5bc4 3d3d 4cbd 953c a671 5e3d
000001a0: aa16 87bd 09c8 68bd 6ca2 01bc d3fe 8bbc
000001b0: fd2b 6fbd b4f6 6dbd 936e 0a3d b63d d33c
000001c0: b579 87bb 818a 3ebd 0d3b 3fbd 534e da3c
000001d0: 25a5 2ebc 83a1 223d 15f0 11bd 1745 0bbd
000001e0: f75a c33b 2cfd 123d 478b b4bc 3dbf 403d
000001f0: 6214 e43c 1151 69bd 7a90 f6bc b7ff 903c
00000200: 0955 333d 590f 6bbd 22c5 1b3c db47 dcbc
00000210: 9978 d13c ec2c 7fbd 90f0 ee3c 15d8 fe3c
00000220: b403 3c3d 3fef bf3c 2268 663c 93b9 4ebd
00000230: a98f a0bc 99d6 38bd c11a 0cbc 0a30 f3bc
00000240: f7d4 113d 4196 c1bc d414 89bd a259 943c
00000250: d616 a4bc 4c3d 74bd 437b 29bd 7ad3 97bb
00000260: 881d dfbc 955a fc3c f74c f6bc eff2 cb3c
00000270: a93f 2c3c 85ba c7bc 026d 4a3d cdbc e23a
00000280: 4216 bebc 1b12 5a3d 0377 2fbd d9c0 93bc
00000290: 55bc c2bc 334e d9bc 6021 d3bc 9b60 2dbd
000002a0: 3464 c2bc e0f0 323d 957d 86bb ff03 59bc
000002b0: 7e71 a7bd 7fcd fd3c 9169 323c 4f59 11bd
000002c0: 0d57 813c 5b66 b1ba 7637 0c3d 873e 96bc
000002d0: 6938 2ebd c39f 5abd c5ac 5dbd 31b1 28bd
000002e0: 5055 45bd 29dd 943c 16c8 8f3c 3a9d f63b
000002f0: a128 b5bd 1d0e 383c a34b 09bd ab05 753c
00000300: aac6 68bd 66c2 4f3d 226c 423d 9888 fc3c
00000310: d042 fb3c 4d68 acbb 504f 8d3d cd40 993d
00000320: e223 513c f55c 8bbb f627 bb3d aeb4 ba3d
00000330: 1ee2 96bc fbb3 c43c ec9c 263d aa91 833b
00000340: 3275 5f3d 1213 42bb 77f7 4f3d 3f29 883b
00000350: 40bd 3bbb 810f d53d c128 213d d21d c63d
00000360: b02f 41bd 369c a2bd 547b a4bb 5a36 5fbc
00000370: 8ded f1bc 3e87 383d c5d6 b33d 94ad f1ba
00000380: ea1c 923d 8296 b13c 2b53 853d 2ac1 15bd
00000390: 2312 2cbd b391 17bd ea95 94bd f88c 92bd
000003a0: 0cd0 7c3d 2d32 8d3c e389 ca3b e226 27bc
000003b0: f0d7 a1bd a2ec a73b f9f0 013d ede2 70bd
000003c0: 7807 163d 5462 1b3d 982d 803d cd6b faba
000003d0: 1e35 b6bc 56c8 cb3d baf9 24bd b40e b93d
000003e0: 51f9 973d dc0b 913a 27eb c8bc 5092 25bd
000003f0: 132b b0ba 89f3 bdbc 0a72 3ebd acd5 ab3d
-0.02584064 -0.0374697 -0.07393393 0.0020638101 0.055716332 0.020162553 0.05321411 0.028949577
0.03787539 -0.018150073 0.015662696 -0.011689671 -0.07655545 -0.019277021 -0.061827384 0.021705458
0.035827357 2.7605238e-05 0.012104182 -0.008634014 0.00026535997 -0.01342621 -0.05194218 -0.0005376641
0.0079472745 0.0027394283 -0.03171248 -0.0258165 -0.01980535 -0.03561824 -0.047865946 0.004930223
0.028985022 -0.03852853 -0.032256927 0.04664145 -0.025612308 -0.06371056 -0.018423764 0.04955228
0.0009668478 -0.073306315 0.06219239 0.011697205 -0.023944654 0.020878615 -0.04217116 -0.01397268
0.034700055 0.008748021 -0.05098454 0.027092513 0.026449328 -0.08927602 -0.055778563 0.020045733
0.010591827 -0.038729582 0.015414786 0.041086838 -0.06647449 0.009089096 -0.05417563 -0.06240127
-0.015839055 0.015588276 0.015139847 -0.07846928 0.024236128 0.016667819 -0.0049999948 -0.020287866
-0.08573207 0.029719053 -0.027665233 -0.0036164785 0.04418723 0.04107478 -0.038807336 0.009999757
-0.045324862 -0.00078564195 -0.0368864 -0.0575883 -0.014207701 0.004778031 0.024646437 0.026485771
-0.055290356 0.04160041 -0.054093134 -0.036229294 -0.030914215 -0.00890562 -0.039989732 0.0016670742
-0.03504045 -0.05409456 -0.08247323 -0.0015504753 -0.03573281 0.046329837 0.01827874 0.054307602
-0.0659612 -0.056831393 -0.00791226 -0.017089283 -0.05839156 -0.058096603 0.033796858 0.025786262
-0.0041343817 -0.046518806 -0.046687175 0.026648676 -0.010659491 0.03970481 -0.03562935 -0.034001436
0.0059617716 0.035885975 -0.022039069 0.04705738 0.02784175 -0.056962077 -0.030098189 0.01770006
0.043782268 -0.057387684 0.009507449 -0.026889732 0.0255702 -0.0622987 0.029167444 0.031108895
0.04590197 0.023429511 0.014062913 -0.050469946 -0.019599753 -0.04512653 -0.0085513005 -0.029685993
0.03560349 -0.023631217 -0.06693426 0.018109147 -0.02003042 -0.05962877 -0.041377317 -0.0046333643
-0.027235761 0.030804912 -0.030065997 0.024896113 0.010513225 -0.024380932 0.049420364 0.0017298699
-0.023203973 0.053239923 -0.042838108 -0.018036293 -0.023771444 -0.026526546 -0.02577275 -0.04232846
-0.023729421 0.043686748 -0.004104326 -0.013245582 -0.08175944 0.030981777 0.010889427 -0.035485562
0.01578858 -0.0013534533 0.03423258 -0.018340362 -0.042534266 -0.053375017 -0.054119844 -0.041184608
-0.048177063 0.018171864 0.017551463 0.007526067 -0.0884564 0.011233834 -0.0335194 0.014954965
-0.056830086 0.050722502 0.047466405 0.030826852 0.030671507 -0.005261457 0.06899893 0.07483063
0.012764903 -0.0042530247 0.09138481 0.09116493 -0.018418368 0.024011603 0.040676996 0.0040151672
0.054555126 -0.0029613418 0.05077311 0.0041553075 -0.0028646737 0.10403348 0.039345507 0.096736565
-0.04716462 -0.07939951 -0.0050195847 -0.013623798 -0.029532218 0.045050852 0.087811984 -0.0018438571
0.07134421 0.021678213 0.06510004 -0.03656117 -0.042009484 -0.037004184 -0.07255156 -0.07155794
0.061721846 0.01723584 0.006180988 -0.0102021415 -0.07902515 0.0051246444 0.03172395 -0.058810163
0.036628217 0.03793557 0.06258696 -0.0019105613 -0.022242125 0.099503204 -0.04027722 0.090360075
0.074206 0.0011066156 -0.024526192 -0.040422738 -0.0013440571 -0.023187416 -0.046495475 0.08390364

weight f4 [192]
00000000: dc6b 7c3f b1b0 7d3f 3685 7e3f 5ce5 783f
00000010: c4ef 7c3f cae0 7e3f 979b 7f3f 22a1 803f
00000020: 34fa 7e3f 86da 7c3f 7f7f 823f c0ea 803f
00000030: 407a 7e3f 9030 833f 9aae 7f3f f8d6 803f
00000040: bf84 803f 861c 813f 82dd 7e3f a45f 7e3f
00000050: 551a 823f b527 803f 102e 7e3f a5bc 823f
00000060: 1e07 7b3f 44a9 7b3f c059 803f 45e8 813f
00000070: e2f5 7e3f cb59 803f 9d24 783f d8ae 7c3f
00000080: 65ca 803f 0c81 743f 0c50 823f ad1f 813f
00000090: fea8 7a3f 132c 823f 10c4 7b3f 1a01 7d3f
000000a0: d42d 7e3f e553 7c3f 4190 7f3f 1456 7c3f
000000b0: 4622 7b3f 22c1 843f 35f2 7e3f 15aa 7b3f
000000c0: 5dba 7c3f 93e4 803f 297a 7d3f 9638 783f
000000d0: 5fc1 7d3f 346f 803f 7799 7b3f b59d 7e3f
000000e0: e950 833f 8a5b 803f 7dda 803f 9a80 7f3f
000000f0: 12ec 7d3f e784 7f3f 3139 7d3f 2b15 783f
00000100: 1177 803f c7e9 7c3f 3685 773f 13e8 7b3f
00000110: c5d5 7e3f c91e 7f3f a690 7b3f cf71 7c3f
00000120: e4c3 753f dcdc 7b3f a73c 7c3f c897 7d3f
00000130: 1677 813f 3e81 7b3f 62b3 7b3f bdc7 803f
00000140: effa 7e3f 85df 773f d881 793f 1710 823f
00000150: ef8e 813f f368 7a3f b7cd 803f 1292 7f3f
00000160: c1c0 7d3f bcc1 7a3f 23d0 7a3f 9921 7c3f
00000170: 3b55 823f 3825 843f b71d 7b3f f398 803f
00000180: f117 7d3f 0490 7b3f b9bb 7e3f e8de 813f
00000190: 5b2e 7f3f 2557 763f a64c 7d3f 37c5 803f
000001a0: d343 7c3f 6abe 753f c0ad 7b3f 73d4 7e3f
000001b0: 1fab 773f 400a 833f b890 7b3f ac41 7d3f
000001c0: 9346 823f da79 7d3f bc98 7c3f f65a 803f
000001d0: 178c 813f f4c8 803f e956 773f 8f19 7c3f
000001e0: 46d7 813f e6e1 7c3f 5643 7e3f 0cd6 803f
000001f0: b01d 7f3f ce04 783f 1e4d 7b3f a323 7d3f
00000200: 409b 803f 60c0 763f 0d9d 773f d5b2 803f
00000210: 953a 7e3f c901 7e3f 4151 803f c032 803f
00000220: 2440 7e3f 207e 803f 6190 7d3f cefa 813f
00000230: 6463 7d3f 281a 7b3f 49c6 7d3f ce0a 7e3f
00000240: 1309 7f3f 3b97 7a3f 6728 803f 742a 843f
00000250: 587a 7f3f 6b3c 7d3f 7835 7c3f 59ce 793f
00000260: ed66 803f 27bb 7e3f 8764 7e3f c754 803f
00000270: 73f7 813f d2ce 7f3f 4986 7c3f fef6 7f3f
00000280: 340a 7a3f 9bd7 7b3f b1bc 813f db05 793f
00000290: 6c66 7d3f 7177 843f 49a3 7e3f 705e 7d3f
000002a0: 46db 7c3f 97f3 7b3f 4a1a 7a3f fb0c 7a3f
000002b0: 6e8c 793f 3590 7b3f d2b0 813f 525a 803f
000002c0: b514 803f 0fbf 793f 47ec 7e3f 9c12 803f
000002d0: 6051 803f eb40 7a3f 4b5c 7e3f a010 813f
000002e0: 625f 823f e95c 7c3f 2a69 7c3f d1e6 7c3f
000002f0: 808d 813f 8242 823f 01fc 793f e572 7c3f
0.9860208 0.99097735 0.99422014 0.97224975 0.98803353 0.9956175 0.99846786 1.0049174
0.9960053 0.9877094 1.0195159 1.007164 0.9940529 1.0249195 0.99875796 1.0065603
1.0040511 1.008683 0.99556744 0.99364686 1.0164286 1.0012118 0.99289036 1.021382
0.98057735 0.98305154 1.002739 1.0149008 0.9959394 1.0027403 0.9693087 0.9870429
1.0061766 0.9550941 1.0180678 1.0087792 0.9791411 1.01697 0.9834604 0.98829806
0.9928868 0.9856551 0.9982949 0.98568845 0.9809917 1.037144 0.9958833 0.983064
0.9872187 1.0069755 0.99014527 0.96961343 0.99123186 1.0033937 0.98281044 0.9945939
1.0259067 1.0027936 1.0066677 0.99805605 0.9918834 0.9981217 0.9891539 0.969073
1.0036336 0.98794216 0.9668764 0.9840099 0.99544936 0.9965635 0.9826759 0.9861116
0.9600203 0.9838388 0.9853005 0.99059725 1.0114467 0.9824408 0.9832059 1.0060955
0.99601644 0.9682544 0.9746375 1.016116 1.0121745 0.9781639 1.0062779 0.9983226
0.99122244 0.97951865 0.9797384 0.98488766 1.018226 1.0323858 0.98092216 1.0046676
0.98864657 0.98266625 0.9950519 1.014615 0.9968011 0.9622672 0.9894508 1.0060185
0.9854099 0.95993674 0.98311996 0.9954292 0.96745485 1.0237503 0.982677 0.9892833
1.0177788 0.99014056 0.98670554 1.0027759 1.0120877 1.0061326 0.9661699 0.984765
1.0143821 0.98782194 0.99321496 1.0065322 0.99654675 0.9688233 0.98164546 0.988825
1.0047379 0.9638729 0.96724015 1.0054575 0.9930814 0.99221474 1.0024797 1.0015488
0.9931662 1.003849 0.9904843 1.0154665 0.98979783 0.98086786 0.99130684 0.99235237
0.9962322 0.9788701 1.001233 1.0325456 0.99796057 0.98920316 0.98519087 0.97580487
1.003141 0.9950432 0.9937214 1.0025872 1.015364 0.9992496 0.986424 0.99986255
0.9767182 0.9837586 1.0135709 0.9727456 0.9898441 1.0348951 0.99467903 0.98972225
0.98772085 0.98418564 0.97696364 0.97676057 0.97479904 0.9826692 1.0132086 1.0027564
1.0006319 0.9755716 0.9957928 1.0005679 1.0024834 0.97755307 0.9935958 1.0083199
1.0185359 0.9857927 0.9859797 0.987897 1.0121307 1.0176547 0.9765015 0.98612815

bias f4 [192]
00000000: 01ff 413d 92b2 a73c 017e 473d 0655 4e3d
00000010: 1183 a2bc f8c6 053d ae50 dd3c b102 a73c
00000020: 04ca 0ebd d53f bf3c 34ce 4f3d 7745 41bb
00000030: 84b3 a43d 7ec7 2d3d d62c e33c 83fe 963d
00000040: 16dc 7f3d f70d 333d e7eb 343d d768 fa3c
00000050: fa85 a93d 1dbe 3e3d af9b 1f3d c017 4b3c
00000060: d91e bebc 6c0d 31bd 0ee7 ef3c 67e3 c83d
00000070: 51ff 1c3d cf8f 163d 8b85 a4bc 5493 ae3c
00000080: f673 063d 8af4 5d3c 16da b43d f801 cebc
00000090: f8fa aab9 87d5 3f3d 75ec 9d3c 928e d33c
000000a0: a001 1f3d 3dc5 b6bc 445d f73a a3ab 06bd
000000b0: 53f1 0dbd d286 073d 14ce 5e3d 8c1d 65bc
000000c0: 6a10 003b 9fb2 ae3d 0583 5f3d b41a 3dbd
000000d0: e950 80bb 4b29 a83d 45c4 233d 0bfe 043d
000000e0: 6e65 bc3d 3464 6b3d bfd8 7f3d 751f f03b
000000f0: 29fa 013d afa0 8c3d fa9c 46bd 9833 583b
00000100: 26c0 e83c 3ccd 94bc 5c23 d4bb 9251 263c
00000110: 2f46 d23b 4685 633d f0fd a33b be34 103d
00000120: 31b4 1a3c 0091 2b3d 0d6a 5c3d 2c8f 483d
00000130: 47ae 173d 3516 2e3d dc81 123c ad36 2f3d
00000140: 9c3f dbbc 4c8c 833b 1620 663c 75f7 1c3d
00000150: 220c 57bb f6f8 bf3c 9904 553c 06d9 da3b
00000160: e9c5 193d d79e 923c 234a 213d 6e9f 95bc
00000170: c22a 3e3d ac81 0a3d 5c64 90bc ceb9 edbc
00000180: 3c44 063d fc13 41bd e29d 733d 6d80 b63d
00000190: 947a 653d e0d6 803a 0637 ec3c 211f a33c
000001a0: 2ae5 233d 3d49 243b 16de d23b 5cbc 9c3b
000001b0: f42e 0cbd 5f40 323d f755 09bd bad9 d13c
000001c0: e38a ae3d 85a5 a2bb b29f 143d 5596 123d
000001d0: 8192 b33c 4603 8f3c 2ef1 d7bc 9226 cd3b
000001e0: 642f c43b 8031 263d 458a 57bc 366f c73c
000001f0: 111d c1bc 616e 4f3c d190 d9bc 3c9c 4bbd
00000200: 9e36 a73c c2cc 5e3c 7828 163b 9b27 863d
00000210: 5877 413d 79da 523d c697 763d 821b b33d
00000220: a8e3 9cbc 9ba6 b33c 8f0a 2dbc c783 ea3c
00000230: ec5e ed3c eccb 6c3d c305 743d 6799 5a3d
00000240: 07e2 bc3c 09fa a3bc b870 993d 01f1 2f3d
00000250: 22c4 843d 0a53 843d 7daf 143d 7439 c03c
00000260: 6869 273d 8028 b73d 381d 4d3d e32f fd3c
00000270: e404 723c 0748 973d 21c1 7e3c 9ca7 f8bc
00000280: 87e3 443d f435 16bb 0895 b53d faba a93c
00000290: 19ca 01bd ae8b 093d 2a3d 63bb 5999 4d3d
000002a0: 645e de3c 48cf 01bd ac75 103d 021d 2bbd
000002b0: 08ee 39bb 9c08 433d 47f5 243d d034 993d
000002c0: c4b3 dbbc f7ec 36bd 6b58 753d 9132 9e3d
000002d0: 3976 9d3d 7bb0 a2bc 0696 2e3d 2b12 133d
000002e0: 751d 293d ea00 3abc a818 5f3d 4df6 263d
000002f0: edf3 a03d 5502 d43c c894 1abb 9e3a 9d3d
0.04736233 0.020470891 0.04870415 0.050374053 -0.019837888 0.032660455 0.02701601 0.020387026
-0.034860626 0.023345867 0.05073376 -0.0029490867 0.080420524 0.04242658 0.02773134 0.07372763
0.06246575 0.04371449 0.044170287 0.03056757 0.08277507 0.046568025 0.03896683 0.012395799
-0.023208069 -0.04322569 0.02928498 0.098089986 0.038329426 0.03675824 -0.02008321 0.021310486
0.032825433 0.013547072 0.08830659 -0.025147423 -0.00032611913 0.046834495 0.01927779 0.025824819
0.03881991 -0.022310847 0.00188724 -0.03287853 -0.034653973 0.03308756 0.05439575 -0.013984095
0.0019541034 0.08530163 0.05456831 -0.046168044 -0.0039158952 0.08211001 0.0399821 0.032468837
0.09199034 0.057468608 0.062462565 0.0073279687 0.031732712 0.068665855 -0.04848955 0.0032989737
0.028411936 -0.01816427 -0.0064739417 0.010151284 0.006417058 0.05554702 0.005004637 0.03520655
0.009442375 0.04188633 0.053812075 0.048964664 0.03703144 0.042501647 0.008942094 0.042776752
-0.02676373 0.0040145274 0.014045736 0.03832193 -0.0032813628 0.023434144 0.013001584 0.0066787032
0.037542257 0.017898006 0.039377343 -0.018264499 0.046427496 0.03381507 -0.01762598 -0.029019263
0.032779917 -0.0471382 0.05947674 0.08911214 0.056025103 0.0009829663 0.028834831 0.019912304
0.04001347 0.0025068067 0.006435166 0.0047831964 -0.034224465 0.04351842 -0.033529248 0.025616515
0.08522584 -0.004963579 0.03628511 0.0357879 0.021920444 0.017457616 -0.02636012 0.0062607015
0.0059870947 0.04057455 -0.013155525 0.024345022 -0.02357343 0.012660594 -0.026558312 -0.049709544
0.020411786 0.013598623 0.0022912305 0.06550523 0.047232956 0.051477883 0.060203336 0.08745481
-0.019151524 0.02193003 -0.010561599 0.02862729 0.028975926 0.057811663 0.059575807 0.053368952
0.023056997 -0.020016687 0.074922025 0.04295445 0.06482722 0.06461151 0.03630017 0.023464896
0.040872008 0.08943272 0.050076693 0.030906623 0.014771674 0.07386785 0.015548975 -0.03035336
0.04806855 -0.0022920342 0.08866316 0.02071904 -0.031686876 0.033580475 -0.0034673908 0.05019507
0.027144618 -0.03169182 0.03526847 -0.04177571 -0.0028370637 0.047615632 0.040272977 0.07480776
-0.026819117 -0.04465958 0.059898775 0.077244885 0.07688565 -0.019859543 0.042623542 0.035906
0.041287858 -0.011352757 0.054466873 0.040762234 0.07859025 0.025880018 -0.0023587216 0.07677196

running_mean f4 [192]
00000000: c630 23c0 3a2d b3c1 4784 a6c0 333e 0041
00000010: 83a5 04c1 80bc cb40 d0c2 bec1 5afe 16c0
00000020: 8668 e6c1 bf13 b5c0 d32d 63c1 a275 a7c0
00000030: b24c 1a41 682c bfc1 8df8 45c0 2798 6d41
00000040: 205d a540 e54c bac1 7cdf 45c1 5081 c6bf
00000050: aada df41 2921 0f40 d776 85c0 59df d741
00000060: 46bf 07c0 f9cf aec1 912f 0ac0 97f8 9840
00000070: afcf f2c0 183c 4fc1 5733 6a41 274f e641
00000080: 1072 98c1 f299 84c1 29ce b841 8eb8 35c0
00000090: 22d3 6abe 2cbf 81c1 4bae 67c1 c4ab 93c1
000000a0: 51ee 3441 beaa 59c0 cac6 21c1 8627 adc0
000000b0: 2d34 58c0 c1d9 41c0 4e1a 3640 1b9a 25c1
000000c0: 0f59 1ac1 dc4b 4741 dbb9 38c0 ae41 4841
000000d0: 8c21 aabf 5415 2740 c7de 4940 6d20 dac1
000000e0: ced4 ba41 8da1 c5c1 3273 31c0 3e22 b4c1
000000f0: b00d 0a41 2235 0cc1 af65 09c0 0801 4341
00000100: 6335 9abf fa67 14c0 2a13 38bd 4e90 0940
00000110: 3f1c a9bf aee5 cdc1 4eaa 3dc0 5e74 8fc0
00000120: 71b0 0541 56ea 6a41 f902 27c0 8484 9341
00000130: e2cb 9fc1 c4e8 b0c1 0cd1 f8bf 38b4 18c0
00000140: 5c0c b3bf 0868 bdbf b2d8 c5c0 1345 2ac1
00000150: 99a5 0641 7a48 87c1 98ef 1bc0 24a6 75c0
00000160: eaab bdc1 97f2 d3c1 46e9 6141 8487 aec0
00000170: 1e9b 60c1 f224 1fc1 5b80 8e41 0be4 41c0
00000180: ec6a 89c1 d019 eabf ac04 1841 3311 0d41
00000190: 79f5 9c41 5fc1 3ec1 d041 50c1 62a4 bcc1
000001a0: a317 e2c1 9933 00c1 764a a2c1 b866 3c40
000001b0: 036e 58bf 3984 9dc1 b1e7 94c1 1b59 a5bf
000001c0: 05e2 d340 8b80 0cc1 7eff b53f 4761 e5c1
000001d0: f23d ed40 3ca6 66c1 8919 d8c1 ac6a 12c0
000001e0: 33c7 fdc0 fee6 cd41 c908 f0bf c8b7 9540
000001f0: c2b3 e0bf 965e 91be 382a 02c1 1bfa 83c1
00000200: 157d 2441 0ca8 2ec1 1dbf d9c1 cbef c340
00000210: daf1 adc1 04ab 86c0 e85f 71c1 cd65 2dc1
00000220: 88d6 76c0 89c9 e9c1 d548 4dbf 3ad7 db41
00000230: 21f8 e6c0 ee3f b241 f679 7fc1 f4c6 d541
00000240: 4e02 b03f 26b8 8fc0 ef2d 8a41 8d91 cfc1
00000250: 2746 893e 4030 9440 c5ce 39c0 d1f9 0ec0
00000260: 87d0 45c0 3a80 cb40 0502 0b41 4614 6b40
00000270: fe95 8741 c6ea c441 cf84 dbbf 3c2e 5cc1
00000280: 7341 b641 e672 81c0 51b8 9c40 733b d141
00000290: d8b1 dac1 24b0 97c1 f026 a7c0 e474 96c0
000002a0: 30a4 3c41 43ab a441 b0b3 3740 8e7f 3641
000002b0: aa66 2f41 1a08 bec0 2041 0ac0 3f84 75bf
000002c0: c1b1 db3f 49bc d4c1 d044 0e41 47ad e541
000002d0: ea75 04c1 9852 3840 018b 1840 8d98 c2c1
000002e0: 17d9 cfc1 4bac cfbf 44e2 a241 f62e 00c0
000002f0: 6b6d f940 9992 5dc1 8f47 75c1 e50c a941
-2.549852 -22.397083 -5.203647 8.015185 -8.290408 6.3667603 -23.845123 -2.3592744
-28.801037 -5.6586604 -14.198688 -5.2331095 9.643724 -23.896683 -3.0932953 14.849647
5.167618 -23.287546 -12.367062 -1.5508213 27.98177 2.236399 -4.170757 26.984056
-2.1210494 -21.85155 -2.1591532 4.7803454 -7.587852 -12.952171 14.637534 28.788649
-19.055695 -16.575169 23.100664 -2.8393893 -0.22932103 -16.218346 -14.480052 -18.45887
11.308183 -3.4010463 -10.1110325 -5.4110746 -3.3781846 -3.0289156 2.8453555 -10.350123
-9.646743 12.45602 -2.8863437 12.516035 -1.3291488 2.6106768 3.1542222 -27.265833
23.353909 -24.703882 -2.772656 -22.51672 8.628342 -8.762972 -2.1468313 12.187752
-1.2047542 -2.3188462 -0.04494015 2.1494327 -1.3211745 -25.737148 -2.9635196 -4.482955
8.3555765 14.682211 -2.6095564 18.439705 -19.974552 -22.113655 -1.9438796 -2.3859997
-1.3988147 -1.4797373 -6.182702 -10.641864 8.415429 -16.910389 -2.4364986 -3.8382654
-23.708942 -26.493452 14.1194515 -5.4540424 -14.03787 -9.94652 17.812674 -3.0295436
-17.177208 -1.8289127 9.501141 8.816699 19.61986 -11.92221 -13.0160675 -23.580265
-28.261541 -8.012597 -20.286358 2.9437695 -0.84542865 -19.689562 -18.61313 -1.2917818
6.6213403 -8.781383 1.4218595 -28.672499 7.4138117 -14.415585 -27.012468 -2.2877607
-7.9305663 25.73779 -1.8752681 4.678684 -1.7554858 -0.28392476 -8.135307 -16.497122
10.280538 -10.916027 -27.218317 6.1230216 -21.743092 -4.208376 -15.085915 -10.837354
-3.856844 -29.223406 -0.8018926 27.480091 -7.217789 22.281216 -15.967276 26.722145
1.3750703 -4.491229 17.272429 -25.94607 0.26811334 4.63089 -2.9032452 -2.2339976
-3.0908525 6.3594027 8.687993 3.6731124 16.948238 24.614635 -1.7149905 -13.761288
22.781958 -4.0452757 4.8974996 26.154028 -27.336838 -18.961006 -5.223503 -4.701769
11.790085 20.583624 2.8703423 11.406141 10.962564 -5.938489 -2.160225 -0.95904917
1.7163621 -26.591936 8.8918 28.709608 -8.278788 2.8800411 2.3834841 -24.324488
-25.981 -1.6224455 20.360481 -2.0028663 7.7946067 -13.84829 -15.32997 21.131296
