Graph Neural Network/Models/SAGEConv-D1-F1-mean.pth (torch, 617064 bytes, 15 tensors)

weight f4 [192, 224]
00000000: b4ec c83a b4ec c83a b4ec c83a b6ec c83a
00000010: b4ec c83a b4ec c83a b4ec c83a b4ec c83a
00000020: b4ec c83a b4ec c83a b4ec c83a b4ec c83a
00000030: b4ec c83a b4ec c83a b4ec c83a b4ec c83a
00000040: b6ec c83a b4ec c83a b4ec c83a b4ec c83a
00000050: b4ec c83a b4ec c83a b4ec c83a b4ec c83a
00000060: b6ec c83a b4ec c83a b4ec c83a b4ec c83a
00000070: b4ec c83a b6ec c83a b6ec c83a b4ec c83a
00000080: b4ec c83a b4ec c83a b4ec c83a b6ec c83a
00000090: b4ec c83a b4ec c83a b4ec c83a b4ec c83a
000000a0: b4ec c83a b4ec c83a b4ec c83a b4ec c83a
000000b0: b4ec c83a b6ec c83a b6ec c83a b4ec c83a
000000c0: b4ec c83a b4ec c83a b4ec c83a b6ec c83a
000000d0: b4ec c83a b6ec c83a b4ec c83a b4ec c83a
000000e0: b4ec c83a b4ec c83a b4ec c83a b6ec c83a
000000f0: b4ec c83a b6ec c83a b4ec c83a b4ec c83a
00000100: b4ec c83a b6ec c83a b4ec c83a b4ec c83a
00000110: b4ec c83a b6ec c83a b4ec c83a b4ec c83a
00000120: b4ec c83a b4ec c83a b4ec c83a b4ec c83a
00000130: b4ec c83a b4ec c83a b4ec c83a b4ec c83a
00000140: b6ec c83a b4ec c83a b4ec c83a b6ec c83a
00000150: b4ec c83a b4ec c83a b4ec c83a b4ec c83a
00000160: b6ec c83a b4ec c83a b4ec c83a b4ec c83a
00000170: b4ec c83a b4ec c83a b4ec c83a b6ec c83a
00000180: b4ec c83a b4ec c83a b4ec c83a b4ec c83a
00000190: b4ec c83a b4ec c83a b4ec c83a b4ec c83a
000001a0: b6ec c83a b6ec c83a b4ec c83a b4ec c83a
000001b0: b4ec c83a b4ec c83a b4ec c83a b4ec c83a
000001c0: b4ec c83a b4ec c83a b4ec c83a b4ec c83a
000001d0: b6ec c83a b4ec c83a b6ec c83a b6ec c83a
000001e0: b4ec c83a b4ec c83a b4ec c83a b6ec c83a
000001f0: b4ec c83a b6ec c83a b6ec c83a b4ec c83a
00000200: b4ec c83a b4ec c83a b4ec c83a b4ec c83a
00000210: b4ec c83a b4ec c83a b4ec c83a b4ec c83a
00000220: b4ec c83a b4ec c83a b4ec c83a b6ec c83a
00000230: b4ec c83a b4ec c83a b4ec c83a b4ec c83a
00000240: b6ec c83a b6ec c83a b6ec c83a b6ec c83a
00000250: b4ec c83a b4ec c83a b4ec c83a b4ec c83a
00000260: b4ec c83a b4ec c83a b4ec c83a b4ec c83a
00000270: b6ec c83a b4ec c83a b4ec c83a b4ec c83a
00000280: b4ec c83a b4ec c83a b4ec c83a b4ec c83a
00000290: b4ec c83a b4ec c83a b4ec c83a b4ec c83a
000002a0: b4ec c83a b4ec c83a b6ec c83a b4ec c83a
000002b0: b4ec c83a b6ec c83a b4ec c83a b6ec c83a
000002c0: b4ec c83a b4ec c83a b4ec c83a b4ec c83a
000002d0: b4ec c83a b4ec c83a b4ec c83a b6ec c83a
000002e0: b4ec c83a b4ec c83a b6ec c83a b4ec c83a
000002f0: b4ec c83a b4ec c83a b4ec c83a b4ec c83a
00000300: b4ec c83a b4ec c83a b6ec c83a b6ec c83a
00000310: b4ec c83a b4ec c83a b4ec c83a b4ec c83a
00000320: b4ec c83a b4ec c83a b4ec c83a b4ec c83a
00000330: b4ec c83a b4ec c83a b4ec c83a b4ec c83a
00000340: b4ec c83a b4ec c83a b4ec c83a b6ec c83a
00000350: b4ec c83a b6ec c83a b4ec c83a b4ec c83a
00000360: b4ec c83a b4ec c83a b4ec c83a b4ec c83a
00000370: b4ec c83a b6ec c83a b4ec c83a b4ec c83a
00000380: 35ab b339 35ab b339 35ab b339 35ab b339
00000390: 35ab b339 35ab b339 35ab b339 35ab b339
000003a0: 35ab b339 35ab b339 35ab b339 35ab b339
000003b0: 35ab b339 35ab b339 35ab b339 35ab b339
000003c0: 35ab b339 35ab b339 35ab b339 35ab b339
000003d0: 35ab b339 35ab b339 35ab b339 35ab b339
000003e0: 35ab b339 35ab b339 35ab b339 35ab b339
000003f0: 35ab b339 35ab b339 35ab b339 35ab b339
0.0015329332 0.0015329332 0.0015329332 0.0015329334 0.0015329332 0.0015329332 0.0015329332 0.0015329332
0.0015329332 0.0015329332 0.0015329332 0.0015329332 0.0015329332 0.0015329332 0.0015329332 0.0015329332
0.0015329334 0.0015329332 0.0015329332 0.0015329332 0.0015329332 0.0015329332 0.0015329332 0.0015329332
0.0015329334 0.0015329332 0.0015329332 0.0015329332 0.0015329332 0.0015329334 0.0015329334 0.0015329332
0.0015329332 0.0015329332 0.0015329332 0.0015329334 0.0015329332 0.0015329332 0.0015329332 0.0015329332
0.0015329332 0.0015329332 0.0015329332 0.0015329332 0.0015329332 0.0015329334 0.0015329334 0.0015329332
0.0015329332 0.0015329332 0.0015329332 0.0015329334 0.0015329332 0.0015329334 0.0015329332 0.0015329332
0.0015329332 0.0015329332 0.0015329332 0.0015329334 0.0015329332 0.0015329334 0.0015329332 0.0015329332
0.0015329332 0.0015329334 0.0015329332 0.0015329332 0.0015329332 0.0015329334 0.0015329332 0.0015329332
0.0015329332 0.0015329332 0.0015329332 0.0015329332 0.0015329332 0.0015329332 0.0015329332 0.0015329332
0.0015329334 0.0015329332 0.0015329332 0.0015329334 0.0015329332 0.0015329332 0.0015329332 0.0015329332
0.0015329334 0.0015329332 0.0015329332 0.0015329332 0.0015329332 0.0015329332 0.0015329332 0.0015329334
0.0015329332 0.0015329332 0.0015329332 0.0015329332 0.0015329332 0.0015329332 0.0015329332 0.0015329332
0.0015329334 0.0015329334 0.0015329332 0.0015329332 0.0015329332 0.0015329332 0.0015329332 0.0015329332
0.0015329332 0.0015329332 0.0015329332 0.0015329332 0.0015329334 0.0015329332 0.0015329334 0.0015329334
0.0015329332 0.0015329332 0.0015329332 0.0015329334 0.0015329332 0.0015329334 0.0015329334 0.0015329332
0.0015329332 0.0015329332 0.0015329332 0.0015329332 0.0015329332 0.0015329332 0.0015329332 0.0015329332
0.0015329332 0.0015329332 0.0015329332 0.0015329334 0.0015329332 0.0015329332 0.0015329332 0.0015329332
0.0015329334 0.0015329334 0.0015329334 0.0015329334 0.0015329332 0.0015329332 0.0015329332 0.0015329332
0.0015329332 0.0015329332 0.0015329332 0.0015329332 0.0015329334 0.0015329332 0.0015329332 0.0015329332
0.0015329332 0.0015329332 0.0015329332 0.0015329332 0.0015329332 0.0015329332 0.0015329332 0.0015329332
0.0015329332 0.0015329332 0.0015329334 0.0015329332 0.0015329332 0.0015329334 0.0015329332 0.0015329334
0.0015329332 0.0015329332 0.0015329332 0.0015329332 0.0015329332 0.0015329332 0.0015329332 0.0015329334
0.0015329332 0.0015329332 0.0015329334 0.0015329332 0.0015329332 0.0015329332 0.0015329332 0.0015329332
0.0015329332 0.0015329332 0.0015329334 0.0015329334 0.0015329332 0.0015329332 0.0015329332 0.0015329332
0.0015329332 0.0015329332 0.0015329332 0.0015329332 0.0015329332 0.0015329332 0.0015329332 0.0015329332
0.0015329332 0.0015329332 0.0015329332 0.0015329334 0.0015329332 0.0015329334 0.0015329332 0.0015329332
0.0015329332 0.0015329332 0.0015329332 0.0015329332 0.0015329332 0.0015329334 0.0015329332 0.0015329332
0.000342691 0.000342691 0.000342691 0.000342691 0.000342691 0.000342691 0.000342691 0.000342691
0.000342691 0.000342691 0.000342691 0.000342691 0.000342691 0.000342691 0.000342691 0.000342691
0.000342691 0.000342691 0.000342691 0.000342691 0.000342691 0.000342691 0.000342691 0.000342691
0.000342691 0.000342691 0.000342691 0.000342691 0.000342691 0.000342691 0.000342691 0.000342691

bias f4 [192]
00000000: cf60 a530 afc6 1fb6 799b 9136 03ba d336
00000010: 3cac 9d36 5eb0 ee32 663d c633 4b41 8936
00000020: 2ecc 21b7 cd20 66b6 f797 b3b6 5a15 9faf
00000030: 4199 4935 5800 5bb6 68c9 ab36 3b64 fcb2
00000040: 6b9b 8137 23c3 eaaf 8836 4736 d522 95b6
00000050: 693d c8af 2ce2 08b7 56d0 1137 5780 dab4
00000060: 002a db32 438f 8ab5 645d 4e36 ff62 03b7
00000070: 68bf e4b6 5126 4531 e1ff 7ab3 bba0 3037
00000080: 59ec 5436 6f27 0632 f8dc 49b6 6a15 4834
00000090: 97ad 41b4 de0d 32b6 163a 842d 86ee 82b7
000000a0: ca3e 0bb5 a79e 9ab7 369b 23b6 93df a1b4
000000b0: c487 a735 43af 0cb8 c6ed d533 accc c936
000000c0: 3df6 0335 23cc a3b3 b89b 80b7 f348 0c36
000000d0: 9470 e9b4 0935 1734 d8d9 1237 3852 7e36
000000e0: d7d2 a9b7 2a1e c237 2623 f8b7 0651 cd31
000000f0: 9e4b d837 5c3b d4b6 ae45 b6b5 f1fc 78b3
00000100: ced5 6235 95af c4b7 e73d c434 42fa 30b7
00000110: 8683 2537 2204 8533 ba96 15b3 1c4f 7337
00000120: 2c25 2db5 ea89 27b7 b381 21b4 7d6b d7b5
00000130: 7432 5335 4120 a4b3 40ab 13b2 b357 fab6
00000140: 23dd be35 4d25 e8b1 4c2c 4bb8 cc8e 9a35
00000150: 3640 9fae 7a39 beb5 d6aa f7b4 11dd 8c34
00000160: c6fd 90b5 ea61 2eb5 f10e d12c 2224 75b7
00000170: 9ce2 3d36 4ecf 8c34 073a 81b7 e846 1434
00000180: 410c a735 df6e 41b6 7dd5 d0b4 62aa efb6
00000190: f8ed ccb3 8fe7 8433 b33f 4a32 2075 84b7
000001a0: b658 f036 8cbf 14b5 5855 a8ae ae2e 24b6
000001b0: 28aa 9eb6 c75c b1b3 4ef4 2db6 822d cab5
000001c0: 4bdd a731 043e 0cb3 f45c 4db5 57a8 37b5
000001d0: 12eb b137 f938 0db7 dd13 7036 45f6 3e37
000001e0: bb6a 1d37 a35c ae32 9721 e736 721e 4c37
000001f0: 1fe9 4ab7 7c2a dc35 53c7 55b5 7754 3cb5
00000200: 3da4 1435 d460 e136 f84c 38b6 dc44 b233
00000210: bcc4 15b5 da31 c7b6 1da6 1f36 a484 4c35
00000220: 3ad0 e3b7 b2e9 26b8 d5f1 4b35 18b0 52b3
00000230: 8783 20b0 594b 12b5 6dd3 8035 ee88 7537
00000240: 0f70 a62f f1a3 38b7 8253 02b8 78fa 9d34
00000250: 721a c5b6 4398 26b3 ed38 edb4 165b 02b7
00000260: 7ff5 3e37 68b0 9034 3d82 21b3 fc21 09b4
00000270: 6b27 8634 5ead 08b7 e688 d4b7 f553 1f33
00000280: ef7f 53b3 e9bd b9b6 ea27 b5b6 09ae 0eb6
00000290: c6a3 49b6 5cab 2736 1682 8a37 dec8 dbb4
000002a0: 8c16 0736 4622 82b5 6a56 deb3 a7e7 0632
000002b0: 2d43 beb5 38a3 8a37 fb48 4333 0b44 89b3
000002c0: 8d27 aab7 6d34 6e37 0975 49af 5b5e 2f36
000002d0: 0911 8d34 a482 d9b2 060a a734 91be b8b1
000002e0: 3ccb b135 0aae fd37 b205 a836 8988 36b4
000002f0: d64f 0337 41de c92d f413 0c37 dfb2 212f
1.2032845e-09 -2.3808495e-06 4.339436e-06 6.3099446e-06 4.6990153e-06 2.7787049e-08 9.231262e-08 4.0905193e-06
-9.643887e-06 -3.4291763e-06 -5.3523067e-06 -2.8937103e-10 7.510135e-07 -3.2633743e-06 5.119644e-06 -2.938224e-08
1.545037e-05 -4.2703005e-10 2.9685052e-06 -4.444601e-06 -3.6423423e-10 -8.158891e-06 8.6911805e-06 -4.0699044e-07
2.5514055e-08 -1.0323496e-06 3.0750753e-06 -7.831258e-06 -6.817212e-06 2.8689053e-09 -5.844038e-08 1.05278405e-05
3.1728034e-06 7.808793e-09 -3.0079955e-06 1.8634242e-07 -1.8037677e-07 -2.6532139e-06 1.5032458e-11 -1.5608279e-05
-5.1872905e-07 -1.8432109e-05 -2.4379237e-06 -3.0151259e-07 1.2481983e-06 -3.3541826e-05 9.961836e-08 6.0140937e-06
4.9159627e-07 -7.627411e-08 -1.5331301e-05 2.0904088e-06 -4.3481543e-07 1.4082265e-07 8.752999e-06 3.7896807e-06
-2.024455e-05 2.3140648e-05 -2.9580271e-05 5.9754965e-09 2.5784419e-05 -6.3250027e-06 -1.3580336e-06 -5.797205e-08
8.450269e-07 -2.3446783e-05 3.6552885e-07 -1.0548685e-05 9.865389e-06 6.194047e-08 -3.482885e-08 1.4502348e-05
-6.4501614e-07 -9.986086e-06 -1.5041478e-07 -1.6050031e-06 7.8677044e-07 -7.642712e-08 -8.595464e-09 -7.46079e-06
1.4220462e-06 -6.7563293e-09 -4.8440226e-05 1.1515453e-06 -7.241889e-11 -1.4172831e-06 -4.6131635e-07 2.623788e-07
-1.0802694e-06 -6.4962535e-07 5.941796e-12 -1.4611551e-05 2.8295099e-06 2.6227866e-07 -1.540502e-05 1.380937e-07
1.2446036e-06 -2.8823777e-06 -3.8898352e-07 -7.14259e-06 -9.5427765e-08 6.188849e-08 1.1772431e-08 -1.5790167e-05
7.1628847e-06 -5.5413034e-07 -7.6549156e-11 -2.4465076e-06 -4.7285757e-06 -8.259081e-08 -2.5921213e-06 -1.5063417e-06
4.885498e-09 -3.2652693e-08 -7.6503716e-07 -6.841778e-07 2.1209507e-05 -8.41752e-06 3.5774349e-06 1.1382222e-05
9.382779e-06 2.0298392e-08 6.888247e-06 1.2166436e-05 -1.2094416e-05 1.6403642e-06 -7.963874e-07 -7.015837e-07
5.5373295e-07 6.716795e-06 -2.7462938e-06 8.3012964e-08 -5.579311e-07 -5.9364656e-06 2.3789537e-06 7.618894e-07
-2.7157472e-05 -3.979513e-05 7.5975305e-07 -4.905459e-08 -5.839457e-10 -5.4498884e-07 9.598276e-07 1.4635019e-05
3.0274847e-10 -1.1005425e-05 -3.1072188e-05 2.942577e-07 -5.874136e-06 -3.8788368e-08 -4.418611e-07 -7.769811e-06
1.13820415e-05 2.6950443e-07 -3.7604185e-08 -1.2771483e-07 2.4988125e-07 -8.146597e-06 -2.5336118e-05 3.709643e-08
-4.924362e-08 -5.535538e-06 -5.398867e-06 -2.126095e-06 -3.0046663e-06 2.4984683e-06 1.6511458e-05 -4.093808e-07
2.0129692e-06 -9.69573e-07 -1.0353399e-07 7.852498e-09 -1.4175654e-06 1.6526887e-05 4.546835e-08 -6.3919366e-08
-2.0283996e-05 1.4198112e-05 -1.8322423e-10 2.6131954e-06 2.627569e-07 -2.5321533e-08 3.1113467e-07 -5.3767697e-09
1.3246677e-06 3.0240994e-05 5.007453e-06 -1.6999742e-07 7.826797e-06 2.2949755e-11 8.349296e-06 1.4706412e-10

weight f4 [192, 224]
00000000: 4fe1 05b7 0a21 a7b3 2dde 16b3 8729 16b3
00000010: 2c83 11b7 07a7 51b4 2f3a 9ab3 45b6 81b3
00000020: ba8c 16b3 10d9 90b3 7fd0 70b3 4fe1 05b7
00000030: 5d4b 36b4 f882 61b3 3c0e a1b3 4468 c5b6
00000040: 8c76 a7b3 b100 37b3 9a85 eb34 fe3a 93b3
00000050: 4232 36b4 4fe1 05b7 a63f 6eb3 cdbc 04b4
00000060: 4fe1 05b7 9aa4 41b4 ec0d 52b3 c542 0eb7
00000070: ad76 15b3 d9c4 3ab3 f069 d0b2 4fe1 05b7
00000080: 1c15 7bb3 b582 3ab3 7385 dcb2 842c 7535
00000090: eda2 eeb5 8396 61b6 456e 53b4 f872 51b4
000000a0: a6f1 e533 4fe1 05b7 d57b 9cb2 d702 05b3
000000b0: 4fe1 05b7 7ee9 9eb3 811e 84b3 7084 bd32
000000c0: 9d2c 8335 7681 6b34 e61b a4b3 ebae 45b4
000000d0: 1075 8bb3 4949 3bb4 bc47 1bb7 0f69 10b4
000000e0: 8947 87b6 4bdd 44b2 9861 28b3 6e4f 46b7
000000f0: 3395 4ab3 17ee d2b2 2911 0fb3 3593 c4b2
00000100: 6bbb 47b7 5225 4eb4 9ed0 8eb3 a6e6 a4b3
00000110: c659 52b2 eb55 16b3 84eb 08b3 05d9 5fb3
00000120: 3cd7 94b3 a106 64b2 f0af f534 62f9 14b3
00000130: 16ba 17b7 c3eb 8db3 5ee5 05b7 d890 82b3
00000140: 42d4 43b3 1a48 77b3 094e e5b2 413f 3c32
00000150: 71aa 04b3 46f4 6eb3 448c deb2 4fe1 05b7
00000160: 4fe1 05b7 fb87 46b4 0069 6db3 193f 38b7
00000170: 5f8a 70b3 8e13 a4b3 3679 32b3 bba0 75b3
00000180: eebf e7b3 67a8 1cb7 cd7a 7eb3 8969 62b3
00000190: ffde 05b7 be60 58b3 4fe1 05b7 53df 5ab3
000001a0: 3440 69b3 5101 e2b6 f207 70b1 4fe1 05b7
000001b0: 752c 02b3 78bb a7b3 fefd 6d34 ffde 05b7
000001c0: b9e7 a0b3 ff67 bfb2 4d80 33b3 a9b9 05b3
000001d0: dc4f 25b5 3f7a c6b2 48e4 6db3 0bae 10b7
000001e0: c748 68b3 8152 32b4 f0ef 05b7 b13b d534
000001f0: 8919 27b3 ffde 05b7 4fe1 05b7 054f 6cb3
00000200: cad4 43b4 09be 80b3 e409 44b4 6a46 8534
00000210: d3b1 5ab3 b7fa 8cb3 2db0 8cb3 5951 21b7
00000220: aab5 3cb3 452c 31b4 6f33 34b3 5ee5 05b7
00000230: 3a18 44b7 8e26 3835 d68c 50b3 3945 c7b2
00000240: 9d4c 7db3 538b 4cb3 3ed6 a234 589f a5b3
00000250: c9c5 12b7 511e 93b2 9911 1d35 5010 00b3
00000260: c78e ffb2 7aff 6fb3 7546 8632 819f ec34
00000270: abfe 0cb7 aafa 6832 b011 f534 eafb f6b2
00000280: e94e d634 e769 3835 dac9 9eb3 4fe1 05b7
00000290: f3e7 7ab6 6106 23b6 49b3 1bb7 719e d434
000002a0: c422 5bb3 2d83 06b7 4fe1 05b7 a5eb 66b3
000002b0: d11c 68b3 207a 05b3 9c01 a3b3 4fe1 05b7
000002c0: 9c5f 93b6 065c 58b4 c523 cbb2 68f9 30b3
000002d0: da7c 72b3 0095 8635 b0e8 8d30 e8a9 38b4
000002e0: 4fe1 05b7 6099 5bb3 c06d 29b3 3516 19b3
000002f0: a658 0db3 79d3 a6b3 96fe 29b5 9415 8f34
00000300: e458 38b4 abc4 68b3 b342 67b3 4ddc 6fb3
00000310: 8737 d6b2 2b64 4fb3 c2c5 6432 24fc 05b3
00000320: 5643 1e32 661b 80b3 a2be 61b3 4fe1 05b7
00000330: 9fd9 13b3 1dd8 51b4 de9f 6db3 4859 1335
00000340: 2536 4732 4fe1 05b7 eeec 96b3 54be 2eb3
00000350: 8dac e734 3b97 ccb2 719e 12b7 d7ec 8fb2
00000360: 9ae5 6ab3 99a1 c4b2 4fe1 05b7 e702 6eb3
00000370: 5b65 2ab7 1c93 6bb3 a6cf 4cb3 ee8d 19b3
00000380: afde 76b4 b04e 4037 adb4 b9b5 ed5a e934
00000390: f8b5 2f37 22b1 a835 6c7b b335 fc40 2136
000003a0: e416 3b37 c1d8 ac34 230b 08b6 7cec bdb3
000003b0: 9ae1 ac34 ef1b 3037 a819 0eb6 ef0c 72b4
000003c0: 8dda 0fb6 65b5 ab34 33a5 ad34 b755 1337
000003d0: 97e2 bdb6 23d0 1e34 0d96 ae34 0539 0634
000003e0: acf7 9f34 219c 8c36 3fe0 ac34 ce88 2834
000003f0: 2df8 dbb3 523c 3e37 aa21 4435 25ff de36
-7.9798765e-06 -7.782553e-08 -3.5126664e-08 -3.4962365e-08 -8.673214e-06 -1.9525406e-07 -7.1817674e-08 -6.040185e-08
-3.5052587e-08 -6.745006e-08 -5.606898e-08 -7.9798765e-06 -1.6977488e-07 -5.250601e-08 -7.499736e-08 -5.8831956e-06
-7.798107e-08 -4.2608637e-08 4.386937e-07 -6.8559515e-08 -1.6968355e-07 -7.9798765e-06 -5.547158e-08 -1.2362143e-07
-7.9798765e-06 -1.8034407e-07 -4.8907097e-08 -8.479406e-06 -3.47997e-08 -4.348553e-08 -2.4262562e-08 -7.9798765e-06
-5.845969e-08 -4.3425377e-08 -2.5672056e-08 9.133439e-07 -1.77798e-06 -3.3615222e-06 -1.9691022e-07 -1.9506467e-07
1.0707599e-07 -7.9798765e-06 -1.8217102e-08 -3.096906e-08 -7.9798765e-06 -7.39992e-08 -6.1522776e-08 2.2062721e-08
9.773245e-07 2.1933178e-07 -7.64192e-08 -1.841069e-07 -6.4939854e-08 -1.7442393e-07 -9.255422e-06 -1.3449265e-07
-4.0316413e-06 -1.1459018e-08 -3.920431e-08 -1.1820213e-05 -4.7167486e-08 -2.4555488e-08 -3.331039e-08 -2.2884345e-08
-1.1904961e-05 -1.9198822e-07 -6.6503375e-08 -7.6788e-08 -1.2244021e-08 -3.500274e-08 -3.1879168e-08 -5.211861e-08
-6.930938e-08 -1.3272854e-08 4.5762818e-07 -3.4685748e-08 -9.043628e-06 -6.608709e-08 -7.9808215e-06 -6.079944e-08
-4.5595023e-08 -5.7574745e-08 -2.6694595e-08 1.09574225e-08 -3.088866e-08 -5.563586e-08 -2.5907987e-08 -7.9798765e-06
-7.9798765e-06 -1.8489656e-07 -5.527636e-08 -1.0981946e-05 -5.6005202e-08 -7.640402e-08 -4.1554095e-08 -5.718969e-08
-1.07916875e-07 -9.337534e-06 -5.925067e-08 -5.271571e-08 -7.979338e-06 -5.0379406e-08 -7.9798765e-06 -5.0960193e-08
-5.4307932e-08 -6.735478e-06 -3.4929113e-09 -7.9798765e-06 -3.0308417e-08 -7.810644e-08 2.2164747e-07 -7.979338e-06
-7.492731e-08 -2.2282618e-08 -4.1793374e-08 -3.1135333e-08 -6.15835e-07 -2.3105825e-08 -5.5388483e-08 -8.623591e-06
-5.40829e-08 -1.6607557e-07 -7.983283e-06 3.9717773e-07 -3.890594e-08 -7.979338e-06 -7.9798765e-06 -5.50199e-08
-1.8238202e-07 -5.995032e-08 -1.825752e-07 2.4824413e-07 -5.091881e-08 -6.564863e-08 -6.551304e-08 -9.615288e-06
-4.3937384e-08 -1.6500515e-07 -4.1956294e-08 -7.9808215e-06 -1.1688151e-05 6.8601446e-07 -4.8556863e-08 -2.3198128e-08
-5.8975832e-08 -4.7624166e-08 3.0330733e-07 -7.712396e-08 -8.748329e-06 -1.7126839e-08 5.8512666e-07 -2.981716e-08
-2.9750835e-08 -5.587888e-08 1.5631693e-08 4.407448e-07 -8.403945e-06 1.3561172e-08 4.5647676e-07 -2.8752726e-08
3.991802e-07 6.869945e-07 -7.394165e-08 -7.9798765e-06 -3.7387915e-06 -2.4292606e-06 -9.280463e-06 3.9603358e-07
-5.102153e-08 -8.017564e-06 -7.9798765e-06 -5.3765365e-08 -5.4042918e-08 -3.1077548e-08 -7.590572e-08 -7.9798765e-06
-4.392072e-06 -2.0150046e-07 -2.3648576e-08 -4.1205027e-08 -5.6458568e-08 1.0027143e-06 1.0325234e-09 -1.7198147e-07
-7.9798765e-06 -5.1129405e-08 -3.9448196e-08 -3.5643286e-08 -3.2909746e-08 -7.768444e-08 -6.332788e-07 2.6651526e-07
-1.7168674e-07 -5.4195578e-08 -5.384454e-08 -5.5846886e-08 -2.493813e-08 -4.8287045e-08 1.3316312e-08 -3.1195796e-08
9.212121e-09 -5.965448e-08 -5.2560274e-08 -7.9798765e-06 -3.442403e-08 -1.9543263e-07 -5.532626e-08 5.489169e-07
1.1595636e-08 -7.9798765e-06 -7.0280166e-08 -4.0685634e-08 4.315265e-07 -2.3817497e-08 -8.739168e-06 -1.6755093e-08
-5.4691192e-08 -2.289089e-08 -7.9798765e-06 -5.5416333e-08 -1.0156388e-05 -5.4848996e-08 -4.7686306e-08 -3.5752173e-08
-2.2991547e-07 1.1462413e-05 -1.3836158e-06 4.346579e-07 1.0473181e-05 1.2568528e-06 1.337246e-06 2.4028695e-06
1.1151398e-05 3.2195206e-07 -2.0272062e-06 -8.8440146e-08 3.2201643e-07 1.0496921e-05 -2.1174583e-06 -2.2542712e-07
-2.1435874e-06 3.1983214e-07 3.234396e-07 8.78184e-06 -5.6590175e-06 1.4790616e-07 3.2519202e-07 1.2500466e-07
2.9796263e-07 4.190501e-06 3.2200657e-07 1.5695989e-07 -1.0243125e-07 1.1338927e-05 7.306468e-07 6.6458183e-06

weight f4 [160, 192]
00000000: d1f8 3023 4b45 2b24 2cb7 5124 1cb4 8724
00000010: fe69 bfa3 af93 a824 0f89 5a26 0670 8925
00000020: aae9 e624 8199 5a25 79c8 9ea2 9053 49a0
00000030: 96e9 9e25 b27a 1925 9bcf b223 21bc 0125
00000040: 3178 67a2 554b 3da2 632e ad24 0d35 2c22
00000050: 8766 4f1e f52d ab24 3cb8 9525 dbaa 3325
00000060: 38a9 9424 a37f 9a23 afe3 7423 8614 a625
00000070: 6139 9224 09b1 a120 eadf 25a4 0c0d ca25
00000080: 10c9 5aa4 bf1a c0a2 614a 22a6 bd04 87a4
00000090: 161f a325 1e3f bca5 d13a 219f 382d 90a3
000000a0: 0d69 0726 459e cb24 a73a bc24 4383 5325
000000b0: f468 a724 6a03 22a3 cb15 03a2 219f 5b24
000000c0: 76fc 8925 e244 3224 683d c223 caf6 8c25
000000d0: fc82 fda4 e761 4123 e5bc 0aa5 736c 76a2
000000e0: d8bb e724 7053 cd21 af88 c7a4 b62e 5a23
000000f0: afff 54a4 83a6 68a4 81b0 2523 3653 1225
00000100: ef77 e824 4358 0b21 af7b 92a5 c911 00a4
00000110: b200 51a5 7248 d324 89cc dd25 6970 d523
00000120: 970e 2a26 2a00 fa25 d00f faa4 4e1d c4a3
00000130: 766c 4d25 f95f ae21 4374 7b25 e969 dea5
00000140: 3a2a 9e21 c572 a99f 4d98 ac24 6cd9 fba4
00000150: 7a74 f6a0 90fa 2525 8d0d 8da2 81da 6625
00000160: f5ff 0f25 da6e 2b25 2c75 259e 35c0 0625
00000170: 9ce3 5024 5774 f2a5 c483 9723 eb95 a725
00000180: 408f 0325 83eb a225 c083 9e24 96c1 3ea1
00000190: e67c 8aa4 5128 6625 11b8 39a2 03a6 3b25
000001a0: 6d66 5c25 e6cc 9523 7698 d79f 14ba c424
000001b0: 5c7f fe24 f42a 9220 8c33 9423 9818 b7a5
000001c0: 7ef8 3322 f821 baa5 6b3c ab22 d3b7 87a2
000001d0: aecd 7524 dc89 7925 5ff9 8825 12b0 8325
000001e0: fa5e cb24 4afa 19a3 dbc1 10a6 086c 1025
000001f0: 1dcd 6125 6494 ba22 df6b 3925 e650 e8a5
00000200: c50c 9920 5cdf 8f25 c2d3 7221 e9bd d420
00000210: c977 4025 d3df 9524 b4d2 2ba5 b4c4 6325
00000220: 3757 12a4 8bb8 cc24 6c14 f1a5 aa44 f323
00000230: ac00 1325 0b3b ab24 f809 0723 2a45 7225
00000240: 574b cf25 f039 b523 c917 c8a4 6296 1ea2
00000250: c808 df24 ccf9 1b25 d39a baa3 b69d 4f25
00000260: c16f af25 efe3 4c25 a4bd 1c23 e022 02a5
00000270: 344e 0f20 e206 b524 03f2 b79c 984d b923
00000280: 7aff e8a2 ec0a ce24 ab7f 4625 8361 6e23
00000290: defb 5b24 8610 f323 0ab5 1025 e3bd a724
000002a0: 9614 0824 e4b0 8924 9704 bb23 745c ea23
000002b0: c20a a324 7da3 38a6 37f9 ee23 cb5e ffa1
000002c0: b9b7 dc23 8b6b 50a0 fc47 8722 3448 8e23
000002d0: 666e df24 ecbd b322 78b9 0426 2c24 5721
000002e0: e0fb d6a3 574b c1a5 3e96 f9a4 358e 4724
000002f0: a935 0a26 ff18 b29c 17d2 a6a3 c6eb aea0
00000300: 2650 c9ba 3b78 6bbc 2a26 70bb da6e 35bc
00000310: de24 a53b fcca 3ebc d89e eb3c 20e6 b0bc
00000320: a104 93ba a37c c23b 7fac 4ebb 5ea2 e237
00000330: fe03 31bc b732 1bbc 7968 ca3b 3f86 423b
00000340: ea30 633c 471e 693a a085 dfbb 632c 58ba
00000350: 9d07 15b7 da63 8e39 06ba 1fbc c9ec 54ba
00000360: 6089 08bb 93cf 9dbb 29e7 02ba 3fb3 02bc
00000370: 31a2 75bb db09 6ab9 878a fcba 74cc bf3c
00000380: e4ab 1bbb d4bf 2bb9 f854 163d 3b4d 643c
00000390: af23 883a 5d3c d43c 53b0 b037 ce11 113c
000003a0: 8189 f73b 42e3 2bbc b5e8 163c b1b2 273c
000003b0: 38f5 283c be73 65bb 78e1 cdb8 609b 63bc
000003c0: fdbe 2ebc 16db b9bb 278c 01bc ee0c 74bc
000003d0: 01df 3e3d aee2 59bc 0c70 59bc 6f25 8ebb
000003e0: 758d 363c 548e 7db9 cdd5 c13c ff95 8bba
000003f0: b797 003b e57c 103c 5af6 893c 6f62 fc3a
9.593668e-18 3.7138408e-17 4.5474803e-17 5.8852034e-17 -2.0753151e-17 7.310857e-17 7.581969e-16 2.3841622e-16
1.0014244e-16 1.8960495e-16 -4.3038244e-18 -1.7053011e-19 2.7566915e-16 1.3312205e-16 1.9386723e-17 1.1252707e-16
-3.1369967e-18 -2.5654157e-18 7.510537e-17 2.3338432e-18 1.0979691e-20 7.423728e-17 2.5972222e-16 1.5583663e-16
6.4471436e-17 1.675077e-17 1.327548e-17 2.8810317e-16 6.341461e-17 2.7391613e-19 -3.5968334e-17 3.5050255e-16
-4.744152e-17 -5.2070023e-18 -5.6305843e-16 -5.8554944e-17 2.8297057e-16 -3.265557e-16 -3.4141728e-20 -1.5631662e-17
4.6979904e-16 8.8305335e-17 8.1631364e-17 1.8345806e-16 7.26025e-17 -8.7827606e-18 -1.7765348e-18 4.7622843e-17
2.3936786e-16 3.8655943e-17 2.1059529e-17 2.445336e-16 -1.09943156e-16 1.0483283e-17 -1.2033592e-16 -3.339663e-18
1.004985e-16 1.3913426e-18 -8.6534044e-17 1.1827695e-17 -4.6186745e-17 -5.0448022e-17 8.982044e-18 1.2691674e-16
1.0081714e-16 4.7211845e-19 -2.5410774e-16 -2.777064e-17 -1.8128096e-16 9.162939e-17 3.8475987e-16 2.3141114e-17
5.900037e-16 4.3368198e-16 -1.08447005e-16 -2.1262774e-17 1.7817664e-16 1.1816102e-18 2.181017e-16 -3.858263e-16
1.0717674e-18 -7.1764154e-20 7.485112e-17 -1.09222225e-16 -4.17511e-19 1.4396363e-16 -3.8232474e-18 2.0023352e-16
1.2489994e-16 1.4869444e-16 -8.759258e-21 1.168777e-16 4.5295603e-17 -4.2059143e-16 1.6427258e-17 2.907147e-16
1.1410974e-16 2.826211e-16 6.874477e-17 -6.4630713e-19 -6.0059546e-17 1.996298e-16 -2.516962e-18 1.6275911e-16
1.9116661e-16 1.624139e-17 -9.130827e-20 8.531668e-17 1.10370696e-16 2.4761786e-19 1.6068023e-17 -3.1762105e-16
2.4390574e-18 -3.2288875e-16 4.6413613e-18 -3.6786455e-18 5.3300124e-17 2.1644016e-16 2.376122e-16 2.2844187e-16
8.819811e-17 -8.347147e-18 -5.022276e-16 1.2526611e-16 1.9585134e-16 5.0572516e-18 1.608274e-16 -4.0300404e-16
2.5927658e-19 2.49579e-16 8.227305e-19 3.603987e-19 1.669393e-16 6.499762e-17 -1.4903275e-16 1.9755757e-16
-3.1732577e-17 8.8783525e-17 -4.1820674e-16 2.6375193e-17 1.2750445e-16 7.425945e-17 7.320476e-18 2.1013588e-16
3.5959828e-16 1.9648597e-17 -8.677647e-17 -2.1492605e-18 9.672571e-17 1.3528741e-16 -2.0231731e-17 1.8007823e-16
3.0433388e-16 1.7771406e-16 8.496935e-18 -1.1287519e-16 1.2138446e-19 7.85079e-17 -1.2172483e-21 2.0090602e-17
-6.3154222e-18 8.935676e-17 1.7217018e-16 1.2922655e-17 4.7701395e-17 2.635311e-17 1.2551347e-16 7.2746386e-17
2.9507736e-17 5.9713943e-17 2.0276524e-17 2.5409486e-17 7.0708206e-17 -6.405939e-16 2.5909558e-17 -1.7304564e-18
2.3930257e-17 -1.7653868e-19 3.666804e-18 1.542625e-17 9.6897856e-17 4.8719135e-18 4.6048057e-16 7.2892707e-19
-2.33086e-17 -3.3531215e-16 -1.08241057e-16 4.32717e-17 4.795109e-16 -1.1785513e-21 -1.8086733e-17 -2.9632768e-19
-0.0015358969 -0.014371927 -0.0036643841 -0.011073792 0.0050397953 -0.011645075 0.028762266 -0.021594107
-0.001121659 0.005935268 -0.003153592 2.7016908e-05 -0.0108041745 -0.009472541 0.006177005 0.0029682068
0.0138666425 0.00088927563 -0.0068213493 -0.000824636 -8.882865e-06 0.00027158746 -0.009748941 -0.0008122442
-0.0020833835 -0.0048160045 -0.0004993552 -0.007977306 -0.0037480707 -0.0002231965 -0.0019267359 0.02341292
-0.0023753578 -0.00016379292 0.036702126 0.013934429 0.0010386611 0.02590769 2.1062942e-05 0.008854343
0.0075542335 -0.010491194 0.009210755 0.010235474 0.010312371 -0.0035011615 -9.8171586e-05 -0.013892025
-0.010665652 -0.005671869 -0.00790695 -0.014895661 0.04659939 -0.013298674 -0.013271343 -0.0043379585
0.011142124 -0.00024180982 0.023661518 -0.0010649561 0.001962168 0.00881884 0.016841102 0.001925541

bias f4 [160]
00000000: 0a6e cc9d 6e45 eb36 1087 e6b7 6b17 fab5
00000010: 279d 8cb6 b727 59b7 8291 3337 1692 6037
00000020: 1192 82b3 5337 4cb7 75bb 2ab6 c4da 2db7
00000030: f1d4 1336 17c9 35b7 5615 e1b6 a62c d0b7
00000040: c0ab 8a9c 8e44 4a80 6dd8 ebb5 f5eb 4b36
00000050: 6ccc 07b7 5ddb f834 34fd 3db6 aa1b 8a36
00000060: ab16 2d38 211b e4a7 6812 17b5 1c93 fbb2
00000070: ef9c c8b7 3768 94b6 e2d2 0937 15f0 bab7
00000080: 04ba 02b8 af26 04b7 c8fd aa36 e3d3 d137
00000090: 2a87 5e34 573f fcb7 693c 9eb6 d263 d90e
000000a0: 8f3f 8eb7 fd20 1c36 3d08 b437 aa02 1f38
000000b0: 99b3 03b7 2a6f 6837 d8b0 c437 35cc 18b8
000000c0: 3ab4 35b7 47a3 72b6 14b1 a8b7 62fb f683
000000d0: d098 bf37 0343 0335 b0dd 26b5 2e5f 18b7
000000e0: edb9 5bb8 e198 f6b6 fe62 4d35 b67c 1038
000000f0: 7275 99b7 1ae1 5136 46b2 0437 e64c cb35
00000100: 806d 5000 7eb9 9f36 bc2b 6337 aa4d 4eb7
00000110: 2a2e 44a0 b7b1 d5b6 0d87 cbb6 f115 5bb7
00000120: 70c3 51b8 53f1 0037 f687 a6b6 dace 15b7
00000130: be7c 8cb7 1cd3 01b8 1366 8436 c22d 1f37
00000140: 1e86 5cb7 b6e9 0000 0b8a 47b7 02d9 18b7
00000150: 5390 5ab7 b342 ce36 6f55 8225 52de f4b5
00000160: 6863 31b8 a4ce ad36 2d28 4eb6 6e45 3435
00000170: 7b7a 3eb7 05cc 6eb8 d1f0 94b6 5ff4 7536
00000180: 9af0 8fb7 4680 45af d82b 08b8 61a3 0219
00000190: 6269 9426 4453 9637 2e63 42b7 a683 e1b7
000001a0: edf5 1a37 58e1 9cb6 3265 3db5 5bd5 d036
000001b0: fa5a b4b7 1e55 6298 9fd7 bb37 4b2b 0eb8
000001c0: bc07 b4b6 dd12 cc15 ed70 0836 3d39 5037
000001d0: e581 2236 e64f 0080 6f04 0d00 7ae7 cab5
000001e0: 2204 b435 9bf6 0cb7 7a45 00b8 6138 ec35
000001f0: 7311 1238 5b34 0080 7ef0 51b7 a95f 61b7
00000200: 1a5f 641a d911 e337 0205 41b7 445f 6538
00000210: 4a41 2837 4094 8db6 022e 1836 7b07 0000
00000220: c751 36b4 15a8 af12 3734 89b7 322a 0180
00000230: b4ab 0080 ba93 00b7 c85d b5aa 6707 e4b7
00000240: daaa 8eb6 1901 1838 073a 27b7 76c3 2f38
00000250: 3ce5 c108 81bb 10b8 b134 d5b5 1ee5 18b6
00000260: db4f c334 d478 09b6 43ed 2c37 b4c5 a1b5
00000270: 344a 2300 2190 b9b7 34b2 01b7 d386 0e80
-5.411213e-21 7.0116284e-06 -2.748103e-05 -1.8633267e-06 -4.19062e-06 -1.2943455e-05 1.070311e-05 1.3385454e-05
-6.080166e-08 -1.2172229e-05 -2.5441088e-06 -1.0362539e-05 2.2028655e-06 -1.0835261e-05 -6.7080064e-06 -2.4816323e-05
-9.17647e-22 -6.82042e-39 -1.7571853e-06 3.0386702e-06 -8.094223e-06 4.6353207e-07 -2.8310578e-06 4.115941e-06
4.1267525e-05 -6.3312126e-15 -5.627867e-07 -2.9287143e-08 -2.3914936e-05 -4.422876e-06 8.214936e-06 -2.2284725e-05
-3.1167656e-05 -7.87682e-06 5.095939e-06 2.5013409e-05 2.0724534e-07 -3.0070236e-05 -4.7157996e-06 5.3590754e-30
-1.6957316e-05 2.3265013e-06 2.1461508e-05 3.7911035e-05 -7.850024e-06 1.385416e-05 2.344737e-05 -3.6429807e-05
-1.0830403e-05 -3.615585e-06 -2.0109619e-05 -1.4516295e-36 2.2840133e-05 4.889882e-07 -6.2162417e-07 -9.082067e-06
-5.2386826e-05 -7.3491688e-06 7.6512504e-07 3.444842e-05 -1.8293711e-05 3.1274453e-06 7.909321e-06 1.5147059e-06
7.386121e-39 4.7601634e-06 1.3540437e-05 -1.2296639e-05 -1.661712e-19 -6.3685834e-06 -6.0655934e-06 -1.3058526e-05
-5.00115e-05 7.685582e-06 -4.9630135e-06 -8.929253e-06 -1.6747388e-05 -3.0952608e-05 3.9457896e-06 9.487792e-06
-1.3144248e-05 8.384e-41 -1.1893465e-05 -9.110432e-06 -1.3027416e-05 6.147043e-06 2.2609297e-16 -1.824412e-06
-4.2292668e-05 5.179858e-06 -3.0719777e-06 6.715626e-07 -1.13534e-05 -5.693363e-05 -4.4387784e-06 3.6650088e-06
-1.7158967e-05 -1.7962618e-10 -3.246576e-05 6.7538366e-24 1.0298127e-15 1.7920167e-05 -1.1586393e-05 -2.6883394e-05
9.236374e-06 -4.6753958e-06 -7.0555245e-07 6.223721e-06 -2.1500036e-05 -2.9252789e-24 2.2392544e-05 -3.3895758e-05
-5.3653184e-06 8.2424705e-26 2.033131e-06 1.2411093e-05 2.421549e-06 -2.8662e-41 1.195452e-39 -1.5117541e-06
1.3412248e-06 -8.402068e-06 -3.0582283e-05 1.7599779e-06 3.4825363e-05 -1.8782e-41 -1.2513365e-05 -1.3433318e-05
4.7226117e-23 2.706882e-05 -1.1504862e-05 5.4686578e-05 1.0028782e-05 -4.219386e-06 2.2676545e-06 2.683e-42
-1.6979821e-07 1.1085488e-27 -1.6355987e-05 -1.06972e-40 -6.1595e-41 -7.66379e-06 -3.2217133e-13 -2.7183165e-05
-4.2518195e-06 3.6240646e-05 -9.967486e-06 4.190529e-05 1.1669658e-33 -3.4506902e-05 -1.5885072e-06 -2.2783129e-06
3.6379683e-07 -2.0484922e-06 1.0307241e-05 -1.2052974e-06 3.240861e-39 -2.2120834e-05 -7.73049e-06 -1.334063e-39

weight f4 [160, 192]
00000000: 7597 a0a2 0ac7 83a4 5234 daa3 1cb4 2ba3
00000010: 92de dc23 79f9 ec23 3527 2724 787b 8624
00000020: 82c8 4824 a34a 68a2 d801 4da1 0b0d 0a1f
00000030: 1d30 5ca3 291a f3a4 ff3a 5224 190f 13a4
00000040: 6beb 9c24 78c2 ef20 3771 b9a3 b13d 01a3
00000050: 81cc c59e d928 a224 a2f2 6424 ec74 c3a4
00000060: a8db b822 096e b4a2 9241 12a3 8226 10a4
00000070: 0516 01a4 8ff1 55a1 f17e 5ea3 8542 0725
00000080: 05d6 23a4 d473 bda1 c115 0d24 ea85 b823
00000090: 0a01 c924 3cf9 a025 37cb 4e9e 187d cfa2
000000a0: f22f 3424 8d45 bfa4 c7e9 e723 8b8f 4023
000000b0: c3bb 81a2 0e24 db24 2f3e de9f 1dd4 5c24
000000c0: 6d2b 7e25 3e33 7d23 d591 1724 0491 7da4
000000d0: 69d3 54a4 d213 a7a2 3e61 48a4 7a58 35a1
000000e0: e645 b224 fd3a 4ca2 ceca 04a6 9684 33a2
000000f0: e103 0da4 274e 93a1 3544 85a4 e0e0 d7a1
00000100: ca27 5723 e6b2 7f24 749e 17a4 90fd 35a3
00000110: 6ed7 8e23 e7c0 40a4 fa86 8325 ab18 1ca4
00000120: 44f3 39a5 d075 bb23 ff89 4124 31c8 07a5
00000130: 325d 15a5 7710 7ca1 84af 2da1 3ddc a923
00000140: 793d 8a24 f0d5 73a1 a4b7 f3a5 a0a0 a6a3
00000150: c6a6 139e dbc6 37a5 fecf 8ba2 5c17 aa24
00000160: 0999 aa24 b53b 2ca4 f86f e21c 1917 2023
00000170: a9f0 d724 2bd3 dca4 2bce c4a2 156d f7a4
00000180: c3a0 77a4 765c 0aa4 8e41 c7a4 4325 2c20
00000190: 2736 1024 41d7 8823 8dca bea0 3641 9ca4
000001a0: 86c9 d622 1a61 b6a3 a2d2 431e f82e 03a4
000001b0: de8e 86a3 922c 80a1 c08e a724 d626 9025
000001c0: e6d7 3ea2 969d fc24 5cfe b4a2 8acc 9d22
000001d0: 4aa5 bd24 f6fb f823 4a6b 0025 3d12 c123
000001e0: f78d 9623 7122 371e be97 1124 2a1e 2e25
000001f0: ab1e 3ea5 2977 46a5 4f03 7aa3 6eed 87a4
00000200: 57a4 d4a0 72ec a3a4 0fea 06a2 e95e bb22
00000210: e5d7 8f25 b2bc cea3 49de 9ba3 f625 00a5
00000220: 8304 a724 a2bb 30a4 be9c 8e24 95e6 b4a2
00000230: b03d d8a3 290e 5924 9ade ac23 8968 8123
00000240: 193e 5fa4 622d ada1 4e2d 8d25 b584 1c21
00000250: 4b08 fca4 640a 3ba5 2b1c e8a3 b878 54a4
00000260: 261c 4425 0606 1b24 2b24 b2a2 8fd4 fa24
00000270: 8496 0025 3652 4025 07d6 d99c 9aeb 6424
00000280: ef44 3a21 cf63 e021 a6ec 3e25 0e1c e7a0
00000290: f60e 44a3 2978 a7a4 dc69 aea3 2916 1d24
000002a0: 4861 e522 9d25 3ea4 0cb4 b122 9349 77a3
000002b0: 8aab 90a3 d9e9 40a3 b114 7ea3 5098 d620
000002c0: b309 ae25 665e 00a0 cb11 30a2 c95a bba4
000002d0: 3853 87a4 b42b 30a3 19fc 7fa5 0096 84a2
000002e0: 0aff 38a5 1000 c623 ea68 4524 070a a723
000002f0: 52bf 3a25 8dc0 dd1b b8a5 c623 2ff2 221f
00000300: b149 03ba d802 94bb 2f0f 2ebb ec00 94bb
00000310: 42bc 08ba 96c2 9bbb ee1d d5bb ed7b 92bc
00000320: c85d 233c fb86 6d3b f7f7 3ab9 7e4c 8237
00000330: 60d8 a33c a20e a73a 66f5 18ba 3db9 823c
00000340: edfe c9ba a143 d9b7 e574 c0bb ecab feba
00000350: b304 5c36 ae74 49bb 0fa4 e63b 5c6b a33b
00000360: ad93 efbb e2b6 d7b9 3847 a73a 40e1 1d3a
00000370: 06ed e139 09d0 51b9 ccc1 05bb 1279 11bd
00000380: 8290 3cba 000c 0d3a ffb7 8bbc 68d6 17bc
00000390: c8e1 2b3d 6ebc b4bc 9c68 0136 1df9 b7b9
000003a0: 2381 adbc 519d 14bc 16a0 823c 8661 113c
000003b0: 34bd 84bb 21be 38bb 81e4 28b9 c1da c0bb
000003c0: 1036 1b3c 2e06 98ba df9e 9eba 6bd2 af3a
000003d0: 86f9 09bd 9a62 28bc 733c e43b 96bd d639
000003e0: e7db 56bc 2c40 ae38 1316 da3c 6c86 2aba
000003f0: ebd1 8b39 c34c 61bb 2f41 febb 92ef 0abb
-4.352845e-18 -5.714938e-17 -2.3657766e-17 -9.308068e-18 2.394671e-17 2.5692827e-17 3.6245562e-17 5.83224e-17
4.3537924e-17 -3.1481375e-18 -6.945914e-19 2.9233426e-20 -1.1936412e-17 -1.0542877e-16 4.5586463e-17 -3.1888332e-17
6.805303e-17 4.0616864e-19 -2.0105689e-17 -7.006168e-18 -2.0942767e-20 7.03255e-17 4.9645137e-17 -8.476584e-17
5.010587e-18 -4.89056e-18 -7.928561e-18 -3.125764e-17 -2.7991067e-17 -7.2486907e-19 -1.2061525e-17 1.1731921e-16
-3.5526272e-17 -1.2837798e-18 3.0592928e-17 2.0006035e-17 8.7171615e-17 2.7924463e-16 -1.0947573e-20 -5.623991e-18
3.907189e-17 -8.295087e-17 2.5144079e-17 1.0438737e-17 -3.516432e-18 9.503719e-17 -9.412353e-20 4.7884563e-17
2.2045701e-16 1.37260084e-17 3.286643e-17 -5.4983463e-17 -4.6149243e-17 -4.5286426e-18 -4.3450454e-17 -6.1442283e-19
7.731361e-17 -2.7678384e-18 -4.607155e-16 -2.4329214e-18 -3.0577787e-17 -9.981794e-19 -5.77951e-17 -1.4628491e-18
1.1663599e-17 5.5445844e-17 -3.287712e-17 -9.865724e-18 1.5486909e-17 -4.1796758e-17 2.281634e-16 -3.3848002e-17
-1.6128614e-16 2.0324476e-17 4.196709e-17 -1.1777211e-16 -1.2955266e-16 -8.540271e-19 -5.8846973e-19 1.8416291e-17
5.99521e-17 -8.2614746e-19 -4.227822e-16 -1.8065783e-17 -7.816603e-21 -1.5940095e-16 -3.7896246e-18 7.376532e-17
7.3985e-17 -3.734713e-17 1.4984369e-21 8.6785085e-18 9.364908e-17 -9.5767524e-17 -5.3344195e-18 -1.0730397e-16
-5.3695758e-17 -3.0002297e-17 -8.641355e-17 1.4581296e-19 3.127089e-17 1.4836313e-17 -3.232129e-19 -6.776469e-17
5.8218187e-18 -1.9773604e-17 1.0366772e-20 -2.844588e-17 -1.4588816e-17 -8.685415e-19 7.266653e-17 2.5006334e-16
-2.5864097e-18 1.0955454e-16 -4.905841e-18 4.27715e-18 8.2245695e-17 2.6994923e-17 1.1138581e-16 2.0932826e-17
1.6323157e-17 9.695062e-21 3.1570394e-17 1.5102314e-16 -1.6490264e-16 -1.7214135e-16 -1.3553228e-17 -5.894914e-17
-3.6022948e-19 -7.1090536e-17 -1.8284296e-18 5.078694e-18 2.4952842e-16 -2.241448e-17 -1.6899275e-17 -1.1115092e-16
7.243235e-17 -3.8322848e-17 6.1848215e-17 -4.9033236e-18 -2.3444893e-17 4.706637e-17 1.8742553e-17 1.403048e-17
-4.8408016e-17 -1.1734949e-18 2.44903e-16 5.303049e-19 -1.0930163e-16 -1.6223185e-16 -2.516542e-17 -4.6072425e-17
1.7009827e-16 3.361537e-17 -4.828529e-18 1.08780306e-16 1.1153227e-16 1.66812e-16 -1.441518e-21 4.963918e-17
6.3110484e-19 1.520525e-18 1.6560053e-16 -3.9151487e-19 -1.0628349e-17 -7.2628264e-17 -1.8909951e-17 3.406272e-17
6.2173575e-18 -4.1231542e-17 4.816658e-18 -1.3405477e-17 -1.5685161e-17 -1.045786e-17 -1.3773749e-17 3.6353802e-19
3.019076e-16 -1.0873256e-19 -2.3861867e-18 -8.125212e-17 -5.8687895e-17 -9.550234e-18 -2.2203138e-16 -3.593749e-18
-1.6045867e-16 2.146723e-17 4.280643e-17 1.8110423e-17 1.619775e-16 3.6685816e-22 2.1537388e-17 3.4505164e-20
-0.00050082343 -0.0045169406 -0.0026559343 -0.0045167115 -0.0005216041 -0.004753421 -0.006503812 -0.017881358
0.00997109 0.0036243785 -0.00017830716 1.5532827e-05 0.020000637 0.001274545 -0.0005834907 0.01595747
-0.0015411057 -2.5899908e-05 -0.00587331 -0.0019429899 3.278529e-06 -0.0030739713 0.0070386003 0.0049871635
-0.0073113055 -0.00041144254 0.0012762314 0.00060226396 0.0004309194 -0.00020009292 -0.0020409701 -0.035515852
-0.0007193164 0.0005380511 -0.01705551 -0.009267427 0.04196337 -0.022062507 1.9283389e-06 -0.00035090084
-0.021179741 -0.00907071 0.015945476 0.008873349 -0.004050875 -0.0028189498 -0.00016106853 -0.0058854525
0.009473339 -0.0011598521 -0.0012101791 0.001341415 -0.03368523 -0.010277415 0.006965214 0.00040958513
-0.013113952 8.3089195e-05 0.026621854 -0.0006505016 0.00026668547 -0.003437803 -0.0077592353 -0.0021199924

weight f4 [192]
00000000: 8ecf 453d a31b a03d 9eaa 163d dd51 0f3e
00000010: 165b 2d3e f925 013e fe98 a43e 7ae2 a23e
00000020: b3ac 643d ee43 473e 91a2 113e f497 4a3a
00000030: c480 333e 5468 e93d eca6 cf3d e3ba a33d
00000040: 43d2 3c3d adfc 493d 981c bb3d 0baa ea3c
00000050: 004e ac39 1653 f43d f6de 083e 88bc 213e
00000060: 34d7 d53d f82a 073d e7ff b43c 818c 093e
00000070: 6696 863d de46 933b aec3 ce3d b039 6e3e
00000080: f8ff f43d 98cd c23d 3b16 be3e 4454 e93d
00000090: 8f63 3f3e f5e7 d63e c289 1e3a 40e2 ee3d
000000a0: 8422 ad3e 7e96 f63d 6a18 f33d a0e1 873b
000000b0: 6924 253e 0bbb ea3d a4ba 613c 8162 183e
000000c0: d7df 333e abb8 323e 3748 173e ab3f 043e
000000d0: 29f8 843e 0a7a b13d dd19 6a3e a2d0 de3d
000000e0: 4674 483e fb29 d83b 6d3a 863e 514f a03c
000000f0: 10c5 3f3e dc64 263e 6ee0 273e 3222 233e
00000100: 5945 ee3d 34a1 4d3e cd55 763e ec44 e03d
00000110: 0fda c93e b9a6 c83d 54e1 513e 8c9a 673e
00000120: 86fa ba3e d5ea ce3d a50d 8e3e bd3c 6b3e
00000130: 48d5 023e 34f4 963d e433 083e ef10 723e
00000140: c414 e63d c0cf 793d 43ea 663e 314b 2b3e
00000150: 0aca 513b a734 083e 4c41 c13d 0696 183e
00000160: 11f4 2c3e 1561 ec3d 9048 0639 1ca1 383e
00000170: 4846 563e 61ee 7e3e e1ab 7f3d bcdf f03d
00000180: cec9 c33d dfec 493e 836b 393e ddbc 833b
00000190: 1d89 1f3e 0a31 163d 421a 1a3d e844 9d3e
000001a0: 50c2 7f3e 674e 333e f1e7 8bba 3fed c63d
000001b0: 3027 de3d 3a39 cd3c ef87 fe3d b7de 993e
000001c0: 9b14 673c 8368 573e e85e 413c ace4 3a3d
000001d0: 08dd 2b3e 2368 e13d 2a58 523e e1c7 c43d
000001e0: b22a 5b3e 4611 8a3d 9d0c 9d3e 79ba c33d
000001f0: bfdf d93c b185 723e 7376 843d 03dd 703e
00000200: e043 0f3c 2943 423e 7684 3a3c c135 af3c
00000210: b07f 443e 25e5 823d 1305 8b3e 29ad 903d
00000220: 3122 8c3d 9f00 3a3e 6339 ba3e b977 323d
00000230: 2b0f cb3d 17ba 8a3d 17a5 203d fa28 7f3e
00000240: b15e 3e3d 7286 923d 887a d43e 541a 463d
00000250: b6cb 7c3d fcdc 093e 8f24 5c3e fa91 f03d
00000260: 23bc 673e e125 e83d ea58 413c 9371 b53e
00000270: 458a cf3d b5fc 0c3e 8782 ce37 c14c d23d
00000280: 6f8b fa3d 8a07 e33d 6934 413e 171c ef3b
00000290: 8250 6b3d e34a 523e 8b1f 0a3e 12c6 bc3d
000002a0: 0003 663d 1aaa a23d f695 443d dd9b 483d
000002b0: c20b 333d 501f 813e 59f1 b53c 7738 a53c
000002c0: dfbd 3e3e 5905 1f3b c8f8 1a3c 78f4 173e
000002d0: 8ccb 113e 5f65 143d 6825 ac3d 55c5 433c
000002e0: c7ca 243d e4fb b43e 3370 003e b456 a23d
000002f0: 6f4d 503e 0790 e037 f313 453e d031 063b
0.048293643 0.07817771 0.036783807 0.13996072 0.16929278 0.12612142 0.32147974 0.31813413
0.05582876 0.19459507 0.1422217 0.0007728331 0.17529589 0.11396852 0.1013926 0.0799463
0.04609896 0.049313236 0.09136313 0.028645536 0.0003286451 0.1192991 0.13366303 0.15794575
0.10441437 0.032999963 0.02209468 0.13432504 0.06571655 0.004494532 0.10095917 0.23264194
0.11962885 0.0951187 0.37126336 0.113930255 0.18690322 0.41973844 0.0006047749 0.116642475
0.33815396 0.12040423 0.11869891 0.0041467696 0.1612717 0.11461457 0.013777409 0.14881326
0.17565857 0.17453258 0.14773642 0.12914912 0.2597058 0.08665855 0.22861429 0.10879637
0.19575605 0.0065968013 0.2621645 0.019569071 0.18727517 0.16249412 0.16394207 0.15931013
0.11634321 0.20081025 0.24056168 0.10950646 0.39424178 0.09797425 0.20496112 0.22617549
0.3651926 0.101033844 0.27744785 0.22972389 0.12776673 0.07370797 0.13301045 0.23639272
0.112344295 0.06098914 0.22550301 0.16727902 0.0032011294 0.13301335 0.094362825 0.1490098
0.16889979 0.115419544 0.00012806267 0.18030208 0.20925248 0.24895622 0.062419776 0.11761424
0.095599756 0.19719265 0.18107419 0.004020317 0.15579648 0.03666786 0.037622698 0.30716634
0.24976468 0.17510377 -0.0010673982 0.0971322 0.10847318 0.025051702 0.12428271 0.3005273
0.014104034 0.21035962 0.011802413 0.045628235 0.16783535 0.11006191 0.20541444 0.096084364
0.21403006 0.06741576 0.30673686 0.09557051 0.026595948 0.23683812 0.06467905 0.2352181
0.00874421 0.18970932 0.01138412 0.021387937 0.19189334 0.06391362 0.2715231 0.07064278
0.06842459 0.181643 0.36371908 0.043571208 0.099150024 0.06773775 0.039219942 0.24917975
0.046477024 0.0715455 0.41499734 0.048364952 0.06171771 0.13463205 0.21498321 0.11746593
0.22630362 0.1133535 0.011800984 0.35438213 0.10133795 0.13768275 2.4617895e-05 0.10268546
0.12233626 0.11085422 0.18867649 0.0072970497 0.057449825 0.2053638 0.13488595 0.092174664
0.056155205 0.079426005 0.047994576 0.048976768 0.043712385 0.25219202 0.02220981 0.020168526
0.18627118 0.0024264662 0.009458728 0.14839351 0.14237803 0.036229488 0.08405572 0.011948903
0.040232446 0.35348427 0.125428 0.079266936 0.20342039 2.6769949e-05 0.19245891 0.0020476468

bias f4 [192]
00000000: 2fad d7bd 9b30 9abd bb76 03bd 12d0 8cbd
00000010: 4c72 1dbe 3f60 0dbe 0b87 3fbd 49b0 81be
00000020: 191d 113d 8672 23be 01a1 fcbd b187 5fbb
00000030: 1669 783d b941 f5bd aa3f 9abd 71a5 f23c
00000040: df96 813d 4b96 7abd 6841 c3bd 1d09 82bd
00000050: 983c 87ba c78c 23be eaeb fa3c 8a3c 14be
00000060: b272 b4bd 29f0 06bd bceb 31bd 8efb 28bc
00000070: 7275 bcbd 793b 2cbc bd3d 85bd 6ff2 e73d
00000080: cbf4 eabd 96f0 edbd dba1 113e 8d98 52bd
00000090: 600b 603d 33a8 153e a2a4 faba 1a7d 89bd
000000a0: f7c7 4fbc b578 26be cf22 f4bb a97e 8f3d
000000b0: 1363 dfbd ca26 77bd 4da8 10bd acd1 4dbe
000000c0: 7756 e53c 0257 45be 4831 bcbd 8a06 85bd
000000d0: 53fd ab3d ea54 f0bd d090 873d c790 b8bd
000000e0: 1379 0c3e 0310 8ebc cb7f 053e 6274 02bd
000000f0: f378 16be 19d0 e0bd 9d86 17bd cd4b a5bd
00000100: 147c a13c 4956 38bc 9229 83bd bd19 9ebd
00000110: d954 063e accd 09be 9563 12be 7007 253e
00000120: efc8 ebbc c5f4 9a3d 1bd2 11be 3e26 223d
00000130: d781 d1bd ed9c 02be 006e 3abd 5e5d 193e
00000140: 93bc 32bd 3878 a2bd 4155 5f3d 2482 debd
00000150: c39a 2ebc 342e dcbd dadc d9bd 2ce5 ecbc
00000160: 50ef 24be 05c7 cbbd 54e8 25b9 5a62 0bbe
00000170: 0688 c1bc 384e 913d 061a dbbd 6a49 29bc
00000180: 6404 d8bd 443e f1bd 0313 02be 0660 40bc
00000190: 4be3 9fbd d355 033e 926c 8fbd b664 c43d
000001a0: 3ced 903d 6583 673d 65a3 28bb bff6 85bd
000001b0: 2cde b8bd 67e8 bbbc df2d 193d 11d7 383e
000001c0: 4881 0abd e474 5a3d faec 8cbc a678 4dbd
000001d0: 711e aabd 5916 02bc a5da 18bc 6645 043d
000001e0: 7b98 0ebe dbcb 02be 5eb7 b13d 67c0 27bd
000001f0: 7354 eb3d bb00 f6bc e1cd b0bc aa75 353e
00000200: 7565 d9bc f74e 31be df14 d2bc a58e 51bd
00000210: 7258 1cbe 8478 bbbd d434 07be d6d6 34bd
00000220: 70f7 0c3e 5c33 0ebe 5e3e 743d 2b82 8dbd
00000230: 428b 95bd ab95 c6bd 8b8e abbd effb 0fbe
00000240: fe68 d43d 74b5 6cbd 700b 91bd e5bd 6fbd
00000250: 71d5 af3d 41dd 00be 5862 26be d036 40bc
00000260: 1127 4cbe b69c dbbd 2ce9 aabc 799d 323e
00000270: 10c8 ddbb 99e5 09be 282f dcb8 e9ec 1bbe
00000280: 2e09 24be 1096 cebd 13b7 1dbe 2632 c5bb
00000290: b3ed 98bd 120f 30be 4ca5 c6bd f893 15bd
000002a0: db19 adbd 619b ebbd 6d3b 9abd 3649 97bd
000002b0: 9447 1dbd 8d6a 093e c2c4 babc 36f7 ddbc
000002c0: 5eeb 023e c8eb f1bb 1f34 c2bc 913d c3bd
000002d0: d40c 50be 49e7 9ebd 04eb da3d 3836 efbc
000002e0: 2bd6 313e 9b58 353e 8076 8ebd 8cf4 77bd
000002f0: cac5 853d ddc4 6eb9 645d cabd 51dc cfbb
-0.10531079 -0.07528802 -0.032095652 -0.06875624 -0.15375632 -0.13806246 -0.046759646 -0.25329807
0.03542814 -0.15961656 -0.123353966 -0.0034107978 0.060647093 -0.11975426 -0.07531674 0.029619904
0.063276045 -0.061178487 -0.095339596 -0.063493945 -0.0010317741 -0.15971671 0.03063007 -0.14476219
-0.08810939 -0.03294388 -0.043437704 -0.010313882 -0.092020884 -0.010512226 -0.06505916 0.113255374
-0.11472472 -0.11618154 0.14221899 -0.051415015 0.054698348 0.14614944 -0.0019122551 -0.06713314
-0.012681953 -0.16256984 -0.0074504386 0.070065804 -0.10907569 -0.060339727 -0.035316754 -0.20099515
0.027995331 -0.19271472 -0.09189087 -0.06495388 0.08397927 -0.11734946 0.06619418 -0.09011989
0.13718061 -0.01734162 0.1303703 -0.031849273 -0.14694576 -0.109771915 -0.03699361 -0.080710985
0.019712485 -0.011251041 -0.06404413 -0.07719753 0.13118304 -0.13457364 -0.142958 0.16116118
-0.028782336 0.07566217 -0.14240305 0.03958725 -0.10229843 -0.12755175 -0.04551506 0.14977023
-0.04363687 -0.07933086 0.054524664 -0.10864666 -0.010657015 -0.10751 -0.10637827 -0.028917871
-0.16106915 -0.09950069 -0.00015822175 -0.13611737 -0.023624431 0.07094997 -0.10698323 -0.010332445
-0.105477124 -0.11779454 -0.12702565 -0.011741644 -0.078070246 0.12825708 -0.0700313 0.095895216
0.07076499 0.056521792 -0.0025732156 -0.06541204 -0.09026751 -0.022937967 0.03739726 0.18050791
-0.0338147 0.05333413 -0.017202843 -0.050163887 -0.083065875 -0.007939898 -0.009329473 0.032292746
-0.13925354 -0.12773077 0.08677553 -0.040954974 0.11490717 -0.030029645 -0.021582546 0.17720667
-0.026537636 -0.17315279 -0.025644718 -0.051161427 -0.15268114 -0.09153846 -0.13203746 -0.044150196
0.13766265 -0.1388678 0.05962979 -0.06909593 -0.07301952 -0.09696516 -0.08376797 -0.14060949
0.10371588 -0.057790235 -0.0708226 -0.058530707 0.085856326 -0.12584402 -0.16248453 -0.011731818
-0.19936778 -0.107232496 -0.020863138 0.17442884 -0.006768234 -0.13466491 -0.00010499201 -0.15227093
-0.16019127 -0.10087216 -0.15401869 -0.006017941 -0.074672125 -0.17193249 -0.096994966 -0.036518067
-0.08452197 -0.115042455 -0.07530866 -0.07387011 -0.03839834 0.13419552 -0.0227989 -0.027095418
0.12785098 -0.0073828436 -0.023706494 -0.09533227 -0.20317394 -0.07758958 0.10689357 -0.029200658
0.17366855 0.17709582 -0.06956196 -0.060535952 0.06531866 -0.00022770786 -0.09881094 -0.0063434024
