Graph Neural Network/Models/T1.pth (torch, 127858 bytes, 22 tensors)

weight f4 [80, 1]
0	0x3f1da930	0.61586285
1	0x3f7acee1	0.9797192
2	0x3f5fc66a	0.8741213
3	0xbf68e8eb	-0.90980405
4	0x3f324f98	0.696527
5	0x3f665326	0.89970624
6	0x3df529ad	0.1197084
7	0xbecab9dd	-0.39594927
8	0xbe8a0ab4	-0.2696129
9	0xbf7e3473	-0.9929878
10	0x3f2c4ced	0.6730488
11	0x3f3e73cd	0.7439545
12	0xbf662d1e	-0.89912593
13	0x3eb989cc	0.36237943
14	0xbefd0b55	-0.49422708
15	0x3f21aefa	0.6315762
16	0xbed69756	-0.41912335
17	0x3e3e5d4d	0.18590279
18	0x3e18eb47	0.14933501
19	0xbf6b5d52	-0.9193927
20	0xbed277be	-0.4110698
21	0xbf733179	-0.94997364
22	0x3f2d1132	0.6760436
23	0xbf09ecf2	-0.53877175
24	0xbf21c016	-0.63183725
25	0x3f3c6f1f	0.7360706
26	0xbcc7855c	-0.024355583
27	0x3f71ae13	0.9440624
28	0xbf3bb5b3	-0.73324126
29	0x3e4dfebe	0.20116708
30	0x3f79ee08	0.9762883
31	0xbdb46ec4	-0.08810189
32	0xbed687ac	-0.41900384
33	0xbf39bf84	-0.72557855
34	0x3e72ee56	0.2372373
35	0x3f43c1db	0.76467675
36	0x3f0d18ec	0.5511615
37	0x3e6b5e8e	0.22985289
38	0xbe3cff7a	-0.18456832
39	0x3f4b3ccb	0.7938964
40	0x3f539ebf	0.826641
41	0xbf166ff9	-0.58764607
42	0x3f4bac89	0.7956014
43	0x3f12d22e	0.5735196
44	0x3e1fa6ff	0.15591048
45	0xbf4327c1	-0.76232535
46	0x3ed33182	0.4124871
47	0x3ee883d7	0.45413086
48	0x3f29e519	0.663652
49	0xbe4daa62	-0.20084527
50	0xbf00e08f	-0.5034265
51	0xbf58ee4a	-0.847386
52	0xbf48a153	-0.7837116
53	0xbea9e864	-0.33185112
54	0xbe3fae5b	-0.18718855
55	0x3f313eee	0.6923665
56	0x3f0096f7	0.50230354
57	0xbf067fe6	-0.5253891
58	0x3d97e0d5	0.0741593
59	0xbe7fcfd9	-0.24981631
60	0xbed091b2	-0.40736157
61	0x3f1ceb15	0.61296207
62	0x3f45d45d	0.77277166
63	0xbdc0f0ab	-0.09420904
64	0x3e4903e7	0.19630395
65	0x3f36fb3c	0.71477103
66	0x3f59e2f7	0.85111946
67	0xbe1f2ad6	-0.15543684
68	0x3ed16303	0.40895852
69	0xbf105327	-0.5637688
70	0x3e94f176	0.2909047
71	0x3db89ff7	0.09014886
72	0x3eaa9415	0.33316103
73	0x3f77fc79	0.9686962
74	0xbe2ce040	-0.1688242
75	0x3f802400	1.0010986
76	0x3e4c31a7	0.19940816
77	0x3f04dabe	0.51896274
78	0x3f11aaed	0.5690144
79	0xbed68d2b	-0.41904578

bias f4 [80]
0	0x3f07f40a	0.5310675
1	0xbd90ff00	-0.070798874
2	0x3f0c74dc	0.54865813
3	0x3f2b5342	0.66923916
4	0xbd92b099	-0.071625896
5	0xbf71a68b	-0.9439475
6	0x3f3182f0	0.6934042
7	0xbf5bcff3	-0.8586418
8	0x3ecd163d	0.4005603
9	0xbe993f1a	-0.29930955
10	0xbefb7e3d	-0.4911975
11	0x3f626767	0.8843903
12	0x3f3fa258	0.7485709
13	0xbf014eb7	-0.50510734
14	0xbf46ff89	-0.77733666
15	0xbf7a01cf	-0.9765901
16	0xbed1c4a0	-0.40970325
17	0x3f0aec66	0.54266965
18	0x3f3c51fa	0.73562586
19	0x3f3a4698	0.7276397
20	0xbed16895	-0.40900102
21	0x3ef39662	0.4757567
22	0x3e455a7c	0.19272798
23	0x3ed353e0	0.4127493
24	0x3e2fb6ee	0.17159626
25	0xbedf641f	-0.43631074
26	0x3f38fd59	0.7226158
27	0x3f191adf	0.5980663
28	0x3f3a4912	0.72767746
29	0x3e73d781	0.23812677
30	0x3f764f9c	0.96215224
31	0xbf0808f2	-0.5313865
32	0x3f099aed	0.53752023
33	0x3f441856	0.76599634
34	0x3e8c484f	0.27398917
35	0xbe28e598	-0.16493833
36	0x3e51e53d	0.20497604
37	0xbf79d587	-0.9759144
38	0xbf1c427c	-0.6103895
39	0xbf5d3fa3	-0.86425227
40	0xbd779db9	-0.06045315
41	0x3f505053	0.81372565
42	0xbbccbb84	-0.0062479395
43	0x3ee8f442	0.45498854
44	0x3e16c54a	0.14723697
45	0x3f77a0e7	0.9672989
46	0x3efde8a6	0.4959156
47	0xbc9c42f5	-0.019074896
48	0x3f434935	0.7628358
49	0xbf394fb3	-0.72387236
50	0x3c5b16d5	0.013372143
51	0xbc18abec	-0.009318333
52	0xbf1ee2af	-0.6206464
53	0xbebbb433	-0.3666092
54	0xbe2541b5	-0.16138346
55	0x3e4df280	0.20112038
56	0x3f510057	0.81641144
57	0xbf7f7e72	-0.99802315
58	0xbf3b853e	-0.73250186
59	0x3e4fc69d	0.20290609
60	0xbf365170	-0.71218014
61	0xbf455a37	-0.7709078
62	0xbea28132	-0.31739193
63	0xbf1a91e5	-0.6037887
64	0xbf5b2b78	-0.85613203
65	0xbeac9e2d	-0.3371443
66	0x3f3d21cc	0.73879695
67	0xbe32ff31	-0.1748016
68	0xbe8f73be	-0.28017992
69	0xbea344c4	-0.31888402
70	0x3f5fec37	0.8746981
71	0x3e30cbb4	0.17265207
72	0xbf7ebfe1	-0.99511534
73	0x3ea0221b	0.3127602
74	0xbf63e09b	-0.89014596
75	0x3ec8bfd4	0.39208853
76	0x3ec2cffe	0.3804931
77	0x3e7d3a3a	0.24729243
78	0x3eb3a221	0.35084632
79	0xbd15c8be	-0.036568396

weight f4 [80, 1]
0	0x3f0b6d93	0.5446407
1	0xbf625b28	-0.88420343
2	0xbf1cf7d0	-0.6131563
3	0xbf651a9e	-0.8949374
4	0xbf23c90c	-0.6397865
5	0x3f0cb100	0.5495758
6	0x3f08696a	0.5328585
7	0x3e305fa5	0.17223985
8	0xbeeb19a2	-0.45917994
9	0x3e149348	0.14509308
10	0xbf1d24db	-0.6138436
11	0x3f0cb8d4	0.54969525
12	0xbe3b2259	-0.18274821
13	0x3f145275	0.5793832
14	0x3e9f0522	0.31058604
15	0x3f0fe04c	0.56201625
16	0xbf5bcbb4	-0.858577
17	0x3f73b628	0.95199823
18	0x3e8df342	0.27724653
19	0x3ebfe1ef	0.3747706
20	0xbf29f2d8	-0.66386175
21	0xbf7a09c7	-0.9767117
22	0xbc7f3e54	-0.015578825
23	0x3e1d7db7	0.15379988
24	0xbf6e5a17	-0.93106216
25	0x3ee21416	0.4415595
26	0xbd16edf0	-0.03684801
27	0xbdf86d0a	-0.121301726
28	0x3ef99d44	0.48752797
29	0xbf4611ef	-0.77371114
30	0x3f4dea39	0.8043552
31	0xbeff4238	-0.49855208
32	0xbf0092ff	-0.502243
33	0x3e857b54	0.26070654
34	0x3f093414	0.5359509
35	0x3f73c8af	0.95228094
36	0x3eb61fe1	0.35571197
37	0x3f57dcfe	0.8432158
38	0x3f6fa8a1	0.9361668
39	0xbe8872fa	-0.2665022
40	0xbf27af55	-0.6550191
41	0xbe67b1de	-0.22626445
42	0xbe476ab4	-0.19474298
43	0xbf4a1425	-0.7893699
44	0xbe8328fc	-0.25617206
45	0x3eba25cc	0.36356962
46	0xbf74ddeb	-0.9565112
47	0x3e417bcf	0.18894885
48	0xbee51268	-0.44740605
49	0x3f0c721f	0.54861635
50	0xbec0f58c	-0.37687337
51	0x3f12a87d	0.5728834
52	0xbeb295f7	-0.3488004
53	0x3f24fb91	0.6444636
54	0xbe0ad4ce	-0.13557741
55	0x3f25210c	0.6450355
56	0xbeeb9feb	-0.46020445
57	0xbec95dcb	-0.3932937
58	0xbf47aba4	-0.7799628
59	0xbeea274f	-0.45733115
60	0x3f330004	0.699219
61	0x3eb2c7ec	0.34918153
62	0xbde09b40	-0.109671116
63	0x3f27b539	0.655109
64	0x3e80f003	0.25183114
65	0xbf063250	-0.5242052
66	0x3ebbe8b7	0.36700985
67	0x3f7a619e	0.978052
68	0xbf0f3acf	-0.5594911
69	0xbb10b0e5	-0.0022078094
70	0x3f638f67	0.8889069
71	0x3f4d8c4f	0.8029222
72	0x3eab64fa	0.33475477
73	0xbf105809	-0.5638433
74	0xbf56ee9e	-0.8395785
75	0xbe8e4ec7	-0.27794477
76	0xbeb266df	-0.3484411
77	0xbd7ae81a	-0.061256506
78	0x3f07235a	0.5278832
79	0x3d953209	0.07284934

weight f4 [80]
0	0x3f7a8683	0.978615
1	0x3f8646df	1.0490378
2	0x3f7b1550	0.98079395
3	0x3f71f62e	0.94516265
4	0x3f790170	0.9726782
5	0x3f823ecf	1.0175418
6	0x3f83ed63	1.030682
7	0x3f7a25a4	0.97713685
8	0x3f758c05	0.9591678
9	0x3f7a8b9b	0.9786927
10	0x3f7967ab	0.9742381
11	0x3f73faeb	0.95304745
12	0x3f73129c	0.9495027
13	0x3f805dd7	1.0028638
14	0x3f7163f9	0.9429317
15	0x3f82f36a	1.0230534
16	0x3f84f630	1.038763
17	0x3f7dbc77	0.991157
18	0x3f787d3d	0.970661
19	0x3f828cb8	1.0199194
20	0x3f763829	0.96179444
21	0x3f76e877	0.96448463
22	0x3f85c7a8	1.0451555
23	0x3f698d63	0.91231364
24	0x3f819812	1.0124533
25	0x3f851737	1.039771
26	0x3f810867	1.0080689
27	0x3f68e6ba	0.9097706
28	0x3f7c49a6	0.9854988
29	0x3f8577fa	1.0427239
30	0x3f82f0df	1.0229758
31	0x3f771f4e	0.9653214
32	0x3f6f182c	0.9339626
33	0x3f74fb68	0.95696115
34	0x3f7bded5	0.9838689
35	0x3f767eb1	0.96287066
36	0x3f87ac38	1.0599432
37	0x3f719373	0.94365615
38	0x3f865afe	1.0496519
39	0x3f71f87e	0.94519794
40	0x3f76fd60	0.9648037
41	0x3f8667fc	1.0500484
42	0x3f877d6a	1.0585148
43	0x3f78c7e9	0.9718004
44	0x3f8a4aa0	1.0804024
45	0x3f80a5bb	1.0050577
46	0x3f8454de	1.03384
47	0x3f62d1ad	0.8860119
48	0x3f82333c	1.0171885
49	0x3f69e000	0.9135742
50	0x3f85354e	1.0406892
51	0x3f7d0ce4	0.98847795
52	0x3f6bef50	0.92162037
53	0x3f7f7bfe	0.9979857
54	0x3f7d3c4d	0.98920137
55	0x3f836b1d	1.0267063
56	0x3f734243	0.9502298
57	0x3f7e7761	0.9940091
58	0x3f8148cb	1.010034
59	0x3f7ffd60	0.99995995
60	0x3f7e68fe	0.99378955
61	0x3f6bb863	0.92078227
62	0x3f76c220	0.9638996
63	0x3f71ff91	0.9453059
64	0x3f7f7e9e	0.9980258
65	0x3f7e8ffb	0.99438447
66	0x3f77f6c9	0.9686094
67	0x3f81232f	1.0088862
68	0x3f8b887c	1.0901027
69	0x3f7da50b	0.9907996
70	0x3f820c63	1.016003
71	0x3f7ee969	0.99574906
72	0x3f786f61	0.9704495
73	0x3f814834	1.010016
74	0x3f7e59d5	0.9935582
75	0x3f72dcc7	0.9486813
76	0x3f75e8b3	0.96058196
77	0x3f802ac8	1.0013056
78	0x3f81aff5	1.0131823
79	0x3f6c81d3	0.92385596

bias f4 [80]
0	0xbe5557df	-0.20834301
1	0x3e0be045	0.13659771
2	0xbe89f94b	-0.26948008
3	0xbd33c3fd	-0.04388808
4	0x3e037a8c	0.12839717
5	0x3e8703ff	0.26370236
6	0x3dcfd467	0.101479344
7	0xbca3ce4e	-0.019995835
8	0xbd51fda2	-0.051267274
9	0xbc842f3f	-0.01613581
10	0x3e1544a0	0.1457696
11	0x3e72e5c2	0.23720458
12	0xbdb2fc77	-0.0873956
13	0xbe2ddb62	-0.16978219
14	0xbce340b6	-0.027740818
15	0x3e84f362	0.25966936
16	0x3cd63a09	0.02615072
17	0x3e8e94ff	0.2784805
18	0x3e8526b9	0.26006106
19	0xbd14e9b2	-0.03635568
20	0xbd37b665	-0.04485168
21	0xbd33f32a	-0.04393307
22	0xbc9e21d4	-0.01930324
23	0xbd6c5d84	-0.05770637
24	0xbc3e3a1e	-0.011610536
25	0xbe8b64f3	-0.27225456
26	0xbc2974f5	-0.010342826
27	0x3e270584	0.16310698
28	0xbceba29c	-0.028764062
29	0xbec84693	-0.39116344
30	0xbf10d1dc	-0.5657022
31	0xbd9b5714	-0.07584968
32	0xbcdfad0a	-0.027304191
33	0xbca588de	-0.020206865
34	0x3dd775f0	0.10520542
35	0xbef5695d	-0.47931948
36	0xbe93396e	-0.28754753
37	0x3d89d59f	0.06730198
38	0x3d29f6f3	0.041495275
39	0xbe89034f	-0.26760337
40	0x3e5d1baf	0.21592592
41	0x3c02ba38	0.007978968
42	0xbf08833c	-0.5332525
43	0xbee8ed77	-0.4549367
44	0x3b1f6c31	0.0024325962
45	0xbce29f89	-0.027663963
46	0xbe08d633	-0.1336296
47	0xbc81a8ab	-0.015827497
48	0xbe7743fe	-0.2414703
49	0xbdd2c758	-0.10291928
50	0x3c2179d7	0.009855709
51	0xbd531b2d	-0.05153959
52	0xbdbf39fd	-0.09337232
53	0x3d32f635	0.043691833
54	0x3c51bf9f	0.012802034
55	0xbe2866fa	-0.16445532
56	0x3da67242	0.08127262
57	0x3d65cd9a	0.05610428
58	0xbeacbfa5	-0.33739963
59	0xbce539b0	-0.02798161
60	0xbbdb0009	-0.006683354
61	0x3dc3e741	0.095655926
62	0x3e00d407	0.12580882
63	0x3b227022	0.0024786075
64	0xbf0e4c56	-0.5558523
65	0xbe3f0194	-0.18652946
66	0x3d9685e8	0.07349759
67	0xbb85a87c	-0.004078923
68	0xbeb3201c	-0.34985435
69	0xbc968221	-0.018372597
70	0x3df3a8c1	0.11897422
71	0x3daf8b96	0.08571546
72	0x3d845818	0.06462115
73	0xbe08ecac	-0.13371533
74	0xbcde4fa9	-0.027137594
75	0xbd0a5188	-0.03376916
76	0x3e8066ac	0.25078332
77	0xbeff8993	-0.49909648
78	0x3e1357da	0.14388981
79	0xbd46be39	-0.048521254

running_mean f4 [80]
0	0x4033aac2	2.8072972
1	0x3fe652f5	1.7994066
2	0x40192511	2.3928874
3	0xc03225d4	-2.7835588
4	0x3f9f9a12	1.2468894
5	0x40089f62	2.134728
6	0x3fc86369	1.5655338
7	0xbfe6423e	-1.7988966
8	0xbf515ff5	-0.81787044
9	0xc03c8a24	-2.9459314
10	0x3f4943f1	0.78619295
11	0x4061a03d	3.5254052
12	0xbffb2908	-1.9621897
13	0x3f8bd889	1.0925456
14	0xbfed9d19	-1.8563567
15	0x3fae20cd	1.360376
16	0xc01c8cd8	-2.4460964
17	0x400103c2	2.0158544
18	0x3fb73425	1.4312788
19	0xbfbdbf5c	-1.4824023
20	0xc00eaa20	-2.2291336
21	0xc04b015b	-3.1719577
22	0x4004fe59	2.0780241
23	0xbf72cba2	-0.9484197
24	0xc0224ca7	-2.5359285
25	0x4004c830	2.0747185
26	0x3f1e1e31	0.6176482
27	0x40486152	3.13094
28	0xbf58af2f	-0.8464231
29	0x3d00ac3e	0.031414263
30	0x40905e75	4.5115304
31	0xbfa369e1	-1.2766687
32	0xbf925a99	-1.1433898
33	0xbf81b2a8	-1.0132647
34	0x3fbd0674	1.4767594
35	0x403bfbbc	2.9372396
36	0x4007172d	2.1107895
37	0x3f03d8fe	0.5150298
38	0xbe45a085	-0.19299515
39	0x3f8cf4b1	1.1012174
40	0x3fcdee67	1.608838
41	0xbf88505c	-1.0649524
42	0x40024839	2.0356581
43	0x3fa39aca	1.2781613
44	0x3ea81b51	0.3283334
45	0xbf500063	-0.8125059
46	0x3f32bf2d	0.6982296
47	0x3fb934ac	1.4469199
48	0x400b99bd	2.1812584
49	0xbf3d7351	-0.74004084
50	0xbfe3ad30	-1.7787228
51	0xbfe8d222	-1.8189127
52	0xc04b1162	-3.172936
53	0xbf27b596	-0.65511453
54	0xbf52a584	-0.82283807
55	0x4032c1fa	2.7930894
56	0x3fe25ad1	1.7683965
57	0xc0379c1e	-2.8689036
58	0xbfa6b2e5	-1.3023344
59	0xbf74f6eb	-0.95689267
60	0xbf941fa1	-1.1572152
61	0x3fa69d37	1.3016728
62	0x3fdf73f5	1.7457262
63	0xbe5a36ef	-0.21310018
64	0xbd60cf7b	-0.05488537
65	0x3f930339	1.1485358
66	0x405fe75e	3.4984965
67	0x3ebbe304	0.36696637
68	0x3e9e31c4	0.30897343
69	0xbff3fd37	-1.906165
70	0x402531e7	2.5811708
71	0x3f9d5e1c	1.2294345
72	0x3e8d18d5	0.27558008
73	0x401e3eb7	2.4725778
74	0xc00d18f6	-2.2046485
75	0x403b6fa2	2.9286885
76	0x3f171178	0.5901103
77	0x3fd29b20	1.645359
78	0x401ea77e	2.478973
79	0xbf92189f	-1.1413764

running_var f4 [80]
0	0x402096ce	2.5092044
1	0x40cb2994	6.3488255
2	0x40a1b6e5	5.053576
3	0x40af34e1	5.475205
4	0x404d62d1	3.2091563
5	0x40ab4930	5.352684
6	0x3dc5629b	0.09637948
7	0x3f84933e	1.0357435
8	0x3ef7059b	0.48246464
9	0x40d0b4fb	6.5220923
10	0x403f92fa	2.9933457
11	0x406a3f17	3.6601007
12	0x40ab243b	5.3481727
13	0x3f5e1810	0.86755466
14	0x3fced5a4	1.6158948
15	0x4028c055	2.636739
16	0x3f949275	1.1607195
17	0x3e68c808	0.22732556
18	0x3e15f7a5	0.1464525
19	0x40b2eaa9	5.591145
20	0x3f8f346a	1.118787
21	0x40bf0a81	5.970032
22	0x404183be	3.023666
23	0x3ff5dab5	1.9207369
24	0x40290542	2.640946
25	0x40656028	3.583994
26	0x3b80c5da	0.0039298357
27	0x40bca722	5.895402
28	0x4063a191	3.5567362
29	0x3e89d56d	0.26920643
30	0x40c9c758	6.305584
31	0x3d506fa3	0.050887715
32	0x3f94d160	1.1626396
33	0x405ee1c5	3.4825299
34	0x3ebe89fd	0.37214652
35	0x40778d20	3.8679886
36	0x4000b066	2.0107665
37	0x3eb3b258	0.35097003
38	0x3e668fc9	0.22515787
39	0x40856789	4.1688886
40	0x4090aba8	4.520954
41	0x40123d20	2.2849808
42	0x4085f55f	4.1862025
43	0x400b4281	2.175934
44	0x3e23fe3d	0.16014953
45	0x40760a0a	3.8443627
46	0x3f8fd96f	1.123823
47	0x3faeb417	1.3648709
48	0x403a73dd	2.9133217
49	0x3e88af4c	0.2669624
50	0x3fd68b74	1.6761308
51	0x40980153	4.7501616
52	0x40820526	4.0631285
53	0x3f3a7731	0.7283812
54	0x3e6cf068	0.23138583
55	0x404b03e5	3.1721127
56	0x3fd59e71	1.6688977
57	0x3fe9db20	1.8269997
58	0x3d1791e4	0.037004367
59	0x3ed36b9e	0.41293043
60	0x3f8c4008	1.0957041
61	0x401f13d3	2.485585
62	0x407cd8e7	3.9507387
63	0x3d6f7e0e	0.058469824
64	0x3e81545d	0.25259677
65	0x40585a7c	3.3805227
66	0x40994f84	4.7909565
67	0x3e22f2e7	0.15912972
68	0x3f8d5806	1.1042488
69	0x40068f79	2.1025069
70	0x3f0f332d	0.55937463
71	0x3d5d23d7	0.053989258
72	0x3f3bacf3	0.73310775
73	0x40c6a784	6.2079487
74	0x3e415417	0.18879734
75	0x40d421dd	6.6291337
76	0x3e856ad6	0.26058072
77	0x3fe41fe7	1.7822236
78	0x400924bf	2.1428678
79	0x3f949103	1.1606754

weight f4 [80, 80]
0	0x3d0862da	0.033297397
1	0x3d5a8fb7	0.053359713
2	0xbdb93f53	-0.09045281
3	0x3bb58881	0.005539954
4	0x3d57bc10	0.052669585
5	0x3de5b28b	0.11215695
6	0xbd5edb20	-0.054408193
7	0xbe6b8993	-0.23001699
8	0xbdfa440f	-0.122200124
9	0xbe236206	-0.15955362
10	0xbbf25055	-0.00739483
11	0x3dcfacee	0.101404056
12	0xbe73d82e	-0.23812935
13	0xbbaee5e6	-0.0053374646
14	0xbcb3a8cd	-0.021931076
15	0xbca40ec2	-0.020026568
16	0xbe017a63	-0.12644343
17	0x3d8e93a3	0.06961753
18	0x3d0e290e	0.03470712
19	0xbca740ba	-0.020416606
20	0xbe0bdf3d	-0.13659377
21	0xbe1534c6	-0.14570913
22	0xbd18571f	-0.03719246
23	0xbe656a4f	-0.22403835
24	0xbcce99e5	-0.025219867
25	0x3d136cce	0.035992436
26	0xbe822045	-0.25415245
27	0xbdc93e78	-0.09826368
28	0xbdd3bf86	-0.103392646
29	0xbe05c197	-0.1306213
30	0xbe063665	-0.13106687
31	0xbe5db621	-0.21651508
32	0xbe804f31	-0.25060418
33	0xbdb6e88c	-0.089310735
34	0x3d677a32	0.05651302
35	0xbdef9b48	-0.116995394
36	0x3c84bcef	0.016203372
37	0xbe0dd62a	-0.13851228
38	0xbe004a83	-0.12528424
39	0xbe058580	-0.13039207
40	0xbda20623	-0.07911327
41	0xbec3ca06	-0.3824007
42	0xbe060ba6	-0.13090381
43	0xbc89d15d	-0.016823465
44	0xbd84c1c4	-0.0648227
45	0x3d3c95d5	0.04604133
46	0x3bc614bb	0.0060449517
47	0x3d6a3e14	0.05718811
48	0x3c24d2b4	0.010060001
49	0xbd847a11	-0.06468595
50	0xbe2459c0	-0.16049862
51	0xbd2ebac5	-0.042658586
52	0xbe2c54ec	-0.1682927
53	0xbe92fb1b	-0.28707203
54	0xbe927853	-0.28607425
55	0x3d3b8bdd	0.04578768
56	0xbe09c8c5	-0.13455494
57	0xbe2e9e6d	-0.17052622
58	0x3bc54bd5	0.006021003
59	0xbe03d641	-0.128747
60	0xbe93da61	-0.28877547
61	0xbd6e1a07	-0.05813029
62	0x3ced5f8b	0.028976223
63	0xbe9c2482	-0.30496603
64	0xbd1d46a9	-0.038397465
65	0xbd8d7711	-0.06907476
66	0x3cf0a359	0.029374765
67	0xbe685fe0	-0.22692823
68	0xbdf8f5fb	-0.12156292
69	0xbe39b825	-0.18136652
70	0x3d433111	0.047654215
71	0x3cab404e	0.020904686
72	0xbc57bfdc	-0.013168301
73	0xbde3f7e3	-0.11131265
74	0xbe1d5cdb	-0.15367453
75	0x3bc1b885	0.005911889
76	0x3df77f97	0.12084883
77	0xbaa00c5c	-0.0012210715
78	0xbbcc65dd	-0.006237729
79	0xbe4eab81	-0.20182611
80	0x3e1bcf6c	0.15215844
81	0x3c3429d5	0.010996302
82	0x3dad036b	0.084479176
83	0xbdb62abd	-0.088948704
84	0x3db03a1b	0.08604833
85	0xbcac2521	-0.021013798
86	0x3e26c67b	0.16286652
87	0xbb10ac41	-0.0022075328
88	0xbddc3a1c	-0.10753271
89	0xbdb6dd32	-0.089289084
90	0x3e1edbd6	0.15513548
91	0x3c90ccb9	0.017675744
92	0x3c3cc719	0.011522078
93	0xbcd3e4c0	-0.025865912
94	0xbe30d897	-0.17270122
95	0x3e20f03a	0.15716639
96	0xbdab1ea8	-0.083554566
97	0xbd504837	-0.05085012
98	0x3b294218	0.0025826748
99	0xbd254046	-0.0403445
100	0x3c3120cd	0.010811043
101	0x3c8036a6	0.015651058
102	0x3da7deeb	0.08196815
103	0xbdd59465	-0.10428695
104	0xbd328263	-0.043581378
105	0x3bf5d5cb	0.0075022927
106	0xbe559a63	-0.20859675
107	0x3c9caddf	0.019125877
108	0xbd8dcf67	-0.069243245
109	0x3da364c1	0.07978202
110	0x3d1a678c	0.037696406
111	0xbe18db30	-0.14927363
112	0xbe271a55	-0.16318639
113	0xbce45031	-0.02787027
114	0x3dc32313	0.09528174
115	0x3e08e086	0.13366899
116	0x3df54fd3	0.11978116
117	0x3d610007	0.054931667
118	0xbddbf8e8	-0.107408345
119	0x3de9d77d	0.11418054
120	0x3d16e66e	0.03684085
121	0xbe674763	-0.22585826
122	0x3d72605d	0.05917393
123	0x3c677306	0.014126545
124	0xbd5d91cc	-0.05409412
125	0xbd91e795	-0.07124249
126	0xbcc52e04	-0.024069794
127	0xbd333192	-0.043748446
128	0x3df5de04	0.12005237
129	0xbded166a	-0.11576541
130	0xbe5456f5	-0.20736296
131	0x3d99a8c1	0.075028904
132	0x3d80bc6c	0.062859386
133	0xbb9d93e8	-0.0048088916
134	0xbc8fa53e	-0.017534848
135	0x3d8427b1	0.06452883
136	0x3de18530	0.110117316
137	0xbe4a128f	-0.19733642
138	0x3e076dfa	0.13225546
139	0xba06f41b	-0.0005148069
140	0xbdaa0e4e	-0.0830351
141	0x3e15873a	0.14602366
142	0x3e01a6a6	0.12661228
143	0xbd133ebf	-0.03594851
144	0x3de30ec2	0.11086799
145	0x3d23f9c1	0.040033106
146	0x3d2e5233	0.04255886
147	0xbc17aaf6	-0.009257069
148	0xbc9978ac	-0.018734299
149	0xbdb332de	-0.087499365
150	0x3d8317e1	0.06401039
151	0x3e03041e	0.1279454
152	0x3dbceb35	0.0922455
153	0x3df424cc	0.11921081
154	0xbe2bb048	-0.16766465
155	0xbc4cf2e1	-0.012509079
156	0x3c436d6e	0.011927946
157	0x3dcbc334	0.099493414
158	0xbc991487	-0.018686546
159	0xbd276fd5	-0.040878136
160	0xbcaece3f	-0.02133858
161	0xbd863ac4	-0.065541774
162	0xbda1a1f7	-0.078922205
163	0xbd6774e4	-0.05650796
164	0xbd09bce4	-0.033627406
165	0xbde9872f	-0.11402737
166	0xbcf6fb1d	-0.030149037
167	0xbe9c24c8	-0.30496812
168	0xbe34298c	-0.17593974
169	0xbdb30936	-0.08741991
170	0xbde2eed9	-0.11080713
171	0x3d9509c2	0.07277252
172	0xbdef4c42	-0.11684467
173	0xbe2f920e	-0.17145559
174	0xbda932ac	-0.08261618
175	0xbdca74bc	-0.098855466
176	0xbdfcf80b	-0.12351998
177	0x3dbce55b	0.092234336
178	0x3d5f52a7	0.054522183
179	0xba8e365d	-0.0010849942
180	0xbe7723f1	-0.24134804
181	0xbd288561	-0.041142825
182	0xbd713dc1	-0.058896784
183	0xbe410e49	-0.18853106
184	0xbe9585ec	-0.29203737
185	0xbcbe054e	-0.023195889
186	0xbdaa0dcc	-0.08303413
187	0xbda09973	-0.07841768
188	0xbd3e179f	-0.046409246
189	0xbe201e8a	-0.1563665
190	0xbe31f03c	-0.17376798
191	0xbe127720	-0.14303255
192	0xbd2f6259	-0.0428184
193	0xbde0ede4	-0.10982874
194	0xbd13e4d2	-0.036106892
195	0xbe5120d3	-0.20422678
196	0xbba3294e	-0.004979289
197	0x3d9e06d7	0.07716148
198	0xbe896d4c	-0.268412
199	0xbe1dc0f3	-0.15405636
200	0x3d31b489	0.043385062
201	0xbd7855ad	-0.06062858
202	0xbd9b0375	-0.07569019
203	0xbcb526cd	-0.022113228
204	0x3c1905bb	0.009339745
205	0xbe068ae1	-0.13138916
206	0xbce3c6e0	-0.027804792
207	0xbd6fd13e	-0.05854916
208	0xbd669489	-0.056293998
209	0xbd75528f	-0.059893187
210	0xbe16a664	-0.1471191
211	0xbdb8f556	-0.09031169
212	0xbe0d03f6	-0.13771042
213	0xbe0d17d5	-0.13778622
214	0xbe081ccd	-0.13292237
215	0xbd9d71ab	-0.07687696
216	0xbb9041dd	-0.0044023828
217	0xbd497d38	-0.049191684
218	0xbe1c0f5b	-0.15240233
219	0x3c94d18f	0.018166332
220	0x39e6ce09	0.00044022527
221	0x3cb1111d	0.021614606
222	0xbc1766e5	-0.009240841
223	0xbd6a73f0	-0.057239473
224	0xbe4e5e30	-0.20153117
225	0xbbbc021b	-0.0057375557
226	0xbd4dcbac	-0.050243065
227	0xbd5fe6f6	-0.05466362
228	0xbe4b4590	-0.19850755
229	0xbe0ac788	-0.13552678
230	0xbcf95dcc	-0.030440234
231	0x3dc45677	0.09586804
232	0xbdde279d	-0.108473994
233	0x39e217c9	0.000431238
234	0xbe4c239b	-0.19935457
235	0x3c7e9f49	0.015540906
236	0xbd2c8147	-0.042115476
237	0xbe7f2139	-0.24915017
238	0xbc42d19a	-0.011890793
239	0xbcd46aae	-0.025929775
240	0xbd779d24	-0.060452595
241	0xbe60c211	-0.2194903
242	0xbdec2557	-0.115305595
243	0x3ca8f2c7	0.020623578
244	0xbdcef6ef	-0.101056926
245	0xbdcb53e1	-0.09928108
246	0xbdcde4b9	-0.10053391
247	0x3de0cc99	0.10976524
248	0x3e17214c	0.14758795
249	0x3d908039	0.070557065
250	0xbe7fee75	-0.24993308
251	0xbe1a3f71	-0.15063263
252	0xbcba6e4d	-0.022757674
253	0x3c1c6c9b	0.009547378
254	0x3e29ffb9	0.16601457
255	0xbe6f6c15	-0.23381074

bias f4 [80]
0	0xbb8e7f6d	-0.0043486864
1	0xbb706763	-0.0036682717
2	0x3d92bb30	0.071646094
3	0x3d96b54a	0.07358797
4	0x3dbb42d1	0.091436036
5	0x3de7e4eb	0.113229595
6	0x3db9247e	0.090401635
7	0x3dd4934a	0.10379656
8	0x3dc48f1d	0.09597609
9	0x3d5a282b	0.053260963
10	0xbdac9fcd	-0.08428917
11	0xbd12f5e6	-0.03587904
12	0x3d1d2d62	0.03837336
13	0x3bcf5d41	0.0063282554
14	0xbd80385d	-0.062607504
15	0x3dd36c35	0.10323373
16	0x3ceca74d	0.028888369
17	0x3d0d03de	0.034427516
18	0x3cce8eb2	0.025214527
19	0xbd9ebd24	-0.077509195
20	0x3dba66a1	0.09101606
21	0x3c83dd5b	0.016096761
22	0xbc2304d6	-0.009949883
23	0xbd1df863	-0.03856696
24	0x3ce521f2	0.027970288
25	0xbd255141	-0.040360693
26	0xbdd0cfbc	-0.10195872
27	0xbd29ff62	-0.041503318
28	0xbdb4e949	-0.08833558
29	0x3d819cba	0.06328721
30	0xbdacc198	-0.084353626
31	0x3dbdfb40	0.09276438
32	0x3dd191a8	0.1023286
33	0x3d4cffaa	0.050048508
34	0x3d01ca10	0.031686842
35	0x3ddcf2c3	0.107884906
36	0xbdb75b6f	-0.089529864
37	0x3dbc1797	0.09184187
38	0x3d664f97	0.056228247
39	0x3dc17078	0.0944528
40	0xbc2e02dc	-0.010620799
41	0xbc25da9c	-0.010122921
42	0xbcfc18f6	-0.030773621
43	0xbc8cd9b6	-0.017193656
44	0x3de2bac5	0.1107078
45	0x3d9a01fa	0.07519908
46	0x3cc3ad90	0.023886472
47	0xbc3a360e	-0.011365427
48	0xbc4cc250	-0.0124975
49	0xbbccae12	-0.0062463367
50	0xbc82e7a8	-0.015979603
51	0x3de928ca	0.11384733
52	0x3de29cdb	0.11065074
53	0xbca9237d	-0.020646805
54	0xbb96bcf3	-0.004600161
55	0xbd53bc23	-0.051693093
56	0x3d7f58f3	0.062340688
57	0xbcb14a6e	-0.021641936
58	0xbdcf04fc	-0.101083726
59	0x3d3a4259	0.04547343
60	0xbcc8cabe	-0.024510738
61	0xbca5b87b	-0.020229569
62	0x3dc0d60d	0.09415827
63	0xbd5fbb3c	-0.05462192
64	0x3bc6220b	0.0060465387
65	0x3d9b442f	0.07581364
66	0x3b9e0bff	0.0048232074
67	0xbd1b7a73	-0.037958574
68	0xbc63a640	-0.013894618
69	0xbd88df42	-0.06683208
70	0xbcfdfb4c	-0.031003617
71	0xbd43d0c4	-0.047806516
72	0x3d8d3b92	0.06896128
73	0xbd84f976	-0.064928934
74	0x3d4d18b9	0.050072405
75	0xbd69e655	-0.057104427
76	0x3c664682	0.014054896
77	0xbd074587	-0.03302529
78	0x3db15917	0.08659571
79	0xbd58c1de	-0.05291926

weight f4 [80, 80]
0	0x3da961e3	0.082706235
1	0x3d9522ee	0.07282053
2	0x3d83646b	0.064156376
3	0xbe06785b	-0.1313185
4	0xbd96a6c9	-0.073560305
5	0xbdafdeb3	-0.085873984
6	0x3da1e374	0.07904711
7	0xbe668055	-0.22509892
8	0xbd163643	-0.03667284
9	0xbe54ce8c	-0.20781916
10	0x3db56308	0.08856779
11	0x3d66b7b7	0.056327548
12	0xbd735311	-0.05940539
13	0xbcf8b845	-0.030361304
14	0x3dc177df	0.09446692
15	0xbd0da0d7	-0.034577217
16	0xbe061fea	-0.13098112
17	0xbd880550	-0.06641638
18	0xbc04546c	-0.008076768
19	0xbdfa6667	-0.12226563
20	0xbe1d15b3	-0.15340309
21	0xbda5434d	-0.08069477
22	0xbca676bb	-0.020320287
23	0xbe184024	-0.14868218
24	0xbd0775f1	-0.033071462
25	0x3cd60dac	0.026129566
26	0xbd5c3b4e	-0.053767495
27	0xbdc4c8bd	-0.096086
28	0xbe05660d	-0.1302721
29	0x3d0c2fb3	0.034225177
30	0x3c99d3b4	0.018777706
31	0xbbe79d22	-0.0070682922
32	0xbe2fdd61	-0.17174293
33	0xbaee7ad1	-0.0018194561
34	0x3dc853d0	0.09781611
35	0xbc16060b	-0.009156714
36	0xbc5b8858	-0.013399206
37	0xbda7963e	-0.08182953
38	0xbe52d8ba	-0.20590487
39	0xbb7eaf64	-0.0038861865
40	0xbd95f95e	-0.07322954
41	0xbdd1217c	-0.10211465
42	0x3d37f163	0.04490794
43	0x3d959dc4	0.07305482
44	0xbcc7ad85	-0.024374733
45	0xbdf11eb4	-0.11773434
46	0xbd83db2f	-0.0643829
47	0xbdcb2fc5	-0.09921221
48	0xbdca7e1b	-0.09887334
49	0xbd7d0fde	-0.06178271
50	0x3b4fcc49	0.0031707457
51	0xbd9579d6	-0.07298629
52	0xbe7e2da7	-0.24822102
53	0xbe0f3876	-0.13986382
54	0xbd249af0	-0.040186822
55	0x3a878156	0.0010338228
56	0x3d1f5b82	0.038905628
57	0xbd3f0107	-0.04663184
58	0x3dee74b6	0.116433546
59	0xbe35ea48	-0.17765152
60	0xbe71c1b1	-0.23609044
61	0x3c90d455	0.017679373
62	0xbd8bd6c5	-0.068280734
63	0xbd9c58ec	-0.07634148
64	0x3c186160	0.00930056
65	0x3d830ea7	0.06399279
66	0x3dad2da7	0.08455973
67	0xbd3d9e20	-0.046293378
68	0xbcb1e893	-0.021717345
69	0xbe715fca	-0.23571697
70	0x3c2c3c0b	0.010512362
71	0xbcb67c9b	-0.022276213
72	0x3c86aa5f	0.016438661
73	0xbda583ff	-0.08081817
74	0x3c5d10d0	0.013492778
75	0x3d2d389e	0.042290322
76	0x3d8ea754	0.06965509
77	0xbdf51e8d	-0.11968718
78	0xbd901ff9	-0.07037348
79	0x3cf28345	0.02960361
80	0xbd391cbb	-0.045193415
81	0xbdac3f99	-0.08410568
82	0xbe3b9c77	-0.18321405
83	0xbe00da99	-0.12583388
84	0xbd3177a7	-0.043327
85	0xbd974937	-0.073870115
86	0xbda0508f	-0.07827865
87	0x3cd0a88c	0.025470994
88	0xbd299704	-0.041403785
89	0xbe04de40	-0.12975407
90	0xbe1eb8bb	-0.15500157
91	0xbe6d42fb	-0.23170082
92	0x3c524af6	0.012835255
93	0xbdbbf768	-0.09178048
94	0xbdaa5a77	-0.08318036
95	0xbe656cfe	-0.22404858
96	0xbdea1296	-0.11429326
97	0xbd96be61	-0.07360531
98	0xbe6bcdb7	-0.23027693
99	0xbb0d3cbb	-0.002155109
100	0xbb06146f	-0.0020458957
101	0xbaaf056d	-0.0013353057
102	0xbe8207ee	-0.25396675
103	0x3dd074a8	0.101785004
104	0xbd9a04e7	-0.07520466
105	0xbe30927e	-0.17243382
106	0x3d5f8b77	0.054576363
107	0xbe4c3ed9	-0.1994585
108	0xbbd81230	-0.006593965
109	0xbe5d6350	-0.21619916
110	0xbe0970bb	-0.1342191
111	0x3e0924fe	0.13393018
112	0xbd9cbded	-0.07653413
113	0x3dc6ada0	0.09701085
114	0xbe5990b2	-0.21246603
115	0xbdcdbf6d	-0.10046277
116	0xbda2730f	-0.07932102
117	0xbdf4d780	-0.11955166
118	0xbda1c78b	-0.07899388
119	0xbdf4462c	-0.11927447
120	0xbe203cd3	-0.15648203
121	0xbdab5925	-0.08366612
122	0xbde249ef	-0.11049258
123	0xbe150970	-0.14554381
124	0xbe3733eb	-0.17890899
125	0xbe1ae132	-0.15124968
126	0xbe452c95	-0.19255288
127	0xbe10b94d	-0.14133187
128	0xbe53ada9	-0.20671715
129	0xbd9f7ba3	-0.07787254
130	0x3d431fc1	0.047637705
131	0x3da2ca6f	0.079487674
132	0x3e01e4b0	0.12684894
133	0xbc20082b	-0.009767572
134	0x3d103451	0.035206143
135	0xbe2c7c0c	-0.16844195
136	0xbe60f1eb	-0.21967284
137	0x3da643e9	0.081184216
138	0xbe1eef51	-0.1552098
139	0xbd94c99f	-0.07265019
140	0xbe0fe149	-0.14050783
141	0xbe0df158	-0.13861597
142	0xbda190cc	-0.07888946
143	0xbd387efb	-0.045042973
144	0xbe250e72	-0.16118792
145	0xbd43cf18	-0.047804922
146	0xbd9d0b57	-0.076681785
147	0xbb9ed751	-0.004847445
148	0xbe66c2a0	-0.22535181
149	0x3d9bc303	0.07605555
150	0xbde475ca	-0.11155279
151	0xbd726856	-0.059181534
152	0xbe4fa1f9	-0.20276631
153	0xbe28c5e7	-0.16481744
154	0x3dbc7d39	0.09203572
155	0xbdcd853e	-0.100351796
156	0xbe84664e	-0.25859302
157	0xbe3160ed	-0.1732213
158	0xbe3b0348	-0.1826297
159	0xbd03978a	-0.03212694
160	0x3e098428	0.1342932
161	0x3e881f4a	0.26586372
162	0xbaf80c7d	-0.001892462
163	0xbe0fafeb	-0.14031951
164	0x3e948abf	0.29012105
165	0x3e509688	0.20369923
166	0xbc19504f	-0.009357526
167	0xbe06a8cd	-0.1315033
168	0xbe2690af	-0.1626613
169	0xbdead42f	-0.11466252
170	0x3dc2a6ff	0.09504508
171	0x3d893ef8	0.067014635
172	0xbe1cde06	-0.1531907
173	0x3d306faf	0.04307526
174	0xbe70339b	-0.23457186
175	0x3d8cedc0	0.06881285
176	0xbdd61574	-0.104533106
177	0x3e83a128	0.2570889
178	0x3e6bf81a	0.23043862
179	0xbe0abbde	-0.13548228
180	0xbd9becb0	-0.07613504
181	0xbd9c1d20	-0.07622743
182	0x3d56161a	0.05226717
183	0xbdd6bcaa	-0.104852036
184	0xbd886ece	-0.06661759
185	0x3e026044	0.12732035
186	0xbda6d318	-0.08145732
187	0x3dd8ac04	0.105796844
188	0xbe00fbd6	-0.12596068
189	0x3e0dcfcc	0.138488
190	0xbd5fa49a	-0.054600336
191	0xbe09155c	-0.13387054
192	0xbd0804cf	-0.03320771
193	0xbe228255	-0.1587003
194	0x3d8cc2e0	0.06873107
195	0x3cac1121	0.021004261
196	0x3e14999a	0.1451172
197	0x3e530792	0.20608357
198	0xbe239c2e	-0.15977547
199	0x3da26d2b	0.079309784
200	0x3e131365	0.14362867
201	0xbe76452a	-0.24049821
202	0x3d8c9f71	0.068663485
203	0x3e1dc898	0.15408552
204	0x3e0062db	0.1253771
205	0xbdbaeeb3	-0.091275595
206	0x3e48e8b4	0.19620019
207	0x3d9ae137	0.075624876
208	0x3d58c505	0.052922267
209	0xbdb76f61	-0.08956791
210	0xbd817124	-0.06320408
211	0xbe2ffc7c	-0.17186159
212	0xbe3b8e57	-0.18316017
213	0xbd52ac7d	-0.05143403
214	0xbdfa5bf4	-0.1222457
215	0x3d2c557d	0.042073715
216	0x3e44e27d	0.19227023
217	0xbe2a766c	-0.16646737
218	0x3e010870	0.12600875
219	0xbdd81a81	-0.1055193
220	0xbded5704	-0.115888625
221	0x3d9eb4a3	0.077492975
222	0x3e3ead4d	0.18620797
223	0xbde92cd1	-0.11385501
224	0x3bc56a90	0.006024666
225	0x3d2848cb	0.041085046
226	0x3e04f0cf	0.12982486
227	0xbe36e898	-0.17862165
228	0x3dad1890	0.084519506
229	0xbe07e8c7	-0.13272391
230	0x3e5111b2	0.20416906
231	0x3e2d8316	0.16944537
232	0x3e25a234	0.16175157
233	0x3e3a38e4	0.18185765
234	0xbe106766	-0.14101943
235	0x3e247f9b	0.16064303
236	0x3e447c6c	0.19188088
237	0x3d19aee8	0.03752032
238	0x3e08e48e	0.13368437
239	0x3c072e95	0.008250852
240	0xbdfc7682	-0.12327291
241	0xbdc26b61	-0.09493137
242	0xbe7cba95	-0.2468055
243	0x3cbddb44	0.023175843
244	0xbd5d514d	-0.054032613
245	0xbd8300a7	-0.06396609
246	0xbc923afb	-0.01785039
247	0xbd83cc5f	-0.06435465
248	0x3c8aadd8	0.016928598
249	0x3c433273	0.0119138835
250	0xbd8691ce	-0.06570779
251	0xbdd375f2	-0.10325231
252	0x3d7fdfcf	0.0624693
253	0xbe11cc6e	-0.1423814
254	0xbc7b1633	-0.015325117
255	0xbe3ab0cb	-0.18231504

weight f4 [80]
0	0x3f313814	0.69226193
1	0x3f4bf22a	0.7966639
2	0x3f5417d8	0.8284888
3	0x3f8925d8	1.0714674
4	0x3f66bb94	0.9012997
5	0x3f428345	0.7598155
6	0x3f438130	0.76369
7	0x3f8794a0	1.0592232
8	0x3f4b8ee2	0.79514897
9	0x3f49022d	0.78518945
10	0x3f7ae231	0.9800139
11	0x3f4be534	0.7964661
12	0x3f76cda9	0.9640756
13	0x3f5d7367	0.86504215
14	0x3f498fb9	0.7873493
15	0x3f49b067	0.78784794
16	0x3f5b456d	0.8565281
17	0x3f65548e	0.89582145
18	0x3f48963c	0.7835424
19	0x3f553282	0.83280194
20	0x3f8a3743	1.0798115
21	0x3f502d30	0.8131895
22	0x3f40d5f7	0.75326484
23	0x3f76cf6e	0.9641026
24	0x3f587476	0.84552705
25	0x3f835989	1.0261699
26	0x3f78fcd0	0.9726076
27	0x3f8b5010	1.0883808
28	0x3f4885f3	0.7832939
29	0x3f5f6836	0.8726839
30	0x3f592701	0.8482514
31	0x3f881628	1.0631762
32	0x3f892b0f	1.0716265
33	0x3f52a0d5	0.8227666
34	0x3f8ab1cf	1.0835513
35	0x3f2c550f	0.6731729
36	0x3f72a672	0.94785225
37	0x3f81ff74	1.0156083
38	0x3f738dd9	0.9513832
39	0x3f9053be	1.1275556
40	0x3f6318ee	0.88709915
41	0x3f4205d7	0.7579016
42	0x3f64fb2a	0.89445746
43	0x3f3b562f	0.7317838
44	0x3f88517b	1.0649866
45	0x3f7a30f6	0.9773096
46	0x3f887527	1.0660752
47	0x3f776d97	0.96651596
48	0x3f7c0e23	0.9845907
49	0x3f91d030	1.1391659
50	0x3f4a0d78	0.789268
51	0x3f9266b2	1.143759
52	0x3f5ccdf9	0.8625179
53	0x3f68f7fa	0.9100338
54	0x3f278736	0.6544069
55	0x3f43a4eb	0.7642352
56	0x3f89af37	1.0756596
57	0x3f5de0f1	0.8667136
58	0x3f466c0a	0.77508605
59	0x3f8cee75	1.1010271
60	0x3f4e2e6b	0.8053958
61	0x3f89da1c	1.0769687
62	0x3f7edfce	0.9956025
63	0x3f848f2b	1.0356191
64	0x3f71994e	0.9437455
65	0x3f892819	1.0715362
66	0x3f6a10fc	0.91432166
67	0x3f5b5761	0.85680205
68	0x3f6b7d05	0.9198764
69	0x3f8fef78	1.1244955
70	0x3f5589ee	0.8341359
71	0x3f4cc26b	0.7998416
72	0x3f38c7e3	0.7218
73	0x3f8ca2af	1.0987147
74	0x3f8622d2	1.0479376
75	0x3f87f855	1.062266
76	0x3f5cebe4	0.8629744
77	0x3f6909b7	0.9103045
78	0x3f3f7bdf	0.7479839
79	0x3f790511	0.97273356

bias f4 [80]
0	0xbc881023	-0.016609257
1	0xbd7dc4a8	-0.061955124
2	0x3d51c0a4	0.051209107
3	0x3e3be261	0.18348075
4	0xbeb7195d	-0.35761538
5	0xbe47df66	-0.19518813
6	0xbdb6dd2b	-0.08928903
7	0x3e19c548	0.15016663
8	0x3c958e86	0.018256437
9	0x3c68a422	0.014199289
10	0xbd965c80	-0.07341862
11	0x3ccdbda0	0.025114834
12	0xbf633dc9	-0.8876615
13	0xbf06a1cf	-0.5259065
14	0x3bf1545c	0.0073647927
15	0xbe51870e	-0.20461676
16	0xbab82f38	-0.0014052158
17	0xbb7e8ab9	-0.003884001
18	0xbe2be76b	-0.16787498
19	0xbd800f5e	-0.06252931
20	0x3df9600a	0.12176521
21	0x3e385ce1	0.1800418
22	0xbe443dd1	-0.19164206
23	0x3e14bf56	0.14526114
24	0xbe8e8229	-0.2783368
25	0x3d28bd5c	0.041196212
26	0xbe0c335e	-0.1369147
27	0x3e2f4d2c	0.17119282
28	0xbd891eda	-0.066953376
29	0xbea78765	-0.32720485
30	0xbdd49331	-0.10379637
31	0x3e15cdf4	0.14629346
32	0xbd3bdf59	-0.045867298
33	0xbef2ef21	-0.47448066
34	0x3e11bd05	0.14232261
35	0xbf24c97b	-0.64369935
36	0x3da33a2e	0.07970081
37	0x3cba3041	0.022728087
38	0xbcfb5898	-0.030681893
39	0xbc1ed9a7	-0.009695447
40	0xbddbc23a	-0.10730405
41	0xbe20dd57	-0.15709434
42	0xbf748ed2	-0.95530427
43	0xbe8196fd	-0.25310507
44	0x3e21ae3e	0.15789124
45	0xbf985ea2	-1.190388
46	0x3e03addb	0.1285929
47	0xbdb306c6	-0.08741526
48	0xbdbfbb61	-0.093619116
49	0x3df4533f	0.119299404
50	0xbe78317b	-0.24237625
51	0x3e039392	0.12849262
52	0x3e0cb9fc	0.13742822
53	0x3ccc5038	0.024940595
54	0xbe04472c	-0.12917775
55	0xbd2479f9	-0.040155385
56	0x3e20d71e	0.1570706
57	0xbe5e9257	-0.21735512
58	0xbf016278	-0.50540876
59	0x3dc6ba09	0.09703452
60	0xbe52329e	-0.20527121
61	0xbfb99ba0	-1.4500618
62	0xbfa295ee	-1.2702005
63	0x3da9bb75	0.08287708
64	0x3d5f07ba	0.054450728
65	0x3e432664	0.19057614
66	0x3e118012	0.14209011
67	0xbde62b9f	-0.11238789
68	0xbe03fd50	-0.128896
69	0x3dba55d4	0.09098402
70	0x3da4abc5	0.08040575
71	0xbdda6466	-0.10663681
72	0xbd3a115d	-0.045426715
73	0x3dfd5556	0.12369792
74	0x3da06ae9	0.078328915
75	0x3dac2512	0.08405508
76	0xbe0b7e4f	-0.13622402
77	0x3cca2093	0.024673736
78	0xbf542bcf	-0.82879347
79	0xbdc11a56	-0.09428851

running_mean f4 [80]
0	0xc113fc5e	-9.249113
1	0xc096b612	-4.7097254
2	0xc0b53204	-5.6623554
3	0xc01ee4d4	-2.4827166
4	0x3f635d33	0.88814086
5	0xc0be3705	-5.9442163
6	0xc10cfe40	-8.812073
7	0xc083637e	-4.105895
8	0xc0cab8a9	-6.3350415
9	0xc0f7676a	-7.731374
10	0xbf20a4c6	-0.62751424
11	0xc084ed10	-4.1539383
12	0x40a4f93f	5.1554255
13	0x4079581c	3.8960028
14	0xc0c83c42	-6.2573557
15	0xc0f15c77	-7.542537
16	0xc0ee2edf	-7.4432216
17	0xc1027062	-8.152437
18	0xc0f423ed	-7.6293855
19	0xc0c554ee	-6.1666174
20	0xc004a15a	-2.072348
21	0xc0bd179e	-5.909133
22	0xc0fc7bf8	-7.890133
23	0xc03565d8	-2.834341
24	0x405a6ac2	3.412766
25	0xc039af62	-2.9013295
26	0xc015faa6	-2.3434234
27	0xc088068a	-4.250798
28	0xc0d2c546	-6.586581
29	0x40a305b4	5.094446
30	0xc0f97a13	-7.7961516
31	0xbfebbd9e	-1.8417242
32	0xc009b2bd	-2.1515343
33	0x40837a84	4.1087055
34	0xbfd99150	-1.6997471
35	0x40733c27	3.8005464
36	0xc076b8f3	-3.8550384
37	0xbfb7e227	-1.4365891
38	0xbffe6a0f	-1.9876117
39	0xc032c913	-2.7935226
40	0xbfa074b7	-1.2535619
41	0xc0ec120d	-7.3772035
42	0x40952f01	4.661988
43	0xc0be069e	-5.938308
44	0xbfe9563d	-1.8229443
45	0x40a28def	5.079826
46	0xc09c706f	-4.888725
47	0xc023dab9	-2.5602248
48	0xc00439b8	-2.0660229
49	0xc05650a3	-3.3486717
50	0xbefe33d1	-0.49648908
51	0xc0612158	-3.5176601
52	0xc0a86cdf	-5.26329
53	0xc044ca6e	-3.0748553
54	0xc0c67672	-6.2019587
55	0xc11a4cfd	-9.643796
56	0xbfd3bc47	-1.6541833
57	0x405ea19a	3.4786134
58	0x40ce164b	6.4402213
59	0xbfedcb75	-1.8577715
60	0xc0cd789f	-6.4209743
61	0x40a34019	5.1015744
62	0x4091af3e	4.552642
63	0xbffd429d	-1.9785954
64	0xc0cdb427	-6.4282413
65	0xc09256e4	-4.573107
66	0xc0ba03b1	-5.8129506
67	0xc0d997d0	-6.799782
68	0xbfb03f30	-1.3769283
69	0xc03664b0	-2.8498955
70	0xc09842e8	-4.7581673
71	0xc1031deb	-8.194804
72	0xc1238396	-10.219625
73	0xc02210b2	-2.532269
74	0xc009edbe	-2.1551356
75	0xc009e5a6	-2.1546416
76	0xc00c4f99	-2.1923583
77	0xc11ebaa5	-9.9205675
78	0x408355c3	4.104219
79	0xbfb17d01	-1.3866273

running_var f4 [80]
0	0x420895a9	34.146152
1	0x41f2ecc0	30.3656
2	0x40f637ee	7.6943274
3	0x43023ae1	130.23
4	0x42a40a24	82.019806
5	0x4281fed8	64.99774
6	0x42166f78	37.608856
7	0x435f974d	223.59102
8	0x415f3715	13.950948
9	0x428d39f3	70.61318
10	0x4206ff99	33.749607
11	0x42060377	33.503384
12	0x4211d681	36.459476
13	0x420c62d3	35.096508
14	0x4208c6ef	34.19427
15	0x423cf450	47.238586
16	0x42b51004	90.53128
17	0x431ad70d	154.84004
18	0x42acdb52	86.42836
19	0x42cb943f	101.78954
20	0x42ed5c9e	118.68089
21	0x413f96a4	11.9742775
22	0x42827ac9	65.239815
23	0x4300f2cf	128.94847
24	0x428b63fb	69.695274
25	0x42120b78	36.5112
26	0x42127e99	36.62363
27	0x4377b6c5	247.71394
28	0x42c4841c	98.258026
29	0x41888d22	17.068913
30	0x425f8a7b	55.885235
31	0x430f94ae	143.58078
32	0x42926527	73.19756
33	0x421c0d1e	39.01281
34	0x42fc9ea5	126.30985
35	0x41a75afd	20.919428
36	0x430bf7c9	139.96791
37	0x42ffe188	127.94049
38	0x4219cec5	38.451923
39	0x42b8bca5	92.36845
40	0x41e12076	28.14085
41	0x42b22a5d	89.08274
42	0x41f2d92a	30.356037
43	0x428de6ea	70.951004
44	0x4311007b	145.00188
45	0x41bcc1da	23.594654
46	0x43523290	210.19751
47	0x428d8700	70.76367
48	0x425dfc3c	55.496323
49	0x434786e1	199.52687
50	0x41b45cb9	22.545275
51	0x43435501	195.33205
52	0x433ea3b0	190.6394
53	0x4302ae9d	130.68208
54	0x4299f77e	76.98338
55	0x42865812	67.17201
56	0x4303209a	131.12735
57	0x4290fee9	72.49787
58	0x418c1bce	17.513577
59	0x4316986e	150.59543
60	0x4295fde6	74.995895
61	0x41d14bdc	26.16204
62	0x41c2d31b	24.353079
63	0x42fecc96	127.39958
64	0x423e69f0	47.603455
65	0x4376cf3a	246.80948
66	0x42267425	41.613422
67	0x422e2f58	43.546234
68	0x4251d127	52.45425
69	0x432311ac	163.06903
70	0x42155038	37.32834
71	0x42ae2d40	87.08838
72	0x424ab450	50.676086
73	0x4308efe6	136.9371
74	0x4308cb66	136.79453
75	0x43035647	131.33702
76	0x41a8e383	21.11109
77	0x4280a9ec	64.33188
78	0x41bae076	23.3596
79	0x420053a5	32.081684

weight f4 [80, 80]
0	0x3df65033	0.120270155
1	0x3dd899dd	0.10576222
2	0x3d029cc3	0.03188778
3	0x3d0716af	0.032980617
4	0xbdc09f30	-0.094053626
5	0x3db8d06c	0.09024128
6	0x3d87636b	0.06610759
7	0xbd87fdac	-0.06640181
8	0xbc8c6d2d	-0.017141903
9	0x3db4296d	0.08796964
10	0x3c72a525	0.014809881
11	0x3d13b32c	0.036059543
12	0xbd2e18aa	-0.04250399
13	0x3dd623d4	0.104560524
14	0x3d4161a8	0.047212273
15	0xbd187041	-0.03721643
16	0x3cf2cd1c	0.02963882
17	0xbd542015	-0.05178841
18	0x3d7dfba0	0.062007546
19	0x3dbf2b5a	0.093344405
20	0x3acd2a1b	0.0015652807
21	0x3d8ce43a	0.06879468
22	0x3d2ce541	0.04221082
23	0xbd77023e	-0.060304873
24	0x3d4dc399	0.050235365
25	0xbdd3ebf5	-0.103477396
26	0xbd825963	-0.063647054
27	0xbceb1fe3	-0.028701728
28	0x3c316903	0.010828259
29	0x3d6da7b5	0.058021266
30	0xbc07cb81	-0.008288265
31	0x3e37393a	0.17892924
32	0xbd9fc4ac	-0.07801184
33	0x3d57509d	0.052567113
34	0x3cab3107	0.020897401
35	0xbd9524c3	-0.07282402
36	0xbd903574	-0.070414454
37	0xbd56b3b6	-0.05241748
38	0x3cdf085e	0.02722567
39	0xbdb4bae0	-0.08824706
40	0xbdf3e816	-0.11909501
41	0x3d4b3483	0.049610626
42	0xbda47bfe	-0.08031462
43	0x3d9e8ddc	0.07741901
44	0x3e20120f	0.15631889
45	0xbe384c41	-0.17997839
46	0x3d302423	0.043003213
47	0x3cb3e076	0.021957617
48	0xbd303ac4	-0.043024793
49	0xbd956adf	-0.07295775
50	0x3e424e1b	0.18975107
51	0x3e237fdc	0.15966743
52	0x3dc0eca4	0.094201356
53	0x3d849421	0.06473566
54	0xbd747fa9	-0.05969206
55	0x3d68ae27	0.05680671
56	0x3d33ac11	0.043865267
57	0x3d6535fa	0.05595968
58	0x3c7c040f	0.015381827
59	0xbc92ad0d	-0.017904783
60	0x3c68d4a9	0.014210858
61	0xbe97a96b	-0.29621443
62	0xbe1c2c2b	-0.15251224
63	0x3c6e0a9a	0.014528895
64	0xbca9d61b	-0.020731976
65	0x3d9278fa	0.07151981
66	0xbda455ad	-0.08024154
67	0x3bfaba11	0.0076515754
68	0xbd683201	-0.056688312
69	0x3c6a1a50	0.0142885
70	0xbd0f0d57	-0.03492483
71	0x3d62655e	0.055272453
72	0x3d89083d	0.066910245
73	0x3d7fe321	0.062472466
74	0x3de39a9c	0.11113474
75	0x3d3b8f56	0.045790993
76	0xbdae791d	-0.08519194
77	0x3c73da3e	0.014883576
78	0xbd5f802a	-0.054565586
79	0xbbe37c2d	-0.006942293
80	0x3d869296	0.06570928
81	0x3ceceb3e	0.028920766
82	0x3d425443	0.04744364
83	0xbde3ed79	-0.11129279
84	0xbd0422f3	-0.032259893
85	0x3d5f5829	0.054527435
86	0x3ce6f7d0	0.028194338
87	0xbc8f4e50	-0.017493397
88	0xbdb7afc4	-0.089690715
89	0x3d7df692	0.062002726
90	0x3d6887ea	0.056770243
91	0xbe1e8279	-0.15479459
92	0x3caa26dd	0.020770485
93	0xbd595b7a	-0.053065754
94	0x3d02dd86	0.031949542
95	0x3da11cd5	0.078668274
96	0xbdf0b75d	-0.11753724
97	0x3d1e07cb	0.03858165
98	0xbb321548	-0.002717333
99	0xbdfa3bc1	-0.122184284
100	0xbdf53464	-0.11972883
101	0xbc1cd878	-0.009573095
102	0xbd526392	-0.05136449
103	0xbc04c1dd	-0.008102861
104	0xbd2410e8	-0.040055186
105	0x3d87a781	0.06623746
106	0x3cba15cc	0.022715472
107	0x3bb06bbc	0.0053839367
108	0xbdee9d0c	-0.11651048
109	0x3d63a4c8	0.05557707
110	0x3d351344	0.044207826
111	0xbe19ea7a	-0.15030852
112	0x3c4e969d	0.012609151
113	0xbd053dfc	-0.032529816
114	0xbcebc500	-0.02878046
115	0x3dbbe9ad	0.091754295
116	0x3d0cdfdd	0.03439318
117	0xbbec7bb5	-0.0072168955
118	0xbcb7d998	-0.022442624
119	0xbd35f1c9	-0.044420037
120	0x3e03d5bd	0.12874503
121	0xbd3a8cfc	-0.04554461
122	0xbdb8f030	-0.09030187
123	0x3c305aed	0.010763866
124	0xbdaef195	-0.08542172
125	0x3d512928	0.05106464
126	0x3c9d0de4	0.019171663
127	0x3e04daf7	0.12974153
128	0x3cf4901d	0.029853875
129	0xbce74213	-0.028229749
130	0xbd0962dd	-0.03354155
131	0xba81b4b6	-0.0009895775
132	0xbdfe79e3	-0.12425592
133	0xbe29615e	-0.16541049
134	0xbdeb2096	-0.11480825
135	0xbc232e13	-0.009959715
136	0xbe18c6cc	-0.14919585
137	0xbe26c92d	-0.1628768
138	0x3e157182	0.14594081
139	0xbe3554c8	-0.17708123
140	0xbdb54956	-0.08851878
141	0x3e9aff11	0.30272725
142	0x3ddca02b	0.10772737
143	0xbcd79d7d	-0.026320213
144	0x3bf757d6	0.0075483127
145	0xbe020014	-0.12695342
146	0x3dc6ba1e	0.09703468
147	0xbdcad954	-0.09904733
148	0x3e0744db	0.1320986
149	0x3cc984d0	0.024599463
150	0x3d9e680f	0.07734691
151	0x3da16682	0.0788088
152	0xbb4ee0ea	-0.0031567165
153	0xbd1524fb	-0.03641222
154	0xbca36379	-0.019944893
155	0xbd886bdd	-0.06661198
156	0x3dcf6183	0.10126021
157	0xbd1b7705	-0.037955303
158	0xbce43669	-0.027857976
159	0x3c8dba43	0.01730073
160	0xbd08b500	-0.03337574
161	0x3c1dbe00	0.009627819
162	0x3da0176d	0.07816968
163	0xbc058257	-0.008148751
164	0x3d529f92	0.05142171
165	0x3dd89514	0.105753094
166	0xbd32b4c4	-0.043629423
167	0x3db7e041	0.0897832
168	0xbd86bd73	-0.06579103
169	0x3befdb7a	0.007319865
170	0xbcfaa7aa	-0.030597527
171	0x3dbbf6da	0.091779426
172	0xbdc773a3	-0.09738853
173	0xbc1bd8ab	-0.009512107
174	0x3bea764c	0.0071552154
175	0x3b1f9b6a	0.0024354109
176	0xbc458354	-0.012055237
177	0x3dfdd20e	0.123935804
178	0x3dd0c79d	0.10194323
179	0xbce91811	-0.028453859
180	0x3c0d0562	0.00860724
181	0xbd6de373	-0.05807824
182	0x3e18fe62	0.1494079
183	0x3d80aff3	0.0628356
184	0x3d89c8cf	0.06727754
185	0x3d294ec6	0.04133489
186	0xbc1abe1c	-0.00944474
187	0x3df3690b	0.1188527
188	0x3ad82529	0.0016490567
189	0x3cc9c6ea	0.024630982
190	0x3db3448a	0.08753307
191	0x3d19aa02	0.037515648
192	0x3e08af80	0.13348198
193	0x3ac64a59	0.0015128359
194	0x3d30c13a	0.043153025
195	0xbb1cf588	-0.002395006
196	0x3dc6ec08	0.09712988
197	0x3deb941f	0.11502861
198	0x3d9005eb	0.07032379
199	0xbd3d7d44	-0.04626204
200	0xbda3815a	-0.07983656
201	0xbd927b74	-0.07152453
202	0x3b9e4c30	0.0048308596
203	0xbcd295a5	-0.025706122
204	0x3d6b112d	0.057389427
205	0xbdda31e0	-0.10654044
206	0x3dea9f0b	0.11456116
207	0x3da4c2d3	0.08044972
208	0x3cd36832	0.02580652
209	0x3ca1a8e5	0.019733856
210	0xbd2a8c12	-0.041637488
211	0x3dfc1b0b	0.123098455
212	0xbcfd2bf6	-0.030904751
213	0xbcb3ed68	-0.02196379
214	0x3d932971	0.07185639
215	0xbd9fe201	-0.07806779
216	0x3d1ea857	0.03873476
217	0xbcad2590	-0.021136075
218	0x3cb46989	0.02202298
219	0x3dcfc875	0.10145656
220	0x3ca9804c	0.02069106
221	0xbea0e921	-0.31427863
222	0xbe80682f	-0.25079486
223	0xbc9684c2	-0.01837385
224	0x3daadfc7	0.083434634
225	0x3ddab8a6	0.1067975
226	0xbdfc5b28	-0.12322074
227	0xbd5445e9	-0.051824484
228	0xbccd5438	-0.025064573
229	0x3d565eb9	0.05233643
230	0xbc94439a	-0.018098641
231	0xbcdababf	-0.026700376
232	0x3d2b5ce8	0.04183665
233	0xbd42d5f0	-0.047567308
234	0x3cdc3d9e	0.02688485
235	0x3d848c1d	0.06472037
236	0x3c1e8369	0.009674885
237	0x3dc4434a	0.09583147
238	0xbdc15e1a	-0.094417766
239	0x3c519821	0.012792618
240	0x3d59ef45	0.0532067
241	0x3ce36c08	0.027761474
242	0x3c848f05	0.016181478
243	0x3d9b7e13	0.07592406
244	0xbd223114	-0.039597586
245	0x3e02a9df	0.12760113
246	0x3dda8b42	0.106710926
247	0x3e2740f1	0.16333367
248	0x3bf44682	0.0074546942
249	0x3cf0515d	0.029335672
250	0xbd957d55	-0.07299296
251	0x3e06cc85	0.13163956
252	0xbe191716	-0.14950213
253	0x3d0e1fba	0.034698226
254	0xbd885f4d	-0.06658802
255	0x3c816bc7	0.015798463

bias f4 [80]
0	0x3c85b3d0	0.016321093
1	0x3dd9e24f	0.10638868
2	0x3d5ded10	0.05418116
3	0x3d885991	0.066577084
4	0x3df40e18	0.11916751
5	0x3d9b1806	0.075729415
6	0x3d2b0654	0.04175408
7	0xbd53cf2b	-0.051711243
8	0x3db1d618	0.08683413
9	0x3d88a591	0.06672204
10	0x3da62515	0.081125416
11	0x3c0522e2	0.0081259925
12	0x3daa470d	0.08314333
13	0xbd62361e	-0.05522739
14	0xbd49dfd2	-0.049285717
15	0x3d11ecd1	0.035626236
16	0xbb070740	-0.0020603687
17	0xbc458263	-0.012055012
18	0x3d896846	0.06709342
19	0xbb52bc2d	-0.0032155619
20	0xbce9e4b4	-0.028551437
21	0x3dd8ada3	0.105799936
22	0xba9a63cb	-0.0011779008
23	0xbdd17dbe	-0.102290615
24	0xbd9f9bf6	-0.07793419
25	0xbd83fd6c	-0.06444821
26	0xbd7bb5eb	-0.061452787
27	0xbd44882b	-0.047981422
28	0xbdc9dacb	-0.098561846
29	0xbdabbbd8	-0.08385438
30	0x3defa934	0.11702195
31	0xbd2b425d	-0.041811336
32	0x3cc5705f	0.024101434
33	0x3d8f1233	0.06985893
34	0x3cd43e4d	0.025908614
35	0x3d4eb694	0.05046709
36	0xbdac9402	-0.08426668
37	0xbda1aef3	-0.07894697
38	0xbd88136a	-0.06644328
39	0x3abb0bc1	0.0014270471
40	0x3d2bb3b8	0.04191944
41	0xbd92e869	-0.07173235
42	0x3d1f7b71	0.038936082
43	0xbbd059a8	-0.006358344
44	0xbd75c84b	-0.060005467
45	0xbc0cd928	-0.008596696
46	0x3d8c2ae4	0.06844118
47	0xbc214966	-0.00984416
48	0xbd984cf3	-0.07436552
49	0xbcbb4254	-0.022858776
50	0xbd10d80d	-0.035362292
51	0xbd1682b5	-0.036745746
52	0x3b2959a7	0.002584079
53	0xbc39a6c8	-0.011331268
54	0x3db8a957	0.09016674
55	0x3c87de1f	0.016585408
56	0x3c1f8871	0.00973712
57	0xbdcc04d2	-0.09961857
58	0xbd8e5c71	-0.069512255
59	0xbc64733f	-0.013943492
60	0xbb5d3493	-0.003375326
61	0xbdcc85da	-0.09986468
62	0xbde31d0b	-0.11089524
63	0xbdc64284	-0.096806556
64	0x3c0f89f1	0.008760915
65	0xbd8d79a3	-0.06907966
66	0x3d12991b	0.035790544
67	0xbd81f7bc	-0.0634608
68	0xbd5c69d1	-0.053811852
69	0xbd3a0c74	-0.045422032
70	0x3c56214e	0.013069464
71	0xbd952a02	-0.07283403
72	0xbd4cce78	-0.05000159
73	0x3da6ee5a	0.08150931
74	0x3c3ef421	0.011654885
75	0x3d16db55	0.036830265
76	0xbda84589	-0.08216388
77	0x3da9dedb	0.082944594
78	0xbda09135	-0.07840196
79	0xbd9ef973	-0.077624224
