Graph Neural Network/TestModels/SAGEConv-D1 1.pth (torch, 171108 bytes, 15 tensors)

weight f4 [96, 96]
00000000: fb2e b33c be2e b33c e52e b33c 142f b33c
00000010: c12e b33c be2e b33c cf2e b33c d32e b33c
00000020: e02e b33c f52e b33c c22e b33c de2e b33c
00000030: c22e b33c c92e b33c d02e b33c e32e b33c
00000040: da2e b33c bf2e b33c df2e b33c 0a2f b33c
00000050: be2e b33c be2e b33c db2e b33c c12e b33c
00000060: fd2e b33c d02e b33c be2e b33c f92e b33c
00000070: fd2e b33c ec2e b33c fa2e b33c e32e b33c
00000080: bf2e b33c c12e b33c be2e b33c 082f b33c
00000090: be2e b33c fc2e b33c d82e b33c c22e b33c
000000a0: c92e b33c c72e b33c be2e b33c ce2e b33c
000000b0: 032f b33c ee2e b33c be2e b33c fc2e b33c
000000c0: c52e b33c be2e b33c f52e b33c 072f b33c
000000d0: c12e b33c 232f b33c e62e b33c bf2e b33c
000000e0: c72e b33c dd2e b33c 0f2f b33c c22e b33c
000000f0: be2e b33c fb2e b33c be2e b33c bf2e b33c
00000100: cc2e b33c d02e b33c bf2e b33c cf2e b33c
00000110: be2e b33c be2e b33c d32e b33c be2e b33c
00000120: c12e b33c cc2e b33c c92e b33c bf2e b33c
00000130: f12e b33c d02e b33c c62e b33c c32e b33c
00000140: d32e b33c be2e b33c d92e b33c be2e b33c
00000150: dc2e b33c be2e b33c c02e b33c c32e b33c
00000160: be2e b33c be2e b33c be2e b33c c52e b33c
00000170: 162f b33c be2e b33c 142f b33c c72e b33c
00000180: 83ff 773a c782 783a e1e4 773a a53b 783a
00000190: 0bc8 773a faf9 773a c966 783a e8b8 773a
000001a0: d876 773a fc91 773a e4f5 773a 896d 783a
000001b0: 1657 783a 5c63 783a e1ff 773a fffe 773a
000001c0: c7f2 773a 0a2f 783a a584 773a b544 783a
000001d0: 9a6f 773a 4100 783a 123c 783a 3df6 773a
000001e0: a99c 773a 2fb3 773a 71c0 773a 826b 783a
000001f0: 030d 783a aeaf 773a 5c6d 773a aaa2 773a
00000200: 7bf9 773a b2f6 773a c1f7 773a 1807 783a
00000210: b354 783a c2e5 773a 39f8 773a e6e2 773a
00000220: 8b8d 773a fdfc 773a e836 783a e0d0 773a
00000230: f71d 783a a5ff 773a ca7c 783a bc62 783a
00000240: 990e 783a 47bc 773a 93f3 773a 27fc 773a
00000250: d738 783a 9d14 783a 9f80 783a 5e9d 773a
00000260: ca7c 783a 29da 773a f5ae 773a 8433 783a
00000270: effb 773a 0be6 773a 7f6e 783a 1be0 773a
00000280: cf02 783a 1389 773a 8ef9 773a 2723 783a
00000290: 3c43 783a dbb8 773a ebf4 773a 37f6 773a
000002a0: ddf5 773a f996 773a e6c6 773a 5fe7 773a
000002b0: 0666 783a f902 783a 31f6 773a 37bd 773a
000002c0: 9eff 773a 8c55 783a 6bc2 773a dcda 773a
000002d0: 6f56 783a d884 773a 5b38 783a 75b5 773a
000002e0: 11d5 773a e6f7 773a 5a24 783a 2f4e 783a
000002f0: f7b6 773a b9f8 773a 0e2b 783a f3fe 773a
00000300: a69d a23a ec91 a23a 5392 a23a 2392 a23a
00000310: 0894 a23a f09c a23a f191 a23a 0092 a23a
00000320: ec91 a23a 5592 a23a 2692 a23a 4c92 a23a
00000330: 7496 a23a 0a92 a23a d595 a23a d19a a23a
00000340: 0392 a23a 4e92 a23a 69a4 a23a bc97 a23a
00000350: 4c92 a23a 0d92 a23a 4892 a23a cc95 a23a
00000360: 1f93 a23a 2692 a23a b595 a23a 3192 a23a
00000370: 0f92 a23a aba1 a23a 0792 a23a 5ea0 a23a
00000380: 7c92 a23a 0093 a23a 509e a23a a192 a23a
00000390: 46a2 a23a 75a7 a23a f691 a23a fd92 a23a
000003a0: 0f92 a23a 5793 a23a da94 a23a 0792 a23a
000003b0: f998 a23a 859d a23a 7799 a23a 9a99 a23a
000003c0: 0f92 a23a e992 a23a ae94 a23a 0392 a23a
000003d0: 45a2 a23a e395 a23a 9792 a23a 6295 a23a
000003e0: 4292 a23a c799 a23a 2692 a23a b19a a23a
000003f0: 7c98 a23a 1b92 a23a 4892 a23a 629e a23a
0.021872988 0.021872874 0.021872947 0.021873035 0.02187288 0.021872874 0.021872906 0.021872913
0.021872938 0.021872977 0.021872882 0.021872934 0.021872882 0.021872895 0.021872908 0.021872943
0.021872927 0.021872876 0.021872936 0.021873016 0.021872874 0.021872874 0.021872928 0.02187288
0.021872992 0.021872908 0.021872874 0.021872984 0.021872992 0.02187296 0.021872986 0.021872943
0.021872876 0.02187288 0.021872874 0.021873012 0.021872874 0.02187299 0.021872923 0.021872882
0.021872895 0.021872891 0.021872874 0.021872904 0.021873003 0.021872964 0.021872874 0.02187299
0.021872887 0.021872874 0.021872977 0.02187301 0.02187288 0.021873062 0.021872949 0.021872876
0.021872891 0.021872932 0.021873025 0.021872882 0.021872874 0.021872988 0.021872874 0.021872876
0.0218729 0.021872908 0.021872876 0.021872906 0.021872874 0.021872874 0.021872913 0.021872874
0.02187288 0.0218729 0.021872895 0.021872876 0.02187297 0.021872908 0.02187289 0.021872884
0.021872913 0.021872874 0.021872925 0.021872874 0.02187293 0.021872874 0.021872878 0.021872884
0.021872874 0.021872874 0.021872874 0.021872887 0.021873038 0.021872874 0.021873035 0.021872891
0.00094603765 0.00094799366 0.0009456408 0.0009469337 0.0009452111 0.00094595517 0.00094757654 0.00094498554
0.00094400113 0.00094440556 0.0009458943 0.0009476771 0.0009473426 0.0009475255 0.0009460431 0.00094602996
0.0009458479 0.00094674586 0.0009442068 0.00094706874 0.0009438932 0.0009460487 0.00094694004 0.00094589946
0.00094456464 0.00094490027 0.0009450978 0.0009476469 0.0009462388 0.00094484806 0.0009438598 0.0009446541
0.0009459478 0.0009459063 0.00094592205 0.0009461506 0.00094730704 0.0009456539 0.00094592903 0.0009456113
0.0009443394 0.00094600004 0.0009468631 0.0009453427 0.00094649143 0.0009460396 0.0009479044 0.0009475162
0.00094626244 0.0009450358 0.00094585976 0.0009459876 0.0009468919 0.0009463521 0.0009479615 0.0009445752
0.0009479044 0.00094548106 0.0009448373 0.00094681256 0.0009459843 0.00094565813 0.00094769144 0.00094556966
0.0009460868 0.0009442728 0.0009459489 0.00094656873 0.0009470468 0.0009449848 0.0009458798 0.0009458991
0.0009458939 0.0009444799 0.00094519404 0.0009456779 0.0009475652 0.0009460892 0.00094589876 0.00094504975
0.0009460392 0.00094731967 0.0009451273 0.0009454915 0.0009473329 0.00094420975 0.0009468847 0.00094493415
0.00094540516 0.0009459242 0.0009465866 0.00094720995 0.0009449566 0.0009459365 0.0009466865 0.00094602926
0.0012406602 0.0012403107 0.0012403227 0.0012403171 0.0012403736 0.001240639 0.0012403113 0.001240313
0.0012403107 0.001240323 0.0012403175 0.0012403219 0.0012404458 0.0012403142 0.0012404273 0.0012405758
0.0012403134 0.0012403221 0.0012408617 0.001240484 0.0012403219 0.0012403146 0.0012403214 0.0012404262
0.0012403465 0.0012403175 0.0012404235 0.0012403188 0.0012403148 0.00124078 0.0012403139 0.0012407412
0.0012403275 0.0012403429 0.00124068 0.0012403318 0.001240798 0.0012409525 0.0012403119 0.0012403425
0.0012403148 0.001240353 0.001240398 0.0012403139 0.0012405209 0.0012406564 0.0012405355 0.0012405396
0.0012403148 0.0012403402 0.0012403929 0.0012403134 0.0012407979 0.0012404289 0.0012403306 0.0012404139
0.0012403207 0.0012405448 0.0012403175 0.0012405721 0.0012405063 0.0012403162 0.0012403214 0.0012406821

bias f4 [96]
00000000: 2dbb 1430 09df 5a36 da0c 0536 c8d9 8336
00000010: 4de8 5bb6 84ab 8735 861d 8235 f7ec feb3
00000020: 468e d1b1 d304 61b6 2cc3 a535 1b75 87b4
00000030: 6538 d532 0d1a 9bb6 00c6 fdb6 5e66 b7b5
00000040: 2acc bf35 772c d6b4 196c cab5 e53f a5b2
00000050: dd1c 9db3 ef40 9335 f2db e835 12e3 89b4
00000060: 33bd d1b5 81ef 1fb6 1fe4 a536 a743 60b3
00000070: 8a04 a232 97cd 2c36 4d8b 86b5 21ee c0b5
00000080: da80 4936 6f6b 98b2 bc64 a2b6 4d1d 5335
00000090: e1b3 7735 c22f f1b6 e5e0 10b6 9fdf 66b5
000000a0: 3cd3 5eb5 217b 5c34 941e 8bb6 ca7e 8334
000000b0: ec78 a636 bb92 95b5 eec4 3734 45b9 03b6
000000c0: 2f99 cc33 b7b3 2ab3 811d 3bb7 65f5 4536
000000d0: 1e64 41b4 f709 cab6 5afa e936 f488 1132
000000e0: 937f 9a36 0f19 00b7 e939 54b4 464a 0a35
000000f0: 6b86 2736 0a4b afb6 5242 48b5 f425 9bb6
00000100: 244a e9b7 5e0c 7f36 1d67 19b8 93f7 98b5
00000110: f4b1 10b4 ec7f d5b6 d437 c733 0905 97b5
00000120: 5eeb 61b2 0cb5 02b7 a16c 6634 3641 28b6
00000130: 538f fcb5 b9c5 bb34 c408 1e35 0008 5fb4
00000140: 1f41 abb6 bb63 82b5 7f82 1636 4333 45b5
00000150: 946d 72b7 30f9 e8b4 597c 5ab4 d9d7 4236
00000160: a971 7934 1ca4 85b4 eb2a f132 80c0 3e36
00000170: d25a 2f36 e763 83b5 cf2e 9737 dccc a4b4
5.410808e-10 3.2614355e-06 1.9826025e-06 3.9294573e-06 -3.276876e-06 1.0108201e-06 9.694347e-07 -1.18709e-07
-6.098875e-09 -3.353042e-06 1.235026e-06 -2.5230915e-07 2.4822109e-08 -4.6223927e-06 -7.563038e-06 -1.3664355e-06
1.4290029e-06 -3.989296e-07 -1.5081633e-06 -1.9237584e-08 -7.3161324e-08 1.0971252e-06 1.734936e-06 -2.5683454e-07
-1.5626778e-06 -2.3832256e-06 4.94394e-06 -5.2215594e-08 1.8861346e-08 2.5749666e-06 -1.002432e-06 -1.4374419e-06
3.0026335e-06 -1.7743984e-08 -4.8397033e-06 7.8646264e-07 9.227643e-07 -7.1879194e-06 -2.1588578e-06 -8.600709e-07
-8.300883e-07 2.053389e-07 -4.1460826e-06 2.4492903e-07 4.9612627e-06 -1.1144069e-06 1.7114846e-07 -1.9628362e-06
9.527354e-08 -3.974466e-08 -1.1152938e-05 2.9498126e-06 -1.8010948e-07 -6.021229e-06 6.973086e-06 8.47125e-09
4.6044092e-06 -7.635229e-06 -1.9765106e-07 5.151709e-07 2.496318e-06 -5.224142e-06 -7.4602315e-07 -4.6237783e-06
-2.7810289e-05 3.800516e-06 -3.6574074e-05 -1.1396936e-06 -1.3475784e-07 -6.3627867e-06 9.276815e-08 -1.1251842e-06
-1.315024e-08 -7.790757e-06 2.1459938e-07 -2.5071909e-06 -1.8817176e-06 3.4975326e-07 5.887234e-07 -2.0771404e-07
-5.103778e-06 -9.71478e-07 2.24277e-06 -7.3462814e-07 -1.4449837e-05 -4.3394675e-07 -2.034807e-07 2.9033893e-06
2.3231281e-07 -2.4892586e-07 2.807561e-08 2.8424256e-06 2.6129896e-06 -9.789336e-07 1.80224e-05 -3.0696435e-07

weight f4 [96, 96]
00000000: 547e 2331 a1c1 3eb2 a13c 08b2 74d2 88b1
00000010: 4cef 8731 d783 feb0 2b3e c432 93bc 95b1
00000020: b61e 0ab2 5768 9131 bfab d6b1 054b 6fb2
00000030: 735d 95b1 61e9 f3b1 8827 da32 5670 1530
00000040: 7ff6 3131 ce3c c532 f0c0 86b2 2e48 99b1
00000050: 9434 c1b1 b299 b5b1 dafe 7531 f175 87b2
00000060: 4b5c b931 69c5 8132 8c52 d3b2 40ca 50b2
00000070: b201 11b1 4bf4 4331 574a df32 bd4c 5631
00000080: 1cad b431 9c4e ac31 df93 a932 b682 88b1
00000090: 7799 a931 9c9e 8231 6ece 8832 219c 3b31
000000a0: 6da1 3531 9b94 6731 5810 13b2 178f 7d32
000000b0: ea9e ae31 9212 9632 6a31 1b31 2941 9c31
000000c0: 83c3 5731 a407 51b2 8370 7bb2 f966 ceaf
000000d0: e154 7731 3940 5132 5f90 8832 d4a3 8531
000000e0: 03ed 9ab1 e48f dfb1 9075 72b2 5eae 8a31
000000f0: 2a67 c031 2d62 232e 185e 71b2 e9e4 8b31
00000100: 1099 63b2 d138 b530 fca5 e930 0f45 9632
00000110: 7701 28b2 c59a 98b1 bbb0 9832 982a 82b1
00000120: 0b53 0ab2 f41a 87b2 f80f 66ad 5f21 dd32
00000130: 03b8 6db1 b95f ceb1 8db8 f1b1 e82e f332
00000140: f662 a2b1 6c49 2733 4853 78b1 5674 ba31
00000150: 7ef1 962d 9fb5 b0b2 8cfb c1b1 cd21 8832
00000160: cbdc 1f33 a4e2 7bb2 3d02 1eb2 7462 b031
00000170: 284e 7eb2 0d87 fbb1 8fb2 2731 c7a2 ac32
00000180: 7765 00b8 d91d deb4 6a51 7f36 8267 8436
00000190: 5d9f af35 30de ffb4 bfa6 0f35 f51f 8f36
000001a0: 625d 7cb7 e106 7a36 641d d1b4 8cf2 2737
000001b0: 1696 7f36 f2f6 cf35 8d32 4a36 0ab8 3136
000001c0: 0f70 c335 5a85 dfb6 07e3 ab35 48b9 7936
000001d0: 64bf 6836 88ee 0935 fe49 8936 1019 a6b5
000001e0: ed33 fbb4 bcef fcb6 e7a8 1a36 ee34 89b7
000001f0: 518f 90b6 b1e2 9036 d80d 8535 31dd 2036
00000200: 99f0 6f36 ff1b b835 2306 8e36 07e7 5037
00000210: b61a 26b3 0865 0d37 00ce c935 bc4e fab7
00000220: c832 8236 9cc5 23b8 f129 fcb6 a050 f535
00000230: 5c2c 8b36 cc62 6d36 6fde f035 316f e8b5
00000240: 9798 8832 1468 8936 1930 3f35 17a8 dbb5
00000250: 75fc 5e36 7437 f1b4 4b3a 00b8 1a2a c2b5
00000260: 084f 8f36 9d2b 8c36 9a7e 7836 5f26 d3b6
00000270: 6898 0536 9cac 9a34 b0f3 26b7 1ce5 3f36
00000280: 35d6 c535 0425 65b7 793d b733 27c4 d1b7
00000290: 3db7 23b8 2dbe 5d36 65cc 9c35 2df0 8f36
000002a0: 005a 6836 d493 dcb7 fa4c 25b8 35f8 a736
000002b0: 44ef 5536 a513 abb5 3266 c235 4d97 c5b7
000002c0: 5727 0e36 dce2 0236 4575 d2b5 034c 25b8
000002d0: f4d1 5236 b485 7136 107d 3837 aab0 b535
000002e0: 20c8 ee36 c6b2 ecb4 9f86 56b7 0f4e 61b7
000002f0: 3343 90b7 64d7 7f36 ab27 f8b6 3a22 3636
00000300: 7e33 26b6 963b acb6 5333 7637 15ef 41b7
00000310: 9ad3 28b6 4008 8bb5 03d9 aa36 116e 1735
00000320: b248 53b7 8b23 fb34 9338 1fb6 e428 5eb7
00000330: c812 5db7 869f 90b7 1f13 96b4 ae33 9235
00000340: 41d2 27b6 ec72 92b5 77ea b4b6 3f33 e9b5
00000350: 5837 6ab7 ff79 60b7 72ba b835 051e 7c35
00000360: cceb 3eb6 b238 b1b7 52b9 5bb6 8b21 92b6
00000370: 5411 ed34 1332 c935 5c66 3db7 2c6a d937
00000380: 188f 7734 fa39 51b7 33b2 6036 26a9 c8b7
00000390: d03a 9c35 8e84 6db6 22ff 43b7 1ff2 01b7
000003a0: 0d28 39b6 c1e8 d9b6 3129 1cb7 ab38 90b6
000003b0: 6fe4 6ab6 03b6 10b7 9e81 b935 8976 db37
000003c0: feab e637 95ea 5bb7 4e1e 40b7 8655 c3b5
000003d0: f47c 35b7 cdc1 e037 2a6b 5cb7 1591 2534
000003e0: 859e bd35 dc97 3eb5 a434 01b6 e0bc d5b5
000003f0: 7416 cb34 98d2 ee37 3c8a 3fb7 1f9d be35
2.379143e-09 -1.1103482e-08 -7.930027e-09 -3.9820467e-09 3.956222e-09 -1.8518403e-09 2.2845674e-08 -4.357909e-09
-8.03964e-09 4.2319175e-09 -6.247745e-09 -1.3928688e-08 -4.3470947e-09 -7.098763e-09 2.5396517e-08 5.4365523e-10
2.5897007e-09 2.296147e-08 -1.5687391e-08 -4.461092e-09 -5.6230167e-09 -5.2852664e-09 3.5797059e-09 -1.5769702e-08
5.394701e-09 1.5107348e-08 -2.460117e-08 -1.215318e-08 -2.110124e-09 2.85151e-09 2.5994423e-08 3.118472e-09
5.2583697e-09 5.0147957e-09 1.9741433e-08 -3.972981e-09 4.9359943e-09 3.8015298e-09 1.5926357e-08 2.730083e-09
2.6430726e-09 3.3699397e-09 -8.560242e-09 1.4759073e-08 5.082133e-09 1.7470743e-08 2.2583557e-09 4.5476054e-09
3.1397753e-09 -1.2167138e-08 -1.4635705e-08 -3.7544348e-10 3.5991479e-09 1.2180004e-08 1.5898136e-08 3.8894346e-09
-4.508935e-09 -6.5065127e-09 -1.4112985e-08 4.036152e-09 5.599664e-09 3.7149107e-11 -1.4049441e-08 4.0714565e-09
-1.3247941e-08 1.3185631e-09 1.7000157e-09 1.7493702e-08 -9.77922e-09 -4.4413775e-09 1.7775497e-08 -3.7883403e-09
-8.051539e-09 -1.5728325e-08 -1.3077532e-11 2.5742962e-08 -3.4592638e-09 -6.0062715e-09 -7.035004e-09 2.8310254e-08
-4.726071e-09 3.8949494e-08 -3.613609e-09 5.4265383e-09 1.716027e-11 -2.0571688e-08 -5.645637e-09 1.5847855e-08
3.7220882e-08 -1.4661655e-08 -9.197319e-09 5.133467e-09 -1.48025165e-08 -7.320415e-09 2.4403197e-09 2.0097458e-08
-3.0612075e-05 -4.137244e-07 3.804535e-06 3.9459565e-06 1.3084897e-06 -4.7659114e-07 5.35143e-07 4.2654524e-06
-1.5042113e-05 3.7256907e-06 -3.8950668e-07 1.0010448e-05 3.8085323e-06 1.5494572e-06 3.012977e-06 2.648218e-06
1.4561246e-06 -6.661442e-06 1.2806566e-06 3.721174e-06 3.4682098e-06 5.1383586e-07 4.091532e-06 -1.2375258e-06
-4.6790174e-07 -7.538094e-06 2.3046102e-06 -1.635632e-05 -4.3082186e-06 4.317925e-06 9.913301e-07 2.3970608e-06
3.5753822e-06 1.3717216e-06 4.232644e-06 1.2451556e-05 -3.867418e-08 8.427778e-06 1.5035621e-06 -2.9838986e-05
3.8802136e-06 -3.9046266e-05 -7.515068e-06 1.8277387e-06 4.147687e-06 3.537326e-06 1.794613e-06 -1.7317708e-06
1.5901874e-08 4.0950345e-06 7.1223036e-07 -1.6365692e-06 3.3227527e-06 -4.4930096e-07 -3.0571868e-05 -1.446638e-06
4.2709325e-06 4.1774024e-06 3.7028572e-06 -6.292757e-06 1.9907257e-06 2.8810325e-07 -9.951109e-06 2.8594577e-06
1.4739986e-06 -1.3658082e-05 8.5327834e-08 -2.5006082e-05 -3.9032882e-05 3.3042263e-06 1.1682392e-06 4.2896922e-06
3.462308e-06 -2.6294882e-05 -3.9410756e-05 5.005883e-06 3.1878744e-06 -1.274621e-06 1.4483869e-06 -2.3554685e-05
2.1182548e-06 1.950356e-06 -1.5680349e-06 -3.9409857e-05 3.1414647e-06 3.5989624e-06 1.0996373e-05 1.3536967e-06
7.1162503e-06 -4.40885e-07 -1.2786738e-05 -1.34292195e-05 -1.719743e-05 3.8123335e-06 -7.395594e-06 2.7140036e-06
-2.47659e-06 -5.132936e-06 1.46746925e-05 -1.1559362e-05 -2.515712e-06 -1.0358708e-06 5.0916583e-06 5.641205e-07
-1.2593506e-05 4.6778254e-07 -2.3725777e-06 -1.3241752e-05 -1.3176999e-05 -1.7240422e-05 -2.795359e-07 1.0892888e-06
-2.5007323e-06 -1.0911294e-06 -5.3917133e-06 -1.7374767e-06 -1.3960373e-05 -1.3379845e-05 1.3763331e-06 9.3921e-07
-2.8449458e-06 -2.1126445e-05 -3.2741414e-06 -4.355044e-06 4.4157298e-07 1.499024e-06 -1.128911e-05 2.5917856e-05
2.3055725e-07 -1.24708695e-05 3.3482327e-06 -2.3920624e-05 1.1640022e-06 -3.539291e-06 -1.16823085e-05 -7.745372e-06
-2.759046e-06 -6.4942e-06 -9.307915e-06 -4.2981314e-06 -3.5001683e-06 -8.625447e-06 1.3821298e-06 2.6162032e-05
2.7498227e-05 -1.3108035e-05 -1.1451148e-05 -1.4553523e-06 -1.0817534e-05 2.6793126e-05 -1.3137973e-05 1.5419603e-07
1.4127733e-06 -7.10015e-07 -1.9253139e-06 -1.5924707e-06 3.7828033e-07 2.8469876e-05 -1.1416672e-05 1.4201831e-06

weight f4 [96, 96]
00000000: 293f a8bb dc9d 393c fc8f 59bc 210a 8bbc
00000010: 9faa 8db9 3f4c 8dbc 053d 53bc 305e 6a3c
00000020: 9c90 f2bb e705 9dbb 0499 903c 3d3a 8f3c
00000030: 79b0 5a3c a2c1 88bb 1ed9 9ebb 8d19 7c39
00000040: e0ae bfbb ff68 11bc 06e3 5dbc d2d8 fe3b
00000050: df4b 02bc 426c 183b f578 553b 36ba 08bb
00000060: 1ccf 80bb 1341 173b 1f7f dfbb c76d c83b
00000070: 1e9b 9fbc 94af c93c f5a0 953c 6fca f53b
00000080: e41e 5fbc 7e12 c23b 8c7a 1ebc 3cd1 f4ba
00000090: 8e47 d23c de3e ba38 4b97 72bc f8b7 513c
000000a0: 7d09 be3c 4343 3b3a 1438 16bc 8295 84bc
000000b0: df11 413c 71ed 0fbc e24c 6a3c 8555 943b
000000c0: cd6d 9cb9 9124 98bc 6bd2 783c 651b 7b3b
000000d0: 87ef 19bb 8cc8 cfba fa49 1f3c 035f 18bc
000000e0: 69cb 21bc 7c99 ebbb 15e9 c83c 13d4 663c
000000f0: 8f6c 9d3b 39a0 e93b 7898 033a f770 373c
00000100: 4fd5 d4bb 8508 5ebc cfbc 64bc d860 02bc
00000110: 1784 993c 6785 11bc 9f52 bcba 1f7e df3b
00000120: d170 ae3c ec09 d7bb 03d5 cc3c 307c cd3c
00000130: d03f c43a df22 773c c324 2a3b 05f3 583b
00000140: 6368 91bb a5d2 6cbb 3f7b 97bb 575c ad3b
00000150: 92dc 8d3c 45a4 693b b393 b6bb ae8d 563c
00000160: c6ad adbb 88f5 033b 6d0d 4abb 8b9e 403a
00000170: 58de 8abc 1c9a 0abc 71e2 93bb 754b 08bc
00000180: 7c93 41b9 3acf 98ba 864d d2ba 1b60 12ba
00000190: c557 6dba 48d9 e438 3ab3 49b9 7343 c4ba
000001a0: 31c7 b8b9 b5a2 d8b9 bc92 34bb cbe1 eaba
000001b0: 86dd c9ba fb6e 5239 134c 7dba fc1c 88b8
000001c0: 3b60 373a a589 01bb 5eca 2aba 5fbc ffba
000001d0: 1ba4 d6b9 f7ee 8fba b972 c2ba ce33 b9b9
000001e0: f85c 5a39 51e4 a8b8 6de2 93b9 6506 7c3a
000001f0: 6b7a c7b9 688b fe39 fc99 ad39 7908 d9ba
00000200: b106 b439 d38f 9db9 8d0b 7e38 97ff 84b9
00000210: 6caf 96ba a40d 6fba 0515 ceb9 8e49 95ba
00000220: f7a9 af37 7c03 94b9 e08c 4a38 526d bfb9
00000230: a06e 6cba a886 b3b9 9ebf 8eba 0465 8d3a
00000240: 92e8 0c3a d2c7 96b7 62c5 fcba de96 09ba
00000250: a3a9 06ba 36b2 9539 f2cf f4b9 d185 28b9
00000260: 2f6f 81ba af5f b0b9 81b2 02bb 9527 b9b9
00000270: c659 2939 1fdc a339 ff0d 99b9 e4d5 3bba
00000280: cf88 0db9 aa01 32b7 6292 2338 b2e5 19ba
00000290: 168b 1dbb 5376 0dbb 5316 0ab9 ed19 30bb
000002a0: ac33 80ba 2fa1 00bb 42b6 c7ba 6bc3 10bb
000002b0: 65ff ddb9 59a9 fa38 c010 dcba 2e9a 3aba
000002c0: 0c18 bb39 a9b8 94b9 868b c7ba 6eae 49bb
000002d0: d7d9 6bbb bbc3 a8ba 4748 20b9 52ab 8fba
000002e0: 50f8 2fb9 ba33 deba 76ed b3ba ad9f acb8
000002f0: 8ee4 52b9 38e0 8dba 8ffd 8c39 5b7f 98ba
00000300: cf15 2eb9 4756 a1ba 333e b4ba c430 2eba
00000310: a015 7aba afeb 4bba 1159 37ba 47a0 a0ba
00000320: c550 39ba deb0 ccba 70e1 c5ba d317 b3ba
00000330: 9f1b bfba 8adc cbb9 e9df 54ba 6634 8bba
00000340: fb90 8bba 8be9 c2ba cf28 16ba 7cc4 c6ba
00000350: 47ac 78b9 945c 54ba 8ed5 abba bdb5 72ba
00000360: 047e 79ba bc2e 92ba 5d56 92b9 5b27 66ba
00000370: 6d77 0aba 339b 0dbb c51a 9eba a545 36bb
00000380: 57e5 a2ba d4d9 c2ba c685 cbb9 b5e3 7cb9
00000390: 7209 2dbb 658a 6cba 2cc5 00ba dc68 beba
000003a0: c10e 0bbb 9553 a2ba 33af 7dba aba5 c7b9
000003b0: 6268 1fbb 5940 dcb9 2504 a2ba d56c 99ba
000003c0: fd27 92ba fd41 2cba d64c adb9 5344 e9b9
000003d0: 610c f7b9 0198 baba 967e 40ba 158f d0b9
000003e0: cb23 07ba 53d8 31ba 0406 fdba 7040 e6ba
000003f0: 6385 5fba e10d 91ba a17f 23ba ed93 68bb
-0.0051344824 0.0113291405 -0.013278957 -0.016972603 -0.00027020738 -0.017248271 -0.012892966 0.014304683
-0.0074024927 -0.0047919634 0.017651089 0.017483825 0.013347738 -0.0041734735 -0.0048476597 0.00024042111
-0.005849704 -0.008875131 -0.013542896 0.007777312 -0.007952659 0.0023257886 0.0032573317 -0.0020862943
-0.0039309394 0.0023079559 -0.006820574 0.006116602 -0.019483145 0.024619855 0.018265227 0.0075009386
-0.013618205 0.0059226146 -0.009672772 -0.0018678079 0.025668886 8.880881e-05 -0.014806579 0.012800209
0.023197884 0.00071435067 -0.0091686435 -0.016184572 0.011784046 -0.008784638 0.014300557 0.0045267963
-0.00029836447 -0.018572124 0.015186886 0.003831589 -0.0023488717 -0.0015852614 0.009722227 -0.009299996
-0.009875157 -0.0071899276 0.024525205 0.014088648 0.004804201 0.0071296957 0.0005019973 0.0111963665
-0.006495155 -0.013551836 -0.013961031 -0.00795766 0.018739743 -0.008881903 -0.0014367885 0.0068204547
0.02129403 -0.006562462 0.025003916 0.025083631 0.0014972631 0.0150839975 0.0025961853 0.0033103835
-0.0044374927 -0.0036136296 -0.0046228464 0.005290549 0.01731709 0.003565089 -0.0055718063 0.0130953025
-0.0053002564 0.0020135362 -0.0030830756 0.00073478435 -0.016951725 -0.008459594 -0.004513078 -0.008318772
-0.00018460857 -0.0011658438 -0.0016044832 -0.0005583779 -0.0009053911 0.00010912359 -0.00019235621 -0.0014973715
-0.00035243624 -0.00041319957 -0.002755328 -0.0017920075 -0.0015401102 0.00020068504 -0.000966252 -6.490384e-05
0.00069952355 -0.001976588 -0.00065151404 -0.0019511095 -0.0004093953 -0.0010981251 -0.0014835215 -0.00035324547
0.00020824734 -8.0533915e-05 -0.00028206725 0.000961399 -0.00038047446 0.0004855052 0.0003311186 -0.0016558311
0.0003433726 -0.0003005253 6.0569077e-05 -0.0002536743 -0.0011496372 -0.0009119159 -0.00039307043 -0.0011389719
2.0940772e-05 -0.00028231356 4.8291753e-05 -0.0003651181 -0.000901917 -0.00034241867 -0.0010890847 0.0010787551
0.0005375232 -1.7974442e-05 -0.0019284899 -0.0005248616 -0.0005136972 0.00028552272 -0.00046694238 -0.00016071579
-0.0009875054 -0.00033640626 -0.0019942822 -0.0003531544 0.00016150539 0.00031253786 -0.00029192862 -0.0007165356
-0.00013497773 -1.0610014e-05 3.8998558e-05 -0.0005870714 -0.00240392 -0.002158542 -0.00013169022 -0.0026870922
-0.0009781024 -0.0019627323 -0.0015236812 -0.0022089134 -0.00042342689 0.000119524724 -0.001678966 -0.00071183115
0.00035685336 -0.00028366342 -0.0015224076 -0.0030774134 -0.0035987997 -0.0012875715 -0.00015285714 -0.0010961092
-0.00016781804 -0.0016952672 -0.0013727385 -8.231341e-05 -0.00020112304 -0.0010824269 0.00026891797 -0.0011634635
-0.00016602057 -0.0012309038 -0.0013751447 -0.000664484 -0.00095399655 -0.0007778955 -0.0006994168 -0.0012254798
-0.00070692255 -0.0015616675 -0.0015097093 -0.0013663716 -0.0014580375 -0.00038883492 -0.00081205234 -0.0010620474
-0.0010648066 -0.0014870627 -0.0005728127 -0.0015164758 -0.00023715301 -0.00081009534 -0.0013109909 -0.00092586485
-0.0009517374 -0.0011152844 -0.00027911636 -0.0008779668 -0.0005282078 -0.0021607399 -0.0012062421 -0.0027812507
-0.0012427968 -0.0014865943 -0.00038818846 -0.0002411742 -0.0026403335 -0.0009023308 -0.00049121934 -0.00145271
-0.002121851 -0.0012384529 -0.0009677291 -0.0003807967 -0.0024323692 -0.00042009613 -0.0012360854 -0.0011705408
-0.0011150833 -0.00065711123 -0.0003305438 -0.0004449213 -0.00047120734 -0.0014235975 -0.00073430815 -0.00039779456
-0.0005155175 -0.0006784249 -0.0019304161 -0.0017566811 -0.0008526651 -0.0011066758 -0.0006236975 -0.0035488561

bias f4 [96]
00000000: da35 a0b5 2edd a633 370d 9b32 ed1b 1836
00000010: 8333 76b5 679d 91b3 164e 4734 0eb1 5035
00000020: 3f7c 51b6 4848 bbb4 5b1d b5b5 d1aa fc33
00000030: 7913 6a36 2a84 0d36 587e 24b7 5367 9fb5
00000040: 502b 04b2 032c 16b1 4474 fe34 135f 20b8
00000050: 5851 2bb6 c152 23b6 8cf4 92b4 b29d 1b36
00000060: a9f7 fa32 fc53 8a36 3692 10b6 51ef 3fb4
00000070: bf06 d1b6 706a 1ab6 0d2c b3b6 7727 9131
00000080: b525 f535 45dc 6c37 479a f3b4 b233 4cb7
00000090: 0964 44b6 7521 a2b0 bd18 9b34 84be cb36
000000a0: 869d 7ab6 8676 c436 2fad 64b2 ee19 c5b1
000000b0: 6aaf f3b5 69dc 54b0 d902 96b6 1577 6236
000000c0: 3f18 b1b5 8d65 6b33 40d7 3eb6 aaa6 95b6
000000d0: 3b8c f7b4 c5ba 1e35 e76b 8c32 8f88 cab6
000000e0: 59c5 6436 8afe e8b6 0dcf a9b5 969b e7b6
000000f0: d391 98b4 cdd0 8f36 1400 4f34 5c5d 2d34
00000100: 2e4c 0bb5 df9d 6cb6 25ab 4f34 3bd4 9835
00000110: 4960 66b6 f15e d0b7 63fb 6bb6 01dc e3b2
00000120: 7142 3c35 f98b deb6 3902 8eb4 9c22 9735
00000130: 07b8 b535 5858 f9b6 566c b4b5 aa3e e335
00000140: 7493 73b6 941c edb4 a62a bf35 ace7 7136
00000150: 850c 71b6 b816 0635 667d fdb7 4dff 66b4
00000160: a243 2c34 2257 abb6 2e8e 2ab5 7204 dbb7
00000170: d82e 09b5 a426 b135 bb88 9138 0622 e635
-1.1936602e-06 7.77021e-08 1.8050384e-08 2.266602e-06 -9.17171e-07 -6.78072e-08 1.8561727e-07 7.7743687e-07
-3.1215748e-06 -3.4884056e-07 -1.3494094e-06 1.1765736e-07 3.4880052e-06 2.1087567e-06 -9.804578e-06 -1.1876494e-06
-7.693259e-09 -2.185289e-09 4.739578e-07 -3.8235517e-05 -2.5528334e-06 -2.4337062e-06 -2.737255e-07 2.318859e-06
2.9216453e-08 4.1224976e-06 -2.1542778e-06 -1.7875324e-07 -6.2294707e-06 -2.3009743e-06 -5.339744e-06 4.224542e-09
1.8264897e-06 1.4117982e-05 -4.537453e-07 -1.2171384e-05 -2.9264504e-06 -1.179656e-09 2.8889e-07 6.0720504e-06
-3.7344594e-06 5.855053e-06 -1.3310724e-08 -5.7364025e-09 -1.8155963e-06 -7.743837e-10 -4.47068e-06 3.374594e-06
-1.3194584e-06 5.480756e-08 -2.8437498e-06 -4.4599483e-06 -4.6109366e-07 5.913137e-07 1.6347213e-08 -6.0359666e-06
3.408952e-06 -6.943771e-06 -1.2651741e-06 -6.902449e-06 -2.8418307e-07 4.2860397e-06 1.9278406e-07 1.6145844e-07
-5.189239e-07 -3.5258633e-06 1.934064e-07 1.138665e-06 -3.4328716e-06 -2.4839743e-05 -3.5164055e-06 -2.6526324e-08
7.013214e-07 -6.6324105e-06 -2.6451178e-07 1.1260449e-06 1.353911e-06 -7.431063e-06 -1.3442575e-06 1.6931056e-06
-3.629565e-06 -4.4165483e-07 1.4243021e-06 3.604665e-06 -3.5919086e-06 4.995195e-07 -3.0218343e-05 -2.1513297e-07
1.6043353e-07 -5.1063407e-06 -6.3536834e-07 -2.6108904e-05 -5.1104644e-07 1.3198774e-06 6.939607e-05 1.7146237e-06

weight f4 [96, 96]
00000000: 4ce5 ce3b 338a 463d a10b b93c c3aa b63c
00000010: d26d 863c 263a bb3a 4915 c13c 284d bd3c
00000020: a062 c23c ce37 243b 5df8 c5bc 274f a0bc
00000030: 0f54 0238 40ce 8c3a 3e43 d23c 066c 993a
00000040: f1b3 283b 09e0 553d eca9 9c3c 4c1d 103d
00000050: 9bfc 46bc f26c ab3c 4a8b 103d 4d46 0c3d
00000060: 4320 e53a 3bfb fc3a ad29 313c 383b fcb8
00000070: 92ab d63c 2fb9 983b 3448 debc 6d0d b7bc
00000080: a18e 0c3b d85a ccba be92 c5b8 0b39 b23b
00000090: b0dc d5bc 59d4 ea3c b522 833c bcb7 b9bc
000000a0: 55af b6bc 656d 6abc ebf1 f539 5d70 d63a
000000b0: e2cd d8bc 31be 633c 81d1 123d aa87 523b
000000c0: 2c61 f9b9 b987 c23c 5018 03bd 47b8 a73c
000000d0: 99c5 893c 6860 da3a 5274 273d 6b1f af3c
000000e0: 69b0 033b 328f f23c c63a 8abc 7b8b 45bc
000000f0: 4a10 853a ac4b 993a e27f 063d 89d8 b4bc
00000100: a8b0 383b 8704 ee3a e17d aa3a d6d2 a93c
00000110: 979d 90bc c504 d83c 99d1 bc3c aee5 90bc
00000120: d7d9 70bc c908 1e3d 2a6b 063d 360f c9bc
00000130: 7a41 d93c fcd1 7abc 0d33 083d 052f 093d
00000140: 5e92 113b 9b5e a33c 1870 1b3d 4589 b9bc
00000150: 6f25 e1bc 7dc9 023d aef0 ba3b 6f1c bfbc
00000160: f909 bc3c 1f96 d73c a11e c23c 9ab9 333b
00000170: 1041 0b3c 444d e83c 82de 3c3b 7bab c33c
00000180: 0a17 31ba c813 29bb b79f 2bbb 8aa8 d1ba
00000190: 1c1a 06bb dc45 b4ba 5e5e d1ba 9f3c b1ba
000001a0: 7560 c2ba ac5a 81ba 1214 0eb9 cecb 18bb
000001b0: 8481 0fbb a262 e9b9 23ea 22bb 8a62 e9ba
000001c0: 54dc 06ba 04b0 27bb 14bd fdba d3b9 02bb
000001d0: c3cd b9ba de76 eaba b968 27bb 97a3 09bb
000001e0: a6cf dfba 7efa a5ba e9e7 68ba 0392 ccba
000001f0: 8298 ddba 3743 33ba b3f1 23ba ca0e 46bb
00000200: b855 8eba 15ec 30ba 2a63 9aba 64f7 4cba
00000210: 3885 81ba 3447 f0ba 8c8a beba 07df 6aba
00000220: 3508 2dba 3d63 59ba cc36 f2ba 17f1 c0ba
00000230: 5d4b a2ba cc62 b1ba 7bd1 ddba 2c2f 09bb
00000240: de44 9fba 8009 1cbb 0968 813a 61cd 99ba
00000250: fd0c f7ba 2ddb daba 6d5c f2ba f127 a2ba
00000260: 4727 34ba 7aaa 04bb b3f0 9337 eab1 67ba
00000270: 36f1 c8ba bda3 efba a347 aeba b9cc 71bb
00000280: 9890 0dbb 154f 90ba b252 28bb 55a7 a6ba
00000290: 386b 88b9 45bc 3fbb a4f9 d7ba a779 c9ba
000002a0: bc43 65ba adaf 3cbb 8c2d 7cba d391 ffba
000002b0: 819a bcba acf0 a2ba 41cc eeba f65c 0cbb
000002c0: 103e 91ba a465 c0ba 7e60 17bb a83e 5ebb
000002d0: f62e 62ba 81fd fbba 9ead b4ba 6afb c2ba
000002e0: 8778 0bbb 53ff 27bb 2487 bbba 6ee1 e2ba
000002f0: 4b63 c9ba 65a0 f0ba f110 93ba 725a 14bb
00000300: fc89 01b8 3f73 c5b9 0df6 bdb9 1985 48b9
00000310: 445c 81b9 20d7 6837 b6fe 16b8 6d46 95b9
00000320: c245 50b9 7acd f138 e5de 513a 6d0c b33a
00000330: c7f1 0c3a cb7e 13b9 a7f1 8db9 84fa ea39
00000340: 873a 0cba 9b55 e1b9 d337 ceb8 b398 f4b9
00000350: 5bf2 e6b8 ef6b a9b9 1511 0bb9 7323 40b9
00000360: 3f67 c439 b6d6 2238 a5a5 2ab8 8fb6 b439
00000370: fab2 bcb8 1e02 473a d872 8239 3d41 c43a
00000380: f601 74b9 8e05 4fb9 0678 9139 8210 41b8
00000390: 2cbd 5f39 64de 09b9 dfcf 90b8 46a1 dd39
000003a0: 4d2e 2f39 d37e 6739 85cf 353a 7109 78b8
000003b0: 4aed b43a 53c3 e2b8 a522 c6b9 7dcb 5bb9
000003c0: afe0 9039 b5cc 0038 8368 8339 d037 28b9
000003d0: c028 9438 2731 8239 88b2 94b9 fbdd 93b8
000003e0: 9d7f 9039 1060 51b9 82f4 e439 bf1f b739
000003f0: cf39 5a3a 8673 abb8 d7f7 14b9 28a1 6d3a
0.0063139554 0.04847164 0.022588553 0.022298222 0.016409788 0.0014284297 0.02356972 0.02310808
0.023728669 0.0025057676 -0.02416628 -0.019568993 3.10727e-05 0.001074262 0.02566683 0.0011705167
0.002574202 0.05221561 0.019123994 0.03518419 -0.012145187 0.020925973 0.035289086 0.03424673
0.0017480928 0.0019300947 0.010813159 -0.00012027327 0.026204858 0.0046607475 -0.027134039 -0.02234527
0.0021447318 -0.0015591038 -9.421025e-05 0.005438929 -0.026106209 0.028665708 0.01600776 -0.02267062
-0.022300402 -0.014308308 0.00046910284 0.0016360391 -0.02646536 0.013900326 0.03584433 0.003212432
-0.0004756538 0.023746358 -0.032005608 0.020473612 0.016817855 0.0016660811 0.040882416 0.021377286
0.0020094162 0.029609296 -0.016873728 -0.0120571805 0.0010151949 0.0011695526 0.032836802 -0.022075908
0.0028181467 0.0018159308 0.0013007486 0.020730417 -0.01765327 0.026369462 0.023049163 -0.017687645
-0.014700375 0.038582597 0.032817043 -0.024543386 0.02652048 -0.015308853 0.03325181 0.033492107
0.0022212486 0.019942572 0.037948698 -0.022648463 -0.02748367 0.031930435 0.005704961 -0.023328988
0.022953974 0.0263167 0.023696246 0.002742386 0.008499399 0.028357156 0.0028819148 0.02388548
-0.0006755447 -0.0025799144 -0.0026187727 -0.0015995663 -0.002046234 -0.001375373 -0.0015973558 -0.0013522095
-0.0014829772 -0.0009868941 -0.00013549652 -0.0023314836 -0.0021897266 -0.0004451471 -0.0024858795 -0.0017805856
-0.0005144526 -0.0025587091 -0.0019358718 -0.0019947186 -0.0014175702 -0.0017888208 -0.0025544597 -0.0021002048
-0.0017075434 -0.0012663153 -0.0008884655 -0.001560748 -0.0016906413 -0.0006838324 -0.00062539725 -0.0030221217
-0.0010859286 -0.0006749046 -0.0011778821 -0.00078188465 -0.0009881621 -0.0018331767 -0.001453714 -0.0008959625
-0.0006600649 -0.0008292681 -0.0018479466 -0.0014720288 -0.0012382079 -0.0013533472 -0.0016923392 -0.0020932658
-0.0012151261 -0.0023809373 0.0009872924 -0.0011734181 -0.0018848475 -0.00166974 -0.001849068 -0.0012371523
-0.0006872308 -0.0020243214 1.763585e-05 -0.0008838462 -0.0015330676 -0.0018283051 -0.0013296496 -0.0036895706
-0.0021601077 -0.0011009896 -0.0025684056 -0.0012714664 -0.00026019826 -0.0029256504 -0.0016477597 -0.0015371338
-0.000874575 -0.0028791234 -0.0009619824 -0.0019498415 -0.0014389307 -0.0012431345 -0.0018218831 -0.0021417714
-0.0011081118 -0.0014678729 -0.0023098285 -0.0033911858 -0.00086282135 -0.001922533 -0.0013784652 -0.0014875953
-0.0021281557 -0.0025634363 -0.0014307243 -0.0017309615 -0.0015364675 -0.0018358348 -0.0011220259 -0.0022636917
-3.0884505e-05 -0.00037660633 -0.0003623221 -0.00019123069 -0.0002467354 1.3878365e-05 -3.6000005e-05 -0.00028471966
-0.00019862413 0.000115300485 0.0008005931 0.0013660319 0.0005376604 -0.00014066247 -0.0002707366 0.00044818607
-0.00053492974 -0.00042979125 -9.8332435e-05 -0.00046653076 -0.00011012397 -0.0003231461 -0.00013262437 -0.00018323753
0.00037460958 3.8823775e-05 -4.0685427e-05 0.00034468292 -8.9978756e-05 0.0007591563 0.00024881097 0.0014973056
-0.00023270384 -0.00019743128 0.0002774598 -4.603016e-05 0.00021337409 -0.00013148185 -6.905174e-05 0.00042272563
0.00016706549 0.00022077122 0.0006935525 -5.91366e-05 0.0013803628 -0.00010812902 -0.00037791315 -0.00020961273
0.00027633223 3.0708226e-05 0.00025064134 -0.0001604252 7.06478e-05 0.00024832154 -0.00028361776 -7.050853e-05
0.000275609 -0.0001996758 0.0004366972 0.00034928133 0.0008324654 -8.175433e-05 -0.00014206707 0.00090648467

weight f4 [96]
00000000: d487 f13d 67de cc3e 280b d63e 1183 883e
00000010: 6c0f bd3e 059d 8f3e 9c30 b03e 6cea ab3e
00000020: 76b7 893e 8c20 ac3e abfa d73e c288 d03e
00000030: f581 bb3e 341c 713e 586e a53e b234 9d3e
00000040: 564f 0f3f a8fb e53e e99d a83e 65f6 cd3e
00000050: ee3c c73e aa76 873e c481 c13e 374b a33e
00000060: e6c1 9f3e 1bfd a13e 799b 093e 54f9 a53e
00000070: f878 973e d6a4 ba3e 55e6 f33e 368a 013f
00000080: 5965 e53e 9eae cc3e 08f2 523e 8c19 073e
00000090: 6ea3 df3e 0218 913e f54b 843e 4b27 f53e
000000a0: 9d3a f13e 92ae c23e 690d e23e 916f 8e3e
000000b0: f84e f63e d621 733e 26fd ad3e 5536 ae3e
000000c0: e189 463e 89ec e23e e861 ed3e 8c1f 213e
000000d0: 7500 aa3e 5606 bc3e 6ce3 9f3e 1c3d 823e
000000e0: 4e10 c83e 4ae0 a43e 7412 cd3e 5b54 a43e
000000f0: adbe 023f 631a cf3e a45d 6e3e 2289 0b3f
00000100: 54aa e73e 8355 d43e 4621 e83e 691d 293e
00000110: 0faf c83e 4d6d eb3e 6833 a43e 0889 da3e
00000120: 9898 cb3e bfbc fc3e 80db 873e 2743 073f
00000130: 3492 633e 8c02 ce3e bd30 9b3e fb1f b43e
00000140: 5a9a 013f bf35 883e 82f8 b13e 1400 153f
00000150: 33f4 e63e 69d1 963e f74e ac3e 43e6 013f
00000160: f9bf c53e 9e5b af3e cf20 8b3e 93a2 a13e
00000170: 2882 c13e 2c20 853e 6385 003f ff0c b03e
0.11793485 0.4001343 0.41805387 0.26662496 0.36925828 0.28049484 0.34412086 0.33577287
0.26897782 0.3361858 0.42183432 0.40729338 0.36622587 0.23545915 0.32310748 0.30704266
0.5598043 0.4491856 0.32932976 0.40227047 0.38913673 0.2645772 0.37794316 0.31893322
0.3120262 0.31638417 0.13438214 0.32416785 0.2958448 0.36453885 0.47636667 0.5060152
0.44803885 0.39976972 0.2060014 0.13193339 0.43679374 0.2833863 0.258392 0.4788154
0.4711503 0.38023812 0.44150856 0.27819493 0.48107123 0.23743376 0.339822 0.34025827
0.19388534 0.44321087 0.4636376 0.1573469 0.33203474 0.36723584 0.31228197 0.25437248
0.3907494 0.3220237 0.4005314 0.32095608 0.510722 0.4044982 0.23277909 0.54506123
0.45247138 0.4147149 0.45337886 0.16515125 0.3919606 0.45981827 0.3207047 0.42682672
0.39764857 0.49362752 0.26534653 0.5283684 0.22223741 0.40236318 0.30310622 0.3518065
0.50626147 0.26603505 0.3475991 0.58203244 0.45108184 0.29456642 0.33653995 0.50741976
0.38623026 0.34249586 0.27173468 0.31569347 0.37794614 0.26001108 0.5020353 0.34384915

bias f4 [96]
00000000: 83cd 57bd d24c 353d 60c2 9d3d d18b 0bbd
00000010: eb9c 273d 2e73 43bd 5798 21be 9e5a 233e
00000020: 26d9 43bd 3cae 8abd 5d61 823e e333 5e3e
00000030: f618 243d a8f5 f5bd 5d95 4e3d 4956 d8bd
00000040: 2211 abbe 780d 8c3d 5347 febd 5021 2e3e
00000050: c4e7 5fbe 0ef5 c23c 7dd5 953d 4523 173c
00000060: 213d 1abe e208 76bd 9176 70bc 2790 8dbd
00000070: f190 f5bd 33de 1b3e 4be9 903e 74ef 3f3e
00000080: 883d 7dbe ffd8 5d3c 7b73 8dbd e5fb 19bd
00000090: b589 8c3e 2a55 093d 6909 c9bd ad66 853e
000000a0: 4145 893e baa6 1c3e 6481 7bbe 05fa f4bd
000000b0: dc78 933e b9b0 d9bd 3575 1c3e 200b 21bd
000000c0: 2e28 a73c 0ec2 5bbe cea4 913e 4e4b c23c
000000d0: 307f 17be ac16 64bd 55a3 ec3c 0ccc ebbd
000000e0: bf6a 47bd 868a 2a3c 5ce9 3d3e 4282 e03d
000000f0: 9a2a bbbe 2c7f 6ebd 8146 c8ba 5321 5a3e
00000100: 8cd2 67be 290e 4abe 2590 6ebe 8340 6cbc
00000110: f38d 153e 19fd 323e d9bc efbd a55c 2c3e
00000120: 3146 103e 2ea0 d03d 5bc0 3f3e 2a3e a73e
00000130: 7346 cabb df4c 1b3e 4880 063e 29f8 933d
00000140: 5669 98be 754f 02be daa2 ed3c 968b 3d3e
00000150: baf7 913e 4d1d 113d 231a 94bd 61cb 283e
00000160: 29b2 29be bfad 193e 0962 ea3d d1f1 1dbd
00000170: aac2 a4be b81b 163d 7fe1 8fbe ebe2 173d
-0.052686226 0.044262715 0.0770309 -0.034068886 0.040921133 -0.047717266 -0.1578077 0.15952536
-0.04781451 -0.06771514 0.25464907 0.2169948 0.040062867 -0.12009746 0.050435413 -0.105633326
-0.3341151 0.068385065 -0.12415948 0.17004895 -0.21865755 0.023798492 0.0731611 0.0092247175
-0.15062381 -0.060067065 -0.014676706 -0.069122605 -0.11990536 0.15221481 0.28302988 0.18743688
-0.24730504 0.013540505 -0.06906792 -0.03759374 0.27448812 0.033528484 -0.09816248 0.26054898
0.2681065 0.15297976 -0.24561077 -0.1196175 0.28803146 -0.1062941 0.15279086 -0.03931725
0.020404901 -0.21460745 0.28446048 0.023717549 -0.14794612 -0.055685684 0.028886477 -0.11513528
-0.048685785 0.010409003 0.18546051 0.10962345 -0.3655594 -0.05822675 -0.0015279801 0.21301775
-0.22638911 -0.19731964 -0.23297174 -0.014419678 0.1460493 0.17479362 -0.11705942 0.16832216
0.14089276 0.10186802 0.18725722 0.32664615 -0.006172949 0.15166043 0.13134873 0.07225067
-0.29767865 -0.12725623 0.029008318 0.18510279 0.28509313 0.035428334 -0.07231548 0.16483833
-0.16571869 0.15007685 0.1144448 -0.038560692 -0.32179767 0.03664753 -0.28101727 0.03708164

running_mean f4 [96]
00000000: 3538 cf40 583c 953e 9842 bf3e 4f74 a13f
00000010: f57c 943e de67 92bf 2884 3c3e b34f 8840
00000020: be99 503f 38d4 0bbf 1165 f2c0 8b6d cac0
00000030: 6428 0dc1 3628 4ebe 540f 0b3f cab4 18bf
00000040: 2b64 3ac0 6d08 bf3e 2b4e 9f3e bad9 7840
00000050: 1830 4940 ddab 763e 3696 773e 3e11 643e
00000060: 1ed8 2cbf e51f 24be fd28 54be f76f cac0
00000070: c6c9 0341 ba12 a53e ed7f eabe a6db 7ebe
00000080: da3b edbe 1973 0cc1 b423 83be 7b8f 163e
00000090: 8ae9 57bf 9253 593e f5db e43d 421b bec0
000000a0: af82 06c1 8df5 09c1 cd1b a0bf 7cdd 1140
000000b0: 5667 a0bf 94e4 333e 6907 7b40 af90 30bf
000000c0: bc67 40c0 0581 0b41 9d94 99be c05b 5d3e
000000d0: f591 6d3e 9328 47be c376 803e f309 e740
000000e0: c07b b4be b941 823e efad 7ec0 e183 e5c0
000000f0: ccd2 17bf 4fb8 c5bf 23a5 de3e 6d35 26bf
00000100: 2d21 a6be fd41 92be b7ef a1be 924c 3a3e
00000110: 66ab c6c0 c282 783e 00a4 fa3f d885 03c1
00000120: 7d18 d8c0 355d a43e 8900 4840 88cb cfc0
00000130: 82f1 643e 1409 c0be 24d3 b03e b008 ab3f
00000140: 98c2 cdbe 2b08 443e e8d0 7e3e fe4a 9fbe
00000150: ac4a f6bf b37b 563f 8cbc fdbf 2685 4bbf
00000160: 5477 693e a94e 9c40 acda 0641 6031 34be
00000170: bb37 503e 4fb6 913e 03c8 f8be 3c39 c040
6.475611 0.291476 0.37355494 1.261362 0.29001585 -1.1437948 0.18409789 4.259729
0.8148459 -0.54620695 -7.574837 -6.325872 -8.822361 -0.20132527 0.54320264 -0.5965086
-2.9123638 0.37311116 0.31114325 3.888289 3.1435604 0.24088998 0.24178395 0.22272202
-0.6751727 -0.16027792 -0.20718761 -6.3261676 8.236761 0.3224085 -0.45800725 -0.24888477
-0.46334726 -8.7781 -0.25613177 0.14703171 -0.8434073 0.21223286 0.11174766 -5.9408274
-8.406905 -8.622449 -1.2508484 2.2791433 -1.2531536 0.17567664 3.9223273 -0.6897077
-3.0063314 8.718999 -0.29996195 0.21617031 0.2320021 -0.19449072 0.25090608 7.2199645
-0.35250664 0.25440767 -3.979366 -7.1723485 -0.59306026 -1.5446872 0.43485364 -0.6492527
-0.32447186 -0.2856597 -0.316282 0.18193272 -6.2084227 0.2426863 1.9581299 -8.220177
-6.7529893 0.3210236 3.1250327 -6.493595 0.22357753 -0.37506926 0.34536088 1.3362026
-0.40187526 0.19143741 0.24884379 -0.31111902 -1.9241538 0.837825 -1.9823165 -0.79500043
0.22799426 4.884602 8.428387 -0.1759696 0.2033376 0.28459403 -0.48590097 6.0069866

running_var f4 [96]
00000000: 7e24 ff41 d661 843d 7979 d93d acf0 9a3f
00000010: f7b4 833d b5c2 7e3f 748d d43c c2f0 5c41
00000020: 2b4b 013f 40af 683e cd8e 2e42 a27a f341
00000030: 12ca 6c42 fdac fe3c 63e5 653e 07b0 8a3e
00000040: 816d ce40 245f d93d 8b1c 973d e1fa 3741
00000050: f428 f140 f705 363d e89d 3c3d a69a 1a3d
00000060: 6253 b23e ba83 a03c 116f 473e 7c80 f341
00000070: e765 4e42 7036 383e d222 263e cda7 413d
00000080: 090f 283e be6b 6a42 1aa1 4d3d d1f4 873c
00000090: 9acf 0c3f f47e 123d cf52 263c 6cbd d641
000000a0: 8703 5742 5e2e 6242 4472 983f 92d9 7c40
000000b0: e7dc 983f 1556 c03c 2a37 3b41 8a3a b93e
000000c0: d909 dc40 2246 6742 1f5f 8c3d 81fc 113d
000000d0: 1652 293d 31f5 eb3c 4587 453d bc95 1e42
000000e0: 5fb3 123e bba6 493d 18b3 4041 0980 1c42
000000f0: 741c 893e c749 e83f c64e 133e e226 a43e
00000100: ba88 a43d de92 7c3d 2afa 9b3d d535 cf3c
00000110: dc88 ea41 6ccc 373d 71a2 3a40 b791 4d42
00000120: 23bc 0a42 21d0 a13d 75ae ed40 d376 0342
00000130: 376c 1c3d ea7f db3d 2525 bb3d 8186 af3f
00000140: bec0 fe3d 1c8b e43c 48cb 403d 7f42 963d
00000150: b116 4a40 871b 103f 7f91 3f40 2806 f63e
00000160: 4f80 223d e12b 9141 6f1d 5842 11fd c23c
00000170: f852 023d 089f 7c3d 3334 393e 1c8d db41
31.892818 0.06463973 0.10618872 1.2104697 0.06431001 0.9951585 0.025946356 13.808779
0.5050532 0.22723103 43.639454 30.43488 59.197334 0.031088347 0.22450785 0.27087423
6.450867 0.1061385 0.07378491 11.49875 7.536249 0.044439282 0.04604903 0.03774514
0.3482924 0.019594062 0.19475962 30.437737 51.599514 0.17989516 0.1622422 0.047279168
0.16411985 58.605217 0.050202467 0.01659623 0.55004275 0.035765603 0.010151579 26.842491
53.753445 56.54528 1.1909871 3.9507794 1.1942414 0.023478547 11.700968 0.36177474
6.876202 57.81849 0.068540804 0.035641197 0.04133805 0.02880344 0.048224706 39.646225
0.14326237 0.049231272 12.043724 39.125034 0.2677952 1.8147515 0.14385518 0.32060915
0.08033891 0.0616635 0.076160744 0.025294224 29.316826 0.044872686 2.9161646 51.3923
34.683727 0.079010256 7.427546 32.86604 0.03818914 0.10717757 0.09137944 1.3712922
0.124391064 0.027898364 0.047068864 0.07336902 3.157635 0.56292003 2.9932554 0.48051572
0.039673146 18.146425 54.028744 0.023802312 0.031817406 0.0616751 0.18086319 27.443901

weight f4 [96]
00000000: 9375 fa3e 61be d53d 240c 303d ab74 353f
00000010: a1fc 683f 9a24 1b3e 70cc 5b3f 5ffb 633f
00000020: 2166 6d3f bf02 e53e 94c3 713f 3ec2 673f
00000030: 76dc 5f3f 16b1 733f 7f66 433f cd11 733f
00000040: c51e 803d 8634 423d 6870 213f a3fc 593f
00000050: c06d 453f 3d06 683f 6979 2d3e 8d3d 053f
00000060: f26a 643e 182b 523f 476c 453f f675 5a3e
00000070: 209c 583f e079 6d3f 44bf 763f 9c97 773d
00000080: 9782 5e3f affd 6e3f 50c3 6d3f 4aa0 753f
00000090: 5186 753f f49c 513d 0487 623f 98e5 693f
000000a0: d9b7 6b3f 0841 6d3f ab65 2f3f 1019 853e
000000b0: 66e3 393f 58f1 0a3d 146a 5c3f 2cb6 773f
000000c0: e21d 683f 35ac ef3e 134d 6a3f 806a 553f
000000d0: 512f 873e 6a76 5f3f 559c d23d c061 723f
000000e0: 44ec 763f 0a4c 6b3f d877 743f c0df 563f
000000f0: 2780 1d3f ee8a 293f 925d 433f a73c 933e
00000100: 5e80 4d3f c2dc 743f d761 843e 1c74 f73e
00000110: 1df2 693f e12d 723f 3579 6f3f ea5f 5f3e
00000120: e9d2 253f 2aed 603f e35d db3e 56a1 713f
00000130: 6a6a 5a3f 22b0 733f c1cd cc3e 5a90 713f
00000140: 4550 723f 18dc 733f 5efd 113f 541f 5b3f
00000150: 2971 743f 85dc 783f fb08 653f 7020 653f
00000160: 201c 203e cd4d 483f aa20 183f ecf1 6b3f
00000170: e135 f53e 0e69 5f3f dc49 753f e759 513f
0.48917827 0.104367025 0.04298033 0.70881146 0.9101048 0.15150681 0.8585882 0.89055437
0.9273396 0.44728658 0.94439054 0.90530765 0.8744577 0.95192087 0.7632827 0.94949037
0.06255869 0.04741337 0.63062143 0.8515112 0.7712059 0.9063452 0.16940846 0.52047044
0.22306421 0.82097006 0.77118343 0.21334061 0.8461323 0.9276409 0.963856 0.06044732
0.86918014 0.9335584 0.9287615 0.95947707 0.95908076 0.051175073 0.8848727 0.9136596
0.92077404 0.92677355 0.6851451 0.25995684 0.7261261 0.03392157 0.8609936 0.9676235
0.906706 0.4681107 0.91523856 0.8336563 0.26403287 0.8729006 0.10283724 0.94680405
0.9645426 0.919129 0.9549537 0.83935165 0.6152367 0.66227615 0.7631465 0.28757212
0.80274 0.9564935 0.25855896 0.48330772 0.9138506 0.94601256 0.9354432 0.21813932
0.6477495 0.87861884 0.42845067 0.94386804 0.85318625 0.9519063 0.40000728 0.9436089
0.9465373 0.9525771 0.5702723 0.8559468 0.9548517 0.97211486 0.8946683 0.8950262
0.15635729 0.78243715 0.5942484 0.9216602 0.4789267 0.87269676 0.95815825 0.81777805

bias f4 [96]
00000000: 3b89 343a 9d57 0abd a86d f6bc c35f ea3c
00000010: 7eb4 223e a3fc d3bc ce27 2d3e 07d9 193e
00000020: cb1c 183e c514 8b3c 237f fe3d 473d 1f3e
00000030: dfd2 143e b8b4 1b3e 77a4 df3d 3c6b 193e
00000040: d856 d6bc 9b17 b1bc aa6b 403c 0341 0c3e
00000050: 4d58 da3d 9b0a 243e 618a e8bc f9dc c93c
00000060: 1ba8 8abd 83c0 e23d c50d 203e ce66 b3bc
00000070: 7ac6 1a3e 4889 1a3e 0434 1c3e 5a7c d3bc
00000080: 1651 133e 687b 333e c62f 053e 2174 023e
00000090: a014 113e ac02 00bd 4b69 5e3e 13a1 033e
000000a0: 81e5 173e 8597 0c3e 9822 9d3d 117b 9abd
000000b0: 29ad 133d 8ebf 8cbc 09b0 113e 8551 143e
000000c0: 415b 2b3e 9939 08bc c4ce 153e d1c5 063e
000000d0: cf7a adbd 5d7e 4c3e 6ed8 25bd aa08 3d3e
000000e0: 29ac 0d3e 9561 2f3e 01e2 fa3d 800a 063e
000000f0: 2f05 953c 3339 f53c 896b d73d 32b6 b2bd
00000100: 7fee 603d 668f 253e 28ea a9bd 104d 8e3c
00000110: 9a59 133e 6ef9 503e ab60 223e e3f8 85bd
00000120: 0eac 703c 12ec 133e 3012 cebd d3fa 053e
00000130: 1b97 0b3e d426 143e 8978 8d3c be70 003e
00000140: de31 fc3d 02b5 b73d e3cb 163c ed89 1c3e
00000150: 9633 0e3e 37df 103e 62c8 0a3e b749 0a3e
00000160: bd25 57bd 3c05 c83d 47e4 0c3c 3cd7 b33d
00000170: 3ae0 353c 70c1 263e 3b67 103e 88d7 913d
0.0006886904 -0.03377496 -0.030081585 0.028610116 0.15889165 -0.025877303 0.16909716 0.15024196
0.14854734 0.016977677 0.12426593 0.15550719 0.14533566 0.15205657 0.10920041 0.14982313
-0.026164457 -0.021617701 0.011744419 0.13696675 0.10661373 0.1601967 -0.028386297 0.0246415
-0.06770345 0.11071875 0.15630253 -0.021899607 0.15114775 0.15091431 0.15254217 -0.025816131
0.143864 0.17527544 0.13006505 0.12739612 0.14168024 -0.031252548 0.21719854 0.12854414
0.14833643 0.13729675 0.07672614 -0.07543004 0.03605381 -0.017181184 0.14227308 0.14484222
0.1673403 -0.008314514 0.14629656 0.13161398 -0.084706895 0.19970079 -0.040489607 0.18460336
0.13835205 0.17127068 0.12250138 0.13089943 0.018190948 0.029934501 0.105185576 -0.08726157
0.054914948 0.16167983 -0.08296615 0.01737073 0.14389649 0.2040765 0.15857188 -0.06541612
0.0146894585 0.14445522 -0.10062063 0.13083963 0.13631861 0.14467937 0.01726939 0.12543008
0.12314199 0.089700714 0.009203884 0.1528699 0.13886866 0.1414765 0.13553002 0.13504682
-0.052526224 0.097666234 0.008599347 0.08781287 0.011100823 0.16284728 0.1410188 0.071211874

running_mean f4 [96]
00000000: 0840 e93e b32d a0bd fbf6 8cbd ecef 723e
00000010: 4606 b5be ac91 71be 1aeb cfbe 6282 a9bf
00000020: 6ec1 75be 3f2a 9abe 51bf 63bf 313d 56be
00000030: b72b 49bf 952b 07bf bdbc 63bf 31d5 ddbe
00000040: 7373 26bd 3049 b1bc 135c 943e 7208 36bf
00000050: d2fa f03e 1e0b 55be 0d03 863e 4b82 babe
00000060: 0af6 22bd 5c9b d83e 2d17 81bf de82 8fbe
00000070: 115f 9abf 8d7d 9ebe d7e5 65bf 5f2f d5bc
00000080: 80ea 253d 5d7d 19bf 7203 98bf 4c07 5bbf
00000090: 6343 cdbe 3b91 b0bb c7d2 d3bd 9602 64bf
000000a0: 4cc1 1ebf 75c5 7dbf 8a14 4c3f 775c b0bd
000000b0: d92e 8c3e 6372 a9bc 6594 51bf aa7b 2bbf
000000c0: 927f 80bf 268d 3a3f cf97 9bbe d5ce a7be
000000d0: 0d34 9abe 2f37 a9be 8a5f c8bc 8af2 bebe
000000e0: b689 0abf a717 80bf 1cfc 43bf 12f0 64bf
000000f0: 9555 cd3e fc3c 313e e961 1a3e 63c3 89be
00000100: 838a 0e3e be31 d7bf 7f42 4cbe 0826 0fbf
00000110: 27fe 60bf e911 0cbf 439b d6be 525c ffbc
00000120: 4fb2 943e ccc0 52bf f61e f9be 4c5c a1be
00000130: c1c4 93be eeda 09bf ab76 6cbe 8808 84bf
00000140: 0332 22bd 1f82 b6bd 7ded e13e 46a0 9bbf
00000150: 839f 8dbe a36e ebbe 11f4 4ebf 2ef5 52bf
00000160: c2e8 76bd 1511 1abf b67b a13e 3901 663e
00000170: b180 9bbe 547f b4bf 3bf7 ccbf 319b c63e
0.45556664 -0.078212164 -0.06883045 0.23724335 -0.3535635 -0.23590726 -0.40609056 -1.3242915
-0.23999569 -0.30110356 -0.889638 -0.2092178 -0.7858233 -0.52800876 -0.88959867 -0.43326715
-0.040637445 -0.021641344 0.28976497 -0.71106637 0.4706636 -0.20805022 0.26174203 -0.3642753
-0.039785422 0.4230603 -1.0085198 -0.2802953 -1.2060262 -0.30955163 -0.8980383 -0.026023565
0.04050684 -0.59956914 -1.1876051 -0.8555801 -0.40090474 -0.0053884066 -0.10342937 -0.89066446
-0.620137 -0.9912942 0.7971884 -0.08611386 0.27379492 -0.020684427 -0.8186706 -0.6698557
-1.0038931 0.72871625 -0.30389258 -0.32774988 -0.30117837 -0.33049914 -0.02445962 -0.37294418
-0.5411638 -1.0007218 -0.76556563 -0.8942882 0.40104356 0.1730842 0.15076412 -0.2690688
0.13920026 -1.6812055 -0.19947241 -0.55917406 -0.87887806 -0.5471483 -0.4191533 -0.031171951
0.2904229 -0.82325435 -0.48656434 -0.3151573 -0.2886105 -0.53849685 -0.23092143 -1.0315104
-0.039598476 -0.089115374 0.44126502 -1.2158287 -0.2766076 -0.45982847 -0.80841166 -0.82405365
-0.06028057 -0.60182315 0.31539696 0.22461404 -0.3037162 -1.4101357 -1.6012949 0.38790277

running_var f4 [96]
00000000: 7996 dc3e 8494 443b 98b6 933b 9c9a 233f
00000010: c4b2 7d3f 1ad5 3a3d e094 de3f 103d f13f
00000020: 65c1 a33f 098e 733e e1c2 583f ba4f 853f
00000030: 6872 103f bc22 b23f 467f 223f 0295 9a3f
00000040: 8abc 1e3b 3850 983a c877 0b3f 8ba5 1b3f
00000050: 2289 733f d6f2 533f 8ef1 823d 9dd5 203e
00000060: 7967 7a3b 32fe 9d3f 89ba 313f 328a a33d
00000070: 6c8e 883f f9f8 9a3f 3f70 b73f cd97 ad3a
00000080: 25bb 823f 2435 0b3f b341 473f e1e5 2c3f
00000090: 1382 af3f af51 bd38 a3fd 5e3f f820 4f3f
000000a0: 121d 363f 3583 443f cd75 8b3f 5448 003c
000000b0: b46d 2e3f 8484 0c3a 3a6a 263f 578b 943f
000000c0: dcbe 293f 848f 1d3f fc1a 9d3f 9d1f 393f
000000d0: edcc 633d 777e 153f a800 923b 8fce 823f
000000e0: 7dfe 9c3f a23d 093f c816 933f a797 4b3f
000000f0: 5c8c 1e3f 9781 343f 124a 213f 8024 6d3d
00000100: ee05 343f cca8 6c3f 4cb0 b03c 9e72 b73e
00000110: 9f88 3c3f 59f0 383f cf5a 863f 2f7c 0a3b
00000120: d025 013f 9f61 443f 339a 463e 421d 093f
00000130: 27bb 783f a979 913f 24dc 3f3e 0ea3 663f
00000140: b29b 763f 363c 6f3f b883 103f 92f1 4b3f
00000150: d71a af3f d4bb c83f 681c 293f 1702 303f
00000160: 5551 683b a98f f33e b1ed 0c3f 97f4 5c3f
00000170: 47f4 703e 00a5 aa3f 1b04 323f eda7 623f
0.43083552 0.0029995749 0.004507851 0.6390779 0.991009 0.045613386 1.7389183 1.884676
1.2793394 0.23784651 0.8467236 1.0414956 0.5642457 1.391685 0.63475454 1.2076724
0.0024221265 0.0011620587 0.54479647 0.60799474 0.95131123 0.82792413 0.06393729 0.15706487
0.0038208647 1.2343199 0.69425255 0.07985343 1.0668464 1.210723 1.433113 0.0013244093
1.0213362 0.5437796 0.77834624 0.6753827 1.371157 9.027437e-05 0.8710577 0.8090968
0.7113811 0.76762706 1.0895325 0.007829744 0.68136144 0.00053603225 0.6500584 1.1605023
0.66306853 0.6154711 1.227386 0.72313863 0.055615354 0.58396095 0.0044556446 1.0219287
1.2265164 0.5360967 1.1491327 0.7952828 0.6193292 0.7051024 0.6300365 0.057896137
0.7032155 0.92445064 0.02156844 0.35829633 0.7364597 0.7224174 1.0496463 0.0021131148
0.5044832 0.7671146 0.1939476 0.5356027 0.9716057 1.1365253 0.1873632 0.9009255
0.9633132 0.9345125 0.56450987 0.7966548 1.3680066 1.568232 0.6605897 0.6875319
0.0035448868 0.47570542 0.5505019 0.86310714 0.23530684 1.3331604 0.69537514 0.88537484
