Graph Neural Network/TestModels/SAGEConv-D2 1.pth (torch, 616932 bytes, 15 tensors)

weight f4 [192, 224]
0	0xb9a53e6b	-0.00031517757
1	0xb9a53e6b	-0.00031517757
2	0xb9a53e6b	-0.00031517757
3	0xb9a53e6b	-0.00031517757
4	0xb9a53e6b	-0.00031517757
5	0xb9a53e6b	-0.00031517757
6	0xb9a53e6b	-0.00031517757
7	0xb9a53e6b	-0.00031517757
8	0xb9a53e6b	-0.00031517757
9	0xb9a53e6b	-0.00031517757
10	0xb9a53e6b	-0.00031517757
11	0xb9a53e6b	-0.00031517757
12	0xb9a53e6b	-0.00031517757
13	0xb9a53e6b	-0.00031517757
14	0xb9a53e6b	-0.00031517757
15	0xb9a53e6b	-0.00031517757
16	0xb9a53e6b	-0.00031517757
17	0xb9a53e6b	-0.00031517757
18	0xb9a53e6b	-0.00031517757
19	0xb9a53e6b	-0.00031517757
20	0xb9a53e6b	-0.00031517757
21	0xb9a53e6b	-0.00031517757
22	0xb9a53e6b	-0.00031517757
23	0xb9a53e6b	-0.00031517757
24	0xb9a53e6b	-0.00031517757
25	0xb9a53e6b	-0.00031517757
26	0xb9a53e6b	-0.00031517757
27	0xb9a53e6b	-0.00031517757
28	0xb9a53e6b	-0.00031517757
29	0xb9a53e6b	-0.00031517757
30	0xb9a53e6b	-0.00031517757
31	0xb9a53e6b	-0.00031517757
32	0xb9a53e6b	-0.00031517757
33	0xb9a53e6b	-0.00031517757
34	0xb9a53e6b	-0.00031517757
35	0xb9a53e6b	-0.00031517757
36	0xb9a53e6b	-0.00031517757
37	0xb9a53e6b	-0.00031517757
38	0xb9a53e6b	-0.00031517757
39	0xb9a53e6b	-0.00031517757
40	0xb9a53e6b	-0.00031517757
41	0xb9a53e6b	-0.00031517757
42	0xb9a53e6b	-0.00031517757
43	0xb9a53e6b	-0.00031517757
44	0xb9a53e6b	-0.00031517757
45	0xb9a53e6b	-0.00031517757
46	0xb9a53e6b	-0.00031517757
47	0xb9a53e6b	-0.00031517757
48	0xb9a53e6b	-0.00031517757
49	0xb9a53e6b	-0.00031517757
50	0xb9a53e6b	-0.00031517757
51	0xb9a53e6b	-0.00031517757
52	0xb9a53e6b	-0.00031517757
53	0xb9a53e6b	-0.00031517757
54	0xb9a53e6b	-0.00031517757
55	0xb9a53e6b	-0.00031517757
56	0xb9a53e6b	-0.00031517757
57	0xb9a53e6b	-0.00031517757
58	0xb9a53e6b	-0.00031517757
59	0xb9a53e6b	-0.00031517757
60	0xb9a53e6b	-0.00031517757
61	0xb9a53e6b	-0.00031517757
62	0xb9a53e6b	-0.00031517757
63	0xb9a53e6b	-0.00031517757
64	0xb9a53e6b	-0.00031517757
65	0xb9a53e6b	-0.00031517757
66	0xb9a53e6b	-0.00031517757
67	0xb9a53e6b	-0.00031517757
68	0xb9a53e6b	-0.00031517757
69	0xb9a53e6b	-0.00031517757
70	0xb9a53e6b	-0.00031517757
71	0xb9a53e6b	-0.00031517757
72	0xb9a53e6b	-0.00031517757
73	0xb9a53e6b	-0.00031517757
74	0xb9a53e6b	-0.00031517757
75	0xb9a53e6b	-0.00031517757
76	0xb9a53e6b	-0.00031517757
77	0xb9a53e6b	-0.00031517757
78	0xb9a53e6b	-0.00031517757
79	0xb9a53e6b	-0.00031517757
80	0xb9a53e6b	-0.00031517757
81	0xb9a53e6b	-0.00031517757
82	0xb9a53e6b	-0.00031517757
83	0xb9a53e6b	-0.00031517757
84	0xb9a53e6b	-0.00031517757
85	0xb9a53e6b	-0.00031517757
86	0xb9a53e6b	-0.00031517757
87	0xb9a53e6b	-0.00031517757
88	0xb9a53e6b	-0.00031517757
89	0xb9a53e6b	-0.00031517757
90	0xb9a53e6b	-0.00031517757
91	0xb9a53e6b	-0.00031517757
92	0xb9a53e6b	-0.00031517757
93	0xb9a53e6b	-0.00031517757
94	0xb9a53e6b	-0.00031517757
95	0xb9a53e6b	-0.00031517757
96	0xb9a53e6b	-0.00031517757
97	0xb9a53e6b	-0.00031517757
98	0xb9a53e6b	-0.00031517757
99	0xb9a53e6b	-0.00031517757
100	0xb9a53e6b	-0.00031517757
101	0xb9a53e6b	-0.00031517757
102	0xb9a53e6b	-0.00031517757
103	0xb9a53e6b	-0.00031517757
104	0xb9a53e6b	-0.00031517757
105	0xb9a53e6b	-0.00031517757
106	0xb9a53e6b	-0.00031517757
107	0xb9a53e6b	-0.00031517757
108	0xb9a53e6b	-0.00031517757
109	0xb9a53e6b	-0.00031517757
110	0xb9a53e6b	-0.00031517757
111	0xb9a53e6b	-0.00031517757
112	0xb9a53e6b	-0.00031517757
113	0xb9a53e6b	-0.00031517757
114	0xb9a53e6b	-0.00031517757
115	0xb9a53e6b	-0.00031517757
116	0xb9a53e6b	-0.00031517757
117	0xb9a53e6b	-0.00031517757
118	0xb9a53e6b	-0.00031517757
119	0xb9a53e6b	-0.00031517757
120	0xb9a53e6b	-0.00031517757
121	0xb9a53e6b	-0.00031517757
122	0xb9a53e6b	-0.00031517757
123	0xb9a53e6b	-0.00031517757
124	0xb9a53e6b	-0.00031517757
125	0xb9a53e6b	-0.00031517757
126	0xb9a53e6b	-0.00031517757
127	0xb9a53e6b	-0.00031517757
128	0xb9a53e6b	-0.00031517757
129	0xb9a53e6b	-0.00031517757
130	0xb9a53e6b	-0.00031517757
131	0xb9a53e6b	-0.00031517757
132	0xb9a53e6b	-0.00031517757
133	0xb9a53e6b	-0.00031517757
134	0xb9a53e6b	-0.00031517757
135	0xb9a53e6b	-0.00031517757
136	0xb9a53e6b	-0.00031517757
137	0xb9a53e6b	-0.00031517757
138	0xb9a53e6b	-0.00031517757
139	0xb9a53e6b	-0.00031517757
140	0xb9a53e6b	-0.00031517757
141	0xb9a53e6b	-0.00031517757
142	0xb9a53e6b	-0.00031517757
143	0xb9a53e6b	-0.00031517757
144	0xb9a53e6b	-0.00031517757
145	0xb9a53e6b	-0.00031517757
146	0xb9a53e6b	-0.00031517757
147	0xb9a53e6b	-0.00031517757
148	0xb9a53e6b	-0.00031517757
149	0xb9a53e6b	-0.00031517757
150	0xb9a53e6b	-0.00031517757
151	0xb9a53e6b	-0.00031517757
152	0xb9a53e6b	-0.00031517757
153	0xb9a53e6b	-0.00031517757
154	0xb9a53e6b	-0.00031517757
155	0xb9a53e6b	-0.00031517757
156	0xb9a53e6b	-0.00031517757
157	0xb9a53e6b	-0.00031517757
158	0xb9a53e6b	-0.00031517757
159	0xb9a53e6b	-0.00031517757
160	0xb9a53e6b	-0.00031517757
161	0xb9a53e6b	-0.00031517757
162	0xb9a53e6b	-0.00031517757
163	0xb9a53e6b	-0.00031517757
164	0xb9a53e6b	-0.00031517757
165	0xb9a53e6b	-0.00031517757
166	0xb9a53e6b	-0.00031517757
167	0xb9a53e6b	-0.00031517757
168	0xb9a53e6b	-0.00031517757
169	0xb9a53e6b	-0.00031517757
170	0xb9a53e6b	-0.00031517757
171	0xb9a53e6b	-0.00031517757
172	0xb9a53e6b	-0.00031517757
173	0xb9a53e6b	-0.00031517757
174	0xb9a53e6b	-0.00031517757
175	0xb9a53e6b	-0.00031517757
176	0xb9a53e6b	-0.00031517757
177	0xb9a53e6b	-0.00031517757
178	0xb9a53e6b	-0.00031517757
179	0xb9a53e6b	-0.00031517757
180	0xb9a53e6b	-0.00031517757
181	0xb9a53e6b	-0.00031517757
182	0xb9a53e6b	-0.00031517757
183	0xb9a53e6b	-0.00031517757
184	0xb9a53e6b	-0.00031517757
185	0xb9a53e6b	-0.00031517757
186	0xb9a53e6b	-0.00031517757
187	0xb9a53e6b	-0.00031517757
188	0xb9a53e6b	-0.00031517757
189	0xb9a53e6b	-0.00031517757
190	0xb9a53e6b	-0.00031517757
191	0xb9a53e6b	-0.00031517757
192	0xb9a53e6b	-0.00031517757
193	0xb9a53e6b	-0.00031517757
194	0xb9a53e6b	-0.00031517757
195	0xb9a53e6b	-0.00031517757
196	0xb9a53e6b	-0.00031517757
197	0xb9a53e6b	-0.00031517757
198	0xb9a53e6b	-0.00031517757
199	0xb9a53e6b	-0.00031517757
200	0xb9a53e6b	-0.00031517757
201	0xb9a53e6b	-0.00031517757
202	0xb9a53e6b	-0.00031517757
203	0xb9a53e6b	-0.00031517757
204	0xb9a53e6b	-0.00031517757
205	0xb9a53e6b	-0.00031517757
206	0xb9a53e6b	-0.00031517757
207	0xb9a53e6b	-0.00031517757
208	0xb9a53e6b	-0.00031517757
209	0xb9a53e6b	-0.00031517757
210	0xb9a53e6b	-0.00031517757
211	0xb9a53e6b	-0.00031517757
212	0xb9a53e6b	-0.00031517757
213	0xb9a53e6b	-0.00031517757
214	0xb9a53e6b	-0.00031517757
215	0xb9a53e6b	-0.00031517757
216	0xb9a53e6b	-0.00031517757
217	0xb9a53e6b	-0.00031517757
218	0xb9a53e6b	-0.00031517757
219	0xb9a53e6b	-0.00031517757
220	0xb9a53e6b	-0.00031517757
221	0xb9a53e6b	-0.00031517757
222	0xb9a53e6b	-0.00031517757
223	0xb9a53e6b	-0.00031517757
224	0xbbcec312	-0.0063098753
225	0xbbcec312	-0.0063098753
226	0xbbcec312	-0.0063098753
227	0xbbcec312	-0.0063098753
228	0xbbcec312	-0.0063098753
229	0xbbcec312	-0.0063098753
230	0xbbcec312	-0.0063098753
231	0xbbcec312	-0.0063098753
232	0xbbcec312	-0.0063098753
233	0xbbcec312	-0.0063098753
234	0xbbcec312	-0.0063098753
235	0xbbcec312	-0.0063098753
236	0xbbcec312	-0.0063098753
237	0xbbcec312	-0.0063098753
238	0xbbcec312	-0.0063098753
239	0xbbcec312	-0.0063098753
240	0xbbcec312	-0.0063098753
241	0xbbcec312	-0.0063098753
242	0xbbcec312	-0.0063098753
243	0xbbcec312	-0.0063098753
244	0xbbcec312	-0.0063098753
245	0xbbcec312	-0.0063098753
246	0xbbcec312	-0.0063098753
247	0xbbcec312	-0.0063098753
248	0xbbcec312	-0.0063098753
249	0xbbcec312	-0.0063098753
250	0xbbcec312	-0.0063098753
251	0xbbcec312	-0.0063098753
252	0xbbcec312	-0.0063098753
253	0xbbcec312	-0.0063098753
254	0xbbcec312	-0.0063098753
255	0xbbcec312	-0.0063098753

bias f4 [192]
0	0x35e297b9	1.6882469e-06
1	0x31464843	2.8853868e-09
2	0x33dc6216	1.026239e-07
3	0x33121b66	3.4018193e-08
4	0xb4e0a9a2	-4.1846675e-07
5	0xb5a897b3	-1.2561126e-06
6	0x3737ad7c	1.09480425e-05
7	0xb65218ff	-3.1306988e-06
8	0x375f5e2f	1.3313765e-05
9	0x352519cb	6.1504824e-07
10	0xb45da294	-2.0641374e-07
11	0x36697223	3.4786142e-06
12	0x36a8c924	5.030206e-06
13	0x35c0cfdf	1.4365613e-06
14	0xb272ada0	-1.4125732e-08
15	0xb71b4da4	-9.256797e-06
16	0xb4c6309e	-3.6915748e-07
17	0x35319983	6.616103e-07
18	0x378963ce	1.6378148e-05
19	0xb810929b	-3.4468812e-05
20	0xb647f9da	-2.9798744e-06
21	0xb70bfbed	-8.343702e-06
22	0xb76c0209	-1.406717e-05
23	0x36a63b24	4.9540704e-06
24	0x37ff6071	3.0443278e-05
25	0xb5b5a41c	-1.3533313e-06
26	0xb19a79fd	-4.4958584e-09
27	0xb61ee9c9	-2.3679916e-06
28	0xb79fa668	-1.9031766e-05
29	0x373f1981	1.1390425e-05
30	0x3565e4e6	8.564224e-07
31	0xb650d48f	-3.111814e-06
32	0x35cd0442	1.5274929e-06
33	0x36a90bd2	5.0379685e-06
34	0xb81081a9	-3.445303e-05
35	0xb504ff28	-4.9545133e-07
36	0xb45c26f1	-2.0503263e-07
37	0xb7858d5f	-1.5920667e-05
38	0x33a356d2	7.6060715e-08
39	0xb5ff1ff5	-1.9008281e-06
40	0x364dbcfe	3.0657388e-06
41	0x37148b68	8.8539455e-06
42	0xb4626d3c	-2.108763e-07
43	0x36381280	2.7428905e-06
44	0xb6aee4c2	-5.212235e-06
45	0x3733aefd	1.0709974e-05
46	0xb6067f36	-2.0041603e-06
47	0x3477d518	2.308119e-07
48	0xb7c579da	-2.3540972e-05
49	0x32b54725	2.1103526e-08
50	0xb41ce450	-1.4611692e-07
51	0xb707a8b2	-8.0859045e-06
52	0x356cf4d0	8.82731e-07
53	0x36e898e5	6.931938e-06
54	0x364b6e2b	3.0313483e-06
55	0xb5a37015	-1.2177067e-06
56	0xb42cb9f0	-1.6086392e-07
57	0xb476d6c9	-2.2988674e-07
58	0xb73b4f39	-1.1164514e-05
59	0x35ea5cf7	1.7461415e-06
60	0x377a5603	1.4921187e-05
61	0xb78a5fbe	-1.6495465e-05
62	0xb5531ab3	-7.864248e-07
63	0x33fd7d3d	1.1804011e-07
64	0x35990e9b	1.1403639e-06
65	0x37fd0e32	3.016656e-05
66	0xb703e6d2	-7.8619505e-06
67	0x3716669e	8.964589e-06
68	0x3819b219	3.664391e-05
69	0xb7773058	-1.4733603e-05
70	0xb46fd3ea	-2.2335703e-07
71	0xb44baa13	-1.8967721e-07
72	0x373f5da7	1.1406292e-05
73	0x34dd1e13	4.118634e-07
74	0xb41fd477	-1.4885323e-07
75	0x32bb5454	2.1808013e-08
76	0x3694ff5c	4.4404715e-06
77	0x33b3d106	8.373358e-08
78	0x3851a6d6	4.998486e-05
79	0x36cb82eb	6.0651123e-06
80	0xb6965416	-4.4801372e-06
81	0x360b0474	2.0715206e-06
82	0xb73628a2	-1.0857506e-05
83	0x35c13db1	1.4397575e-06
84	0xb48a2514	-2.573148e-07
85	0x37674d3c	1.37866555e-05
86	0xb69e7458	-4.722311e-06
87	0x38006def	3.061996e-05
88	0xb503cced	-4.909951e-07
89	0x37b5be53	2.1665508e-05
90	0xb6e413d2	-6.797237e-06
91	0x33f0a26f	1.12054174e-07
92	0xb71d0d17	-9.360977e-06
93	0x37dd37b5	2.6371194e-05
94	0x3601d184	1.9344452e-06
95	0xb4b3dd93	-3.3502565e-07
96	0xb55fe7c5	-8.341124e-07
97	0xb75ef751	-1.3289814e-05
98	0xb54d4d39	-7.6480825e-07
99	0x36b38818	5.350459e-06
100	0xb4dc583f	-4.10424e-07
101	0x34f827d1	4.622257e-07
102	0xad24f11c	-9.375858e-12
103	0xb797d665	-1.8100438e-05
104	0x37dc8488	2.6287758e-05
105	0x3645dc06	2.9483358e-06
106	0xb681c867	-3.8678295e-06
107	0x376b392f	1.4020406e-05
108	0xb73a4151	-1.1101672e-05
109	0xb43b3599	-1.7435231e-07
110	0x320b8656	8.121409e-09
111	0x309fb106	1.1619086e-09
112	0x3500bf7d	4.796237e-07
113	0xb5875845	-1.0083974e-06
114	0xb7673410	-1.3780795e-05
115	0xb393a1c5	-6.8746466e-08
116	0xb4b0ef89	-3.295684e-07
117	0xb7c46e52	-2.3416393e-05
118	0xb477975b	-2.305873e-07
119	0x34fe4a90	4.7365438e-07
120	0x37ce7957	2.4613617e-05
121	0xb6aa7e98	-5.0811323e-06
122	0x37e55064	2.7336362e-05
123	0xb3a80ab1	-7.8250544e-08
124	0xb3ad53ac	-8.07116e-08
125	0x375e9639	1.3267208e-05
126	0x3504d2ab	4.9480394e-07
127	0x3218c05d	8.891303e-09
128	0xb63f3cdf	-2.849665e-06
129	0x36c30daf	5.813046e-06
130	0x35e171ea	1.679696e-06
131	0xb4b88b61	-3.4374082e-07
132	0x34815837	2.4092307e-07
133	0xb48f8a2d	-2.6736362e-07
134	0x36ba996c	5.5610926e-06
135	0xb6a5fb74	-4.946656e-06
136	0xb840e2f2	-4.5987726e-05
137	0x3789c513	1.6423443e-05
138	0xb3c5d6b9	-9.212585e-08
139	0x364cb69a	3.0504657e-06
140	0x343577e7	1.6900559e-07
141	0x37035aa0	7.829309e-06
142	0x35e80423	1.7286551e-06
143	0x35848588	9.873629e-07
144	0xb6980295	-4.5302536e-06
145	0xb4f566f2	-4.570971e-07
146	0xb4a1bf8f	-3.0127964e-07
147	0xb5bbaa7d	-1.3982204e-06
148	0x34fcd153	4.709096e-07
149	0xb6af66e5	-5.227385e-06
150	0x382ab1ec	4.069686e-05
151	0x37a0a6bb	1.9151126e-05
152	0x3782d8f4	1.5598234e-05
153	0x3799f508	1.8353123e-05
154	0x34913e62	2.7053744e-07
155	0xb3a5a75b	-7.713853e-08
156	0x374c377c	1.2172266e-05
157	0x36b5909f	5.4110565e-06
158	0xb3b96651	-8.633345e-08
159	0x37a6db64	1.9890904e-05
160	0xb6447939	-2.9276837e-06
161	0xb548e299	-7.483555e-07
162	0xb6b1d562	-5.299852e-06
163	0xb71ba8f3	-9.2780565e-06
164	0x37d5fe0f	2.5509884e-05
165	0xb60f2b0b	-2.1333715e-06
166	0x363474a0	2.6889975e-06
167	0x37b3b46e	2.1422482e-05
168	0x36affe7c	5.2450323e-06
169	0x36472b14	2.9678386e-06
170	0xb5acc4bd	-1.2872257e-06
171	0x340dc99b	1.3204992e-07
172	0x380eca48	3.4043827e-05
173	0x371d6662	9.381767e-06
174	0x370bb097	8.326161e-06
175	0xb7cebf9e	-2.4646342e-05
176	0xb3108b1e	-3.365414e-08
177	0x35213766	6.005779e-07
178	0xb28fb743	-1.6730729e-08
179	0xb6cfdac8	-6.19455e-06
180	0xb6be86a8	-5.6781173e-06
181	0xb705d9c5	-7.978121e-06
182	0xb4e4828f	-4.2563303e-07
183	0x37b2f6c5	2.1334165e-05
184	0xb5a35c3a	-1.2171288e-06
185	0x37b946c8	2.2086679e-05
186	0x37191125	9.123502e-06
187	0x373983f6	1.1057584e-05
188	0x348b436c	2.5939823e-07
189	0xb3e56e10	-1.0683664e-07
190	0xb7bd8fbe	-2.259749e-05
191	0x32174984	8.806072e-09

weight f4 [192, 224]
0	0x3713f542	8.818986e-06
1	0x37142b13	8.831516e-06
2	0x3723964a	9.750549e-06
3	0x371403ab	8.822341e-06
4	0x3709c6a3	8.212085e-06
5	0x3714290f	8.831047e-06
6	0x3709c5db	8.211903e-06
7	0x3709c1d2	8.210964e-06
8	0x37144222	8.836885e-06
9	0x3709c116	8.210793e-06
10	0x3726c962	9.941259e-06
11	0x3709c09a	8.21068e-06
12	0x3713ddc9	8.813521e-06
13	0x37140ff8	8.825205e-06
14	0x3711a4a8	8.6810105e-06
15	0x3713fbbf	8.820497e-06
16	0x37136864	8.786188e-06
17	0x371d41a0	9.373209e-06
18	0x37143ed8	8.836119e-06
19	0x3709c09c	8.210682e-06
20	0x371a278c	9.188323e-06
21	0x371443b8	8.837254e-06
22	0x3713615e	8.784553e-06
23	0x3713c537	8.8078e-06
24	0x37143077	8.8327715e-06
25	0x371c2efa	9.309262e-06
26	0x3709c15f	8.210859e-06
27	0x37136da1	8.787408e-06
28	0x3713a0db	8.799335e-06
29	0x371830cc	9.071267e-06
30	0x37145e44	8.843435e-06
31	0x3719df58	9.171512e-06
32	0x3709c101	8.210774e-06
33	0x3709c15f	8.210859e-06
34	0x3709c2fa	8.211233e-06
35	0x370a2cb9	8.235854e-06
36	0x371360d7	8.78443e-06
37	0x3709c263	8.2110955e-06
38	0x370a51ce	8.244488e-06
39	0x3713b35e	8.803645e-06
40	0x3709c15f	8.210859e-06
41	0x37284938	1.0030628e-05
42	0x37140fb8	8.825147e-06
43	0x3713a5df	8.800503e-06
44	0x3726d3bd	9.94367e-06
45	0x3709c3b5	8.211403e-06
46	0x3713a2c4	8.79978e-06
47	0x371388d2	8.793739e-06
48	0x3713dca0	8.813251e-06
49	0x3709c09a	8.21068e-06
50	0x3709c3ed	8.211454e-06
51	0x3709c09c	8.210682e-06
52	0x3709c362	8.211327e-06
53	0x3709c1aa	8.210927e-06
54	0x3709c0cf	8.210728e-06
55	0x37209771	9.572003e-06
56	0x3709cd96	8.213703e-06
57	0x37137b6d	8.79062e-06
58	0x3709c09a	8.21068e-06
59	0x37136392	8.785066e-06
60	0x3709c309	8.2112465e-06
61	0x3713c0b0	8.806746e-06
62	0x3709c116	8.210793e-06
63	0x3710d814	8.6333785e-06
64	0x3709c09a	8.21068e-06
65	0x3709c0cf	8.210728e-06
66	0x3709c1cb	8.210957e-06
67	0x37293133	1.008464e-05
68	0x37143d69	8.835786e-06
69	0x37174304	9.015905e-06
70	0x370a37e1	8.238451e-06
71	0x3709c1aa	8.210927e-06
72	0x3713d862	8.812263e-06
73	0x3709c16c	8.210871e-06
74	0x37139923	8.797538e-06
75	0x37136245	8.784763e-06
76	0x3709d33d	8.215019e-06
77	0x3709cfe2	8.214238e-06
78	0x37145a7f	8.842558e-06
79	0x3709ec74	8.22089e-06
80	0x37136c9b	8.7871695e-06
81	0x37206626	9.560526e-06
82	0x37215cd1	9.617958e-06
83	0x37143757	8.834372e-06
84	0x3709c15f	8.210859e-06
85	0x370c9a7a	8.380617e-06
86	0x3709c08a	8.210665e-06
87	0x3713ed6c	8.817162e-06
88	0x372234d7	9.668255e-06
89	0x37137a58	8.790368e-06
90	0x371432fd	8.833359e-06
91	0x37141557	8.826456e-06
92	0x3709c09c	8.210682e-06
93	0x3713c654	8.80806e-06
94	0x37137168	8.788287e-06
95	0x3709c155	8.21085e-06
96	0x371442b6	8.83702e-06
97	0x370d460e	8.420566e-06
98	0x3713dbe3	8.813079e-06
99	0x371433fe	8.833593e-06
100	0x37144406	8.837325e-06
101	0x37136392	8.785066e-06
102	0x3713aa5c	8.801548e-06
103	0x371417f9	8.827069e-06
104	0x37279d42	9.99059e-06
105	0x3726b8e3	9.937418e-06
106	0x3709c16c	8.210871e-06
107	0x371bef9e	9.29451e-06
108	0x371388d4	8.793741e-06
109	0x37137a76	8.790395e-06
110	0x371369cf	8.786518e-06
111	0x37138036	8.791734e-06
112	0x370a47d6	8.242167e-06
113	0x3709c09a	8.21068e-06
114	0x37137e1c	8.791245e-06
115	0x370b396e	8.298417e-06
116	0x3713f3fa	8.818688e-06
117	0x37144562	8.837642e-06
118	0x3709c15f	8.210859e-06
119	0x3709c09a	8.21068e-06
120	0x3713f2ac	8.818384e-06
121	0x3709c192	8.210905e-06
122	0x3709c09a	8.21068e-06
123	0x3709dbb0	8.216986e-06
124	0x371607f4	8.942548e-06
125	0x37124c01	8.719974e-06
126	0x370a36d4	8.238207e-06
127	0x3709c192	8.210905e-06
128	0x3709c1f2	8.210993e-06
129	0x37163b0e	8.9544465e-06
130	0x37143b39	8.835276e-06
131	0x3709c15f	8.210859e-06
132	0x3709c267	8.211099e-06
133	0x37136ee6	8.787703e-06
134	0x3709cf00	8.214032e-06
135	0x370b0745	8.286738e-06
136	0x37146957	8.846014e-06
137	0x3709cd33	8.213613e-06
138	0x371378e9	8.790034e-06
139	0x371c4a8c	9.315681e-06
140	0x37139a2a	8.797777e-06
141	0x3712a92e	8.741668e-06
142	0x371a6e1b	9.204751e-06
143	0x371478ed	8.849643e-06
144	0x3709c0b5	8.210704e-06
145	0x37288ccd	1.0046363e-05
146	0x37143667	8.834154e-06
147	0x3713f3fd	8.818691e-06
148	0x37146947	8.845999e-06
149	0x3709c16c	8.210871e-06
150	0x37165b03	8.961887e-06
151	0x3709c16c	8.210871e-06
152	0x37213fe3	9.611223e-06
153	0x3713a125	8.799402e-06
154	0x3709c2af	8.211165e-06
155	0x370ab657	8.267895e-06
156	0x3709c101	8.210774e-06
157	0x370a128a	8.229757e-06
158	0x3709c267	8.211099e-06
159	0x3726fd1e	9.9533045e-06
160	0x37143d69	8.835786e-06
161	0x371400d3	8.821679e-06
162	0x371419c4	8.827486e-06
163	0x37144150	8.836694e-06
164	0x371373fb	8.788887e-06
165	0x3709c09a	8.21068e-06
166	0x3709c116	8.210793e-06
167	0x371fd437	9.526549e-06
168	0x3709f8b9	8.223747e-06
169	0x3709cd8a	8.213692e-06
170	0x3709fdfb	8.224971e-06
171	0x3709c09a	8.21068e-06
172	0x3713f876	8.819732e-06
173	0x3710e66c	8.636718e-06
174	0x3715b9b2	8.924328e-06
175	0x3709c1aa	8.210927e-06
176	0x3713fd36	8.820838e-06
177	0x37291a85	1.00793595e-05
178	0x3709c101	8.210774e-06
179	0x371461eb	8.844286e-06
180	0x3712aa30	8.741903e-06
181	0x3714556c	8.841376e-06
182	0x3709c16c	8.210871e-06
183	0x3709d1d1	8.214688e-06
184	0x3713dd2d	8.813379e-06
185	0x3713df6a	8.8139e-06
186	0x37137c4d	8.790824e-06
187	0x3710a54b	8.621554e-06
188	0x3709c0cf	8.210728e-06
189	0x37274530	9.970085e-06
190	0x3714439d	8.83723e-06
191	0x371c6d0d	9.323715e-06
192	0x37144517	8.837574e-06
193	0x3709c15f	8.210859e-06
194	0x371442d7	8.83705e-06
195	0x371440bd	8.8365605e-06
196	0x3710d9b6	8.633759e-06
197	0x370a3a86	8.239067e-06
198	0x37142afe	8.831497e-06
199	0x37136836	8.786146e-06
200	0x3709c5dc	8.211904e-06
201	0x37137d93	8.79112e-06
202	0x3709c116	8.210793e-06
203	0x3709cdf5	8.213789e-06
204	0x371fc59f	9.523151e-06
205	0x3709c09a	8.21068e-06
206	0x371406b0	8.8230445e-06
207	0x370ecfb8	8.512223e-06
208	0x37141557	8.826456e-06
209	0x371413ae	8.8260695e-06
210	0x37145bcc	8.842861e-06
211	0x3709c09a	8.21068e-06
212	0x37137197	8.78833e-06
213	0x37144533	8.837599e-06
214	0x37145180	8.840463e-06
215	0x37127502	8.729521e-06
216	0x3709c1aa	8.210927e-06
217	0x37137cf2	8.790974e-06
218	0x37277979	9.982258e-06
219	0x3727b84c	9.996886e-06
220	0x3717667e	9.024165e-06
221	0x3713f97a	8.819969e-06
222	0x3709c2b5	8.21117e-06
223	0x3713caf5	8.809137e-06
224	0x3581236f	9.621562e-07
225	0x343fc745	1.7860755e-07
226	0x37ba9f0e	2.2246993e-05
227	0x37454cdd	1.1760011e-05
228	0x33792af9	5.8013914e-08
229	0x3414a37c	1.384305e-07
230	0x343d8ad2	1.7652499e-07
231	0xb7296e66	-1.0098889e-05
232	0x376f30da	1.4256884e-05
233	0xb3c3a219	-9.1098805e-08
234	0x37e88746	2.7719547e-05
235	0x3440ed23	1.7967663e-07
236	0xb6bc850f	-5.6183267e-06
237	0x36cfc504	6.1920164e-06
238	0xb3ae9d15	-8.1310795e-08
239	0x35c638de	1.47687e-06
240	0x3689477d	4.0912405e-06
241	0xb6919f63	-4.339892e-06
242	0xb3c47c17	-9.149533e-08
243	0x343c06e6	1.7511374e-07
244	0xb67de219	-3.7831544e-06
245	0xb499d1ba	-2.8651067e-07
246	0xb32d2140	-4.0309942e-08
247	0xb3b8e3aa	-8.6095795e-08
248	0xb62c3ff5	-2.5667225e-06
249	0x34433c7b	1.8182793e-07
250	0xb3caf5ab	-9.451045e-08
251	0xb528c0af	-6.286527e-07
252	0x36c53852	5.877614e-06
253	0x343e66c6	1.7732518e-07
254	0xb3c3a219	-9.1098805e-08
255	0x336a9067	5.4613704e-08

weight f4 [160, 192]
0	0x3cdb4ec5	0.026770959
1	0xbae722b6	-0.0017634246
2	0x3d275c20	0.04085934
3	0xb9ee0081	-0.00045395273
4	0xbb4e2bd1	-0.0031459222
5	0x3d380267	0.044924166
6	0xbc8ff139	-0.017571079
7	0x3c39de93	0.01134457
8	0x3d06e01c	0.03292857
9	0xbc418176	-0.011810651
10	0x3d4dd13f	0.05024838
11	0xbcc00d76	-0.023443919
12	0xbcabb939	-0.020962344
13	0xbb8b16ca	-0.00424466
14	0xbc08b488	-0.008343823
15	0xbc2a94ef	-0.010411485
16	0x3d27e310	0.040988028
17	0xbc77c8af	-0.01512353
18	0xbcb011ca	-0.021492857
19	0x3ba8ef60	0.005155489
20	0xbc0907b1	-0.00836365
21	0xbc80c0f1	-0.015717002
22	0x3aeb5c21	0.0017956534
23	0xbcad64b0	-0.021166176
24	0xbc844e6c	-0.016150676
25	0x3ce6c74b	0.028171202
26	0xbbd59336	-0.006517793
27	0x3cc63159	0.024193453
28	0xbd075e40	-0.03304887
29	0x3c87cfb2	0.016578529
30	0xbc9809f9	-0.018559443
31	0xbc81ebf7	-0.015859587
32	0x3cf15152	0.029457722
33	0x39edb41b	0.00045338352
34	0x3bb8b85a	0.005637211
35	0x3d246562	0.04013575
36	0xbc81092a	-0.01575144
37	0xbcd210e9	-0.025642829
38	0xbcd32f0e	-0.025779273
39	0xbacb4976	-0.0015509564
40	0xbb5a2d66	-0.003329122
41	0x3d4992a6	0.04921212
42	0xbbc9fa6f	-0.006163887
43	0xbb2f2ac4	-0.002672837
44	0xbbd4a70e	-0.006489641
45	0x3d1c2f38	0.03813097
46	0xbd02e5b1	-0.031957332
47	0xbc8a96f9	-0.016917692
48	0x3bc65892	0.006053039
49	0xbc2048bb	-0.009782965
50	0x3c13fec0	0.009032905
51	0x3d2edffa	0.04269407
52	0xbc421685	-0.011846189
53	0xb903c35f	-0.00012565915
54	0xbc0bf029	-0.008541145
55	0x3d2981d1	0.04138357
56	0xb8e9d998	-0.00011150836
57	0x3cb50153	0.022095358
58	0xbb2c9614	-0.002633457
59	0xbc4530a5	-0.012035524
60	0xbc733288	-0.014843591
61	0xbc9f9c10	-0.019483596
62	0xbce12981	-0.02748561
63	0xbc4d6e50	-0.012538508
64	0xb954cb83	-0.0002029371
65	0xbd2070d3	-0.039170098
66	0xbb885e6b	-0.004161646
67	0x3b2fc3ef	0.0026819666
68	0xbc963454	-0.018335499
69	0x3b4b18a4	0.0030990029
70	0xbb465e7d	-0.0030268722
71	0x3c093e3c	0.008376654
72	0xbcf1e0e2	-0.029526178
73	0xbb81cd9d	-0.0039612786
74	0x3cc61e56	0.024184387
75	0x3d0a7981	0.03380728
76	0x3befb8fd	0.0073157535
77	0xbc9b664b	-0.018969676
78	0xbd0324a1	-0.032017354
79	0xbcae18bc	-0.021252029
80	0xbc8d9a00	-0.017285347
81	0xbcb34e8a	-0.021888036
82	0x3c46c86a	0.012132743
83	0x3a0166c6	0.0004936274
84	0xbd044f6d	-0.03230231
85	0xbbb33a2c	-0.005469581
86	0x3d19d144	0.037553087
87	0xbd09e03d	-0.033661116
88	0xbca3c01e	-0.01998907
89	0xbcbbbe2c	-0.02291783
90	0xbc9800af	-0.018555013
91	0xbc6b6136	-0.014366439
92	0xbaf7e014	-0.0018911385
93	0xbca15852	-0.019695435
94	0xbba72103	-0.005100371
95	0xbbf35c1c	-0.007426752
96	0xbcad1ca6	-0.021131825
97	0xbcf8aad2	-0.030354891
98	0xbc15a71c	-0.00913408
99	0xbbec277a	-0.0072068544
100	0xbc820d15	-0.015875379
101	0xba99edcf	-0.0011743846
102	0xb3b12fc7	-8.2508954e-08
103	0xbc3ff2da	-0.011715615
104	0x3c5e3aeb	0.013563852
105	0xbc823f45	-0.01589931
106	0x3d11f8d5	0.035637695
107	0xbbcdff90	-0.006286569
108	0xbce1bd05	-0.027555952
109	0xbaf5cbff	-0.0018752812
110	0xbbc0392c	-0.0058661904
111	0x3c15d046	0.009143895
112	0xbbe5dafa	-0.0070146294
113	0x3d092bc3	0.033489
114	0xbc31a629	-0.010842838
115	0xbc55607f	-0.013023495
116	0xbd1f6254	-0.038912132
117	0xbc9214ae	-0.017832126
118	0xbca91658	-0.020640537
119	0xbca4d7b6	-0.02012239
120	0x3d2d0302	0.042239197
121	0xbcb64f31	-0.022254558
122	0xbba82ed6	-0.0051325364
123	0xbb4db861	-0.0031390416
124	0xbbc619e3	-0.0060455664
125	0xbc1189a8	-0.008882917
126	0xbcbdc4d6	-0.023165148
127	0xbab35a0f	-0.0013683456
128	0xbbd96c58	-0.00663523
129	0xbcdf60ac	-0.027267776
130	0xbc44fb12	-0.01202275
131	0x39d782d1	0.0004110546
132	0xbbdf9b94	-0.0068239663
133	0xbc8b2011	-0.016983064
134	0xbcb26331	-0.021775814
135	0xbc3feaf0	-0.011713728
136	0xbcc3589e	-0.023845967
137	0xbcb1b5c9	-0.021693127
138	0xbc78a796	-0.015176674
139	0xbc95b8ec	-0.018276654
140	0x3d126561	0.035741214
141	0xbcb2e644	-0.021838315
142	0xba441842	-0.00074804213
143	0xbc7a1458	-0.015263639
144	0x3cb3dba8	0.021955326
145	0xbb4647c5	-0.003025518
146	0xbad29961	-0.0016067439
147	0xbb6ece06	-0.0036438718
148	0xbb069e3a	-0.0020541088
149	0xbcd285ec	-0.025698625
150	0xbc35fb19	-0.01110723
151	0xbd12e0ad	-0.0358588
152	0xbc356eb1	-0.011073754
153	0xbcf6b0de	-0.030113634
154	0xbb58cc45	-0.0033080739
155	0xbd080d3a	-0.03321574
156	0xbcaaf0aa	-0.02086671
157	0x3cef1a04	0.02918721
158	0xbc02f0ea	-0.007992009
159	0x3b70b1e5	0.0036727127
160	0x3cfdaf61	0.030967416
161	0x3ca1f2dd	0.019769127
162	0xbc176ac2	-0.009241762
163	0xbcb557b8	-0.022136554
164	0x3affc95b	0.0019514965
165	0xbce00ed5	-0.027350822
166	0xbc7632b6	-0.015026739
167	0x3c721d6c	0.0147775225
168	0xbc229232	-0.009922551
169	0xbcb0c3bc	-0.021577708
170	0xbc11656e	-0.00887428
171	0xbd0df7e4	-0.034660235
172	0x3b976932	0.0046206946
173	0x3ce0d503	0.027445322
174	0xbd093f30	-0.033507526
175	0x3cae6933	0.021290397
176	0xbc59cf5a	-0.013294065
177	0xb8c9023f	-9.584845e-05
178	0x3c819044	0.015815862
179	0x3ca9ffe7	0.020751907
180	0xbc93e304	-0.018052585
181	0xbbbdb703	-0.005789639
182	0xbc478ebc	-0.012180027
183	0xbd00db1b	-0.031458955
184	0xbc13b27a	-0.00901472
185	0x3c048a78	0.008089654
186	0xbc8c7a6c	-0.017148219
187	0xbce33b4c	-0.027738236
188	0x3c352465	0.01105604
189	0xbc7bf4e8	-0.015378214
190	0xbcbdd3cb	-0.02317228
191	0xbb64a6c3	-0.0034889437
192	0x3d18053a	0.03711436
193	0xba9abcf3	-0.0011805579
194	0x3ca28bb2	0.019842003
195	0xb9c0d7fa	-0.0003678201
196	0xbaec1b13	-0.001801344
197	0x3d64884b	0.05579404
198	0x3c57ab79	0.013163441
199	0x3cc8da9b	0.024518302
200	0x3d347e71	0.044065896
201	0xbb9f6653	-0.004864493
202	0x3d63a76e	0.055579595
203	0xbb33ee52	-0.0027455282
204	0x3c95075a	0.018191982
205	0xbb032e0b	-0.0020016457
206	0xbb39e449	-0.0028364828
207	0x3b98847d	0.0046544657
208	0x3cabc13e	0.020966168
209	0xbb9d2a47	-0.0047962996
210	0x3c36f5e3	0.011167022
211	0x3d295d26	0.0413486
212	0x3b95413d	0.004554896
213	0xbb94b39a	-0.0045380117
214	0x3cbf7252	0.023369942
215	0xbc02a0a4	-0.00797287
216	0x3c02428a	0.007950434
217	0x3c96b55a	0.018397022
218	0xbb212022	-0.0024585803
219	0x3bd7a294	0.00658066
220	0xbc08da05	-0.008352761
221	0x3d241480	0.040058613
222	0x3bf19953	0.007373014
223	0xbb891bfa	-0.0041842433
224	0x3d5ca213	0.053865504
225	0x3ce4af4a	0.027915616
226	0x3cce2b29	0.025167065
227	0x3cfe7ad4	0.031064428
228	0x3c67dbab	0.014151494
229	0xbb115b83	-0.002217979
230	0x3d232da1	0.039838437
231	0xbb34f4cd	-0.0027611733
232	0x3d19c437	0.03754064
233	0x3d1d4be3	0.03840245
234	0xbb686644	-0.0035461346
235	0xba95958f	-0.001141237
236	0x3b8369f5	0.004010434
237	0x3cc48b15	0.0239921
238	0x3c4edb22	0.0126254875
239	0xbb00482c	-0.0019574268
240	0x3ce75847	0.028240336
241	0xbb770d34	-0.0037697079
242	0x3c7d3d4e	0.015456511
243	0x3bcdb26a	0.006277372
244	0x3b7f081d	0.0038914748
245	0xb9af5f5a	-0.00033449644
246	0xbbe3fc46	-0.0069575636
247	0x3d215383	0.039386284
248	0xb82f2fd2	-4.1767787e-05
249	0x3ce6de30	0.02818212
250	0x3cd50365	0.026002595
251	0xbbb6a10a	-0.0055733966
252	0x3c244c85	0.010028009
253	0xbbfa09bb	-0.0076305545
254	0x3be100fc	0.0068665724
255	0xbab55338	-0.0013834005

bias f4 [160]
0	0xb73024e9	-1.0499011e-05
1	0x36ad9f46	5.1743436e-06
2	0x373d7c42	1.1294209e-05
3	0xb6208dbd	-2.392436e-06
4	0xb7c4dfbc	-2.3469205e-05
5	0x36fc2fe4	7.5157604e-06
6	0x360561d9	1.98755e-06
7	0x337522a8	5.7075027e-08
8	0x36b10039	5.275037e-06
9	0xaf0ec258	-1.298387e-10
10	0x37e4dfa9	2.7283868e-05
11	0x37aeb0a1	2.0824666e-05
12	0x378f67d1	1.7095272e-05
13	0x382e1968	4.1508494e-05
14	0x37b17767	2.1155645e-05
15	0x36277bc7	2.4956987e-06
16	0x36429cc6	2.8999507e-06
17	0x3780edab	1.5369462e-05
18	0xace7716b	-6.578007e-12
19	0x3356282a	4.9862287e-08
20	0xb69e1179	-4.710801e-06
21	0x373028c1	1.0499906e-05
22	0x3742128a	1.1567618e-05
23	0x372df670	1.0368982e-05
24	0x381304d5	3.505203e-05
25	0xb1e5415e	-6.6722086e-09
26	0x37a13bb9	1.9220506e-05
27	0xb716c68f	-8.986927e-06
28	0x38294833	4.035998e-05
29	0x36f720d9	7.3649976e-06
30	0x369b352b	4.6255495e-06
31	0x369e6de4	4.72156e-06
32	0x36c76d82	5.9434105e-06
33	0x378150b5	1.541558e-05
34	0xb5356276	-6.7571034e-07
35	0x37de4a84	2.6499161e-05
36	0xb5e300c4	-1.6913041e-06
37	0x37fdde30	3.0263414e-05
38	0xb7948643	-1.7705495e-05
39	0x37d35b21	2.5195595e-05
40	0x3668fada	3.4716709e-06
41	0xb58b3c7c	-1.037391e-06
42	0xb5d56747	-1.5899794e-06
43	0x374d6e95	1.2244699e-05
44	0xb696aacb	-4.4902313e-06
45	0x00012aa4	1.07132e-40
46	0x376bda19	1.4057871e-05
47	0x380d2003	3.3646833e-05
48	0x37adaa73	2.0702579e-05
49	0xb6ae8b9a	-5.201856e-06
50	0xb7c54904	-2.351823e-05
51	0xb6be18df	-5.6653366e-06
52	0x373ffb66	1.144302e-05
53	0xb722c9cb	-9.702936e-06
54	0x36ba5992	5.5536593e-06
55	0x367c9cf4	3.7642285e-06
56	0xb4d39447	-3.94097e-07
57	0x3704265c	7.876744e-06
58	0x2da06ef6	1.823917e-11
59	0xb80cb80c	-3.3550008e-05
60	0x376b3efa	1.4021754e-05
61	0xb7a180eb	-1.9252728e-05
62	0x36587e92	3.2260182e-06
63	0xb7a7096e	-1.9912342e-05
64	0xb7453fcc	-1.1756969e-05
65	0xb74eb000	-1.2319535e-05
66	0x380ad01a	3.3095574e-05
67	0xb7834777	-1.5649695e-05
68	0xb5cad5ed	-1.5112433e-06
69	0x368d0e8f	4.2038223e-06
70	0x3664088b	3.397962e-06
71	0x378f125a	1.7055474e-05
72	0x37c065dd	2.2935617e-05
73	0x3829d116	4.0487466e-05
74	0xb32142e0	-3.7546556e-08
75	0xb6fbd9c6	-7.505735e-06
76	0x37c78176	2.3782934e-05
77	0xb80390ef	-3.1367814e-05
78	0x36d79782	6.425137e-06
79	0x37804cb8	1.5294514e-05
80	0x381f6d09	3.80101e-05
81	0xb2003158	-7.4618e-09
82	0x3640fe57	2.8758275e-06
83	0x3629c38c	2.5296786e-06
84	0xb654a66b	-3.168733e-06
85	0x37cfd44b	2.477518e-05
86	0x37249a39	9.8110695e-06
87	0x37529a1b	1.2552856e-05
88	0x3243a4d9	1.1387976e-08
89	0x37a8ca81	2.0121459e-05
90	0x37a614c0	1.9798405e-05
91	0x37c62ef3	2.3625302e-05
92	0xb6bab693	-5.5644864e-06
93	0x35f19b98	1.8001183e-06
94	0xb784a5d2	-1.5812842e-05
95	0x38442869	4.6767676e-05
96	0x35da27ef	1.6253888e-06
97	0xb55549fc	-7.9456345e-07
98	0x372c5072	1.0270729e-05
99	0x33bccef3	8.792076e-08
100	0x37012aca	7.698962e-06
101	0xb7b9cb18	-2.2148291e-05
102	0x35a1fbb5	1.2068691e-06
103	0x372bc40e	1.0238042e-05
104	0x368b99bc	4.16042e-06
105	0x363f7c88	2.8533705e-06
106	0x360e600a	2.121555e-06
107	0x37102f21	8.594042e-06
108	0x37020ee4	7.752071e-06
109	0x279478df	4.12093e-15
110	0x36854ecd	3.9728825e-06
111	0xb7082e30	-8.116986e-06
112	0xb68e6eb8	-4.244819e-06
113	0xb6cd17d7	-6.1122514e-06
114	0xb503dfe5	-4.912711e-07
115	0x373cf581	1.1262834e-05
116	0x170f89b4	4.63796e-25
117	0xb5fa7370	-1.8660048e-06
118	0x370ded87	8.459559e-06
119	0xb6717158	-3.5977773e-06
120	0x36cfcb5e	6.192756e-06
121	0x3808a33b	3.2576947e-05
122	0xb647902a	-2.9737225e-06
123	0x37a3eb02	1.9540548e-05
124	0x37d97bb4	2.592602e-05
125	0xb6b8d372	-5.508243e-06
126	0xb62997ff	-2.5271436e-06
127	0x374180da	1.1533697e-05
128	0x35a5365b	1.2309278e-06
129	0x381c5acc	3.727786e-05
130	0x28356235	1.0068814e-14
131	0x3707cd97	8.094495e-06
132	0x36d84c8a	6.446212e-06
133	0x3737508b	1.0926403e-05
134	0x3733a642	1.0707941e-05
135	0x367880a1	3.7029752e-06
136	0x36a80d9e	5.0083754e-06
137	0x37c844f1	2.3873961e-05
138	0x3698f210	4.558133e-06
139	0x37b98480	2.2115419e-05
140	0xb68d5495	-4.211974e-06
141	0xb6cb818d	-6.064953e-06
142	0x3786861e	1.6036498e-05
143	0x372ee0c7	1.0423543e-05
144	0xb682ca36	-3.8978424e-06
145	0xb30f9064	-3.3426105e-08
146	0x363fa735	2.8558545e-06
147	0xb84529b6	-4.7007306e-05
148	0xb6641e53	-3.3992299e-06
149	0x375d0a07	1.3174961e-05
150	0x37541a08	1.2642246e-05
151	0xb6a95779	-5.0467756e-06
152	0x37b71732	2.1826101e-05
153	0xb738f308	-1.102384e-05
154	0x379e4fcd	1.8872228e-05
155	0xb69e0b1d	-4.7100607e-06
156	0xb790ebed	-1.7276e-05
157	0xb7d74274	-2.5660942e-05
158	0x375181e3	1.2487612e-05
159	0xb7ee25b4	-2.8389368e-05

weight f4 [160, 192]
0	0xbb6eac18	-0.0036418494
1	0xb9d720be	-0.0004103239
2	0xbb569226	-0.003274092
3	0xb913c9c6	-0.00014094179
4	0xba7fa1a7	-0.0009751566
5	0xbc8dd7d1	-0.017314823
6	0x3b8de1b2	0.0043298835
7	0xbd9fad8c	-0.07796773
8	0x3cd853d1	0.026407154
9	0xbc2d3244	-0.010571066
10	0x3c53c4c9	0.012925335
11	0xbbbf34bf	-0.0058351452
12	0x3cb46aa9	0.022023516
13	0xbb111218	-0.002213603
14	0xbb2e12a9	-0.0026561415
15	0x3b6e2d4b	0.0036342915
16	0xbd61d7de	-0.055137508
17	0xbb519487	-0.0031979398
18	0x3c6f968f	0.014623298
19	0xbc881ab6	-0.0166143
20	0x3c958144	0.018250115
21	0xbc5652e1	-0.013081283
22	0x3cde1175	0.027107934
23	0xbbe3392d	-0.006934306
24	0xbc3066f5	-0.010766734
25	0x3c00ac03	0.007853511
26	0xbab393c8	-0.0013700658
27	0xbd5741cc	-0.052552983
28	0xbc3001d0	-0.01074262
29	0x3be1fb69	0.0068964255
30	0xba80c7d8	-0.0009825183
31	0xbaa7010d	-0.0012741402
32	0xbb6a0a16	-0.0035711578
33	0xbd85d902	-0.065355316
34	0xbdd29cd1	-0.102838166
35	0x38d8abde	0.000103316954
36	0xbc6270fd	-0.013820884
37	0xbbd14ce6	-0.006387341
38	0xbc0826ce	-0.008310033
39	0xbafaffa5	-0.0019149674
40	0x3cadfb85	0.021238098
41	0xbde4787f	-0.11155795
42	0xba23c54f	-0.0006247358
43	0xba23872f	-0.00062381005
44	0xbbbadb59	-0.005702418
45	0xbd848e0e	-0.06472407
46	0xbd3b22d6	-0.04568752
47	0x3aa0d3d5	0.0012270162
48	0xbdd0020b	-0.1015664
49	0xb9abbc6b	-0.00032756044
50	0xbcd1faa5	-0.025632212
51	0x3b89fb7d	0.004210888
52	0xbbb8a7ee	-0.005635253
53	0x398afe45	0.00026510857
54	0xbbbd41d7	-0.005775671
55	0x3c51f197	0.012813947
56	0xb7c9fab2	-2.4077806e-05
57	0xbc9e2489	-0.01930453
58	0xbbe4ce34	-0.006982589
59	0xbb57dc41	-0.0032937678
60	0x3bd0f5bb	0.0063769496
61	0xbc2f6041	-0.010704101
62	0xbc3fa1a8	-0.011696257
63	0xbac47c45	-0.0014990648
64	0xb6d0c892	-6.2222325e-06
65	0xbbcdba43	-0.0062783076
66	0xb9b7267d	-0.00034933156
67	0x3bbcd92e	0.0057631945
68	0x3c1c288d	0.009531152
69	0x3c269124	0.01016644
70	0xb9cd3bef	-0.000391453
71	0xbdc8b778	-0.09800619
72	0xbc642346	-0.0139244255
73	0xba88e28c	-0.0010443493
74	0xbd6ce27d	-0.057833184
75	0xbc8fdc37	-0.017561061
76	0x3d99e522	0.07514407
77	0xbc04f0b8	-0.008114032
78	0xbbdcaf24	-0.0067347456
79	0x3c3e3c7f	0.011611103
80	0xbc8b6c12	-0.017019305
81	0xbc20327c	-0.009777661
82	0xbd3b45f2	-0.045721002
83	0xbdb7eeff	-0.08981132
84	0xbc06e629	-0.008233585
85	0x3d1c5474	0.03816648
86	0x3c25d912	0.010122554
87	0x3dd727ee	0.10505663
88	0xbc607d7d	-0.013701794
89	0xbc82be17	-0.015959783
90	0xbc1e5dbf	-0.0096659055
91	0xbb4031b6	-0.0029326505
92	0x3996c81e	0.00028759328
93	0x3d759c84	0.059963718
94	0xba90f7de	-0.0011060198
95	0xbbb14451	-0.0054097553
96	0xbc2f5a38	-0.010702662
97	0xbc0ed853	-0.008718568
98	0xbc16afa1	-0.009197147
99	0x3d5675a7	0.052358296
100	0xbdc3f006	-0.09567265
101	0x39c31259	0.00037206968
102	0x31d1d743	6.107173e-09
103	0x3c5d75e7	0.01351688
104	0x3da8ae6e	0.08236395
105	0xbbbfbf66	-0.005851674
106	0xbda04779	-0.07826132
107	0x3d26f944	0.040765062
108	0xbc4dd0ea	-0.012562016
109	0xb9d07466	-0.00039759575
110	0xbb3b726c	-0.0028602136
111	0x3b520baa	0.003205041
112	0xbc36d43c	-0.011158999
113	0xbb69251e	-0.0035575102
114	0x3ce1f405	0.027582178
115	0x3beafa0f	0.0071709226
116	0xbd602450	-0.05472213
117	0xbbd5af55	-0.0065211453
118	0xbb650262	-0.0034944047
119	0xbb80f23d	-0.003935127
120	0x3b2438fe	0.0025058384
121	0x3d4ba6f6	0.049719773
122	0x3d5aa7fc	0.05338286
123	0x3c86db57	0.016462011
124	0xbaad2d14	-0.0013212287
125	0xbbd7062e	-0.006562016
126	0xbc41fb2f	-0.011839672
127	0xba0410e7	-0.0005037919
128	0x3d113357	0.035449352
129	0xbc27a1d5	-0.010231455
130	0x3d589fb6	0.052886687
131	0x3a60a0ab	0.0008568863
132	0x3b9cc0ae	0.0047837114
133	0xba84ceb1	-0.00101324
134	0xbbc10257	-0.0058901715
135	0xbc200a36	-0.0097680595
136	0xbb336bef	-0.0027377566
137	0xbadaff54	-0.0016708174
138	0xbb8c1964	-0.0042754877
139	0xbbcad4e1	-0.006189928
140	0xbd0cb58e	-0.03435283
141	0xbb9b647b	-0.004742203
142	0x3d153c7f	0.036434647
143	0xbc048c27	-0.008090056
144	0x3cb4dc66	0.02207775
145	0x3982e3ad	0.00024965164
146	0x3ba91bac	0.0051607694
147	0xba701899	-0.0009158939
148	0xb98216aa	-0.00024812418
149	0x3cc3688e	0.023853566
150	0x3d7182f3	0.058962774
151	0xbdafa9d6	-0.085773155
152	0x3b5888b0	0.0033040456
153	0xbc27dc2b	-0.010245363
154	0x3c8192ee	0.015817132
155	0xba8f6f4c	-0.0010943203
156	0xbc69f503	-0.014279607
157	0x3d6b4792	0.0574413
158	0xbaac2f9a	-0.0013136745
159	0x3cad7d30	0.021177858
160	0x3d87d251	0.066319115
161	0xbce6efbc	-0.028190486
162	0x3cd84830	0.02640161
163	0xbc837036	-0.016044717
164	0x3bff16b9	0.007784691
165	0xbc4083a5	-0.0117501365
166	0x3c12113d	0.008915243
167	0xbdce4cfa	-0.10073276
168	0xbbd53b2c	-0.006507298
169	0xbb512e9a	-0.0031918646
170	0xbb608b08	-0.0034262557
171	0xbc970aa6	-0.018437695
172	0xbdcdd324	-0.100500375
173	0x3b2d9a51	0.0026489685
174	0xbc839e0f	-0.01606658
175	0xbc226968	-0.009912826
176	0xbbbf6fb6	-0.0058421744
177	0xb6c10774	-5.752716e-06
178	0xbc87ea00	-0.016591072
179	0x3ca7be91	0.020476611
180	0xbc53b8d9	-0.012922489
181	0xbc134882	-0.008989455
182	0x3d04b61e	0.032400243
183	0x3c136f7b	0.008998747
184	0xbb7fad67	-0.0039013268
185	0xbdacdc9b	-0.08440515
186	0x3d04ea0d	0.03244977
187	0x3d7463d1	0.059665505
188	0x3d401b7b	0.046901207
189	0x3d6c70a7	0.05772462
190	0xbc74ff65	-0.014953469
191	0xb9675952	-0.00022063151
192	0xbc2c45b0	-0.010514662
193	0x38bb1818	8.921343e-05
194	0x3b0b40b2	0.0021248278
195	0xb86c5752	-5.6348108e-05
196	0xba78e4d5	-0.0009494548
197	0xbc34fd24	-0.011046682
198	0xbbc54653	-0.006020346
199	0xbcbce9fc	-0.023060791
200	0x3bd622df	0.0065349187
201	0xbbc4a68f	-0.0060013006
202	0xbaa1e693	-0.0012352042
203	0x399edcff	0.00030300763
204	0x3cbce1b4	0.023056842
205	0xb9713f97	-0.0002300724
206	0xba4ed8b0	-0.00078905653
207	0x3b91d2bb	0.00445017
208	0xbca531a6	-0.020165276
209	0xbbbfe11f	-0.005855694
210	0x3b9ce968	0.0047885664
211	0xbbd4dc09	-0.006495957
212	0x3bba8427	0.0056920233
213	0xbbfdf123	-0.007749693
214	0x3c8ffa3f	0.017575381
215	0xb906d438	-0.00012858293
216	0x3b1630e0	0.0022917315
217	0x3c0c7de5	0.0085749375
218	0xba2a23f8	-0.0006490345
219	0xbceaa4e8	-0.028643087
220	0xbbccc659	-0.006249231
221	0x3c18c821	0.009325058
222	0xbba55d51	-0.0050465246
223	0x3b3a70bc	0.0028448543
224	0xbc79b000	-0.015239716
225	0xbc2e8fd7	-0.010654411
226	0xbc36cd15	-0.011157294
227	0xbbc0e440	-0.0058865845
228	0xbb830f39	-0.0039996174
229	0xbc0f4ab8	-0.008745842
230	0x3bb3da6e	0.0054886853
231	0xba9320cb	-0.0011224983
232	0x3c4b393d	0.012403783
233	0xbcef45ad	-0.029208029
234	0xb94350b2	-0.0001862671
235	0xb9c220e9	-0.00037027083
236	0xbb923581	-0.0044619446
237	0xbc9e1f45	-0.01930202
238	0xbbbcbc9a	-0.0057597877
239	0xbbc06474	-0.00587135
240	0xbcdb48ba	-0.026768077
241	0xbbdaaea2	-0.00667365
242	0xbc7af9db	-0.015318359
243	0xbc488844	-0.0122395195
244	0x3ad633ae	0.0016342306
245	0x38ba9e2c	8.898633e-05
246	0xbb6931d5	-0.003558268
247	0x3a8f39b1	0.0010927228
248	0xb7b675b7	-2.1750906e-05
249	0x3c8a250d	0.01686337
250	0xbc428e0b	-0.011874686
251	0x3aa5fecd	0.0012664438
252	0xbba6dcd8	-0.0050922446
253	0xbc0fb4a6	-0.008771097
254	0x3a119c33	0.00055545865
255	0xba1c820a	-0.0005970305

weight f4 [192]
0	0xbbd64f0e	-0.006540186
1	0x3d8d5aec	0.069021076
2	0x3d2d656f	0.042333063
3	0xb99f98c6	-0.00030440668
4	0x3d81533c	0.06314704
5	0x3cdc88c5	0.026920686
6	0x3e47842c	0.19484013
7	0x3dea76d6	0.114484474
8	0x3dae5854	0.08512941
9	0x3e0423bd	0.12904258
10	0x3db5230a	0.08844574
11	0x3e2538ec	0.16134995
12	0x3e805fee	0.2507319
13	0x3d7fae2a	0.062421955
14	0x3e415e2b	0.18883578
15	0x3df311e4	0.11868647
16	0x3e87d3ca	0.2652877
17	0x3e2cb2b6	0.16865048
18	0x3ddce6fa	0.10786243
19	0x3d8ab2f1	0.067724116
20	0x3df5ffda	0.120116904
21	0x3e34dea4	0.17663056
22	0x3e2001ed	0.15625735
23	0x3da509e2	0.080585256
24	0x3e195d74	0.14977056
25	0x3d33247b	0.043735962
26	0x3dc7f09d	0.0976269
27	0x3da3d108	0.07998854
28	0x3e3a84fd	0.18214794
29	0x3e22b959	0.15891017
30	0x3dd9337b	0.10605522
31	0x3d8a1618	0.06742495
32	0x3d316574	0.043309644
33	0x3e823eb4	0.25438464
34	0x3ec34255	0.38136545
35	0x3c181a42	0.009283604
36	0x3e6a83dc	0.22901863
37	0x3e21ac3a	0.15788355
38	0x3d976380	0.07392025
39	0x3cb7a421	0.02241713
40	0x3e61c1a8	0.2204653
41	0x3eaff4c2	0.34366423
42	0x3db97b42	0.09056713
43	0x3d553bbe	0.052058928
44	0x3e1c930d	0.1529047
45	0x3df09ba8	0.11748439
46	0x3e906250	0.28200006
47	0x3e306b8c	0.17228526
48	0x3ebbdaf4	0.36690485
49	0x3c46a017	0.012123129
50	0x3b954fc0	0.004556626
51	0xbc804b33	-0.015660858
52	0x3df93e9b	0.12170144
53	0x3a99d96e	0.0011737773
54	0x3d31a937	0.043374266
55	0x3d2e5c18	0.042568296
56	0x3a70d861	0.00091875164
57	0x3ea2eea7	0.31822702
58	0x3cf8f203	0.030388838
59	0x3d4883f7	0.048953976
60	0x3e3c658a	0.18398109
61	0x3dfe02e1	0.12402893
62	0x3e8f7bef	0.2802424
63	0x3df6f908	0.12059218
64	0x3c0eaaa7	0.008707679
65	0x3e3092c0	0.1724348
66	0x3e154376	0.14576516
67	0x3db20ee9	0.0869425
68	0x3e5757cf	0.2102959
69	0x3e1c7d58	0.1528219
70	0x3d1535d9	0.036428306
71	0x3ed4838b	0.4150661
72	0x3e4eff2d	0.2021453
73	0x3dec2ac9	0.11531598
74	0x3d97f0d5	0.07418982
75	0xbad6b9d7	-0.0016382289
76	0x3ea26259	0.31715658
77	0x3da50cca	0.0805908
78	0x3e2493ed	0.16072054
79	0x3e694097	0.22778545
80	0x3e66112e	0.22467491
81	0x3e1350e6	0.14386329
82	0x3d178558	0.0369924
83	0x3e869cbd	0.26291457
84	0x3dc4ad37	0.096033506
85	0x3e645d9f	0.22301339
86	0x3c9ab39f	0.018884478
87	0x3eb39529	0.35074738
88	0x3d9844d3	0.07435002
89	0x3e75b57c	0.23995012
90	0x3da6ba89	0.081410475
91	0x3e2269a3	0.1586061
92	0x3d0c8768	0.03430882
93	0x3e460145	0.19336422
94	0x3cd58256	0.026063126
95	0x3e1d0019	0.15332069
96	0x3e1fa1ce	0.15589067
97	0x3ddf5fb0	0.10906923
98	0x3e046801	0.129303
99	0x3e829f77	0.25512287
100	0x3e6b4168	0.22974169
101	0x3cad56c1	0.021159532
102	0x364cf975	3.0543572e-06
103	0x3e1adec4	0.15124041
104	0x3e845c86	0.2585184
105	0x3d72edcb	0.05930881
106	0x3e0f83bf	0.14015101
107	0x3e23b9f0	0.15988898
108	0x3e0b2c51	0.13591124
109	0x3d303f9c	0.043029413
110	0x3d94bede	0.072629675
111	0x3c56837e	0.013092874
112	0x3e2941ae	0.16528961
113	0x396e76e8	0.00022741745
114	0x3e6290b0	0.22125506
115	0x3df4add2	0.11947216
116	0x3e879e4f	0.26487967
117	0x3df0b992	0.11754145
118	0x3e44b6bb	0.19210331
119	0x3da97cb8	0.08275741
120	0x3d631bce	0.05544644
121	0x3ee8112e	0.45325607
122	0x3e41b797	0.1891769
123	0x3e0b294c	0.13589972
124	0x3dd3e2f4	0.10346022
125	0x3e48ecac	0.19621533
126	0x3e398790	0.18118119
127	0x3cd0890e	0.025455978
128	0x3e987a8f	0.29781005
129	0x3db39c3b	0.08770033
130	0x3e33dafc	0.17564005
131	0x3dcd8bf4	0.100364596
132	0x3da01d94	0.078181416
133	0x3e366318	0.17811239
134	0x3da9705f	0.08273386
135	0x3d2231a7	0.039598133
136	0x3e208b87	0.15678225
137	0x3dd5e69c	0.10444376
138	0x3d98eb4e	0.07466756
139	0x3da5f36b	0.08103069
140	0x3ca14373	0.019685483
141	0x3e1af04f	0.15130733
142	0x3e25ecd1	0.1620362
143	0x3d8e1150	0.06936896
144	0x3da67940	0.08128595
145	0x3e2abb17	0.16672932
146	0x3def5d3c	0.11687705
147	0x3d566924	0.052346364
148	0x3cddfc41	0.027097823
149	0x3df0ef86	0.117644355
150	0x3eb30a2a	0.34968692
151	0x3ebf98f6	0.37421387
152	0x3e0fafb7	0.14031874
153	0x3e87f18b	0.2655147
154	0x3e4d84e7	0.2007023
155	0x3e5b0350	0.21387982
156	0x3e3c5426	0.18391475
157	0x3d847e50	0.06469405
158	0x3d0b0862	0.03394354
159	0x3e3fc1cb	0.1872627
160	0x3e0da754	0.13833362
161	0x3ea458e5	0.3209907
162	0x3e215e47	0.1575862
163	0x3de529b0	0.11189592
164	0x3e027464	0.12739712
165	0x3e3fd10f	0.18732093
166	0x3df3aeae	0.11898552
167	0x3ed6ad14	0.41928923
168	0x3d89d3c7	0.067298464
169	0x3e5968eb	0.2123143
170	0x3e381339	0.17976083
171	0x3e358f58	0.17730463
172	0x3edff6d3	0.43743
173	0x3da5cf6d	0.08096204
174	0x3e50c0e5	0.20386083
175	0x3d0deaff	0.034647938
176	0x3dc5d3e6	0.09659557
177	0x3a1a5b19	0.00058882084
178	0x3cc2adc9	0.023764508
179	0x3e1150d0	0.14190984
180	0x3e394842	0.1809397
181	0x3cf9c2b2	0.030488346
182	0x3e84c51f	0.2593164
183	0x3e682e57	0.22673927
184	0x3e24967a	0.16073027
185	0x3e97af68	0.29626012
186	0x3e9c8244	0.30568135
187	0x3e923d7e	0.2856254
188	0x3e2d5a5a	0.16928998
189	0x3e760bb0	0.24027896
190	0x3e550f6f	0.20806669
191	0x3d80850c	0.06275377

bias f4 [192]
0	0x3ddb6092	0.10711779
1	0xbdc50436	-0.09619944
2	0x3dd29141	0.10281611
3	0xbc598b30	-0.013277814
4	0xbd9f3833	-0.07774391
5	0x3df2aee6	0.118497655
6	0xbe415363	-0.18879466
7	0x3e060df0	0.13091254
8	0x3e0305b7	0.12795149
9	0xbdb2399f	-0.087023966
10	0x3e14e5c0	0.14540768
11	0xbe8610a4	-0.2618457
12	0xbe307db8	-0.17235458
13	0xbdf67e94	-0.120358616
14	0xbe8a64f2	-0.2703014
15	0xbe3506d9	-0.17678393
16	0x3d838a9d	0.06422923
17	0xbdf31d3e	-0.11870812
18	0xbd957332	-0.072973624
19	0x3e096365	0.13416822
20	0xbddc76fe	-0.107648835
21	0xbe07db3c	-0.13267225
22	0xbe1cb92a	-0.1530501
23	0xbe1a3f9d	-0.15063329
24	0xbddd0ed8	-0.10793847
25	0x3daecded	0.08535371
26	0xbe262d1e	-0.16228148
27	0x3e048f73	0.12945347
28	0xbe12b011	-0.14324977
29	0x3e2c54f3	0.1682928
30	0xbd946a81	-0.072468765
31	0xbe11ae72	-0.14226702
32	0x3e16572d	0.14681692
33	0x3e0ed780	0.13949394
34	0x3e3364d7	0.17518936
35	0x3d831d2d	0.06402049
36	0xbebec1ad	-0.37257138
37	0xbde084d9	-0.10962839
38	0x3de5ee1c	0.112270564
39	0xbd6f5bf7	-0.058437314
40	0xbd9cd692	-0.076581135
41	0x3e29249a	0.16517869
42	0xbe21210a	-0.1573526
43	0xbd722cb4	-0.059124663
44	0xbe125f67	-0.14294206
45	0x3db80f20	0.0898726
46	0xbed081da	-0.4072407
47	0xbe25b44a	-0.16182056
48	0x3e1e6b59	0.15470637
49	0x3d95ad39	0.0730843
50	0x3db3b02a	0.08773835
51	0x3dc5548c	0.09635267
52	0xbe56b643	-0.20967965
53	0xbd14f7b7	-0.03636905
54	0xbd914624	-0.070934564
55	0x3da9c2a9	0.082890816
56	0xbb518cd0	-0.00319748
57	0x3e08b36f	0.13349698
58	0x3dded629	0.108806916
59	0xbde6acf9	-0.11263461
60	0xbe32f71a	-0.17477074
61	0xbe4e9f5d	-0.2017798
62	0xbee022f8	-0.4377668
63	0xbe61c5dc	-0.22048134
64	0xbc2cfb63	-0.010557982
65	0xbe8bfe2c	-0.27342355
66	0xbe27cf37	-0.1638764
67	0xbd97e469	-0.07416613
68	0xbe296407	-0.16542064
69	0xbdf86955	-0.121294655
70	0xbd91bfd7	-0.07116669
71	0x3e2ef4cb	0.17085569
72	0xbeaf05fc	-0.34184253
73	0xbe14fc3a	-0.14549342
74	0x3debcffe	0.11514281
75	0x3dbcb480	0.09214115
76	0xbd814b56	-0.06313197
77	0xbe0e475f	-0.13894413
78	0xbe426fd3	-0.1898797
79	0xbe87b56e	-0.26505607
80	0xbe137483	-0.14399914
81	0xbe4cb08d	-0.19989224
82	0x3d8a0e3c	0.06740996
83	0x3e0e1498	0.13875043
84	0xbe215cc3	-0.15758042
85	0xbc8bc813	-0.017063176
86	0x3d8a32ba	0.067479566
87	0xb9fbb708	-0.0004801082
88	0xbe00ee86	-0.1259099
89	0xbe401ec6	-0.18761739
90	0xbe247d5b	-0.16063444
91	0xbe8a3561	-0.2699385
92	0xbd44a2cc	-0.048006818
93	0x3c82ccba	0.015966762
94	0xbd7e3952	-0.062066384
95	0xbe4b004a	-0.19824329
96	0xbe93cb6e	-0.28866142
97	0xbe467253	-0.19379549
98	0xbdc91c37	-0.09819835
99	0xbd0a3a2c	-0.033746883
100	0x3e017017	0.12640415
101	0xbd87dccf	-0.06633913
102	0xb61163fb	-2.166488e-06
103	0xbe273bdf	-0.16331433
104	0x3d3d36cf	0.046194848
105	0xbdddbb20	-0.10826707
106	0x3e0a4cd5	0.13505872
107	0xbc52fb9c	-0.012877371
108	0xbe657887	-0.22409259
109	0xbd933d24	-0.07189396
110	0xbdfc931b	-0.12332746
111	0x3d8c12f9	0.06839556
112	0xbe03c6e2	-0.12868837
113	0x3daf72e0	0.085668325
114	0xbdb3c031	-0.08776892
115	0xbde51706	-0.11186032
116	0x3e01b5c0	0.12666988
117	0xbe392f68	-0.1808449
118	0xbe213017	-0.15741001
119	0xbe0d7a1d	-0.13816114
120	0x3ddba088	0.10723978
121	0xbd02898c	-0.031869456
122	0xbdea9251	-0.11453689
123	0xbd792ada	-0.060831882
124	0xbe32e6dc	-0.17470878
125	0xbe47b4f7	-0.19502626
126	0xbe9a8e47	-0.30186674
127	0xbd646fa3	-0.055770528
128	0xbdbaa76e	-0.09113966
129	0xbe16ee63	-0.14739375
130	0xbcb4a017	-0.022048993
131	0xbe57bacb	-0.2106735
132	0xbe08b2aa	-0.13349405
133	0xbe744b13	-0.23856764
134	0xbe1667e3	-0.14688067
135	0xbdc18656	-0.09449451
136	0xbe82594e	-0.2545876
137	0xbe20cd95	-0.15703423
138	0xbe30aca9	-0.17253365
139	0xbe04dd9a	-0.1297516
140	0x3db7dab7	0.089772634
141	0xbe3ab844	-0.18234354
142	0xbc90a95f	-0.017658887
143	0xbe0135f9	-0.12618245
144	0x3e153da1	0.14574291
145	0xbe6ed644	-0.23323923
146	0xbe14acae	-0.14518997
147	0xbdc090f4	-0.094026476
148	0xbd4f29f5	-0.050577123
149	0xbd38baf4	-0.045100167
150	0xbd71a23c	-0.05899261
151	0x3e251374	0.16120702
152	0xbe03e21c	-0.12879223
153	0xbeb9a877	-0.3626134
154	0xbe3dde38	-0.18541801
155	0xbe16f5b6	-0.14742169
156	0xbe7abbc1	-0.24485685
157	0x3dac1082	0.08401586
158	0xbd9f6b53	-0.07784142
159	0xbc3473c0	-0.011013925
160	0x3e173386	0.14765748
161	0x3e223944	0.15842158
162	0xbda778de	-0.081773505
163	0xbe4b96d9	-0.19881763
164	0xbdc0a2f0	-0.09406078
165	0xbdf9333a	-0.12167974
166	0xbde24200	-0.11047745
167	0x3e2ddf73	0.1697977
168	0xbe125824	-0.14291435
169	0xbe4cc0da	-0.19995442
170	0xbe22c696	-0.15896067
171	0xbea2924e	-0.31752247
172	0x3e2b06c0	0.16701794
173	0x3e267fae	0.16259643
174	0xbe27781f	-0.16354416
175	0x3daad08f	0.08340561
176	0xbe30eff6	-0.17279038
177	0xbb48a4ee	-0.0030615884
178	0x3e1d0fb9	0.15338029
179	0x3e184549	0.1487018
180	0xbdffe1da	-0.1249425
181	0xbd5cd5c2	-0.053914793
182	0xbdfe5b46	-0.12419753
183	0xbe3ae952	-0.18253067
184	0xbe145364	-0.14484936
185	0x3e09b93b	0.13449566
186	0xbdd8a65a	-0.10578604
187	0xbe158487	-0.14601336
188	0x3e13e2c2	0.1444197
189	0xbdad2448	-0.08454186
190	0xbe9f0675	-0.31059614
191	0xbe0563b3	-0.13026313
